Project2/experiment/model_1_1.pt (torch, 143155 bytes, 37 tensors)

prior.mean f4 [2]
0	0x00000000	0.0
1	0x00000000	0.0

prior.std f4 [2]
0	0x3f800000	1.0
1	0x3f800000	1.0

decoders.0.decoder_net.0.weight f4 [512, 2]
0	0x3e149bbf	0.14512537
1	0xbef3e346	-0.47634333
2	0xbe8efa16	-0.27925175
3	0x3eea6940	0.45783424
4	0x3ebe62ca	0.37184745
5	0x3eaf78e9	0.34271935
6	0x3e6cd52f	0.23128198
7	0xbe892d43	-0.26792344
8	0x3eeccc40	0.4624958
9	0x3ea11e00	0.314682
10	0xbe9bc698	-0.30424953
11	0xbe8ddf84	-0.2770959
12	0x3eea7417	0.45791695
13	0xbf1880b4	-0.59571385
14	0x3f41525d	0.755163
15	0xbd02cbe6	-0.031932734
16	0xbdd0b470	-0.10190666
17	0x3eff16d9	0.4982212
18	0xbf2e20e0	-0.68018913
19	0x3c0cfd98	0.008605383
20	0xbec2317d	-0.37928382
21	0x3e0bf652	0.13668182
22	0xbe4e9147	-0.20172606
23	0xbeb4ded7	-0.35326263
24	0x3eea6af6	0.4578473
25	0xbd8953b0	-0.06705415
26	0xbdf82f85	-0.12118439
27	0xbf4c18b9	-0.79725224
28	0xbe7fdb20	-0.24985933
29	0xbe77758b	-0.24165933
30	0x3f2fabe5	0.68621665
31	0xbe4c330f	-0.19941352
32	0xbf511376	-0.8167032
33	0xbc8bed8c	-0.017081045
34	0x3e9f537e	0.31118387
35	0x3e00fd7e	0.125967
36	0xbf1840d4	-0.5947392
37	0x3e0dae29	0.13835968
38	0xbeff791c	-0.49897087
39	0xbf0e3eb9	-0.5556446
40	0xbe771fe6	-0.24133262
41	0xbef3faa5	-0.47652164
42	0xbf05ce88	-0.52268267
43	0xbd3fdf40	-0.046843767
44	0xbe67b42f	-0.22627328
45	0x3eb84136	0.35987252
46	0x3f05ff8b	0.5234305
47	0xbf2096d0	-0.6273012
48	0x3f01b7df	0.5067119
49	0x3e681aad	0.22666426
50	0xbe399400	-0.18122864
51	0xbf051b47	-0.51994747
52	0xbe0d5469	-0.13801731
53	0x3f397690	0.72446537
54	0x3f116a43	0.5680277
55	0xbee0dc98	-0.439183
56	0x3ebe0c77	0.37118885
57	0x3e86518c	0.2623409
58	0x3e2fa673	0.17153339
59	0x3e82ae92	0.25523812
60	0x3e8eda84	0.2790109
61	0x3edf3d75	0.43601575
62	0x3f14e676	0.58164155
63	0xbcb96226	-0.022629809
64	0xbede51b3	-0.43421707
65	0xbe943d52	-0.28953034
66	0xbef3abd1	-0.47592023
67	0x3dda2d7f	0.10653209
68	0xbf2f277f	-0.6841964
69	0x3e948656	0.2900874
70	0xbe2bccc8	-0.16777337
71	0xbf1097d4	-0.5648167
72	0x3eafaa98	0.3430984
73	0xbe54ea1e	-0.20792434
74	0xbdbfa5a8	-0.09357768
75	0xbf114c51	-0.56757075
76	0xbf018fd7	-0.5061011
77	0xbec1e469	-0.37869576
78	0x3f281076	0.6565012
79	0x3e8806d2	0.26567703
80	0x3ef62694	0.48076308
81	0xbe596693	-0.21230535
82	0x3e80da56	0.25166577
83	0x3ef7f2c9	0.48427418
84	0xbe2ad15f	-0.16681431
85	0x3e7ff9e9	0.24997677
86	0xbf086b71	-0.5328894
87	0x3ec8b119	0.39197615
88	0x3f08e900	0.5348053
89	0x3e3368db	0.17520468
90	0x3f063305	0.524216
91	0x3d566cc0	0.052349806
92	0x3ebaf0ad	0.36511746
93	0xbe3c6002	-0.18395999
94	0x3f0d3ab3	0.5516769
95	0x3d8fcf11	0.07021917
96	0xbf164e99	-0.5871368
97	0x3e5909d2	0.21195152
98	0xbebd20f8	-0.36939216
99	0xbd5951f3	-0.05305667
100	0x3eab08eb	0.3340524
101	0x3ecd23d9	0.40066412
102	0x3b4011db	0.0029307518
103	0x3e78b01c	0.2428593
104	0xbeb5ff0e	-0.35546154
105	0x3f2c15dc	0.67220855
106	0xbedbcf23	-0.4293147
107	0x3efe2fa8	0.49645734
108	0xbece2448	-0.40262055
109	0x3e4804fe	0.19533154
110	0xbecaadda	-0.39585763
111	0xbf0664d4	-0.524976
112	0x3ecb0d9c	0.3965882
113	0x3f13f526	0.5779594
114	0x3eec63f7	0.46170017
115	0x3f1e371a	0.6180283
116	0x3e997f8e	0.2998013
117	0xbf474d1b	-0.7785203
118	0x3e55e373	0.20887546
119	0xbe4fb861	-0.20285179
120	0xbd786c7e	-0.06065034
121	0xbda011b1	-0.07815874
122	0x3f2efedc	0.68357635
123	0xbe19d97a	-0.15024367
124	0xbd85dd2f	-0.06536328
125	0xbe979697	-0.29607078
126	0xbebf094e	-0.37311786
127	0x3d00e7a2	0.031470902
128	0x3f203c1a	0.6259171
129	0x3edb41cd	0.4282364
130	0xbe44f309	-0.19233336
131	0xbebf97cc	-0.374205
132	0xbedda68f	-0.43291137
133	0x3d31cdfe	0.04340934
134	0x3f18296c	0.59438205
135	0x3ef5f996	0.4804198
136	0xbf1055e6	-0.5638107
137	0xbef4ecaa	-0.4783681
138	0x3ee833a2	0.45351893
139	0x3f530068	0.82422495
140	0x3f1421d3	0.5786411
141	0xbf3f1286	-0.7463764
142	0x3f2261bb	0.63430375
143	0x3d8d3270	0.06894386
144	0xbf30d2ea	-0.6907183
145	0x3eafab9f	0.34310624
146	0xbf25504a	-0.64575636
147	0x3f002702	0.5005952
148	0xbea44f81	-0.32091907
149	0x3e1c4b39	0.1526307
150	0xbed1dc9b	-0.4098862
151	0xbf276fe1	-0.6540509
152	0x3f0cb771	0.5496741
153	0xbf083ce6	-0.53217924
154	0x3d8410e3	0.064485334
155	0x3ee87c84	0.45407498
156	0xbf0fc363	-0.5615751
157	0xbe855015	-0.2603766
158	0x3ee83718	0.45354533
159	0x3f1e223d	0.61770993
160	0xbf73b72d	-0.9520138
161	0x3e6ec483	0.23317151
162	0x3e54b700	0.20772934
163	0xbe9cf496	-0.30655354
164	0xbf0abc00	-0.54193115
165	0x3f1a91be	0.60378635
166	0xbe52e8b8	-0.20596588
167	0x3ef69b23	0.48165235
168	0xbf208344	-0.62700295
169	0xbe139594	-0.14412528
170	0xbf25ae6f	-0.6471929
171	0xbf04e096	-0.5190519
172	0x3f4986a4	0.7872107
173	0xbf210a2a	-0.62906134
174	0x3ef80825	0.48443714
175	0x3f0aaf6a	0.5417391
176	0xbe259287	-0.16169177
177	0xbe786f11	-0.24261118
178	0x3d99e38b	0.075141035
179	0xbf13f575	-0.5779641
180	0xbf1b8bae	-0.6076001
181	0xbe8cb08a	-0.2747844
182	0x3e35ee73	0.17766742
183	0xbe1bc9b8	-0.15213668
184	0x3e58f642	0.2118769
185	0xbf168eb7	-0.58811516
186	0xbe2ec3f0	-0.17066932
187	0xbf4957fa	-0.78649867
188	0xbcaf4a6a	-0.021397788
189	0xbe621408	-0.22077954
190	0xbf12dfa8	-0.5737252
191	0xbf21dfbf	-0.63232034
192	0x3e2783cd	0.16358872
193	0xbf3cb5a7	-0.7371468
194	0xbd732388	-0.059360057
195	0x3ec81071	0.39075044
196	0xbe987702	-0.29778296
197	0x3edfef24	0.43737137
198	0x3f3b1031	0.7307158
199	0xbac331e4	-0.0014892188
200	0x3ef30d09	0.47470883
201	0x3e13f872	0.14450243
202	0xbf0431cc	-0.51638484
203	0xbef50003	-0.4785157
204	0xbeaedb39	-0.3415163
205	0x3e93c31c	0.28859794
206	0x3e78b0a9	0.2428614
207	0xbecf01a4	-0.4043094
208	0x3f102e81	0.5632096
209	0x3e82029d	0.2539262
210	0x3e933f31	0.2875915
211	0xbebb3f86	-0.36571902
212	0x3ef30014	0.47460997
213	0x3f19b31c	0.60038924
214	0x3f17233a	0.59038126
215	0x3f473052	0.77808106
216	0xbd22d14c	-0.039750382
217	0xbe82ed62	-0.25571734
218	0xbf0bfd54	-0.54683423
219	0xbe832eec	-0.25621736
220	0x3f16a2bd	0.5884207
221	0x3f20028a	0.62503874
222	0x3dbff4e0	0.09372878
223	0xbeda8318	-0.42678142
224	0xbdfbda61	-0.12297512
225	0xbf04472a	-0.5167109
226	0x3dcb2c2a	0.09920533
227	0x3d10fad0	0.035395443
228	0x3f198426	0.5996727
229	0x3df9b912	0.121935025
230	0xbe6006c4	-0.21877581
231	0x3f147c2e	0.58001983
232	0xbdc27728	-0.094953835
233	0x3e354411	0.17701747
234	0x3eb1a8f7	0.34699222
235	0xbed8fa37	-0.423784
236	0xbe7d799a	-0.24753419
237	0xbf1f7735	-0.6229127
238	0x3ec222e8	0.37917256
239	0x3da8c51f	0.08240723
240	0x3edc9bef	0.43087718
241	0xbe0f63fe	-0.14002988
242	0x3f112264	0.566931
243	0xbec5f483	-0.3866311
244	0xbeda958a	-0.42692214
245	0x3f2956d0	0.6614809
246	0x3e2f012f	0.17090295
247	0xbe401b47	-0.18760405
248	0xbdf2eff7	-0.11862176
249	0x3ead4458	0.33841205
250	0xbddc6c3f	-0.10762834
251	0x3f359f96	0.70946634
252	0xbf3ddfd9	-0.7416969
253	0xbee7e2bd	-0.45290175
254	0xbbe6cb43	-0.0070432737
255	0x3f08fc1e	0.535097

decoders.0.decoder_net.0.bias f4 [512]
0	0xbdba5747	-0.09098678
1	0x3ef534b2	0.47891766
2	0xbf09e8cc	-0.53870845
3	0xbeb6f47f	-0.3573341
4	0xbeda0c91	-0.42587712
5	0xbf60364d	-0.87582856
6	0xbefce612	-0.4939428
7	0x3cdfc62f	0.027316181
8	0x3f1e6a1b	0.61880654
9	0x3e598fc3	0.21246247
10	0xbe4c75c0	-0.19966793
11	0x3e49a777	0.19692789
12	0xbec6907b	-0.38782105
13	0xbec628a8	-0.38702893
14	0xbd20a894	-0.03922327
15	0x3e486819	0.1957096
16	0x3e16ea8b	0.14737909
17	0x3e533137	0.20624243
18	0xbda49f7f	-0.08038234
19	0xbe7c0c1f	-0.24613999
20	0xbeceff52	-0.4042917
21	0x3f2a32b9	0.66483647
22	0xbdeddb26	-0.11614065
23	0xbeb2e431	-0.3493972
24	0xbe098c43	-0.13432412
25	0xbe905346	-0.28188533
26	0xbe6eab07	-0.23307429
27	0xbe90177d	-0.2814292
28	0x3f3c8b07	0.7364964
29	0xbce1a60f	-0.027545003
30	0x3f109fcc	0.5649383
31	0x3f46f15d	0.7771204
32	0xbe8a0073	-0.26953468
33	0xbeae1a46	-0.3400442
34	0xbe644e48	-0.22295487
35	0xbec4b9bd	-0.38422957
36	0x3ee35595	0.4440123
37	0x3e3f453e	0.18678758
38	0xbe8c36c2	-0.27385527
39	0xbe82e99b	-0.25568852
40	0xbf299ccc	-0.6625488
41	0xbf40f56a	-0.7537447
42	0x3f1e1bb4	0.6176102
43	0xbf1ae0d2	-0.604993
44	0xbef9762a	-0.48722965
45	0xbeceabba	-0.40365392
46	0xbf08d29e	-0.53446376
47	0xbd20ebd9	-0.03928742
48	0xbd1fef02	-0.039046295
49	0x3f43fa0c	0.76553416
50	0x3e8f6601	0.2800751
51	0x3c92d0c6	0.017921817
52	0xbe9818fd	-0.29706565
53	0xbdaa5092	-0.08316149
54	0xbf00ad65	-0.5026458
55	0xbf396c34	-0.7243073
56	0xbee61c78	-0.44943595
57	0x3ea3e8c5	0.32013527
58	0x3dcdec14	0.10054794
59	0xbf334768	-0.7003083
60	0x3f19d109	0.6008459
61	0x3df83afa	0.12120624
62	0x3e8270aa	0.2547658
63	0x3ce00fd8	0.027351305
64	0x3eb77377	0.3583028
65	0x3e95c6db	0.29253277
66	0xbf37249e	-0.7154025
67	0xbeb7f020	-0.35925388
68	0x3dedf2a6	0.11618547
69	0x3ddd83ab	0.10816129
70	0x3f06ca6e	0.52652633
71	0xbf13ee5c	-0.5778558
72	0xbf0669be	-0.525051
73	0xbd5b3849	-0.053520475
74	0x3eca955c	0.39567077
75	0x3bdc0293	0.006714174
76	0x3eae2797	0.3401458
77	0x3e54c74e	0.20779154
78	0x3f27e8b1	0.65589434
79	0x3e0b7012	0.1361697
80	0xbf3373aa	-0.70098364
81	0xbd13c490	-0.03607613
82	0x3f2fee65	0.68723136
83	0x3f21d939	0.6322208
84	0xbe42aeae	-0.19011948
85	0x3eb88aec	0.3604349
86	0x3e7159c3	0.23569398
87	0x3ebaf21f	0.3651285
88	0xbf61e7b0	-0.8824415
89	0xbe21196c	-0.15732354
90	0xbf3c1c8b	-0.73481053
91	0x3de72c2a	0.112877205
92	0x3ea98da1	0.33115867
93	0x3ea0455b	0.31302914
94	0xbdcf1d23	-0.10112979
95	0xbf221298	-0.6330962
96	0x3f4e9a6f	0.80704397
97	0xbf16c30a	-0.58891356
98	0xbe2f24ef	-0.17103933
99	0x3f32e2d7	0.6987738
100	0x3df6a269	0.12042696
101	0xbdb3551b	-0.08756467
102	0xbed729c3	-0.4202405
103	0xbdf7dcec	-0.121026844
104	0xbefbf1d1	-0.4920793
105	0x3f146b74	0.5797646
106	0xbed5622d	-0.41676465
107	0xbea57366	-0.32314605
108	0xbf04f693	-0.5193874
109	0xbeac634f	-0.33669516
110	0xbf011fc7	-0.50439113
111	0x3eabb6cf	0.3353791
112	0x3da99c92	0.082818165
113	0x3f08bb2b	0.53410596
114	0xbee1f638	-0.44133162
115	0x3f0099ce	0.5023469
116	0x3dc502c9	0.09619672
117	0xbedd1c27	-0.4318554
118	0xbec1a066	-0.37817687
119	0xbee7de01	-0.45286563
120	0xbe588ad3	-0.21146707
121	0x3f395afb	0.7240445
122	0x3f23cba3	0.639826
123	0x3f1330f5	0.5749658
124	0x3f07dc65	0.5307067
125	0xbf136c91	-0.57587534
126	0x3ddd9a14	0.10820404
127	0x3eb2a966	0.34894866
128	0xbe090216	-0.13379702
129	0xbf4943fc	-0.7861936
130	0xbcd2f21e	-0.025750216
131	0xbf08526e	-0.5325078
132	0x3ebe1e87	0.37132666
133	0xbee90c49	-0.45517185
134	0xbf255a9f	-0.645914
135	0xbef2c541	-0.47416118
136	0x3ec7d2dc	0.3902806
137	0x3f5435e8	0.82894754
138	0xbe6de437	-0.23231588
139	0xbe027ce3	-0.12742953
140	0x3f1c2224	0.60989594
141	0xbf16b4b1	-0.58869463
142	0x3db9f358	0.09079617
143	0xbe362b3c	-0.1778993
144	0xbe306a19	-0.17227973
145	0xbf2953aa	-0.66143286
146	0xbe729038	-0.23687828
147	0xbe58c4c3	-0.21168809
148	0x3e667ee9	0.2250935
149	0xbf83d33f	-1.0298842
150	0x3f7dab30	0.99089336
151	0xbeef0e98	-0.46690822
152	0xbe05af2c	-0.13055104
153	0x3e9ce147	0.30640623
154	0x3eb08744	0.344782
155	0xbe2d98f9	-0.16952886
156	0xbef20144	-0.4726659
157	0xbe8f9015	-0.28039613
158	0x3e3142ca	0.17310634
159	0x3e90e948	0.2830298
160	0xbdeb72a9	-0.11496479
161	0xbf168d75	-0.58809596
162	0x3f4259ea	0.7591845
163	0x3eefaac9	0.46809986
164	0x3e6a3296	0.2287086
165	0x3ed38f99	0.41320494
166	0xbd9663b0	-0.07343233
167	0xbf1b4774	-0.60655904
168	0x3f0c213e	0.54738224
169	0xbe20b19d	-0.15692754
170	0xbe9fa34e	-0.3117928
171	0xbe92f058	-0.28698993
172	0x3db8d244	0.0902448
173	0xbd6b7577	-0.05748507
174	0xbeff4662	-0.49858385
175	0x3f2a8560	0.66609764
176	0xbf00bf62	-0.50292027
177	0x3dd61fe1	0.10455299
178	0x3f1d8f6d	0.61546975
179	0xbe8cf405	-0.27529922
180	0xbf2651cc	-0.6496856
181	0xbdd8542f	-0.10562932
182	0x3d00f322	0.03148187
183	0x3f105636	0.5638155
184	0xbf1ad47e	-0.6048049
185	0xbd819492	-0.06327166
186	0x3e8feb7f	0.28109357
187	0x3e9a9148	0.30188966
188	0xbf1641a3	-0.58693904
189	0xbe4fe6f9	-0.20302953
190	0x3e900fcc	0.28137052
191	0x3f0bf48c	0.54670024
192	0xbd4b8c1f	-0.049694177
193	0xbba24925	-0.004952567
194	0xbf2794a9	-0.6546121
195	0x3e4ad0b0	0.1980617
196	0x3ef44d4c	0.47715223
197	0x3f3277ee	0.6971425
198	0x3f23caf9	0.63981587
199	0x3e622467	0.22084199
200	0xbdc5d9cf	-0.09660684
201	0xbf371f7d	-0.7153242
202	0x3f242a5d	0.6412714
203	0xbca5b239	-0.020226585
204	0x3f08a058	0.53369665
205	0x3f307c3d	0.6893957
206	0xbf0389dc	-0.5138223
207	0x3d7842db	0.060610633
208	0x3edfa827	0.43682978
209	0x3e3a4ae7	0.18192635
210	0xbf1055e2	-0.56381047
211	0x3ec94614	0.39311278
212	0x3de0aee8	0.10970861
213	0x3f140e0b	0.5783393
214	0xbf040faf	-0.5158643
215	0x3f2849d0	0.6573763
216	0xbf129c12	-0.57269394
217	0x3eaae81f	0.3338022
218	0xbf04b2ca	-0.5183531
219	0x3e9354a9	0.28775528
220	0xbdfec410	-0.1243974
221	0xbf4c6502	-0.79841626
222	0xbd3ac28d	-0.045595694
223	0xbe158770	-0.14602447
224	0xbe0e2e43	-0.13884835
225	0x3ea80d2c	0.3282255
226	0x3c379310	0.011204496
227	0xbf17d1fa	-0.59304774
228	0x3b85e106	0.004085663
229	0xbe291087	-0.16510211
230	0xbee4896b	-0.44636092
231	0xbf16ee16	-0.5895704
232	0x3ebf5f50	0.37377405
233	0xbedf8677	-0.43657276
234	0x3eacc4e4	0.33743966
235	0x3ed22097	0.4104049
236	0xbf0d0132	-0.5507995
237	0xbe9a9499	-0.30191496
238	0xbeaa8fc9	-0.33312824
239	0xbeca45da	-0.39506418
240	0x3ed2aa6e	0.41145653
241	0xbeb8a10c	-0.3606037
242	0x3eb02008	0.34399438
243	0xbdbd61ae	-0.092471465
244	0xbe38d13f	-0.18048571
245	0x3f2a7d1f	0.6659717
246	0x3f480db3	0.78145903
247	0x3f108ed1	0.5646792
248	0xbef7db5f	-0.48409554
249	0x3ef24405	0.4731752
250	0xbedd1f85	-0.4318811
251	0x3ef70f29	0.48253754
252	0xbe83dac0	-0.2575283
253	0x3efc36dd	0.49260607
254	0xbdf679d1	-0.120349534
255	0xbe81d01a	-0.2535408

decoders.0.decoder_net.3.weight f4 [32]
0	0x3f783f9f	0.9697208
1	0x3f7ae9b3	0.98012847
2	0x3f7dd59f	0.99154085
3	0x3f7df57a	0.9920269
4	0x3f839c3f	1.0282058
5	0x3f7b7300	0.9822235
6	0x3f864d17	1.0492276
7	0x3f7c0563	0.9844572
8	0x3f7eb13a	0.99489176
9	0x3f842395	1.0323359
10	0x3f8569f2	1.0422957
11	0x3f7dc197	0.9912352
12	0x3f7cbac1	0.98722464
13	0x3f7e885d	0.99426824
14	0x3f88765d	1.0661122
15	0x3f83a57d	1.0284878
16	0x3f8335a1	1.0250741
17	0x3f7a22ad	0.9770916
18	0x3f7e130f	0.9924783
19	0x3f7ead64	0.99483323
20	0x3f824d46	1.0179832
21	0x3f7bdf39	0.98387486
22	0x3f7a0054	0.9765675
23	0x3f84ee31	1.038519
24	0x3f90ab18	1.1302214
25	0x3f86df19	1.0536834
26	0x3f8e3649	1.1110317
27	0x3f82b3d4	1.0211129
28	0x3f78eda2	0.972376
29	0x3f87027a	1.0547631
30	0x3f800ef9	1.0004569
31	0x3f83022c	1.0235038

decoders.0.decoder_net.3.bias f4 [32]
0	0x3c9465f3	0.01811502
1	0x3c3bb06c	0.0114556365
2	0x3d956c02	0.072959915
3	0x3d9762a8	0.07391864
4	0x3cda3520	0.02663666
5	0xbdafc00f	-0.08581554
6	0x3d6d0d87	0.05787423
7	0x3c52e951	0.01287301
8	0xbc5d5084	-0.013507966
9	0xbcbf7b10	-0.02337411
10	0x3c894910	0.016758472
11	0x3ae88177	0.0017738779
12	0xbdaef54c	-0.085428804
13	0x3cb8bb54	0.022550263
14	0x3cd75f53	0.026290571
15	0xbcd851e6	-0.02640624
16	0xbd2145fa	-0.039373375
17	0x3ced0a5c	0.028935604
18	0x3dd52ffd	0.10409544
19	0x3d8a592b	0.06755289
20	0xbcb76065	-0.022384832
21	0x3da18a8b	0.07887753
22	0x3d85065f	0.06495356
23	0xbd6624d8	-0.05618748
24	0x3d308f00	0.043105125
25	0x3c43413c	0.011917409
26	0x3da38e47	0.079861216
27	0x3d0712b4	0.03297682
28	0x3c821af2	0.01588199
29	0x3d4aced8	0.049513668
30	0xbca8cb6d	-0.020604813
31	0x3d57168f	0.052511748

decoders.0.decoder_net.3.running_mean f4 [32]
0	0x3d03e6b0	0.032202423
1	0x3d0340a9	0.032044087
2	0x3cc7b67b	0.024379006
3	0x3cd4dbaa	0.02598365
4	0x3d4814c6	0.048847936
5	0x3cfd00cc	0.030884169
6	0x3d5426ee	0.05179494
7	0x3cd32c1a	0.025777865
8	0x3c824cfa	0.015905846
9	0x3c5db9a8	0.013533033
10	0x3ccc99f2	0.02497575
11	0x3d1616c8	0.03664282
12	0x3d7409b4	0.059579566
13	0x3cf53223	0.029931134
14	0x3c9d4ae2	0.019200746
15	0x3cf20d8f	0.02954748
16	0x3d1e311e	0.03862106
17	0x3d70fb8f	0.058833655
18	0x3cd57222	0.0260554
19	0x3caa892c	0.020817362
20	0x3c957e0c	0.01824858
21	0x3d2fa874	0.04288526
22	0x3ce8908d	0.02838924
23	0x3d090e61	0.03346098
24	0x3c959d53	0.018263495
25	0x3c8133db	0.015771797
26	0x3cacd6af	0.021098463
27	0x3d70c7e2	0.058784373
28	0x3d48facc	0.049067304
29	0x3cb33a19	0.021878289
30	0x3c9c616d	0.019089425
31	0x3ce15166	0.027504634

decoders.0.decoder_net.3.running_var f4 [32]
0	0x3b29e930	0.0025926344
1	0x3ac253cb	0.0014825998
2	0x3a56a590	0.0008188123
3	0x3ac9cf61	0.0015396887
4	0x3be7739e	0.007063343
5	0x3b9a9b84	0.004718246
6	0x3c11cdff	0.008899211
7	0x3a5a0723	0.00083171035
8	0x39d18be9	0.00039967828
9	0x39829191	0.00024903988
10	0x3a8d255a	0.0010768578
11	0x3b3a36fe	0.0028414126
12	0x3c50b024	0.012737308
13	0x3a9fb1a8	0.0012183683
14	0x3a6e021c	0.0009079294
15	0x3ac56856	0.0015061002
16	0x3b472b17	0.0030390674
17	0x3c1245e2	0.008927794
18	0x3a870381	0.0010300727
19	0x3a6ce6d2	0.00090370805
20	0x3a226d7b	0.00061961234
21	0x3beb5927	0.0071822586
22	0x3b055adc	0.0020348346
23	0x3b93e45f	0.004513308
24	0x39ac475e	0.0003285957
25	0x398f01c9	0.00027276415
26	0x39ff320f	0.00048674687
27	0x3ba761eb	0.0051081083
28	0x3bd2908b	0.0064259223
29	0x3a2c1c73	0.00065655186
30	0x3a9438db	0.0011308448
31	0x3a99e4e3	0.0011741187

decoders.0.decoder_net.4.weight f4 [32, 32, 3, 3]
0	0x3d48149e	0.048847787
1	0xbc52e878	-0.012872808
2	0xbd0e29d6	-0.034707867
3	0xbd383660	-0.04497373
4	0x3b5c0635	0.0033573036
5	0xbc71b992	-0.014753716
6	0xbc198964	-0.009371135
7	0xbd2edc44	-0.04269053
8	0x3cb088d5	0.021549622
9	0xbdc9f0c3	-0.09860375
10	0x3d732154	0.059357956
11	0xbcaccee9	-0.021094756
12	0x3cfd47ab	0.030917963
13	0x3cfdb0e0	0.03096813
14	0xbd0a4321	-0.033755425
15	0x3ae271e6	0.0017276376
16	0xbdeef0e7	-0.11667042
17	0x3cf49b2c	0.029859148
18	0x3d913f5a	0.070921615
19	0x3d2c4358	0.04205641
20	0xbd1e1961	-0.038598422
21	0xbdaefab3	-0.08543911
22	0xba36f0e4	-0.00069786445
23	0xbd877450	-0.06613982
24	0x3d433f13	0.047667574
25	0xbdcd7047	-0.10031181
26	0xbdc20325	-0.09473256
27	0xbd3cbea9	-0.046080265
28	0xbd13848f	-0.03601509
29	0xbd2cabab	-0.042155903
30	0xbd25d091	-0.040482108
31	0xbd2608f1	-0.04053587
32	0xbbfee802	-0.0077791223
33	0xbae1f42d	-0.0017238908
34	0xbd21b4d9	-0.03947911
35	0x3c5d0fcb	0.013492535
36	0xbb03a879	-0.0020089431
37	0x3c9cb806	0.019130718
38	0x3dcaa79e	0.09895252
39	0x3c972025	0.018447945
40	0xbd43bb97	-0.04778632
41	0x3dc1e0ea	0.09466727
42	0xbab5ba5c	-0.0013864744
43	0xbc8c3e7b	-0.017119637
44	0xbdb5a18a	-0.08868702
45	0xbcf7918e	-0.030220773
46	0x3cad7c25	0.02117736
47	0xbcb83b65	-0.022489259
48	0xbd5c5dc0	-0.053800344
49	0x3d19a397	0.037509527
50	0x3d7563aa	0.0599095
51	0x3d7f2309	0.06228927
52	0x3c4ffd3b	0.012694652
53	0x3c847f77	0.016174061
54	0xbda2f1d7	-0.079562835
55	0xbbe9b9b6	-0.007132734
56	0x3d37725a	0.04478679
57	0xbd679530	-0.05653876
58	0xbc0eec24	-0.0087232925
59	0xbd3eca88	-0.046579868
60	0xbcc41fcd	-0.023940945
61	0xbba340cb	-0.004982089
62	0x3d4a8f24	0.049452916
63	0x3d2a467c	0.041571125
64	0xbdb0dd17	-0.086359195
65	0xbca34bc9	-0.019933598
66	0x3d8f9972	0.07011689
67	0xbcba47b5	-0.02273927
68	0x3da1836f	0.07886397
69	0x3ca56de2	0.020193998
70	0xbc4508ec	-0.012026053
71	0xbbc2659f	-0.0059325243
72	0xbcab9653	-0.020945704
73	0x3d8e99f8	0.06962961
74	0xbd139646	-0.036031984
75	0x3d4e1a02	0.05031777
76	0x3c863e0f	0.016387014
77	0x3d3c630f	0.045992907
78	0x3c3237e0	0.010877579
79	0xbd1602a2	-0.036623605
80	0xbd538b32	-0.05164642
81	0x3da527e7	0.080642514
82	0x3d9b2670	0.07575691
83	0x3d70d7c8	0.058799535
84	0xbd8ebc3b	-0.06969496
85	0xb8adc0c5	-8.285189e-05
86	0x3c531719	0.012883925
87	0x3c0100f1	0.00787376
88	0xbbe22a8e	-0.0069020456
89	0xbd0b2f32	-0.033980556
90	0xbb9d03da	-0.004791719
91	0x3ccd3e47	0.02505411
92	0x3d2113d4	0.03932555
93	0xbc18d12d	-0.009327215
94	0x3d73dd81	0.059537414
95	0xbd9a0aa2	-0.07521559
96	0x3d0e7b2e	0.034785442
97	0x3c86d044	0.01645673
98	0xbc43dda2	-0.011954697
99	0x3cabc884	0.020969637
100	0x3c914d06	0.017736923
101	0xbd6fbec5	-0.05853154
102	0xbd2df03b	-0.04246543
103	0xbd3b9148	-0.045792848
104	0x3ce0c6bb	0.027438512
105	0xbd12aada	-0.035807468
106	0x3d5a64da	0.053318836
107	0xbb5652b1	-0.0032703097
108	0x3c86c51f	0.016451417
109	0x3d801616	0.062542126
110	0xbc5a8873	-0.013338196
111	0x3bc565d8	0.0060241036
112	0xbcb5a1aa	-0.022171814
113	0x3caa1f66	0.020766925
114	0x3b606d9a	0.0034245015
115	0x3c2ee6ec	0.010675173
116	0xbce39305	-0.027780065
117	0x3d4ad155	0.04951604
118	0xbc4c0746	-0.012452906
119	0x3d35759d	0.044301618
120	0x3d3479b7	0.04406139
121	0x3ce9ac7b	0.028524628
122	0x3d2f50ca	0.042801656
123	0xbd9ab88c	-0.07554731
124	0xbd45d943	-0.0483029
125	0xbcb1ecfc	-0.021719448
126	0x3d1d5b8d	0.038417388
127	0x3d422c1f	0.04740536
128	0x3c5e760d	0.01357795
129	0xbd7293b1	-0.05922288
130	0xbd3eb297	-0.046557035
131	0x3b4ca738	0.00312276
132	0xbc9a831b	-0.018861344
133	0xbc510e4c	-0.012759756
134	0xbb98ceb1	-0.0046633114
135	0xbbd14344	-0.0063861925
136	0x3cda9f2e	0.02668723
137	0xbd20c612	-0.039251395
138	0x3d96c47a	0.07361694
139	0xbb98225b	-0.0046427674
140	0xbd605367	-0.05476704
141	0x3b0d4044	0.0021553198
142	0xbbca30d5	-0.006170372
143	0x3ce04d25	0.027380535
144	0xbc3abd7b	-0.011397715
145	0xbcf06ea5	-0.029349634
146	0x3d10ea30	0.03537959
147	0xbd867b28	-0.06566459
148	0x3d84b9c8	0.064807475
149	0x3d4059ed	0.04696076
150	0xbc5280d5	-0.012848099
151	0xbc8d0c7a	-0.017217863
152	0xbd0dc6f0	-0.03461355
153	0x3d17a96a	0.0370268
154	0x3c7d2e2b	0.015452902
155	0xbd1cb501	-0.038258556
156	0x3d5aad1a	0.05338774
157	0x3ca59d86	0.020216715
158	0xbc2e83e2	-0.0106515605
159	0xbd46b817	-0.048515406
160	0x3c93726e	0.0179989
161	0xb836b604	-4.3561697e-05
162	0x3d1e6dac	0.03867881
163	0xbd6fce75	-0.058546502
164	0x3b323c03	0.0027196414
165	0x3d81e6d1	0.06342853
166	0x3c8f3932	0.017483328
167	0x3cc1d884	0.023662813
168	0x3d5fcd5e	0.054639213
169	0xbda94219	-0.0826456
170	0x3d6d4b44	0.057933107
171	0x3cdb92e5	0.026803443
172	0x3cf0a20d	0.029374147
173	0x3d04f3fb	0.03245924
174	0x3d1f016c	0.038819715
175	0x3bab14c1	0.00522098
176	0xba9384c0	-0.0011254773
177	0x3d8b3b4f	0.067984216
178	0x3b23d996	0.0025001517
179	0xbcef2b3e	-0.029195424
180	0x3cb96f10	0.022635967
181	0x3c45f903	0.012083295
182	0xbb39cffa	-0.0028352723
183	0xbbe28d25	-0.0069137984
184	0xbdb030be	-0.08603047
185	0x3c6ef50b	0.01458479
186	0x3d40d3b9	0.047076914
187	0x3d310eaa	0.043226875
188	0x3d41657d	0.047215927
189	0xbca038c0	-0.01955831
190	0xbc8756be	-0.016520854
191	0xbc5383e4	-0.012909863
192	0xbd1105da	-0.03540597
193	0xbcfb4285	-0.030671367
194	0x3cd11b09	0.025525587
195	0xbcc1c8b0	-0.023655266
196	0x3c852200	0.016251564
197	0x3c6ca017	0.014442465
198	0x3be49698	0.00697596
199	0x3d49357f	0.049123283
200	0x3d1b44c4	0.037907377
201	0x3d0df653	0.03465874
202	0x3c988fa4	0.01862318
203	0xbb3f57cb	-0.0029196616
204	0xbc7d3714	-0.015455026
205	0xbbe15cd2	-0.00687752
206	0x3d5ecefa	0.054396607
207	0xbd137d44	-0.036008134
208	0x3db00bdc	0.08596012
209	0xbca93ace	-0.020657923
210	0x3d037b11	0.032099787
211	0x3d2afc02	0.04174424
212	0xbce6ed0f	-0.02818921
213	0x3d1b8f8c	0.037978694
214	0x3cf84bf9	0.030309664
215	0x3b6cb543	0.0036118783
216	0x3d42fef5	0.047606427
217	0xbb731472	-0.0037091044
218	0xbccee853	-0.025257265
219	0xbd0d1f9d	-0.034453977
220	0x3ce02241	0.027360084
221	0xbd492dbd	-0.049115885
222	0x3d3a9e3a	0.045561053
223	0xbc22a40a	-0.009926805
224	0xbcf6fe13	-0.030150449
225	0xbc9a347a	-0.01882385
226	0x3d725251	0.059160534
227	0x3d49f17e	0.04930257
228	0xbc8c988f	-0.01716259
229	0xbd8a9d9f	-0.06768345
230	0xbd7cbb5a	-0.06170211
231	0x3d851691	0.06498445
232	0x3d127bfc	0.035762772
233	0x3c1062ed	0.008812648
234	0xbcc3a9e8	-0.023884729
235	0xbbabeca2	-0.0052467147
236	0xbd38463f	-0.044988867
237	0x3d52d25e	0.051470153
238	0xbd0de2a1	-0.03463996
239	0xbd8257b2	-0.06364383
240	0xbd4648b0	-0.048409164
241	0x3c6f65b0	0.0146116465
242	0xbc9a59a8	-0.01884158
243	0x3c0c8c0e	0.0085783135
244	0xbdc067e6	-0.09394817
245	0x3cd12db3	0.025534486
246	0xbb76a187	-0.00376329
247	0x3d2d1bf6	0.042262994
248	0xbc4da5c7	-0.012551731
249	0xbd699c4e	-0.05703383
250	0xbd7181fe	-0.05896186
251	0x3d9fb7ec	0.07798752
252	0x3d60abc4	0.05485131
253	0x3ca64f52	0.020301495
254	0xbd4f8592	-0.050664492
255	0x3d2935a2	0.041310914

decoders.0.decoder_net.4.bias f4 [32]
0	0x3bf06067	0.007335711
1	0x3d4788e9	0.048714552
2	0xbcb293ba	-0.021798957
3	0xbe0f6903	-0.14004903
4	0x3c0b8bfe	0.008517263
5	0xbceab215	-0.02864937
6	0xbc8d2423	-0.017229145
7	0xbd8e1926	-0.069383904
8	0x3db11c03	0.08647921
9	0x3d8c225a	0.068424895
10	0x3d13060c	0.03589444
11	0xbda7173c	-0.081587285
12	0x3db4e8e3	0.08833482
13	0x3d727b3b	0.059199553
14	0xbbb546b5	-0.0055321106
15	0x3d285133	0.041093063
16	0xbd9f0905	-0.07765392
17	0x3d23f943	0.040032636
18	0xbac7d79c	-0.0015246752
19	0xbd73c8e9	-0.059517775
20	0x3de43c0c	0.111442655
21	0x3da783c3	0.081794284
22	0x3d3eb33b	0.046557646
23	0xbcf86531	-0.03032169
24	0xbb8ec8c0	-0.0043574274
25	0x3df2f023	0.11862209
26	0xbc66281d	-0.01404765
27	0xbd359838	-0.04433462
28	0xbddcdc55	-0.107842125
29	0xbd9aeccb	-0.07564696
30	0x3c1020f3	0.008796918
31	0x3c7229df	0.014780491

decoders.0.decoder_net.6.weight f4 [32]
0	0x3f4d3f6c	0.801749
1	0x3f63d658	0.8899894
2	0x3f78ee44	0.97238564
3	0x3f680c33	0.90643615
4	0x3f6f5132	0.9348327
5	0x3f72d06c	0.94849277
6	0x3f6b3148	0.9187207
7	0x3f5fc5f3	0.8741142
8	0x3f65e49e	0.8980197
9	0x3f5e5e7b	0.86862916
10	0x3f632cf6	0.8874048
11	0x3f75b89a	0.95984805
12	0x3f650c2d	0.89471704
13	0x3f699ae6	0.9125198
14	0x3f71ea0a	0.9449774
15	0x3f6d622c	0.92727923
16	0x3f642ce2	0.89130986
17	0x3f647154	0.89235425
18	0x3f82b74a	1.0212185
19	0x3f5096d6	0.8148016
20	0x3f71fcd7	0.9452643
21	0x3f6ca16a	0.924338
22	0x3f7483d8	0.9551368
23	0x3f54d011	0.83129984
24	0x3f6a4f24	0.9152701
25	0x3f715507	0.94270366
26	0x3f6bb163	0.92067546
27	0x3f66630b	0.8999488
28	0x3f6103d5	0.8789647
29	0x3f673f9a	0.90331423
30	0x3f691670	0.9104986
31	0x3f6aad89	0.91671044

decoders.0.decoder_net.6.bias f4 [32]
0	0xbdefab0d	-0.11702547
1	0xbd7bfddb	-0.061521392
2	0xbd44af63	-0.048018824
3	0x3d8a5466	0.06754379
4	0x3d3832a3	0.044970166
5	0x3cda4534	0.026644327
6	0xbde170ba	-0.11007829
7	0xbd268a0b	-0.04065899
8	0xbd259a6e	-0.04043048
9	0x3d6a0092	0.05712945
10	0x3d868548	0.0656839
11	0x3de0d218	0.10977572
12	0xbcb680a0	-0.02227813
13	0xbc87903f	-0.016548274
14	0x3d2f8347	0.042849805
15	0x3c09898c	0.00839461
16	0xbdcfdf2e	-0.1014999
17	0xbb9d0026	-0.0047912775
18	0x3db9ef38	0.090788305
19	0xbd5fee66	-0.054670714
20	0x3c3fc0ac	0.011703651
21	0x3ace450b	0.0015737129
22	0x3d939ebc	0.072080106
23	0x3ce25528	0.027628496
24	0xbd75fa68	-0.06005326
25	0x3da1be7a	0.07897659
26	0x3df84fca	0.121245936
27	0x3ddb2309	0.10700042
28	0xbadc3d78	-0.0016802987
29	0xbcb63707	-0.022243036
30	0xbca31508	-0.01990749
31	0x3dd1ab9d	0.10237811

decoders.0.decoder_net.6.running_mean f4 [32]
0	0x3d00e099	0.031464193
1	0x3d094816	0.033516012
2	0x3cee9040	0.029121518
3	0x3cdc3f98	0.026885793
4	0x3cf5d81c	0.030010276
5	0x3cf9d005	0.0304947
6	0x3cfd800c	0.030944847
7	0x3ceea5c9	0.029131787
8	0x3d0ba7bb	0.034095507
9	0x3d0ee673	0.034887742
10	0x3d008c5a	0.03138385
11	0x3ce60e73	0.028083062
12	0x3d068d36	0.032849513
13	0x3d07c691	0.033148352
14	0x3cff316a	0.031151492
15	0x3d0b5443	0.034015905
16	0x3cef7cbd	0.029234285
17	0x3cfedbc1	0.031110646
18	0x3d0296fb	0.031882267
19	0x3cf0585a	0.029339004
20	0x3d13b85e	0.036064498
21	0x3d1232ff	0.035693165
22	0x3d0997fc	0.03359221
23	0x3cf886f7	0.030337794
24	0x3cffbaf4	0.031217076
25	0x3d1266f0	0.0357427
26	0x3cf9ce86	0.030493986
27	0x3ce7c85d	0.028293783
28	0x3ce0fdbe	0.027464744
29	0x3ce5c31d	0.028047139
30	0x3cf3390b	0.029690286
31	0x3cfac533	0.03061161

decoders.0.decoder_net.6.running_var f4 [32]
0	0x39ad5167	0.0003305778
1	0x399bf73d	0.0002974811
2	0x391ea421	0.00015129197
3	0x393825ed	0.00017561736
4	0x39147f0f	0.00014161713
5	0x399d4eef	0.00030004184
6	0x398302b8	0.00024988293
7	0x3987e879	0.00025922412
8	0x39cbbc26	0.0003885936
9	0x39d59f8b	0.00040745395
10	0x39687914	0.00022170349
11	0x394c9404	0.00019510096
12	0x3949dc8a	0.00019251011
13	0x399f4c40	0.00030383654
14	0x39d36b35	0.00040324932
15	0x39aa6fb1	0.00032508143
16	0x3989a7b0	0.00026255613
17	0x38f84940	0.000118392054
18	0x39f38d30	0.00046453765
19	0x3957dd27	0.00020586383
20	0x3a0d538c	0.00053911726
21	0x39c8aa17	0.000382737
22	0x39cb5017	0.0003877885
23	0x397a7ae0	0.00023887632
24	0x396c8ec6	0.00022559901
25	0x39a8d570	0.0003220248
26	0x3949d46d	0.00019247989
27	0x392cbd02	0.00016473609
28	0x391a07ad	0.00014689444
29	0x395e228b	0.00021184438
30	0x38eed10f	0.000113876646
31	0x390d311e	0.00013465105

decoders.0.decoder_net.7.weight f4 [32, 16, 3, 3]
0	0x3cb6f346	0.022332799
1	0xbe16c040	-0.14721775
2	0xbc1c53ca	-0.009541461
3	0x3d271800	0.040794373
4	0x3da9ce40	0.08291292
5	0x3dad0135	0.08447496
6	0xbd04c0cc	-0.032410428
7	0x3bd5d263	0.006525324
8	0xbcbe01c5	-0.023194203
9	0xbbff2ab7	-0.0077870744
10	0x3d0866ac	0.03330104
11	0x3d74e424	0.059787884
12	0xbd7fd6ea	-0.062460817
13	0x3c3ccc6a	0.0115233455
14	0xbca01a0e	-0.019543674
15	0x3ca586c9	0.020205872
16	0xbbe62ca1	-0.007024363
17	0x3db0e021	0.08636499
18	0x3c895dcc	0.016768359
19	0xbd682716	-0.0566779
20	0xbc6fc42f	-0.014634176
21	0x3d085147	0.033280637
22	0x3c84d566	0.016215038
23	0x3d4269da	0.04746423
24	0x3d02045d	0.031742442
25	0x3bca5d12	0.0061756456
26	0xbca1b165	-0.019737909
27	0xbd6fd7a6	-0.058555268
28	0xbdaa7999	-0.08323974
29	0xbc2c5fc6	-0.010520881
30	0xbd671878	-0.05641982
31	0xbde8ddec	-0.11370453
32	0x3d1f883c	0.038948283
33	0x3cd5d263	0.026101297
34	0xbcb04579	-0.021517502
35	0xbd849b25	-0.06474904
36	0x3d22c206	0.039735816
37	0x3db970e8	0.09054738
38	0xbb9145ca	-0.0044333683
39	0xbc9d6bd0	-0.019216448
40	0x3c8fd483	0.017557388
41	0x3d1eeaeb	0.038798254
42	0x3cfa6e6e	0.030570235
43	0x3cfb4564	0.030672736
44	0xbcd5cb2d	-0.026097858
45	0xbdb3aeb8	-0.08773559
46	0xbcafd5d2	-0.021464262
47	0x3da5db0b	0.0809842
48	0xbc8b8484	-0.017030962
49	0x3ccac2de	0.024751123
50	0x3d718682	0.058966167
51	0x3d2803d8	0.04101929
52	0x3d505bf1	0.050868932
53	0xbd52028d	-0.051271964
54	0x3cb2ae67	0.021811677
55	0x3bb3c95b	0.00548665
56	0x3c303193	0.010754007
57	0x3d7b9934	0.061425403
58	0x3d8ea47f	0.06964969
59	0x3d019e75	0.031645257
60	0x3bb095d0	0.005388953
61	0x3d1d0978	0.03833911
62	0x3c50229e	0.012703566
63	0xbc88220a	-0.016617794
64	0x3d901aaf	0.070363395
65	0x3c263aae	0.010145826
66	0x3c88b1bd	0.016686315
67	0x3d27f081	0.041000847
68	0xbd920a88	-0.07130915
69	0xbd37f4b1	-0.04491109
70	0xbd01e9ac	-0.031716987
71	0xbc9e0c37	-0.019292934
72	0xbc778587	-0.015107519
73	0x3c63736d	0.0138825
74	0x3cb53d7a	0.02212404
75	0xbcf4c17a	-0.029877413
76	0x3c8731bf	0.016503213
77	0xbdab7d85	-0.0837355
78	0x3c6e644e	0.014550282
79	0x3bdac58d	0.006676382
80	0xbc8d2458	-0.017229244
81	0xbcbeec38	-0.023305997
82	0x3db77144	0.089571506
83	0x3cf196e1	0.02949089
84	0x3ba780c0	0.0051117837
85	0x3ddc0648	0.107433856
86	0x3c6ebeac	0.014571827
87	0xbd87c375	-0.06629077
88	0xbdc52888	-0.09626871
89	0xbd9e6367	-0.07733803
90	0x3d805c75	0.06267635
91	0xbcf1bfc5	-0.029510388
92	0xbd0c9f51	-0.034331623
93	0xbdd1db82	-0.10246946
94	0xbe1c8342	-0.15284446
95	0x3d7622e8	0.060091883
96	0xbc804803	-0.015659338
97	0xbd6fdec2	-0.058562048
98	0x3ca7dc4e	0.020490792
99	0x3cc0557d	0.023478264
100	0xbc18ff87	-0.009338266
101	0x3d10c4ab	0.035343807
102	0x3d11b7cc	0.035575673
103	0x3c8e83a7	0.017396761
104	0xbba378e9	-0.004988779
105	0x3d15bd9c	0.03655778
106	0xbcaeb370	-0.021325797
107	0xbda65471	-0.08121575
108	0x3c8a8dca	0.016913313
109	0xbda786da	-0.08180018
110	0xbca002e2	-0.019532625
111	0xbbeafb8c	-0.0071711
112	0xbd04ec93	-0.032452177
113	0xbcf7ad6f	-0.030234067
114	0xbbd19b47	-0.0063966843
115	0x3d531851	0.05153686
116	0x3cd33596	0.025782388
117	0x3bbaf552	0.005705514
118	0x3d98ab51	0.07454551
119	0x3d7c8894	0.06165369
120	0xbdc61206	-0.096714064
121	0x3ce619ec	0.028088532
122	0xbd0bf6d2	-0.034170933
123	0x3caa8fc0	0.020820498
124	0xbd1cd9f3	-0.03829379
125	0xbd1671dd	-0.036729682
126	0x3d0dd003	0.034622204
127	0xbd38f8c6	-0.045159124
128	0x3d968c14	0.073509365
129	0x3b56a051	0.0032749365
130	0x3ca560e3	0.0201878
131	0xbcf7f1e2	-0.030266706
132	0x3d4a3219	0.049364183
133	0xbd180245	-0.03711154
134	0xbc2e24b2	-0.010628866
135	0xbc94d542	-0.018168095
136	0x3db150fd	0.086580254
137	0x3c7d546a	0.01546202
138	0xbd6f3333	-0.058398437
139	0x3cdf70e2	0.027275506
140	0xbdfc9a4f	-0.123341195
141	0xbb120f5a	-0.0022286982
142	0xbd1ddaa9	-0.03853861
143	0x3cdeea1c	0.027211241
144	0xba5326f0	-0.00080548134
145	0x3ddc07e7	0.10743695
146	0xbd4d1124	-0.050065175
147	0xbd3219e0	-0.043481708
148	0xbc818d87	-0.015814556
149	0x3d49e338	0.04928896
150	0x3cfdbe8e	0.030974653
151	0x3d2a98b4	0.041649535
152	0x3bb434f4	0.0054994766
153	0xbdb67dfc	-0.08910748
154	0x3d464c9a	0.048412897
155	0x3d3cb608	0.046072036
156	0xbcff91e3	-0.031197494
157	0x3d9ff359	0.07810087
158	0x3d807027	0.06271391
159	0x3d026a71	0.03183979
160	0xbdb709b4	-0.089373976
161	0x3c40dbf2	0.011771189
162	0x3da3cee8	0.079984486
163	0xbcc8e0b7	-0.024521215
164	0xbc863a9b	-0.016385367
165	0xbd236471	-0.03989071
166	0x3d8f4a9d	0.06996653
167	0xbb781f09	-0.0037860295
168	0x3d84a5bf	0.06476926
169	0xbd765a5b	-0.060144763
170	0x3c92ba6b	0.017911157
171	0xbbbfb82e	-0.0058508134
172	0xbd04d7b8	-0.032432288
173	0x3d22c4de	0.03973853
174	0x3d052e0d	0.03251462
175	0xbd3f5c24	-0.04671873
176	0xbd6f9b6c	-0.05849783
177	0x3ca9385b	0.020656755
178	0x3c3684bc	0.011140045
179	0xbbd79d31	-0.006580018
180	0x3d4aad47	0.049481656
181	0xbd88e57c	-0.06684396
182	0x3cdcaa04	0.026936539
183	0xbd05728e	-0.03257995
184	0xbd1b1f14	-0.037871435
185	0xbcb35e52	-0.021895561
186	0xbcc142f8	-0.023591504
187	0xbd9b4818	-0.0758211
188	0x3d3051d0	0.043046772
189	0x3ba29838	0.0049619935
190	0xbd9ae1be	-0.07562588
191	0xbd23ba43	-0.039972555
192	0x3d4734e5	0.04863443
193	0x3c6b5529	0.0143635655
194	0x3d1e273f	0.038611647
195	0xbc9d78cb	-0.019222638
196	0xbd5f6d1d	-0.054547418
197	0x3c876157	0.016525907
198	0xbcc0f338	-0.023553476
199	0xbcf0b37a	-0.029382456
200	0x3c3eee50	0.011653498
201	0x3dbd44bf	0.09241628
202	0xbd9fb8ef	-0.07798945
203	0x3ddea07f	0.10870456
204	0x3d832dd0	0.064052224
205	0x3da11684	0.07865623
206	0x3d3933e8	0.045215517
207	0xbda27d83	-0.07934096
208	0x3ce7776f	0.028255193
209	0xbc9552f2	-0.018228028
210	0x3d832f61	0.06405521
211	0x3cacda65	0.021100232
212	0x3c8dd53d	0.017313594
213	0x3dbcead6	0.09224479
214	0x3a91d2e2	0.001112547
215	0xbda6dbd2	-0.08147396
216	0x3d801b9e	0.062552676
217	0x3c0ce495	0.00859942
218	0xbd6828a8	-0.056679398
219	0xbb546d2d	-0.0032413707
220	0x3d33fc87	0.043942
221	0x3d86d225	0.06583051
222	0x3db6d4de	0.0892732
223	0xbc0c0446	-0.008545941
224	0xbcd9ae82	-0.02657247
225	0x3d60c7ac	0.054877922
226	0xbc86f26e	-0.016473021
227	0x3dd24e31	0.1026882
228	0x3c7a9c39	0.015296035
229	0x3b81f916	0.003966461
230	0x3d61fbb3	0.05517168
231	0xbcb84981	-0.022495987
232	0xbd1ffa03	-0.03905679
233	0xbd6ea957	-0.058266964
234	0x3d3f63fa	0.046726204
235	0xbba765c6	-0.005108568
236	0xbd229f23	-0.039702546
237	0xbd082f3f	-0.033248182
238	0xbd121234	-0.03566189
239	0xbda4b91d	-0.0804312
240	0x3d0a5f3b	0.033782225
241	0x3d88ff8a	0.06689365
242	0x3d237e50	0.039915383
243	0xbd3c38f1	-0.04595274
244	0x3b181516	0.0023205928
245	0x3d3aa782	0.045569904
246	0xbde085c1	-0.109630115
247	0xbb6ccd68	-0.0036133174
248	0xbd18b0ca	-0.037277974
249	0xbdb8b2d8	-0.09018487
250	0xbc5bfd5a	-0.013427103
251	0xbdc90d97	-0.09817045
252	0x3aa2944e	0.0012403817
253	0x3c09afc3	0.008403721
254	0xbcd86c11	-0.026418718
255	0xbc8dd40d	-0.017313028

decoders.0.decoder_net.7.bias f4 [16]
0	0xbd914c0b	-0.07094582
1	0xbe108375	-0.14112647
2	0xbdd96415	-0.10614792
3	0x3e2f67c7	0.17129432
4	0xbdef02bf	-0.11670446
5	0xbdee8e5b	-0.11648246
6	0x3dae5ae7	0.08513432
7	0x3e9f7555	0.31144205
8	0xbde9f215	-0.114231266
9	0x3da56eaa	0.08077748
10	0xbe127f29	-0.1430632
11	0x3d9ecf5e	0.07754396
12	0x3b0c0f79	0.0021371527
13	0x3e63ffbd	0.22265525
14	0x3d39896b	0.045297068
15	0x3db9061d	0.09034369

decoders.0.decoder_net.9.weight f4 [16]
0	0x3f6f69ed	0.93521005
1	0x3f69bfa3	0.9130804
2	0x3f6a4acf	0.915204
3	0x3f64a125	0.8930839
4	0x3f66e141	0.9018746
5	0x3f63a7b8	0.88927794
6	0x3f62e866	0.8863586
7	0x3f62b0a1	0.88550764
8	0x3f66ce4f	0.9015855
9	0x3f6b24b6	0.9185289
10	0x3f68a384	0.90874505
11	0x3f672f18	0.90306234
12	0x3f6c8a9f	0.9239902
13	0x3f6e41e0	0.9306927
14	0x3f6679c3	0.90029544
15	0x3f68a541	0.9087716

decoders.0.decoder_net.9.bias f4 [16]
0	0xbda99f54	-0.082823426
1	0xbd6f3f00	-0.05840969
2	0x3cd9d0ee	0.026588883
3	0xbd32722d	-0.043565918
4	0x3c7f8bad	0.015597266
5	0xbab16b71	-0.0013536048
6	0xbcec7b8d	-0.028867507
7	0xbc5ecd16	-0.013598701
8	0x3d4d37b5	0.050101954
9	0x3d898ddc	0.06716511
10	0xbce4641d	-0.027879769
11	0xbd1e199e	-0.03859865
12	0x3d553a27	0.05205741
13	0x3c9cabd0	0.019124895
14	0x3d8722c4	0.06598428
15	0x3e89e3dd	0.26931658

decoders.0.decoder_net.9.running_mean f4 [16]
0	0x3d672007	0.056427028
1	0x3d650390	0.0559116
2	0x3d5a8878	0.053352803
3	0x3d94fc49	0.07274682
4	0x3d5c2c92	0.053753443
5	0x3d6197ce	0.055076413
6	0x3d8c2b7a	0.0684423
7	0x3dac92ca	0.08426435
8	0x3d594e2b	0.053053062
9	0x3d82e373	0.06391039
10	0x3d5b69b1	0.053567592
11	0x3d8a60e0	0.06756759
12	0x3d733911	0.059380595
13	0x3d9beb3c	0.07613227
14	0x3d7c61bf	0.061616655
15	0x3d84b437	0.06479686

decoders.0.decoder_net.9.running_var f4 [16]
0	0x3a79103d	0.0009501016
1	0x3a923131	0.0011153576
2	0x3a1c1bc0	0.0005955063
3	0x3ab30bf7	0.0013660182
4	0x3a3e5a16	0.00072613487
5	0x3a3356c8	0.00068412395
6	0x3aa31799	0.0012442946
7	0x3aacd0da	0.0013184801
8	0x3a18cfd6	0.000582931
9	0x3a40e57a	0.00073584134
10	0x3a5d68ed	0.0008446116
11	0x3a989e7d	0.0011643913
12	0x3a206d9f	0.00061198504
13	0x3ae3a861	0.0017368906
14	0x3a373b14	0.00069896993
15	0x3a28e6c7	0.000644308

decoders.0.decoder_net.10.weight f4 [16, 1, 3, 3]
0	0x3d84a30a	0.0647641
1	0x3d39f72e	0.045401745
2	0x3d29d7ac	0.041465446
3	0xbbcc44da	-0.0062337937
4	0x3e5f8efe	0.21831891
5	0x3e0b205b	0.13586561
6	0x3c53751d	0.01290634
7	0x3d87abdb	0.06624576
8	0x3d2bf565	0.041982073
9	0x3e2d85d3	0.16945581
10	0x3df50478	0.11963743
11	0xbd595575	-0.053060014
12	0x3d614b2b	0.055003326
13	0x3e818af0	0.25301313
14	0x3e447cff	0.19188307
15	0x3dfdecb6	0.12398665
16	0x3c296b03	0.010340455
17	0x3dc0e903	0.094194435
18	0x3c22d5c5	0.009938662
19	0xbe334f0b	-0.17510621
20	0xbc91292d	-0.01771983
21	0xbd14d707	-0.03633788
22	0x3dabd44b	0.08390101
23	0x3dce0213	0.100589894
24	0xbde8e9c4	-0.11372712
25	0xbe4fc733	-0.20290832
26	0x3de61556	0.11234538
27	0x3e4965a7	0.19667684
28	0xbe4187a3	-0.18899398
29	0xbd21ad8c	-0.039472148
30	0xbe480d26	-0.19536266
31	0x3e34f58f	0.17671798
32	0xbd233da7	-0.039853718
33	0x3e3e8521	0.18605472
34	0xbe26c73b	-0.16286938
35	0x3e3bd48b	0.18342797
36	0x3dde9459	0.10868139
37	0x3d836397	0.0641548
38	0xbd0cd980	-0.03438711
39	0xbd5de04f	-0.054168995
40	0x3d76f596	0.060292803
41	0xbe1e2734	-0.15444642
42	0x3e12e7b6	0.14346203
43	0xbaf73f3c	-0.001886345
44	0xbd570fa8	-0.052505165
45	0x3dd720d8	0.10504311
46	0x3d6cb325	0.057788033
47	0x3d2fd955	0.042931873
48	0x3df35b90	0.118826985
49	0xbd4e5d74	-0.050382093
50	0xbdbccfc6	-0.09219317
51	0x3d8c874e	0.06861745
52	0x3dc18aa7	0.09450274
53	0xbc96145d	-0.018320257
54	0x3de8fcbd	0.11376331
55	0x3e478e2e	0.19487831
56	0x3e300cf2	0.17192438
57	0xbe471d65	-0.19444807
58	0x3da4a3ea	0.080390766
59	0x3d7db7f3	0.061943006
60	0x3df0148a	0.117226675
61	0xbd91ee23	-0.07125499
62	0xbda895f3	-0.082317255
63	0xbb5fed66	-0.00341686
64	0xbe3cfd72	-0.18456057
65	0xbba7376c	-0.0051030423
66	0xbe307009	-0.17230238
67	0x3d8cb2a3	0.0687001
68	0x3c759ecc	0.014991473
69	0x3de60f62	0.11233403
70	0xbd9527bc	-0.07282969
71	0x3b5ca12d	0.0033665404
72	0xbde626e4	-0.112378865
73	0x3e09b62e	0.13448402
74	0xbde6dab9	-0.11272187
75	0xbe53cf65	-0.20684583
76	0xbe67d819	-0.22641028
77	0xbe728892	-0.2368491
78	0x3e036b13	0.12833814
79	0x3e2a142c	0.16609257
80	0xbe598926	-0.21243724
81	0xbd2336b7	-0.039847102
82	0xbcf6d075	-0.030128697
83	0xbda27803	-0.07933047
84	0xbdcc4439	-0.0997395
85	0xbe139661	-0.14412834
86	0xbd8fcadf	-0.070211165
87	0x3e1c6a96	0.15275034
88	0xbd999910	-0.074998975
89	0xbdc4ade7	-0.09603482
90	0x3e10cfcf	0.14141773
91	0x3d5b8a1e	0.053598516
92	0x3dc91144	0.09817746
93	0x3cdc8333	0.02691803
94	0x3cac26e3	0.021014636
95	0x3e0ffca3	0.14061217
96	0x3e06ef24	0.13177162
97	0x3c89b678	0.01681064
98	0x3c319dd1	0.010840849
99	0x3e7f3f98	0.24926603
100	0x3e2d90fb	0.16949837
101	0xbe2cb0fd	-0.1686439
102	0xbcef6a5b	-0.029225519
103	0x3e3292e9	0.17438854
104	0x3e25c5a1	0.1618867
105	0x3d0aa779	0.03385112
106	0xbe2a2e1a	-0.16619149
107	0xbd47c9ed	-0.048776556
108	0x3d1d16e7	0.03835192
109	0x3d10b0aa	0.03532473
110	0xbe0995b1	-0.13436009
111	0x3ce04561	0.027376832
112	0xbdeb90da	-0.115022376
113	0xbe08b240	-0.13349247
114	0xbdea36e1	-0.114362486
115	0x3de3b421	0.11118341
116	0x3d98e93e	0.074663624
117	0x3cb61e64	0.022231288
118	0xbd9a851f	-0.07544922
119	0xbcaf029a	-0.021363545
120	0xbe67bc34	-0.22630388
121	0x3e0a4783	0.13503842
122	0x3dd7cc9f	0.10537075
123	0x3e51371b	0.20431177
124	0xbe860ec7	-0.2618315
125	0xbe0bb0fe	-0.13641736
126	0x3e3d1165	0.18463667
127	0xbad15c0c	-0.0015972867
128	0x3ce99e88	0.028517976
129	0xbc9a97f8	-0.018871292
130	0xbdecdc8b	-0.11565503
131	0xbba1d53b	-0.004938749
132	0x3ddac799	0.106826015
133	0xbe322234	-0.1739586
134	0x3e17cb01	0.14823534
135	0x3e5795eb	0.21053283
136	0xbceaa5fd	-0.028643603
137	0xbcd86cfa	-0.026419152
138	0x3c6306d2	0.013856607
139	0x3d97ec74	0.07418147
140	0xbc9cebe7	-0.019155456
141	0xbda636e9	-0.08115942
142	0xbe2b09d9	-0.16702975
143	0xbcb51994	-0.022106923

encoder.encoder_net.0.weight f4 [16, 1, 3, 3]
0	0x3dfa1d05	0.12212566
1	0xbeb15019	-0.34631422
2	0x3d38949c	0.0450636
3	0xbe8715a7	-0.26383707
4	0x3e4911dc	0.19635719
5	0x3c9882ee	0.01861712
6	0xbe95107a	-0.29114133
7	0x3e756eb8	0.23968017
8	0xbe5fd242	-0.2185755
9	0x3e7101e9	0.23535885
10	0xbd5b54d4	-0.053547695
11	0xbd5a833b	-0.053347807
12	0xbd14331a	-0.036181547
13	0x3d1b7de4	0.037961856
14	0xbe34ccfd	-0.17656322
15	0x3e150b38	0.14555061
16	0xbe7ba3cb	-0.24574201
17	0x3e713431	0.23555066
18	0x3e364608	0.17800152
19	0x3e036577	0.12831675
20	0x3e36d466	0.17854461
21	0xbd839ff6	-0.064269945
22	0x3eba2a9e	0.3636064
23	0x3dd3e8af	0.10347115
24	0x3d921b69	0.07134134
25	0x3d5b4a35	0.053537566
26	0xbe7fbae9	-0.24973644
27	0x3c0138d2	0.007887082
28	0x3d14c88b	0.036324065
29	0xbeab161a	-0.334153
30	0xbe30fc9c	-0.17283863
31	0xbe59d664	-0.2127319
32	0x3e1e7387	0.15473758
33	0x3ce58a4b	0.028020045
34	0xbdd43a19	-0.10362644
35	0xbc8c9b67	-0.017163945
36	0x3e055166	0.13019332
37	0x3ca8af40	0.020591378
38	0x3ea844cb	0.32864985
39	0xbdb52fbc	-0.08846995
40	0xbe0ce234	-0.13758165
41	0x3de86654	0.113476425
42	0x3e8fc34f	0.28078696
43	0xbdb80fb2	-0.08987369
44	0xbe5426f8	-0.2071799
45	0xbc9df800	-0.019283295
46	0xbb77f03f	-0.0037832407
47	0xbe00470d	-0.12527104
48	0x3e87b1ac	0.2650274
49	0x3e96df25	0.2946712
50	0x3df1d1db	0.11807605
51	0x3e3f82aa	0.18702188
52	0x3e4763f8	0.19471729
53	0x3d3b9a6d	0.04580157
54	0x3e1512e9	0.14557995
55	0x3e7353fc	0.23762506
56	0xbe7921b7	-0.24329267
57	0xbe562944	-0.20914179
58	0xbe896969	-0.26838234
59	0xbc89453a	-0.016756643
60	0x3e0286e6	0.12746772
61	0xbea0b00c	-0.31384313
62	0xbdcd2a68	-0.10017854
63	0x3e938730	0.28814077
64	0xbc87ec8a	-0.016592283
65	0x3ebcb10d	0.3685383
66	0xbe580f65	-0.21099623
67	0x3e68de48	0.22741044
68	0x3ddcee88	0.10787684
69	0x3e8b94c1	0.27261928
70	0xbe5c46b1	-0.21511342
71	0x3e83ed3e	0.2576694
72	0x3e970917	0.29499123
73	0x3e131d6a	0.1436669
74	0xbdd241f6	-0.10266487
75	0xbdd8291c	-0.10554716
76	0x3dab7af8	0.08373064
77	0x3eaf6f94	0.34264815
78	0x3d950fa8	0.07278377
79	0xbda45854	-0.0802466
80	0x3e7c5f3a	0.24645701
81	0xbe869d8e	-0.2629208
82	0xbe5d42f5	-0.21607573
83	0x3e5f3613	0.21797971
84	0xbb527f27	-0.0032119246
85	0x3da46915	0.08027855
86	0xbe3b1cf6	-0.18272766
87	0xbe011bf9	-0.12608327
88	0xbd2efd08	-0.04272178
89	0x3e526b9d	0.20548864
90	0x3e803502	0.25040442
91	0x3dd72214	0.10504547
92	0xbe1ed726	-0.1551176
93	0xbdc5163c	-0.096233815
94	0xbe97893a	-0.29596883
95	0x3e5b261a	0.21401253
96	0xbeab0e4f	-0.33409354
97	0xbea03412	-0.31289726
98	0x3e632bcd	0.22184677
99	0xbdb7d167	-0.08975487
100	0xbe807acd	-0.2509369
101	0xbeb49d77	-0.35276386
102	0x3e3490b9	0.17633332
103	0x3e9d92de	0.30776113
104	0xbe824e3f	-0.25450322
105	0x3e150dd9	0.14556064
106	0xbe508cb8	-0.2036618
107	0xbc25a98e	-0.010111226
108	0xbe584aba	-0.21122256
109	0xbec58ab2	-0.3858238
110	0xbcd14c71	-0.025549145
111	0xbec6f4df	-0.38858697
112	0x3e2f4119	0.17114677
113	0x3dacd5e5	0.08439235
114	0xbe8436ab	-0.25822958
115	0xbc083d5b	-0.0083154095
116	0xbe7a736b	-0.24458091
117	0x3e2d1ad1	0.16904761
118	0xbd929c74	-0.07158747
119	0x3c3e92e1	0.011631698
120	0x3e812e83	0.25230798
121	0xbddd10d5	-0.10794226
122	0xbe82cbd5	-0.25546136
123	0xbbff8d7e	-0.0077988496
124	0xbe7f83e1	-0.24952652
125	0xbdaa9604	-0.083293945
126	0xbe6cd094	-0.23126441
127	0xbe2c12a6	-0.16803989
128	0xbe8575f5	-0.26066557
129	0x3e8893ad	0.26675168
130	0x3e548342	0.20753196
131	0x3dad0d57	0.0844981
132	0x3e89ac9a	0.26889497
133	0x3e56b129	0.20966019
134	0x3e9d5910	0.30732012
135	0x3ea35d54	0.3190714
136	0x3dced444	0.1009908
137	0xbcf9fcf6	-0.030516129
138	0x3e8d3022	0.27575785
139	0xbe1bb2a9	-0.15204872
140	0xbe09168c	-0.13387507
141	0x3e8c914c	0.27454603
142	0xbde92fa7	-0.11386042
143	0xbe04bdea	-0.12963071

encoder.encoder_net.0.bias f4 [16]
0	0x3e702ff6	0.23455796
1	0xbe120a7c	-0.14261812
2	0xbe45692d	-0.19278403
3	0xbe4a3679	-0.19747342
4	0x3e12c595	0.14333184
5	0x3d159cea	0.036526598
6	0xbe925ec4	-0.28587925
7	0xbd32eecb	-0.043684762
8	0x3ea893f3	0.32925376
9	0xbe0a371b	-0.13497584
10	0x3e0fcb1f	0.14042328
11	0xbe0d2ae5	-0.13785894
12	0x3e06165d	0.13094468
13	0xbe677612	-0.22603634
14	0xbe7bc465	-0.24586637
15	0xbe9e669d	-0.30937663

encoder.encoder_net.2.weight f4 [16]
0	0x3f80cf6a	1.0063298
1	0x3f7aacb6	0.97919786
2	0x3f87ff56	1.0624797
3	0x3f860756	1.0470989
4	0x3f79b4d5	0.9754155
5	0x3f85fc1a	1.046756
6	0x3f853604	1.0407109
7	0x3f804c41	1.0023271
8	0x3f82b416	1.0211208
9	0x3f83912d	1.0278679
10	0x3f80f19b	1.0073732
11	0x3f8498d8	1.0359144
12	0x3f87819a	1.0586426
13	0x3f8560af	1.042013
14	0x3f80ee99	1.0072814
15	0x3f7ee071	0.9956122

encoder.encoder_net.2.bias f4 [16]
0	0xbca2fc9b	-0.019895842
1	0x3d4685b0	0.048467338
2	0xbd6f0a6c	-0.05835955
3	0x3db2d47f	0.08731937
4	0xbc55c001	-0.013046266
5	0xbd7f488d	-0.06232505
6	0x3d77ccab	0.06049792
7	0xbd84f71a	-0.064924434
8	0xbc2d3c73	-0.010573494
9	0x3dacf17f	0.08444499
10	0x3b95fe73	0.004577452
11	0x3c38bb74	0.011275161
12	0x3b1c319d	0.0023833283
13	0xbc744799	-0.014909648
14	0xbd19df5c	-0.037566528
15	0xbc638170	-0.013885841

encoder.encoder_net.2.running_mean f4 [16]
0	0x3d99deaf	0.07513177
1	0x3d6271d2	0.05528433
2	0x3d7120f1	0.058869306
3	0x3d45adc0	0.048261404
4	0x3d9ce0d3	0.07660069
5	0x3d9d6804	0.07685855
6	0x3d34b611	0.044118945
7	0x3d93eb10	0.07222569
8	0x3dcf2402	0.1011429
9	0x3d598160	0.053101897
10	0x3d8eb7d1	0.06968654
11	0x3d540f44	0.05177237
12	0x3d8154d2	0.06315006
13	0x3d46711d	0.048447717
14	0x3d64370f	0.05571657
15	0x3d4b49df	0.049630996

encoder.encoder_net.2.running_var f4 [16]
0	0x3917c443	0.00014473595
1	0x378e5d2a	1.6971102e-05
2	0x39152793	0.0001422449
3	0x389c73e2	7.4602445e-05
4	0x384846fe	4.7749832e-05
5	0x39cdffc3	0.00039291204
6	0x3897f555	7.245938e-05
7	0x39b1358b	0.00033799963
8	0x39c6f7c1	0.00037950094
9	0x3882e6e5	6.2418905e-05
10	0x391eab1e	0.000151318
11	0x38aec9a7	8.334527e-05
12	0x3994519c	0.00028289563
13	0x387e3bbd	6.0613955e-05
14	0x395505e8	0.00020315463
15	0x38af7834	8.36704e-05
