Project2/models/model_2_8.pt (torch, 214300 bytes, 56 tensors)

prior.mean f4 [2]
000000 00 00 00 00 00 00 00 00
       0.0 0.0

prior.std f4 [2]
000000 00 00 80 3f 00 00 80 3f
       1.0 1.0

decoders.0.decoder_net.0.weight f4 [512, 2]
000000 2d 33 74 bd e5 40 2e bf b0 c9 f4 3c 87 79 f9 3e
       -0.059619118 -0.6806777 0.029881328 0.4872553
000010 f3 03 ae 3e 2b f5 20 3e 6f 43 02 bd f1 f3 1c bf
       0.33987388 0.15718524 -0.03180259 -0.61309725
000020 47 d7 ab 3e 2b b4 bc be a9 6f 8f be e0 bc 22 bf
       0.3356268 -0.36856207 -0.28014877 -0.6356945
000030 e8 c8 12 3f 6f d1 35 3f 73 19 95 3e 3d 4c 0c bf
       0.5733781 0.71022695 0.2912098 -0.5480383
000040 9e 1b 6b be 13 06 34 bd f3 3a 5d be b2 a8 40 be
       -0.22959754 -0.043951105 -0.21604519 -0.18814352
000050 06 7a 0d bf 5f 61 ed 3e f3 64 02 be 09 6d a7 3e
       -0.5526432 0.4636335 -0.12733822 0.32700375
000060 66 15 1f bf e0 1c 6b be e3 a0 91 be b1 25 15 3f
       -0.62142026 -0.22960234 -0.2844306 0.5826064
000070 4b a4 13 3f f3 02 37 3c be bf 0f be 60 73 d8 be
       0.57672566 0.011170137 -0.14037988 -0.42275524
000080 8d 4c 04 3f d4 7c 20 bf 74 b0 57 3e 28 ed d9 3e
       0.5167931 -0.6269047 0.21063405 0.42563748
000090 52 66 a2 3e 0f d2 14 3f 63 92 04 bf af 4e 85 be
       0.3171869 0.58133024 -0.5178587 -0.26036593
0000a0 60 3c 3c be ce fb e9 be 62 3c 28 3f c8 4a 72 be
       -0.18382406 -0.45699924 0.65717137 -0.2366134
0000b0 0a 58 cb be ee 24 c6 be 99 e5 a5 be 1d eb bc 3e
       -0.39715606 -0.3870005 -0.32401732 0.36898127
0000c0 04 c0 65 be e2 1e e5 3d 48 86 db 3e 27 62 90 be
       -0.2243653 0.11187531 0.42875886 -0.28199884
0000d0 f6 1f 23 3f da e8 4c be e7 79 9a 3e 8e 0b 1c be
       0.63720644 -0.20010701 0.3017113 -0.15238783
0000e0 50 ab 14 bf 71 29 cd bc e0 3c 1a bf a6 be de 3c
       -0.580739 -0.025044175 -0.6024914 0.027190518
0000f0 79 70 23 3f 39 34 3b bd e1 ba cb bd 00 5f 00 bf
       0.63843495 -0.0457041 -0.09947754 -0.5014496
000100 8c 84 21 bf 67 22 7a be 1b d1 e6 3c 1d 6e 80 3e
       -0.63092875 -0.24427186 0.028175881 0.2508401
000110 4a dc ea be 58 d3 0f 3f 78 73 2c 3d 94 6f 4c be
       -0.45871192 0.5618186 0.042102307 -0.19964439
000120 40 66 c5 be 21 d7 05 bf 13 e0 9b 3e ee 8a 18 3f
       -0.38554573 -0.52281386 0.30444393 0.5958699
000130 ec 74 2f bf b5 c5 1b bf 07 3d 71 bd a9 d3 9d 3d
       -0.68537784 -0.6084855 -0.05889609 0.077063866
000140 fa 01 1e bf ff 06 19 bf dd 51 75 3d d3 27 bf 3e
       -0.61721766 -0.597763 0.059892524 0.3733507
000150 3d 93 97 be 3e 66 5f 3e 3c 14 34 bd b5 08 d8 be
       -0.2960452 0.21816346 -0.04396461 -0.42194143
000160 06 0d 57 3e 2a de 0e 3f c4 c8 81 3e 52 3d bb 3e
       0.21001062 0.55807745 0.25348485 0.3657022
000170 e7 89 d6 3d 1b 73 e8 be 4f ef 87 be 20 8c 61 be
       0.104755215 -0.45400319 -0.26549765 -0.2202611
000180 34 31 a9 be d8 48 00 3f 26 52 88 be 58 2a 25 bf
       -0.33045352 0.5011115 -0.26625174 -0.64517736
000190 69 e8 05 3f 24 fa c9 bd 7e b5 8a 3e fb 9e bb 3e
       0.52307755 -0.09862164 0.27091593 0.3664473
0001a0 e1 11 d1 3e 25 f3 ae 3e 31 57 f5 3e 99 1f 72 3d
       0.40833953 0.3416988 0.47918084 0.059112165
0001b0 21 33 ba 3e 0b 52 22 3d cd a8 2b 3e b7 0f 9f 3e
       0.36367133 0.039629024 0.16763611 0.31066677
0001c0 28 67 93 be 3e 47 1f bf 63 9c c1 3e d4 b9 db be
       -0.2878964 -0.6221808 0.37814626 -0.42915213
0001d0 9b 70 30 3e e1 b7 c3 3e d7 3f 43 3f 11 e2 11 3e
       0.17230456 0.38226226 0.76269287 0.14246394
0001e0 0d 08 68 3e fb 27 07 3d 8e 75 fa be 71 99 b3 3e
       0.22659321 0.032997113 -0.48917812 0.35078004
0001f0 b0 73 17 3e 3f f0 32 3f 50 f2 3d be 28 fa b7 be
       0.14790225 0.69897836 -0.18549466 -0.35933042
000200 f2 75 b1 3e 4e 92 f9 bd cc 79 9a 3e c9 cb c0 3e
       0.34660298 -0.121861085 0.3017105 0.37655476
000210 c2 26 7c 3e 17 1b 81 3e 59 ec f9 3d f5 bf 7c 3e
       0.2462416 0.2521598 0.12203283 0.24682601
000220 35 3c 5a bd 4c d1 88 be 97 3a 47 3d fc 9c e2 3d
       -0.053280074 -0.2672218 0.04863986 0.11065099
000230 e1 35 99 be c9 e5 a3 3c 68 77 00 bf dc d7 32 bd
       -0.2992392 0.020007031 -0.501822 -0.04366289
000240 3f cb 2a be 5c 86 1a 3f 11 95 d0 3e 91 85 d9 bc
       -0.16679095 0.60361266 0.4073873 -0.026552947
000250 26 23 81 bc 2e 7b 06 bf 7f db f5 be 90 71 d1 be
       -0.01576383 -0.5253171 -0.48019025 -0.40906954
000260 f3 c2 52 3e b0 37 1a 3f 01 e1 0d 3e d6 87 1c 3f
       0.2058218 0.6024122 0.13855363 0.6114477
000270 71 15 8c 3e 0e 6e 7c 3e f4 f9 d1 3d a3 5f 15 bf
       0.27360108 0.24651358 0.10252753 -0.58349055
000280 6e 3c 1a 3d e1 4c c6 3e 28 78 da 3d f0 5b b5 3e
       0.037655286 0.3873053 0.10667449 0.35421705
000290 4a f0 37 3e e5 40 1e bf b4 84 1d bf 16 ee 66 be
       0.17962757 -0.6181777 -0.61530614 -0.2255176
0002a0 62 68 0c bf c4 36 9a 3e 64 a2 74 3e 62 60 13 bf
       -0.54846776 0.30119908 0.23890072 -0.57568944
0002b0 3d 1c 23 3f a3 75 77 3e 94 af 3b be 48 e2 96 be
       0.63714963 0.24165969 -0.18328696 -0.29469514
0002c0 6b 18 c6 bb f6 cc b2 3e 69 f5 bc 3e ff bf 0d 3f
       -0.0060453913 0.34921998 0.36905983 0.5537109
0002d0 72 b1 3e 3e 5d 03 a1 3e 65 e6 30 bf 93 5f 70 3e
       0.18622378 0.31447878 -0.69101554 0.23473959
0002e0 03 22 e1 3e 8f d9 18 bf 17 bc 06 be 5c 58 1b bf
       0.4397126 -0.5970697 -0.13157688 -0.606817
0002f0 9c 66 e3 be 7b f1 08 bf 15 7a 1a 3f c1 20 aa 3e
       -0.44414222 -0.5349347 0.6034253 0.33228114
000300 b4 07 09 3f aa d0 a2 3e 02 d4 9e 3e c3 6a ba bd
       0.5352738 0.31799823 0.31021124 -0.091023944
000310 93 de 26 bf b5 ac c0 bd 9f 4a a9 bd 98 9c 83 be
       -0.6518337 -0.09407941 -0.08266186 -0.2570541
000320 51 7f 06 3f 79 4f 1f 3f 4b 8f c9 be 81 6f 33 be
       0.5253802 0.6223064 -0.39367136 -0.17523004
000330 1d dc 06 bf ef 04 93 3e 4a 19 e6 3e 3d e1 ed be
       -0.52679616 0.28714702 0.4494117 -0.46460906
000340 c1 eb df 3e 3c 9d ae be c8 b5 a9 3c c4 24 88 3e
       0.43734553 -0.34104335 0.020716563 0.2659055
000350 17 86 d7 be 2c 98 17 bf b3 c2 4c 3e 5e 83 99 3e
       -0.4209449 -0.5921657 0.19996147 0.29983038
000360 9d 5b 74 be cf 7d d2 3e 47 62 ac bd 41 4a d7 3e
       -0.23863073 0.4111161 -0.084171824 0.4204884
000370 6f 12 43 bf b1 6c a3 bc 5d ef f0 bd 3c c1 84 3d
       -0.762 -0.019949289 -0.11764405 0.06482169
000380 89 68 92 be d7 95 b1 3e 33 72 19 3e 18 f1 d0 be
       -0.2859538 0.3468463 0.1498497 -0.4080894
000390 14 a9 c3 bd 62 ab 2e bf 79 b6 06 be 6d 16 29 bf
       -0.095537335 -0.6823026 -0.13155545 -0.66049844
0003a0 3e 92 ba be d5 67 1b 3f 28 27 28 bf c4 a1 24 be
       -0.364397 0.6070531 -0.6568475 -0.16077334
0003b0 3c 30 4d 3f e6 98 46 bf 04 03 33 bd 00 ef 58 be
       0.80151725 -0.77577055 -0.043704048 -0.21184921
0003c0 7e 70 82 3e 2f 23 b9 be b4 5f 29 3e 7f cd 39 bf
       0.2547645 -0.36159655 0.16540414 -0.7257919
0003d0 11 cd 02 3f a5 ad 16 3f 5d aa 21 3e 0a 32 ef be
       0.51094157 0.5885871 0.15787645 -0.46717864
0003e0 48 d6 4f 3e 2a fc 95 bd f1 20 b2 be f7 ef e3 3e
       0.20296586 -0.07323487 -0.34790757 0.44519016
0003f0 8a 85 b4 3e 94 41 d9 be c7 33 39 3f 3f 98 0b 3e
       0.35258132 -0.42432845 0.7234463 0.13632296

decoders.0.decoder_net.0.bias f4 [512]
000000 5d 35 a9 be e5 df 05 bf 55 6d c9 3e 2e 05 5b be
       -0.33048525 -0.5229476 0.39341226 -0.21388695
000010 72 bc c3 3e 2a 57 2f bf 7f 4e d9 3e c0 e3 ab be
       0.3822971 -0.68492377 0.424427 -0.33572197
000020 5a 41 31 bf ba d6 15 3f a3 d1 82 3e db 00 ee 3e
       -0.69240344 0.5853077 0.25550565 0.46485028
000030 5b 4d 81 bd f1 cf f4 3e bc 59 e6 be 54 9a 11 bf
       -0.063135825 0.47814897 -0.44990337 -0.5687611
000040 25 46 1d bf 67 0f e0 3e 59 26 a4 3c c4 32 02 3f
       -0.6143516 0.4376175 0.020037817 0.5085871
000050 20 9e 23 3f 44 05 22 bf 03 a1 71 3e af b2 f1 be
       0.63913155 -0.63289285 0.23596577 -0.47206637
000060 12 ad 3d bf 0c f8 c8 be c1 50 34 3e 5c 61 6e be
       -0.7409221 -0.39251745 0.1760893 -0.23279327
000070 dc 6f 1f bf 5b 0f 1a 3e 48 b6 7f 3b 86 c8 1a 3e
       -0.6228006 0.1504492 0.003901856 0.15115556
000080 9c 33 08 bf 15 ff a4 bc 9a aa a0 3e ea 92 6f be
       -0.5320375 -0.020141164 0.3138016 -0.23395887
000090 82 7f 1f be 66 95 27 bf 45 ef 18 be 36 86 2c 3f
       -0.15575984 -0.6546234 -0.14935024 0.6739229
0000a0 5d 7c 4b be 79 f6 0d 3e 86 9a a1 3e 37 8b 38 3e
       -0.1987166 0.13863553 0.31563205 0.18021856
0000b0 97 fc c9 3d 24 d9 3f bf e0 39 2f bd d3 24 29 bf
       0.09862631 -0.74940705 -0.042779803 -0.66071814
0000c0 4f af 03 bf 1b c2 04 3f 80 35 eb be 0c 6f cf 3e
       -0.51439375 0.5185868 -0.45939255 0.4051441
0000d0 60 66 1b bf e2 a7 5c be e3 58 18 bf 7c 0f f5 bc
       -0.60703087 -0.21548417 -0.5951063 -0.02991461
0000e0 91 6e f6 be 2d 8b 82 3e a1 88 f1 be bc e5 2b 3f
       -0.4813123 0.25496808 -0.47174552 0.6714742
0000f0 7a 6d 27 3f 04 aa 52 3e e8 e9 3d 3e eb dd d2 3e
       0.6540142 0.20572668 0.1854626 0.41184935
000100 45 e1 12 bf 71 71 13 be 35 ef 23 3f 8e db 3f 3e
       -0.57374984 -0.14398743 0.64036876 0.18736097
000110 29 0a 22 bd 50 d8 b8 3e 21 55 3e bf 7f 99 00 3f
       -0.03956047 0.36102533 -0.74348646 0.50234216
000120 c5 95 11 bf cb ed 09 3f 41 2d dc 3e 40 8c c1 be
       -0.56869155 0.5387847 0.43003276 -0.37802315
000130 28 c2 0c bf ca 42 0d 3f 23 61 08 bf 98 fc ef 3e
       -0.5498376 0.5518004 -0.5327322 0.468724
000140 33 b5 23 3f 83 62 16 3f 0c 3f ba be d4 e6 17 bd
       0.63948363 0.58744067 -0.36376226 -0.03708537
000150 b5 93 cd 3e ed 1b f9 3e 98 52 29 bf b9 59 6f be
       0.40151754 0.48654118 -0.66141653 -0.2337407
000160 a0 e5 1f 3d e6 bb b1 be 5b 97 82 3e 9c e4 0c 3f
       0.039037347 -0.34713668 0.255061 0.5503633
000170 9b 5b a4 be 6b f9 b8 3e 77 1f d0 bd d8 93 11 be
       -0.3210114 0.3612779 -0.101622514 -0.14216554
000180 47 94 d6 be 24 3e 10 3e 3f 95 8b 3d 46 ae ec 3e
       -0.41910002 0.14086205 0.06815576 0.4622671
000190 00 11 ed be 32 f2 2b 3e ce e7 e6 be ac 16 a6 bd
       -0.46302032 0.16791609 -0.45098728 -0.08109793
0001a0 ca 6e 04 3f 8b fb ae be 07 a5 9d 3e 52 a2 b7 3e
       0.5173155 -0.34176287 0.30789968 0.35866028
0001b0 cb 1a db 3e 15 51 99 be 40 16 15 bf af 8e f5 3e
       0.4279388 -0.29944673 -0.58237076 0.4796042
0001c0 24 1d 3e bf 9f 13 09 3f 3f 0a 00 bf 9b 0f 9d 3e
       -0.74263215 0.53545564 -0.50015634 0.3067597
0001d0 e4 3b 07 be ef d6 af 3e 8e 85 bc be a5 ce 49 3e
       -0.1320644 0.3434367 -0.36820644 0.19707735
0001e0 91 67 c1 be 65 4f 10 bf c5 c5 cd be f0 eb b8 3e
       -0.37774327 -0.56371146 -0.4018995 0.36117506
0001f0 97 20 1e bf 49 5c 82 be 07 43 09 be 6a b6 93 3d
       -0.6176848 -0.25461033 -0.13404475 0.07212527
000200 1e ef 9e be 51 64 97 3d a3 1d ad bd 89 89 2c be
       -0.31041807 0.07392181 -0.084529184 -0.1684934
000210 69 4b 47 3e dc 03 61 be 40 35 00 be 7c cb 6b be
       0.1946236 -0.21974128 -0.12520313 -0.23026842
000220 f5 04 8a be cc 93 43 3f e9 7c c6 be 68 b6 23 bf
       -0.26956907 0.76397395 -0.38767174 -0.63950205
000230 3e 5a 69 be 3c 93 26 3f 93 a3 0a 3f a6 5c 3a be
       -0.22788331 0.6506841 0.54155844 -0.18199405
000240 0c 0a 84 3e 6f 29 72 3e 20 02 03 3e 83 0d 16 3f
       0.25788915 0.23648618 0.1279378 0.5861437
000250 61 3c 51 3e ce fd fe be 4b fe 4e bf 57 01 bc be
       0.20433189 -0.49803013 -0.8085677 -0.36719772
000260 d5 ab bc 3d 29 47 08 bf 55 87 43 bd e0 2b 2b 3e
       0.09212462 -0.5323358 -0.047736485 0.16715956
000270 7d 94 31 3f 21 20 87 3e 59 3d 1a 3e 15 6b 1c 3f
       0.693672 0.263917 0.15062465 0.61100894
000280 bd ad 82 3d d2 ac e6 3d be a9 0a bf d3 9f 0c 3f
       0.06380794 0.112634316 -0.54165256 0.5493137
000290 f3 18 f5 3e 22 2c 23 bf 49 0e 1e bf 20 76 00 3e
       0.47870597 -0.63739216 -0.6174055 0.12545061
0002a0 cd 13 31 bf 59 37 fb 3e 1d c3 3b 3e 21 f9 dd 3d
       -0.6917084 0.49065664 0.18336149 0.10838533
0002b0 18 2c 7e 3e f2 f9 6c be 90 bd 00 3e e5 22 11 3f
       0.24821508 -0.23142222 0.12572312 0.5669387
0002c0 20 d5 02 3f dd 54 f0 bc 9b 1d a3 3e a5 df fd 3c
       0.5110645 -0.029337341 0.31858525 0.030990431
0002d0 54 d3 27 3f 9d df 25 3f fe c7 ba 3e 71 80 04 be
       0.65556836 0.6479433 0.36480707 -0.12939622
0002e0 fe b9 01 be 2b b4 ae 3e 66 1c 14 3e a1 97 d0 3c
       -0.12668607 0.34121832 0.14463958 0.025462927
0002f0 f1 a4 57 be b1 36 27 3f 15 8c 62 be 1d 59 de be
       -0.21059014 0.6531783 -0.2212375 -0.43427363
000300 e4 e8 25 be 17 4f 9d be 04 6e 47 3d 40 50 20 bf
       -0.16202122 -0.30724403 0.048688903 -0.6262245
000310 cf 16 f6 be b9 27 0a 3f 10 7c aa be 26 28 da 3e
       -0.48064277 0.5396686 -0.33297777 0.42608756
000320 c7 f5 0c bf 8a 93 26 bf 18 1a e5 bd 1c cc 45 be
       -0.55062526 -0.65068877 -0.111866176 -0.19316143
000330 10 32 a6 be 35 f5 a3 be d6 32 8e be ec 6d 14 3f
       -0.3246007 -0.32023016 -0.2777316 0.5798023
000340 fe 14 9c 3e de 03 c9 be 1c 06 94 bd 06 63 a9 be
       0.30484766 -0.39260763 -0.07227728 -0.3308336
000350 2b 6c 29 3e ba 85 2a bf 0f c8 96 be c2 e8 ef 3c
       0.16545169 -0.666103 -0.29449508 0.029285792
000360 ea d2 0d 3c 5a 9a 43 bf 7f 5a 12 bf 35 68 0c bf
       0.008656243 -0.76407397 -0.57169336 -0.5484651
000370 37 49 a6 3d 97 3a e2 3e 4e 59 11 be 90 8a 98 3e
       0.081194334 0.44185326 -0.14194223 0.29793215
000380 ff 3c 5f be 78 3b 20 3f 3c 97 c4 be 64 f9 16 3f
       -0.21800612 0.6259074 -0.38396633 0.5897429
000390 af 6f f4 3e d7 57 fb 3e 23 11 2e bf 89 6c 25 bf
       0.47741458 0.49090454 -0.679949 -0.64618737
0003a0 c8 8c 33 bf ec 6d 1d bf a5 08 38 3e df 17 b0 3e
       -0.7013669 -0.6149585 0.17972048 0.34393212
0003b0 8c 4d 93 be 7d 8e ca 3d df 60 45 3e 90 56 c0 be
       -0.287701 0.09890459 0.19275235 -0.37566042
0003c0 90 00 98 3e 1f 08 ac 3e 73 c7 5e 3d 7e 80 62 be
       0.2968793 0.33599946 0.05438943 -0.22119328
0003d0 21 86 c8 be 6f e9 15 bf b7 e5 48 be f2 29 ef be
       -0.39164832 -0.58559316 -0.1961888 -0.4671169
0003e0 e8 e0 d5 be 7e 5d b2 bc 6d 5a c6 be a1 e7 35 be
       -0.41773152 -0.021773096 -0.38740864 -0.1776414
0003f0 c0 61 07 3e bf 53 bb bc 0b 4e 1c bf cc ed cb 3e
       0.13220882 -0.022867082 -0.61056584 0.39829862

decoders.0.decoder_net.3.weight f4 [32]
000000 81 22 80 3f ed b2 7d 3f ed fd 75 3f bd c4 78 3f
       1.001053 0.99101144 0.96090585 0.971752
000010 bf dd 81 3f bf 00 82 3f fb ea 7d 3f da db 84 3f
       1.0145797 1.0156478 0.99186677 1.0379593
000020 f1 85 7e 3f 85 c4 78 3f ea 1b 7d 3f 64 46 7b 3f
       0.9942313 0.97174865 0.9887072 0.9815428
000030 b0 7d 7d 3f 36 01 7a 3f 03 e0 81 3f 0e e9 84 3f
       0.9901991 0.976581 1.0146488 1.0383623
000040 ac 7f 7a 3f bd 9a 80 3f 8b e4 81 3f 8e 36 84 3f
       0.9785106 1.0047222 1.0147871 1.0329149
000050 95 41 79 3f 76 52 81 3f 1f 92 83 3f a8 78 84 3f
       0.97365695 1.010329 1.0278968 1.0349321
000060 e4 45 81 3f fa b1 74 3f 6c e7 7c 3f d2 26 78 3f
       1.0099454 0.9558407 0.9879062 0.96934235
000070 2a b0 77 3f 7f 58 7a 3f 14 ff 80 3f c9 bd 82 3f
       0.9675318 0.97791284 1.0077844 1.0214168

decoders.0.decoder_net.3.bias f4 [32]
000000 27 b9 1d bc ca 0e 79 3c e1 87 a5 3c 97 cc be 3c
       -0.009626663 0.01520128 0.020206394 0.023290915
000010 e7 d7 52 bc fe b5 b0 bc 13 06 29 bd 97 75 b5 bc
       -0.012868858 -0.021571156 -0.04126556 -0.022150798
000020 c5 bd 04 bd 82 9c b2 bc de 4a a1 bc 07 4f b2 3b
       -0.03240754 -0.021803144 -0.01968902 0.0054415497
000030 cd 7d 82 bb bd 01 18 3c f8 82 71 ba fd be 03 ba
       -0.003982282 0.009277758 -0.0009212936 -0.0005025713
000040 06 1e 1c 3b f6 62 46 bd cd 11 df 3c f9 7f 63 3b
       0.0023821606 -0.04843422 0.027230168 0.0034713729
000050 83 c1 fd bc 7a aa 6d 3d e5 c9 27 bc 0b af bc 3c
       -0.030976063 0.058023907 -0.0102410065 0.023032686
000060 33 b0 35 bd d0 97 dc bb 84 79 e7 bb 91 5b c6 3c
       -0.04435749 -0.0067319646 -0.0070640463 0.024213584
000070 1b ac 9b 3b e0 53 25 bd 4b 98 7e bc e5 6f 71 bb
       0.004750741 -0.040363193 -0.015539239 -0.0036840376

decoders.0.decoder_net.3.running_mean f4 [32]
000000 98 5a e7 3c 63 bf fb 3c 8e 9a ab 3c ad c9 f5 3c
       0.02824144 0.030730909 0.02094772 0.030003393
000010 03 86 d8 3c a2 1d 12 3d 13 47 d3 3c 2d ac 3f 3d
       0.02643109 0.03567279 0.025790727 0.04679506
000020 c8 ed c5 3c 27 66 c4 3c b7 1b ce 3c e6 2d 03 3d
       0.024161234 0.023974491 0.0251597 0.032026194
000030 b7 92 d3 3c 81 50 e0 3c ab 32 c9 3c 4d 32 0a 3d
       0.025826795 0.027382137 0.024560293 0.033739377
000040 0d ea c7 3c 76 49 fb 3c 3e 53 3a 3d dc e2 23 3d
       0.024403596 0.030674677 0.045489542 0.04001127
000050 77 cf 22 3d bb fc 17 3d 07 68 20 3d e1 b3 0a 3d
       0.039748635 0.037106257 0.03916171 0.033862952
000060 6f 16 fc 3c 1c 49 e3 3c 1e 63 07 3d 68 d9 03 3d
       0.030772416 0.027744822 0.03305351 0.032189757
000070 09 e2 f4 3c b7 4a d2 3c 06 db 05 3d ae d7 13 3d
       0.029892938 0.025670392 0.03267958 0.03609436

decoders.0.decoder_net.3.running_var f4 [32]
000000 d2 cf 07 3a b1 f7 11 3a 47 6b 9d 39 07 c6 45 3a
       0.0005180809 0.000556822 0.000300253 0.0007544462
000010 fe db 37 3a ba 89 01 3b d5 62 11 3a fe cb 8c 3b
       0.00070136774 0.001976593 0.0005546038 0.0042967787
000020 97 99 df 39 e5 77 b2 39 1d fc 28 3a 89 4a 51 3a
       0.00042648308 0.00034040134 0.0006446259 0.0007983824
000030 0a 18 aa 3a ee 8e 1c 3a 64 0c 11 3a 5d 5c 97 3a
       0.0012977135 0.0005972226 0.00055331574 0.0011547912
000040 2d ad a9 3a 73 26 59 3a 08 d8 08 3b df 38 80 3b
       0.0012945287 0.00082836224 0.0020880718 0.0039130296
000050 86 f3 cf 3a ff be 15 3b 4f 4d 5c 3b 20 62 c7 3a
       0.0015865422 0.0022849438 0.0033615415 0.0015211739
000060 d6 61 7e 3a ed e9 23 3a 10 4d a8 3a 8a ff ff 3a
       0.000970391 0.0006252814 0.0012840349 0.0019531113
000070 b0 52 2c 3a fa 41 46 3a d0 fc 58 3a d5 01 86 3a
       0.00065736007 0.0007562932 0.0008277418 0.0010223935

decoders.0.decoder_net.4.weight f4 [32, 32, 3, 3]
000000 b7 66 4b 3c af c7 27 bd b0 18 de 3c ee ea 60 3d
       0.012414626 -0.040961917 0.027111381 0.054911546
000010 5a 5c a1 3c 67 86 d3 3c cb 7b 61 3b b7 99 41 bb
       0.019697357 0.025820924 0.0034406062 -0.0029541084
000020 94 0c 44 3d ea 82 04 bd 5f a4 07 ba 98 06 48 3d
       0.047863558 -0.032351412 -0.00051743345 0.048834413
000030 c4 02 8d bd 16 cb fd bc 0f a0 ce 3c 35 c8 18 3a
       -0.06885293 -0.030980628 0.025222806 0.0005828173
000040 fb 30 9e 3d 06 e4 42 bc e5 94 3e bd 65 2f 37 bd
       0.07724186 -0.011895185 -0.046528716 -0.044722933
000050 4f 96 00 3d 65 86 a9 bd b5 11 61 3d bb 9d 76 3b
       0.031393345 -0.08277587 0.054948527 0.0037630636
000060 d7 7c da bc 40 71 f2 3b 76 06 fa bb 00 03 54 bd
       -0.026670856 0.0073987544 -0.0076301647 -0.051760674
000070 db 30 08 3d 96 ea 57 bc c5 65 3a bc 38 41 48 bc
       0.033249717 -0.013178488 -0.011376803 -0.012222581
000080 e5 28 b9 bb eb b2 5f bc e9 4c fc bc 5e 75 83 3d
       -0.005650627 -0.013653497 -0.030798392 0.064188704
000090 eb cd 29 bd c4 cd 41 3d c1 83 67 3d 42 46 a0 bd
       -0.041456144 0.047315374 0.056522135 -0.078259006
0000a0 a6 95 3a bc 5a ad 89 bc 8e 08 99 bc 9e 5d bf 3d
       -0.011388218 -0.016806293 -0.018680837 0.09344028
0000b0 fe 9b 5b bc c5 43 46 bd b3 72 f4 3c 9c 07 66 3d
       -0.013403891 -0.048404474 0.02983985 0.0561596
0000c0 71 59 a4 bc 5d d3 9f 3d 74 43 9d bc b9 ac 59 bd
       -0.02006218 0.07803986 -0.019197203 -0.053143237
0000d0 ce 17 ab 3a 60 33 85 3b d6 06 a3 3c 6a eb 47 3d
       0.0013053359 0.0040649623 0.01990072 0.048808493
0000e0 bb 0e 6f bd e0 28 b4 bd e4 4d dc bc 62 4b 9b 3d
       -0.058363657 -0.08796859 -0.02689261 0.075827375
0000f0 74 ce 36 3d 1e 44 2f bd d0 d6 2a bd 5a 20 a5 bc
       0.044630483 -0.04278957 -0.041708767 -0.020157028
000100 79 bc dc bc 05 2e 64 bb e6 46 1f bc 8b 46 b3 bc
       -0.02694534 -0.003481747 -0.009721493 -0.021884223
000110 5c ec 0b 3b 43 79 5d 3c 0a 40 3e 3d 1f b5 2d 3c
       0.0021350598 0.013517681 0.04644779 0.010602265
000120 10 b4 a0 3d b0 c9 9c 3b f9 91 50 bd 20 ad 3d 3d
       0.07846844 0.004784785 -0.05092046 0.046307683
000130 cc a3 3b bd 79 39 7c 3c 20 38 0e 3d 4f 81 1b bc
       -0.045810506 0.015394562 0.034721494 -0.009491279
000140 5d a8 ec bc 0c 15 7a 3d 6c 8c 32 3a 96 d2 a3 3a
       -0.028888876 0.061055228 0.00068110856 0.0012498673
000150 85 32 2e 3d da 16 8c bc 61 43 c5 3c 59 fb 32 3d
       0.042528648 -0.01710074 0.02407998 0.043696735
000160 e1 53 26 bb 70 15 09 bd 68 de 5e bc ab bb 5a bd
       -0.0025379586 -0.03346771 -0.0136028305 -0.05340163
000170 f7 43 6c bd 9d 22 c5 bc 98 4c d6 3c 21 5e 49 3d
       -0.057682004 -0.024064356 0.02615957 0.049162034
000180 f7 a1 29 bd 2a 0a 27 bd 71 98 56 bb 9c 3c 7a 3d
       -0.041414227 -0.040781178 -0.003274467 0.061092958
000190 b8 f0 3f bd 8a 0c 92 bd cb 09 8d 3d 4b ee 60 bd
       -0.046860427 -0.07131298 0.068866335 -0.054914754
0001a0 d8 45 15 bd 52 12 90 3d 03 87 77 bd 2a 67 e5 bb
       -0.03644356 0.07034744 -0.06043149 -0.0070008235
0001b0 7d 19 72 bc 60 e9 75 3d bc f4 c9 bc 06 65 f8 bc
       -0.014776585 0.060037017 -0.024652831 -0.03032161
0001c0 6a 61 da 3c 29 1f 5c 3d e2 61 01 bd 41 1b af 3c
       0.026657779 0.053740654 -0.03158749 0.0213753
0001d0 7c 1b 8f 3d 58 94 6b 3d 2c b8 b5 bc 9d 04 ab bd
       0.06987664 0.05751452 -0.022182547 -0.08350489
0001e0 12 61 bc bc 24 1f 03 bd 60 0e 6d 3d fa 99 3a 3d
       -0.022995505 -0.03201212 0.057875037 0.045557
0001f0 6e 3a 74 3d b7 6c a8 bb ad 4c 92 bb 9a 12 00 3d
       0.059626035 -0.005139913 -0.004464707 0.03126774
000200 8f da 46 bb 7f 88 45 3d e1 f0 04 bd 61 e7 20 bd
       -0.0030342673 0.048225876 -0.032456283 -0.03928316
000210 5f 33 00 3c c3 4b 25 bd 04 6c 8c 3d af 13 64 3d
       0.007824748 -0.040355455 0.0685654 0.055682834
000220 70 ee 1d 3c be 2c 87 3c 58 63 45 bc ee 52 50 3b
       0.009639367 0.016500827 -0.012047611 0.0031787711
000230 fc cc 57 bd 5f eb 6d bc 85 e5 be bc 37 80 f8 3b
       -0.052685723 -0.014521449 -0.023302803 0.007583644
000240 80 13 75 bd de 4b e0 bc 3f 2a 9a bb 87 a0 5f bd
       -0.05983305 -0.027379926 -0.004704743 -0.05459645
000250 6f bb 08 bd bf 34 9b 39 64 86 2f bd 3b 55 48 3d
       -0.033381876 0.00029603203 -0.042852774 0.048909407
000260 16 dc 2c 3d e1 df 0a bc 6c 0f 71 3d da 28 60 bd
       0.042202078 -0.008476228 0.058852598 -0.05472646
000270 ff ab 97 bc cf ab b1 bc 89 40 63 bc 1c 02 2e bd
       -0.018514631 -0.02168837 -0.013870367 -0.04248248
000280 11 fd 47 bc 3c 19 d3 3c b7 f1 13 bd 74 89 69 bd
       -0.012206332 0.025768869 -0.03611919 -0.05701585
000290 39 07 de 3c 5b 4a 21 3c b3 a0 96 bd a6 86 d2 3b
       0.027103053 0.009844388 -0.0735487 0.0064247428
0002a0 65 49 4e bd 3e e2 e7 3a 47 81 cb 3d dd 1c b0 3c
       -0.050362963 0.0017691327 0.09936767 0.021498138
0002b0 7b 66 a7 3c fc be 8e 3c 19 a0 04 bd 85 b6 e8 bc
       0.020434609 0.017425053 -0.032379244 -0.028407345
0002c0 cd d3 35 3d 5d 9d b3 ba 8c 9f 0e bd 9a 19 ba 3c
       0.044391442 -0.0013703514 -0.034820125 0.022717286
0002d0 4e 2f 1e bc 59 5d 26 bd 61 e5 67 bd 16 a5 a4 bc
       -0.009654833 -0.040616367 -0.056615237 -0.02009825
0002e0 10 7a 53 bd dd 42 a7 3d b2 c3 2e bc 44 49 59 3d
       -0.05163008 0.0816705 -0.010666775 0.053048387
0002f0 58 b6 6b bc df ea a5 bc 96 37 ed 3c 90 6f 92 bc
       -0.014386736 -0.020253597 0.02895717 -0.017875463
000300 f4 e4 97 3b 5a 0c aa 3c bd dd 4f 3c 86 13 d8 3c
       0.0046354476 0.020757843 0.012687144 0.026376497
000310 f3 0d 09 3b 21 a7 bc 3b de 82 56 bd d8 e5 61 bd
       0.0020912855 0.005757228 -0.0523709 -0.055150837
000320 c1 43 fb bc ab 58 a2 3d 90 2b de 3c 84 fb 5d 3d
       -0.030671956 0.07927068 0.027120382 0.054194942
000330 3e 9a a3 3d eb ff 36 3c bd 2a 1b 3d 48 88 64 3b
       0.07988404 0.011169414 0.037882555 0.003487127
000340 e4 ad 30 bd a5 20 38 3d 73 0e 3a bd 92 50 00 bd
       -0.043134585 0.044953007 -0.045423936 -0.031326838
000350 06 e3 4e bb e4 32 ab bb b4 12 92 bd 6b 01 d0 3b
       -0.0031568422 -0.0052245725 -0.071324736 0.0063478253
000360 29 3f 0a 3d fb da df 3c 39 b5 9c 3c 7c be 70 bd
       0.03375164 0.027326098 0.019129382 -0.05877541
000370 6b 84 ae 3c 9f 41 38 3d d8 3e 00 3c 5e e7 11 3d
       0.021303376 0.044984456 0.007827483 0.03562104
000380 dc 04 1b 3d 1f b5 67 bd 29 28 c2 bc 30 75 13 3d
       0.03784643 -0.056569215 -0.02370079 0.03600043
000390 28 65 a3 3c 47 de 7f 3c cc db 9b 3d 1f 62 8b bb
       0.019945696 0.01561696 0.07610282 -0.0042536403
0003a0 a4 ba 95 bc 0e 9c 29 3d 16 fe 12 3d 5a 0a 02 3c
       -0.018277474 0.04140859 0.035886846 0.007937038
0003b0 ae 14 ea 3c 54 46 53 3d b2 bd 90 bb b3 a7 e9 3c
       0.028574314 0.051580742 -0.0044171447 0.028522348
0003c0 00 71 06 b5 15 6e 3f bd 25 e3 88 bc 1a dd 9f 3c
       -5.0083327e-07 -0.04673584 -0.016709873 0.01951461
0003d0 25 fa 81 bd 8c e7 51 bd 4c df d6 3c 27 ab d8 bc
       -0.063465394 -0.05124621 0.026229523 -0.0264488
0003e0 0f e2 d4 bc b4 18 0f 3b bd 15 9c 3d c2 c7 0f bd
       -0.0259867 0.0021834793 0.07621334 -0.035102613
0003f0 4e fc c0 3d 0c f8 e3 bc f3 e1 09 bd 7c 9d f1 bc
       0.09423123 -0.027828239 -0.033662748 -0.02949404

decoders.0.decoder_net.4.bias f4 [32]
000000 af 63 51 bd 11 3c f1 bd 8b 98 0a 3c a6 71 a3 3d
       -0.051120456 -0.11779035 0.008459221 0.07980661
000010 94 fe a9 3d 65 3f 41 3c e1 f4 b1 3c 85 76 7b 3d
       0.0830051 0.0117949 0.021723213 0.061392326
000020 aa 6d e3 bd ac 81 7d bd f5 f8 a3 3b 18 1a d2 3b
       -0.11104901 -0.061891243 0.005004043 0.006411802
000030 b9 15 60 3d 17 ec 99 bb ed 21 1d 3d 0d dc b9 3d
       0.054708216 -0.0046973336 0.038362432 0.090751745
000040 dd d6 2d bd ec ba 83 3d 19 6d a2 3c 21 d6 fb bc
       -0.042441238 0.06432137 0.019827412 -0.030741753
000050 9a 4c 4a 3d 09 fc 83 bc b0 ae a1 bb ed 36 77 3d
       0.04938946 -0.01611139 -0.0049341545 0.060355116
000060 97 01 98 bd 66 7a db bc 19 5c 4c 3d 77 fd e6 bd
       -0.07422178 -0.026791763 0.04989252 -0.11278813
000070 6d b2 3f 3d 24 96 f9 bc 5b 60 06 bd 61 a4 27 3d
       0.04680102 -0.0304671 -0.032806735 0.04092825

decoders.0.decoder_net.6.weight f4 [32]
000000 d6 b5 73 3f 92 01 78 3f b8 47 78 3f 11 15 72 3f
       0.95199335 0.96877396 0.96984434 0.94563395
000010 38 ec 7e 3f 00 8d 6e 3f 0f ea 78 3f c6 3c 70 3f
       0.9957919 0.931839 0.97232145 0.9384273
000020 35 36 70 3f 9b ba 6b 3f fe c2 75 3f a9 ed 72 3f
       0.93832713 0.9208161 0.9600066 0.9489389
000030 8d 26 75 3f 97 fb 77 3f 47 2a 6a 3f 2b db 7a 3f
       0.9576195 0.9686827 0.9147076 0.97990674
000040 ee f6 6b 3f 25 f7 76 3f c9 35 70 3f 30 bb 6f 3f
       0.9217366 0.9647086 0.9383207 0.93645
000050 1b 3e 7f 3f 2c c8 7c 3f 9c 11 74 3f 9d 70 76 3f
       0.9970414 0.9874294 0.9533937 0.96265584
000060 ce bc 77 3f 33 ad 76 3f 74 df 78 3f 7f f1 72 3f
       0.9677247 0.9635803 0.9721596 0.94899744
000070 99 24 72 3f 9b 02 7d 3f 0c 01 73 3f 0f 9c 72 3f
       0.94587094 0.988321 0.9492347 0.94769377

decoders.0.decoder_net.6.bias f4 [32]
000000 a1 0e df 3c 3b 76 75 3d 11 1e d9 3c 1f c5 7b bd
       0.027228655 0.059927206 0.026503595 -0.061467286
000010 96 1e 3a 3d 30 d6 da 3c bb af 42 3d 16 a3 16 bd
       0.045439325 0.02671346 0.04753087 -0.036776625
000020 e8 eb 13 bd 46 49 02 bd 8e 7c 47 3d 12 d8 10 3d
       -0.03611365 -0.03180816 0.04870277 0.03536231
000030 cf 55 a1 bc f3 ab 57 3b f0 80 b2 ba 37 4e 70 bd
       -0.019694237 0.0032908886 -0.0013618749 -0.05866834
000040 94 4d f3 bc 00 8f 33 bc 32 f6 a2 3c 6b d7 bb 3c
       -0.029700078 -0.010959387 0.019892786 0.022929868
000050 3e 1f 3d 3c 79 78 9a bb 1c bf 48 3c c5 81 94 bb
       0.011543093 -0.0047140685 0.012252595 -0.0045320713
000060 9b a0 16 3d 55 1a 12 3c 4e f5 d1 bc 28 7a 58 3d
       0.03677426 0.008917411 -0.025629666 0.052850872
000070 c6 e4 51 3d 7c 16 ba bc f4 4b b3 bb 13 c2 fd bc
       0.051243566 -0.0227158 -0.005471701 -0.03097633

decoders.0.decoder_net.6.running_mean f4 [32]
000000 aa 92 ee 3c a9 ea e0 3c 2c 8c f2 3c cf 6c 0d 3d
       0.02912267 0.027455645 0.029607855 0.034527596
000010 d5 f0 11 3d 95 f0 03 3d 85 7d 08 3d 34 bd 08 3d
       0.035630066 0.03221186 0.03332283 0.033383563
000020 88 93 de 3c ee 4c e9 3c 12 d9 0a 3d cb 9f f8 3c
       0.027169958 0.028479066 0.03389842 0.030349633
000030 5a 6d 05 3d 92 96 fa 3c 17 8b 04 3d 06 57 08 3d
       0.03257499 0.030589376 0.03235921 0.033286117
000040 55 f8 ee 3c 71 62 0e 3d 11 24 fe 3c 9d 3a f3 3c
       0.029171148 0.03476185 0.031023057 0.029691035
000050 7d b6 07 3d 53 cb fa 3c 0a 5d fe 3c 70 2a 07 3d
       0.03313302 0.03061453 0.031050224 0.032999456
000060 21 3c e8 3c e3 5e fb 3c 36 40 01 3d 59 b1 e9 3c
       0.028348984 0.030684894 0.031555377 0.028526949
000070 ac cc 04 3d 2b 70 fd 3c b5 19 f0 3c 0d 43 02 3d
       0.032421753 0.030937275 0.029309133 0.031802226

decoders.0.decoder_net.6.running_var f4 [32]
000000 80 f6 20 39 bc 9e e2 38 1b 13 e4 38 89 c9 8b 39
       0.00015350617 0.00010806086 0.00010875446 0.000266623
000010 86 2a a0 39 17 eb 2e 39 6f f6 b6 39 8e 94 61 39
       0.0003054926 0.00016681511 0.00034897352 0.00021513013
000020 32 70 ff 38 a9 8b e1 38 15 fc 14 3a 1a 52 1d 39
       0.000121802455 0.0001075485 0.0005683315 0.00015003272
000030 ef 07 9b 39 11 70 5a 39 04 d5 55 39 cf 3f 95 39
       0.00029569815 0.00020831848 0.00020392617 0.00028467036
000040 23 1a f8 38 95 c0 78 39 11 04 01 39 43 cd 21 39
       0.0001183043 0.00023722865 0.00012303914 0.00015430622
000050 47 09 33 39 dc a7 33 39 2c 28 5e 39 b6 bc 7d 39
       0.00017074226 0.00017133303 0.00021186535 0.0002419826
000060 01 55 14 39 e2 3a 22 39 1f aa 4a 39 dc 26 12 39
       0.00014146046 0.0001547146 0.00019327596 0.00013938121
000070 45 4a 60 39 1b e7 3d 39 d8 d0 ec 38 4b ba 3a 39
       0.00021389972 0.00018110538 0.00011292257 0.00017807742

decoders.0.decoder_net.7.weight f4 [32, 16, 3, 3]
000000 33 ae 60 bd 26 12 27 3d b6 2a 9e bc 02 0a 7d 3d
       -0.05485363 0.040788792 -0.019307476 0.061777122
000010 be 2c 78 bd a1 82 b3 3c 45 80 4e 3d e4 3b 60 bd
       -0.060589544 0.021912875 0.050415296 -0.054744616
000020 be 21 6c 3c 7e 83 d2 bd 74 e9 b5 bc 9e 50 57 3d
       0.014412342 -0.102789864 -0.022206046 0.052567117
000030 2f 70 07 bd 86 a7 2d ba 44 9a 8e bd c6 dd 9d bd
       -0.03306597 -0.0006624389 -0.069630176 -0.077083156
000040 f5 b7 d9 bd 2e 4b 85 bc fc aa 49 3d be a1 88 bd
       -0.1063079 -0.0162712 0.04923533 -0.06671475
000050 f7 59 b6 bc 2c 3c 5e 3c 43 fe a8 bd a0 2a 59 3d
       -0.022259695 0.013564151 -0.082516216 0.053019166
000060 2c ec 70 3c 5f b3 76 bd ce 3e c0 3c 66 18 25 bd
       0.014704745 -0.060229655 0.023467448 -0.04030647
000070 c9 44 1b bd d5 df a3 3d 23 d3 d6 3c 19 45 af 3c
       -0.037907396 0.08001677 0.026223725 0.021395253
000080 da c9 24 bd 77 ff 14 3d be 7d 8e 3d a3 4f 82 bb
       -0.040231563 0.036376443 0.06957577 -0.0039767786
000090 03 5a fd 3c 8d 06 3c bd 00 a6 eb 3c 95 e8 fe 3c
       0.03092671 -0.045904685 0.028765678 0.031116763
0000a0 d9 18 10 3d 46 92 12 3d 1d 2f 09 bd ad ad 84 bd
       0.035179947 0.03578403 -0.033492196 -0.064784385
0000b0 a2 f8 e4 bc ae c4 94 3d 96 07 93 bb 5d 9f 66 bd
       -0.027950589 0.07264076 -0.0044869883 -0.056304324
0000c0 14 62 87 3d f7 ab 8c bc a8 1c a7 3d fa 93 19 3d
       0.06610504 -0.017171843 0.081597626 0.037494637
0000d0 78 80 b7 bd 29 ac 59 3d ae cd dc 3b 07 1d 0a 3d
       -0.0896005 0.0531427 0.006738386 0.03371909
0000e0 de 1f e6 bb 9d 29 33 bd 36 cf 08 3d 98 dc 2a 3d
       -0.007022842 -0.043740857 0.033400737 0.04171428
0000f0 62 c3 63 bc f6 6e 1c bd 70 ec 80 3b 53 16 91 bc
       -0.013901563 -0.038191758 0.0039344355 -0.01771084
000100 d3 80 62 3d d4 94 77 3d d2 5b a2 3b 6c 69 cd 3d
       0.055298638 0.060444668 0.0049547935 0.10029873
000110 bf d7 00 bd c8 92 3c 3d db 48 df 38 7b 6b 91 bd
       -0.03145575 0.04603842 0.00010647039 -0.071005784
000120 9f f1 a4 3d d7 d6 12 bd 54 47 07 3b 82 77 ea bc
       0.08053898 -0.03584942 0.002064188 -0.028621439
000130 b8 6c 4c bd e6 1e 58 3d ee 27 85 3d a5 3e c3 bc
       -0.04990837 0.052763842 0.065017566 -0.023833582
000140 2a 16 a9 3d 03 1a 29 bd d4 0f 99 3d 8c 54 a3 bd
       0.082561806 -0.041284572 0.07473722 -0.079751104
000150 6d 38 2a 3d 38 0e 82 bc 8f e3 3d bd f2 b7 8a 3d
       0.041557718 -0.01587592 -0.046359595 0.06773366
000160 a0 97 03 bd d9 13 7f bc c9 35 c1 bc 72 53 42 bd
       -0.032127023 -0.015568697 -0.023585217 -0.04744286
000170 be 4d 4b bd 02 9b 6b 3d 4e b8 2c bd 9f a1 b3 bc
       -0.049634688 0.057520874 -0.042167954 -0.021927653
000180 52 a2 00 bd 4a d8 f0 3c 96 a4 35 3b bc 73 d9 bc
       -0.0314048 0.02940001 0.002771651 -0.026544444
000190 e8 a8 8a 3d c7 01 8f bc 7e 56 9a 3d d3 45 8d 3d
       0.067704976 -0.017456902 0.07536028 0.068980835
0001a0 77 d3 8d bc 0b cc 3e 3d ce 60 1f bd 9d eb 36 3d
       -0.017312748 0.04658131 -0.03891068 0.044658292
0001b0 a4 37 36 3d 2d 25 ee bb 1a ac 0c bd e7 2e a9 bd
       0.044486657 -0.0072676153 -0.034343816 -0.08260899
0001c0 5d 7e 61 3c b1 0b d6 3b ed a0 8a 3d 71 1b 0e 3d
       0.0137630375 0.0065321554 0.067689754 0.03469414
0001d0 bf c1 2a bd 45 42 92 ba 7c ba a2 bc 89 4f 4f bc
       -0.041688677 -0.0011158666 -0.019864313 -0.01265324
0001e0 f6 e5 7f bd 36 d7 2c 3d 11 33 6a 3c c2 07 7d bd
       -0.062475167 0.04219743 0.014294402 -0.061774977
0001f0 df b6 17 3b 26 89 89 bc 8a 6f 73 39 f2 70 ae bd
       0.002314977 -0.01678903 0.00023215837 -0.08517636
000200 76 dc 6f 3d d3 ee 5a 3a 0a bf c6 3c 94 75 46 bc
       0.058559857 0.00083516276 0.024261016 -0.012112994
000210 38 08 69 bd 26 b1 7e bd 13 0c 6a 3d ec 69 c1 3a
       -0.056892604 -0.06218066 0.05714042 0.0014756299
000220 b9 90 01 bd a7 d9 bd 3d 09 20 44 3d 47 a8 84 bc
       -0.03163216 0.092700295 0.047882114 -0.016193522
000230 65 d6 00 bc 16 28 02 3d 00 ea 91 bc 18 ab de 3b
       -0.007863616 0.03177651 -0.017811775 0.0067952983
000240 47 2e 0b bd d4 bf 79 bd b0 22 23 bd 9a 14 28 bd
       -0.03397968 -0.060973957 -0.039828002 -0.041035272
000250 db 1c a2 bd 53 dd bd bc 1f e2 60 bd a2 b8 a9 bd
       -0.0791566 -0.023176825 -0.054903146 -0.08287169
000260 6b 88 87 bd 14 e8 d3 bc b7 f9 6d bd 2f d0 93 3a
       -0.066178165 -0.0258675 -0.058099475 0.0011277254
000270 c3 17 ce 3c 35 03 e2 bc 53 0b 4f bd bc f2 2c 3d
       0.025157815 -0.02758942 -0.05054791 0.042223677
000280 5a f6 14 bd b7 b9 b1 bc e1 39 18 3d db e7 3e bd
       -0.03636775 -0.021695001 0.037164573 -0.046607833
000290 71 1d 69 3a 8e 2f 5d bd 2f bf bf bc d2 67 84 bd
       0.0008892632 -0.05400043 -0.023406593 -0.06465115
0002a0 ed 8d 77 bc 9c 5f 7c bc 41 67 3d bc 6d 40 ab 3c
       -0.015109521 -0.015403654 -0.011560262 0.020904744
0002b0 1a 7b d7 3b 0e 72 57 3d d2 ba 5f 3c 2c bd c7 3d
       0.006575954 0.052599005 0.013655381 0.097528785
0002c0 db 6d d6 3d 94 aa 2c bc ed a3 14 bd 7c 5a 78 3d
       0.10470172 -0.010538716 -0.036289144 0.060633168
0002d0 fb e2 a0 bc a6 9b b1 3c e2 02 12 bd a1 fe 21 bd
       -0.019639483 0.021680664 -0.03564728 -0.039549474
0002e0 4c 83 d8 3b d2 bf 16 3c 89 7b 59 bd a3 26 d6 3b
       0.0066074487 0.009201007 -0.053096328 0.0065353676
0002f0 03 2f 80 bc 68 a1 5b 3b 5a 38 91 b8 1a 4a dc 3c
       -0.015647417 0.0033512954 -6.924635e-05 0.026890803
000300 05 97 68 3d d5 f6 94 bd 4d 75 e9 bb 6a f4 7c 3d
       0.05678465 -0.07273642 -0.007124579 0.06175653
000310 24 47 55 bd 99 fe 64 bc af c3 37 3c 96 af 80 bd
       -0.052069798 -0.013976716 0.011216088 -0.0628349
000320 b8 56 b5 3d a4 0b ae bc 8b fa e4 3c 31 90 66 bc
       0.08854431 -0.021245785 0.0279515 -0.014072464
000330 d2 ae 91 bd 65 72 d9 bb ff 21 15 3c eb 97 aa 3d
       -0.071134225 -0.0066359513 0.009102344 0.08329757
000340 34 35 81 bd 6f 02 1c 3d 13 b2 87 bd 01 e1 55 3b
       -0.06308976 0.03808826 -0.06625762 0.0032635333
000350 41 eb 1a 3d 7a ac a8 bb ad 87 af 3d 28 c1 f8 3a
       0.03782201 -0.005147514 0.085708 0.0018978463
000360 12 04 19 3d 30 af 95 bd a4 2d 9e bc c0 e0 af bd
       0.037357397 -0.07308805 -0.019308873 -0.085877895
000370 b5 6a 05 3b b6 a4 97 bc 7b 67 71 bd 38 68 53 bd
       0.0020357792 -0.018511157 -0.058936577 -0.051613063
000380 83 be b2 bd d3 2b bb bb a5 d4 e7 3c 2d e6 39 3d
       -0.087277435 -0.0057120114 0.028299639 0.04538553
000390 73 ac 89 bd f7 54 0c 3d 01 e1 8c 3b aa 1a 43 3d
       -0.06722345 0.034260716 0.0042992835 0.04763285
0003a0 e5 88 57 3d e0 31 85 3c 1a 5f 1a 3d ce bf 6a bd
       0.052620787 0.016259134 0.037688352 -0.057311825
0003b0 f8 65 11 3c 68 aa cb 3d c2 6b ce 3c 22 e7 9b 3c
       0.008874409 0.09944612 0.025197867 0.019031111
0003c0 8f da 06 3d 78 e0 87 3d 85 2d b7 bc e5 61 ec 3c
       0.032923277 0.06634611 -0.022360573 0.028855274
0003d0 a2 82 40 bd 0b f8 02 bd 53 16 8e 3d bc cc 9e b9
       -0.04699958 -0.031974833 0.06937852 -0.00030288647
0003e0 de a6 66 bd a7 04 84 bd 81 67 4b ba 98 7d 17 bd
       -0.05631148 -0.064462 -0.0007759259 -0.03698501
0003f0 a2 49 e2 bc ae 63 15 bd 3b b1 78 3d 18 b2 52 3d
       -0.027623001 -0.036472015 0.060715895 0.051439375

decoders.0.decoder_net.7.bias f4 [16]
000000 dc 8f 80 3d 4e bf 96 3d 28 31 c9 bb ae 8f 80 3d
       0.06277439 0.07360707 -0.006139893 0.06277405
000010 65 a1 c2 bd c4 80 b3 3c 4d ad b4 3d a9 98 d1 3d
       -0.0950344 0.021911986 0.08822117 0.10234196
000020 10 c2 be 3c f1 2e 8e 3d 3c 3a c2 bd 65 b4 05 bd
       0.023285896 0.06942547 -0.094837636 -0.03264274
000030 2d 5b cf bc a2 b0 31 bd 32 ec 81 bd c0 93 bc bb
       -0.02531203 -0.04338134 -0.06343879 -0.005754918

decoders.0.decoder_net.9.weight f4 [16]
000000 3b 1b 76 3f f1 fe 76 3f bc 67 75 3f 64 80 76 3f
       0.961353 0.9648276 0.9586141 0.9628966
000010 bf 4f 75 3f 26 d4 74 3f 3a 38 78 3f c7 b6 75 3f
       0.9582481 0.9563621 0.96960795 0.9598202
000020 44 06 77 3f be 69 73 3f 9b af 72 3f 35 be 75 3f
       0.96493936 0.95083225 0.947992 0.9599336
000030 ad fb 74 3f 61 66 76 3f ba 48 74 3f 7a 40 75 3f
       0.95696527 0.9624997 0.9542347 0.9580151

decoders.0.decoder_net.9.bias f4 [16]
000000 12 65 69 3c b1 cb f6 bc 59 02 b8 bc e2 32 e4 3c
       0.014245288 -0.030126425 -0.022462057 0.027856294
000010 52 b2 3b bc 1e f1 a5 3c 8d 14 a1 bc 65 6d 29 bd
       -0.011456089 0.020256575 -0.01966312 -0.041364092
000020 a8 b3 7e 3c ef a5 14 3d 6b b1 07 3d 9c 2a bd 3c
       0.015545763 0.03629106 0.033128183 0.023091607
000030 8d c4 c2 bb aa 1d 9c bc b3 d4 22 bd b4 92 27 3d
       -0.005943841 -0.019057114 -0.039753627 0.04091139

decoders.0.decoder_net.9.running_mean f4 [16]
000000 a6 f3 82 3d 1a c8 88 3d ff c6 7d 3d dc 16 88 3d
       0.063941285 0.06678791 0.061957356 0.06644985
000010 8b dd 62 3d c0 5a 82 3d 26 d5 84 3d a5 d4 88 3d
       0.05538706 0.063649654 0.06485967 0.06681184
000020 db 01 7d 3d 96 7b 8d 3d 64 77 6a 3d 3c 7e 78 3d
       0.061769348 0.06908338 0.057242766 0.06066726
000030 24 8d 80 3d 77 a0 71 3d e5 4e 6e 3d a6 b4 7b 3d
       0.062769204 0.05899092 0.05818071 0.061451577

decoders.0.decoder_net.9.running_var f4 [16]
000000 cf 70 3b 3a 77 b1 8c 3a fa e1 7b 3a a1 3f 68 3a
       0.00071502937 0.0010734041 0.0009608563 0.0008859579
000010 af f1 04 3a 8c d3 81 3a 77 7f ed 39 c5 9e 4c 3a
       0.0005071414 0.0009904965 0.0004529913 0.0007805641
000020 d0 f2 09 3a 7e d4 8d 3a 0a e3 2d 3a bc 2f 5b 3a
       0.0005262317 0.0010820774 0.0006633258 0.00083613
000030 1f f6 8d 3a ea a3 49 3a e7 b6 23 3a d2 03 74 3a
       0.0010830796 0.00076919666 0.0006245211 0.00093084306

decoders.0.decoder_net.10.weight f4 [16, 1, 3, 3]
000000 87 60 5f be ee 95 29 3b 26 27 0a bd 61 e0 6e 3e
       -0.21814166 0.0025876719 -0.03372874 0.23327781
000010 b7 8a f8 bd 75 70 7b be 8c 1f 52 be 4d 59 87 bd
       -0.12135833 -0.24554618 -0.20519847 -0.0660883
000020 61 9d 5d be 1e 15 64 bd 35 e0 46 3e 4e 37 2e be
       -0.21642067 -0.0556842 0.19421466 -0.17013285
000030 1c 76 0e 3e 41 71 4b be 0a 17 7c be 04 8e c9 bd
       0.13912243 -0.19867422 -0.24618164 -0.098415405
000040 6d 16 47 3e 85 5d 83 3e ea 1c 72 be e3 bd 2c be
       0.19442149 0.25657287 -0.23643842 -0.16869311
000050 da 8a 75 3d dd 68 06 be 76 38 90 bd 95 47 70 be
       0.059946872 -0.1312594 -0.07042019 -0.23464806
000060 a6 60 5f 3d 61 9c 86 3e 38 53 9f bd df d2 0f 3e
       0.05453553 0.26291183 -0.077795446 0.14045285
000070 05 b8 99 3e 90 c1 11 bd d5 37 25 3d 13 c6 6b 3e
       0.30023208 -0.035584986 0.04033645 0.23024778
000080 b7 b3 f3 bc 1b 55 e1 3d 43 55 0a 3e fc 70 36 bd
       -0.02974878 0.11002561 0.13509087 -0.044541344
000090 ee 10 7f 3d 37 65 8d be ac c6 71 3e f6 e3 41 3e
       0.062272005 -0.27616283 0.23610944 0.18934616
0000a0 92 89 fd bd 48 06 9a be 9c fc 1e be ca 2f 3a be
       -0.12379755 -0.30082917 -0.1552605 -0.18182293
0000b0 68 52 44 3d 80 92 0b 3d 36 d2 8d 3e 19 48 4f be
       0.04793015 0.03407526 0.2769944 -0.20242347
0000c0 58 76 af 3d 0c 76 39 be 97 0a b0 3c 87 fb a7 bd
       0.08567494 -0.18111438 0.021489425 -0.08202272
0000d0 d4 a5 9a 3e bb d8 8d 3d ee b5 2d bd 25 8e f1 bd
       0.30204642 0.06926104 -0.04240983 -0.1179469
0000e0 cf 89 2e be dc ec 9c be a7 06 55 be d7 5f 64 be
       -0.17044757 -0.3064946 -0.20803319 -0.22302185
0000f0 11 7b d8 bd 77 71 d1 bd fe d1 98 3d 01 82 83 be
       -0.10570348 -0.1022672 0.07461928 -0.25685123
000100 f2 bf 4a 3e dd 9a e9 bd 0b 86 ee 3d 67 b1 71 be
       0.19799784 -0.11406491 0.116466604 -0.2360283
000110 60 98 99 bd 91 34 b3 3d d2 1d cf 3d 1c 3b 40 3e
       -0.07499766 0.087502606 0.1011311 0.18772548
000120 78 55 81 3e 2a 3e 75 3e b4 5f db bd 98 2d 9c be
       0.2526052 0.23949495 -0.10711613 -0.30503535
000130 f0 89 55 be 93 d1 c5 bd 1a 42 05 be 11 cf 16 bd
       -0.208534 -0.09659114 -0.13013497 -0.036818568
000140 b7 a8 31 3d 5f 20 89 3e 5b 1b 8a 3e 58 47 82 3e
       0.04337379 0.2678251 0.26973996 0.25445056
000150 03 d8 f3 bd 6c 9d 50 3e bc c4 15 3d 0a 7d a7 3d
       -0.11906435 0.20372552 0.036564574 0.08178146
000160 7e 54 93 3d f4 e4 5c be 66 c4 12 3d df 02 75 be
       0.0719385 -0.21571714 0.03583183 -0.23926876
000170 ba b4 98 bd d1 bf 3c 3e 68 9e 48 3e 6c 39 2e 3c
       -0.07456346 0.18432547 0.19591677 0.010633808
000180 7c 78 af 3c 05 17 1e 3e a7 88 8d be 34 15 78 be
       0.021419756 0.15438469 -0.2764332 -0.24226838
000190 9a ad 4a 3e ba e7 95 bd ea ca 1b be 07 28 21 3e
       0.19792786 -0.07319589 -0.15214124 0.15737925
0001a0 30 18 30 3e 56 f7 5c 3e 0e 9f d3 bd fc 40 7b be
       0.17196727 0.21578726 -0.10333072 -0.24536508
0001b0 c3 19 46 3e 91 d2 86 3e 91 de d4 bd b7 67 cb bd
       0.19345765 0.26332524 -0.10394014 -0.099318914
0001c0 1c e9 41 be 0c 62 66 3e 4b 3b 56 be 04 95 91 3e
       -0.1893658 0.2249834 -0.20921056 0.28434002
0001d0 35 d4 58 3e f9 3d 89 3d b4 4e 8b be f1 39 53 bd
       0.211747 0.067012735 -0.27208483 -0.05156893
0001e0 4b 9b 41 be b9 2b 19 be 06 a1 06 bd cf a9 4f be
       -0.18906896 -0.14958085 -0.032868408 -0.2027962
0001f0 2b 20 d7 3d 91 92 83 3d 05 ae 51 be 6c 75 25 3e
       0.105041824 0.0642444 -0.2047654 0.16158074
000200 69 33 61 3d a6 62 88 be 68 a6 fb 3d f3 83 f8 3c
       0.05498067 -0.26637763 0.12287599 0.030336356
000210 5e 95 11 be 56 84 68 bd 12 e0 10 3e 24 92 95 3e
       -0.14217135 -0.05676683 0.14147976 0.2921306
000220 6f a6 cb 3d 99 cf 82 be 22 c6 d6 3c ad 98 46 bd
       0.09943854 -0.2554901 0.026217524 -0.048485447
000230 bb 65 72 bc db 3b 54 3e 1f b1 82 3e a1 eb 4f be
       -0.014794762 0.20725958 0.25525758 -0.20304729

decoders.1.decoder_net.0.weight f4 [512, 2]
000000 18 7d be 3d 02 fd 03 3e a2 de a4 3e 2e d7 9c 3e
       0.093012035 0.12889484 0.32201105 0.3063292
000010 6d 27 75 3e b8 8a d7 3e 83 52 5a be 2f 85 d7 3e
       0.23940821 0.42098022 -0.21320538 0.420938
000020 e7 82 73 be 70 73 e4 3e 19 fe 71 be 96 f3 e7 be
       -0.23780404 0.44619322 -0.23632087 -0.4530303
000030 d9 b9 bc 3e 6c d7 af 3e 41 87 07 3e 9d 73 18 be
       0.3686054 0.3434404 0.13235189 -0.14887853
000040 a4 1f d6 be c1 e6 c4 be 1c aa ca be 65 b6 8f 3e
       -0.41821015 -0.384573 -0.39582908 0.28068843
000050 53 24 11 bf a7 05 8b be fb 14 40 3e b1 e3 95 be
       -0.5669605 -0.2715275 0.18758003 -0.29275277
000060 b4 3e 70 be 85 7d 8d bd b2 50 8d be c0 0c 0b 3f
       -0.2346142 -0.069087066 -0.27600628 0.5431633
000070 4d 6c 3d 3f 08 a5 8d 3e 56 e4 08 3f 47 80 c7 3c
       0.7399338 0.2766497 0.53473413 0.02435316
000080 10 73 1a 3e 1a 1e 06 3f 4c bf ef be 20 43 80 3d
       0.15082955 0.5238968 -0.46825635 0.06262803
000090 00 d9 99 be a3 b1 0f 3f dd 3c e2 be 20 9b ed 3e
       -0.3004837 0.5613043 -0.4418706 0.46407413
0000a0 7c ee a2 be 43 f3 20 3f 5e dd 5a be 7e f2 c9 be
       -0.31822574 0.6287119 -0.21373507 -0.3944282
0000b0 eb 4e 4c 3f fe 62 1a bf 26 66 2d bf 1e 02 04 bf
       0.7980792 -0.603073 -0.6773399 -0.5156573
0000c0 4f 3e ba bb 48 fa 3d bd 70 b1 85 3e e3 6a 92 3e
       -0.0056836973 -0.046381265 0.26111937 0.28597173
0000d0 54 17 32 bf 06 5e 67 bd f9 5c 51 be 29 f8 d5 3e
       -0.69566846 -0.056486152 -0.20445623 0.41790894
0000e0 47 82 22 3f 65 f2 1c bf 93 4b 2b 3e 55 f2 e0 3e
       0.6348004 -0.61307365 0.16728048 0.43934885
0000f0 54 f4 29 3f 75 91 18 3f 0f 03 e2 3e 40 b9 b9 3e
       0.6638844 0.5959695 0.4414296 0.36274147
000100 b0 2c 6a 3c 36 a6 32 3f 2c 1e 90 be 0b 52 5e 3e
       0.014292881 0.6978487 -0.2814802 0.21710984
000110 1f f1 16 bf 3c 59 1b 3e bd 9f e9 be 54 af 30 bf
       -0.5896167 0.15170759 -0.45629683 -0.6901753
000120 6f 84 02 3e 6a 4a 97 be 57 1c a4 3e 86 67 c9 bd
       0.12745832 -0.2954896 0.32052872 -0.09834199
000130 90 05 06 bf e1 1e b6 3e b9 cf e2 3d c3 cb 6d 3e
       -0.5235224 0.35570434 0.11074776 0.2322226
000140 76 df f2 be a6 ba a6 be fe 80 97 3e 38 da 32 3f
       -0.47436112 -0.32564276 0.295906 0.69864225
000150 dd a7 ae 3c c6 2c bd 3e ba 4c 02 3e 18 4a f8 3e
       0.021320278 0.36948222 0.12724581 0.4849403
000160 78 21 c2 3e d6 7a 7d 3e d5 9e 3e 3d 88 70 ed be
       0.3791616 0.2475389 0.046538193 -0.46374917
000170 2d ee 2d bf 6f 90 7b be 71 42 ab be 99 bb 4a be
       -0.6794155 -0.24566816 -0.33449128 -0.19798125
000180 93 4c 0d bf f6 7b 27 bf 61 b0 cc 3d d6 d5 0b be
       -0.5519497 -0.65423524 0.09994579 -0.1365579
000190 72 b7 fb 3e 3b ca 06 bf 0f f8 26 bf b6 02 8c 3d
       0.49163395 -0.5265233 -0.6522226 0.068364546
0001a0 a6 0a 92 3e 62 59 cf 3e c6 e2 d7 3d 6e 63 0c be
       0.2852375 0.4049788 0.105413005 -0.13709804
0001b0 d4 17 a0 3d 0d 14 a1 be c7 c8 38 3d 5f 2b 8d 3e
       0.07817045 -0.3146061 0.04511335 0.27572152
0001c0 7a 30 ea be 5b 97 16 bf 45 80 8d be 47 3a 14 3f
       -0.4574011 -0.588247 -0.27636924 0.57901424
0001d0 1d c0 9a 3e 72 bd 2a 3e 2c 35 0d 3f 06 09 c8 bb
       0.30224696 0.1667383 0.5515926 -0.0061045913
0001e0 4f 0b 57 be d8 5d e9 3c 65 9a c6 3e af f9 13 bf
       -0.21000408 0.028487131 0.3878967 -0.5780286
0001f0 98 96 ce 3e b5 58 ce be e7 61 ab be 7d 2d 92 be
       0.4034927 -0.40302053 -0.3347313 -0.2855033
000200 73 75 03 bf d2 38 05 bf 56 bf 20 3f 5b d0 93 be
       -0.5135109 -0.52039826 0.62791955 -0.288699
000210 8b 77 30 be 10 8a 3a 3e 5d d7 1c 3e 6a 58 11 be
       -0.17233102 0.18216729 0.1531653 -0.14193884
000220 f5 f6 25 bf 72 eb dc be a7 6a 13 bf f3 9b f0 be
       -0.6482995 -0.4314838 -0.57584614 -0.4699398
000230 6c b2 e5 3e 5b 1d 0f bf 02 1b 86 3e 44 f1 5f be
       0.44862688 -0.5590417 0.2619248 -0.2186938
000240 5d f4 0b 3e 8e 58 e2 be 02 ae 0f 3e 97 ce be bd
       0.13667436 -0.44208187 0.14031222 -0.09316748
000250 93 7a 24 bf 55 5a d2 be 04 17 11 3e e7 52 0a bb
       -0.64249533 -0.41084543 0.14168936 -0.0021106543
000260 0a 58 28 bf a0 19 09 bf 80 1e 2a be 69 9c a8 3e
       -0.65759337 -0.53554726 -0.16613197 0.3293183
000270 72 39 59 3e 6e 88 4a be 48 32 d3 3d 3e 09 bb be
       0.2121332 -0.19778606 0.10312325 -0.3653049
000280 d6 8c 2f bf 4f 36 2a 3f 16 52 95 3d 6e 5c 0f 3f
       -0.68574274 0.6648912 0.07291047 0.5600041
000290 30 19 46 3e 51 62 26 bd 69 b5 69 be 67 d6 52 be
       0.19345546 -0.040621106 -0.22823109 -0.205896
0002a0 d1 f5 e1 be 2b 78 a8 3e 83 cf 88 be 47 d5 32 3d
       -0.44132856 0.3290418 -0.2672082 0.04366043
0002b0 5c 9a 36 3f 4d ff 9e 3e 94 c9 04 bf c3 43 f8 be
       0.71329284 0.31054154 -0.51870084 -0.48489198
0002c0 6f 3d 51 3b af 9c 3f 3c 97 8c f8 be 61 2c 08 bf
       0.0031927486 0.011695071 -0.48544762 -0.53192717
0002d0 2a eb 11 3d ef ae 85 3d 78 15 89 bd b6 55 09 be
       0.03562466 0.065275066 -0.06693548 -0.13411602
0002e0 ce 4b 08 bf e2 03 9c 3e f9 a5 f6 3d 08 f2 bb be
       -0.5324067 0.30471712 0.120433755 -0.36708093
0002f0 fe ea 00 be f3 52 0f bf 8a b0 b1 3e 15 44 0a bf
       -0.12589642 -0.55985945 0.34705 -0.54010135
000300 6b d5 f1 3e eb e8 2c bd 21 75 00 3f 85 1d 3e bd
       0.47233137 -0.042214315 0.50178725 -0.04641487
000310 b9 64 1a be a1 ee 37 3f aa 41 cb 3e cf 21 ca be
       -0.15077485 0.71848494 0.39698535 -0.3947892
000320 61 4c 07 3f f0 01 77 3e 3d 27 81 be 48 e0 e0 be
       0.5285092 0.24121833 -0.2522525 -0.43921113
000330 6c 61 c7 3b 16 12 f2 3d 2c ed 9f be f2 09 0b 3f
       0.0060846116 0.11819856 -0.31235635 0.5431205
000340 71 42 48 3e 96 19 3e bf 37 3f 08 3f f6 ea 1c bf
       0.19556595 -0.7425779 0.5322146 -0.6129602
000350 25 8a 05 3f 25 03 43 bf 26 e2 b5 3e 1e 68 0f bf
       0.52163917 -0.76176673 0.355241 -0.56018245
000360 39 66 da bd 16 67 36 bd 4f f0 e3 3e 08 11 10 bf
       -0.10664029 -0.044531904 0.44519278 -0.5627599
000370 1e 47 e9 bd c1 81 f8 be d2 44 43 3e fe 20 13 bf
       -0.11390518 -0.48536494 0.19069222 -0.5747222
000380 2f cc a7 3c fb d3 d1 3e ae 71 35 3e d9 39 f1 be
       0.020483105 0.4098204 0.17719147 -0.47114447
000390 a8 ec 17 3f 61 ac d5 be 23 76 99 3e 96 6b 87 be
       0.59345484 -0.41733077 0.29972944 -0.2644927
0003a0 09 ed 1b 3e 18 8c 10 3f e4 12 3c 3e e4 98 aa bd
       0.1522714 0.56463766 0.18366581 -0.08329943
0003b0 3e f9 bf bd 02 65 89 3e 59 7b d0 bd ab 25 02 3f
       -0.09373711 0.26834875 -0.10179777 0.50838727
0003c0 c9 8b 38 bf 11 58 28 bf 83 11 b2 3e 26 d0 4c be
       -0.72088295 -0.6575938 0.34778985 -0.20001277
0003d0 42 df af 3d 6d 01 b1 be 3a de d1 be a3 c0 2f 3e
       0.08587505 -0.345714 -0.40989858 0.17163329
0003e0 ca 36 b0 3e c6 40 46 be f9 51 17 3e df 45 f6 be
       0.344168 -0.19360647 0.14777364 -0.48100182
0003f0 5d d7 48 3e 18 0f eb 3e 44 bd 8b be 1e 33 33 bf
       0.19613405 0.45909953 -0.27292836 -0.69999874
