Project2/models/model_3_7.pt (torch, 285381 bytes, 75 tensors)

prior.mean f4 [2]
0	0x00000000	0.0
1	0x00000000	0.0

prior.std f4 [2]
0	0x3f800000	1.0
1	0x3f800000	1.0

decoders.0.decoder_net.0.weight f4 [512, 2]
0	0x3e50cba3	0.20390181
1	0xbddf35cf	-0.10898935
2	0x3d8fae94	0.0701572
3	0x3e155008	0.14581311
4	0xbf251e7d	-0.64499646
5	0xbe15d82a	-0.14633241
6	0xbf11d80a	-0.56970274
7	0x3e801a07	0.25019857
8	0xbf0c0074	-0.5468819
9	0x397fe321	0.00024403307
10	0xbdc93623	-0.09824779
11	0x3e325205	0.174141
12	0x3e9b77fb	0.30364975
13	0xbded0d93	-0.11574855
14	0xbf2781ff	-0.65432733
15	0x3eb69a1c	0.3566445
16	0xbe8d8ebd	-0.27647963
17	0x3ed36118	0.41285014
18	0xbf200666	-0.62509763
19	0xbf25afb8	-0.6472125
20	0xbef5112d	-0.47864667
21	0xbe8265c5	-0.2546827
22	0x3ec5d942	0.38642317
23	0xbf298937	-0.66225
24	0xbf0cc70e	-0.54991233
25	0x3ec3a2ed	0.3821024
26	0x3e6e3f64	0.23266369
27	0xbed370b0	-0.4129691
28	0xbe5c3f21	-0.21508457
29	0xbee81194	-0.4532591
30	0x3f23b155	0.6394246
31	0x3e0977e5	0.13424642
32	0x3e912d4b	0.28354868
33	0x3e2d51dc	0.16925758
34	0x3e92d6c1	0.2867947
35	0x3ead86f0	0.33892012
36	0x3e87f026	0.26550406
37	0x3f2a6552	0.6656085
38	0xbe042507	-0.1290475
39	0x3f1bc4d9	0.6084724
40	0xbee433f8	-0.445709
41	0xbe9a51ff	-0.30140683
42	0x3e28dd9c	0.16490787
43	0x3ebcddf6	0.36888093
44	0xbeefb818	-0.4682014
45	0x3f06b36f	0.52617544
46	0xbdf15209	-0.11783225
47	0xbef84302	-0.48488623
48	0x3e631101	0.22174455
49	0x3e9ba9c0	0.30402946
50	0x3e528ceb	0.20561568
51	0xbd86ee4f	-0.065884225
52	0x3f1c3ccb	0.6103026
53	0xbe911dda	-0.28343087
54	0xbf372060	-0.71533775
55	0xbda91e81	-0.08257771
56	0xbf0ee76e	-0.55821884
57	0xbf241804	-0.64099145
58	0x3ebe4807	0.37164328
59	0xbe349c9b	-0.17637865
60	0x3e95d5b1	0.29264596
61	0x3e42c173	0.19019108
62	0x3f28413b	0.65724534
63	0xbbbc3b73	-0.0057443916
64	0xbe3f1e97	-0.18664013
65	0x3f344f78	0.7043376
66	0xbf22475d	-0.6339014
67	0x3f1cbf01	0.6122895
68	0xbe8c84e2	-0.27445132
69	0x3e4dd9b3	0.20102577
70	0x3dbc65c9	0.091991015
71	0xbf11546f	-0.5676946
72	0x3e13ce58	0.14434183
73	0xbef60c76	-0.48056382
74	0xbed187db	-0.40923962
75	0xbb86b7da	-0.0041112723
76	0xbf13fe20	-0.5780964
77	0x3e89af4b	0.2689155
78	0xbe0030bd	-0.12518592
79	0xbe7e7a4c	-0.2485134
80	0xbc77bad3	-0.015120226
81	0xbf02d780	-0.51110077
82	0xbf0178cb	-0.5057494
83	0xbf290142	-0.66017544
84	0xbf371aeb	-0.7152545
85	0x3ec5df2c	0.3864683
86	0x3eb56dff	0.35435483
87	0xbdb29c7a	-0.08721252
88	0xbf05b254	-0.5222523
89	0x3b87971b	0.004137886
90	0xbefed5c0	-0.49772453
91	0x3f0cc140	0.54982376
92	0x3e38c0b6	0.18042263
93	0x3e556240	0.2083826
94	0x3e4f65ae	0.20253631
95	0x3f079340	0.5295906
96	0xbdf794db	-0.12088939
97	0x3f31042e	0.69147
98	0xbeaf5c4b	-0.342501
99	0x3f122f2d	0.57103235
100	0xbcfdeaff	-0.030995844
101	0xbdbe25c0	-0.09284544
102	0xbdb32569	-0.0874737
103	0xbc6ebc55	-0.014571269
104	0xbec20f7d	-0.37902442
105	0x3f03a7b9	0.514278
106	0xbe91f20f	-0.2850499
107	0xbf00f01f	-0.50366396
108	0x3e85efd1	0.26159528
109	0xbe069c84	-0.13145643
110	0xbe9f971d	-0.31169978
111	0x3d557578	0.05211398
112	0xbccb88bf	-0.024845479
113	0xbf128608	-0.57235765
114	0xbf2a0078	-0.66406965
115	0xbe0dcb40	-0.13847065
116	0xbf1b9617	-0.60775894
117	0xbf0ab4f8	-0.54182386
118	0xbf0acb47	-0.54216427
119	0x3ee5b29a	0.44862825
120	0x3f16b825	0.5887473
121	0x3e4651eb	0.19367187
122	0xbeaf0d72	-0.34189945
123	0x3e4dc4b0	0.20094562
124	0x3eb89330	0.36049795
125	0x3f31f5c5	0.6951564
126	0x3ecc62f5	0.39919248
127	0xbf05d661	-0.5228024
128	0x3eadbdde	0.3393392
129	0xbeeb4ea2	-0.4595843
130	0x3dbadded	0.0912436
131	0x3ee62e67	0.44957277
132	0xbe5fd80b	-0.21859758
133	0xbef986b0	-0.4873557
134	0xbf1880d6	-0.5957159
135	0xbe9e07fe	-0.30865473
136	0x3f18b6e1	0.5965405
137	0x3efd3ad0	0.49458933
138	0xbed86d60	-0.42270947
139	0x3e34511d	0.17609067
140	0x3e3e3159	0.18573512
141	0x3e1881b9	0.14893235
142	0x3ed1d36d	0.40981618
143	0x3dfe60f1	0.12420834
144	0x3cf79b37	0.03022538
145	0x3cbd12aa	0.023080189
146	0x3eee9fca	0.46606284
147	0x3ea001e0	0.3125143
148	0xbe67df7e	-0.22643849
149	0xbecec1c3	-0.40382203
150	0xbea54536	-0.32279366
151	0x3d764cb8	0.06013176
152	0x3e361295	0.17780526
153	0x3ecbd8f5	0.39813963
154	0x3dfc1f91	0.12310708
155	0x3f080512	0.53132737
156	0xbf09c4cf	-0.5381593
157	0x3eab4086	0.33447665
158	0x3e210785	0.15725525
159	0x3ea61bfd	0.32443228
160	0xbf29bd94	-0.663049
161	0x3e74af97	0.23895107
162	0x3ea9143b	0.33023247
163	0x3e5c5585	0.21516998
164	0xbe891b3b	-0.26778588
165	0x3ec00b72	0.37508732
166	0x3e90df8b	0.2829555
167	0x3ef7733e	0.4833011
168	0x3e12ea4e	0.14347193
169	0x3e479954	0.19492084
170	0xbd78a814	-0.060707167
171	0x3eb1f471	0.34756806
172	0x3d94ea86	0.07271294
173	0x3c5fad07	0.013652093
174	0x3e171587	0.14754306
175	0x3e840ea2	0.25792414
176	0xbea8d0bd	-0.32971755
177	0xbef85cef	-0.48508403
178	0x3f09e842	0.5387002
179	0x3ebccdd2	0.36875778
180	0x3f0f7bdd	0.56048375
181	0x3c636e20	0.013881236
182	0x3f38786f	0.7205877
183	0xbecb32a8	-0.39687085
184	0xbee5aacc	-0.4485687
185	0x3ec37464	0.38174736
186	0x3d09f990	0.033685267
187	0xbeda6d62	-0.42661577
188	0x3f2a454c	0.6651199
189	0x3e91e341	0.28493693
190	0xbd98a0fe	-0.07452582
191	0x3e8c8798	0.274472
192	0xbe4ebe84	-0.20189863
193	0xbeeebc64	-0.46628106
194	0xbe90e454	-0.282992
195	0x3dcb7cfc	0.09935948
196	0xbeb6fc6e	-0.35739464
197	0xbf0de60e	-0.5542916
198	0xbdaa9b8a	-0.08330448
199	0xbf089c6b	-0.53363675
200	0xbef6839d	-0.48147288
201	0x3ed14a17	0.4087684
202	0xbeabc55c	-0.3354901
203	0x3e28ad2d	0.16472311
204	0x3f1db017	0.61596817
205	0x3d58d56d	0.052937914
206	0xbec32c95	-0.3811995
207	0x3ddc4a2c	0.10756335
208	0xbef37440	-0.4754963
209	0x3e74a942	0.23892692
210	0x3e7d7b92	0.2475417
211	0x3f22f3fd	0.63653547
212	0xbefb7b3e	-0.49117464
213	0xbebfdc31	-0.3747268
214	0x3edaa270	0.42702055
215	0x3eb4ea6f	0.3533511
216	0xbe698d20	-0.22807741
217	0x3f1e1d14	0.6176312
218	0xbd9fe182	-0.07806684
219	0x39a80b5a	0.00032051915
220	0xbe1a52d3	-0.15070657
221	0xbf0edb95	-0.55803806
222	0xbd860047	-0.06543022
223	0x3f279ba4	0.65471864
224	0x3f233010	0.6374521
225	0xbd74ce70	-0.059767187
226	0x3f079cee	0.5297383
227	0xbee8715d	-0.4539899
228	0xbebde2d2	-0.37087113
229	0xbf31ced7	-0.6945624
230	0xbee89bb4	-0.45431292
231	0x3e853626	0.26017874
232	0x3e94718f	0.28992888
233	0xbe9b9165	-0.30384365
234	0x3e9b666f	0.30351588
235	0xbf05d6df	-0.5228099
236	0xbe752426	-0.23939571
237	0x3efdcf4e	0.49572223
238	0x3dbe2844	0.09285024
239	0x3e42e772	0.19033602
240	0x3eb02079	0.34399775
241	0x3e84127a	0.25795346
242	0x3e04cb49	0.12968172
243	0x3e36db50	0.17857099
244	0xbea56548	-0.32303834
245	0x3e2cf80d	0.16891499
246	0x3f121f72	0.5707923
247	0x3e6a513d	0.22882552
248	0x3e960fa9	0.29308823
249	0x3ea3c588	0.31986642
250	0xbc1c7046	-0.009548252
251	0x3e83ad84	0.2571832
252	0x3df653cc	0.12027702
253	0xbeda4482	-0.42630392
254	0x3ec5f087	0.3866007
255	0xbeaee64a	-0.34160072

decoders.0.decoder_net.0.bias f4 [512]
0	0x3ec0d91f	0.3766565
1	0xbcbb639b	-0.022874644
2	0xbe108a9c	-0.14115375
3	0xbe6ca14e	-0.23108408
4	0x3effad98	0.4993713
5	0xbea4e4bf	-0.3220577
6	0x3ebe135f	0.37124154
7	0xbf1aa0a5	-0.60401374
8	0x3e0259eb	0.12729613
9	0x3ed51896	0.4162032
10	0x3f0719e6	0.5277389
11	0xbf2f448b	-0.68463963
12	0xbec188b2	-0.37799603
13	0x3f04625f	0.517126
14	0x3eca9446	0.3956625
15	0x3e9de5d3	0.30839404
16	0xbf28fa7b	-0.660072
17	0x3e81b925	0.25336567
18	0xbf3a4498	-0.72760916
19	0x3f33bfa8	0.7021432
20	0x3f0fc9cd	0.561673
21	0x3f27c0c5	0.6552852
22	0xbc0838a4	-0.008314285
23	0x3f040e3f	0.5158424
24	0xbe611997	-0.21982418
25	0xbe357508	-0.17720425
26	0x3eca791e	0.3954553
27	0x3edc07ba	0.42974645
28	0x3ed7396e	0.42036003
29	0x3e1b8f21	0.15191318
30	0x3ec33388	0.38125253
31	0xbeab5bbc	-0.33468425
32	0x3ee99db0	0.4562812
33	0xbefbabb1	-0.49154428
34	0x3f114ba8	0.5675607
35	0xbf266824	-0.65002656
36	0xbdb67dad	-0.089106895
37	0x3e521022	0.20513967
38	0xbe6fe368	-0.23426592
39	0x3eca479e	0.39507765
40	0xbf0d07da	-0.55090106
41	0xbec8dd52	-0.39231354
42	0xbf1f06a9	-0.6211954
43	0xbf3a00ef	-0.72657675
44	0x3e03b8af	0.1286342
45	0x3ebd1f36	0.36937875
46	0x3d2e4523	0.042546403
47	0x3f08b099	0.53394467
48	0x3f27b2e2	0.6550733
49	0xbf321bb5	-0.6957353
50	0xbed75d1b	-0.4206322
51	0x3e8d9758	0.2765453
52	0xbead662c	-0.33867013
53	0x3f0246a1	0.5088902
54	0xbf0bbbf5	-0.54583675
55	0xbe5ff116	-0.2186931
56	0xbf18bedb	-0.5966622
57	0xbf2bcc16	-0.67108285
58	0x3efcff80	0.4941368
59	0xbf2beb56	-0.6715597
60	0xbdfbea8a	-0.12300594
61	0x3e134bd8	0.14384401
62	0x3ee0b422	0.4388743
63	0xbf278edc	-0.6545236
64	0xbe91dac8	-0.2848723
65	0x3e35a13a	0.17737284
66	0x3d8719f3	0.06596746
67	0xbf2f125e	-0.683874
68	0xbf47439f	-0.77837557
69	0xbe768ee1	-0.24077941
70	0x3eb7626a	0.3581727
71	0xbf1a0f6e	-0.60179794
72	0x3d99c881	0.07508946
73	0xbef18d89	-0.47178295
74	0xbeac0aa9	-0.33601883
75	0xbef954f2	-0.4869762
76	0x3ef6d39b	0.48208317
77	0x3eac7706	0.33684558
78	0xbea953ce	-0.3307175
79	0x3e2eee77	0.17083155
80	0x3f1ccdb7	0.61251396
81	0x3e8780e6	0.2646553
82	0x3e88c2d6	0.26711148
83	0xbeadd9a4	-0.3395511
84	0xbea8ecc5	-0.3299314
85	0x3ee2a7a8	0.44268537
86	0xbf27915a	-0.65456164
87	0x3e288111	0.16455485
88	0x3d8f163d	0.069866635
89	0x3f005c04	0.50140405
90	0xbec0cdcd	-0.37657014
91	0x3edb1406	0.42788714
92	0x3d2da37f	0.04239225
93	0x3d939252	0.07205643
94	0x3de55590	0.111979604
95	0xbef516ed	-0.47869053
96	0xbe06fb2f	-0.13181756
97	0x3f2b029e	0.6680087
98	0xbf31c0d9	-0.6943489
99	0x3f1d0d0f	0.6134805
100	0x3e210037	0.15722738
101	0x3eac8a97	0.33699486
102	0x3db25359	0.087073036
103	0xbf01906d	-0.50611
104	0xbf1bbd03	-0.60835284
105	0x3ed9aad9	0.4251316
106	0x3f3329f4	0.6998589
107	0xbe031b53	-0.12803392
108	0x3e9abfb1	0.30224374
109	0xbeefb897	-0.46820518
110	0x3efe79d8	0.49702334
111	0x3ebe205c	0.37134063
112	0x3f02b95f	0.51064104
113	0x3e58f1e9	0.21186031
114	0x3f2ba96c	0.6705539
115	0x3ed5eb8b	0.41781268
116	0x3f212894	0.6295254
117	0x3d8c6e56	0.068569824
118	0x3f20d6f6	0.62828004
119	0xbe8bc8aa	-0.27301532
120	0x3f1ffc41	0.62494284
121	0xbc63df08	-0.013908155
122	0xbf0fcbfd	-0.56170636
123	0x3eb635ec	0.35588014
124	0xbd89e5e8	-0.06733304
125	0x3edb4c8c	0.42831838
126	0xbecc51dc	-0.39906204
127	0xbebebf4c	-0.37255323
128	0x3e46ed1f	0.19426392
129	0x3e43a1bc	0.19104666
130	0x3ecb23b5	0.3967568
131	0x3f192e36	0.5983614
132	0x3f21a3b9	0.63140446
133	0xbe6ec2ee	-0.23316547
134	0x3e20a1bd	0.15686698
135	0x3bca6fcf	0.0061778794
136	0x3f06fefa	0.52732813
137	0xbf16167d	-0.58628064
138	0x3f13eb86	0.57781255
139	0xbdc753fc	-0.097328156
140	0xbf1b88d8	-0.6075568
141	0x3e161c98	0.14659345
142	0x3e91ee1e	0.28501981
143	0x3f3474fa	0.7049099
144	0xbeb4219e	-0.35181898
145	0x3e30b397	0.17256008
146	0xbeda7dc0	-0.42674065
147	0x3d192765	0.037391085
148	0xbeb1ffec	-0.34765565
149	0xbe0a7692	-0.13521793
150	0x3ec33a81	0.38130572
151	0x3d1891df	0.03724849
152	0x3e9fb33a	0.31191427
153	0xbe6bcbed	-0.2302701
154	0x3f35a374	0.70952535
155	0xbe6d0ded	-0.23149844
156	0xbde30989	-0.11085803
157	0x3e85b4ab	0.261144
158	0x3ecc42b4	0.3989464
159	0xbef767b1	-0.48321298
160	0xb9804de0	-0.00024472084
161	0xbe57170f	-0.2100489
162	0xbecfd0fc	-0.4058913
163	0x3f1b6527	0.6070122
164	0x3d98da1e	0.074634776
165	0x3de8975d	0.11356995
166	0x3f5b87f2	0.8575431
167	0x3e55af55	0.20867665
168	0xbeb04857	-0.3443019
169	0xbd99c216	-0.07507722
170	0x3ee9fa83	0.45698938
171	0xbdfc1dc8	-0.12310368
172	0x3ec0aaf8	0.3763044
173	0x3ed06327	0.40700647
174	0xbe0c8aed	-0.13724871
175	0xbe556d6d	-0.20842524
176	0xbd46d340	-0.048541307
177	0x3f1a32d0	0.60233784
178	0xbd9a4596	-0.07532804
179	0xbde816ed	-0.11332498
180	0xbe430bb4	-0.19047433
181	0x3f3ed47f	0.74542993
182	0xbf4179c8	-0.7557645
183	0x3e42bb8c	0.19016856
184	0x3f103f41	0.5634652
185	0x3ed42e6d	0.4144167
186	0xbf3536ec	-0.7078693
187	0xbee52f73	-0.44762763
188	0xbe040d02	-0.12895587
189	0xbde4380c	-0.111435026
190	0x3f13a0f1	0.5766745
191	0xbeabd35b	-0.3355969
192	0xbeda9fe0	-0.427001
193	0xbe474fc5	-0.19464023
194	0xbe0a2d51	-0.1349385
195	0xbf309b27	-0.68986744
196	0x3de368c0	0.11103964
197	0xbe90386f	-0.28168055
198	0xbe040716	-0.12893328
199	0xbe9ab6f1	-0.30217698
200	0x3e93b935	0.2885224
201	0xbc3bd572	-0.011464464
202	0xbf139662	-0.5765134
203	0xbf2671d0	-0.65017414
204	0x3e84053a	0.25785238
205	0xbf3b2094	-0.73096585
206	0xbf0ccea3	-0.550028
207	0xbec0ce8d	-0.37657586
208	0x3e92ca36	0.286699
209	0x3f1ebd68	0.6200776
210	0xbe39d22f	-0.18146585
211	0x3edab0ea	0.427131
212	0x3e8124e9	0.25223473
213	0xbf0fc6e9	-0.5616289
214	0x3ee7c1c0	0.45265007
215	0x3f205493	0.6262905
216	0x3e673612	0.2257922
217	0x3f1f857f	0.62313074
218	0x3ed9b528	0.42521024
219	0xbf0e2bb4	-0.55535436
220	0xbe610407	-0.21974193
221	0x3cf010e3	0.029304927
222	0x3f344bd1	0.70428187
223	0xbda96080	-0.08270359
224	0xbe9cb889	-0.3060954
225	0x3e5c053e	0.21486375
226	0xbdb4c86e	-0.088272914
227	0x3d9cdbe5	0.07659129
228	0xbe8a5b3b	-0.27022728
229	0x3f1fbb8a	0.62395537
230	0x3f0e74af	0.55646795
231	0xbf292e21	-0.6608601
232	0xbedc0546	-0.42972773
233	0xbf1c8828	-0.6114526
234	0x3e241c01	0.16026308
235	0x3e93e7d6	0.28887814
236	0x3f3597d0	0.7093477
237	0xbdf0f8b6	-0.11766188
238	0xbe5d6276	-0.21619591
239	0x3e944354	0.28957617
240	0xbecf2b01	-0.40462497
241	0x3f1bf06c	0.6091373
242	0x3ed2d1c2	0.41175658
243	0x3e76ad6e	0.24089596
244	0x3ee22611	0.44169667
245	0xbe19f87f	-0.150362
246	0x3ee66474	0.44998515
247	0xbef9f13f	-0.4881687
248	0x3f296d22	0.6618215
249	0xbebf7aee	-0.37398475
250	0x3e798f43	0.24371056
251	0xbf03ee3a	-0.5153538
252	0xbf0d3662	-0.55161107
253	0x3e5df78f	0.21676467
254	0x3e75e68c	0.24013728
255	0xbeac87d8	-0.3369739

decoders.0.decoder_net.3.weight f4 [32]
0	0x3f82a85a	1.0207627
1	0x3f80a762	1.0051081
2	0x3f7c5200	0.9856262
3	0x3f7ce839	0.98791844
4	0x3f85a2a1	1.0440255
5	0x3f7c9989	0.98671776
6	0x3f7eb4ab	0.9949443
7	0x3f87a860	1.0598259
8	0x3f80b149	1.0054103
9	0x3f80a6a8	1.005086
10	0x3f82dc25	1.0223433
11	0x3f7de8a7	0.99183124
12	0x3f7dd819	0.99157864
13	0x3f7fa520	0.99861336
14	0x3f7c9093	0.986581
15	0x3f783e70	0.9697027
16	0x3f81676d	1.0109688
17	0x3f861ff6	1.0478504
18	0x3f80c46c	1.0059943
19	0x3f8197f7	1.0124501
20	0x3f7c5c2f	0.9857816
21	0x3f81cf76	1.0141437
22	0x3f80cdca	1.0062802
23	0x3f81e023	1.0146526
24	0x3f7f902f	0.9982938
25	0x3f7f1707	0.9964451
26	0x3f73c5fc	0.95223975
27	0x3f80d6de	1.0065572
28	0x3f729213	0.9475414
29	0x3f7ce629	0.98788697
30	0x3f7f667d	0.9976576
31	0x3f7e56f1	0.9935141

decoders.0.decoder_net.3.bias f4 [32]
0	0xbd282a8e	-0.04105621
1	0xbce6a755	-0.028155962
2	0xbd3af502	-0.045643814
3	0xbcb45a48	-0.022015706
4	0xbd20c213	-0.039247584
5	0xbc8d7517	-0.017267747
6	0xbad79068	-0.0016446235
7	0x3d387921	0.045037393
8	0x3cba36c6	0.022731196
9	0x3c1a132f	0.009403988
10	0x3952d27d	0.00020105574
11	0xbbc4b09c	-0.006002499
12	0x3a01265b	0.0004926675
13	0x3ce06a72	0.027394507
14	0xba90b5a6	-0.0011040464
15	0x3d86e9d9	0.06587572
16	0xbcb0569b	-0.021525672
17	0x3d8d87fc	0.069107026
18	0x3c1d3c29	0.009596863
19	0x3a818f7e	0.0009884683
20	0xbcd618ec	-0.02613493
21	0xbc546b07	-0.01296497
22	0x3bcec586	0.0063101677
23	0xbc8468b2	-0.016163204
24	0xbc4f13bb	-0.012638981
25	0xbd323ff1	-0.04351801
26	0xbc397848	-0.011320181
27	0xbbdf23c3	-0.006809683
28	0xbd5551a8	-0.052079827
29	0x3caa3fa8	0.020782307
30	0xba4ff970	-0.00079335924
31	0xbc0947ad	-0.008378905

decoders.0.decoder_net.3.running_mean f4 [32]
0	0x3d271652	0.04079277
1	0x3d217f25	0.039427895
2	0x3ce1ae5a	0.027548958
3	0x3cd3d87b	0.025860062
4	0x3c92a430	0.017900556
5	0x3ca286f8	0.019839749
6	0x3d04adad	0.032392193
7	0x3cec635f	0.028855978
8	0x3d192aa6	0.03739419
9	0x3d055f8d	0.032561827
10	0x3d03232e	0.03201597
11	0x3d2988ee	0.041390352
12	0x3c9f8f93	0.019477641
13	0x3d0914b4	0.03346701
14	0x3d3706b3	0.044684123
15	0x3cedf022	0.029045168
16	0x3cb29892	0.021801267
17	0x3d11d616	0.03560456
18	0x3d042eb3	0.0322711
19	0x3cbdfcd6	0.02319185
20	0x3d0ee329	0.034884606
21	0x3cf67732	0.030086134
22	0x3d508655	0.05090936
23	0x3d006ae7	0.03135195
24	0x3cba21cf	0.0227212
25	0x3d01ac6b	0.03165857
26	0x3d26003a	0.04052756
27	0x3cb8c78d	0.02255609
28	0x3cb88c11	0.022527726
29	0x3d1146a6	0.035467766
30	0x3d243d79	0.040097687
31	0x3cb1aad0	0.021687895

decoders.0.decoder_net.3.running_var f4 [32]
0	0x3b34315b	0.0027495238
1	0x3b5d1d91	0.0033739547
2	0x39dbf80e	0.0004195575
3	0x3a42e917	0.0007435246
4	0x398a8150	0.00026417756
5	0x39cd4fc3	0.00039160074
6	0x3a4c74a6	0.00077993644
7	0x3b03f70f	0.0020136272
8	0x3b565e78	0.0032710116
9	0x3ae37e04	0.0017356281
10	0x3a25dc43	0.0006327072
11	0x3b497a22	0.0030742963
12	0x399b171a	0.00029581116
13	0x3ace09df	0.0015719495
14	0x3b51a1db	0.0031987343
15	0x3a3f1192	0.000728869
16	0x39d9f924	0.0004157509
17	0x3ad4dfa4	0.0016240967
18	0x3a23afdb	0.0006244161
19	0x3a76a7c7	0.0009409156
20	0x3a9b327b	0.0011840606
21	0x3a8b9bab	0.0010651251
22	0x3af85872	0.0018947257
23	0x3a704d83	0.00091668236
24	0x3987ee67	0.0002592683
25	0x3ac88302	0.0015297832
26	0x3aba5c76	0.0014218229
27	0x3a461edb	0.00075576984
28	0x39d53318	0.00040664594
29	0x3abc1d62	0.0014352018
30	0x3ab43a2a	0.0013750244
31	0x3a334fb1	0.0006840183

decoders.0.decoder_net.4.weight f4 [32, 32, 3, 3]
0	0xbd61f3fc	-0.055164322
1	0x3d06942a	0.032856144
2	0x3d26e1c0	0.040742636
3	0x3c77daab	0.015127818
4	0xbcaca0f6	-0.021072846
5	0x3d71d148	0.059037477
6	0x3d4231b0	0.047410667
7	0xbd895e56	-0.06707446
8	0xbbc964d0	-0.006146051
9	0x3c326c7a	0.010890121
10	0xbc3c0365	-0.011475419
11	0x3b9f08f5	0.0048533627
12	0x3b382c34	0.002810252
13	0xbc0054a4	-0.00783268
14	0xbcada911	-0.021198781
15	0x3d5d51b3	0.054032993
16	0xbc5e77d1	-0.013578371
17	0x3c9adce6	0.01890416
18	0xbd2978d6	-0.041375004
19	0xbd8bb5d0	-0.06821787
20	0x3b16e0b7	0.0023022124
21	0xbc9475f9	-0.01812266
22	0x3c63e11c	0.013908651
23	0xbd199b18	-0.037501425
24	0xbd781bb1	-0.060573284
25	0xbd4627d2	-0.04837782
26	0xbd1a2ad5	-0.037638504
27	0xbcf1cce5	-0.029516647
28	0xbbbafcf7	-0.0057064253
29	0xbd21f191	-0.039537016
30	0xbccacb1a	-0.02475505
31	0xbd7872cc	-0.060656354
32	0x3aef49d1	0.0018256252
33	0x3cd91a30	0.026501745
34	0xbc8d8547	-0.017275466
35	0x3d42cc1a	0.047557928
36	0xbd981fa7	-0.07427912
37	0xbcc2ad6f	-0.02376434
38	0x3cb8bad7	0.02255003
39	0x3d010413	0.031498026
40	0xbd87d7f7	-0.06632989
41	0x3d6c5264	0.05769576
42	0xbcbf9589	-0.023386734
43	0x3d0284ff	0.031865116
44	0x3c620be5	0.013796781
45	0xbc8e44e4	-0.017366834
46	0xbc2541f4	-0.010086525
47	0x3c82afba	0.015952934
48	0x3c050803	0.008119586
49	0x3d8cde19	0.06878299
50	0xbca31b4d	-0.019910479
51	0x3ca2201a	0.019790698
52	0x3cb0aeb0	0.021567672
53	0x3d985200	0.07437515
54	0x3ce119c0	0.027478099
55	0xbce568d6	-0.028004091
56	0xbd254976	-0.04035326
57	0x3d371c94	0.04470499
58	0xb951a2ad	-0.00019992395
59	0xbd639607	-0.055563
60	0xbd8dfff5	-0.069335856
61	0xbc8fa531	-0.017534824
62	0xba752fc9	-0.0009353129
63	0x3d2e45f0	0.042547166
64	0xba24f7b3	-0.00062930136
65	0x3cabba66	0.020962905
66	0x3c8105ec	0.015749894
67	0x3d2ffee9	0.04296771
68	0x3d0152fc	0.03157328
69	0x3b60ce85	0.0034302783
70	0xbd6f6c09	-0.05845264
71	0x3d827b6b	0.06371196
72	0x3c6b73a6	0.014370834
73	0x3d5c0f27	0.053725388
74	0x3d3cc64a	0.04608754
75	0x3cb9036e	0.022584643
76	0x3d548473	0.051884126
77	0xbd336b96	-0.043803774
78	0xbd3e9f56	-0.046538673
79	0xbc319f59	-0.010841214
80	0x3d6bd8b5	0.057579715
81	0x3bc2e3d2	0.0059475685
82	0x3cc1879f	0.02362424
83	0x3b7990ea	0.003808076
84	0xbdb6f5a7	-0.08933573
85	0x3ccb6d39	0.024832355
86	0xbc9f2eb8	-0.019431457
87	0x3d435706	0.047690414
88	0xbd8c3db2	-0.06847705
89	0xbd99b508	-0.07505232
90	0x3da9515e	0.08267473
91	0x3d0b14fa	0.03395555
92	0x3d14ce5c	0.036329612
93	0x3bfb19ec	0.0076630022
94	0xbd79d3b0	-0.060992897
95	0xbcf43d1b	-0.029814294
96	0x3d094391	0.033511702
97	0x3d9bc4fe	0.07605933
98	0x3d03b350	0.032153428
99	0xbac42c57	-0.0014966828
100	0x3c9b173e	0.018931981
101	0xbbac5169	-0.0052587283
102	0x3d19a594	0.037511423
103	0x3d9454df	0.072427504
104	0xbd182d15	-0.03715237
105	0xbc136802	-0.008996965
106	0x3d14efad	0.036361385
107	0x3d1e7cdb	0.03869329
108	0xbd28113a	-0.041032054
109	0x3d8fac3f	0.07015275
110	0xbcddabab	-0.027059397
111	0x3c7c07d6	0.015382728
112	0x3ccbebd2	0.024892721
113	0x3cb5ba1b	0.022183469
114	0xbcd6f2be	-0.026238795
115	0xbd2dc417	-0.042423334
116	0x3d0f1795	0.0349346
117	0xbd3edf9d	-0.046599973
118	0xbd088d93	-0.03333814
119	0xbcdccc36	-0.026952844
120	0x3d4581f2	0.04821963
121	0xbadc4bb7	-0.0016807233
122	0xb9f093dd	-0.00045886534
123	0xbbcadd2c	-0.0061909165
124	0xbc9b3051	-0.018943937
125	0x3ca56746	0.020190846
126	0xbc239b60	-0.009985775
127	0x3c3e065a	0.011598194
128	0x3b417c71	0.0029523636
129	0xbd6ef080	-0.058334827
130	0x3dc38466	0.095467374
131	0x3b8dbaeb	0.004325261
132	0x3d510f71	0.051040117
133	0xbd1eeb23	-0.038798463
134	0x3cd5d840	0.026104093
135	0xbc9ee699	-0.019397067
136	0xbd705c0c	-0.058681533
137	0x3d6ade2d	0.05734079
138	0x3c3e0424	0.011597667
139	0x3d6b38cf	0.057427224
140	0xbbd17354	-0.006391922
141	0xbba3736c	-0.0049881246
142	0xbca7a073	-0.02046225
143	0xbd2adac9	-0.041712556
144	0xbc0d62ac	-0.008629482
145	0x3d913ae5	0.07091311
146	0x3d869345	0.06571058
147	0xbd0d8202	-0.034547813
148	0xbb2516f8	-0.0025190692
149	0x3ab0df3e	0.0013494266
150	0xbc942ad2	-0.018086825
151	0x3d7e7ae7	0.062128928
152	0x3d289ebc	0.041167006
153	0x3ce8584f	0.028362421
154	0xbcedd47f	-0.02903199
155	0xbd64fbbc	-0.055904135
156	0x3d19174f	0.037375744
157	0x3cc9d8dc	0.02463954
158	0xbbb7ca16	-0.0056088073
159	0xbd10a366	-0.03531208
160	0x3d105621	0.03523839
161	0xbcfc40fc	-0.030792706
162	0x3b087b8f	0.00208256
163	0xbb54cef2	-0.0032471982
164	0xbd1fafcf	-0.038986024
165	0xbdea64d6	-0.11445014
166	0xbba5d93b	-0.0050612963
167	0x3d0ca893	0.034340452
168	0xbaca6d7b	-0.0015444005
169	0x3cdaa139	0.026688205
170	0xbcc6cfb3	-0.02426896
171	0xbd5204a0	-0.051273942
172	0xbd2f7ace	-0.042841725
173	0xbc6d7bb9	-0.01449483
174	0x3c4d0a89	0.012514719
175	0x3d24faf9	0.04027841
176	0x3ce2fea5	0.027709315
177	0xbcbf56a1	-0.023356738
178	0x3c768b30	0.015047833
179	0xbd0a858c	-0.033818766
180	0xbc810df3	-0.015753722
181	0xbd7c2e98	-0.061567873
182	0xbc973422	-0.018457476
183	0xbd9a7c3f	-0.07543229
184	0x3d4dd584	0.050252452
185	0x3d4f04f2	0.050541826
186	0xbd772528	-0.06033817
187	0xbbefcfc4	-0.0073184688
188	0x3d6ed11f	0.058304902
189	0x3c4b4449	0.012406417
190	0x3b283f7c	0.0025672605
191	0xbce41ada	-0.027844835
192	0xbc9a6fa2	-0.018852059
193	0xbb4ca767	-0.003122771
194	0xbd2c4945	-0.042062063
195	0x3d6419eb	0.05568878
196	0xbc94b8c0	-0.018154502
197	0x3c323d7e	0.010878919
198	0x3d7a8668	0.061163336
199	0x3d735f0a	0.05941681
200	0xbd002fa6	-0.03129544
201	0x3d83bff8	0.064330995
202	0xbd19e42c	-0.037571117
203	0x3c97fd4a	0.018553395
204	0xbd96701a	-0.073456004
205	0x3bc18b35	0.0059064873
206	0x3b24ee02	0.0025166278
207	0x3ca5ce68	0.020240024
208	0x3c5339f6	0.012892237
209	0x3d77365a	0.060354568
210	0x3d2b47a3	0.041816365
211	0xbd845dc2	-0.064631954
212	0x3bfc1acb	0.0076936237
213	0xbc8d2c00	-0.017232895
214	0xbd3947f1	-0.045234624
215	0x3d6eb8c1	0.058281664
216	0xbc6427ba	-0.013925487
217	0x3c92f2a5	0.017937968
218	0x3d29d1e8	0.041459948
219	0xbd6070b2	-0.054794975
220	0xbb18518a	-0.002324196
221	0xbd8dfef5	-0.06933395
222	0x3d5ddab1	0.05416364
223	0xbd25ca3e	-0.040476076
224	0x3d802a8e	0.06258117
225	0xbce60457	-0.028078241
226	0x3ce62de0	0.028098047
227	0xbd478b7d	-0.04871701
228	0xbb73d160	-0.0037203655
229	0x3c8ff5ee	0.017573323
230	0x3cbd62b7	0.02311836
231	0x3d24e8c1	0.040261034
232	0x3bd29945	0.0064269626
233	0xbca82f22	-0.020530287
234	0xbd176a49	-0.036966596
235	0x3d4a67a7	0.049415257
236	0xbd838641	-0.06422091
237	0xbd78485c	-0.060615882
238	0xbd96f92e	-0.07371746
239	0x3bed9ff9	0.0072517362
240	0xbc9036a9	-0.017604189
241	0xbce0d317	-0.027444405
242	0xbbc04f0c	-0.005868798
243	0xbce42ab2	-0.02785239
244	0xbcf38a52	-0.029729042
245	0xbc16fd81	-0.0092157135
246	0x3d2ad074	0.041702703
247	0x3d6f8216	0.05847367
248	0xbdc2b6f8	-0.09507555
249	0xbcf6f680	-0.030146837
250	0xbc819db3	-0.015822267
251	0x3c02db95	0.007986923
252	0xbc460f81	-0.012088657
253	0x3aa7042e	0.0012742335
254	0x3d71c59f	0.059026357
255	0xbc7a7797	-0.0152873015

decoders.0.decoder_net.4.bias f4 [32]
0	0x3ca9cccb	0.020727536
1	0x3d782e9f	0.060591336
2	0xbcbda5dd	-0.023150379
3	0xbd0a2843	-0.033729803
4	0xbd167a27	-0.036737587
5	0x3d856f98	0.065154254
6	0xbd11c33a	-0.035586573
7	0x3caba9dd	0.02095502
8	0x3d23c508	0.039982826
9	0x3cf5c0c5	0.029999146
10	0xbd1a2e86	-0.037642024
11	0xbdb0e773	-0.086378954
12	0x3bad4ad5	0.0052884617
13	0xbbfab2be	-0.0076507023
14	0xbb6e821b	-0.0036393467
15	0x3d89274e	0.0669695
16	0xbd57a122	-0.052643903
17	0xbda3fb9c	-0.08006975
18	0x3c83e93b	0.016102424
19	0x3d340fb4	0.04396029
20	0x39c36e0a	0.00037275284
21	0x3cdb9952	0.026806507
22	0x3c302b85	0.010752563
23	0xbd5c0af9	-0.0537214
24	0xbbb1e6d0	-0.0054291263
25	0x3d5eb2f0	0.054369867
26	0xbba3f21c	-0.005003227
27	0xbd633f43	-0.055480253
28	0x3c4bc855	0.0124379
29	0x3ca5fc05	0.020261774
30	0xbc4ea323	-0.012612137
31	0x3d99cb84	0.07509521

decoders.0.decoder_net.6.weight f4 [32]
0	0x3f75ff1d	0.96092397
1	0x3f7ac597	0.9795775
2	0x3f7ecde2	0.995329
3	0x3f7d455f	0.98933977
4	0x3f78044a	0.96881545
5	0x3f774ab7	0.9659838
6	0x3f781f9a	0.9692322
7	0x3f7faf4d	0.9987686
8	0x3f7e4dec	0.9933765
9	0x3f7f862b	0.998141
10	0x3f71e4e0	0.9448986
11	0x3f765387	0.962212
12	0x3f7b47fd	0.9815672
13	0x3f75f31e	0.9607409
14	0x3f7af604	0.9803164
15	0x3f74a107	0.9555821
16	0x3f75b57d	0.95980054
17	0x3f7defc8	0.99194
18	0x3f75ab71	0.95964724
19	0x3f785f43	0.9702036
20	0x3f7c5ee3	0.98582286
21	0x3f806ba2	1.0032847
22	0x3f76e752	0.96446717
23	0x3f7b1e37	0.9809298
24	0x3f798a73	0.9747688
25	0x3f76a7d8	0.9634986
26	0x3f6c55f3	0.9231865
27	0x3f7c3bab	0.98528546
28	0x3f782061	0.96924406
29	0x3f7c1e32	0.98483574
30	0x3f7caea5	0.98703986
31	0x3f7eff4a	0.9960829

decoders.0.decoder_net.6.bias f4 [32]
0	0x3c8987a5	0.016788313
1	0xbd071bfa	-0.032985665
2	0x3b8d48d9	0.0043116626
3	0xbcc6ad7a	-0.024252642
4	0xbd067eb2	-0.03283567
5	0xbd98a594	-0.074534565
6	0xbd499156	-0.04921087
7	0x3c1898c8	0.00931377
8	0x3d35696f	0.044290002
9	0x3d6c2329	0.05765072
10	0xbd05fe5b	-0.032713275
11	0xba502d98	-0.00079413643
12	0x3d569dad	0.052396465
13	0x3d1e1885	0.038597602
14	0xbd81be15	-0.063350834
15	0x3c5c42c1	0.01344365
16	0x3d81f491	0.063454755
17	0x3b1d3dd6	0.0023993156
18	0x3cdb64a5	0.02678139
19	0x3cc52399	0.024064826
20	0x3c57f5aa	0.0131811295
21	0xbdaa16b6	-0.08305113
22	0xbc4e40c1	-0.012588681
23	0x3ca81428	0.020517424
24	0x3d6fbdc1	0.058530573
25	0x3dcfda31	0.101490386
26	0x3d933aa5	0.0718892
27	0x3d8107b7	0.063002996
28	0xbdae86e2	-0.085218206
29	0x3dc3d861	0.095627554
30	0xbdf10949	-0.11769349
31	0xbce75272	-0.028237555

decoders.0.decoder_net.6.running_mean f4 [32]
0	0x3d056cf5	0.032574613
1	0x3d06c11c	0.032899007
2	0x3cefe644	0.029284604
3	0x3cf84e14	0.030310668
4	0x3ce9ceeb	0.028541049
5	0x3d126973	0.035745095
6	0x3cebf787	0.028804554
7	0x3d041a94	0.03225191
8	0x3d08cb40	0.03339696
9	0x3d02f98c	0.031976268
10	0x3cf93253	0.030419504
11	0x3cdf3fe9	0.027252154
12	0x3cf8ee2a	0.030387003
13	0x3cfd6f8b	0.030936977
14	0x3d065d7d	0.032804
15	0x3d0f63ca	0.035007276
16	0x3ce3fba0	0.027829945
17	0x3ceba6e6	0.028766107
18	0x3d0857a0	0.03328669
19	0x3d01fffa	0.03173826
20	0x3d022ea8	0.031782776
21	0x3d03498d	0.032052565
22	0x3d070e2c	0.0329725
23	0x3ceab8cc	0.028652571
24	0x3cfc60e4	0.03080792
25	0x3d023a73	0.031794023
26	0x3cfb5a89	0.030682819
27	0x3ced0dd3	0.028937256
28	0x3cfed246	0.031106126
29	0x3cfaab3d	0.03059923
30	0x3d005aea	0.031336702
31	0x3d0f9dda	0.03506265

decoders.0.decoder_net.6.running_var f4 [32]
0	0x397f3434	0.00024338142
1	0x391a1336	0.00014693741
2	0x39432920	0.0001861197
3	0x39576462	0.00020541393
4	0x3910beb2	0.0001380395
5	0x39e7f736	0.0004424394
6	0x391cc0ba	0.00014949116
7	0x395946f7	0.00020721169
8	0x39711c4c	0.00022994092
9	0x3927e60b	0.00016012059
10	0x39a92307	0.0003226029
11	0x38f300ea	0.00011587313
12	0x393014bb	0.0001679239
13	0x3953495a	0.00020149854
14	0x394f28f1	0.0001975631
15	0x39fc425b	0.00048114624
16	0x39075568	0.0001290642
17	0x3901fe16	0.00012397053
18	0x399dedc8	0.00030122534
19	0x393d1cd1	0.0001803518
20	0x39558a2f	0.0002036474
21	0x3938bb06	0.00017617279
22	0x39914ce6	0.0002771385
23	0x38fdb52c	0.00012097726
24	0x3955ea97	0.00020400654
25	0x391996e9	0.00014647435
26	0x395a7c69	0.00020836446
27	0x38f8110a	0.00011828735
28	0x39922651	0.00027875838
29	0x392fa606	0.00016751149
30	0x395ac949	0.00020865085
31	0x3999d4fc	0.0002934112

decoders.0.decoder_net.7.weight f4 [32, 16, 3, 3]
0	0xbd3f509b	-0.04670773
1	0x3cd9e354	0.026597656
2	0xbc8aa5f1	-0.01692483
3	0xbcf57673	-0.029963708
4	0x3d96db6d	0.07366071
5	0x3ca82bf1	0.020528765
6	0x3c6b12f2	0.014347779
7	0xbd898887	-0.06715494
8	0xbd089a68	-0.03335038
9	0x3cdc0dfe	0.02686214
10	0x3cdd5392	0.027017388
11	0xbcd99138	-0.026558504
12	0x3da11568	0.07865411
13	0xbda31f52	-0.07964958
14	0xbca31633	-0.019908046
15	0xbd81d8a1	-0.06340147
16	0x3d10b73b	0.035330992
17	0xbc3a028a	-0.011353144
18	0x3cfab5a2	0.030604187
19	0xbd13c72d	-0.03607862
20	0xbc88db38	-0.016706094
21	0xbd4197d9	-0.047263954
22	0xbccc0b50	-0.024907738
23	0xbd07bbaa	-0.033137955
24	0xbd7a8488	-0.061161548
25	0xbd6a3c4f	-0.05718642
26	0xbc9f29a8	-0.019429043
27	0xbcc1944c	-0.023630284
28	0xbd735a6d	-0.05941241
29	0x3dc4f550	0.09617102
30	0xbd97ca0a	-0.07411583
31	0x3d063977	0.032769646
32	0xbdaf13e5	-0.085487165
33	0xbbeb36a3	-0.007178144
34	0x3d606620	0.054784894
35	0xbda0bcb5	-0.07848493
36	0xbc8630aa	-0.016380627
37	0x3d1e219f	0.038606282
38	0xbc1bb853	-0.009504396
39	0x3d90fa77	0.070790224
40	0xbc6860de	-0.014183251
41	0xbd92c24d	-0.07165966
42	0x3d1a37d3	0.037650894
43	0xbdcd0841	-0.1001134
44	0x3d9ca228	0.07648116
45	0x3cf0c9c6	0.029393088
46	0x3d0f05c7	0.03491762
47	0x3d499714	0.049216345
48	0xbdd3cdc3	-0.1034198
49	0x3c8c234c	0.017106675
50	0x3baab95d	0.0052100853
51	0xbc7603a2	-0.015015515
52	0xbd0ecbb2	-0.034862228
53	0xbd27a246	-0.04092624
54	0x3d304ced	0.043042112
55	0x3d62b88c	0.05535178
56	0x3d1bbcea	0.03802196
57	0xbd9e6f33	-0.07736053
58	0xbc2f8a32	-0.010714101
59	0x3d6f4042	0.05841089
60	0x3bd44897	0.00647838
61	0x3c1f76f8	0.009732954
62	0xbd8555d2	-0.065105096
63	0xba955701	-0.0011393727
64	0x3c0fdb3b	0.008780296
65	0xba314a15	-0.0006763053
66	0x3db04acd	0.08608017
67	0xbd8b2581	-0.06794263
68	0xbd97822b	-0.073978744
69	0x3da56a5b	0.08076926
70	0xbcd2bbec	-0.025724374
71	0xbcdbd143	-0.026833182
72	0xbd0c4b1b	-0.034251314
73	0x3c8083c3	0.015687829
74	0x3c848a3d	0.016179198
75	0x3d967fbf	0.073485844
76	0xbcfbac37	-0.030721767
77	0x3c6a6ef6	0.014308682
78	0xbcffd77e	-0.031230684
79	0xbc8a2681	-0.016864063
80	0xbd565fd6	-0.05233749
81	0x3d71c3e2	0.0590247
82	0x3d89b08b	0.06723126
83	0x3da10169	0.07861597
84	0xbda8846e	-0.08228384
85	0x3c4927f6	0.012277594
86	0x3d863c9d	0.0655453
87	0xbcd22964	-0.025654502
88	0xbcc44af1	-0.023961516
89	0x3cd22c5d	0.02565592
90	0x3c1bfd29	0.009520807
91	0x3cf035b1	0.029322477
92	0xbd66c23f	-0.05633759
93	0xbd848d4b	-0.06472262
94	0xbd00af69	-0.031417284
95	0x3cc798d6	0.02436487
96	0x3d8a081c	0.06739828
97	0x3dab8e3a	0.08376737
98	0x3d5610d3	0.05226214
99	0x3d6b5527	0.057454254
100	0xbd9e112e	-0.077181205
101	0x3d563ffa	0.052307107
102	0x3c8f112d	0.017464245
103	0x3d380590	0.04492718
104	0xbc499a11	-0.012304799
105	0xbd225f36	-0.03964158
106	0xbc6a350d	-0.014294875
107	0xbd3e685e	-0.04648625
108	0x3d40e32a	0.04709164
109	0xbc0dc5ab	-0.008653085
110	0xbd845b2f	-0.064627044
111	0xbd4b2bde	-0.049602382
112	0x3da0aa36	0.07844965
113	0xbbf0640f	-0.0073361467
114	0xbb9c5b54	-0.0047716293
115	0xbc476bc1	-0.012171687
116	0x3d517a35	0.051141936
117	0xbd92b809	-0.07164008
118	0x3d4abd7f	0.049497124
119	0x3ce4078e	0.027835634
120	0xbc99678f	-0.018726138
121	0xbd135d10	-0.035977423
122	0xbbc6838a	-0.006058161
123	0x3d4703ab	0.048587482
124	0x3b87c8ed	0.0041438253
125	0xbb7e1243	-0.003876821
126	0x3cee0d1e	0.02905899
127	0x3d92bafe	0.07164572
128	0xbd9b5538	-0.075846136
129	0xbc15723f	-0.009121477
130	0x3d8cbb90	0.06871712
131	0xbd5f5bd3	-0.05453093
132	0x3d8ccb94	0.06874767
133	0x3d9f89d2	0.07789959
134	0x3d91e38f	0.071234815
135	0xbd80a7d6	-0.06282012
136	0x3cb1caa9	0.021703081
137	0x3caa196a	0.020764071
138	0xbd67c0ed	-0.056580473
139	0xbda2fea7	-0.07958727
140	0xbda79f76	-0.08184712
141	0x3d880b86	0.06642823
142	0x3d840a4c	0.064472765
143	0x3c7aafb2	0.015300678
144	0x3d8baf7c	0.0682058
145	0xbcc8a8fd	-0.024494642
146	0xbc4e7bf7	-0.012602798
147	0xbcda39a4	-0.026638813
148	0xbd31b0c8	-0.043381482
149	0xbc2d3a7b	-0.010573025
150	0x3d9c5747	0.07633834
151	0x3df1f308	0.11813933
152	0xbd1ae5fe	-0.037816994
153	0xbd9c98c7	-0.076463275
154	0x3dab412f	0.08362042
155	0x3cf00005	0.029296884
156	0x3c0d843a	0.008637482
157	0xbdaa94a8	-0.08329135
158	0x3d49c7b1	0.049262706
159	0x3d8c5f47	0.0685411
160	0xbd778263	-0.06042708
161	0x3cf210ba	0.029548991
162	0xbc26e8a2	-0.0101873
163	0x3d089520	0.03334534
164	0x3da3715b	0.07980605
165	0xbd50ebc4	-0.051006094
166	0x3d74082c	0.059578106
167	0x3d7e302d	0.062057663
168	0x3b9b24d0	0.004734613
169	0x3d207ca3	0.039181363
170	0x3d256fd7	0.040389862
171	0x3cce76c6	0.02520312
172	0xbd7f3c1d	-0.062313188
173	0x3d32fafb	0.043696385
174	0x3d293be8	0.041316897
175	0xbbca8e4f	-0.0061815153
176	0xbdbb3496	-0.09140889
177	0x3ca0045a	0.019533325
178	0xbcee19ca	-0.029065032
179	0x3d62ffda	0.05541978
180	0x3b59f180	0.0033255517
181	0xbdc31a50	-0.09526503
182	0xbd11a8bf	-0.03556132
183	0x3d1d89bf	0.038461443
184	0xbd11c1a2	-0.035585053
185	0x3d86241a	0.065498546
186	0x3cbea381	0.023271324
187	0xbca57bb9	-0.020200597
188	0xbd1e988f	-0.03871971
189	0x3d2aee7e	0.04173135
190	0x3aafab42	0.0013402479
191	0xbc6d5ed2	-0.014487939
192	0x3d6bc68a	0.05756239
193	0x3cbcde03	0.023055082
194	0x3d5971a4	0.05308689
195	0x3d5c7a4d	0.053827573
196	0xbcac348d	-0.021021152
197	0xbcd3f8bd	-0.025875444
198	0xbcd71aaa	-0.026257832
199	0xbc14e145	-0.009086912
200	0x3d17a938	0.037026614
201	0xbd235969	-0.03988019
202	0xbdb19aed	-0.08672128
203	0x3c8e92fb	0.01740407
204	0xbd63e464	-0.055637732
205	0x3deac0f0	0.11462581
206	0xbd320eb0	-0.04347104
207	0x3da073f5	0.07834617
208	0x3c1cbd21	0.009566576
209	0xbd6fcbb4	-0.058543876
210	0x3ccac411	0.024751695
211	0x3d8a5f98	0.06756514
212	0xbcef5681	-0.029216053
213	0x3dad8899	0.084733196
214	0x3d6f562e	0.058431797
215	0xbd6d1f83	-0.05789138
216	0x3d377ff3	0.044799756
217	0xbc2eabf3	-0.010661113
218	0x3d3deb15	0.04636677
219	0x3c33e907	0.010980851
220	0x3d188c07	0.037242915
221	0xbd472fe2	-0.04862965
222	0x3cff88de	0.031193193
223	0x3b073dba	0.0020636157
224	0xbd75be57	-0.059995975
225	0x3c3a485a	0.011369789
226	0x3d49890b	0.04920296
227	0x3d5549eb	0.052072447
228	0x3d45d094	0.04829462
229	0x3bed6f43	0.0072459294
230	0x3ab70635	0.0013963642
231	0x3da162be	0.07880162
232	0x3cf24fa5	0.029578993
233	0xbd88d22d	-0.06680713
234	0x3cbca07c	0.023025744
235	0x3d12704c	0.035751626
236	0x3d3c04dc	0.04590307
237	0x3d227aaa	0.039667763
238	0xbcb730a4	-0.02236206
239	0xbd2aeefd	-0.041731823
240	0x3cca57df	0.024700103
241	0xbd47b64b	-0.048757832
242	0xbdaffc13	-0.08593001
243	0xbb66b03c	-0.0035200259
244	0xbc8027ed	-0.015644038
245	0xbdbf60f0	-0.09344661
246	0xbc45ed24	-0.0120804645
247	0xbc2c154e	-0.010503126
248	0xbd6e65d2	-0.058202572
249	0x3d289dda	0.041166164
250	0xbd6e951b	-0.058247667
251	0xbd8c3a25	-0.06847028
252	0xbcb5bbc2	-0.022184256
253	0xbcbebb8b	-0.023282787
254	0xbbd828aa	-0.0065966444
255	0xbd350c4c	-0.04420118

decoders.0.decoder_net.7.bias f4 [16]
0	0x3d304e6d	0.043043543
1	0xbccdcaad	-0.025121057
2	0x3ced4c4d	0.028967047
3	0x3ce2379d	0.02761441
4	0x3dd96d8f	0.106166
5	0xbd40d530	-0.04707831
6	0x3d38da2a	0.045129932
7	0xbd24f5d8	-0.040273517
8	0x3d3b2d62	0.045697577
9	0x3de5f44f	0.11228239
10	0x3df3b6ed	0.11900125
11	0xbe08eefc	-0.13372415
12	0xbc977025	-0.018486092
13	0xbd42212b	-0.047394913
14	0xb983d376	-0.00025143818
15	0xbc929987	-0.017895473

decoders.0.decoder_net.9.weight f4 [16]
0	0x3f794358	0.97368383
1	0x3f7865ac	0.9703014
2	0x3f76ad84	0.96358514
3	0x3f772fef	0.96557516
4	0x3f750878	0.9571605
5	0x3f74fa15	0.95694095
6	0x3f788a5d	0.97086126
7	0x3f76a349	0.96342903
8	0x3f750712	0.95713913
9	0x3f77db29	0.96818787
10	0x3f785af8	0.9701381
11	0x3f763034	0.961673
12	0x3f76c0d6	0.96387994
13	0x3f77d0c9	0.96802956
14	0x3f7648ba	0.9620472
15	0x3f7a0eaa	0.97678626

decoders.0.decoder_net.9.bias f4 [16]
0	0x3e5cefb7	0.21575819
1	0xbe39ee80	-0.18157387
2	0xbdc08667	-0.09400635
3	0x3e0defa9	0.13860954
4	0x3e0bf8ea	0.13669172
5	0xbe2204ec	-0.1582219
6	0x3df09e82	0.11748983
7	0x3db82977	0.08992284
8	0x3dcca960	0.09993243
9	0xbdba13fb	-0.09085842
10	0x3dde3716	0.108503506
11	0xbcf919f5	-0.030407885
12	0x3dc07f1c	0.09399244
13	0x3dbf52be	0.09341954
14	0x3dd531ff	0.104099266
15	0x3dd81038	0.105499685

decoders.0.decoder_net.9.running_mean f4 [16]
0	0x3d872ab7	0.06599944
1	0x3d6d67b4	0.057960227
2	0x3d7b91c8	0.061418325
3	0x3d83201b	0.06402608
4	0x3d8fd521	0.07023073
5	0x3d677d3d	0.05651592
6	0x3d8570f1	0.065156825
7	0x3d682ad2	0.05668146
8	0x3d7f7ee3	0.062376868
9	0x3d8c596b	0.068529926
10	0x3d9226c3	0.071362995
11	0x3d64877d	0.055793274
12	0x3d7b14f3	0.061299276
13	0x3d7839d5	0.060602028
14	0x3d7f9d38	0.062405795
15	0x3d7449b8	0.059640616

decoders.0.decoder_net.9.running_var f4 [16]
0	0x3ab1f6f9	0.0013577632
1	0x3a1633ff	0.0005729794
2	0x3a429528	0.00074227387
3	0x3a878436	0.0010339085
4	0x3a932115	0.0011225069
5	0x39ff17f4	0.00048655237
6	0x3a752b25	0.00093524373
7	0x3a096570	0.00052412506
8	0x3a2b07c5	0.000652429
9	0x3a435bf8	0.0007452364
10	0x3abf75ea	0.0014607285
11	0x3a5eaa8d	0.0008494042
12	0x3a1ff993	0.0006102558
13	0x3a5e2de4	0.0008475466
14	0x3a1a0a9b	0.0005876214
15	0x3a292435	0.00064522336

decoders.0.decoder_net.10.weight f4 [16, 1, 3, 3]
0	0x3d7115d2	0.0588587
1	0xbdbacff1	-0.09121693
2	0xbded14e4	-0.1157625
3	0x3da0422f	0.078251235
4	0x3e7b605f	0.24548481
5	0xbe61600f	-0.220093
6	0x3e582451	0.21107604
7	0x3dc765b9	0.09736199
8	0x3de801bd	0.113284566
9	0x3dcc6402	0.099800125
10	0x3c9e2362	0.019303981
11	0xbd237e68	-0.039915472
12	0xbe1aa120	-0.15100527
13	0xbdfe00a5	-0.12402467
14	0xbddffcc5	-0.10936884
15	0xbd23e438	-0.04001257
16	0x3cfa6a74	0.030568339
17	0xbe0b8549	-0.13625063
18	0xbe8cf181	-0.27528003
19	0x3e3c9174	0.18414861
20	0xbe665dea	-0.22496763
21	0xbead18e3	-0.3380805
22	0xbe588a7a	-0.21146575
23	0xbd45fde3	-0.04833783
24	0xbe70de48	-0.23522294
25	0xbe8ba8e1	-0.27277282
26	0x3d928e47	0.071560435
27	0x3e20a181	0.15686609
28	0x3e384e07	0.17998515
29	0xbd45e14b	-0.04831056
30	0x3ce7aeae	0.028281536
31	0x3e2e4b65	0.17020948
32	0xbe541fe6	-0.20715293
33	0xbe692278	-0.22767055
34	0x3e4b7f78	0.19872844
35	0x3dd613a7	0.10452967
36	0xbb8f65bf	-0.0043761428
37	0x3dcb8e29	0.09939224
38	0xbd7b3580	-0.06133032
39	0xbe06e9c3	-0.1317511
40	0x3e8a1a51	0.26973203
41	0xbe8862a9	-0.26637772
42	0x3e204e48	0.15654862
43	0xbe0ecc9e	-0.13945243
44	0x3e7413dd	0.23835702
45	0xbc94d393	-0.018167293
46	0xbe679b99	-0.2261795
47	0x3e2c189a	0.1680626
48	0x3e517f95	0.20458825
49	0xbd72cb86	-0.059276126
50	0xbe89ad7b	-0.26890168
51	0x3e26d77f	0.16293143
52	0xbdb551a9	-0.08853466
53	0x3d984346	0.074347064
54	0xbc69abed	-0.014262182
55	0x3dc8fb5e	0.098135695
56	0xbe676d28	-0.22600234
57	0x3e712632	0.23549727
58	0x3ecdf7eb	0.4022821
59	0xbc9cb2dc	-0.019128256
60	0x3e7c5b9a	0.24644318
61	0x3e98b070	0.2982211
62	0x3e770bd2	0.24125603
63	0xbe4d9260	-0.20075369
64	0x3ad98c9b	0.001659769
65	0xbe3cb515	-0.18428452
66	0x3e2b2d22	0.16716436
67	0xbc2c2cd3	-0.010508734
68	0x3e84ebc6	0.2596113
69	0x3e6892e8	0.2271229
70	0x3e4b6d89	0.19866003
71	0x3dfee498	0.124459445
72	0x3b551178	0.0032511633
73	0xbc683528	-0.01417283
74	0x3e7608f2	0.2402685
75	0x3e9d8afe	0.30770105
76	0x3d2020b4	0.039093688
77	0xbd851ed0	-0.06500018
78	0xbd9ce0e8	-0.07660085
79	0x3df269ce	0.11836587
80	0xbdbe881b	-0.09303304
81	0xbe65a2cf	-0.22425388
82	0xbdab5b09	-0.08366973
83	0xbe975d86	-0.2956354
84	0xbe150e29	-0.14556183
85	0xbe673eec	-0.22582597
86	0xbe288696	-0.1645759
87	0xbd6ba346	-0.057528757
88	0xbe8dc1c5	-0.27686897
89	0xbd6e3612	-0.058157034
90	0xbe1c829e	-0.15284202
91	0xbe93916c	-0.28821886
92	0xbdfa531a	-0.122228816
93	0x3e9d10be	0.30676836
94	0x3c8b127d	0.01697659
95	0x3e09ed3d	0.13469405
96	0x3dcc4f89	0.099761076
97	0xbe7329df	-0.23746441
98	0x3d60bb2b	0.054865997
99	0xbd5e9d1a	-0.054349042
100	0x3dcea15b	0.1008937
101	0xbd64fdf1	-0.05590624
102	0xbd1ce4be	-0.038304083
103	0x3d432252	0.047640152
104	0xbe4e09da	-0.20120946
105	0xbe5bf2d9	-0.21479358
106	0xbc347ae7	-0.01101563
107	0xbe242471	-0.16029526
108	0xbd99cdaf	-0.07509934
109	0x3e2308f9	0.15921392
110	0xbd1afa7a	-0.03783653
111	0x3e29b9e2	0.16574815
112	0x3a0dd42d	0.000541034
113	0x3e5ff247	0.21869765
114	0xbc4b88ec	-0.012422781
115	0xbe932d09	-0.28745297
116	0xbe3e51ad	-0.18585844
117	0x3dcf7f32	0.101316825
118	0x3e801411	0.2501531
119	0xbe81d91b	-0.2536095
120	0x3ea0f726	0.3143856
121	0x3e49b662	0.1969848
122	0x3da77c7b	0.0817804
123	0x3df6b05f	0.12045359
124	0x3e140c70	0.1445787
125	0x3d908020	0.07055688
126	0xbcf6847b	-0.030092468
127	0x3e6f8923	0.23392157
128	0x3e2981db	0.16553442
129	0xbda52712	-0.08064093
130	0x3eab19b6	0.33418053
131	0xbdf47fc1	-0.119384296
132	0x3e2fc2e5	0.1716419
133	0x3e2b767b	0.16744415
134	0x3e1ab3da	0.1510767
135	0x3e441812	0.19149807
136	0x3e97f261	0.29677108
137	0xbd83d4d4	-0.06437078
138	0x3d536dd2	0.051618405
139	0x3e4eff67	0.20214616
140	0x3e23d011	0.1599734
141	0x3dedc243	0.11609318
142	0xbd0c6c8e	-0.034283213
143	0xbc844e12	-0.016150508

decoders.1.decoder_net.0.weight f4 [512, 2]
0	0x3eab987d	0.33514777
1	0xbc436931	-0.011926935
2	0xbe910e44	-0.28331196
3	0x3ece6afc	0.40315998
4	0xbdbe71c3	-0.09299042
5	0x3d8414ac	0.06449255
6	0x3e81168f	0.25212523
7	0x3e895db6	0.26829308
8	0xbe8ac734	-0.27105105
9	0xbf063c61	-0.5243588
10	0xbe979c8a	-0.29611617
11	0xbf07ad5c	-0.529989
12	0xbeb8d7e0	-0.361022
13	0xbdd11911	-0.10209859
14	0xbeba4af8	-0.36385322
15	0xbec35160	-0.38148022
16	0xbf087bb1	-0.5331374
17	0x3f0d978f	0.55309385
18	0x3f32a980	0.69789886
19	0x3f3ef582	0.74593365
20	0xbf2276ca	-0.6346251
21	0x3e2eec5b	0.1708235
22	0x3eff9c8e	0.4992413
23	0x3e81c211	0.25343373
24	0xbee1446d	-0.43997517
25	0xbebb21e5	-0.36549297
26	0x3efec927	0.49762842
27	0xbe02cfcc	-0.1277458
28	0xbedc7eb6	-0.43065423
29	0x3f15bd41	0.58491904
30	0xbd589983	-0.052880775
31	0xbe193ae2	-0.14963868
32	0xbe56771e	-0.20943877
33	0xbe1dc0d8	-0.15405595
34	0xbee7d9c3	-0.45283327
35	0xbcb35649	-0.02189173
36	0x3f03bdd0	0.51461506
37	0x3cadb5f7	0.021204932
38	0xbeb91ab4	-0.36153185
39	0x3e5ecc02	0.2175751
40	0xbe577bd3	-0.21043329
41	0xbf1000a6	-0.5625099
42	0xbee6590f	-0.4498982
43	0xbefcc268	-0.4936707
44	0x3f1cd977	0.61269325
45	0x3f004092	0.50098526
46	0x3e0453ba	0.12922564
47	0xbcf4f5c1	-0.02990234
48	0x3f1cce05	0.6125186
49	0x3e8251c6	0.25453013
50	0x3e08a824	0.1334539
51	0xbee4435c	-0.4458264
52	0x3f2a3718	0.66490316
53	0x3e4b83b6	0.19874462
54	0xbcb2ae12	-0.021811519
55	0x3ef01be8	0.4689629
56	0x3e31c13c	0.1735887
57	0xbe40b913	-0.188206
58	0xbe011a71	-0.12607743
59	0xbe532304	-0.20618826
60	0x3f2273b8	0.6345782
61	0x3e17967e	0.14803502
62	0xbe47f573	-0.19527225
63	0x3e708095	0.2348655
64	0x3f2cdb4f	0.6752214
65	0xbe737434	-0.23774797
66	0xbeca9419	-0.39566115
67	0xbeffef74	-0.49987376
68	0x3f200402	0.62506115
69	0x3f325e8a	0.69675505
70	0xbe35dbdb	-0.1775965
71	0xbe3fb847	-0.1872264
72	0xbef17a30	-0.47163534
73	0x3f0d7080	0.55249786
74	0xbeb64b0c	-0.3560413
75	0xbea45418	-0.32095408
76	0xbf0505c0	-0.519619
77	0xbec1c9e6	-0.3784935
78	0x3d084f1d	0.033278573
79	0xbd9e356c	-0.07725033
80	0xbe68e734	-0.22744447
81	0xbef696b9	-0.48161867
82	0xbedacb59	-0.42733267
83	0x3edb4e54	0.42833197
84	0xbf44927b	-0.7678601
85	0x3f15bb3c	0.5848882
86	0xbdd5e357	-0.10443752
87	0xbf202905	-0.6256259
88	0x3df6ec68	0.1205681
89	0xbe87f96c	-0.2655748
90	0x3f08e88a	0.53479826
91	0xbf03a1dd	-0.5141886
92	0x3e5a7338	0.21333015
93	0x3f1c1cb6	0.6098131
94	0x3e79c52b	0.2439162
95	0xbe6de555	-0.23232014
96	0xbe812348	-0.2522223
97	0x3e161b62	0.14658883
98	0x3d9f5861	0.07780529
99	0x3f1ee862	0.6207334
100	0x3f0c5a7f	0.54825586
101	0x3e89a5bd	0.2688426
102	0xbe1c7912	-0.1528056
103	0xbf251847	-0.6449017
104	0xbe6a01fb	-0.22852318
105	0x3c873dac	0.0165089
106	0x3e876895	0.26446977
107	0xbe889773	-0.26678047
108	0xbeddeb45	-0.4334356
109	0x3e6d2e8c	0.23162287
110	0x3dc2fcc8	0.095208704
111	0xbf131fc2	-0.57470334
112	0xbf0f53a9	-0.5598703
113	0xbdfb7cd3	-0.12279668
114	0x3f1c0b5c	0.60954833
115	0xbf0a49fd	-0.5401915
116	0x3eb41ebc	0.35179698
117	0x3f322bd1	0.6959811
118	0xbde59f95	-0.112120785
119	0x3efcf604	0.49406445
120	0xbe9074fc	-0.28214252
121	0xbe52ecfc	-0.20598215
122	0x3f04ce7b	0.51877564
123	0x3cb965f7	0.022631628
124	0xbf27af47	-0.65501827
125	0x3ea94287	0.3305857
126	0xbeda3832	-0.42621
127	0xbe19461e	-0.14968154
128	0xbef11e0f	-0.47093245
129	0xbf0d45d3	-0.5518467
130	0x3ea73bd1	0.32662824
131	0x3efbd0c2	0.49182707
132	0xbea37c34	-0.31930697
133	0xbf35fbfd	-0.7108763
134	0x3ee1193d	0.43964568
135	0x3f161f79	0.58641773
136	0x3ee1f3d5	0.44131342
137	0xbe64176b	-0.22274558
138	0xbf007a0c	-0.5018623
139	0x3f168590	0.5879755
140	0xbebdb5cf	-0.3705277
141	0x3db3459e	0.08753513
142	0xbeab297d	-0.3343009
143	0x3f0f48d3	0.55970496
144	0xbf00fd06	-0.50386083
145	0x3f36743d	0.71271116
146	0x3ec587d6	0.38580197
147	0x3f0e09c3	0.55483645
148	0xbe8ee5d1	-0.2790971
149	0xbf0555e1	-0.52084166
150	0x3f0eda5d	0.55801946
151	0x3f117cc9	0.5683103
152	0x3e297293	0.16547613
153	0xbc9cb9a8	-0.019131497
154	0x3e8b3bf6	0.27194184
155	0xbf2eae11	-0.68234354
156	0xbe1db7a8	-0.1540209
157	0xbf312c4e	-0.6920823
158	0x3f208d7d	0.62715894
159	0x3ee8db37	0.45479748
160	0x3f0129dd	0.50454503
161	0xbf02dde3	-0.5111982
162	0x3e2ef8fd	0.17087169
163	0x3eb58dda	0.35459787
164	0x3e980353	0.29690036
165	0x3ef930fc	0.48670185
166	0x3e94e0fb	0.29077896
167	0x3ecf0535	0.4043366
168	0xbe3e0350	-0.18555951
169	0xbf0b0415	-0.54303104
170	0x3f1d5999	0.6146484
171	0xbd2e8b08	-0.04261306
172	0x3f35a07e	0.70948017
173	0xbf341cd5	-0.70356494
174	0x3e324803	0.17410283
175	0xbe8e0c9a	-0.2774399
176	0xbea94ec4	-0.33067906
177	0xbe488dd4	-0.19585353
178	0x3f21b167	0.6316132
179	0xbe0e3728	-0.13888228
180	0xbed9adf1	-0.4251552
181	0x3e80a794	0.25127852
182	0xbf0fe57f	-0.5620956
183	0xbcb683ef	-0.022279708
184	0xbeb18e84	-0.34679043
185	0x3ec4673a	0.38360006
186	0xbda4ffbc	-0.0805659
187	0x3e7d9b7b	0.24766342
188	0x3ebfa69f	0.3743181
189	0x3e2ce4bd	0.16884132
190	0xbed61cff	-0.41818997
191	0x3ead3677	0.33830616
192	0x3d06b4bd	0.03288721
193	0xbea86f49	-0.32897404
194	0x3cf4113c	0.029793374
195	0x3df0932d	0.117468216
196	0x3e69eb17	0.22843586
197	0x3ecdf320	0.40224552
198	0x3e2a1da8	0.16612875
199	0x3e1b8dbe	0.15190789
200	0x3cb26c48	0.021780148
201	0x3f0ed965	0.5580047
202	0x3d85d35d	0.06534455
203	0xbe102679	-0.14077176
204	0xbe3582c7	-0.17725669
205	0x3ead3cd8	0.33835483
206	0x3f128c16	0.57245004
207	0x3f1dd267	0.61649173
208	0xbc76ee35	-0.015071441
209	0x3ec5d75b	0.38640866
210	0x3e2d881b	0.16946451
211	0x3eef3068	0.4671662
212	0xbe3692ec	-0.17829484
213	0xbf17d5df	-0.59310716
214	0x3f0e7e0c	0.5566108
215	0xbea09495	-0.3136336
216	0x3ec75731	0.3893371
217	0xbc727b43	-0.014799896
218	0xbe18973d	-0.14901443
219	0xbf08348c	-0.5320518
220	0x3f381dd0	0.7192049
221	0xbf248cd9	-0.64277416
222	0x3f13d797	0.5775084
223	0xbefe0ccd	-0.4961914
224	0x3e5180a5	0.2045923
225	0x3cba6f64	0.022758193
226	0xbf0cae4c	-0.54953456
227	0x3e859344	0.26088917
228	0x3ecdd0de	0.40198416
229	0x3e9fa4f1	0.31180528
230	0xbe9bb2a1	-0.3040972
231	0x3f1f8d74	0.62325215
232	0xbd3c4f48	-0.045974046
233	0x3db585c6	0.08863406
234	0x3f1caa66	0.6119751
235	0x3c504c50	0.012713507
236	0xbcc4af4f	-0.024009375
237	0xbe36128d	-0.17780514
238	0xbb8a6944	-0.0042239744
239	0xbe4c3e5c	-0.19945663
240	0x3ef2883a	0.47369558
241	0x3ea5c5cc	0.3237747
242	0xbf1e29a0	-0.61782265
243	0x3eb060cf	0.3444886
244	0x3f369ace	0.71329963
245	0x3f0fe123	0.56202906
246	0xbd806d9f	-0.062709086
247	0xbe66c8b2	-0.22537497
248	0xbee17e99	-0.440419
249	0x3e94a122	0.29029185
250	0x3ed58b3b	0.41707787
251	0xbf212a8d	-0.6295555
252	0xbdaac90a	-0.083391264
253	0x3e94d441	0.29068187
254	0xbea457eb	-0.32098326
255	0xbe11338e	-0.14179823
