Project2/models/model_2_4.pt (torch, 214300 bytes, 56 tensors)

prior.mean f4 [2]
0	0x00000000	0.0
1	0x00000000	0.0

prior.std f4 [2]
0	0x3f800000	1.0
1	0x3f800000	1.0

decoders.0.decoder_net.0.weight f4 [512, 2]
0	0x3bb34c98	0.005471777
1	0xbf28d40c	-0.6594856
2	0x3f03935d	0.51396734
3	0xbdd58b86	-0.104270026
4	0x3e2a0864	0.16604763
5	0xbf29e8f4	-0.66371083
6	0xbf053263	-0.5203001
7	0xbea1d382	-0.3160668
8	0x3e8bdc6c	0.27316606
9	0xbf04ac8b	-0.5182578
10	0xbeac8f2a	-0.33702976
11	0xbe3869a8	-0.18009055
12	0xbe2fae58	-0.1715635
13	0x3f2d5cf1	0.6771994
14	0xbf138f15	-0.576402
15	0xbe96070f	-0.2930226
16	0x3d5726ff	0.052527424
17	0xbe8fbe3f	-0.28074834
18	0x3e224332	0.15845945
19	0x3ec04d07	0.37558767
20	0x3e225f7e	0.1585674
21	0x3f595d44	0.8490794
22	0x3f27f6f7	0.65611213
23	0x3dec3620	0.11533761
24	0x3f228bd0	0.63494587
25	0x3e354826	0.17703304
26	0xbee7c124	-0.45264542
27	0x3ecd8417	0.4013984
28	0xbefe4ea9	-0.49669388
29	0x3f338fa4	0.70141053
30	0xbf0db2be	-0.55350864
31	0xbb84139a	-0.004030657
32	0xbde9f715	-0.1142408
33	0xbf29b442	-0.66290677
34	0xbdab0ede	-0.08352445
35	0x3e839313	0.25698146
36	0x3d4c4b86	0.049876712
37	0xbb53c4a0	-0.0032313243
38	0x3ee72edf	0.45152947
39	0xbf070abf	-0.5275077
40	0xbef4b5da	-0.47794992
41	0x3e8cf372	0.27529484
42	0x3f24df75	0.6440347
43	0x3dd5d8ea	0.10441764
44	0x3f0e7bd3	0.5565769
45	0xbb99cd5e	-0.004693671
46	0x3ea2798e	0.31733364
47	0xbf0b1d54	-0.54341626
48	0x3ebe238c	0.37136495
49	0xbeab2e8d	-0.33433953
50	0x3e7f9313	0.24958448
51	0x3f25d62c	0.64779925
52	0xbe229110	-0.1587565
53	0x3e4e8d48	0.20171082
54	0xbd8964ad	-0.067086555
55	0x3eafecfd	0.34360495
56	0x3e74375b	0.23849241
57	0x3eafc9e6	0.34333724
58	0xbec0cbc4	-0.3765546
59	0x3f1271f1	0.5720511
60	0xbe1b511e	-0.15167663
61	0xbdb68079	-0.08911223
62	0x3e963c7a	0.29343015
63	0xbe8ec9d2	-0.27888352
64	0x3c3c234c	0.011483025
65	0xbeb95b2d	-0.36202374
66	0x3ed83caa	0.42233783
67	0xbd022ed5	-0.031782944
68	0xbdc9c3ce	-0.098518
69	0xbe0f903a	-0.14019862
70	0x3f104f9d	0.5637148
71	0x3f40fc06	0.7538456
72	0x3e8d08a7	0.27545664
73	0xbc3905a2	-0.011292847
74	0x3ebe15f5	0.37126127
75	0xbdba5b7b	-0.0909948
76	0x3f3b1b76	0.7308878
77	0x3e818c8d	0.25302544
78	0xbe9c14fc	-0.3048476
79	0x3f20401f	0.6259784
80	0x3df2802f	0.11840855
81	0xbe3d6725	-0.18496378
82	0xbe75bc3a	-0.23997584
83	0x3e937b51	0.2880502
84	0x3d575aa3	0.052576672
85	0xbc0885f3	-0.008332717
86	0xbf183399	-0.5945373
87	0xbeae727a	-0.34071714
88	0x3f1a1d32	0.602008
89	0x3efc8695	0.49321428
90	0x3f02c3fd	0.51080304
91	0xbed29de9	-0.411361
92	0x3e732599	0.23744811
93	0xbcb183aa	-0.021669228
94	0xbec35d15	-0.38156953
95	0x3ee63f22	0.44970042
96	0x3e30ecce	0.17277834
97	0xbde4813a	-0.111574605
98	0x3f127413	0.57208365
99	0xbc107240	-0.008816302
100	0x3e15d736	0.14632878
101	0x3f3c4cc4	0.73554635
102	0x3ebebb19	0.3725212
103	0x3e856d71	0.2606006
104	0x3e2ae28f	0.16687988
105	0xbf16164d	-0.5862778
106	0x3da4efc1	0.08053542
107	0xbea37a1f	-0.31929109
108	0xbf15ac75	-0.58466274
109	0xbebc84f2	-0.3682018
110	0x3e3b9947	0.1832019
111	0xbed9d6ea	-0.4254678
112	0x3eac8d3f	0.33701512
113	0xbe8c0123	-0.27344617
114	0xbed903fe	-0.42385858
115	0x3e851a76	0.2599675
116	0xbf09f4e8	-0.5388932
117	0xbea20921	-0.3164759
118	0xbe6b99a6	-0.23007831
119	0xbc2d7f45	-0.010589425
120	0x3f2b567d	0.66928846
121	0x3ea13062	0.31482226
122	0x3ebdf34d	0.37099686
123	0x3ee29f56	0.4426219
124	0x3ef76d67	0.48325655
125	0x3f2bc400	0.6709595
126	0xbdeb9aa9	-0.115041085
127	0xbe4900bb	-0.19629185
128	0x3f207e6c	0.62692904
129	0xbf1da6eb	-0.6158282
130	0x3d2d1a63	0.042261492
131	0x3d302031	0.04299945
132	0x3f0d9571	0.55306154
133	0x3ea6b553	0.32560214
134	0xbeccc3d6	-0.3999316
135	0x3e9627a8	0.2932713
136	0x3d4c1e02	0.049833305
137	0x3f1bcc68	0.60858774
138	0x3d98accf	0.074548356
139	0x3f316733	0.69298095
140	0xbe429e15	-0.19005616
141	0x3f0ceef8	0.5505214
142	0xbcc9d9af	-0.024639932
143	0x3f0ad706	0.5423435
144	0x3f100537	0.5625796
145	0xbf0d6611	-0.55233866
146	0xbebb8509	-0.36624935
147	0xbe893c58	-0.2680385
148	0x3eaf3095	0.34216753
149	0x3e3f4d92	0.18681934
150	0xbf0ff143	-0.5622751
151	0x3f2bef20	0.6716175
152	0x3e999001	0.2999268
153	0xbe9c97d2	-0.3058458
154	0x3f21bcd2	0.6317874
155	0x3f01c248	0.50687075
156	0xbeac470a	-0.33647949
157	0x3cf07463	0.029352373
158	0x3dff49c7	0.12465244
159	0x3e4bf4ea	0.19917646
160	0xbf0bad30	-0.5456114
161	0xbe1aa487	-0.15101825
162	0x3f227f64	0.6347563
163	0xbe8b50ba	-0.27210027
164	0xbf009d88	-0.50240374
165	0xbeadf9ba	-0.3397959
166	0xbd1587b2	-0.036506362
167	0x3e119ce2	0.14220002
168	0xbc9272ee	-0.017877068
169	0xbf0eb61d	-0.5574663
170	0xbe79550f	-0.24348854
171	0x3c6f6746	0.014612025
172	0xbe9016e5	-0.28142467
173	0x3f4b9e65	0.79538566
174	0x3eff0b65	0.4981338
175	0x3df376dd	0.11887906
176	0x3f20ac3d	0.62762815
177	0x3ecd0558	0.4004314
178	0xbf17431a	-0.59086764
179	0xbefa90d2	-0.48938614
180	0xbecdf4ea	-0.40225917
181	0xbf05a4c6	-0.5220455
182	0xbefa879f	-0.48931596
183	0xbf018449	-0.50592476
184	0xbf005d48	-0.50142336
185	0xbf0600fa	-0.5234524
186	0xbf3c85c7	-0.7364163
187	0x3e37c306	0.1794549
188	0xbf1abe39	-0.60446507
189	0x3e8b3919	0.27192
190	0xbeca72a0	-0.39540577
191	0x3d200e14	0.039075926
192	0xbed14383	-0.4087182
193	0x3f061db2	0.5238906
194	0xbe34d097	-0.17657696
195	0x3f019cb6	0.50629747
196	0xbe635b7c	-0.22202867
197	0x3eca85f7	0.39555332
198	0x3ea5eb47	0.32406065
199	0xbe3444ac	-0.17604321
200	0xbefc5c47	-0.49289152
201	0xbe303d3b	-0.17210858
202	0x3e81f7bf	0.25384328
203	0xbf207cdd	-0.62690526
204	0x3f2d6de3	0.677458
205	0xbf141c09	-0.5785528
206	0x3e40528f	0.18781494
207	0x3e9ec87d	0.31012335
208	0x3eb5373c	0.35393703
209	0xbef0ecb0	-0.47055578
210	0xbe71de54	-0.23619968
211	0x3e747d6e	0.23875973
212	0xbf1fc060	-0.62402916
213	0xbece38ea	-0.40277797
214	0xbf0a9878	-0.541389
215	0x3e686214	0.22693664
216	0x3d3d3a77	0.046198335
217	0xbe138939	-0.14407815
218	0xbf19d640	-0.60092545
219	0xbef01089	-0.46887615
220	0xbed7fb59	-0.4218395
221	0x3f144d5e	0.5793055
222	0xbf210782	-0.6290208
223	0xbf23c0d1	-0.6396609
224	0x3f117d88	0.5683217
225	0x3d56e512	0.052464552
226	0x3ec4fe03	0.38475046
227	0xbea72481	-0.32645038
228	0x39dc3e06	0.0004200788
229	0xbd2926e2	-0.041296847
230	0x3ee98de3	0.45616063
231	0x3f4db642	0.8035623
232	0xbeb3e465	-0.3513519
233	0xbd3fceda	-0.04682813
234	0x3f10adbd	0.56515104
235	0x3f1dc62a	0.616305
236	0xbee3f6a0	-0.44524097
237	0xbee90f15	-0.4551932
238	0x3eae7587	0.3407404
239	0x3ed9347c	0.42422855
240	0x3be04301	0.006843925
241	0xbec020a7	-0.37524912
242	0x3efcd836	0.49383706
243	0x3ee0fa2b	0.43940863
244	0x3f3e39ca	0.7430693
245	0x3d2e9770	0.04262489
246	0x3f039c59	0.5141044
247	0x3e8a848d	0.27054253
248	0x3d0698e3	0.032860648
249	0xbe50c956	-0.20389304
250	0xbf2bc6ac	-0.67100024
251	0xbe55a812	-0.20864895
252	0x3e04334f	0.12910198
253	0x3c9c6996	0.019093316
254	0xbec9575c	-0.39324462
255	0xbe09e7d2	-0.13467339

decoders.0.decoder_net.0.bias f4 [512]
0	0xbecc05c7	-0.39848158
1	0x3f22136f	0.63310903
2	0xbf3362ec	-0.7007282
3	0x3e3adc8c	0.18248194
4	0x3f26772a	0.6502558
5	0x3e69a658	0.22817361
6	0x3ec029fa	0.37532026
7	0x3ece68fa	0.40314466
8	0x3f0bf123	0.5466482
9	0xbe8c7889	-0.2743571
10	0xbf6e7aec	-0.93156314
11	0xbe482987	-0.19547091
12	0x3d03228b	0.032015365
13	0xbf205670	-0.62631893
14	0xbe44b0e8	-0.1920811
15	0xbb20763e	-0.002448454
16	0x3f260a6c	0.6485965
17	0x3e8a48a4	0.27008545
18	0x3e1933f0	0.14961219
19	0xbf22325a	-0.6335808
20	0x3e1528b1	0.14566304
21	0xbe8978f5	-0.26850095
22	0xbf3262cc	-0.69682
23	0x3d6dc6f7	0.058051076
24	0x3ed5050b	0.4160541
25	0xbf3b48f1	-0.73158175
26	0x3e3f148b	0.1866018
27	0x3e6f00b8	0.23340118
28	0xbe7b93f9	-0.24568166
29	0xbda2a31a	-0.079412654
30	0x3ed191cb	0.40931544
31	0x3e2b93d7	0.16755615
32	0x3e1886f7	0.14895235
33	0xbeae0a40	-0.33992195
34	0xbf2e2a94	-0.6803372
35	0x3ee493ea	0.446441
36	0x3eea0a24	0.45710862
37	0xbe6f478c	-0.23367137
38	0xbeb4bdaf	-0.35300967
39	0x3f1ec1dc	0.62014556
40	0xbe6eeac6	-0.23331746
41	0xbea99760	-0.33123302
42	0xbee45f6f	-0.4460406
43	0xbf231cc5	-0.63715774
44	0xbecd367c	-0.4008063
45	0x3f05e762	0.5230619
46	0xbe1c9c74	-0.15294057
47	0x3eb1cd70	0.3472705
48	0xbe2f7b84	-0.17136961
49	0xbf0767dc	-0.5289285
50	0x3ebe1aae	0.3712973
51	0xbf284327	-0.65727466
52	0x3d7017ac	0.058616325
53	0x3eb6c25e	0.35695165
54	0xbec9a03d	-0.39380065
55	0x3f33de18	0.70260763
56	0x3e5884d7	0.21144424
57	0x3f276e6e	0.6540288
58	0x3e0d10a2	0.13775876
59	0xbef48095	-0.4775435
60	0x3dc24275	0.09485332
61	0xbd9fe143	-0.07806637
62	0x3e7ef044	0.24896342
63	0x3f1d6182	0.6147691
64	0xbe610170	-0.21973205
65	0x3e6b5b1c	0.22983974
66	0x3d31795f	0.04332864
67	0x3e164e92	0.1467841
68	0x3efa6e7f	0.48912427
69	0xbe360a03	-0.17777257
70	0xbed25d7f	-0.41086957
71	0xbe38a1b0	-0.18030429
72	0x3eb193f5	0.34683195
73	0xbf13dcd9	-0.5775886
74	0x3f3a3dba	0.7275044
75	0xbde43251	-0.111424096
76	0x3ee0c947	0.43903562
77	0xbe4daa61	-0.20084526
78	0xbf0f84f4	-0.56062245
79	0xbf0d3765	-0.5516265
80	0xbf0d336e	-0.551566
81	0x3ef903ac	0.48635614
82	0x3ebbda0d	0.36689797
83	0xbf007b4d	-0.5018814
84	0x3eea512b	0.4576505
85	0xbe9652cf	-0.29360053
86	0xbf03df78	-0.5151286
87	0x3e917897	0.28412315
88	0xbf10687b	-0.56409425
89	0x3f16a445	0.58844405
90	0xbf20992f	-0.6273374
91	0xbc53bb1b	-0.012923027
92	0x3eab992c	0.33515298
93	0x3de19849	0.11015374
94	0xbf07e2fc	-0.53080726
95	0x3e009718	0.12557638
96	0x3e05de6d	0.1307313
97	0x3edeb9c5	0.43501106
98	0xbde60547	-0.11231475
99	0xbda5f403	-0.08103182
100	0x3f03b8ed	0.5145405
101	0xbea64775	-0.32476392
102	0x3f2defef	0.67944235
103	0xbf295c02	-0.6615602
104	0xbd9dd75e	-0.07707094
105	0x3ed1e3ed	0.40994206
106	0x3f10b83e	0.5653113
107	0xbe4d9018	-0.20074499
108	0x3f0401a0	0.5156498
109	0xbf1cc5d1	-0.61239344
110	0x3f028ecb	0.50999135
111	0xbea3df23	-0.32006177
112	0x3f0f0880	0.55872345
113	0xbf3a97d8	-0.72887945
114	0x3f1a3bf4	0.6024773
115	0x3ec74f48	0.38927674
116	0x3d9dad2a	0.07699044
117	0x3c981dd0	0.018568903
118	0x3db6fac1	0.08934546
119	0xbda12e22	-0.07870127
120	0x3dee502e	0.11636387
121	0x3f252100	0.6450348
122	0x3ebb0c2a	0.36532718
123	0xbea67e68	-0.32518315
124	0x3f04a129	0.5180841
125	0x3f103d9b	0.56344
126	0xbe98e3ec	-0.2986139
127	0x3ea755cb	0.32682642
128	0xbf017875	-0.5057443
129	0x3f3b0f9c	0.73070693
130	0xbd3c21cd	-0.045930672
131	0xbee95fa5	-0.45580783
132	0xbe893547	-0.2679846
133	0xbe52642c	-0.20546025
134	0x3da9474b	0.08265551
135	0xbe32213c	-0.1739549
136	0x3e90085f	0.28131387
137	0x3f06f8dd	0.52723485
138	0xbe054a49	-0.13016619
139	0xbe78e12e	-0.24304649
140	0x3e010f37	0.1260346
141	0xbe733c4b	-0.23753469
142	0xbf246755	-0.6422017
143	0xbc239137	-0.009983352
144	0xbf16fca2	-0.5897924
145	0xbe9d3bb9	-0.30709627
146	0xbe9a1903	-0.30097207
147	0xbf256822	-0.6461202
148	0x3f035149	0.51295906
149	0x3f13ce1f	0.5773639
150	0xbe77dc0d	-0.24205036
151	0x3d5a987b	0.053368073
152	0xbef2bf27	-0.47411463
153	0xbee55b7d	-0.44796363
154	0xbefe220a	-0.49635345
155	0xbef79eed	-0.48363438
156	0x3cece477	0.028917534
157	0x3f0ddfb4	0.5541947
158	0x3dab02ff	0.08350181
159	0xbc632507	-0.0138638085
160	0x3f26a9d7	0.65102905
161	0xbf158bcb	-0.5841643
162	0x3e6debfd	0.23234554
163	0xbf1e982e	-0.6195096
164	0xbe878ccc	-0.26474607
165	0x3f08d3a5	0.53447944
166	0xbe89c9da	-0.26911813
167	0xbe8c3420	-0.27383518
168	0x3ea91b83	0.33028802
169	0xbe80bb7f	-0.25143048
170	0x3e9b4bbf	0.30331227
171	0xbe98be0f	-0.29832503
172	0xbef9d8f4	-0.48798335
173	0xbe639cd4	-0.22227794
174	0xbe4da0e2	-0.20080903
175	0xbc1808f9	-0.009279483
176	0xbee64f8d	-0.44982567
177	0x3ede5867	0.4342682
178	0x3e9fbaad	0.3119711
179	0x3effab4c	0.49935377
180	0xbe38d57c	-0.18050188
181	0xbf1f0190	-0.6211176
182	0x3f0cf5bb	0.55062455
183	0xbeb5b90d	-0.35492745
184	0xbe2fd3d5	-0.17170651
185	0xbf32f6ad	-0.6990765
186	0xbeea5d53	-0.45774326
187	0x3e9c0c79	0.30478266
188	0xbedf841d	-0.43655482
189	0x3e9a5938	0.30146194
190	0xbe032996	-0.12808833
191	0xbf176bb6	-0.5914873
192	0xbeaa6d74	-0.3328663
193	0xbf25043a	-0.64459574
194	0xbf1c41e7	-0.6103806
195	0x3f1e632b	0.6187007
196	0xbf0c7b48	-0.5487561
197	0x3f1df427	0.6170067
198	0xbc99a910	-0.018757373
199	0xbddfe9ee	-0.109332904
200	0xbed516a3	-0.41618833
201	0x3f174d32	0.59102166
202	0x3f2549b9	0.64565617
203	0x3ebaad99	0.3646057
204	0x3ee9e2a9	0.4568074
205	0x3e7d7011	0.24749781
206	0x3e5ebd83	0.2175198
207	0x3f3dd30f	0.74150175
208	0xbf1ecc30	-0.62030315
209	0x3eb28dec	0.34873903
210	0x3e916c65	0.2840301
211	0xbe8d25a2	-0.27567774
212	0x3ddf3130	0.10898054
213	0xbf0afa62	-0.54288304
214	0xbf251f5f	-0.64500993
215	0xbeebd5d9	-0.4606159
216	0xbf28d232	-0.6594573
217	0x3ecc1c06	0.3986513
218	0x3f28e37e	0.65972126
219	0x3f1227d0	0.57092
220	0xbf1374ca	-0.5760008
221	0x3eeb64aa	0.45975238
222	0xbdfa565c	-0.12223503
223	0xbe831197	-0.25599357
224	0xbf07025e	-0.5273799
225	0xbe56ba5b	-0.20969526
226	0xbed92000	-0.42407227
227	0x3d8e9e4b	0.06963786
228	0x3f3e5dc1	0.7436181
229	0xbf0363e7	-0.51324314
230	0x3f14ad0d	0.58076555
231	0xbefa6bf9	-0.48910502
232	0x39e8f61f	0.00044433863
233	0x3edf4688	0.436085
234	0xbec33115	-0.38123384
235	0x3f0e8ed4	0.5568669
236	0xbe87b50f	-0.26505324
237	0xbde487a8	-0.11158687
238	0xbe25cb42	-0.16190818
239	0xbe91e64b	-0.28496012
240	0x3f3ac490	0.7295618
241	0xbdd9c8f8	-0.10634035
242	0x3f23a36e	0.6392125
243	0xbea7cad3	-0.3277193
244	0xbe409cd2	-0.18809822
245	0x3eb45510	0.35221148
246	0xbe19837f	-0.14991568
247	0xbe3951ca	-0.18097606
248	0x3f275499	0.6536346
249	0x3e93c357	0.2885997
250	0xbf06f4e2	-0.5271741
251	0xbd92bd02	-0.07164957
252	0xbd367d97	-0.044553366
253	0x3f1e283b	0.61780137
254	0x3f0cd07e	0.55005634
255	0xbf2c2869	-0.6724916

decoders.0.decoder_net.3.weight f4 [32]
0	0x3f844e44	1.0336385
1	0x3f81ab20	1.0130348
2	0x3f7a51f7	0.9778132
3	0x3f806d53	1.0033363
4	0x3f8db581	1.1071016
5	0x3f7b57b7	0.9818072
6	0x3f7f3694	0.99692655
7	0x3f85bb87	1.0447854
8	0x3f80de8d	1.0067917
9	0x3f76d1de	0.9641398
10	0x3f8b3eb5	1.0878512
11	0x3f81a17e	1.0127409
12	0x3f7995d2	0.9749423
13	0x3f7e551d	0.9934862
14	0x3f7e70d5	0.9939092
15	0x3f7f1a2a	0.996493
16	0x3f803d87	1.0018777
17	0x3f8963a1	1.0733529
18	0x3f831856	1.0241802
19	0x3f91d7c5	1.1393973
20	0x3f824b69	1.0179263
21	0x3f77b648	0.96762514
22	0x3f822c6a	1.0169804
23	0x3f7c1ee2	0.98484623
24	0x3f7fba8d	0.9989403
25	0x3f7dd082	0.9914628
26	0x3f747751	0.9549456
27	0x3f80856f	1.0040721
28	0x3f7b05ca	0.9805571
29	0x3f80f77f	1.007553
30	0x3f7d8cce	0.99042976
31	0x3f7c8480	0.9863968

decoders.0.decoder_net.3.bias f4 [32]
0	0x3cf96ece	0.030448344
1	0xbb5607f2	-0.0032658544
2	0x3d8385aa	0.06421979
3	0xbd8bf573	-0.06833925
4	0x3d4f76bd	0.050650347
5	0x3cefd996	0.029278558
6	0xbb5fff7f	-0.0034179387
7	0x3bb0d423	0.0053963824
8	0xbbd128c2	-0.0063830325
9	0xbc28e9b3	-0.0103096245
10	0x3d0c6d22	0.034283765
11	0xbcc2ea92	-0.023793492
12	0x3d124f84	0.035720363
13	0x3d19deab	0.03756587
14	0xbc909c14	-0.017652549
15	0xba0d71df	-0.0005395691
16	0xbd743dd9	-0.059629295
17	0xbb1d7fc9	-0.0024032465
18	0xbd41fead	-0.04736202
19	0x3d3c86ad	0.046026874
20	0x3d2e24a0	0.042515397
21	0xbd18b99a	-0.03728638
22	0x3a3e219b	0.00072529324
23	0xbb846699	-0.004040551
24	0x3c613035	0.013744404
25	0x3d374ca1	0.044750813
26	0xbc86fb44	-0.016477235
27	0xbc66d02d	-0.014087719
28	0xbc5beb74	-0.013422836
29	0x3cbe60ca	0.023239512
30	0xba3200e7	-0.00067902956
31	0xbdaa82eb	-0.08325752

decoders.0.decoder_net.3.running_mean f4 [32]
0	0x3d003636	0.0313017
1	0x3d09cfca	0.03364543
2	0x3ca6797a	0.020321596
3	0x3d01a2cd	0.0316494
4	0x3cd0a9d8	0.025471613
5	0x3d0200ca	0.031739034
6	0x3d310ead	0.043226887
7	0x3ccc2c97	0.024923606
8	0x3d800968	0.06251794
9	0x3d1535bc	0.0364282
10	0x3ccc4530	0.024935335
11	0x3ce85f8a	0.02836587
12	0x3d57fedb	0.052733283
13	0x3d0a09f4	0.0337009
14	0x3cbc788c	0.0230067
15	0x3d187861	0.037224177
16	0x3d397516	0.045277677
17	0x3cb5825c	0.022156887
18	0x3cdbc959	0.026829408
19	0x3cd2aa51	0.025715979
20	0x3d106d6d	0.035260607
21	0x3d237679	0.039907906
22	0x3cc69d7c	0.024245016
23	0x3cb68fae	0.022285309
24	0x3cddfade	0.027097162
25	0x3c9d1fc3	0.019180184
26	0x3ce26e3a	0.02764045
27	0x3cbad536	0.022806745
28	0x3cf9d827	0.030498577
29	0x3d183f48	0.037169725
30	0x3d23835c	0.039920196
31	0x3c51fb3f	0.012816249

decoders.0.decoder_net.3.running_var f4 [32]
0	0x3a973e53	0.001153896
1	0x3ae8c849	0.0017759885
2	0x39fb2476	0.00047901616
3	0x3ab3a665	0.0013706206
4	0x3aeac282	0.0017910751
5	0x3a96b77b	0.0011498773
6	0x3bd64d1e	0.006539955
7	0x39c7b862	0.00038093614
8	0x3c07640c	0.008263599
9	0x3a9fd51a	0.0012194247
10	0x3a4ba62e	0.0007768598
11	0x3a418255	0.00073817867
12	0x3b850836	0.0040598167
13	0x3b542810	0.0032372512
14	0x3a12b0e8	0.0005595819
15	0x3aec73a5	0.0018039836
16	0x3b35e400	0.0027754307
17	0x3a6f5218	0.00091293594
18	0x3a3fd8ac	0.00073183584
19	0x3aafc1bd	0.0013409179
20	0x3b0f43ff	0.0021860597
21	0x3b201d95	0.0024431695
22	0x3a14d09c	0.0005676837
23	0x39cae6ee	0.00038700498
24	0x3a8de324	0.001082514
25	0x39743db6	0.00023292642
26	0x3a92c1ca	0.001119667
27	0x3a226f8f	0.0006196433
28	0x3a5cc9f8	0.00084224297
29	0x3b017fd5	0.0019760032
30	0x3b008c25	0.0019614783
31	0x390aa4a5	0.0001322204

decoders.0.decoder_net.4.weight f4 [32, 32, 3, 3]
0	0x3d9248af	0.071427695
1	0x3d688171	0.05676407
2	0x3c156955	0.009119351
3	0x3cdb1177	0.026741726
4	0xbd2f8e90	-0.042860568
5	0x3bd41e42	0.0064733336
6	0x3cbb81ae	0.022888985
7	0xbd65a8f6	-0.056069337
8	0xbc607cb5	-0.0137016075
9	0x3d29ec12	0.0414849
10	0x3d1d542a	0.038410343
11	0xbd85ecfd	-0.065393426
12	0xbbc6c9c1	-0.0060665314
13	0xbd4a0b97	-0.04932746
14	0xbd59f323	-0.05321039
15	0xbd6de43b	-0.058078986
16	0x3d3cf7db	0.04613481
17	0xbd5848c9	-0.05280379
18	0xbd4abe36	-0.049497806
19	0x3d071b97	0.032985296
20	0x3c491fa5	0.012275611
21	0x3d0bb640	0.034109354
22	0x3d2de050	0.04245025
23	0x3acb825b	0.001552652
24	0xbc85f603	-0.01635266
25	0x3c99eed3	0.018790638
26	0xbc9c7cbd	-0.019102449
27	0x3cf4b08d	0.029869342
28	0x3d618d30	0.055066288
29	0x3d8b6512	0.06806387
30	0x3d12f22e	0.03587549
31	0xbd0cb348	-0.034350663
32	0x3dbd0288	0.092289984
33	0xbc49b740	-0.012311757
34	0xbbb16a04	-0.0054142494
35	0x3d88cc54	0.066795975
36	0x3c473333	0.012158203
37	0x3d964183	0.07336714
38	0xbd04ac36	-0.032390796
39	0x3da4206f	0.08013999
40	0xbbb40aa0	-0.0054944307
41	0xba1b6585	-0.00059279084
42	0x3d5ad37f	0.053424355
43	0x3d7febe8	0.062480837
44	0xbda5b85f	-0.080918066
45	0x3d10e3c7	0.035373475
46	0xbd3f7ff6	-0.046752892
47	0x3cb8209a	0.022476483
48	0xbd70b561	-0.058766726
49	0x3d445488	0.047932178
50	0xbd1a0590	-0.03760296
51	0x3b03907f	0.002007514
52	0x3c36e36e	0.011162622
53	0x3d0d2f5b	0.03446899
54	0xbcb2fc7f	-0.021848915
55	0xbd08645d	-0.03329884
56	0xbcf240f2	-0.029571984
57	0x3c390c88	0.011294492
58	0xbcf756e2	-0.030192796
59	0xbcdc2098	-0.02687101
60	0x3b7d8b79	0.0038687869
61	0x3cd8f3cb	0.026483437
62	0xbcb84d75	-0.022497872
63	0x3d057b11	0.03258807
64	0x3cc86e5c	0.024466686
65	0x3c061025	0.00818256
66	0x3cf6d5bd	0.030131215
67	0xbd7eb9e7	-0.06218901
68	0x3c27438a	0.010208974
69	0xbd586911	-0.052834574
70	0xbca50c88	-0.020147577
71	0xbd33b195	-0.043870527
72	0xbca6edcc	-0.020377062
73	0x3d7d33a5	0.06181683
74	0x3d4443ef	0.04791635
75	0xbcb0a8a0	-0.021564782
76	0xbd48de02	-0.04903985
77	0x3d86d83d	0.06584213
78	0x3ce99288	0.028512254
79	0x3d06a5de	0.032873027
80	0xbc6c66b5	-0.014428784
81	0x3be114a6	0.0068689166
82	0xbd74b286	-0.059740566
83	0xbc476bf9	-0.012171739
84	0xbd46360c	-0.048391387
85	0xbce95742	-0.02848399
86	0x3d0e5287	0.034746673
87	0xbc1c3407	-0.009533889
88	0x3c0c7972	0.008573877
89	0xbd51ab95	-0.051189024
90	0xbd19c5bd	-0.037542094
91	0x3d65a799	0.056068037
92	0xbd14a86a	-0.036293425
93	0xbbbc033f	-0.0057376917
94	0xbd31884d	-0.043342877
95	0xbd0f79f2	-0.035028405
96	0xbd84a098	-0.06475943
97	0x3d1cd60a	0.03829006
98	0x3d632069	0.05545083
99	0x3d099e1e	0.033598058
100	0x3d16873a	0.036750056
101	0xbd557812	-0.05211646
102	0x3c8570ea	0.016289193
103	0x3c4b032e	0.012390895
104	0xbc9f8565	-0.019472787
105	0xbc4988d2	-0.012300687
106	0xbce3e06d	-0.027816975
107	0xbccc1247	-0.024911059
108	0x3c4f2856	0.012643894
109	0x3d9a6e5b	0.0754058
110	0x3ce15a93	0.02750901
111	0xbc8a3ad2	-0.01687375
112	0x3dc0a5ee	0.094066486
113	0xbd2b5ef6	-0.04183861
114	0x3d314842	0.0432818
115	0x3d6d3707	0.057913806
116	0xbd7baf39	-0.061446402
117	0xba0dba4b	-0.0005406483
118	0xbca795d7	-0.020457191
119	0x3c8c2486	0.01710726
120	0xbd86e72d	-0.06587062
121	0xbc4e1f01	-0.012580634
122	0x3a392680	0.0007062927
123	0x3d0e7363	0.03477801
124	0x3d3c3768	0.045951277
125	0xbc66f70d	-0.014096987
126	0x3d22784a	0.039665498
127	0xbb2491b2	-0.0025111255
128	0x3d6e8f52	0.05824215
129	0x3c4c5609	0.012471684
130	0x3ce5b284	0.028039224
131	0x3ca41723	0.020030564
132	0x3d458d78	0.04823062
133	0xbd5a7367	-0.053332713
134	0xbd24b620	-0.04021275
135	0x3cf1a506	0.029497635
136	0x3d1ddcca	0.03854064
137	0x3cf481b8	0.029847011
138	0x3cf5516d	0.029946053
139	0xbd390802	-0.045173652
140	0x3cd46ce3	0.025930827
141	0xbaed16d9	-0.0018088474
142	0xbcc397f1	-0.023876162
143	0x3b40b3c4	0.0029404024
144	0xbd6f7101	-0.05845738
145	0xbdbc36b7	-0.091901235
146	0x3cb0bbc5	0.02157391
147	0x3ca05cf8	0.019575581
148	0x3c201159	0.009769761
149	0xbc8559fc	-0.01627826
150	0x3b98f947	0.004668388
151	0xbc5eaa82	-0.013590457
152	0xbcbe3add	-0.023221428
153	0xba87443c	-0.0010320018
154	0xbc9ddc22	-0.019270007
155	0xbd82ff3c	-0.06396338
156	0x3d7123f8	0.058872193
157	0xbca69c80	-0.020338297
158	0x3d64d4bc	0.05586694
159	0xbd6d61f3	-0.05795474
160	0xbd8e8c0f	-0.06960308
161	0xbd08716c	-0.033311293
162	0xbd9d4012	-0.07678236
163	0xbdb3cae6	-0.08778934
164	0xbd2e0ac8	-0.04249075
165	0xbdcc77c1	-0.09983779
166	0xbd50e45d	-0.050999034
167	0xbd116f21	-0.03550637
168	0xbc6f5cb9	-0.014609509
169	0xb9aaf189	-0.00032604884
170	0xbd65dcc6	-0.05611875
171	0xbc7909e9	-0.015200117
172	0x3d9d3771	0.0767659
173	0xbc8f9480	-0.017526865
174	0x3d5fb392	0.05461461
175	0x3d6befd4	0.057601765
176	0x3d8ac1c1	0.06775237
177	0xbd1e763d	-0.03868698
178	0x3d0c2ecc	0.034224316
179	0x3ccbbfc5	0.024871716
180	0x3c267753	0.010160285
181	0xbd250d38	-0.04029581
182	0xbbc64bc2	-0.0060515115
183	0x3ca4a25d	0.020096952
184	0xbd921d40	-0.07134485
185	0x3d4f0448	0.050541192
186	0xb9fa8836	-0.000477852
187	0x3b9852aa	0.004648526
188	0xbd11ace5	-0.035565276
189	0x3c221d36	0.00989466
190	0xbbbb5ebe	-0.0057180813
191	0xbd3cc54f	-0.046086606
192	0x3d85f7db	0.06541415
193	0xbb6d0799	-0.0036167859
194	0xbd7aaf09	-0.061202083
195	0xbc6903b3	-0.014222073
196	0xbd90af8b	-0.07064732
197	0xbc9f2f3b	-0.0194317
198	0x3ceb1d0f	0.02870038
199	0xbb38a6d5	-0.0028175612
200	0x3dad8cf6	0.08474152
201	0xbdb85a19	-0.0900156
202	0xbd8dac62	-0.06917645
203	0xbd3e417f	-0.04644918
204	0x3b732a62	0.003710412
205	0xbd582859	-0.052772854
206	0xbbe80109	-0.0070802015
207	0xbce19825	-0.027538368
208	0xbc65e014	-0.014030475
209	0x3b15e12e	0.0022869813
210	0xbc41ae16	-0.0118212905
211	0xbc398bc7	-0.011324829
212	0xbaada1bf	-0.0013247057
213	0xbbb6cdb5	-0.0055787214
214	0x3cc73bdc	0.024320535
215	0xbc844dcc	-0.016150378
216	0x3d8d500a	0.06900032
217	0x3ca0453d	0.019564265
218	0xbd22e79b	-0.039771657
219	0x3cf80e96	0.030280393
220	0x3d9bcd9e	0.07607578
221	0xbd2f9154	-0.042863205
222	0x3cd44083	0.025909668
223	0x3cd11f86	0.025527727
224	0xbc8b4a2b	-0.01700314
225	0x38317eb9	4.2318108e-05
226	0xbd63c87d	-0.055611122
227	0x3d5f2a13	0.054483484
228	0xbdfc3739	-0.123152204
229	0x3c028b00	0.0079677105
230	0xbd749d85	-0.059720535
231	0xbd12d4a4	-0.03584732
232	0xbd9568f0	-0.07295406
233	0x3d4aa705	0.04947569
234	0x3d800e21	0.06252695
235	0x3c0ec441	0.008713783
236	0x3d26c975	0.04071947
237	0x3dd110ec	0.10208306
238	0x3d781b33	0.060572814
239	0x3da5ddd9	0.08098955
240	0x3d13273e	0.035926096
241	0x3a601ebd	0.0008549502
242	0xbc9175be	-0.01775634
243	0xbd3ac28b	-0.045595687
244	0xbd2ae114	-0.041718557
245	0x3d83bdaa	0.0643266
246	0xbcffabe9	-0.031209903
247	0x3cca5425	0.024698326
248	0xbce57296	-0.02800874
249	0xbcf8fcf0	-0.030394047
250	0xbc3c6a91	-0.011500017
251	0x3d057e02	0.032590874
252	0xbd77ff18	-0.06054601
253	0xbd5f5afc	-0.05453013
254	0xbc339760	-0.010961384
255	0xbd81b6e4	-0.06333712

decoders.0.decoder_net.4.bias f4 [32]
0	0xbb3c3246	-0.0028716489
1	0xbd561826	-0.052269123
2	0x3ce72eb7	0.028220518
3	0xbcbf1482	-0.023325209
4	0xbd8b2431	-0.06794012
5	0xbc752bf6	-0.014964094
6	0x3ce31ade	0.027722772
7	0x3c3ff654	0.011716444
8	0x3ceb2e59	0.028708624
9	0x3cb38eee	0.02191874
10	0xbd1cb388	-0.03825715
11	0x3ceead1c	0.02913528
12	0x3d4bdd75	0.049771745
13	0x3e313a45	0.17307384
14	0xbbc2d952	-0.0059463168
15	0x3d619602	0.0550747
16	0xbdff3377	-0.12460988
17	0x3a775f64	0.00094365166
18	0x3d519a4a	0.051172532
19	0xbd5da763	-0.05411471
20	0xbd93a7a3	-0.072097085
21	0xbc7fbf41	-0.015609563
22	0x3c7377c6	0.014860099
23	0x3e32deaa	0.17467752
24	0xbd9c1c79	-0.07622618
25	0x3bacd95d	0.005274935
26	0x3cf6728c	0.030083917
27	0xbe094958	-0.13406885
28	0x3d1025be	0.035192244
29	0xbd0765ba	-0.033056
30	0x3dc696be	0.096967205
31	0xbd9dcf48	-0.077055514

decoders.0.decoder_net.6.weight f4 [32]
0	0x3f7b45ff	0.9815368
1	0x3f74b0bf	0.95582193
2	0x3f6dcce3	0.9289076
3	0x3f7176b7	0.9432177
4	0x3f79b1a1	0.97536665
5	0x3f6f808e	0.93555534
6	0x3f767eb6	0.96287096
7	0x3f71b385	0.9441455
8	0x3f8405e1	1.0314294
9	0x3f771ded	0.9653004
10	0x3f774650	0.96591663
11	0x3f73917f	0.95143884
12	0x3f75a4c1	0.9595452
13	0x3f792dab	0.9733531
14	0x3f781b89	0.96917015
15	0x3f7ed1f6	0.99539125
16	0x3f6dc0b7	0.92872185
17	0x3f640ced	0.89082223
18	0x3f742b25	0.95378333
19	0x3f82a622	1.020695
20	0x3f794698	0.9737334
21	0x3f78bf78	0.9716716
22	0x3f772b1a	0.9655014
23	0x3f76725f	0.96268266
24	0x3f80d617	1.0065335
25	0x3f73d1b1	0.9524184
26	0x3f7709d2	0.9649936
27	0x3f6c777d	0.92369825
28	0x3f83fa85	1.0310827
29	0x3f786194	0.9702389
30	0x3f71975b	0.94371575
31	0x3f73e535	0.9527162

decoders.0.decoder_net.6.bias f4 [32]
0	0x3b318be3	0.0027091436
1	0x3d9c7e79	0.0764131
2	0x3cc2fc00	0.023801804
3	0x3d584b4f	0.052806195
4	0xbd1a9cd7	-0.03774723
5	0x3d68d7ba	0.056846358
6	0xbbb96a3c	-0.005658416
7	0x3b52770f	0.0032114421
8	0x3d848c39	0.06472058
9	0x3dac57d5	0.0841519
10	0xbd9fcc50	-0.078026414
11	0xbce928be	-0.02846181
12	0xbc4dc9fe	-0.012560366
13	0x3b10ec08	0.0022113342
14	0x3c1ad987	0.009451277
15	0xbd6e1529	-0.05812565
16	0xbdc63cc2	-0.096795574
17	0x3cf08a1a	0.029362727
18	0x3c84d024	0.01621253
19	0x3d2745cf	0.04083806
20	0x3c077064	0.008266542
21	0x3c0523cd	0.008126211
22	0xbd524ad8	-0.051340908
23	0xbca13339	-0.019677745
24	0xbccea572	-0.025225375
25	0xbd93bae0	-0.07213378
26	0x3c59e768	0.0132998
27	0x3dbf3924	0.093370706
28	0xbd28c80b	-0.0412064
29	0x3d5cc711	0.053900782
30	0x3d593930	0.053033054
31	0x3d46ef6f	0.048568185

decoders.0.decoder_net.6.running_mean f4 [32]
0	0x3d0498ae	0.03237217
1	0x3ce7183a	0.028209794
2	0x3d078ce4	0.03309335
3	0x3cf8faaf	0.030392973
4	0x3cebac16	0.02876858
5	0x3d000091	0.03125054
6	0x3d097924	0.033562794
7	0x3d007b78	0.03136775
8	0x3d076821	0.03305829
9	0x3d01aa72	0.03165669
10	0x3ce838d9	0.02834742
11	0x3d0178e2	0.031609423
12	0x3d00af58	0.03141722
13	0x3d2095fe	0.039205544
14	0x3cfaa6f3	0.030597186
15	0x3d0952cc	0.033526227
16	0x3cd8db05	0.026471624
17	0x3d006bc8	0.03135279
18	0x3d0c953d	0.034322012
19	0x3cf07a49	0.029355185
20	0x3cf312bd	0.029672021
21	0x3cfc78aa	0.030819256
22	0x3d0580b6	0.03259345
23	0x3d172ea2	0.036909707
24	0x3cdcd487	0.02695681
25	0x3d023ec6	0.031798147
26	0x3cfc001e	0.030761775
27	0x3cd1ee1b	0.025626233
28	0x3d01adee	0.031660013
29	0x3cf13506	0.029444229
30	0x3d135a05	0.03597452
31	0x3ce41d65	0.027846048

decoders.0.decoder_net.6.running_var f4 [32]
0	0x3974bf98	0.00023341028
1	0x38f931bd	0.0001188251
2	0x3996e3b5	0.00028779884
3	0x397091ae	0.00022942454
4	0x395e7b95	0.00021217608
5	0x3954c033	0.00020289495
6	0x39ac21c2	0.00032831548
7	0x3921b9b8	0.00015423342
8	0x3a08747b	0.0005205345
9	0x39352ef3	0.00017278995
10	0x38e38f0b	0.00010850847
11	0x396a5ce4	0.00022350583
12	0x3939b583	0.00017710593
13	0x39d88edf	0.00041305178
14	0x391930fc	0.00014609465
15	0x397e3833	0.00024244263
16	0x38b29e66	8.5172054e-05
17	0x392dd025	0.00016576106
18	0x395436d0	0.00020238315
19	0x395f3584	0.00021286873
20	0x3956515a	0.00020438936
21	0x395c33b8	0.00021000102
22	0x399d944e	0.0003005587
23	0x3993bbb2	0.0002817787
24	0x38d40ee9	0.00010111725
25	0x394a067f	0.00019266641
26	0x3980b84a	0.0002455137
27	0x38b53683	8.640906e-05
28	0x39a779eb	0.00031943558
29	0x3902def2	0.0001248082
30	0x3990af09	0.00027596232
31	0x39063591	0.00012799191

decoders.0.decoder_net.7.weight f4 [32, 16, 3, 3]
0	0xbd0332a4	-0.032030717
1	0xbb244a4e	-0.0025068703
2	0x3d686892	0.05674035
3	0xbd2dcfff	-0.04243469
4	0x3dc7b6b5	0.097516455
5	0xbc60e600	-0.013726711
6	0x3c7dd20d	0.015491975
7	0xbcae06bd	-0.021243447
8	0x3d205734	0.039145663
9	0xbcd089fe	-0.025456425
10	0xbce78674	-0.028262354
11	0x3d84a2a2	0.06476332
12	0xbce6bf34	-0.028167345
13	0xbbd91245	-0.0066244924
14	0xbc2c634c	-0.010521721
15	0xbce217b9	-0.027599202
16	0x3dd8362e	0.10557209
17	0xbd2a8299	-0.041628454
18	0xbcc13975	-0.023586968
19	0xbd9ed9c4	-0.07756379
20	0xbd4a8508	-0.049443275
21	0x3cbdcd45	0.02316917
22	0xbcd56aa9	-0.026051836
23	0x3cc98458	0.02459924
24	0xbd18864c	-0.03723745
25	0x3c3f05de	0.011659114
26	0x3d9fa7b5	0.077956595
27	0xbda34de9	-0.079738446
28	0x3c167f03	0.009185555
29	0xbd064396	-0.0327793
30	0xbd758ab9	-0.05994675
31	0xbdc92064	-0.09820631
32	0x3c1d0899	0.009584569
33	0xbd0ce49e	-0.034397714
34	0x3c8f7c03	0.017515188
35	0x3c66862f	0.014070078
36	0xbcdf1547	-0.027231826
37	0xbcfbc5f9	-0.03073405
38	0xbd07b314	-0.033129767
39	0xbd36635d	-0.044528354
40	0xbd750f70	-0.059829175
41	0xbd2e1d83	-0.042508613
42	0x3a17e14b	0.0005793764
43	0xbb8e8b02	-0.004350067
44	0x3d1e551f	0.038655397
45	0xbc68050e	-0.014161361
46	0x3d7e0c1a	0.06202326
47	0xbb3c507a	-0.0028734491
48	0xbd668afd	-0.056284893
49	0xbdd79f5f	-0.105284445
50	0x3d96b8a1	0.07359434
51	0x3def06b5	0.11671201
52	0x3da33709	0.079694815
53	0xbd3c25f0	-0.045934618
54	0x3d7d5b15	0.06185444
55	0x3ccf1111	0.025276693
56	0xbd5b89f9	-0.053598378
57	0xbd406174	-0.04696794
58	0x3c898104	0.016785152
59	0x3d418a33	0.047250938
60	0x3d6b47cd	0.05744152
61	0xbb875a87	-0.0041306647
62	0x3d3ab039	0.045578215
63	0x3cc3f8af	0.023922293
64	0xbc827e00	-0.015929222
65	0x3d628a42	0.055307634
66	0x398226a6	0.00024824328
67	0xbd6179fb	-0.05504797
68	0x3ac3af1a	0.0014929504
69	0xbd9ceaf0	-0.07661998
70	0x3c93bd9a	0.018034745
71	0x3b320404	0.0027163038
72	0x3d23a43f	0.03995156
73	0xbdefe053	-0.11712708
74	0xbdd1e4c9	-0.102487154
75	0x3c475745	0.012166803
76	0xbe134ce8	-0.14384806
77	0x3d438216	0.04773148
78	0x3d2c5913	0.042077135
79	0xbd85a5eb	-0.06525787
80	0x3d39b2b3	0.045336436
81	0xbd1a89dd	-0.037729133
82	0x3cee4945	0.029087672
83	0x3d5e5372	0.0542788
84	0x3c04e16e	0.008110387
85	0xbd222ec7	-0.03959539
86	0x3d5ec2d5	0.054385025
87	0x3d264b61	0.04059923
88	0xbd8cffe1	-0.068847425
89	0xbbc4d50c	-0.0060068425
90	0xbd7a1e64	-0.06106414
91	0xbbc48cd4	-0.0059982333
92	0xbd09a7c3	-0.033607256
93	0xbd8efea5	-0.06982163
94	0x3d14334e	0.03618174
95	0x3ca229c4	0.019795306
96	0x3caece29	0.02133854
97	0xbd12f766	-0.03588047
98	0xbc2c84f5	-0.010529746
99	0xbda27ef6	-0.07934372
100	0xbd83c6a9	-0.06434376
101	0xbd6c1233	-0.057634544
102	0x3dd74f11	0.105131276
103	0x3dac768b	0.08421048
104	0xbd32ec8c	-0.04368262
105	0x3d6d6b02	0.05796338
106	0xbd85bd80	-0.06530285
107	0x3cdf232d	0.027238453
108	0x3b38b850	0.002818603
109	0x3d94f1ae	0.07272659
110	0xbd2f6068	-0.04281655
111	0xbdda0994	-0.10646358
112	0x3d1d08b7	0.03833839
113	0xbdb93fd9	-0.09045381
114	0xbca2640b	-0.019823095
115	0x3c82097f	0.015873669
116	0x3d55b537	0.052174773
117	0x3d1a6cf1	0.03770155
118	0xbdb07477	-0.08615964
119	0x3d5f88f5	0.05457397
120	0x3db77d6e	0.08959471
121	0x3c8d9bd0	0.017286211
122	0xbccab631	-0.024745079
123	0x3da877c7	0.08225971
124	0xbb27e834	-0.0025620582
125	0x3d6ea4f0	0.058262765
126	0x3d615d2d	0.0550205
127	0x3d0e0184	0.034669414
128	0xbce548d6	-0.027988832
129	0x3bdbb375	0.0067047426
130	0xbc8499c9	-0.016186612
131	0xbda1e526	-0.07905035
132	0xbd57ca6d	-0.052683283
133	0xbd5cd938	-0.053918093
134	0x3d8b9505	0.068155326
135	0x3da253e1	0.07926155
136	0x3d28c077	0.041199174
137	0x3d9eecc0	0.0776
138	0xbc88ec47	-0.016714228
139	0xbd9a44b4	-0.07532635
140	0xbd805f13	-0.06268134
141	0x3d885c84	0.06658271
142	0x3c1279df	0.008940189
143	0x3c9ef28c	0.019402765
144	0x3d46cbc5	0.048534174
145	0xbb7de3fc	-0.0038740626
146	0xbda00048	-0.07812554
147	0xbd8cb5ad	-0.068705894
148	0xba8f87de	-0.0010950526
149	0xbcebbd8d	-0.028776908
150	0x3c73273e	0.014840899
151	0xbda16907	-0.078813605
152	0xbd96f888	-0.07371622
153	0x3d4d6f1b	0.050154787
154	0x3ce914ef	0.028452365
155	0xbd63d246	-0.055620454
156	0xbcbdd8b7	-0.023174627
157	0x3de14eb0	0.110013366
158	0x3c9cc4a8	0.019136742
159	0xbd9297e6	-0.071578786
160	0x398a3ad0	0.0002636523
161	0xbd84eedb	-0.064908706
162	0xbdbe5456	-0.092934296
163	0xbc9b112e	-0.01892909
164	0x3d5bc003	0.053649914
165	0x3d9bbea3	0.076047204
166	0xbc56c4fe	-0.01310849
167	0x3cc9c25f	0.024628816
168	0x3c374615	0.011186142
169	0xbd9de2db	-0.07709285
170	0xbd1607d9	-0.036628578
171	0xbbb52d7b	-0.0055291033
172	0x3c806d2d	0.01567706
173	0xbd4ba05a	-0.04971347
174	0xbb2fd26d	-0.0026828304
175	0x3cdd52ef	0.027017085
176	0xbd4a690e	-0.049416594
177	0x3d311924	0.043236867
178	0xbd0ca4bb	-0.034336787
179	0x3d4b04d2	0.049565144
180	0xbd38c841	-0.045112852
181	0x3c8a9ddc	0.016920976
182	0x3d30ceee	0.043166094
183	0xbd4e4661	-0.050360087
184	0xbd21000f	-0.039306697
185	0xbca3b882	-0.019985441
186	0x3d58bf9b	0.052917104
187	0xba9757d7	-0.0011546564
188	0x3d3117b4	0.043235496
189	0x3b57ad94	0.0032909857
190	0x3d003f77	0.031310525
191	0xbdd3faf1	-0.10350598
192	0x3da5e7ab	0.08100828
193	0x3d103ce0	0.035214305
194	0x3c524fdb	0.012836422
195	0xbd97ce21	-0.07412363
196	0xbcabdb3f	-0.020978568
197	0x3d4c77f9	0.049919102
198	0xbd0ede06	-0.034879707
199	0x3d592bbd	0.053020228
200	0x3b1494e4	0.0022671754
201	0x3d80e978	0.06294531
202	0x3d0309fd	0.031991947
203	0x3c1f1517	0.009709618
204	0xbd289b68	-0.041163832
205	0xbdba4fdc	-0.09097263
206	0xbd541e90	-0.05178696
207	0x3d3ba4ba	0.045811392
208	0x3c54c789	0.012987026
209	0x3d0b8728	0.034064442
210	0x3d382512	0.044957228
211	0x3db97140	0.09054804
212	0x3d93120f	0.07181179
213	0x3cea0e8d	0.028571391
214	0x3cd7c0c0	0.026337028
215	0xbd76d020	-0.060257077
216	0x3dbad4ed	0.091226436
217	0xbd2e537d	-0.04256009
218	0xbd90c025	-0.07067899
219	0x3de281e9	0.11059935
220	0x3da570ee	0.0807818
221	0xbc8f4898	-0.01749067
222	0x3db1e84e	0.08686887
223	0xbd4d29cf	-0.0500887
224	0xbd6be820	-0.05759442
225	0xbca2318b	-0.019799015
226	0x3d741c71	0.059597436
227	0xbd31dc17	-0.043422785
228	0x3d394a92	0.04523713
229	0x3d34cf9d	0.044143308
230	0xbd777f06	-0.060423873
231	0xbd82ab2d	-0.063803054
232	0xbd2fb3ad	-0.04289596
233	0x3da0c059	0.078491874
234	0x3bf0d03c	0.007349042
235	0xbc7f9d60	-0.015601486
236	0x3cbd39f5	0.023098925
237	0xbd26bcb8	-0.04070732
238	0xbcc1f4c8	-0.023676291
239	0xbd4dbfea	-0.05023185
240	0x3d49637e	0.04916715
241	0xbd753c10	-0.059871733
242	0x3ada784a	0.0016667929
243	0x3dc0b627	0.09409743
244	0x3cdf7999	0.027279662
245	0xbd2f58fa	-0.042809464
246	0xbd99dd7c	-0.07512948
247	0x3ded0d17	0.11574762
248	0xbdb0c5b6	-0.0863146
249	0xbcbae143	-0.022812491
250	0x3ba6929a	0.0050833942
251	0x3d77d4c2	0.060505636
252	0x3d8ef11d	0.069795825
253	0x3d18dc1d	0.03731929
254	0x3d649bef	0.055812772
255	0x3d92f2fe	0.07175253

decoders.0.decoder_net.7.bias f4 [16]
0	0xbdc0c087	-0.09411722
1	0x3bc7f250	0.006101884
2	0xbda4ea40	-0.08052492
3	0x3c1ee69c	0.009698536
4	0xbe014d8a	-0.12627235
5	0xbd95dfde	-0.0731809
6	0xbc95cb42	-0.018285397
7	0xbd1ca4dd	-0.038243163
8	0x3cb34525	0.021883557
9	0x3db80f98	0.08987349
10	0xbe158b6b	-0.14603965
11	0x3c5cf3ed	0.013485891
12	0x3d2d3541	0.042287115
13	0x3cea9b2a	0.028638441
14	0x3cd80d0c	0.026373409
15	0x3c7fe88c	0.015619408

decoders.0.decoder_net.9.weight f4 [16]
0	0x3f76f477	0.96466774
1	0x3f7b8ca5	0.9826148
2	0x3f70a0de	0.93995464
3	0x3f75c824	0.96008515
4	0x3f747c83	0.9550249
5	0x3f75e083	0.960457
6	0x3f726a51	0.94693476
7	0x3f76629b	0.9624421
8	0x3f73f51d	0.9529589
9	0x3f7672bd	0.96268827
10	0x3f7a6b19	0.9781967
11	0x3f790724	0.9727652
12	0x3f730cda	0.94941485
13	0x3f757111	0.9587565
14	0x3f75af9f	0.959711
15	0x3f758e50	0.95920277

decoders.0.decoder_net.9.bias f4 [16]
0	0x3ddf3964	0.10899618
1	0xbde6499e	-0.1124451
2	0x3df5de77	0.120053224
3	0xbe1f0cd6	-0.1553224
4	0x3e242fe1	0.1603389
5	0x3e1c158a	0.15242592
6	0xbe25c3df	-0.16188
7	0xbde65718	-0.112470806
8	0xbe353bda	-0.17698613
9	0xbe08c77d	-0.13357349
10	0x3e13ec77	0.14445673
11	0xbdd2dd25	-0.10296086
12	0xbd4108d1	-0.04712755
13	0xbe254dab	-0.16142909
14	0x3d946b28	0.07247001
15	0xbe280e7b	-0.16411774

decoders.0.decoder_net.9.running_mean f4 [16]
0	0x3d6ebb10	0.058283865
1	0x3d87b1d3	0.06625714
2	0x3d74d769	0.059775744
3	0x3d9146a1	0.070935495
4	0x3d611c68	0.05495873
5	0x3d74f1fe	0.059801094
6	0x3d72c4c2	0.059269674
7	0x3d7296f8	0.059226006
8	0x3d844188	0.064578116
9	0x3d8d3e9b	0.06896707
10	0x3d683448	0.056690484
11	0x3d8823e4	0.066474706
12	0x3d8a5909	0.06755263
13	0x3d7d9a17	0.06191453
14	0x3d797727	0.06090465
15	0x3d83e950	0.06440985

decoders.0.decoder_net.9.running_var f4 [16]
0	0x3a4e7e6d	0.0007877115
1	0x3b1200bd	0.0022278272
2	0x3a4b51de	0.00077560346
3	0x3ab4b465	0.0013786672
4	0x3a02354b	0.0004967048
5	0x3a53659c	0.0008064152
6	0x3a238067	0.000623709
7	0x3a457411	0.0007532249
8	0x3a8f55ea	0.0010935639
9	0x3a613c60	0.00085920654
10	0x3a3c0d8c	0.00071736495
11	0x3ad00859	0.0015871628
12	0x3a92a758	0.0011188788
13	0x3a49fda2	0.0007705336
14	0x3a01da75	0.0004953512
15	0x3a41bc6b	0.0007390442

decoders.0.decoder_net.10.weight f4 [16, 1, 3, 3]
0	0x3e75767f	0.23970984
1	0xbd81e23c	-0.06341979
2	0x3e47d08c	0.19513148
3	0x3e8c85b7	0.27445766
4	0x3e059b72	0.13047579
5	0x3df0b384	0.1175299
6	0xbe2607ab	-0.16213863
7	0x3e37928a	0.17926994
8	0xbe49e015	-0.19714387
9	0xbb39fccb	-0.0028379436
10	0x3d9cbcf8	0.076532304
11	0x3dc3b5ec	0.09556183
12	0xbe912991	-0.28352025
13	0xbe0ac553	-0.13551836
14	0xbda24204	-0.07922748
15	0xbeb06744	-0.34453785
16	0xbe1a180f	-0.1504824
17	0xbe2158d0	-0.15756536
18	0x3df325e9	0.11872465
19	0x3d999e67	0.07500916
20	0x3e3b3429	0.18281616
21	0x3e2c8c1a	0.1685032
22	0x3dba879d	0.091078974
23	0xbe63ae09	-0.22234358
24	0x3e04989c	0.12948841
25	0xbe53634f	-0.20643352
26	0x3dc22e66	0.09481506
27	0x3e833da1	0.25632957
28	0x3ddd08cc	0.107926935
29	0xbe2fa113	-0.17151289
30	0x3e66b9c1	0.22531797
31	0xbde39086	-0.1111155
32	0xbe2251c6	-0.15851507
33	0xbd512420	-0.051059842
34	0xbe6e495c	-0.23270172
35	0xbe6411d3	-0.22272424
36	0x3b9816d7	0.0046413946
37	0xbd0cef7e	-0.034408085
38	0x3df89078	0.1213693
39	0x3e2f3623	0.17110495
40	0x3deb5ebb	0.11492678
41	0x3da3e6bb	0.08002993
42	0xbe8e7558	-0.278239
43	0x3e88b00c	0.26696813
44	0xbe94e58c	-0.2908138
45	0x3d0d8fb7	0.034560885
46	0x3e387d25	0.18016489
47	0x3e13201c	0.14367718
48	0x3e045bec	0.1292569
49	0x3e80155b	0.25016293
50	0x3e7b1d86	0.24522981
51	0xbc898067	-0.01678486
52	0xba09721f	-0.00052431406
53	0x3d11a0d4	0.03555377
54	0x3e479885	0.19491775
55	0xbe324737	-0.17409979
56	0xbe89131e	-0.26772398
57	0xbe0fd877	-0.14047419
58	0xbe91e5dd	-0.28495684
59	0x3e4539fd	0.19260402
60	0xbd7655c0	-0.06014037
61	0xbe91f84c	-0.28509748
62	0x3e49bb3b	0.19700329
63	0x3e652b3a	0.22379771
64	0xbe9b3c21	-0.30319312
65	0x3da7be17	0.08190554
66	0xbe747bf7	-0.23875414
67	0xbe6c1bfb	-0.23057549
68	0xbe749b63	-0.238874
69	0xbe80eb78	-0.25179648
70	0xbe5a56fa	-0.21322241
71	0x3dc1d130	0.094637275
72	0x3e4f9d38	0.20274818
73	0xbd9bf27d	-0.0761461
74	0x3e51d2b7	0.20490538
75	0x3d3ebf6c	0.046569273
76	0xbe6e1230	-0.23249125
77	0x3e546508	0.20741665
78	0xbe7d177f	-0.24715994
79	0xbe560ae7	-0.20902596
80	0x3bf94330	0.0076068863
81	0x3e363ef7	0.17797457
82	0xbe1a1138	-0.15045631
83	0x3d363e4f	0.044493016
84	0x3d73d12a	0.059525646
85	0xbea5a6e9	-0.32353905
86	0xbe09f4cb	-0.13472287
87	0xbe721442	-0.2364054
88	0xbe472e1d	-0.19451185
89	0x3c93d38f	0.018045215
90	0x3d52f37c	0.051501736
91	0x3d722389	0.05911592
92	0x3d446ba5	0.04795422
93	0x3ddff277	0.109349184
94	0x3d63a14d	0.05557375
95	0x3e0f969c	0.14022297
96	0x3df1c2fb	0.11804768
97	0xbd17f79d	-0.037101377
98	0xbd7032c8	-0.05864218
99	0xbead49aa	-0.33845264
100	0x3e5723bd	0.21009727
101	0xbe32417d	-0.17407794
102	0xbd92fb4d	-0.07176838
103	0xbe05bfe9	-0.13061489
104	0xbb4e9878	-0.0031523984
105	0xbe4b39d4	-0.19846278
106	0xbe993547	-0.2992346
107	0x3e285643	0.16439156
108	0x3de7f689	0.1132632
109	0x3de2bae0	0.110708
110	0x3e8bb4e9	0.2728646
111	0x3e943b75	0.28951612
112	0xbe3e7c46	-0.18602094
113	0xbe3c0baf	-0.18363832
114	0xbdd59f50	-0.10430777
115	0x3d0f72b5	0.035021503
116	0xbdb81692	-0.0898868
117	0xbdb00378	-0.085944116
118	0x3e346649	0.17617144
119	0xbe28314b	-0.16425054
120	0x3e57bd61	0.21068336
121	0xbe3754e6	-0.1790348
122	0x3d54181c	0.051780805
123	0x3d7c69cf	0.061624344
124	0xbe445bda	-0.19175664
125	0x3e051bb9	0.12998857
126	0x3de362e8	0.11102849
127	0x3e316f2e	0.17327568
128	0x3d1fb568	0.03899136
129	0x3ddd33f4	0.10800925
130	0xbc82b92c	-0.015957437
131	0x3e2c8bf1	0.16850258
132	0x3e219ae1	0.15781738
133	0xbdd160a9	-0.102235146
134	0x3e3b9b95	0.18321069
135	0x3c6bc549	0.014390298
136	0x3dcdb84e	0.10044919
137	0xbe1f2b8c	-0.15543956
138	0xbddbd710	-0.10734379
139	0xbe7cd69b	-0.2469124
140	0xbe47527e	-0.19465062
141	0x3e8d0e22	0.27549845
142	0xbe91141b	-0.28335652
143	0x3df6cd7d	0.120509125

decoders.1.decoder_net.0.weight f4 [512, 2]
0	0xbe9013c1	-0.2814007
1	0xbd1961ca	-0.037446775
2	0x3f086a7c	0.5328748
3	0xbe468089	-0.1938497
4	0xbef71d23	-0.48264417
5	0xbec16835	-0.37774816
6	0xbea7b5fb	-0.32756028
7	0xbf17da14	-0.59317136
8	0xbf0f28ce	-0.5592164
9	0xbcd1fd05	-0.025633344
10	0x3de79377	0.113074236
11	0xbed05162	-0.4068709
12	0xbf2e05bb	-0.67977494
13	0xbf0b9f7a	-0.54540217
14	0xbd9eae24	-0.077480584
15	0x3f279f79	0.6547771
16	0xbea88645	-0.3291494
17	0xbe5e747a	-0.2172412
18	0xbe8ed60d	-0.27897683
19	0x3f3e0b15	0.7423566
20	0xbf096609	-0.5367132
21	0xbf29433a	-0.66118205
22	0xbf364c30	-0.7121
23	0x3f07886c	0.5294254
24	0x3ea1365b	0.31486782
25	0xbc372f45	-0.0111807035
26	0xbf16d1b6	-0.58913743
27	0xbf019cc7	-0.5062985
28	0xbf279e54	-0.65475965
29	0x3d016c31	0.03159732
30	0xbe597231	-0.21234967
31	0x3ebff01e	0.37487882
32	0xbd2561fa	-0.04037664
33	0xbef8db44	-0.48604786
34	0x3dda40d4	0.10656896
35	0xbed6189d	-0.41815653
36	0xbec10464	-0.37698662
37	0xbea8a5d9	-0.32939032
38	0xbf0db3c5	-0.5535243
39	0x3e431e61	0.19054557
40	0xbe231b3d	-0.1592836
41	0xbf173c55	-0.59076434
42	0x3d1bccc0	0.03803706
43	0x3ee82b4d	0.45345536
44	0x3f1dee53	0.6169178
45	0xbeba47d2	-0.3638292
46	0xbeaad1fd	-0.33363333
47	0x3e910e72	0.28331333
48	0xbe920033	-0.28515777
49	0x3edcdec9	0.43138722
50	0xbf015b9b	-0.50530404
51	0xbee80f17	-0.45324013
52	0xbe3d938b	-0.18513314
53	0x3dcc5c35	0.099785246
54	0xbe758cc1	-0.23979475
55	0xbeabc5b9	-0.33549288
56	0x3e8d227d	0.27565375
57	0xbe96199c	-0.29316413
58	0xbcb4ad15	-0.022055188
59	0x3ddc5cea	0.107599095
60	0x3e547e5d	0.20751329
61	0x3e81c06e	0.25342125
62	0xbef032c2	-0.46913725
63	0xbe249076	-0.16070732
64	0x3e860594	0.2617613
65	0x3d8a4c1a	0.067527965
66	0xbec75339	-0.3893068
67	0x3f22a08a	0.63526213
68	0xbe93bdf7	-0.2885587
69	0x3e72021d	0.23633619
70	0xbeb79d30	-0.35862112
71	0xbed07159	-0.40711477
72	0xbf0a213a	-0.5395695
73	0xbf21580e	-0.63024986
74	0xbf0a5b2d	-0.54045373
75	0x3ef55ad5	0.47920862
76	0x3f3bd06c	0.733649
77	0xbeb5287b	-0.35382447
78	0xbe1f5cfb	-0.15562813
79	0x3e2366a2	0.1595712
80	0x3f149882	0.5804521
81	0x3d973353	0.07382836
82	0xbe16af11	-0.1471522
83	0x3ebc2262	0.36744982
84	0x3e4613a0	0.19343424
85	0x3efe1989	0.49628857
86	0xbe31855f	-0.17336033
87	0x3f228657	0.63486236
88	0xbe85b9c4	-0.2611829
89	0xbf0bd0f9	-0.5461574
90	0xbef0bd75	-0.47019544
91	0x3f236769	0.63829666
92	0x3e95cb59	0.29256704
93	0x3dec4544	0.11536649
94	0xbea2a9d9	-0.31770208
95	0x3e8d8e7d	0.27647772
96	0xbf14fcae	-0.5819806
97	0x3e92752f	0.2860503
98	0x3e8a9f59	0.27074698
99	0x3dcc1c07	0.09966283
100	0x3ea6d917	0.325875
101	0x3f2f0b64	0.68376756
102	0x3efd00a9	0.49414566
103	0xbed63866	-0.41839904
104	0x3f16039b	0.5859925
105	0x3f30cad1	0.69059473
106	0xbecb1a42	-0.3966847
107	0xbc8ec7de	-0.017429288
108	0xbece3a8d	-0.40279046
109	0x3dc6bf40	0.09704447
110	0x3dd85029	0.10562164
111	0x3e8d913f	0.27649876
112	0x3e0a2478	0.13490474
113	0xbe9fcfb0	-0.3121314
114	0x3f287e33	0.65817565
115	0x3e25932e	0.16169426
116	0x3e6bec4f	0.23039363
117	0x3da7f3dd	0.0820081
118	0xbe8da06b	-0.27661452
119	0x3dce491d	0.10072539
120	0x3e9a97dc	0.30193985
121	0x3efa43ff	0.48880002
122	0x3d62c0a1	0.055359486
123	0xbe343a70	-0.17600417
124	0x3e741d2c	0.23839253
125	0x3d4183e6	0.04724493
126	0xbeb8b048	-0.36071992
127	0x3d1826dc	0.037146434
128	0xbe42ef14	-0.19036514
129	0xbe8537ff	-0.26019284
130	0x3dee9e89	0.11651332
131	0x3e359b90	0.17735124
132	0xbf295be0	-0.66155815
133	0x3e22a74b	0.1588413
134	0xbf1450ed	-0.5793598
135	0xbedcb732	-0.43108517
136	0xbe320318	-0.17383993
137	0x3f25976d	0.6468418
138	0xbe8b52b1	-0.27211526
139	0x3f21c2f2	0.6318809
140	0x3f28b070	0.6589422
141	0xbf0fcf70	-0.561759
142	0xbf32d495	-0.69855624
143	0xbcb4d0a1	-0.022072138
144	0x3f0946ab	0.53623456
145	0x3e6af25b	0.22944014
146	0x3e6111bd	0.21979423
147	0x3e8e692d	0.27814618
148	0xbf19edab	-0.6012828
149	0x3ef4456a	0.4770921
150	0xbe39fdc1	-0.18163206
151	0xbf15aa3c	-0.5846288
152	0xbf12eaf1	-0.5738974
153	0x3dbbe864	0.09175184
154	0xbbcf94cf	-0.006334878
155	0xbf0b39a3	-0.5438482
156	0xbe7cf1f7	-0.24701677
157	0x3f18037a	0.59380305
158	0xbdb17833	-0.08665504
159	0x3f11fc94	0.5702603
160	0xbef5d58e	-0.48014492
161	0xbf2cd6aa	-0.6751505
162	0xbe0b5c0b	-0.1360933
163	0x3e889633	0.26677093
164	0xbd3277f9	-0.043571446
165	0x3f04678e	0.5172051
166	0xbf0dad29	-0.55342346
167	0x3ee8cd12	0.45468956
168	0xbe9ae8eb	-0.30255827
169	0xbee5def1	-0.44896653
170	0x3eb8fa26	0.36128348
171	0xbefd871f	-0.49517152
172	0xbf493e0b	-0.78610295
173	0xbf1cb1dd	-0.612089
174	0x3f0f0fb1	0.5588332
175	0x3ed541ef	0.41651866
176	0x3f0ea8f3	0.55726546
177	0xbe7cc85a	-0.24685803
178	0xbdb2b59a	-0.08726044
179	0x3f27007a	0.652351
180	0xbe534545	-0.20631893
181	0xbe616031	-0.2200935
182	0x3f1455fa	0.5794369
183	0xbf218649	-0.6309553
184	0xbf271ab0	-0.65275097
185	0xbf14da2f	-0.5814542
186	0xbc928ab7	-0.01788841
187	0x3ce26eff	0.027640818
188	0xbbeb2243	-0.007175715
189	0x3eee8a3a	0.46589833
190	0xbef4d093	-0.4781538
191	0xbe50231d	-0.20325895
192	0xbe253e86	-0.16137132
193	0x3ec9e03f	0.394289
194	0xbe7f373b	-0.24923413
195	0xbf130c9e	-0.5744113
196	0xbef91665	-0.48649898
197	0xbd9ebab0	-0.077504516
198	0xbe896c05	-0.26840225
199	0xbef3535c	-0.47524536
200	0xbe8d65eb	-0.2761682
201	0xbf1ed4ea	-0.6204363
202	0x3f0107c9	0.50402504
203	0xbf034ecb	-0.51292104
204	0x3ef83669	0.48479012
205	0x3f06d5c7	0.5266995
206	0x3e6ba377	0.23011576
207	0xbe029d41	-0.127553
208	0xbe7e38f8	-0.2482642
209	0x3e11d556	0.14241537
210	0xbf1015fa	-0.56283534
211	0xbedca4ee	-0.4309458
212	0xbf1a04c7	-0.6016354
213	0x3eb5fba4	0.3554355
214	0x3d363c32	0.044491
215	0x3ecef4d3	0.4042116
216	0xbeb1c3a6	-0.3471958
217	0x3e894ced	0.26816502
218	0x3eed99ed	0.464065
219	0x3ef340bf	0.47510335
220	0xbeec483b	-0.46148857
221	0xbe1b91dc	-0.1519236
222	0x3e870146	0.2636816
223	0x3e74f509	0.23921598
224	0xbe4def78	-0.20110881
225	0xbec890cf	-0.3917298
226	0xbe7c1a76	-0.24619469
227	0x3e84e11e	0.25953
228	0xbf0761bd	-0.5288351
229	0x3edcc1a3	0.43116483
230	0xbef04017	-0.46923897
231	0x3c9065b4	0.01762662
232	0xbe844104	-0.25830853
233	0x3edc0592	0.42973
234	0xbc59cff4	-0.013294209
235	0x3f2b1976	0.66835725
236	0x3f13f953	0.57802314
237	0x3f2dda34	0.67911077
238	0x3ea48ddb	0.32139477
239	0x3e7bda19	0.24594916
240	0xbed7ce4c	-0.4214958
241	0x3f0258aa	0.5091654
242	0xbf03ad50	-0.5143633
243	0x3e8e22ea	0.27761012
244	0x3ebe8ae7	0.3721535
245	0xbee56c8d	-0.4480938
246	0x3f3945d5	0.7237218
247	0xbeb020d0	-0.34400034
248	0xbee1e356	-0.44118756
249	0x3df21f98	0.11822432
250	0xbecc19b5	-0.39863363
251	0xbf15f9b8	-0.58584166
252	0x3e85a840	0.26104927
253	0xbec687a9	-0.38775375
254	0x3f126754	0.57188916
255	0xbf279698	-0.6546416
