Project2/models/model_3_1.pt (torch, 285381 bytes, 75 tensors)

prior.mean f4 [2]
0.0 0.0
00000000: 0000 0000 0000 0000

prior.std f4 [2]
1.0 1.0
00000000: 0000 803f 0000 803f

decoders.0.decoder_net.0.weight f4 [512, 2]
-0.25742763 0.07287894 0.63657093 0.40713423 -0.34136042 0.032756694 -0.051425196 0.67808694
0.14375496 -0.5971166 -0.3537889 0.6907378 0.14389499 -0.012944419 0.25258493 -0.68413085
-0.1478197 0.39641142 0.263967 -0.07960862 -0.39213857 -0.7197391 0.6789849 0.21883233
-0.18300714 0.58298427 -0.29412454 -0.37334397 0.6235342 -0.5515925 0.38033408 0.23425668
-0.26360616 -0.16220176 -0.4391418 -0.2576504 -0.690419 0.17818256 -0.2619846 -0.54989254
-0.08516992 0.2611731 0.5732453 -0.6591308 -0.1140687 0.15524764 -0.18532513 -0.24213856
-0.07299542 0.58266425 -0.008858794 0.19723211 0.5868014 -0.43162054 -0.38664496 0.46683618
-0.62584907 0.27403587 0.095287636 -0.40783548 -0.24778426 0.44550455 -0.14890453 -0.3706612
0.09116447 -0.3458013 -0.20192826 0.10477671 -0.009375405 -0.27806932 0.32675898 0.62618256
-0.12836711 -0.4713832 0.17169908 0.43206033 0.10944924 -0.20974825 -0.11284961 -0.5852106
0.7008986 0.6795149 0.4140961 0.102868885 -0.69757533 0.40351728 -0.2970169 -0.5784137
0.5261967 0.26457888 0.24614336 -0.5003222 0.6042714 -0.2882396 -0.29936284 -0.07093326
0.4936582 0.3533472 -0.23355576 0.058533456 0.19968787 0.033410393 0.23196085 0.50197303
-0.68470836 0.03354595 0.18127844 0.14419186 0.38470593 -0.003700918 -0.4485517 0.05122915
-0.31258717 0.24933395 -0.6324523 0.5094477 0.1245711 0.71910214 0.16073571 0.23326908
0.01729753 -0.61780435 -0.018874535 -0.28335306 0.48041233 0.3360125 0.43695173 -0.6070387
0.42563033 -0.27299622 -0.13761216 -0.23664643 -0.6009212 -0.07868198 0.58955425 0.529807
0.34194928 -0.53863853 0.43286464 -0.1104741 0.37600905 0.4236531 -0.11387145 0.5780064
0.65125513 0.4879843 0.047825415 -0.2499609 0.023563478 -0.41297394 0.18235064 -0.42904434
0.66141474 -0.21992989 -0.5833968 0.7385535 -0.5976779 0.37344795 0.55165994 0.2862153
0.49178252 0.17002352 0.6365032 0.6272256 -0.34899738 0.66844064 -0.50867826 0.39981112
-0.23270158 -0.56228745 -0.13329156 -0.29024538 0.51990175 -0.58855045 0.10567395 -0.60291296
0.5835302 0.70570487 0.66285163 0.15003045 0.12979919 -0.108772635 0.58992076 0.3854074
-0.23531386 -0.35267714 0.2705704 0.6878843 0.5760689 -0.6862984 0.03098744 -0.64391685
-0.19760221 0.45659253 -0.32320413 0.0049776654 -0.0840475 0.6454476 -0.3943457 0.4310884
-0.41460064 -0.005815912 -0.0015669728 0.13780737 0.018126003 0.4612861 -0.1300332 0.14270198
-0.3992254 -0.182484 0.1323458 -0.69134355 0.7028333 0.2728768 -0.56009185 -0.43692315
0.1786216 0.60467416 -0.23646995 -0.22668333 0.02039262 0.6645421 0.15456699 0.40301818
-0.16943932 0.497492 -0.077061 -0.54918754 -0.1478284 -0.454606 -0.26989204 0.085533045
-0.28062883 0.6331918 0.62935555 0.46075404 -0.7024019 -0.20273829 -0.57889163 -0.014867537
0.4102843 0.18480928 -0.24733603 -0.65434575 0.5327375 -0.06357515 -0.21334416 0.09487163
-0.5551648 -0.43480194 0.091714844 0.12337357 0.4726874 -0.40620917 -0.3196703 -0.6632808
00000000: 8ecd 83be 8e41 953d 50f6 223f e673 d03e
00000010: cbc6 aebe e22b 063d 3aa3 52bd 1b97 2d3f
00000020: 8034 133e a2dc 18bf d223 b5be 31d4 303f
00000030: 3559 133e d414 54bc d052 813e 3323 2fbf
00000040: 0c5e 17be 70f6 ca3e af26 873e d809 a3bd
00000050: 63c6 c8be d240 38bf f4d1 2d3f 9515 603e
00000060: 3966 3bbe 753e 153f 7e97 96be f126 bfbe
00000070: f09f 1f3f 2b35 0dbf 26bb c23e fce0 6f3e
00000080: 63f7 86be 3818 26be 32d7 e0be c1ea 83be
00000090: 4dbf 30bf 7d75 363e d822 86be c2c5 0cbf
000000a0: 916d aebd 7bb8 853e 34c0 123f ccbc 28bf
000000b0: da9c e9bd 3df9 1e3e dfc5 3dbe 2cf3 77be
000000c0: 9f7e 95bd 7c29 153f 7a24 11bc 37f7 493e
000000d0: 9e38 163f 5efd dcbe 54f6 c5be 2705 ef3e
000000e0: a537 20bf 6e4e 8c3e 2a26 c33d d0cf d0be
000000f0: 28bb 7dbe 2c19 e43e 6e7a 18be 4ec7 bdbe
00000100: 70b4 ba3d de0c b1be 48c6 4ebe 2c95 d63d
00000110: 4c9b 19bc 1a5f 8ebe f44c a73e 804d 203f
00000120: ab72 03be 2459 f1be e2d1 2f3e 0337 dd3e
00000130: ec26 e03d 3fc8 56be b21d e7bd 5dd0 15bf
00000140: 176e 333f b0f4 2d3f 6704 d43e ecac d23d
00000150: 4c94 32bf d199 ce3e 9912 98be ec12 14bf
00000160: d4b4 063f e276 873e 010d 7c3e 1e15 00bf
00000170: 88b1 1a3f 2494 93be 1646 99be 7545 91bd
00000180: c5c0 fc3e ede9 b43e 3e29 6fbe c7c0 6f3d
00000190: fa7a 4c3e 56d9 083d 2587 6d3e 4e81 003f
000001a0: 0c49 2fbf 7a67 093d 0ea1 393e 08a7 133e
000001b0: 2df8 c43e 1a8b 72bb 92a8 e5be a8d5 513d
000001c0: 6d0b a0be 6651 7f3e 65e8 21bf 2a6b 023f
000001d0: 221f ff3d 1417 383f e797 243e 17de 6e3e
000001e0: 8db3 8d3c 6d28 1ebf c59e 9abc a713 91be
000001f0: 9bf8 f53e d509 ac3e 23b8 df3e e366 1bbf
00000200: 38ec d93e 29c6 8bbe 34ea 0cbe 7153 72be
00000210: f9d5 19bf 0524 a1bd 07ed 163f 6ea1 073f
00000220: fa13 af3e 37e4 09bf 6fa0 dd3e 3f40 e2bd
00000230: 4284 c03e 0fe9 d83e 6f35 e9bd 3af8 133f
00000240: a8b8 263f 14d9 f93e 95e4 433d c0f5 7fbe
00000250: 3208 c13c 5271 d3be 20ba 3a3e b3ab dbbe
00000260: 7a52 293f 4d35 61be 7e59 15bf d811 3d3f
00000270: 6b01 19bf 9234 bf3e 9639 0d3f d08a 923e
00000280: ebca fb3e a51a 2e3e e0f1 223f db91 203f
00000290: c9af b2be ed1e 2b3f bd38 02bf 0bb4 cc3e
000002a0: 5349 6ebe 12f2 0fbf 957d 08be 0b9b 94be
000002b0: 4818 053f 3eab 16bf 956b d83d 8158 1abf
000002c0: 3c62 153f 13a9 343f a5b0 293f 95a1 193e
000002d0: 14ea 043e 30c4 debd 0c05 173f 1e54 c53e
000002e0: 1ef6 70be 1992 b4be 3488 8a3e 2f19 303f
000002f0: 4079 133f 40b1 2fbf 5fd9 fd3c bcd7 24bf
00000300: 3c58 4abe 7fc6 e93e 037b a5be af1b a33b
00000310: 1821 acbd 0e3c 253f aee7 c9be 9eb7 dc3e
00000320: 8946 d4be 6893 bebb e262 cdba 601d 0d3e
00000330: fc7c 943c b12d ec3e 6c27 05be 7820 123e
00000340: 4667 ccbe 16dd 3abe a885 073e e4fb 30bf
00000350: e2ec 333f 82b6 8b3e 2e62 0fbf 64b4 dfbe
00000360: 95e8 363e edcb 1a3f 2e25 72be ad1f 68be
00000370: 6c0e a73c 6e1f 2a3f cf46 1e3e 6658 ce3e
00000380: 8081 2dbe 45b7 fe3e 28d2 9dbd 8e97 0cbf
00000390: 5460 17be 1ec2 e8be 4a2f 8abe f32b af3d
000003a0: 95ae 8fbe dc18 223f 721d 213f f4e7 eb3e
000003b0: 9cd0 33bf a09a 4fbe 3e32 14bf f896 73bc
000003c0: c910 d23e a53e 3d3e a845 7dbe 3483 27bf
000003d0: 7c61 083f b033 82bd e476 5abe 0f4c c23d
000003e0: 481f 0ebf 5c9e debe fed4 bb3d 48ab fc3d
000003f0: 1504 f23e a6fa cfbe d3ab a3be c5cc 29bf

decoders.0.decoder_net.0.bias f4 [512]
-0.4306265 -0.14402571 0.5501986 0.33611768 -0.19446906 0.13557275 0.015595166 0.28699535
0.1944401 0.110724315 0.35476822 -0.5037467 -0.6444658 0.38154912 0.19823891 -0.22443287
-0.16189209 0.45142555 0.6099353 0.2954758 -0.31255808 -0.22206083 0.22987145 -0.011985095
0.4129222 -0.5327143 0.21699493 0.37074974 -0.5761192 -0.17277083 -0.4330524 0.21730395
-0.31689587 0.55093426 0.20189007 0.73660904 -0.40376067 -0.36484125 0.6761566 0.5478254
0.14812304 -0.09266013 0.32165295 0.40938586 0.5890354 0.09666867 -0.72086734 0.37374073
0.50141174 -0.6672438 -0.6298345 -0.1912619 -0.5180723 0.014182398 -0.63238233 0.12971024
0.7321776 -0.10814866 -0.84590685 0.54218274 -0.053217307 -0.26712993 0.22470199 -0.36580724
-0.2729937 -0.043810744 0.40206608 -0.64464426 -0.53702605 -0.4665573 0.15809758 0.03731754
0.6916792 0.4662241 0.22270374 -0.12046388 0.49435145 0.05699527 0.61111826 -0.46626258
0.11343841 0.1542589 -0.14772958 0.17704733 -0.025040524 0.050118875 -0.1911149 -0.043558553
0.100654654 -0.36286366 0.6122339 0.067541264 0.5696864 -0.2007804 -0.4766409 -0.37970203
0.6756928 -0.46256432 -0.036130458 0.60632247 0.6130087 -0.2890136 0.2866699 0.40855035
0.041650847 0.71853507 -0.13254502 -0.64872026 -0.31333345 0.19920538 0.14599767 -0.510203
0.33331203 -0.4490423 -0.13410632 0.40122712 -0.5668681 0.6784334 -0.4115691 -0.6221648
-0.24632938 0.25697005 -0.38714987 -0.48163044 0.41765139 -0.5315952 -0.22724113 -0.40535656
0.01526722 0.48867288 0.47619817 -0.24434304 0.09732605 -0.50157577 0.47068667 0.17622536
-0.1134877 -0.110738456 -0.7033538 0.53326446 0.50981456 0.05771446 -0.28398106 -0.5223135
-0.66619724 0.59498537 0.46982595 0.60920113 -0.29890832 0.57093805 0.5217592 0.15908612
-0.5510204 0.28354642 -0.37675402 -0.41672185 0.3586124 0.37533593 0.21182369 0.18886812
-0.53797925 0.38274136 -0.67179203 -0.45621857 -0.36915833 0.14866881 -0.3539557 0.2022356
0.11175537 0.3750729 0.25675422 0.35728335 0.3798816 0.39321744 -0.5037846 -0.10529342
-0.080981754 0.69392836 0.23169282 -0.602366 -0.45386782 -0.1383849 0.5018245 0.15606739
0.4533255 0.6352701 0.44543603 -0.66201174 0.40236157 0.04466199 -0.48040232 0.71924293
-0.23934913 -0.47632077 -0.63440436 0.43347695 0.16914433 -0.45567706 -0.0096934885 0.43603754
0.39840475 -0.43982553 -0.43424556 -0.08082137 -0.6058556 -0.3622918 -0.6470972 0.45506966
-0.09987358 0.2174095 0.70227075 0.33194122 0.7088991 -0.64849496 0.34613946 0.18381482
-0.19174483 -0.42872286 -0.14205323 -0.6929287 0.4865643 -0.40244314 0.14083117 0.018145474
0.38012797 -0.2985187 0.1011517 -0.5965067 0.18708962 -0.5633839 -0.69073874 -0.49087077
0.057887692 -0.33330855 0.6550728 -0.19641136 0.38366878 -0.21948484 -0.07814936 0.63465124
-0.4749232 -0.107542686 0.5412149 0.40699717 0.06244797 -0.25888407 -0.10238867 -0.5022185
0.43943954 0.17784998 0.11107608 0.05121191 0.5638907 0.6528882 0.598074 0.58951133
00000000: 147b dcbe 7a7b 13be d1d9 0c3f 9e17 ac3e
00000010: e622 47be 95d3 0a3e de82 7f3c 0ef1 923e
00000020: 4e1b 473e 6ec3 e23d 2ea4 b53e 8bf5 00bf
00000030: b6fb 24bf 685a c33e 24ff 4a3e bbd1 65be
00000040: 0ac7 25be 4021 e73e b824 1c3f 9b48 973e
00000050: 9d07 a0be ea63 63be 6c63 6b3e 225d 44bc
00000060: 8a6a d33e f75f 08bf eb33 5e3e e9d2 bd3e
00000070: 8c7c 13bf d6ea 30be 0bb9 ddbe ed84 5e3e
00000080: 2d40 a2be 070a 0d3f 45bc 4e3e 6992 3c3f
00000090: b8b9 cebe 79cc babe 9918 2d3f 493e 0c3f
000000a0: 91ad 173e 98c4 bdbd b2af a43e 069b d13e
000000b0: 06cb 163f 39fa c53d c38a 38bf f25a bf3e
000000c0: 855c 003f 7dd0 2abf d53c 21bf 29da 43be
000000d0: 63a0 04bf 4a5d 683c cfe3 21bf c3d2 043e
000000e0: fe6f 3b3f 0b7d ddbd 5a8d 58bf 7dcc 0a3f
000000f0: 64fa 59bd 41c5 88be 4718 663e 164b bbbe
00000100: d5c5 8bbe e572 33bd 9bdb cd3e 6807 25bf
00000110: 8a7a 09bf 99e0 eebe 55e4 213e 47da 183d
00000120: e311 313f edb4 ee3e 730c 643e c4b5 f6bd
00000130: a21b fd3e df73 693d 3f72 1c3f f8b9 eebe
00000140: 6652 e83d 0cf6 1d3e 6c46 17be e54b 353e
00000150: c921 cdbc 7349 4d3d a0b3 43be 746a 32bd
00000160: 0724 ce3d 44c9 b9be 5cbb 1c3f 1353 8a3d
00000170: f8d6 113f 6199 4dbe 470a f4be 4e68 c2be
00000180: 34fa 2c3f 3bd5 ecbe 88fd 13bd f337 1b3f
00000190: 23ee 1c3f 97f9 93be 66c6 923e 832d d13e
000001a0: 149a 2a3d eaf1 373f e2b9 07be 8812 26bf
000001b0: 3e6d a0be 7ffc 4b3e 6a80 153e aa9c 02bf
000001c0: e0a7 aa3e dfe8 e5be 2b53 09be a46d cd3e
000001d0: 451e 11bf d0ad 2d3f 2fb9 d2be 3146 1fbf
000001e0: c53d 7cbe 9491 833e 8238 c6be 4498 f6be
000001f0: 67d6 d53e 9f16 08bf e6b1 68be e58a cfbe
00000200: 5d23 7a3c 5533 fa3e 3fd0 f33e 1035 7abe
00000210: e152 c73d 4567 00bf d8fd f03e 6c74 343e
00000220: 3d6c e8bd d8ca e2bd ff0e 34bf 0584 083f
00000230: 3583 023f ff65 6c3d f765 91be 56b6 05bf
00000240: e78b 2abf f650 183f 078d f03e 9bf4 1b3f
00000250: 830a 99be ff28 123f 0392 053f 79e7 223e
00000260: ac0f 0dbf ff2c 913e e7e5 c0be 915c d5be
00000270: 0b9c b73e 082c c03e 4fe8 583e a566 413e
00000280: 02b9 09bf adf6 c33e 90fa 2bbf 7b95 e9be
00000290: 5202 bdbe a33c 183e ae39 b5be d916 4f3e
000002a0: 00e0 e43d 8e09 c03e 4a75 833e d8ed b63e
000002b0: d77f c23e cc53 c93e 07f8 00bf 14a4 d7bd
000002c0: c3d9 a5bd 4aa5 313f e240 6d3e a834 1abf
000002d0: 5d61 e8be c5b4 0dbe 9277 003f 21d0 1f3e
000002e0: 481a e83e 10a1 223f 3110 e43e 9a79 29bf
000002f0: 5602 ce3e 7eef 363d 4bf7 f5be 4e20 383f
00000300: f017 75be 51e0 f3be 5368 22bf b1f0 dd3e
00000310: 2c34 2d3e 814e e9be 70d1 1ebc 5040 df3e
00000320: b5fb cb3e d030 e1be 6f55 debe ad85 a5bd
00000330: 5a19 1bbf 507e b9be 29a8 25bf e4fe e83e
00000340: 858a ccbd 99a0 5e3e 04c8 333f 33f4 a93e
00000350: 697a 353f c403 26bf 3139 b13e f439 3c3e
00000360: c258 44be 9081 dbbe 6776 11be c663 31bf
00000370: f51e f93e 070d cebe 0c36 103e d1a5 943c
00000380: 22a0 c23e 71d7 98be 9f28 cf3d aab4 18bf
00000390: 6c94 3f3e ed39 10bf 41d4 30bf 6a53 fbbe
000003a0: a51b 6d3d 6ba7 aabe dab2 273f 0f20 49be
000003b0: 3c70 c43e a2c0 60be c60c a0bd 8178 223f
000003c0: 2229 f3be 573f dcbd 0f8d 0a3f ef61 d03e
000003d0: 71c9 7f3d 748c 84be 27b1 d1bd 6491 00bf
000003e0: 38fe e03e 4e1e 363e db7b e33d 94c3 513d
000003f0: 245b 103f ae23 273f 611b 193f 37ea 163f

decoders.0.decoder_net.3.weight f4 [32]
0.98463583 0.98655856 0.9993968 1.0549799 1.0096499 1.0117556 1.0053989 0.9887193
0.9602649 0.99531513 0.9837667 1.0251503 1.0052595 1.0167848 1.0117635 0.99117535
1.0122756 1.0148094 0.9801535 0.9906675 1.0126356 0.96520597 1.0096141 0.99039066
0.96789277 0.9903606 1.0034546 0.99105954 0.99779505 0.99806154 1.0120894 1.0105069
00000000: 1811 7c3f 1a8f 7c3f 78d8 7f3f 9509 873f
00000010: 353c 813f 3581 813f e9b0 803f b51c 7d3f
00000020: ecd3 753f f9cc 7e3f 22d8 7b3f 2038 833f
00000030: 58ac 803f 0126 823f 7781 813f abbd 7d3f
00000040: 3f92 813f 46e5 813f 57eb 7a3f 639c 7d3f
00000050: 0b9e 813f bd17 773f 093b 813f 3e8a 7d3f
00000060: d2c7 773f 4688 7d3f 3371 803f 14b6 7d3f
00000070: 7f6f 7f3f f680 7f3f 258c 813f 4a58 813f

decoders.0.decoder_net.3.bias f4 [32]
0.008802537 0.010756886 -0.06494061 -0.033293992 0.0022688052 0.0008614876 0.004021913 0.0015742495
-0.04623598 -0.0011112952 0.0019569462 0.03448051 -0.01446177 0.017135674 -0.006364793 0.019222029
-0.036668696 -0.010013689 -0.019419862 0.07398491 -0.03929644 -0.00038446666 -0.009982281 0.007252399
0.029604781 0.015874067 -0.027368952 0.039812367 0.010212072 -0.020605903 0.015767004 -0.037317418
00000000: 8438 103c a63d 303c 95ff 84bd 485f 08bd
00000010: 3cb0 143b 74d5 613a 40ca 833b 0c57 ce3a
00000020: f061 3dbd e1a8 91ba 1c40 003b 6f3b 0d3d
00000030: 0ff1 6cbc 1d60 8c3c c18f d0bb 8477 9d3c
00000040: ea31 16bd 7510 24bc 6716 9fbc 6785 973d
00000050: 4ef5 20bd 3e92 c9b9 b98c 23bc 88a5 ed3b
00000060: ba85 f23c 550a 823c da34 e0bc 4b12 233d
00000070: 8950 273c b6cd a8bc ce29 813c 26da 18bd

decoders.0.decoder_net.3.running_mean f4 [32]
0.028199097 0.038160343 0.03189185 0.024048885 0.031318627 0.020499814 0.035040837 0.034865927
0.037449624 0.029780935 0.03204363 0.042843994 0.037754018 0.030578844 0.05060015 0.037108563
0.018096983 0.02457529 0.03763301 0.018540526 0.034722976 0.023456508 0.032895938 0.044590876
0.019031893 0.035548516 0.041148156 0.02012853 0.031931538 0.026723282 0.019489821 0.029300805
00000000: cb01 e73c 054e 1c3d 07a1 023d 2b02 c53c
00000010: f647 003d 3aef a73c fb86 0f3d 93cf 0e3d
00000020: c764 193d 26f7 f33c 2e40 033d 2f7d 2f3d
00000030: f5a3 1a3d 7c80 fa3c 1a42 4f3d 26ff 173d
00000040: 2040 943c 1e52 c93c 1225 1a3d 4de2 973c
00000050: ae39 0e3d dd27 c03c e4bd 063d eca4 363d
00000060: c6e8 9b3c 529b 113d f88a 283d 96e4 a43c
00000070: a5ca 023d c9ea da3c 1ea9 9f3c 3e08 f03c

decoders.0.decoder_net.3.running_var f4 [32]
0.001001927 0.0013354494 0.0011286958 0.0006309186 0.0021008633 0.00039520126 0.0009227907 0.0015742349
0.0013518389 0.0017854996 0.0006691332 0.004354086 0.0046043624 0.0016912569 0.0077108312 0.0017615993
0.00025293874 0.0006181891 0.0012194774 0.00023861887 0.000882031 0.0008283861 0.0015207679 0.0019783233
0.0004401604 0.0013267468 0.0019789133 0.0002899603 0.0019774348 0.00053356815 0.00023050852 0.0013344444
00000000: 1753 833a 3f0a af3a bff0 933a 3b64 253a
00000010: a3ae 093b 0433 cf39 70e7 713a 8f56 ce3a
00000020: 3030 b13a 6d07 ea3a c568 2f3a b8ac 8e3b
00000030: 31e0 963b 2aad dd3a 24ab fc3b 77e5 e63a
00000040: dd9c 8439 f80d 223a dfd6 9f3a c435 7a39
00000050: 1938 673a 0d28 593a 8154 c73a c2a6 013b
00000060: 54c5 e639 3ce6 ad3a a8b0 013b d005 9839
00000070: da97 013b 27df 0b3a a9b4 7139 86e8 ae3a

decoders.0.decoder_net.4.weight f4 [32, 32, 3, 3]
-0.039568145 -0.010411096 -0.029899206 -0.064876325 -0.0013452306 0.024327992 0.00996754 -0.007827813
-0.056920562 -0.04725418 0.038368557 -0.02032729 -0.016444689 -0.012281323 -0.0110084 -0.052162524
0.04924903 -0.006669225 0.0014132779 0.03536142 0.0127742095 -0.056126364 -0.02187367 0.01704613
0.038053524 -0.06950965 -0.06385749 0.0052118856 0.033146452 0.03692271 0.013062573 0.024268162
-0.045600735 0.039321527 -0.02612214 0.054306395 -0.03065006 0.020735448 -0.03212154 0.041512933
-0.0014425424 -0.07876071 0.04190139 -0.016947342 0.0077054296 -0.018002676 -0.014869127 0.040347245
-0.0064915926 0.015487101 -0.025383335 0.034510467 0.0038847656 0.0062219943 -0.02020055 -0.021042181
0.0303662 -0.0024881563 -0.0017423964 -0.038345877 -0.035134584 -0.0065682456 -0.0012315812 -0.037025854
-0.035754953 0.0036088973 -0.05111513 -0.013817979 0.0608934 0.0071421796 -0.010891262 0.023105027
-0.0641808 0.019210067 -0.007307305 -0.009302884 0.017091846 0.07134097 -0.08869269 0.03105759
-0.019753285 -0.051192526 0.035824507 0.044353608 0.06512149 -0.054804236 -0.035346076 0.02201951
-0.061615143 -0.0011115256 -0.047554635 0.03714267 -0.050603203 0.022888107 0.054412298 0.008656066
-0.0026197394 -0.020999359 0.016760807 0.031240152 0.06349698 0.0035334905 0.032197013 0.07318975
0.03525629 -0.07347002 0.0109223025 -0.016569074 0.06568752 0.015517479 -0.007858166 -0.026740741
-0.015812434 0.015545414 -0.013848969 -0.01510257 -0.060318317 0.04492738 -0.014778977 0.04902449
0.052913718 0.014841054 -0.07202155 0.038071267 0.026807208 0.0323846 -0.054710265 -0.0014114621
0.0096331835 0.015513935 0.029774053 -0.034152914 0.04862778 -0.068722725 -0.007842701 -0.029965559
-0.026914412 0.07046208 -0.03366171 0.031766184 0.020902013 0.040487472 0.054025825 -0.053406484
0.03568211 -0.06170011 -0.0023196514 0.032990236 0.024773229 -0.006827076 0.03955979 -0.04185926
-0.042682905 0.046871107 0.058854066 -0.01968979 -0.0018109563 -0.020861357 0.057158887 0.058247134
-0.005585247 -0.0010486335 -0.033455547 -0.039926603 0.056220554 -0.027369944 0.019322848 0.007060236
0.04041749 0.002846932 0.0099829305 -0.053741142 -0.019398108 -0.03655827 0.042880412 0.0016948478
0.057145108 0.05723851 0.019273467 -0.06646565 0.07324876 -0.033840697 0.042051416 -0.04297059
0.012258569 0.02381503 0.026192749 -0.021460405 0.01956645 -0.046023805 0.043740846 0.043002963
-0.01613632 -0.050082546 -0.022705894 0.04471509 0.02007994 -0.023695324 -0.005535911 -0.08954565
-0.019340923 0.0090642935 -0.072332464 0.012708615 -0.018359069 -0.037915148 -0.025820179 -0.022418791
-0.009530986 0.047610644 -0.046280272 -0.061616145 -0.028799197 0.00064311415 0.025345372 -0.028149823
-0.04388906 0.0241041 -0.017919883 -0.008373512 -0.030503243 -0.08015485 -0.051400166 -0.03882145
0.026755083 0.03593402 -0.021138791 0.01462126 0.023024615 -0.0072235996 0.010606066 0.09031376
0.0015196258 -0.049739987 -0.018956037 -0.02059387 0.034604773 -0.0008765006 -0.028539788 -0.06490144
0.017080223 0.009295499 -0.03474855 0.06757995 0.037576605 0.018117212 0.009115419 0.014674714
-0.0055304 -0.019922823 -0.0631314 0.010202187 0.0151985325 -0.07290022 -0.031092407 0.032618947
00000000: 3512 22bd 4d93 2abc 2eef f4bc e1dd 84bd
00000010: 7352 b0ba 7f4b c73c e54e 233c 3a40 00bc
00000020: 8925 69bd 998d 41bd 5928 1d3d 6b85 a6bc
00000030: 03b7 86bc 9a37 49bc 935c 34bc 5fa8 55bd
00000040: 5ab9 493d 8489 dabb bd3d b93a 23d7 103d
00000050: eb4a 513c c2e4 65bd 6930 b3bc 53a4 8b3c
00000060: 03de 1b3d 135b 8ebd b7c7 82bd 77c8 aa3b
00000070: 93c4 073d 443c 173d 6704 563c 06ce c63c
00000080: d6c7 3abd 9c0f 213d 19fe d5bc 6270 5e3d
00000090: d615 fbbc 63dd a93c e091 03bd 7709 2a3d
000000a0: b113 bdba 4c4d a1bd cba0 2b3d 27d5 8abc
000000b0: d47d fc3b 597a 93bc a49d 73bc 2743 253d
000000c0: 6db7 d4bb 9cbd 7d3c b6f0 cfbc d95a 0d3d
000000d0: 8d97 7e3b dfe1 cb3b a07b a5bc a760 acbc
000000e0: 89c2 f83c 5610 23bb 1f61 e4ba 9110 1dbd
000000f0: 48e9 0fbd 703a d7bb 026d a1ba 6ca8 17bd
00000100: c973 12bd 4083 6c3b 195e 51bd ce64 62bc
00000110: 5c6b 793d f208 ea3b 4471 32bc c146 bd3c
00000120: 3971 83bd 6e5e 9d3c 1e72 efbb 206b 18bc
00000130: 3304 8c3c 371b 923d 83a4 b5bd 7d6c fe3c
00000140: a4d1 a1bc 41af 51bd b8bc 123d 21ac 353d
00000150: 6a5e 853d 687a 60bd 0cc7 10bd 4262 b43c
00000160: 2960 7cbd 9cb0 91ba a6c8 42bd ea22 183d
00000170: 4e45 4fbd d77f bb3c 6edf 5e3d 2cd2 0d3c
00000180: efaf 2bbb d906 acbc f64d 893c 59eb ff3c
00000190: b40a 823d 2292 673b 04e1 033d 82e4 953d
000001a0: e668 103d 7377 96bd 75f3 323c debb 87bc
000001b0: 2e87 863d 063d 7e3c 89bf 00bc 660f dbbc
000001c0: 1489 81bc 31b2 7e3c c9e6 62bc c570 77bc
000001d0: 5710 77bd c605 383d 8623 72bc e7cd 483d
000001e0: 0ebc 583d e427 733c 0980 93bd 9ef0 1b3d
000001f0: ca9a db3c b7a5 043d df17 60bd cf00 b9ba
00000200: 80d4 1d3c 292e 7e3c b7e8 f33c ede3 0bbd
00000210: ec2d 473d 80be 8cbd ac7e 00bc 557a f5bc
00000220: 9d7b dcbc 6c4e 903d dce0 09bd 421d 023d
00000230: b33a ab3c 31d6 253d 2f4a 5d3d c2c0 5abd
00000240: 6727 123d 41b9 7cbd 4b05 18bb c520 073d
00000250: 3af1 ca3c aab5 dfbb 7209 223d 9e74 2bbd
00000260: 45d4 2ebd ebfb 3f3d f610 713d 7c4c a1bc
00000270: 9c5d edba 70e5 aabc 701f 6a3d 8c94 6e3d
00000280: 7304 b7bb 4d72 89ba af08 09bd 148a 23bd
00000290: 8647 663d ef36 e0bc f34a 9e3c 8d59 e73b
000002a0: cf8c 253d 9893 3a3b 728f 233c ac1f 5cbd
000002b0: c8e8 9ebc 20be 15bd 5fa3 2f3d a825 de3a
000002c0: fd10 6a3d ee72 6a3d 64e3 9d3c 251f 88bd
000002d0: 7203 963d 8b9c 0abd 1b3e 2c3d ee01 30bd
000002e0: 2ad8 483c bd17 c33c 2d92 d63c bbcd afbc
000002f0: d249 a03c 7583 3cbd 9a29 333d e023 303d
00000300: 5130 84bc 5b23 4dbd b601 babc 2c27 373d
00000310: b07e a43c b21c c2bc 9666 b5bb b663 b7bd
00000320: db70 9ebc 6782 143c 0b23 94bd cb37 503c
00000330: c265 96bc ea4c 1bbd d784 d3bc 9da7 b7bc
00000340: da27 1cbc 6103 433d 6290 3dbd 3661 7cbd
00000350: 4bec ebbc a996 283a 19a1 cf3c 759a e6bc
00000360: 04c5 33bd f675 c53c b8cc 92bc 0e31 09bc
00000370: f0e1 f9bc 3a28 a4bd fb88 52bd 3e03 1fbd
00000380: 7a2d db3c 8d2f 133d 422b adbc 028e 6f3c
00000390: 1e9e bc3c f2b3 ecbb 11c5 2d3c 6cf6 b83d
000003a0: 2e2e c73a 28bc 4bbd b149 9bbc 7ab4 a8bc
000003b0: bcbd 0d3d f6c4 65ba 46cc e9bc 0ceb 84bd
000003c0: d3eb 8b3c 264c 183c 7f54 0ebd 5b67 8a3d
000003d0: ede9 193d 8c6a 943c d758 153c 366e 703c
000003e0: 5c38 b5bb 3035 a3bc 094b 81bd 1327 273c
000003f0: 4403 793c b64c 95bd 81b5 febc 729b 053d

decoders.0.decoder_net.4.bias f4 [32]
0.016897706 -0.03136236 -0.019683655 -0.037870176 0.056536485 0.008785323 -0.021980217 0.014816024
0.054554805 -0.032338347 -0.046228554 -0.010520397 -0.07408803 0.029796999 0.06931167 -0.060165666
-0.03314991 0.04738504 0.0009661104 -0.051746078 0.04795912 -0.019963542 0.03707685 -0.04359635
-0.0050621526 -0.06376871 -0.07949244 -0.008754432 -0.000773062 -0.0088614 0.0051426063 -0.0075993245
00000000: 0f6d 8a3c d175 00bd 9e3f a1bc c21d 1bbd
00000010: cd92 673d 51f0 0f3c db0f b4bc e9be 723c
00000020: dc74 5f3d 3775 04bd 275a 3dbd be5d 2cbc
00000030: 77bb 97bd d618 f43c 47f3 8d3d 4670 76bd
00000040: 33c8 07bd d116 423d 9242 7d3a b2f3 53bd
00000050: c870 443d 958a a3bc e5dd 173d 1692 32bd
00000060: 6ae0 a5bb 2b99 82bd efcc a2bd c06e 0fbc
00000070: 50a7 4aba 682f 11bc 4f83 a83b c103 f9bb

decoders.0.decoder_net.6.weight f4 [32]
0.96396744 0.94907016 0.96780705 0.9931167 0.9942792 1.0061277 1.021376 0.969179
0.98603284 0.951381 0.95314336 0.9619507 0.9681314 0.929066 0.96519023 0.9714985
1.0123874 0.97219485 0.9498562 0.95572513 0.9839863 0.9843327 0.9655348 0.96884394
0.95853585 0.9461135 0.9980043 0.9933354 0.9917232 0.9667781 0.962811 0.97394824
00000000: 92c6 763f 43f6 723f 34c2 773f e53c 7e3f
00000010: 1589 7e3f cbc8 803f 73bc 823f 1d1c 783f
00000020: a66c 7c3f b58d 733f 3401 743f 6742 763f
00000030: 76d7 773f 45d7 6d3f b516 773f 20b4 783f
00000040: e995 813f c3e1 783f c729 733f 67aa 743f
00000050: 87e6 7b3f 3afd 7b3f 4a2d 773f 2806 783f
00000060: 9b62 753f 7f34 723f 367d 7f3f 3b4b 7e3f
00000070: 92e1 7d3f c57e 773f c87a 763f ac54 793f

decoders.0.decoder_net.6.bias f4 [32]
0.009359107 0.038421694 0.012681786 -0.029925805 0.024907654 0.032199927 0.013645571 -0.019177845
-0.015814299 -0.028014723 0.033418898 -0.04431756 0.017184421 -0.0063311714 0.036729585 0.017765911
0.032521337 -0.018733628 0.007104827 0.006419313 0.018758575 0.008277333 -0.0508247 0.0013331805
0.03516371 -0.0037681458 0.02795813 -0.032113813 -0.07726434 -0.007030913 -0.07196534 -0.008717169
00000000: f156 193c 1160 1d3d 44c7 4f3c f626 f5bc
00000010: 230b cc3c 12e4 033d ac91 5f3c db1a 9dbc
00000020: fd8c 81bc 227f e5bc 41e2 083d 5486 35bd
00000030: 58c6 8c3c b775 cfbb c371 163d d189 913c
00000040: 1835 053d 4477 99bc 9ccf e83b 1a59 d23b
00000050: 95ab 993c a79d 073c 902d 50bd 1dbe ae3a
00000060: d307 103d fff2 76bb 7308 e53c c689 03bd
00000070: c43c 9ebd 9363 e6bb 9062 93bd 75d2 0ebc

decoders.0.decoder_net.6.running_mean f4 [32]
0.031045265 0.02956445 0.03128304 0.03116133 0.033998195 0.03127119 0.029123865 0.03227823
0.030736689 0.030024847 0.03027596 0.029423863 0.0298695 0.037049346 0.03550183 0.029417835
0.030881895 0.03199805 0.030329954 0.028554585 0.03299917 0.031432383 0.033446066 0.031264514
0.031535227 0.02809121 0.030278556 0.031802647 0.03160809 0.030492626 0.032089554 0.031169824
00000000: a452 fe3c 2531 f23c a522 003d 0c46 ff3c
00000010: b141 0b3d 3816 003d 2c95 ee3c 2d36 043d
00000020: 82cb fb3c abf6 f53c 4a05 f83c 500a f13c
00000030: e2b0 f43c 0ec1 173d 5e6a 113d acfd f03c
00000040: 07fc fc3c 6310 033d 8676 f83c 4eeb e93c
00000050: 232a 073d 3ebf 003d befe 083d 380f 003d
00000060: 152b 013d 8a1f e63c bc0a f83c 7e43 023d
00000070: 7c77 013d accb f93c 5670 033d dc57 ff3c

decoders.0.decoder_net.6.running_var f4 [32]
0.00016677174 0.00016166052 0.0001565972 0.00022073794 0.00018481903 0.00020688162 8.786197e-05 0.0002126675
0.0001391486 0.00012223757 0.00015975576 0.00016876931 0.00020733227 0.0007248643 0.00029517125 0.00018576736
0.00019113903 0.00013364138 0.00010712864 0.0001562852 0.00018200882 0.00019648384 0.00023800334 0.00018403209
0.00018005601 8.959431e-05 0.00021967344 0.00026384974 0.00017819215 0.00013358041 0.0002099558 0.00019267853
00000000: 73df 2e39 6a83 2939 3e34 2439 e475 6739
00000010: fbcb 4139 5dee 5839 8942 b838 7fff 5e39
00000020: 6be8 1139 e62c 0039 1c84 2739 abf7 3039
00000030: 5567 5939 d204 3e3a 37c1 9a39 8cca 4239
00000040: 7e6c 4839 1622 0c39 40aa e038 7de0 2339
00000050: 9fd9 3e39 3b07 4e39 8990 7939 bdf8 4039
00000060: 6bcd 3c39 94e4 bb38 2458 6639 5055 8a39
00000070: 17d9 3a39 b811 0c39 9527 5c39 c009 4a39

decoders.0.decoder_net.7.weight f4 [32, 16, 3, 3]
0.07717105 -0.052449312 0.04444133 0.057695065 -0.019996833 -0.020303324 -0.0501815 -0.09587397
0.033853255 -0.027032241 -0.049928874 0.024814993 -0.02945553 -0.02397523 -0.0015737007 0.03280356
-0.044158947 -0.054632407 -0.08707519 -0.06354905 0.001969007 -0.042663258 0.0831123 -0.07314821
0.048246693 0.044107445 0.03710407 -0.022638017 -0.0097916005 0.004553113 0.015762633 -0.0074807927
-0.04409896 0.068553746 0.016412327 -0.056954846 0.045331676 -0.0027622788 0.033678606 -0.012720975
-0.10371308 -0.07726748 -0.010017461 0.0010718277 0.010590809 0.031228537 0.022199554 0.07689985
-0.019866303 -0.0441641 0.027134232 0.08054077 -0.021780033 -0.051305674 0.05466383 -0.087282345
-0.011819892 0.052700017 -0.0054928027 -0.03400684 0.018122701 -0.063815355 0.057096653 0.09026768
0.020374218 0.035577137 0.04869841 0.009556497 0.024111243 0.038377233 -0.004869946 -0.064396374
0.05379307 0.049944647 0.036635596 -0.020843355 0.10417876 -0.01728473 -0.077738665 -0.05796463
0.06093485 -0.042567078 -0.03315508 -0.05392732 -0.018661506 0.08920644 0.024667237 0.077470884
0.05227303 0.041109864 0.009048318 -0.04345219 0.037201338 -0.052657828 0.051703162 0.020652726
-0.016125368 -0.0068528745 0.05376641 0.051773343 0.044830903 0.031044055 -0.059140194 -0.045210246
0.03958323 -0.06537419 0.01748725 0.02219259 0.04483576 0.04954473 -0.0586363 -0.044695653
-0.0046398668 -0.046503287 0.049679838 0.089144625 -0.0065537537 -0.042168368 -0.033067808 -0.04086309
-0.066945106 0.05440968 0.021225983 0.028772954 -0.036306873 -0.02967659 -0.0011482897 0.07830902
-0.032189246 0.0050372332 -0.0777072 0.014303881 -0.023111207 -0.023991842 0.02630462 0.0037443144
0.013706339 0.032364238 0.036734115 0.06826817 0.009789051 0.044823833 -0.03048384 -0.008102588
-0.018772345 0.08089237 -0.034441303 0.045544922 0.05168443 0.02391964 0.054161932 0.07659719
0.02244265 -0.08529479 -0.013932591 0.09466313 -0.048949108 0.04997199 -0.0156541 -0.03801647
-0.03478287 -0.015357475 0.037318703 -0.061545715 0.046316657 0.008036501 0.025754286 -0.055102292
-0.011789999 0.0041684527 -0.04612741 0.0027885383 0.03373265 0.056727335 -0.014648141 0.003950995
0.015474228 -0.035121918 0.06563688 0.004286172 0.07266761 -0.0086615095 -0.06548774 -0.038893946
0.048467793 0.063733265 -0.031647746 -0.011782594 0.088494 -0.106903955 -0.008538643 -0.022611719
0.042137466 -0.0065059923 0.003545517 -0.10901349 -0.016503476 0.042432528 0.06292403 0.05611386
-0.011883759 0.03678885 0.0074877604 -0.056461744 0.02499674 -0.088161446 0.064757675 0.012775671
0.013838648 -0.04478183 0.07700275 0.033281907 0.014968094 0.017358206 -0.010471568 -0.056225196
-0.003370507 -0.0347081 0.0014424858 -0.033586547 0.038879536 -0.07957962 -0.04917239 0.076007195
-0.015513297 0.037272267 -0.018500322 0.036571503 -0.05261772 -0.030000892 0.014441312 0.048299752
-0.013820938 -0.061034344 -0.09370945 -0.027462462 -0.059541535 0.009160433 -0.023546446 0.016679734
-0.012570999 0.034663025 -0.044972118 0.015448293 0.068894506 -0.010138977 -0.029985135 0.021606935
-0.039959658 -0.041080765 0.02814094 -0.028446449 -0.027389651 -0.016291166 -0.042696126 -0.020140879
00000000: db0b 9e3d 17d5 56bd 1d08 363d a951 6c3d
00000010: 66d0 a3bc 2853 a6bc 1e8b 4dbd 9259 c4bd
00000020: b6a9 0a3d b872 ddbc 3882 4cbd d048 cb3c
00000030: b94c f1bc b467 c4bc a244 ceba 075d 063d
00000040: 03e0 34bd 3bc6 5fbd 7a54 b2bd 0126 82bd
00000050: 750a 013b abbf 2ebd c836 aa3d bbce 95bd
00000060: 539e 453d 02aa 343d 70fa 173d 5d73 b9bc
00000070: f36c 20bc 4832 953b a320 813c 7021 f5bb
00000080: 1ca1 34bd e865 8c3d 2573 863c 7c49 69bd
00000090: b5ad 393d 5907 35bb 94f2 093d a36b 50bc
000000a0: 8667 d4bd 6a3e 9ebd 4720 24bc 927c 8c3a
000000b0: 1385 2d3c fdd2 ff3c d7db b53c ab7d 9d3d
000000c0: a8be a2bc 6ae5 34bd 9c48 de3c 8ff2 a43d
000000d0: 0a6c b2bc e625 52bd 2ee7 5f3d 16c1 b2bd
000000e0: 38a8 41bc f9db 573d f8fc b3bb c24a 0bbd
000000f0: 0f76 943c a0b1 82bd 2ede 693d 43de b83d
00000100: d5e7 a63c 55b9 113d fc77 473d db92 1c3c
00000110: f184 c53c 7231 1d3d 1194 9fbb 3fe2 83bd
00000120: 1f56 5c3d c292 4c3d 350f 163d afbf aabc
00000130: ac5b d53d b598 8dbc 7335 9fbd 526c 6dbd
00000140: d296 793d d15a 2ebd 9fcd 07bd e5e2 5cbd
00000150: 04e0 98bc deb1 b63d f212 ca3c 0ea9 9e3d
00000160: 3f1c 563d d162 283d 653f 143c ecfa 31bd
00000170: 6e60 183d bcaf 57bd b2c6 533d e82f a93c
00000180: 5919 84bc 148e e0bb 2b3a 5c3d 4910 543d
00000190: 9ca0 373d 1a50 fe3c fd3c 72bd 612e 39bd
000001a0: 0622 223d e7e2 85bd 6c41 8f3c 3ccd b53c
000001b0: b4a5 373d 6aef 4a3d 9e2c 70bd ca12 37bd
000001c0: 060a 98bb 3b7a 3ebd 167d 4b3d 7591 b63d
000001d0: dfc0 d6bb bdb8 2cbd 1c72 07bd 0e60 27bd
000001e0: 841a 89bd afdc 5e3d 1de2 ad3c 42b5 eb3c
000001f0: 84b6 14bd 521c f3bc 3582 96ba 7b60 a03d
00000200: dfd8 03bd 600f a53b f424 9fbd d35a 6a3c
00000210: b753 bdbc 8a8a c4bc c97c d73c 2c63 753b
00000220: 8d90 603c 5d90 043d 8376 163d 2fd0 8b3d
00000230: 4162 203c 3299 373d 3fb9 f9bc b8c0 04bc
00000240: 76c8 99bc e6aa a53d 5312 0dbd 508d 3a3d
00000250: 0eb3 533d 1ff3 c33c e7d8 5d3d fdde 9c3d
00000260: a6d9 b73c 09af aebd 8645 64bc bede c13d
00000270: dc7e 48bd 6eaf 4c3d 073d 80bc 28b7 1bbd
00000280: 7c78 0ebd eb9d 7bbc 7fdb 183d 5c17 7cbd
00000290: 89b6 3d3d 87ab 033c a7fa d23c f1b2 61bd
000002a0: d72a 41bc 8497 883b 18f0 3cbd e9bf 363b
000002b0: 3f2b 0a3d ec5a 683d c2fe 6fbc 5977 813b
000002c0: 9e87 7d3c 00dc 0fbd a16c 863d 0473 8c3b
000002d0: c2d2 943d 01e9 0dbc 701e 86bd 424f 1fbd
000002e0: 2a86 463d 9686 823d 11a1 01bd c80b 41bc
000002f0: 583c b53d 76f0 dabd aae5 0bbc 363c b9bc
00000300: 5698 2c3d 3830 d5bb e85b 683b 7742 dfbd
00000310: 4c32 87bc bbcd 2d3d 50de 803d a6d7 653d
00000320: 19b4 42bc e8af 163d e35b f53b 6e44 67bd
00000330: f7c5 cc3c fd8d b4bd ac9f 843d 0c51 513c
00000340: 7fbb 623c 276d 37bd 9eb3 9d3d 9c52 083d
00000350: bd3c 753c cc32 8e3c f190 2bbc 644c 66bd
00000360: b9e3 5cbb 152a 0ebd cb11 bd3a 0c92 09bd
00000370: 2640 1f3d a4fa a2bd fd68 49bd a9a9 9b3d
00000380: 7c2b 7ebc ceaa 183d fd8d 97bc 00cc 153d
00000390: ae85 57bd 6ec4 f5bc 419b 6c3c f6d5 453d
000003a0: 3771 62bc 26ff 79bd bdea bfbd f5f8 e0bc
000003b0: d3e1 73bd a415 163c 7ae4 c0bc f0a3 883c
000003c0: 97f6 4dbc d1fa 0d3d af34 38bd d61a 7d3c
000003d0: 9018 8d3d f41d 26bc 63a3 f5bc 0701 b13c
000003e0: bdac 23bd 4e44 28bd d487 e63c 8708 e9bc
000003f0: 4360 e0bc 0d75 85bc 22e2 2ebd 7cfe a4bc

decoders.0.decoder_net.7.bias f4 [16]
0.06771419 0.03657079 0.082234286 -0.1526056 -0.04083247 -0.002354243 -0.036541726 0.009034151
-0.052526716 -0.08107895 -0.030131515 0.044885654 -0.019791277 -0.018815348 -0.0063886615 -0.10049109
00000000: bdad 8a3d 41cb 153d 736a a83d a444 1cbe
00000010: f33f 27bd a549 1abb c7ac 15bd fa03 143c
00000020: 4126 57bd b80c a6bd 5ed6 f6bc 05da 373d
00000030: 5121 a2bc a522 9abc fa57 d1bb 46ce cdbd

decoders.0.decoder_net.9.weight f4 [16]
0.97101426 0.9600572 0.9640039 0.96119666 0.9594899 0.96970797 0.96724397 0.9663599
0.96359605 0.9600298 0.9595058 0.9638644 0.9688689 0.9622353 0.9725758 0.9636685
00000000: 6494 783f 4fc6 753f f6c8 763f fc10 763f
00000010: 21a1 753f c83e 783f 4d9d 773f 5d63 773f
00000020: 3bae 763f 83c4 753f 2ca2 753f d1bf 763f
00000030: cb07 783f 0d55 763f bafa 783f fbb2 763f

decoders.0.decoder_net.9.bias f4 [16]
-0.08571119 -0.09494778 -0.11199646 0.088046014 -0.089052565 0.09008334 0.11712289 0.15886208
0.051037315 0.141218 -0.04085421 -0.053611953 -0.08087359 -0.09001185 -0.09762714 -0.09387361
00000000: 5989 afbd fb73 c2bd 665e e5bd 7851 b43d
00000010: 3161 b6bd 9d7d b83d 20de ef3d beac 223e
00000020: 810c 513d 749b 103e be56 27bd 3598 5bbd
00000030: 0ea1 a5bd 2258 b8bd bdf0 c7bd cf40 c0bd

decoders.0.decoder_net.9.running_mean f4 [16]
0.066734806 0.06690566 0.06735954 0.054508068 0.060345884 0.06448114 0.062430628 0.064168215
0.06008522 0.060087435 0.059604317 0.066848196 0.06188889 0.06273922 0.064552665 0.057259865
00000000: 42ac 883d d605 893d ccf3 893d da43 5f3d
00000010: 3f2d 773d b00e 843d 42b7 7f3d a06a 833d
00000020: eb1b 763d 3e1e 763d a823 743d b5e7 883d
00000030: 347f 7d3d 6c7d 803d 3034 843d 5289 6a3d

decoders.0.decoder_net.9.running_var f4 [16]
0.00057352456 0.0011799634 0.00073318544 0.00070847187 0.00087938394 0.0010069497 0.0007498035 0.00092564005
0.00075451453 0.0009055015 0.00052563695 0.0009239004 0.0007782947 0.00077389076 0.0013549295 0.00062605005
00000000: 9558 163a 00a9 9a3a 3e33 403a beb8 393a
00000010: 7586 663a a0fb 833a 768e 443a a7a6 723a
00000020: 9dca 453a 2d5f 6d3a e6ca 093a e831 723a
00000030: 7906 4c3a eede 4a3a e497 b13a 821d 243a

decoders.0.decoder_net.10.weight f4 [16, 1, 3, 3]
-0.048034266 -0.09787411 0.013138074 -0.03591334 -0.17989099 -0.11111927 -0.100826316 -0.14959407
-0.24288698 -0.14580171 0.0828274 -0.103552245 -0.26443702 -0.11988178 -0.08193116 0.052532744
0.12116453 -0.03510559 -0.03276529 -0.12910561 0.105318695 -0.2032467 -0.25184977 -0.1274776
0.21354371 -0.29637936 -0.15363996 0.05410927 -0.099014804 0.2730758 0.1296325 0.067308135
0.11785897 -0.082591474 0.13289009 -0.15342414 -0.20158121 0.008770396 0.031471733 -0.072329514
-0.22064614 -0.25204727 -0.25816742 0.041120008 -0.012040743 0.11026037 0.2801592 0.0027805944
0.2068421 0.06328935 0.06772277 0.047296874 -0.0923984 -0.18272635 0.054381177 0.24846025
0.108945906 0.06421702 0.21567895 0.23484652 0.12814364 -0.19292194 -0.09309242 0.091184236
0.01757656 -0.09444648 0.09456434 0.24531876 -0.17966644 0.0026518821 0.22688065 -0.01710761
-0.05073415 0.13729581 -0.019320672 0.010331605 -0.004322203 -0.029623672 0.07536743 0.26323453
0.2699357 -0.20475765 0.24105923 0.049782485 0.16339597 0.27821207 -0.06295646 -0.24348663
0.13587448 0.191498 -0.28382996 0.13027138 0.0874248 -0.11323311 -0.1385247 0.24860482
-0.08461492 0.004143939 0.22610626 -0.21447612 0.14310753 0.11951555 -0.28908804 -0.013433384
-0.14619796 -0.25411654 -0.21126899 -0.07425695 -0.27490294 0.0020116374 -0.16035569 -0.25059474
-0.17802878 0.08063995 0.12322994 -0.114673465 -0.12398378 -0.21728852 0.05288519 -0.15892442
0.04210028 -0.25686938 -0.025973154 -0.25185147 -0.019363038 -0.015531596 0.027321016 0.021659743
0.17616236 -0.14657223 -0.21774216 0.13758379 -0.19388834 -0.29086882 -0.29206377 0.27970102
-0.10712781 -0.17740422 -0.04932842 0.005430555 0.09724362 -0.21012083 -0.2502276 0.27878207
00000000: 94bf 44bd 3972 c8bd 1441 573c de19 13bd
00000010: 5835 38be 8092 e3bd 077e cebd 302f 19be
00000020: 5db7 78be 0b4d 15be 69a1 a93d 3313 d4bd
00000030: 4a64 87be 9484 f5bd 86cb a7bd 932c 573d
00000040: 1c25 f83d e1ca 0fbd e634 06bd 4334 04be
00000050: 54b1 d73d e71f 50be 74f2 80be 7d89 02be
00000060: 34ab 5a3e 09bf 97be cb53 1dbe afa1 5d3d
00000070: 46c8 cabd 97d0 8b3e 62be 043e d9d8 893d
00000080: 0b60 f13d b825 a9bd 5714 083e 381b 1dbe
00000090: 4e6b 4ebe b5b1 0f3c 81e8 003d 7f21 94bd
000000a0: 10f1 61be 570c 81be 852e 84be 746d 283d
000000b0: 8946 45bc 30d0 e13d 0771 8f3e a23a 363b
000000c0: 6ace 533e d99d 813d 3cb2 8a3d 5eba 413d
000000d0: 5f3b bdbd 9e1c 3bbe ccbe 5e3d 5d6c 7e3e
000000e0: 081f df3d 3784 833d f1da 5c3e 9b7b 703e
000000f0: 1638 033e 548d 45be 3da7 bebd cdbe ba3d
00000100: b8fc 8f3c 286d c1bd f3aa c13d d734 7b3e
00000110: 7bfa 37be 33cb 2d3b 6753 683e 4225 8cbc
00000120: 9dce 4fbd 4697 0c3e 6346 9ebc e445 293c
00000130: 44a1 8dbb 58ad f2bc 3d5a 9a3d adc6 863e
00000140: 0335 8a3e fdab 51be 3bd8 763e b8e8 4b3d
00000150: 4651 273e d071 8e3e 51ef 80bd 8f54 79be
00000160: ae22 0b3e 0d18 443e 2952 91be dc65 053e
00000170: c60b b33d c3e6 e7bd 6bd9 0dbe 4392 7e3e
00000180: 964a adbd e1c9 873b 6688 673e a19f 5bbe
00000190: c88a 123e 92c4 f43d 5903 94be b217 5cbc
000001a0: ebb4 15be 901b 82be e656 58be 0714 98bd
000001b0: 14c0 8cbe add5 033b 4834 24be f44d 80be
000001c0: 2d4d 36be 8f26 a53d fb5f fc3d ecd9 eabd
000001d0: 35eb fdbd e280 5ebe 249e 583d 15bd 22be
000001e0: 5871 2c3d 6284 83be a7c5 d4bc adf2 80be
000001f0: 3c9f 9ebc 3c78 7ebc 53d0 df3c c66f b13c
00000200: e863 343e 0817 16be cdf7 5ebe c4e2 0c3e
00000210: aa8a 46be c2ec 94be 6289 95be f934 8f3e
00000220: d365 dbbd 74a9 35be 990c 4abd ccf2 b13b
00000230: aa27 c73d ea29 57be d51d 80be 86bc 8e3e

decoders.1.decoder_net.0.weight f4 [512, 2]
0.06176427 -0.11760121 0.73246634 -0.0318769 -0.013983937 0.40094584 0.1386658 -0.32594794
0.27570662 -0.13989195 0.05207335 -0.21010627 0.5867528 0.4975834 -0.21834245 -0.35703403
0.36294395 0.6444108 -0.525989 -0.725037 0.40221554 -0.3147305 0.013631123 0.7504567
-0.4914208 -0.5233878 -0.2750511 0.04370811 -0.4854784 0.62500095 -0.17515782 0.11219247
0.41776407 -0.47835788 -0.020856753 0.12121354 0.5572798 0.3179195 -0.22300807 -0.13931598
-0.15780349 -0.12694491 0.6375531 -0.23390257 -0.5157454 -0.64178073 -0.39432484 0.29840827
-0.560685 0.40793914 0.1564684 0.6688468 -0.58315563 -0.29041752 -0.4617194 -0.15506835
0.23346259 0.6206913 0.5475993 -0.21897 -0.30083087 -0.13633522 -0.20869628 -0.30967936
-0.14869651 0.6742503 -0.6213778 -0.17394511 -0.67568976 -0.055701025 0.38132286 -0.001792789
-0.56431645 -0.37039083 0.58734834 0.4105138 0.0700408 -0.13806993 -0.22312498 -0.32215637
0.008989815 -0.5752681 -0.45839632 -0.69443095 -0.22076714 0.13642599 -0.4647841 0.21639243
-0.48629498 -0.18966025 -0.096288875 -0.6425107 0.1440712 -0.43262348 0.2313219 0.1759066
0.013636999 -0.48551446 0.42800498 0.30060813 0.32834488 -0.34829178 -0.05340083 0.116959944
-0.26451507 0.2320405 0.6661895 -0.24925733 0.3634835 -0.39692363 0.52286303 0.5218646
0.34058842 -0.084791444 0.5161752 -0.3794528 0.62391317 -0.34229878 -0.42326242 -0.54462284
0.58657485 0.08968059 -0.3730014 -0.10990526 0.2581706 -0.58526003 0.35786897 -0.10354533
0.060052667 0.1474211 0.67365724 0.32745242 -0.2129192 0.036031775 -0.54340595 0.35001898
0.59150946 0.589378 0.4017595 -0.51609606 -0.5331244 -0.42708075 -0.6711929 -0.647701
0.042072542 -0.038162954 0.44966313 0.13026892 -0.65419567 -0.46375293 0.46894896 0.6428271
-0.06465351 -0.18902211 0.41518307 -0.16194916 -0.40969533 0.110396564 0.2784656 -0.37511614
-0.2889421 0.50348145 -0.39966118 0.20657758 -0.015757937 -0.5361961 -0.0012832443 -0.47420785
0.72336745 0.55707806 -0.35625935 0.31870338 -0.3271802 0.026266988 -0.34734824 0.6608373
0.3083959 -0.05952202 -0.47846982 0.46402264 0.47557378 0.55513394 0.31270847 -0.43557093
-0.6365866 0.45264506 0.11988432 0.65721935 0.08196102 -0.22287123 0.04236519 -0.64313966
0.4583662 -0.34225157 0.21359518 0.33452126 -0.6379387 0.4108308 -0.63226783 -0.20332664
0.10720085 0.6208915 0.41850957 0.6670042 0.2630157 -0.055471603 0.54987085 0.06498714
-0.086959 0.6486856 0.17222996 0.63007903 -0.07681185 0.70949733 0.26679385 0.31317168
-0.62670887 -0.13296957 0.38813847 -0.21682034 0.51844484 0.7007627 -0.062832214 0.3648978
0.28791478 0.025635144 -0.071609154 -0.19893926 -0.10846938 0.44664517 0.005285475 0.2761013
-0.42010364 0.5576767 -0.5113648 -0.5039954 0.30147386 0.21045645 0.21881281 0.61392146
0.05532475 -0.012764197 -0.18571076 -0.4352928 0.43508843 0.07626559 -0.3980073 0.6405836
0.0282949 -0.0023598731 -0.16477217 -0.61184096 0.33435926 0.468365 -0.024084242 -0.356183
00000000: 88fc 7c3d e7d8 f0bd ea82 3b3f 5a91 02bd
00000010: e21c 65bc c648 cd3e 68fe 0d3e a6e2 a6be
00000020: 6b29 8d3e d63f 0fbe dd4a 553d 1926 57be
00000030: 6e35 163f 40c3 fe3e 2a95 5fbe 2acd b6be
00000040: cad3 b93e 1bf8 243f 37a7 06bf 069c 39bf
00000050: 32ef cd3e 5b24 a1be 1355 5f3c ee1d 403f
00000060: 829b fbbe befc 05bf 7fd3 8cbe 4607 333d
00000070: a090 f8be 1000 203f 925c 33be 2ac5 e53d
00000080: 2ce5 d53e 53eb f4be c8db aabc ce3e f83d
00000090: e4a9 0e3f 58c6 a23e 3a5c 64be d9a8 0ebe
000000a0: 3d97 21be d9fd 01be ae36 233f 2884 6fbe
000000b0: e407 04bf be4b 24bf f2e4 c9be f8c8 983e
000000c0: 0d89 0fbf 66dd d03e 4139 203e 8b39 2b3f
000000d0: b049 15bf 9bb1 94be 7c66 ecbe 3dca 1ebe
000000e0: d110 6f3e a0e5 1e3f 782f 0c3f ac39 60be
000000f0: 8106 9abe 769b 0bbe 7ab4 55be 4b8e 9ebe
00000100: e643 18be ab9b 2c3f 9e12 1fbf ab1e 32be
00000110: 01fa 2cbf c226 64bd c03c c33e 04fc eaba
00000120: 0b77 10bf dea3 bdbe 765c 163f dd2e d23e
00000130: 8d71 8f3d 3462 0dbe e07a 64be aef1 a4be
00000140: 044a 133c c544 13bf ecb2 eabe 3ac6 31bf
00000150: c810 62be 41b3 0b3e 2ef8 edbe fa95 5d3e
00000160: a8fb f8be 4c36 42be 1a33 c5bd 957b 24bf
00000170: 6787 133e d380 ddbe a6df 6c3e dc20 343e
00000180: b86d 5f3c 5a95 f8be 7823 db3e 4fe9 993e
00000190: d21c a83e 4d53 b2be d4ba 5abd b288 ef3d
000001a0: 856e 87be 069c 6d3e 658b 2a3f 503d 7fbe
000001b0: 821a ba3e 9339 cbbe 5ada 053f eb98 053f
000001c0: 9b61 ae3e 23a7 adbd 0f24 043f a347 c2be
000001d0: c6b8 1f3f c941 afbe dab5 d8be 676c 0bbf
000001e0: c529 163f 75aa b73d 0afa bebe 0216 e1bd
000001f0: f02e 843e 9ad3 15bf 9a3a b73e 930f d4bd
00000200: c9f9 753d 8ff5 163e cd74 2c3f d8a7 a73e
00000210: 7e07 5abe 0e96 133d a71c 0bbf b035 b33e
00000220: 2a6d 173f 7ae1 163f 6cb3 cd3e df1e 04bf
00000230: d77a 08bf 54aa dabe 4cd3 2bbf bccf 25bf
00000240: 4254 2c3d c250 1cbd 3f3a e63e 3765 053e
00000250: 5e79 27bf 0671 edbe 141a f03e 5190 243f
00000260: 0f69 84bd 038f 41be e092 d43e 00d6 25be
00000270: 96c3 d1be 9817 e23d 0b93 8e3e 390f c0be
00000280: 38f0 93be 29e4 003f 64a0 ccbe 1389 533e
00000290: ca16 81bc 2644 09bf 8932 a8ba 5fcb f2be
000002a0: 9c2e 393f ab9c 0e3f a067 b6be 172d a33e
000002b0: 2a84 a7be de2d d73c a1d7 b1be a22c 293f
000002c0: 11e6 9d3e 5dcd 73bd fff9 f4be 6094 ed3e
000002d0: 687e f33e 421d 0e3f 531b a03e 2703 dfbe
000002e0: 57f7 22bf 18c1 e73e e985 f53d 873f 283f
000002f0: 2edb a73d 5b38 64be 1f87 2d3d cda4 24bf
00000300: f9ae ea3e 993b afbe b2b8 5a3e 5f46 ab3e
00000310: f34f 23bf 6a58 d23e 4edc 21bf dc34 50be
00000320: 1f8c db3d bff2 1e3f e346 d63e cac0 2a3f
00000330: fea9 863e 3136 63bd 56c4 0c3f fa17 853d
00000340: 8f17 b2bd 4210 263f 0d5d 303e dc4c 213f
00000350: 884f 9dbd 9ea1 353f 3499 883e 0a58 a03e
00000360: fe6f 20bf 2d29 08be 16ba c63e 2706 5ebe
00000370: cdb8 043f 2f65 333f 2dae 80bd e2d3 ba3e
00000380: 9169 933e cb00 d23c d2a7 92bd bcb6 4bbe
00000390: 3225 debd adae e43e c731 ad3b 265d 8d3e
000003a0: d317 d7be e6c3 0e3f cee8 02bf d805 01bf
000003b0: c85a 9a3e e581 573e 7710 603e f529 1d3f
000003c0: 349c 623d ec20 51bc f62a 3ebe b3de debe
000003d0: e9c3 de3e 2231 9c3d 9dc7 cbbe 49fd 233f
000003e0: b5ca e73c 1aa8 1abb 09ba 28be 9ca1 1cbf
000003f0: 2331 ab3e 8acd ef3e 514c c5bc 9e5d b6be

decoders.1.decoder_net.0.bias f4 [512]
0.38508004 -0.43260407 -0.19858032 0.30419412 0.33189383 0.42224672 0.11247826 -0.5663738
-0.31206006 -0.49461684 0.79539996 0.53027827 -0.6289527 0.26057675 -0.076824374 0.2963513
0.4370152 0.5637583 -0.28345147 -0.0978768 0.14306267 0.39153254 0.48428288 -0.14195609
0.099232 0.7196472 -0.13329986 -0.37203333 -0.6257407 -0.27820066 -0.3977737 0.5483631
-0.40659088 -0.51322913 -0.41812468 0.6148033 -0.591986 0.57411546 -0.43754685 0.082469255
-0.6387858 0.16514315 -0.48035157 0.4104693 -0.19769429 0.46172753 0.6508619 0.026998343
0.5760933 -0.33679324 -0.4267243 -0.28541923 0.11350589 -0.5125633 0.373776 -0.5187872
-0.71234393 -0.1973078 0.11269984 -0.03765932 -0.051694643 -0.5646149 0.35654214 0.34817302
0.2219698 -0.3723917 0.594501 -0.2049824 0.15123105 0.015335295 -0.11659565 0.3517038
-0.040270835 -0.48382503 -0.083013386 -0.72273475 -0.55289537 0.28133476 -0.5959952 -0.49627253
0.08059534 0.21997781 0.5181429 -0.7242378 0.08933808 0.45067468 -0.56506187 0.49339774
0.107476465 -0.67112815 -0.38916025 -0.044666342 0.64494526 -0.040683962 0.6178709 0.38234097
-0.1915281 0.064737506 -0.08080628 -0.13550445 -0.22926392 0.50784516 -0.46220613 0.46340588
0.34034806 0.40119445 0.049108576 -0.123838924 0.41916218 0.374885 0.088693045 -0.3923901
-0.1846552 -0.30345207 -0.48778453 -0.4786238 0.012175526 0.035050552 -0.65385705 -0.1117582
-0.64518785 0.44290927 -0.3903542 0.36216092 -0.1384309 0.71234685 -0.58771825 -0.01871307
-0.5877613 -0.1234781 0.70967394 -0.63124424 0.5155509 0.18245393 -0.77399117 0.17262931
-0.4516277 0.31805947 0.48157948 -0.7087209 0.5066196 0.09596889 0.05099072 0.37513277
-0.49719113 -0.6878398 0.64525753 0.41346824 0.52312624 -0.19776738 0.6315213 -0.3233742
0.43682173 0.7410399 0.05314417 -0.406531 -0.0057860087 -0.03849792 0.24122223 0.335807
0.16514914 -0.38333255 -0.14774886 -0.28774256 0.6826388 -0.6686 -0.44929966 -0.086842984
-0.35545975 0.6096871 -0.21251036 0.4385424 -0.48101777 0.40330827 0.6297821 -0.16411828
-0.49676993 0.06310765 -0.46339676 -0.09651949 0.13749416 0.0162219 0.56269914 0.55491805
0.07143675 0.6581544 0.03331511 -0.47383204 0.3490091 0.49339503 0.6927478 0.7266628
-0.3146606 -0.5686532 0.053397764 0.5238658 -0.27963257 0.08230042 -0.3679334 0.33141896
0.42594936 0.115481466 -0.38596016 -0.19605967 0.66608036 0.37632185 -0.12516415 -0.37513295
-0.1756379 0.010812406 -0.47450152 -0.7032645 0.40054438 -0.22337002 0.21094346 0.21926253
0.43902707 0.22658747 -0.1469955 0.31848583 -0.43006235 0.56077594 -0.43601298 -0.5513438
-0.5434946 0.22758345 0.32877642 -0.6716733 -0.19463171 -0.55203074 0.049522713 -0.67517227
0.011736085 -0.62418425 0.061278988 0.67280275 -0.2507019 -0.022928538 0.356585 -0.49054164
-0.2394467 0.562825 -0.3291546 -0.41117933 -0.031188628 0.44705626 0.005999243 -0.5099204
-0.61776346 -0.71009415 -0.4228502 -0.027636595 -0.5796939 -0.17810553 0.21770036 0.03502793
00000000: 3629 c53e 487e ddbe a458 4bbe 55bf 9b3e
00000010: fded a93e b930 d83e 015b e63d e0fd 10bf
00000020: 56c6 9fbe 6b3e fdbe 559f 4b3f 51c0 073f
00000030: 0b03 21bf 516a 853e 1956 9dbd 5cbb 973e
00000040: 75c0 df3e 7752 103f 8d20 91be a273 c8bd
00000050: 057f 123e f476 c83e edf3 f73e f05c 11be
00000060: 263a cb3d cd3a 383f c27f 08be 277b bebe
00000070: 8b30 20bf 5170 8ebe ffa8 cbbe 8661 0c3f
00000080: ae2c d0be fc62 03bf 7014 d6be c063 1d3f
00000090: 658c 17bf 3bf9 123f 2406 e0be a4e5 a83d
000000a0: 7787 23bf 491b 293e a4f0 f5be 0829 d23e
000000b0: 5f70 4abe 8d67 ec3e e39e 263f a12b dd3c
000000c0: da7a 133f 2a70 acbe 9c7b dabe 7822 92be
000000d0: c775 e83d 5937 03bf 915f bf3e 3dcf 04bf
000000e0: 2c5c 36bf 0e0b 4abe 2ccf e63d a940 1abd
000000f0: c3bd 53bd 9a8a 10bf b18c b63e bc43 b23e
00000100: 0d4c 633e 20aa bebe 3831 183f e8e6 51be
00000110: 50dc 1a3e e440 7b3c b3c9 eebd 8512 b43e
00000120: 08f3 24bd eab7 f7be ec02 aabd 2505 39bf
00000130: 8d8a 0dbf 1c0b 903e 2493 18bf 6f17 febe
00000140: 2b0f a53d dd41 613e 03a5 043f a667 39bf
00000150: e2f6 b63d d5be e63e e5a7 10bf a19e fc3e
00000160: 9f1c dc3d 0ecf 2bbf 0340 c7be 0ef4 36bd
00000170: 221b 253f 3aa4 26bd ca2c 1e3f 32c2 c33e
00000180: f11f 44be 1995 843d c37d a5bd aec1 0abe
00000190: 29c4 6abe 2402 023f 48a6 ecbe 8943 ed3e
000001a0: 1a42 ae3e 5c69 cd3e 1326 493d 439f fdbd
000001b0: 6d9c d63e edf0 bf3e b3a4 b53d 5be7 c8be
000001c0: 4116 3dbe 125e 9bbe e5be f9be 2e0e f5be
000001d0: db7b 473c 2b91 0f3d 2d63 27bf 7ce1 e4bd
000001e0: 082b 25bf 01c5 e23e 81dc c7be 286d b93e
000001f0: d4c0 0dbe 5d5c 363f b474 16bf 274c 99bc
00000200: 8677 16bf 16e2 fcbd 31ad 353f 3999 21bf
00000210: 25fb 033f 34d5 3a3e 4924 46bf bdc5 303e
00000220: bf3b e7be b1d8 a23e 9691 f63e bc6e 35bf
00000230: d2b1 013f 568b c43d a5db 503d 6711 c03e
00000240: d68f febe 4516 30bf 992f 253f 1cb2 d33e
00000250: 9aeb 053f 8883 4abe 61ab 213f 4e91 a5be
00000260: 19a7 df3e cab4 3d3f b4ad 593d d524 d0be
00000270: 8f98 bdbb ffaf 1dbd f602 773e e5ee ab3e
00000280: db1c 293e 2a44 c4be 7a4b 17be fe52 93be
00000290: 6bc1 2e3f 5f29 2bbf 9b0a e6be bcda b1bd
000002a0: d2fe b5be 7414 1c3f 519c 59be a188 e03e
000002b0: f647 f6be 6c7e ce3e 6639 213f 9f0e 28be
000002c0: a158 febe 953e 813d 5742 edbe 03ac c5bd
000002d0: 45cb 0c3e cae3 843c 0d0d 103f 1c0f 0e3f
000002e0: 6e4d 923d cf7c 283f 6d75 083d 1d9a f2be
000002f0: 52b1 b23e 469e fc3e eb57 313f 9306 3a3f
00000300: 321b a1be 4293 11bf 9db7 5a3d 121c 063f
00000310: 002c 8fbe 1f8d a83d c461 bcbe bfaf a93e
00000320: 0916 da3e 8c81 ec3d 929c c5be dec3 48be
00000330: 3e84 2a3f 42ad c03e 082b 00be 6d11 c0be
00000340: 6cda 33be 8526 313c ddf1 f2be 2409 34bf
00000350: 2714 cd3e 1cbb 64be 9001 583e 5b86 603e
00000360: 28c8 e03e 8c06 683e fd85 16be 9310 a33e
00000370: 2231 dcbe 038f 0f3f 183d dfbe de24 0dbf
00000380: 7622 0bbf a30b 693e 6255 a83e c8f2 2bbf
00000390: 894d 47be e351 0dbf 54d8 4a3d 17d8 2cbf
000003a0: b548 403c 8aca 1fbf adff 7a3d cd3c 2c3f
000003b0: 005c 80be a1d4 bbbc 4f92 b63e 4628 fbbe
000003c0: 8431 75be 4d15 103f f486 a8be 1986 d2be
000003d0: 4b7f ffbc 8fe4 e43e 4c95 c43b 258a 02bf
000003e0: bf25 1ebf bbc8 35bf d27f d8be 2466 e2bc
000003f0: d266 14bf 4c61 36be d8ec 5e3e 7279 0f3d
