Project2/models/model_3_4.pt (torch, 285381 bytes, 75 tensors)

prior.mean f4 [2]
0	0x00000000	0.0
1	0x00000000	0.0

prior.std f4 [2]
0	0x3f800000	1.0
1	0x3f800000	1.0

decoders.0.decoder_net.0.weight f4 [512, 2]
0	0xbe5aa959	-0.21353664
1	0x3ece6fbe	0.40319628
2	0xbcf83ad7	-0.030301495
3	0x3d1982ae	0.03747814
4	0x3efe1210	0.49623156
5	0xbe0db08f	-0.13836883
6	0xbeb7b368	-0.35879064
7	0x3efa5e17	0.4889991
8	0xbf211dbd	-0.62936
9	0xbead1abe	-0.33809465
10	0xbd9f1a39	-0.077686734
11	0x3e54bb4a	0.2077457
12	0x3f04ddbf	0.5190086
13	0x3f1c3eb1	0.6103316
14	0xbf0f862b	-0.560641
15	0x3ec40c3f	0.38290593
16	0x3ec6a23c	0.3879565
17	0x3ddd1d00	0.10796547
18	0x3f01c0c7	0.5068478
19	0x3e9c6d3d	0.30552092
20	0xbf0f5a6c	-0.5599735
21	0xbf427d29	-0.7597223
22	0x3edc937e	0.43081278
23	0xbf1af8f8	-0.60536146
24	0xbf04c089	-0.51856285
25	0x3ee95789	0.45574597
26	0x3f1299a3	0.5726568
27	0x3ec1151d	0.3771142
28	0xbe28e4dc	-0.16493553
29	0xbf17da1b	-0.5931718
30	0xbf18dd76	-0.5971292
31	0xbee55572	-0.44791752
32	0xbe3a58a1	-0.18197872
33	0x3f0abbb7	0.5419268
34	0x3e5f6441	0.21815588
35	0x3eb6b247	0.3568289
36	0xbf325c84	-0.6967242
37	0x3eec62ac	0.4616903
38	0xbeb34200	-0.35011292
39	0xbe5027a1	-0.20327617
40	0x3f2328c8	0.637341
41	0x3e0b97e3	0.13632159
42	0x3f1ca95a	0.6119591
43	0xbf13f4a6	-0.5779518
44	0x3e41c664	0.18923336
45	0xbef47875	-0.4774815
46	0x3eb2638d	0.34841576
47	0xbdcde3a3	-0.10053184
48	0x3ed0375b	0.40667233
49	0x3ef1fd84	0.4726373
50	0xbe7acf1a	-0.24493065
51	0x3e1b6dae	0.15178558
52	0x3d0c039c	0.03418313
53	0xbd94f539	-0.07273335
54	0x3da1d523	0.07901981
55	0x3ef35fb4	0.47533953
56	0x3f281ad3	0.6566593
57	0xbe10e60b	-0.14150254
58	0xbeff7a26	-0.4989788
59	0x3e15a211	0.14612605
60	0x3e76a6fd	0.24087138
61	0xbeda720a	-0.4266513
62	0x3ebac0aa	0.36475116
63	0x3f23e006	0.6401371
64	0x3e36db7c	0.17857164
65	0x3dedb7ca	0.116073206
66	0x3eeda372	0.4641376
67	0x3dc444c5	0.09583429
68	0xbe0456bd	-0.12923713
69	0xbf194ed2	-0.59885895
70	0xbe4a77ce	-0.19772264
71	0x3e10ef12	0.14153698
72	0xbeea45a0	-0.45756245
73	0xbe3c573e	-0.18392655
74	0xbec41310	-0.38295794
75	0xbea81c1f	-0.32833955
76	0x3f02f640	0.51157
77	0x3ed4eac2	0.41585356
78	0xbe66626f	-0.22498487
79	0xbe30ca5a	-0.17264691
80	0x3ea92b7b	0.33040985
81	0x3d623c25	0.05523314
82	0x3ec671e6	0.38758773
83	0x3d8311aa	0.063998535
84	0xbf2ed7e3	-0.68298167
85	0x3f2aeab0	0.66764355
86	0x3e1aeb77	0.15128885
87	0x3eff1819	0.49823073
88	0xbec66b67	-0.38753816
89	0x3db2fccb	0.08739623
90	0x3c9217d8	0.017833635
91	0xbf03565d	-0.51303655
92	0x3cd4b224	0.02596385
93	0x3f17aca1	0.59247786
94	0x3e0d2f20	0.13787508
95	0x3f14ad31	0.5807677
96	0xbefead87	-0.49741766
97	0x3e9608cb	0.29303584
98	0xbf13524e	-0.5754746
99	0xbe886539	-0.26639727
100	0x3e11ecf4	0.14250547
101	0xbd03f889	-0.032219443
102	0xbf07b0f0	-0.5300436
103	0x3e801919	0.25019148
104	0xbd433b91	-0.04766423
105	0xbeb29c73	-0.34884986
106	0x3e993efe	0.29930872
107	0x3d84ac1d	0.064781405
108	0xbf3587b0	-0.7091017
109	0xbe865365	-0.262355
110	0xbee70f49	-0.4512885
111	0x3e6d8645	0.23195751
112	0x3d963cb3	0.07335796
113	0x3e7b4624	0.24538475
114	0xbf154267	-0.58304447
115	0x3d39d4b5	0.04536887
116	0x3e96f3a2	0.29482752
117	0x3e24f458	0.16108835
118	0x3f0a4b43	0.5402109
119	0x3eecde6d	0.46263447
120	0x3ee3dcf6	0.44504517
121	0x3eed632e	0.4636473
122	0xbefa18c2	-0.48847014
123	0x3ecf6b80	0.40511703
124	0x3e511c19	0.20420875
125	0x3ea973d5	0.33096185
126	0xbeb7f9bb	-0.35932717
127	0xbec68041	-0.38769725
128	0x3ea2d720	0.31804752
129	0xbee4aff7	-0.446655
130	0x3ed6e8ac	0.4197439
131	0xbed2eb3e	-0.411951
132	0x3e083c65	0.13304289
133	0x3f6346a2	0.8877965
134	0x3f2ae535	0.6675599
135	0xbf28e4c4	-0.6597407
136	0xbe8abf47	-0.27099058
137	0xbeae240d	-0.3401188
138	0x3dc737e3	0.097274564
139	0x3f166ab0	0.5875654
140	0xbe625f58	-0.22106683
141	0x3eb9c0f2	0.36280018
142	0xbe0e9792	-0.13925007
143	0xbeff103e	-0.4981708
144	0x3f2035b8	0.6258197
145	0x3e2e5cbe	0.17027566
146	0x3ea2ae0b	0.3177341
147	0xbc92803f	-0.017883418
148	0x3d857c9f	0.0651791
149	0x3e12aa71	0.1432283
150	0xbf182bb7	-0.59441704
151	0xbf2b0d28	-0.6681695
152	0x3f37b03b	0.7175328
153	0xbe4d2fba	-0.20037737
154	0x3f1cd29d	0.6125887
155	0xbf2e2b3b	-0.68034714
156	0xbf0e5ed5	-0.5561345
157	0xbec5df04	-0.3864671
158	0x3f328f62	0.69750035
159	0xbf27ff29	-0.6562372
160	0x3e0747fa	0.1321105
161	0x3f026c00	0.50946045
162	0x3e3ffe41	0.18749334
163	0xbe9f13f5	-0.31069914
164	0xbe02dc24	-0.1277929
165	0xbf1fcce3	-0.6242201
166	0x3e9f72a1	0.31142142
167	0xbe936c69	-0.28793648
168	0x3d93bcc6	0.0721374
169	0x3e846fa0	0.25866413
170	0xbf16ad17	-0.58857864
171	0xbe470753	-0.19436388
172	0xbf39875d	-0.7247217
173	0x3f355390	0.7083063
174	0xbed97a71	-0.42476228
175	0x3de95b47	0.11394363
176	0x3e3caf8b	0.1842634
177	0x3de85d57	0.11345928
178	0xbe5384e2	-0.2065616
179	0x3e70832b	0.23487537
180	0x3f043b16	0.5165266
181	0x3d8c8930	0.06862104
182	0x3d98b476	0.07456295
183	0x3edf7f3b	0.43651757
184	0x3f15c397	0.5850157
185	0x3e958260	0.2920103
186	0xbcbf415b	-0.023346594
187	0x3de01a59	0.109425254
188	0x3e3c2c79	0.1837634
189	0xbd0038a7	-0.031304028
190	0xbf2f9e4a	-0.68600905
191	0xbf178cc2	-0.59199154
192	0xbd865fca	-0.06561239
193	0xbc318fd1	-0.010837511
194	0x3e9db2f3	0.3080059
195	0x3f041acb	0.5160338
196	0xbedbf9b2	-0.4296394
197	0x3f16690d	0.58754045
198	0x3ef8424d	0.48488083
199	0x3effb02d	0.499391
200	0x3dafaeb0	0.08578241
201	0x3e13b8cd	0.14425965
202	0xbe6f7fb9	-0.23388566
203	0x3efd708f	0.49499938
204	0x3f2e58b0	0.68104076
205	0xbe699ae4	-0.22812992
206	0x3e60bb5a	0.21946469
207	0x3f4ce043	0.80029696
208	0x3e99a364	0.3000747
209	0xbe46dc0f	-0.19419883
210	0x3e615d13	0.22008161
211	0x3f0d2e3d	0.5514868
212	0x3ef3c62a	0.47612125
213	0x3e7deda2	0.24797681
214	0x3bc9fd8d	0.006164259
215	0x3ebada44	0.36494648
216	0xbeb77a2a	-0.3583539
217	0x3ea76dc9	0.32700947
218	0xbe8a0664	-0.26958
219	0xbea18b46	-0.3155157
220	0xbe630ea8	-0.2217356
221	0xbe8c8994	-0.27448714
222	0x3f0d091a	0.5509201
223	0xbe6e7603	-0.23287205
224	0xbe4a4b85	-0.19755371
225	0xbee2b5b8	-0.44279265
226	0xbee2ed1d	-0.44321528
227	0x3a8c7b50	0.0010717902
228	0x3f15938f	0.5842828
229	0x3f05d54d	0.52278596
230	0x3f2978fb	0.66200227
231	0x3e99e905	0.30060592
232	0x3f37c7e9	0.71789414
233	0x3e4f0537	0.20216833
234	0x3c92f9d1	0.017941387
235	0x3f28a9fd	0.6588438
236	0x3f2fd3c7	0.6868252
237	0x3e392023	0.18078665
238	0x3df61966	0.12016563
239	0x3efbe201	0.49195865
240	0x3c0a1a2b	0.0084290905
241	0x3eef7aec	0.4677347
242	0x3f1e83b1	0.61919695
243	0x3f032b85	0.5123828
244	0x3e8a5d1a	0.27024156
245	0x3f0c7402	0.54864514
246	0x3df8997d	0.121386506
247	0x3d741d07	0.059597995
248	0x3f0be611	0.5464793
249	0xbf02a3f1	-0.51031405
250	0x3f1ca8ce	0.61195076
251	0x3f05561d	0.52084523
252	0xbe80fea8	-0.25194287
253	0xbef97334	-0.48720706
254	0x3ea38f64	0.31945336
255	0x3f2467a2	0.6422063

decoders.0.decoder_net.0.bias f4 [512]
0	0x3e90ceaf	0.28282687
1	0x3e1d3205	0.15351112
2	0xbf01531e	-0.5051745
3	0xbe4ba8a4	-0.1988855
4	0xbdedba2b	-0.11607774
5	0xbee57412	-0.44815117
6	0x3e97edf8	0.29673743
7	0xbf2c1df9	-0.67233235
8	0x3e2e4faf	0.17022584
9	0x3f1420dd	0.57862645
10	0x3f29e872	0.6637031
11	0x3e264dc1	0.16240598
12	0xbe3e699f	-0.18594979
13	0x3e6ce416	0.23133883
14	0x3efacef9	0.48986033
15	0xbf2f0e4b	-0.68381184
16	0x3e02b98d	0.12766095
17	0xbda04020	-0.07824731
18	0x3e9efd3b	0.31052575
19	0x3e0938a8	0.13400519
20	0x3f0d3da1	0.55172163
21	0x3eb74707	0.35796377
22	0xbe0c407e	-0.13696477
23	0xbe90ca00	-0.28279114
24	0x3d4b9f3f	0.049712416
25	0xbe9b4086	-0.30322665
26	0x3f0a654a	0.54060805
27	0x3f2637a5	0.64928657
28	0xbe1970c7	-0.14984427
29	0xbec992c0	-0.39369774
30	0x3d4a531f	0.049395677
31	0x3d4e283a	0.05033133
32	0x3c825b10	0.015912563
33	0xbf39f35b	-0.72636956
34	0x3d913205	0.070896186
35	0x3e2dee78	0.169855
36	0xbec73437	-0.38907024
37	0xbefcd790	-0.4938321
38	0xbd83fc34	-0.06444588
39	0x3e46c593	0.19411306
40	0xbcbe587a	-0.023235548
41	0xbf31c010	-0.6943369
42	0x3f0a05af	0.5391492
43	0xbe20d1d6	-0.15705046
44	0x3f15f4fc	0.5857694
45	0x3e11e0bd	0.14245887
46	0xbe3f366e	-0.18673107
47	0xbe135c36	-0.14390644
48	0x3da5180b	0.080612265
49	0xbf0d7d07	-0.552689
50	0xbe4b9ec0	-0.19884777
51	0x3e6e2a82	0.23258403
52	0xbdf963e0	-0.12177253
53	0x3f0d4fe1	0.5520001
54	0x3e434cdb	0.19072287
55	0x3ed2aca1	0.4114733
56	0x3f1e68b6	0.61878526
57	0x3f034f82	0.51293194
58	0xbe635ddb	-0.22203772
59	0xbe8d8db7	-0.27647182
60	0x3f189f20	0.59617805
61	0xbf32e195	-0.6987546
62	0x3f0ab1c6	0.5417751
63	0x3ef8eb41	0.48616984
64	0xbf15841c	-0.5840471
65	0xbedcbe29	-0.4311383
66	0xbea2e604	-0.31816113
67	0x3bc57b5e	0.0060266694
68	0x3f1ac658	0.604589
69	0x3f0bb97f	0.5457992
70	0x3dab4ffb	0.083648644
71	0xbeaac2bd	-0.333517
72	0xbe03a2ed	-0.1285512
73	0xbf08216d	-0.53176004
74	0xbe28e1fc	-0.16492456
75	0xbe2f2cee	-0.17106983
76	0xbe17238f	-0.14759658
77	0xbf051c65	-0.5199645
78	0xbf1e33bf	-0.6179771
79	0x3ef1a18f	0.47193572
80	0x3de81721	0.113325365
81	0xbe1c72f0	-0.1527822
82	0xbee888c7	-0.45416853
83	0xbefce53b	-0.4939364
84	0x3c8824d8	0.016619131
85	0x3ec7c2c6	0.39015788
86	0x3e028a18	0.12747991
87	0x3e3f0a47	0.18656264
88	0x3e7bcbf7	0.24589525
89	0x3f0f76ec	0.56040835
90	0xbea0aff7	-0.3138425
91	0x3eda1c53	0.42599735
92	0xbe1d0995	-0.15335687
93	0xbe4b50ea	-0.19855085
94	0x3e2c30dc	0.16815513
95	0x3da98370	0.08277023
96	0xbef1aaab	-0.47200522
97	0x3e60907e	0.2193012
98	0xbe2cbbff	-0.1686859
99	0x3ec73a9c	0.38911903
100	0xbea442aa	-0.3208211
101	0xbeda5276	-0.42641038
102	0xbf25dfdb	-0.647947
103	0xbe781809	-0.24227919
104	0xbf3e75fd	-0.74398786
105	0xbe4ecbeb	-0.20194976
106	0x3f35b493	0.7097866
107	0x3deb01dc	0.11474964
108	0xbe584979	-0.21121778
109	0xbf042a79	-0.5162731
110	0xbf218b79	-0.63103443
111	0xbce7adfa	-0.0282812
112	0x3e5e164e	0.21688196
113	0xbee112fe	-0.43959802
114	0xbf1da3d4	-0.61578107
115	0xbe4312e5	-0.19050176
116	0x3ed23d89	0.41062573
117	0xbe1b55af	-0.15169404
118	0x3ed50fdc	0.41613662
119	0xbf232fd2	-0.63744843
120	0x3e89e66b	0.26933607
121	0xbe35c9b0	-0.17752719
122	0xbec07495	-0.37588945
123	0xbd9e160c	-0.07719049
124	0xbe7f79cb	-0.24948804
125	0xbf2c29a4	-0.6725104
126	0x3f06a6dd	0.52598363
127	0xbf1fe254	-0.62454724
128	0x3dbbaccb	0.09163817
129	0x3e6b5489	0.22981466
130	0xbf29548b	-0.6614463
131	0xbd9d3bb1	-0.07677401
132	0xbf307e5e	-0.6894282
133	0x3e6909fb	0.22757713
134	0xbf230de3	-0.63693064
135	0x3f21dc38	0.6322665
136	0xbed9b51b	-0.42520985
137	0x3e9f3d0c	0.31101263
138	0x3dfa349a	0.12217064
139	0x3ded2417	0.11579149
140	0xbf110a81	-0.5665665
141	0x3f0623fe	0.5239867
142	0x3db4ad1a	0.08822079
143	0x3b0010fb	0.001954137
144	0xbde25f64	-0.110533506
145	0x3f0c315d	0.5476282
146	0x3eb5cca4	0.3550769
147	0x3dc369c3	0.09541657
148	0x3ea625d9	0.3245075
149	0xbec42248	-0.38307405
150	0xbf1c88ca	-0.61146224
151	0xbcff8ba0	-0.031194508
152	0x3e843af2	0.25826222
153	0x3dee2a2e	0.11629139
154	0x3e9b7bbb	0.30367836
155	0xbf16e42b	-0.58941907
156	0xbea4b271	-0.3216739
157	0xbf2f3580	-0.6844101
158	0x3e8f115d	0.27942935
159	0xbe3cca0c	-0.1843645
160	0x3f0d121b	0.5510575
161	0xbe17a260	-0.14808035
162	0xbf2212ae	-0.6330975
163	0x3e9828e2	0.2971869
164	0xbec40520	-0.3828516
165	0x3f1effdf	0.6210918
166	0xbde499dc	-0.11162159
167	0xbd32aceb	-0.04362194
168	0x3ecd5f8f	0.40111968
169	0x3e2d8c50	0.16948056
170	0xbf2de4d8	-0.6792731
171	0xbec70f1a	-0.3887871
172	0xbeb8bb5b	-0.3608044
173	0x3f0c452a	0.54793036
174	0xbeeaeb62	-0.45882708
175	0x3eca56c3	0.3951932
176	0xbe966d0e	-0.29380077
177	0x3e9ed4ac	0.3102163
178	0xbedd7d98	-0.43259883
179	0x3e3a0257	0.18164955
180	0x3f2aef7b	0.6677167
181	0xbec4c2a5	-0.38429752
182	0xbf0ca939	-0.54945713
183	0x3ebb0375	0.36526075
184	0x3f1eeb42	0.62077725
185	0x3f1fb2ff	0.623825
186	0x3cde092c	0.027103983
187	0xbe826313	-0.25466213
188	0xbe1699b1	-0.14707066
189	0x3dd3d590	0.10343468
190	0xbec75458	-0.38931537
191	0xbeaa25bd	-0.33231917
192	0x3f12e9d2	0.5738803
193	0x3e8bd3f5	0.27310148
194	0x3d6ec2a8	0.058291107
195	0x3f0d7c75	0.5526803
196	0xbe958a52	-0.29207093
197	0xbeea3891	-0.45746282
198	0xbdabc636	-0.08387415
199	0x3e932c54	0.28744757
200	0xbf270d4c	-0.65254664
201	0x3ba2b51a	0.0049654366
202	0x3f0bdca7	0.54633564
203	0x3f0a683f	0.54065317
204	0x3c8241dc	0.015900545
205	0x3e309d82	0.17247584
206	0x3ef54604	0.4790498
207	0x3f3665e6	0.71249235
208	0xbca0be2a	-0.019621927
209	0x3e034695	0.12819894
210	0xbed675ce	-0.41886753
211	0x3e53b3e3	0.2067409
212	0xbe0dd9a5	-0.13852556
213	0x3f2bc3c9	0.6709562
214	0x3e670d68	0.22563708
215	0x3ca03320	0.019555628
216	0xbed8ea9d	-0.42366496
217	0x3f0db28c	0.55350566
218	0xbef2d43c	-0.47427547
219	0x3de77749	0.11302049
220	0xbc2b3d05	-0.01045156
221	0x3e0089a6	0.12552509
222	0x3f3c2902	0.7350007
223	0xbd6a9919	-0.05727491
224	0x3e84bea8	0.2592671
225	0xbeda9df1	-0.42698625
226	0x3ea85125	0.32874408
227	0x3ee88994	0.45417464
228	0xbdc7d9e9	-0.0975836
229	0x3f28617b	0.65773743
230	0xbe2a524a	-0.16632953
231	0xbee73ba3	-0.45162687
232	0xbda8daa2	-0.08244826
233	0xbd2ab497	-0.04167613
234	0x3eb6ab17	0.35677406
235	0x3e680f3b	0.2266206
236	0x3dccaded	0.09994111
237	0xbebdbeae	-0.3705954
238	0x3e42a23f	0.19007204
239	0x3ee9e8c4	0.456854
240	0xbee02870	-0.4378085
241	0xbea7b57f	-0.32755658
242	0xbeb74e5f	-0.3580198
243	0x3f05302d	0.52026635
244	0xbe52aadf	-0.20572995
245	0x3dafe0bb	0.08587786
246	0x3f15f33a	0.5857426
247	0x3f1cebfb	0.6129758
248	0xbf10c112	-0.565446
249	0x3eb0b6f3	0.3451458
250	0x3e49eb8a	0.19718757
251	0xbec0409f	-0.37549302
252	0xbe842b25	-0.25814167
253	0xbe8c9306	-0.2745592
254	0xbefd6029	-0.49487427
255	0x3eac81a0	0.33692646

decoders.0.decoder_net.3.weight f4 [32]
0	0x3f8380a0	1.0273628
1	0x3f821c87	1.0164956
2	0x3f8028df	1.0012473
3	0x3f7e4a4e	0.9933213
4	0x3f7e1f54	0.9926655
5	0x3f7ce6b2	0.98789513
6	0x3f7db582	0.99105084
7	0x3f7a71f5	0.97830135
8	0x3f793b06	0.9735569
9	0x3f8007ae	1.0002344
10	0x3f79c7a5	0.9757026
11	0x3f77ceb1	0.9679976
12	0x3f7f2b7d	0.9967573
13	0x3f7cbeb9	0.9872852
14	0x3f788013	0.97070426
15	0x3f762af8	0.96159315
16	0x3f8197c3	1.0124439
17	0x3f8424fb	1.0323786
18	0x3f8072ed	1.0035073
19	0x3f848449	1.035287
20	0x3f7978f2	0.9745017
21	0x3f8477f2	1.0349104
22	0x3f7ed09d	0.9953707
23	0x3f72d046	0.9484905
24	0x3f7f2b91	0.9967585
25	0x3f807428	1.0035448
26	0x3f83a9d4	1.0286202
27	0x3f75dad4	0.9603703
28	0x3f7df4cb	0.9920165
29	0x3f7f002c	0.9960964
30	0x3f7a050f	0.9766397
31	0x3f82205b	1.0166124

decoders.0.decoder_net.3.bias f4 [32]
0	0x3c0780e4	0.008270476
1	0xbc100332	-0.008789824
2	0xbca540ad	-0.020172441
3	0x3cac21b8	0.021012172
4	0xbbfb4c44	-0.0076690037
5	0x3cb37ce3	0.021910137
6	0x3ca94911	0.020664724
7	0xbcceeb24	-0.025258608
8	0x3bb360fe	0.005474209
9	0x3cb0ca61	0.021580877
10	0x3bf8843b	0.0075841225
11	0xbceacb64	-0.028661437
12	0xbc722df1	-0.014781461
13	0x3ca057a9	0.01957305
14	0xbc345e04	-0.011008743
15	0xbc848398	-0.01617603
16	0x3c82fa8a	0.015988607
17	0x3b964f43	0.0045870855
18	0x3cbca769	0.023029046
19	0x3cf08f2d	0.029365147
20	0x3d7695e6	0.060201548
21	0x3cbfb84f	0.023403315
22	0x3cdcba63	0.026944345
23	0x3c5458a4	0.012960587
24	0xbb55c0dd	-0.0032616176
25	0xbd1d37b7	-0.038383212
26	0xbd28801e	-0.041137807
27	0x3c81af8b	0.015830776
28	0xbd1e5a84	-0.03866054
29	0x3cd3f3a2	0.02587301
30	0x3c5ff70a	0.013669739
31	0x3bec03c7	0.0072025987

decoders.0.decoder_net.3.running_mean f4 [32]
0	0x3cfb5b1e	0.030683096
1	0x3d04c07a	0.032410122
2	0x3cf409de	0.029789861
3	0x3d52094e	0.051278405
4	0x3c83643c	0.016039006
5	0x3d19bfc7	0.03753641
6	0x3c85cbee	0.016332593
7	0x3c522e90	0.012828484
8	0x3cfdbb3b	0.030973068
9	0x3cc97e3f	0.024596332
10	0x3d0d54f8	0.03450486
11	0x3d113112	0.035447188
12	0x3d0b744a	0.03404645
13	0x3cde85ee	0.027163472
14	0x3cb32574	0.021868445
15	0x3d111469	0.035419855
16	0x3ce9e48c	0.028551362
17	0x3ce07850	0.02740112
18	0x3d227d8a	0.039670505
19	0x3ccae0cb	0.024765393
20	0x3cdb8ff4	0.02680204
21	0x3ccc860d	0.024966264
22	0x3d210f4e	0.039321236
23	0x3d19011f	0.037354585
24	0x3d18de06	0.037321113
25	0x3ca14545	0.01968635
26	0x3d2aed2b	0.041730087
27	0x3d28c2e5	0.04120149
28	0x3cf92fe5	0.030418346
29	0x3cec1640	0.028819203
30	0x3d3c8ae1	0.046030883
31	0x3d0f885d	0.035042156

decoders.0.decoder_net.3.running_var f4 [32]
0	0x3a531835	0.00080526184
1	0x3b8e0b75	0.004334862
2	0x3afd1f21	0.0019311645
3	0x3b733f1f	0.003711648
4	0x39ca2163	0.00038553317
5	0x3b24777b	0.002509563
6	0x398e8dce	0.00027190003
7	0x394a0a2f	0.00019268015
8	0x3aa17e14	0.0012320899
9	0x3aac0e7f	0.0013126879
10	0x3ae5a446	0.0017520271
11	0x3a9ce019	0.0011968642
12	0x3ab7cbf9	0.001402258
13	0x3a89fd6d	0.0010527797
14	0x3a4a65a7	0.0007720836
15	0x3a6e32ef	0.0009086569
16	0x3aacc8d3	0.0013182409
17	0x3ac85c60	0.0015286319
18	0x3b399adc	0.0028321063
19	0x3a660ff2	0.000877618
20	0x3a258083	0.00063134
21	0x3a30acbf	0.00067396084
22	0x3b999f1f	0.004688158
23	0x3aedd084	0.0018143808
24	0x3b07a2ff	0.0020696518
25	0x39ddc28f	0.00042297362
26	0x3b8d35d7	0.0043093967
27	0x3ae57ea0	0.0017509051
28	0x3ae2da81	0.0017307551
29	0x3acd2154	0.0015650191
30	0x3ba64508	0.005074147
31	0x3af84d0e	0.0018943863

decoders.0.decoder_net.4.weight f4 [32, 32, 3, 3]
0	0x3bd57b92	0.006514975
1	0xbd857b12	-0.065176144
2	0xbcdf6b8e	-0.027272966
3	0xbd42e7b5	-0.047584254
4	0xbd3da9bc	-0.04630445
5	0x3d205981	0.039147858
6	0xbc132d68	-0.008982994
7	0xbbd7550d	-0.006571418
8	0x3be7b20e	0.0070707863
9	0x3b905bd1	0.0044054766
10	0x3d1d22ef	0.038363393
11	0xbcf32629	-0.029681282
12	0xbccb439b	-0.02481251
13	0xbd19966d	-0.037496973
14	0xba647af5	-0.0008715832
15	0x3bf040c8	0.0073319413
16	0xbbe5ba68	-0.0070107467
17	0xbd6c444f	-0.05768233
18	0xbd61312a	-0.054978527
19	0xbd1cfa1e	-0.038324468
20	0x3d5aa9d7	0.05338463
21	0xbc7a498f	-0.015276327
22	0xbd4a060c	-0.049322173
23	0x3d198503	0.037480365
24	0x3b646994	0.0034852969
25	0x3c8b0fc8	0.016975299
26	0xbca07893	-0.019588744
27	0xbadae2e7	-0.0016699702
28	0x3c85a4f8	0.016314015
29	0xbd060998	-0.032723993
30	0x3d2d4a78	0.042307347
31	0xbd32cbe7	-0.043651488
32	0xbb824263	-0.003975199
33	0xbcc2e31f	-0.02378994
34	0xbc67ba4f	-0.0141435405
35	0xbd5ad95b	-0.053429943
36	0xbd506fb9	-0.050887797
37	0xbcf3fd33	-0.02978382
38	0x3d4f3bb9	0.050594065
39	0xbc54ff7d	-0.013000366
40	0xbcb4581c	-0.02201467
41	0xbc0eff23	-0.0087278215
42	0xbcf50885	-0.029911289
43	0x3d43026d	0.047609735
44	0x3c989e38	0.018630132
45	0x3caeb748	0.02132763
46	0x3d67ddc4	0.056607977
47	0x3d055473	0.03255124
48	0x3c86d677	0.016459687
49	0xbac2af31	-0.0014853236
50	0xbc236808	-0.009973533
51	0x3d63a4dd	0.055577148
52	0xbc7a5870	-0.015279874
53	0x3cdd4a1a	0.027012873
54	0x3a6c2f45	0.0009009729
55	0x3d6a6fb0	0.05723542
56	0x3d04e1df	0.03244197
57	0x3cd55a11	0.026043924
58	0xbd42e437	-0.047580924
59	0xbd47fd8d	-0.04882579
60	0x3d884273	0.06653299
61	0xbda2b1eb	-0.079440914
62	0xbc5f6ca2	-0.01363674
63	0x3d9f0cae	0.0776609
64	0xbc138012	-0.009002702
65	0x3cd87c7c	0.026426546
66	0xbcc36175	-0.023850182
67	0x3d4edf1b	0.05050574
68	0xbd13d3f4	-0.036090806
69	0x3d035968	0.032067686
70	0xbc1d7a5a	-0.00961169
71	0xbd7b6432	-0.06137485
72	0xbb27f504	-0.0025628218
73	0x3bd89cdc	0.006610496
74	0x3d645892	0.05574853
75	0xbd9f0d1b	-0.077661715
76	0xbc92f08f	-0.017936973
77	0xbc198977	-0.009371153
78	0x3d7ef50b	0.06224541
79	0x3d89e039	0.0673222
80	0xbd6364b5	-0.055515964
81	0xbbbda992	-0.0057880366
82	0xbd5d0d28	-0.053967625
83	0xbab222be	-0.0013590676
84	0xbd3aa638	-0.045568675
85	0x3db76c35	0.08956186
86	0xbd15cbbf	-0.03657126
87	0x3c3f116d	0.0116618695
88	0x3cac4ed1	0.021033676
89	0x3d41caed	0.047312666
90	0xbcb28718	-0.021792933
91	0x3ca470c5	0.020073304
92	0x3ca5c13d	0.020233745
93	0xbc0288c2	-0.007967176
94	0xbcb8ddd5	-0.022566715
95	0xbcae94b9	-0.02131115
96	0x3d18ca63	0.037302386
97	0x3d3dfec0	0.046385527
98	0x3d4dce5b	0.050245624
99	0x3d5602ca	0.052248754
100	0xbcc076dc	-0.023494177
101	0xbd602c52	-0.054729767
102	0x3db6e32c	0.08930048
103	0xbcc7f47a	-0.024408568
104	0xbc5a2480	-0.013314366
105	0x3d0266e6	0.031836413
106	0xbd5d7b88	-0.054072887
107	0xbb7841d7	-0.003788104
108	0x3be34021	0.006935135
109	0xbdc2b546	-0.095072314
110	0x3c0f0388	0.008728869
111	0x3d1da7cc	0.0384901
112	0x3bfb8a26	0.0076763807
113	0xbd3350fc	-0.043778405
114	0x3ce2377a	0.027614344
115	0xbbf05162	-0.0073339203
116	0xbc226d9a	-0.009913826
117	0xbcb027a1	-0.021503272
118	0x3d084eef	0.033278402
119	0xbd541a2d	-0.051782776
120	0x3d98fc93	0.0747005
121	0xbd69f8f9	-0.057122204
122	0x3cb759dd	0.022381717
123	0x3d654891	0.055977408
124	0x3d17f2ac	0.037096664
125	0xbb72dac1	-0.0037056657
126	0xbcd00ce6	-0.025396775
127	0x3c2e7cc8	0.010649867
128	0x3ba1f480	0.0049424767
129	0x3cae25cf	0.021258263
130	0x3a901759	0.0010993286
131	0xbc114691	-0.008866922
132	0xbd97e07d	-0.074158646
133	0x3d2190a7	0.03944459
134	0xbd948299	-0.07251472
135	0xbd0d3bff	-0.034481045
136	0x3d109493	0.03529794
137	0xbc8f9e55	-0.017531553
138	0x3bb3c318	0.0054859035
139	0x3d534547	0.05157974
140	0x3d3ec28b	0.04657225
141	0x3c9a84fc	0.01886224
142	0x3c0ce5e1	0.008599729
143	0x3cce4c16	0.025182765
144	0xbcb0f29c	-0.02160006
145	0xbe025293	-0.12726812
146	0x3cf68fef	0.03009793
147	0xbd1a31e7	-0.037645247
148	0x3d22bf6f	0.039733347
149	0xbc359a5a	-0.011084164
150	0xbda6e9eb	-0.08150085
151	0x3d4fbe45	0.050718565
152	0x3d092a59	0.03348765
153	0x3d188608	0.037237197
154	0x3dd5d01b	0.104400836
155	0x3d602f9b	0.0547329
156	0xbd198ba6	-0.037486695
157	0xbca5d040	-0.020240903
158	0xbcefba15	-0.029263536
159	0xbd6df5af	-0.05809563
160	0x3c32b58b	0.010907541
161	0xbd189db2	-0.037259765
162	0x3d3ba93a	0.045815684
163	0x3d28bc89	0.041195426
164	0xbd415299	-0.047197912
165	0x3d45b322	0.048266537
166	0x3d5dc96e	0.054147176
167	0xbcb75eb6	-0.022384029
168	0xbc9ccf24	-0.019141741
169	0xbce9f539	-0.028559314
170	0x3cefba52	0.02926365
171	0x3c1fe0f9	0.0097582275
172	0xbc3d79d4	-0.011564691
173	0xbd0df040	-0.03465295
174	0x3cb2c799	0.021823691
175	0xbc92302e	-0.01784524
176	0x39d7ac83	0.00041136527
177	0xbc8518d8	-0.016247198
178	0xbd42c2bc	-0.047548994
179	0xbc7f367e	-0.015576957
180	0x3babe802	0.0052461633
181	0xbcc7a3fc	-0.024370186
182	0xbc0e430a	-0.008682976
183	0x3d519d4e	0.051175408
184	0xbd8e3b28	-0.06944877
185	0xbd9da7d6	-0.07698028
186	0xbcc3f11d	-0.023918683
187	0x3ce3d446	0.02781118
188	0xbc93255c	-0.01796215
189	0x3c842792	0.01613215
190	0x3c7acf61	0.015308232
191	0xbd68e295	-0.05685671
192	0x3d3234c3	0.04350735
193	0xbd0f5f83	-0.035003196
194	0xbc828fc4	-0.015937693
195	0x3d60428d	0.054750968
196	0x3d19ef3e	0.037581675
197	0x3b251d6b	0.0025194536
198	0xbd648b82	-0.055797108
199	0xbc1996e8	-0.009374358
200	0x3caa8c1a	0.020818759
201	0xbd8e2c6e	-0.06942068
202	0x3d1a2604	0.03763391
203	0x3d8bac21	0.0681994
204	0x3c404937	0.011736206
205	0x3ca271b0	0.019829601
206	0xbcd2459d	-0.02566796
207	0xbd125e77	-0.03573462
208	0x3d098bca	0.03358058
209	0xbd07747a	-0.033070065
210	0xbd3cc6a0	-0.04608786
211	0x3d2567ef	0.040382322
212	0xbccc7592	-0.024958406
213	0xbd4f4512	-0.05060298
214	0x3d2bd378	0.04194972
215	0xbc8b58ac	-0.017010055
216	0xbb56502c	-0.0032701595
217	0xbda6a432	-0.081367865
218	0xbca011fb	-0.019539824
219	0xbb667010	-0.003516201
220	0xbd27f093	-0.041000914
221	0x3d79b62e	0.060964756
222	0xbd5dcb7b	-0.054149132
223	0x3d263bb1	0.04058427
224	0x3d4e1561	0.050313357
225	0x3d337ae8	0.043818384
226	0x3cd67ced	0.026182616
227	0xb99b652f	-0.00029639291
228	0x3c9f6b99	0.019460486
229	0xbdab76ca	-0.083722666
230	0x3ba26924	0.0049563814
231	0x3d5b1ee4	0.053496256
232	0x3d515933	0.051110458
233	0x3bd5d802	0.0065259943
234	0xbc59b59f	-0.013287931
235	0xbd1be395	-0.038058836
236	0x3d4b2334	0.04959412
237	0x3cf711f6	0.030159932
238	0x3ce3c83d	0.027805442
239	0x3d3feb81	0.046855453
240	0x3ca3c540	0.019991517
241	0xbc4d61e2	-0.012535544
242	0x3cf29448	0.029611722
243	0xbbe15840	-0.0068769753
244	0x3d250bfd	0.040294636
245	0xbd20483b	-0.039131384
246	0x3d8edb11	0.06975377
247	0x3b823474	0.003973538
248	0x3d00fc45	0.031490583
249	0xbc0bafea	-0.008525828
250	0x3cbe623c	0.023240201
251	0xbcceec7e	-0.025259253
252	0xbd68cd38	-0.056836337
253	0xbc559115	-0.0130350785
254	0x3d24caba	0.040232398
255	0xbd78a674	-0.060705617

decoders.0.decoder_net.4.bias f4 [32]
0	0xbd2a84c7	-0.041630533
1	0xbcb50c23	-0.022100514
2	0xbd010a5b	-0.031504016
3	0x3d9d36fd	0.07676504
4	0x3d490633	0.049078178
5	0xbd8a4cfe	-0.06752966
6	0xbd6ea662	-0.058264144
7	0xbd2aa941	-0.04166532
8	0x3a83c39d	0.0010052804
9	0x3cd46119	0.025925206
10	0x3d53899c	0.051644906
11	0x3d58cb6a	0.052928366
12	0x3bffcf98	0.0078067295
13	0xbdc10609	-0.09424979
14	0xbd6c2e23	-0.057661187
15	0x3d425358	0.047442764
16	0xbce110d6	-0.027473848
17	0x3d2e0e14	0.042493895
18	0x3c2cc8a0	0.01054588
19	0x3cab1ff6	0.020889264
20	0xbd4fe86a	-0.050758757
21	0xbcb20b6b	-0.02173396
22	0xbca49da3	-0.020094698
23	0x3c9b4b58	0.018956825
24	0x3d5fe85c	0.054664955
25	0xbcf7a788	-0.030231252
26	0xbd81a6d9	-0.06330652
27	0xbd84b8c1	-0.064805515
28	0xbcf2e26c	-0.029648982
29	0xbd09dfd0	-0.03366071
30	0xbd938dc1	-0.07204772
31	0x3cc0d6d3	0.023539936

decoders.0.decoder_net.6.weight f4 [32]
0	0x3f7f832e	0.9980954
1	0x3f79d897	0.97596115
2	0x3f765c03	0.9623415
3	0x3f7d8a09	0.9903875
4	0x3f7f27d5	0.99670154
5	0x3f815f5b	1.0107225
6	0x3f761b78	0.96135664
7	0x3f760f6d	0.9611729
8	0x3f7e7e2c	0.99411273
9	0x3f72c1b8	0.9482684
10	0x3f730c07	0.9494023
11	0x3f7d9226	0.9905113
12	0x3f7a321c	0.9773271
13	0x3f791605	0.97299224
14	0x3f7ab704	0.9793551
15	0x3f764c5e	0.9621028
16	0x3f79a24c	0.9751327
17	0x3f7ad9bc	0.97988486
18	0x3f72138d	0.9456108
19	0x3f823328	1.0171862
20	0x3f77d726	0.96812665
21	0x3f7b23d1	0.98101526
22	0x3f6ffa4c	0.937413
23	0x3f82945b	1.0201524
24	0x3f76ec25	0.9645408
25	0x3f7964d0	0.9741945
26	0x3f79dcbf	0.97602457
27	0x3f7cb908	0.98719835
28	0x3f70adb2	0.9401504
29	0x3f767a4d	0.96280366
30	0x3f71861b	0.94345254
31	0x3f77df15	0.9682477

decoders.0.decoder_net.6.bias f4 [32]
0	0xbd8f62e8	-0.07001287
1	0xbc8a76c3	-0.016902333
2	0xbc74c85b	-0.014940347
3	0xbd19183e	-0.037376635
4	0xbd240a40	-0.040048838
5	0xbc3487c1	-0.011018694
6	0x3d6fc34e	0.058535866
7	0xbbc97bfd	-0.0061488138
8	0xbcc58442	-0.024110917
9	0x3cc3c6d0	0.023898512
10	0xbc3f7469	-0.011685469
11	0x3c4564d3	0.012047964
12	0xbc7bacd6	-0.0153610315
13	0x3bc488e4	0.005997764
14	0x3bef5ede	0.00730501
15	0xbc5201bc	-0.012817796
16	0xbcb943ac	-0.022615276
17	0x3d055e7d	0.032560814
18	0x3b8c0f59	0.0042742905
19	0x3d05f9ef	0.03270906
20	0x3cb4e951	0.02208391
21	0xbbbe566e	-0.005808643
22	0x3cb0f57b	0.02160143
23	0xbc636055	-0.013877948
24	0xbbe9d382	-0.0071358094
25	0xbcde8a8f	-0.02716568
26	0xbca33b51	-0.019925745
27	0x3cd54dd6	0.026038092
28	0xbc9be762	-0.01903123
29	0xbd1bc2b9	-0.0380275
30	0x3b8e5a76	0.00434428
31	0x3c840578	0.016115889

decoders.0.decoder_net.6.running_mean f4 [32]
0	0x3cfe9084	0.03107477
1	0x3cfd7931	0.030941578
2	0x3cf7b622	0.030238215
3	0x3d0cde5c	0.034391746
4	0x3d017292	0.031603403
5	0x3cee6da3	0.029105013
6	0x3cfb0c19	0.030645417
7	0x3cfb06b8	0.030642852
8	0x3d02eb03	0.031962406
9	0x3d052329	0.032504234
10	0x3d022962	0.031777747
11	0x3d0a3b9d	0.033748258
12	0x3cfe6df2	0.031058285
13	0x3ce6456b	0.028109273
14	0x3ce6f398	0.028192326
15	0x3d09344e	0.033497147
16	0x3cfa5a4d	0.030560637
17	0x3d0b8c97	0.034069624
18	0x3cf8c9e7	0.030369712
19	0x3d065660	0.032797217
20	0x3cf9c745	0.030490527
21	0x3cf6ca89	0.030125873
22	0x3d0197f5	0.03163906
23	0x3d09a3ea	0.033603586
24	0x3d0d17bb	0.03444646
25	0x3cf9b8f4	0.0304837
26	0x3ceecb76	0.029149752
27	0x3cfa89d9	0.030583309
28	0x3cf53978	0.02993463
29	0x3ceee45b	0.029161623
30	0x3cf6403e	0.03005993
31	0x3d074c04	0.03303148

decoders.0.decoder_net.6.running_var f4 [32]
0	0x39470906	0.0001898148
1	0x39148687	0.00014164495
2	0x391e4f3e	0.00015097574
3	0x3969c3e1	0.00022293582
4	0x396036e7	0.00021382757
5	0x391353f6	0.0001405029
6	0x393013e2	0.00016792075
7	0x394f9db1	0.00019799803
8	0x397138a0	0.00023004645
9	0x391f834d	0.00015212335
10	0x3900594b	0.00012240295
11	0x3948e7a8	0.00019159785
12	0x39242712	0.00015654814
13	0x38fbf9c5	0.00012015136
14	0x391b70de	0.00014823998
15	0x3999749b	0.00029269312
16	0x39354630	0.00017287652
17	0x392ce82b	0.00016489688
18	0x38e4d2ce	0.00010911153
19	0x391bc13d	0.00014853939
20	0x3922ec6b	0.00015537596
21	0x392eb50b	0.00016661377
22	0x399a71d2	0.00029457972
23	0x39d2821e	0.00040151266
24	0x39bea6f2	0.00036364008
25	0x39260e93	0.00015836423
26	0x38ed9285	0.00011328332
27	0x395f4732	0.0002129346
28	0x38ee0cfb	0.00011351142
29	0x38b179cb	8.4627034e-05
30	0x392beddf	0.00016396445
31	0x392f89b5	0.000167406

decoders.0.decoder_net.7.weight f4 [32, 16, 3, 3]
0	0x3d7aa0bb	0.06118844
1	0xbcfb275d	-0.030658418
2	0xbcafc361	-0.021455469
3	0x3cf9d14d	0.03049531
4	0x3ca4f8a7	0.020138098
5	0xbd61eadc	-0.05515562
6	0x3dc0c0a5	0.09411744
7	0xbd8fdb00	-0.07024193
8	0xbca98b05	-0.020696172
9	0xbcddeef4	-0.02709148
10	0xbdba96ca	-0.09110792
11	0xbb9e4d78	-0.0048310123
12	0x3d5671d2	0.05235464
13	0xba121910	-0.00055731926
14	0xbcf03450	-0.02932182
15	0xbddc97d9	-0.1077115
16	0xbdb074bd	-0.08616016
17	0x3c1412c6	0.009037679
18	0x3c032770	0.008005008
19	0x3d3bf0b7	0.04588386
20	0x3d48e5bb	0.049047213
21	0x3d9093c7	0.07059436
22	0x3dc4382f	0.09581029
23	0xbc53f757	-0.012937388
24	0xbd8849ae	-0.06654678
25	0xbd7e6e63	-0.06211699
26	0x3cce83fe	0.025209423
27	0x3d888db9	0.066676565
28	0xbc6d2bd4	-0.0144757815
29	0x3d814e99	0.063138194
30	0xbc736b09	-0.014857062
31	0xbd6d35e2	-0.057912715
32	0x3d3f8783	0.046760093
33	0xbd85b26e	-0.065281734
34	0x3d3bce77	0.045851197
35	0x3d52e16c	0.05148451
36	0xbad3116b	-0.0016103213
37	0x3befa85f	0.0073137726
38	0x3dae358c	0.08506307
39	0xbd81a395	-0.06330029
40	0xbda75418	-0.081703365
41	0xbd816bcb	-0.06319388
42	0x3cd9d27e	0.026589628
43	0x3d593b8e	0.05303531
44	0x3d8f0eba	0.06985231
45	0x3d1fb161	0.03898752
46	0x3ccf5065	0.02530689
47	0x3b963fbd	0.004585235
48	0xbc047504	-0.008084539
49	0x38be8245	9.0841706e-05
50	0xbdbb1e1e	-0.09136604
51	0x3cb6f553	0.022333777
52	0x3db39da2	0.087703004
53	0xbd35919e	-0.044328324
54	0xbc7275e1	-0.014798612
55	0xbd2e8670	-0.04260868
56	0x3bba5b5f	0.005687162
57	0xbce18fa0	-0.027534306
58	0xbcacdb39	-0.021100627
59	0xbb4882d9	-0.003059557
60	0xbd56bd33	-0.05242653
61	0x3ccfe67d	0.02537846
62	0x3cf69d19	0.030104207
63	0xbdd8c94e	-0.10585271
64	0xbdcff39a	-0.10153885
65	0x3d296aa0	0.04136145
66	0xbd98a603	-0.07453539
67	0x3d022707	0.0317755
68	0xbc06785e	-0.008207409
69	0xbd6f336e	-0.058398657
70	0x3cb6d692	0.022319112
71	0xbcddd313	-0.027078187
72	0xbc94b170	-0.018151015
73	0xbd6703db	-0.05640016
74	0x3d8ba975	0.06819431
75	0x3d9b7b9a	0.075919345
76	0xbd8d06c9	-0.0688606
77	0xbc4d1331	-0.012516783
78	0x3c8a8a23	0.016911572
79	0x3db996b4	0.090619475
80	0xbcf9496c	-0.030430518
81	0xbb52c71a	-0.003216213
82	0xbd332e6b	-0.04374544
83	0xbdaab43d	-0.08335159
84	0x3d185c9f	0.037197705
85	0xbd27e0ef	-0.040985998
86	0xbc268ccc	-0.0101654045
87	0x3cd99844	0.026561864
88	0x3dd20b46	0.102560565
89	0xbc7b34dd	-0.015332428
90	0x3d488186	0.04895165
91	0xbd47de03	-0.04879571
92	0x3d86fdc7	0.06591373
93	0xbdc0e657	-0.09418934
94	0xbda5a831	-0.080887206
95	0xbd95ea5f	-0.07320093
96	0xbd220458	-0.039554924
97	0xbd0a01f5	-0.033693273
98	0xbda2b3a7	-0.07944422
99	0x3db831af	0.089938514
100	0x3d1a5e48	0.03768757
101	0xbc0a4e71	-0.008441553
102	0x3d4d892f	0.050179657
103	0xbd26c5fa	-0.04071615
104	0x3d596270	0.053072393
105	0xbd371108	-0.044693977
106	0x3dad164f	0.08451521
107	0x3c9f6bba	0.019460548
108	0x3bce08ea	0.0062876837
109	0x3d5eaa4c	0.054361627
110	0x3d57b758	0.052665085
111	0x3d0ec0f0	0.03485197
112	0xbb818e22	-0.003953711
113	0x3c8f5f3f	0.017501472
114	0x3c8cda5f	0.017193971
115	0x3d4766ed	0.048682142
116	0x3d9c566b	0.076336704
117	0xbd1eb7f2	-0.038749643
118	0xbbaa38f7	-0.005194779
119	0x3d65acbf	0.056072947
120	0x3c171a58	0.009222589
121	0xbca0ecea	-0.01964422
122	0xbc95e679	-0.018298374
123	0x3c8ff581	0.01757312
124	0xbd048e53	-0.032362293
125	0xbd0eb194	-0.03483732
126	0x3d848891	0.064713605
127	0xbd36e4d3	-0.044651818
128	0x3d9ef0c3	0.077607654
129	0x3d6e584f	0.058189686
130	0x3d87e28a	0.06635006
131	0x3d2b8a39	0.041879866
132	0xbd1e6d07	-0.038678195
133	0x3d0a0871	0.033699457
134	0xbc8090e6	-0.015694093
135	0xbd0a604c	-0.033783242
136	0xbd082306	-0.033236526
137	0x3cd04c31	0.025426956
138	0xbade40f2	-0.0016956611
139	0x3da62026	0.081116006
140	0x3d017fff	0.031616207
141	0xbbda1e20	-0.006656423
142	0xbd7700ba	-0.060303427
143	0xbd11b914	-0.035576895
144	0xbd95b367	-0.07309609
145	0x3d8bf4a4	0.06833771
146	0x3dc2378e	0.094832525
147	0x3d981a6f	0.07426917
148	0xbd8656e6	-0.06559543
149	0x3d3d8174	0.046266034
150	0x3c9cd3d4	0.019143976
151	0xbccd00a1	-0.025024714
152	0xbd07ae2f	-0.0331251
153	0x3d325209	0.043535266
154	0x3d69bedc	0.057066783
155	0xbd989e04	-0.07452014
156	0x3db6173f	0.088911526
157	0x3d95fabe	0.07323216
158	0x3d3f53bf	0.046710726
159	0x3cdefe25	0.027220795
160	0xbd7ba9a3	-0.061441075
161	0xbd3dc3ec	-0.046329424
162	0x3d530bbf	0.051524874
163	0xbbf8962e	-0.007586262
164	0x3d269eef	0.040678915
165	0xbdb71999	-0.08940429
166	0x3db9214a	0.090395525
167	0x3d4f4292	0.050600596
168	0xbd2a99c0	-0.041650534
169	0xbc018ba1	-0.007906825
170	0xbc96f53b	-0.018427482
171	0x3b18c94a	0.0023313337
172	0xba442c50	-0.000748341
173	0x3cd31235	0.025765518
174	0x3db38337	0.087652616
175	0xbd806d7f	-0.06270885
176	0xbbda239b	-0.0066570765
177	0x3d0c6990	0.03428036
178	0x3d910fdf	0.07083105
179	0xbd50806b	-0.05090372
180	0x3db4140d	0.08792887
181	0x3cc41098	0.023933694
182	0xbd22edc7	-0.039777543
183	0x3cd1fd19	0.025633382
184	0x3d01b71d	0.03166877
185	0x3d181cdb	0.037136894
186	0x3c8ff553	0.017573034
187	0x3d47f5e5	0.048818488
188	0x3d66c796	0.056342684
189	0x3d1367bf	0.03598761
190	0xbd7689b9	-0.060189936
191	0xbd90d4db	-0.07071849
192	0xbd1703ed	-0.03686898
193	0xbcf9507c	-0.030433886
194	0xbd02207d	-0.031769264
195	0x3c8018ff	0.015636919
196	0xbd197e02	-0.037473686
197	0xbb7e6c3b	-0.0038821835
198	0x3c9d073c	0.019168489
199	0xbd78e064	-0.06076087
200	0xbda830c8	-0.08212429
201	0x3d06275e	0.032752387
202	0x3dc183ff	0.094490044
203	0xbd3f6b02	-0.04673291
204	0xbc873e12	-0.01650909
205	0x3d04d4a3	0.03242935
206	0xbd5dcf28	-0.054152638
207	0xbd3de444	-0.04636027
208	0xbaa4ab1b	-0.00125632
209	0x3da7dee0	0.08196807
210	0xbcb47ec9	-0.022033112
211	0x3cf6af15	0.030112782
212	0xbcec6665	-0.02885742
213	0x3d9180ea	0.071046665
214	0xbdcbc96f	-0.0995053
215	0x3cd09150	0.025459915
216	0x3d1c05af	0.038091358
217	0xbd6ba731	-0.057532493
218	0x3d241b45	0.04006507
219	0xbd214c0f	-0.039379176
220	0xbdd1478a	-0.10218723
221	0xbdcc4208	-0.09973532
222	0x3d2a86c6	0.041632436
223	0xbd9e4bb0	-0.0772928
224	0xbc8dd2d4	-0.017312445
225	0xbdabd92e	-0.08391033
226	0xbda54f90	-0.08071816
227	0x3d5b0ff1	0.053482
228	0x3cf36c4f	0.029714731
229	0xbdb63635	-0.08897058
230	0x3c52e3ac	0.012871664
231	0xbdb6f2c7	-0.08933025
232	0xbc206271	-0.009789095
233	0x3cda4560	0.026644409
234	0xbc17bb3e	-0.009260951
235	0xbca2ba7f	-0.019864319
236	0xbb997f39	-0.0046843556
237	0x3d125573	0.035726022
238	0x3c8009dc	0.015629701
239	0xbd9587fd	-0.07301328
240	0x3d01e62a	0.031713642
241	0xbda20931	-0.07911909
242	0x3d61d1aa	0.05513159
243	0x3cdf55cf	0.027262596
244	0x3bb5a3b2	0.0055431956
245	0x3d14c984	0.036324993
246	0xbd434bdd	-0.04767977
247	0xbd3bfc94	-0.045895174
248	0xbd71bb8a	-0.05901674
249	0x3da0fde5	0.078609265
250	0x3d27c650	0.04096061
251	0x3d3a645f	0.045505878
252	0xbca60d8d	-0.020270133
253	0x3cc291d7	0.023751182
254	0x3bd07dd3	0.0063626557
255	0x3ccbe6a7	0.024890257

decoders.0.decoder_net.7.bias f4 [16]
0	0xbc1fa13a	-0.009743029
1	0xbd751ae2	-0.05984009
2	0xbd99be9b	-0.07507058
3	0x3b932bb3	0.0044912933
4	0x3d23393b	0.0398495
5	0xbd5127ff	-0.051063534
6	0xbd0a82e3	-0.03381623
7	0x3dc4d564	0.096110135
8	0x3d474796	0.048652254
9	0x3cba2362	0.02272195
10	0xbd95d4f1	-0.07316006
11	0xbc36c2ce	-0.0111548435
12	0x3dac3d93	0.08410182
13	0xbdba751d	-0.09104369
14	0xbd7295c6	-0.059224866
15	0xbdb0c67a	-0.086316064

decoders.0.decoder_net.9.weight f4 [16]
0	0x3f78a615	0.9712842
1	0x3f76fa42	0.96475613
2	0x3f776693	0.9664089
3	0x3f77a660	0.96738243
4	0x3f7576d1	0.95884424
5	0x3f7775a2	0.9666387
6	0x3f79aae2	0.9752637
7	0x3f791854	0.97302747
8	0x3f75c034	0.95996404
9	0x3f7a4310	0.9775858
10	0x3f7753d8	0.9661231
11	0x3f7671ea	0.9626757
12	0x3f7928f1	0.97328097
13	0x3f769af6	0.963302
14	0x3f794b50	0.9738054
15	0x3f775edb	0.9662911

decoders.0.decoder_net.9.bias f4 [16]
0	0xbcae3182	-0.021263842
1	0x3d3913a2	0.04518474
2	0xbd5e9523	-0.054341447
3	0x3d9df004	0.07711795
4	0x3d3f09f2	0.046640344
5	0xbd9c5d0a	-0.07634933
6	0x3dabfa01	0.08397294
7	0x3daa8203	0.08325579
8	0xbddaeebd	-0.10690067
9	0xbd9acea4	-0.07558945
10	0xbce16c5e	-0.027517494
11	0x3d74bc70	0.05975002
12	0xbd90bb72	-0.07067002
13	0x3dbc4e12	0.09194578
14	0xbda85212	-0.08218779
15	0xbda95927	-0.082689576

decoders.0.decoder_net.9.running_mean f4 [16]
0	0x3d814fd1	0.06314052
1	0x3d71e3fc	0.059055313
2	0x3d6ec2b1	0.05829114
3	0x3d814a0a	0.0631295
4	0x3d86020f	0.065433614
5	0x3d6d51a8	0.0579392
6	0x3d80b8a6	0.06285219
7	0x3d9422f2	0.07233228
8	0x3d8b1728	0.06791526
9	0x3d85fde3	0.06542566
10	0x3d6dfef0	0.058104455
11	0x3d813b04	0.063100845
12	0x3d8d2376	0.06891529
13	0x3d71cbbb	0.059032183
14	0x3d704adb	0.058665138
15	0x3d681bdf	0.056667205

decoders.0.decoder_net.9.running_var f4 [16]
0	0x3a7d9f71	0.00096749427
1	0x3a49241e	0.00076729234
2	0x3a23d12d	0.0006249126
3	0x3a560174	0.00081636687
4	0x3a70e816	0.0009189857
5	0x3a02e547	0.00049932714
6	0x3a85a79d	0.0010197047
7	0x3aab5946	0.001307287
8	0x3a784b7f	0.0009471699
9	0x3a92cdb2	0.0011200218
10	0x3a40912b	0.00073458505
11	0x3a62bc2b	0.0008649255
12	0x3a9d5abc	0.001200519
13	0x3a7bcae7	0.0009605125
14	0x3a3a1fd5	0.000710008
15	0x3a0d51dc	0.0005390921

decoders.0.decoder_net.10.weight f4 [16, 1, 3, 3]
0	0xbe038f33	-0.12847595
1	0xbdb76899	-0.08955497
2	0x3db30271	0.087407
3	0x3e016444	0.12635905
4	0x3e2a73bc	0.16645712
5	0xbe53af36	-0.20672306
6	0x3d91fd19	0.07128353
7	0xbdb6ca74	-0.089253336
8	0xbea4a25f	-0.3215513
9	0xbd3f0fdc	-0.046645984
10	0x3d9e95ba	0.07743402
11	0xbc9cfea5	-0.019164393
12	0xbd74852c	-0.059697315
13	0xbdc27d56	-0.09496562
14	0x3e675a89	0.2259313
15	0xbe41a992	-0.18912342
16	0x3e3ae950	0.18253064
17	0x3e9bb0fa	0.3040846
18	0x3e2207df	0.15823315
19	0x3c909e36	0.017653566
20	0xbe8564c1	-0.26053432
21	0xbe5b5b05	-0.2142144
22	0xbcc33bf0	-0.023832291
23	0xbd37d73d	-0.044883
24	0xbdaa7340	-0.083227634
25	0xbe6da145	-0.2320605
26	0xbe61e95e	-0.22061679
27	0xbd883b79	-0.066519685
28	0x3e3a8937	0.18216406
29	0xbe034319	-0.12818564
30	0x3e608ab2	0.21927908
31	0x3e6d9f4d	0.232053
32	0x3e9522c8	0.29128098
33	0x3e885830	0.26629782
34	0x3e64cf75	0.22344764
35	0xbe1eb081	-0.15497018
36	0x3e824584	0.2544366
37	0xbe834515	-0.25638643
38	0x3e0e6512	0.13905743
39	0x3e91cdfd	0.2847747
40	0x3e482a19	0.19547309
41	0xbd81e372	-0.0634221
42	0xbe0a1616	-0.13484988
43	0xbe085f76	-0.13317665
44	0x3db69e24	0.08916882
45	0xbe5db003	-0.21649174
46	0xbe1cede2	-0.1532512
47	0xbdc5bb5e	-0.09654878
48	0xbe1f55ba	-0.15560046
49	0xbe6c8c46	-0.23100385
50	0xbdd4be96	-0.10387914
51	0x3e8988cc	0.2686218
52	0x3dddcbb4	0.10829869
53	0xbd462523	-0.04837526
54	0xbddde6af	-0.10835015
55	0x3e5da8ff	0.21646498
56	0x3e04767d	0.12935825
57	0x3e8bb6dc	0.27287948
58	0x3e0a21e7	0.13489495
59	0xbe1cc0ed	-0.1530797
60	0x3e7352e6	0.23762092
61	0xbc1a1c31	-0.009406135
62	0xbe763d36	-0.24046788
63	0x3c32e0bd	0.01091784
64	0x3cea4d1f	0.028601227
65	0x3e8a3d05	0.2699968
66	0x3dd609a2	0.10451056
67	0x3e7d909f	0.247622
68	0xbe12fc2e	-0.14354011
69	0x3c186d99	0.009303474
70	0x3e8ecf36	0.27892464
71	0x3dbcf1f2	0.09225835
72	0x3d5d3e82	0.05401469
73	0x3e37ee07	0.17961894
74	0xbdf6d69d	-0.12052653
75	0x3e2c340f	0.16816734
76	0xbe461158	-0.19342554
77	0xbd124493	-0.03570993
78	0x3e0d7896	0.13815531
79	0xbe407ba6	-0.18797168
80	0xbe9365ec	-0.28788698
81	0x3dac6c5a	0.08419104
82	0xbe16ea7b	-0.14737885
83	0xbe3a2d6e	-0.18181393
84	0xbe32ca48	-0.17459977
85	0xbe212a94	-0.15738899
86	0xbe0e9af8	-0.13926303
87	0xbe772d6f	-0.24138425
88	0xbe7c4238	-0.24634635
89	0x3e732739	0.23745431
90	0x3d259349	0.040423665
91	0xbe3e83e7	-0.18605004
92	0xbe0b1a1a	-0.13584176
93	0xbd869476	-0.065712854
94	0x3e6ad5fc	0.22933191
95	0xbd357354	-0.04429944
96	0xbe3d8fa2	-0.18511823
97	0xbe31327d	-0.17304416
98	0x3e6d2f12	0.23162487
99	0x3e6cf831	0.23141553
100	0x3d719126	0.058976315
101	0x3e34ded4	0.17663127
102	0x3e1dd997	0.15415035
103	0x3de8f5d9	0.11375017
104	0xbe4f459f	-0.20241402
105	0x3d310bb3	0.043224048
106	0x3e09e3a6	0.13465747
107	0x3e92dcc7	0.28684065
108	0x3e8a9add	0.27071276
109	0xbe4f6e48	-0.20256913
110	0xbc7089a1	-0.014681251
111	0xbe3ae4d5	-0.18251355
112	0xbe3c47f3	-0.18386821
113	0xbe255b1a	-0.16148034
114	0x3d8a7559	0.067606635
115	0x3d87de2b	0.06634172
116	0xbe8825ac	-0.2659124
117	0xbe4f954d	-0.20271797
118	0x3e89caa7	0.26912424
119	0xbe7df4fd	-0.24800487
120	0xbdfcdf56	-0.123472854
121	0x3e91e8ee	0.28498024
122	0xbc6a55e3	-0.014302704
123	0xbe160bdf	-0.14652966
124	0xbe05bc38	-0.13060081
125	0x3dce98ce	0.10087739
126	0x3e3b4f3e	0.18291947
127	0xbdd2c79c	-0.10291979
128	0x3e9c7dfa	0.30564862
129	0xbe217775	-0.15768225
130	0xbe4f4b96	-0.20243677
131	0xbdb57777	-0.08860677
132	0xbe761832	-0.24032667
133	0x3e7c1330	0.24616694
134	0x3c708b81	0.014681698
135	0xbe9a45c5	-0.30131355
136	0xbd78fbe9	-0.060787115
137	0x3e819c6e	0.2531466
138	0x3e3ee785	0.18643005
139	0xbe918e06	-0.28428668
140	0xbe85e978	-0.26154685
141	0xbe2596b4	-0.1617077
142	0x3cb05b70	0.021527976
143	0xbe1c98a9	-0.1529261

decoders.1.decoder_net.0.weight f4 [512, 2]
0	0xbf2d07f6	-0.6759027
1	0xbda3d71b	-0.080000125
2	0xbebfafa0	-0.3743868
3	0x3f11f50f	0.57014555
4	0x3e2d9cc7	0.16954337
5	0x3e7d9858	0.24765146
6	0x3df44218	0.11926669
7	0xbe52981c	-0.20565838
8	0x3f35f2b0	0.71073437
9	0xbebcb47a	-0.36856443
10	0x3e863ac3	0.26216707
11	0xbe56e6fa	-0.20986548
12	0x3ec618ed	0.38690892
13	0x3e824f9e	0.25451368
14	0xbd9c9dd6	-0.07647292
15	0x3e4c0688	0.19924366
16	0xbf15115d	-0.5822962
17	0x3e54ac23	0.2076879
18	0x3eb8e4f3	0.36112174
19	0x3e280afc	0.1641044
20	0xbe91e966	-0.2849838
21	0x3f304dd2	0.68868744
22	0xbf389360	-0.72099876
23	0xbd139b1a	-0.03603659
24	0xbec24a6f	-0.37947413
25	0xbe873a46	-0.26411647
26	0xbf2f6abe	-0.6852225
27	0x3ee3960f	0.44450423
28	0xbe510e4d	-0.20415612
29	0xbe44480d	-0.1916811
30	0x3f32aad4	0.69791913
31	0xbe6875a3	-0.22701125
32	0xbe76b187	-0.24091159
33	0x3dd2be21	0.102901705
34	0x3ee8a77d	0.45440283
35	0x3ec8e3f5	0.39236417
36	0x3eefcdc7	0.46836683
37	0x3f260c88	0.6486287
38	0x3ecece1c	0.40391624
39	0x3e42cc2b	0.19023196
40	0xbf35c608	-0.71005297
41	0xbe9eb538	-0.30997634
42	0x3e5ddd55	0.21666463
43	0xbee036cc	-0.43791807
44	0x3db65e59	0.08904714
45	0x3ea7aaf5	0.32747617
46	0xbf1d9316	-0.6155256
47	0xbde37b5f	-0.111075155
48	0xbd8be633	-0.068310164
49	0x3f1eb018	0.6198745
50	0x3ef9fa8b	0.48823962
51	0x3ea1c031	0.31591943
52	0xbf31515a	-0.6926476
53	0x3efbc452	0.49173218
54	0xbefddd3b	-0.49582848
55	0xbf03419c	-0.51271987
56	0xbf0dcc9c	-0.55390334
57	0x3dd938b5	0.10606519
58	0xbeb5b555	-0.35489908
59	0xbe47b94d	-0.1950428
60	0x3eafec58	0.34360003
61	0xbf075f34	-0.52879643
62	0x3f29e8a0	0.6637058
63	0xbe61ca39	-0.22049798
64	0x3e4273f5	0.18989547
65	0x3f2b7c73	0.6698677
66	0xbeb765a6	-0.3581974
67	0xbecdb305	-0.40175644
68	0x3e1af19b	0.15131228
69	0xbd4236a5	-0.047415394
70	0x3e00d171	0.12579896
71	0xbe781037	-0.24224935
72	0xbee6b0d8	-0.45056796
73	0xbee8c956	-0.45466107
74	0x3dce70c8	0.10080105
75	0xbe07948b	-0.13240258
76	0xbf213596	-0.6297239
77	0xbf046e4e	-0.5173081
78	0xbd6632d4	-0.056200817
79	0x3eec4ed4	0.4615389
80	0xbdbafa3c	-0.0912976
81	0x3c79b4d5	0.015240868
82	0x3f33ca19	0.7023025
83	0xbf0aed5b	-0.54268426
84	0x3f6831c2	0.90700924
85	0xbe3283bc	-0.17433065
86	0x3e168d99	0.14702453
87	0x3e6c036b	0.23048179
88	0xbe83d28d	-0.25746575
89	0x3e43e58f	0.19130538
90	0x3e233ff5	0.15942366
91	0x3f0bfd9f	0.5468387
92	0xbe113f8e	-0.141844
93	0x3ef40a67	0.47664186
94	0x3f2506dd	0.644636
95	0xbf2aa958	-0.6666465
96	0xbeb6f564	-0.35734093
97	0x3e4b0cb5	0.19829066
98	0xbec4eff8	-0.38464332
99	0x3f0ead8a	0.5573355
100	0x3d259225	0.040422577
101	0xbec01fbd	-0.37524214
102	0xbc8ef8eb	-0.017452678
103	0x3cbf4c6c	0.02335187
104	0x3e707d31	0.23485257
105	0x3e8a8fa6	0.2706272
106	0x3f1d822e	0.61526763
107	0x3ef8fda1	0.48631003
108	0xbc872054	-0.016494907
109	0x3d904ef9	0.07046313
110	0x3f039f75	0.5141519
111	0x3d538bc0	0.051646948
112	0xbf25335c	-0.64531493
113	0x3ddd1532	0.10795058
114	0xbdaa8a4c	-0.08327159
115	0xbe40a265	-0.18811949
116	0xbebb0c1d	-0.3653268
117	0x3e3cd287	0.18439685
118	0x3b8945fd	0.0041892515
119	0x3d933cc6	0.07189326
120	0x3e4d88ad	0.20071669
121	0xbdf3ca09	-0.119037695
122	0xbd5e81a4	-0.054322854
123	0xbf04a052	-0.5180713
124	0xbf27f362	-0.6560575
125	0xbc3c9408	-0.011509903
126	0x3eef56e7	0.4674599
127	0xbe90039e	-0.2812776
128	0xbf1ee21b	-0.6206376
129	0x3d27b10f	0.04094034
130	0x3f04f7ef	0.51940817
131	0x3df57a1c	0.11986181
132	0x3e4f9adf	0.20273922
133	0xbf32a57f	-0.69783777
134	0x3d94755a	0.072489455
135	0x3f1b0022	0.6054708
136	0x3e97b61a	0.2963112
137	0x3e88d917	0.26728126
138	0xbe46463f	-0.19362734
139	0x3f228aac	0.63492846
140	0xbe418c80	-0.18901253
141	0xbf06abd6	-0.5260595
142	0xbf3b5df8	-0.7319026
143	0xbeb599b4	-0.3546883
144	0xbeda3426	-0.4261791
145	0x3f0d115f	0.5510463
146	0x3d8ebc89	0.06969554
147	0xbe4545d9	-0.19264926
148	0x3eb8aefc	0.36071002
149	0x3f104d99	0.56368405
150	0xbeeec1bc	-0.46632183
151	0x3e7a8190	0.24463487
152	0xbefd6aa7	-0.49495432
153	0x3f1b0539	0.60554844
154	0x3e3da48f	0.18519805
155	0x3ecf4fb0	0.40490484
156	0x3f22536a	0.6340853
157	0xbcbf1f4e	-0.023330357
158	0x3e104cbc	0.14091772
159	0xbef2cb42	-0.47420698
160	0x3ea7567c	0.3268317
161	0x3eb46d01	0.35239413
162	0xbee1d77e	-0.4410972
163	0xbf0d3c72	-0.5517036
164	0xbe6f47ba	-0.23367205
165	0xbf1e962c	-0.61947894
166	0xbe79a099	-0.2437767
167	0xbf3517b5	-0.707393
168	0xbf2dd984	-0.6791003
169	0xbebe3129	-0.3714688
170	0xbe04b807	-0.12960826
171	0x3e17f3f0	0.14839149
172	0xbe953ab6	-0.29146355
173	0xbea753a7	-0.3268101
174	0x3eb61510	0.35562944
175	0x3d81937e	0.0632696
176	0xbdee7ec9	-0.11645276
177	0xbe293e71	-0.16527726
178	0x3e2ddd24	0.1697889
179	0x3e302969	0.17203297
180	0xbf2935c1	-0.66097647
181	0x3f29a949	0.66273934
182	0xbe1c8bb0	-0.15287662
183	0x3e73421a	0.23755684
184	0x3f0b2e12	0.5436717
185	0x3f283af9	0.65714985
186	0xbea98d1c	-0.3311547
187	0xbf48cabc	-0.7843435
188	0xbe60a79c	-0.21938938
189	0xbec1b8df	-0.37836358
190	0xbebeec16	-0.37289494
191	0x3dea0422	0.114265695
192	0xbf0f185d	-0.5589655
193	0x3d0765f9	0.033056233
194	0x3ebd6190	0.36988497
195	0xbef501f7	-0.47853062
196	0xbf0b7969	-0.5448213
197	0x3efc5083	0.49280176
198	0x3d94f8a5	0.07273988
199	0x3f0ede59	0.55808026
200	0xbf0a468d	-0.540139
201	0x3dab1b1a	0.083547786
202	0xbe167f92	-0.14697102
203	0x3f0bccb2	0.54609215
204	0x3f05a73e	0.52208316
205	0x3eb1f1e2	0.34754854
206	0xbe2739d2	-0.1633065
207	0x3ec8519e	0.3912477
208	0x3eeefd4e	0.4667763
209	0xbf1a91fa	-0.6037899
210	0xbf26d6d4	-0.6517155
211	0xbf28c06d	-0.6591862
212	0x3cd0800e	0.025451686
213	0xbe4548cc	-0.19266051
214	0xbf1eee4c	-0.6208236
215	0xbec98156	-0.39356488
216	0x3e85d673	0.26140174
217	0xbe82ebd4	-0.25570548
218	0xbd2864df	-0.041111823
219	0x3f5b8e2a	0.857638
220	0x3c68e654	0.014215071
221	0xbee4611f	-0.44605348
222	0xbf098d1d	-0.53730947
223	0x3e058ec0	0.13042736
224	0xbef41730	-0.4767394
225	0xbcc01cad	-0.023451174
226	0x3eb3b5cd	0.3509964
227	0x3e8b1911	0.27167562
228	0x3f31c90a	0.69447386
229	0xbe023e8e	-0.12719175
230	0xbec2a710	-0.38018084
231	0xbd8b5833	-0.06803932
232	0xbe9ca32f	-0.3059325
233	0xbdc59748	-0.09647995
234	0xbed50542	-0.41605574
235	0xbeed625b	-0.46364102
236	0xbea174a4	-0.31534302
237	0xbf1b999c	-0.60781264
238	0xbeb7feea	-0.35936671
239	0x3f323111	0.6960612
240	0xbf1c0666	-0.60947263
241	0x3d0c1e63	0.034208667
242	0xbd7824a3	-0.060581814
243	0xbe112611	-0.14174677
244	0x3e2bb22a	0.16767183
245	0xbd825dd9	-0.06365556
246	0x3f234ff9	0.63793904
247	0xbf2daa69	-0.6783815
248	0xbf270ebe	-0.6525687
249	0x3f07001b	0.52734536
250	0xbeed44db	-0.46341595
251	0xbecb703a	-0.3973406
252	0x3c293e9d	0.01032987
253	0xbefeadfe	-0.4974212
254	0x3e5c2216	0.21497378
255	0x3e65f6c8	0.22457421
