Project2/models/model_2_7.pt (torch, 214300 bytes, 56 tensors)

prior.mean f4 [2]
00000000: 0000 0000 0000 0000
0.0 0.0

prior.std f4 [2]
00000000: 0000 803f 0000 803f
1.0 1.0

decoders.0.decoder_net.0.weight f4 [512, 2]
00000000: 4317 a1be 2cf4 cb3d 7f4a 063f 1146 52be
00000010: 89c4 0f3f e623 c4be b0dd a4be f58d b63e
00000020: b316 e8bd 27cc 05bf 5fdc d73e 2ad3 603e
00000030: 63ef 47bf 097e bf3e 86aa e13d b75f 103f
00000040: c79f ebbe d767 efbe f8a8 abbe cb29 073f
00000050: 408b cb3c 2fc4 a53e 6691 39be 54b7 e9be
00000060: 910e bc3e 84fb 353f 142a c73d 779f 0d3f
00000070: a6a2 a53d b145 2dbe ed8a 483b 3d48 0a3f
00000080: 11e6 a7be a251 073e 7cf0 363e 9ac9 723e
00000090: fefa bebd ff17 a63e abed 043f 27e1 103f
000000a0: 2833 d5be b7ff d53e d962 173e 5158 883e
000000b0: f412 c23e 677c b2be 505f d53e 14ea 1fbe
000000c0: b8c8 9b3d 8e0b 803e c122 d53d b98d 1fbc
000000d0: a229 2ebf dbe7 ac3d 9340 27bf c4c1 183f
000000e0: d723 043f 8a97 10bf a2d2 b4be c014 dfbe
000000f0: 0ef7 d3bd f2fd 6f3e a5de ab3e 3834 f73c
00000100: b143 023e 66ba d43e d89d 113f dce0 d9bd
00000110: c77c 213f 2f54 f6be c1f6 ec3e e233 2fbf
00000120: 93d6 1b3f 2e11 21bb f6c8 c8be b168 9bbe
00000130: 1af0 643e 4d69 3bbe 056a edbe 608a a03e
00000140: 1f9f e43e 734d 82be 2798 88be ade7 aabe
00000150: aa56 d8be 9b5e 003f 681e 8dbe 7244 9b3e
00000160: 350c 853e 63c3 a43e effb 5d3e a959 80be
00000170: 0106 6fbe ea8b e6be f4e8 313c e34f 783e
00000180: 6633 88bd ee10 b93e 6cfa 143f d33b 493e
00000190: f6b8 c93e 7208 113f 92b7 ffbd 83bb ea3d
000001a0: 57f3 02bf 69e4 863e 4154 913d 5451 f0be
000001b0: 9105 343f ff45 823e f6f7 87be 833e 67bd
000001c0: ed06 1d3c 1f03 123e 8e95 443e 7274 2a3e
000001d0: e6cf 2e3f 8f71 24bf a7a5 27bf b6f1 13bf
000001e0: e967 cabe 4486 a5bd 2f6e 04bf bbeb b3bd
000001f0: d6f5 293f b985 193e 8cb8 17bf b0a1 10bf
00000200: 5f8c cebd 0141 033e b940 01bf 5a13 163e
00000210: 25ee 21bf 4942 c93b 0909 173d c7a1 cc3e
00000220: 2f97 85be 39e3 29be 0a21 48bf 90a7 0abf
00000230: 4d3d 313f a5c0 97be 7ba2 1dbf 37b7 7ebe
00000240: 442b c6be 8944 1ebd 3576 55be f56f 083c
00000250: 4517 393f 84d3 de3e 4c9d 7cbe 7a2c 493e
00000260: 265c 00bf c875 92be d429 e43e b2c8 a9be
00000270: 142f c73e 9216 233f 4c18 2cbf e552 ffbd
00000280: 3d12 c3be 33d7 11be 0cf1 293e 5267 b63e
00000290: 7a86 283f cbfc 603e 992a 263f f972 023f
000002a0: 331f d7bd 047a 683e d0ce 21bf fce7 353f
000002b0: 3216 debe fb7e 31bf cae0 28be d416 4cbe
000002c0: 79bb d33e 5308 8a3c df01 ed3e a968 16bf
000002d0: a0f5 b5be 1277 2a3f 2c0d c4be 34df 1dbe
000002e0: 4b5b 0f3d d336 803e 60bd e13c 1ccd 213f
000002f0: 2e69 b43e ed46 c13e d0b5 e03e eccf 88be
00000300: 3aa9 0dbf 602e d5be 7d0e 27bf 955a 85be
00000310: 5f60 da3e 5248 43bf 8bb7 d73c e05a 473d
00000320: ca42 383d f8aa 203f b6bc 22bf e412 17be
00000330: e071 c5be 91b0 003e 06d9 f83e af57 08bf
00000340: b153 e3ba 7fc3 d1be 7856 9fbe 54eb a3be
00000350: 6de9 53be 2a18 1cbf 89b4 a33d 97b2 dfbe
00000360: 33fc a0be c2f0 6f3e 4614 be3c 9a4f e03e
00000370: ec6f 17bf d4ab b43e c7ed ccbd 0322 d33e
00000380: 071a 01bf 457c a1bd 9db0 2b3f 2156 b43e
00000390: b9e8 183f a9d8 17bf c6ec 09bf c8b5 163f
000003a0: 0b4a 2c3e ef1d f0be 9f53 52be 056f 9ebd
000003b0: 8dc7 dcbe 92e5 cdbd 5d2f b93e d75b f33e
000003c0: 83fa 80be 148e d63e d49c 0a3c 0357 6fbe
000003d0: 0ee5 8abd 1046 d7be bea3 e83e 8b21 d53e
000003e0: 15c9 bc3e 836f d1be 0152 8abe 3210 19bf
000003f0: c201 eabe ef10 223e fa06 efbe 615e f33e
-0.3146306 0.099586815 0.5245742 -0.2053454 0.56159264 -0.38308638 -0.32200384 0.3565518
-0.113324545 -0.52264637 0.42160317 0.21955553 -0.7809965 0.37400845 0.11018853 0.5639605
-0.46020338 -0.4675891 -0.3352735 0.52798146 0.024846673 0.3237624 -0.18121871 -0.4564768
0.36729863 0.7108691 0.09724823 0.5532145 0.08087663 -0.16921116 0.0030600384 0.54016477
-0.32792714 0.13214734 0.17865175 0.23709717 -0.09325217 0.32440183 0.5192515 0.56593555
-0.41640592 0.41796657 0.14783801 0.2662988 0.37905085 -0.34860536 0.4167428 -0.15616637
0.076066434 0.25008816 0.104070194 -0.009738379 -0.68032277 0.084426604 -0.6533291 0.5967066
0.5161719 -0.5648123 -0.3531695 -0.43570518 -0.10349856 0.23436716 0.33568302 0.030176267
0.12721135 0.4154846 0.56881475 -0.10638592 0.6308102 -0.48111102 0.46282008 -0.6843854
0.6087429 -0.002457689 -0.3921582 -0.3035331 0.22357216 -0.18301888 -0.4636995 0.31355572
0.4465265 -0.25449714 -0.26678583 -0.3337988 -0.4225362 0.50144356 -0.2756226 0.30325657
0.25985876 0.32180318 0.21678136 -0.25068405 -0.23342134 -0.4502862 0.010858763 0.24249224
-0.066504285 0.3614573 0.58194613 0.19651727 0.39398926 0.5665351 -0.12486185 0.11461546
-0.5115256 0.26346138 0.07096148 -0.46937048 0.70320994 0.25444028 -0.26556367 -0.0564561
0.009584171 0.14259003 0.19197676 0.16645983 0.6828598 -0.64235777 -0.6548714 -0.57790697
-0.39532402 -0.0808225 -0.51730627 -0.087851964 0.6639074 0.14992417 -0.5926597 -0.56496716
-0.100853674 0.12817766 -0.50489384 0.1465582 -0.63254005 0.006141935 0.03687385 0.39967176
-0.26091906 -0.16590585 -0.78175414 -0.5416193 0.6923416 -0.29639164 -0.6157605 -0.24874578
-0.38704884 -0.03863958 -0.20845874 0.008327474 0.7230113 0.4352075 -0.24669379 0.19645873
-0.5014061 -0.28605485 0.44563162 -0.3316093 0.38903105 0.63706315 -0.67224574 -0.12466983
-0.38099852 -0.14242248 0.16595858 0.35625702 0.65830195 0.21971433 0.6490875 0.50956684
-0.10503998 0.22702795 -0.63206196 0.71057105 -0.4337631 -0.6933438 -0.16492 -0.19930583
0.41353968 0.016849672 0.4629049 -0.5875345 -0.3553896 0.66587937 -0.382913 -0.15417176
0.034999173 0.25041828 0.027556121 0.632036 0.35236496 0.37749425 0.43888712 -0.26721132
-0.55336344 -0.41636944 -0.6525648 -0.2604567 0.4265165 -0.7628223 0.026332637 0.04867065
0.04498557 0.6276088 -0.635692 -0.147533 -0.38563442 0.12567355 0.48603076 -0.53258795
-0.0017343668 -0.40969464 -0.31120658 -0.3201548 -0.20694514 -0.6097437 0.07993419 -0.4369094
-0.31442413 0.23431686 0.023203027 0.4381073 -0.59155154 0.35287344 -0.1000629 0.41236886
-0.5043034 -0.07885031 0.67066365 0.3522196 0.59730107 -0.5931497 -0.5387691 0.58871126
0.1682512 -0.46897838 -0.20539711 -0.07736019 -0.43120995 -0.10053553 0.36168948 0.47531006
-0.25191125 0.41905272 0.008460242 -0.23373036 -0.0678197 -0.4204564 0.45437425 0.41627154
0.36872163 -0.4090539 -0.2701569 -0.5979034 -0.45704466 0.15826772 -0.4668501 0.47532943

decoders.0.decoder_net.0.bias f4 [512]
00000000: 2e8d da3c a961 20bf 7eb6 aebe d59d 423f
00000010: d37f 953e 7224 7d3e 9107 d2be c324 0ebe
00000020: 0c4f adbe 0de2 453e b0b5 43bf b0f1 3abc
00000030: be5b 0a3f 40ce ce3e e63d 0bbe dee7 183f
00000040: e15f 5a3e e5e0 12be c136 5b3e 0be0 23be
00000050: 5b02 aa3d 9204 88be 0bb4 573e 4032 093c
00000060: eff0 2abf 9bed 9dbd fdcc 28be dd10 c6be
00000070: 2342 413e bcad 10bf a4cd 8dbd 5383 f3be
00000080: 6017 583c efd7 e23c 904c 90be 26bd 153f
00000090: f74a f4be 4bbb a33e 93b7 f5be 423e 273f
000000a0: 6fd8 1cbf 5df1 2a3e 660e eebe 7d48 9dbe
000000b0: 8c0b 02bf b688 a5be 68a3 d63e e6e7 d73e
000000c0: 2c4a 333f 8162 eebd e7cf 57bd afb0 18bf
000000d0: f832 653d c8d3 f53e 2a1a b53e f693 e4be
000000e0: 7453 f93e d843 0fbe cc79 863e 2606 543e
000000f0: dea5 513e e136 e53e 0772 123f a89a 05be
00000100: f5fb 6e3e 6f39 193f d576 063f 39e4 5fbe
00000110: f399 2dbf ba7b 1b3f 776c 1dbf 71af 513d
00000120: 9177 c8be 982b 9d3d b0e5 d4bd e7bc 1f3f
00000130: ab7e 88be 6e31 aabe faf6 0cbf a723 353f
00000140: 321f 1dbd 2851 3cbf 5cf9 2c3f d508 d6be
00000150: 22bc cb3e 9aac 2dbf 7fae c0be b23b 8bbe
00000160: 9dab bbbe 9fb4 1e3f 568d 1ebf 3394 8c3d
00000170: 8480 20be 3706 ae3c 96f5 c4bd b4fb 223e
00000180: f621 f0be 3ca7 9abe 4f48 debe 0fc5 30bf
00000190: c6d3 4d3e aa45 2d3f ac19 46bf 1aa5 9fbe
000001a0: 2751 a0be b9a9 d3bd 460c 98bd afbf 503e
000001b0: b632 a1be da3d c53d aeaa 263f 5033 0c3f
000001c0: c695 efbe 4a88 9cbe 025a d23e 1a62 31bf
000001d0: e534 16bf 32a3 d03d 031f 383f d5b9 00bf
000001e0: b279 133e 9f89 2fbf 4a53 b33d 578e 5ebe
000001f0: f0f6 173f 0587 e3be 08d8 27bf 1f79 bd3c
00000200: 4b61 0dbf 577f 383f 6e15 2ebf 6c59 1f3f
00000210: 6236 073f 62b4 2fbf ee1c 6bbd e1bf 2abe
00000220: b302 31bb 1480 4c3d 8bb9 aa3e 3b6a 11bd
00000230: ad33 d63d 21bc 9d3e aec2 c93e 25a2 fc3e
00000240: 170a bb3e d6c0 f4bd c246 04bf 4572 d8be
00000250: 924a a9be 1fc6 a0be a4a4 8c3c 1013 733b
00000260: 6a8f 75be d66a 1a3e d0c0 483f 53a7 99be
00000270: e280 06bf e10c 28bf ccf2 ed3e f3e5 aa3e
00000280: 5e17 45bf 6f95 a4be 9797 003f 1e34 9dbe
00000290: 737b ddbe 1787 083c ed22 20bd 9170 a1be
000002a0: 760e 25be eb1e d23b c744 733e 75cf 103f
000002b0: 1376 c6be 2419 fdbe 7339 d4be 800f 8abe
000002c0: 97b8 1e3f b95b e3be 64ce 1abe 6a9f e1bd
000002d0: 7ac2 25be 02a9 c03c 9821 3c3f 8741 193f
000002e0: 695c 893d 3252 01be cc70 f8bd 09d5 313f
000002f0: 16f6 2dbf 49dc b73e 35b1 0b3f 8b8a b63e
00000300: b695 223e 0fff f63e e1b1 bebe 87f9 86be
00000310: 7b43 2abe c1c7 af3e 5a53 f1bd 5a79 34be
00000320: 445d b8bd 8556 9d3e 6778 273d 4b40 e73e
00000330: 87bd 2bbf 3b64 95be b6b0 a53e 32d5 a5bd
00000340: db17 303d d1e1 67be 3bcb cfbe 1b1d 44bf
00000350: e2d3 6d3c 6713 333f 4fa7 e63e 656d 923e
00000360: 4c84 73bd 5a50 9cbe bcae c9be 8fae 9fbe
00000370: 760c e53e 9bd3 fcbe c108 5ebe 8335 0cbf
00000380: c113 cbbd 5c46 273f 1c88 143f b3d3 243f
00000390: 5901 7c3e a181 8c3e f251 323d 8085 d3be
000003a0: a0b7 3b3f 8edf 7fbd 0a08 5c3e 770c 32bf
000003b0: 8af9 ccbe b34e 69be f466 7abe 81d6 abbe
000003c0: 7bdb 013f b1cc 25bf 540b 2abf 40fc e03e
000003d0: e73d ebbd 034b e73e 9c4c 143f 674a 563d
000003e0: f915 15bf 105f cc3e e91b a53d 8892 dd3e
000003f0: 0867 21bf 4d48 1cbf fc06 1bbf d1a8 26bf
0.026678648 -0.6264902 -0.34123605 0.7602208 0.29199085 0.24720934 -0.41021398 -0.13881211
-0.3384937 0.19324513 -0.7644911 -0.011410162 0.5404624 0.4039173 -0.13597831 0.597288
0.21325637 -0.14343603 0.21407606 -0.16003434 0.083012305 -0.26565987 0.21064775 0.008373797
-0.66773885 -0.07711335 -0.16484447 -0.3868474 0.18872885 -0.565151 -0.069239885 -0.4756113
0.013189167 0.027690856 -0.28183413 0.5849174 -0.47713444 0.3197883 -0.4799162 0.6532937
-0.6126775 0.16693635 -0.4649536 -0.30719367 -0.5079887 -0.32330865 0.41921544 0.42169112
0.7003505 -0.11639882 -0.052688506 -0.596446 0.05595681 0.4801314 0.35371524 -0.44644135
0.48696482 -0.13990724 0.262648 0.2070547 0.2047343 0.44768432 0.5720524 -0.13047278
0.23338301 0.5985326 0.52525073 -0.21864404 -0.6781303 0.60735667 -0.6149363 0.051192705
-0.39153722 0.076743305 -0.10395372 0.6239762 -0.2665914 -0.33240837 -0.55064356 0.70757526
-0.03835983 -0.73561335 0.6756799 -0.41803613 0.3979197 -0.67841494 -0.3763313 -0.2719398
-0.36654368 0.61994356 -0.6193441 0.06864204 -0.15674025 0.021243198 -0.09617154 0.1591633
-0.4690091 -0.30205715 -0.43414542 -0.6905069 0.20100316 0.67684424 -0.7738292 -0.3118065
-0.31311914 -0.103351064 -0.07424216 0.20385621 -0.31484002 0.09630938 0.65104187 0.54765797
-0.46793956 -0.3057273 0.41084296 -0.69290316 -0.5867446 0.10187377 0.7192232 -0.5028356
0.14401892 -0.6856937 0.087561205 -0.21733986 0.5936117 -0.4443895 -0.6556401 0.023129044
-0.5522658 0.72069305 -0.6800145 0.6224582 0.52817357 -0.6863462 -0.057400636 -0.16674758
-0.0027009666 0.049926832 0.33344683 -0.0355017 0.10459075 0.30807593 0.3940634 0.49342456
0.36531135 -0.11950843 -0.5167047 -0.4227468 -0.33064705 -0.31401154 0.01716835 0.003709022
-0.2398049 0.15079817 0.7841921 -0.3001047 -0.5254041 -0.6564465 0.46474302 0.33378562
-0.7698878 -0.3214526 0.5023131 -0.30703825 -0.43258247 0.008332989 -0.039095808 -0.31531194
-0.16118798 0.006412377 0.23756705 0.56566554 -0.38761958 -0.49433243 -0.4145008 -0.2696495
0.6200041 -0.44405916 -0.15117794 -0.11016734 -0.16187468 0.02351809 0.7348876 0.5986561
0.06707079 -0.12629011 -0.12130889 0.6946569 -0.6795362 0.35910252 0.5456727 0.35652575
0.15877423 0.4824147 -0.37245086 -0.2636225 -0.16627304 0.34332088 -0.11783476 -0.17624417
-0.09002164 0.30730072 0.04088631 0.4516624 -0.6708607 -0.29178032 0.32361382 -0.080973044
0.0429915 -0.22644736 -0.4058474 -0.7660691 0.014515849 0.6995148 0.4504952 0.28599086
-0.05945234 -0.30530053 -0.39391124 -0.31187865 0.4473607 -0.49380192 -0.21683027 -0.5476915
-0.09915877 0.65341735 0.58020186 0.6438553 0.24609889 0.2744265 0.04353518 -0.4131279
0.73327065 -0.062469058 0.21487442 -0.6955027 -0.40034133 -0.22783928 -0.24453336 -0.3356209
0.50725526 -0.6476546 -0.66423535 0.4394245 -0.11486416 0.45174417 0.57929397 0.05231705
-0.5823665 0.39916277 0.08061964 0.43275857 -0.6304784 -0.6104782 -0.6055753 -0.65101343

decoders.0.decoder_net.3.weight f4 [32]
00000000: 64e1 7d3f 78d3 7d3f 9733 803f 8d58 7b3f
00000010: 5895 823f f4fd 7e3f 1835 7a3f bd42 793f
00000020: 8bc7 7e3f 3772 803f dea5 7f3f 7592 7f3f
00000030: ac65 833f 61e7 7a3f 2427 823f 1994 7d3f
00000040: ee67 823f 99b4 803f a869 7c3f 082d 813f
00000050: a612 853f b123 783f 39f0 7c3f bce5 843f
00000060: 0134 843f a5aa 793f 06e5 7c3f 2181 803f
00000070: 79cf 813f edd1 7b3f 3aae 7d3f 4b18 7f3f
0.99172044 0.991508 1.0015744 0.9818199 1.0201826 0.9960625 0.97737265 0.9736746
0.9952323 1.0034856 0.9986247 0.9983285 1.0265403 0.98009306 1.0168195 0.99054104
1.0187967 1.0055114 0.9859872 1.0091867 1.0396316 0.9692946 0.9880405 1.0382609
1.032837 0.9752601 0.9878696 1.0039407 1.0141441 0.98367196 0.99093974 0.99646443

decoders.0.decoder_net.3.bias f4 [32]
00000000: 7e8a a7bc 1849 13bd d276 9cbd 7a08 943c
00000010: 1590 483d 3277 90ba 768b 283c 4191 0dbd
00000020: 266f 293d a84d 84bc 4470 593c 2494 a6bc
00000030: eccb cfbc e6e2 173b e1a1 c4bc 5345 873c
00000040: 8f39 88bc 4b02 c7bc b839 27bd 4dc4 913b
00000050: 5c29 0ebd 9f78 c4bc 8c91 d53b e809 b83b
00000060: 5182 4a3d 481e 84ba 90dd 1c3d 9f09 03bd
00000070: 74d8 fa3c 9540 bdbc f407 383d d5a6 153d
-0.02045178 -0.03595838 -0.07639851 0.018070448 0.048965532 -0.0011021851 0.010287156 -0.034562353
0.041365765 -0.01615031 0.013271395 -0.02033431 -0.025365792 0.0023176013 -0.024002971 0.016512549
-0.016629009 -0.024293086 -0.04082653 0.0044484497 -0.034707412 -0.023983298 0.0065175947 0.0056164153
0.049440686 -0.0010079825 0.038297236 -0.031991597 0.030620791 -0.023102084 0.04492946 0.036536057

decoders.0.decoder_net.3.running_mean f4 [32]
00000000: 7d2f f93c b336 e43c e987 b13c ee6c 223d
00000010: 741d 833d e1b6 a13c e406 1d3d e549 cd3c
00000020: 6fd0 1a3d e3be 523c 4ee0 a43c 6b11 143d
00000030: 511c 7f3c bc0f eb3c 13c6 f43c 5cb0 c53c
00000040: 263c 8d3c fef8 ef3c 7d02 283d 27cd 003d
00000050: a632 173d a80f 753d a046 353d 3ea2 1a3d
00000060: eeb3 bc3c 8c51 a33c 1b58 023d 54f5 d03c
00000070: 6d69 2b3d 5ae5 e93c ea11 f73c 7dfb f03c
0.030418152 0.027858114 0.021671252 0.039654665 0.06402102 0.019740524 0.03833665 0.02505965
0.037796434 0.012862894 0.020126488 0.036149424 0.015570716 0.028694026 0.029879605 0.024131946
0.017240595 0.029293533 0.041017998 0.03144565 0.036913536 0.059829384 0.044256806 0.037752382
0.023035016 0.019936346 0.031822305 0.025507607 0.04184859 0.028551746 0.03015991 0.029416794

decoders.0.decoder_net.3.running_var f4 [32]
00000000: 4af7 bf3a f1f0 1c3b f481 303a 1acd 583b
00000010: 838e d33b 201f ce39 00e5 f53a ae49 2c3a
00000020: 78a0 503b 7c93 2d39 6143 0e3a 91ea 0a3b
00000030: f97e 0a3a ff47 aa3a cbd6 6b3a e0fa 333a
00000040: 9d1e be39 078c b63a b4cd 403b 3023 423b
00000050: 319b 133b de2a 3c3c 8252 f13a 117b 473b
00000060: 45e0 193a f5f3 183a b586 cb3a a52f 0b3a
00000070: 8d56 753b 5bb0 a73a d9d6 fd3a 31d6 cf3a
0.0014645841 0.0023947323 0.0006733232 0.0033081234 0.0064561977 0.00039314572 0.0018760264 0.00065722584
0.0031833928 0.00016553508 0.00054269104 0.0021196941 0.00052832026 0.0012991427 0.0008996545 0.00068656914
0.00036262433 0.001392723 0.0029419484 0.0029623024 0.0022522921 0.01148483 0.001841143 0.0030438344
0.00058699056 0.0005834692 0.0015527817 0.0005309529 0.0037435621 0.0012793647 0.0019366398 0.0015856681

decoders.0.decoder_net.4.weight f4 [32, 32, 3, 3]
00000000: 0a57 2c3d 1438 90bc 4b02 393d e410 12bc
00000010: 0b2f 41bd 7125 a1bc 45be 01bc 6907 e4bc
00000020: 06c2 5dbc 577a 6abc f1a5 803c 2920 843b
00000030: 0564 2c3d 8ccd 873c 1a6b 51bc 6a96 b7bc
00000040: 6f53 453d 6d82 263d c124 bd3c 983b b3bc
00000050: a5e7 53bd c1bd edbc 821d 8fbd 79a6 1fbd
00000060: fbf9 6f3c 20d5 9a3d 5cb9 2fbc e469 8cbb
00000070: 2ae9 bebc 0aaf fcbb 4cb7 a8bc b747 32bd
00000080: 809d 5b3d bd82 153d cc48 2c3d af37 253c
00000090: d0a7 0f3c d271 353d 2897 b2bc 8f33 153d
000000a0: 1a93 75bd d1a3 2bbd a083 fe3b adf1 5bbd
000000b0: 59cf cebb 1669 9cbd 72ee ee3c bb56 64bb
000000c0: 2b3b ab3d 1214 093d fbcd 43bd 2bdc 89bc
000000d0: b9e8 213d dc94 9a3c edde 58bc caa2 023d
000000e0: 0c3b ec3c c79a b3bd c70d d2bc 2285 1cbd
000000f0: c659 20bd 532d f4bc 6a61 a73c c317 253d
00000100: 92c2 9ebc 0323 48bb f91b 90bd e9e4 4a3c
00000110: 4a27 6b3d b85e 86bb 6d96 5fbd b202 0fbd
00000120: 8de6 43bd 6220 723c 289d 303d 4392 3dbd
00000130: 9b08 143d f83e 6b3d 71db 1abd e77f 103d
00000140: 73db c3bb fd33 f1bc bd1f 3f3d 223c 62bd
00000150: 4f57 80bc fc1e 1a3d 1b04 cfbc fc27 4e3d
00000160: b4c2 91bd 3ea1 6abd 47a9 50bd 3b8e 843d
00000170: 4de1 813b 52b6 dc3c f040 4f3c 4b7e 62bd
00000180: 0300 2d3d 0996 93bd 0be0 103c 2396 fcbc
00000190: b3ce bfbd 561f cf3c 2085 813c 2106 b93d
000001a0: 8e38 7c3c 00ec b0bc d49e bb3c c984 6fbc
000001b0: 9893 39bc dab2 713d f80c 41bd 9d4a 4dbc
000001c0: 5d2e 06bc 4216 903b b130 ab3c 266b 0fbc
000001d0: 6f6b 903d 6e56 b83c 4f17 1c3d 51c7 88bd
000001e0: ced6 adbc 3824 843d 7995 383d 4728 4dbd
000001f0: 7392 e0bc 77ef 74bc 0107 733b 8b7a 053d
00000200: 76f5 dd3b 94e7 34bc c0c6 25bd 1586 403d
00000210: 3f01 483d 7a25 44bd df32 92bd e460 3c3c
00000220: d738 3f3c 0c4b a73c 6810 30bd b6ad 0d3d
00000230: e256 01bd c35e 0d3d f549 96bd bf33 6bbd
00000240: 59d7 edbc fa29 6abc 04d3 e43c 10a7 143d
00000250: a8ea a1bd 8f0c e4bc 7995 babd b7f4 84bd
00000260: 2d37 28bc c169 26bc 6dfe c6bc fa99 f1bc
00000270: e324 563c 54c0 1bbd 1c0f fbbb c16e 4cbc
00000280: 3876 6e3d a6f0 92bc cc7b 803d ad2b 563d
00000290: f113 1e3d 5be1 333d 8b91 c4bc cccf d33b
000002a0: 8648 9abd 3eeb ef3c 3382 9c3d a8a8 dd3c
000002b0: cbbc 5bbc 9867 813d ac81 b2bc fb68 e03c
000002c0: c5b0 0e3d e442 d8bc e434 d83b 8984 da3c
000002d0: 44f8 67bd 325c 203d bf2b b9bb fa4e a83b
000002e0: 511c 553c 53b8 a3bd 98f0 42bd b360 7fbd
000002f0: e797 edbc 597d 523c 8e35 4ebd ddc7 da3a
00000300: 6cd1 c73c 748b 3e3d 60f9 ddbd ef2e e2bc
00000310: 953c d03c a20f ac3b eaa2 ce3c 021c 163d
00000320: b28a fb3c f504 48bd dcdd bfbc e178 d03d
00000330: d564 05bd bb69 d5bc fa8e 5dbd 7dcd 87bd
00000340: 4501 f4bc 1f98 f7bc 42f8 89bd 0c6f 8d3c
00000350: 195c b6bc 26d1 bcbc 632a 5fbd 7692 fb3c
00000360: d9c3 9e3d 077d 99bd 54eb 7cbb 69d6 8d3c
00000370: 1e3c e9bc 9e31 0c3c 36df 183d 18d0 5a3d
00000380: 4a23 9e3c 6cf3 4a3d abba 103d 3c49 81bd
00000390: b3dc 9fbc 35fe 11bc 5a75 6cbd c6cc 6b3d
000003a0: d193 c83c db7b 3dbd ca6e a1bd 2afe 0bbb
000003b0: 3b64 a5bd 8646 1bbc e53e 9e3d ebc3 1f3c
000003c0: 149a 3f3d e5ac 6cbb 45a5 40bc df63 e13c
000003d0: a751 54bc 162f 79bb 4c56 bd3c 04d0 12bd
000003e0: 383a 363b 6f27 363d 54a2 2ebd d398 c1ba
000003f0: 5a19 f83c 9f52 aa3a 5ad9 e33c b6e7 803d
0.042075194 -0.017604865 0.045168202 -0.00891516 -0.047164004 -0.019671174 -0.007918899 -0.027835565
-0.013535028 -0.014311395 0.015704127 0.004032154 0.042087574 0.016577505 -0.012781883 -0.02241059
0.04817527 0.040651727 0.023088815 -0.021879002 -0.051734585 -0.029021146 -0.0698805 -0.03897712
0.014647002 0.075601816 -0.010725345 -0.004285084 -0.02330454 -0.007711296 -0.020595215 -0.043525424
0.053617 0.036501635 0.042061612 0.010084077 0.008768037 0.044298 -0.021800593 0.036426123
-0.05995474 -0.041904274 0.0077671558 -0.053697277 -0.006311339 -0.07637231 0.029166434 -0.0034841734
0.08360895 0.033466406 -0.04780386 -0.016828617 0.039528582 0.01886981 -0.013236743 0.03189353
0.02883675 -0.08769756 -0.025641335 -0.038212903 -0.039148115 -0.029806769 0.020432193 0.040305864
-0.019379888 -0.0030538447 -0.07036585 0.012383678 0.057410516 -0.004100647 -0.054586817 -0.03491468
-0.047827292 0.0147782285 0.043118626 -0.046282064 0.03614102 0.0574331 -0.037806932 0.035278227
-0.005977088 -0.029443735 0.046661127 -0.05523313 -0.015666632 0.037627205 -0.025270512 0.0503311
-0.07117215 -0.05728268 -0.050942685 0.06472441 0.0039636255 0.026942406 0.01264976 -0.055296224
0.04223634 -0.07206351 0.0088424785 -0.03083331 -0.093655966 0.025283497 0.01581055 0.09034372
0.015394343 -0.021596909 0.022902884 -0.014619061 -0.011326693 0.059008457 -0.04713151 -0.012529996
-0.008189765 0.0043971846 0.020897241 -0.0087535735 0.07051741 0.02250215 0.038108166 -0.066786416
-0.02122059 0.06452221 0.045064423 -0.05008724 -0.027413582 -0.014949671 0.0037083032 0.03258757
0.006773646 -0.011041541 -0.040472746 0.04700287 0.048829313 -0.047887303 -0.07138609 0.01149771
0.0116712665 0.020421527 -0.042984396 0.03458949 -0.031577 0.0345142 -0.07338325 -0.057422396
-0.02903335 -0.014292235 0.027932651 0.036292136 -0.07906085 -0.02783802 -0.09110541 -0.06491988
-0.010267061 -0.01015705 -0.024291242 -0.029492367 0.013070318 -0.038025215 -0.0076617133 -0.012477578
0.05821821 -0.017937016 0.062736124 0.052287746 0.038593236 0.043916088 -0.023995182 0.0064639803
-0.07533364 0.029286977 0.07642021 0.02705796 -0.013411711 0.06318587 -0.021790348 0.027393809
0.03483655 -0.026399083 0.006598102 0.026674526 -0.05663325 0.039150424 -0.005650967 0.005136368
0.013007239 -0.079941414 -0.04759273 -0.06234808 -0.029003097 0.012847268 -0.050344042 0.0016691644
0.024391852 0.04651971 -0.1083858 -0.02761027 0.025419513 0.005250887 0.025224168 0.036647804
0.030705784 -0.048832852 -0.02342122 0.10179306 -0.032566864 -0.026051393 -0.05409143 -0.06630991
-0.029785762 -0.030223904 -0.067368045 0.017264865 -0.022260712 -0.023048948 -0.054483783 0.030709486
0.07752199 -0.0749455 -0.0038592415 0.017314153 -0.028471049 0.008556752 0.037322246 0.05342111
0.019303937 0.04954855 0.03533427 -0.063127965 -0.019514417 -0.008910705 -0.057729103 0.057568334
0.024484547 -0.046260696 -0.078824595 -0.002136121 -0.08075758 -0.009477263 0.0772684 0.0097513
0.0467778 -0.0036113795 -0.011758153 0.027513443 -0.012958921 -0.003802245 0.023112439 -0.03584291
0.0027805697 0.0444712 -0.042635277 -0.0014770277 0.030285526 0.0012994594 0.027813602 0.06294195

decoders.0.decoder_net.4.bias f4 [32]
00000000: a8a3 4cbd 6fc6 b2bc dbcf 813d d5ef 663c
00000010: 317b 78bc b9f5 d23c 6337 98bc 469b 593d
00000020: d076 5dbc 2b49 c43d 1497 963c eb5f 133c
00000030: 7b1d 2d3d f4cc 8cbd 6dd9 9fbc 89da 193d
00000040: 1760 96bd 5658 31bd d788 e73c 2743 cbbd
00000050: 603f 99bc 5477 19bd ca60 f5bc f4c2 97bd
00000060: d684 a43c 00ca 863d e85f 2c3c 303a 603c
00000070: 9d07 a23b 2de9 6ebb 042b 093d cafd 353c
-0.049960762 -0.021823136 0.063384734 0.014095266 -0.01516609 0.025751935 -0.018581098 0.053126596
-0.013517097 0.09584268 0.018382587 0.008995037 0.042264443 -0.06875029 -0.019512856 0.037561927
-0.073425464 -0.043297134 0.028263493 -0.09924918 -0.018706977 -0.037467316 -0.02995338 -0.07410231
0.020082872 0.06581497 0.010520913 0.013685748 0.004944755 -0.0036454902 0.03348829 0.011107871

decoders.0.decoder_net.6.weight f4 [32]
00000000: 8559 7b3f ff73 7d3f ccde 6f3f 38ae 7a3f
00000010: 2c9f 7e3f 1c33 803f 54c9 6e3f e020 753f
00000020: 3d1f 793f f84f 733f 7417 723f eab4 753f
00000030: 299a 733f 554b 803f e168 743f 4920 773f
00000040: ca97 6c3f 6452 713f a726 773f 08f9 6e3f
00000050: 92ce 803f 4f48 7b3f ae7d 703f ab57 733f
00000060: 6386 733f 93dc 773f 1a43 783f 7cf8 723f
00000070: f438 723f 03b7 703f dff1 723f ee17 7e3f
0.9818347 0.9900512 0.93699336 0.97922087 0.99461627 1.0015597 0.9327595 0.9575329
0.9731329 0.950439 0.94567037 0.9597918 0.95157105 1.002299 0.9547253 0.9653364
0.9241911 0.94266343 0.96543354 0.9334874 1.006304 0.9815721 0.9394177 0.95055646
0.9512693 0.96820945 0.9697739 0.9491041 0.94618154 0.94029254 0.94900316 0.99255264

decoders.0.decoder_net.6.bias f4 [32]
00000000: 772d 593c 9ab1 3ebd 339a 5e3d b8e8 603d
00000010: 53bc cabb 59ab a8bb 9bd1 89ba 2da5 8d3c
00000020: 5f44 73bb c89b 38bd 048a a13c 20a8 673d
00000030: 5d78 d1bc af0c b9bc ea5d ad3b 60cc 23bd
00000040: f898 04bc acde 51bd 09b1 5a3d 85ba fcbc
00000050: e4af a23d 37e9 47bc f53a 64bd 0a64 d2bd
00000060: 7ead 0c3d c02d bf3b 0482 48bd 5604 a0bc
00000070: 6651 5e3d a0eb 593c 492d abbd 8db4 0bbc
0.013255469 -0.046556093 0.054346275 0.054909438 -0.006187001 -0.0051473794 -0.0010514738 0.017290676
-0.003711961 -0.04507044 0.019719131 0.05655682 -0.025570089 -0.022589056 0.0052907364 -0.03998983
-0.008093111 -0.051237747 0.05339149 -0.030850658 0.07943705 -0.012201599 -0.05572029 -0.10272987
0.034345143 0.0058343112 -0.048952118 -0.019533318 0.054276846 0.013300806 -0.08358247 -0.008526933

decoders.0.decoder_net.6.running_mean f4 [32]
00000000: 23c4 f73c c4d8 f33c aea5 073d 28a1 fe3c
00000010: ee7f fa3c 5785 083d cdd3 ff3c 06a0 0a3d
00000020: b70c fe3c 1814 0e3d 9c27 023d 7dbb 023d
00000030: e409 073d 23ec df3c bb05 013d 8485 023d
00000040: 437d e93c 691e f63c aec8 063d 7421 ec3c
00000050: 1d51 fc3c d49d f53c 0dda f53c 23b3 df3c
00000060: aeb1 0a3d ddaa 083d fc36 033d d83f 003d
00000070: 5de8 fb3c f55c ff3c b7fc 033d 1116 fb3c
0.030244892 0.029766448 0.03311699 0.031082705 0.03057858 0.033330288 0.031228924 0.033844016
0.031011922 0.03468713 0.031776056 0.031917084 0.032968417 0.027334278 0.031499606 0.03186561
0.028502112 0.030043798 0.032906227 0.028824545 0.030800397 0.029982485 0.030011201 0.027307099
0.033860855 0.033366073 0.03203486 0.031310886 0.030750448 0.031172255 0.03222343 0.03065017

decoders.0.decoder_net.6.running_var f4 [32]
00000000: 1f30 4e39 bac4 1e39 f507 4f39 3664 6c39
00000010: 9317 7839 bd86 ab39 23d1 1239 dec4 aa39
00000020: a485 1a39 a2c2 7839 9525 4039 72f2 2d39
00000030: 7a1e 6f39 9e33 d938 b656 7739 a75f 2139
00000040: d4fc 1239 70f8 2939 70d7 6a39 7bae 2e39
00000050: ef4a 1d39 60c3 1039 36c6 5839 c943 da38
00000060: 6095 a439 9ed6 4c39 35c5 8e39 6b69 1b39
00000070: a412 f338 7cc1 7539 6720 7239 8f76 3f39
0.00019663617 0.0001514134 0.00019744023 0.00022544045 0.00023659905 0.0003271605 0.00014001555 0.00032571604
0.0001473637 0.0002372363 0.00018324547 0.00016588884 0.0002280417 0.00010356981 0.00023588058 0.0001538979
0.00014017831 0.00016209646 0.00022396236 0.00016658932 0.00015000602 0.00013805693 0.00020673205 0.00010407676
0.0003139181 0.00019534907 0.0002723128 0.00014821223 0.00011590615 0.000234371 0.00023090989 0.00018259346

decoders.0.decoder_net.7.weight f4 [32, 16, 3, 3]
00000000: ff85 37bd a6e2 9a3c b436 743d 863a 2cbd
00000010: 17de 873d 0b5e b43c d8b6 ed3c 85d0 51bb
00000020: e0bd 8cbd ad8f 083d 2191 863d 8cd9 9cba
00000030: e272 68bc c592 403d 494d 8ebd fad8 90bd
00000040: 97bd c23c b8dc b53c 716d bb3b 3281 2ebd
00000050: a33e 483d 2077 273d 2466 3d3d 633a f43c
00000060: c098 723d 6dac 343c de96 c0bd 4e3f 823d
00000070: b798 fa3c d147 913d 8eea 8b3b 5ab4 4c3d
00000080: 7de8 bebc 8adb ae3d 32d8 ccbc 78dc 9dbd
00000090: ca54 31bd 1539 cb3b f174 d0bd db38 793d
000000a0: 7098 e5bc 706d 823d 93dd 0b3d 5600 1ebc
000000b0: aa58 643d fbcc 5e3d 1516 d1bd 8914 0bba
000000c0: 2b6c 0cbc 25a0 9e3c f6f9 dc3d 5622 f13c
000000d0: d832 23bd c151 3fbd c29a bd3c e259 bdb8
000000e0: 2fa1 39bd 6a81 623c 4d07 adbd 3d0d b53d
000000f0: 7159 213d 8adc e63b de0c 233d c1eb 75bd
00000100: 842b a13c 7fca ab3d b4a9 18bd 372e 15bd
00000110: 438a 753d 30b5 afbd 5a3c c0bc aa18 c5bc
00000120: 343e 17b8 1023 fa3b fb7d 463d 572f 0c3c
00000130: 92b3 42bd 94b7 15bd 5da8 7ebc 8c6c ca3d
00000140: 529a 753d 66e0 82bd 7744 cabc 9bbd 043d
00000150: 2e91 b6bd a911 05bd 52ba 8d3d d6d9 fb3c
00000160: da52 d4bc b171 5dbc b514 0b3d ccaf 5abd
00000170: ebc9 723d 8202 89bd 5ddc b1bd e66e af3d
00000180: c135 d2bd 2bdf 1bbd 260a c23c e227 8939
00000190: 5acb 193d 147d aabd 8663 daba 3e8d 39bd
000001a0: 5cfe 0abd 725b 9f3d 9c9f 9c3d 27fb 69bd
000001b0: 9785 553c f9bc 2bbd cf02 d2bd e4f2 2ebd
000001c0: ed2e 993d 7d82 27bd 91cb bf3d eb78 ddbc
000001d0: 11a0 6bbc d4be b7bb 8d36 253d c092 d83b
000001e0: 9d87 493b 0faa ce3c 1196 4bbd b5c4 1dbd
000001f0: fe09 ff3c 85ce 97bc 1777 453d 657d 59bd
00000200: 540b 263d 0446 56ba 4742 c6bc 44f5 893d
00000210: 917d 14bd 6cde 9ebd 530b 3bbd ab2b 293d
00000220: a4e6 a03c 5b81 93bd 43b8 aabd d34c bc3d
00000230: 45e5 76bd 0c96 cd3b 72cd 01bd d209 6bbc
00000240: 1e93 37bc cb2c 763c d5e8 113d d4b9 21bd
00000250: 07a5 ab3c 961f 363c 9ca1 d93c 9f69 d33d
00000260: ba5c 71bd 7ec2 f03c 50fa 483c 8189 3dbc
00000270: 43a1 8a3c bdfb 803d aa84 ae3c 5dfc 4abc
00000280: 83cd d1bc 9189 58bd d895 a3ba 12fd 6c3d
00000290: 6054 b3bc 92de 153c 5830 a13d cc49 d73c
000002a0: bb13 51bd 0bbd 9a3c 12b7 083d 76c4 bcbc
000002b0: fa35 9abd 417c 86bd ef00 5ebd 1ee4 133d
000002c0: 2caf cd3a e9f3 8b3c f1c6 fd3b de94 5bbc
000002d0: 299e 5d3d 4fb9 673c f471 6ebd 8a56 b83d
000002e0: 66cc ce3d 468e 9d3d 153b abbb 17a8 5cbd
000002f0: b2ec 3ebc 34ec bdbd 13d7 1a3d 0fa3 8bbc
00000300: 13d1 03be 4efb a2bd caa1 d5bd 64f5 7fbd
00000310: ed53 fcbc 4396 11bc d8f4 973c 6b52 753d
00000320: cb51 d3bd 018b ff3c a9a4 12bd c01c e3bd
00000330: a1e4 983c c856 09bd 27d4 b4bd a55f d43c
00000340: dbb3 793d 5aa1 003c d1f8 d73b 61aa 88bd
00000350: c3e6 dbbc d471 803c e683 dabc 4c81 ce3d
00000360: 2861 d33c e363 19bd e018 ba3c 707d 86bd
00000370: 3a5b c5bd 13ca 743c 818a 47bd dc05 c8bd
00000380: 465b 5abd 25f9 0abd ba0c c9bc db45 253c
00000390: bc02 8dbd f886 8abd 0869 aab8 6493 1e3d
000003a0: ad18 b73d 9ebc c93b 54ca 08bd c9a3 8d3d
000003b0: c89d f13c 0a5f 07bc 1fcf 673c 614f a43c
000003c0: fcb5 823d 3177 193d ec2e 84bc 3e51 353d
000003d0: bd2b 4ebd 8dc8 99bd 202d 213c b62a 813d
000003e0: dcbb 30b9 5886 0cbd f547 18bd 06d7 b9bc
000003f0: 8ddc 8bbd cbd3 bd3d f8fe af3d 6f9c 0a3d
-0.044805523 0.018906903 0.05962248 -0.042048 0.06634157 0.0220175 0.02901785 -0.0032015156
-0.06872153 0.033340145 0.0657065 -0.001196669 -0.014187546 0.04701497 -0.06948335 -0.07072635
0.023772044 0.022199973 0.0057198335 -0.04260368 0.04888786 0.04088509 0.046239987 0.029812997
0.059227705 0.011027438 -0.09403776 0.06359731 0.030590398 0.07093776 0.0042699045 0.049976684
-0.023304218 0.085379675 -0.025005434 -0.07708067 -0.04329375 0.006201873 -0.10178555 0.060845237
-0.02802679 0.0636853 0.034146857 -0.009643635 0.05574862 0.054394703 -0.1020929 -0.0005305489
-0.008570711 0.019363472 0.10789864 0.029435318 -0.03984341 -0.046708826 0.023145083 -9.028964e-05
-0.045319732 0.0138248 -0.08448658 0.088404156 0.03939194 0.0070453333 0.039807193 -0.060039286
0.01967407 0.083882324 -0.037271217 -0.036421027 0.05994631 -0.08579481 -0.023466278 -0.024059612
-3.6059137e-05 0.0076335743 0.048459988 0.008556209 -0.047534533 -0.036552027 -0.015543071 0.09883985
0.059961624 -0.06390457 -0.02469085 0.032407384 -0.089144096 -0.032487545 0.069203034 0.03074352
-0.025918413 -0.013515876 0.033955295 -0.05339031 0.059274595 -0.066899315 -0.08684609 0.08566074
-0.10264159 -0.038054626 0.02368648 0.0002616039 0.037547447 -0.08324638 -0.001666174 -0.045300715
-0.033933982 0.07781114 0.076476306 -0.057124283 0.013032339 -0.041928265 -0.10254442 -0.042712107
0.074796535 -0.040895928 0.09364999 -0.027035197 -0.0143814245 -0.0056074653 0.040335227 0.006609291
0.0030750998 0.025227575 -0.04970366 -0.038517673 0.031132694 -0.018531093 0.048209276 -0.0530981
0.040538147 -0.0008173885 -0.024201525 0.06736234 -0.036252562 -0.07757267 -0.045665096 0.04130141
0.019641228 -0.07202407 -0.083359264 0.091943406 -0.060277242 0.0062739905 -0.03169007 -0.014345603
-0.011204509 0.015025328 0.035622437 -0.03948386 0.020952715 0.011115929 0.02656632 0.1032288
-0.05892632 0.029389616 0.01226671 -0.011568428 0.016922599 0.06298015 0.021303494 -0.01238927
-0.025610691 -0.05286557 -0.001248057 0.057858534 -0.02189082 0.009147303 0.07870549 0.026280306
-0.051044207 0.01888897 0.033377714 -0.023042899 -0.075298265 -0.06566668 -0.05420011 0.03610622
0.0015692464 0.017084079 0.007744663 -0.013402192 0.05410591 0.014143302 -0.058214143 0.09000881
0.1009758 0.07693152 -0.005225549 -0.05387124 -0.011653112 -0.09273568 0.037802767 -0.017045526
-0.12872724 -0.07958089 -0.104312494 -0.062489882 -0.030801738 -0.008885923 0.018549368 0.059893053
-0.10318335 0.031194212 -0.035801563 -0.11089468 0.018663706 -0.033530027 -0.08829527 0.025924513
0.06096254 0.007850969 0.0065909405 -0.06673122 -0.026843434 0.015679277 -0.026674222 0.10083255
0.025803164 -0.037448775 0.02271694 -0.06566894 -0.09636541 0.014940756 -0.048716072 -0.097667426
-0.0533097 -0.03392901 -0.024542201 0.010087456 -0.06885287 -0.067640245 -8.125795e-05 0.03871478
0.089402534 0.006156518 -0.03339608 0.06916005 0.029494181 -0.008262405 0.014148503 0.020057382
0.06382367 0.037467185 -0.016135655 0.04426693 -0.05033468 -0.07508955 0.009837419 0.063069746
-0.00016854651 -0.034307808 -0.037178 -0.022685539 -0.06829176 0.09268912 0.08593553 0.033840593

decoders.0.decoder_net.7.bias f4 [16]
00000000: 5231 13bd 62b1 2b3d e563 ccbd 64cf 663d
00000010: 5091 2f3d b909 dbbd d75d 2a3d 812e 5dbc
00000020: 2bbf 43bd 316b 523d 4b93 163d e7f7 9a3c
00000030: a07e 2f3e 670f a1bd 3b15 b63a 8616 c1bd
-0.035935707 0.041917212 -0.09979991 0.056350127 0.04286319 -0.10695214 0.0415934 -0.013499857
-0.047789734 0.051371757 0.036761563 0.018917037 0.17138147 -0.07864266 0.0013891825 -0.09428124

decoders.0.decoder_net.9.weight f4 [16]
00000000: 4650 733f 11e1 763f a19c 723f 9539 763f
00000010: bd86 733f 0584 743f 409c 6c3f c837 743f
00000020: d5da 743f 1b28 753f 2ae6 743f 25e0 773f
00000030: e08d 773f 9634 753f b0f0 743f ecb1 733f
0.9504436 0.96437174 0.94770247 0.96181613 0.9512747 0.95513946 0.9242592 0.95397615
0.9564641 0.9576432 0.956637 0.9682639 0.9670086 0.95783365 0.9567976 0.9519336

decoders.0.decoder_net.9.bias f4 [16]
00000000: b985 45be 3a82 4e3d f46a f43c 1216 043d
00000010: 9ddf 063e 5b9b e03d 0879 f8ba a153 a43c
00000020: db72 9c3d 5e0a c7bd 2a41 aa3d 5dc4 afbd
00000030: b66d d2bd 6b47 f63d 9064 a9bd 5f43 5c3d
-0.19289292 0.050417162 0.029836155 0.03224761 0.13171239 0.10967132 -0.0018956969 0.020059409
0.076390944 -0.09718774 0.0831321 -0.08582375 -0.10274832 0.12025341 -0.08271134 0.053775188

decoders.0.decoder_net.9.running_mean f4 [16]
00000000: 3ed1 713d 9d2c 813d 6f3e 603d de13 8a3d
00000010: bccb 853d 09b6 683d 5d60 853d 70d3 793d
00000020: e05b 7e3d 98c8 883d 04ba 863d e3a6 7a3d
00000030: afda 943d 55cf 763d 1250 7e3d b5b0 673d
0.05903744 0.063073374 0.05474704 0.067420706 0.06533 0.056814227 0.065125205 0.06099266
0.062099338 0.06678885 0.065784484 0.06119431 0.07268273 0.06025632 0.06208808 0.056565005

decoders.0.decoder_net.9.running_var f4 [16]
00000000: f322 263a c953 543a 2213 df39 08d2 b43a
00000010: f940 8b3a 28f4 0e3a b714 623a c64d 4f3a
00000020: 3bbd 8b3a da51 893a eed2 5f3a 7085 4f3a
00000030: ea74 4d3a 5317 463a ed7c 723a ada5 073a
0.00063376053 0.0008099643 0.0004254813 0.0013795504 0.0010624222 0.0005453252 0.00086243026 0.00079080125
0.0010661253 0.0010476664 0.0008538206 0.0007916307 0.0007837551 0.0007556576 0.0009250183 0.0005174529

decoders.0.decoder_net.10.weight f4 [16, 1, 3, 3]
00000000: 14bc 5ebe c084 5cbe 8155 3ebe c2a4 24bc
00000010: e9fd 07be 0779 7b3e 8f9e 553e 1f54 943d
00000020: 3123 933c 6d97 a2bc 99f2 c7bd 4f28 b43d
00000030: 312c 9b3c 416b bebd d9c0 bebc 5059 833e
00000040: c0e7 413e 0cc7 433d e144 8cbe 67b7 45bd
00000050: 2541 f7bb 6173 14be ff5d 14bc 8bf9 b9bc
00000060: bd1b 2fbc d35e 5a3e bd06 13bd 53c8 3a3e
00000070: 5807 16bd fb6a 34bd 9ad4 953e 68b1 fa3d
00000080: 8f27 0f3e a731 813e ffb1 3ebe f45e 93be
00000090: ad92 4f3d acb6 71be ddb6 a3bc 8aed 333e
000000a0: cfbd 533e a2b6 943e 0db8 4cbe 8cf4 ccbb
000000b0: bb1e 70bd fbf8 9d3d 10da 6e3e 1b67 703d
000000c0: 6e4b f63d a27b 843e dea5 77bd c704 343e
000000d0: afac 303e 7a3e c33c 29e6 403e ebee b9bc
000000e0: 2b7d c8bd 7852 583e 3618 09be b65c a33d
000000f0: 6163 903d 5ac3 7dbd eae3 54bd 8a13 973d
00000100: 0f44 17be c6d4 693e b5cb 97bc 9089 80bd
00000110: 54e1 1b3e 2436 473e 6ce3 02bd a763 393e
00000120: ccc5 5fbd ed7e a43d 362d 7e3e d3b3 8a3e
00000130: ff79 8c3d 9275 35be a893 3c3e c64f b8bc
00000140: 0a1b 00be 87a6 733e 222f 73be fbcc 853e
00000150: bfa3 e0bd d423 54bd 1b2b 1abc 49e7 e5bd
00000160: e87c c43c 3be9 43be 9b8e 4d3e cee4 c53c
00000170: 42e7 8e3e a3b2 2ebe 70bd d43d d76e c83c
00000180: 0c34 7dbe ac2d 6dbd 204c 0f3e a0c0 173e
00000190: aebd 8bbe 957a 813e 6679 81be 80de d1bd
000001a0: e59a 6abe 903b 3cbd ddf9 453e f5f4 7d3e
000001b0: 31da cabc ddbb 91be 34fe 4cbe fbd6 a4bd
000001c0: 442a 93be e701 e7bd a454 353d 6cb0 22bd
000001d0: d3e3 18be 30d1 693e a95c cc3d 0109 6bbc
000001e0: 599c 223e 889a 8b3e f1ef b73c 586a cebd
000001f0: 9150 763e 55b3 d0bd 5357 7b3e fd67 8dbe
00000200: 62e1 81be 8f8b 05be 71e9 0ebe 71c6 89be
00000210: c9b6 6b3d 2b5c 353e 741b d13d e138 603e
00000220: a066 d33d 3c5b 943d f547 833e 62bf 073e
00000230: e2a1 533e a94e 8b3e 85bd 5abe 42cb 583e
-0.21751434 -0.21535015 -0.18587305 -0.010049047 -0.13280453 0.24557887 0.20861267 0.07242607
0.017961117 -0.019847596 -0.09763069 0.08796751 0.01894197 -0.09297801 -0.023285316 0.25654078
0.18936062 0.047797248 -0.273963 -0.04827061 -0.0075456076 -0.14497139 -0.009055614 -0.022702
-0.010687766 0.21325235 -0.035895098 0.1824048 -0.036628097 -0.044047337 0.29263765 0.12240869
0.13979934 0.25233194 -0.18622588 -0.2878338 0.05067699 -0.2360484 -0.019984657 0.17571083
0.20677875 0.29045588 -0.19992085 -0.006254738 -0.058623057 0.07713505 0.23325372 0.05869208
0.12026106 0.25875574 -0.060460918 0.17579947 0.17253374 0.023833502 0.18837799 -0.022696933
-0.09789499 0.2112521 -0.13388142 0.079766676 0.07050205 -0.06195388 -0.05197517 0.07376774
-0.14772056 0.22835073 -0.018529752 -0.06276238 0.15222675 0.19454247 -0.031955168 0.1810442
-0.054631993 0.08032022 0.24821934 0.2709032 0.068592064 -0.17720631 0.18415701 -0.022498976
-0.12510315 0.23793994 -0.23748448 0.2613295 -0.10968732 -0.05179198 -0.009409691 -0.11225755
0.023985341 -0.19131939 0.20073931 0.024156954 0.2791081 -0.17060332 0.10387695 0.024466915
-0.24726886 -0.057904884 0.13993883 0.14819574 -0.27293152 0.25288835 -0.25287932 -0.10247517
-0.2291065 -0.04595524 0.19333597 0.24800475 -0.024762245 -0.2846364 -0.20018846 -0.08048817
-0.28743184 -0.1127966 0.044270173 -0.03971903 -0.14930658 0.22833705 0.09978611 -0.014345408
0.15879954 0.27266335 0.02245328 -0.10078877 0.24054171 -0.10190455 0.2454503 -0.276184
-0.25367266 -0.13041519 -0.13956238 -0.2690921 0.057547364 0.1771094 0.102103144 0.21896698
0.103223085 0.07243964 0.25640836 0.132566 0.20667222 0.2720845 -0.21361358 0.21171287

decoders.1.decoder_net.0.weight f4 [512, 2]
00000000: 83f7 353e d406 cbbe a165 1dbf da43 a6be
00000010: 28e7 0b3f 2913 163e bfa2 173f 315a 36bd
00000020: 2fae 083f 23e4 cebe d86b 013f 2948 e53e
00000030: 28f4 a0be 36da bebe 7423 c23d 8b9d 91be
00000040: 93ef 5e3e 5cee 79be 8669 ee3e 7b5f 0dbf
00000050: e30b 113f 66f2 d83e d20f 4dbd 99aa c9be
00000060: 0b52 cf3d 9549 8c3e 7d4e 583e 6491 f4be
00000070: 5ade cabd 678f f9be a802 923e 5a7f d4bd
00000080: bc28 d63e 243d ebbe 1d7a 0d3c f773 d4be
00000090: cf9b 853e b785 c23d 78c0 8c3e 2830 0e3f
000000a0: aa35 12bf d51b 5f3e cfed f2bd db04 a93e
000000b0: c4d7 013f 7cc9 f63e 762e 043f 7098 1fbf
000000c0: e51a 7c3d e70e 2ebe da14 ec3c bdc6 e73d
000000d0: 7856 8fbe 316e d1be 43b7 1ebe d444 81bd
000000e0: 76d0 273f 04f2 8d3e c52e 01bf 51ac a9be
000000f0: 4dd0 0dbf 3a9e 833e a7db ff3e d9e2 dabe
00000100: 3a8b 4dbe 6308 ba3b 7860 e83e 7399 7bbd
00000110: 0327 153f 20ba 0f3f 2a74 4abe dbe9 bd3c
00000120: 7409 23bf 2982 01bf 1585 0b3e 8677 6abe
00000130: 3e46 53bd 3bae ad3d 19dd 203f fd71 243f
00000140: 97fd 27bf 8d1a bd3e bf36 093f 04b9 2fbf
00000150: 5dc3 e13d cc07 9d3c 1786 16bf 27ad 4abf
00000160: 1e28 c23e 641c 483e e4d4 36be e0d0 10bf
00000170: ebcd a8be fc87 debd d114 a3be a7c1 023f
00000180: 5f5f fbbc 0f33 e73e 6c4b 04bf 2bb5 753e
00000190: 1718 1dbf 0b28 e1bd e160 80be 8e6d d53c
000001a0: e505 29bd 348e 77be fa15 5f3e f8eb 38bf
000001b0: bde0 2bbd 2f50 073e 4b91 cd3e d055 03bf
000001c0: 280c 943e 3c0c 25bf 7543 f0be e3ae a7be
000001d0: 3f91 3cbf a9ac 023d df63 a13e 5184 03bf
000001e0: c120 353f e2fb 223f 7024 06be 42a4 e93e
000001f0: 5981 803d f856 afbe 40d8 dbbe b158 4c3e
00000200: 3d9d 52be 851e 8ebe b452 3bbe 88ab abbd
00000210: 5b7a 15bf 92df acbe c4df b5be 6b19 babe
00000220: b547 b13d 0af5 89be 7805 303f fc71 a6be
00000230: 4e46 cabe 8ced 363f 3cf8 f9be 2de7 52be
00000240: e7f1 bf3e 2f95 9abe 89ff 1cbf cab2 02bf
00000250: 14a7 013f 0dd1 f33d a45d 11bf 6676 853e
00000260: 4ae6 58be d593 933d 13fa a53e a346 833e
00000270: 523b c63e 8d9e 403e cd5c 9b3e cffa 023f
00000280: 7413 11bf 452a 79bd 9ee0 37bf 8752 953e
00000290: e027 173f 376e 8e3e 79e1 2c3e 9a9d 0dbe
000002a0: 0a1f 7f3e c615 f03d 5177 12be 4fd7 d53e
000002b0: 7be4 1d3f f72a 91be eb0d 2bbe 546b 05bb
000002c0: 82e0 243d 7fa5 073f c94f 5ebd d466 a7bd
000002d0: 58cb 26bf 364b f13d 3b98 28be f413 683f
000002e0: 054b 1cbf a948 d43e 1955 273d bc3f 18bf
000002f0: f237 283e 71be 953d 28f6 f93c b2c3 cc3e
00000300: 1677 0fbf b8ad a83e f3dc a5be 689e f0be
00000310: 171a 6f3e eaeb f03a a8c7 1c3f ba21 a03c
00000320: 3ae7 993e 05f6 883e 34ad df3e eba4 4cbe
00000330: 95a4 50bf ef28 02bf 4b29 ddbe 87f6 883e
00000340: 523d c73e c4d2 143f 5014 223f 3d7c e8bc
00000350: aa82 54be c31f 5f3d 193b 243e e417 003f
00000360: 0120 92be 438f 3dbe 737d 163f c86f c33e
00000370: 148b 04bf b63c 26bf 494a e7be 5f78 eb3e
00000380: c855 ebbe 8161 dbbd 6f4b cebe 842f e1be
00000390: d622 933e 5d3e 07bf 56b9 7dbe cc49 2b3f
000003a0: 22c7 f33d 193b f2be 49f7 2bbe c66c b4bd
000003b0: f07c 983e 416e e83d 39a6 2e3f fd46 343f
000003c0: 7d77 37be 33c6 33bf ad43 d8be 7dbc 91bd
000003d0: 48a6 07bf d45b 9cbe e8ff dbbe 9ded 24bf
000003e0: c7b7 8fbe 8b7e f5be 186e 863e 7047 f33e
000003f0: e901 563d 5100 453e d439 883d c879 2f3e
0.177702 -0.39653647 -0.614832 -0.32473642 0.5464959 0.14655747 0.59232706 -0.044519607
0.53390783 -0.4040843 0.5055518 0.44781616 -0.31436276 -0.37275857 0.094794184 -0.28440508
0.21771078 -0.24407333 0.46564883 -0.55223817 0.5665876 0.42372435 -0.050063916 -0.39387968
0.1012307 0.2739989 0.21123691 -0.47767174 -0.099056914 -0.4874222 0.28517652 -0.10375853
0.41827953 -0.45945084 0.008635071 -0.41494724 0.26095435 0.0949816 0.27490592 0.5554223
-0.57113135 0.21787961 -0.11861765 0.33011517 0.5071986 0.48200595 0.51633394 -0.62341976
0.061549086 -0.16997872 0.028818537 0.11317203 -0.27995658 -0.40904382 -0.15499596 -0.06311956
0.6555246 0.27723706 -0.5046199 -0.3313928 -0.55395967 0.25706655 0.4997227 -0.42751196
-0.20072642 0.0056772693 0.453861 -0.061425637 0.5826265 0.5614338 -0.19770876 0.0231828
-0.636863 -0.50589234 0.13624986 -0.22897157 -0.05158066 0.084804974 0.6283737 0.6423643
-0.6562132 0.3693432 0.5359916 -0.68641686 0.11023591 0.019168757 -0.58798355 -0.7917046
0.37921232 0.1954208 -0.17854649 -0.5656872 -0.32969603 -0.10865781 -0.3185182 0.5107674
-0.030685125 0.45156142 -0.51677585 0.23994891 -0.61364883 -0.10993966 -0.25073913 0.026053216
-0.041265387 -0.2417534 0.21785727 -0.7223506 -0.041962374 0.13214181 0.40149912 -0.51302814
0.28915524 -0.64471793 -0.46926466 -0.32750615 -0.7365913 0.031902943 0.31521508 -0.51373774
0.70753103 0.6366559 -0.13099837 0.4563313 0.06274671 -0.3424604 -0.42938423 0.19955708
-0.20567794 -0.2775766 -0.18293267 -0.08382326 -0.58389825 -0.3376432 -0.35522282 -0.36347517
0.08656255 -0.26944762 0.68758345 -0.32508838 -0.39506763 0.7145622 -0.488222 -0.20595999
0.37489244 -0.30191943 -0.61327416 -0.5105406 0.50645566 0.11905108 -0.5678351 0.26066893
-0.21181598 0.07205931 0.32417354 0.2563983 0.38717133 0.18810482 0.3034424 0.51163954
-0.5667031 -0.060831327 -0.71827114 0.29164526 0.5904522 0.27818462 0.16882886 -0.13829651
0.24914184 0.11722903 -0.14303328 0.4176583 0.6167676 -0.28353092 -0.16704528 -0.0020358162
0.04025317 0.529869 -0.054275308 -0.0817391 -0.6515403 0.117819235 -0.16464321 0.90655446
-0.6105197 0.41461685 0.04085264 -0.5947225 0.16427591 0.073117144 0.030512884 0.39993054
-0.56041086 0.32945037 -0.32395133 -0.46995854 0.23349796 0.0018380855 0.6124215 0.019547332
0.30059224 0.26750198 0.4368683 -0.19984786 -0.8150113 -0.5084371 -0.43195567 0.26750585
0.3891397 0.581341 0.63312244 -0.028379554 -0.2075297 0.05447365 0.16038169 0.50036454
-0.28540042 -0.18511681 0.5878517 0.3817122 -0.51774716 -0.6493639 -0.45173863 0.45990273
-0.45963883 -0.10711957 -0.40291926 -0.43981564 0.28737515 -0.52829534 -0.24777731 0.6690948
0.11903216 -0.47310713 -0.1679355 -0.088098094 0.2978282 0.11349154 0.68222386 0.7042082
-0.17916675 -0.70224303 -0.42239133 -0.071160294 -0.529881 -0.3053881 -0.42968678 -0.6442507
-0.28069898 -0.47948107 0.2625587 0.4751544 0.052247915 0.19238402 0.06651655 0.171363

decoders.1.decoder_net.0.bias f4 [512]
00000000: 5d8c ae3e 6959 b73d 90c1 4dbe fd55 633e
00000010: 7359 4c3d 4216 fcbe 1af3 1ebe 7c6c bb3e
00000020: e011 803e 77b3 2f3f d775 2fbf 47a3 953e
00000030: 0d81 f9be abf7 b63e e10d 823e 0f3e 203f
00000040: ac68 9ebd 1cf0 cfbe f9be 4bbf 51f9 c33e
00000050: e03f d33e 6f66 aabe ce20 05bf 5bdb 4b3c
00000060: 17f9 52be ca51 853e f460 1abf c973 c8be
00000070: 1ee2 373f 5b8a fe3e ed47 863e 56a7 27bf
00000080: 411a febe d562 a3be 5a70 123f d09f 6d3d
00000090: 8a08 1cbb ae7a 1abf 8f2c 7cbe 8775 06bf
000000a0: 8603 033f e64f 0d3d 2981 34be 0bc4 d3bd
000000b0: e344 a63e 7ee8 a8be 5b63 c23c 9fb8 293e
000000c0: 9566 fbbe 42d9 de3e dfa0 543d 58ad 023f
000000d0: 6e06 163f c62d 26bf 7418 59bf 624d 2d3f
000000e0: c6ad 013f 7aec 413f 41f0 693e c28c d93e
000000f0: db1e 2bbf 8fbe 38bd 609f e0be 824a c73e
00000100: 9637 9bbe f065 843e 5e3d 553e 9b5f 7c3e
00000110: 18a8 c3bc 5bfe 0abe bdb8 943d 1f6b 0b3f
00000120: 9968 86bd 264b 00bf c288 613e 4928 22bf
00000130: 3d8e 32bf 4a9b 63be 2e92 a1be ae31 4ebe
00000140: 0210 31bf 39c0 0e3f c352 b3be 9df3 febe
00000150: e6c3 ea3e 1f59 eb3e 8dba f23e 6e9a 9fbe
00000160: 3da1 89be 00eb 8abe ba39 ca3e 7e54 963e
00000170: e9e0 173f 9a2d f23e 58e4 de3e 0ad3 503d
00000180: e307 6bbe fa14 0dbf 3278 1cbf 8293 dfbe
00000190: 3fea d3be 0608 13bf ff92 afbe 5976 0dbf
000001a0: 8cc1 7a3e dde4 7fbe 9255 d6be 46a7 893e
000001b0: fd52 0d3e 90dd 44bd b3fc f5be 62c3 273f
000001c0: bc01 213f 463c ccbe 5da9 173d f002 70be
000001d0: 4aa8 dbbe e490 94bd 342b 0fbf 56d0 ddbe
000001e0: a892 ab3e 52e4 1d3f 455b 17bf 063e f3be
000001f0: f639 143e 0bbd 44bf d9dc d0be 4193 e03e
00000200: c0b2 b13e 6e11 173e 1350 2e3d 8821 813a
00000210: f6eb 2bbf 10a0 bcbe 2fd8 c7bd 5eaa a13d
00000220: d0a5 09bf 06fe 913d 3433 123f a359 96be
00000230: f219 a63d e522 62be ea1d cabe 8c38 d6be
00000240: 7542 eebe 77ff 0abf a274 0abe 8600 08be
00000250: 35e1 c1bd 8895 193f c368 dd3e 0ccd 38bf
00000260: 3329 fa3e 5aa7 08bf d336 d9bd 42da bb3e
00000270: e905 0e3f 870b dcbd 69f7 50be 5e31 1b3f
00000280: 55b8 0dbe 54d7 ef3e 807c 0ebf dcc5 16be
00000290: cb67 5f3e d40f 823e c038 e33e 9747 0d3f
000002a0: a19c 0cbf 8822 b23e efc1 853e 29e4 073f
000002b0: ea2f 1abf 6911 373f 8f19 a3bd f284 08bf
000002c0: 82da 1abf ce0f 343f 36cd 513e 9532 cabe
000002d0: ad55 f93e 3760 a9bd fc16 cc3e 026a 153f
000002e0: 9109 20bd a3e7 b9be e729 e1bd 8266 613e
000002f0: 29fd eebe 9c24 1cbe 2c9b 913e 4ca6 f5be
00000300: e706 86bd a0d0 173f c8de de3e 2c6f e83d
00000310: ebb3 d9be 75f0 f0be d6dd 15bf 41c8 1bbf
00000320: 6b8b 83bd 0688 f0be d14d ffbe 0bb7 e43e
00000330: b382 c33d fa1f b2be dcbe 85bc 71a1 8a3e
00000340: 76a6 093f 9d5f 283f 8124 a63d eb0f 6b3e
00000350: 200f 473e 747b da3e 9895 ba3e efa6 6c3e
00000360: e851 8c3e 9798 87be 89d0 353f 5a7a dabe
00000370: 6323 61be e0ca 213f 755b 693e 3239 10bf
00000380: 61a2 913e e0e7 31bf 1091 07bf bb75 133f
00000390: f11e c8be c506 9fbe 852b eebe a2f5 adbe
000003a0: 0de2 37bf ecf7 353f beb1 7bbe 7296 293f
000003b0: 3590 0f3f 1c63 0cbf 5e03 18bd c959 0dbf
000003c0: 4a7d 08bd acf9 4dbe caf8 803e 2b89 603e
000003d0: 8d2a 50bd fc1f 0c3f 26a8 3a3f 4304 f6bd
000003e0: 3153 fb3e 9f86 b3bd 2222 99be 6bd1 183e
000003f0: 7300 ef3e 9427 643e ea27 ae3d 8eee dd3e
0.34091464 0.089526005 -0.2009337 0.2220077 0.049889993 -0.4923573 -0.15522423 0.36606205
0.25013638 0.68633217 -0.68539184 0.29226133 -0.4873127 0.3573583 0.25401214 0.62594694
-0.07734808 -0.40612876 -0.79588276 0.3827615 0.4125967 -0.33281276 -0.5200318 0.012442435
-0.20602833 0.26038963 -0.6030419 -0.39150837 0.718294 0.49714932 0.2622675 -0.6548971
-0.49629405 -0.3191134 0.57202685 0.058013737 -0.00238088 -0.60343444 -0.24626373 -0.5252308
0.5117725 0.034500025 -0.17627396 -0.103401266 0.3247443 -0.32989877 0.023729017 0.16574334
-0.491017 0.4352513 0.05191123 0.5104575 0.5860356 -0.64913595 -0.8480294 0.676962
0.5065578 0.7575146 0.22845556 0.42490202 -0.66843957 -0.045103606 -0.43871593 0.38924032
-0.30315846 0.25859022 0.20824191 0.24645846 -0.023883864 -0.13573591 0.072617985 0.5446033
-0.06562919 -0.5011467 0.22024825 -0.6334272 -0.6974829 -0.22227207 -0.3155684 -0.20136139
-0.6916505 0.5576206 -0.3502408 -0.49795237 0.45852584 0.45966431 0.47407952 -0.31172508
-0.26880828 -0.27132416 0.39497167 0.29361337 0.5932756 0.47300416 0.43533587 0.050982513
-0.22952227 -0.5511013 -0.61120903 -0.43667227 -0.41389653 -0.5743412 -0.34291837 -0.5525871
0.24487895 -0.24989648 -0.4186216 0.26885432 0.13801189 -0.04806286 -0.48044357 0.65532506
0.6289327 -0.39889735 0.03702675 -0.2343862 -0.42901832 -0.07254198 -0.559253 -0.4332301
0.33510327 0.61676514 -0.5912364 -0.47508258 0.14475235 -0.76850957 -0.40793493 0.43862346
0.34706688 0.14752743 0.042556833 0.0009851912 -0.6715692 -0.36840868 -0.097580306 0.07893823
-0.53768635 0.07128529 0.5710938 -0.29365262 0.081104174 -0.22083624 -0.39475948 -0.41840017
-0.46535078 -0.5429606 -0.13521054 -0.1328145 -0.09466783 0.5999379 0.4324399 -0.72187877
0.48859558 -0.5338036 -0.1060616 0.36689955 0.5547777 -0.10744386 -0.2040688 0.60622203
-0.13839848 0.4684397 -0.5565872 -0.14723915 0.21816938 0.254027 0.44379234 0.5518736
-0.54926497 0.3479197 0.26124522 0.5308252 -0.6022936 0.7151094 -0.07963859 -0.5332786
-0.60489666 0.70336616 0.20488438 -0.39491716 0.48698178 -0.08270305 0.39861286 0.5836488
-0.039071623 -0.36309537 -0.1099432 0.2201176 -0.4667752 -0.1524834 0.284387 -0.47978437
-0.06544285 0.5930271 0.43529344 0.11349329 -0.4252008 -0.47058454 -0.5854162 -0.6085244
-0.06423076 -0.46978778 -0.49864057 0.446709 0.09546413 -0.3479002 -0.01632636 0.27076295
0.53769624 0.65770894 0.08112431 0.22955291 0.19439363 0.42672312 0.36442256 0.23110555
0.2740624 -0.26483604 0.71021324 -0.42671472 -0.21986155 0.6320019 0.22788794 -0.56337273
0.28444198 -0.6949444 -0.5295572 0.5760152 -0.39086106 -0.31059852 -0.46517578 -0.33976465
-0.718293 0.71081424 -0.24579522 0.66245186 0.5607942 -0.5483873 -0.037112586 -0.55215126
-0.03332261 -0.20114774 0.2518981 0.21927325 -0.05082183 0.54736304 0.72912824 -0.120125316
0.49086908 -0.08765911 -0.29908854 0.14923637 0.4668003 0.22280723 0.08503707 0.43346065
