Project2/models/model_4_2.pt (torch, 357003 bytes, 94 tensors)

prior.mean f4 [2]
0	0x00000000	0.0
1	0x00000000	0.0

prior.std f4 [2]
0	0x3f800000	1.0
1	0x3f800000	1.0

decoders.0.decoder_net.0.weight f4 [512, 2]
0	0xbeda3901	-0.42621616
1	0xbf1fd77d	-0.62438184
2	0xbd235b27	-0.03988185
3	0x3e3336c3	0.17501359
4	0x3f100958	0.5626426
5	0x3eac27a8	0.33624005
6	0xbf3f1792	-0.7464534
7	0xbf0a730f	-0.54081815
8	0xbee5fe34	-0.44920504
9	0x3e8ac883	0.27106103
10	0xbe90c697	-0.28276512
11	0xbef60d53	-0.4805704
12	0xbd4895bd	-0.048970927
13	0x3ec16298	0.37770534
14	0xbd437be2	-0.047725566
15	0x3e002a5a	0.12516156
16	0x3f0264e3	0.5093519
17	0x3f1c377a	0.6102215
18	0xbf299408	-0.662415
19	0xbe274a74	-0.16336995
20	0xbeecf8e7	-0.46283647
21	0xbf535c3a	-0.825626
22	0xbe93bc29	-0.28854492
23	0xbf04a476	-0.5181345
24	0x3f07f24f	0.5310411
25	0x3ea14640	0.3149891
26	0x3edc592d	0.43036786
27	0xbeda6fd7	-0.42663452
28	0x3ec8fe51	0.39256528
29	0x3f2b768a	0.6697775
30	0xbeb26c0c	-0.34848058
31	0x3cc96f1f	0.02458912
32	0xbe138820	-0.14407396
33	0x3f05a894	0.52210355
34	0xbf1b23f1	-0.6060172
35	0xbc7a17e9	-0.01526449
36	0xbd20232d	-0.039096046
37	0xbe699a41	-0.2281275
38	0xbec74198	-0.38917232
39	0x3cdb580e	0.026775386
40	0xbe461259	-0.19342937
41	0xbec5502d	-0.38537732
42	0x3e5b30af	0.2140529
43	0xbebabe37	-0.36473247
44	0x3e5bb3da	0.21455327
45	0xbf1acdc3	-0.6047022
46	0x3ee15eff	0.4401779
47	0x3e5b84e0	0.21437407
48	0x3f1e26d1	0.6177798
49	0x3e8c57db	0.27410778
50	0x3e49639c	0.19666904
51	0x3e39a2db	0.1812853
52	0x3f2d6bb4	0.67742467
53	0xbeb83c25	-0.35983387
54	0xbe10e7fe	-0.14150998
55	0xbe09e0a9	-0.13464607
56	0xbf39ff38	-0.7265506
57	0x3c01f67f	0.007932304
58	0x3bbca77e	0.0057572713
59	0xbf1f3aa4	-0.62198853
60	0xbf10458c	-0.5635612
61	0x3effee29	0.4998639
62	0x3ab8e491	0.0014106204
63	0x3ea467d2	0.3211046
64	0x3ef11115	0.47083345
65	0x3c4c1e14	0.012458343
66	0xbcc76f6f	-0.024345128
67	0xbe29a1e3	-0.16565661
68	0x3debdd40	0.115168095
69	0xbdd70d0f	-0.105005376
70	0x3edde1b5	0.43336263
71	0x3f2fe2eb	0.68705624
72	0xbec4ab48	-0.38411927
73	0xbc2fc082	-0.01072705
74	0xbeee7593	-0.46574077
75	0xbe622a6e	-0.22086498
76	0xbca8c8cf	-0.020603565
77	0x3e3d9b09	0.18516172
78	0xbd400e93	-0.0468889
79	0x3f1c2dbf	0.61007303
80	0xbed24a37	-0.41072246
81	0x3e50fe8a	0.20409599
82	0xbf1c50bb	-0.61060685
83	0xbe543519	-0.2072338
84	0xbf03fdef	-0.51559347
85	0xbeb13e6e	-0.34617943
86	0x3e9ae617	0.3025367
87	0x3a969eaf	0.0011491383
88	0x3f144f95	0.5793393
89	0x3f2028b6	0.6256212
90	0xbef27ccd	-0.4736084
91	0x3ec12dfc	0.37730396
92	0x3f2694bf	0.6507072
93	0x3f089c38	0.5336337
94	0x3ecf55b5	0.40495077
95	0x3cdb088b	0.026737472
96	0x3e87c700	0.26519012
97	0x3f0b459d	0.54403096
98	0x3f08afd9	0.5339332
99	0xbe2c029c	-0.1679787
100	0xbedc2aa3	-0.4300128
101	0x3e65e222	0.22449544
102	0x3f1e8bb6	0.6193193
103	0xbf1b944f	-0.60773176
104	0x3e78bbfb	0.24290459
105	0xbf1fd027	-0.6242699
106	0xbf11d362	-0.5696317
107	0xbf192b26	-0.59831464
108	0xbca4eacd	-0.020131493
109	0x3dceffc4	0.10107377
110	0xbeb2212e	-0.3479094
111	0x3eebcff7	0.46057102
112	0xbee9db5f	-0.4567518
113	0x3d04fcee	0.032467775
114	0xbe940c55	-0.2891566
115	0xbea555cc	-0.3229202
116	0xbf2aa746	-0.6666149
117	0xbe2c1a8c	-0.16807002
118	0xbec1a535	-0.37821355
119	0xbe95fb8a	-0.29293472
120	0xbd983d6f	-0.074335925
121	0xbe98f672	-0.29875523
122	0x3ee64a07	0.44978353
123	0x3d59bbc7	0.053157594
124	0x3e0c32e3	0.13691287
125	0xbe99b986	-0.30024356
126	0x3e73d338	0.23811042
127	0xbf2893a8	-0.65850306
128	0x3e3fa0f5	0.18713744
129	0x3f10218c	0.5630119
130	0xbc9c8672	-0.019107077
131	0xbeea5fec	-0.45776308
132	0x3e37e4e6	0.17958412
133	0x3ef949f8	0.48689246
134	0xbf082b9f	-0.5319156
135	0xbf088a7c	-0.5333631
136	0x3eb1d1d4	0.347304
137	0xbf254584	-0.645592
138	0xbe7daac5	-0.24772175
139	0xbc1342a4	-0.008988056
140	0x3edf1d9d	0.4357728
141	0x3e3053cd	0.17219467
142	0xbeda0382	-0.425808
143	0xbb48c0d2	-0.0030632508
144	0xbef80468	-0.48440862
145	0x3f03263c	0.51230216
146	0xbeb0cc5c	-0.34530914
147	0x3e0be2b5	0.136607
148	0x3e631497	0.22175823
149	0xbef471a3	-0.47742948
150	0x3eb2a580	0.3489189
151	0xbf0767d8	-0.5289283
152	0x3deb3022	0.1148379
153	0xbe1f5dbc	-0.155631
154	0x3f120451	0.57037836
155	0xbbf7270a	-0.0075424956
156	0x3f36dc51	0.71429926
157	0xbe97e896	-0.29669636
158	0x3e530ba9	0.20609917
159	0xbe878903	-0.2647172
160	0x3e9ec47d	0.31009284
161	0x3f2ebf6c	0.68260837
162	0xbea90736	-0.33013314
163	0xbf34b64b	-0.70590657
164	0xbed100a4	-0.408208
165	0xbed660c6	-0.41870707
166	0xbddea902	-0.108720794
167	0xbf17f9af	-0.5936536
168	0xbf0b4752	-0.544057
169	0x3f2bedb4	0.6715958
170	0x3e725e27	0.23668729
171	0x3be12b29	0.0068716
172	0x3f0264ad	0.5093487
173	0xbf41721c	-0.7556474
174	0x3e214ee0	0.15752745
175	0xbed0c8cf	-0.40778205
176	0xbeb446b3	-0.3521019
177	0xbf2df5ce	-0.67953193
178	0x3de0e1f3	0.109805964
179	0x3eae8e23	0.34092817
180	0xbd9954af	-0.07486855
181	0xbee16063	-0.4401885
182	0xba2e2bda	-0.00066441076
183	0xbf03255d	-0.51228887
184	0xbe843940	-0.25824928
185	0x3d47df10	0.048796713
186	0x3e8f06d0	0.27934885
187	0x3c59c269	0.01329098
188	0xbd90b3e4	-0.070655614
189	0xbf3f1d67	-0.7465424
190	0xbf0af4b6	-0.5427965
191	0x3f1875d4	0.5955479
192	0x3ebe3f49	0.37157658
193	0xbf0ed6af	-0.5579633
194	0x3e8570cc	0.2606262
195	0xbe8cd4ac	-0.27506006
196	0x3e7ff384	0.24995238
197	0xbe9e36c4	-0.30901158
198	0xbd4d9754	-0.050193146
199	0x3f18b7f2	0.5965568
200	0xbd59fa54	-0.053217247
201	0x3ee43f76	0.44579667
202	0xbf4f281c	-0.8092058
203	0xbecfdb21	-0.4059687
204	0x3f83a948	1.0286036
205	0x3e38357c	0.17989153
206	0x3cc337fe	0.02383041
207	0xbf084d22	-0.53242695
208	0x3e93a3bb	0.28835854
209	0xbf01b3ce	-0.50664985
210	0x3f0414e7	0.51594394
211	0xbd015982	-0.031579502
212	0x3d8907d4	0.06690946
213	0xbf0b80fc	-0.5449369
214	0x3f005b25	0.50139076
215	0x3f11cb3d	0.5695074
216	0xbe0c2076	-0.13684258
217	0xbf15ddfe	-0.5854186
218	0x3ee40450	0.4453454
219	0x3e7dd1d9	0.24787082
220	0xbf14f3ae	-0.58184326
221	0x3a8ceb71	0.0010751319
222	0xbefc4915	-0.49274507
223	0xbdc35006	-0.09536748
224	0x3ecbe256	0.39821118
225	0xbdb14f56	-0.0865771
226	0x3ecb2655	0.39677683
227	0x3f0b1347	0.5432629
228	0x3ef1d1a6	0.47230262
229	0x3edc1f11	0.42992452
230	0xbda45576	-0.08024113
231	0xbedd2e9e	-0.4319963
232	0xbe868f48	-0.2628119
233	0xbf223c3e	-0.6337317
234	0x3ed711a5	0.4200565
235	0x3edaa6bf	0.42705342
236	0xbea02bcc	-0.31283414
237	0x3f37e045	0.71826583
238	0x3dba4642	0.09095432
239	0x3ef49166	0.4776718
240	0xbdf67882	-0.12034704
241	0xbe4167b2	-0.18887213
242	0xbd25e5ab	-0.04050223
243	0x3f0059db	0.5013711
244	0x3f6fbf45	0.9365123
245	0x3e843358	0.25820422
246	0xbd565ed4	-0.05233653
247	0xbe3eaa72	-0.18619707
248	0xbf26de5d	-0.6518305
249	0xbf12ee91	-0.57395273
250	0xbe67a4b0	-0.22621417
251	0x3e81c24e	0.25343555
252	0xbe4324cf	-0.1905701
253	0x3f2284e8	0.6348405
254	0x3d5e00cd	0.054199982
255	0xbd6f5eb9	-0.058439944

decoders.0.decoder_net.0.bias f4 [512]
0	0x3e193ea3	0.149653
1	0xbf001988	-0.5003896
2	0xbf32e65a	-0.6988274
3	0xbf009c0c	-0.5023811
4	0xbb2aeb9b	-0.0026080373
5	0x3e8b6ab2	0.2722984
6	0x3f0b34ca	0.54377425
7	0x3f3bacf9	0.7331081
8	0x3e6afbfc	0.22947687
9	0x3e6e5b79	0.23277082
10	0x3eea5321	0.45766547
11	0xbead8507	-0.33890554
12	0x3e793ca0	0.24339533
13	0x3ea9ecd0	0.33188486
14	0xbc548b03	-0.012972596
15	0x3f179dd3	0.59225196
16	0x3ef79013	0.48352107
17	0xbf2613aa	-0.64873755
18	0xbf1ba3f9	-0.6079708
19	0x3e27581c	0.16342205
20	0xbe9cb521	-0.3060694
21	0x3efcde08	0.49388146
22	0x3d6c8c52	0.057751007
23	0x3e41c8df	0.18924282
24	0x3d4218ed	0.047387052
25	0x3b6e5522	0.003636666
26	0xbe024864	-0.12722927
27	0x3d37c6ec	0.04486744
28	0x3ec414b7	0.38297054
29	0xbf0789bf	-0.5294456
30	0xbf10a762	-0.56505406
31	0xbec9d569	-0.39420632
32	0x3ee42673	0.44560584
33	0xbd463bd5	-0.048396904
34	0x3e809c07	0.2511904
35	0xbe538e9f	-0.20659874
36	0xbf38614d	-0.7202347
37	0x3b01ae06	0.0019787564
38	0xbe96240d	-0.2932438
39	0x3df6b9fc	0.120471925
40	0xbf1c1d2d	-0.6098202
41	0x3f01ca79	0.50699574
42	0xbf0d52ce	-0.55204475
43	0x3f1e186c	0.61756015
44	0xbd465b52	-0.048426934
45	0xbed4e813	-0.4158331
46	0xbf34b11d	-0.70582753
47	0xbeb7e535	-0.3591706
48	0x3ef09021	0.46984962
49	0x3ee0d7c9	0.4391463
50	0xbee81d5a	-0.45334893
51	0x3f301fb5	0.6879838
52	0xbe1ebde7	-0.1550213
53	0xbf1360ca	-0.57569563
54	0x3da6a24e	0.08136426
55	0x3e83794b	0.25678477
56	0xbe5afe46	-0.2138606
57	0xbf20eace	-0.62858284
58	0xbf3142c5	-0.6924251
59	0x3f1732e1	0.5906201
60	0x3f1fe695	0.62461215
61	0xbe16999e	-0.14707038
62	0xbea1a863	-0.3157378
63	0xbefc31a8	-0.49256635
64	0xbf21fad8	-0.6327338
65	0xbe5e15bb	-0.21687977
66	0x3e1eff93	0.15527181
67	0xbee246f8	-0.4419477
68	0xbe4347d3	-0.19070368
69	0x3eb4743e	0.35244936
70	0xbe93e05b	-0.28882107
71	0xbeecfd6a	-0.4628709
72	0x3e5445af	0.20729707
73	0xbf368057	-0.7128958
74	0x3ec9b2ed	0.39394322
75	0xbecb881d	-0.39752284
76	0xbf1e3c40	-0.61810684
77	0xbf0d5de5	-0.55221397
78	0xbea6c4f6	-0.32572144
79	0xbe83bc5a	-0.25729638
80	0xba6fdeb2	-0.00091503107
81	0xbee3f291	-0.44521
82	0x3eb37ae2	0.3505469
83	0xbdbf18aa	-0.09330876
84	0x3e7368ea	0.2377049
85	0x3e2ddeda	0.16979542
86	0xbe9116bf	-0.28337666
87	0xbea3f586	-0.32023257
88	0xbf0fdd74	-0.56197286
89	0xbe1c3b60	-0.15257025
90	0xbe8cc058	-0.27490497
91	0x3f2e049d	0.6797579
92	0x3e3dd7a5	0.18539293
93	0x3e9e7f99	0.30956724
94	0x3d0856b4	0.03328581
95	0xbda9b55b	-0.08286544
96	0xbef7c943	-0.48395738
97	0xbf0f3621	-0.5594197
98	0x3e3319dc	0.17490333
99	0xbe9e3b01	-0.3090439
100	0xbeb8e8a9	-0.36115006
101	0xbec262f8	-0.37966132
102	0x3eb1a57d	0.3469657
103	0x3d7573b2	0.05992479
104	0x3e24230a	0.16028991
105	0x3f199bd4	0.600034
106	0x3e9ccc09	0.30624416
107	0x3f00a550	0.50252247
108	0xbea2c74a	-0.3179267
109	0x3ddb05bd	0.10694454
110	0xbe19d8c7	-0.150241
111	0xbeae304b	-0.3402122
112	0xbeb34dfa	-0.3502043
113	0xbeb231ef	-0.3480372
114	0xbe5678e6	-0.20944557
115	0x3dc54390	0.09632027
116	0xbf0e377b	-0.55553406
117	0xbf252a1b	-0.6451737
118	0xbf1dde92	-0.6166774
119	0xbed505ab	-0.41605887
120	0xbec88dc4	-0.3917066
121	0xbc9c57cf	-0.01908484
122	0xbde27487	-0.11057382
123	0xbe05c47a	-0.13063231
124	0x3eaeba9b	0.34126744
125	0xbe2a8128	-0.16650832
126	0xbed0647d	-0.40701666
127	0xbe9ef369	-0.31045082
128	0x3f187346	0.59550893
129	0xbf2d1e39	-0.6762424
130	0xbf310b56	-0.6915792
131	0xbe7d4fd8	-0.24737489
132	0xbe8ef3fe	-0.27920526
133	0xbf29fc9b	-0.6640107
134	0xbf1b315b	-0.60622185
135	0x3f23f6aa	0.64048254
136	0x3f2f168f	0.68393797
137	0xbdc49e05	-0.09600452
138	0xbeda816e	-0.42676872
139	0xbe8c9bc8	-0.27462602
140	0x3f275187	0.65358776
141	0xbe65b51f	-0.22432373
142	0x3e270782	0.16311458
143	0xbf3182df	-0.6934032
144	0xbe329383	-0.17439084
145	0x3ea079d2	0.31342942
146	0xbf0e9de7	-0.5570969
147	0xbe976e2a	-0.29576236
148	0x3e8f7003	0.28015146
149	0xbbce3977	-0.0062934714
150	0xbf153e6a	-0.5829836
151	0xbee50a8a	-0.44734603
152	0x3e686328	0.22694075
153	0x3f20d922	0.6283132
154	0x3da3a44a	0.0799032
155	0xbe621ba0	-0.2208085
156	0xbebbffb5	-0.36718526
157	0xbe6343f9	-0.22193898
158	0xbed29532	-0.41129452
159	0xbeba1eb2	-0.36351544
160	0xbecdbbe1	-0.40182403
161	0xbe3681b1	-0.17822911
162	0x3e421f4b	0.1895725
163	0x3e974c63	0.29550466
164	0xbec3a434	-0.38211215
165	0xbeba1408	-0.36343408
166	0xbf07df53	-0.5307514
167	0xbda99cdb	-0.08281871
168	0x3f20b171	0.62770754
169	0xbeb3bf26	-0.35106772
170	0x3f5397e2	0.8265363
171	0x3f13f608	0.5779729
172	0xbde9f98f	-0.11424553
173	0xbf04f606	-0.519379
174	0xbe5f26bb	-0.21792118
175	0xbf1e8c46	-0.6193279
176	0x3e296bd9	0.16545047
177	0x3f12b2ff	0.57304376
178	0x3ee89bc4	0.4543134
179	0xbf3277f2	-0.6971427
180	0x3f0b36cb	0.5438048
181	0x3eb34130	0.35010672
182	0x3e2ebd97	0.1706451
183	0xbcb78e66	-0.022406768
184	0x3d3ef884	0.04662372
185	0x3cde9dbd	0.027174825
186	0x3f079530	0.5296202
187	0xbf2a0474	-0.66413045
188	0x3eaeef40	0.34166908
189	0x3ecdbdd6	0.40183896
190	0xbd8454a5	-0.06461457
191	0xbd91a410	-0.071113706
192	0xbeceb563	-0.40372762
193	0xbf0a4d3a	-0.5402409
194	0xbc91ca1f	-0.017796574
195	0xbece46ed	-0.40288487
196	0x3ea18482	0.31546408
197	0xbe29a945	-0.16568477
198	0xbf4574a8	-0.7713113
199	0x3f149d9f	0.5805301
200	0xbf098fb2	-0.53734887
201	0x3e2389dc	0.15970558
202	0x3e40d67a	0.18831816
203	0xbeffc817	-0.49957344
204	0xbf0a5c36	-0.5404695
205	0xbe9c1878	-0.30487418
206	0x3f1941e7	0.59866184
207	0x3d6d1e0f	0.057889994
208	0x3f0824bf	0.5318107
209	0x3dd5c40c	0.104377836
210	0xbefea9b7	-0.49738857
211	0x3ecf1ec6	0.40453166
212	0xbeed92c5	-0.4640104
213	0x3f0edc81	0.5580521
214	0x3f27c6e4	0.6553786
215	0xbf1592c0	-0.5842705
216	0x3e863bae	0.26217407
217	0xbed72cb0	-0.4202628
218	0x3e90b3ab	0.28262076
219	0xbe82813b	-0.2548922
220	0x3e57deb3	0.21081047
221	0x3f0ac901	0.5421296
222	0x3cd5b605	0.02608777
223	0x3e66ee86	0.22551927
224	0x3eeeea6a	0.4666322
225	0x3e8881ed	0.26661626
226	0x3eb95a74	0.36201823
227	0xbefbda93	-0.49190196
228	0xbf10b231	-0.565219
229	0xbd90dca5	-0.070733346
230	0xbf1a53c9	-0.60284096
231	0xbf2baa55	-0.6705678
232	0xbe5d8396	-0.21632227
233	0x3d2e5188	0.042558223
234	0x3f1200b9	0.5703235
235	0x3f1cc250	0.61234
236	0x3dcb54f3	0.09928312
237	0x3e23064e	0.15920374
238	0x3eeb8538	0.46000075
239	0xbe9b16e3	-0.302909
240	0x3f023737	0.508655
241	0x3f25bc23	0.647402
242	0x3b79e633	0.0038131594
243	0x3cdc5171	0.026894303
244	0xbeb90d31	-0.36142877
245	0xbea0ffe8	-0.3144524
246	0xbf165df8	-0.58737135
247	0x3df26033	0.11834755
248	0x3e6f9675	0.23397239
249	0xbe7fa7fc	-0.24966425
250	0xbe015a59	-0.12632121
251	0xbeae3c53	-0.340304
252	0x3f1a0f77	0.6017985
253	0x3eb64ba5	0.35604587
254	0xbeb1001f	-0.34570405
255	0x3eba7456	0.36416882

decoders.0.decoder_net.3.weight f4 [32]
0	0x3f7a3a9f	0.977457
1	0x3f7bc28b	0.98343724
2	0x3f7ae784	0.98009515
3	0x3f83c758	1.029521
4	0x3f831a1d	1.0242344
5	0x3f8210b9	1.0161353
6	0x3f7feab4	0.99967504
7	0x3f7c9f1b	0.98680276
8	0x3f789337	0.9709963
9	0x3f82b469	1.0211307
10	0x3f804405	1.0020758
11	0x3f820ef0	1.0160809
12	0x3f878c2e	1.0589654
13	0x3f805bf8	1.0028067
14	0x3f7e741b	0.9939591
15	0x3f85a110	1.0439777
16	0x3f8a8ea0	1.0824776
17	0x3f807d06	1.0038154
18	0x3f7b36dd	0.9813059
19	0x3f7c09cd	0.98452455
20	0x3f83ce2d	1.0297295
21	0x3f82f726	1.0231674
22	0x3f77af22	0.96751606
23	0x3f7d937f	0.99053186
24	0x3f759f01	0.95945746
25	0x3f76a924	0.9635184
26	0x3f7e7351	0.9939471
27	0x3f79f9fc	0.9764707
28	0x3f803ad6	1.0017955
29	0x3f7bb6b7	0.98325676
30	0x3f80e0fa	1.0068657
31	0x3f6fff5f	0.9374904

decoders.0.decoder_net.3.bias f4 [32]
0	0x3c7b3449	0.01533229
1	0x3bc9d35a	0.0061592283
2	0xbd364a4b	-0.044504445
3	0xbbdb8d79	-0.0067002145
4	0xbd1154de	-0.035481326
5	0xbc99470d	-0.018710637
6	0xbcf31961	-0.029675188
7	0xbb18cff0	-0.00233173
8	0xbc29b03f	-0.010356962
9	0xbc334ff0	-0.010944352
10	0x3c746970	0.014917716
11	0x3c01edf5	0.0079302685
12	0x3d677420	0.05650723
13	0x3c22df61	0.009940953
14	0x3d8bce7d	0.06826494
15	0x3b86a663	0.0041091903
16	0xbc4afa05	-0.012388711
17	0xbca1bf6c	-0.019744597
18	0x3cd824d4	0.026384749
19	0x3cb7933f	0.02240908
20	0x3d437745	0.047721166
21	0xbcd4f689	-0.025996463
22	0x3cbee315	0.02330164
23	0x3d166551	0.036717717
24	0xba81cf53	-0.0009903706
25	0x3cb9426d	0.022614682
26	0xbcc41905	-0.023937711
27	0x3cc37158	0.023857757
28	0x3b268df9	0.0025414212
29	0xbbe36bf0	-0.0069403574
30	0x3c29189a	0.010320807
31	0xba5e52c2	-0.000848096

decoders.0.decoder_net.3.running_mean f4 [32]
0	0x3d2810f6	0.0410318
1	0x3ce0828b	0.027405998
2	0x3c804d38	0.01566182
3	0x3d1d71f0	0.038438737
4	0x3cca58ac	0.024700485
5	0x3d4bca85	0.049753685
6	0x3cfbf877	0.030758126
7	0x3c9536fc	0.018214695
8	0x3cec4a09	0.028843896
9	0x3d286fe5	0.041122336
10	0x3ce38ad5	0.027776161
11	0x3cec3150	0.028832108
12	0x3cffb05e	0.031212028
13	0x3cf6dde2	0.030135099
14	0x3cb268b6	0.021778446
15	0x3cda7e41	0.02667153
16	0x3c4bcd1f	0.012439041
17	0x3d200d8b	0.039075416
18	0x3d5e2208	0.054231673
19	0x3d034b6c	0.03205435
20	0x3cfeb421	0.031091752
21	0x3ce6b169	0.028160768
22	0x3d31f314	0.043444708
23	0x3d40b9bb	0.047052126
24	0x3d37c3ba	0.044864394
25	0x3cf4de6e	0.029891219
26	0x3c941cec	0.018080197
27	0x3cc463ae	0.023973312
28	0x3d067057	0.03282198
29	0x3cbc60f3	0.022995448
30	0x3d149e9e	0.03628408
31	0x3cadb087	0.021202339

decoders.0.decoder_net.3.running_var f4 [32]
0	0x3b9980ce	0.004684544
1	0x3aa8e94d	0.0012886912
2	0x39918cfa	0.0002776159
3	0x3b1513d9	0.0022747426
4	0x3a2aeb1b	0.0006520019
5	0x3b823ad1	0.0039742966
6	0x3a306722	0.0006729235
7	0x3a198524	0.00058563263
8	0x3b27cb16	0.0025603226
9	0x3ab1b0b8	0.0013556695
10	0x3acdddd8	0.0015706373
11	0x3a71327d	0.0009200944
12	0x3acf542a	0.001581793
13	0x3a84b2bf	0.0010124071
14	0x39d62f9c	0.00040852732
15	0x3a9d428d	0.0011997983
16	0x395d6191	0.00021112549
17	0x3b02bce0	0.0019949004
18	0x3b5955ff	0.003316283
19	0x3ab45faa	0.001376142
20	0x3a6af0bc	0.0008962264
21	0x3a83ade7	0.0010046334
22	0x3b20f155	0.0024557908
23	0x3b49c557	0.003078779
24	0x3b431f9a	0.0029773475
25	0x3b0626fc	0.0020470014
26	0x398dd19c	0.00027049787
27	0x39d0e6fe	0.00039844954
28	0x3ac7ac46	0.0015233837
29	0x3a992297	0.0011683282
30	0x3a968bf8	0.0011485806
31	0x3a359932	0.000692743

decoders.0.decoder_net.4.weight f4 [32, 32, 3, 3]
0	0x3c64a637	0.013955644
1	0xbca66e06	-0.020316135
2	0xbb3f28a7	-0.0029168518
3	0xbb977d79	-0.004623112
4	0xbd411e78	-0.047148198
5	0xbd26ba70	-0.040705144
6	0x3c27b529	0.010236063
7	0xbce290a7	-0.027656866
8	0x3ceef4f5	0.029169539
9	0x3cb74945	0.022373805
10	0x3c492008	0.012275703
11	0xbd327495	-0.043568213
12	0x3bf00335	0.007324601
13	0x3da33113	0.079683445
14	0xbd0d41a9	-0.034486447
15	0xbd327535	-0.04356881
16	0x3d36060b	0.044439357
17	0xbca4484d	-0.020054007
18	0xbc1e6fe8	-0.009670235
19	0x3d516a7b	0.05112694
20	0xbd166a36	-0.036722384
21	0xbca59dda	-0.020216871
22	0x38909b9b	6.895439e-05
23	0x3d03a14e	0.032136254
24	0x3c89f05b	0.016838243
25	0x3cfb2b6f	0.03066036
26	0x3b79f56e	0.0038140672
27	0x3d33fd3a	0.043942668
28	0x3c08a601	0.00834036
29	0xbd2af001	-0.04173279
30	0x3a80b6d0	0.0009820107
31	0xbd1b806d	-0.037964273
32	0x3d8ca151	0.06866706
33	0xbccbde0a	-0.02488615
34	0xbd0d7050	-0.034530938
35	0xbcc7e6a8	-0.024401978
36	0x3c91fab7	0.017819745
37	0xbb5e8036	-0.0033950931
38	0xbd107246	-0.03526523
39	0x3d5da8df	0.054116126
40	0x3d2ddac9	0.042444978
41	0x3d43eaa0	0.047831178
42	0xbce846d8	-0.028354093
43	0x3ca5d148	0.020241395
44	0xb94123dc	-0.00018419273
45	0xbcdbd99f	-0.026837168
46	0x3d882495	0.066476025
47	0x3d3d6012	0.046234198
48	0x3caea188	0.021317258
49	0xbd0d8949	-0.034554753
50	0x391505e4	0.00014211942
51	0x3d5169ed	0.05112641
52	0xbbbeb3d4	-0.005819777
53	0x3c178087	0.009246952
54	0xbc93af59	-0.018027948
55	0xbc4a92b6	-0.01236408
56	0xbd1d601b	-0.03842173
57	0xbd7e7998	-0.06212768
58	0xbcef86fe	-0.029239174
59	0xbd0b9567	-0.034078028
60	0x3c315460	0.010823339
61	0x3d15b574	0.03655
62	0xbc23a0c7	-0.009987063
63	0xbcc9c08c	-0.024627946
64	0xbbfeb67e	-0.0077732196
65	0xbaec38a5	-0.0018022252
66	0xbd9b8373	-0.07593431
67	0x3ce7992b	0.028271278
68	0xbcf805a9	-0.030276136
69	0xbb69e24f	-0.003568787
70	0x3d4f9041	0.05067468
71	0x3ce4088e	0.02783611
72	0x3c2eef2a	0.010677138
73	0xbd1c0278	-0.038088292
74	0x3d712e7f	0.058882233
75	0x3cabd6f9	0.02097653
76	0x3dc66033	0.09686317
77	0x3cac706e	0.021049704
78	0x3c376d2a	0.01119546
79	0xbb8966ee	-0.0041931784
80	0xbcc530f6	-0.024071198
81	0x3d30f477	0.04320189
82	0x3cd7d92c	0.026348673
83	0xbc241932	-0.010015773
84	0xbd603b05	-0.054743785
85	0xbd7c3a43	-0.061579
86	0xbd905e31	-0.070492156
87	0x3cc8135e	0.024423297
88	0xbd388243	-0.045046102
89	0x3cf14a14	0.029454269
90	0x3d44c9c8	0.048043996
91	0xbd36d0c7	-0.0446327
92	0xbce3e399	-0.027818488
93	0xbd4e1bd1	-0.050319497
94	0xbd10bda6	-0.035337113
95	0xbbc3e093	-0.005977699
96	0x3cb08c0b	0.021551153
97	0x3d610d5f	0.054944392
98	0x3ceaf62f	0.028681843
99	0x3cccc298	0.024995133
100	0x3d18ba64	0.03728713
101	0xbc7ff552	-0.015622454
102	0xbcdf2604	-0.027239807
103	0xbd4833cd	-0.048877526
104	0x3d090d9e	0.033460252
105	0x3d981471	0.07425774
106	0x3cd77be7	0.026304198
107	0xbbf4210c	-0.0074502286
108	0xbd0bd895	-0.034142096
109	0xbc9cab48	-0.019124642
110	0xbd8f261e	-0.06989692
111	0x3d7728a6	0.0603415
112	0xbd0ce3ad	-0.034396816
113	0x3c18e91a	0.0093329195
114	0xbc9d3ce0	-0.019194067
115	0xbcdfde36	-0.027327638
116	0x3c349f93	0.011024374
117	0x3d17ea3d	0.03708862
118	0xbd455d53	-0.048184704
119	0x3d4d5934	0.0501339
120	0xbdb1a12d	-0.0867332
121	0x3c7dd1ba	0.015491897
122	0xbc4e4fde	-0.012592284
123	0xbc4744c8	-0.012162395
124	0x3cc6663c	0.024218671
125	0xbb04668b	-0.0020202722
126	0xbcee0666	-0.029055785
127	0xbc8b2a75	-0.016988019
128	0x3dc4fdab	0.09618696
129	0xbd1da6fc	-0.038489327
130	0x3c795a6c	0.015219312
131	0xbd5a8ac0	-0.05335498
132	0x3bbd0d71	0.0057694246
133	0xbdabb935	-0.08384935
134	0xbc095e86	-0.008384353
135	0x3d23e1e3	0.040010344
136	0xbca7c6b0	-0.020480484
137	0xbc892202	-0.016739849
138	0x3d186c7c	0.037212834
139	0xbb889386	-0.004167977
140	0xba7077c3	-0.00091731193
141	0xbae004c1	-0.001709126
142	0x3d57896b	0.052621286
143	0x3c1c571c	0.009542253
144	0xbbfd0cef	-0.007722489
145	0x3d2d34ad	0.042286564
146	0x3d4b42c7	0.04962423
147	0xbbc0b1d3	-0.0058805733
148	0x3d9fff66	0.07812385
149	0xbc3db4b8	-0.011578731
150	0xba2650b8	-0.00063444255
151	0xbc230631	-0.009950207
152	0xbd32bcd9	-0.04363713
153	0xbcde1d7a	-0.027113665
154	0x3bfec172	0.0077745253
155	0x3d2ea438	0.04263708
156	0xbd6992ad	-0.057024647
157	0x3c08673b	0.008325393
158	0x3b7ed598	0.0038884636
159	0x3d4479ea	0.04796783
160	0x3d0b9043	0.034073126
161	0x3d5bfc04	0.053707138
162	0x3d9dded6	0.07708518
163	0x3c5d7b8e	0.013518227
164	0x3b137786	0.0022501661
165	0xbaae5f9d	-0.0013303641
166	0xbda2f1c8	-0.07956272
167	0xba86cca5	-0.0010284377
168	0x3c02b5d3	0.007977921
169	0x3d0ca7f6	0.034339868
170	0x3bb1ffd1	0.005432107
171	0xbc6018e1	-0.013677807
172	0xbd47b9fd	-0.048761357
173	0x3d3da091	0.046295706
174	0x3d37b308	0.044848472
175	0xbcdf7e0a	-0.02728178
176	0xbd0dda53	-0.03463204
177	0x3d20fdb2	0.039304443
178	0xbd6ef770	-0.058341444
179	0x3c15f559	0.009152734
180	0x3d7f06ca	0.062262334
181	0x3d39eea2	0.045393594
182	0x3d4246a1	0.04743064
183	0x3cd35e80	0.025801897
184	0x3b27321b	0.0025512043
185	0xbcecb3b5	-0.028894285
186	0x3b8943d8	0.004188996
187	0x3c6164e0	0.013756961
188	0x3cbab9dd	0.022793705
189	0xbbffdbb3	-0.0078081726
190	0xbd9ac4f0	-0.07557094
191	0xbd0970cd	-0.03355484
192	0xbc4ea2bd	-0.012612042
193	0xbc8c42ee	-0.017121758
194	0x3d9df5c1	0.077128895
195	0xbd9eccfe	-0.07753943
196	0x3d445ae0	0.047938228
197	0xbd5c56b9	-0.053793643
198	0xbd181627	-0.0371305
199	0xbd2b83b4	-0.04187365
200	0x3d8bbbaa	0.068229035
201	0x3dcbe493	0.099557064
202	0x3c14d872	0.009084808
203	0xbb742ccb	-0.0037258144
204	0x3acdccf2	0.0015701337
205	0xbccad5ef	-0.024760215
206	0x3cf1666d	0.029467786
207	0x3d5e7abb	0.054316264
208	0xbd24bfe0	-0.04022205
209	0xbd23f612	-0.040029593
210	0xbc4351ac	-0.011921328
211	0xbcdc5e14	-0.026900329
212	0x3b83bcd7	0.004020314
213	0x3cc9f5bd	0.02465331
214	0xbd85ddbd	-0.06536434
215	0xbd811718	-0.06303233
216	0xbd62085c	-0.055183753
217	0x3c12854f	0.008942916
218	0x3ccefc01	0.02526665
219	0x3d3fbc06	0.046810172
220	0x3c1c7815	0.009550114
221	0xbb9b4663	-0.0047386154
222	0xbb6eb732	-0.003642511
223	0x3a064c16	0.0005123032
224	0x3d00729a	0.031359293
225	0xbbf515cc	-0.007479405
226	0x3d3b3fd2	0.04571516
227	0xbd41acda	-0.047283985
228	0xbd56c0c5	-0.052429933
229	0x3cfffa24	0.031247206
230	0x3cc41da0	0.023939908
231	0x3caa1305	0.020761022
232	0xbcca5485	-0.024698505
233	0xbcba9413	-0.022775685
234	0x3c3994a8	0.011326946
235	0xbccacd3e	-0.02475607
236	0x3a9c1461	0.0011907929
237	0x3c2709d2	0.010195212
238	0x3bc8c276	0.006126697
239	0x3cfdc0ce	0.030975726
240	0x3d08a7a5	0.033363003
241	0x3cd99197	0.02655868
242	0x3cb5d51b	0.022196343
243	0x3c34eb53	0.011042434
244	0xbcf1727d	-0.029473538
245	0xbc2447be	-0.01002687
246	0x3bdad698	0.0066784136
247	0x3d2669a6	0.040628098
248	0xbca54d91	-0.020178588
249	0xbc973e6e	-0.018462386
250	0xbb45eb07	-0.0030199902
251	0xbd3db063	-0.046310794
252	0xbd12ee90	-0.035872042
253	0x3cea95d6	0.0286359
254	0xbce72083	-0.028213745
255	0xbcd8bebe	-0.02645814

decoders.0.decoder_net.4.bias f4 [32]
0	0x3d20f7ef	0.039298948
1	0xbd14cf67	-0.036330607
2	0xbd1e478c	-0.03864245
3	0xbc319959	-0.010839784
4	0xbd759960	-0.059960723
5	0x3d33dd8b	0.04391245
6	0x3ce0b65f	0.027430711
7	0x3b521fc6	0.0032062395
8	0x3d67cd8e	0.056592517
9	0xbc9fc77c	-0.019504301
10	0xbd9f518d	-0.077792265
11	0xbd30c462	-0.043156035
12	0xbcb00e1c	-0.021491103
13	0x3cbcf09e	0.023063954
14	0x3d52ff7e	0.051513188
15	0x3cc565b9	0.024096357
16	0xbcb27489	-0.021784084
17	0x3c8e7fdc	0.017394952
18	0x3d01722c	0.031603023
19	0x3b758b30	0.0037466995
20	0x3da318e6	0.079637334
21	0xbd508ba9	-0.05091444
22	0x3c859975	0.016308526
23	0x3d7f7916	0.062371336
24	0xbcc5e7b6	-0.02415834
25	0xbd84c953	-0.06483712
26	0x3d160a99	0.0366312
27	0x3b1c4694	0.0023845779
28	0x3d4a1b7b	0.049342614
29	0x3c006eb0	0.00783889
30	0x3d7416eb	0.05959217
31	0x3c3bcdae	0.011462612

decoders.0.decoder_net.6.weight f4 [32]
0	0x3f7411ab	0.9533946
1	0x3f7e57f3	0.9935295
2	0x3f6c8438	0.9238925
3	0x3f6d3a66	0.92667234
4	0x3f6a42e0	0.91508293
5	0x3f6a79e9	0.9159227
6	0x3f6e3eb5	0.93064433
7	0x3f6df36d	0.92949563
8	0x3f707130	0.9392271
9	0x3f73f39c	0.95293593
10	0x3f6ab805	0.9168704
11	0x3f71f34a	0.94511855
12	0x3f7c1f07	0.98484844
13	0x3f79cb43	0.9757578
14	0x3f792d7c	0.9733503
15	0x3f7587de	0.9591044
16	0x3f7d95c5	0.99056655
17	0x3f775052	0.96606934
18	0x3f7949a6	0.97378004
19	0x3f67de30	0.90573406
20	0x3f7d9694	0.9905789
21	0x3f6f2535	0.9341615
22	0x3f7689b1	0.9630385
23	0x3f7976f7	0.9744715
24	0x3f734a38	0.95035124
25	0x3f713339	0.94218785
26	0x3f7c6949	0.9859815
27	0x3f73b35b	0.9519555
28	0x3f6c6757	0.92345184
29	0x3f6cf779	0.92565113
30	0x3f7788f8	0.9669337
31	0x3f70cfd7	0.9406714

decoders.0.decoder_net.6.bias f4 [32]
0	0x3c442409	0.011971482
1	0x3ce0214a	0.027359623
2	0x3d48963c	0.0489714
3	0xbb26d919	-0.002545899
4	0x3cc53b95	0.024076262
5	0x3ca32d6d	0.019919122
6	0x3d18fd26	0.037350796
7	0x3d1e87ab	0.0387036
8	0xbb9782b5	-0.004623736
9	0x3d94cc7f	0.07265567
10	0xbc4ead38	-0.012614541
11	0x3c421fab	0.011848371
12	0xbd1f087f	-0.038826462
13	0x3d4edec6	0.050505422
14	0xbcbee7ef	-0.023303954
15	0xbd075829	-0.03304306
16	0x3ca4f544	0.020136483
17	0x3dad1e38	0.084530294
18	0xbd869b26	-0.06572561
19	0xbc91187f	-0.017711876
20	0x3d30fa92	0.043207712
21	0x3cc227d7	0.023700638
22	0xbc504a92	-0.012713091
23	0xbca09742	-0.019603375
24	0xbd14f9de	-0.036371104
25	0x3d332de7	0.043744948
26	0x3c322f96	0.010875603
27	0x3c8ffc42	0.01757634
28	0xbc36367c	-0.0111213885
29	0x3d339eea	0.043852724
30	0xbbb757c8	-0.005595181
31	0x3d27af5c	0.04093872

decoders.0.decoder_net.6.running_mean f4 [32]
0	0x3d004f3f	0.031325575
1	0x3cfc137b	0.030771008
2	0x3cf16a47	0.029469622
3	0x3cfc8e48	0.030829564
4	0x3cf7b0ae	0.030235615
5	0x3d06c7b0	0.03290528
6	0x3d020eec	0.03175251
7	0x3cf9bb9f	0.030484973
8	0x3d036e03	0.032087337
9	0x3ceda80e	0.029010799
10	0x3cdd1ab9	0.026990281
11	0x3cef7b4c	0.029233597
12	0x3cfe402c	0.031036459
13	0x3d00115e	0.031266563
14	0x3d04dfab	0.03243987
15	0x3d05b300	0.03264141
16	0x3d007d7b	0.031369668
17	0x3d0454ab	0.03230731
18	0x3d0603b7	0.032718387
19	0x3cfb02e3	0.030641025
20	0x3d0bb0c7	0.034104135
21	0x3cea3ce4	0.028593488
22	0x3d09b0fa	0.033616044
23	0x3d050e0b	0.032484096
24	0x3d01c04b	0.031677525
25	0x3cea8c85	0.028631458
26	0x3d0423d9	0.03226075
27	0x3cf49588	0.029856458
28	0x3d07fffa	0.033203103
29	0x3cfc1d44	0.030775674
30	0x3d0b5cca	0.034024037
31	0x3d000673	0.03125615

decoders.0.decoder_net.6.running_var f4 [32]
0	0x3903ff89	0.00012588328
1	0x3952e61c	0.00020112883
2	0x39036189	0.00012529468
3	0x3935a63a	0.0001732343
4	0x3980ab5f	0.00024541744
5	0x3953666c	0.00020160683
6	0x39381328	0.00017554744
7	0x393f47ad	0.00018241881
8	0x39223af1	0.00015471481
9	0x390a0213	0.00013161478
10	0x3898debd	7.289413e-05
11	0x39028d62	0.00012450435
12	0x3938789b	0.00017592536
13	0x395db9bc	0.00021145394
14	0x39363146	0.00017375228
15	0x398a2d1c	0.0002635502
16	0x399c6c3b	0.00029835277
17	0x394ac87b	0.00019338906
18	0x393cfb8b	0.00018022784
19	0x39449413	0.00018747179
20	0x3964db99	0.00021825581
21	0x38ed74f4	0.00011322825
22	0x39cae80b	0.00038701328
23	0x394ec3fb	0.000197187
24	0x39895780	0.0002619587
25	0x38eaa7e3	0.00011189261
26	0x393f41cc	0.0001823969
27	0x38c6f0cc	9.486228e-05
28	0x39b11407	0.00033774992
29	0x3909e14d	0.00013149269
30	0x3a0a18b9	0.0005267966
31	0x38f309f7	0.00011588999

decoders.0.decoder_net.7.weight f4 [32, 16, 3, 3]
0	0x3a6121cf	0.0008588107
1	0xbdfad396	-0.12247388
2	0x3cabc803	0.020969396
3	0xbdc5737e	-0.09641169
4	0xbc208893	-0.009798187
5	0xbb88dc86	-0.004176679
6	0xbda74c92	-0.081689015
7	0xbd169ec9	-0.036772523
8	0xbd614295	-0.05499514
9	0x3d010477	0.0314984
10	0xbc8785d0	-0.016543299
11	0x3d80e295	0.06293217
12	0x3caa99f8	0.020825371
13	0x3d4e9cd7	0.050442543
14	0xbdea2b07	-0.11433988
15	0x3cb6b2fa	0.02230214
16	0x3cc4cdc0	0.02402389
17	0x3b94b647	0.0045383307
18	0xbd57fa5b	-0.052728992
19	0x3cc58e20	0.024115622
20	0x3db483c8	0.08814198
21	0x3d8b3de6	0.067989156
22	0x3a4bb0c8	0.0007770178
23	0x3c21f39a	0.009884739
24	0x3cc9bd13	0.02462629
25	0x3d54156d	0.051778246
26	0xbd37ad83	-0.044843208
27	0xbcff73d7	-0.031183166
28	0x3d9f78ac	0.07786688
29	0xbc22e6e5	-0.009942745
30	0xbd5323e3	-0.051547896
31	0xbdb64b21	-0.089010485
32	0x3dad175c	0.08451721
33	0x3ba76663	0.005108641
34	0x3c1e73e6	0.009671187
35	0x3da43125	0.08017186
36	0xbd2d100e	-0.04225164
37	0x3daadfe8	0.08343488
38	0x3cebab06	0.028768074
39	0x3b403fd4	0.002933492
40	0x3d8f0f36	0.06985323
41	0x3cf1f6e8	0.02953668
42	0xbd38078e	-0.04492908
43	0xbc936d94	-0.017996587
44	0x3d5aa7b9	0.05338261
45	0x3da9cb7e	0.08290766
46	0x3d87d620	0.06632638
47	0xbcefc794	-0.029269971
48	0x3cd6a92b	0.026203712
49	0xbd41a619	-0.047277544
50	0xbd96c100	-0.073610306
51	0x3cfd6e24	0.030936308
52	0x3d596c53	0.05308182
53	0x3c9f8da8	0.019476727
54	0x3d9d826f	0.07690894
55	0x3d0f4e85	0.03498699
56	0x3d1364a1	0.03598464
57	0x3ddcae4c	0.10775432
58	0xbded127d	-0.11575792
59	0x3a32bdb7	0.0006818431
60	0xbc190d36	-0.009341529
61	0xbd16c6d6	-0.03681072
62	0x3d984800	0.07435608
63	0x3d9c66eb	0.076368175
64	0x3d80091c	0.062517375
65	0xbd8cf10c	-0.068819135
66	0x3d2850cf	0.04109269
67	0x3d5a38e2	0.053276904
68	0x391d15e2	0.00014980839
69	0x3da0e8e3	0.078569196
70	0xbca7b518	-0.020472094
71	0x3d6e3603	0.05815698
72	0xbce0c973	-0.027439808
73	0x3cb74cf7	0.022375567
74	0x3d0d3690	0.034475863
75	0x3cc42628	0.023943976
76	0xbd73db03	-0.059535038
77	0xbd27cd8b	-0.040967505
78	0xbd4687bd	-0.048469294
79	0xbbf2421f	-0.007393136
80	0xbc406cc7	-0.011744685
81	0x3ccfe5f1	0.0253782
82	0x3d3945ed	0.045232702
83	0xbd4a5798	-0.049399942
84	0x3d218afa	0.03943918
85	0x3d8260ce	0.0636612
86	0xbd594973	-0.053048562
87	0xba4ca800	-0.00078070164
88	0xbdcc5a03	-0.09978106
89	0x3d80f545	0.062967815
90	0x3ca7f23c	0.020501249
91	0xbc9a3965	-0.018826196
92	0x3d7db49b	0.061939817
93	0xbcaa9c83	-0.020826584
94	0x3d57faed	0.052729536
95	0x3dd08f1b	0.10183545
96	0x3d8dd936	0.06926195
97	0x3b73121b	0.003708965
98	0xbcbb474c	-0.022861145
99	0xbc2adb39	-0.010428243
100	0x3ccc63ae	0.024949875
101	0xbc8892d3	-0.016671574
102	0xbbfe3fda	-0.0077590765
103	0xbb4d6c34	-0.0031345012
104	0x3d88af1e	0.06674026
105	0x3b7cf64a	0.0038598948
106	0x3cdf16b4	0.027232505
107	0x3cd1e82b	0.025623402
108	0xbce2185a	-0.027599502
109	0x3cad6d1f	0.021170197
110	0xbd96fa36	-0.07371943
111	0x3d924d47	0.07143646
112	0x3d5d6cd6	0.054058872
113	0xbd96f8fe	-0.0737171
114	0x3c7110d4	0.014713485
115	0x3c8cfc2c	0.017210089
116	0x3cfa1172	0.030525897
117	0xbdb12b9b	-0.08650895
118	0x3d976ebb	0.07394167
119	0xbd16fa8e	-0.03686004
120	0xbd80e4ec	-0.062936634
121	0x3d306212	0.043062277
122	0xbb282464	-0.0025656456
123	0x3d6bcf31	0.05757064
124	0x3d257090	0.04039055
125	0x3d6a731e	0.05723869
126	0x3da01b5b	0.07817718
127	0x3c9aeff4	0.018913247
128	0x3d013b0a	0.031550445
129	0x3d0483a6	0.032352112
130	0x3c5f7ea9	0.013641038
131	0x3cb07ddc	0.02154439
132	0xbc75c7c4	-0.015001241
133	0x3d8ef632	0.06980552
134	0xbc230f3d	-0.009952364
135	0xbdaeda31	-0.085377105
136	0x3bf7b7ab	0.0075597367
137	0xbdb26e29	-0.08712418
138	0x3dd81fef	0.10552966
139	0xbc9fa533	-0.019487953
140	0x3da54607	0.08069997
141	0x3d21413f	0.039368864
142	0xbccd32c2	-0.025048617
143	0x3ca444d8	0.020052359
144	0x3da1da8d	0.079030134
145	0xbd86b714	-0.06577888
146	0x3a3936f3	0.0007065378
147	0xbcddbac0	-0.027066588
148	0x3da579d9	0.08079881
149	0xbc1247f0	-0.008928284
150	0xbdadb216	-0.08481233
151	0xbd38f7a3	-0.04515804
152	0x3dbbae49	0.09164102
153	0x3cd6c715	0.026217977
154	0x3d3e1f77	0.046416726
155	0xbd34b9d6	-0.04412254
156	0xbcd0e192	-0.025498185
157	0x3c1c7d95	0.009551425
158	0x3cb04f09	0.021522062
159	0x3dab7c20	0.08373284
160	0xbdb7f55a	-0.08982344
161	0x3d6b3acf	0.05742913
162	0xbd5a1b00	-0.053248405
163	0x3c021e2a	0.007941762
164	0xbd5aff61	-0.053466205
165	0x3d79717e	0.06089925
166	0x3de4d143	0.11172726
167	0xbd2f64f4	-0.042820886
168	0x3d99ad61	0.075037725
169	0x3c175187	0.009235746
170	0x3ce83666	0.028346252
171	0xbd65e4f5	-0.056126554
172	0x3cbca6ba	0.02302872
173	0x3d6c4748	0.057685167
174	0xbdad9b5b	-0.08476897
175	0x3d72de3e	0.059293978
176	0x3bf54bf3	0.0074858605
177	0x3c84c90c	0.016209148
178	0x3ce62baf	0.028097002
179	0xbd0181e7	-0.031618025
180	0x3cf43c95	0.029814044
181	0xbda78ea7	-0.08181506
182	0xbd16e8c9	-0.036843095
183	0x3d1f0164	0.038819686
184	0x3db34e8b	0.08755215
185	0x3ccfbe5d	0.025359327
186	0x3c5853b7	0.013203553
187	0x3c7f32db	0.01557609
188	0xbd841653	-0.064495705
189	0x3dc97ecc	0.09838638
190	0x3d77822d	0.06042688
191	0xbd615bd9	-0.055019233
192	0xbd09b01c	-0.033615217
193	0x3d4a33c6	0.04936578
194	0x3c8cda86	0.017194044
195	0x3d9d0bb3	0.07668247
196	0xbd0623c0	-0.032748938
197	0x3c0300b3	0.007995772
198	0xbd48aed3	-0.04899485
199	0xbd7cf83c	-0.061760172
200	0xbc9947bb	-0.018710962
201	0x3c92adf0	0.017905205
202	0xbe2f3814	-0.17111236
203	0xbd452544	-0.048131242
204	0xbcbdf725	-0.023189137
205	0x3b2d8978	0.0026479643
206	0xbc489527	-0.012242592
207	0x3ca42558	0.020037338
208	0xbc92f6b0	-0.017939895
209	0xbca3480a	-0.019931812
210	0xb99d9444	-0.0003005584
211	0x3de30384	0.11084655
212	0xbd1008bd	-0.035164583
213	0x3d6102cb	0.054934304
214	0x3d714ef1	0.058913175
215	0x3d60357d	0.05473851
216	0x3c9fbb0a	0.019498367
217	0x3d53edc9	0.05174044
218	0xbdbdb017	-0.09262102
219	0xbd1e1ccb	-0.038601678
220	0x3dc6d590	0.097087026
221	0x3ca58d65	0.020209024
222	0xbd6de009	-0.058074985
223	0xbd0d1e21	-0.03445256
224	0x3da124da	0.07868357
225	0x3ceb2c11	0.028707536
226	0x3da0488e	0.07826339
227	0x3c9bad7e	0.019003626
228	0xbd892ab6	-0.066975996
229	0xbd9053f5	-0.070472635
230	0x3c0ff885	0.008787279
231	0xbd408735	-0.047003943
232	0xbc9fb906	-0.019497406
233	0xbd3d6f1b	-0.046248537
234	0xbcd4a71a	-0.025958586
235	0xbce080b1	-0.027405115
236	0x3cab799e	0.020932015
237	0x3cdb80ce	0.026794817
238	0x3d734e1c	0.059400663
239	0xbd7bd7ab	-0.061484974
240	0x3c781882	0.015142562
241	0x3d586ea2	0.052839883
242	0xbd8e0dbd	-0.06936214
243	0xbc2b0584	-0.010438327
244	0xbd4c4131	-0.04986686
245	0x3d06b979	0.032891724
246	0x3daa58a3	0.08317687
247	0x3c4a02f6	0.0123298075
248	0x3da9d1b8	0.08291954
249	0x3d93ac50	0.072106004
250	0xbbba15c2	-0.0056788633
251	0xbc61bb5e	-0.013777582
252	0xbdc9d531	-0.09855116
253	0x3d64d533	0.055867385
254	0x3d72c8d0	0.05927354
255	0xbc398cc7	-0.011325068

decoders.0.decoder_net.7.bias f4 [16]
0	0xbcf145dc	-0.029452257
1	0x3caafda8	0.020872906
2	0x3d1ee796	0.038795076
3	0xbd6fc3c1	-0.058536295
4	0x3c95768f	0.01824501
5	0xbcbd181c	-0.023082785
6	0xbdd37e66	-0.10326843
7	0x3d79e4ff	0.061009403
8	0xbd3b5b11	-0.045741145
9	0x3cc951c9	0.024575131
10	0x3d940025	0.0722659
11	0x3858d414	5.1695926e-05
12	0x3d32a894	0.0436178
13	0x3d9c9bd3	0.076469086
14	0x3e21fade	0.15818354
15	0xbbf69970	-0.0075256154

decoders.0.decoder_net.9.weight f4 [16]
0	0x3f78a2c7	0.9712338
1	0x3f75cb18	0.9601302
2	0x3f7691df	0.9631633
3	0x3f765fff	0.9624023
4	0x3f745e18	0.95456076
5	0x3f747eed	0.95506173
6	0x3f76151b	0.96125954
7	0x3f71f841	0.9451943
8	0x3f758fcf	0.9592256
9	0x3f753d2b	0.9579646
10	0x3f74035d	0.9531763
11	0x3f74bdc2	0.9560205
12	0x3f754588	0.9580922
13	0x3f7180b8	0.94337034
14	0x3f75fb29	0.96086365
15	0x3f74a8b4	0.9556992

decoders.0.decoder_net.9.bias f4 [16]
0	0xbd3c3c96	-0.045956217
1	0xbcf5d74e	-0.030009892
2	0x3d6f7d7d	0.058469284
3	0x3d134143	0.03595091
4	0x3d4625aa	0.048375763
5	0xbc1d9157	-0.009617171
6	0xbd4b0eb5	-0.049574573
7	0x3df0463c	0.11732146
8	0xbd05fb2f	-0.03271025
9	0xbd49435f	-0.049136516
10	0x3d6743c1	0.0564611
11	0xbd220e81	-0.039564613
12	0xbcff3f5f	-0.031158147
13	0xbcb0dba7	-0.021589113
14	0xbc18e564	-0.009332035
15	0xb94ad0cc	-0.00019342004

decoders.0.decoder_net.9.running_mean f4 [16]
0	0x3d782504	0.060582176
1	0x3d813f96	0.06310956
2	0x3d80700c	0.06271371
3	0x3d6befc8	0.05760172
4	0x3d7a4d5d	0.061108936
5	0x3d7a8465	0.061161418
6	0x3d621a46	0.055200838
7	0x3d842d80	0.06453991
8	0x3d72e4e9	0.059300337
9	0x3d833a0c	0.06407556
10	0x3d84e7e8	0.06489545
11	0x3d7871db	0.060655456
12	0x3d85a378	0.0652532
13	0x3d8a769d	0.06760905
14	0x3d9340dc	0.07190105
15	0x3d76f417	0.060291376

decoders.0.decoder_net.9.running_var f4 [16]
0	0x3a47e17a	0.0007624846
1	0x3a5acdf8	0.0008346732
2	0x3a3d22c9	0.0007214961
3	0x3a2d5581	0.00066121673
4	0x3a2c131c	0.0006564127
5	0x3a800ad4	0.0009768852
6	0x3a170161	0.00057603983
7	0x3a2f98e0	0.00066985004
8	0x3a3c32b8	0.00071791885
9	0x3a6ef9db	0.0009116211
10	0x3a17b449	0.00057870575
11	0x3a407536	0.00073416845
12	0x3a813cb7	0.0009860013
13	0x3aa80788	0.0012819627
14	0x3a7fa57a	0.0009752136
15	0x3a2f6469	0.00066906825

decoders.0.decoder_net.10.weight f4 [16, 1, 3, 3]
0	0xbd508ead	-0.050917316
1	0x3e379aaa	0.17930093
2	0x3e40f6e9	0.18844189
3	0xbdfe5e81	-0.12420369
4	0x3e2d8fe9	0.16949429
5	0xbdebd27e	-0.115147576
6	0xbd333f21	-0.043761376
7	0x3c45aa86	0.012064582
8	0x3e08b1d6	0.13349089
9	0xbe2e8c7e	-0.17045781
10	0x3df6974e	0.12040578
11	0x3dfc4997	0.12318724
12	0xbe0df227	-0.13861905
13	0x3c87a819	0.016559647
14	0x3e060542	0.13087943
15	0x3e254d97	0.1614288
16	0x3d7ab96f	0.061212
17	0x3e23896b	0.1597039
18	0x3dcf156e	0.10111509
19	0xbdcecd8a	-0.10097797
20	0x3ddbb8bf	0.10728597
21	0x3d9adde9	0.07561857
22	0xbe49b074	-0.19696218
23	0xbe175d0c	-0.14781588
24	0xbe0b49f9	-0.13602437
25	0xbe50bc5c	-0.20384353
26	0x3cbe9048	0.023262158
27	0xbdcb7741	-0.09934855
28	0xbe3a9507	-0.18220912
29	0xbe9027fe	-0.28155512
30	0xbe0dd1b2	-0.13849524
31	0xbdef17f8	-0.116744936
32	0xbd0e6ecb	-0.03477363
33	0xbd27e2d3	-0.0409878
34	0x3e54cf50	0.20782208
35	0x3e4972db	0.1967272
36	0x3cf3b2c8	0.029748335
37	0xbe447c40	-0.19188023
38	0xbdffc9d3	-0.12489667
39	0x3e863f79	0.262203
40	0xbe3a24f9	-0.18178166
41	0xbe038536	-0.12843785
42	0x3d99d373	0.07511034
43	0xbce033e1	-0.027368488
44	0xbe8d4c5a	-0.27597314
45	0xbc4b2d87	-0.012400991
46	0x3e0a0ce8	0.13481486
47	0xbd29da28	-0.041467816
48	0x3e52fa03	0.20603184
49	0x3e0d64a6	0.13807926
50	0xbe1b760b	-0.15181749
51	0xbe8a5179	-0.27015284
52	0xbdc18020	-0.09448266
53	0xbd2c7a0a	-0.042108573
54	0x3d8b35af	0.06797349
55	0x3dd6760a	0.10471733
56	0xbd9097c2	-0.070601955
57	0x3e74ea78	0.23917568
58	0x3e66529f	0.22492455
59	0xbe2fa37a	-0.17152205
60	0x3e051f77	0.13000284
61	0x3e7461c0	0.23865414
62	0xbd3a1c78	-0.045437306
63	0xbd5ed4c3	-0.054402124
64	0x3d6c5f52	0.057708092
65	0x3e72d8fe	0.23715588
66	0x3e83bd84	0.25730526
67	0xbd966d13	-0.07345023
68	0xbe8ac442	-0.27102858
69	0x3da088f0	0.07838619
70	0xbd496a49	-0.049173627
71	0xbe87031c	-0.2636956
72	0x3d281cef	0.04104322
73	0xbe003628	-0.12520659
74	0xbe6a11fe	-0.22858426
75	0x3e722e83	0.23650555
76	0xbe1e114e	-0.15436289
77	0x3e6a7740	0.22897053
78	0x3e36d6d5	0.1785539
79	0x3e8dcbb5	0.2769448
80	0xbd1107d5	-0.03540786
81	0xbe41c36a	-0.18922201
82	0xbda630c1	-0.08114768
83	0x3d08aea3	0.03336967
84	0xbcf4205f	-0.029800592
85	0xbcd16082	-0.025558714
86	0x3d8fbe8b	0.07018765
87	0xbe917419	-0.28408888
88	0xbe213aac	-0.15745038
89	0x3e77c710	0.2419703
90	0xbda3832f	-0.07984006
91	0xbe09d9a7	-0.13461934
92	0x3dbea0c5	0.09308008
93	0xbe684264	-0.22681576
94	0xbe4bdb1f	-0.19907807
95	0xbdd6af97	-0.1048271
96	0xbd9b0dcd	-0.07570992
97	0x3e52142f	0.20515512
98	0x3e55c637	0.20876394
99	0xbdee91d1	-0.11648906
100	0x3e891c1a	0.26779252
101	0xbe13cb23	-0.1443296
102	0x3d06deb3	0.032927226
103	0x3e4ab65e	0.1979613
104	0xbd5fde54	-0.054655388
105	0xbc9f0541	-0.019411685
106	0xbde68c42	-0.11257221
107	0x3e85bb9b	0.26119694
108	0x3e528132	0.20557097
109	0x3deb28fe	0.11482428
110	0x3e6fd71f	0.23421906
111	0x3e1f3ac5	0.15549763
112	0x3d8b34f2	0.06797208
113	0x3e1e0f26	0.15435466
114	0x3e209974	0.15683538
115	0x3e85acc1	0.26108363
116	0x3e8978dc	0.2685002
117	0xbe16918a	-0.14703956
118	0x3df7931b	0.12088605
119	0x3e780061	0.24218895
120	0x3dc43f2a	0.0958236
121	0xbe42ccd3	-0.19023447
122	0x3e91f3d0	0.28506327
123	0x3ca48196	0.020081323
124	0x3df152a2	0.11783339
125	0x3e3b2478	0.1827563
126	0xbd24eb58	-0.040263504
127	0xbe32bf2a	-0.17455736
128	0x3ddb099c	0.10695192
129	0x3e55f359	0.20893611
130	0xbe7af477	-0.24507318
131	0xbd080790	-0.033210337
132	0x3e9149e5	0.2837669
133	0x3e1a404e	0.15063593
134	0x3dbf1ad1	0.09331287
135	0xbe28c9ed	-0.16483279
136	0x3c53d940	0.012930214
137	0x3dfcd6fc	0.123456925
138	0xbe0f002b	-0.13964908
139	0x3d48a1d1	0.048982445
140	0x3e0b2146	0.13586912
141	0xbad71134	-0.0016408325
142	0xbe7fc773	-0.24978428
143	0xbe496f5c	-0.19671386

decoders.1.decoder_net.0.weight f4 [512, 2]
0	0xbeaf56ba	-0.34245855
1	0x3f2b366c	0.66879916
2	0x3e1b5b88	0.15171635
3	0x3e516114	0.20447189
4	0xbdee5ab3	-0.11638393
5	0xbe8f6ee0	-0.28014278
6	0x3e551d10	0.20811868
7	0xbe1f98a8	-0.15585577
8	0x3f18db0e	0.5970925
9	0x3f26c790	0.6514826
10	0x3d19632e	0.0374481
11	0xbe334c78	-0.1750964
12	0xbf143e6d	-0.57907754
13	0x3e07b3e3	0.13252215
14	0xbe129fb1	-0.1431873
15	0x3df9e0ba	0.12201066
16	0xbf24fdf7	-0.6445002
17	0x3f0d3371	0.5515662
18	0xbea865f3	-0.3289028
19	0xbecec187	-0.40382025
20	0x3f61305e	0.8796443
21	0x3ec3d91d	0.38251582
22	0xbf1e0a30	-0.61734295
23	0x3f19d2b8	0.60087156
24	0xbec5b468	-0.38614202
25	0xbefc0017	-0.4921882
26	0x3d6fdadd	0.058558334
27	0xbdb387de	-0.08766149
28	0x3d866c7b	0.0656366
29	0xbec63f1d	-0.38720027
30	0xbc855291	-0.016274722
31	0xbeb329b9	-0.3499277
32	0x3ec75c5b	0.3893765
33	0x3ea11802	0.3146363
34	0xbdc5e551	-0.09662879
35	0x3ebe6482	0.37186056
36	0x3f1eaeb8	0.6198535
37	0x3eafbc4f	0.34323356
38	0xbeb0c840	-0.3452778
39	0xbe96833b	-0.29396996
40	0x3ebadfea	0.36498958
41	0x3e9cbfaa	0.30614978
42	0x3e506254	0.20350009
43	0x3d78d873	0.060753297
44	0xbf8a9dae	-1.082937
45	0x3ef9e572	0.48807865
46	0x3ef392c2	0.47572905
47	0x3ed001b7	0.40626308
48	0xbc311e57	-0.010810456
49	0xbf0bbb2d	-0.5458248
50	0xbd8a6e8e	-0.06759368
51	0x3e057353	0.13032274
52	0x3f301afa	0.6879116
53	0x3ec37907	0.38178274
54	0x3e41bca9	0.18919624
55	0x3ee658fb	0.44989762
56	0x3e09f890	0.13473725
57	0xbe7312e7	-0.2373768
58	0xbe999b17	-0.30001137
59	0xbe9b7cef	-0.30368754
60	0xbea3fd0c	-0.32028997
61	0xbeee1ca0	-0.46506214
62	0xbebf4b19	-0.37361982
63	0xbe3ad22e	-0.1824424
64	0x3f2544cc	0.645581
65	0xbe929d82	-0.28635794
66	0xbe7e6266	-0.24842224
67	0x3f1b15b2	0.6057998
68	0xbf247a21	-0.64248854
69	0xbe8dc8fd	-0.27692404
70	0xbeb355c5	-0.35026374
71	0xbeca13dd	-0.3946828
72	0xbec081df	-0.37599084
73	0x3f189fea	0.5961901
74	0xbd9d688a	-0.07685955
75	0xbd0a5553	-0.033772778
76	0x3ec42ec6	0.38316935
77	0xbf493b65	-0.78606254
78	0x3cb64407	0.022249235
79	0xbe3140a2	-0.17309812
80	0xbc808b6c	-0.015691482
81	0xbe515bcc	-0.20445174
82	0xbe66557f	-0.22493552
83	0xbe02f1ed	-0.127876
84	0x3d75bc34	0.059993938
85	0x3f0935e1	0.5359784
86	0xbe823abf	-0.25435445
87	0xbebd3966	-0.36957854
88	0x3ecb2d02	0.39682776
89	0xbebf947a	-0.37417966
90	0xbe8b5836	-0.27215737
91	0xbf149757	-0.58043426
92	0x3edc1d34	0.4299103
93	0xbd37d161	-0.044877414
94	0x3ed48387	0.41506597
95	0x3e5d66bf	0.21621226
96	0x3bd8a32b	0.006611248
97	0x3f142b85	0.57878906
98	0xbee768f8	-0.45197272
99	0x3d4162fd	0.047213543
100	0xbee4c1d5	-0.44679132
101	0xbf045b37	-0.5170168
102	0x3e473cbf	0.19456767
103	0x3f2dddda	0.67916644
104	0xbe84c168	-0.25928807
105	0xbf2175af	-0.63070196
106	0x3efd4d13	0.49472865
107	0x3df6cec2	0.12051155
108	0x3dc568ad	0.09639106
109	0x3e931241	0.28724864
110	0x3edb4f18	0.4283378
111	0xbce9dc14	-0.028547324
112	0x3ea986e8	0.33110738
113	0x3d7b282a	0.0613176
114	0xbee3c862	-0.44488817
115	0xbe4adedd	-0.19811578
116	0xbe4eb986	-0.20187959
117	0xbf120378	-0.5703654
118	0x3f2e738a	0.6814505
119	0x3eeefda0	0.46677876
120	0xbe700146	-0.23437986
121	0xbf248949	-0.6427198
122	0xbd829cb1	-0.06377543
123	0xbeb67b02	-0.35640723
124	0x3e6ccf29	0.231259
125	0xbf1ff2ac	-0.6247966
126	0x3e9f2924	0.31086075
127	0x3effd10e	0.49964184
128	0xbe69af0e	-0.22820684
129	0x3e67f592	0.22652271
130	0xbe483e99	-0.19555129
131	0xbf062ec8	-0.5241513
132	0x3ef48e5b	0.4776486
133	0x3f2b6d5f	0.6696376
134	0x3f1868ce	0.5953492
135	0x3ee557f6	0.4479367
136	0xbe11f3a0	-0.14253092
137	0xbeb7627a	-0.3581732
138	0x3e8fe918	0.28107524
139	0xbf0d51de	-0.55203044
140	0xbcf0c834	-0.02939234
141	0xbecee4ae	-0.40408844
142	0x3e8a42d3	0.27004108
143	0xbeff064b	-0.4980949
144	0xbd517e5f	-0.051145907
145	0x3df87b94	0.12132946
146	0x3eaee64b	0.34160075
147	0xbe90fe69	-0.283191
148	0x3f279ffd	0.654785
149	0xbeed81d2	-0.46388108
150	0x3e67013f	0.22559069
151	0x3e109082	0.14117625
152	0x3ead5ba5	0.33858982
153	0x3f0fb77f	0.5613937
154	0xbe7b71a0	-0.24555063
155	0xbea724f7	-0.3264539
156	0xbf477232	-0.77908623
157	0xbe523859	-0.20529307
158	0xbf36c175	-0.7138894
159	0x3f136103	0.57569903
160	0x3eee4f80	0.4654503
161	0x3f1518ea	0.5824114
162	0x3e52cb11	0.20585276
163	0xbe5d9d10	-0.21641946
164	0xbe69e14f	-0.22839855
165	0x3e5f6f37	0.21819769
166	0x3eaf37a0	0.34222126
167	0xbf139c56	-0.57660425
168	0xbeb3e8d9	-0.35138586
169	0xbf17eb38	-0.5934329
170	0x3f363308	0.7117162
171	0xbca0cfeb	-0.019630393
172	0x3ea227b3	0.31670913
173	0xbc0964bd	-0.008385834
174	0xbd971e25	-0.073787965
175	0xbe874862	-0.2642241
176	0xbe6cdee6	-0.23131904
177	0xbf143287	-0.578896
178	0xbeb9b728	-0.3627255
179	0x3d923fd4	0.071410805
180	0x3f175277	0.59110206
181	0xbd4eb45f	-0.050464984
182	0x3e708585	0.23488434
183	0x3f00e6a6	0.5035194
184	0xbf1ff8c6	-0.62488973
185	0xbeecde1d	-0.4626321
186	0xbeb2d2a3	-0.34926328
187	0xbed908bc	-0.42389476
188	0xbeba7c23	-0.36422834
189	0xbef425a8	-0.4768498
190	0xbf1a42f7	-0.6025843
191	0x3ee3633a	0.4441164
192	0x3f30994c	0.6898391
193	0x3ee3c772	0.44488102
194	0x3ee53f43	0.44774827
195	0xbf2357f9	-0.6380611
196	0x3e6b93ad	0.23005553
197	0x3f27d17a	0.6555401
198	0xbbf1d547	-0.007380161
199	0x3ed1c3d2	0.40969712
200	0xbe947a1a	-0.28999406
201	0x3f20d4f8	0.62824965
202	0xbf092067	-0.5356507
203	0x3eb11864	0.3458892
204	0x3f1129c2	0.5670434
205	0x3e54a092	0.20764378
206	0x3f1fac7e	0.6237258
207	0xbd94a073	-0.07257166
208	0x3e9d8776	0.3076741
209	0x3f12c890	0.57337284
210	0xbc56b905	-0.0131056355
211	0x3f221486	0.63312566
212	0x3eb4b14f	0.35291526
213	0x3e178662	0.14797357
214	0x3ec56bfd	0.3855895
215	0x3ee86589	0.45389965
216	0xbf0caf3b	-0.5495488
217	0xbec16239	-0.3777025
218	0x3e53f7db	0.20700018
219	0x3ecb4ef6	0.3970868
220	0x3f066bfb	0.52508515
221	0xbe5fd8a9	-0.21859993
222	0x3ed27a4a	0.41108924
223	0x3e8eb52d	0.278726
224	0xbe86d4ec	-0.26334321
225	0xbeaccfd9	-0.33752325
226	0xbec8e3ac	-0.392362
227	0xbe98b313	-0.29824123
228	0x3e82d0be	0.25549883
229	0xbf04e65e	-0.5191401
230	0xbe2dd82e	-0.16976997
231	0x3f10f1a8	0.5661874
232	0xbace330f	-0.0015731769
233	0xbf2e4211	-0.6806956
234	0xbdc3fb25	-0.095693864
235	0x3e152e78	0.14568508
236	0xbe8348f6	-0.25641602
237	0x3f00e143	0.5034372
238	0x3e86e5d4	0.2634722
239	0xbf11bdf8	-0.56930494
240	0xbf22210f	-0.63331693
241	0x3eca21b2	0.39478832
242	0x3f23beab	0.6396281
243	0x3ee4ecdc	0.4471196
244	0xbf1ffc4b	-0.62494344
245	0xbebe3114	-0.3714682
246	0x3d6c7efe	0.057738297
247	0xbf2a04b4	-0.66413426
248	0xbea75584	-0.3268243
249	0xbf288007	-0.65820354
250	0xbe575535	-0.21028598
251	0xbf14a3ba	-0.58062327
252	0x3f1884ce	0.59577644
253	0xbefa0729	-0.48833588
254	0x3da08b40	0.0783906
255	0x3f02b952	0.51064026
