Project2/models/model_4_5.pt (torch, 356538 bytes, 94 tensors)

prior.mean f4 [2]
0.0 0.0
00000000: 0000 0000 0000 0000

prior.std f4 [2]
1.0 1.0
00000000: 0000 803f 0000 803f

decoders.0.decoder_net.0.weight f4 [512, 2]
-0.4980928 -0.5015616 -0.67098784 0.15988247 -0.38610452 0.31587398 0.072561 0.21088535
0.28518236 -0.4790879 -0.50970036 0.5401078 0.4850088 0.50114083 -0.1168603 0.0402249
0.361363 -0.22583562 0.5602836 0.49311474 -0.32800502 0.49326786 0.4604192 -0.3996781
0.3117939 -0.14126024 -0.2179976 -0.6493955 0.37345985 -0.19548573 0.1497282 0.26563245
0.5782322 -0.15681979 0.58064985 0.60676426 0.6460165 0.07317892 0.51377136 -0.078192644
0.5296955 0.39492244 -0.13139601 -0.4115892 -0.67029744 -0.0872708 -0.12982251 -0.68617946
0.5102215 -0.4711647 -0.6286261 0.24336863 0.25750223 -0.011401071 -0.27582148 -0.017296763
-0.60256475 -0.2236185 -0.6840791 0.35459358 -0.19212718 0.036270015 0.5432291 -0.53607106
-0.13726355 -0.07471824 0.6849899 0.3964508 0.5260525 -0.016011948 0.2768684 0.46863887
0.34929365 0.38727745 0.33109495 0.5065354 0.061075244 -0.5737749 -0.24777001 -0.4407237
0.71016544 -0.085579254 -0.43252018 0.7962436 0.6041932 -0.045666743 0.2911057 0.56148213
0.2518251 0.30009007 0.16000676 0.47389823 0.41021255 0.1349945 0.5023377 -0.6079174
0.1568931 0.46756434 -0.44063708 0.44361326 0.2658262 -0.08930844 0.11709466 -0.24480084
-0.015481477 -0.56518275 0.3491391 -0.27717718 0.03242875 -0.2563 -0.54011726 -0.2139434
-0.55277157 0.34535185 -0.46827862 -0.7723416 -0.29167467 0.72659636 0.6497942 0.5216389
-0.30221072 -0.326529 -0.6731863 0.13513552 -0.6098917 -0.4001099 0.33624914 -0.5373189
-0.055976406 -0.082907915 -0.6945167 0.04541893 0.13374187 -0.28820527 -0.022240795 -0.39007983
-0.21127135 0.08143342 0.5125408 -0.37538365 -0.24752131 0.108415976 -0.6751248 -0.17850569
-0.64189374 -0.06390826 0.14997438 -0.08774115 0.42488787 0.41512474 0.1253523 0.33006844
0.38560203 -0.5641287 -0.2559835 -0.09768107 0.37110224 -0.54814726 -0.5883643 0.1413132
0.19876178 -0.68115574 0.36422938 -0.10552098 -0.19033073 -0.28706428 -0.5276159 -0.2185193
-0.11134937 0.66010976 -0.39305165 -0.015419496 0.6110521 0.17733766 0.50991035 0.4882448
0.5179658 0.114155814 -0.21557595 0.4998322 0.03226883 -0.1403787 0.010920993 -0.11418122
0.14119714 -0.59609145 0.71032244 0.07880972 -0.35173136 0.2495879 -0.2670427 0.4015139
0.24523948 0.44751716 0.25130078 -0.34895828 0.41754422 -0.60799336 -0.6022836 -0.035050333
-0.15418084 0.32209516 0.23031294 -0.57727176 -0.58003634 0.43676102 -0.68523395 -0.08994631
0.3974396 -0.50973994 0.43597662 -0.55697685 0.39519042 -0.4381949 -0.14105666 -0.06597785
-0.49093258 0.67695796 -0.29738033 -0.026394209 -0.26433018 -0.68329567 -0.54086065 0.36053705
-0.3728343 -0.30819824 0.24849138 0.18659477 0.03819431 -0.28517383 0.66424304 -0.25918072
-0.41584042 -0.003110643 0.083719 0.42841747 0.053516563 -0.29643315 -0.23453763 -0.46979865
-0.44455045 -0.08955469 0.2196253 0.49534652 -0.15622474 0.83795667 0.102459215 -0.12073334
-0.2034268 0.09701061 0.6551338 0.12812239 0.6960748 -0.20870407 -0.38610575 0.24956836
00000000: 0506 ffbe 5766 00bf dcc5 2bbf 3bb8 233e
00000010: 7eaf c5be 3cba a13e dd9a 943d 54f2 573e
00000020: 6c03 923e 024b f5be b97b 02bf 8144 0a3f
00000030: 1353 f83e c44a 003f 7454 efbd ddc2 243d
00000040: 9204 b93e 7441 67be bf6e 0f3f 8979 fc3e
00000050: 46f0 a7be 9b8d fc3e 11bc eb3e 9ca2 ccbe
00000060: 73a3 9f3e 86a6 10be c33a 5fbe c93e 26bf
00000070: 2136 bf3e 692d 48be 5952 193e fa00 883e
00000080: 0707 143f 5e95 20be 78a5 143f e754 1b3f
00000090: 5661 253f d4de 953d 8586 033f 7723 a0bd
000000a0: 209a 073f 4633 ca3e ad8c 06be d2bb d2be
000000b0: 9d98 2bbf 08bb b2bd 31f0 04be 75a9 2fbf
000000c0: e09d 023f 803c f1be a4ed 20bf a035 793e
000000d0: 55d7 833e 8fcb 3abc 7938 8dbe f1b1 8dbc
000000e0: af41 1abf 40fc 64be cf1f 2fbf 4a8d b53e
000000f0: fdbc 44be de8f 143d 1011 0b3f f43b 09bf
00000100: d18e 0cbe e005 99bd 805b 2f3f 99fb ca3e
00000110: 60ab 063f 7d2b 83bc b2c1 8d3e 6ff1 ef3e
00000120: 9ed6 b23e 3b49 c63e 4785 a93e 4eac 013f
00000130: 092a 7a3d e9e2 12bf 6cb7 7dbe 89a6 e1be
00000140: 67cd 353f 2d44 afbd 4973 ddbe 9fd6 4b3f
00000150: 68ac 1a3f 0d0d 3bbd ce0b 953e 4bbd 0f3f
00000160: 38ef 803e 68a5 993e d0d8 233e caa2 f23e
00000170: 6107 d23e 003c 0a3e 3499 003f 7aa0 1bbf
00000180: 96a8 203e 9864 ef3e 2f9b e1be 4721 e33e
00000190: 5f1a 883e 58e7 b6bd 53cf ef3d 12ad 7abe
000001a0: 05a6 7dbc d1af 10bf 5cc2 b23e 2bea 8dbe
000001b0: 02d4 043d c139 83be 2045 0abf fb13 5bbe
000001c0: 7082 0dbf f5d1 b03e 37c2 efbe 2eb8 45bf
000001d0: 6256 95be 3802 3a3f ea58 263f 208a 053f
000001e0: 5dbb 9abe cf2e a7be f055 2cbf f760 0a3e
000001f0: dd21 1cbf 34db ccbe d928 ac3e bb8d 09bf
00000200: 8447 65bd a0cb a9bd d9cb 31bf 3309 3a3d
00000210: a1f3 083e a48f 93be 5432 b6bc 8bb8 c7be
00000220: 8457 58be 91c6 a63d e035 033f 4932 c0be
00000230: 3a76 7dbe 3209 de3d fbd4 2cbf 32ca 36be
00000240: 2653 24bf 55e2 82bd e292 193e a2b1 b3bd
00000250: e78a d93e 3b8b d43e 5a5c 003e bbfe a83e
00000260: a16d c53e bd6a 10bf 4510 83be 030d c8bd
00000270: 1d01 be3e 6153 0cbf 0b9f 16bf 68b4 103e
00000280: 3588 4b3e 3960 2ebf 467c ba3e 621b d8bd
00000290: 0fe6 42be 17fa 92be d611 07bf 86c3 5fbe
000002a0: 230b e4bd f4fc 283f 113e c9be 0ea2 7cbc
000002b0: e96d 1c3f 0198 353e 7c89 023f 39fb f93e
000002c0: 6899 043f 86ca e93d f1bf 5cbe 02ea ff3e
000002d0: 522c 043d 6fbf 0fbe f7ed 323c d8d7 e9bd
000002e0: fc95 103e 7399 18bf b1d7 353f fe66 a13d
000002f0: 2216 b4be f893 7f3e d2b9 88be 3b93 cd3e
00000300: 0f20 7b3e f820 e53e 7faa 803e a9aa b2be
00000310: 5bc8 d53e 74a5 1bbf 422f 1abf f090 0fbd
00000320: 95e1 1dbe a8e9 a43e 28d7 6b3e 15c8 13bf
00000330: 437d 14bf 249f df3e 7e6b 2fbf c535 b8bd
00000340: 347d cb3e 517e 02bf 5438 df3e 0996 0ebf
00000350: 6656 ca3e 155b e0be 2871 10be 651f 87bd
00000360: 845b fbbe 1e4d 2d3f 3c42 98be ab38 d8bc
00000370: 4956 87be 77ec 2ebf d875 0abf 5098 b83e
00000380: 23e4 bebe 29cc 9dbe 8674 7e3e b312 3f3e
00000390: a371 1c3d 4e02 92be d50b 2a3f 56b3 84be
000003a0: 09e9 d4be eedb 4bbb de74 ab3d 8959 db3e
000003b0: 2f34 5b3d 16c6 97be a22a 70be 7389 f0be
000003c0: 1e9c e3be 7368 b7bd 74e5 603e 0f9e fd3e
000003d0: 61f9 1fbe 5484 563f 23d6 d13d 0b43 f7bd
000003e0: 1d4f 50be 80ad c63d d9b6 273f 8432 033e
000003f0: f531 323f 85b6 55be a7af c5be d98e 7f3e

decoders.0.decoder_net.0.bias f4 [512]
-0.6791373 0.43893847 0.2461566 0.30769324 0.4426521 -0.6226672 -0.43010256 0.14711961
-0.06089845 -0.17094944 0.08678179 0.6768561 0.6589088 -0.4393598 -0.15673824 -0.2771818
-0.70549285 0.37453794 -0.4526132 -0.13608924 0.2936493 0.13956477 -0.11962682 0.47465965
-0.41444182 0.47088435 -0.050266944 0.45948797 -0.31001425 -0.47320664 0.09748838 -0.058114544
0.51031333 0.5799605 -0.68652624 0.11954319 -0.6575655 0.27049324 0.0127305575 -0.22170399
0.56743675 0.17218068 -0.44755515 -0.0035197425 0.123328544 -0.17548181 0.47301093 0.61486304
-0.2687214 0.08640312 -0.115799114 0.028505547 0.45162222 0.20983492 0.08387593 0.6043804
-0.20780553 0.6029046 -0.026436666 0.26982453 0.17990845 -0.5890508 -0.17140695 0.12798856
-0.44024387 0.39175823 -0.17508954 0.20139359 0.045788743 0.47988173 -0.022036346 0.63747895
0.030226884 0.6682039 0.45090315 -0.102958985 0.05539623 -0.09488452 -0.13434076 0.5208596
0.028333956 0.6672199 -0.6287217 0.030102381 -0.55062455 0.63243264 0.08123035 -0.27256468
0.31765014 0.40864164 0.45318332 -0.06255415 0.37452704 -0.58262384 0.020476092 0.61520845
0.037347008 0.6489245 0.4461339 -0.68725115 0.6845951 0.23003486 0.68086994 0.062051505
0.2284522 0.50323963 -0.6287788 -0.032304637 -0.3700122 0.16671427 -0.09995939 -0.455317
0.094400816 0.43796632 0.26049557 -0.6980806 0.46297875 -0.30148494 -0.24751109 -0.4043472
-0.28921333 -0.12975743 -0.3184227 0.040821817 -0.110623516 0.6149331 0.19707361 -0.47588176
-0.059314046 0.24140538 0.6852611 0.4323266 0.24923657 0.25369847 0.30587167 0.5817209
-0.26294664 -0.10196234 0.016493384 -0.28430185 -0.17794129 0.35029992 0.6026291 -0.30344534
-0.6252955 -0.48523623 0.58073694 0.5039637 0.6564047 0.39739278 0.686539 -0.5078359
0.50513214 -0.26857176 -0.027105277 -0.3137471 -0.5435389 0.3461621 0.61304176 -0.18913336
-0.2086693 -0.4657863 -0.06821692 0.0126326615 0.14813608 -0.07600453 -0.48430187 -0.46916145
0.44637555 -0.6735846 0.08264241 0.58672166 -0.35789952 -0.15072152 0.5874266 0.3605317
0.29220733 -0.5933783 0.40464726 0.59290326 0.49818707 0.64684176 -0.51473105 -0.34003443
-0.5301046 0.5736087 0.11197842 -0.49939832 0.5530602 0.23884547 0.54687756 -0.680286
-0.041425645 0.027945131 -0.2891638 0.6834864 0.14837676 -0.2997503 0.5365084 -0.13004221
0.3294877 -0.70201707 -0.62913656 -0.23906805 0.67586446 -0.63259095 -0.31525114 0.29648104
0.63411784 -0.6286549 -0.076386966 -0.16674127 -0.28550148 0.50020087 -0.62402743 0.1635214
-0.68317145 0.5078628 0.11896853 0.039890405 0.6241361 -0.43652886 0.5585057 -0.08540925
0.3480425 -0.082219794 0.13326658 -0.27777565 -0.5699712 -0.28624415 -0.320538 -0.07003518
-0.18849577 -0.29041806 0.8112799 -0.3804926 0.06744341 0.32392064 0.5929839 -0.5251839
0.5505804 0.11751806 -0.27784097 0.462576 0.26307416 0.43112853 -0.5458515 -0.19840711
0.125171 0.07850628 -0.64923984 -0.5661719 -0.5000843 0.46562502 0.4796595 0.5874665
00000000: f1db 2dbf 8bbc e03e 7a10 7c3e f889 9d3e
00000010: 4ca3 e23e 1e67 1fbf 6736 dcbe 86a6 163e
00000020: a770 79bd 5f0d 2fbe a7ba b13d 7146 2d3f
00000030: 3fae 283f c5f3 e0be fd7f 20be c6ea 8dbe
00000040: 2e9b 34bf 70c3 bf3e ebbc e7be fa5a 0bbe
00000050: 3359 963e 11ea 0e3e e8fe f4bd 9706 f33e
00000060: b831 d4be c117 f13e b6e4 4dbd 0242 eb3e
00000070: 30ba 9ebe 2448 f2be fda7 c73d 8409 6ebd
00000080: e5a3 023f 4b78 143f 2fc0 2fbf 0fd3 f43d
00000090: 3656 28bf 177e 8a3e d493 503c 5f06 63be
000000a0: 8943 113f 2250 303e f325 e5be 7bab 66bb
000000b0: ad93 fc3d 81b1 33be 7d2e f23e aa67 1d3f
000000c0: da95 89be 1ef4 b03d 1628 edbd 7784 e93c
000000d0: 073b e73e f7de 563e 25c7 ab3d adb8 1a3f
000000e0: f9ca 54be f557 1a3f b591 d8bc 7126 8a3e
000000f0: ec39 383e 09cc 16bf 4e85 2fbe 6f0f 033e
00000100: a567 e1be 8994 c83e ac4a 33be 1f3a 4e3e
00000110: fa8c 3b3d 0fb3 f53e 9185 b4bc d231 233f
00000120: 5f9e f73c 690f 2b3f c7dc e63e 29dc d2bd
00000130: 28e7 623d d152 c2bd a090 09be 0e57 053f
00000140: 9d1c e83c ecce 2a3f e8f3 20bf 4599 f63c
00000150: bbf5 0cbf 1be7 213f 195c a63d 998d 8bbe
00000160: 0aa3 a23e 7a39 d13e a507 e83e 641c 80bd
00000170: 02c2 bf3e d626 15bf 7abd a73c 4d7e 1d3f
00000180: 2df9 183d eb1f 263f aa6b e43e b1ef 2fbf
00000190: a041 2f3f 428e 6b3e 7e4d 2e3f b829 7e3d
000001a0: 60ef 693e 50d4 003f a6f7 20bf de51 04bd
000001b0: 3d72 bdbe 25b7 2a3e 82b7 ccbd 4f1f e9be
000001c0: 3755 c13d 1f3d e03e ad5f 853e 69b5 32bf
000001d0: 8d0b ed3e 3c5c 9abe 8c73 7dbe 9906 cfbe
000001e0: c513 94be 22df 04be 4d08 a3be c734 273d
000001f0: 958e e2bd 416c 1d3f aacd 493e c6a6 f3be
00000200: 49f3 72bd f932 773e 456d 2f3f ea59 dd3e
00000210: df37 7f3e c4e4 813e 369b 9c3e a9eb 143f
00000220: f1a0 86be a2d1 d0bd 221d 873c 0390 91be
00000230: 3e36 36be 835a b33e e745 1a3f 305d 9bbe
00000240: 5e13 20bf e270 f8be 2dab 143f c403 013f
00000250: 230a 283f 1177 cb3e 05c1 2f3f 8901 02bf
00000260: 5750 013f 3d82 89be e30b debc 76a3 a0be
00000270: 5e25 0bbf 293c b13e 4ef0 1c3f 2dac 41be
00000280: 68ad 55be 8b7b eebe 50b5 8bbd 39f9 4e3c
00000290: fcb0 173e 43a8 9bbd 6af6 f7be ee35 f0be
000002a0: 568b e43e 0a70 2cbf 6d40 a93d 6433 163f
000002b0: 9b3e b7be be56 1abe 9761 163f 9c97 b83e
000002c0: 339c 953e a4e7 17bf ed2d cf3e 82c8 173f
000002d0: 6012 ff3e 6c97 253f 6ac5 03bf fe18 aebe
000002e0: efb4 07bf 05d8 123f f154 e53d 23b1 ffbe
000002f0: 5a95 0d3f e893 743e 2b00 0c3f 3927 2ebf
00000300: f0ad 29bd 30ed e43c 470d 94be f7f8 2e3f
00000310: 14f0 173e df78 99be 9d58 093f c929 05be
00000320: 9db2 a83e 64b7 33bf 180f 21bf 41ce 74be
00000330: 7405 2d3f 7bf1 21bf 9968 a1be 5dcc 973e
00000340: 8c55 223f 87ef 20bf c570 9cbd 39be 2abe
00000350: 402d 92be 2a0d 003f 43c0 1fbf 2772 273e
00000360: 53e4 2ebf 4c03 023f c6a5 f33d 1f64 233d
00000370: 62c7 1f3f b680 dfbe 3bfa 0e3f 0beb aebd
00000380: a032 b23e da62 a8bd 0977 083e 9c38 8ebe
00000390: a2e9 11bf 988e 92be 8f1d a4be 9b6e 8fbd
000003a0: 0905 41be adb1 94be 0ab0 4f3f edcf c2be
000003b0: c51f 8a3d edd8 a53e cbcd 173f 7472 06bf
000003c0: d6f2 0c3f 4fad f03d 2c41 8ebe c3d6 ec3e
000003d0: a8b1 863e e1bc dc3e edbc 0bbf 3c2b 4bbe
000003e0: d42c 003e e7c7 a03d 9534 26bf a4f0 10bf
000003f0: 8605 00bf 6766 ee3e ee95 f53e 3464 163f

decoders.0.decoder_net.3.weight f4 [32]
1.0393925 0.9738688 0.9917757 0.9830754 0.9893628 0.96786946 0.9752865 1.0258518
0.9964387 0.9720813 1.0171326 0.96520215 0.98189074 1.0045778 1.019029 1.0046757
1.0284928 0.9989692 1.0083221 0.97430915 1.0045569 1.0066719 1.0052371 1.0055085
0.9957611 0.99186337 0.9867497 0.99449235 1.0092957 1.0322974 0.9837671 0.98472995
00000000: d00a 853f 774f 793f 03e5 7d3f d4aa 7b3f
00000010: e146 7d3f 4bc6 773f 60ac 793f 1d4f 833f
00000020: 9b16 7f3f 52da 783f 6731 823f 7d17 773f
00000030: 315d 7b3f 0196 803f 8b6f 823f 3799 803f
00000040: a7a5 833f 72bc 7f3f b310 813f 536c 793f
00000050: 5295 803f a0da 803f 9cab 803f 81b4 803f
00000060: 33ea 7e3f c2ea 7d3f a19b 7c3f 0d97 7e3f
00000070: 9a30 813f 5222 843f 29d8 7b3f 4317 7c3f

decoders.0.decoder_net.3.bias f4 [32]
0.012897322 0.036547728 -0.010930098 0.0032979615 -0.04726295 0.0007524199 0.009414426 0.023000265
0.04847973 -0.03901147 -0.020925825 0.0044283927 -0.0076188035 -0.0722089 0.00023804924 -0.020466289
-0.012049406 0.00676953 -0.02646225 0.035658926 -0.01146122 -0.012690148 -0.03163149 -0.020120744
-0.026548501 -0.02927189 0.015316745 0.020850586 -0.03635163 0.04913956 0.01524128 0.03484616
00000000: 4a4f 533c 12b3 153d 2714 33bc 9d22 583b
00000010: cc96 41bd 0b3e 453a f73e 1a3c 0d6b bc3c
00000020: ae92 463d 7eca 1fbd a36c abbc 0d1c 913b
00000030: 28a7 f9bb 42e2 93bd db9c 7939 eba8 a7bc
00000040: df6a 45bc efd2 dd3b 5cc7 d8bc 180f 123d
00000050: d7c7 3bbc 57ea 4fbc 0590 01bd 42d4 a4bc
00000060: 3e7c d9bc 9acb efbc 16f3 7a3c d9ce aa3c
00000070: 72e5 14bd 9046 493d 90b6 793c d9ba 0e3d

decoders.0.decoder_net.3.running_mean f4 [32]
0.033337332 0.037677612 0.014478253 0.04161452 0.051965013 0.028099079 0.040235553 0.024691176
0.035772894 0.013614438 0.029842062 0.015729932 0.032523178 0.045930002 0.032508105 0.017737776
0.035055578 0.032561556 0.023520906 0.03277131 0.03503307 0.023375183 0.03051318 0.061706185
0.028943893 0.021021191 0.027370352 0.04195603 0.031381138 0.025207765 0.030882025 0.022943474
00000000: ba8c 083d d753 1a3d 3236 6d3c fd73 2a3d
00000010: 44d9 543d 0a30 e63c 09ce 243d 2645 ca3c
00000020: 9986 123d 170f 5f3c 5777 f43c 0fdc 803c
00000030: 0637 053d 1921 3c3d 3827 053d d04e 913c
00000040: 7096 0f3d 445f 053d eaae c03c 363b 063d
00000050: d67e 0f3d 507d bf3c c7f6 f93c a0bf 7c3d
00000060: be1b ed3c a234 ac3c ca37 e03c 16da 2b3d
00000070: 8289 003d 8480 ce3c 4dfc fc3c f4f3 bb3c

decoders.0.decoder_net.3.running_var f4 [32]
0.0022606705 0.0024332518 0.00032338937 0.0016567358 0.0048868707 0.0007716665 0.0018586885 0.0007731973
0.0013521301 0.00020227743 0.0012784781 0.00021723351 0.0020698926 0.007131527 0.0012683764 0.00021344103
0.0022177794 0.00063298654 0.0012833352 0.0046066414 0.0012258961 0.00065034564 0.0012761861 0.004242623
0.0013377544 0.0012749921 0.00056356826 0.0026258014 0.0017588512 0.0010856382 0.0016980341 0.00097111275
00000000: c227 143b 3177 1f3b 968c a939 d426 d93a
00000010: 0b22 a03b aa49 4a3a 3d9f f33a 64b0 4a3a
00000020: f539 b13a 6f1a 5439 9b92 a73a 2dc9 6339
00000030: 09a7 073b 96af e93b a63f a63a 24cf 5f39
00000040: 2a58 113b 02ef 253a 9535 a83a 4ff3 963b
00000050: 3fae a03a f57b 2a3a b345 a73a b405 8b3b
00000060: 9757 af3a a31d a73a 6dbc 133a a315 2c3b
00000070: 4189 e63a f94b 8e3a 9290 de3a 4692 7e3a

decoders.0.decoder_net.4.weight f4 [32, 32, 3, 3]
-0.052955184 -0.017724637 -0.0014835786 -0.020282943 -0.05202861 -0.08339327 -0.005844468 -0.04852158
0.05389134 -0.049120065 -0.05889041 -0.047497313 -0.060556598 -0.0099223675 -0.05725608 0.004037207
-0.031827368 0.045526035 -0.016274912 0.06334803 -0.015450912 0.074614815 0.01312436 -0.01254257
0.04238249 -0.030880615 0.040936787 -0.020435985 -0.001425019 -0.067424096 0.014696978 0.035565417
-0.005896769 -0.01690232 -0.028406119 -0.024975304 -0.035162307 -0.020351483 0.006477626 -0.0649804
-0.009053769 0.045202877 -0.01004028 0.019947737 0.0102426745 -0.055178996 0.020918911 -0.026965296
-0.030217767 0.0055245887 0.026585855 0.053379588 -0.029622117 0.017873505 0.047119476 0.021782802
0.011140871 -0.0072074486 -0.04240489 -0.005525066 -0.013626079 0.019816684 0.0048308987 0.057431918
-0.012294514 0.002402329 0.0050143916 -0.06303133 -0.03115116 -0.039837837 0.01496723 0.01967175
0.049690958 0.053001024 0.0033154173 0.02631319 -0.0005160892 0.037862256 -0.056946516 -0.03312781
0.0036068072 0.027159462 -0.036259905 0.04181855 -0.037684526 -0.05573712 0.03268241 -0.026914993
0.05838235 -0.021460144 0.026584588 -0.015585299 -0.043493047 -0.009760803 0.055341955 0.030301875
0.049078826 0.007964227 0.032515954 -0.0016790407 0.075413495 0.028085643 0.06635075 -0.030005775
-0.06746832 -0.0057110097 -0.021141943 -0.028517896 0.006599535 -0.0034459785 0.03303831 0.026751218
-0.016765213 -0.010570654 -0.024231587 -0.061191395 0.055656627 -0.012345575 -0.01950599 -0.042078577
0.007744136 0.018322818 0.023525303 0.029733716 -0.07203079 -0.044973653 0.020376736 -0.00055463833
0.03092446 0.051416222 0.0076050423 -0.055669803 0.02870781 -0.030948417 -0.010404206 0.013766059
-0.022912886 -0.020688161 -0.054133978 -0.047115553 0.0024665305 0.058167927 0.042648688 -0.021439113
0.025846519 -0.031544033 0.0250462 -0.073783085 -0.016269881 -0.015381069 0.013813197 0.0135946805
0.065247856 -0.022744088 0.058363702 0.045079302 0.048454203 0.019845504 0.065133624 -0.055524863
-0.029324299 -0.00661744 0.008336613 0.005151392 -0.058768347 -0.023743661 0.061831374 0.012817979
-0.06309407 0.05391075 -0.057533413 -0.052288678 -0.029851913 -0.047051784 -0.007131351 -0.012121873
-0.00071561773 0.0630837 0.032179225 0.009025842 -0.031350985 0.059353802 0.022880653 0.03013923
0.06390814 0.058400948 -0.013833882 -0.02510632 0.038731117 0.023514904 -0.062079262 0.050101765
0.012802278 0.04684299 0.010824661 -0.020780198 -0.0017660985 0.05931483 0.031094164 0.03413758
0.02564458 -0.032370407 0.018501941 -0.039132416 0.021114003 0.04782259 0.073883206 0.03414541
0.108444706 -0.04878842 0.0017973776 0.03616273 -0.0028314472 0.013647817 -0.06514366 0.03917253
-0.056009937 -0.09039021 -0.04859117 0.023529619 0.01787869 -0.06275508 0.0022059192 0.06908659
-0.06696968 -0.0004736099 0.00096678146 -0.039898373 0.037777025 -0.039268013 -0.015314866 -0.008399159
-0.08316112 -0.014655656 -0.010796212 0.04585735 -0.030519595 0.051792827 -0.049751118 -0.024075873
-0.012209941 0.018962208 -0.023878122 -0.011288505 -0.0009837936 -0.021024281 0.03239391 0.06333171
0.0268624 0.030593833 0.011375547 -0.059168816 -0.020549301 -0.07621166 -0.022284051 0.033769086
00000000: 89e7 58bd 4233 91bc a374 c2ba 6a28 a6bc
00000010: f41b 55bd 17ca aabd f382 bfbb 90be 46bd
00000020: 2abd 5c3d 1f32 49bd 1237 71bd 8b8c 42bd
00000030: 320a 78bd 6d91 22bc 5a85 6abd 8c4a 843b
00000040: 6a5d 02bd 8279 3a3d f752 85bc 9dbc 813d
00000050: d225 7dbc a7cf 983d 8e07 573c 5a7f 4dbc
00000060: 4399 2d3d 58f9 fcbc 55ad 273d 5e69 a7bc
00000070: b4c7 baba a515 8abd 98cb 703c 0bad 113d
00000080: af39 c1bb bc76 8abc f3b3 e8bc 0299 ccbc
00000090: 5a06 10bd 27b8 a6bc 4442 d43b 7214 85bd
000000a0: 4256 14bc a726 393d fd7f 24bc 7069 a33c
000000b0: e4d0 273c 5f03 62bd 235e ab3c 53e6 dcbc
000000c0: 408b f7bc 9c07 b53b 94ca d93c 8ea4 5a3d
000000d0: 15aa f2bc 756b 923c 5a00 413d d971 b23c
000000e0: 3388 363c 762c ecbb c0b0 2dbd 9d0b b5bb
000000f0: eb3f 5fbc 9956 a23c 844c 9e3b bb3d 6b3d
00000100: ee6e 49bc 6470 1d3b c44f a43b 9216 81bd
00000110: b830 ffbc 002d 23bd 1d39 753c a626 a13c
00000120: bf88 4b3d 9a17 593d 7947 593b c28e d73c
00000130: 294a 07ba 7415 1b3d c040 69bd 07b1 07bd
00000140: 2f60 6c3b 857d de3c 4485 14bd ee49 2b3d
00000150: 175b 1abd 9b4c 64bd fedd 053d d57c dcbc
00000160: 5522 6f3d 2fcd afbc ecc7 d93c 7b59 7fbc
00000170: c425 32bd c6eb 1fbc 3fae 623d a33b f83c
00000180: e106 493d 647c 023c 732f 053d 4213 dcba
00000190: 6472 9a3d dd13 e63c e7e2 873d acce f5bc
000001a0: d52c 8abd 6c23 bbbb de31 adbc 5d9e e9bc
000001b0: e940 d83b edd5 61bb 2e53 073d 5f25 db3c
000001c0: 3357 89bc 8930 2dbc 5281 c6bc d4a3 7abd
000001d0: 34f8 633d 1845 4abc 07cb 9fbc 965a 2cbd
000001e0: 85c2 fd3b bc19 963c 23b8 c03c 1f94 f33c
000001f0: e184 93bd 4b36 38bd 1ded a63c 2665 11ba
00000200: 4b55 fd3c d199 523d b833 f93b 0506 64bd
00000210: a42c eb3c 8987 fdbc 6776 2abc 098b 613c
00000220: ceb3 bbbc 387a a9bc 97bb 5dbd 3dfc 40bd
00000230: 84a5 213b 7e41 6e3d 64b0 2e3d 14a1 afbc
00000240: 14bc d33c 5134 01bd b02d cd3c 961b 97bd
00000250: 6a48 85bc e100 7cbc bf50 623c 39bc 5e3c
00000260: aba0 853d cf51 babc c70e 6f3d 13a5 383d
00000270: ea77 463d 0a93 a23c c764 853d 0a6e 63bd
00000280: 8339 f0bc 1cd7 d8bb 4a96 083c 02cd a83b
00000290: 14b7 70bd 1182 c2bc e542 7d3d 8002 523c
000002a0: 7737 81bd 85d1 5c3d 28a8 6bbd a72c 56bd
000002b0: 008c f4bc 5fb9 40bd 1cae e9bb d29a 46bc
000002c0: 4b98 3bba 0732 813d 5dce 033d 20e1 133c
000002d0: e469 00bd f91c 733d 3570 bb3c 8ce6 f63c
000002e0: 45e2 823d d535 6f3d 82a7 62bc c5ab cdbc
000002f0: 85a4 1e3d 54a2 c03c d346 7ebd 8237 4d3d
00000300: a5c0 513c 6fde 3f3d eb59 313c 3c3b aabc
00000310: 6f7c e7ba 1bf4 723d 30b9 fe3c d9d3 0b3d
00000320: 9514 d23c d596 04bd 6291 973c 5049 20bd
00000330: 46f7 ac3c 9fe1 433d 1450 973d 0fdc 0b3d
00000340: 4218 de3d 5ed6 47bd fc95 eb3a 5f1f 143d
00000350: cd8f 39bb 189b 5f3c 0a6a 85bd 6073 203d
00000360: ad6a 65bd 811e b9bd 8907 47bd 30c1 c03c
00000370: 5576 923c bc85 80bd 2f91 103b 457d 8d3d
00000380: 6627 89bd d84e f8b9 9b6f 7d3a 7a6c 23bd
00000390: 15bc 1a3d 7fd7 20bd 34eb 7abc a09c 09bc
000003a0: 6150 aabd 471e 70bc 98e2 30bc ebd4 3b3d
000003b0: 3b04 fabc b724 543d d4c7 4bbd c43a c5bc
000003c0: 340c 48bc a256 9b3c 0d9c c3bc 6cf3 38bc
000003d0: a3f2 80ba 1d3b acbc 7aaf 043d 0eb4 813d
000003e0: 890e dc3c eb9f fa3c 8160 3a3c 005b 72bd
000003f0: 0257 a8bc dc14 9cbd 0b8d b6bc 7451 0a3d

decoders.0.decoder_net.4.bias f4 [32]
0.04643065 -0.024758723 -0.014911517 -0.032265067 0.03460979 0.0023421824 -0.003732496 -0.006246772
-0.037058268 -0.062582366 -0.055881556 -0.004229564 -0.04192778 0.0035363908 -0.08335577 -0.007042665
0.04403097 0.05700794 0.018692477 -0.014517385 0.06913886 0.056881472 -0.02811148 0.048439745
0.020293139 -0.025163298 -0.011079217 0.005716624 -0.02811646 -0.026816355 0.04943964 -0.0031922462
00000000: 112e 3e3d ced2 cabc 6f4f 74bc 6028 04bd
00000010: ffc2 0d3d 4d7f 193b e49c 74bb b9b1 ccbb
00000020: 69ca 17bd 2f2b 80bd 0fe4 64bd 2898 8abb
00000030: 77bc 2bbd cbc2 673b 6eb6 aabd 28c6 e6bb
00000040: d259 343d 2881 693d f720 993c 53da 6dbc
00000050: ad98 8d3d 8cfc 683d 0c4a e6bc c168 463d
00000060: cc3d a63c 4323 cebc 9b85 35bc 8552 bb3b
00000070: 7e54 e6bc f9ad dbbc 3881 4a3d 0135 51bb

decoders.0.decoder_net.6.weight f4 [32]
0.9535951 1.000403 0.9755175 0.96782136 1.0028559 0.9614106 0.9989647 0.9688655
0.9762478 0.95831865 0.9676385 0.9681586 0.9503914 1.0067583 0.9547299 1.0133382
0.9579389 1.0145283 0.9608245 0.97275466 1.0178891 0.9567572 1.0020428 0.9701734
0.9692011 0.94720215 0.9891057 0.96036524 0.99531853 0.96618956 0.9764533 0.9743364
00000000: cf1e 743f 350d 803f 84bb 793f 24c3 773f
00000010: 955d 803f 011f 763f 27bc 7f3f 9207 783f
00000020: 60eb 793f 5f54 753f 28b7 773f 3ed9 773f
00000030: da4c 733f 75dd 803f 2e69 743f 11b5 813f
00000040: 7c3b 753f 10dc 813f 98f8 753f 7306 793f
00000050: 314a 823f 0aee 743f f042 803f 495d 783f
00000060: 901d 783f d77b 723f 0836 7d3f 7fda 753f
00000070: 32cd 7e3f 3358 773f d8f8 793f 1c6e 793f

decoders.0.decoder_net.6.bias f4 [32]
0.0634097 -0.049430884 0.05304526 -0.015686423 -0.058856804 -0.06369394 0.03638658 0.0014926373
-0.01465882 0.03215026 0.016604034 -0.02321127 -0.046970166 0.018191548 -0.07730887 0.003857512
-0.025912952 0.045989152 0.053683907 0.020634757 -0.018194593 0.028613789 -0.033635177 -0.02923402
0.06796021 -0.053360455 -0.029139556 0.0022133677 -0.0645377 0.04047868 0.011023559 0.050585955
00000000: f2dc 813d 0a78 4abd fd45 593d d080 80bc
00000010: d513 71bd f871 82bd 180a 153d 99a4 c33a
00000020: 8c2b 70bc feaf 033d 2f05 883c 9025 bebc
00000030: ca63 40bd 7106 953c 1d54 9ebd 50ce 7c3b
00000040: 6647 d4bc 1f5f 3c3d a8e3 5b3d 390a a93c
00000050: d40c 95bc 7767 ea3c 0ac5 09bd 2f7c efbc
00000060: b92e 8b3d 7e90 5abd 14b6 eebc 260e 113b
00000070: 572c 84bd f9cc 253d 289c 343c 3833 4f3d

decoders.0.decoder_net.6.running_mean f4 [32]
0.03311347 0.03196391 0.030194039 0.031061318 0.030589774 0.033359237 0.031729303 0.03098707
0.02816202 0.028000062 0.028834522 0.03033533 0.029275134 0.031513225 0.028879378 0.031216523
0.033272732 0.033417247 0.032582074 0.032487947 0.03292641 0.032172643 0.03059994 0.032266106
0.033973686 0.030080106 0.032328036 0.031508125 0.029853608 0.029965507 0.032760262 0.03059104
00000000: fda1 073d 97ec 023d 7d59 f73c 4e74 fe3c
00000010: 6897 fa3c b2a3 083d 96f6 013d 99d8 fd3c
00000020: 09b4 e63c 6360 e53c 6036 ec3c cc81 f83c
00000030: 68d2 ef3c 0314 013d 7294 ec3c cbb9 ff3c
00000040: fd48 083d 86e0 083d c874 053d 1512 053d
00000050: d8dd 063d 76c7 033d baac fa3c 7729 043d
00000060: fe27 0b3d 8e6a f63c 676a 043d aa0e 013d
00000070: 8e8f f43c 397a f53c a02f 063d 109a fa3c

decoders.0.decoder_net.6.running_var f4 [32]
0.00018773002 0.00022244595 0.00011673506 0.00026932705 0.00011552475 0.0002608849 0.00016893256 0.00016389393
9.627674e-05 9.404844e-05 0.00011276516 0.00016178901 0.00013923334 0.00014932541 0.00013684576 0.00016715447
0.0001690125 0.00024141684 0.00020902962 0.00015802123 0.0001600309 0.00024013768 0.00015385238 0.00017225099
0.00019785945 0.00014937554 0.0003605518 0.00015632782 0.00014165892 0.00010532002 0.0001977053 0.00014091017
00000000: 65d9 4439 6140 6939 a8cf f438 7734 8d39
00000010: e145 f238 61c7 8839 7d23 3139 f1da 2b39
00000020: 2ee8 c938 df3b c538 567c ec38 e8a5 2939
00000030: 2aff 1139 3c94 1c39 417e 0f39 3046 2f39
00000040: f338 3139 d724 7d39 f62e 5b39 80b2 2539
00000050: f8cd 2739 78cd 7b39 6f53 2139 469e 3439
00000060: 7e78 4f39 b1a1 1c39 7208 bd39 eeeb 2339
00000070: 478a 1439 41df dc38 1d4f 4f39 49c1 1339

decoders.0.decoder_net.7.weight f4 [32, 16, 3, 3]
-0.047406904 0.020479672 -0.025731698 -0.06473749 -0.038641278 -0.001312674 -0.02298526 -0.036634848
0.048530385 0.040934037 0.0458065 0.0025918197 0.003350797 0.06238677 0.05227473 0.030141415
0.04378442 -0.0060884627 -0.034126073 0.043616336 0.0602002 -0.043446373 -0.020520572 -0.030287085
-0.027641337 -0.006007367 0.0035933394 -0.029035658 0.032926105 0.057120133 -0.04643139 -0.049336784
-0.03157195 -0.05932225 0.00018722072 0.028710617 -0.022575336 -0.0024894655 -0.04736216 -0.044966534
0.037444104 0.045430493 -0.055327743 -0.07665145 -0.044945933 0.009034181 -0.034627013 -0.009675506
0.027369674 -0.0016932653 -0.036312003 0.067881025 0.04250923 -0.042556636 0.02351216 -0.057930592
0.06491273 0.062179 -0.06705427 -0.058434602 -0.042971145 -0.02501401 -0.009587437 -0.02344695
0.021497922 0.01957185 0.003778262 -0.03365104 -0.07315382 -0.0075045316 0.07732608 -0.068408996
-0.013857231 0.009405216 0.0460477 -0.045661755 -0.0061878776 0.06709533 0.055482 0.029225232
0.058305755 0.011654661 -0.05151139 0.01291705 0.029709699 0.041491996 -0.00447922 -0.017838305
0.056808285 -0.031632002 -0.0015542351 0.046736967 0.05574398 0.014532157 -0.024633637 -0.054244697
-0.025324974 -0.050311428 -0.02228422 0.05761368 0.057070464 0.08459503 0.09596359 0.011600976
0.034385227 -0.05097156 0.065664984 0.03887482 0.050840512 -0.000860498 0.035007816 -0.02039223
0.034493435 0.038100153 -0.021096472 -0.030981619 0.034966074 0.0030456898 0.05940348 0.044701647
0.042981308 -0.090182796 0.05067329 0.013257739 -0.032245032 -0.015425487 -0.033632513 -0.0266109
-0.040127717 0.049369473 -0.050459508 -0.016726488 -0.05383248 -0.000431574 -0.08183133 -0.06569156
-0.090595506 -0.042347156 -0.1059161 0.030187218 0.021206127 0.007893064 0.07863463 -0.010575085
0.051432293 -0.012584599 0.059203964 -0.013456707 -0.066913545 -0.00084901025 -0.035127267 -0.015988749
0.056403056 -0.022160405 -0.085778415 -0.0010952825 -0.0043456256 -0.08301682 -0.0064758915 0.0787434
0.050467964 0.015517684 -0.030122057 -0.050331485 0.014280306 -0.018678915 -0.07044074 0.03133466
0.097812034 -0.07195453 -0.0037447286 -0.07591553 -0.08841598 0.013926083 -0.030174151 0.021260481
0.050482612 0.014377453 0.030800965 -0.07566389 0.0034891819 0.08952909 -0.048697557 0.051942807
0.08608428 0.04369098 0.09889717 0.10782149 0.026294954 0.04196001 -0.044717487 0.023940656
-0.010410749 0.005760263 -0.0012533675 -0.06793987 0.013743236 0.02491502 0.043697234 0.045830343
0.027088344 0.056972552 0.09407493 0.019186193 0.0142387105 -0.063531406 -0.05258129 0.012249766
0.003880324 0.058263164 0.021214101 -0.016922569 -0.05100519 -0.051173594 0.011265816 0.027146783
0.010537277 -0.019595262 0.015472142 0.04670176 0.03140127 -0.021375395 0.008961683 0.105223596
0.035710767 0.052973926 0.034577273 0.03175779 -0.061296567 -0.05297407 0.064791076 -0.038263224
0.0694738 0.0047251834 0.003415026 0.045623966 0.021562258 0.039844736 0.010245469 0.036714826
0.040218778 -0.08058136 -0.05390759 0.042629834 0.012546749 -0.0094995005 -0.06014646 0.018196292
0.036264013 -0.090004586 0.096815184 0.035839908 -0.07188157 0.01473268 0.02664657 0.031860016
00000000: be2d 42bd fcc4 a73c 48cb d2bc 1795 84bd
00000010: 5146 1ebd 080e acba 954b bcbc 6c0e 16bd
00000020: ccc7 463d 73aa 273d 999f 3b3d 85db 293b
00000030: 0c99 5b3b 4589 7f3d 071e 563d 21eb f63c
00000040: 4b57 333d ba81 c7bb c8c7 0bbd 0ba7 323d
00000050: 7c94 763d d3f4 31bd c21a a8bc 9f1c f8bc
00000060: 1670 e2bc 72d9 c4bb 3b7e 6b3b 30dc edbc
00000070: 86dd 063d cdf6 693d d72e 3ebd 5e15 4abd
00000080: 9751 01bd e3fb 72bd ae50 4439 8732 eb3c
00000090: e9ef b8bc 4d26 23bb d3fe 41bd d42e 38bd
000000a0: fd5e 193d 5315 3a3d 589f 62bd 6ffb 9cbd
000000b0: 3a19 38bd 1a04 143c 0ed5 0dbd 0386 1ebc
000000c0: 5e36 e03c 8ef0 ddba e5bb 14bd 3505 8b3d
000000d0: 291e 2e3d de4f 2ebd 939c c03c a148 6dbd
000000e0: f7f0 843d 68af 7e3d c053 89bd 1f59 6fbd
000000f0: 8302 30bd 2eea ccbc a014 1dbc d113 c0bc
00000100: 691c b03c 2555 a03c b89c 773b acd5 09bd
00000110: acd1 95bd 93e8 f5bb 235d 9e3d 041a 8cbd
00000120: 7009 63bc 5618 1a3c 839c 3c3d d207 3bbd
00000130: aec3 cabb 4769 893d 1841 633d c169 ef3c
00000140: 04d2 6e3d 31f3 3e3c 9bfd 52bd 09a2 533c
00000150: c161 f33c 83f3 293d 6cc6 92bb a321 92bc
00000160: ceaf 683d 8f90 01bd 7ab7 cbba 436f 3f3d
00000170: cd53 643d 4918 6e3c 7bcc c9bc b02f 5ebd
00000180: 5276 cfbc 5b13 4ebd 668d b6bc 52fc 6b3d
00000190: b8c2 693d 2940 ad3d 8f88 c43d 0512 3e3c
000001a0: 86d7 0c3d 8ec7 50bd 5d7b 863d 343b 1f3d
000001b0: 243e 503d 0b93 61ba 5b64 0f3d 9b0d a7bc
000001c0: fd48 0d3d e80e 1c3d 82d2 acbc 2acd fdbc
000001d0: 9638 0f3d 329a 473b 1051 733d 1319 373d
000001e0: 2b0d 303d c2b1 b8bd cc8e 4f3d fd36 593c
000001f0: 5e13 04bd 2fbb 7cbc 3fc2 09bd 1aff d9bc
00000200: f65c 24bd a537 4a3d a1ae 4ebd fd05 89bc
00000210: 727f 5cbd e244 e2b9 2f97 a7bd 4c89 86bd
00000220: 238a b9bd 3674 2dbd 8aea d8bd 2f4b f73c
00000230: 79b8 ad3c e951 013c 310b a13d 1f43 2dbc
00000240: abaa 523d a22f 4ebc db7f 723d 8579 5cbc
00000250: f809 89bd 1d90 5eba 9ce1 0fbd d6fa 82bc
00000260: e406 673d bd89 b5bc 98ac afbd 958f 8fba
00000270: c065 8ebb b904 aabd b733 d4bb 3844 a13d
00000280: 7fb7 4e3d e23d 7e3c 88c2 f6bc 6328 4ebd
00000290: f2f7 693c 8604 99bc 3c43 90bd c658 003d
000002a0: ad51 c83d e65c 93bd 1f6a 75bb 9a79 9bbd
000002b0: 7013 b5bd 3a2a 643c c82f f7bc 762a ae3c
000002c0: dbc6 4e3d 698f 6b3c 4e52 fc3c abf5 9abd
000002d0: c2aa 643b 075b b73d 1777 47bd fbc1 543d
000002e0: f44c b03d 50f5 323d 998a ca3d 83d1 dc3d
000002f0: 8468 d73c 42de 2b3d af29 37bd 321f c43c
00000300: d991 2abc 97c0 bc3b 0948 a4ba 0f24 8bbd
00000310: 4f2b 613c 961a cc3c dffb 323d 99b8 3b3d
00000320: 60e8 dd3c 0d5c 693d 5baa c03d 5d2c 9d3c
00000330: 7b49 693c c11c 82bd 7b5f 57bd 3eb3 483c
00000340: 094d 7e3b 5ba5 6e3d 32c9 ad3c 33a1 8abc
00000350: d1ea 50bd 679b 51bd 4294 383c ee62 de3c
00000360: 8ba4 2c3c 3e86 a0bc de7e 7d3c 584a 3f3d
00000370: 9e9e 003d 741b afbc 06d4 123c 787f d73d
00000380: 7445 123d 30fb 583d e6a0 0d3d 7514 023d
00000390: 1c12 7bbd 57fb 58bd 2fb1 843d e6b9 1cbd
000003a0: 4848 8e3d b6d5 9a3b a1ce 5f3b 32e0 3a3d
000003b0: 55a3 b03c 3c34 233d 9ddc 273c 4962 163d
000003c0: 72bc 243d d707 a5bd 35ce 5cbd 9f9c 2e3d
000003d0: e190 4d3c cba3 1bbc 225c 76bd 6410 953c
000003e0: 9389 143d 5354 b8bd 0a47 c63d decc 123d
000003f0: a536 93bd 5761 713c e849 da3c a67f 023d

decoders.0.decoder_net.7.bias f4 [16]
0.015081629 0.0785368 -0.04376699 -0.073588625 -0.05320438 0.035518236 -0.053133897 0.00069546624
-0.03169408 0.049718797 -0.04051161 0.03172942 0.029831307 0.019252373 -0.03349237 0.050270114
00000000: f018 773c e7d7 a03d 0445 33bd a2b5 96bd
00000010: d6ec 59bd 927b 113d eea2 59bd f34f 363a
00000020: a7d1 01bd f0a5 4b3d 81ef 25bd b5f6 013d
00000030: c960 f43c 27b7 9d3c 4c2f 09bd 09e8 4d3d

decoders.0.decoder_net.9.weight f4 [16]
0.97318053 0.96914256 0.9705357 0.97222424 0.9774716 0.96813935 0.9693754 0.9851674
0.96444243 0.9740735 0.9772598 0.9711413 0.96945906 0.980363 0.9726372 0.97727144
00000000: 5c22 793f ba19 783f 0775 783f b0e3 783f
00000010: 943b 7a3f fbd7 773f fc28 783f ee33 7c3f
00000020: b3e5 763f e25c 793f b32d 7a3f b79c 783f
00000030: 782e 783f 12f9 7a3f c0fe 783f 762e 7a3f

decoders.0.decoder_net.9.bias f4 [16]
-0.08521738 0.09512031 0.114508644 -0.13584554 0.09713103 -0.15729295 0.09517067 -0.054630622
0.06869633 -0.080695756 -0.11111286 0.09257862 0.10518971 -0.06724518 -0.11704542 0.09910553
00000000: 7386 aebd 70ce c23d 8283 ea3d 181b 0bbe
00000010: a2ec c63d 6711 21be d7e8 c23d 5cc4 5fbd
00000020: a9b0 8c3d d143 a5bd 248f e3bd dc99 bd3d
00000030: b46d d73d d7b7 89bd 82b5 efbd d7f7 ca3d

decoders.0.decoder_net.9.running_mean f4 [16]
0.06428234 0.06702293 0.059155498 0.058579974 0.05909333 0.06375586 0.05988691 0.06290549
0.059404753 0.06297254 0.05733405 0.066436835 0.06876436 0.06467354 0.05912873 0.06660262
00000000: 76a6 833d 5143 893d 094d 723d 8ef1 6f3d
00000010: d90b 723d 6f92 823d fa4b 753d 98d4 803d
00000020: 6652 733d bff7 803d 1cd7 6a3d 0910 883d
00000030: 54d4 8c3d 9073 843d f830 723d f466 883d

decoders.0.decoder_net.9.running_var f4 [16]
0.0008518384 0.0008579552 0.0005263355 0.00073084724 0.0007792729 0.00073252566 0.0008895776 0.001088446
0.000563273 0.00045366873 0.0004947609 0.0014964067 0.0013650102 0.000660693 0.00065247295 0.0012389026
00000000: e84d 5f3a 66e8 603a c7f9 093a 5496 3f3a
00000010: 1e48 4c3a f706 403a 8b32 693a 30aa 8e3a
00000020: 9ca8 133a 63da ed39 d8b2 013a 1423 c43a
00000030: 24ea b23a 5b32 2d3a b80a 2b3a ac62 a23a

decoders.0.decoder_net.10.weight f4 [16, 1, 3, 3]
0.0043118214 -0.30040786 0.03668258 -0.31444713 -0.010189487 0.19274284 0.18937847 -0.2781313
0.04698441 0.13289993 -0.17724432 0.066957064 -0.27032924 0.19311996 -0.1893722 0.25996056
0.28212222 0.15623769 -0.16984023 0.13608898 -0.06901302 0.016738832 0.26331154 0.2549344
-0.17891775 -0.0013339976 0.16123106 0.2607277 -0.2932234 -0.108431466 0.23867306 -0.03700281
-0.17650285 0.2108461 -0.08434583 -0.108894095 -0.06263866 0.00012217424 0.09312354 -0.05301693
0.2720523 0.2145106 -0.12997277 0.120298736 0.16955052 -0.048696797 0.2405601 0.0021449137
0.13633806 -0.1389388 -0.13887118 -0.083356485 -0.1602933 0.17028639 0.166683 -0.2357937
0.17036355 0.256804 0.19757275 -0.23302975 0.15855822 0.028181218 -0.02874174 -0.26534778
-0.1980081 -0.18756217 -0.26977715 0.08062955 0.13221228 -0.3075932 0.024452956 -0.20905052
-0.23797643 0.11543108 0.114056095 -0.080375366 -0.026636237 0.17264387 0.12806235 0.17679201
0.07753511 -0.046138946 -0.20740911 -0.092283614 -0.019834291 -0.09806026 0.2035855 -0.05250053
-0.18895173 -0.09972591 -0.022427773 0.0051580146 0.006465679 -0.31787598 -0.30620524 -0.018269649
0.03271349 -0.18571317 0.16497374 0.095273644 -0.10668859 0.04847376 -0.11563109 0.25441808
0.30454636 0.023889532 -0.16474524 0.18493137 0.2914548 0.18697666 -0.1550345 -0.23109819
0.24697976 0.17245758 0.16596106 0.014007 -0.2119822 -0.06779302 0.032723665 -0.073651664
-0.25727648 -0.08915942 -0.24497327 -0.26598734 0.092607744 -0.14504014 0.29334998 0.0676587
-0.16487245 -0.24510832 -0.028218273 -0.17380133 0.26109236 -0.123041674 -0.016758334 -0.24067077
-0.14184454 0.083826594 0.08524508 0.26936498 0.20425776 0.22779882 0.29230088 -0.2883345
00000000: 2e4a 8d3b 0fcf 99be 7940 163d 37ff a0be
00000010: cef1 26bc 615e 453e 6eec 413e 3a67 8ebe
00000020: ba72 403d eb16 083e 897f 35be c920 893d
00000030: 9868 8abe 3dc1 453e c9ea 41be 8d19 853e
00000040: 5372 903e c6fc 1f3e 99ea 2dbe e95a 0b3e
00000050: b356 8dbd e01f 893c c5d0 863e c386 823e
00000060: 3736 37be 88d9 aeba c119 253e 1a7e 853e
00000070: 6121 96be 5111 debd b666 743e 4290 17bd
00000080: 2abd 34be 0ae8 573e 82bd acbd de03 dfbd
00000090: b348 80bd e61b 0039 8eb7 be3d 4828 59bd
000000a0: 704a 8b3e aba8 5b3e 9517 05be 2f5f f63d
000000b0: a79e 2d3e 4b76 47bd 6355 763e ae91 0c3b
000000c0: 349c 0b3e f945 0ebe 3f34 0ebe ceb6 aabd
000000d0: ed23 24be 8e5f 2e3e f3ae 2a3e e773 71be
000000e0: c873 2e3e d07b 833e 8350 4a3e 5a9f 6ebe
000000f0: 165d 223e 4cdc e63c cc73 ebbc aadb 87be
00000100: a3c2 4abe 4c10 40be 3b20 8abe 1b21 a53d
00000110: a862 073e db7c 9dbe 9151 c83c 5711 56be
00000120: 18b0 73be 2167 ec3d 3e96 e93d d79b a4bd
00000130: 3d34 dabc 8ec9 303e c722 033e f708 353e
00000140: baca 9e3d 31fc 3cbd 0e63 54be 31ff bcbd
00000150: 867b a2bc d1d3 c8bd b878 503e cc0a 57bd
00000160: 907c 41be 193d ccbd 73ba b7bc 9004 a93b
00000170: 0cde d33b a4c0 a2be efc6 9cbe 3baa 95bc
00000180: 95fe 053d 982b 3ebe e0ee 283e d41e c33d
00000190: 8c7f dabd 6c8c 463d fecf ecbd 1643 823e
000001a0: 80ed 9b3e fbb3 c33c fab2 28be a65e 3d3e
000001b0: 9039 953e cf76 3f3e 5dc1 1ebe 01a5 6cbe
000001c0: 43e8 7c3e b898 303e b2f1 293e 9e7d 653c
000001d0: dd11 59be 11d7 8abd 4009 063d afd6 96bd
000001e0: beb9 83be 3799 b6bd 46da 7abe 7e2f 88be
000001f0: 21a9 bd3d 6785 14be f831 963e a590 8a3d
00000200: 53d4 28be adfd 7abe 022a e7bc faf8 31be
00000210: e6ad 853e 46fd fbbd c648 89bc 6672 76be
00000220: b23f 11be 47ad ab3d f994 ae3d 35ea 893e
00000230: f228 513e 1844 693e 76a8 953e 94a0 93be

decoders.1.decoder_net.0.weight f4 [512, 2]
-0.31550187 -0.57548887 0.10699033 -0.16650091 0.20186281 0.80248064 -0.5144609 0.059160892
0.14050688 -0.32107422 -0.44036013 -0.21668777 0.14276786 -0.035695426 -0.5200084 -0.4925967
-0.45525548 -0.5158083 0.50747716 0.45303118 -0.16777183 -0.48144338 -0.14775549 0.68375725
0.5062823 -0.6493794 -0.67719114 0.5004967 -0.18764487 0.1411013 0.679249 0.15355515
-0.50766444 0.57142645 -0.5503597 0.42961615 0.26294142 0.535036 0.47829583 -0.014678239
0.067525744 0.4929321 0.24001938 -0.36842424 0.12366981 -0.25204808 0.6075745 0.5335603
0.24712364 -0.66476893 -0.52246654 0.69218105 0.5178506 -0.55331975 -0.3689848 0.20086303
0.54319525 0.6669857 -0.30693874 -0.41444033 0.26854926 0.00013431787 -0.5552505 0.1614259
0.38887614 -0.58750623 -0.63173795 -0.4358869 -0.11989477 0.31688476 0.5643343 -0.06892959
0.061661553 0.28976014 -0.2842225 -0.27089128 0.463644 0.5457467 0.021123497 -0.44209293
-0.45870572 0.17298847 0.3323551 -0.021917278 0.40642712 0.52342135 -0.62363964 -0.5790435
0.095498174 0.29645157 -0.502816 -0.5398092 0.61665994 0.37382635 -0.382082 -0.6259434
-0.036811292 0.5486693 -0.21789211 -0.031514432 0.2759715 0.46867335 0.2638081 0.16714396
0.16466096 0.66366273 0.2264956 0.63433516 -0.5908434 -0.14648513 0.0070506427 0.7546363
0.45187724 0.27319133 -0.18932946 -0.667369 -0.4222377 -0.67135197 -0.67516017 0.1810325
-0.43013462 -0.38918218 0.35386643 -0.17649852 -0.66623497 0.017801931 -0.31393027 -0.4863072
-0.24920292 0.31527254 -0.1821449 -0.49453017 0.019024892 -0.43128747 -0.19443147 0.64724773
0.58788043 -0.04121862 0.40003136 -0.37966934 -0.0075412295 -0.59614086 0.68543684 0.58994365
-0.00501632 0.11490237 -0.16242515 0.8087712 -0.7099431 -0.51630497 0.55161536 0.6128215
0.48689786 0.43052027 0.018347725 -0.3673242 0.6507079 -0.15147422 0.2807772 -0.46361026
-0.443291 -0.18292058 0.1481724 0.6966209 0.36084133 0.24474226 0.075504914 -0.017791798
-0.41204974 -0.1933695 -0.16427796 -0.55299014 -0.16899265 -0.2758346 -0.3877076 0.5718594
-0.3568615 -0.3116083 -0.59506726 0.057866704 0.41211683 0.09023535 0.38827282 -0.28008914
0.033506278 0.13054377 -0.11825606 0.5490181 -0.11115249 -0.67087424 -0.29584637 0.25524676
-0.3370838 0.67136353 -0.20435372 0.19537288 0.31444 1.0370837 -0.5970614 -0.090286866
0.17474484 0.4764538 0.65639067 0.38725245 0.70067644 0.47059318 -0.537777 0.62579966
-0.45854762 -0.2112535 0.47992173 -0.40693745 0.2871677 0.70365626 -0.20717658 -0.50121766
-0.43195483 -0.042402122 -0.730179 -0.37273827 -0.31903833 -0.61926794 -0.54922956 0.27508807
0.22765891 -0.44137096 -0.27453145 0.18174417 -0.03843689 -0.40815195 0.33182094 0.20752183
-0.45214748 -0.12879787 0.3485874 0.26852673 -0.41791815 0.004967458 -0.6624903 0.6976672
-0.564557 0.6493158 0.67382 -0.17396161 0.46592233 -0.43816698 0.39915535 -0.06631052
0.23190878 0.0054114936 -0.53551763 -0.30860084 -0.33359203 -0.3115969 -0.19996953 0.2929312
00000000: 7689 a1be 3d53 13bf bf1d db3d 377f 2abe
00000010: 20b5 4e3e 5f6f 4d3f b6b3 03bf b152 723d
00000020: 09e1 0f3e d763 a4be e276 e1be 66e3 5dbe
00000030: bd31 123e 5e35 12bd 451f 05bf a235 fcbe
00000040: 3f17 e9be 030c 04bf 06ea 013f b4f3 e73e
00000050: 61cc 2bbe bf7f f6be 374d 17be b70a 2f3f
00000060: b89b 013f ba3d 26bf 665c 2dbf 8d20 003f
00000070: fa25 40be dc7c 103e 43e3 2d3f 903d 1d3e
00000080: 4cf6 01bf 0149 123f 60e4 0cbf a6f6 db3e
00000090: 42a0 863e 1ff8 083f 31e3 f43e ff7c 70bc
000000a0: f04a 8a3d 9961 fc3e a4c7 753e 1aa2 bcbe
000000b0: 9946 fd3d 720c 81be 018a 1b3f 6897 083f
000000c0: fb0d 7d3e 4c2e 2abf 5ec0 05bf c732 313f
000000d0: db91 043f 5da6 0dbf 93eb bcbe 0aaf 4d3e
000000e0: d80e 0b3f 93bf 2a3f 1327 9dbe 8631 d4be
000000f0: 4a7f 893e aed7 0c39 e624 0ebf d54c 253e
00000100: c61a c73e cf66 16bf 94b9 21bf 912c dfbe
00000110: 648b f5bd b83e a23e 3678 103f f52a 8dbd
00000120: d390 7c3d 715b 943e 9d85 91be 43b2 8abe
00000130: bf62 ed3e 0eb6 0b3f 2f0b ad3c 015a e2be
00000140: 7adb eabe e423 313e 732a aa3e dd8b b3bc
00000150: 3717 d03e f1fe 053f d9a6 1fbf 323c 14bf
00000160: 8c94 c33d 80c8 973e 8db8 00bf f030 0abf
00000170: 6ddd 1d3f 2b66 bf3e 40a0 c3be d43d 20bf
00000180: 70c7 16bd 9775 0c3f 1c1f 5fbe 4715 01bd
00000190: 234c 8d3e f4f5 ef3e db11 873e c927 2b3e
000001a0: e29c 283e cde5 293f 76ee 673e ca63 223f
000001b0: 8341 17bf 3300 16be 1409 e73b d82f 413f
000001c0: 745c e73e bcdf 8b3e 95df 41be b2d8 2abf
000001d0: 8a2f d8be b9dd 2bbf 4cd7 2cbf 9560 393e
000001e0: 9b3a dcbe e342 c7be fb2d b53e 07bc 34be
000001f0: 608e 2abf 5bd5 913c 78bb a0be 42fd f8be
00000200: 0d2f 7fbe 676b a13e 3184 3abe 0f33 fdbe
00000210: 17da 9b3c b6d1 dcbe 0b19 47be 07b2 253f
00000220: 557f 163f dbd4 28bd e9d0 cc3e 0564 c2be
00000230: 6b1c f7bb b09c 18bf ca78 2f3f 8c06 173f
00000240: f15f a4bb ef51 eb3d c752 26be a10b 4f3f
00000250: d5be 35bf 902c 04bf aa36 0d3f dfe1 1c3f
00000260: ad4a f93e 276d dc3e f84d 963c eb11 bcbe
00000270: cb94 263f 0f1c 1bbe 07c2 8f3e 535e edbe
00000280: 0af7 e2be 884f 3bbe 81ba 173e bf55 323f
00000290: 32c0 b83e b79d 7a3e 52a2 9a3d 1bc0 91bc
000002a0: 2ff8 d2be a702 46be 7b38 28be c390 0dbf
000002b0: 690c 2dbe 313a 8dbe 9c81 c6be 6165 123f
000002c0: 8db6 b6be 208b 9fbe 5456 18bf a305 6d3d
000002d0: fa00 d33e 50cd b83d b2cb c63e d867 8fbe
000002e0: e13d 093d 44ad 053e 3c30 f2bd 738c 0c3f
000002f0: eba3 e3bd 6abe 2bbf 2d79 97be b4af 823e
00000300: 3f96 acbe 7bde 2b3f 1a42 51be d40f 483e
00000310: 48fe a03e 29bf 843f 04d9 18bf 52e8 b8bd
00000320: 50f0 323e c1f1 f33e 3809 283f f445 c63e
00000330: 885f 333f 97f1 f03e c1ab 09bf 6834 203f
00000340: c1c6 eabe d652 58be 4db8 f53e 1b5a d0be
00000350: a507 933e d122 343f 1926 54be cd4f 00bf
00000360: 2f29 ddbe d9ad 2dbd 03ed 3abf 8dd7 bebe
00000370: fe58 a3be 5888 1ebf 4f9a 0cbf 58d8 8c3e
00000380: 6b1f 693e 60fb e1be 638f 8cbe 251b 3a3e
00000390: 0070 1dbd 4bf9 d0be 6fe4 a93e 9a80 543e
000003a0: e07f e7be 97e3 03be 0c7a b23e 567c 893e
000003b0: 5ef9 d5be 0fc6 a23b f798 29bf 519a 323f
000003c0: cf86 10bf 8f39 263f 787f 2c3f fe22 32be
000003d0: 5f8d ee3e 6c57 e0be 175e cc3e cfcd 87bd
000003e0: 7f79 6d3e e652 b13b af17 09bf ee00 9ebe
000003f0: 93cc aabe a189 9fbe d0c4 4cbe 14fb 953e

decoders.1.decoder_net.0.bias f4 [512]
-0.116863586 0.24795726 -0.10322936 0.46746457 0.55788434 -0.7167775 -0.15920624 -0.41374114
0.42455193 -0.01733874 0.26565507 0.49269214 0.29664233 0.1796181 -0.60540485 0.58591354
0.3303854 0.47110862 0.35288018 -0.31427804 0.16400866 0.5785014 0.31639478 0.23590152
0.40067708 -0.19708283 0.06510441 -0.6288818 -0.09636413 0.6423571 -0.3506869 -0.22563581
0.1697344 0.3772091 0.572968 -0.22648787 0.3740254 0.39486197 0.4349644 -0.5415914
0.27836528 -0.6964956 0.6928519 0.2208688 0.56592435 -0.4613417 -0.38714752 0.3367315
-0.32622117 -0.1702412 -0.5749994 -0.21257171 0.014296705 0.58050036 -0.5585167 -0.19218479
0.10711341 0.38282058 -0.4910463 -0.3989123 0.57511765 0.44106987 -0.14234497 -0.15032713
-0.07343242 0.11299617 0.095996425 -0.36965865 0.122518495 0.1870304 -0.38735247 -0.1593314
0.5041978 -0.28003213 -0.36237022 -0.3883691 -0.47430602 -0.1292845 0.30065766 -0.20078874
0.64380044 0.2221232 0.31074566 0.48635992 -0.36867458 -0.5243448 0.30241686 0.40601486
0.23195352 -0.56451535 -0.755613 -0.5896257 -0.130366 0.5923596 0.11503801 0.63146174
0.6710003 0.2329575 0.014545078 -0.29305914 -0.3219639 -0.6301247 -0.59201753 0.5459419
-0.43031198 -0.11001068 0.16348717 0.4053591 -0.28543282 0.10796067 0.5321514 0.5442908
-0.62349623 -0.42614266 0.33690694 0.5353387 0.2843132 0.28190094 -0.5694419 -0.5320844
0.37241662 -0.24641009 -0.54119205 0.4511206 0.25301597 0.62701124 0.6751163 0.33383477
-0.43734294 0.45995674 0.6356923 0.50060594 0.3004913 0.023494259 0.4492304 -0.59951866
-0.018635945 -0.60532767 0.35657352 -0.19242519 0.1458569 0.63101476 0.12998481 0.51919496
-0.17140792 -0.321877 -0.22750114 -0.34757078 -0.41068488 -0.6062039 -0.010090847 0.24926567
-0.018738737 -0.62144506 0.29160452 0.1932176 -0.7167743 -0.008672184 -0.14527695 0.023409292
0.051358476 -0.42201877 0.06651709 -0.44392988 -0.3257126 -0.57227314 0.21532358 -0.60076267
-0.5014723 0.058922596 0.109621815 -0.3361839 -0.6685497 -0.4896379 -0.02083177 -0.61768055
-0.41230324 0.47240555 0.27613452 0.48662245 -0.5622298 0.5612656 -0.32296002 -0.47362098
0.5985362 0.19960098 -0.38383713 -0.23718183 -0.5000493 0.26938713 -0.11127688 -0.1169207
-0.4528587 -0.14360064 0.038051516 0.683486 0.6342457 -0.32764205 -0.24430269 0.3371387
-0.27317148 0.1924505 0.2803824 0.25185677 0.38154805 -0.4628848 -0.60263246 0.026846904
-0.10161576 0.024995996 0.3713028 -0.03789585 -0.103408456 -0.14721853 0.22524063 -0.13402878
-0.27375478 0.35685733 -0.63952315 -0.42252138 0.119296506 0.2184892 -0.62348276 -0.41229925
0.52200603 -0.2821758 0.014203923 0.50990653 0.23554033 -0.48058185 0.13326713 -0.010552762
-0.6014473 0.4264194 -0.5095054 0.2807803 -0.14075251 -0.08388184 0.13906781 0.53436625
-0.015703212 -0.61857367 0.6009103 0.6100506 0.3443081 0.08555767 -0.040367123 -0.3388541
0.102015555 0.20766062 0.14319961 -0.3344729 -0.6063673 -0.015588707 0.3802149 0.5941779
00000000: 2d56 efbd 82e8 7d3e ea69 d3bd 8457 ef3e
00000010: 82d1 0e3f bb7e 37bf f606 23be e1d5 d3be
00000020: df5e d93e f909 8ebc f103 883e 2542 fc3e
00000030: 81e1 973e cfed 373e d0fb 1abf 6efe 153f
00000040: 4628 a93e 2635 f13e b6ac b43e 0de9 a0be
00000050: e3f1 273e ab18 143f 7ffe a13e 2b90 713e
00000060: 8c25 cd3e 15d0 49be 7655 853d 66fe 20bf
00000070: 8f5a c5bd 8471 243f 3c8d b3be 130d 67be
00000080: dbce 2d3e 8d21 c13e 08ae 123f 70ec 67be
00000090: 4280 bf3e 592b ca3e a7b3 de3e bca5 0abf
000000a0: e585 8e3e 894d 32bf be5e 313f 6e2b 623e
000000b0: 6be0 103f fb34 ecbe 3338 c6be 1268 ac3e
000000c0: 7606 a7be b653 2ebe 2933 13bf 66ac 59be
000000d0: ba3c 6a3c ac9b 143f f3fa 0ebf 17cc 44be
000000e0: 475e db3d 0f01 c43e 6c6a fbbe 3c3e ccbe
000000f0: e93a 133f e9d3 e13e e1c2 11be 5bef 19be
00000100: bd63 96bd 896a e73d c699 c43d e643 bdbe
00000110: faea fa3d e684 3f3e 1053 c6be c527 23be
00000120: 1b13 013f 5f60 8fbe 9788 b9be 51d8 c6be
00000130: 3dd8 f2be 2863 04be cdef 993e 909b 4dbe
00000140: 1bd0 243f 4474 633e 0e1a 9f3e 2b04 f93e
00000150: eac2 bcbe 763b 06bf 62d6 9a3e 2ee1 cf3e
00000160: 3985 6d3e 1484 10bf db6f 41bf b6f1 16bf
00000170: aa7e 05be e1a4 173f 0c99 eb3d 7aa7 213f
00000180: adc6 2b3f 698c 6e3e 7b4e 6e3c d90b 96be
00000190: 74d8 a4be da4f 21bf 768e 17bf d9c2 0b3f
000001a0: da51 dcbe 484d e1bd 2e69 273e 3a8b cf3e
000001b0: 4024 92be 7c1a dd3d 133b 083f a456 0b3f
000001c0: 739d 1fbf 5f2f dabe 117f ac3e f50b 093f
000001d0: 8091 913e 5255 903e f2c6 11bf af36 08bf
000001e0: 64ad be3e ed52 7cbe 908b 0abf 47f9 e63e
000001f0: 4f8b 813e cf83 203f 6cd4 2c3f 64ec aa3e
00000200: 6aeb dfbe 737f eb3e bbbc 223f b627 003f
00000210: ffd9 993e 0877 c03c 8701 e63e 0e7a 19bf
00000220: 69aa 98bc c1f6 1abf ce90 b63e 1c0b 45be
00000230: 835b 153e 2f8a 213f bd1a 053e f6e9 043f
00000240: 8f85 2fbe 10cd a4be 0ff6 68be ccf4 b1be
00000250: 4a45 d2be 2e30 1bbf 1454 25bc 803f 7f3e
00000260: fb81 99bc 0617 1fbf 304d 953e d6da 453e
00000270: 857e 37bf c715 0ebc 7bc3 14be d8c4 bf3c
00000280: 445d 523d d812 d8be 1d3a 883d c74a e3be
00000290: cdc3 a6be 7e80 12bf c97d 5c3e 95cb 19bf
000002a0: 7d60 00bf d258 713d 6781 e03d 4c20 acbe
000002b0: 1326 2bbf d2b1 fabe 63a7 aabc 5020 1ebf
000002c0: 6919 d3be 24df f13e 8161 8d3e 9426 f93e
000002d0: 4bee 0fbf 1aaf 0f3f 045b a5be 737e f2be
000002e0: ab39 193f 3364 4c3e 4d86 c4be cbdf 72be
000002f0: 3b03 00bf 1ced 893e 22e5 e3bd 1f74 efbd
00000300: 18dd e7be 0c0c 13be e8db 1b3d f0f8 2e3f
00000310: ed5d 223f b3c0 a7be 7c2a 7abe 729d ac3e
00000320: 22dd 8bbe be11 453e 488e 8f3e 5ff3 803e
00000330: 445a c33e 3dff ecbe 1f46 1abf 0aee db3c
00000340: ec1b d0bd 67c4 cc3c 671b be3e ae38 1bbd
00000350: d0c7 d3bd 74c0 16be 7ba5 663e d73e 09be
00000360: 9629 8cbe 01b6 b63e cab7 23bf b954 d8be
00000370: ba51 f43d a2bb 5f3e 919c 1fbf e318 d3be
00000380: 30a2 053f 5979 90be 92b7 683c 3c89 023f
00000390: 7c31 713e d30e f6be 2e77 083e 7ee5 2cbc
000003a0: 73f8 19bf a553 da3e f26e 02bf 6fc2 8f3e
000003b0: 6d21 10be 3eca abbd cb67 0e3e 3acc 083f
000003c0: 06a4 80bc d85a 1ebf 42d5 193f 472c 1c3f
000003d0: 2749 b03e dc38 af3d ff57 25bd 497e adbe
000003e0: 88ed d03d fca4 543e eba2 123e 0840 abbe
000003f0: e33a 1bbf c767 7fbc 87ab c23e 0b1c 183f
