Project2/models/model_4_8.pt (torch, 357003 bytes, 94 tensors)

prior.mean f4 [2]
000000 00 00 00 00 00 00 00 00
       0.0 0.0

prior.std f4 [2]
000000 00 00 80 3f 00 00 80 3f
       1.0 1.0

decoders.0.decoder_net.0.weight f4 [512, 2]
000000 af 58 de 3d 1f 23 9f 3e b1 3c ae be 07 69 b5 3d
       0.10856759 0.31081483 -0.3403068 0.08857923
000010 a6 3d 67 be fb 0f b9 be 7f 12 16 bf 19 bb 12 bd
       -0.22582111 -0.36145005 -0.5862197 -0.03582296
000020 b2 42 9d be 46 95 a5 3e f8 8e 70 3e df a1 d0 be
       -0.30714947 0.3234045 0.23492038 -0.40748498
000030 b2 7f f1 3e aa fb d4 3d 92 09 d7 3e e8 89 b7 be
       0.47167736 0.103995636 0.4199949 -0.35847402
000040 26 4b d1 be 4a 0a a0 3e c6 be 4e 3e ca f7 fd 3d
       -0.40877646 0.3125785 0.20189962 0.12400778
000050 44 94 12 be f8 b6 66 3e 97 68 1f bf a4 83 d5 3e
       -0.14314371 0.22530735 -0.62268966 0.41701996
000060 30 95 14 bf dd d8 37 bf 75 74 c7 be 7c 99 a7 3e
       -0.5804014 -0.7181528 -0.38956037 0.32734287
000070 52 f5 ea bd 5b 5e f4 3c 49 97 92 bd 37 f5 4f 3d
       -0.114725724 0.029830148 -0.071577616 0.050770964
000080 fd 13 2b bf 85 7b ec 3e d4 4b 16 3f 97 44 37 bd
       -0.66827375 0.46187988 0.58709455 -0.044743147
000090 5f db 28 3f a3 ea b9 3b 0d 62 a8 3c c7 5a fa be
       0.65959734 0.005673723 0.020554567 -0.48897383
0000a0 7f 3b ed 3d d7 e2 86 be 3e b9 0f 3f 30 e3 18 3f
       0.115836136 -0.2634494 0.5614203 0.5972166
0000b0 e9 8e f4 3e 0e a5 11 3f ab a5 90 be d9 92 36 bf
       0.47765282 0.5689248 -0.28251395 -0.7131782
0000c0 96 47 7c bd b9 5f 27 3f ef 4e db 3e 48 fb b0 3e
       -0.061591707 0.65380436 0.4283366 0.34566712
0000d0 b8 33 e5 be ce f8 0a bf ee dd fe be a7 f0 da 3c
       -0.4476602 -0.54285896 -0.49778694 0.02672608
0000e0 b3 f3 80 bd 55 39 2a 3f 44 8c 12 bf eb 52 3a 3f
       -0.06296482 0.6649373 -0.5724528 0.7278277
0000f0 9d 7e 70 be 92 24 0d 3f a0 eb 88 be a9 49 c3 bd
       -0.23485799 0.55133927 -0.26742268 -0.09535534
000100 17 63 f0 3d 90 c5 d7 3e ee 2a 01 bf fa f7 ed 3e
       0.1173765 0.42142916 -0.5045613 0.46478254
000110 3d 8b 0a 3f 70 91 7d 3e fb 27 3f 3e ef 09 19 bf
       0.5411871 0.24762511 0.18667595 -0.5978078
000120 1d 5d 9c be 41 48 7e 3d bf db 26 3f e2 60 0f bf
       -0.3053979 0.062080625 0.65179056 -0.56007206
000130 c2 6b 1e be 8c 1e 09 bf ac ea 05 bf 7d bb 6d 3c
       -0.15470794 -0.53562236 -0.52311206 0.014510033
000140 ae 0c 12 bf 1f 35 6c be 13 e1 28 3f 8e 79 10 bf
       -0.570506 -0.23067139 0.65968436 -0.5643548
000150 07 36 b4 be 64 ba 60 3e 85 5d d3 be b4 34 5e be
       -0.3519747 0.21946102 -0.41282287 -0.21699792
000160 7d c5 05 be 52 90 b0 be 3c f5 94 3e 91 48 80 3e
       -0.13063617 -0.34485108 0.2909335 0.25055364
000170 b0 04 2a 3f 0a 17 82 bc ae c1 12 bc 70 3d dd bd
       0.664134 -0.015880127 -0.00895731 -0.10802734
000180 a6 46 cc 3e 9b 71 c0 3e d7 20 0e 3f 79 3a 15 bf
       0.3989765 0.37586674 0.5551886 -0.5829235
000190 8d 62 1e bf 94 f1 d4 3e cf e4 1b bf ef f4 f0 be
       -0.61869127 0.4159056 -0.6089601 -0.4706187
0001a0 1e 91 20 3f f0 74 9a 3e e7 6d 0f 3e 19 d6 fa 3e
       0.6272143 0.3016734 0.14006768 0.4899147
0001b0 ef 39 05 bf 56 c7 78 3d 6b 50 27 bf 56 d3 1e bf
       -0.52041525 0.060736977 -0.65357083 -0.62041223
0001c0 54 94 ea 3e 45 03 16 3e 87 51 20 bf 32 d7 11 bf
       0.4581629 0.14649685 -0.626244 -0.56968987
0001d0 41 87 d9 bd 0c 77 4f be 8e c6 b2 be 8b 15 19 3e
       -0.10621501 -0.20260257 -0.3491711 0.14949624
0001e0 01 ad 19 3e 7f 59 a5 bd 29 a6 da 3d 87 9e 3d bf
       0.15007402 -0.08073711 0.10676224 -0.7407002
0001f0 d9 d0 18 bf 4a f8 ee be b2 e8 14 3f 83 6e b4 bd
       -0.59693676 -0.46673805 0.58167565 -0.08810141
000200 df d0 23 bf 0b 45 23 3f 1a 58 e2 be 49 20 a1 be
       -0.63990587 0.63777226 -0.4420784 -0.31469944
000210 07 1c 1c bf 21 9e d8 3d b4 7a 94 be 07 12 13 3f
       -0.60980266 0.10577036 -0.28999865 0.5744938
000220 e4 76 b1 be 89 fc 24 3f 4f 28 08 be b2 ad 64 3d
       -0.3466102 0.6444784 -0.13296627 0.05582971
000230 1f 4a 3a bf e1 9b dd 3e fc e6 df 3e a6 8d f1 bd
       -0.7276935 0.4328299 0.43730915 -0.117945954
000240 46 06 ff be 41 82 8a bd 88 0f e0 be 03 7f 68 bd
       -0.49809474 -0.06763125 -0.4376185 -0.056761753
000250 24 ee 75 3e 8b 61 c0 3e 36 66 25 3f 75 da 19 3e
       0.24016625 0.3757442 0.64609087 0.15024741
000260 69 cf fa be 4e f9 51 bd 82 1f 26 3f e2 be 30 3f
       -0.48986366 -0.051263146 0.6489183 0.69041264
000270 ad 07 29 3e 51 bd 1c 3f ac 6e 17 bf 4d 5a 81 3d
       0.16506834 0.61226374 -0.59153247 0.06316052
000280 c8 c1 ae 3d c6 7c 1e 3e 52 3f 90 3e 0c fb 02 bf
       0.085330546 0.15477285 0.2817331 -0.5116432
000290 6d f9 75 3e 74 bb 9c be 6c 64 2a 3f f8 f9 31 bf
       0.2402093 -0.30611765 0.6655948 -0.6952205
0002a0 c5 d4 e1 3b 19 9a e9 be 30 c5 35 bf 98 72 a3 be
       0.006891819 -0.4562538 -0.7100401 -0.31923366
0002b0 70 54 08 bf dd 33 21 3f 0b ba c6 3e fc 63 17 bf
       -0.5325384 0.6296976 0.38813815 -0.5913694
0002c0 72 fb e6 bc 9b 81 26 bf 5f f4 00 3b 84 c6 78 3e
       -0.02819607 -0.6504151 0.0019676907 0.24294478
0002d0 b5 d3 f8 3e ce 0c 76 be a0 64 5a 3d 97 d9 1a bf
       0.4859902 -0.24028322 0.05331862 -0.60488266
0002e0 a4 32 0b 3f 03 e3 1e 3f 89 47 c3 be 08 84 b8 3e
       0.54374146 0.6206514 -0.38140514 0.36038232
0002f0 f4 3d b9 3e fb 03 f0 be e1 a0 96 3e 47 bb 1d 3e
       0.3618008 -0.46878037 0.29419616 0.15403472
000300 47 95 bb 3e 0e a2 11 3f b8 ef 11 3d a3 a9 33 bf
       0.36637327 0.568879 0.035629004 -0.7018072
000310 e9 0c 2d be 33 aa 12 3f 28 2d 16 bf eb d1 ac be
       -0.16899456 0.57290953 -0.5866265 -0.33753905
000320 94 8c 55 be 94 b3 a2 bd bb 2c 14 3f 49 32 0d 3f
       -0.20854408 -0.07944408 0.57880753 0.55154854
000330 2f e4 b0 3d 2f 22 81 3e 33 48 8a 3e 1a da 09 bf
       0.086372726 0.25221393 0.2700821 -0.5384842
000340 9f b3 9b be eb de cc 3e e2 f1 ec be 7c d0 b6 3e
       -0.30410478 0.40013823 -0.46278292 0.35705936
000350 70 7b 26 3f 36 e4 40 bf ab 13 67 3c 6d 4c c5 be
       0.650321 -0.7534822 0.01410381 -0.3853487
000360 c0 f4 c0 bd e6 15 80 bd 23 16 d1 3e 74 09 58 be
       -0.09421682 -0.06254177 0.408372 -0.21097356
000370 90 51 03 3f dc 8c 8a bd ad 18 03 3f 5a f5 d1 be
       0.5129633 -0.06765148 0.5120953 -0.410075
000380 84 6a 14 3f a3 1e fb bd 19 16 f9 3e 62 a0 ad be
       0.5797503 -0.12261703 0.48649672 -0.33911425
000390 10 59 00 bf 5f 72 90 3e 25 83 ff be 05 73 04 be
       -0.501359 0.28212258 -0.49904743 -0.12934501
0003a0 d6 a4 c5 be b7 a4 0c bf d9 fe 11 3d 43 a2 d0 be
       -0.38602322 -0.54938835 0.035643432 -0.40748796
0003b0 ca a2 b0 3e 86 7d 80 3d 33 e5 d9 be f1 ac 03 be
       0.34499198 0.06273942 -0.42557678 -0.1285894
0003c0 9e 55 be be 97 04 c8 bd 61 a5 8a be a1 9e 80 be
       -0.37174696 -0.097665004 -0.270793 -0.25121024
0003d0 ae c8 5b 3e 25 b1 83 be fe b6 bc be a0 95 14 3a
       0.21463272 -0.25721088 -0.36858362 0.0005668048
0003e0 3b f8 3f 3e 53 26 16 be 2e 00 d8 be f1 05 dd bd
       0.18747036 -0.14663057 -0.42187637 -0.10792149
0003f0 c6 5c ff 3d 20 c9 36 bf 26 61 1f 3d bc 48 5d be
       0.12468867 -0.7140064 0.038911007 -0.21609777

decoders.0.decoder_net.0.bias f4 [512]
000000 3b 87 0b bf e6 eb 91 3e 0c 6e fe be 90 76 73 bd
       -0.5450322 0.2850029 -0.49693334 -0.059439242
000010 7a 62 25 bf 41 a6 08 3f 06 a1 e7 3e a4 18 e9 3d
       -0.6460339 0.53378683 0.4524004 0.11381653
000020 9d 8c 05 bf f8 18 ce 3e 2a 14 08 bf dc 25 22 3f
       -0.52167684 0.40253425 -0.5315577 0.6333902
000030 27 9a 17 3f 11 79 07 3f 6e 20 4a be 19 45 39 3e
       0.5921959 0.5291911 -0.19738933 0.18092765
000040 38 c8 fa 3e 40 a4 80 be 0f 09 ff be cc a9 28 bf
       0.4898088 -0.25125313 -0.498116 -0.6588409
000050 fc 4a 23 be 06 19 9a be d2 b6 83 be 0e 1a 5b be
       -0.15946573 -0.30097216 -0.25725418 -0.21396658
000060 60 5c 71 3e 8f 91 1b bf d4 54 1e bf 9d 58 58 3e
       0.23570395 -0.6076898 -0.6184819 0.21127553
000070 fd e7 c0 3d b1 be 1e 3e 9f ce 94 be cf 9d 19 3f
       0.09419248 0.1550243 -0.2906389 0.6000642
000080 21 6d 12 bf df 10 1c bc 7b 21 34 bf fe 80 df bd
       -0.5719777 -0.009525507 -0.7036359 -0.10913275
000090 2e ae e3 3e 09 e8 1e bf ff b6 d2 3e e4 6e 04 3e
       0.44468826 -0.6207281 0.4115524 0.12932926
0000a0 45 3e 1b 3f 90 a7 bb be 95 49 d1 bd c4 6d c4 be
       0.6064189 -0.36651278 -0.10219113 -0.38364995
0000b0 50 96 14 3c 74 56 9c be 43 a2 24 3f b6 a3 23 bf
       0.00906904 -0.30534708 0.6431009 -0.6392168
0000c0 d1 f3 a4 be 44 74 44 3e 8e 3e e7 bd c7 99 00 bf
       -0.32217267 0.19184977 -0.11291228 -0.50234646
0000d0 fb 37 14 3f 48 3f d4 be f2 a3 95 bc d1 f2 33 3f
       0.5789792 -0.4145453 -0.018266652 0.70292383
0000e0 9a db 1a be 81 17 1e 3f 53 06 b2 be 0e 4c 20 3f
       -0.15122834 0.61754614 -0.3477045 0.6261605
0000f0 b8 3d d0 3e 97 2a e5 3e a7 14 97 3c c2 68 e4 be
       0.40672088 0.44759056 0.018442465 -0.44611174
000100 b5 df 6d be b4 1b 59 3e bb 76 c1 3c 23 40 de be
       -0.23229869 0.21201974 0.023616185 -0.43408307
000110 64 15 3b 3f e8 c8 23 3e 16 db c7 bd ac 62 ef 3c
       0.73079515 0.15994608 -0.09758584 0.029221855
000120 ab a5 de 3d 1b 2b ea be b4 97 4c be ed ab ba 3e
       0.108714424 -0.45736012 -0.19979745 0.36459294
000130 80 3b d9 3d e6 77 c4 3d 9e b7 ca 3e 03 fd 33 bf
       0.10607052 0.09593181 0.39593214 -0.7030794
000140 81 5d 95 be d3 9b 1d bf b3 d0 5c be 1f 21 8a 3e
       -0.291729 -0.61565894 -0.21563987 0.26978394
000150 ff 7f dd be a9 7c 24 3e f1 d8 0f 3f f9 20 19 3f
       -0.43261716 0.16063179 0.561904 0.5981594
000160 fd f9 31 bf 68 b5 34 bf 68 e5 d2 3e 39 b0 e0 3e
       -0.69522077 -0.70589304 0.41190648 0.43884447
000170 68 61 f3 be 14 73 d4 be ca 3f 0e bf 53 44 0a 3f
       -0.47535253 -0.41494048 -0.55566084 0.54010504
000180 44 1d 77 3d 01 25 1f be 30 1a 4e bb db f5 f0 3e
       0.060330644 -0.1554146 -0.0031448714 0.47062573
000190 4d 2a b4 3e a1 24 ec 3e 7e e4 61 3f 5b 53 ca 3e
       0.35188523 0.46121696 0.88239276 0.3951672
0001a0 5e 7c 8e be 14 bb d2 bd fa 36 15 bf 22 65 b1 be
       -0.2782926 -0.102895886 -0.5828701 -0.3464747
0001b0 7b c4 33 3e 83 a2 4e 3f 0a 72 27 bf 17 66 6d be
       0.1755542 0.80716723 -0.65408385 -0.23183475
0001c0 9d 94 6c be 15 26 3b 3e 54 d0 cf be 3a 75 25 bc
       -0.23103566 0.18276246 -0.4058863 -0.01009875
0001d0 4c aa ea 3e 3e e3 79 bc c2 5e 93 bc a1 18 d5 3d
       0.4583305 -0.015251933 -0.01798952 0.10405088
0001e0 fb f1 ce bb 84 bd 1b 3f 77 ff bb be fe 37 86 bc
       -0.0063154674 0.6083605 -0.36718342 -0.016384121
0001f0 7d e8 cb be 47 ab 70 be b5 7d 0d bf 49 05 2e bd
       -0.39825812 -0.23502837 -0.5526994 -0.04248551
000200 f2 34 05 3f 60 2f 39 bf 79 ab 33 be 84 09 d6 bd
       0.52033913 -0.72337914 -0.1754588 -0.10451034
000210 f8 46 b9 be 7d 6d a6 3e 46 6d 15 3f 34 27 81 be
       -0.36186957 0.32505408 0.58369863 -0.25225222
000220 58 da 4e 3d 32 79 28 bf d0 80 b4 be d5 aa 1f 3e
       0.050501198 -0.6580993 -0.35254526 0.15592511
000230 24 c8 b3 be 01 c1 26 3f 95 ff 8c bd 57 eb 1b bd
       -0.35113633 0.6513825 -0.06884686 -0.038066234
000240 26 68 15 3e 41 54 d6 3c b0 56 1c be a9 39 08 bf
       0.1459051 0.026163222 -0.15267444 -0.5321298
000250 e4 9f 03 3f fd 83 c1 be 28 c6 f1 3e 2b 92 12 bf
       0.5141585 -0.37796012 0.47221494 -0.57254285
000260 fa a9 0f 3f 46 c2 95 3e c8 06 bd 3d 89 37 6d be
       0.5611874 0.2924978 0.09229809 -0.23165716
000270 39 5c a6 be c3 79 a1 3e 33 fe 4e 3e 58 75 07 bf
       -0.32492235 0.3153821 0.20214157 -0.5291343
000280 5e e5 ca 3e 44 a7 f9 3e a8 76 2b 3e 13 96 b1 be
       0.39628118 0.48760426 0.16744483 -0.3468481
000290 0f 9f 85 3d 4b 4f 1a bf 6b 4e 84 3e 9d d4 36 3e
       0.06524479 -0.6027724 0.25841078 0.17854543
0002a0 e7 85 ec be d0 fd b1 3e d0 77 a3 3e 90 47 f2 be
       -0.4619591 0.34763956 0.31927347 -0.47320223
0002b0 c9 bb 97 be 42 36 01 be e2 ad a7 3e ad 94 0c 3d
       -0.29635456 -0.12618354 0.3274985 0.034321476
0002c0 4b c1 f2 be 83 73 68 be 50 c1 e6 3e 92 de 28 bf
       -0.47413096 -0.22700314 0.4506936 -0.65964615
0002d0 3a fc e0 3d 30 16 d1 3e 9d c7 32 3e cc 02 1d 3e
       0.109856084 0.4083724 0.17458959 0.15333098
0002e0 bb 60 3a bf ad 6f 26 be f0 08 37 3f 65 4b b2 3e
       -0.7280385 -0.16253538 0.7149801 0.34823146
0002f0 99 21 6a 3e 54 5c 07 3e fb e9 1c 3f 1b 72 71 3e
       0.22864379 0.13218814 0.61294526 0.23578684
000300 8c a2 2c 3f 8c ab 08 bf 18 49 dd be 0b 57 8f 3e
       0.67435527 -0.5338676 -0.4321983 0.27996096
000310 12 e6 94 3e 0e d0 c8 3e 7c fc 91 3d b4 9b 09 3f
       0.2908178 0.39221233 0.07128236 0.5375321
000320 92 ca 98 3e ae 2a a7 3e 1d 8d 59 be 02 7c 2e bf
       0.2984205 0.3264975 -0.21245237 -0.6815797
000330 52 20 1a 3f 9b 87 8c be e4 03 89 bc 80 d8 c8 bd
       0.60205567 -0.2744721 -0.016725488 -0.09806919
000340 14 fe 1a 3f 0c 72 17 3f 05 8f 20 bf ba 6a af bc
       0.6054394 0.59158397 -0.6271823 -0.021413196
000350 77 96 d9 be 97 d1 b0 be 90 b6 b7 3e 28 cb 2c 3e
       -0.42497608 -0.34534904 0.35881472 0.16874373
000360 ed d7 ff be 85 96 5f 3e 99 94 37 be a4 36 c3 be
       -0.49969426 0.21834762 -0.1792778 -0.38127625
000370 5d c0 9d bd 71 e7 43 be ad 25 8a 3d 3f 22 b5 3c
       -0.07702706 -0.19131257 0.06745467 0.022111056
000380 f7 20 12 3f 57 25 0a 3f 60 7d f3 be 95 e9 04 bf
       0.5708155 0.53963226 -0.4755659 -0.5191892
000390 91 cd 2f be 7d 0f 92 be 66 43 55 bf 42 35 b6 be
       -0.17168261 -0.28527442 -0.83305967 -0.35587507
0003a0 7a 04 8f 3e 3c 08 3b 3f 9d 00 99 be d6 a0 57 3e
       0.27933103 0.7305944 -0.2988328 0.21057448
0003b0 b9 3c 1a 3f e4 6e 9e 3e 54 a9 4c 3e c6 60 07 bf
       0.60248905 0.30943978 0.19986469 -0.5288204
0003c0 55 6d a9 3e f4 b3 bc bd 6f aa 20 bf 81 40 81 be
       0.33091226 -0.09214011 -0.6276006 -0.25244525
0003d0 f3 d3 cf 3e 6d d8 28 3f 85 ca e7 3e 61 c9 11 bf
       0.40591392 0.6595524 0.45271698 -0.56947905
0003e0 78 b9 4f 3e 47 49 dd bc 4b bc d0 be 7f 1d b9 3e
       0.20285594 -0.02701248 -0.40768656 0.36155316
0003f0 6b 3d 8e be 9a 37 46 3e ea 30 2e 3e 50 bb 2c 3f
       -0.27781233 0.19357148 0.17010847 0.67473316

decoders.0.decoder_net.3.weight f4 [32]
000000 5a 64 7e 3f e0 36 7a 3f 30 61 7e 3f de 23 7c 3f
       0.99371874 0.9773998 0.99367046 0.9849223
000010 d7 b0 7d 3f 4c ea 7d 3f 48 59 81 3f 86 18 85 3f
       0.9909796 0.99185634 1.0105371 1.0398109
000020 cb 11 84 3f 68 fb 81 3f 9a a1 7b 3f b1 bb 7b 3f
       1.031793 1.0154848 0.9829346 0.9833327
000030 bf a7 80 3f fb 82 7a 3f 5e 49 7d 3f 5e d4 82 3f
       1.0051192 0.9785611 0.98940074 1.0221059
000040 f7 8a 7d 3f f7 e9 7a 3f 95 1c 80 3f ee e9 80 3f
       0.9904017 0.9801325 1.0008723 1.007139
000050 70 5d 81 3f 5c 09 7d 3f 88 e9 82 3f 37 9c 82 3f
       1.010664 0.98842406 1.0227518 1.0203923
000060 61 50 81 3f 93 96 7a 3f 27 d7 82 3f 68 aa 81 3f
       1.0102655 0.9788601 1.0221909 1.0130129
000070 d2 6f 80 3f 93 ab 7e 3f ed 26 7c 3f 77 cb 87 3f
       1.0034125 0.9948055 0.98496896 1.0608968

decoders.0.decoder_net.3.bias f4 [32]
000000 ee a1 e7 3a 41 6b 39 3c d6 f8 12 bd 3c 00 6e 3d
       0.001767216 0.011317075 -0.03588184 0.058105692
000010 56 c7 84 3b 42 13 cb bc be ba c3 bc b1 0f 8c 3d
       0.004052083 -0.024789456 -0.023892757 0.068389304
000020 ae 20 af bc 11 fd d8 bc 5a 72 da bb c4 7f c6 bb
       -0.021377888 -0.026487859 -0.006666464 -0.0060577113
000030 e2 83 32 bd fa c4 6e bd 63 bb c5 ba b4 94 51 bc
       -0.043582805 -0.05829332 -0.0015085753 -0.012791801
000040 cd ae 43 bc ec 78 ad 3c b5 26 21 bc 92 ec b2 3a
       -0.011943531 0.021175824 -0.009835889 0.0013650826
000050 e9 13 9b bc 9e 63 2b ba 7b 19 cd 3b 07 60 81 bc
       -0.018930392 -0.00065379764 0.006259141 -0.01579286
000060 00 cb 83 3d 6c 2c ed 3a f9 fa 6b bc cf a8 12 3d
       0.064352036 0.0018094904 -0.014403098 0.03580552
000070 11 8b e9 3c 1c d4 00 bd 9a fb df 3b 61 5e e0 3c
       0.028508695 -0.031452283 0.006835413 0.027388753

decoders.0.decoder_net.3.running_mean f4 [32]
000000 d8 4c 1f 3d 9a 4d 46 3d 6d e3 d4 3c bb ce d0 3c
       0.038891643 0.04841385 0.025987351 0.025489202
000010 45 c8 49 3d 0b d9 b8 3c 64 23 c2 3c 34 84 98 3c
       0.049263258 0.022564432 0.023698516 0.018617727
000020 c9 47 a7 3c 44 18 07 3d 26 2e 29 3d cc 1b cd 3c
       0.020419972 0.032982126 0.041303776 0.025037669
000030 92 78 f9 3c 04 54 8f 3c 14 a6 cc 3c 7e 77 9d 3c
       0.030453 0.017496116 0.024981536 0.019222017
000040 48 50 de 3c 00 a9 2e 3d c2 86 04 3d 0c e4 d1 3c
       0.02713789 0.04264164 0.032355078 0.025621437
000050 e2 64 c8 3c 84 66 05 3d dd 41 14 3d 49 32 1a 3d
       0.024462167 0.03256847 0.036195625 0.037645612
000060 f3 1f ca 3c fb 0b 4b 3d 60 97 d2 3c ca b3 07 3d
       0.024673438 0.049571972 0.025706947 0.033130445
000070 2d 50 e6 3c 0f b7 01 3d 87 6a 70 3d 5f b4 cc 3c
       0.028114403 0.03166872 0.058695342 0.024988351

decoders.0.decoder_net.3.running_var f4 [32]
000000 ac 96 60 3b 32 b8 e8 3b 17 39 97 3a db 7f 55 3a
       0.0034269495 0.007102036 0.00115374 0.0008144357
000010 13 d8 2f 3b 1b eb cd 3a 6b ce 13 3a f1 20 81 39
       0.002683167 0.0015710326 0.00056383637 0.0002462934
000020 c7 ee e4 39 5e fb 35 3b 68 4e a7 3b a3 dd 52 3a
       0.00043665452 0.0027768235 0.0051057823 0.00080438907
000030 73 00 99 3a 42 7a 72 39 c1 ec 99 3a 17 26 e4 39
       0.0011673108 0.00023124463 0.0011743532 0.00043515928
000040 fc 54 6b 3a 8e db f4 3a b4 1a a7 3a d1 23 f7 39
       0.0008977202 0.0018681155 0.0012749047 0.00047138197
000050 75 54 0b 3a 52 de 94 3a 94 e8 30 3b 63 6e a3 3b
       0.0005315014 0.001135776 0.0026994096 0.0049875244
000060 eb 60 2e 3a 35 76 df 3b d1 59 6a 3a 27 e5 9e 3a
       0.0006652015 0.0068195113 0.0008939775 0.0012122736
000070 d1 80 9b 3a 95 8d cc 3a 7f de dd 3b 90 f0 4e 3a
       0.0011863952 0.001560616 0.0067709084 0.0007894123

decoders.0.decoder_net.4.weight f4 [32, 32, 3, 3]
000000 d6 b2 a7 bc 63 ec 80 bd 60 8d 37 bb 4f cc 93 3d
       -0.020471018 -0.06295087 -0.002800785 0.07216703
000010 fb 41 1c 3d 68 ce 8e 3c bb 3d 5c 3b 85 0d 2d bd
       0.03814886 0.017432407 0.003360613 -0.04224922
000020 6f 8a 9d bc e4 8d 85 3d 3a d6 74 3b b3 fa 15 3d
       -0.01923105 0.06521204 0.0037359134 0.03661604
000030 85 80 86 3c 63 1c 90 bd 66 6c f8 3c c7 30 97 bc
       0.016418705 -0.07036664 0.030325126 -0.018455876
000040 05 b9 4a bb 1b fd 4c bd 1c db 23 3d eb 20 5b bc
       -0.0030933034 -0.050046068 0.04000388 -0.0133745475
000050 83 f2 d4 3c aa 72 80 3c 83 20 74 3d 8f 04 04 3d
       0.025994545 0.015679676 0.059601318 0.03223091
000060 7b 36 b4 bc 90 04 34 3d 6f cf 06 3b af 51 f3 bc
       -0.021998635 0.043949664 0.0020570417 -0.029702036
000070 89 d8 19 3d 08 cf 55 3d 2f 3d 27 bd a6 a7 31 3d
       0.03756002 0.052199394 -0.040829834 0.043372773
000080 7f 30 82 3b 29 24 e5 3b 15 b9 4e bb ad 11 7b bd
       0.0039730663 0.006992836 -0.0031543423 -0.061296154
000090 81 9c e9 bc 4f 37 e7 bc b4 11 2d 3c 84 4b 61 bd
       -0.02851701 -0.028224615 0.010563303 -0.055003658
0000a0 36 ee 31 bd fb f6 c0 3b d3 66 b2 bb 04 c6 03 3d
       -0.043440066 0.0058888174 -0.0054443865 0.032171264
0000b0 ba a9 4f 3a 38 49 cd bc 13 7a f4 3c cb c5 4f bc
       0.00079217146 -0.025059327 0.029843366 -0.012681435
0000c0 c0 be 06 bc 73 00 aa bd 50 c2 3e bd 5f 45 e8 3c
       -0.008224189 -0.08300867 -0.04657203 0.028353391
0000d0 c2 0e 9a bc f5 0f 06 bc 55 b9 9c bd 13 7f 34 3d
       -0.018805865 -0.008182515 -0.07652537 0.0440665
0000e0 e8 83 45 3d d7 24 26 bd 19 c7 3f 3d e3 cb 7f 3b
       0.0482215 -0.040562477 0.046820734 0.0039031438
0000f0 03 6d 15 bd b8 42 27 bd 6b f9 1b 3d 34 ca 80 bd
       -0.036480915 -0.040835112 0.03807966 -0.06288567
000100 a6 85 80 3d 6c 8c 26 bd 46 60 36 bd e2 be 05 3d
       0.062754914 -0.04066126 -0.044525407 0.032652743
000110 02 58 7c bd 95 43 4c 3d 9e b8 f4 3c 72 21 38 bd
       -0.06160737 0.04986914 0.029873189 -0.04495377
000120 c0 47 99 bd 4b 97 e3 bc 79 43 78 bb d3 d7 62 3c
       -0.07484388 -0.027782103 -0.0037882014 0.013845402
000130 ec 97 2e 3a e6 3c 4b 3b f4 ab 1b bd 3f ea b2 bc
       0.00066602114 0.003101164 -0.038005784 -0.021840213
000140 f6 64 8c bc 8a cb 25 3d ca 02 8a bc b7 71 f1 3c
       -0.017137986 0.040477313 -0.016847033 0.029473169
000150 46 b8 a3 bc fc 6b c7 bc e5 c5 2d 3c 5c 23 5b bd
       -0.01998533 -0.024343483 0.010606264 -0.05350052
000160 2e 06 60 bc 3e 21 a0 bd 76 fe 2d 3d 80 dc fc bc
       -0.013673348 -0.078188404 0.042479 -0.030866861
000170 b5 0b 32 3b 7d 60 2d bc 7b 24 b6 3c 87 aa de bc
       0.0027167622 -0.010582087 0.022234192 -0.027180923
000180 c4 f9 64 bd 91 b5 5f bd 52 20 67 bd 59 c8 99 3b
       -0.055902258 -0.054616515 -0.056427307 0.0046930728
000190 1b 8e 67 bc 10 36 b8 bd ce 74 b3 3b 8f 25 1c bb
       -0.014133002 -0.089946866 0.0054765707 -0.0023826098
0001a0 12 3e 88 3c c7 c7 b4 3d 6e 43 4a bd ed 52 a5 bc
       0.01663116 0.08827167 -0.049380712 -0.020181144
0001b0 0e 33 1a 3d 46 41 5a bb 10 bc cb bc 76 d5 82 bd
       0.037646346 -0.0033303066 -0.024869949 -0.06388371
0001c0 cb b5 f9 3b fe b2 2b bc 33 2a bb 3b 65 86 e2 bc
       0.0076205484 -0.010479687 0.0057118176 -0.027651975
0001d0 57 33 3e 3b 0f 29 eb bc f4 71 62 3d 9e be 75 3d
       0.00290223 -0.028706102 0.055284455 0.05999624
0001e0 11 64 90 3d cd 51 02 3d e1 98 57 bc 95 66 03 3d
       0.07050336 0.031816293 -0.013159008 0.03208025
0001f0 f6 8a ea bc 57 d4 0b 3b ee 48 0d 3d 33 bb 4e bd
       -0.028630715 0.0021336281 0.03449338 -0.050471496
000200 29 e5 d5 3c 66 2e f5 bc 21 ea ce bc a5 6a 4a bd
       0.026110249 -0.029929351 -0.025258126 -0.04941811
000210 f6 c8 68 3c 29 9f 5d 3d 3b 84 73 bd d7 69 23 3d
       0.014208069 0.054106865 -0.059452277 0.03989586
000220 4a 19 4b 3d 67 0c 5e 3d 5a a3 e8 3c 6c d2 2a 3c
       0.049584664 0.054211047 0.028398205 0.010426145
000230 d8 8b 03 bd 7e 2e bd bc 0e af a7 3c a4 0a 86 3d
       -0.032115787 -0.023093458 0.020469215 0.06544998
000240 70 ee 3a bc dd 23 3e 3d af 99 60 bd a2 a6 c0 3d
       -0.011409387 0.04642092 -0.054834064 0.09406783
000250 8f ae 21 bd 69 53 8d 3d ef a8 34 ba 1e 18 cf 3c
       -0.039473113 0.06900675 -0.0006891628 0.025280055
000260 1e df 86 3b 9a d6 48 3c 93 63 9e bc 43 7d a3 bc
       0.004115953 0.012258196 -0.01933459 -0.01995719
000270 33 06 83 3d 42 8f 74 bc 22 aa 01 bd 0b 19 46 bd
       0.06397667 -0.014926733 -0.031656392 -0.048363727
000280 2b f3 8d bc 83 55 c7 3b 4f c3 cc 3c c2 1a 59 3d
       -0.017327866 0.006083192 0.024995474 0.053004034
000290 92 03 c9 bc c6 7d b9 3c b5 0b 4d 3d 79 a3 86 ba
       -0.024537835 0.022642981 0.050059993 -0.0010272107
0002a0 45 28 21 3c 79 47 85 3d ba 97 1f 3d dd 0e ca bb
       0.009836261 0.06507773 0.038963057 -0.0061663226
0002b0 74 39 00 3d df 89 b8 bb dd 61 6d 3d 19 e2 8c bc
       0.03130479 -0.00563167 0.057954658 -0.017197656
0002c0 a3 cd 87 3b 30 0c cc bc 15 9e 86 3d f4 1e 04 3d
       0.004144387 -0.024908155 0.065731205 0.03225608
0002d0 46 2d 0e 3d 72 3c 40 3d 0f fe 9e 3d 54 bf 75 3b
       0.034711145 0.046932645 0.077633016 0.0037498074
0002e0 a4 17 0d bd 95 58 5d bd 24 68 19 3d 62 f4 91 bc
       -0.034446374 -0.054039557 0.037452832 -0.017816726
0002f0 ee 7d f0 39 7e 9b 1e bd 4d 61 4c 3b 8b 10 c7 bc
       0.00045870192 -0.038722508 0.0031185925 -0.02429988
000300 39 21 02 bd 4e ee a9 bd a1 62 0e bd 99 0b 23 3d
       -0.031769965 -0.08297406 -0.03476203 0.039805982
000310 44 b7 d1 bc 62 d5 7e bd ad a6 26 bd 05 fc a1 bc
       -0.025600083 -0.062215216 -0.0406863 -0.019773493
000320 a0 b8 f4 3c 69 3f 89 3d 41 b2 ce bd c7 99 c0 bb
       0.029873192 0.06701548 -0.10092593 -0.0058777067
000330 4b 55 9d 3c 92 cb 2f 3d 34 c4 57 3d 1b 96 d3 3c
       0.01920571 0.04291875 0.05267735 0.025828412
000340 2d 0d ee bc a6 ff 20 3c 8d 35 51 bd 1c 21 9c bc
       -0.029059017 0.009826576 -0.05107646 -0.019058757
000350 9b 06 19 3d 88 de b1 bc d4 75 4e bd b2 18 00 3d
       0.037359815 -0.021712556 -0.05040534 0.03127355
000360 b2 1f ae 3c ae 87 74 3c 87 b1 bf bb 5c 57 7c bd
       0.021255348 0.014924927 -0.0058500203 -0.06160675
000370 1a bd 4d 3d dd ce 35 3d 92 f9 c2 bd 84 cf ed 3c
       0.05022917 0.044386733 -0.09520258 0.029029615
000380 e6 fe 00 bd fc bc b1 3c 09 b6 05 3d 08 d6 bd bd
       -0.03149309 0.02169656 0.032644305 -0.09269339
000390 62 5f 26 bd 8c d2 ad bc 6e f3 b0 bb c2 ce 98 3d
       -0.040618308 -0.02121856 -0.005400113 0.07461311
0003a0 f8 06 04 bd a3 63 44 3d 59 b3 e3 bc 32 bd e6 3b
       -0.03223321 0.047946583 -0.02779548 0.007041597
0003b0 6f fe 79 3c eb 17 93 3c cd 53 06 3d 23 bb 9d 3d
       0.015258416 0.01795574 0.032794762 0.07701709
0003c0 58 39 43 3d 5d 0f 9a 3d 1b db 76 3d b5 32 b4 3c
       0.04766211 0.075224616 0.06026755 0.021996835
0003d0 28 1b fd 3b 75 e1 07 bd c5 2f 19 bd 4b 7f 3d 3d
       0.0077241845 -0.033173997 -0.037399072 0.046263974
0003e0 12 83 b6 bb f6 1e 22 bd b0 15 d1 3c 5f 40 96 3d
       -0.005569824 -0.039580308 0.025523037 0.073364966
0003f0 81 ea 7c 3d 98 dd d4 bb 62 26 4e bd 88 93 d1 3a
       0.061747078 -0.0064961426 -0.050329573 0.0015989402

decoders.0.decoder_net.4.bias f4 [32]
000000 1c f8 72 ba d0 ff 4f bd 1a f9 c8 3d 32 6a 54 3a
       -0.00092685386 -0.05078107 0.09813137 0.00081029825
000010 b1 d8 ed 3c f5 16 94 bd 8b 84 5c 3d 58 1e a9 3d
       0.02903399 -0.07230941 0.05383734 0.08257741
000020 09 f4 66 3c a6 d8 86 3d dd c0 18 3d 6a 72 7a 3d
       0.014096268 0.06584291 0.037293304 0.06114427
000030 22 1b 79 3d f6 b0 3e bd 5e d0 f5 bb 6c c8 64 3a
       0.06081689 -0.04655548 -0.007501646 0.0008727375
000040 bb 47 62 3d ec da 31 bd dc 16 a6 bc 92 78 2e bd
       0.05524419 -0.04342167 -0.020274572 -0.042595454
000050 a6 8b c2 3b 8c fc d3 3d 61 5f ad bc d7 03 eb bd
       0.0059370575 0.10350904 -0.021163644 -0.11475342
000060 2a 23 2d bd 96 8f 87 3d 1c a0 c1 3b 36 c5 4e bd
       -0.042269863 0.06619184 0.005908979 -0.050481044
000070 84 9e 04 3e bf 12 1e 3d c3 56 38 bd 2d b9 4b bc
       0.12951094 0.038592096 -0.045004617 -0.012434286

decoders.0.decoder_net.6.weight f4 [32]
000000 8f b5 71 3f 39 b5 70 3f f0 18 7f 3f 8a fb 74 3f
       0.9441766 0.94026524 0.99647427 0.9569632
000010 f2 ca 71 3f 74 e6 7a 3f 62 c7 69 3f 21 d3 78 3f
       0.94450295 0.98007894 0.9131986 0.9719716
000020 56 af 7f 3f 84 13 77 3f 82 29 73 3f 30 1e 74 3f
       0.99876916 0.96514153 0.9498521 0.9535856
000030 3d 0e 6d 3f 7b 23 6c 3f ef 9e 74 3f 53 87 79 3f
       0.9259985 0.9224164 0.95555013 0.97472113
000040 45 b6 7a 3f 00 40 6e 3f 27 2b 73 3f 11 67 71 3f
       0.9793437 0.93066406 0.9498772 0.9429789
000050 87 2c 7c 3f ca ec 71 3f 10 6e 6c 3f e6 42 79 3f
       0.98505443 0.94501936 0.9235544 0.97367704
000060 b4 93 69 3f e2 c3 70 3f 51 fb 78 3f 1e e5 75 3f
       0.91241 0.94048893 0.9725848 0.9605273
000070 c4 41 77 3f 97 51 78 3f 3a 12 70 3f 5a 2a 7f 3f
       0.96584725 0.96999496 0.9377781 0.99674

decoders.0.decoder_net.6.bias f4 [32]
000000 c6 68 36 bd 51 1f 0f 3c b9 ce c4 3c df 1b 4f 3c
       -0.044533513 0.008735494 0.024024354 0.012640922
000010 bb 41 65 ba 0a 1c aa bb 24 e4 c7 3c bb 37 48 bd
       -0.00087454513 -0.005191331 0.024400778 -0.048881274
000020 37 89 96 bc f2 66 05 bc 7e 84 62 bd 1c 5c 40 3d
       -0.018375976 -0.00814222 -0.055302136 0.046962842
000030 97 bb 92 3c ca c2 07 3d d4 42 1f 37 1e 30 d4 3c
       0.017911715 0.03314475 9.492698e-06 0.02590185
000040 24 b3 b7 bb 12 8e 4b bc 1c e2 09 bd fc 1e 9c bc
       -0.005606072 -0.012424009 -0.0336629 -0.019057743
000050 43 59 33 3d 4b 93 a3 3c 55 95 79 3c ac c1 8a bc
       0.0437863 0.019967696 0.015233357 -0.016938053
000060 96 d8 4f bc 09 ae 0b 3d d3 a5 81 bd 3e 1b 0c 3c
       -0.012685915 0.03410152 -0.063304566 0.008551417
000070 9e 3c a5 3c ca 77 03 bd b9 00 24 bd fa 47 61 3d
       0.020170506 -0.03209666 -0.04003975 0.055000283

decoders.0.decoder_net.6.running_mean f4 [32]
000000 60 fc 07 3d 12 a5 de 3c 94 93 0d 3d f2 1a 00 3d
       0.033199668 0.027178321 0.03456457 0.031275697
000010 c2 72 02 3d 02 4e ed 3c cd a2 02 3d be d5 0a 3d
       0.031847723 0.028967861 0.03189354 0.033895247
000020 8d bf 01 3d 8c 29 0a 3d 5b 09 f8 3c 94 fc 0c 3d
       0.031676818 0.03373103 0.030277899 0.034420565
000030 63 fe fe 3c 0a 3e ec 3c 6d cc f2 3c fa 6c f0 3c
       0.03112716 0.028838176 0.029638493 0.02934884
000040 aa 23 09 3d 5f 51 ee 3c b8 23 ec 3c fc ca eb 3c
       0.033481278 0.029091535 0.028825626 0.028783314
000050 50 57 f9 3c b2 9b 0c 3d 52 75 f3 3c 72 f9 e3 3c
       0.030437142 0.03432817 0.029719029 0.027828906
000060 e4 82 ed 3c d4 2f 11 3d c9 6c fc 3c ae 72 f0 3c
       0.028993078 0.035446003 0.030813592 0.029351559
000070 6b 47 23 3d 2c ef 01 3d 77 54 ea 3c fd 8c fc 3c
       0.03986303 0.031722233 0.02860473 0.030828947

decoders.0.decoder_net.6.running_var f4 [32]
000000 a1 9a ad 39 63 5d ce 38 90 c3 82 39 7f cb ad 39
       0.0003311234 9.84024e-05 0.00024941238 0.00033148748
000010 ee 34 4b 39 e5 4f 5f 39 96 d8 3f 39 b1 01 56 39
       0.00019379306 0.000212967 0.00018295864 0.0002040926
000020 5b a4 25 39 bd 3a 4b 39 e5 21 03 39 86 2c d8 39
       0.00015796853 0.0001938147 0.0001250576 0.00041231903
000030 87 fb 33 39 36 11 dd 38 c7 39 83 39 23 1f e6 38
       0.00017164472 0.00010541307 0.00025029315 0.00010973054
000040 42 75 45 39 07 2e 08 39 2d be be 38 fa 34 e6 38
       0.00018831066 0.00012987117 9.095329e-05 0.00010977122
000050 9d bd d6 38 7f 64 7a 39 f6 f0 e1 38 77 e0 67 39
       0.000102396334 0.00023879296 0.000107737185 0.00022113496
000060 f4 6b fb 38 02 0d b3 39 f5 9b 3e 39 27 19 11 39
       0.000119887205 0.00034151232 0.0001817791 0.00013837648
000070 0d 42 24 3a ef 52 10 39 25 8c 15 39 da 04 51 39
       0.0006265946 0.00013763805 0.00014261955 0.000199336

decoders.0.decoder_net.7.weight f4 [32, 16, 3, 3]
000000 ed b7 1b 3b a3 09 b6 bc 81 a4 79 bc 2a 6c a1 3c
       0.0023760751 -0.022221392 -0.015236975 0.019704897
000010 a3 24 26 bb d5 32 86 bd 2b 7e ba 3d 66 0b bd 3d
       -0.0025351427 -0.06552664 0.09106096 0.0923069
000020 8d a1 ff bc 38 61 ab bc f8 af 51 3d 92 7f 69 3d
       -0.031204963 -0.020920381 0.051193208 0.057006426
000030 b6 b6 2b bd e1 76 32 bd 65 52 ab bd 11 9c 26 bd
       -0.041922294 -0.043570403 -0.08365325 -0.04067618
000040 14 ca b2 bc fe 68 91 bc 61 07 25 3d 1e 49 6f 3c
       -0.021824874 -0.01775026 0.04029024 0.014604835
000050 4f 4b e3 3c ef ff 80 bd 68 91 07 bd bd 1a e9 3d
       0.02774587 -0.062988155 -0.033097655 0.11382053
000060 7c 28 ae 3d 9c 64 06 3d c8 b4 82 3d 2c 64 3e 3d
       0.085038155 0.032810792 0.063821375 0.04648225
000070 71 26 53 bd 18 72 75 ba b2 e8 7b 3b e0 00 7f 3c
       -0.051550332 -0.00093630096 0.0038438258 0.015564173
000080 54 d7 e4 bc ad 76 0d 3d 24 86 67 bd db 93 0d 3d
       -0.027934708 0.034537006 -0.05652441 0.034564834
000090 6d 69 00 3a 2e 28 fe 3b 32 5f ba 3b 9f 51 ad bd
       0.0004898522 0.0077562546 0.0056876177 -0.084628336
0000a0 c4 cf 33 bd 86 c5 09 bd d4 6a 9a bb 3b 90 89 bd
       -0.043899313 -0.03363564 -0.004712442 -0.06716963
0000b0 33 ff c9 ba 9b 37 2f 3d 49 04 2b 3c 70 84 d5 37
       -0.0015411138 0.04277764 0.010438033 2.545325e-05
0000c0 67 44 24 3a aa 32 b0 bd 7c a3 00 bd 56 01 1d 3d
       0.0006266296 -0.086034134 -0.03140591 0.038331352
0000d0 54 6c 21 3d 23 e2 b8 bd a4 c8 94 3d 7a 1a 86 bb
       0.03940995 -0.09027507 0.07264832 -0.0040925117
0000e0 31 93 b8 3d cb 9d 0c bd c8 ca c6 bd 4d ee 07 3c
       0.090124495 -0.03433017 -0.09706646 0.008296561
0000f0 0b db 1d 3d 26 54 0b 3c f4 e2 1b bb 41 ba b4 3d
       0.038538974 0.008503949 -0.0023786398 0.088245876
000100 20 29 91 bc 1c 22 c9 3c 9c 87 3b 3d 20 c5 ee 3c
       -0.017719805 0.024552397 0.045783624 0.02914673
000110 13 54 5f 3d d1 78 83 3d b1 18 45 3d 9f 46 2c 3d
       0.05452354 0.06419528 0.04811925 0.042059537
000120 b8 2e c8 3d 8b dc 37 3d 86 cb 02 3d 23 e7 29 bd
       0.09774536 0.04488806 0.031932376 -0.041480195
000130 d7 af 86 3b 90 cc 21 bd 40 8b b9 38 1d 49 67 bd
       0.004110317 -0.039501727 8.847425e-05 -0.05646621
000140 a1 9a fe bb c7 c5 6e 3d 54 6c 49 3d b9 00 78 bd
       -0.007769898 0.058294084 0.049175575 -0.060547564
000150 0b 73 b6 3c 55 04 f2 3c 5e a7 5f bc 27 1a de 3c
       0.022271654 0.029543081 -0.013650743 0.02711208
000160 0f 40 8a bc 89 b6 86 bc fe db ae 3c bd 3a c9 bd
       -0.016876249 -0.016444461 0.021345135 -0.098256566
000170 f5 e4 8d 3d 1e b9 96 3c 0e 4b b4 3c e3 f8 ae 3c
       0.06928436 0.018398818 0.022008445 0.021358913
000180 7a 76 62 bd 2f 35 8a bd 5a 60 56 3d 7f 47 5c 3c
       -0.05528877 -0.06748425 0.05233798 0.01344478
000190 1f c6 7c bb fb 6c 2d 3d 8e 75 72 bc f1 58 c8 bd
       -0.0038570238 0.04234026 -0.014798535 -0.09782589
0001a0 ea 14 aa bd f7 f6 34 bd f4 79 0d bd 11 e8 af 3c
       -0.0830477 -0.044180837 -0.03454013 0.021472963
0001b0 0d 98 46 bd e3 71 15 3d 29 db 5d bd 79 c7 eb bc
       -0.04848485 0.036485564 -0.054164086 -0.02878164
0001c0 3e c4 ef 3c d9 10 57 bc a3 83 73 3b 5e 38 00 bd
       0.02926838 -0.013126575 0.003715732 -0.031303756
0001d0 0e 9c 78 3d 93 73 9b 3d 05 04 7c 3d 18 60 ed 3c
       0.0606957 0.075904034 0.06152727 0.028976485
0001e0 0e 89 e1 bb 22 65 92 bd ec 2a 61 bc e5 47 59 bd
       -0.0068827933 -0.07148196 -0.0137431435 -0.05304708
0001f0 22 b5 6f 3d 75 51 94 3d ab 1d 3d 3d 84 b0 27 3c
       0.05852235 0.07242099 0.04617087 0.010234956
000200 2c 69 1e 3d 8b a5 66 bc 38 16 05 bd 60 2f a7 bc
       0.03867452 -0.014077554 -0.032491893 -0.020408332
000210 51 0f 8f ba 96 70 0c bd 29 35 06 3d c0 57 2b bd
       -0.0010914599 -0.034287058 0.03276554 -0.04183173
000220 7f dd 96 bc 78 fe d5 3a e7 85 45 3d 2d 54 e4 3b
       -0.018416164 0.0016326448 0.048223402 0.0069680423
000230 e9 b0 1c bc b3 e3 82 bd 68 01 01 bd 32 09 a5 3d
       -0.009563663 -0.063910864 -0.03149548 0.080583945
000240 78 61 e5 3d 27 63 e7 3b 56 be 7d bd a9 f3 40 3d
       0.11200231 0.0070613804 -0.061949097 0.047107372
000250 dc 61 0b 3d fd 8b 28 bd 73 27 63 3d c7 06 f3 bc
       0.034028873 -0.04114913 0.055457544 -0.029666318
000260 19 cd 35 bd ad 4c bf bb c3 25 f9 bc 70 b8 92 bc
       -0.04438505 -0.005837998 -0.030413514 -0.017910212
000270 85 e9 1b bd 2a 37 56 3d d4 85 e5 3b ce c8 18 bc
       -0.0380645 0.052298702 0.007004479 -0.009325219
000280 aa 6d 53 3b 51 9d 47 3d 68 dd 55 3d a7 6d 32 3d
       0.003226141 0.048734013 0.052213103 0.043561604
000290 dd 41 09 bd d7 75 8b bd 0d ed 54 3c 37 57 a8 3c
       -0.033510078 -0.068095855 0.01299597 0.0205494
0002a0 6a 5d 12 bd 54 3e ba bd 14 03 aa bc 5e 9e 18 bd
       -0.035733618 -0.090939194 -0.02075342 -0.037260406
0002b0 b3 8d ec 3c c6 6a b8 3c ff 7d 60 3c 7a 9a d1 bc
       0.028876161 0.022511851 0.013701915 -0.025586355
0002c0 64 bc 6f 3c 1f e3 cd 3c 7e 38 9f 3c 8d 68 11 bc
       0.014632318 0.025132714 0.019436117 -0.0088750245
0002d0 8c 8a cd bd 6f c6 60 bc 85 de 17 bd 0b 18 c5 3d
       -0.10036191 -0.013719185 -0.037077446 0.096237265
0002e0 1d a5 3d bd 8e ac 18 bd 68 6f c8 3c 90 d0 ad bd
       -0.046300042 -0.037273936 0.024467185 -0.08487046
0002f0 cb 55 a7 bd 08 cf 13 3d b8 f9 36 bc 1b dc 49 3d
       -0.081706606 0.036086112 -0.011167936 0.049282175
000300 c5 79 12 bd a0 4d 91 bb e9 ed 00 3d 3c 6b ae 3d
       -0.03576066 -0.0044343024 0.03147689 0.08516547
000310 05 d7 75 bd 63 80 3d 3d ed 03 38 3d 19 23 4a bd
       -0.06001951 0.046265017 0.04492562 -0.049349878
000320 d6 f8 a0 bd e5 7d ab bc 90 32 8e bd b2 72 36 3c
       -0.07859962 -0.020934055 -0.06943238 0.011135744
000330 4d 4c 9b 3c 25 32 e9 bc aa f6 f9 bc 27 de 54 3d
       0.018957281 -0.028466294 -0.030513126 0.051969673
000340 1d d8 6e 3d 23 1f 9b 3c da 55 f8 3c 9d a7 a1 3c
       0.05831157 0.018935746 0.030314375 0.019733245
000350 6c a5 23 bd 76 13 36 bd 12 68 e8 3c c7 ef 8c 3c
       -0.03995268 -0.044452153 0.028369937 0.017204178
000360 2f 46 7f b9 52 ca 71 3b 42 9a 0b be ab 9c a9 3d
       -0.0002434484 0.0036894274 -0.13633063 0.08281835
000370 aa 17 98 3d 8f 4b a0 bd ba 64 da bc 2d 53 24 bd
       0.074263886 -0.07826912 -0.026659358 -0.040118385
000380 bd c9 51 bd 7f 67 7e 3c 0f ec 2c 3d 7f 83 43 bd
       -0.051217783 0.015527605 0.04221731 -0.047732826
000390 fd 38 1f 3d 54 17 8b 3d d1 77 95 bd 1c f2 36 3c
       0.038872708 0.06791559 -0.07298244 0.011166122
0003a0 e2 ce f6 3c 27 df b2 3d bb 1f 8d bb 14 fa 16 3d
       0.030127946 0.08733969 -0.004306761 0.036859587
0003b0 7c 4f 23 bd d9 37 ab bc d2 13 5e bc 08 48 89 3d
       -0.039870724 -0.020900654 -0.01355453 0.06703192
0003c0 4c 80 8f bc 88 44 2f bc 40 2f 2d 3d ea 2b 27 bc
       -0.017517231 -0.0106974915 0.04228139 -0.010203341
0003d0 66 2e 88 bd 0e 67 de 3c e3 43 14 3b b1 55 99 3d
       -0.06649475 0.02714875 0.0022623471 0.074870475
0003e0 9b 09 e8 bc c7 8e 5b bd 21 69 16 3d 72 d6 ae bd
       -0.028324893 -0.05360296 0.036721352 -0.08536996
0003f0 f3 6d d8 bc 68 be 6e 3c af 96 1f 3d d6 63 64 3d
       -0.026419615 0.014571764 0.038962062 0.055759273

decoders.0.decoder_net.7.bias f4 [16]
000000 12 f1 97 3d a6 00 25 3d f2 d5 f0 bd 36 53 99 3c
       0.074190274 0.04028382 -0.11759557 0.018716436
000010 2f 4c a9 bd 49 2f 90 bc 6f 95 54 bd 7b ff d0 bd
       -0.08266484 -0.017600672 -0.051900323 -0.10204979
000020 a0 cf 8a bd 69 9d 83 3c 5c be 1c bc 7b 36 d7 3d
       -0.067778826 0.01606627 -0.00956687 0.10508438
000030 ff b8 29 bd 48 82 7b 3c 38 6b 66 bd c8 84 fb bd
       -0.04143619 0.015350886 -0.056254596 -0.122811854

decoders.0.decoder_net.9.weight f4 [16]
000000 a5 fb 76 3f 3b 26 75 3f c0 4b 73 3f 88 95 77 3f
       0.9647773 0.9576146 0.9503746 0.9671254
000010 0f 38 75 3f 85 bf 76 3f 04 ad 76 3f c0 0e 73 3f
       0.95788664 0.96385986 0.9635775 0.9494438
000020 83 b0 74 3f 1c 78 74 3f 5a a5 77 3f 96 af 75 3f
       0.95581836 0.9549577 0.9673668 0.9597105
000030 56 4b 73 3f 04 34 75 3f a7 a0 76 3f f3 4d 78 3f
       0.9503683 0.95782495 0.96338886 0.9699394

decoders.0.decoder_net.9.bias f4 [16]
000000 b5 8c 31 bd 96 43 12 3d 21 74 3e bd bc ad e7 3c
       -0.04334708 0.035708986 -0.046497468 0.028281085
000010 d6 ed 38 bd c5 ff 15 3d 52 49 35 3c c6 80 55 bc
       -0.045148693 0.036620874 0.011064844 -0.01303119
000020 32 8f 1f 3d 91 44 25 3d ff ff e2 3c 81 af 43 3d
       0.03895492 0.040348593 0.02770996 0.047774795
000030 9c 11 d6 bc 71 88 82 bc e4 e6 5f bd 36 50 e7 bb
       -0.026131444 -0.015934201 -0.054663554 -0.0070591224

decoders.0.decoder_net.9.running_mean f4 [16]
000000 f8 b1 8c 3d d1 f6 89 3d 13 15 6a 3d 51 1d 86 3d
       0.06869882 0.067365296 0.057149004 0.065485604
000010 75 bd 6f 3d 25 a1 7e 3d 3d 6a 78 3d 21 d0 6b 3d
       0.05853029 0.0621654 0.06064819 0.057571534
000020 b4 49 70 3d f1 f9 84 3d 8e ef 83 3d 94 9a 92 3d
       0.05866404 0.06492985 0.06442176 0.0715839
000030 55 ea 79 3d 61 14 83 3d 07 59 76 3d 84 07 6c 3d
       0.061014492 0.06400371 0.060143497 0.057624355

decoders.0.decoder_net.9.running_var f4 [16]
000000 28 b6 68 3a ba 74 55 3a b0 81 19 3a 15 8d 4c 3a
       0.0008877241 0.0008142699 0.0005855812 0.0007803005
000010 88 c6 15 3a be 58 44 3a 70 f7 7e 3a b1 17 25 3a
       0.00057134824 0.000749003 0.0009726202 0.0006297781
000020 1d bc 02 3a 8e ef 51 3a 1f 73 88 3a d1 a1 44 3a
       0.00049871375 0.0008008414 0.0010410285 0.0007500919
000030 85 25 24 3a 04 1c 86 3a f0 76 1d 3a f7 d8 62 3a
       0.00062616944 0.0010231738 0.0006006798 0.0008653546

decoders.0.decoder_net.10.weight f4 [16, 1, 3, 3]
000000 54 64 7d 3d 6a d9 ab bd de b2 73 3e 55 5e 01 bd
       0.06186326 -0.08391078 0.23798701 -0.031584103
000010 44 c6 6e 3e c1 98 a1 3d 9c c3 16 bd 85 c5 83 3e
       0.2331782 0.078904636 -0.03680764 0.25736633
000020 ff d1 36 bc 87 b6 86 3e 9a a3 91 be 5b 44 1f 3d
       -0.011158465 0.26311132 -0.2844513 0.03888355
000030 50 57 75 be 44 12 02 be 65 bc b4 3c 1e 80 e2 bd
       -0.23959088 -0.1270228 0.02206249 -0.11059593
000040 95 2e 90 be 07 80 de 3d 10 c7 10 be 3e 3d f7 bd
       -0.2816054 0.10864263 -0.14138436 -0.12072228
000050 53 0c 09 bd 7d ce 7c bc 38 40 93 bd a3 9e 84 3e
       -0.03345902 -0.01543009 -0.07189983 0.2590228
000060 b4 53 c8 bd 84 fd 4d 3e 2d ee 58 3e cd 7f cd bd
       -0.0978159 0.2011624 0.21184607 -0.10034142
000070 fe f9 0b be d1 89 66 3e 55 51 6a be ca 40 ca bd
       -0.13669583 0.2251351 -0.22882588 -0.09875639
000080 13 4e 14 be 00 44 91 be 11 92 0d 3d 83 4b 6e 3e
       -0.14482908 -0.28372192 0.034563128 0.23270993
000090 20 c6 01 3e 66 99 d8 bd 4a c1 47 bd 6d 6c 47 3e
       0.12673235 -0.105761334 -0.04876832 0.19474955
0000a0 28 b4 77 3e 3a a6 6e 3d a1 c4 e9 bd 30 e3 f6 3c
       0.24189818 0.058263995 -0.11414457 0.030137628
0000b0 10 13 1a bd 01 96 07 be e3 25 40 3e a9 ea 91 be
       -0.037615836 -0.13240816 0.18764453 -0.28499344
0000c0 81 d2 a5 bd fe 55 04 be b5 20 6c be b9 dd 34 be
       -0.08096791 -0.12923428 -0.23059352 -0.17662705
0000d0 f2 2a 0f be f9 54 3e be cc ee 35 3e 7f f1 37 3e
       -0.13981226 -0.18587102 0.17766875 0.17963217
0000e0 08 41 89 3e 3e 4f ee 3d e3 43 30 be 74 09 2e bd
       0.26807427 0.11636208 -0.17213397 -0.042489484
0000f0 d8 d0 97 bd 25 70 48 be 90 2e d9 3d de 2e 40 3e
       -0.07412881 -0.1957403 0.10604584 0.18767878
000100 29 55 76 3e 11 ad cf 3d 8f 64 30 be 16 76 38 3e
       0.24055924 0.10140432 -0.1722586 0.18013796
000110 cc b6 69 be a7 14 e7 3d 78 05 b1 bd 47 54 8e be
       -0.22823638 0.11283236 -0.08643621 -0.27798674
000120 b2 8f 19 3c 4f 6c ae ba 82 df 8c bb 07 e7 4e 3d
       0.009372639 -0.0013307425 -0.004299105 0.050513294
000130 5a 95 32 bd df e6 88 be b3 22 78 3d c6 2f 8b be
       -0.043599464 -0.2673864 0.060579967 -0.27184886
000140 7f 25 60 be 51 d0 74 be ed b9 ec bd f7 35 0b 39
       -0.21889304 -0.23907591 -0.115589 0.00013276176
000150 90 9c a6 bc 98 e0 2e be 74 31 08 3e d6 aa f9 bd
       -0.020338327 -0.17077863 0.13300115 -0.121907875
000160 83 39 41 3e 85 74 92 be 12 37 7a be a1 9f 1d be
       0.18869595 -0.28604522 -0.2443507 -0.15392925
000170 b6 d3 43 bd b3 32 51 be 7c 94 40 3c 98 5d 7d be
       -0.047809325 -0.20429496 0.011754151 -0.24742734
000180 86 d5 71 be 02 d9 94 be 36 c1 e0 3d ec 07 d9 bd
       -0.23616609 -0.29071814 0.10974352 -0.10597214
000190 dd db 0c be 5c a7 87 3e 1c 73 5d be 49 91 85 be
       -0.13755746 0.26494873 -0.21625942 -0.26087406
0001a0 56 fd cb 3d 4f 35 56 be 06 ae 17 3e 6a d9 35 3c
       0.09960429 -0.20918773 0.14812478 0.011099199
0001b0 0a 4d b4 3d e7 55 80 3c 53 d4 8c 3e 31 be 85 3e
       0.088037565 0.015665961 0.2750574 0.26121667
0001c0 57 2e f4 3d ab 89 85 3d dd 59 83 3e 78 68 47 be
       0.11922901 0.06520399 0.25654498 -0.19473445
0001d0 d4 10 89 3e 8e fe fe bd 44 2a 81 be 95 98 8d bd
       0.2677065 -0.12450896 -0.2522756 -0.06913868
0001e0 5c 25 85 be 3a d7 57 3e b3 ed d7 bd 5b 6f 4f 3e
       -0.26005065 0.21078196 -0.105433844 0.20257322
0001f0 29 28 57 3e 0e 48 67 be f8 08 15 be 87 e7 84 3e
       0.21011414 -0.2258608 -0.14554203 0.2595789
000200 4a 62 89 3d 86 a3 6c bd f0 5d 50 3e 68 93 84 be
       0.067082 -0.057773136 0.20348334 -0.25893712
000210 08 d6 37 be 6c e5 89 3d 48 5f 8a 3e 4f 9e f9 bb
       -0.1795274 0.06733212 0.2702582 -0.007617749
000220 4a 8a 05 3e 83 ac 8a 3d 50 8c 41 3e 67 ca 1c 3d
       0.13041034 0.06771185 0.18901181 0.038278963
000230 a1 a3 25 3e f2 d4 16 bd c4 b7 90 3e ec b3 96 be
       0.161757 -0.036824174 0.28265202 -0.29434144

decoders.1.decoder_net.0.weight f4 [512, 2]
000000 c1 60 0c bf ae 07 b1 3e 43 60 ba 3e b7 5b c6 be
       -0.54835135 0.34576172 0.36401567 -0.38741848
000010 7d 23 8e be 60 e8 ca be 15 65 81 be dd 3a f1 3e
       -0.2776145 -0.39630413 -0.25272432 0.47115222
000020 7f 9e 22 be 31 29 27 3f bc 7c 15 bf c2 2a 32 be
       -0.15880774 0.6529723 -0.58393455 -0.17399123
000030 42 b2 f5 3e 0c 11 0f 3c 35 64 a3 be a5 74 6f 3e
       0.47987562 0.008732092 -0.3191239 0.2338434
000040 72 99 29 bf 2c bb 5e bd 3f d6 23 3f fb c0 e5 3e
       -0.66249764 -0.05437772 0.6399879 0.44873795
000050 c2 74 51 3f 0f 04 09 3f aa fd 86 be 92 78 1e 3f
       0.81818783 0.5352182 -0.26365405 0.61902726
000060 2e 8e 11 3f c5 7c 00 be 73 ee 79 be 24 35 aa be
       0.56857574 -0.12547596 -0.24407367 -0.33243668
000070 6e 6a d2 be f9 1b de 3e 72 17 54 3c b1 12 22 bf
       -0.41096824 0.43380716 0.012945043 -0.6330977
000080 9b a2 24 bf d1 6e 13 bf 33 39 79 bd 88 31 d5 bd
       -0.64310616 -0.5759097 -0.060845565 -0.10409838
000090 36 6d 8d be b7 b2 cf be 76 1f 95 be b3 0b 9d be
       -0.27622384 -0.40566036 -0.29125565 -0.30672988
0000a0 51 2a 12 bf f4 09 20 be af 80 cc 3e b6 f8 b0 bd
       -0.5709582 -0.15628797 0.39941928 -0.08641188
0000b0 46 24 23 bf 84 47 cf be 52 9d 9d be 49 c4 6c 3e
       -0.63727224 -0.4048425 -0.30784088 0.23121752
0000c0 db 9a a7 be 95 f2 b5 3e fa 80 0b 3f 9e 3a b9 3e
       -0.32735333 0.35536638 0.5449368 0.36177534
0000d0 1f e0 41 bf 28 33 d3 3e 3b 9a 22 3f 21 1c 0e be
       -0.75732607 0.41249967 0.63516587 -0.13877918
0000e0 80 43 0e bf 0d 35 0d 3f 97 8a e0 bd 51 85 0f be
       -0.55571747 0.55159074 -0.10963934 -0.140157
0000f0 12 92 03 3f 6b 29 95 3e 97 c2 f2 be 86 59 3c be
       0.5139476 0.29133162 -0.47414085 -0.18393525
000100 75 7e ab bc 3e a2 04 3d 05 cb c7 bd 08 1a a4 3d
       -0.020934323 0.03238129 -0.0975552 0.080127776
000110 86 86 9b bd 44 56 26 bf dd 2a d9 be 4a 77 99 3e
       -0.07594018 -0.6497538 -0.42415515 0.29973823
000120 86 25 22 3f 96 8e e8 bd df 31 10 bc ed 4b 80 3e
       0.63338506 -0.11355321 -0.008800953 0.25057927
000130 a1 9d c8 be 0b 04 cc bd 69 03 38 3e f2 c1 31 bf
       -0.3918276 -0.09961709 0.17970051 -0.6943656
000140 75 28 3f be 70 52 21 bf a3 e6 41 be 94 4b 1b 3d
       -0.18667777 -0.63016415 -0.18935637 0.037913874
000150 4e ba f6 be c1 97 f7 be f3 a8 ab be 24 91 42 3e
       -0.48189014 -0.48357967 -0.33527336 0.19000679
000160 a3 7d 01 bf 0d d9 84 3e 44 88 24 be 4e 83 cb 3e
       -0.5058233 0.25946847 -0.16067606 0.39748615
000170 72 71 ea 3e a7 c4 7d 3c 3d c4 2a 3f c4 66 90 bd
       0.45789677 0.01548878 0.66705686 -0.07050851
000180 11 d2 9a 3e 8b 56 91 bc 76 85 f0 be 89 83 a1 be
       0.30238393 -0.017741462 -0.46976823 -0.31545666
000190 6d 57 cd 3e 73 dd e3 3d 34 42 d0 3e 69 11 8a 3e
       0.40105763 0.111262225 0.4067551 0.26966408
0001a0 b7 fd 33 3f 0c 11 0b bf ca 63 06 be ce b6 ce 3e
       0.70309013 -0.54322886 -0.13124004 0.40373844
0001b0 c4 c7 15 3f c4 03 13 bf 74 a4 df be e1 04 e5 3d
       0.58507943 -0.5742762 -0.43680155 0.11182571
0001c0 3b f5 1e 3f 78 10 28 3f 7d be 02 bf 5b 0a 68 3d
       0.6209294 0.6565013 -0.5107191 0.0566505
0001d0 15 09 c2 3e 5f 31 f4 be b8 e1 91 bd fb b0 aa 3e
       0.37897554 -0.47693917 -0.071231306 0.3333815
0001e0 90 85 eb be fa fe 14 be dd 77 7f 3e be f8 a3 be
       -0.46000338 -0.14550391 0.24948068 -0.32025713
0001f0 4f fa dc 3e b6 9f 15 3f 84 68 1a 3f 38 b0 f9 3e
       0.4315972 0.58446825 0.6031573 0.48767257
000200 5a 02 1a be 0c 7d 85 3c 0c 55 22 bf a8 83 6c be
       -0.1503996 0.016294979 -0.6341102 -0.23097098
000210 a1 50 4e be f4 21 23 be d4 ad 77 3e c5 7e fb 3e
       -0.20147945 -0.15930921 0.24187404 0.49120155
000220 88 60 2e 3f ce 7d d1 3d 01 c5 e5 bd 1f de 1d be
       0.68116045 0.102290735 -0.11219216 -0.15416764
000230 b5 a3 23 bf a1 ed 2d bf aa 7e 2b bf b8 72 6c be
       -0.6392167 -0.6794072 -0.6699015 -0.23090637
000240 a8 b8 86 3e db 64 85 3e 22 6f 2d 3f 2b 4d 22 bf
       0.26312757 0.2605351 0.677477 -0.63399
000250 d0 54 09 3e e4 50 15 3c 31 1d 76 be 23 de 5a be
       0.1341126 0.009113524 -0.24034573 -0.21373801
000260 cc 3f b9 3e b5 01 d7 3d 12 46 ff be f7 5b f4 be
       0.36181486 0.104983725 -0.49858147 -0.47726414
000270 42 8e 52 be a9 c9 27 3f 16 83 a0 be 9b e7 21 be
       -0.2056208 0.65542084 -0.3135001 -0.15811007
000280 a1 a1 69 3e cc c3 0d 3e ef f9 13 3e 91 8f d4 be
       0.22815563 0.13844222 0.14450811 -0.41515782
000290 2a 49 f8 3e 0e fb 94 3e d5 0c 18 bf 7b c5 d6 3b
       0.4849332 0.2909779 -0.5939458 0.006554303
0002a0 e6 e8 09 bf 93 4c 06 bf 6a bc 91 3e 35 40 11 3f
       -0.53871 -0.52460593 0.2846406 0.567386
0002b0 6d 1c 86 be 66 98 16 3f 5e f5 76 3e 8d 46 a1 bd
       -0.26193562 0.5882629 0.24117038 -0.078747846
0002c0 2c 4e 2e bf 18 08 d7 3e 4d 88 a0 be 64 05 14 3f
       -0.6808803 0.41998363 -0.3135399 0.57820725
0002d0 a0 11 3d 3f 43 9b 34 bf 6c bd e2 3e 0d 36 1c be
       0.7385502 -0.7054941 0.44285142 -0.15254994
0002e0 d6 4e 86 3c 5c 14 47 be f3 16 24 bf aa 39 0b bf
       0.016395014 -0.1944136 -0.6409752 -0.54384863
0002f0 93 41 56 be 44 bd 1e 3f d6 19 a3 bd 0a 02 f6 3e
       -0.20923452 0.62007546 -0.07963912 0.4804843
000300 23 0e 06 bf e3 73 d2 be 5a cd 2c 3f e6 dc 12 3d
       -0.5236532 -0.4110404 0.6750084 0.035855196
000310 ac da ad 3d 35 96 14 bf 55 f6 c6 3e 4d 67 11 3f
       0.08488974 -0.580417 0.3885981 0.5679825
000320 08 27 0c 3d 86 0a f6 3e 2e 8c c4 3e a3 ed 01 be
       0.03421691 0.48054904 0.383882 -0.12688307
000330 cf 5f d1 be 79 21 e9 be ee 49 05 3f 36 cc 10 bf
       -0.4089341 -0.4553335 0.5206593 -0.565616
000340 84 9a 69 bd ce 97 c6 3d 32 16 12 3f 4f fe e4 3e
       -0.057032123 0.09696923 0.5706512 0.44725272
000350 32 9f 16 3c 03 7a 83 3e 1a 75 52 3e e4 c5 f7 be
       0.009193229 0.25679025 0.20552483 -0.48393166
000360 e5 d1 73 be 7a 20 e4 3d c1 79 15 be 4e 76 63 bf
       -0.23810537 0.11139007 -0.14597227 -0.88852394
000370 4d 51 96 3e 8b 68 fa be 88 48 2c 3f 0c cf 0e 3f
       0.29358903 -0.48907885 0.67298174 0.5578468
000380 aa 3d 51 be f7 3a 8a be 14 82 0d bf bf 6c 36 3f
       -0.20433679 -0.26998112 -0.5527661 0.71259683
000390 92 96 21 bf 87 71 a7 be 6e 00 97 3c da b9 10 bd
       -0.6312038 -0.32703802 0.018432822 -0.03533349
0003a0 aa 79 25 bf 15 f8 e1 3e ad a1 9b 3e 32 a5 0f 3f
       -0.6463877 0.44134584 0.30396786 0.56111443
0003b0 99 9f 79 be ae 12 80 be 49 03 ac 3e 7f 57 c7 3e
       -0.24377288 -0.2501425 0.33596256 0.38933942
0003c0 44 af e8 3e c0 2f 4c 3e f2 cb e5 3d a0 26 37 bf
       0.45446217 0.1994009 0.1122054 -0.7154331
0003d0 05 16 41 3f 47 01 ab be 95 97 bd 3d df cc 3c 3d
       0.75424224 -0.33399412 0.092574276 0.046093818
0003e0 48 15 4c bd 5c 12 e3 be cc f1 ba 3e e5 ce fa be
       -0.049824983 -0.44349945 0.365126 -0.48985973
0003f0 f8 dd cb bd 2b 11 84 be da f2 20 3f 71 ab 81 bc
       -0.099544466 -0.25794348 0.6287056 -0.01582882
