Project2/models/model_4_3.pt (torch, 357003 bytes, 94 tensors)

prior.mean f4 [2]
0.0 0.0
00000000: 0000 0000 0000 0000

prior.std f4 [2]
1.0 1.0
00000000: 0000 803f 0000 803f

decoders.0.decoder_net.0.weight f4 [512, 2]
-0.65944463 0.6406803 -0.28083736 -0.62375146 -0.27892616 0.09465768 -0.44808996 0.08512259
0.1960817 -0.4821743 -0.3708676 -0.60202557 0.4997718 0.37071884 0.0023142113 -0.36884773
0.5871836 -0.57961607 -0.6683679 0.3981432 0.084442705 -0.14815363 -0.6634899 0.33817342
0.52607626 0.3822667 0.5505069 -0.61775523 0.6234484 -0.16562434 0.05096835 -0.23464118
-0.042033423 -0.45676756 -0.17583732 0.11957414 0.5497691 0.3289817 0.20064016 0.3362865
-0.37332585 0.33682844 0.35500783 -0.32519925 0.15683606 -0.47046253 -0.6413369 0.5646508
-0.133083 -0.3434092 0.45980334 0.11885445 0.18273675 -0.29070476 -0.42814115 -0.5247524
-0.14679176 -0.30084336 -0.33095625 -0.0847156 -0.22704665 0.5534593 -0.44874072 0.12212485
0.44239774 0.44881514 -0.27011383 0.6305427 0.2845641 -0.064367525 -0.6523447 -0.19305454
0.19722684 -0.15226986 -0.40287104 -0.14039892 -0.41251227 0.60194075 0.310293 -0.054409984
-0.5728433 0.11315555 0.014202639 0.36503738 -0.618159 -0.23943181 0.17828958 0.45240024
-0.61144555 0.25708145 0.389424 0.613594 -0.329216 -0.3616761 -0.06063514 -0.56722087
-0.51317334 0.023129672 -0.010604583 -0.2577789 -0.25518784 -0.63419276 -0.6009227 -0.025472352
-0.5946182 -0.0640183 -0.78313154 0.3974287 -0.5225638 -0.4919502 -0.47741285 -0.5511315
-0.38250932 0.08723771 0.71431845 -0.511064 0.08671696 0.29941502 -0.5165925 0.66152906
0.3258942 -0.47123948 -0.41024882 -0.116729334 -0.5837999 0.08514825 0.22594157 0.27622294
-0.47115022 0.50356567 0.1770386 0.20223108 -0.649679 0.00637261 0.12408321 0.28233016
0.19963598 0.36262923 -0.5099723 0.34546635 0.108675815 -0.5618401 -0.3473293 0.6752063
0.6669633 -0.14313732 0.44995883 -0.4970481 0.66901875 0.23516576 0.6551694 -0.5574897
0.5009166 -0.31021562 0.46135092 0.36359036 0.53356063 0.26516202 -0.37302846 0.14270264
0.38138554 -0.33127907 -0.2218721 -0.27582365 -0.43538937 0.08908635 0.29558986 0.120940454
0.344578 0.3685764 0.4187188 -0.36153412 0.08061534 0.6621347 0.33600956 0.25078717
-0.0034880731 -0.5870715 0.5348469 -0.04062553 0.26332673 0.6320687 -0.33558023 0.27711877
-0.43564934 0.39403522 -0.027459664 0.39271432 0.47015837 0.04526865 0.027542364 0.28304198
0.58917266 0.11313824 0.16376948 0.091132775 -0.729499 0.56361043 -0.036265858 0.23670465
-0.36399728 -0.02933875 0.07884473 0.21926755 0.18611535 0.21043177 -0.30030113 -0.015957495
0.636095 -0.17216684 -0.093995236 -0.42656538 0.5700999 0.8961565 0.13134779 -0.26112297
0.6547247 -0.3369478 0.27110592 0.83419704 0.5777404 0.18807048 0.3000385 0.10640433
0.49542075 -0.56100965 -0.51951504 -0.4800299 0.49362376 -0.20524906 -0.60221523 0.28158846
-0.36798295 0.3657332 -0.71029013 -0.45637295 0.7306809 0.3423512 0.124911815 0.40294608
0.1941163 0.4316748 0.4801377 -0.14171967 -0.04701145 0.60348624 0.5089658 0.08331588
-0.28623697 -0.48395038 0.5327183 0.31450343 -0.6113907 0.5707908 -0.27926832 0.020951696
00000000: 5dd1 28bf a003 243f eac9 8fbe 2dae 1fbf
00000010: 69cf 8ebe e3db c13d 0c6c e5be c154 ae3d
00000020: a4c9 483e 8ddf f6be 5ce2 bdbe 591e 1abf
00000030: 17e2 ff3e dcce bd3e 06aa 173b 9cd9 bcbe
00000040: aa51 163f b861 14bf 291a 2bbf 6dd9 cb3e
00000050: 4cf0 ac3d 96b5 17be 79da 29bf 1125 ad3e
00000060: efac 063f 76b8 c33e 05ee 0c3f 3525 1ebf
00000070: 509a 1f3f 6d99 29be 30c4 503d c745 70be
00000080: 3d2b 2cbd 70dd e9be b30e 34be 49e3 f43d
00000090: abbd 0c3f 4a70 a83e 9d74 4d3e be2d ac3e
000000a0: 9124 bfbe c774 ac3e 96c3 b53e 8480 a6be
000000b0: a299 203e 77e0 f0be a82e 24bf f48c 103f
000000c0: e946 08be 55d3 afbe 586b eb3e f669 f33d
000000d0: 581f 3b3e 41d7 94be 5135 dbbe 2c56 06bf
000000e0: 9450 16be 2408 9abe 1973 a9be 5f7f adbd
000000f0: eb7e 68be 82af 0d3f 58c1 e5be 981c fa3d
00000100: f581 e23e 19cb e53e 5c4c 8abe 3f6b 213f
00000110: 63b2 913e 1fd3 83bd 1000 27bf 17b0 45be
00000120: d5f5 493e a1ec 1bbe 1d45 cebe bcc4 0fbe
00000130: cf34 d3be ca18 1a3f b9de 9e3e 01dd 5ebd
00000140: dca5 12bf 19be e73d 30b2 683c 2ee6 ba3e
00000150: ab3f 1ebf 9d2d 75be 8b91 363e 01a1 e73e
00000160: b287 1cbf 2ea0 833e 9562 c73e 7f14 1d3f
00000170: 008f a8be 9c2d b9be 8d5c 78bd 6335 11bf
00000180: 545f 03bf 707a bd3c d8be 2dbc 99fb 83be
00000190: fba7 82be 755a 22bf 12d6 19bf 65ab d0bc
000001a0: e638 18bf 071c 83bd 4f7b 48bf c67b cb3e
000001b0: bec6 05bf e6e0 fbbe 756f f4be f416 0dbf
000001c0: 43d8 c3be afa9 b23d 93dd 363f 17d5 02bf
000001d0: a998 b13d ed4c 993e 683f 04bf f859 293f
000001e0: 9bdb a63e 4d46 f1be 220c d2be ca0f efbd
000001f0: e973 15bf 3562 ae3d 3a5d 673e 186d 8d3e
00000200: 9a3a f1be aee9 003f 9b49 353e aa15 4f3e
00000210: 5d51 26bf 54d1 d03b 571f fe3d 948d 903e
00000220: 606d 4c3e 8aaa b93e 8b8d 02bf f7e0 b03e
00000230: 6d91 de3d c1d4 0fbf 25d5 b1be 52da 2c3f
00000240: 1bbe 2a3f 9792 12be 0161 e63e 177d febe
00000250: d044 2b3f 4bcf 703e 2fb9 273f a5b7 0ebf
00000260: 123c 003f 95d4 9ebe 3036 ec3e 8428 ba3e
00000270: 6e97 083f 51c3 873e 96fd bebe a420 123e
00000280: f744 c33e 699d a9be 7132 63be c238 8dbe
00000290: 5beb debe e772 b63d 8e57 973e a1af f73d
000002a0: 876c b03e 0cb6 bc3e 5062 d63e 001b b9be
000002b0: a819 a53d a981 293f 7209 ac3e 2d67 803e
000002c0: 2898 64bb 514a 16bf baeb 083f f566 26bd
000002d0: c3d2 863e 41cf 213f 2cd1 abbe 83e2 8d3e
000002e0: 6e0d dfbe fcbe c93e 17f3 e0bc da11 c93e
000002f0: 99b8 f03e 9f6b 393d 86a0 e13c e1ea 903e
00000300: 05d4 163f 06b5 e73d 30b3 273e d2a3 ba3d
00000310: 72c0 3abf c648 103f 828b 14bd b462 723e
00000320: da5d babe d157 f0bc 5979 a13d ac87 603e
00000330: 0695 3e3e 6d7b 573e 12c1 99be 4bb9 82bc
00000340: 1fd7 223f 814c 30be 9380 c0bd c766 dabe
00000350: 11f2 113f 836a 653f 0980 063e e9b1 85be
00000360: 0a9c 273f 6c84 acbe 65ce 8a3e f08d 553f
00000370: cbe6 133f 8c95 403e a59e 993e 83ea d93d
00000380: caa7 fd3e 549e 0fbf f0fe 04bf 7bc6 f5be
00000390: 41bc fc3e cf2c 52be c72a 1abf 5d2c 903e
000003a0: 4368 bcbe 6241 bb3e 93d5 35bf b7a9 e9be
000003b0: e70d 3b3f a848 af3e c4d1 ff3d f34e ce3e
000003c0: 6cc6 463e 7b04 dd3e 9cd4 f53e f61e 11be
000003d0: 148f 40bd 137e 1a3f 954b 023f 84a1 aa3d
000003e0: a78d 92be 58c8 f7be 3a60 083f 9806 a13e
000003f0: 1a84 1cbf 591f 123f 42fc 8ebe e4a2 ab3c

decoders.0.decoder_net.0.bias f4 [512]
0.08744044 0.64941347 0.33870068 0.37407735 -0.46414804 0.379276 -0.19450365 0.1572705
0.19807324 0.3568917 0.7376777 -0.40227753 -0.32669753 0.41526395 -0.024818318 0.016401276
-0.3117898 0.13331917 -0.5584002 -0.52446073 -0.47572643 0.31006286 0.18337882 -0.4023248
-0.110087365 0.25351152 0.73217946 0.53079987 -0.07028143 0.57923704 -0.14764728 0.011923292
0.0355995 -0.6352978 0.1672664 0.2399767 0.6466029 -0.1129211 0.08754537 0.57897836
-0.54054195 0.3427981 -0.69049877 -0.20195836 0.32838535 -0.37089032 0.23526554 0.4901188
-0.16262276 -0.051715676 0.4712908 0.54040724 -0.46782368 -0.6900989 0.88732535 -0.4833609
-0.36265266 -0.3808686 0.46449834 -0.071274914 -0.4759124 0.35992894 0.14259496 -0.30177453
-0.32402095 -0.34645024 -0.06402921 0.46871048 -0.17507556 0.1671683 -0.79187846 -0.5441729
0.08141252 0.4995691 0.5418397 -0.305437 0.46298632 0.5086097 0.58262295 -0.54660225
-0.07988964 0.49513063 -0.7099742 0.6803676 0.26262608 0.40113056 0.022474742 0.256558
0.5772481 -0.18332754 0.7308918 -0.19503118 -0.09255613 0.07852448 -0.378558 -0.06230456
0.45347717 0.48258027 0.23311439 0.12210283 -0.6385744 -0.19362251 0.46992806 -0.42693555
0.7053357 0.18623333 -0.5592129 0.30733284 0.23386684 -0.33053073 0.53332186 -0.29140314
0.36957052 -0.088770516 -0.44394988 0.06176877 0.6529565 0.070934825 -0.3918427 0.51561713
0.16008966 -0.28295732 -0.3623889 0.44450298 -0.6570171 0.3928117 -0.04530763 -0.251317
-0.10979297 -0.06974092 -0.7078363 -0.5966069 -0.41598475 -0.4882062 0.37014776 -0.72773534
0.2824399 0.5496454 -0.19220847 -0.6253871 -0.33967373 -0.12650676 -0.38271576 -0.5067614
0.47794956 -0.57138425 0.055700626 -0.031673472 0.38740268 -0.30992323 -0.47063756 0.74831945
0.37823498 0.042748608 0.113307625 -0.042529386 -0.054329846 0.03486684 0.0825646 0.6150746
0.34338835 -0.561004 0.27047768 -0.121995196 -0.28787297 0.17548488 -0.10897547 0.13905464
-0.43210596 -0.6573137 -0.052155964 -0.24548487 -0.28802076 -0.12559713 0.56109846 -0.28952932
0.37343523 -0.36460587 -0.32672527 0.12313411 0.34819484 -0.50843054 -0.6708802 0.6670875
0.38805148 0.63825405 -0.13818663 0.50955474 0.06638473 -0.7030288 -0.12088226 0.39449888
-0.5469315 0.5338092 -0.42648 -0.5972372 0.5265084 -0.49784288 0.49474376 0.25020352
-0.67741895 0.5378939 0.57731247 -0.51229066 0.19792423 -0.32017323 0.5639324 -0.22972031
-0.21188429 -0.5340455 0.6224293 0.60823923 -0.5818726 -0.6588035 -0.32640818 0.4077717
0.2934813 -0.5095956 -0.6022587 0.036571078 0.33495796 -0.45247483 -0.45395744 0.20487583
0.31909668 -0.18864289 -0.14802903 -0.42857373 -0.29430735 0.23983867 -0.5751852 0.09077892
-0.36657164 -0.61483985 0.303132 0.115198605 0.0031837407 0.04144474 -0.52694845 0.40668815
-0.6228226 -0.03406342 -0.37012258 -0.12474138 -0.38986257 0.6019036 -0.19073948 0.09015637
-0.13923493 -0.50329405 0.12493296 0.315535 0.24204046 -0.47896692 -0.59773934 0.23519139
00000000: f913 b33d f63f 263f 2d6a ad3e 1187 bf3e
00000010: d0a4 edbe 7730 c23e f72b 47be 850b 213e
00000020: b6d3 4a3e 82ba b63e 72d8 3c3f 52f7 cdbe
00000030: e644 a7be 7a9d d43e c94f cbbc f85b 863c
00000040: eaa2 9fbe d284 083e 51f3 0ebf 0f43 06bf
00000050: 6a92 f3be 8fc0 9e3e a8c7 3b3e 84fd cdbe
00000060: 7c75 e1bd 43cc 813e 1d70 3b3f 80e2 073f
00000070: b6ef 8fbd e148 143f d930 17be e959 433c
00000080: c8d0 113d e0a2 22bf e247 2b3e 74bc 753e
00000090: c587 253f 2d43 e7bd fd4a b33d ed37 143f
000000a0: f560 0abf 3c83 af3e 87c4 30bf 2cce 4ebe
000000b0: 2022 a83e 56e5 bdbe 73e9 703e daf0 fa3e
000000c0: 9586 26be d1d3 53bd 074d f13e 2158 0a3f
000000d0: 9686 efbe 52aa 30bf c127 633f 147b f7be
000000e0: 9cad b9be 3601 c3be bad2 ed3e 95f8 91bd
000000f0: caaa f3be 9b48 b83e 6a04 123e 3182 9abe
00000100: 13e6 a5be ed61 b1be bf21 83bd d2fa ef3e
00000110: 0247 33be 2b2e 2b3e 8cb8 4abf ea4e 0bbf
00000120: 9bbb a63d 85c7 ff3e 02b6 0a3f 3d62 9cbe
00000130: 8b0c ed3e 3f34 023f c726 153f 20ee 0bbf
00000140: 2e9d a3bd c381 fd3e dfc0 35bf 922c 2e3f
00000150: ed76 863e fc60 cd3e f31c b83c 925b 833e
00000160: 88c6 133f 37ba 3bbe ba1b 3b3f 41b6 47be
00000170: 118e bdbd 71d1 a03d 5bd2 c1be 1133 7fbd
00000180: 292e e83e c314 f73e 8ab5 6e3e 0c11 fa3d
00000190: 9d79 23bf fb44 46be 699a f03e 4c97 dabe
000001a0: e190 343f f3b3 3e3e 9428 0fbf bb5a 9d3e
000001b0: ca7a 6f3e 533b a9be c887 083f cb32 95be
000001c0: 5938 bd3e 51cd b5bd 664d e3be 4001 7d3d
000001d0: 2828 273f 4746 913d 9b9f c8be 7cff 033f
000001e0: 8bee 233e c8df 90be 0a8b b9be e595 e33e
000001f0: 4632 28bf 9d1e c93e 7e94 39bd 9fac 80be
00000200: 23db e0bd 54d4 8ebd c234 35bf 3bbb 18bf
00000210: f4fb d4be 2af6 f9be 0284 bd3e dd4c 3abf
00000220: f69b 903e 90b5 0c3f 4cd2 44be 5e19 20bf
00000230: b7e9 adbe fd8a 01be 52f3 c3be 1dbb 01bf
00000240: ceb5 f43e 3d46 12bf 5726 643d 0bbc 01bd
00000250: a559 c63e 42ae 9ebe 68f7 f0be dd91 3f3f
00000260: 04a8 c13e 2a19 2f3d d40d e83d 4b33 2ebd
00000270: f988 5ebd 88d0 0e3d a117 a93d 8775 1d3f
00000280: 99d0 af3e f59d 0fbf 0d7c 8a3e 9ed8 f9bd
00000290: 1664 93be 4fb2 333e 882e dfbd 5764 0e3e
000002a0: fe3c ddbe b645 28bf 7ea1 55bd 6360 7bbe
000002b0: 7577 93be 899c 00be 26a4 0f3f 303d 94be
000002c0: e732 bf3e 9fad babe 8948 a7be bc2d fc3d
000002d0: 9846 b23e 8128 02bf cebe 2bbf 3fc6 2a3f
000002e0: afae c63e 9e64 233f cc80 0dbe 2e72 023f
000002f0: b8f4 873d b2f9 33bf 1e91 f7bd c2fb c93e
00000300: b403 0cbf b8a7 083f 965b dabe 8ae4 18bf
00000310: 41c9 063f 43e5 febe 0e4f fd3e ad1a 803e
00000320: 546b 2dbf 6ab3 093f c0ca 133f 7b25 03bf
00000330: a6ac 4a3e bfed a3be e05d 103f cd3b 6bbe
00000340: 32f8 58be 35b7 08bf 8757 1f3f 91b5 1b3f
00000350: 9af5 14bf 59a7 28bf f91e a7be 74c7 d03e
00000360: 2e43 963e db74 02bf a02d 1abf 8ecb 153d
00000370: 9c7f ab3e c8aa e7be 1c6d e8be f8ca 513e
00000380: a460 a33e 9a2b 41be ec94 17be 046e dbbe
00000390: 74af 96be 4598 753e 563f 13bf 4cea b93d
000003a0: 47af bbbe 2566 1dbf 1e34 9b3e 3fed eb3d
000003b0: 4ea6 503b f6c1 293d 18e6 06bf 6e39 d03e
000003c0: 4d71 1fbf 1686 0bbd b580 bdbe 6978 ffbd
000003d0: 119c c7be 5b16 1a3f 3651 43be e7a3 b83d
000003e0: 9a93 0ebe e1d7 00bf dadc ff3d ce8d a13e
000003f0: 74d9 773e 273b f5be 7205 19bf 03d6 703e

decoders.0.decoder_net.3.weight f4 [32]
0.9630385 0.99578536 0.97827965 0.9920998 1.0139066 1.0309385 0.9731845 1.0095487
0.99987197 1.0027473 1.0220473 0.9886361 1.054359 0.95277643 0.9940334 0.99651104
1.0354372 1.0074942 0.9350342 0.9989165 0.9987832 1.0417771 1.0018141 1.0021424
1.0525773 0.99978656 0.97688144 1.0317875 0.98881644 0.97703874 1.0435691 0.9800049
00000000: b189 763f caeb 7e3f 8970 7a3f 41fa 7d3f
00000010: b1c7 813f cbf5 833f 9f22 793f e438 813f
00000020: 9cf7 7f3f 065a 803f 72d2 823f 4117 7d3f
00000030: 3cf5 863f 28e9 733f f978 7e3f 591b 7f3f
00000040: 3589 843f 92f5 803f 675e 6f3f feb8 7f3f
00000050: 41b0 7f3f f458 853f 723b 803f 3446 803f
00000060: daba 863f 03f2 7f3f e714 7a3f 9d11 843f
00000070: 1323 7d3f 361f 7a3f ac93 853f 9ae1 7a3f

decoders.0.decoder_net.3.bias f4 [32]
0.007827511 -0.0015354453 0.011524761 -0.047221664 0.031697642 0.027210724 0.046101276 -0.034872625
0.030964868 0.013947984 0.021224365 0.0038349552 -0.02761407 -0.04208612 -0.04932284 0.03528284
0.026890717 -0.021764167 0.022290286 0.06958061 -0.022421174 0.04246041 0.029013718 0.008986497
-0.018306693 -0.014605398 0.031969815 0.015357476 -0.024715273 0.027144141 0.0146020185 0.041745625
00000000: f63e 003c ff40 c9ba 5ad2 3c3c 816b 41bd
00000010: 63d5 013d 06e9 de3c b1d4 3c3d 99d6 0ebd
00000020: 09aa fd3c 1686 643c b8de ad3c df53 7b3b
00000030: e736 e2bc 7f62 2cbd bf06 4abd bd84 103d
00000040: ec49 dc3c c44a b2bc 1e9a b63c 4780 8e3d
00000050: 9cac b7bc f8ea 2d3d 2dae ed3c 1a3c 133c
00000060: ebf7 95bc 7b4b 6fbc c8f2 023d ec9d 7b3c
00000070: af77 cabc 645d de3c 4e3d 6f3c 76fd 2a3d

decoders.0.decoder_net.3.running_mean f4 [32]
0.03379894 0.022345793 0.021776816 0.017174486 0.044862323 0.030760633 0.041669928 0.03425678
0.027408412 0.027252521 0.027402641 0.029019082 0.029847106 0.019306453 0.017763328 0.041121725
0.029349923 0.039391246 0.035311837 0.034331832 0.041860886 0.03187891 0.03952048 0.028335446
0.02104607 0.036087938 0.027544785 0.025202183 0.039898623 0.039295495 0.034095205 0.031081913
00000000: c270 0a3d 860e b73c 4b65 b23c 82b1 8c3c
00000010: 8ec1 373d b9fd fb3c 16ae 2a3d d650 0c3d
00000020: 9b87 e03c ae40 df3c 817b e03c 6db9 ed3c
00000030: eb81 f43c 9128 9e3c 6684 913c 416f 283d
00000040: 406f f03c b758 213d 25a3 103d 899f 0c3d
00000050: 5276 2b3d 7693 023d 3ae0 213d bd1f e83c
00000060: cf68 ac3c f2d0 133d 9aa5 e13c cf74 ce3c
00000070: bd6c 233d 50f4 203d 6aa7 0b3d 7f9f fe3c

decoders.0.decoder_net.3.running_var f4 [32]
0.001701847 0.0005223657 0.00045921022 0.0006210918 0.0022314896 0.00060970645 0.0018494218 0.00157933
0.0007623998 0.0007216334 0.0039726645 0.001460391 0.0010553186 0.000481776 0.00037366227 0.002784055
0.0014078827 0.0026021397 0.0026063465 0.0018034 0.0025504488 0.001732922 0.0009642384 0.00068606087
0.0007012352 0.0019678865 0.0006067209 0.001173442 0.0033720841 0.001971764 0.002042281 0.0011887942
00000000: 8210 df3a 5eef 083a 27c2 f039 c4d0 223a
00000010: 2f3e 123b b5d4 1f3a 4c68 f23a 8501 cf3a
00000020: c9db 473a ff2b 3d3a 202d 823b 976a bf3a
00000030: 9e52 8a3a e196 fc39 1ae8 c339 b174 363b
00000040: b488 b83a a988 2a3b 3dcf 2a3b 1060 ec3a
00000050: 6e25 273b 3723 e33a f2c4 7c3a c4d8 333a
00000060: 19d3 373a a8f7 003b 5a0c 1f3a 2ece 993a
00000070: 2ffe 5c3b b638 013b cad7 053b 50d1 9b3a

decoders.0.decoder_net.4.weight f4 [32, 32, 3, 3]
0.012430439 -0.006227202 0.0406908 0.035531435 -0.026384713 -0.0015380942 -0.005959424 -0.01785511
0.014983327 0.03795813 0.028699445 0.023391671 -0.04076326 -0.029335652 0.04267367 0.04723737
-0.00988332 -0.086345196 -0.07003708 -0.0030222132 -0.017447706 -0.02928777 0.00662374 -0.0032424137
-0.01372683 -0.022485089 -0.016078318 -0.034366906 -0.076298855 0.022255009 -0.0054789362 -0.05290233
-0.03269901 -0.018689374 0.0867679 0.02942342 -0.019216597 0.0023008813 -0.07773979 0.015973177
0.038675178 -0.021989416 -0.0039008765 -0.049230836 -0.0494003 -0.042174723 0.024193255 -0.024334108
-0.027259782 0.0068054865 0.020934483 -0.008274375 -0.03004487 0.06492783 -0.034145713 -0.04999165
0.076288134 0.014493735 0.0027709904 -0.012602761 -0.10497176 0.06361253 -0.0024654837 -0.019962622
0.014280103 -0.03126254 -0.013036485 -0.05068269 0.019647336 0.04337717 -0.07116325 8.0237456e-05
0.04427028 0.049396865 -0.03449371 0.0027754726 0.06251128 0.030343978 -0.027383724 0.058269873
-0.0062872777 -0.024619717 0.0077356333 -0.0055105356 0.0049702874 0.0012253375 0.011265001 -0.0028935112
-0.011371975 0.0020656136 0.019738784 -0.0024536203 -0.004828504 -0.0063041896 0.021859545 0.048777167
-0.006321036 0.025325635 -0.02713189 0.047783975 -0.06127709 -0.04622794 0.026322251 -0.045767743
-0.01594857 0.040809564 0.038477715 -0.072528176 0.031802922 0.050784808 -0.009740988 0.0600565
-0.045530453 0.04598579 0.024048138 0.0020930266 -0.011964286 -0.025734544 0.008458042 -0.061226096
0.007016213 -0.0009232485 -0.024009308 0.030920265 0.006249335 0.037207827 0.007252967 -0.0817992
-0.01447871 0.0342969 0.028933141 0.04975001 -0.05570999 0.055575207 -0.002213837 0.03713753
0.022389693 0.007959174 0.017420143 -0.031638872 -0.059889108 0.02154207 -0.037950203 -0.02482153
0.028365979 -0.020212227 -0.026136698 -0.053038996 0.021282626 0.03549219 -0.0819784 -0.044448663
-0.061783943 0.0559093 0.023576427 0.029682834 -0.014457752 0.013441474 0.052892134 -0.027852032
-0.031225896 -0.0046211244 0.034169804 0.062207367 -0.021043876 -0.014730697 0.008624236 0.04144505
-0.005178668 -0.0341462 -0.026625447 0.04457113 0.03508189 -0.029846486 0.03178841 0.015329229
0.06579728 0.014527606 0.0042305966 0.020437118 0.03555938 0.0932766 0.06908668 -0.008054486
0.002037355 0.016998984 -0.011560494 0.00050860416 -0.031838138 -0.044043187 0.0038641796 -0.008785252
0.015955972 -0.009194004 -0.027702726 0.057923365 -0.0007879462 -0.04503555 -0.07998156 0.017563175
0.0093179 -0.010123703 -0.0013252327 -0.058646984 0.045321975 -0.05044317 0.07155677 -0.03307217
-0.00044188384 -0.060012855 0.022007465 -0.05921083 -0.027724184 0.061043862 -0.024436098 -0.0033670128
-0.011617995 0.0067958655 0.018577427 0.011730958 0.011081567 0.001245342 0.03362497 -0.03032629
0.02877345 -0.061178587 -0.046276607 -0.050903685 0.053298943 0.018588908 0.02079565 -0.06808085
-0.0045900247 0.05320194 -0.033867683 0.0362084 -0.014314727 0.015860355 0.011119217 -0.038088605
-0.03658101 -0.04165 -0.040790252 -0.014109599 0.0811713 -0.045615684 -0.009256584 0.027219899
0.015028811 -0.066912845 -0.018272849 -0.022060426 0.043516 -0.010596844 -0.012989895 -0.047998574
00000000: 0aa9 4b3c 8e0d ccbb 65ab 263d 6989 113d
00000010: c124 d8bc e199 c9ba 4647 c3bb e144 92bc
00000020: a17c 753c fc79 1b3d 191b eb3c e49f bf3c
00000030: 60f7 26bd 5251 f0bc 96ca 2e3d f97b 413d
00000040: a6ed 21bc c0d5 b0bd 9a6f 8fbd 5310 46bb
00000050: 7eee 8ebc e8ec efbc f50b d93b ad7e 54bb
00000060: 7fe6 60bc a632 b8bc adb6 83bc 50c4 0cbd
00000070: 9342 9cbd 2350 b63c a688 b3bb 1db0 58bd
00000080: 66ef 05bd 751a 99bc 5eb3 b13d 6209 f13c
00000090: 206c 9dbc 62ca 163b 0a36 9fbd 2eda 823c
000000a0: dd69 1e3d 2623 b4bc d9a5 7fbb 46a6 49bd
000000b0: f857 4abd 67bf 2cbd ef30 c63c 5358 c7bc
000000c0: e84f dfbc 8f00 df3b cb7e ab3c 3f91 07bc
000000d0: a920 f6bc e2f8 843d 60dc 0bbd 0bc4 4cbd
000000e0: f43c 9c3d 2177 6d3c 8199 353b d07b 4ebc
000000f0: 6ffb d6bd 4947 823d f493 21bb a788 a3bc
00000100: 18f7 693c 260d 00bd fb96 55bc a798 4fbd
00000110: 73f3 a03c 42ac 313d 0abe 91bd 2845 a838
00000120: c154 353d 5e54 4a3d 4749 0dbd b4e4 353b
00000130: ea05 803d ef93 f83c d553 e0bc 64ac 6e3d
00000140: 8205 cebb 4aaf c9bc 327b fd3b b991 b4bb
00000150: cbdd a23b 819b a03a d790 383c 10a1 3dbb
00000160: 8551 3abc 3f5f 073b 3bb3 a13c ebcc 20bb
00000170: 6d38 9ebb 6093 cebb ca12 b33c 91ca 473d
00000180: b120 cfbb b577 cf3c b343 debc 21b9 433d
00000190: b0fd 7abd 8259 3dbd c3a1 d73c f576 3bbd
000001a0: 93a6 82bc ee27 273d cf9a 1d3d a789 94bd
000001b0: c843 023d bb03 503d aa98 1fbc cefd 753d
000001c0: 247e 3abd 995b 3c3d 9a00 c53c 292b 093b
000001d0: da05 44bc 40d1 d2bc 9993 0a3c 37c8 7abd
000001e0: 43e8 e53b 2806 72ba 2baf c4bc 7f4c fd3c
000001f0: 39c7 cc3b 3c67 183d 4caa ed3b 5786 a7bd
00000200: 1c38 6dbc e87a 0c3d 3205 ed3c abc6 4b3d
00000210: 2930 64bd d4a2 633d 0616 11bb 861d 183d
00000220: 976a b73c 3267 023c b0b4 8e3c c397 01bd
00000230: 484e 75bd ff78 b03c ac71 1bbd 8556 cbbc
00000240: c55f e83c 1d94 a5bc a11c d6bc 6b3f 59bd
00000250: e758 ae3c 4260 113d 4be4 a7bd cd0f 36bd
00000260: 2911 7dbd 2601 653d 5a23 c13c 6a29 f33c
00000270: 35e0 6cbc a139 5c3c 6ca5 583d f229 e4bc
00000280: 73cd ffbc cd6c 97bb a3f5 0b3d 27cd 7e3d
00000290: 3564 acbc 0559 71bc ab4c 0d3c 49c2 293d
000002a0: d1b1 a9bb e3dc 0bbd 9c1d dabc 3890 363d
000002b0: 07b2 0f3d 9e80 f4bc 9034 023d 7227 7b3c
000002c0: b9c0 863d 3205 6e3c d1a0 8a3b be6b a73c
000002d0: b6a6 113d cd07 bf3d 517d 8d3d f6f6 03bc
000002e0: 2585 053b 7441 8b3c 3a68 3dbc d953 053a
000002f0: b568 02bd a166 34bd 2d3e 7d3b 05f0 0fbc
00000300: 19b6 823c 73a2 16bc d4f0 e2bc 0d41 6d3d
00000310: 2d8e 4eba 3277 38bd 5fcd a3bd a6e0 8f3c
00000320: 1baa 183c e3dd 25bc 6eb3 adba d237 70bd
00000330: 89a3 393d 7f9d 4ebd 5b8c 923d af76 07bd
00000340: a5ac e7b9 0ad0 75bd 0049 b43c 0e87 72bd
00000350: d41d e3bc 2109 7a3d 362e c8bc 1aa9 5cbb
00000360: 6759 3ebc daaf de3b b02f 983c 3433 403c
00000370: 768f 353c be3a a33a 56ba 093d d76e f8bc
00000380: 4cb6 eb3c 6696 7abd 8a8c 3dbd 6280 50bd
00000390: fe4f 5a3d c447 983c a45b aa3c f96d 8bbd
000003a0: eb67 96bb 47ea 593d d7b8 0abd 424f 143d
000003b0: 5188 6abc 93ed 813c 602d 363c cc02 1cbd
000003c0: f8d5 15bd 3199 2abd ae13 27bd f32b 67bc
000003d0: 233d a63d 83d7 3abd eda8 17bc 44fc de3c
000003e0: 673b 763c 9a09 89bd f1b0 95bc 11b8 b4bc
000003f0: d53d 323d 639e 2dbc 92d3 54bc 279a 44bd

decoders.0.decoder_net.4.bias f4 [32]
-0.035634715 0.028544461 -0.06572841 -0.0393901 -0.002512578 -0.097868316 0.047903888 0.045264997
0.04779025 -0.044935234 0.02814966 -0.05100238 0.097307265 -0.020800145 0.0037223955 -0.00801962
0.010838593 0.049037173 0.07086516 -0.021635672 -0.014006251 -0.011632737 0.10290255 0.038225286
-0.016311647 -0.02612912 0.09679667 -0.02073776 -0.08260417 0.010521243 -0.085561685 0.03527845
00000000: b5f5 11bd 13d6 e93c 9e9c 86bd 8357 21bd
00000010: 10aa 24bb 2f6f c8bd de36 443d ca67 393d
00000020: b6bf 433d 020e 38bd 1e9a e63c dfe7 50bd
00000030: 0849 c73d 1165 aabc 6ff3 733b b964 03bc
00000040: 5b94 313c 34db 483d c121 913d 4b3d b1bc
00000050: 797a 65bc 3c97 3ebc 92be d23d 1e92 1c3d
00000060: 01a0 85bc bc0c d6bc 553d c63d 3ce2 a9bc
00000070: 602c a9bd 4b61 2c3c f73a afbd 2380 103d

decoders.0.decoder_net.6.weight f4 [32]
0.9717492 0.917144 0.95255524 0.94785607 0.94031644 0.93706477 0.9867666 0.91491413
0.9119509 0.9248748 0.9935723 0.94037056 0.976645 0.9322393 0.9641832 0.9522517
0.9519932 0.92703414 1.0050739 0.93632865 0.9978913 0.911792 0.9991624 0.9460841
0.9296498 0.9581473 0.96061945 0.9601808 0.98593056 0.95350283 0.99734205 0.9527749
00000000: 8ec4 783f f3c9 6a3f a9da 733f b2a6 723f
00000010: 94b8 703f 7ae3 6f3f bc9c 7c3f d037 6a3f
00000020: 9d75 693f 98c4 6c3f c15a 7e3f 20bc 703f
00000030: 6805 7a3f 3ca7 6e3f b6d4 763f c4c6 733f
00000040: d4b5 733f 1c52 6d3f 43a6 803f 3cb3 6f3f
00000050: ce75 7f3f 336b 693f 1bc9 7f3f 9132 723f
00000060: 87fd 6d3f 2449 753f 28eb 753f 69ce 753f
00000070: f265 7c3f c318 743f cf51 7f3f 0ee9 733f

decoders.0.decoder_net.6.bias f4 [32]
0.049284775 0.046233524 -0.0017433888 -0.0705843 -0.021440364 0.08089859 0.013096525 0.066210106
-0.004667 -0.021640584 0.008214748 0.034223307 0.035938147 0.025617702 -0.06338544 -0.070292294
-0.008778814 -0.0055064405 -0.003857469 -0.034948807 0.00817578 0.01289774 -0.010433034 -0.039832473
0.005203235 -0.021507548 0.066520184 0.02660876 -0.0053808605 0.026934482 0.019745039 0.04572915
00000000: d5de 493d 5d5f 3d3d 6c82 e4ba 808e 90bd
00000010: b4a3 afbc 29ae a53d cf92 563c 2a99 873d
00000020: a2ed 98bb 9847 b1bc 2797 063c bd2d 0c3d
00000030: e133 133d 37dc d13c 3ad0 81bd 68f5 8fbd
00000040: 04d5 0fbc 5f6f b4bb 97cd 7cbb 7b26 0fbd
00000050: b5f3 053c 0b51 533c 51ef 2abc 6027 23bd
00000060: e67f aa3b 9930 b0bc bc3b 883d 9dfa d93c
00000070: ee51 b0bb b4a5 dc3c 59c0 a13c 7d4e 3b3d

decoders.0.decoder_net.6.running_mean f4 [32]
0.02985841 0.033052474 0.029130192 0.02868239 0.03052872 0.02750168 0.03135695 0.035101492
0.03250641 0.02830406 0.03425055 0.030903134 0.035052974 0.030463042 0.029929448 0.030716788
0.03296558 0.033701677 0.03299813 0.031449743 0.029732719 0.028772756 0.032669876 0.031724405
0.028824713 0.030898962 0.036229514 0.031484596 0.027547458 0.031263385 0.028756099 0.03364145
00000000: a099 f43c 0862 073d 71a2 ee3c 55f7 ea3c
00000010: 5e17 fa3c 344b e13c 2570 003d 95c6 0f3d
00000020: 7125 053d ebdd e73c 4e4a 0c3d 9228 fd3c
00000030: b593 0f3d a18d f93c 9a2e f53c c6a1 fb3c
00000040: ea06 073d c50a 0a3d 0c29 073d 72d1 003d
00000050: 0892 f33c d8b4 eb3c d9d0 053d 73f1 013d
00000060: ce21 ec3c d21f fd3c 6665 143d fef5 003d
00000070: 35ab e13c 090e 003d e991 eb3c 9ecb 093d

decoders.0.decoder_net.6.running_var f4 [32]
0.00019296333 0.0003299019 0.00011021806 0.00012392722 0.00026703576 0.000121771016 0.00012109157 0.0002855002
0.0001926423 0.0001412626 0.00037242353 0.00027650004 0.0002787623 0.00022461417 0.00010523759 0.00019106705
0.00017310082 0.00029157192 0.00022367835 0.0001762548 0.00016652701 0.000106844825 0.0001635867 0.0001995281
0.00014769928 0.000316229 0.0004071003 0.00019352151 0.0001254794 0.0001984523 0.00014814365 0.00032096446
00000000: 3356 4a39 aff6 ac39 df24 e738 76f2 0139
00000010: ef00 8c39 515f ff38 8bf2 fd38 30af 9539
00000020: 0600 4a39 e41f 1439 d741 c339 35f7 9039
00000030: d826 9239 6886 6b39 00b3 dc38 2c59 4839
00000040: 6682 3539 1fde 9839 338b 6a39 0ad1 3839
00000050: c19d 2e39 e111 e038 7888 2b39 6b38 5139
00000060: b9df 1a39 8acb a539 1470 d539 09ec 4a39
00000070: 1f93 0339 a217 5039 0257 1b39 1f47 a839

decoders.0.decoder_net.7.weight f4 [32, 16, 3, 3]
0.052511945 0.045699805 0.0561951 -0.045309264 -0.03203651 -0.04054751 -0.03261584 0.014340141
0.052506503 0.016849793 -0.06903291 -0.010125562 -0.05365786 -0.0586406 -0.029796414 -0.073864006
0.10136905 -0.05047534 -0.0035980723 -0.04121275 0.006434311 0.017595323 -0.023298549 -0.06680389
-0.09255976 -0.02593982 0.047434554 -0.04191407 0.033904567 0.022774586 -0.00029428 -0.06250348
0.06385342 0.018157877 -0.03364122 0.03494225 -0.051979654 -0.05308749 0.049939703 -0.050498568
-0.12139854 0.044853512 0.059553344 -0.10393246 -0.026843686 0.018012272 0.0114132445 -0.039425902
0.036407985 0.015946716 0.057448085 0.0046203495 -0.10267683 -0.056395177 -0.027581148 -0.0613411
0.017802473 -0.007293436 -0.050328832 -0.03472414 0.02394352 0.0187156 -0.06392871 -0.04176221
0.10238799 0.01068723 0.10258794 -0.013877347 -0.01611076 -0.015874453 0.03399182 0.0196901
0.06721058 0.07681791 -0.07911907 0.028752217 -0.020641549 -0.054380696 -0.028003473 0.0054136943
0.0052155717 0.0059954664 0.0020690388 -0.017283369 -0.02820328 -0.029858848 0.017083442 0.095147066
-0.09230344 -0.05111808 -0.019931046 0.060703784 -0.05711773 0.054273266 -0.027283676 0.012699121
-0.05740457 0.0077408147 -0.017522933 0.007876337 -0.05001147 0.0020987114 0.04754877 -0.031233424
0.122303985 -0.0020549623 0.06516036 0.01478209 -0.031546336 -0.028714677 0.04209932 0.08107988
0.022852993 -0.023971932 0.04595664 -0.06730623 -0.056600098 -0.11230791 0.024378397 0.056703907
0.025377234 -0.017035859 0.044405907 0.02075344 0.02732378 -0.052676685 0.073472336 -0.07844903
0.0102701085 -0.054953095 -0.05821604 0.076206334 0.052849334 0.09265599 0.049980637 -0.07020263
0.056981098 -0.05273505 -0.020711366 0.08967202 0.13412432 0.0030844153 -0.040788405 0.010573065
-0.0357178 -0.06648885 -0.0068084253 0.06474691 -0.027369566 -0.062172264 0.04874643 -0.02147372
-0.049572375 0.06832629 0.013087322 0.04808144 -0.008073088 0.008035403 0.029777372 0.054115552
-0.0852296 -0.05141042 0.06967262 0.0700976 0.043853812 -0.026603814 -0.00076568575 -0.07178432
-0.009004532 0.0882607 0.048997805 0.06967285 -0.10276318 0.020881116 -0.047621224 0.084390506
-0.027617162 -0.044080667 0.027316947 0.022989638 -0.045749344 -0.07616188 -0.023807956 0.037880484
-0.023044856 -0.008407818 -0.07768217 0.059831526 -0.10196938 -0.045022305 -0.034269612 -0.020420857
-0.07729558 0.09388135 -0.052087825 -0.03810797 0.066487506 -0.014219797 0.005349462 0.08245233
-0.027801987 0.08275638 -0.07106192 -0.060546357 -0.015162195 0.007127127 0.03895364 0.00056096516
-0.028590454 -0.07047402 0.022608615 -0.11899626 0.01121546 -0.014442041 0.07442532 -0.03531692
-0.07695241 0.09766945 0.03633357 -0.04581858 -0.01716077 0.013487206 0.07122006 -0.050910816
0.0028943499 -0.012470899 0.015450851 -0.06343048 0.04200674 -0.046385236 -0.031504046 -0.08279066
0.040029198 -0.057763256 -0.081341885 -0.032274954 -0.005192296 0.0034760085 -0.10669898 0.10818341
0.037817795 -0.11778988 0.080927245 -0.049306232 -0.07802318 0.08312401 -0.038753193 0.0017962342
0.046464507 -0.07598404 -0.0037234246 0.040977605 -0.06081217 0.069543414 0.07114193 0.034354996
00000000: c416 573d b82f 3b3d d52c 663d 3596 39bd
00000010: b738 03bd 2515 26bd 3098 05bd e9f2 6a3c
00000020: 0f11 573d 9408 8a3c 2061 8dbd afe5 25bc
00000030: 58c8 5bbd 2031 70bd 9c17 f4bc 0346 97bd
00000040: 949a cf3d 3bbf 4ebd a3cd 6bbb b3ce 28bd
00000050: ead6 d23b 1124 903c 99dc bebc 7ad0 88bd
00000060: f98f bdbd bf7f d4bc bc4a 423d 16ae 2bbd
00000070: 84df 0a3d c591 ba3c 9849 9ab9 d301 80bd
00000080: 95c5 823d d4bf 943c 60cb 09bd 9b1f 0f3d
00000090: 9ee8 54bd 4572 59bd 938d 4c3d 96d7 4ebd
000000a0: cc9f f8bd 51b8 373d 35ee 733d 8bda d4bd
000000b0: 4ae7 dbbc 798e 933c 9efe 3a3c 0e7d 21bd
000000c0: 8a20 153d b0a2 823c af4e 6b3d 4d66 973b
000000d0: 3b48 d2bd a1fe 66bd dcf1 e1bc ce40 7bbd
000000e0: 7ed6 913c c7fd eebb 9b25 4ebd e63a 0ebd
000000f0: 3325 c43c 7551 993c 0eed 82bd da0e 2bbd
00000100: cbb0 d13d 7e19 2f3c a019 d23d d05d 63bc
00000110: b6fa 83bc 240b 82bc 023b 0b3d 224d a13c
00000120: b3a5 893d b552 9d3d 2e09 a2bd c589 eb3c
00000130: 7718 a9bc 4bbe 5ebd 8a67 e5bc 5c65 b13b
00000140: 63e7 aa3b 9e75 c43b b698 073b da95 8dbc
00000150: 910a e7bc 8b9a f4bc 93f2 8b3c 77dc c23d
00000160: 9609 bdbd 3161 51bd 6f46 a3bc 88a4 783d
00000170: 48f4 69bd a54d 5e3d 0482 dfbc f90f 503c
00000180: 0e21 6bbd a9a6 fd3b 418c 8fbc c00b 013c
00000190: d4d8 4cbd 898a 093b 80c2 423d 3ddd ffbc
000001a0: 837a fa3d 8cac 06bb cb72 853d 9430 723c
000001b0: bb36 01bd 0b3b ebbc 5670 2c3d 350d a63d
000001c0: 3336 bb3c c960 c4bc 083d 3c3d d9d7 89bd
000001d0: 81d5 67bd b101 e6bd 34b5 c73c 5b42 683d
000001e0: ebe3 cf3c c98e 8bbc f8e2 353d 1e03 aa3c
000001f0: 1fd6 df3c 82c3 57bd aa78 963d e3a9 a0bd
00000200: f543 283c 7f16 61bd f173 6ebd 1112 9c3d
00000210: 8b78 583d 6cc2 bd3d 7fb8 4c3d 65c6 8fbd
00000220: 0365 693d b500 58bd e2aa a9bc f7a5 b73d
00000230: e357 093e e723 4a3b be11 27bd a63a 2d3c
00000240: d44c 12bd 4e2b 88bd 3619 dfbb 079a 843d
00000250: 2436 e0bc 58a8 7ebd 56aa 473d a8e9 afbc
00000260: 670c 4bbd a7ee 8b3d 356c 563c 0bf1 443d
00000270: fc44 04bc eca6 033c adef f33c 45a8 5d3d
00000280: db8c aebd bc93 52bd 85b0 8e3d 558f 8f3d
00000290: 0ea0 333d 3ef0 d9bc 4db8 48ba a803 93bd
000002a0: bf87 13bc 07c2 b43d ecb1 483d a4b0 8e3d
000002b0: 8175 d2bd e00e ab3c 790e 43bd eed4 ac3d
000002c0: 633d e2bc ee8d 34bd cac7 df3c c454 bc3c
000002d0: aa63 3bbd c2fa 9bbd e708 c3bc 9128 1b3d
000002e0: 91c8 bcbc f2c0 09bc d417 9fbd e711 753d
000002f0: 53d5 d0bd 4f69 38bd 4b5e 0cbd a449 a7bc
00000300: 254d 9ebd dd44 c03d 0b5a 55bd 1a17 1cbd
00000310: 9a2a 883d 27fa 68bc 8a4a af3b c4dc a83d
00000320: fec0 e3bc 2d7c a93d e988 91bd 75ff 77bd
00000330: db6a 78bc ad8a e93b da8d 1f3d bc0d 133a
00000340: 8736 eabc af54 90bd b435 b93c 50b4 f3bd
00000350: 0cc1 373c 4f9e 6cbc 4d6c 983d 7aa8 10bd
00000360: 3a99 9dbd ec06 c83d 82d2 143d 43ac 3bbd
00000370: be94 8cbc 71f9 5c3c d3db 913d dc87 50bd
00000380: 22af 3d3b be52 4cbc 9125 7d3c d7e7 81bd
00000390: 420f 2c3d 72fe 3dbd 630a 01bd 268e a9bd
000003a0: a8f5 233d 2a99 6cbd 9396 a6bd be32 04bd
000003b0: 2324 aabb bfcd 633b ff84 dabd 438f dd3d
000003c0: d5e6 1a3d d23b f1bd 2fbd a53d 55f5 49bd
000003d0: 9eca 9fbd ec3c aa3d abbb 1ebd 9e6f eb3a
000003e0: 9151 3e3d 859d 9bbd b304 74bb 22d8 273d
000003f0: 2f16 79bd c76c 8e3d dcb2 913d d3b7 0c3d

decoders.0.decoder_net.7.bias f4 [16]
-0.00069764035 -0.023268303 -0.021008955 -0.09940639 0.00072088506 -0.003297821 0.1427833 -0.10764367
0.08997738 -0.105627574 -0.06523279 0.032302972 -0.13900003 -0.022467358 -0.033611715 -0.016935851
00000000: dae1 36ba 2b9d bebc f91a acbc 9495 cbbd
00000010: c7f9 3c3a 4120 58bb c935 123e 4974 dcbd
00000020: 1046 b83d 4553 d8bd c598 85bd 1f50 043d
00000030: 0656 0ebe 770d b8bc 70ac 09bd 0ebd 8abc

decoders.0.decoder_net.9.weight f4 [16]
0.9501454 0.962786 0.94671094 0.9639354 0.94878805 0.95867133 0.9544324 0.9524265
0.94791055 0.9521835 0.95750415 0.95033395 0.9547722 0.9599783 0.9658335 0.97163326
00000000: bb3c 733f 2579 763f a65b 723f 78c4 763f
00000010: c6e3 723f 7c6b 753f af55 743f 39d2 733f
00000020: 44aa 723f 4cc2 733f fe1e 753f 1649 733f
00000030: f36b 743f 23c1 753f dd40 773f f5bc 783f

decoders.0.decoder_net.9.bias f4 [16]
-0.043876655 -0.021926967 0.024899188 0.008779989 0.03284372 0.05855243 0.010004105 -0.036456358
0.017420923 -0.02802876 -0.0039041424 0.0034968131 -0.01951699 0.06374261 0.05086093 0.03308903
00000000: 02b8 33bd 2fa0 b3bc 62f9 cb3c f1d9 0f3c
00000010: 2387 063d acd4 6f3d 42e8 233c 4353 15bd
00000020: 53b6 8e3c 929c e5bc a4dc 7fbb ca2a 653b
00000030: 18e2 9fbc 7c8b 823d 8d53 503d 5d88 073d

decoders.0.decoder_net.9.running_mean f4 [16]
0.063556194 0.06517081 0.063809015 0.056900054 0.063865654 0.06324064 0.0729437 0.058397315
0.06723804 0.055999666 0.06110421 0.066659175 0.054367214 0.06252029 0.06374728 0.06048051
00000000: c029 823d 4678 853d 4dae 823d 0810 693d
00000010: ffcb 823d 4f84 813d 8263 953d 0632 6f3d
00000020: 19b4 893d e85f 653d 6848 7a3d 9b84 883d
00000030: 28b0 5e3d a30a 803d ef8d 823d 69ba 773d

decoders.0.decoder_net.9.running_var f4 [16]
0.0008117199 0.0017903155 0.0010977885 0.0006300729 0.00072572683 0.00074590166 0.0011103778 0.0007265732
0.0006922075 0.00062309764 0.00095824007 0.0010205471 0.000453258 0.00063100696 0.0011369144 0.00047717988
00000000: 9ac9 543a 05a9 ea3a abe3 8f3a 7a2b 253a
00000010: b43e 3e3a 9d88 433a 198a 913a 8177 3e3a
00000020: 4275 353a 6057 233a 6732 7b3a e1c3 853a
00000030: 42a3 ed39 296a 253a 8404 953a 002e fa39

decoders.0.decoder_net.10.weight f4 [16, 1, 3, 3]
-0.19496341 0.14748758 0.2471107 -0.25233448 -0.21057974 0.089586414 0.27680916 0.18858406
0.111710295 0.15108821 0.15705733 0.22869515 0.09135324 0.1790188 0.23118505 0.22576398
0.026169285 0.0024326467 0.14421913 -0.07551702 0.15582806 0.06599696 -0.078668945 -0.16555046
-0.22373872 0.19321887 -0.10653328 -0.1796374 -0.09651329 0.045503654 -0.14346425 -0.01547709
-0.10769741 -0.1258818 -0.109475605 0.12603903 0.26138216 0.14693528 0.15820588 -0.24157795
0.23060219 -0.057933077 -0.09914479 -0.1827033 -0.09310589 -0.12686484 0.1889129 0.25785038
0.0051327227 -0.017758138 -0.018435514 -0.19949235 0.2678299 -0.26705435 0.037725236 -0.08262734
0.29099426 -0.2852332 -0.07714882 -0.055336755 -0.07735098 -0.25575224 0.14009415 0.2393238
-0.11156924 0.25356933 0.047782917 0.17113629 0.1910481 0.08153753 0.041644342 0.09526928
0.24358733 -0.21285805 0.20930839 -0.19648701 -0.13380513 -0.046575774 0.011443275 -0.18813685
-0.2599884 0.12201865 0.015673462 -0.28041157 0.11744984 -0.08047631 0.10327526 0.15718335
0.24076624 -0.1665481 0.23041332 0.1639234 0.19378999 0.25218356 0.12049909 0.1616691
0.22092399 -0.08915214 -0.16109686 0.072913446 -0.17839696 -0.004546247 -0.17810638 0.1907538
-0.17196582 -0.2703191 0.10789338 -0.24335922 0.18043523 0.1518968 -0.04801202 0.26207852
0.31281286 -0.15749669 -0.039275974 0.15919858 0.13147958 0.1783521 -0.10982178 -0.1460715
0.14036039 -0.2296003 -0.033675466 0.30125096 -0.19877364 0.042835295 0.24970041 0.11635961
0.23627622 -0.06252188 -0.012503713 0.041973434 -0.15819147 0.008782155 -0.22258946 -0.09527997
-0.11348798 0.118703775 -0.009911802 -0.2366906 0.02975333 0.12108335 -0.08649691 -0.14847045
00000000: 7da4 47be fc06 173e 960a 7d3e fc31 81be
00000010: 37a2 57be 1579 b73d eeb9 8d3e 2e1c 413e
00000020: 5ec8 e43d deb6 1a3e a3d3 203e 102f 6a3e
00000030: 6817 bb3d b450 373e c6bb 6c3e ac2e 673e
00000040: f860 d63c 0a6d 1f3b 2eae 133e aba8 9abd
00000050: 6491 1f3e 6a29 873d 2f1d a1bd 0f86 29be
00000060: c31b 65be 2bdb 453e 1f2e dabd def2 37be
00000070: c3a8 c5bd 0a62 3a3d 4be8 12be 9f93 7dbc
00000080: 7690 dcbd 29e7 00be bf34 e0bd 6010 013e
00000090: e2d3 853e 3476 163e b900 223e 3660 77be
000000a0: fb22 6c3e 3c4b 6dbd 6c0c cbbd 9316 3bbe
000000b0: 4dae bebd dbe8 01be 6272 413e f704 843e
000000c0: 6630 a83b 8479 91bc 1306 97bc b947 4cbe
000000d0: 0021 893e 59bb 88be c785 1a3d 8638 a9bd
000000e0: 33fd 943e 160a 92be 3300 9ebd cba8 62bd
000000f0: 316a 9ebd f5f1 82be d774 0f3e 4c11 753e
00000100: 6a7e e4bd d7d3 813e 05b8 433d 5a3e 2f3e
00000110: 1da2 433e 26fd a63d 4293 2a3d 8a1c c33d
00000120: f56e 793e 76f7 59be f054 563e e433 49be
00000130: 3604 09be 3dc6 3ebd 937c 3b3c f2a6 40be
00000140: 331d 85be eae4 f93d a265 803c 1b92 8fbe
00000150: 8b89 f03d c3d0 a4bd fb81 d33d acf4 203e
00000160: 6d8b 763e 968b 2abe 78f1 6b3e 89db 273e
00000170: e270 463e 341e 813e 3ac8 f63d 968c 253e
00000180: e639 623e 6695 b6bd 93f6 24be a553 953d
00000190: b1ad 36be aff8 94bb 8561 36be f754 433e
000001a0: cf17 30be 4467 8abe 34f7 dc3d 2933 79be
000001b0: 03c4 383e d68a 1b3e 40a8 44bd 282f 863e
000001c0: 0229 a03e d046 21be d8df 20bd f404 233e
000001d0: 95a2 063e efa1 363e 3eea e0bd c493 15be
000001e0: a2ba 0f3e 571c 6bbe 49ef 09bd 913d 9a3e
000001f0: 518b 4bbe 1074 2f3d 77b1 7f3e f24d ee3d
00000200: 65f2 713e 790b 80bd 60dc 4cbc 56ec 2b3d
00000210: f2fc 21be 07e3 0f3c 7eee 63be 2522 c3bd
00000220: 636c e8bd f71a f33d 1c65 22bc 055f 72be
00000230: 41bd f33c 8cfa f73d 4b25 b1bd a308 18be

decoders.1.decoder_net.0.weight f4 [512, 2]
0.096797 -0.44898468 0.50576276 0.030273443 0.36197028 -0.17926022 -0.6841861 -0.31743476
0.0882336 0.25930008 -0.4439131 0.24446714 0.06999536 0.4656796 -0.036408998 0.3696689
0.15232612 0.07707866 0.17592323 0.60924906 0.20657952 -0.4120659 0.3919127 -0.32556733
-0.36113277 -0.34794042 0.0058399336 0.9303417 0.30361938 0.03937761 0.24333914 -0.41540843
-5.398055e-06 -0.046454012 -0.45423737 0.6406314 -0.30704427 0.3365932 -0.09167321 0.16979647
-0.08280004 0.56120944 0.36764455 -0.122429505 0.265204 -0.29570907 0.7091707 0.29991865
0.1868544 0.3462937 0.34801033 -0.029816179 0.2806069 -0.35054305 -0.6900406 0.59254843
0.14158627 0.36250228 0.4125653 -0.37458214 -0.017731126 -0.35514984 -0.42456847 0.0950367
0.1910336 -0.05502701 -0.009350453 -0.48932263 -0.470886 0.00078219466 -0.0747499 -0.4244685
0.70347345 -0.19906637 -0.24753976 0.28973266 0.19708446 0.12104287 0.36893544 -0.064886
-0.6116728 0.677036 -0.5548891 -0.6946461 0.32988146 0.41173205 -0.18632995 0.45654467
-0.54104775 0.18540819 0.0123740835 0.57306325 -0.35811335 -0.30903056 0.14681132 -0.47577944
0.07552916 0.007892392 -0.29383206 0.21445537 -0.656394 0.43275145 -0.39798722 -0.09385475
0.12594081 -0.24638046 0.22038454 0.43120697 -0.25994146 -0.31672296 0.6042615 -0.025264263
-0.62763405 -0.4560987 0.6305605 0.14597756 0.31396207 0.37949777 0.39070064 -0.15679948
0.36778176 -0.5919592 -0.06214242 0.06598139 0.4584772 0.42252484 -0.0194285 0.29401886
-0.41137424 -0.41899365 0.16806965 0.25315452 0.06432458 -0.5692018 -0.5206597 -0.30952117
0.5251106 -0.1634272 -0.36893746 0.50222033 0.65637004 0.090152435 0.11569001 0.38058275
0.51017857 0.5118245 0.40485057 0.09570081 -0.76487255 0.67435646 -0.6613536 -0.044794455
-0.19271411 0.39615753 -0.33841172 0.45883796 0.1680325 0.28965542 -0.62367433 -0.50885457
0.14129306 -0.28558242 0.52644515 -0.3244801 0.18637785 -0.6004157 0.46203777 0.50229657
-0.54294777 -0.22442894 0.3430398 -0.3933008 -0.69023854 0.015199789 0.23868878 0.41525406
0.34489077 0.42008823 -0.1155005 -0.015583784 0.10029951 0.30929524 0.086418785 -0.31297523
-0.52689 0.40557268 0.33346206 0.7728263 -0.17714381 0.06672309 0.43954384 -0.2904693
-0.14074515 -0.1641808 -0.30305266 0.012198289 -0.61558956 -0.3522904 -0.5457628 -0.35903206
-0.5382909 0.5309463 -0.0040117353 0.09748672 0.35416052 -0.028216274 0.4765131 0.16792844
-0.03694346 0.6304575 -0.060970496 0.059548542 -0.71105564 0.025524288 -0.03530199 0.29646266
-0.018478965 0.06582932 -0.1048037 0.059785776 0.42506 -0.5792912 0.22046602 0.2689483
0.1736304 0.6880242 0.13380197 0.33987904 -0.57215023 -0.37891746 0.08656835 0.6500416
-0.23744448 -0.27070418 0.12261756 -0.624499 0.34931105 0.5516594 0.7923178 0.24093275
0.65119046 -0.45611396 0.33824658 -0.18142438 0.22085395 0.09287847 0.087737456 -0.6325794
0.18407562 0.24297732 -0.05377845 0.64311403 0.23910595 0.5320859 -0.639918 0.32666624
00000000: 813d c63d 52e1 e5be ab79 013f 0300 f83c
00000010: 2b54 b93e fe8f 37be d226 2fbf cf86 a2be
00000020: d1b3 b43d fbc2 843e 9448 e3be 9855 7a3e
00000030: ba59 8f3d 8e6d ee3e 9a21 15bd 3e45 bd3e
00000040: 61fb 1b3e 6bdb 9d3d 3825 343e bff7 1b3f
00000050: 9589 533e 4dfa d2be c8a8 c83e c3b0 a6be
00000060: 65e6 b8be 3f25 b2be ea5c bf3b e02a 6e3f
00000070: 0074 9b3e 6b4a 213d e52d 793e 6ab0 d4be
00000080: f020 b5b6 9046 3ebd cd91 e8be 6b00 243f
00000090: e834 9dbe f255 ac3e 2abf bbbd 20df 2d3e
000000a0: 1193 a9bd 6cab 0f3f e83b bc3e 52bc fabd
000000b0: d2c8 873e 2e67 97be 368c 353f f08e 993e
000000c0: c356 3f3e 684d b13e 692e b23e 0f41 f4bc
000000d0: b5ab 8f3e 617a b3be 80a6 30bf 41b1 173f
000000e0: fefb 103e e699 b93e c23b d33e 3bc9 bfbe
000000f0: de40 91bc 33d6 b5be 0a61 d9be 9aa2 c23d
00000100: 509e 433e 0164 61bd a432 19bc 7f88 fabe
00000110: f817 f1be 320c 4d3a 7a16 99bd ef53 d9be
00000120: d616 343f 0ed8 4bbe 107b 7dbe d757 943e
00000130: 82d0 493e 53e5 f73d 1be5 bc3e f3e2 84bd
00000140: 9796 1cbf 3b52 2d3f 360d 0ebf 54d4 31bf
00000150: 39e6 a83e 8bce d23e 47cd 3ebe 39c0 e93e
00000160: 1b82 0abf a5db 3d3e abbc 4a3c 46b4 123f
00000170: a25a b7be 4139 9ebe b555 163e 5d99 f3be
00000180: 08af 9a3d 174f 013c 2871 96be 309a 5b3e
00000190: 7009 28bf 9991 dd3e fbc4 cbbe eb36 c0bd
000001a0: a1f6 003e 294b 7cbe 7cac 613e 29c7 dc3e
000001b0: 0c17 85be 8329 a2be e2b0 1a3f 00f7 cebc
000001c0: a0ac 20bf c585 e9be 6a6c 213f 247b 153e
000001d0: a3bf a03e 884d c23e ea09 c83e 0b90 20be
000001e0: e44d bc3e a38a 17bf 0d89 7ebd 4021 873d
000001f0: 86bd ea3e 2d55 d83e 8528 9fbc a489 963e
00000200: a59f d2be 5686 d6be 731a 2c3e 789d 813e
00000210: 9bbc 833d 36b7 11bf f449 05bf 8f79 9ebe
00000220: a66d 063f 7659 27be 5fe5 bcbe 8391 003f
00000230: de07 283f d7a1 b83d e2ee ec3d bedb c23e
00000240: 109b 023f ee06 033f 9348 cf3e c9fe c33d
00000250: b0ce 43bf a0a2 2c3f 784e 29bf 647a 37bd
00000260: d956 45be 29d5 ca3e 4d44 adbe cfec ea3e
00000270: b610 2c3e b74d 943e 1fa9 1fbf 4b44 02bf
00000280: 21af 103e dc37 92be 1cc5 063f 4122 a6be
00000290: d6d9 3e3e d8b4 19bf 3790 ec3e 8296 003f
000002a0: a0fe 0abf b3d0 65be eaa2 af3e b95e c9be
000002b0: 79b3 30bf 8908 793c d56a 743e 2e9c d43e
000002c0: 8695 b03e ce15 d73e 878b ecbd 2153 7fbc
000002d0: d469 cd3d f25b 9e3e 55fc b03d 4a3e a0be
000002e0: 43e2 06bf 39a7 cf3e 8abb aa3e f2d7 453f
000002f0: 3065 35be 1ea6 883d e40b e13e 64b8 94be
00000300: 7f1f 10be 031f 28be b829 9bbe 55db 473c
00000310: 4797 1dbf 685f b4be 1cb7 0bbf 0dd3 b7be
00000320: 6fcd 09bf 19ec 073f e074 83bb 1ea7 c73d
00000330: 8754 b53e d125 e7bc 86f9 f33e 6ff5 2b3e
00000340: 0752 17bd aa65 213f 33bc 79bd 2ce9 733d
00000350: be07 36bf 5018 d13c d298 10bd f4c9 973e
00000360: 3361 97bc 86d1 863d 52a3 d6bd eee1 743d
00000370: 77a1 d93e 6e4c 14bf d8c1 613e 97b3 893e
00000380: 2bcc 313e 5b22 303f 6203 093e a004 ae3e
00000390: 7078 12bf 7801 c2be bf4a b13d 2069 263f
000003a0: a524 73be bd99 8abe ea1e fb3d 2bdf 1fbf
000003b0: e6d8 b23e 8d39 0d3f 57d5 4a3f 13b7 763e
000003c0: 6bb4 263f c587 e9be a82e ad3e 50c7 39be
000003d0: 8a27 623e 1137 be3d b2af b33d b9f0 21bf
000003e0: 527e 3c3e 0ccf 783e cb46 5cbd 1fa3 243f
000003f0: 31d8 743e c836 083f abd1 23bf cc40 a73e

decoders.1.decoder_net.0.bias f4 [512]
-0.0016825137 -0.21279442 0.21468604 -0.16525978 -0.5931636 -0.67879444 0.6622018 0.51142097
0.15465242 0.16096489 0.55561644 0.39604697 0.20896013 0.01422207 0.3863959 -0.49186206
-0.54981583 -0.33097738 0.43478206 -0.06636375 0.38833508 0.11891383 -0.17486668 -0.27284792
-0.41987953 -0.5103374 0.099163935 -0.6584049 0.33034113 -0.35607103 -0.61546946 0.30563274
0.54083633 -0.16373597 0.70425177 -0.5830272 -0.09750829 -0.443243 0.3677511 0.66507804
-0.15116365 0.32783112 0.3191106 0.21408539 0.26930106 -0.24408217 0.19243672 0.33971918
0.31669524 -0.5455879 -0.7052004 0.6299811 0.19319302 0.6324973 -0.68390423 -0.25186747
0.6089365 0.20262717 -0.13368756 0.47647443 -0.40224332 0.09476621 -0.4540152 0.70163786
-0.04797459 -0.75560075 -0.50197417 0.3224295 0.60358495 0.5001382 -0.4647258 -0.6444669
-0.6761874 0.23767303 -0.75023645 0.23310906 -0.45052236 0.25539008 -0.63295805 0.6541596
0.39863253 -0.09432433 -0.28923965 -0.36484784 0.5469146 -0.37332475 0.57336885 0.32173738
-0.5891761 0.17421053 -0.784597 -0.06237481 0.47664672 -0.16821422 0.48481527 -0.526219
-0.2846305 -0.39890504 0.5567427 -0.32861483 -0.3331523 -0.52839476 -0.39510328 0.30544207
-0.6402647 0.07928565 0.5514185 -0.311055 0.013372683 0.13344172 -0.621298 -0.096311726
0.22179674 0.6719575 -0.26667783 0.52710783 -0.15541095 0.57521254 0.026163368 0.4105007
0.7413668 0.038357455 0.030916275 -0.05667489 0.46073616 -0.654414 -0.34108952 0.17644657
-0.22023411 -0.40669668 0.17940897 0.4695543 0.36805758 -0.38070425 -0.5959837 -0.12199766
-0.5938449 -0.4929444 -0.7138534 0.6164033 -0.3179804 0.2668704 -0.157315 0.1605169
-0.018593647 -0.45623726 0.3787215 0.5840218 -0.22248282 -0.58078617 -0.043201577 0.034560677
0.6495948 0.27728477 0.042221643 0.023204036 0.6037134 0.4212151 -0.12799 -0.33056936
-0.49145737 0.14579262 -0.43530822 0.52822423 -0.038935583 0.13917878 -0.36699823 -0.19077341
0.47009948 0.2280476 0.68509716 -0.18770307 -0.16187547 0.5784435 0.65522945 -0.1307287
0.17478281 0.66369873 0.34520382 0.52528757 0.44043216 -0.34297395 0.67948294 0.15340859
0.095152356 0.56074363 -0.0031086232 -0.67080957 -0.4486791 -0.008726259 0.6368387 0.59839666
-0.40820792 -0.3667598 -0.131852 0.24739906 -0.5018209 -0.6172258 -0.08627767 -0.47432095
0.65099454 0.3613616 -0.3727291 0.6645661 -0.36193535 0.53343385 -0.15995412 0.37367055
0.08904437 0.32427278 0.33439973 -0.008462349 -0.42404556 -0.7047753 0.9088071 0.2148723
-0.55887187 -0.444705 -0.7341745 -0.118978366 0.2756851 -0.26755303 -0.17137736 0.028851572
-0.5313274 -0.38111758 -0.445333 -0.23820575 -0.45434716 -0.52402467 0.22108562 -0.17763829
-0.04887539 -0.7286579 0.27562284 -0.62134826 -0.57450706 0.043857858 -0.5357517 -0.1452641
-0.057960242 -0.6066312 0.07973935 0.09076616 -0.45408314 0.46912682 -0.43769175 -0.6480297
0.28915504 -0.021910101 0.40635362 0.06449313 0.5051261 0.04955857 -0.25415692 0.37101358
00000000: cb87 dcba c8e6 59be a8d6 5b3e dc39 29be
00000010: 92d9 17bf 79c5 2dbf 0f86 293f 7cec 023f
00000020: 345d 1e3e fbd3 243e e13c 0e3f abc6 ca3e
00000030: a5f9 553e af03 693c afd5 c53e 58d5 fbbe
00000040: bbc0 0cbf de75 a9be c19b de3e b8e9 87bd
00000050: dbd3 c63e 1889 f33d 4010 33be b9b2 8bbe
00000060: 73fa d6be 79a5 02bf 7616 cb3d 398d 28bf
00000070: 7922 a93e f14e b6be 688f 1dbf e57b 9c3e
00000080: 4074 0a3f 67aa 27be d849 343f 4541 15bf
00000090: 6db2 c7bd bff0 e2be df49 bc3e 8e42 2a3f
000000a0: a5ca 1abe 7bd9 a73e 7762 a33e 3339 5b3e
000000b0: d4e1 893e adf0 79be 220e 453e acef ad3e
000000c0: e125 a23e a6ab 0bbf 0388 34bf 7146 213f
000000d0: 64d4 453e 58eb 213f 5914 2fbf c6f4 80be
000000e0: 43e3 1b3f 7f7d 4f3e 64e5 08be 75f4 f33e
000000f0: d6f2 cdbe c914 c23d ae74 e8be 8a9e 333f
00000100: 0181 44bd 0d6f 41bf 6181 00bf 7b15 a53e
00000110: 8b84 1a3f 0f09 003f 8af0 edbe c8fb 24bf
00000120: 9e1a 2dbf 8f60 733e 7f0f 40bf 24b4 6e3e
00000130: deaa e6be 7dc2 823e 8a09 22bf 0177 273f
00000140: 9019 cc3e 1d2d c1bd 3817 94be 56cd babe
00000150: 9802 0c3f 6c24 bfbe 4dc8 123f c3ba a43e
00000160: 3fd4 16bf 3f64 323e 59db 48bf bb7c 7fbd
00000170: 0a0b f43e 5940 2cbe b539 f83e 4ab6 06bf
00000180: 17bb 91be 483d ccbe b186 0e3f 3440 a8be
00000190: f092 aabe e144 07bf fa4a cabe e762 9c3e
000001a0: 63e8 23bf 8460 a23d c329 0d3f 9a42 9fbe
000001b0: 1919 5b3c f2a4 083e 630d 1fbf 153f c5bd
000001c0: af1e 633e 6805 2c3f ff89 88be 8af0 063f
000001d0: 0c24 1fbe 2141 133f 8f54 d63c 262d d23e
000001e0: 37ca 3d3f b51c 1d3d 2144 fd3c ee23 68bd
000001f0: 9ce5 eb3e ad87 27bf 49a3 aebe 69ae 343e
00000200: 0d85 61be 8c3a d0be fcb6 373e 6c69 f03e
00000210: 0b72 bc3e abeb c2be 6392 18bf e9d9 f9bd
00000220: 3806 18bf 3563 fcbe 19bf 36bf 9bcc 1d3f
00000230: 54ce a2be 3da3 883e 2f17 21be 8b5e 243e
00000240: b451 98bc ee97 e9be c9e7 c13e 7482 153f
00000250: 89d2 63be 67ae 14bf 23f4 30bd 7f8f 0d3d
00000260: d84b 263f 45f8 8d3e 9af0 2c3d 6416 be3c
00000270: f68c 1a3f 81a9 d73e d00f 03be 6340 a9be
00000280: 4da0 fbbe a94a 153e b8e0 debe b439 073f
00000290: eb7a 1fbd e284 0e3e 31e7 bbbe 1b5a 43be
000002a0: e1b0 f03e 4f85 693e 8762 2f3f 3c35 40be
000002b0: afc2 25be e014 143f 1ebd 273f bfdd 05be
000002c0: 44fa 323e 29e8 293f 8ebe b03e 3f79 063f
000002d0: 5380 e13e 489a afbe 98f2 2d3f 2417 1d3e
000002e0: 3ddf c23d e58c 0f3f 0bba 4bbb 2dba 2bbf
000002f0: 44b9 e5be 95f8 0ebc dc07 233f 8630 193f
00000300: a100 d1be f1c7 bbbe 3604 07be 2e56 7d3e
00000310: 5677 00bf 8302 1ebf 59b2 b0bd 32da f2be
00000320: 94a7 263f 6304 b93e 59d6 bebe 0121 2a3f
00000330: 974f b9be 1f8f 083f 03cb 23be bf51 bf3e
00000340: e55c b63d 1507 a63e 7136 ab3e aaa5 0abc
00000350: 801c d9be 276c 34bf 95a7 683f 7c07 5c3e
00000360: 3a12 0fbf 60b0 e3be dcf2 3bbf eeaa f3bd
00000370: 9926 8d3e b6fc 88be 8c7d 2fbe 225a ec3c
00000380: 1305 08bf d821 c3be b002 e4be 35ec 73be
00000390: 31a0 e8be 7b26 06bf 4564 623e d0e6 35be
000003a0: 9031 48bd 5389 3abf 701e 8d3e ae10 1fbf
000003b0: e512 13bf 4ca4 333d 0627 09bf 1dc0 14be
000003c0: b867 6dbd 2f4c 1bbf 624e a33d 9ce3 b93d
000003d0: 967d e8be 6431 f03e 2219 e0be 46e5 25bf
000003e0: 210c 943e d07c b3bc 950d d03e f914 843d
000003f0: f24f 013f edfd 4a3d db20 82be 7ef5 bd3e
