Project2/models/model_2_7.pt (torch, 214300 bytes, 56 tensors)

prior.mean f4 [2]
000000 00 00 00 00 00 00 00 00
       0.0 0.0

prior.std f4 [2]
000000 00 00 80 3f 00 00 80 3f
       1.0 1.0

decoders.0.decoder_net.0.weight f4 [512, 2]
000000 b6 a3 22 bf 9a 01 c8 3e 9f da 13 bf 36 20 90 3e
       -0.63531053 0.39063722 -0.57755464 0.28149575
000010 3e 70 23 3f d5 ce 85 be 01 e1 dc 3e d4 40 ec be
       0.63843143 -0.26134363 0.43140414 -0.4614321
000020 b8 a0 bb be 01 16 74 3d 9a 20 93 be 31 d0 21 3f
       -0.36646056 0.059591297 -0.2873581 0.632083
000030 a6 60 29 bf 01 0d cb be a0 68 1f bf 1b 47 2a 3f
       -0.661631 -0.3965836 -0.6226902 0.6651475
000040 13 d3 b4 be d3 d2 42 be c5 75 0d bf 99 a3 0d bf
       -0.35317287 -0.19025736 -0.5525783 -0.55327755
000050 77 17 8d 3e 2b 0c 4a be 07 f2 06 3f 7a c7 83 be
       0.27556965 -0.19731204 0.52713054 -0.25738126
000060 1f 33 f9 be 0a dc e4 3d 18 11 b8 be 0f 91 85 be
       -0.48671815 0.111747816 -0.35950541 -0.26087233
000070 f6 75 9e 3e 02 65 73 3e 06 de 27 3f 00 5d ba 3e
       0.30949372 0.23769 0.65573156 0.36399078
000080 0f 27 b2 bd 23 99 8e be 2e b8 37 be 31 cc 14 bf
       -0.08698856 -0.2785121 -0.17941353 -0.5812407
000090 45 aa 6f 3e 8b 18 19 3f 38 06 8a 3e 2e dd 18 bf
       0.23404796 0.59803075 0.2695787 -0.59712493
0000a0 1a 58 e7 3e 2c 20 0c bf a3 d0 2d 3f 1b 5a 0d bf
       0.45184404 -0.5473659 0.6789648 -0.55215615
0000b0 e1 59 aa 3e 6f 74 2e be 48 af 72 3e f5 ab c8 be
       0.33271697 -0.17036603 0.23699677 -0.39193693
0000c0 ab 69 d8 bd b5 ec a6 bd da 14 d6 3e 0d 10 9b 3e
       -0.105670296 -0.08150617 0.41812783 0.30285683
0000d0 77 f5 ff 3e fd 2c 90 3e 75 30 9b bd 40 05 e9 3e
       0.49991962 0.28159323 -0.07577602 0.45511818
0000e0 ac 78 21 3f af 43 17 3f 73 df 01 bf b7 5f bf 3e
       0.63074756 0.5908765 -0.5073158 0.37377712
0000f0 14 c0 99 bc fb fd a1 3e 84 9a 07 3f f1 40 f5 be
       -0.018768348 0.31639084 0.5297015 -0.4790111
000100 23 bf 14 bf dd 41 61 3e dd 68 f3 be 03 43 d9 be
       -0.5810415 0.21997781 -0.47540942 -0.42433938
000110 3b a6 8d 3e e4 d2 10 bc 73 a8 d8 be a2 02 1b bf
       0.27665886 -0.008839343 -0.42316017 -0.6055089
000120 31 7b c0 be 12 de fa bc 2b 4c 28 3f 66 d5 5c 3d
       -0.37593988 -0.03062347 0.65741223 0.05391445
000130 87 3c 19 bf 56 bc 29 bf 94 e6 07 bf 36 5a 01 3f
       -0.5985798 -0.66303 -0.5308621 0.50528276
000140 45 ef 05 be f5 c3 a5 3d 03 ad 57 3e 98 57 2c bf
       -0.13079555 0.080940165 0.21062092 -0.6732116
000150 fd 39 52 3e a5 33 21 3f 93 bb d0 3b 00 cb 75 3e
       0.20529933 0.6296943 0.006370017 0.2400322
000160 a3 76 22 3e 99 82 e7 3e 41 32 0a 3f 47 ff 6e 3e
       0.15865569 0.45216826 0.5398293 0.23339568
000170 c1 95 5a be 36 8c 89 3e 77 e5 55 be 30 73 8b 3c
       -0.21346189 0.26864785 -0.20888315 0.0170227
000180 86 65 e7 be 57 af e5 3d f5 f0 14 bf 00 53 1d 3f
       -0.45194644 0.11215084 -0.5818017 0.6145477
000190 46 3a 5b bd 71 5d 00 3f 73 68 a3 3e 34 62 94 be
       -0.05352237 0.5014258 0.31915626 -0.28981173
0001a0 d3 99 0a bf 96 58 42 bc 8f c7 fe 3e 2e 10 db be
       -0.5414097 -0.011861941 0.49761626 -0.42785782
0001b0 45 94 14 bf bc 18 0d bf 22 40 7a 3e cb a5 c2 3d
       -0.5803874 -0.55115867 0.24438527 0.09504279
0001c0 b5 8e 00 bf 01 5f a0 3c 7b 4a 25 3f 05 db 78 3e
       -0.50217754 0.019576551 0.64566773 0.243023
0001d0 59 93 03 3f 87 6c 15 3f 81 23 10 bf 1d 8f 3d 3d
       0.5139671 0.58368725 -0.56304175 0.04627906
0001e0 ce 6f 14 bf c5 14 a8 3e f4 3c b1 3d 78 f2 0c 3e
       -0.579831 0.32828346 0.08654204 0.1376437
0001f0 b5 86 ab 3e d8 fb 7a be 6e f3 27 bd 20 3b 93 be
       0.3350121 -0.24510133 -0.041003637 -0.28756046
000200 c1 a9 2c 3f 48 4a 24 bf 7e b5 2d bf 89 83 27 bf
       0.67446524 -0.64175844 -0.6785506 -0.6543508
000210 6e 3d a3 be 48 08 1b bf 51 9b 19 bf 55 94 53 be
       -0.31882805 -0.6055951 -0.6000262 -0.20662053
000220 21 a4 f1 3e c6 76 ae 3e a8 db 28 bf f4 1f 25 3f
       0.47195533 0.34074992 -0.6596017 0.6450188
000230 5c dd de 3e 78 ee 65 be 59 b5 19 bf 1f 34 e1 3e
       0.4352826 -0.2245425 -0.6004234 0.43985078
000240 04 6c 37 3e 3a 3e 42 3f 50 10 20 3f 64 bf ee 3d
       0.17912298 0.758762 0.6252489 0.116575986
000250 85 81 38 3e b1 2a 99 be 00 f4 0d bf 6e 74 c8 bd
       0.18018158 -0.29915383 -0.5545044 -0.09787832
000260 5a 9d 29 bf 9b 65 f9 bd 5c 23 38 be f7 65 36 be
       -0.66255724 -0.12177583 -0.17982239 -0.17812334
000270 3a 4a db 3e 0c 69 21 3f b1 07 17 bf 87 e6 d3 be
       0.42830068 0.63050914 -0.5899611 -0.41386816
000280 d6 81 1f bf ae 06 02 bf 9d 37 9c 3e d6 b9 d9 be
       -0.6230749 -0.5079144 0.3051118 -0.42524594
000290 e8 65 dc bd 6b 25 ee be 62 a9 10 3f 0e 6d 91 be
       -0.107616246 -0.46512923 0.5650846 -0.28403515
0002a0 57 1c f4 be 15 bb 05 be 5e 5b ff 3e 6a 9a 1a be
       -0.47677872 -0.13059647 0.49874395 -0.15097967
0002b0 2d 06 de be c9 f7 38 3f d0 af b7 3e 87 0d dd 3e
       -0.43364087 0.7225309 0.35876322 0.43174383
0002c0 ff ff 64 3e 1b 6e cf be d9 e7 71 be 1e be 51 3e
       0.2236328 -0.4051369 -0.23623599 0.2048268
0002d0 bb 2d 25 bf 1c f8 13 3f 41 3c b0 be 0e 39 cd be
       -0.64522904 0.5780046 -0.3442097 -0.40082592
0002e0 c3 f2 95 be f4 d1 61 be ad 6b 54 be e9 ac 08 bf
       -0.29286775 -0.22052747 -0.207442 -0.5338884
0002f0 8f 2b b4 be 9e 71 2a 3f e3 8b 90 3e de 94 9f 3e
       -0.35189483 0.66579616 0.28231725 0.31168264
000300 9e 1a b8 3e 2d a9 fb be 27 cc 1e 3f d8 ba 9d 3e
       0.35957807 -0.49152508 0.6203026 0.30806613
000310 87 66 f8 be 90 e1 b6 3d b5 df c3 3e 1d 3d 45 3d
       -0.48515722 0.089297414 0.38256612 0.048153985
000320 42 c9 f8 bd 8c bf e2 be 1d db a5 3e a8 57 f7 be
       -0.12147762 -0.44286764 0.32393733 -0.48309064
000330 42 41 4a 3e 68 dc 0e 3e 17 1b 0e 3f 14 2a ce bd
       0.19751456 0.13951266 0.55510086 -0.100666195
000340 95 5d 72 be 9a 23 e7 3d 41 92 f4 be 24 36 db 3e
       -0.23668511 0.11286087 -0.47767833 0.42814744
000350 14 ca ce be 18 c2 3c bf cb 59 b9 3e a4 f9 72 bd
       -0.40388548 -0.73733664 0.3620132 -0.059320107
000360 57 3a c1 3e 11 ed f1 3e af 3f 47 be 41 02 c2 3e
       0.37739822 0.4725118 -0.19457887 0.37892345
000370 d7 6c fb 3e c1 f4 ff bd db 39 fb 3d 4a d7 df be
       0.49106476 -0.12497855 0.122668944 -0.4371894
000380 43 04 03 3f d4 14 e2 be a6 cb 00 bf 84 37 a9 3e
       0.5117838 -0.44156516 -0.5031074 0.33050168
000390 c2 e9 a9 3e 9b aa 43 be 4a 8e 91 3e 8e 43 c4 3b
       0.33186156 -0.1910805 0.2842887 0.0059894985
0003a0 dc 5e 4b 3e e4 97 00 3f e6 ed e0 3a 70 06 01 be
       0.19860405 0.50231767 0.0017160743 -0.12600112
0003b0 e0 ee f5 3e 83 01 b0 bd 05 2b ce be 03 67 26 3f
       0.4803381 -0.08594038 -0.40267196 0.65000933
0003c0 be 8c 62 3d ec fb de be fa 20 8e be 35 d2 10 bd
       0.055310003 -0.43551576 -0.27759534 -0.03535672
0003d0 22 99 2f 3f 31 30 fd 3e 25 53 17 3e d4 ca 25 be
       0.6859304 0.4945083 0.14777811 -0.16190654
0003e0 91 13 dc 3e be 56 30 be 01 5a f0 3e 20 9c ff be
       0.42983678 -0.1722059 0.46943668 -0.499238
0003f0 a3 f7 25 bf 9d 98 e7 3e f4 06 f7 be 49 52 e5 3e
       -0.6483099 0.45233622 -0.48247492 0.4478934

decoders.0.decoder_net.0.bias f4 [512]
000000 be 9b f8 be e1 4b 0f 3f 19 3b d0 3e dd 83 81 bd
       -0.48556322 0.5597516 0.40670088 -0.06323979
000010 4f 60 77 be 41 9b f6 be 24 08 d8 3e 94 88 27 be
       -0.24157833 -0.48165324 0.4219371 -0.16360694
000020 18 7c 14 3c 46 c5 0c bf b1 67 9c 3c e8 54 4c 3d
       0.009062789 -0.54988515 0.019092413 0.04988566
000030 6a 01 28 bf ef 3b dd bd da e0 6e bb 8c a8 17 3f
       -0.6562716 -0.10802447 -0.003644994 0.5924156
000040 ea 36 3c be 85 e4 b2 be f3 bb dc bd 72 14 d0 be
       -0.18380323 -0.34939972 -0.10778036 -0.406406
000050 a2 cb 00 3f 3d 83 8c 3e 5a 51 2b 3f 18 76 8c 3e
       0.5031072 0.27443877 0.6692101 0.27433848
000060 79 03 10 bf da 3e 14 bf 3b e2 28 bf 36 44 bb bd
       -0.562553 -0.57908404 -0.659702 -0.091438696
000070 e8 85 13 bf 31 19 39 3d ac e0 5b 3e 4b 8e 04 3f
       -0.576262 0.04519004 0.21472424 0.5177962
000080 7d c1 a5 3e 95 d8 16 bf 0c 0b 10 bf be af d2 3c
       0.32374182 -0.5892423 -0.56266856 0.025718566
000090 b0 53 3e be 02 54 bb be cd ac 82 bc 70 05 94 be
       -0.18586612 -0.3658753 -0.015951538 -0.28910398
0000a0 46 27 89 bc ed 84 17 be 10 9f 88 3c 6d ae 34 3e
       -0.01674236 -0.14796801 0.01667741 0.17644663
0000b0 7d aa 36 3f 11 08 11 3f 7a df 26 3f a8 7a ff 3e
       0.71353894 0.56652933 0.6518475 0.49898267
0000c0 b4 99 2e bf 18 c9 17 bf 3a 29 22 bf b1 a3 47 3d
       -0.6820328 -0.5929122 -0.63344157 0.048740093
0000d0 57 aa 5f bd ba d7 10 bf cc d1 02 bf 1a ad b3 3e
       -0.054605808 -0.5657917 -0.51101375 0.35093004
0000e0 dd aa cb bd 99 eb a9 3d 54 61 5e be 7e 3c ad 3e
       -0.09944699 0.0829689 -0.21716815 0.33835214
0000f0 2a c9 b4 be fa b4 11 3f 59 d3 7c 3e ad c3 9a 3e
       -0.35309726 0.56916773 0.24689998 0.30227414
000100 cc 64 04 be 22 a2 91 be 1e 77 fe 3e 15 98 b2 3e
       -0.12929076 -0.2844401 0.49700254 0.34881654
000110 bc df 71 be aa bc e5 be c3 87 4c be 53 c4 e3 be
       -0.23620504 -0.44870502 -0.19973664 -0.4448572
000120 58 7c 27 be aa 50 04 3f 78 e6 cb 3d 38 eb 55 3e
       -0.16356027 0.51685584 0.09956068 0.2089051
000130 14 fb f1 3e 92 e5 26 3f ed 71 09 bf d9 7e 26 bf
       0.4726187 0.65194046 -0.5368946 -0.65037304
000140 a7 5a 9c be aa 17 4f 3e 02 c3 f0 3e 76 1c a8 3e
       -0.30537912 0.20223871 0.4702378 0.32834214
000150 53 84 0a bf 34 7e 39 3e c5 0e 7a be f5 7a 25 bf
       -0.5410816 0.18114549 -0.24419697 -0.6464074
000160 a9 27 2d 3f 4e 3b 00 3f 1c 29 06 3f c9 b4 82 be
       0.6763864 0.5009049 0.5240648 -0.25528553
000170 6e 88 e0 3e a1 55 2b 3e db 4b bb be 73 8f 92 be
       0.43854088 0.16731884 -0.3658131 -0.28625068
000180 22 9e d5 be fe 15 2c 3e 74 df 17 be 10 d8 0e 3d
       -0.41722208 0.16805264 -0.14831334 0.034874022
000190 7f 8a d3 3e 65 44 13 3f 42 f6 fb 3e db 3c 91 bd
       0.41316602 0.57526237 0.49211317 -0.070916854
0001a0 d1 6b 39 3e eb 66 f2 3e 0c 9a fc be f8 4e 44 3d
       0.18107535 0.47344145 -0.49336278 0.047926873
0001b0 b0 8e 00 3d b6 7c 03 3f 6b 67 3c 3e 78 b2 0c bf
       0.031386077 0.5136217 0.18398826 -0.5495982
0001c0 3d 20 0c bf 4f b6 69 3e 73 5d 11 3f 24 7f c6 be
       -0.5473669 0.22823451 0.5678322 -0.38768876
0001d0 98 62 b4 3e e5 c9 35 bf f5 0c 93 3e 58 78 46 3e
       0.3523147 -0.7101119 0.28720823 0.19381845
0001e0 99 a2 31 3f 3f d3 36 bf aa 2f e2 3e 4e f3 e2 be
       0.6938873 -0.71416086 0.4417699 -0.44326252
0001f0 13 c5 86 be f3 0d 23 be 04 95 31 bf 18 82 1b bf
       -0.2632223 -0.1592329 -0.69368005 -0.6074538
000200 e8 ee 9c be f6 e4 80 3c 59 e3 10 3f 14 1e 40 3f
       -0.3065102 0.015734177 0.56596905 0.75045896
000210 5c 92 31 bf 70 b6 8e 3e 04 4f d3 3e 2c 87 02 3f
       -0.6936395 0.27873564 0.41271222 0.50987506
000220 07 93 f9 3d cc a5 e1 3e 0d 3d 2d bf 6d f0 21 3f
       0.12186246 0.44071805 -0.6767128 0.63257486
000230 62 f8 e7 be be 18 0b 3f f1 2a 41 3f dd cc bc be
       -0.4530669 0.5433463 0.7545615 -0.36875048
000240 93 16 44 bf 35 61 8a be 15 68 03 bf af a6 08 be
       -0.76596946 -0.27027288 -0.5133069 -0.13344835
000250 74 22 10 3e f0 77 fb 3e d0 e1 07 3f b5 cf 11 be
       0.14075643 0.49114943 0.5307894 -0.1423939
000260 12 b2 24 bf c6 a7 10 3d 95 dc d6 3e ec 90 35 3e
       -0.64334214 0.03531625 0.41965166 0.17731065
000270 75 4a 81 be 36 94 2e 3f 08 76 b3 be 69 5c 28 bf
       -0.2525212 0.681949 -0.35050988 -0.65766007
000280 51 01 4a be 0e ec b8 be e4 5c 5e be ed 27 9b 3e
       -0.19727065 -0.36117595 -0.21715122 0.30303898
000290 ec 7e 81 be 26 77 f1 be a6 21 02 3e 1e 1e a7 be
       -0.25292146 -0.47161216 0.12708148 -0.32640165
0002a0 29 25 aa be e0 c0 ab 3e ba a5 f9 be 7b 12 25 bf
       -0.33231476 0.3354559 -0.48759252 -0.64481324
0002b0 dd 21 08 bf 36 b0 fe bd f7 0c 81 3e d5 18 08 bf
       -0.5317667 -0.12435953 0.25205204 -0.5316289
0002c0 04 7a 20 3f 05 13 f2 be 9b 58 0c 3f 68 20 77 be
       0.6268618 -0.47280136 0.548227 -0.24133456
0002d0 3b 7f 85 bd 52 50 ed bd 71 b2 bf be df 25 b6 be
       -0.06518408 -0.115875855 -0.37440827 -0.35575768
0002e0 86 a9 24 bf 7e c1 36 bf ab a0 0d bd 86 50 64 3e
       -0.6432117 -0.71388996 -0.034577053 0.22296342
0002f0 ff 41 98 be 20 26 92 3e 71 01 02 3e a5 44 90 bd
       -0.2973785 0.28544712 0.12695862 -0.07044343
000300 7e d0 dd 3e ab 21 34 3f 2f 83 71 be 3b 89 d3 be
       0.4332313 0.70363873 -0.23585199 -0.41315636
000310 7b 78 0d bf 5e 64 0c 3d 61 f8 96 bd 96 f5 a7 be
       -0.55261964 0.034275405 -0.07371593 -0.32804555
000320 ed fc 1f bf 3f 7d 62 be 70 4c 19 3e 75 0e bb 3e
       -0.6249531 -0.2211809 0.14970565 0.36534467
000330 fd 50 99 3d a9 b6 bb bd ca 9e 16 bf 03 76 e1 bd
       0.074861504 -0.09165699 -0.5883604 -0.11008837
000340 11 6d d3 be 81 9f 7d 3e 1f a5 2e 3f ae f3 3c 3f
       -0.4129415 0.24767877 0.68220705 0.73809326
000350 54 bf b0 3c 25 86 0f bf 53 3f af be a0 1c 2d bf
       0.021575607 -0.56064063 -0.34228 -0.67621803
000360 ba 19 22 be a7 0d be 3d 1a e3 e3 3e 3f 9a 9f 3e
       -0.15830126 0.09279948 0.44509202 0.31172368
000370 6f 34 2a bf 19 1f ef 3e 78 11 fa 3e 56 99 36 bf
       -0.6648626 0.46703413 0.48841453 -0.7132772
000380 f5 34 62 3d 66 9c e9 bd e9 c5 bb 3e c6 1d ad bd
       0.055226285 -0.11406784 0.3667443 -0.084529445
000390 19 93 15 bf 57 d1 09 be 99 92 e5 3e 94 4a 53 be
       -0.5842758 -0.13458763 0.44838408 -0.20633918
0003a0 b1 0f ba bd 92 68 89 3d ff 2e 48 3f 52 0e 4f be
       -0.09085024 0.06709398 0.7819671 -0.20220307
0003b0 89 9b b2 3e d0 9f 1b bd 5f 0d 80 be b3 cc a8 be
       0.3488429 -0.037994206 -0.250102 -0.32968673
0003c0 fb 91 ab 3e 67 26 cf bc 20 1d f1 3e 3d e4 0a be
       0.33509812 -0.025286866 0.47092533 -0.13563628
0003d0 6e 47 cc 3d c0 3d 54 bf be 2e 33 bf 43 93 84 bd
       0.09974562 -0.82906723 -0.699932 -0.064734004
0003e0 30 a1 02 3f 8d 4b c5 be 67 1d 1e bd 99 93 01 3f
       0.510272 -0.38534203 -0.03860226 0.5061584
0003f0 fc 66 0f 3f 92 92 b6 3e b5 d4 a3 3e 27 8d f6 be
       0.56016517 0.356587 0.3199822 -0.48154566

decoders.0.decoder_net.3.weight f4 [32]
000000 16 6b 81 3f 7b 09 7c 3f d8 6c 7b 3f 16 96 88 3f
       1.0110805 0.98451966 0.9821296 1.0670803
000010 45 66 79 3f 2f 03 7f 3f 64 16 7a 3f 9d 49 7e 3f
       0.97421676 0.9961423 0.97690415 0.99331075
000020 60 69 80 3f e1 88 75 3f 69 b2 7f 3f 56 23 81 3f
       1.0032158 0.95911986 0.9988161 1.0088909
000030 ed a2 83 3f ec 8b 7d 3f 34 a9 81 3f 93 01 8b 3f
       1.0284096 0.9904163 1.0129762 1.0859855
000040 19 01 7c 3f dc 27 80 3f ff 81 84 3f dd 02 7c 3f
       0.98439175 1.0012164 1.0352172 0.9844187
000050 6a ad 83 3f bf 8a 75 3f 36 66 7e 3f f4 e8 7d 3f
       1.0287297 0.95914835 0.9937471 0.99183583
000060 fd ab 83 3f 94 87 76 3f d1 a2 83 3f 52 3c 82 3f
       1.0286862 0.96300626 1.0284063 1.0174658
000070 ae 68 80 3f 81 45 81 3f 37 7f 79 3f 7f d8 84 3f
       1.0031946 1.0099336 0.9745974 1.0378569

decoders.0.decoder_net.3.bias f4 [32]
000000 f1 84 a1 3c a6 9d 0a 3c 83 fa b5 bd b7 5a a9 bd
       0.019716712 0.008460438 -0.08885672 -0.082692556
000010 82 48 7a 3c a7 42 98 3c 2e 7b a2 3b fd ab 27 bb
       0.015276076 0.01858647 0.004958532 -0.002558469
000020 0e 97 65 bd a9 27 55 bb bc 0c 71 bd dc 58 2a 3d
       -0.05605226 -0.003252486 -0.058850035 0.04158865
000030 e6 89 85 3d 6e 8f 29 bd 7e 91 21 3d 04 29 2c 3d
       0.06520443 -0.04139655 0.039445393 0.042031303
000040 c6 17 e1 3c 71 82 5b 3d 29 18 42 3c e8 ce a3 bc
       0.027477156 0.053591195 0.011846581 -0.019996122
000050 d1 46 35 3c 6d 3f 86 bd 31 1c 58 bd 58 63 de bc
       0.011064247 -0.06555066 -0.05276126 -0.02714698
000060 3d ee 4d 3d f7 ef 32 3d 04 fd ae 3c cd 9f 0d bd
       0.05027603 0.04368588 0.021360882 -0.034576226
000070 ae 09 d1 3c 56 c3 66 bd 01 11 8b bd 7a 7e b2 bc
       0.025517311 -0.05633863 -0.067903526 -0.021788824

decoders.0.decoder_net.3.running_mean f4 [32]
000000 ae 3b f2 3c 1c b1 22 3d 6d 63 d0 3c 13 95 c6 3c
       0.029569473 0.039719686 0.025438035 0.024241006
000010 1e 3b f9 3c 0a 51 d0 3c b6 ee 11 3d 35 65 15 3d
       0.030423697 0.025429267 0.035628043 0.03647347
000020 30 01 1c 3d c5 3e ea 3c 57 30 b7 3c ca 55 e0 3c
       0.03808707 0.028594384 0.022361917 0.027384657
000030 6e 57 fc 3c 6e a7 2d 3d 70 b5 d8 3c ec 9a 0a 3d
       0.030803408 0.042396 0.026453704 0.03383915
000040 82 47 1b 3d 38 83 df 3c 40 87 e7 3c ca 01 33 3d
       0.037909992 0.02728425 0.028262734 0.043702878
000050 25 3f f7 3c 06 e3 32 3d 2c 19 ad 3c f5 8a 90 3c
       0.030181477 0.043673538 0.021130167 0.017644385
000060 2c dc ef 3c 7b 72 13 3d be 66 16 3d 40 bb 16 3d
       0.02927979 0.03599785 0.036719076 0.03679967
000070 8c 8b bb 3c 38 aa e2 3c 33 10 d6 3c 6f 25 1b 3d
       0.02289369 0.027669057 0.026130771 0.037877496

decoders.0.decoder_net.3.running_var f4 [32]
000000 9f 04 df 3a 08 d9 de 3a 12 b1 3b 3a 71 7d 2f 3a
       0.0017014927 0.0017001936 0.00071598694 0.00066944124
000010 d8 04 9f 3a 04 3c 2f 3a 57 ed 51 3a 58 a9 4a 3b
       0.0012132181 0.0006684663 0.00080080837 0.003092369
000020 96 c6 cb 3a b6 87 b8 3a dc 31 45 3a 61 6f 2b 3a
       0.0015546854 0.0014078531 0.0007522383 0.0006539729
000030 47 36 27 3b 84 f5 3d 3b 55 95 1f 3a 14 e4 15 3b
       0.002551453 0.002898545 0.0006087621 0.002287154
000040 43 f1 fd 3a db 3c 26 3a f7 39 25 3a 0b 65 f5 3a
       0.001937427 0.00063414656 0.0006302888 0.001872213
000050 3b 1e b4 3a d8 2f 29 3b 80 95 1e 3a da 29 79 3a
       0.001374192 0.002581587 0.0006049499 0.00095048326
000060 78 26 85 3a 90 2e cc 3a 81 ca c4 3a ff 6b b3 3a
       0.0010158559 0.0015577842 0.0015013964 0.0013688802
000070 ba e7 1a 3a 45 dc 47 3a 9d 4f 1c 3a d1 06 17 3b
       0.0005909164 0.000762407 0.0005962791 0.0023044834

decoders.0.decoder_net.4.weight f4 [32, 32, 3, 3]
000000 80 a2 da 3b 40 41 6b 3d e5 2d f8 bb d3 0c 53 3d
       0.0066722035 0.057435274 -0.0075738304 0.051525902
000010 0f 39 27 3d 8d 4d bf 3c 2b 6c 3c bd 42 f0 13 bd
       0.0408259 0.023352409 -0.046001595 -0.0361178
000020 ec 61 a8 bb 4b 46 28 bd d7 18 32 bd 29 8b c0 bc
       -0.0051386263 -0.04108266 -0.04348072 -0.023503857
000030 4b 3a 62 bb 6f ea 4d bd f9 9f c1 3c 9d fd 1d 3d
       -0.0034519609 -0.0502724 0.023635851 0.038571943
000040 97 39 8c bc 15 e4 dc 3c dd 3a 14 bd 74 a3 04 bd
       -0.017117305 0.026964227 -0.03618895 -0.032382444
000050 2e b6 62 3c 4a ef 55 3b 66 fe 5f 3d fc f1 48 bd
       0.01383738 0.0032643848 0.054685973 -0.0490589
000060 66 4d 28 bd 3e 89 9d 3b 73 bb 6d bd 4b c8 89 3d
       -0.041089438 0.0048076203 -0.058040094 0.06727656
000070 8f bb af bc a4 ce 5d bd e0 bf 54 3d f6 4b 69 3c
       -0.02145174 -0.054152146 0.0519408 0.014239302
000080 23 9f f8 bc 9f 99 03 bd 9c fd 7e bc eb d9 80 bd
       -0.03034932 -0.032128926 -0.015563395 -0.062915646
000090 98 60 74 bc ce d1 6b 3d 1a 43 81 3c 84 c2 ce 3b
       -0.014915608 0.057573132 0.015779067 0.006309809
0000a0 97 e0 a2 bd d7 c4 19 3d 68 a5 c4 3b 1b 06 d6 3c
       -0.07952993 0.037541237 0.0060011633 0.026125958
0000b0 0b 18 80 3d 5d ba 23 3c 3b bd 54 3d 55 98 15 bd
       0.06254586 0.009993163 0.051938277 -0.03652223
0000c0 4e 7c 65 3d 5a 52 84 bd 0a 75 03 3d 30 ef b4 bc
       0.05602675 -0.0646102 0.03209404 -0.02208671
0000d0 08 ef 69 bc 4d 88 4f bd a9 a0 ad 3b 19 f0 73 bd
       -0.014278181 -0.050667096 0.005298693 -0.059555147
0000e0 b8 eb 90 3d 9b bc d4 3b 12 88 23 3d da 68 58 3d
       0.0707621 0.00649221 0.03992469 0.05283437
0000f0 3f 57 40 bd 2c e5 47 3d d9 e6 4e 3c e2 2b 21 3d
       -0.046958204 0.04880254 0.012628281 0.03934849
000100 01 15 ab 3c f3 18 cf bc 27 26 d9 bc 9b 5e b4 3c
       0.020884039 -0.025280451 -0.02650745 0.022017768
000110 a4 d5 72 3d 16 ca 3d bd 1c 10 a3 3c 71 91 69 3d
       0.059285775 -0.046335302 0.019905142 0.05702347
000120 df 90 76 3d c5 42 ac 3d 06 f3 dc bc ee 9d 37 bc
       0.060196754 0.08411173 -0.026971351 -0.011207087
000130 10 4c 59 bc 49 ca fc 3b ea 3f 04 bd bf 57 a9 bc
       -0.013262764 0.007714544 -0.032287516 -0.020671723
000140 af 0a 88 3d d6 23 4a bd 7d 0f 47 bc 35 d5 00 3d
       0.06642663 -0.049350582 -0.012149689 0.03145333
000150 c9 81 20 3d a3 16 e1 3a bc 2f 42 bc 2a 67 67 3d
       0.039186273 0.0017172884 -0.011852201 0.05649487
000160 33 36 11 bd 62 ec 95 3b 8d 32 a6 3c 74 82 9e 3b
       -0.03545208 0.004575298 0.020287776 0.0048373286
000170 3b 6a 98 3c 3a 10 a5 3d fe 82 a8 3c 4b 54 75 3c
       0.018605342 0.080597356 0.020570274 0.01497371
000180 db ed 44 bd 97 ce 8d 3c f8 3b 00 ba 87 ef 86 bd
       -0.0480784 0.017310424 -0.00048917485 -0.06588655
000190 f7 3f 8b bc 72 36 36 3d da f9 8b 3d 05 5c 89 bd
       -0.016998274 0.044485517 0.06834765 -0.067070045
0001a0 71 30 ef 3c f5 64 1f 3d ca c7 ba bd 19 50 1b bd
       0.029197903 0.03891464 -0.09120138 -0.037918184
0001b0 e6 fa 6d bd 1a 5a 53 3d b1 d3 30 bd 06 dc 17 3d
       -0.058100604 0.0515996 -0.043170635 0.037075065
0001c0 ed 20 22 3d af 97 cc bb 40 37 01 3d 39 f2 02 bc
       0.03958218 -0.006243668 0.03154683 -0.007992321
0001d0 66 82 d0 3c 6c 7a 8d bc 5e 5f d9 bb e3 a4 a6 bd
       0.025452804 -0.01727029 -0.006633683 -0.081369184
0001e0 8a 75 31 3c 91 da 71 bd f2 d6 09 ba e4 c5 2c 3c
       0.010831246 -0.05904633 -0.00052581646 0.010545228
0001f0 78 6f f6 3c 17 e6 22 bd 4d 30 ae 3b a0 69 3a 3b
       0.03008245 -0.039770212 0.0053158165 0.0028444305
000200 9b 07 82 3d 26 89 86 39 54 2b 83 3c 48 0b 8c 3d
       0.06349107 0.00025660655 0.016011871 0.06838089
000210 1b 0d f8 3c 82 38 18 3c e3 e2 aa bb 33 b0 52 bc
       0.030279687 0.009290816 -0.0052150353 -0.012859392
000220 04 c1 57 3d 60 a8 b0 3c ab 57 ea bc 2d da 16 bd
       0.05267431 0.021564662 -0.028606256 -0.036829162
000230 c7 24 9f 3c 12 29 43 3d d7 22 f7 3c 21 eb 1b 3d
       0.019426716 0.04764659 0.03016798 0.038066033
000240 f2 4b 83 bc 5e d1 05 bd 41 83 15 bd 3c 2e 38 3c
       -0.016027424 -0.03267037 -0.036502127 0.011241492
000250 91 b1 99 3c 3b a9 11 ba 99 b5 4c 3d 71 44 0a bd
       0.018761428 -0.00055565283 0.049977873 -0.033756677
000260 49 ec 1a bd 7a b7 b8 bc 31 e1 e3 3c be 86 5d 3d
       -0.037822995 -0.022548426 0.02781734 0.05408358
000270 9c 79 3c bd a0 87 d9 3c d9 b4 b0 3d f2 8e 20 bd
       -0.046014413 0.026553929 0.08628244 -0.039198823
000280 1a 87 b4 3c c7 be 9e 3b 03 64 b4 bb 1f fc 15 3d
       0.022037078 0.00484452 -0.0055050864 0.036617395
000290 26 1f 20 bc f9 7f 31 bd 33 b1 7e 3d 83 fc 97 bb
       -0.009773051 -0.043334935 0.06218071 -0.004638256
0002a0 55 38 f3 3c 32 b9 87 3c bc 83 a5 bd 55 1b 8e bc
       0.029689947 0.0165678 -0.08081767 -0.017347017
0002b0 f7 f1 43 ba d1 22 1b 3d e5 4a a4 bc 3a 89 80 bd
       -0.0007474715 0.037875 -0.020055244 -0.06276174
0002c0 dd 18 c8 3c 25 60 69 3d 30 45 95 bd 55 22 02 3c
       0.024425918 0.056976456 -0.07288587 0.007942756
0002d0 c8 76 bf bc bc 8b a8 3c df 97 a9 3c 98 05 60 3d
       -0.023372069 0.020574443 0.0207023 0.054692835
0002e0 5e 58 5d 3c 43 60 f6 3c 99 7a 8b bd ca f7 d7 3c
       0.013509838 0.030075198 -0.06810493 0.026363272
0002f0 ac 05 b1 bb 1f cd 03 3d 10 7e 66 3c b8 30 02 3b
       -0.0054022875 0.03217804 0.014068142 0.0019865464
000300 93 d6 49 bd e1 65 98 bd 51 bb b5 3a 98 15 4f 3b
       -0.0492769 -0.07441307 0.0013865029 0.0031598564
000310 95 dc 55 3c ec ae 04 3d 66 5a 0f 3d 9b 42 53 3d
       0.013053079 0.03239338 0.03499832 0.05157719
000320 ea 07 52 3d bb 4c 31 3d 96 91 f6 bc 9b ee a9 bc
       0.05127708 0.043286067 -0.030098718 -0.020743659
000330 66 3b 27 3d 04 fc 90 bc 0d 8e b9 3d a8 7e 39 3d
       0.04082813 -0.017698295 0.09060297 0.045286804
000340 cf 05 39 3c 27 7f 9b bc 41 01 e0 3b 96 b9 88 3d
       0.011292889 -0.01898153 0.006836087 0.06676023
000350 17 62 26 3d c1 83 df 3c 67 69 12 bd 16 2a 61 3c
       0.04062089 0.027284505 -0.03574505 0.013742944
000360 1b 5f 1d bb 6a 02 6d bd ca f0 79 bd d4 eb 69 3d
       -0.0024012986 -0.05786363 -0.06102065 0.05710967
000370 5d 22 70 3d 52 38 c4 3c 1b 05 22 bd ae 94 78 bd
       0.05862652 0.023952637 -0.03955565 -0.060688667
000380 83 7a e0 3c 3b a2 10 3b c7 79 9c bc 35 a5 48 bc
       0.027402168 0.0022069353 -0.019101037 -0.01224642
000390 75 bd 7b bd 93 0e b8 3c f8 01 9d 3c 5e f4 57 bd
       -0.061459977 0.022467887 0.019165978 -0.05272328
0003a0 18 8a c3 bc 24 00 d8 3b fc 61 3f bd 57 9d 91 3d
       -0.02386956 0.0065918136 -0.046724305 0.07110088
0003b0 96 82 86 bc 9c 30 03 3d ba 40 9c 3b 15 8c 69 bd
       -0.01641969 0.03202878 0.004768458 -0.05701836
0003c0 5b 77 a9 bd 3b 4a 49 bd b6 6e 72 3d 0b 91 41 bd
       -0.082747184 -0.049143057 0.059187613 -0.047257464
0003d0 bf 1e 1b bd d9 89 7a 3c 86 4f dc bb 70 52 2d bd
       -0.03787112 0.0152916545 -0.006723347 -0.042314947
0003e0 6a 3a e6 bc 89 05 84 3d 1e 6e 17 bc e2 45 a5 bb
       -0.028104026 0.06446368 -0.009242563 -0.005043731
0003f0 5d e1 f6 bc e5 8e 55 bd c9 8f 4c bd 45 7d 92 3a
       -0.030136758 -0.052138228 -0.04994181 0.0011176249

decoders.0.decoder_net.4.bias f4 [32]
000000 53 19 9c bd e1 6e e0 bd 68 c3 b2 3d bc 06 60 3d
       -0.07622018 -0.109586485 0.08728677 0.054693922
000010 cb 37 04 bd 7e f9 03 3e c3 71 90 bd c8 65 37 bd
       -0.03227977 0.12888142 -0.07052948 -0.0447748
000020 08 44 3a bd e3 12 33 3c 90 c7 10 3d 99 34 89 3d
       -0.045475036 0.010929796 0.035346568 0.06699485
000030 84 78 31 bd fb 44 fa 3c 9d 40 bd bd 89 bb 00 3d
       -0.043327823 0.03055047 -0.0924084 0.031428847
000040 9c fa 2a bd d6 97 f5 3d 03 9b e6 3d c2 d8 66 3b
       -0.041742906 0.11991851 0.11260035 0.0035224413
000050 b8 9e 84 bd 82 ee 9d bd 24 aa 5c 3d 9b 98 4c 3c
       -0.06475586 -0.077115074 0.053873196 0.012487556
000060 4d ae 22 bd 8b 5b f5 bb 4f ad 25 bc ac b6 97 bc
       -0.039717007 -0.0074877194 -0.010112121 -0.018519722
000070 51 19 58 3d 4d 06 13 3d 09 65 0a 3d 3b 7d 0e bd
       0.05275852 0.03589468 0.03378776 -0.034787398

decoders.0.decoder_net.6.weight f4 [32]
000000 9a 31 79 3f a6 63 75 3f d9 97 79 3f 40 bc 74 3f
       0.9734131 0.95855176 0.97497326 0.95599747
000010 1a 38 70 3f 49 4f 77 3f e1 aa 6e 3f 53 25 73 3f
       0.93835604 0.96605355 0.9322949 0.9497883
000020 f4 a9 6e 3f cd 16 81 3f 7c 43 80 3f ec 8b 71 3f
       0.9322808 1.0085083 1.0020595 0.9435413
000030 80 72 70 3f 9d 18 74 3f 46 19 72 3f 7c 9e 77 3f
       0.93924713 0.95350057 0.94569814 0.967262
000040 ac 24 6e 3f 82 5d 71 3f 04 b8 74 3f dc e4 7d 3f
       0.93024707 0.94283307 0.95593286 0.99177337
000050 66 80 76 3f cc 6e 82 3f 73 80 68 3f c9 21 6f 3f
       0.9628967 1.0190063 0.90821 0.9341093
000060 89 51 78 3f be e0 7c 3f f3 91 65 3f bf 65 74 3f
       0.9699941 0.9878043 0.89675826 0.9546775
000070 2f 5d 6e 3f 05 fa 79 3f f4 8b 6f 3f 53 0d 71 3f
       0.93110937 0.97647125 0.93572927 0.94160956

decoders.0.decoder_net.6.bias f4 [32]
000000 65 7c 13 3d 7f 9d 3a 3d 99 12 77 3d de 6a 2e bd
       0.036007304 0.045560356 0.06032047 -0.042582385
000010 f9 f8 ad 3d 79 37 86 3c 0e f6 20 3d 29 e7 87 bc
       0.084947534 0.016383873 0.039297156 -0.016589718
000020 4e 10 6d 3d 18 57 bc bc cb 19 8c 3c d1 c6 c9 bd
       0.057876877 -0.022990748 0.017102143 -0.09852374
000030 23 a4 47 bd ab d3 0c 3e 6b 4e 84 3d 11 e9 17 bd
       -0.048740517 0.1375262 0.064602695 -0.037087504
000040 a3 5f 9c bd 9b 6e e7 bc 5e 8e 91 bd 36 d6 53 bd
       -0.07635429 -0.028250983 -0.071072325 -0.05171796
000050 05 c7 f3 3d 7b 19 d6 bd 79 3b c7 bc 8e d6 cd bc
       0.11903194 -0.10454079 -0.024320351 -0.025126722
000060 16 81 87 3d 92 76 cd bd 52 a2 12 3d a2 a6 97 3d
       0.06616418 -0.10032381 0.035799332 0.074048296
000070 49 d6 27 3d e1 87 14 be ee f2 c6 3c 11 16 e0 3b
       0.040975843 -0.14504959 0.02428576 0.006838568

decoders.0.decoder_net.6.running_mean f4 [32]
000000 b8 a7 de 3c 8a 22 e2 3c a6 4f 11 3d 0e fa 07 3d
       0.027179584 0.02760436 0.03547635 0.033197455
000010 50 80 eb 3c f6 4c 14 3d 5d 47 e9 3c aa e7 01 3d
       0.028747708 0.03620621 0.028476411 0.031715073
000020 1b 1a f7 3c a2 2a 04 3d 96 45 07 3d 31 6f 07 3d
       0.030163815 0.03226722 0.033025347 0.033065025
000030 a0 37 ea 3c ae c4 06 3d 97 1a e4 3c 82 0e fa 3c
       0.028590977 0.032902412 0.02784471 0.030524496
000040 4b d1 f4 3c a3 dd 15 3d a3 a3 18 3d 13 10 f9 3c
       0.029884955 0.036588322 0.03726543 0.030403173
000050 3c 61 ea 3c ac e0 e2 3c 69 90 06 3d 95 2d fb 3c
       0.028610818 0.027695023 0.032852564 0.030661384
000060 97 ef ec 3c c0 12 05 3d c7 d1 00 3d 90 f7 02 3d
       0.02892284 0.032488585 0.03145006 0.031974375
000070 ef fc 04 3d ba 02 00 3d 4a 8c fd 3c 54 06 f2 3c
       0.03246778 0.0312526 0.030950684 0.029544033

decoders.0.decoder_net.6.running_var f4 [32]
000000 87 27 e5 38 92 7c 18 39 99 57 8e 39 ec b8 4f 39
       0.000109269335 0.00014542256 0.00027149616 0.00019809947
000010 e5 cc b7 38 8d b1 8c 39 b7 b3 b8 38 cf 9b da 39
       8.7642846e-05 0.00026835166 8.807278e-05 0.00041696287
000020 f2 98 66 39 5b cd 72 39 51 12 89 39 8d f8 1c 39
       0.00021991486 0.0002315542 0.00026144323 0.00014969912
000030 6c c7 e4 38 6f 03 78 39 db d5 1b 39 75 45 09 39
       0.000109090324 0.00023652402 0.0001486162 0.00013091213
000040 a8 a1 34 39 97 fe ec 39 19 ac dc 39 12 ef 31 39
       0.0001722636 0.00045203112 0.00042089893 0.00016969096
000050 30 ee cc 38 5c 7a f7 38 5c ae 1e 39 8b 5a 0d 39
       9.771844e-05 0.00011800669 0.00015133008 0.00013480538
000060 78 a7 28 39 7c ad 5e 39 60 1b 45 39 78 45 b0 39
       0.00016084115 0.00021236198 0.00018797582 0.00033621094
000070 4e c5 10 39 5e 81 0d 39 75 6c 1e 39 68 ae 26 39
       0.00013806412 0.00013495001 0.00015108458 0.00015895965

decoders.0.decoder_net.7.weight f4 [32, 16, 3, 3]
000000 58 d4 b4 bd a7 d4 f3 bc 4c fe 5e bd cd c8 75 3d
       -0.08829564 -0.029764486 -0.054441735 0.06000595
000010 6f 27 c7 bc 20 ef cb 3c 10 cb 30 3d 85 db d5 3c
       -0.024310796 0.024894297 0.043162405 0.026105652
000020 d4 34 20 bd c3 5b 40 3d 7a a3 1b 3d 5a df b3 3c
       -0.03911288 0.04696251 0.0379977 0.021957088
000030 4f 9d 64 3d 8b 37 77 3c 7c 67 5f 3d 0d 82 0c bd
       0.055814084 0.015088926 0.05454205 -0.034303714
000040 01 7f ea 3c 92 41 34 bd 54 4b b6 bc 68 5d a2 3d
       0.028625013 -0.044007845 -0.022252716 0.07927972
000050 df 68 02 3d d5 ff 8a 3d 18 b0 34 bd 4d c4 1e 3d
       0.031838294 0.06787077 -0.04411325 0.038761426
000060 da 00 b9 3c 75 19 d8 3c 9b f0 79 bd a6 32 ae 3d
       0.022583414 0.026379326 -0.061020475 0.08505754
000070 90 4c 9f 3c f9 c6 08 3d 91 c0 d0 3d 45 b9 54 bc
       0.019445688 0.03339288 0.10192979 -0.012983625
000080 ff 9b 43 bd ed 18 fe 3c dc c2 3a bd 47 e4 5e bd
       -0.04775619 0.031017745 -0.04559599 -0.05441692
000090 47 71 89 3c 38 30 b2 b9 c9 66 d6 bc 4c c2 8b bd
       0.016777648 -0.0003398673 -0.026172059 -0.068241686
0000a0 7c 90 09 3d 87 f5 39 bd bf 25 50 3c 75 85 b0 3c
       0.033585057 -0.04540017 0.012704312 0.021548012
0000b0 f2 fe 8a bc 83 5f 02 bd 54 f3 dd bd cd 37 25 3c
       -0.01696727 -0.03182937 -0.10837427 0.010084105
0000c0 fc e4 dc 3c f1 55 4b 3b 20 30 6b 3d eb 52 8c 3b
       0.026964657 0.0031026567 0.057418942 0.0042823455
0000d0 97 3f ab bd e1 a8 dd bc 3b de 64 bd dc 8d 02 bd
       -0.08361738 -0.027058067 -0.055875998 -0.03187357
0000e0 c6 33 20 bd f3 05 96 bd 03 f1 d7 bd 39 c8 f9 3c
       -0.039111875 -0.073253535 -0.10544016 0.030490981
0000f0 e4 12 cd bd c9 9f 25 bd 0c 4e 76 bd 48 fc 4d bd
       -0.10013369 -0.040435586 -0.060133025 -0.050289422
000100 aa 1e 31 bd b2 76 a2 bc 70 88 cb bc ea ef 79 3d
       -0.043242134 -0.019831989 -0.024845332 0.061019816
000110 07 e5 3c bd 62 22 5f 3d 5d 31 3d 3d 11 ea 7f bd
       -0.046116855 0.05447615 0.046189655 -0.062479082
000120 7c a0 25 ba 81 58 2f bd 3e 4e eb 3c f4 75 9b bd
       -0.00063181645 -0.042809013 0.028723832 -0.07590857
000130 b5 0d d5 ba 47 82 94 bd b7 7c 75 bd 08 66 84 bc
       -0.0016254695 -0.07251411 -0.05993339 -0.016161934
000140 12 e3 df bc 77 fb a6 bd c0 db fd bc 34 87 36 bd
       -0.027329955 -0.08153432 -0.030988574 -0.044562533
000150 7b c7 bf bd 6c 91 75 bd 4a 28 1b bb 26 b7 79 bd
       -0.0936422 -0.05995314 -0.0023675137 -0.06096568
000160 3e b7 13 bd 7d 67 de 3b e5 29 80 3d db bb b6 3d
       -0.036063425 0.006787239 0.06257991 0.08922549
000170 3d c8 85 3d 51 e8 6b 3b 1b 00 17 bd 29 a8 d3 bc
       0.06532333 0.0035996626 -0.036865335 -0.025837021
000180 5a e8 85 bd 09 51 42 3d c6 41 28 bd 43 6c a2 bd
       -0.06538458 0.047440562 -0.04107835 -0.079308055
000190 b4 fb ae bc 7d 4a d3 3c ed d6 90 3d 47 e8 b8 bd
       -0.021360256 0.025792355 0.07072244 -0.090286784
0001a0 5b 68 b3 3d ae 5d b2 3c b2 48 d1 3d 87 98 63 bd
       0.087601386 0.021773186 0.10218944 -0.055565383
0001b0 e3 7c bb bc b7 12 bc bd 69 18 55 3c c9 de 87 bd
       -0.022886699 -0.09183257 0.013006308 -0.0663429
0001c0 ba 38 cc bc 26 0c a5 bc 7c e1 26 bd 7c 3d 83 bc
       -0.024929393 -0.020147394 -0.040742382 -0.016020529
0001d0 24 d9 f2 ba 0d 3f 4a bc 3b 38 1b bd 03 70 86 bd
       -0.0018527848 -0.012344134 -0.037895422 -0.06564333
0001e0 af 6c ea bc b8 3b b1 3d e1 e2 25 3d f9 ed 70 bd
       -0.028616278 0.086539686 0.04049957 -0.0588207
0001f0 d5 83 12 3d 01 47 11 3d 75 1b aa bc 4d c4 ed bc
       0.035770256 0.035468105 -0.020765046 -0.029024268
000200 4b 47 c1 3c cc d2 58 bd 12 0c 7d bd 83 10 fb 3d
       0.023593565 -0.052935407 -0.06177909 0.12259009
000210 7e 07 ca bc 69 28 7f 3c 6f f3 a5 3d aa 8e 0e 3d
       -0.024661776 0.015573599 0.08103072 0.034804024
000220 17 04 dd bc e0 e4 54 3c 12 1a 80 bc 3a 90 05 bd
       -0.02697949 0.012994021 -0.015637431 -0.03260825
000230 3a b9 f4 3b 03 7a bc bc 08 66 34 3d 7b 5c 22 bb
       0.00746837 -0.023007398 0.044042617 -0.002477436
000240 62 56 39 3c 35 5a fc bc 93 32 32 bd 4c 02 d6 bb
       0.011312099 -0.030804733 -0.043505263 -0.0065310355
000250 4b f5 ba 3c 95 4f f0 3b 3b e1 e6 ba 5e 14 c3 3d
       0.022822043 0.0073337057 -0.0017614731 0.09525369
000260 b7 02 3e 3d b6 2c cd 3c d5 b8 2e 3d 70 b4 f3 bc
       0.046389308 0.025045734 0.04265674 -0.029749125
000270 de 30 05 be 24 1a da 3b a8 47 0a bc ee b3 be 3d
       -0.13006923 0.0066559482 -0.008439936 0.093116626
000280 96 17 11 bc db a7 9e bd 76 21 63 bd 76 a3 19 3d
       -0.008855721 -0.0774686 -0.055451833 0.037509404
000290 dc 68 6f 3c 52 6a 2b 3c eb 46 07 bd 4c 8e b3 bb
       0.014612403 0.01046236 -0.033026617 -0.0054796096
0002a0 32 32 7d 3d 8e cc 41 bd 7d 3c 25 bd b3 09 b6 bb
       0.061815448 -0.04731422 -0.04034089 -0.0055553555
0002b0 88 45 e6 3b 84 d3 84 3d f4 76 d7 bd 0e 58 76 3d
       0.0070273317 0.06485656 -0.105207354 0.06014257
0002c0 39 a1 af 3c e8 20 ac bb 12 25 12 bd 5c 41 25 3d
       0.021439182 -0.005252946 -0.035679884 0.040345535
0002d0 88 38 8a bb a1 8c 89 3d 7b 18 0d bb e3 40 1d 3d
       -0.004218165 0.06716276 -0.0021529484 0.03839196
0002e0 b4 ca 0f be af aa 03 3d 51 05 c4 3c 1d e0 3a 3b
       -0.14042169 0.0321452 0.023928316 0.002851493
0002f0 88 29 b1 bd ca c4 bd bd 99 ad 9f bd b2 43 b9 3c
       -0.086504996 -0.0926605 -0.07796783 0.022615287
000300 77 60 45 3d dd 2e 35 3d a5 cf ad bd 1b 10 e3 3c
       0.0481877 0.044234145 -0.08486871 0.02771764
000310 be 6e a3 3d 68 b8 f7 3a b8 13 9e 3c d7 5f 13 3d
       0.07980107 0.0018899562 0.019296512 0.035980072
000320 cf 36 39 3d d0 68 6a bc f4 33 71 bd 60 73 78 3b
       0.045218285 -0.014307216 -0.058887437 0.0037910566
000330 97 4b ff 3c b4 76 59 3d 62 91 8d 3d 4c c2 57 bd
       0.031163974 0.05309172 0.06912495 -0.05267553
000340 12 0a 42 3d b0 b6 48 3c 74 42 05 bd a1 35 92 bd
       0.047372885 0.012250587 -0.032534078 -0.07139135
000350 41 59 a3 3d 50 ab 93 bd 4c b5 8f bd 62 ad 5e 3d
       0.07976008 -0.0721041 -0.070170015 0.05436457
000360 a7 15 67 3c c8 3e 83 bd 97 a2 38 3d 1d bd 4d bc
       0.014104283 -0.06408459 0.045076933 -0.012557295
000370 cc b8 6d 3d 81 34 14 bd 26 4b 8a 3d cc 3f b7 bd
       0.058037564 -0.036182884 0.06752615 -0.08947715
000380 df 1e b1 3c 4b cb 01 3b 39 8f 12 3d 12 76 28 bc
       0.021621166 0.001980501 0.03578112 -0.010282056
000390 0b 81 a3 3d d6 76 8f bd 83 07 91 3c 3a ad c4 bc
       0.07983597 -0.07005088 0.017703777 -0.024008382
0003a0 64 0d 66 3d 09 79 00 bd 4c 57 be bb 79 f6 50 3d
       0.056165114 -0.031365428 -0.0058087464 0.051016305
0003b0 3b 1c bb 3d 5e 3e d0 bd 47 0d b9 3d b3 24 1a be
       0.09136244 -0.101681456 0.090357356 -0.15053062
0003c0 2b 7e 3a 3d 29 f8 e7 bc e9 5c cf 3c b2 65 85 bd
       0.04553048 -0.028316574 0.025312858 -0.065135375
0003d0 80 80 b6 bd d9 ca 75 3d 28 d8 b4 3c be 2e da 3c
       -0.08911228 0.060007904 0.022075728 0.026633617
0003e0 5d 5d 13 bd 84 8d 3c 3d 86 47 2a bd 58 27 9e bd
       -0.03597771 0.046033397 -0.041572116 -0.07722348
0003f0 2e 6e 2b bd 14 bc 52 bd 59 4e 10 3d c2 71 3c 3d
       -0.041853122 -0.051448897 0.03523097 0.046006925

decoders.0.decoder_net.7.bias f4 [16]
000000 d1 eb ac bd 6e bc 45 3d 57 9f 9e bd 0a 2a af bc
       -0.08443416 0.048275404 -0.077452354 -0.02138235
000010 58 a0 a4 3d 8a de de 3d 50 4c 0c bc e1 5d fb 3d
       0.08038396 0.1088229 -0.008563116 0.12273765
000020 9b 17 2d 3d 57 13 80 bd 2d 5c 7c bd 70 bb 3d 3d
       0.04225884 -0.06253689 -0.061611343 0.046321332
000030 67 ea 73 bc ff 19 c0 bc d9 c0 96 bd d7 4a a3 bc
       -0.014887429 -0.023449896 -0.073610015 -0.019933147

decoders.0.decoder_net.9.weight f4 [16]
000000 bc e5 74 3f fc 12 76 3f af 57 74 3f 3d 93 79 3f
       0.95663047 0.9612272 0.95446295 0.9749029
000010 63 2e 76 3f 16 06 75 3f 20 ff 74 3f 0c 19 75 3f
       0.9616453 0.9571241 0.9570179 0.95741343
000020 95 73 73 3f c1 90 75 3f 9f 3f 73 3f 4e cd 74 3f
       0.9509824 0.95924 0.95018953 0.9562577
000030 e4 ad 74 3f ee 8b 74 3f 32 aa 75 3f 52 de 74 3f
       0.95577836 0.95526016 0.9596282 0.95651734

decoders.0.decoder_net.9.bias f4 [16]
000000 30 eb 14 bd 1d 63 dd 3d 03 f0 6b 3d ff b4 e4 3d
       -0.036357105 0.1080992 0.05760194 0.11167335
000010 3f 99 16 bd 94 a5 36 3e ae 0a 00 be 93 d5 ca 3d
       -0.03676724 0.178366 -0.12504074 0.09904017
000020 56 0f 1f be f8 15 ee 3d 9d 45 10 3e bf ab e9 bd
       -0.15533194 0.11625284 0.14089055 -0.11409711
000030 d3 54 a1 3c 3a cf 46 bc fd 88 dc bd b6 ee cc 3d
       0.019693768 -0.012134368 -0.10768316 0.10006468

decoders.0.decoder_net.9.running_mean f4 [16]
000000 bc e4 61 3d c0 40 8a 3d e3 38 6b 3d f0 10 84 3d
       0.05514978 0.06750631 0.0574273 0.06448543
000010 a6 6d 8d 3d a9 a7 95 3d 04 33 78 3d 6d df 90 3d
       0.069056794 0.07307369 0.060595527 0.07073865
000020 46 0a 83 3d 38 6c 70 3d ea 8b 70 3d e8 93 85 3d
       0.06398444 0.058696955 0.058727182 0.065223515
000030 96 91 70 3d 4f 01 76 3d 69 66 67 3d 80 f4 75 3d
       0.05873259 0.06005984 0.05649415 0.060047626

decoders.0.decoder_net.9.running_var f4 [16]
000000 d6 ef 00 3a 0e ae 88 3a 53 96 34 3a 1e 85 51 3a
       0.0004918551 0.0010427849 0.0006888855 0.00079925533
000010 e5 22 84 3a a2 d5 d3 3a d0 37 1e 3a ed 27 ab 3a
       0.00100812 0.001616169 0.00060355384 0.0013058163
000020 ab 4e 25 3a 3c 40 2b 3a b2 bd 07 3a c9 65 41 3a
       0.0006305973 0.0006532704 0.0005178108 0.0007377533
000030 a8 f5 10 3a 06 a4 47 3a 6f 40 39 3a d9 ad 36 3a
       0.00055297697 0.0007615689 0.00070667913 0.00069686543

decoders.0.decoder_net.10.weight f4 [16, 1, 3, 3]
000000 7f 59 00 be 0c ca b0 3d 32 7b 22 be c2 2e 36 3e
       -0.1253414 0.086322874 -0.15867308 0.17791274
000010 e0 2e df bd bb c6 04 bd 85 50 1a be 6f c4 84 bd
       -0.108976126 -0.032416087 -0.15069778 -0.06482779
000020 57 a8 a5 3d bc 68 26 3d 74 73 80 be f9 1c da 3d
       0.08088749 0.040627226 -0.25088084 0.10650057
000030 f6 d1 12 3e 6f c2 39 3e 7f 3b 88 3e 55 c8 cd bc
       0.14337906 0.18140577 0.26607892 -0.02511994
000040 a7 d8 84 3e da c2 8d 3e 7a 1a 5f 3e 91 7b f2 3d
       0.25946543 0.27687722 0.21787444 0.11839975
000050 f9 e6 93 3e b0 3c 64 be e8 f7 6e 3e 49 69 4f be
       0.28887156 -0.22288775 0.23336756 -0.20255007
000060 c2 bb 48 3e e6 50 42 3e 17 e7 8c 3d 09 86 d7 3d
       0.19602874 0.18976173 0.068800144 0.10523612
000070 c5 b5 73 3d 78 01 b3 3d a4 e6 00 3e e9 48 52 3e
       0.05949952 0.087405145 0.12587982 0.20535626
000080 04 cb 40 3d ac 57 ad 3d 50 ec 63 3e 21 31 ec bd
       0.04706861 0.08463988 0.22258115 -0.11532808
000090 6f 70 3a 3e 68 c5 5b 3e 39 0d 88 3e 1a f6 24 3e
       0.18206953 0.21462023 0.26572588 0.16109505
0000a0 56 de 8c bd c9 b9 91 be 2a 16 04 bc f4 67 80 3d
       -0.06878345 -0.28462055 -0.008061925 0.062698275
0000b0 55 87 8d be fb d6 e4 3d 98 7c 67 be c2 aa 5b 3d
       -0.27642313 0.11173817 -0.22606122 0.053629644
0000c0 38 72 a9 3d 01 04 91 3e f8 26 00 3e 0d fe 46 be
       0.082737386 0.28323367 0.12514865 -0.1943285
0000d0 81 02 16 3e ab c2 81 be 2c 06 8f 3e b6 dd 7e be
       0.14649393 -0.25343832 0.27934396 -0.24889264
0000e0 0a 2e eb bd 13 14 2d be d7 1e 60 bd 71 61 ea bd
       -0.11483391 -0.16902189 -0.05471691 -0.11444367
0000f0 19 e1 57 3e 54 49 15 be 9f 46 1f be 91 3c 8d 3e
       0.21081962 -0.14578754 -0.15554284 0.2758527
000100 58 cf 85 be 79 55 19 3e 90 0f 1e 3e 7f 37 2e 3e
       -0.26134753 0.14974011 0.15435624 0.17013358
000110 f0 43 86 3d 8e e2 43 be 04 18 90 3e c5 0f 7f 3e
       0.06555927 -0.19129393 0.28143322 0.2490836
000120 33 28 cf bb 2e 9f 93 bc 37 71 94 3a 96 5d 58 3e
       -0.006321931 -0.018020239 0.0011325245 0.2112945
000130 87 70 95 be 27 e6 85 be de 78 ff 3a 1a 0e 65 3d
       -0.29187414 -0.26152155 0.0019490977 0.05592165
000140 c0 99 02 be ba 0f 62 3e 62 9c 3d 3e db ca 8c 3c
       -0.12753963 0.22076312 0.18516687 0.017186573
000150 58 fc 5c bd a0 bb 79 3e 95 43 97 bd c7 35 67 be
       -0.05395159 0.2438798 -0.07385937 -0.22579108
000160 03 c0 c9 3d 33 8c 16 3e 18 53 61 3d 2d d0 0b 3e
       0.098510765 0.1470192 0.055010885 0.13653632
000170 56 b2 1c bd 0f 55 d0 3d c2 bf 45 3e 0b 47 18 3e
       -0.038256012 0.10172474 0.19311431 0.1487085
000180 17 b4 dd bd e7 c9 87 3e ff b2 94 3d ad ed ac 3d
       -0.10825365 0.26521227 0.07260703 0.084437706
000190 78 a3 a0 be 2a 11 4f 3b 9c 84 2b 3e 80 e2 09 be
       -0.31374717 0.0031595924 0.16749805 -0.13465309
0001a0 bc 2a 59 be ed 1e 48 bd 1a 74 61 be 96 ef 5e bd
       -0.21207708 -0.048857618 -0.22016945 -0.054427706
0001b0 80 37 6b 3b 7c 32 ac bb 36 4a 5d be c5 f5 be bc
       0.0035891235 -0.0052550416 -0.2161034 -0.023310551
0001c0 5e 72 57 be 9b 84 2b 3e 71 db 3e 3e 6c de 57 3e
       -0.21039721 0.16749804 0.18638398 0.21080941
0001d0 b8 4e 08 3e ca 51 8a bd 09 53 83 be ea 64 8d be
       0.13311279 -0.06753881 -0.25649288 -0.27616054
0001e0 1e 86 d7 bd 23 a0 24 3e 77 34 51 3e 7c 39 4d be
       -0.10523628 0.16076712 0.2043017 -0.2004146
0001f0 24 c2 a9 bd 3c 5a 97 bd b8 b6 cb bd e9 13 22 3d
       -0.082889825 -0.07390258 -0.0994696 0.03956977
000200 57 e8 36 3e 30 af 2c be 0e c7 fe bd 45 30 d8 bd
       0.17862068 -0.16863704 -0.124403104 -0.10556082
000210 1a 57 8f be 1d 37 87 3d 26 b4 cf bd c3 31 06 be
       -0.2799614 0.06602309 -0.101417825 -0.1310492
000220 f2 f1 61 be dc 80 dc 3d f0 3b d8 3d 04 0a 34 3e
       -0.22064951 0.107667655 0.10558307 0.17581946
000230 85 7b 51 3e ee 0f 7a 3e 49 77 9c 3e 4c 65 39 3e
       0.20457275 0.24420139 0.30559757 0.18105048

decoders.1.decoder_net.0.weight f4 [512, 2]
000000 d6 9a 0b be 38 07 6c bc 51 67 b6 3e f6 25 55 3e
       -0.13633284 -0.014406018 0.356257 0.20815262
000010 19 5d 10 3f df 01 c4 be 58 da e0 be 39 a3 b6 3e
       0.56392056 -0.38282678 -0.43916583 0.35671404
000020 d3 7a 54 be cc d9 27 be 1f bb a1 3d c3 6d 0e 3f
       -0.20749979 -0.16391677 0.07897019 0.55636233
000030 f9 bb 9e 3e db 36 4d bd 6a ee 02 be 08 07 7d be
       0.31002787 -0.050101142 -0.1278626 -0.24709713
000040 70 cd 12 3f d1 be 56 3e a5 d7 1e bf e3 75 4a 3e
       0.5734472 0.20971228 -0.620478 0.19771533
000050 ba 0a b0 3e 62 94 02 3c ac 4d ac be 5d 10 2f be
       0.34383184 0.0079699475 -0.3365301 -0.17096086
000060 ac 42 05 3f 31 a5 47 be 11 5f cc 3d 92 47 05 3f
       0.5205486 -0.1949661 0.0997907 0.5206233
000070 b7 da 03 3f 9c 45 93 3e d2 18 03 bf 81 85 62 3e
       0.5150561 0.28764045 -0.5120975 0.2212124
000080 d3 4f 19 bf c5 4e 43 be dc 33 c7 3e 3d ce c4 be
       -0.5988743 -0.19073017 0.38906753 -0.38438597
000090 e9 bd df 3e 0d dd 9f bd bf 1d de be cb 9b fa 3e
       0.43699577 -0.07805834 -0.4338207 0.48946986
0000a0 1e e7 c3 be e5 6c de be a7 6a 8b be a1 7e d4 bd
       -0.38262266 -0.43442455 -0.27229807 -0.10375715
0000b0 88 cf c9 be be da 3c be 50 58 ca 3e 81 c8 f4 3e
       -0.39416146 -0.18442819 0.39520502 0.47809222
0000c0 e9 29 0d bf 27 da 07 bf 65 a1 a3 bd 97 18 66 bd
       -0.55142075 -0.5306725 -0.07989768 -0.056175794
0000d0 2e 9b d1 be 06 92 a8 3e bd d2 2b bf e7 3f 0d be
       -0.40938705 0.32923907 -0.67118436 -0.13793908
0000e0 e8 4b 41 3e 86 9f c7 bc 38 96 ce 3e 43 82 38 bf
       0.18876612 -0.024368059 0.40348983 -0.72073764
0000f0 66 f6 04 3e b4 13 1e 3d 76 cc 1c bf 59 08 12 bf
       0.12984619 0.03859301 -0.6124948 -0.5704399
000100 a8 29 24 3f de 41 3b be b1 e0 8c 3e 6d 91 e9 3e
       0.6412606 -0.18286845 0.27515176 0.45618764
000110 3c 33 8e be 8c 3d b0 3b c0 54 0f 3f a9 d0 23 3f
       -0.27773464 0.0053784307 0.55988693 0.63990265
000120 51 27 e1 3e f4 a3 06 3f c6 f5 24 3f ac 8e 8c 3d
       0.4397531 0.5259392 0.6443752 0.0686315
000130 e0 a3 0a 3f a0 aa 17 bf 53 b5 e9 3e c7 b5 9a 3e
       0.54156303 -0.5924473 0.45646152 0.3021681
000140 a7 60 59 bd 29 eb f2 be 4e bb 8e 3e b2 5d c0 3e
       -0.05307069 -0.47445038 0.27877277 0.37571484
000150 15 97 a4 3e 23 75 1a bd 76 26 f0 3e b8 cb c5 3e
       0.32146516 -0.037709367 0.46904343 0.38631988
000160 11 92 c7 3e 0a b1 36 3d 47 f7 cc 3e f8 37 31 3f
       0.38978627 0.04460243 0.40032408 0.69226027
000170 f5 73 e1 be 99 0e 9a 3e ab 92 df be a9 c5 13 3e
       -0.4403378 0.30089262 -0.43666586 0.1443087
000180 fd e4 e8 3e 29 4f e3 bd a8 fb a0 3e 66 5f 7f be
       0.45487204 -0.11099083 0.31441998 -0.24938735
000190 12 e1 e1 be ca fd ab 3d 08 15 55 3d 6d 69 ce 3d
       -0.44117028 0.08398016 0.05202201 0.10078702
0001a0 37 7a e9 3e 32 7e a4 3d 7c 06 d2 3e 1c 6e e6 3e
       0.45601055 0.08031882 0.41020572 0.45005882
0001b0 49 eb c5 3e c1 03 d1 be 2a dc b6 3d d6 ce b7 bc
       0.3865607 -0.40823177 0.08928712 -0.022437494
0001c0 67 2b f7 3e f9 90 95 3e 6f 8d 01 3e 83 dd a2 3e
       0.482753 0.29212168 0.12651609 0.31809625
0001d0 37 0c 38 3f 48 ad 20 3f 2e 5b 17 bd b2 0f aa 3e
       0.7189364 0.62764406 -0.03695219 0.332151
0001e0 ea f0 e4 3e 37 a2 7d 3d 64 e8 7f 3c 56 92 a1 be
       0.44715053 0.06192228 0.015619371 -0.31556958
0001f0 1e 0b a1 be 69 7b 8c be d1 4e 45 3e 0b 3e 82 3e
       -0.31453794 -0.27437904 0.19268347 0.2543796
000200 83 af 41 3e 92 ef 9b 3e b4 99 ec 3d 43 86 25 be
       0.18914609 0.30456215 0.11552754 -0.16164498
000210 ca 7f 23 bf d9 1e 20 bf c1 d3 de bb a4 fa 02 3f
       -0.63866866 -0.6254707 -0.0068001454 0.511637
000220 13 ab d7 3e e2 b1 8b 3e dd ea 8d be 2e 9d 4a bd
       0.42122707 0.2728415 -0.2771825 -0.049466304
000230 52 24 1b 3f f1 9a f5 be d6 40 d2 be 1d 90 1e 3f
       0.60602295 -0.47969773 -0.4106509 0.6193865
000240 3b 6a 0a 3e 86 12 10 3f 35 b2 dd be c5 a9 22 3f
       0.13517086 0.56278265 -0.43300024 0.635403
000250 d1 aa 0b bf 26 4e af bc e6 d0 77 3e 8d 1e 02 3f
       -0.5455752 -0.021399569 0.24200782 0.50827867
000260 25 71 98 be b3 49 da bd 78 29 96 3d 20 ad f2 be
       -0.29773822 -0.10658588 0.07332128 -0.4739771
000270 79 ef a6 be a4 a2 2e bf bb 37 24 bf a6 46 62 3e
       -0.32604578 -0.6821692 -0.6414754 0.22097263
000280 b6 d5 9d 3e ec ac 0a bf 52 73 12 3f 97 a5 22 be
       0.3082711 -0.5417011 0.57207215 -0.1588348
000290 ca 36 5f bc 22 74 cc 3e 36 7f 44 be 94 af ea 3e
       -0.013623903 0.39932352 -0.19189152 0.4583708
0002a0 11 56 15 be 99 b8 ad bb e1 d7 85 3e 55 4d 5d 3e
       -0.14583613 -0.005301547 0.26141265 0.21611531
0002b0 16 34 96 3e a2 aa 11 3f f8 ec 4b be 22 44 1e bf
       0.29336613 0.5690099 -0.19914615 -0.6182271
0002c0 5c bb 17 be ad fd 0f bf 23 1d 15 bf 62 9e 41 bf
       -0.14817566 -0.56246454 -0.58247584 -0.756323
0002d0 8d 1b 24 3f 44 f1 26 bf 2a d0 25 3f 67 42 ca be
       0.6410454 -0.6521189 0.6477076 -0.39503786
0002e0 b7 84 2a bf 53 ce cf be cc 73 34 3e 46 81 a2 bd
       -0.66608757 -0.405871 0.17622298 -0.07934813
0002f0 ca 6e ae 3e 61 2e 24 bf fe 71 08 bf 22 3a e4 be
       0.340689 -0.6413327 -0.5329894 -0.44575602
000300 b7 7d 42 3e 3f 77 ee 3b 11 e4 b3 be 22 23 2f bf
       0.18993269 0.007277399 -0.35134938 -0.68412983
000310 79 77 34 3e af 26 e0 bc 92 83 90 be 3e 37 2a 3f
       0.176237 -0.027362196 -0.2822538 0.6649054
000320 18 13 1d 3f 02 62 8c 3d e8 8f 21 3f d9 cd b0 3e
       0.6135726 0.06854631 0.6311021 0.3453205
000330 72 e5 2f 3f e6 54 c4 3e f5 a2 95 3e 18 6c 75 be
       0.6870948 0.38346022 0.2922589 -0.23967016
000340 53 5e e2 be 17 74 26 bf 22 80 bd 3e 95 5d 1f 3f
       -0.4421259 -0.6502089 0.3701182 0.6225217
000350 17 8c 01 3f ce fc 0a bf 1d 96 f1 be 21 05 1c bf
       0.50604385 -0.54292 -0.4718484 -0.60945326
000360 74 af 44 3e 6f 44 c6 3e c7 cf d0 3d 30 9e 65 3d
       0.19207555 0.38724086 0.101958804 0.056059062
000370 03 fe 09 bf 6a 04 e4 3d 5d 4b 78 3e 29 f1 2a 3f
       -0.53903216 0.111336544 0.24247499 0.6677423
000380 8a 63 35 bf 7b 3a 5e be 27 8e 32 bd 0b 15 d4 be
       -0.7085501 -0.21701996 -0.0435926 -0.41422305
000390 4b 13 9f be dd 52 de 3e 13 24 15 3f 41 6f fd be
       -0.31069407 0.43422595 0.5825817 -0.49498942
0003a0 55 52 13 3f 31 ff d8 be 01 48 84 be d2 e1 10 be
       0.57547504 -0.42382196 -0.25836185 -0.14148644
0003b0 a0 5f 7e be b3 87 6f 3e 3b e4 02 3f 2a 1f 50 3e
       -0.24841166 0.23391609 0.511295 0.20324388
0003c0 96 26 4b 3e c0 38 91 3d ec d7 8b 3e 0e f1 d8 3e
       0.19838938 0.07090902 0.27313173 0.4237141
0003d0 1d 62 88 3b 6d b2 a0 bc 87 c4 3d be b3 b0 f2 3e
       0.0041620866 -0.01961633 -0.18532 0.47400436
0003e0 bb f7 f9 be c7 ff d4 bd 55 49 b7 3e 2e 3a 55 bd
       -0.48821816 -0.10400348 0.35798135 -0.052057438
0003f0 b3 f3 99 be 6c 9c 00 3f 5e 0a 8c be c2 e7 1a 3f
       -0.3006874 0.5023868 -0.2735166 0.60509884
