Project2/models/model_4_2.pt (torch, 356538 bytes, 94 tensors)

prior.mean f4 [2]
0	0x00000000	0.0
1	0x00000000	0.0

prior.std f4 [2]
0	0x3f800000	1.0
1	0x3f800000	1.0

decoders.0.decoder_net.0.weight f4 [512, 2]
0	0x3e2e2f73	0.17010288
1	0xbf122866	-0.57092893
2	0x3f2303e0	0.6367779
3	0xbe88c607	-0.26713583
4	0x3e8ab1c5	0.27088752
5	0x3ee67311	0.45009664
6	0xbf2bc319	-0.6709457
7	0xbed37f56	-0.41308087
8	0xbef7a078	-0.48364615
9	0xbf29c21e	-0.66311824
10	0x3edd89bc	0.43269145
11	0x3e2c4628	0.16823637
12	0xbef929b6	-0.48664635
13	0x3e96f687	0.2948496
14	0x3ec818d8	0.39081454
15	0xbec9837a	-0.3935812
16	0x3f0a33a8	0.5398507
17	0xbd91aff3	-0.07113638
18	0xbe2a1a9a	-0.1661171
19	0x3ee1774b	0.44036326
20	0xbda7fa50	-0.0820204
21	0xbf1ccb3d	-0.61247617
22	0xbe9d1cf6	-0.30686158
23	0xbf188de1	-0.5959149
24	0xbe73d280	-0.23810768
25	0xbf373f28	-0.71580744
26	0xbf08f328	-0.53496027
27	0xbe975a3c	-0.2956103
28	0x3e9d03fd	0.30667105
29	0x3e7b6eba	0.24553958
30	0x3f2fa8d8	0.6861701
31	0x3dae81f5	0.08520881
32	0x3dc3b0a6	0.095551774
33	0x3c806cf8	0.01567696
34	0x3dfe4ec5	0.12417368
35	0x3e45de7e	0.19323155
36	0xbefd5bbe	-0.49484056
37	0xbe296cdb	-0.16545431
38	0x3e300df1	0.17192818
39	0x3e152612	0.14565304
40	0x3dca81d2	0.098880425
41	0xbe49b0f8	-0.19696414
42	0xbed6cedb	-0.41954693
43	0xbe0b1526	-0.13582286
44	0xbe3a6c97	-0.18205486
45	0xbed6309a	-0.41833955
46	0x3f0a7221	0.54080397
47	0xbecf70f0	-0.40515852
48	0x3eb55752	0.35418183
49	0xbe71de9b	-0.23620073
50	0x3f2855b5	0.6575578
51	0xbef389ce	-0.47566074
52	0xbe515254	-0.20441562
53	0x3e9806c4	0.29692662
54	0xbe97b835	-0.29632726
55	0xbeb77513	-0.35831508
56	0x3e3e6920	0.1859479
57	0xbdd6950d	-0.10477648
58	0xbdd0dd59	-0.10198469
59	0x3e0b5ba2	0.13609174
60	0x3da297e2	0.079391256
61	0x3f2a2026	0.66455305
62	0xbef0ca76	-0.47029465
63	0x3ec9cc01	0.39413455
64	0x3f22bc58	0.6356864
65	0xbf01aa42	-0.5065042
66	0x3e2135a6	0.15743122
67	0x3eb21486	0.34781283
68	0xbeaa29c9	-0.33235005
69	0x3f2939ec	0.66104007
70	0xbef3483c	-0.47516048
71	0x3f0aec62	0.5426694
72	0x3f2beb7f	0.67156214
73	0x3f092c3a	0.5358311
74	0xbe1bc6e5	-0.15212591
75	0xbe56075e	-0.20901248
76	0x3f270631	0.6524382
77	0x3e245c0f	0.16050743
78	0xbe492a41	-0.19645025
79	0x3d8d20f6	0.068910524
80	0x3ee884bb	0.45413765
81	0xbf33cb0a	-0.7023169
82	0x3e3f6406	0.186905
83	0xbe8b4775	-0.27202955
84	0xbf0ae342	-0.5425302
85	0x3c899cbd	0.016798371
86	0xbeda8995	-0.42683092
87	0x3ed33745	0.41253105
88	0x3cede58e	0.029040124
89	0xbeee1748	-0.46502137
90	0xbdbea165	-0.09308127
91	0x3eae655d	0.3406171
92	0x3f35f3ca	0.7107512
93	0x3f04f983	0.51943225
94	0x3f2f7427	0.6853661
95	0x3cbfd21b	0.023415616
96	0x3f0f18e1	0.5589734
97	0xbed3ad5d	-0.41343203
98	0xbef34ccd	-0.47519532
99	0x3e86cd4a	0.26328498
100	0xbea9a09b	-0.33130345
101	0xbf12c36f	-0.5732946
102	0x3eff8662	0.49907213
103	0x3e335b5f	0.17515324
104	0xbeeb5c3f	-0.45968816
105	0xbf0cbb9f	-0.5497379
106	0x3e832ba5	0.25619236
107	0xbe9f40d7	-0.31104156
108	0xbf01fd5a	-0.5077721
109	0x3e56dce9	0.20982708
110	0x3e30ad7f	0.17253684
111	0xbd11f599	-0.03563461
112	0xbeefe1e1	-0.4685202
113	0x3e77677b	0.24160568
114	0xbecff95d	-0.40619937
115	0x3ef05223	0.46937665
116	0x3e3899c5	0.18027408
117	0xbef30c50	-0.4747033
118	0x3d4cc235	0.049989898
119	0xbe17cbc7	-0.14823829
120	0xbeac44de	-0.33646291
121	0xbd91c43e	-0.07117508
122	0xbb9ab953	-0.0047217994
123	0xbca72457	-0.02040307
124	0xbe49308a	-0.19647422
125	0xbed38305	-0.41310897
126	0xbda77f59	-0.081785865
127	0x3efc7ab3	0.49312362
128	0x3e128e7a	0.14312163
129	0xbe09cbf8	-0.13456714
130	0x3db283f6	0.08716576
131	0xbf1d26c4	-0.61387277
132	0x3d6bdbba	0.057582594
133	0x3e2d8c42	0.16948035
134	0x3eba2f89	0.3636439
135	0x3f1bcc90	0.6085901
136	0x3e62f143	0.22162347
137	0x3e77398b	0.24143045
138	0x3f1626eb	0.58653134
139	0x3dfa37aa	0.12217648
140	0x3f04ae43	0.518284
141	0xbead2217	-0.3381507
142	0xbe9c80c1	-0.3056698
143	0xbe02cb8c	-0.1277296
144	0xbf2717f6	-0.65270936
145	0xbef6544b	-0.48111185
146	0x3eb828a2	0.359685
147	0x3ed32aea	0.41243678
148	0xbf0ddbb7	-0.55413383
149	0xbf220d44	-0.6330149
150	0x3f287934	0.6580994
151	0x3ebe4fde	0.3717031
152	0xbe920f27	-0.28527185
153	0xbe93363f	-0.28752324
154	0xbf159278	-0.5842662
155	0x3f2689c9	0.65053993
156	0xbdf3d713	-0.119062565
157	0x3bc57bbb	0.0060267127
158	0x3ed13bdf	0.4086599
159	0xbec0a63e	-0.37626833
160	0x3f06d0b8	0.5266223
161	0xbf1d2036	-0.61377275
162	0x3f45ade3	0.77218455
163	0xbe5f4947	-0.21805297
164	0xbd86fc73	-0.065911196
165	0x3ef15ff2	0.47143513
166	0xbef1da01	-0.47236636
167	0xbe9b6abb	-0.30354866
168	0x3ee9bca8	0.45651746
169	0xbef39b56	-0.4757945
170	0x3f211830	0.6292753
171	0xbf15c2f3	-0.58500594
172	0x3df80f99	0.1211235
173	0xbe754f28	-0.23955977
174	0xbe98b083	-0.29822168
175	0x3f219c86	0.6312946
176	0xbecf2642	-0.40458876
177	0x3f1abc9c	0.60444045
178	0xbe643af4	-0.22288114
179	0xbe82d3ff	-0.25552365
180	0x3d9e6056	0.07733218
181	0x3f2b124a	0.6682478
182	0xbceab7f8	-0.028652176
183	0x3eb8de62	0.36107165
184	0xbd818ea7	-0.06326037
185	0x3bc0d258	0.00588445
186	0x3e361a2d	0.17783423
187	0x3e6be953	0.23038225
188	0xbf209d94	-0.62740445
189	0x3e8a7217	0.2704017
190	0x3e35d2a1	0.1775613
191	0x3f352f11	0.7077494
192	0x3f21dc61	0.63226897
193	0x3f138dd8	0.5763831
194	0x3e963115	0.29334322
195	0xbeb16c28	-0.3465283
196	0x3e91de93	0.28490123
197	0x3e95c992	0.29255348
198	0x3e2da2e0	0.16956663
199	0xbf1ce868	-0.61292124
200	0x3ebefb36	0.37301034
201	0xbe3681f1	-0.17823006
202	0x3eecc501	0.46244052
203	0xbf1ed57c	-0.620445
204	0xbea85b6c	-0.3288225
205	0xbe9d13ce	-0.30679172
206	0x3e017f8e	0.12646315
207	0x3ebc4e4c	0.36778486
208	0x3ee03d7c	0.4379691
209	0x3da521c6	0.080630824
210	0x3e92767f	0.2860603
211	0xbf28d9a1	-0.65957075
212	0xbef1334f	-0.47109458
213	0xbf0f05d9	-0.558683
214	0xbefa265e	-0.48857397
215	0xbefb9a64	-0.49141228
216	0x3c8197d5	0.01581947
217	0x3ba096ef	0.004900805
218	0xbe977acf	-0.29585883
219	0xbf19804a	-0.5996138
220	0x3ca8ce94	0.020606317
221	0x3f00771d	0.5018175
222	0xbf28afa8	-0.6589303
223	0x3e324e68	0.17412722
224	0xbe28bd91	-0.16478564
225	0x3e7d3de2	0.24730638
226	0xbf0e2dfd	-0.5553892
227	0x3efd5d11	0.49485067
228	0x3f3142d3	0.6924259
229	0xbed03e97	-0.40672752
230	0xbcabc3f3	-0.02096746
231	0xbf309d34	-0.6898987
232	0x3e338a3f	0.17533205
233	0x3e5c92bc	0.2154035
234	0xbf04cc06	-0.51873815
235	0xbd535500	-0.051594734
236	0xbf32b218	-0.69803
237	0xbe84b13c	-0.2591647
238	0x3ef5e512	0.4802633
239	0xbe0c2080	-0.13684273
240	0x3f2704f3	0.65241927
241	0x3e21a73f	0.15786456
242	0xbf09d4a5	-0.53840095
243	0x3c2b8f7a	0.010471219
244	0x3e3bdeca	0.18346706
245	0x3ee26099	0.44214323
246	0x3e14b300	0.14521408
247	0x3ec8cdb0	0.39219427
248	0xbf261859	-0.648809
249	0xbc3077c0	-0.010770738
250	0x3d4e03f0	0.050296724
251	0xbf0d0d93	-0.5509884
252	0xbef03c19	-0.4692085
253	0xbd876b32	-0.06612243
254	0x3e870b42	0.26375777
255	0xbf161192	-0.5862056

decoders.0.decoder_net.0.bias f4 [512]
0	0x3f2e42a0	0.6807041
1	0xbeb8596f	-0.36005732
2	0x3edb3ae0	0.42818356
3	0x3ed84a40	0.42244148
4	0x3ed49d62	0.41526324
5	0xbeca0669	-0.39458016
6	0xbf0820fd	-0.53175336
7	0x3ea03728	0.3129208
8	0x3e57ac6e	0.2106187
9	0xbeabc55c	-0.3354901
10	0xbf11ffe7	-0.570311
11	0x3d05bf90	0.03265339
12	0x3c16a17b	0.009193773
13	0xbeac5f49	-0.33666447
14	0x3f087b4a	0.53313124
15	0x3ee9cf77	0.45666096
16	0x3edceabc	0.43147838
17	0xbeb139dc	-0.34614456
18	0x3ee86bcd	0.45394745
19	0x3ea29e82	0.31761557
20	0x3dc8a979	0.09797949
21	0xbeb1a6d1	-0.34697583
22	0x3e19d42d	0.15022345
23	0x3e4031ec	0.18769044
24	0xbe5b9d51	-0.2144673
25	0xbe9a50f1	-0.30139878
26	0x3eb23938	0.3480928
27	0xbe99eb04	-0.30062115
28	0xbedee019	-0.43530348
29	0x3f068e7d	0.5256117
30	0x3e521ce5	0.20518835
31	0x3f2a7a4d	0.66592866
32	0xbe4db35a	-0.20087948
33	0x3e9e3288	0.30897927
34	0x3f2eee21	0.68332106
35	0x3e80d47e	0.2516212
36	0x3e9be7b4	0.30450213
37	0x3f21c187	0.63185924
38	0xbe0bc0fc	-0.13647836
39	0x3e95ed2d	0.29282513
40	0xbcd8e689	-0.026477115
41	0xbe80ff92	-0.25194985
42	0xbeb4faba	-0.3534754
43	0xbef4c69f	-0.47807786
44	0x3f174e1c	0.5910356
45	0x3f1ed488	0.62043047
46	0x3ee5afea	0.44860774
47	0xbce04513	-0.027376687
48	0x3f1a9557	0.60384125
49	0xbef0ef99	-0.47057799
50	0xbe76a6f3	-0.24087124
51	0xbeb60948	-0.35553956
52	0xbecd758c	-0.40128744
53	0x3ed9597a	0.42451078
54	0x3e2c53a7	0.16828786
55	0xbf0fa165	-0.56105644
56	0x3e8413a2	0.2579623
57	0xbdca5e4c	-0.09881267
58	0x3e3537cf	0.1769707
59	0x3f2cf5a8	0.6756234
60	0xbe78a767	-0.24282609
61	0x3f07c5dc	0.53036284
62	0x3a187d86	0.00058170443
63	0x3e19ad8c	0.15007609
64	0x3c7f9816	0.015600225
65	0x3f129d62	0.572714
66	0xbf3d26f7	-0.7388758
67	0x3ea414d4	0.3204714
68	0x3e67b9fd	0.22629543
69	0x3f0036b6	0.5008348
70	0xbf2fb059	-0.6862846
71	0xbed45035	-0.41467443
72	0x3f0d069b	0.55088204
73	0x3eda03c4	0.42580998
74	0x3e3633d0	0.17793202
75	0xbe8a4e78	-0.27012992
76	0xbee63b23	-0.44966993
77	0x3ee8b9aa	0.4545415
78	0x3ea7ee42	0.32798964
79	0x3f11a349	0.5688978
80	0x3ecf8667	0.40532228
81	0xbeca9cf0	-0.3957286
82	0xbee188a3	-0.44049558
83	0xbd2044fc	-0.03912829
84	0xbeb05a09	-0.3444369
85	0x3da4fbb5	0.08055822
86	0x3e2ed1dc	0.17072242
87	0xbf0db47a	-0.5535351
88	0x3f2f9a01	0.68594366
89	0xbf2a18a9	-0.6644388
90	0xbe3128f4	-0.17300779
91	0xbde909f3	-0.11378851
92	0x3f30e39d	0.6909731
93	0xbf11f516	-0.57014596
94	0xbd713eeb	-0.058897894
95	0xbe2fc4a5	-0.17164858
96	0x3e4450b3	0.1917141
97	0xbee69f60	-0.45043468
98	0xbf07f45f	-0.53107256
99	0x3dfe80f5	0.1242694
100	0xbd73366a	-0.059378065
101	0x3f2e272c	0.6802852
102	0x3ec77cca	0.38962394
103	0x3e4f4225	0.20240076
104	0xbf326516	-0.69685495
105	0x3dd68e05	0.10476307
106	0x3e9fa37f	0.31179425
107	0x3f28b5c2	0.6590234
108	0x3e3733ec	0.178909
109	0x3f0b266e	0.54355514
110	0xbe1be4dc	-0.15224022
111	0x3e891d16	0.26780003
112	0xbeb1a476	-0.34695786
113	0xbea2fcf7	-0.31833622
114	0xbe85bf88	-0.2612269
115	0x3d54b8aa	0.051933922
116	0x3f09a302	0.53764355
117	0x3c045ae6	0.0080783125
118	0xbe85e8a1	-0.26154044
119	0x3d9adfc3	0.075622104
120	0x3df6e2a0	0.12054944
121	0xbe7680f5	-0.2407263
122	0x3f1a0bdc	0.60174346
123	0xbea7c8c4	-0.3277036
124	0x3e49be82	0.19701579
125	0x3e651a24	0.22373253
126	0xbe9fa89f	-0.31183335
127	0xbef95bca	-0.48702842
128	0xbea3e494	-0.3201033
129	0x3f2b502e	0.6691922
130	0x3f16d1f5	0.5891412
131	0xbe71308b	-0.23553674
132	0xbe1a6eb2	-0.1508129
133	0x3f0dd89d	0.5540865
134	0xbf0a48ad	-0.54017144
135	0xbf35462b	-0.7081019
136	0xbeff7a7c	-0.49898136
137	0x3ef21e76	0.47288865
138	0xbd159d9e	-0.03652727
139	0xbe24965b	-0.16072981
140	0xbc26f40f	-0.010190024
141	0x3dfa127d	0.122105576
142	0x3f3864b0	0.72028637
143	0xbd1f81a4	-0.038941994
144	0x3ef837b1	0.4847999
145	0xbf13b572	-0.5769874
146	0x3f2ffc90	0.68744755
147	0xbf1c009b	-0.60938424
148	0xbefec0bc	-0.4975642
149	0x3f2e4267	0.6807007
150	0xbee6af2c	-0.4505552
151	0xbe917396	-0.28408498
152	0xbde30f6d	-0.110869266
153	0xbeea2ce9	-0.4573739
154	0xbec4e947	-0.38459226
155	0xbe85d8ca	-0.2614196
156	0x3e993090	0.29919863
157	0x3d5c32ad	0.053759266
158	0xbe7af0ab	-0.2450587
159	0xbf2e3df7	-0.680633
160	0xbb4709ca	-0.0030370825
161	0x3f006dd8	0.5016761
162	0x3ea56fe6	0.32311934
163	0x3ee9a7ab	0.45635733
164	0x3e46c510	0.19411111
165	0xbf128233	-0.5722992
166	0x3e6ec610	0.23317742
167	0x3e3a9dc0	0.1822424
168	0xbf370abe	-0.71500766
169	0x3f1085a7	0.5645394
170	0xbea4fbb8	-0.32223296
171	0xbf2d7689	-0.67758995
172	0x3e8f0545	0.27933708
173	0x3f21971c	0.631212
174	0x3cc59016	0.024116557
175	0x3f21bfcd	0.6318329
176	0xbd729060	-0.059219718
177	0xbebe3f0d	-0.3715748
178	0xbe38f5ae	-0.1806247
179	0x3d9e41f1	0.07727421
180	0xbdfeaf2e	-0.124357566
181	0xbf16a86d	-0.5885075
182	0x3e84f1f3	0.25965843
183	0xbe8cd831	-0.2750869
184	0x3e0fadd6	0.14031157
185	0x3d37bd51	0.04485828
186	0x3f044305	0.51664764
187	0xbf238982	-0.63881695
188	0xbe845c00	-0.2585144
189	0xbeb9d475	-0.36294904
190	0xbe82c748	-0.25542665
191	0x3f1c688c	0.61097026
192	0xbd07ef12	-0.03318698
193	0xbf0c6e07	-0.5485539
194	0xbec01a84	-0.3752023
195	0x3f0e2fe9	0.55541855
196	0x3ea43484	0.32071316
197	0x3eb8bba3	0.36080655
198	0xbd7b51d9	-0.061357353
199	0x3d5999a9	0.053125057
200	0xbebcd910	-0.36884356
201	0xbe523940	-0.20529652
202	0xbf34bf2a	-0.70604193
203	0x3e8b7761	0.27239516
204	0xbf21b095	-0.6316007
205	0xbd2de131	-0.042451087
206	0xbee8f6f7	-0.4550092
207	0x3f04cfe7	0.51879734
208	0x3e8bc1a6	0.2729618
209	0xbe8c63d0	-0.274199
210	0x3ed1cf2b	0.4097837
211	0x3ed3facd	0.41402283
212	0x3e7a83d8	0.24464357
213	0xbdabc8c1	-0.083879
214	0x3e8a89f5	0.27058378
215	0xbeccfce3	-0.40036687
216	0xbe8cfc0b	-0.27536044
217	0x3ee54e40	0.44786263
218	0x3f2a3b99	0.6649719
219	0xbe5d2556	-0.21596274
220	0x3f23e1e4	0.64016557
221	0x3e3e8c83	0.18608288
222	0x3ee114b2	0.43961102
223	0x3f00cc91	0.50312144
224	0xbd0f0355	-0.034915287
225	0x3ea72bdd	0.32650653
226	0xbe315e1d	-0.17321058
227	0x3ee118b4	0.4396416
228	0xbee57993	-0.44819316
229	0x3d2e3583	0.0425315
230	0x3f0dd6b3	0.5540573
231	0xbeb59e2b	-0.35472235
232	0xbe790c5e	-0.24321124
233	0x3f002c43	0.5006754
234	0x3ed02293	0.40651378
235	0xbeb7fc78	-0.35934806
236	0xbedf2bcb	-0.435881
237	0x3f27dc78	0.65570784
238	0xbee3bd0e	-0.44480175
239	0x3f2d705e	0.67749584
240	0x3f01a8f5	0.5064843
241	0x3ea4db0f	0.32198378
242	0x3eb8757e	0.3602714
243	0x3ed306d8	0.4121616
244	0x3e92c538	0.2866609
245	0x3ec9361b	0.39299092
246	0xbc85eddc	-0.016348772
247	0x3ed204d7	0.41019318
248	0xbe5bffac	-0.2148425
249	0xbdbdc714	-0.09266487
250	0xbd83cc5c	-0.06435463
251	0xbdd7a532	-0.105295554
252	0x3ecb5b4d	0.39718094
253	0xbef3254e	-0.474894
254	0x3e0c8cd5	0.13725598
255	0xbe73736f	-0.23774503

decoders.0.decoder_net.3.weight f4 [32]
0	0x3f78d3ab	0.9719798
1	0x3f86f536	1.0543582
2	0x3f8063dc	1.0030475
3	0x3f80ecbd	1.0072247
4	0x3f7cbd89	0.9872671
5	0x3f817549	1.0113918
6	0x3f764b3a	0.96208537
7	0x3f817c1f	1.0116004
8	0x3f81d68f	1.0143603
9	0x3f803431	1.0015928
10	0x3f7eedc8	0.99581575
11	0x3f7e1646	0.99252737
12	0x3f7990cf	0.97486585
13	0x3f7a7b16	0.97844064
14	0x3f7883e4	0.9707625
15	0x3f7ee31e	0.99565303
16	0x3f808bf6	1.0042713
17	0x3f7c7cee	0.9862813
18	0x3f7d642c	0.98980975
19	0x3f77c848	0.9678998
20	0x3f7e1141	0.9924508
21	0x3f81e53b	1.014808
22	0x3f803e10	1.001894
23	0x3f81de1a	1.0145905
24	0x3f80ef1b	1.0072969
25	0x3f7baa97	0.98307174
26	0x3f81ba31	1.0134946
27	0x3f7f31be	0.99685276
28	0x3f824e7e	1.0180204
29	0x3f80003b	1.000007
30	0x3f80b2cc	1.0054564
31	0x3f8097bf	1.0046309

decoders.0.decoder_net.3.bias f4 [32]
0	0x3c3eefbe	0.011653839
1	0xbcb36706	-0.021899711
2	0xbcb2ae02	-0.021811489
3	0x3b0fae07	0.0021923797
4	0x3b924a99	0.004464459
5	0xbcf18949	-0.029484408
6	0x3c2477b3	0.010038304
7	0x3cab2d7c	0.020895712
8	0xbbf5c888	-0.007500712
9	0xbb41f896	-0.0029597632
10	0x3b4cddc5	0.0031260115
11	0x3bb04356	0.005379121
12	0xbce20966	-0.027592372
13	0xbb07ef32	-0.0020741937
14	0xb9456943	-0.00018826597
15	0x3bb8b48b	0.005636757
16	0xbc0f3520	-0.008740693
17	0xbcea2728	-0.028583124
18	0x38bcde2e	9.005923e-05
19	0x3be9ce36	0.007135178
20	0xbb389611	-0.0028165618
21	0x3c30828c	0.010773312
22	0x3b253502	0.0025208597
23	0x3c411cb7	0.011786631
24	0x3cf3df29	0.029769497
25	0xbcf6f13f	-0.030144332
26	0xbc955fed	-0.018234218
27	0xbcf0add1	-0.029379757
28	0x3d0e1768	0.03469029
29	0x3c1662b8	0.00917881
30	0x3ba47ae6	0.0050195334
31	0x3c4a841b	0.012360598

decoders.0.decoder_net.3.running_mean f4 [32]
0	0x3ca03490	0.019556314
1	0x3cfb1c2d	0.030653084
2	0x3d378bb5	0.04481097
3	0x3ce6b9bf	0.028164743
4	0x3d08aa61	0.03336561
5	0x3d15a094	0.036530092
6	0x3caf7722	0.021419112
7	0x3cef511a	0.029213477
8	0x3d090ca3	0.033459317
9	0x3d02e47b	0.031956177
10	0x3d5645cf	0.05231267
11	0x3d02852c	0.031865284
12	0x3ccd397e	0.025051828
13	0x3d5a93bd	0.05336355
14	0x3d186767	0.037207987
15	0x3c9894f2	0.01862571
16	0x3ccaac8a	0.024740476
17	0x3ca2a4b5	0.019853929
18	0x3cb744ac	0.022371612
19	0x3d00553c	0.031331286
20	0x3cae899b	0.02130585
21	0x3cf5714f	0.029961256
22	0x3cde115d	0.027107889
23	0x3cf09804	0.029369362
24	0x3d2f8d88	0.042859584
25	0x3d1a1cd4	0.03762515
26	0x3d25690a	0.040383376
27	0x3cc95b62	0.024579708
28	0x3d0713d7	0.032977905
29	0x3d05e989	0.03269342
30	0x3ce3131f	0.027719079
31	0x3ce1cdbd	0.027563924

decoders.0.decoder_net.3.running_var f4 [32]
0	0x3974e2cd	0.00023354143
1	0x3a75012f	0.00093461847
2	0x3b3d095a	0.0028844685
3	0x3a135662	0.0005620477
4	0x3b39469b	0.0028270844
5	0x3b1bf4d1	0.0023797045
6	0x39996690	0.0002925885
7	0x3a5d6ead	0.0008446973
8	0x3b214747	0.0024609135
9	0x3b4c7bfd	0.0031201832
10	0x3b962b50	0.0045828
11	0x3b06ae0f	0.0020550524
12	0x39d218b2	0.0004007272
13	0x3b7b6739	0.0038361086
14	0x3ae9e481	0.0017844589
15	0x3913081f	0.00014022038
16	0x3a4f7255	0.000791346
17	0x39371149	0.00017458679
18	0x3a28fdc8	0.0006446508
19	0x3a6f210c	0.0009122051
20	0x39a75d1a	0.00031922088
21	0x3a1e0563	0.00060280244
22	0x3a40d8b6	0.0007356511
23	0x3a8b0082	0.001060501
24	0x3b79c853	0.0038113787
25	0x3a8bfc35	0.0010680022
26	0x3aebd760	0.0017993264
27	0x3a145c29	0.0005659485
28	0x3ad92d73	0.0016569331
29	0x3aadf753	0.0013272561
30	0x39dc0f40	0.00041973032
31	0x39a13068	0.00030744378

decoders.0.decoder_net.4.weight f4 [32, 32, 3, 3]
0	0xbbf1665d	-0.007366939
1	0xbbbd0535	-0.005768443
2	0xbd13cf4b	-0.03608636
3	0xbd05d04b	-0.032669347
4	0xbc112feb	-0.008861522
5	0x3d39d6db	0.045370918
6	0xbc21c97a	-0.009874696
7	0x3ca792eb	0.020455798
8	0xbd393922	-0.0452205
9	0x3c8c5cad	0.017134035
10	0x3d1722e9	0.036898527
11	0x3d3ea2c6	0.04654195
12	0x3ad53fd6	0.0016269635
13	0xbc774886	-0.0150929745
14	0xbd8aa47c	-0.06769654
15	0x3d2d3900	0.042290688
16	0x3c6723cc	0.014107656
17	0x3d24bc77	0.040218797
18	0x3af4192f	0.0018623228
19	0xbd4185c5	-0.047246713
20	0x3daafc01	0.08348847
21	0x3d16a0f7	0.0367746
22	0xbc6d8ce5	-0.014498924
23	0x3c936984	0.01799465
24	0xbbbfc456	-0.0058522625
25	0x3d8bebc2	0.068320766
26	0xbc03bfff	-0.008041381
27	0xbd3b0187	-0.045655753
28	0xbb8e0b67	-0.0043348554
29	0x3d4cbc90	0.049984515
30	0xbc5ea8d3	-0.0135900555
31	0x3d545a2e	0.051843815
32	0x3c87bf7f	0.016570805
33	0x3d637cf2	0.05553908
34	0xbd0c4eab	-0.03425471
35	0xbd483fe9	-0.048889074
36	0x3caca2de	0.021073755
37	0x3d482efb	0.04887293
38	0x3ce0f53b	0.027460685
39	0x3c5b6149	0.013389894
40	0x3ce54dcf	0.027991204
41	0xbcada023	-0.021194523
42	0x3b9b897b	0.0047466136
43	0xbc37b892	-0.011213439
44	0xbc83fabc	-0.01611077
45	0xbd517322	-0.05113519
46	0x3cafd35f	0.021463094
47	0xbc2468df	-0.010034769
48	0xbd051de7	-0.03249922
49	0xbbd332c1	-0.0064452593
50	0xba362394	-0.00069480506
51	0x3badf055	0.005308191
52	0xbd3641f4	-0.04449649
53	0x3d437eb9	0.047728274
54	0x3d673f04	0.05645658
55	0xbd32a506	-0.04361441
56	0xbd3c0905	-0.04590704
57	0xbcb41d40	-0.021986604
58	0x3b38f9b6	0.0028225011
59	0x3c1c824b	0.009552549
60	0x3d39fe72	0.045408674
61	0x3d686d92	0.05674512
62	0xbd02bc8f	-0.031918105
63	0xbd0917d6	-0.033469997
64	0x3c975429	0.018472748
65	0xbd3f7063	-0.04673804
66	0xbd22d5ca	-0.039754666
67	0x3c2498de	0.010046212
68	0xbd47172a	-0.048606075
69	0x3c37a086	0.011207705
70	0x3d0836a7	0.033255246
71	0xbd0954c3	-0.0335281
72	0xbd33b61a	-0.043874837
73	0x3cfaf3db	0.030633857
74	0x3c80ea62	0.015736762
75	0x3d1c4a62	0.038156874
76	0x3d786557	0.06064352
77	0x3bd1ec85	0.006406369
78	0x3d2cbf21	0.042174462
79	0x3c63a465	0.013894175
80	0x3b406327	0.0029355974
81	0x3cf108a3	0.029423064
82	0xbbdbdce7	-0.006709683
83	0x3d3afae0	0.04564941
84	0x3d217961	0.039422397
85	0x3cbd7687	0.023127807
86	0xbd4cf5cb	-0.050039094
87	0xbd485200	-0.048906326
88	0xbce11a9c	-0.027478509
89	0xbc965b59	-0.018354105
90	0x3d3491d3	0.04408438
91	0xbc2d47a2	-0.010576161
92	0xbc73742f	-0.014859243
93	0xbbabfd6a	-0.005248715
94	0xbc81e4a9	-0.015856104
95	0xbbf7894f	-0.0075542103
96	0x3af3da76	0.0018604535
97	0x3cd41c38	0.025892362
98	0x3d25b8a1	0.04045928
99	0xbd8df86f	-0.069321506
100	0x3d0dde43	0.034635793
101	0x3c965de2	0.018355314
102	0xbcdba9c9	-0.026814358
103	0xbc994732	-0.018710706
104	0xbcee874e	-0.029117253
105	0x3b535ce9	0.0032251424
106	0x3d06da11	0.032922808
107	0x3d6d854e	0.057988457
108	0xbbfcc6bd	-0.007714121
109	0x3d6b871a	0.05750189
110	0x3d1919e2	0.0373782
111	0xbb473d45	-0.003040151
112	0xbd068332	-0.03283996
113	0x3d1d1d66	0.038358115
114	0xbb2d9a37	-0.0026489624
115	0x3d4e77a6	0.050407074
116	0xbd2d5477	-0.04231688
117	0x3d8ec103	0.06970408
118	0xbd373389	-0.044726882
119	0x3d1e24c7	0.038609292
120	0xbd353fb8	-0.04425022
121	0xbd1bbd14	-0.038022116
122	0x3d67fe08	0.056638747
123	0xbcaae8f4	-0.020863034
124	0x3d23bcc9	0.03997496
125	0x3d72c6ab	0.059271496
126	0x3d18dcaf	0.037319835
127	0xbc94f910	-0.018185169
128	0xbd61c7e9	-0.05512229
129	0xbb9fd856	-0.004878084
130	0x3cd31b43	0.025769835
131	0xbd4abc5d	-0.049496043
132	0x3d20b259	0.039232586
133	0x3be611d8	0.00702117
134	0xbce37fd4	-0.027770914
135	0xbc4b8cb4	-0.012423683
136	0x3ba81b37	0.0051301974
137	0x3d466878	0.048439473
138	0xbc97f1f0	-0.018547982
139	0x3bc19268	0.0059073456
140	0x3b9e84df	0.004837617
141	0x3d1f3848	0.038872033
142	0xbd5f1856	-0.054466568
143	0x3b9f0711	0.0048531373
144	0x3d1a69f5	0.037698705
145	0xbc80d61e	-0.015727099
146	0x3d119244	0.03553988
147	0x3ceae5ef	0.028674094
148	0x3d2e75c3	0.042592775
149	0x3c0688cd	0.008211327
150	0x3d20136e	0.03908103
151	0x3c0bf49d	0.008542207
152	0x3d07d34a	0.033160485
153	0xbd0da3df	-0.034580108
154	0xbcc65b64	-0.0242135
155	0x3cdcb77f	0.026942967
156	0x3adc36ee	0.0016801038
157	0xbc322f3a	-0.0108755175
158	0x3c8bee2f	0.017081348
159	0xbbceaa92	-0.0063069547
160	0x3c64a87f	0.013956188
161	0xbd2de88e	-0.04245811
162	0xbd1fee25	-0.03904547
163	0x3d8a244e	0.06745206
164	0x3c92f202	0.017937664
165	0xbc1e92d0	-0.0096785575
166	0xbd30295c	-0.043008193
167	0xbb70e1d2	-0.0036755693
168	0x3c92c711	0.017917188
169	0xbce7e0a5	-0.028305361
170	0xbbedd7fe	-0.0072584143
171	0xbceec165	-0.029144952
172	0xbc7d2a31	-0.015451954
173	0xbd0615dc	-0.03273569
174	0x3bebe1cc	0.007198548
175	0x3ca5b861	0.02022952
176	0x3d083e7a	0.033262707
177	0x3d6fe890	0.0585714
178	0xbcb115d3	-0.021616852
179	0x3d5910a6	0.052994393
180	0x3cfd46c4	0.030917533
181	0x3c7e8abf	0.015536009
182	0xbc6c8f99	-0.014438533
183	0xbc002f52	-0.007823782
184	0x3cd110c2	0.025520686
185	0x3c46c53d	0.012131986
186	0xbcf5de41	-0.030013205
187	0x3d3b5627	0.04573646
188	0x3d03b5e3	0.032155883
189	0x3d94839c	0.07251665
190	0x3c8b1289	0.016976612
191	0x3d85234a	0.065008715
192	0xbd1f7f65	-0.038939852
193	0x3d0c1d53	0.034207653
194	0x3d38002b	0.044922035
195	0x3cef1564	0.029185005
196	0x3c6ba964	0.014383648
197	0x3d33790b	0.043816607
198	0xbc83888d	-0.016056323
199	0xbcb977f5	-0.022640208
200	0xbd6f901e	-0.05848705
201	0xbd132b13	-0.03592975
202	0xbc4b85bb	-0.012422021
203	0x3ae419e9	0.0017402741
204	0x3d4e7994	0.050408915
205	0x3cda6487	0.026659263
206	0x3be56b30	0.007001303
207	0xbd8219ca	-0.06352575
208	0xba5cf716	-0.00084291527
209	0x3d3070b8	0.043076247
210	0xbd3b01df	-0.04565608
211	0xbd292313	-0.041293215
212	0xbc8b09a7	-0.016972376
213	0xbd41df49	-0.047332082
214	0x3d687721	0.056754235
215	0x3c3ff4f6	0.011716118
216	0x3d3dbc94	0.04632242
217	0x3d67ca44	0.05658938
218	0x3d0312a4	0.0320002
219	0x3bbf34c3	0.005835147
220	0x3d326298	0.043551058
221	0xbd248e66	-0.040174864
222	0xbca19fb5	-0.019729475
223	0xbbbe3d77	-0.005805667
224	0xbd3e5524	-0.046467915
225	0xbd5b1cf5	-0.053494412
226	0xbccbc7df	-0.02487558
227	0x3ca4c88c	0.02011516
228	0xbd09127c	-0.033464894
229	0xbd001852	-0.031273194
230	0xbc61becf	-0.0137784025
231	0x3d0c5472	0.03426022
232	0x3cb78580	0.022402525
233	0x3d698333	0.057009887
234	0x3b042d0f	0.0020168459
235	0xbc3d116b	-0.011539797
236	0x3d321d52	0.043484993
237	0xbbb2f77d	-0.005461632
238	0xbd1ce04c	-0.038299844
239	0xbd4d714c	-0.050156876
240	0x3be419cc	0.006961083
241	0x3d151e56	0.036405884
242	0xbcbd821a	-0.023133326
243	0x3cb11fea	0.021621663
244	0xbc150e5a	-0.00909766
245	0x3cefa59b	0.029253772
246	0x3ce0f298	0.027459428
247	0xbd541c88	-0.051785022
248	0x3b84a112	0.0040475214
249	0x3c63ab2b	0.01389579
250	0x3cb89816	0.022533458
251	0xbc3dd723	-0.011586937
252	0x3d806efe	0.0627117
253	0xbd4fba7e	-0.050714962
254	0x3c2525ca	0.01007981
255	0x3d8131ac	0.06308302

decoders.0.decoder_net.4.bias f4 [32]
0	0x3cff4064	0.031158634
1	0x3d014e37	0.031568732
2	0x3d8d52ac	0.06900534
3	0xbc3e4f71	-0.01161562
4	0x3cac9085	0.021065006
5	0x3d40b472	0.047047086
6	0x3dc62631	0.09675253
7	0xbcc9e229	-0.024643974
8	0xbd1f0478	-0.03882262
9	0xbd09ea81	-0.033670906
10	0x3ce7306a	0.028221328
11	0x3d6f738c	0.058459803
12	0xbc7bcec7	-0.015369124
13	0x3d67c34b	0.05658273
14	0xbcdf466c	-0.02725526
15	0xbaca6e90	-0.0015444327
16	0x3d43f03b	0.047836524
17	0x3c531c40	0.012885153
18	0xbd9800f5	-0.074220575
19	0x3d009ba0	0.031398416
20	0xbc9a0a8c	-0.018803857
21	0xbd9c44f3	-0.076303385
22	0xbce202af	-0.02758917
23	0x3d571eca	0.052519597
24	0xbb478483	-0.0030443973
25	0xbd7875b1	-0.060659114
26	0x3da00b06	0.078146026
27	0xbd87c26b	-0.06628879
28	0xbcc20800	-0.023685455
29	0x3d0a1f76	0.03372141
30	0xbc948d17	-0.018133683
31	0xbd1e176c	-0.038596556

decoders.0.decoder_net.6.weight f4 [32]
0	0x3f7618bf	0.9613151
1	0x3f75e2af	0.96049017
2	0x3f7d7c44	0.9901774
3	0x3f7e5964	0.9935515
4	0x3f81dce4	1.0145535
5	0x3f75f133	0.96071166
6	0x3f782d3b	0.96944016
7	0x3f7b9317	0.98271316
8	0x3f81655d	1.0109059
9	0x3f78762a	0.97055304
10	0x3f7d7a9a	0.990152
11	0x3f77349c	0.9656465
12	0x3f740136	0.9531435
13	0x3f7a3fa6	0.9775337
14	0x3f7cb0be	0.9870719
15	0x3f79b322	0.9753896
16	0x3f7fa849	0.9986616
17	0x3f7a54c2	0.9778558
18	0x3f78d1aa	0.9719492
19	0x3f7db994	0.99111295
20	0x3f78f7d1	0.9725314
21	0x3f7591fc	0.9592588
22	0x3f796816	0.9742445
23	0x3f755c16	0.95843637
24	0x3f793bb8	0.9735675
25	0x3f8015f6	1.0006702
26	0x3f764498	0.96198416
27	0x3f77659c	0.9663942
28	0x3f7bfe81	0.9843522
29	0x3f7731ce	0.9656037
30	0x3f7a3567	0.97737736
31	0x3f7866bc	0.9703176

decoders.0.decoder_net.6.bias f4 [32]
0	0x3ce44b92	0.027868066
1	0x3c8e905d	0.017402822
2	0x3cc111d1	0.023568066
3	0xbc06a98c	-0.008219134
4	0xbd294a40	-0.041330576
5	0x3be6cb92	0.0070433104
6	0xbc918bb6	-0.017766815
7	0x3c3f821b	0.011688734
8	0xbcb0559c	-0.021525197
9	0x3cf63fb4	0.030059673
10	0xbbd78db3	-0.006578171
11	0xbb30b87e	-0.0026965435
12	0x3c5bd647	0.013417787
13	0x3afc4277	0.0019245882
14	0x3cdb73b0	0.026788563
15	0xbd0e887d	-0.034798134
16	0xbbca6c62	-0.006177471
17	0x3dbd55ea	0.092449024
18	0xbcbfac31	-0.023397537
19	0xbc82296e	-0.015888896
20	0xbcc8743b	-0.024469486
21	0x3c8a3d77	0.016875012
22	0x3d4f0baf	0.05054825
23	0xbb9791c5	-0.0046255314
24	0xbc9a06a4	-0.018801995
25	0xbcc57831	-0.024105163
26	0xbccc1117	-0.024910493
27	0xbd540f18	-0.051772207
28	0x3cee6e21	0.029105248
29	0xbd05b7a1	-0.032645825
30	0x3d813f15	0.0631086
31	0x3c02d8ad	0.00798623

decoders.0.decoder_net.6.running_mean f4 [32]
0	0x3d03bbbd	0.032161463
1	0x3d032868	0.032020956
2	0x3d07026c	0.032961294
3	0x3cf343fe	0.029695507
4	0x3cf89bc6	0.030347716
5	0x3cf8ded0	0.030379683
6	0x3d1a3b8b	0.03765444
7	0x3cf90ad5	0.030400673
8	0x3cf9b22e	0.03048047
9	0x3cf3dba3	0.029767817
10	0x3d02936c	0.031878874
11	0x3d04a6f8	0.032385796
12	0x3cf83e22	0.030303065
13	0x3d066967	0.032815363
14	0x3cf38861	0.029728116
15	0x3d020b53	0.03174908
16	0x3d087b62	0.033320792
17	0x3cfffdf8	0.031249031
18	0x3ce8a2af	0.028397886
19	0x3d0a9211	0.033830706
20	0x3cf8657c	0.030321829
21	0x3cf306b2	0.029666279
22	0x3cf729f4	0.030171372
23	0x3d019fc6	0.031646512
24	0x3cfc5608	0.030802742
25	0x3cebd074	0.028785922
26	0x3d0be98c	0.034158275
27	0x3ceebbc2	0.029142264
28	0x3d00a81e	0.03141033
29	0x3d00b98c	0.03142695
30	0x3d0094c7	0.031391885
31	0x3cf20bdd	0.029546672

decoders.0.decoder_net.6.running_var f4 [32]
0	0x3929082a	0.00016120137
1	0x3909a46a	0.00013126587
2	0x3915e3d3	0.00014294618
3	0x390cac5d	0.00013415651
4	0x38fe8cd4	0.00012137895
5	0x38c328f0	9.30595e-05
6	0x39cb444f	0.0003877007
7	0x39279063	0.0001598015
8	0x392cff9b	0.00016498419
9	0x38f08913	0.00011469624
10	0x393df3c8	0.0001811526
11	0x39206e03	0.00015299772
12	0x38f0bd6f	0.000114793766
13	0x3927e26e	0.00016010713
14	0x38d6ce2f	0.0001024272
15	0x3921f9c9	0.00015447209
16	0x397755e0	0.00023587747
17	0x39230634	0.00015547202
18	0x38f85c11	0.0001184271
19	0x39bf7184	0.00036514935
20	0x39112262	0.00013841086
21	0x392edd90	0.00016676472
22	0x393d4201	0.00018049033
23	0x393d5d72	0.00018059256
24	0x391933a1	0.0001461045
25	0x390537cd	0.00012704656
26	0x3967a478	0.00022091146
27	0x3908a167	0.00013030098
28	0x3917092c	0.00014403899
29	0x38e49709	0.0001090002
30	0x3956564d	0.0002044078
31	0x38d7bc5c	0.000102870836

decoders.0.decoder_net.7.weight f4 [32, 16, 3, 3]
0	0xbd0c1fc7	-0.034209993
1	0xbcba64fb	-0.02275323
2	0xbd19d91c	-0.037560567
3	0xbd3a39d8	-0.04546532
4	0xbd6f826e	-0.058473997
5	0xbd571b96	-0.052516542
6	0x3afe2191	0.0019388666
7	0x3d1323e6	0.035922907
8	0xbaf3df67	-0.0018606008
9	0x3d77116d	0.060319353
10	0xbd8fb265	-0.07016448
11	0xbb229263	-0.0024806492
12	0xbd71c0f2	-0.059021898
13	0x3d90ae1c	0.07064459
14	0x3d9791f8	0.07400888
15	0xbd1cc68a	-0.03827528
16	0x3ca95cce	0.020674136
17	0x3d06b08f	0.032883223
18	0xbd48b108	-0.048996955
19	0xbbc16fe6	-0.005903232
20	0xbca29997	-0.019848628
21	0xbd8534a0	-0.06504178
22	0x3d43682a	0.04770676
23	0xbd339482	-0.0438428
24	0x3d31cb87	0.04340699
25	0x3d17b540	0.037038088
26	0xbd8719ae	-0.06596695
27	0xbdc565a8	-0.0963853
28	0xbdb9c7ce	-0.09071313
29	0x3d8e54bd	0.06949756
30	0xbd1ebf22	-0.038756497
31	0x39b51ed2	0.00034545973
32	0x3d8e2fc1	0.06942702
33	0xbcf50c18	-0.029912993
34	0x3ca99879	0.020702587
35	0x3d11af59	0.035567615
36	0xbaef2542	-0.0018245357
37	0xbca8d0af	-0.02060732
38	0xbd9e3289	-0.077244826
39	0x3d9c00ec	0.07617363
40	0xbdb415ff	-0.08793258
41	0x3d5d93db	0.054096084
42	0xbd52949f	-0.051411267
43	0x3c95974f	0.018260626
44	0xbdb9720c	-0.09054956
45	0xbd4a37dc	-0.049369678
46	0x3d37b73e	0.044852488
47	0xbd1bef88	-0.03807023
48	0x3b987a6e	0.0046532666
49	0x3d4a9c78	0.049465626
50	0x3d41a82c	0.04727952
51	0x3bb96bf4	0.005658621
52	0xbceca5ca	-0.028887648
53	0xbb4ba5aa	-0.0031074085
54	0x3c0fd287	0.008778221
55	0xbc9762c7	-0.018479718
56	0xbd5e58fc	-0.05428408
57	0x3c8a7978	0.016903624
58	0xbd53aa2a	-0.051675953
59	0x3d493467	0.04912224
60	0xbc0694d8	-0.008214198
61	0xbceb7393	-0.028741634
62	0xbc917fee	-0.017761197
63	0xbd8fe025	-0.07025174
64	0xbc56bbeb	-0.013106327
65	0xbdab81cd	-0.08374367
66	0xbd4a30e4	-0.049363032
67	0x3d8b91c7	0.06814914
68	0x3d839598	0.06425017
69	0xbd6cd342	-0.05781866
70	0xbcbe0ee7	-0.023200465
71	0x3bd97008	0.0066356696
72	0x3d7cc4df	0.06171119
73	0x3d54fbb6	0.051997863
74	0xbb876405	-0.0041317963
75	0xb9b45dbe	-0.0003440212
76	0xbd7b0fab	-0.06129424
77	0xbdad55e4	-0.08463648
78	0xbd9ff909	-0.078111716
79	0x3d05947f	0.03261232
80	0xbda77b80	-0.08177853
81	0xbc111e8d	-0.0088573815
82	0xbd29a019	-0.041412447
83	0xbd5a13c6	-0.053241514
84	0x3d0f6b50	0.03501445
85	0xbde71865	-0.1128395
86	0xbcf67760	-0.03008622
87	0x3d18b54a	0.037282266
88	0x3d88b213	0.0667459
89	0xbdaa1b3b	-0.08305975
90	0xbd8a0074	-0.06738368
91	0xbce33894	-0.02773694
92	0xbd660f96	-0.056167208
93	0xbbe48c21	-0.0069747125
94	0x3c8a4c00	0.016881943
95	0x3cd41469	0.025888639
96	0x3d4b72ca	0.04967002
97	0x3bf549a5	0.0074855858
98	0x398130e9	0.00024641238
99	0x3d8cffe4	0.06884745
100	0x3c4615f7	0.012090198
101	0x3b2eec80	0.0026691258
102	0x3cd39cb0	0.02583155
103	0x3b83a501	0.0040174727
104	0xbc59d6bb	-0.013295825
105	0xbbfd359b	-0.0077273375
106	0x3d2a0207	0.04150584
107	0xbcacd7e1	-0.021099033
108	0x3d32550e	0.043538146
109	0xbd03659a	-0.032079317
110	0xbd9f3652	-0.07774033
111	0x3d44de96	0.048063837
112	0x3bcc717c	0.0062391143
113	0xbccbba69	-0.02486916
114	0x3cf623bc	0.030046336
115	0x3d3e185a	0.046409942
116	0xbb810809	-0.0039377254
117	0xbc651ee5	-0.013984417
118	0xbd403f11	-0.046935145
119	0x3cff4d0c	0.031164669
120	0xbb16c824	-0.0023007477
121	0x3d5c1b07	0.053736713
122	0x3d8a08a0	0.06739926
123	0xbd880804	-0.06642154
124	0xbd75ef1a	-0.06004248
125	0xbd6f6195	-0.05844267
126	0x3d61f499	0.055164907
127	0x3d0bcbc9	0.03412989
128	0xbd5db2b2	-0.054125495
129	0xbcfc9966	-0.030834865
130	0xbca0caa7	-0.019627882
131	0x3d0964aa	0.033543266
132	0x3cfd8781	0.030948402
133	0x3dcafd48	0.09911591
134	0xbd81f6ad	-0.06345878
135	0x3d63139e	0.05543863
136	0xbd09c665	-0.03363647
137	0xbd39c53c	-0.045354113
138	0x3d526a89	0.05137113
139	0xbd1952c6	-0.037432455
140	0x3d4dd2df	0.05024993
141	0x3d975023	0.07388332
142	0x3c2fb372	0.010723935
143	0x3d454dda	0.04816995
144	0x3d727a94	0.05919893
145	0x3c250117	0.010071061
146	0xbd0b0ee9	-0.033949766
147	0xbd4ccbc2	-0.049999006
148	0x3cad64b5	0.021166185
149	0x3d50d295	0.050982077
150	0x3cc70fd2	0.024299536
151	0x3dc26172	0.094912425
152	0x3d4ba1bd	0.049714793
153	0x3d44894a	0.04798249
154	0xbc3e79ea	-0.011625746
155	0xbb23cbef	-0.002499338
156	0xbd8d4d9b	-0.06899568
157	0x3d5b6649	0.053564344
158	0x3d2aa693	0.041662764
159	0x3d00afe8	0.031417757
160	0xbcaff88b	-0.02148082
161	0xbcdd0e7b	-0.026984444
162	0x3c9ccdeb	0.019141158
163	0x3c2787db	0.010225262
164	0xbd65a44a	-0.05606488
165	0x3d49cc30	0.049266994
166	0xbd9acd28	-0.07558662
167	0xbd5fc66b	-0.054632585
168	0xbd4f0f7c	-0.050551876
169	0x3d33fa9a	0.043940164
170	0xbc0e3ab9	-0.008680993
171	0x3d90b2fd	0.07065389
172	0xbd4ab8bc	-0.049492583
173	0x3d22c441	0.039737944
174	0xbcc47e7e	-0.023986097
175	0xbb57f055	-0.0032949646
176	0x3b9208e9	0.0044566286
177	0xbd384ebf	-0.044996973
178	0xbb59521b	-0.003316051
179	0xbd44da95	-0.04806002
180	0xbd3f42f9	-0.04669473
181	0xbc7576af	-0.01498191
182	0xbdff1938	-0.12455982
183	0x3d51ab96	0.051189028
184	0x3cc4b7a0	0.02401334
185	0x3c0bec73	0.008540261
186	0x3ce9e5cc	0.028551959
187	0x3d4002d9	0.046877716
188	0x3c8c843b	0.017152896
189	0xbd2b9678	-0.041891545
190	0xbc64c62a	-0.013963262
191	0x3bea699f	0.0071537043
192	0x3db42049	0.087952204
193	0xbc5f7620	-0.013639003
194	0x3dd43457	0.103615455
195	0x3d30d286	0.04316952
196	0x3d105b19	0.035243127
197	0x3ce2b204	0.027672775
198	0xbb0c2faf	-0.0021390726
199	0x3d199a8c	0.037500903
200	0x3d0c391f	0.034234162
201	0xbdb1514d	-0.08658085
202	0x3d9381f8	0.07202524
203	0x3db7387c	0.089463204
204	0xbd361a31	-0.04445857
205	0xbcb8e406	-0.022569668
206	0x3d74bd7c	0.05975102
207	0x3d317347	0.043322828
208	0xbd8360e4	-0.06414965
209	0xbd8ff426	-0.070289895
210	0x3d12604b	0.035736363
211	0xbd5c066d	-0.053717066
212	0xbcc635b6	-0.024195533
213	0xbd96e46a	-0.07367785
214	0xbc86fadc	-0.016477041
215	0xbd84c7cb	-0.0648342
216	0x3cb1ec16	0.02171902
217	0x3ccf5be7	0.025312377
218	0xbdb1e453	-0.086861275
219	0x3d98d37a	0.07462211
220	0xbc97ef8b	-0.01854684
221	0x3cca67ce	0.024707701
222	0x3c152c1f	0.009104758
223	0x3d062d98	0.032758325
224	0xbd9638e6	-0.07335071
225	0xbbd43800	-0.0064764023
226	0x3d13edb6	0.03611537
227	0x3b8b0f81	0.0042437916
228	0xbbb66617	-0.0055663693
229	0xbd09652e	-0.033543758
230	0x3d21e189	0.039521728
231	0x3dbc252e	0.09186779
232	0xbd4fe79e	-0.050757997
233	0xbd82700a	-0.06369026
234	0xbd0122d3	-0.03152735
235	0x3d3ae660	0.04562986
236	0xbd3e0ea5	-0.046400685
237	0x3c17c11b	0.0092623485
238	0x3ddb5bec	0.10710892
239	0x3d1cc685	0.03827526
240	0xbd84af1f	-0.06478714
241	0xbd6ab1cc	-0.057298467
242	0x3ce3210e	0.027725723
243	0x3d0f8bfe	0.035045616
244	0x3d3aac24	0.045574322
245	0x3d6b8967	0.057504084
246	0xbcfd227f	-0.030900238
247	0xba7d5784	-0.0009664225
248	0xbc005d8c	-0.007834803
249	0xbd8fd225	-0.07022504
250	0xbd455651	-0.04817802
251	0xbb9ff007	-0.0048809084
252	0x3c48f719	0.012265944
253	0xbc92a17f	-0.017899273
254	0x3d59fd51	0.053220097
255	0xbd9c7933	-0.076403044

decoders.0.decoder_net.7.bias f4 [16]
0	0x3d11ad3a	0.035565592
1	0x3c89dd1d	0.016829068
2	0x3c979d05	0.01850749
3	0xbd2c3e9b	-0.042051893
4	0x3cadf334	0.021234132
5	0xbc376163	-0.011192652
6	0x3d5f9e1f	0.054594155
7	0x3bcbf332	0.0062240595
8	0xbdca84dd	-0.09888623
9	0x3d11f22a	0.035631336
10	0x3cb19795	0.021678725
11	0xbd6732d5	-0.05644496
12	0xbcc5ca50	-0.024144322
13	0x3d204b54	0.03913434
14	0x3aa75c2e	0.001276856
15	0xbcc6f61c	-0.024287276

decoders.0.decoder_net.9.weight f4 [16]
0	0x3f7956d5	0.9739812
1	0x3f75a170	0.9594946
2	0x3f7858ec	0.97010684
3	0x3f78c4ce	0.971753
4	0x3f791ba0	0.9730778
5	0x3f786571	0.9702979
6	0x3f78eebd	0.97239286
7	0x3f7a9ace	0.97892463
8	0x3f77e4e8	0.9683366
9	0x3f7c9e3f	0.98678964
10	0x3f7841f9	0.96975666
11	0x3f7aafaf	0.9792432
12	0x3f77e073	0.9682686
13	0x3f7922f5	0.97318965
14	0x3f783479	0.96955067
15	0x3f78eaab	0.97233075

decoders.0.decoder_net.9.bias f4 [16]
0	0xbe12e07e	-0.1434345
1	0xbda9645e	-0.08271097
2	0xbc9a4b89	-0.018834846
3	0x3ddf819a	0.109133914
4	0x3de24748	0.11048752
5	0xbdba6b5d	-0.09102509
6	0xbd5ffd49	-0.05468491
7	0xbd9cb5f4	-0.07651892
8	0x3d705464	0.05867423
9	0xbdb03e2e	-0.0860561
10	0xbdaa77a9	-0.083236046
11	0x3d88f7b7	0.06687873
12	0xbd596e04	-0.053083435
13	0xbdd69c33	-0.104790114
14	0xbda509d0	-0.08058512
15	0x3e109468	0.14119112

decoders.0.decoder_net.9.running_mean f4 [16]
0	0x3d81d666	0.063397214
1	0x3d8120f3	0.06305113
2	0x3d856e1c	0.06515142
3	0x3d7ada52	0.061243363
4	0x3d81bac0	0.06334448
5	0x3d7d9fcf	0.061919983
6	0x3d8689ca	0.0656925
7	0x3d7fd6f7	0.062460866
8	0x3d6c20f6	0.05764862
9	0x3d84a97d	0.0647764
10	0x3d7fd6ce	0.062460713
11	0x3d6f91e2	0.058488734
12	0x3d750dc1	0.05982757
13	0x3d85985b	0.065232
14	0x3d8100ef	0.06299006
15	0x3d7f3dba	0.062314726

decoders.0.decoder_net.9.running_var f4 [16]
0	0x3a145a18	0.0005659177
1	0x3a396786	0.0007072616
2	0x3a6d7444	0.00090581574
3	0x3a92995c	0.0011184621
4	0x3a4dd50e	0.0007851877
5	0x3a5800c4	0.000823986
6	0x3a4d814f	0.0007839398
7	0x3a2a9204	0.00065067434
8	0x3a513fe1	0.0007982236
9	0x3a551cda	0.00081296044
10	0x3a2b8912	0.00065435574
11	0x3a0fbeea	0.00054834655
12	0x3a169673	0.00057444646
13	0x3a630e18	0.0008661463
14	0x3a5e5a94	0.0008482125
15	0x3a68bc7a	0.0008878183

decoders.0.decoder_net.10.weight f4 [16, 1, 3, 3]
0	0xbea06559	-0.31327322
1	0xbdac8e91	-0.0842563
2	0xbd9df412	-0.07712568
3	0x3e3077c2	0.17233184
4	0xbe8bc697	-0.2729995
5	0x3d51fb0e	0.051264815
6	0xbdec3823	-0.11534145
7	0x3e56f0b7	0.20990263
8	0x3e4fc7d7	0.20291077
9	0xbe855cee	-0.26047462
10	0x3e8d2d15	0.27573457
11	0xbe61f245	-0.22065075
12	0xbe80fe44	-0.2519399
13	0xbe0ca9ad	-0.13736601
14	0xbd73b002	-0.059494026
15	0x3d79e66c	0.061010763
16	0xbe3760b7	-0.17907988
17	0xbc92566c	-0.017863475
18	0x3d3a987a	0.04555557
19	0x3b916e91	0.0044382294
20	0x3e7dce6c	0.24785775
21	0xbe8934a3	-0.2679797
22	0x3e884f3f	0.2662296
23	0xbd913b85	-0.070914306
24	0xbea3b32d	-0.31972638
25	0xbe97b1c3	-0.2962781
26	0xbdc95bdc	-0.09831974
27	0xbe605926	-0.21909007
28	0xbd1fcef5	-0.03901573
29	0x3e438e36	0.19097218
30	0x3da380b5	0.07983533
31	0x3e83d2d5	0.2574679
32	0x3e86e381	0.26345447
33	0xbe70f604	-0.23531348
34	0x3e96153a	0.2931307
35	0xbe3a64fd	-0.18202586
36	0xbcb70c93	-0.022344863
37	0x3e38a606	0.18032083
38	0xbd85201b	-0.06500264
39	0xbd5a9be8	-0.05337134
40	0x3e97c68b	0.29643664
41	0x3e881b3a	0.26583272
42	0x3b94eaa3	0.0045445724
43	0xbd464329	-0.048403893
44	0xbdbbd31e	-0.09171127
45	0xbd3ffeac	-0.046873733
46	0x3e3e3a47	0.18576919
47	0xbe076c84	-0.13224989
48	0xbde9df6e	-0.11419569
49	0xbd2fb48d	-0.042896796
50	0x3acdd7a4	0.0015704525
51	0xbdf08a18	-0.11745089
52	0x3da4e00b	0.08050545
53	0xbcd48017	-0.025939984
54	0x3e554380	0.2082653
55	0xbe0e270b	-0.13882081
56	0xbe2ce664	-0.16884762
57	0xbe9bd155	-0.30433145
58	0x3e0aa0a9	0.1353785
59	0xbe508888	-0.20364583
60	0xbe5670bf	-0.20941447
61	0xbc3a1454	-0.011357386
62	0xbe06f278	-0.13178432
63	0x3d979338	0.074011266
64	0xbe2633cf	-0.16230701
65	0xbe5e31e0	-0.21698713
66	0x3e283594	0.16426688
67	0xbd61b6a7	-0.05510583
68	0xbdab7be1	-0.083732374
69	0xbd75181b	-0.059837442
70	0x3d0df0c0	0.034653425
71	0xbe191925	-0.14950998
72	0x3e9b514f	0.3033547
73	0x3e611d2e	0.21983787
74	0xbdc6d33c	-0.097082585
75	0x3e1872b9	0.14887513
76	0xbb2b619d	-0.0026150711
77	0x3e7e964d	0.24862023
78	0x3ccf69e7	0.025319053
79	0x3db3e322	0.087835565
80	0xbe34e766	-0.17666396
81	0x3d8bbd69	0.068232365
82	0xbe566fa6	-0.20941028
83	0xbdb31f8b	-0.08746251
84	0xbd81cf2d	-0.06338344
85	0xbe241257	-0.16022621
86	0xbe951f01	-0.29125217
87	0x3c719198	0.014744185
88	0x3b01588c	0.0019736616
89	0xbba684f2	-0.0050817663
90	0xbe9584fc	-0.29203022
91	0xbe3e33db	-0.18574469
92	0x3db22bfa	0.08699794
93	0xbe3c9201	-0.18415071
94	0xbe6e46b4	-0.23269159
95	0xbe375347	-0.17902862
96	0x3e3d89e3	0.18509631
97	0xbe3d43c4	-0.18482882
98	0x3e0c18f8	0.136814
99	0x3c9e9ab9	0.019360887
100	0x3e2f1f5b	0.17101805
101	0x3e5a3f2e	0.21313164
102	0x3e9417bf	0.28924367
103	0x3db6cfa8	0.08926326
104	0x3e2082ab	0.15674846
105	0x3dc009c1	0.093768604
106	0x3e869da9	0.2629216
107	0x3ea22f36	0.31676644
108	0xbe081222	-0.13288167
109	0xbe87b082	-0.26501852
110	0xbdac5b2d	-0.08415828
111	0xbdd37fc5	-0.103271045
112	0x3dd72ee9	0.10506994
113	0xbc0d7044	-0.008632723
114	0xbdb50996	-0.08839719
115	0xbe12a6f5	-0.14321502
116	0xbe0f2b4c	-0.1398136
117	0x3e6a7f7a	0.22900191
118	0xbe69f3e4	-0.22846943
119	0xbe4d99bc	-0.20078176
120	0xbce1afba	-0.027549613
121	0xbe112e4c	-0.14177817
122	0xbe1350ac	-0.14386243
123	0x3de355e1	0.111003645
124	0x3d64d65d	0.055868495
125	0x3de4fa4f	0.11180555
126	0xbdce9a6c	-0.100880474
127	0xbe7c892e	-0.24661705
128	0x3dec83bb	0.11548563
129	0x3e907949	0.28217533
130	0xbe6d8845	-0.23196514
131	0xbe929622	-0.28630167
132	0xbdef47a1	-0.11683584
133	0xbe360ed9	-0.17779101
134	0xbd3f15fd	-0.04665183
135	0x3dc5515e	0.0963466
136	0xbd8e0412	-0.0693437
137	0xbe378ac8	-0.17924035
138	0xbe67d6ea	-0.22640577
139	0x3e7c8d03	0.24663167
140	0xbd3eb4ca	-0.046559133
141	0x3e6a29f5	0.22867568
142	0x3e4353cb	0.19074933
143	0xbd323d73	-0.043515634

decoders.1.decoder_net.0.weight f4 [512, 2]
0	0xbdb5bff3	-0.08874502
1	0x3e87adf0	0.2649989
2	0xbf2d5e12	-0.67721665
3	0xbdf46ad2	-0.11934437
4	0xbf186eeb	-0.5954425
5	0x3ee44873	0.44586524
6	0xbe412597	-0.18861996
7	0x3ea1a789	0.31573132
8	0xbe7cd1ee	-0.24689457
9	0xbcc090b1	-0.023506494
10	0x3f299320	0.6624012
11	0xbe07c358	-0.13258111
12	0x3f0e310d	0.55543596
13	0x3f2b2d71	0.66866213
14	0xbe926b8c	-0.28597677
15	0xbf2735ac	-0.6531627
16	0x3eb1f5f2	0.34757954
17	0xbf15bf83	-0.5849535
18	0xbccb1197	-0.02478866
19	0x3ea9321e	0.3304605
20	0x3f29d9e9	0.6634813
21	0xbd184755	-0.037177403
22	0x3d94b2b5	0.07260648
23	0x3e55ab0f	0.20866035
24	0xbefbead3	-0.49202594
25	0x3f29325b	0.6609246
26	0xbf14940b	-0.58038396
27	0x3e8c4509	0.2739642
28	0xbeef5b52	-0.4674936
29	0xbee3a332	-0.44460446
30	0x3f1039c3	0.5633814
31	0xbeb44eb8	-0.35216308
32	0xbe98d87c	-0.29852664
33	0xbf09eae3	-0.53874034
34	0x3ed30b74	0.41219676
35	0xbf03a389	-0.5142141
36	0xbf0ea680	-0.5572281
37	0xbede6d33	-0.43442687
38	0x3f0e45f7	0.5557551
39	0x3f13ad7d	0.576866
40	0xbec68d26	-0.38779563
41	0x3f316ac2	0.69303524
42	0x3ec959a9	0.39326218
43	0xbedb4c97	-0.4283187
44	0x3f2a6d68	0.6657319
45	0xbef00b2e	-0.4688353
46	0x3e24f17f	0.16107748
47	0xbe949c30	-0.29025412
48	0x3c860818	0.016361281
49	0x3e47a02e	0.19494697
50	0xbee36229	-0.44410828
51	0xbf2b99c7	-0.6703152
52	0xbf2f7aeb	-0.6854693
53	0x3ed025b4	0.40653765
54	0x3eca15db	0.394698
55	0xbf1d7e92	-0.61521256
56	0xbdc262f0	-0.09491527
57	0xbf09e054	-0.5385792
58	0xbea0207d	-0.31274787
59	0xbec3717f	-0.38172528
60	0xbe3969ab	-0.18106715
61	0x3eb52806	0.35382098
62	0xbca4ef20	-0.020133555
63	0x3ee3f943	0.4452611
64	0x3d91212c	0.07086405
65	0xbefda139	-0.49537066
66	0x3ddf1d4d	0.108942606
67	0x3e1d3019	0.15350379
68	0x3e182e08	0.1486131
69	0x3e874782	0.26421744
70	0xbe1d3bdb	-0.15354864
71	0xbda89c64	-0.08232954
72	0xbded3e38	-0.11584133
73	0x3f1ec7e5	0.62023765
74	0xbf353848	-0.70789003
75	0xbdb11fc9	-0.08648641
76	0x3f035f50	0.5131731
77	0xbd0f924d	-0.035051633
78	0x3eafd4cf	0.34342048
79	0xbcfdc5fb	-0.030978194
80	0x3f2bf28e	0.67166984
81	0xbe8b82d0	-0.2724824
82	0x3e87a96b	0.26496443
83	0x3efc31a8	0.49256635
84	0x3e239f54	0.15978748
85	0x3f3b5dee	0.731902
86	0x3ebb1172	0.36536747
87	0x3f172788	0.59044695
88	0xbedd1f59	-0.4318798
89	0x3e3dbd3d	0.1852922
90	0x3ef81e05	0.48460403
91	0x3f0df630	0.5545378
92	0xbeb9e305	-0.36306015
93	0xbe5d6686	-0.21621141
94	0x3ede10f6	0.43372315
95	0x3de50183	0.11181929
96	0xbec712eb	-0.3888162
97	0xbf095453	-0.53644294
98	0xbe719941	-0.23593618
99	0x3e7e20f6	0.24817261
100	0xbe564958	-0.20926416
101	0x3f0ab7b3	0.5418655
102	0xbf0bffe7	-0.5468735
103	0xbf0641d6	-0.5244421
104	0xbf058ed4	-0.52171063
105	0xbcaf3e5a	-0.021392036
106	0x3df95c8e	0.121758565
107	0x3e8db7ed	0.27679387
108	0x3f1d80f3	0.61524886
109	0x3df173a1	0.117896326
110	0xbf067683	-0.52524585
111	0xbe980fb7	-0.2969949
112	0xbef74e8a	-0.48302108
113	0x3e288460	0.16456747
114	0x3d39866c	0.04529421
115	0x3d229675	0.03969427
116	0x3d3311d0	0.04371816
117	0xbe6a97d4	-0.2290948
118	0xbf1be76e	-0.6090001
119	0x3ee02cec	0.43784273
120	0xbe5b9dc8	-0.21446908
121	0x3f2f936d	0.6858433
122	0x3e64250e	0.2227976
123	0x3c87bde7	0.016570045
124	0x3dcf7f8c	0.101317495
125	0x3dfb7a10	0.12279141
126	0x3dae9864	0.0852516
127	0x3f0308f3	0.5118553
128	0xbeba20b2	-0.3635307
129	0xbeba6517	-0.3640525
130	0x3f0e65bd	0.5562399
131	0x3eadd082	0.3394814
132	0x3ea25a09	0.31709316
133	0xbe8a1db9	-0.26975802
134	0x3e9395b5	0.28825155
135	0x3e30f508	0.17280972
136	0x3edeae13	0.43492183
137	0xbef2a714	-0.47393095
138	0x3ebf7de0	0.37400723
139	0x3f2928bd	0.66077787
140	0x3ef8e59d	0.4861268
141	0xbe0c1080	-0.13678169
142	0x3f2f620c	0.6850898
143	0xbf0d57ba	-0.55211985
144	0x3ef7a582	0.4836846
145	0x3db9ae16	0.090664074
146	0xbee6cdfa	-0.45079023
147	0x3ed0f669	0.40812996
148	0x3e48f207	0.19623576
149	0x3ed14049	0.40869358
150	0xbf1a19a9	-0.60195404
151	0xbe4a2630	-0.1974113
152	0xbdde7859	-0.10862798
153	0xbf240f53	-0.6408588
154	0xbd993d0d	-0.07482348
155	0x3ee34752	0.4439035
156	0xbf2f2778	-0.684196
157	0xbf0628a3	-0.52405757
158	0x3ec0cbf9	0.3765562
159	0xbc3189e3	-0.010836097
160	0x3f1a3d36	0.6024965
161	0xbe3a3b48	-0.18186677
162	0xbeec0478	-0.4609716
163	0x3f1626b3	0.586528
164	0xbed955a2	-0.42448145
165	0xbdcf1e38	-0.10113186
166	0x3ea33966	0.3187973
167	0xbdfbba75	-0.12291423
168	0x3f02015a	0.5078331
169	0xbeb3350c	-0.3500141
170	0x3f1555d0	0.58334064
171	0x3ef60dbc	0.48057353
172	0xbea65f24	-0.32494462
173	0x3ead2359	0.3381603
174	0xbe973916	-0.2953574
175	0x3e96dfd2	0.29467636
176	0x3e4895a9	0.19588341
177	0xbf220ef6	-0.6330408
178	0xbee5228d	-0.44752923
179	0xbf2f4af9	-0.68473774
180	0x3f141f17	0.5785994
181	0xbf091b26	-0.5355705
182	0x3f2f6fbd	0.68529874
183	0xbe7f4cac	-0.24931592
184	0xbf0c46bd	-0.5479544
185	0xbeb56455	-0.3542811
186	0xbe42e15e	-0.19031283
187	0xbeae0458	-0.3398769
188	0xbe694a2e	-0.22782204
189	0x3efe811f	0.49707887
190	0x3e9ad169	0.30237892
191	0x3e074050	0.13208127
192	0x3e2fa9bf	0.17154597
193	0xbf0188f1	-0.5059958
194	0xbf051267	-0.51981205
195	0x3f07095e	0.5274867
196	0x3e7e6bfd	0.24845882
197	0xbf2243ba	-0.6338459
198	0x3e9794c8	0.296057
199	0xbf09a1cd	-0.53762513
200	0x3e8015e6	0.25016707
201	0xbeb383f9	-0.35061625
202	0xbe83f918	-0.2577598
203	0xbf1f9a85	-0.62345153
204	0xbee71a67	-0.4513733
205	0xbf1432ae	-0.5788983
206	0x3ee5a17e	0.4484977
207	0x3e05b40a	0.1305696
208	0xbdd6e18d	-0.10492239
209	0xbdf44d5b	-0.11928817
210	0x3f24c15e	0.64357555
211	0x3db7c542	0.08973171
212	0x3e986328	0.2976315
213	0xbf15c69a	-0.58506167
214	0x3eeb7fc8	0.45995927
215	0x3cd4af50	0.025962502
216	0xbdcec30d	-0.10095797
217	0xbe17ae31	-0.14812542
218	0xbe62ab6c	-0.22135705
219	0xbebd8099	-0.37012175
220	0xbe5c6237	-0.21521841
221	0x3e71f419	0.23628272
222	0x3e7f533e	0.24934098
223	0x3e911fe5	0.28344646
224	0xbf0d8c8b	-0.55292577
225	0x3e814d43	0.2525426
226	0xbe9f7dec	-0.31150758
227	0x3f228349	0.63481575
228	0xbf320631	-0.695407
229	0x3d5f3f80	0.054503918
230	0xbe0ffa45	-0.14060314
231	0x3e3a1782	0.1817303
232	0xbe07b8d5	-0.13254102
233	0xbc880451	-0.01660362
234	0xbf135764	-0.5755522
235	0xbf1e5afa	-0.6185757
236	0xbef4fd79	-0.47849634
237	0x3e2d6bd1	0.1693566
238	0x3ec7b888	0.39007974
239	0x3e1f2271	0.15540482
240	0xbe10df04	-0.14147574
241	0x3e800150	0.25001
242	0xbec00eb4	-0.37511218
243	0xbf18dc33	-0.59711
244	0x3eab1a11	0.33418325
245	0x3f0e6621	0.55624586
246	0xbeaf9ce9	-0.342994
247	0x3e433bc4	0.19065768
248	0xbf0bb0d4	-0.54566693
249	0xbf1ddf7b	-0.6166913
250	0x3cdfa581	0.027300598
251	0x3f1ca46c	0.6118839
252	0xbdefcec4	-0.11709359
253	0xbe8b82df	-0.27248284
254	0x3e14aa5d	0.14518113
255	0x3cb3e78b	0.021960994
