Project2/models/model_3_10.pt (torch, 285474 bytes, 75 tensors)

prior.mean f4 [2]
0	0x00000000	0.0
1	0x00000000	0.0

prior.std f4 [2]
0	0x3f800000	1.0
1	0x3f800000	1.0

decoders.0.decoder_net.0.weight f4 [512, 2]
0	0x3b5b6426	0.0033476441
1	0xbf212d37	-0.6295962
2	0x3efc1580	0.49235153
3	0xbe43da90	-0.19126344
4	0xbec0053b	-0.3750399
5	0x3f0359e2	0.51309025
6	0xbf0a1658	-0.53940344
7	0xbf198608	-0.5997014
8	0xbd58d9d5	-0.052942116
9	0x3e4da523	0.20082526
10	0x3ec1b874	0.3783604
11	0x3eab0287	0.33400366
12	0x3e293d8f	0.16527389
13	0x3dba7708	0.09104735
14	0xbef24bb6	-0.47323388
15	0xbe93e085	-0.28882232
16	0x3e88ad5f	0.26694772
17	0xbf0ab4c0	-0.5418205
18	0x3ecde7d6	0.4021594
19	0xbe112850	-0.14175534
20	0x3ef96250	0.4870782
21	0xbf0e3a8d	-0.5555809
22	0x3f1560a2	0.58350575
23	0xbecf1ab0	-0.40450048
24	0xbed2d210	-0.4117589
25	0x3e6170c0	0.22015667
26	0xbeba5411	-0.36392263
27	0xbf23d1fb	-0.6399228
28	0xbf2990b8	-0.6623645
29	0xbe420870	-0.18948531
30	0xbebd2e50	-0.36949396
31	0xbede6c41	-0.43441966
32	0xbe3ca716	-0.18423113
33	0xbf00edbc	-0.50362754
34	0xbe5bc2e4	-0.21461064
35	0x3e4f776e	0.20260403
36	0xbe947e3d	-0.29002562
37	0xbe63366c	-0.22188729
38	0x3ea047c4	0.31304753
39	0x3f29fde9	0.6640306
40	0xbf1ca943	-0.6119577
41	0x3f23206c	0.63721347
42	0x3f1b0cea	0.6056658
43	0x3de1520c	0.11001977
44	0xbf2e668f	-0.6812524
45	0xbf0f556f	-0.55989736
46	0x3ef4c896	0.47809285
47	0x3d7bd10a	0.061478652
48	0xbf1a255a	-0.60213244
49	0x3f1bfba9	0.6093088
50	0x3ea1e58e	0.3162045
51	0x3e07b7ce	0.1325371
52	0x3eaaf756	0.33391827
53	0x3eb73b73	0.35787544
54	0x3e19a860	0.15005636
55	0xbea645be	-0.32475084
56	0x3dffb5e0	0.12485862
57	0x3eb05998	0.34443355
58	0xbd26b6ab	-0.04070155
59	0xbe9ad39e	-0.30239576
60	0x3f00a74a	0.5025526
61	0x3ec5f499	0.38663176
62	0x3f0f9926	0.5609306
63	0x3d3c6e6a	0.046003737
64	0xbf1fe766	-0.6246246
65	0x3e917fd9	0.28417853
66	0x3ef6aa24	0.48176682
67	0x3ec08c11	0.37606862
68	0xbf0d7eb4	-0.5527146
69	0x3e0056a9	0.12533058
70	0x3c86f837	0.01647578
71	0xbe6d8cf9	-0.23198308
72	0x3f0812a5	0.5315345
73	0xbebb7e89	-0.36619976
74	0xbe256c23	-0.16154532
75	0xbea19b53	-0.31563815
76	0x3ed25555	0.41080728
77	0x3f1f2933	0.6217224
78	0xbf10541d	-0.56378347
79	0x3ef4727b	0.47743592
80	0xbefd59e2	-0.49482638
81	0xbf19a054	-0.60010266
82	0x3f1b6846	0.60705984
83	0x3dde2725	0.1084731
84	0xbef3e021	-0.47631934
85	0xbce5b972	-0.028042529
86	0x3ee09eca	0.43871146
87	0xbe85e80e	-0.26153606
88	0x3d9210b6	0.071320936
89	0x3ef8d142	0.4859715
90	0xbeff9f67	-0.49926302
91	0x3f1d75ca	0.61507857
92	0x3ed849e7	0.42243883
93	0x3ef34e64	0.47520745
94	0x3f2314c5	0.63703567
95	0x3f262c6e	0.64911544
96	0x3eb99396	0.36245412
97	0x3defcf4a	0.11709459
98	0x3e6c9a0c	0.23105639
99	0x3eb917ee	0.3615107
100	0xbf17a823	-0.5924093
101	0xbf1c4515	-0.6104291
102	0xbf1b8c1b	-0.6076066
103	0xbeef6a37	-0.46760723
104	0xbe155a5e	-0.14585254
105	0x3ebf22e7	0.37331316
106	0xbf0ffa5d	-0.562414
107	0x3e0ff3c6	0.14057836
108	0xbec31dc0	-0.38108635
109	0xbf0ad1a6	-0.5422615
110	0x3d79959a	0.060933687
111	0xbe080529	-0.13283218
112	0x3ee24e82	0.44200522
113	0x3f26a245	0.65091354
114	0xbe602634	-0.21889573
115	0xbe9fdad2	-0.31221634
116	0xbf2127e2	-0.6295148
117	0xbee94b56	-0.4556529
118	0x3efc03a4	0.49221528
119	0xbe2da53a	-0.1695756
120	0x3ec9a3f5	0.39382902
121	0xbe3166b4	-0.17324334
122	0xbf17e2d7	-0.59330505
123	0xbf1043d5	-0.56353503
124	0x3f437cdb	0.7636239
125	0xbe1e8604	-0.1548081
126	0x3eea4147	0.45752928
127	0xbf0d4133	-0.5517761
128	0x3cc78e87	0.024359955
129	0x3e8c42e2	0.27394778
130	0xbed16e51	-0.40904477
131	0xbf1b665f	-0.6070308
132	0xbeb67df4	-0.3564297
133	0x3d929036	0.07156412
134	0xbf228b74	-0.6349404
135	0x3eea8237	0.4580247
136	0x3ed74184	0.42042172
137	0x3f0751c9	0.5285917
138	0xbb887f3a	-0.004165557
139	0xbeb5bae2	-0.35494143
140	0x3f1f264b	0.62167805
141	0xbf47f0b2	-0.78101647
142	0x3db1921a	0.08670445
143	0x3e8a7f3c	0.27050197
144	0x3c922ddb	0.017844131
145	0xbecabf8f	-0.39599273
146	0x3f01a5d7	0.50643677
147	0x3f2dad5b	0.67842644
148	0x3ef64823	0.4810191
149	0x3e64072d	0.22268362
150	0x3dbcbbfb	0.09215542
151	0x3f11fbf0	0.5702505
152	0xbea93f6d	-0.33056203
153	0xbf02ed50	-0.5114336
154	0x3da3ad34	0.0799202
155	0x3ef1da82	0.4723702
156	0xbd50031d	-0.05078422
157	0x3ee16110	0.44019365
158	0x3efc9e08	0.49339318
159	0xbe14e3f4	-0.14540082
160	0x3ef8dc78	0.48605704
161	0x3d7b541e	0.061359517
162	0x3f0004be	0.50007236
163	0xbe67322f	-0.22577737
164	0x3f1dd030	0.61645794
165	0x3e608ad8	0.21927965
166	0x3ead42f1	0.33840135
167	0x3e6a618c	0.22888774
168	0x3def7767	0.11692696
169	0x3f3125aa	0.69198096
170	0x3e882c8d	0.2659649
171	0x3dde317f	0.108492844
172	0xbf0d7882	-0.55262005
173	0xbf37b553	-0.71761054
174	0xbeadb911	-0.33930257
175	0x3ed6760c	0.41886938
176	0x3dec8fae	0.11550842
177	0xbebf8861	-0.37408736
178	0x3f0830db	0.5319955
179	0xbe502698	-0.20327222
180	0x3e853def	0.26023814
181	0xbe68d50a	-0.22737518
182	0x3f36bbef	0.71380514
183	0x3e840037	0.25781414
184	0xbe8f2522	-0.27958018
185	0x3efc6105	0.4929277
186	0xbf3f2d70	-0.7467871
187	0x3ec0ffe0	0.37695217
188	0xbeb4ea91	-0.3533521
189	0xbeb43f57	-0.35204574
190	0xbf01102b	-0.50415295
191	0x3f118fac	0.5685985
192	0x3f0d1bff	0.55120844
193	0x3ec59930	0.38593435
194	0x3f037bd3	0.51360816
195	0x3dcd9cf4	0.10039702
196	0xbf201953	-0.6253864
197	0xbe988afd	-0.2979354
198	0x3f0e490f	0.5558023
199	0x3f292e3f	0.6608619
200	0x3e353493	0.17695837
201	0x3f1454a6	0.57941663
202	0xbe450345	-0.19239528
203	0xbf399146	-0.72487295
204	0x3f3cbadd	0.7372263
205	0x3eacf7c8	0.33782792
206	0xbee746f3	-0.45171317
207	0xbed68fb7	-0.4190652
208	0x3f0acd8d	0.54219896
209	0x3f2dbe2e	0.67868316
210	0x3e2edf78	0.17077434
211	0xbece608c	-0.40308034
212	0xbe58eb8d	-0.21183605
213	0xbf1edaf0	-0.6205282
214	0xbecb268d	-0.3967785
215	0x3e78f768	0.24313128
216	0x3dce2e9f	0.10067486
217	0xbeec3287	-0.461323
218	0xbf0ef6bf	-0.55845255
219	0x3f30d5b2	0.69076073
220	0xbebdd39c	-0.37075508
221	0xbe47a857	-0.1949781
222	0xbe24d827	-0.1609808
223	0xbe634fc1	-0.22198392
224	0xbdd855c8	-0.105632365
225	0xbed51af3	-0.41622123
226	0x3f049348	0.51787233
227	0xbea8a9ce	-0.3294205
228	0x3d83b778	0.06431478
229	0x3ee3ad4c	0.44468153
230	0xbe6bdb42	-0.23032859
231	0xbf10abba	-0.56512034
232	0xbebee5a5	-0.3728458
233	0x3e0f6bea	0.1400601
234	0xbf0c4f94	-0.54808927
235	0xbeb2277c	-0.3479575
236	0xbe8f0473	-0.27933082
237	0xbf163e76	-0.5868906
238	0xbeb17c47	-0.3466513
239	0xbf1e71bd	-0.618923
240	0x3f28b5ab	0.65902203
241	0x3f31f6fd	0.695175
242	0x3ebaf844	0.36517537
243	0x3e897f08	0.2685473
244	0xbe7a224a	-0.24427143
245	0xbde59655	-0.11210314
246	0x3eda8eb2	0.42686993
247	0x3f208389	0.62700707
248	0x3f19ab79	0.6002727
249	0x3e8d471d	0.27593318
250	0x3eda4441	0.426302
251	0xbefc8461	-0.49319747
252	0xbedb6134	-0.42847598
253	0x3f1d3dec	0.6142261
254	0x3e346831	0.17617871
255	0x3ed60cbd	0.41806594

decoders.0.decoder_net.0.bias f4 [512]
0	0xbf111142	-0.5666696
1	0xbf1a7709	-0.60337883
2	0x3f12dcbf	0.5736808
3	0xbeda5d01	-0.4264908
4	0xbe9884b4	-0.29788744
5	0x3f27ea70	0.655921
6	0xbf3de6fa	-0.7418057
7	0x3f116b0e	0.5680398
8	0xbf11033e	-0.5664557
9	0x3f3a7e72	0.7284919
10	0xbece0e33	-0.40245208
11	0xbe67aa0c	-0.22623461
12	0xbc3ed014	-0.011646289
13	0x3da00659	0.07813711
14	0xbea9e094	-0.33179152
15	0xbe90b0a4	-0.28259766
16	0x3e30f5cb	0.17281263
17	0xbeb5b7d8	-0.35491824
18	0xbc8f54b0	-0.017496437
19	0xbee92b29	-0.4554074
20	0x3ea4cf57	0.32189438
21	0xbf1e0402	-0.61724865
22	0xbf4fc981	-0.81166846
23	0x3e2a246e	0.1661546
24	0xbe87d0f4	-0.26526606
25	0x3f1d706c	0.6149967
26	0x3c91f4cb	0.017816922
27	0xbe146b64	-0.14494091
28	0x3ecc5abb	0.39912972
29	0xbecff561	-0.40616897
30	0x3eef9271	0.46791413
31	0xbf3e4717	-0.74327224
32	0x3ef06739	0.46953753
33	0xbe8934cf	-0.26798102
34	0x3f05c5e0	0.5225506
35	0x3ea58b78	0.3233297
36	0xbe589186	-0.21149263
37	0xbe8c43e1	-0.27395537
38	0x3e80a393	0.25124797
39	0xbf180eaa	-0.59397376
40	0xbeda704c	-0.426638
41	0x3f29c7ba	0.66320384
42	0xbcdc38f6	-0.02688263
43	0xbea1c068	-0.31592107
44	0xbdca4337	-0.098761015
45	0xbea5860e	-0.32328838
46	0x3dd3bdd8	0.10338944
47	0x3c499803	0.012304309
48	0xbdee02d2	-0.11621632
49	0x3f14762c	0.57992816
50	0xbe69e9de	-0.2284312
51	0x3f1b9c28	0.6078515
52	0xbf1dc1f1	-0.61624056
53	0x3f024907	0.5089268
54	0xbe77075b	-0.241239
55	0x3e41d7ac	0.18929929
56	0xbf1167e9	-0.5679918
57	0xbe94d259	-0.29066733
58	0xbf1ba8c7	-0.6080441
59	0x3f00d77a	0.5032879
60	0xbe57bd1c	-0.21068233
61	0xbddfc8ed	-0.109269954
62	0x3da5db2e	0.08098446
63	0xbed64fb7	-0.41857693
64	0x3f03493c	0.5128362
65	0x3f0c4962	0.54799473
66	0xbf2bfbf2	-0.67181313
67	0xbf1eaaba	-0.6197926
68	0x3e09cb80	0.13456535
69	0x3f009907	0.502335
70	0x3e426fb2	0.18987921
71	0x3e948cb4	0.29013598
72	0x3e1d670d	0.15371342
73	0xbd4f23d9	-0.050571296
74	0xbf362706	-0.71153295
75	0xbf2087df	-0.6270732
76	0x3e685d4c	0.2269184
77	0x3e98b6d2	0.2982698
78	0x3bd7978d	0.0065793456
79	0xbd373d9b	-0.044736486
80	0xbe5666d3	-0.20937662
81	0xbe7f9998	-0.24960935
82	0xbf17e82d	-0.5933865
83	0xbe904af6	-0.2818219
84	0xbe0715a2	-0.13191846
85	0x3ec14cbc	0.37753856
86	0x3d3efb70	0.04662651
87	0x3ee324d8	0.44364047
88	0xbf15049b	-0.5821015
89	0x3daaf7ce	0.08348046
90	0x3e16f00b	0.14740007
91	0xbeb835d8	-0.3597858
92	0x3f19661a	0.5992142
93	0x3f159323	0.5842764
94	0x3e0b47f6	0.1360167
95	0xbe7fc8fe	-0.24979016
96	0x3efccd60	0.4937544
97	0xbe5857f0	-0.21127295
98	0xbf09f83a	-0.5389439
99	0x3ead9384	0.33901608
100	0x3d813f9a	0.06310959
101	0xbe40ddf5	-0.1883467
102	0x3f45aa59	0.77213055
103	0x3e7d33f6	0.24726853
104	0x3e355515	0.17708237
105	0x3f03f8d3	0.5155155
106	0xbdcd45c8	-0.10023075
107	0x3ef44973	0.47712287
108	0x3f1edd92	0.6205684
109	0xbee6cc94	-0.45077956
110	0x3e52eb50	0.20597577
111	0x3f0e5712	0.5560161
112	0x3ebce608	0.3689425
113	0xbe99a541	-0.3000889
114	0x3e181800	0.14852905
115	0xbdaabe1c	-0.08337042
116	0xbe591696	-0.21200022
117	0x3f298959	0.662252
118	0xbead4157	-0.33838913
119	0xbf01de62	-0.50729954
120	0x3e98b5c8	0.29826188
121	0x3bc57b49	0.0060266596
122	0x3dc5077a	0.09620567
123	0x3f3b6c3c	0.7321203
124	0xbddd5c87	-0.10808664
125	0xbf093211	-0.5359202
126	0x3d631e58	0.05544886
127	0x3f198023	0.59961146
128	0x3ecd307d	0.40076056
129	0xbf0044aa	-0.50104773
130	0xbf09a731	-0.5377074
131	0xbde7d07b	-0.11319061
132	0x3f29baf5	0.663009
133	0xbecee38f	-0.40407988
134	0x3d89941a	0.06717701
135	0xbf0ad3ff	-0.5422973
136	0x3d8b3db0	0.06798875
137	0xbf24d72c	-0.64390826
138	0xbd03b016	-0.03215035
139	0x3e971131	0.29505304
140	0x3e8fbb4c	0.28072584
141	0x3f07b979	0.53017384
142	0x3ea1ac5e	0.31576818
143	0xbe6be32b	-0.23035876
144	0x3f293272	0.660926
145	0xbe506244	-0.20349985
146	0x3eadaadc	0.33919418
147	0x3eeecba9	0.46639755
148	0xbe72dc94	-0.23716956
149	0x3e7b4165	0.24536665
150	0xbf25b8ac	-0.6473491
151	0xbf0d4353	-0.55180854
152	0x3d9b3b70	0.07579696
153	0x3f2355d2	0.63802826
154	0x3e8379ac	0.25678766
155	0x3e9cff46	0.30663508
156	0xbe4e8c8a	-0.20170799
157	0x3d5e1fb5	0.054229457
158	0x3efd2a86	0.49446505
159	0xbe9f9394	-0.3116728
160	0x3f0744d5	0.52839404
161	0xbe8fd516	-0.2809226
162	0xbebe2cad	-0.3714346
163	0x3ed4faee	0.41597694
164	0xbed0ab79	-0.40755823
165	0xbf158a91	-0.5841456
166	0x3f2070dd	0.62672216
167	0x3e04febf	0.12987803
168	0x3e99eb8a	0.30062515
169	0x3e863c14	0.2621771
170	0xbd496fda	-0.049178936
171	0xbf2f9ba7	-0.6859688
172	0x3eea1239	0.45717028
173	0x3e0c007c	0.1367206
174	0xbf23ccad	-0.63984185
175	0x3f08036e	0.53130233
176	0x3e8a3087	0.26990148
177	0xbf1d0129	-0.61329895
178	0xbd01147e	-0.031513683
179	0x3e6aeaab	0.22941081
180	0xbd232359	-0.039828632
181	0xbf1cf043	-0.6130411
182	0x3e999bea	0.30001765
183	0x3e62cde7	0.22148858
184	0x3eafaac6	0.34309977
185	0x3e2ebf8d	0.17065258
186	0x3f1e7347	0.6189465
187	0xbd8be4dd	-0.068307616
188	0x3e8a007b	0.26953492
189	0xbeed57fd	-0.46356192
190	0xbd57cce3	-0.05268563
191	0xbe5cfe83	-0.21581464
192	0x3e912a73	0.283527
193	0xbeefa25d	-0.4680356
194	0x3da24bab	0.07924589
195	0xbea67b86	-0.32516116
196	0x3e818d58	0.2530315
197	0x3d6802a5	0.056643147
198	0xbf39a494	-0.7251675
199	0x3eaa38d1	0.33246472
200	0xbf24849f	-0.64264864
201	0xbec3b8c3	-0.382269
202	0x3ea5ea88	0.32405496
203	0xbf0764f1	-0.528884
204	0x3ea5e940	0.32404518
205	0xbee42500	-0.4455948
206	0x3ee91534	0.4552399
207	0x3ecc868a	0.39946395
208	0x3f1ad71b	0.60484475
209	0x3ec466e1	0.3835974
210	0xbf2199fd	-0.6312559
211	0xbd020dbf	-0.03175139
212	0x3edf3d14	0.43601286
213	0xbe16acf7	-0.14714418
214	0xbf065d6b	-0.52486295
215	0x3e565d75	0.20934089
216	0x3efb860c	0.49125707
217	0x3eea7df8	0.45799232
218	0xbf0cd20f	-0.55008024
219	0x3f06670e	0.52501
220	0x3f0f9038	0.56079435
221	0xbef46ed7	-0.47740814
222	0xbf26a283	-0.65091723
223	0x3e44f7e9	0.19235195
224	0xbee7ba9d	-0.45259562
225	0xbed31eda	-0.41234475
226	0xbedda4cb	-0.4328979
227	0xbf06b952	-0.52626526
228	0xbe1e86bc	-0.15481085
229	0xbeddb8c4	-0.43305027
230	0x3e7c1e16	0.24620852
231	0x3d2e668d	0.04257827
232	0xbf22a15c	-0.63527465
233	0x3f0fa4d7	0.561109
234	0xbe4b8233	-0.19873886
235	0x3e75922f	0.23981546
236	0xbd46f23b	-0.048570853
237	0x3f1d186b	0.61365384
238	0xbeb844b4	-0.35989916
239	0xbf0b2b7c	-0.54363227
240	0x3dca6172	0.098818675
241	0xbe92ff1f	-0.28710267
242	0x3f325a81	0.6966935
243	0xbdbf800a	-0.093505934
244	0x3f282618	0.65683126
245	0xbed6ed66	-0.41977996
246	0xbedcb91d	-0.4310998
247	0xbe249aaa	-0.16074625
248	0x3efc3d3c	0.49265468
249	0xbf268b23	-0.65056056
250	0xbf52c5b0	-0.823329
251	0xbf12a63e	-0.57284915
252	0xbf27056b	-0.6524264
253	0x3ef97425	0.48721424
254	0xbe8decde	-0.27719778
255	0xbee77255	-0.45204416

decoders.0.decoder_net.3.weight f4 [32]
0	0x3f81903e	1.0122144
1	0x3f805e12	1.0028708
2	0x3f7fd38f	0.9993219
3	0x3f7c3cda	0.9853035
4	0x3f843dbf	1.0331343
5	0x3f7ba276	0.9829477
6	0x3f8523df	1.0401572
7	0x3f7d7b33	0.9901611
8	0x3f7d4c5b	0.98944634
9	0x3f81a42b	1.0128225
10	0x3f7f2d66	0.9967865
11	0x3f81a290	1.0127735
12	0x3f8346c2	1.0255969
13	0x3f81e6c0	1.0148544
14	0x3f7856b1	0.9700728
15	0x3f7e7094	0.9939053
16	0x3f7d1e86	0.988747
17	0x3f7d0395	0.9883359
18	0x3f7d4c10	0.9894419
19	0x3f810ff0	1.0082989
20	0x3f812ec5	1.0092398
21	0x3f7e1fff	0.9926757
22	0x3f827a13	1.0193504
23	0x3f7345af	0.95028204
24	0x3f82168e	1.0163133
25	0x3f782e20	0.9694538
26	0x3f83f541	1.030922
27	0x3f83510b	1.0259107
28	0x3f81cfe1	1.0141565
29	0x3f827096	1.0190609
30	0x3f7b43ee	0.9815053
31	0x3f874193	1.0566887

decoders.0.decoder_net.3.bias f4 [32]
0	0xbd134e08	-0.03596309
1	0xbcab633d	-0.020921344
2	0xbd64cc49	-0.055858884
3	0x3c1aeb4b	0.009455512
4	0xbbce2668	-0.0062911995
5	0x3d32e87d	0.04367875
6	0xbb0c2bdc	-0.0021388447
7	0x3dc0596f	0.09392058
8	0x3c9ba8c7	0.019001378
9	0x3d1dbc4d	0.038509656
10	0xbcbe74bd	-0.023249025
11	0x3b1cb33a	0.0023910538
12	0xbcf3c441	-0.029756667
13	0xbcf43931	-0.029812427
14	0x3b595d12	0.0033167046
15	0xbd4bb13b	-0.049729567
16	0x3cbc9f8f	0.023025302
17	0xbd45c23d	-0.048280943
18	0x3b975b16	0.0046190126
19	0xbd4aa237	-0.049471106
20	0x3a245d93	0.0006270047
21	0x3d3e217d	0.046418656
22	0x3b47c11f	0.00304801
23	0x3c659b51	0.014014081
24	0xbd5d41d3	-0.054017853
25	0xbd3a58f8	-0.045495003
26	0x3c4e7bb4	0.012602735
27	0x3cb5a2f6	0.022172432
28	0xbd1096bc	-0.0353
29	0x3b0fc9c7	0.0021940337
30	0xbcfab72d	-0.030604923
31	0x3d24eb53	0.040263485

decoders.0.decoder_net.3.running_mean f4 [32]
0	0x3d133d5f	0.0359472
1	0x3c9a7827	0.018856121
2	0x3cab1451	0.020883711
3	0x3cee5071	0.029091092
4	0x3d2de71b	0.042456727
5	0x3cbdbac7	0.023160351
6	0x3d0d28a8	0.0344626
7	0x3cfd04f3	0.030886149
8	0x3d4428c4	0.04789044
9	0x3cf921e9	0.030411677
10	0x3cf4b590	0.029871732
11	0x3d4a60b4	0.04940863
12	0x3d049b48	0.03237465
13	0x3d2d1b57	0.0422624
14	0x3c997279	0.018731343
15	0x3d287cb1	0.04113454
16	0x3cef7800	0.029232025
17	0x3caa2457	0.020769281
18	0x3cf67bea	0.030088384
19	0x3c96af85	0.018394241
20	0x3d125779	0.03572795
21	0x3d45be83	0.04827739
22	0x3d0316e8	0.032004267
23	0x3ca9537b	0.02066969
24	0x3d2f4400	0.04278946
25	0x3c8590d7	0.016304417
26	0x3d26026e	0.04052966
27	0x3cb1247d	0.021623844
28	0x3cf658cb	0.030071637
29	0x3ce582b6	0.02801643
30	0x3ce3e98e	0.027821328
31	0x3cf488f1	0.029850455

decoders.0.decoder_net.3.running_var f4 [32]
0	0x3aad2928	0.0013211118
1	0x39b9c74b	0.00035434435
2	0x3a155501	0.00056965655
3	0x3a657a9f	0.00087539287
4	0x3c194b57	0.009356341
5	0x3a0134e7	0.00049288425
6	0x3acd5b68	0.00156675
7	0x3abda0d4	0.0014467486
8	0x3ba55afd	0.005046247
9	0x3a87ac27	0.0010350988
10	0x3aa367a9	0.0012466806
11	0x3b8bea7f	0.0042698975
12	0x3b39df6a	0.0028361925
13	0x3baf4794	0.005349109
14	0x39d1f05d	0.0004004267
15	0x3b393f76	0.0028266585
16	0x3adf02f7	0.0017014433
17	0x39aa1a58	0.00032444554
18	0x3ab00a25	0.0013430758
19	0x39c530ec	0.00037611218
20	0x3b14668d	0.0022644133
21	0x3b5e7509	0.003394427
22	0x3ac613f8	0.0015112152
23	0x3a2394e8	0.00062401453
24	0x3b33cdb4	0.002743584
25	0x39b2dbe1	0.00034114628
26	0x3b9349c8	0.0044948794
27	0x3a58ff84	0.0008277821
28	0x3ab98d91	0.001415657
29	0x3af1ab99	0.0018437981
30	0x3ab88eab	0.0014080604
31	0x3ae7aa2f	0.001767462

decoders.0.decoder_net.4.weight f4 [32, 32, 3, 3]
0	0x3d9c60a1	0.07635618
1	0xbc488ed0	-0.01224108
2	0x3c726ec8	0.01479692
3	0x3d09a753	0.03360684
4	0xbd907627	-0.07053786
5	0x3c668be0	0.014071435
6	0xb9489b0c	-0.00019131246
7	0x3cb19b9d	0.021680648
8	0xbcffe148	-0.031235352
9	0x3c83d302	0.016091827
10	0xbd1378ac	-0.036003754
11	0x3d79282f	0.060829338
12	0x3d0d0932	0.034432597
13	0x3d00152f	0.031270202
14	0xbc11ea02	-0.0089058895
15	0xbd3183c0	-0.043338537
16	0xbc2494aa	-0.01004521
17	0x3bee31a0	0.0072690994
18	0xbb8f0c43	-0.0043654754
19	0x3c935831	0.017986389
20	0xbd135c6f	-0.035976823
21	0x3d1854e4	0.037190333
22	0x3bc307cb	0.0059518567
23	0x3d5835dd	0.052785743
24	0x3b9355db	0.0044963188
25	0x3c6a25fa	0.014291281
26	0xbc8b9278	-0.017037615
27	0x3d815d1a	0.06316586
28	0x3d1ebe70	0.038755834
29	0xbc95d316	-0.01828913
30	0x3c0f34a1	0.008740575
31	0xbd5a814c	-0.053345963
32	0xbc9b0479	-0.018923031
33	0x3a405fbe	0.00073384854
34	0xbbab3a5f	-0.0052254642
35	0x3ce2fe81	0.027709248
36	0xbc97ed38	-0.018545732
37	0x3d47b853	0.04875977
38	0xbcb8b136	-0.022545438
39	0x3d9c3b5c	0.076285094
40	0x3d294588	0.041326076
41	0x3c8b5647	0.017008914
42	0x3d472742	0.048621424
43	0xbc0c7649	-0.008573123
44	0x3d3509d6	0.044198833
45	0xbcc3886d	-0.023868764
46	0xbca5469c	-0.02017527
47	0x3c940822	0.018070284
48	0xbda56c6a	-0.08077319
49	0x3d9e71f8	0.077365816
50	0x3dcfb976	0.10142796
51	0xbce916dd	-0.028453285
52	0xbd3c2166	-0.04593029
53	0x3cbe23e3	0.023210471
54	0xbd369a38	-0.04458067
55	0x3c824219	0.015900658
56	0xbcbdda48	-0.023175374
57	0x3c460587	0.012086279
58	0xbd312e88	-0.043257266
59	0xbcd46665	-0.025927732
60	0x3cbcc63b	0.023043742
61	0xbd99ac11	-0.07503522
62	0x3c8234b3	0.01589427
63	0xbd0a6117	-0.033784
64	0x3babbdfb	0.0052411533
65	0x3c9a0839	0.018802749
66	0x3ce97cc0	0.028501868
67	0xbd887f02	-0.0666485
68	0xbc7fff98	-0.015624903
69	0xbcc155d7	-0.023600502
70	0x3d3c9a1d	0.04604541
71	0xbd5e5960	-0.054284453
72	0xbcf38ccb	-0.029730221
73	0x3d308165	0.04309215
74	0xbd0193a6	-0.03163495
75	0x3c662626	0.014047181
76	0x3c9b82d3	0.01898328
77	0xbb122878	-0.0022301953
78	0x3cda619c	0.026657872
79	0x3cf8f0b7	0.03038822
80	0x3cd83ecf	0.026397137
81	0x3db38a34	0.087665945
82	0x3c3f83bb	0.011689122
83	0x3d38af71	0.04508919
84	0xbd778273	-0.06042714
85	0x3c400e16	0.011722108
86	0xbbfb5d0a	-0.007671003
87	0xbc0bd2f6	-0.008534184
88	0x3d480525	0.04883303
89	0x3cf43397	0.029809756
90	0x3cf62f41	0.03005183
91	0xbc5d5af3	-0.0135104535
92	0x3ba49fed	0.0050239475
93	0xbcb21f2b	-0.021743378
94	0xbd541fe4	-0.051788226
95	0x3d4b58c9	0.04964522
96	0xbc61d1dc	-0.0137829445
97	0xbc6a96d9	-0.014318191
98	0x3c6200ad	0.013794106
99	0x3d4ba80f	0.04972082
100	0xbd249d8c	-0.04018931
101	0x3cbc3072	0.02297232
102	0xbd22e191	-0.0397659
103	0x3c9280fc	0.01788377
104	0xbd1dd780	-0.038535595
105	0x3c85cffe	0.01633453
106	0x3c1531e2	0.009106131
107	0xbc788e97	-0.015170715
108	0xbc1f1e2b	-0.009711782
109	0x3d912c1d	0.07088492
110	0xbc77f1d9	-0.015133345
111	0xbd140f5b	-0.036147457
112	0x3d6ed493	0.058308195
113	0x3cb93e4a	0.02261271
114	0x3d496439	0.049167845
115	0x3d703432	0.058643527
116	0x3d03f9bb	0.032220583
117	0xbd387c39	-0.045040343
118	0x3d41ea94	0.04734285
119	0xbd6da2dc	-0.058016643
120	0xbd87f6be	-0.06638859
121	0x3c4ab9d9	0.012373411
122	0xbaf5adb7	-0.0018743788
123	0x3d140fd3	0.036147904
124	0x3d7b771b	0.061392885
125	0xbd35473f	-0.0442574
126	0x3d121765	0.035666842
127	0x3d5673f2	0.052356668
128	0x3d277aac	0.040888473
129	0x3d39f6df	0.04540145
130	0xbd99e016	-0.07513444
131	0x3d61bfd9	0.0551146
132	0xbc2bc712	-0.010484474
133	0xbb588f7f	-0.0033044515
134	0x389e98f8	7.56252e-05
135	0xbd2f66e4	-0.042822734
136	0xbb9f00d3	-0.004852393
137	0x3d0197f3	0.03163905
138	0x3d2a97a2	0.041648515
139	0x3c79ffc7	0.015258736
140	0x3c887b80	0.016660452
141	0xbc78d97e	-0.015188573
142	0x3c7bdaff	0.015372037
143	0x3d2b92f0	0.041888177
144	0x3d16894f	0.03675204
145	0xbd96a468	-0.07355577
146	0x3cfb1d94	0.030653752
147	0xbc9e883d	-0.019352073
148	0xbbc6da0f	-0.006068475
149	0xbba33d26	-0.0049816547
150	0x3d32b7ec	0.043632433
151	0xbcaad10a	-0.02085163
152	0x3ce25f50	0.02763334
153	0xbc350f7e	-0.011051057
154	0xbaa2f051	-0.0012431239
155	0xbcf7e3d2	-0.03026
156	0x3db37e38	0.08764309
157	0x3d043b4f	0.032283124
158	0xbd93f364	-0.072241575
159	0x3d5ce2d2	0.05392725
160	0x3d3b1821	0.045677308
161	0xbca68aec	-0.020329915
162	0xbcbb62a5	-0.022874186
163	0xbd44508b	-0.047928374
164	0x3d18f992	0.037347384
165	0x3d42cabf	0.047556635
166	0x3d324d82	0.04353095
167	0x3df04ab9	0.11733002
168	0x3d8688b0	0.0656904
169	0xbcdfab65	-0.027303407
170	0xbd6c3e63	-0.057676684
171	0x3d7e1774	0.062034085
172	0x3bd8abd4	0.0066122804
173	0x3ad6518f	0.0016351211
174	0x3d71b020	0.059005857
175	0xbce33749	-0.027736323
176	0x3b670710	0.0035252012
177	0x3d81f3d0	0.06345332
178	0x3c6e9bb3	0.014563489
179	0xbd19b610	-0.037527144
180	0xbda3489b	-0.07972833
181	0x3d704df5	0.058668096
182	0x3caf96f2	0.021434281
183	0x3c1965c3	0.009362641
184	0x3d7e4167	0.06207409
185	0xbd7e6e4a	-0.0621169
186	0xbd9d8892	-0.07692064
187	0x3c8e9603	0.017405516
188	0x3d392227	0.045198586
189	0x3c80e814	0.015735663
190	0xbd3210eb	-0.043473165
191	0x3dae5251	0.08511794
192	0xbc122cae	-0.008921785
193	0xbd99499f	-0.07484745
194	0x3c88cc11	0.016698869
195	0x3be40973	0.0069591342
196	0x3b25474e	0.0025219503
197	0xb9f28780	-0.00046258792
198	0x3c537193	0.012905496
199	0xbd20ebef	-0.039287504
200	0x3cf450ed	0.029823745
201	0x3cc5267f	0.024066208
202	0x3d3cd2d7	0.04609951
203	0x3d8a2587	0.06745439
204	0x3c2d7e4f	0.010589196
205	0xbcb4dbf0	-0.02207753
206	0x3d745b8f	0.05965763
207	0x3c882772	0.016620371
208	0xbd5fff55	-0.054686863
209	0x3d7a8d74	0.061170056
210	0xbce76abf	-0.028249143
211	0xbd88639c	-0.06659624
212	0xbb0394b0	-0.0020077638
213	0x3da85656	0.08219592
214	0xbc717613	-0.014737624
215	0x3d4d3798	0.050101846
216	0xbd1acc83	-0.037792694
217	0xbd63bb51	-0.05559856
218	0x3d2a8ac9	0.041636262
219	0xbcf1db5c	-0.029523544
220	0x3c16a89b	0.009195472
221	0xbda98e9a	-0.08279152
222	0xb8cddccf	-9.8162905e-05
223	0x3ce27198	0.027642056
224	0x3c0aca31	0.008471058
225	0x3d720187	0.059083488
226	0xbd3702b1	-0.0446803
227	0xbd4990bb	-0.04921029
228	0x3cdcb625	0.026942322
229	0x3d488982	0.048959263
230	0xbce0829f	-0.027406035
231	0x3d1d4070	0.03839153
232	0x3d501e89	0.05081037
233	0x3d13a6f5	0.036047895
234	0xbc47ae85	-0.012187605
235	0xbbc9ba59	-0.0061562476
236	0xbda97b5f	-0.08275484
237	0x3cf85914	0.030315913
238	0xbce8267f	-0.028338669
239	0xbce24566	-0.027620982
240	0x3d18f97e	0.03734731
241	0x3c601999	0.013677978
242	0xbd139585	-0.036031265
243	0xbd8ec10f	-0.06970417
244	0xbc816633	-0.015795803
245	0x3d676e8d	0.056501914
246	0xbd49cfdb	-0.049270492
247	0x3b1b5210	0.0023700036
248	0x3b9bc023	0.004753129
249	0xbd574535	-0.052556235
250	0xbbebe459	-0.007198852
251	0x3a4445bd	0.00074871985
252	0x3d5d9282	0.0540948
253	0xbbe48b5c	-0.0069746207
254	0xbd264414	-0.040592268
255	0xbbbc902a	-0.0057544904

decoders.0.decoder_net.4.bias f4 [32]
0	0x3d6d5548	0.05794266
1	0x3dd48c63	0.10378339
2	0xbcb4f579	-0.022089707
3	0x3b50e1a3	0.0031872771
4	0x3d876c04	0.06612399
5	0xbe1f18e9	-0.15536846
6	0xbc7c92b7	-0.015415839
7	0x3c9dca31	0.019261451
8	0xbd00cd99	-0.031446073
9	0xbca60dcf	-0.020270256
10	0x3d286283	0.041109573
11	0x3d3ff78e	0.046866946
12	0x3b875761	0.0041302894
13	0xbd0bdc9e	-0.034145944
14	0xba8430a7	-0.00100853
15	0xbda7da9b	-0.081959926
16	0xbafc242f	-0.0019236858
17	0xbb7b0af1	-0.0038306082
18	0x3d903392	0.07041086
19	0xbc8a40de	-0.016876634
20	0xbd91c167	-0.07116967
21	0x38c075af	9.177194e-05
22	0xbd358653	-0.044317555
23	0x3c0789f0	0.008272633
24	0x3b50d9d7	0.0031868124
25	0xbcba4050	-0.022735745
26	0x3cd3290f	0.025776414
27	0x3d8ea6d0	0.06965411
28	0xbd0ca91f	-0.034340974
29	0xbcd345b9	-0.025790082
30	0x3cab88f2	0.020939324
31	0x3cd47753	0.025935804

decoders.0.decoder_net.6.weight f4 [32]
0	0x3f758e5b	0.9592034
1	0x3f738eb5	0.9513963
2	0x3f72262d	0.945895
3	0x3f69e485	0.9136432
4	0x3f77c0a5	0.9677833
5	0x3f7de4b0	0.99177074
6	0x3f73e01e	0.9526385
7	0x3f73ea77	0.9527964
8	0x3f6ce80c	0.92541575
9	0x3f76aea5	0.96360236
10	0x3f686ad6	0.9078802
11	0x3f7f98d9	0.998426
12	0x3f7031bf	0.93825907
13	0x3f6a6fb1	0.9157668
14	0x3f79d958	0.97597265
15	0x3f7d712a	0.990008
16	0x3f715ed6	0.94285333
17	0x3f73575e	0.95055187
18	0x3f80f522	1.0074809
19	0x3f76ff85	0.9648364
20	0x3f6ae44a	0.9175459
21	0x3f7c72c6	0.9861263
22	0x3f7460d0	0.95460224
23	0x3f72bafe	0.9481658
24	0x3f6eed4b	0.9333083
25	0x3f7071e1	0.93923765
26	0x3f6fd5d1	0.9368563
27	0x3f7290b9	0.9475208
28	0x3f771161	0.96510893
29	0x3f742834	0.95373845
30	0x3f706894	0.93909574
31	0x3f78e1b9	0.97219425

decoders.0.decoder_net.6.bias f4 [32]
0	0xbc56ed9a	-0.013118172
1	0x3c726415	0.014794369
2	0xbc6d7b88	-0.014494784
3	0x3c032343	0.0080040125
4	0xbd775ad4	-0.060389355
5	0x3c1ea7ec	0.00968359
6	0xbd6b83ae	-0.057498626
7	0xbd3f9db6	-0.046781264
8	0xbccf93c1	-0.02533901
9	0x3c5c5421	0.013447792
10	0xbcf310c7	-0.029671086
11	0xbc03fbb8	-0.00805562
12	0xbb5eb8af	-0.0033984592
13	0xbd268089	-0.040649924
14	0xbcbe7b57	-0.023252172
15	0x3c89f494	0.016840257
16	0xbd393110	-0.045212805
17	0xbd452e62	-0.048139937
18	0x3bbfc81c	0.0058527123
19	0x3d1d0f64	0.038344756
20	0xbba996a1	-0.005175427
21	0xbd45bf26	-0.048277996
22	0x3d0c20e6	0.034211062
23	0x3cc28f73	0.023750043
24	0xbcb883c1	-0.022523763
25	0xbce46654	-0.027880825
26	0x3ca41b54	0.020032562
27	0x3c37731f	0.011196881
28	0x3d4c092e	0.049813442
29	0x3d3cd0f7	0.046097722
30	0x3d207522	0.039174207
31	0x3c8a7462	0.016901199

decoders.0.decoder_net.6.running_mean f4 [32]
0	0x3d090329	0.03345028
1	0x3d0f5d2b	0.03500096
2	0x3d031b73	0.0320086
3	0x3d022d79	0.031781647
4	0x3d04eae7	0.032450583
5	0x3cd7b6da	0.026332308
6	0x3cef9fa7	0.029250933
7	0x3cfc83a9	0.0308245
8	0x3cf60823	0.030033177
9	0x3cf2db77	0.029645665
10	0x3d037153	0.032090496
11	0x3d08e64f	0.033422764
12	0x3d0625fb	0.032751065
13	0x3cf7460a	0.030184764
14	0x3d0229a4	0.031777993
15	0x3cf44e50	0.029822499
16	0x3cfe905c	0.031074695
17	0x3cf1a29f	0.02949649
18	0x3d0e436c	0.034732267
19	0x3d044a0c	0.03229718
20	0x3ce692cc	0.02814617
21	0x3cfd07b5	0.030887464
22	0x3cfad2e9	0.030618148
23	0x3cfcc3cc	0.030855082
24	0x3d014b43	0.031565916
25	0x3cf48bf5	0.029851893
26	0x3cfdd250	0.030984074
27	0x3d10d20d	0.03535657
28	0x3cf1e397	0.029527469
29	0x3cfa6ca8	0.03056939
30	0x3d02f401	0.03197098
31	0x3cffe658	0.031237766

decoders.0.decoder_net.6.running_var f4 [32]
0	0x39474bb7	0.00019006325
1	0x396b4d57	0.00022440158
2	0x396e668e	0.00022735653
3	0x3975ea5d	0.00023452328
4	0x39647341	0.0002178671
5	0x39066e5a	0.00012820345
6	0x390bccee	0.00013332415
7	0x391fd8b8	0.00015244156
8	0x3921c787	0.00015428486
9	0x390c52c4	0.00013382273
10	0x39197177	0.00014633486
11	0x3986296b	0.0002558933
12	0x3991b106	0.00027788448
13	0x3925bfb1	0.00015807037
14	0x3961b3b0	0.00021524611
15	0x399649d6	0.00028665242
16	0x393ec3de	0.00018192778
17	0x38c3740d	9.319941e-05
18	0x39ba634f	0.00035550675
19	0x39889d09	0.00026056942
20	0x38c615f3	9.445464e-05
21	0x394b9890	0.00019416423
22	0x3975b2e8	0.00023431669
23	0x39124132	0.00013947932
24	0x399b17d9	0.00029581672
25	0x3922b611	0.00015517349
26	0x39321f94	0.00016987167
27	0x39a70753	0.0003185818
28	0x3913c08b	0.0001409074
29	0x395b60bf	0.00020921508
30	0x395ebc2c	0.0002124167
31	0x390259c9	0.00012431214

decoders.0.decoder_net.7.weight f4 [32, 16, 3, 3]
0	0xbc8ea80a	-0.017414112
1	0xbc3843f4	-0.01124667
2	0x3d81f9a0	0.0634644
3	0x3d652ef9	0.055953
4	0x3d3c030c	0.045901343
5	0xbbe47ac8	-0.0069726445
6	0x3d44cb13	0.04804523
7	0xbc769da5	-0.015052234
8	0x3d2f43c3	0.042789232
9	0x3d59e782	0.0531993
10	0x3d966b76	0.07344715
11	0x3d6113cc	0.05495052
12	0xbcda5442	-0.026651505
13	0xbdc34656	-0.095349
14	0x3d67829b	0.05652104
15	0xbd695fe6	-0.05697622
16	0xbd14f08d	-0.03636222
17	0xbd22e911	-0.03977305
18	0xbd66fb02	-0.056391723
19	0x3bc94c84	0.0061431546
20	0x3db6fb8d	0.08934698
21	0x3d62852a	0.055302776
22	0x3d392451	0.04520065
23	0x3ba747ed	0.00510501
24	0xbcd26e0d	-0.025687242
25	0xbd100ac5	-0.03516652
26	0x3c61ed84	0.013789538
27	0x3d116305	0.035494823
28	0xbd244681	-0.0401063
29	0x3d51ccbe	0.051220648
30	0xbc3129d9	-0.0108132
31	0x3d6d6fc7	0.057967927
32	0xbd5fa9e5	-0.054605383
33	0x3c8311dc	0.015999727
34	0x3da0bea8	0.07848865
35	0x3b867fef	0.0041046063
36	0x3c171dd4	0.00922342
37	0xbdb5520b	-0.08853539
38	0xbd17f6a6	-0.037100457
39	0x3d3b65bb	0.045751315
40	0xbd2f2679	-0.0427613
41	0x3c769b0b	0.015051614
42	0xbc63228a	-0.013863215
43	0xbceae224	-0.028672285
44	0xbd1c11c4	-0.03810288
45	0xbc6d0de8	-0.014468648
46	0x3d95a608	0.073070586
47	0x3ce4358a	0.02785756
48	0x3d8eb1d0	0.06967509
49	0x3c893957	0.016750975
50	0x3d8f247f	0.06989383
51	0x3d11c2db	0.03558622
52	0xbd1963f4	-0.03744884
53	0x3d71904b	0.0589755
54	0x3b8f6909	0.004376535
55	0xbd7b9823	-0.061424386
56	0x398f92b2	0.00027384382
57	0xbdabb407	-0.08383947
58	0x3d9ac0d4	0.0755631
59	0xbd3ee32f	-0.046603378
60	0xbc418dc5	-0.011813586
61	0x3be92fb5	0.007116283
62	0x3cc0515c	0.023476295
63	0xbd45e7ea	-0.048316874
64	0xba8cbac0	-0.0010736808
65	0x3cd1fa6e	0.02563211
66	0x3d3be6e7	0.045874503
67	0x3d599230	0.05311793
68	0xbae31cd4	-0.0017327317
69	0x3d6f2dd5	0.05839332
70	0x3db0c375	0.086310305
71	0x3b53804b	0.0032272513
72	0x3d6dc56d	0.058049608
73	0x3d1a7e60	0.037718177
74	0xbd3f0bae	-0.046641998
75	0xbda4caa3	-0.080464624
76	0xbc9961cc	-0.018723391
77	0x3c5c1355	0.0134323435
78	0xbcfcd889	-0.03086497
79	0x3d4b04da	0.049565174
80	0xbc74d96a	-0.014944414
81	0xbceaa819	-0.028644608
82	0xbd2453d9	-0.040119026
83	0x3d8d39bc	0.068957776
84	0x3d9db219	0.07699985
85	0x3cca3657	0.024684114
86	0x3c0476b0	0.008084938
87	0xbd8c0c49	-0.06838281
88	0xbbd9c71b	-0.0066460497
89	0xbd6755c7	-0.056478288
90	0x3c4ab863	0.012373063
91	0xbbd178f7	-0.006392594
92	0x3d630e92	0.055433817
93	0xbd2d6178	-0.04232928
94	0x3cb77e81	0.022399189
95	0xbce3621c	-0.027756743
96	0xbd15520f	-0.03645521
97	0xbd8b9cf9	-0.068170495
98	0xbc8ff328	-0.017572
99	0xbd99daf4	-0.07512465
100	0x3bdf4795	0.006813953
101	0xbd57fd72	-0.05273194
102	0xbcd0cba1	-0.025487723
103	0x3dbbbc54	0.0916678
104	0xbdd30a5d	-0.10304711
105	0xbb907043	-0.004407914
106	0x3d9149d9	0.070941634
107	0xbae541ca	-0.001749092
108	0x3d93541c	0.07193777
109	0xbd455f6c	-0.048186705
110	0x3c45af4e	0.012065722
111	0x3d11119d	0.035417188
112	0xbdecb7f5	-0.115585245
113	0xbdb76315	-0.08954445
114	0xbd797686	-0.06090405
115	0xbd83c622	-0.06434275
116	0x3d7d0254	0.0617698
117	0xbd5653ed	-0.05232613
118	0x3d51ccf1	0.051220838
119	0xbd86b91f	-0.06578278
120	0x3db3fc89	0.08788402
121	0xbce08a34	-0.02740965
122	0x3d9362ac	0.071965545
123	0xbc843847	-0.016140116
124	0xbd501d7b	-0.050809365
125	0x3cc5ca2c	0.024144255
126	0x3d8b7453	0.068092965
127	0xbbe09373	-0.006853515
128	0x3bfdd7b7	0.0077466625
129	0xbd73b046	-0.05949428
130	0xbd9b68ab	-0.07588323
131	0xbd067cbc	-0.0328338
132	0x3c6d5502	0.0144855995
133	0xbca8fcef	-0.02062842
134	0xbbd1dcee	-0.0064045107
135	0xbbfcc8ff	-0.0077143903
136	0xbd9a36ba	-0.075299695
137	0xbd174f00	-0.036940575
138	0x3c8ab3ac	0.016931377
139	0xbdcd6ec9	-0.10030896
140	0xbccfbf82	-0.025359873
141	0xbc6f2bee	-0.014597876
142	0xbdadaa2f	-0.084797256
143	0x3d522e4b	0.05131368
144	0xbd4edac6	-0.050501607
145	0x3acb2472	0.0015498532
146	0xbd756811	-0.0599137
147	0x3d3828f4	0.04496093
148	0xbd371be4	-0.044704333
149	0x3db44e89	0.08804042
150	0xbd013298	-0.03154239
151	0xbc9e6b2a	-0.01933821
152	0x3d1e5b82	0.038661487
153	0x3c4b72ea	0.012417534
154	0xbc124411	-0.008927361
155	0x3d56e2cd	0.052462388
156	0xbbc975d2	-0.0061480785
157	0x3d21789e	0.03942167
158	0xbd10197b	-0.03518055
159	0x3aef3af9	0.0018251828
160	0x3d89e220	0.06732583
161	0x3ce75e90	0.028243333
162	0x3bb71e71	0.0055883457
163	0x3bc293b3	0.0059380173
164	0xbd53329b	-0.051561933
165	0xbd652cf4	-0.055951074
166	0x3d258c8d	0.040417243
167	0xbd449aba	-0.04799912
168	0xbc7f4a8b	-0.015581737
169	0x3ce14110	0.027496845
170	0xbd6d3e12	-0.057920523
171	0x3cd13d55	0.02554194
172	0xbc2a0a9f	-0.010378509
173	0xbd4fa12d	-0.05069082
174	0xbcdd54af	-0.02701792
175	0x3da099ac	0.078418106
176	0xbda8f29f	-0.08249401
177	0x3d806d94	0.062709
178	0xbde8db60	-0.113699675
179	0x3c86ad9b	0.016440203
180	0x3d613838	0.054985255
181	0xbcb31667	-0.021861268
182	0x3be2f93d	0.006926684
183	0x3d3c183b	0.045921545
184	0xbd976aa4	-0.07393387
185	0x3d06fd96	0.032956682
186	0x3aa6ea97	0.0012734708
187	0x3d89f63f	0.06736421
188	0xbcbf2e23	-0.02333743
189	0x3cdd5bcd	0.027021313
190	0x3d28d62a	0.041219868
191	0x3c9efe51	0.019408377
192	0x3c33b7d3	0.01096912
193	0xbd621195	-0.05519255
194	0xbcb70aa2	-0.022343937
195	0xbdc35ae5	-0.09538821
196	0x3c533aab	0.0128924055
197	0x3d5c6c54	0.053814247
198	0xbd8d4082	-0.068970695
199	0x3c518bfe	0.012789724
200	0x3cd32657	0.025775118
201	0xbc0ae61c	-0.008477714
202	0xbd1936f0	-0.037405908
203	0x3d8d2def	0.06893527
204	0xbc29fb5c	-0.01037487
205	0x3c507d39	0.012725168
206	0x3cc733f7	0.024316771
207	0x3d6ba0da	0.057526447
208	0xbd0fadf7	-0.035078015
209	0xbd7822fa	-0.06058023
210	0x3c19d5a0	0.009389311
211	0x3d927aa4	0.07152298
212	0xbbfd6d25	-0.0077339583
213	0x3b9fe453	0.0048795133
214	0xbd8bff29	-0.06835777
215	0x3d4ce091	0.05001885
216	0x3d9e36cb	0.07725295
217	0x3cc16172	0.023606036
218	0x3d4b3d55	0.049619038
219	0x3d51d0f4	0.051224664
220	0x3dad7695	0.08469883
221	0x3d0cb1fb	0.034349423
222	0x3c14b9c2	0.009077491
223	0xbcd8ec32	-0.026479814
224	0xbd99caa1	-0.075093515
225	0x3d5f7fa5	0.05456509
226	0x3d355460	0.04426992
227	0xbd5e53db	-0.05427919
228	0xbca6321a	-0.020287562
229	0xbd4266f6	-0.047461472
230	0xbd055267	-0.032549288
231	0xbd398f9b	-0.04530297
232	0x3d5a7bdc	0.053340778
233	0xbd6e651b	-0.05820189
234	0xbd202bed	-0.03910439
235	0x3c8aff56	0.016967457
236	0x3c5a831e	0.013336925
237	0x3cb38965	0.0219161
238	0xbdaf5281	-0.08560658
239	0x3ca81781	0.02051902
240	0x3d85aa91	0.065266736
241	0xbd1578a3	-0.036492
242	0xbc6a84dc	-0.014313903
243	0x3d2ed93b	0.042687636
244	0x3d3b1a3e	0.045679323
245	0xbc600602	-0.013673307
246	0xbd3faa11	-0.046793047
247	0x3d5c0898	0.053719133
248	0x3d746ca3	0.059673917
249	0x3cbbc101	0.02291918
250	0xbd95db2b	-0.073171936
251	0xbd1da2c3	-0.0384853
252	0x3d6bc51a	0.057561018
253	0xbd8b45d1	-0.06800426
254	0x3da6d255	0.081455864
255	0x3d1e94d3	0.03871615

decoders.0.decoder_net.7.bias f4 [16]
0	0xbcf5f7e0	-0.030025423
1	0xbd3ab4ee	-0.045582704
2	0x3df40da0	0.11916661
3	0xbde4ff32	-0.11181487
4	0xbde19427	-0.11014586
5	0x3d975b04	0.07390407
6	0x3d8f7abc	0.070058316
7	0xbd98eb0d	-0.074667074
8	0xbe23872f	-0.15969537
9	0x3d8d7d47	0.069086604
10	0x3d3ba538	0.04581186
11	0xbd5f2bf5	-0.05448528
12	0xbe08a8e4	-0.13345677
13	0x3d4c815b	0.04992805
14	0x3dd1001f	0.10205101
15	0xbcb47592	-0.022028718

decoders.0.decoder_net.9.weight f4 [16]
0	0x3f763fce	0.9619111
1	0x3f75cf5e	0.9601954
2	0x3f72711e	0.94703853
3	0x3f75863a	0.9590794
4	0x3f747cfa	0.955032
5	0x3f76848e	0.9629601
6	0x3f7367ce	0.9508027
7	0x3f768617	0.96298355
8	0x3f744781	0.95421606
9	0x3f778b67	0.96697086
10	0x3f751cd6	0.95747125
11	0x3f72a5d8	0.9478431
12	0x3f7745d2	0.9659091
13	0x3f75b956	0.95985925
14	0x3f75295d	0.9576624
15	0x3f73f9e3	0.9530317

decoders.0.decoder_net.9.bias f4 [16]
0	0x3c4bbe01	0.012435437
1	0x3d862646	0.06550269
2	0x3cd0014a	0.02539124
3	0xbdb39fcc	-0.08770713
4	0xbcc364ce	-0.023851778
5	0x3d1237dd	0.035697807
6	0x3c976373	0.018480038
7	0x3d0504d6	0.032475315
8	0x3c99f8e5	0.01879544
9	0xbd484456	-0.048893295
10	0x3d495680	0.04915476
11	0xbcadcaa3	-0.021214789
12	0x3c4ee25e	0.012627212
13	0xbc8744ca	-0.016512293
14	0x3cb22260	0.021744907
15	0xbd165625	-0.036703248

decoders.0.decoder_net.9.running_mean f4 [16]
0	0x3d77e771	0.060523454
1	0x3d77a0ac	0.060455963
2	0x3d8fc24b	0.0701948
3	0x3d699d6d	0.0570349
4	0x3d66e79c	0.056373224
5	0x3d89e305	0.06732754
6	0x3d8da2cf	0.06915819
7	0x3d70853c	0.058720812
8	0x3d5ba46d	0.053623606
9	0x3d8ca95a	0.06868239
10	0x3d88db1c	0.06682417
11	0x3d77bfbf	0.060485598
12	0x3d655456	0.055988632
13	0x3d83a476	0.06427853
14	0x3d8def96	0.06930463
15	0x3d79f3aa	0.06102339

decoders.0.decoder_net.9.running_var f4 [16]
0	0x3a176b64	0.00057761953
1	0x3a774bc6	0.00094335934
2	0x3a61b4b2	0.00086099945
3	0x3a500ab6	0.00079361664
4	0x3a368735	0.00069628964
5	0x3a6d396e	0.000904939
6	0x3ac5580f	0.0015056151
7	0x3a4d63ef	0.00078350207
8	0x3a18f129	0.00058342755
9	0x3a824926	0.0009940013
10	0x3a7e7b61	0.0009707716
11	0x3a42c0aa	0.0007429222
12	0x3a2996c7	0.0006469306
13	0x3a0d4e1a	0.0005390361
14	0x3a5bac65	0.0008379876
15	0x3a484368	0.0007639439

decoders.0.decoder_net.10.weight f4 [16, 1, 3, 3]
0	0xbda32501	-0.07966042
1	0xbe485fbd	-0.19567771
2	0x3d972cfe	0.073816285
3	0xbe15567f	-0.14583777
4	0xbe37c4d9	-0.17946185
5	0xbe61dedf	-0.22057675
6	0x3da2beff	0.07946586
7	0xbe2fc4fd	-0.17164989
8	0xbe57a148	-0.21057618
9	0xbcd1e72c	-0.025622927
10	0x3cd63d6a	0.026152331
11	0x3e32051e	0.17384765
12	0x3e61dc73	0.22056751
13	0xbc1a85e9	-0.009431341
14	0xbe4a3fad	-0.19750853
15	0xbdd94e02	-0.10610582
16	0xbe79e6d4	-0.2440446
17	0xbde69d0d	-0.11260424
18	0x3e094329	0.13404526
19	0x3de0a0d0	0.109681726
20	0xbe1e7a55	-0.15476353
21	0x3e38589f	0.18002556
22	0xbe89c211	-0.26905873
23	0x3e805484	0.2506448
24	0x3dde79a8	0.10863048
25	0xbe0adc97	-0.13560711
26	0x3e140548	0.1445514
27	0xbe8a5d7b	-0.27024445
28	0xbdbbff7d	-0.0917959
29	0xbdfbedfe	-0.12301253
30	0xbe338bc4	-0.17533785
31	0xbe1eaedb	-0.1549639
32	0x3d8618e1	0.06547714
33	0x3e8e5349	0.27797917
34	0x3d4082b7	0.04699966
35	0x3e5bc5a7	0.21462117
36	0x3d97e144	0.07416013
37	0x3e5198d3	0.20468454
38	0x3e61b268	0.22040713
39	0xbe3594e8	-0.17732584
40	0x3bfa6bf3	0.007642263
41	0x3e86bb4f	0.2631478
42	0x3d2b15bb	0.04176877
43	0x3dd63c4a	0.10460718
44	0x3ca5ddfd	0.020247454
45	0xbd55b292	-0.05217225
46	0x3c91a861	0.017780485
47	0xbd508c4b	-0.050915044
48	0x3dd9a72c	0.10627589
49	0xbdcc5569	-0.09977228
50	0x3d44ca40	0.048044443
51	0xbe13d085	-0.14435013
52	0xbde52ba3	-0.11189964
53	0xbdcd07d6	-0.1001126
54	0xbe19fee9	-0.15038647
55	0x3e7bca68	0.2458893
56	0x3d401c85	0.0469022
57	0x3e8602c5	0.26173988
58	0xbc8c2726	-0.017108511
59	0x3d03905a	0.032120086
60	0xbe1eafc0	-0.15496731
61	0xbe85ca9d	-0.26131144
62	0x3e80baf9	0.2514265
63	0x3d6df4ca	0.058094777
64	0x3e74f9ff	0.23923491
65	0x3e7404dc	0.23829979
66	0x3e937382	0.28799063
67	0x3e663b64	0.22483593
68	0xbd96e47e	-0.073678
69	0x3e3ee148	0.18640625
70	0xbcf347fb	-0.029697409
71	0xbe5f7756	-0.21822867
72	0x3c8a9873	0.016918397
73	0x3e26bb19	0.1628231
74	0x3da7e6b6	0.081983015
75	0x3c0b9b68	0.008520938
76	0xbd7a8dca	-0.061170377
77	0x3e1c5207	0.15265666
78	0x3e308d2e	0.17241356
79	0x3e209150	0.15680432
80	0xbe3077aa	-0.17233148
81	0xbe76ee0a	-0.24114242
82	0xbd18025b	-0.03711162
83	0x3d3d0d32	0.046155162
84	0x3deca50b	0.11554917
85	0x3e3bef51	0.1835301
86	0x3d820091	0.06347764
87	0x3dace250	0.08441603
88	0xbd2ffe1a	-0.04296694
89	0x3d74846e	0.059696607
90	0xbcb3cf0c	-0.021949314
91	0x3e8a5002	0.27014166
92	0xbe7ab30c	-0.24482363
93	0xbde1e940	-0.11030817
94	0x3e5346f6	0.20632538
95	0xbe0e00ac	-0.13867444
96	0x3e754eff	0.23955916
97	0x3dad3e83	0.08459189
98	0xbc1d9b0d	-0.0096194865
99	0xbda43b57	-0.08019131
100	0x3e013860	0.12619162
101	0xbe4fdeb0	-0.20299792
102	0x3e15101f	0.14556931
103	0x3e82b5ee	0.25529426
104	0x3e8390eb	0.256965
105	0xbdd11bc2	-0.102103725
106	0xbe2e2237	-0.1700524
107	0x3e0f7ef1	0.14013268
108	0x3e7c1758	0.2461828
109	0xbd4c8d2c	-0.04993932
110	0x3e764ae3	0.24052005
111	0x3ea278dc	0.31732833
112	0x3dd88999	0.1057312
113	0xbe26da3b	-0.16294186
114	0xbd47873a	-0.048712946
115	0xbe483ad6	-0.19553694
116	0x3e187fb0	0.14892459
117	0xbe54658e	-0.20741865
118	0xbe4a502f	-0.1975715
119	0xbdbe999f	-0.09306645
120	0xbe3d0fdd	-0.18463083
121	0xbe052cd9	-0.1300539
122	0xbe45ccb4	-0.1931637
123	0xbe5f8aa6	-0.21830234
124	0xbe4f9115	-0.20270188
125	0x3e304242	0.17212775
126	0xbde13834	-0.10997048
127	0x3d1cc926	0.038277768
128	0xbe901a06	-0.28144854
129	0x3cb3caa8	0.02194722
130	0xbe231c9e	-0.15928885
131	0xbe13f87c	-0.14450258
132	0xbe7f80d5	-0.2495149
133	0xbe942678	-0.289356
134	0x3dc42a15	0.09578339
135	0xbe841cde	-0.25803274
136	0x3dfe0eda	0.124051765
137	0xbdee865c	-0.11646721
138	0xbe1f7104	-0.15570456
139	0xbda4953b	-0.08036276
140	0x3e858d2b	0.26084265
141	0x3e64933d	0.22321792
142	0x3d8f71b7	0.07004111
143	0xbdf541e5	-0.11975459

decoders.1.decoder_net.0.weight f4 [512, 2]
0	0x3f135b3a	0.57561076
1	0x3f0caacf	0.54948133
2	0xbee44914	-0.44587004
3	0x3f0299f8	0.5101619
4	0x3e102a1b	0.14078562
5	0x3f066979	0.5250469
6	0xbe7b8975	-0.24564154
7	0x3eccfe81	0.4003792
8	0xbe84372c	-0.25823343
9	0xbf1d11f9	-0.6135555
10	0xbd2675b6	-0.0406396
11	0x3ed76cf1	0.42075303
12	0xbe9df7ce	-0.30853122
13	0xbf222692	-0.63340104
14	0x3edaf098	0.42761683
15	0x3f2cb75a	0.6746727
16	0x3f23d2b4	0.6399338
17	0x3ed119eb	0.40840086
18	0xbef38f04	-0.4757005
19	0x3f232515	0.6372846
20	0xbf23594b	-0.63808125
21	0xbca290f2	-0.019844506
22	0xbf04e8bb	-0.5191762
23	0xbe771557	-0.24129234
24	0xbf1e3d0c	-0.618119
25	0xbf0dfe99	-0.5546661
26	0xbf2ba028	-0.67041254
27	0xbf0aa35b	-0.5415551
28	0x3eea0ec5	0.45714393
29	0xbe880cf3	-0.2657238
30	0x3eabe723	0.3357478
31	0x3d26f1e8	0.040758044
32	0x3e12adc8	0.14324105
33	0x3f32363c	0.69614005
34	0xbf1862f5	-0.59525996
35	0xbe031fc5	-0.12805088
36	0x3db20ddf	0.08694052
37	0xbefe0612	-0.49614006
38	0x3e157c7f	0.14598273
39	0xbf2a383b	-0.6649205
40	0xbdf41b61	-0.119192846
41	0x3f190d59	0.5978599
42	0xbef24d2f	-0.4732451
43	0x3e4b4d9e	0.19853827
44	0x3e88c02a	0.2670911
45	0xbed022f2	-0.4065166
46	0xbf238065	-0.6386779
47	0x3ec326f4	0.38115656
48	0x3e484606	0.19557962
49	0xbecc48be	-0.39899248
50	0x3e2d6718	0.16933858
51	0xbe87e74d	-0.26543656
52	0xbebe85b8	-0.37211394
53	0xbe13bc57	-0.14427315
54	0x3e681aff	0.22666548
55	0x3dd9620e	0.106144056
56	0xbea91428	-0.3302319
57	0x3cf5df87	0.030013813
58	0xbf424b0b	-0.75895756
59	0x3dbcd783	0.09220793
60	0xbd63c430	-0.05560702
61	0xbf0d44bd	-0.5518301
62	0xbf25c1f8	-0.647491
63	0x3d41f5ea	0.047353663
64	0xbdc637bc	-0.09678599
65	0x3e56e34e	0.20985147
66	0x3f2f4647	0.6846661
67	0x3e97f4a5	0.29678836
68	0x3eb35c89	0.35031536
69	0xbf176780	-0.59142303
70	0xbe8453dc	-0.2584523
71	0xbedd7501	-0.4325333
72	0x3ed4eb23	0.41585645
73	0x3e965e50	0.2936883
74	0x3f025ab8	0.50919676
75	0x3ee24581	0.44193652
76	0x3ef16391	0.47146276
77	0xbdf1dae2	-0.11809327
78	0x3cce81d7	0.025208397
79	0xbe90d4ec	-0.28287446
80	0x3f011e51	0.50436884
81	0x3c1ed1d5	0.009693583
82	0x3d860b05	0.065450706
83	0x3e5782f4	0.21046048
84	0x3f485e9d	0.7826937
85	0xbe3d0c59	-0.18461742
86	0xbed5bfe9	-0.41747978
87	0xbf1f21ea	-0.62161124
88	0x3f15ec63	0.5856382
89	0xbf1a3aef	-0.60246176
90	0x3f22a365	0.6353057
91	0x3eb50ff2	0.35363728
92	0x3e819d17	0.25315163
93	0x3f24cfa7	0.6437935
94	0x3ebab34e	0.36464924
95	0x3c9e74e3	0.019342845
96	0xbe50ae48	-0.20378983
97	0xbe50b9a3	-0.20383315
98	0xbe325e8d	-0.17418881
99	0x3f15ea3a	0.58560526
100	0x3d395172	0.045243688
101	0x3f00f334	0.503711
102	0xbec127cf	-0.37725684
103	0xbd0bd91a	-0.03414259
104	0xbed92179	-0.4240835
105	0xbe788106	-0.24267969
106	0xbf06dcb8	-0.5268054
107	0x3f3635e9	0.7117601
108	0x3ef2c226	0.47413749
109	0xbf0982c2	-0.53715146
110	0x3f1cb1ad	0.6120861
111	0xbe1cf961	-0.15329506
112	0x3e46737f	0.19379996
113	0x3ead09d5	0.33796564
114	0xbe6e926d	-0.23298045
115	0xbf3387ed	-0.7012928
116	0x3f1fcad4	0.62418866
117	0x3f14ef3a	0.5817753
118	0xbe89ac3d	-0.2688922
119	0xbf1ea21b	-0.61966103
120	0x3ed6e8fd	0.4197463
121	0x3e91b8d9	0.2846134
122	0x3e10a8cc	0.14126891
123	0xbeed003f	-0.4628925
124	0xbf274a11	-0.6534739
125	0xbebabeae	-0.36473602
126	0x3dc4ca46	0.09608893
127	0xbe597ad8	-0.21238267
128	0x3ea5e137	0.32398388
129	0xbeccc681	-0.39995196
130	0x3eea9e36	0.4582383
131	0x3efa094f	0.48835227
132	0x3e47110f	0.19440101
133	0x3f0603ec	0.52349734
134	0x3ed69ee7	0.41918108
135	0x3f2c17b1	0.6722365
136	0xbd719439	-0.058979247
137	0x3f250f4d	0.6447647
138	0xbf15df32	-0.58543694
139	0x3ef21b37	0.47286388
140	0x3f019ea9	0.5063272
141	0x3ed56067	0.41675112
142	0x3e82a7ad	0.2551855
143	0xbda80e56	-0.08205859
144	0xbeb01db7	-0.3439767
145	0xbf16dfa1	-0.5893498
146	0xbe95d276	-0.2926213
147	0xbe20fd8e	-0.15721723
148	0x3de0e82a	0.10981782
149	0x3f314a3e	0.6925391
150	0xbdb1daf7	-0.08684342
151	0xbe19cb54	-0.1501897
152	0xbe995889	-0.2995036
153	0x3e123af3	0.142803
154	0x3ee11ca5	0.43967167
155	0xbe814e86	-0.2525522
156	0xbf33f574	-0.70296407
157	0xbf160c3d	-0.58612424
158	0xbd687f64	-0.056762114
159	0xbe1cdb46	-0.15318021
160	0x3f1d4072	0.6142646
161	0x3f1e2c56	0.617864
162	0xbe86c665	-0.26323238
163	0xbf20c207	-0.6279606
164	0xbe85590c	-0.260445
165	0x3f0960c6	0.5366329
166	0x3e5bedbf	0.21477412
167	0x3e2ad068	0.16681063
168	0xbebf4833	-0.3735977
169	0x3ef0e782	0.47051626
170	0xbe2f4849	-0.17117418
171	0xbf149687	-0.58042186
172	0x3e258770	0.16164947
173	0x3f2df60a	0.6795355
174	0xbf2e610e	-0.68116844
175	0xbf346014	-0.70459104
176	0xbe7d4234	-0.24732286
177	0x3eea344d	0.45743027
178	0x3eb89e73	0.36058387
179	0xbefffd7c	-0.4999808
180	0xbe8ae085	-0.2712442
181	0xbde37ee8	-0.1110819
182	0xbe7e0f8e	-0.24810621
183	0xbf1f2f98	-0.62182
184	0xbe1b6418	-0.15174901
185	0x3e1865f6	0.14882645
186	0xbeb22a8e	-0.34798092
187	0xbedacfef	-0.42736766
188	0xbf0e38ea	-0.55555594
189	0x3f1397d6	0.5765356
190	0x3e357e60	0.1772399
191	0xbf106749	-0.564076
192	0xbedc4b28	-0.4302609
193	0xbf2bc561	-0.6709805
194	0x3f10276e	0.56310165
195	0xbedf2936	-0.4358613
196	0xbcbeada0	-0.02327615
197	0xbe51e360	-0.20496893
198	0x3e82983b	0.25506768
199	0x3ec23879	0.3793371
200	0x3f02df10	0.51121616
201	0x3ea55bb9	0.3229654
202	0x3f0f0057	0.55859894
203	0x3b03e233	0.002012384
204	0x3e88a000	0.2668457
205	0x3e3b4f71	0.18292023
206	0xbe544185	-0.20728119
207	0x3ec8f6b3	0.39250717
208	0xbf02d9b8	-0.5111346
209	0xbebe78c9	-0.37201527
210	0x3e631f9d	0.22180028
211	0x3f212388	0.6294484
212	0xbee0e335	-0.43923345
213	0x3f1a3587	0.60237926
214	0x3c716677	0.014733902
215	0xbee189da	-0.44050485
216	0xbeb13d56	-0.34617108
217	0x3f022d4c	0.5085037
218	0xbeef6687	-0.4675791
219	0x3f156ce3	0.5836927
220	0x3ec65a00	0.3874054
221	0x3eb916b7	0.36150143
222	0xbd06f74b	-0.03295068
223	0x3f062642	0.52402127
224	0x3ea936f5	0.3304974
225	0x3f382a76	0.7193979
226	0x3eadabc3	0.33920106
227	0x3dd10957	0.102068596
228	0x3e46b7b1	0.1940601
229	0xbeb2520f	-0.3482823
230	0x3ede1dac	0.43382013
231	0xbf2e429e	-0.680704
232	0xbe081de7	-0.13292657
233	0x3eb52333	0.35378417
234	0xbe06551e	-0.13118407
235	0xbda8447f	-0.082161896
236	0x3b93d020	0.0045108944
237	0x3f2e207c	0.6801832
238	0x3e45060a	0.19240585
239	0xbeea5c4c	-0.45773542
240	0x3e3c1ace	0.183696
241	0x3e1a00d7	0.15039383
242	0x3f039c86	0.5141071
243	0xbe6ee819	-0.23330726
244	0xbdf14d69	-0.11782343
245	0x3e8672ed	0.26259556
246	0x3eeae0ec	0.45874727
247	0xbeaa6554	-0.33280432
248	0xbce67bf8	-0.028135285
249	0x3f1ce049	0.6127973
250	0x3ea2a75e	0.31768316
251	0x3ec596a3	0.3859149
252	0xbf2f91ee	-0.68582046
253	0x3d9138e9	0.07090933
254	0xbf1814e5	-0.5940688
255	0xbe57f899	-0.21090926
