Project2/models/model_4_9.pt (torch, 356538 bytes, 94 tensors)

prior.mean f4 [2]
00000000: 0000 0000 0000 0000
0.0 0.0

prior.std f4 [2]
00000000: 0000 803f 0000 803f
1.0 1.0

decoders.0.decoder_net.0.weight f4 [512, 2]
00000000: 6ed3 16bf f1df 1b3e 4bc9 b3be 4928 2bbf
00000010: 6d5d b9be 95f8 dabe 1062 58be d4ea 0f3f
00000020: aae8 77be 567c f2be eac1 9a3e e499 9fbd
00000030: e95f ae3e c80c 3abe e357 a7be d197 f33e
00000040: 8754 eabe 7269 813e 269f a8be 97f4 2b3f
00000050: d244 d3be e9a4 143e b5de 8f3d 7652 bbbe
00000060: 5742 aa3e fe84 09bf 0c3e 403c 4700 bdbd
00000070: 220e 0e3f 3579 0dbc 2e6a d4bd 9a82 06bf
00000080: d30f 0cbf 0ff2 14be d535 29be 31de 0ebc
00000090: 6570 b43e 448e b3be 7dc5 d9bd 9c75 96be
000000a0: 292e 3f3e 4420 93be da5e bdbe 859f 00bf
000000b0: 4594 35be 1fe7 36bf 6801 10bf 319c ed3e
000000c0: c73d 0cbf 38d5 2ebf a278 ce3d 5899 babe
000000d0: 22d7 93be 5d2b 9c3b 4ea9 ca3e 5088 80be
000000e0: 83a0 19bf 649f fd3e 107d 1ebf 2f52 abbe
000000f0: ee17 dc3d 23fd 99be e0b0 ffbe fab5 cd3e
00000100: 7aa8 e7bd 1a60 b83e 1d13 1b3e 8751 1d3d
00000110: 1976 41be 28f1 efbe 4b87 a9be 2ff3 773e
00000120: dd76 04bf a1b5 00bf b801 32bf 2aac 233e
00000130: dd96 313f 2c6d 19be 0474 03bf f286 a6bc
00000140: 7188 7fbe eb79 8e3e 487e 323f d072 0dbf
00000150: d6cc 9ebe 9a5a 9b3e d1bb da3e 30e8 01bb
00000160: 4674 dcbe 4de6 103f 6723 403d aeed 24be
00000170: 5ebf 2ebf 95eb 1e3f 0192 2a3f c806 afbd
00000180: 8276 a33e e6b5 043f 9a0b 59bd dfb1 9c3e
00000190: 3413 a73e ac77 32bf 90cd 8d3d 4bc0 29bf
000001a0: 17ba f03e d114 f53d 25a5 6d3d 6fed c3ba
000001b0: 57a6 073f 734f 89be e0f0 793e 5ef3 8d3e
000001c0: e870 02bf 8dfc b3be a6cb 9abe 5864 063d
000001d0: 44c4 34bf 2837 d93b 196e ab3e 0b74 47be
000001e0: a829 e4bd 7ded 983e 712a 32be ca50 863e
000001f0: 96e6 8bbd 02c5 0d3e 6649 2cbf 9344 92be
00000200: 77d5 15bd 6577 8cbd 1a5d 213f d535 25be
00000210: 40a6 a8be b05a 433d cc9f a5be d69e 43be
00000220: dd61 893e 625d 19bf 3536 0fbf 21ce 913e
00000230: a7c8 3abe 8e1c 2c3e ed63 dfbe 7136 efbc
00000240: 5e28 653d b39e 05bf 8d3e a2be 9117 16be
00000250: ed96 343f 9ed3 1b3f 9e8d 853b 27c2 003f
00000260: 7375 343f 03ba 9bbc 906c bb3e a265 c5be
00000270: cda5 43be feec 30bf 8727 bb3e eea6 d73e
00000280: 72be 173e ab8f 793e 67a2 803e 4a7e 7e3d
00000290: 559e 0bbe 4bd0 28be 025a bdbc 1b26 c73e
000002a0: 9708 03bf 0970 313f 03a9 ff3e af12 14bf
000002b0: 0028 223f 284c bfbe ecec f23e 0761 0d3f
000002c0: 05e5 c33e 5421 dfbe b667 e5be eb46 213e
000002d0: c0be 1dbf c607 cd3e 9a67 2d3f 63a5 d33e
000002e0: d745 ce3e fa78 663e 93f0 1a3f c638 23bf
000002f0: 2668 0ebf 54f0 babd ab1f 723e c3c5 f23e
00000300: be4a 003d 38d8 c43e 7f01 ee3d c5ae d03e
00000310: 6dbe 4d3e 85c0 cebe eff7 ca3e 4e30 b63e
00000320: 1e31 bfbe 37ff d83e fefa 36be 9877 21bf
00000330: e672 a13e e8a3 2f3f df1c de3e 83eb da3e
00000340: 318d 38be c50f 0e3f cd84 29be 21d3 33be
00000350: 755c 06bf 464f ca3e 1fe8 65be 2adc 033f
00000360: 2196 24bf ec18 943e 12a3 c13e 5ee5 bf3e
00000370: b223 cf3e 0d9d 4dbd a66d ecbe c9b8 bdbc
00000380: 2c01 933d 4236 0dbe d998 ba3e 1478 f9bc
00000390: df1f cbbe 26b4 0d3f 9d1f ba3e 9c8f 603e
000003a0: f746 91bc d598 ff3e 2232 44be 7be4 1c3f
000003b0: 87b5 ba3e 2007 cd3e 1ca4 7f3d aa58 663e
000003c0: c96c 25bc d4df fa3c f598 24be 973e 25bf
000003d0: 751f f43e 430d 213f 5bf5 213f cc4c fb3d
000003e0: ba5b bfbd 6df7 113f 06fb 83be 5065 a3be
000003f0: e745 0abf 2085 a43e 6cdb 00bf d38e 9dbe
-0.58916366 0.15222146 -0.35114512 -0.66858345 -0.3620409 -0.42767778 -0.21131158 0.56217694
-0.24209848 -0.47360486 0.3022607 -0.07793024 0.3405755 -0.18168938 -0.3268424 0.47576764
-0.45767614 0.2527576 -0.3293392 0.6717009 -0.41263443 0.14516033 0.070249 -0.3658635
0.33253738 -0.53718555 0.011733543 -0.092285685 0.55490315 -0.008634855 -0.10371815 -0.5254303
-0.54711646 -0.14545463 -0.16524442 -0.008719967 0.35242 -0.35069478 -0.10633371 -0.29386604
0.18669952 -0.28735554 -0.36986428 -0.5024341 -0.17732342 -0.7144641 -0.56252146 0.46408227
-0.54781765 -0.68294096 0.10081603 -0.36445117 -0.2887507 0.0047659115 0.39582294 -0.25103998
-0.60010546 0.49535668 -0.6190958 -0.3346114 0.10746752 -0.3007594 -0.49939632 0.401779
-0.11311431 0.3601082 0.1514401 0.03840783 -0.18892707 -0.46863675 -0.33111033 0.24213861
-0.5174387 -0.50277144 -0.6953387 0.15983644 0.69370824 -0.14983052 -0.513489 -0.020328019
-0.24954392 0.2782739 0.6972394 -0.55253315 -0.31015652 0.3034256 0.42721418 -0.0019822232
-0.4305746 0.5660141 0.046908762 -0.16106293 -0.68260753 0.6207822 0.66629034 -0.08546215
0.31926352 0.51840055 -0.05298958 0.30604455 0.32631838 -0.69713855 0.069239736 -0.6630904
0.47016975 0.11966861 0.058018822 -0.001494808 0.5298819 -0.26818427 0.24408293 0.27724737
-0.5095353 -0.35153618 -0.30233496 0.03281054 -0.7061198 0.0066288896 0.33482435 -0.1947786
-0.11140758 0.2986869 -0.17399003 0.26233512 -0.0683109 0.13844684 -0.672995 -0.28567943
-0.03658053 -0.0685871 0.63032687 -0.16133817 -0.3293934 0.04769391 -0.32348478 -0.1910356
0.26832476 -0.59908116 -0.5594209 0.28477576 -0.18240605 0.16807768 -0.43630925 -0.029200764
0.0559467 -0.5219528 -0.31688347 -0.14657427 0.70542794 0.6086978 0.00407572 0.5029625
0.70491713 -0.019009596 0.36606264 -0.38554102 -0.19106217 -0.6911162 0.36553594 0.42119545
0.14818743 0.24371211 0.25123903 0.062132157 -0.13634618 -0.16485707 -0.023114208 0.3889626
-0.5118498 0.6931158 0.49933633 -0.5784101 0.63342285 -0.3736279 0.47446382 0.55226177
0.38260666 -0.43580115 -0.44805688 0.1574971 -0.61619186 0.40044993 0.6773621 0.41337118
0.4028766 0.22507086 0.6052334 -0.63758504 -0.5562767 -0.0912787 0.23644893 0.47416505
0.03132128 0.38446212 0.11621379 0.4075834 0.20092173 -0.40381256 0.39642283 0.3558373
-0.3734216 0.42382213 -0.17869183 -0.6307311 0.31532973 0.68609476 0.43381402 0.42757806
-0.1802261 0.5549281 -0.16554566 -0.17561008 -0.5248483 0.39513606 -0.22451828 0.5150782
-0.6429158 0.28925264 0.37819725 0.3747968 0.4045692 -0.050198603 -0.46177405 -0.023159401
0.07177958 -0.13790229 0.36444739 -0.030452766 -0.39672753 0.5535301 0.36352244 0.21929783
-0.017734034 0.4992129 -0.19159749 0.61286134 0.3646662 0.40044498 0.062412366 0.2249476
-0.010096737 0.030624308 -0.16073973 -0.6454863 0.4768025 0.6291086 0.6326501 0.12270507
-0.09343667 0.57018167 -0.25777453 -0.31913233 -0.5401291 0.32132816 -0.5033481 -0.3077303

decoders.0.decoder_net.0.bias f4 [512]
00000000: 0f5c 1b3f 91ba a7be 7dc3 0a3f d4b7 83be
00000010: c59c 5a3b 08e1 be3e 2b13 463d 716e 993e
00000020: 8af8 c23c 8431 16bd 5a13 0a3e ca07 21bf
00000030: 0342 f73b b0b6 febe faed 2e3d d554 8b3e
00000040: 423f 6ebe 4feb 223f e9b4 9d3e d8b1 18bf
00000050: d685 31bf 3e1b 053e 1c69 11be 862a 98be
00000060: a7bb f53c 9f14 2e3e 5075 d7be 2711 a6be
00000070: 1dda 21bf 4d2a 343f 25da 0b3f 7c57 033f
00000080: 241e 87be 4156 bd3e ccf0 37be 45df 2f3e
00000090: d287 ddbd b3ab 26bf aaaf d2be e47e 02be
000000a0: 6eda 33bd 8cf2 52bd 684e 093f cf22 283f
000000b0: b1fa 283f 6ef7 d33e f0bc d43d 893f 853c
000000c0: 632b 0f3d 2bd5 e63e 7c05 2b3e 1b3c 3b3e
000000d0: 26bf fe3e 2685 c43e 2986 30bf 0914 2abf
000000e0: 0d0f dd3e a37c 30bf 151c 64be 3fc5 11bf
000000f0: 653b 033f 9562 f03e e871 093d 6244 033e
00000100: ca09 b8bd 3cb5 463e 7a2c 803e 60ac 97be
00000110: 370c 293f b10f dc3d 44cb cbbe e088 ca3c
00000120: d202 e83e 3c79 11bf 016b 24bf 4ea4 1f3f
00000130: ce11 87be cdab cd3d 4e86 513e 4675 35bf
00000140: ab46 02be dd97 1ebe 71a1 f6be 3f4f 6fbe
00000150: 5d01 86be ae54 ef3e 36b6 663d 2f3d 023f
00000160: e80d 3abe 529c 0bbf 1b3b 87be 5dec 89bd
00000170: beb2 d3be 561e a3be d7a2 cfbe 1bea 2d3f
00000180: 87bd 88bd 02c3 09bf 7fdd 40bd 9a62 233f
00000190: 77a8 ef3d 0c18 b8be f9bf b3be a88e 2ebf
000001a0: 179b 1d3d 0935 5fbd 35d9 2c3f b9d9 d7be
000001b0: 6dd8 8abe 2ffa e5be f1be 123f 2199 8c3d
000001c0: 6e9c b5be 27e6 043f 1b69 1b3f 77c1 2ebf
000001d0: 5c74 e8bd bd9b 713e 4824 003f 7254 153f
000001e0: 7c57 7c3e 66ec f73d 86b1 a73e 6eb1 903c
000001f0: c0d8 0ebe b48f 78be 7f76 313f 2228 303f
00000200: 0899 20bf 59e5 093e 54db 223f ba28 c93e
00000210: e929 babe 785e 9d3e b2fc d2be b007 813e
00000220: 5d06 f63e c93e 18be 203e 9bbe 1e16 033e
00000230: 78ee c03e 813c 9bbd f60f 66be 3c63 123d
00000240: df81 973e 2e9c 013f 7ccb 8cbc 789f 323d
00000250: 5640 983e 9ff5 543d 278a f33e 2dff 88be
00000260: 58c5 8d3e 8194 9f3d 2ae7 083f 8da0 143f
00000270: 412c 233f 2faa 95be 5f1e 1d3f cada 673e
00000280: 0f12 acbd 535b b0be f46c 0fbf 2143 a63d
00000290: 3256 18bf 2337 dabe e5eb 1c3f 6525 b6bc
000002a0: 7b66 113f 9f1e d7be 1a8c 9c3e 9e06 03be
000002b0: e0f7 13bf 92f5 0dbf b10d f43e 0509 66bd
000002c0: 42af f3bd 095b 27bf ba68 d63e aea6 373f
000002d0: 8890 2d3e 4a59 98be af52 1fbf 495d 2e3f
000002e0: 08c5 8b3e 26de 343f 7104 193e 3c7b e23e
000002f0: 8889 163f 7bc3 a4be e88d 5d3d 22ee 16bd
00000300: 6aa1 1f3f 0ad4 9e3e 9869 123f ca46 c5be
00000310: 3966 e2be 8417 4bbc 221e 14bf 298c d33e
00000320: 875f 67be d6c8 cb3e 7f0a 14bf 86b4 11bf
00000330: fe42 1bbe ccd3 c13e 15f0 2a3e 6ee1 d9bd
00000340: 7555 9a3c 5ac7 90bd 43aa fc3e a939 d93e
00000350: fbf5 fcbe a210 663e b7ca cc3e b936 3d3e
00000360: 19bb a63e 37ee 1d3f a638 39be 761f 2bbf
00000370: f511 bf3e a213 9c3e 843d 9e3e 6f83 f8be
00000380: c2ce bcbe ff39 b3be d1e5 dabe d813 153f
00000390: 5a4b 6bbe 8867 923e a383 583d 04db a03e
000003a0: c808 04bd 7d2f 58be 01f1 f8be a629 01bf
000003b0: 4eac cbbe 92e2 bdbe 7ab8 73bd d6bf 1c3e
000003c0: 07e6 c9be 780e b73e 0373 5a3e 56ee a83e
000003d0: 553c 5c3c a277 b1bd b8bc 5bbe 8181 d0be
000003e0: 603a 063f d8f9 af3e 8dfe 063f d96f 0d3f
000003f0: 5e9e b43e 79da f63e 6fa2 8cbe 5957 56be
0.60687345 -0.32759526 0.5420454 -0.25726187 0.0033357602 0.3728106 0.048358124 0.29967073
0.023800153 -0.036668316 0.13483945 -0.6290251 0.007545711 -0.49748755 0.04270742 0.2721316
-0.23266318 0.636403 0.30802086 -0.5964637 -0.6934484 0.12998673 -0.14200252 -0.29719943
0.029996706 0.17000054 -0.4208169 -0.3243496 -0.6322344 0.70377046 0.5462974 0.51305366
-0.26390183 0.3697987 -0.1796295 0.17175014 -0.10816921 -0.6510574 -0.41149646 -0.12743717
-0.043909483 -0.051500842 0.53635263 0.65678114 0.66007525 0.4139971 0.103875995 0.016265647
0.034953486 0.4508451 0.16701311 0.18284647 0.4975521 0.38382834 -0.6895471 -0.6643682
0.43175545 -0.6894018 -0.22276337 -0.569416 0.51262504 0.46950212 0.033555895 0.12819055
-0.08986242 0.19405073 0.25033933 -0.296237 0.66034263 0.107451804 -0.39803517 0.02472347
0.45314652 -0.56825614 -0.64225775 0.62360084 -0.2638077 0.10042534 0.2046139 -0.7088207
-0.1272227 -0.15487619 -0.48170045 -0.23370074 -0.26172915 0.46744293 0.056326114 0.5087461
-0.18169367 -0.545354 -0.2641228 -0.06734536 -0.41347307 -0.31859082 -0.40553924 0.6793534
-0.066767745 -0.53813183 -0.047086235 0.6382233 0.11702054 -0.35955846 -0.351074 -0.68186426
0.038477983 -0.054493938 0.6751893 -0.42158297 -0.27118245 -0.44917437 0.57322603 0.068651445
-0.3547091 0.51913685 0.60707253 -0.68263954 -0.11350319 0.23594566 0.5005536 0.5833198
0.24642748 0.12105636 0.32752627 0.01766273 -0.13949871 -0.24273568 0.69321436 0.6881124
-0.6273351 0.13466395 0.6361592 0.39288884 -0.363601 0.30736136 -0.41208416 0.25201178
0.4805173 -0.148677 -0.30320835 0.12801406 0.37681937 -0.075798996 -0.22467026 0.03573917
0.2959127 0.50628936 -0.017186873 0.043609113 0.29736584 0.051992055 0.4756634 -0.26757184
0.27689624 0.07791997 0.5347773 0.5805748 0.637394 -0.29231402 0.6137447 0.22642055
-0.08401882 -0.34444675 -0.56025624 0.081182726 -0.59506524 -0.4262019 0.61297446 -0.022234628
0.56797 -0.4201555 0.3057564 -0.12795493 -0.578001 -0.55452836 0.47666696 -0.056160945
-0.11898662 -0.65373284 0.41876775 0.7173871 0.16949666 -0.29755622 -0.6223554 0.6811109
0.2729876 0.7065147 0.149431 0.44234645 0.58803606 -0.3218039 0.05409041 -0.036848195
0.62355673 0.31021148 0.57192373 -0.3853057 -0.44218615 -0.012395743 -0.5785848 0.4131787
-0.22595035 0.39801663 -0.57828516 -0.5691608 -0.15162274 0.378569 0.16693147 -0.106387004
0.018839577 -0.07069273 0.4934865 0.42426804 -0.49406418 0.22467282 0.3999841 0.18477906
0.3256462 0.6169161 -0.18088016 -0.6684488 0.37318388 0.3048373 0.30906308 -0.48537776
-0.36876494 -0.35005185 -0.4275346 0.58233404 -0.22977963 0.28594613 0.052859914 0.31417096
-0.032234937 -0.21111865 -0.4862137 -0.50454175 -0.39779896 -0.37086922 -0.059502102 0.15307555
-0.3943331 0.35753226 0.21332936 0.32994336 0.013442119 -0.08665396 -0.21458709 -0.40723804
0.52432823 0.34370303 0.52732164 0.5524879 0.35277075 0.48213556 -0.27467677 -0.20931758

decoders.0.decoder_net.3.weight f4 [32]
00000000: 7cd5 7d3f 455f 823f b45b 7b3f 45d3 773f
00000010: f60e 7b3f bb92 7d3f 5b98 803f e209 813f
00000020: 0855 823f c210 823f 787c 7a3f 70fe 7d3f
00000030: 28f9 7b3f 0905 7b3f 0653 813f b0f4 813f
00000040: acb3 783f c4b7 803f 217e 813f 9a06 803f
00000050: 0b9e 803f de42 813f eba1 813f 29ae 7b3f
00000060: b9af 7f3f 6c4e 7d3f 10d5 7c3f 9c64 823f
00000070: 5449 823f 2c5d 813f 6f00 7e3f 2b32 813f
0.99153876 1.0185324 0.981868 0.96806747 0.98069704 0.9905202 1.0046495 1.0081141
1.01822 1.0161364 0.97846174 0.99216366 0.9842706 0.9805456 1.0103462 1.0152798
0.9714916 1.0056081 1.0116616 1.0002015 1.0048231 1.0098531 1.0127538 0.9831262
0.99877506 0.9894779 0.9876261 1.0186954 1.0178628 1.0106559 0.9921941 1.0093435

decoders.0.decoder_net.3.bias f4 [32]
00000000: ceff a3ba acb3 1abd 7a63 163c b309 69bc
00000010: 5e81 ce3c c9d2 013b 917e da3b 9871 a5b6
00000020: 8324 9d3c 9e79 823c 6f3a a23c 3717 a1ba
00000030: 43e1 c8bc 406e 17bd d993 af3b 3eb9 96bc
00000040: a76c 653c d202 ff3a 86af 69ba e87b 1e3d
00000050: df4c e83b a3db 28bd 1832 12bc 6d33 a9bc
00000060: 8cc5 9e3c 3168 8b3c 5dcc b7bb 8751 97bc
00000070: 3c4f 10bd fdbf 593c 810a 45bb fd6a 1dbd
-0.0012512149 -0.037769005 0.0091789905 -0.014223504 0.025208171 0.0019809476 0.00666792 -4.9306072e-06
0.01918245 0.015927132 0.019803254 -0.0012290244 -0.024521476 -0.036970377 0.005358201 -0.018398877
0.0140029555 0.0019455797 -0.00089143997 0.038692385 0.007089242 -0.041225087 -0.008923076 -0.020654405
0.019381307 0.017017456 -0.005609079 -0.018471492 -0.035231814 0.0132904025 -0.0030066075 -0.03843211

decoders.0.decoder_net.3.running_mean f4 [32]
00000000: 5ce8 c83c 43ae 853c fd6b f83c ada1 f13c
00000010: 1f7a d73c 85d9 1d3d 8145 1d3d f1da 4e3d
00000020: 8edd 0b3d 5db8 0a3d 268d 043d 7134 223d
00000030: 2e18 083d b5da b13c 48ed 083d 0831 273d
00000040: 0259 f33c 1af8 fe3c 50f7 043d ec49 cf3c
00000050: 52b8 053d 8740 923c 8762 033d 02bc 163d
00000060: 1943 113d d07e 083d b651 083d b6cd cb3c
00000070: 46cd 033d eff0 df3c 47f1 e63c d80c c33c
0.02452486 0.016318446 0.03032493 0.029496038 0.026303349 0.03853752 0.038396362 0.050501768
0.034146838 0.03386723 0.032361172 0.039600793 0.033226185 0.021710733 0.033429414 0.040818244
0.029705528 0.031124163 0.032462418 0.025303803 0.032646485 0.017853035 0.032076385 0.036800392
0.03546438 0.033324063 0.03328105 0.024878364 0.032178186 0.027336566 0.028191222 0.023809835

decoders.0.decoder_net.3.running_var f4 [32]
00000000: 7c7e 443a 1eb9 9139 2110 553a cc64 4f3a
00000010: 935b 5c3a aa14 023b f9e1 303a 166c 033b
00000020: 35fe 8b3a dbf2 003b f14a 813a 4131 ed3a
00000030: f899 713a b9b2 9039 173d ce3a b021 d73a
00000040: 3a24 d33a 9af6 d73a 3770 753a 210e bf39
00000050: cf88 0b3a f7ef 8939 adfe b73a 4cbb cf3a
00000060: 3b54 ac3a 0c90 943a 5bbd 4e3a 5af6 133a
00000070: cbec 8e3a 8c2f 653a 2061 383a d868 d239
0.0007495654 0.00027794478 0.00081277086 0.0007911443 0.00084059796 0.0019848743 0.000674754 0.0020053438
0.0010680618 0.0019676003 0.0009864253 0.0018096344 0.00092163635 0.0002759898 0.0015734759 0.0016413238
0.0016108819 0.0016476691 0.00093627296 0.00036440886 0.0005322815 0.00026309464 0.0014037691 0.0015848665
0.0013147661 0.0011334433 0.00078864925 0.0005644314 0.001090431 0.0008742742 0.0007033516 0.00040132436

decoders.0.decoder_net.4.weight f4 [32, 32, 3, 3]
00000000: 1fe0 bbbc 28c1 8fbc e172 843d 2dba 72bd
00000010: 4cd0 b53a 1edb 4abd 087a 983c fd2a 0c3d
00000020: c44b 6f3b ef69 5f3c 35c4 813d 2689 463c
00000030: 3c69 3c3c 89a1 ec3c 04db 0abd b2b2 8f3d
00000040: c16a 41bc 7a22 043d 2760 493d e811 203d
00000050: e329 be3b 4c2c 40bc ac91 9fbc 352f 333c
00000060: 02a7 2d3d 2d66 123d de4e 88bd eed7 ddbc
00000070: 4edf 573d 84f4 3c3c c9b7 dbbb 6c13 8cbc
00000080: 6dff 57bc f2c3 bfbc 6439 b33d 7941 02bc
00000090: b5ab 003c 5f6e 65bc 550c 813d 626f fb3b
000000a0: 31a5 e03c 5b18 bd3d 6148 edbb 2fd9 07bd
000000b0: f5f2 653c 6afa 2dbd bded 66bc 67c5 41bd
000000c0: 8149 0d3d 35e9 aebc a59f f63b b103 eb3c
000000d0: 8ea6 d8bc b3be b4bb 2d3f 793d 68f5 2abd
000000e0: 34fe ba3b 04c3 7ebd 721c be3c fd4c c9bd
000000f0: 7736 a93c 351c fdbc c1be 6abc 26cb 59bd
00000100: 9fb8 9339 53f5 67bc e674 aebc 51e6 be3c
00000110: 8006 ebba 0e71 823c e301 8dbd c932 60bd
00000120: 7b3b 1ebd 1990 8ebc 9134 083c e2ca e2bc
00000130: 5041 0abd 4500 d33c 4b92 de3c f054 a6bc
00000140: 77cb c53c a020 513b 79b3 61bd 56de 483b
00000150: 2176 15bd f218 a93c 5df6 3abc 8099 483d
00000160: a2d2 c33d 0f31 193d 7712 8c3b f1f8 f63c
00000170: 92cd 3c3d f960 2ebd 740c 52bc 93f8 403d
00000180: 2d0f 41bd 18a1 253d 4270 0a3d 1bd0 763c
00000190: b67c 9fbd 88b0 69bc 2006 393c 3444 813c
000001a0: 0b5e 7cba b100 09bd eee0 2d3c bfd4 c1bb
000001b0: 8ad7 9d3c e1d8 2bbd 6059 e4bc 5c76 1bbc
000001c0: 2a92 3cbc 4064 023d 5f9b 053d 1ae8 5d3d
000001d0: bf04 3abd 09cd 203c 42bc 9b3c a6ae 5abd
000001e0: 1651 993c 514f 713d 538b 65bd 688a 26bd
000001f0: fb1a 193c 586c 4a3c 67c1 82bd f966 68bd
00000200: 9ee0 d0bb 3216 a73c e0fd 27bd 91fc a1bc
00000210: 2ffb 0bbd a0a1 18bd bd68 43bd 6c6e 0e3d
00000220: 68bf 9d3d 561f 533c 86c4 a73c 2181 24bb
00000230: 09cb cdbc caa2 13bc abbc 0abd 849e f6bb
00000240: 2b76 3d3d 3380 41bd d0c0 b2bb 2b76 ed3c
00000250: 2884 673c 6cbd 24bd 3ca3 52bd 2863 82ba
00000260: 3a61 553d cb5d b63c 25b6 503d 9dc7 00bc
00000270: 310b e13c 5ebc 38bd 6747 a8bc e622 02bd
00000280: a819 083d 4c71 b63b 0bfd fbbb 3e35 10bd
00000290: 8be3 e73c ffe4 333d 956f 183b c7e4 eb3c
000002a0: e812 803d e1ed 0ebd 2f2f 883d f753 babb
000002b0: b275 b13c bb16 cfbc b725 43bd 5b40 d139
000002c0: 0f66 3abc 16b6 51bd cca7 433d ba82 adba
000002d0: c6d8 17bd 8fe4 eabc d7ba 5bbd 0560 3d3d
000002e0: 7073 07bd d751 64bd 9ae8 80ba 2bdb 3b3d
000002f0: 012e 2c3b 71cc 663d b844 34bd 1b91 763d
00000300: e7a4 e03b e195 8b3a 63be ebbb 3f6e 7a3d
00000310: c791 1fbd f2bf 273d 2a44 13bd e82c 0b3d
00000320: 4604 ae3c e4c9 143a 1efb 8a3d 35e0 a0bd
00000330: 90a4 343c 85ea 263d b7e4 543d 6418 c9bc
00000340: eb41 42bd 9e0e 2abc bb2d 27bd ff84 f8bb
00000350: fce1 783d 703b 0ebc 49aa f8bc bfd8 eb3c
00000360: 193f 313d 760f 3a3d 2a12 183c 3386 f73c
00000370: dd58 06bd f0e9 07bc afff 0bbd 2920 bdb8
00000380: 1b2b 393d cc18 2fbd 6169 583c 4129 e0bb
00000390: 5ad5 5abb 0d0f 53bd 9e65 8dbd c728 7f3c
000003a0: 8661 773d 63a7 44bd c513 b83c 2bbe c63c
000003b0: fd24 94bc c439 86bb 8749 3b3b b32d f8bc
000003c0: df2a 203d e685 1bbd 3456 a9bd 53a7 183d
000003d0: 2ea1 78bd 5d7e d33b a71d 033d d433 8d39
000003e0: 6af6 2fbc 4521 19bd 2b71 08bd eb5a 07bd
000003f0: 2bb6 a73c 40be f939 de43 eebb 4f78 2e3d
-0.022934018 -0.017548159 0.06467224 -0.059259582 0.0013871281 -0.049525373 0.018612877 0.034220684
0.0036513666 0.013636096 0.06336252 0.01211766 0.011499699 0.02888562 -0.033900276 0.07016505
-0.011805237 0.032259442 0.049163964 0.039079577 0.005803333 -0.011729311 -0.019478641 0.010936548
0.0423956 0.035741974 -0.06655668 -0.027080502 0.052703194 0.011532906 -0.0067052585 -0.017099105
-0.013183457 -0.023408864 0.08751181 -0.00795018 0.007853438 -0.014003365 0.0630118 0.00767319
0.02742252 0.09233161 -0.0072412943 -0.033166107 0.014034976 -0.04247514 -0.014094767 -0.0473074
0.034493927 -0.021351436 0.0075263553 0.028688284 -0.026446607 -0.005515897 0.060851265 -0.041737944
0.005706573 -0.0621977 0.023206923 -0.098291375 0.020655854 -0.03089724 -0.014327706 -0.053172253
0.00028175578 -0.014157611 -0.021295976 0.023303183 -0.0017931014 0.01592305 -0.068851255 -0.054735932
-0.038630944 -0.017402695 0.008313314 -0.027684633 -0.033753693 0.025756964 0.027169367 -0.020304173
0.024144871 0.0031910315 -0.0551028 0.00306501 -0.03648961 0.020641778 -0.011411277 0.048974514
0.095616594 0.0374003 0.004274662 0.030148001 0.046094485 -0.04257295 -0.012820352 0.04711206
-0.047133613 0.040436834 0.033798464 0.015064265 -0.077874586 -0.01426328 0.011292964 0.015779592
-0.00096270506 -0.033447925 0.010612709 -0.005915254 0.019267816 -0.04195488 -0.027874649 -0.009488668
-0.011509458 0.031833887 0.032618877 0.054176427 -0.045414682 0.009814509 0.019010667 -0.053389214
0.018715423 0.058913533 -0.056041073 -0.04065934 0.009344812 0.012354933 -0.06384545 -0.056738827
-0.0063744327 0.020396326 -0.0410136 -0.019773753 -0.034175094 -0.037263513 -0.047707308 0.034773275
0.077025235 0.012885889 0.020479452 -0.002510138 -0.025121229 -0.00901098 -0.033871334 -0.0075262208
0.046255272 -0.0472414 -0.005455114 0.028987011 0.01413063 -0.04021971 -0.051425204 -0.0009947764
0.052094676 0.02226152 0.050954957 -0.0078600915 0.027471157 -0.045101516 -0.02054186 -0.031771563
0.033227593 0.0055677053 -0.007690077 -0.035207026 0.028306743 0.04391956 0.0023259867 0.028795613
0.06253606 -0.034894828 0.066496246 -0.005686279 0.021662567 -0.025279393 -0.04764339 0.00039911535
-0.011376872 -0.05119904 0.047767445 -0.0013237812 -0.037071966 -0.028673438 -0.05364498 0.04623415
-0.033069074 -0.05574211 -0.0009834946 0.04586331 0.0026272538 0.056347314 -0.044010848 0.060196977
0.0068555954 0.0010649526 -0.0071943267 0.061140295 -0.038957383 0.040954538 -0.03595368 0.033978373
0.021242272 0.0005675836 0.06786178 -0.07855264 0.011025563 0.040751 0.051975932 -0.024547763
-0.047426146 -0.010379462 -0.040815096 -0.0075842137 0.06076239 -0.008681163 -0.030354636 0.028789876
0.043273065 0.0454249 0.009281674 0.030215358 -0.03279959 -0.008295521 -0.034179386 -9.0182126e-05
0.045207124 -0.042748258 0.013208718 -0.0068408553 -0.0033391328 -0.051528025 -0.069041476 0.015573687
0.06039574 -0.048011195 0.022470364 0.024260601 -0.018084044 -0.0040962417 0.0028577761 -0.030295229
0.039103385 -0.037969492 -0.08268395 0.037268948 -0.060700588 0.0064542727 0.0320107 0.0002693223
-0.010739902 -0.037385244 -0.03331105 -0.03304569 0.020472607 0.00047634728 -0.007271274 0.042595204

decoders.0.decoder_net.4.bias f4 [32]
00000000: 250b b2bd 310d 94bb 4b60 213c 37e2 1abd
00000010: bea2 8b3b fe84 ae3d 93d8 0bbd 8d87 83bc
00000020: aebb 2f3d 356d 763d e9bc 56bc 1a00 66bc
00000030: 3fa2 1f3c 5e08 70bd ee87 8cbc 29f8 5cbd
00000040: 5d4e 1ebd 42b4 0f3d 10d0 ccbb 48e5 b2bb
00000050: 8021 60bd 1dd6 8e3d 549d 5d3d 2223 1cbd
00000060: f4ff 05bd c1fe 7a3c 863b 90b9 c8e6 0c3d
00000070: 7ff4 663c c8c4 3cbd 4737 38bc 6859 09bc
-0.08693532 -0.004518174 0.009849618 -0.03781339 0.0042613437 0.0852146 -0.03414209 -0.016055847
0.042903595 0.06016274 -0.013106563 -0.01403811 0.009743272 -0.05860173 -0.01715466 -0.0539476
-0.03864895 0.035084017 -0.006250389 -0.0054594614 -0.054719448 0.069744326 0.054105118 -0.038119443
-0.0327148 0.015319527 -0.0002751017 0.034399778 0.014096378 -0.046086103 -0.011243648 -0.0083831325

decoders.0.decoder_net.6.weight f4 [32]
00000000: 5438 7c3f 4d32 7c3f 1d04 783f da19 793f
00000010: e511 773f 393b 7b3f e926 803f c988 7d3f
00000020: 58a7 743f a1e4 753f d852 7e3f caf3 7b3f
00000030: 2c83 7b3f 5ca3 773f ed45 813f 634b 7b3f
00000040: 8cf7 773f 2f12 7e3f 18b3 703f b13a 7c3f
00000050: 69c0 763f 2099 803f aabb 7a3f b015 783f
00000060: 90da 703f 7f6e 813f 5eeb 813f b464 743f
00000070: b434 7c3f bb19 793f 9462 783f aed9 7e3f
0.9852345 0.9851425 0.96881276 0.9730507 0.9651168 0.9813724 1.0011874 0.9903684
0.95567846 0.96051985 0.9934516 0.9841887 0.9824703 0.9673364 1.0099465 0.98161906
0.968621 0.99246496 0.94023275 0.98527056 0.96387345 1.004673 0.979426 0.9690809
0.940835 1.0111846 1.0149953 0.9546616 0.9851792 0.97304887 0.9702542 0.995509

decoders.0.decoder_net.6.bias f4 [32]
00000000: 7899 353c 5120 013c d950 99bc 0f76 03bc
00000010: 994c d039 b679 2e3c 4285 203d 64a6 c639
00000020: 2b7a babb fb27 01bd aaf3 ed3c 354c 093b
00000030: 7a5e 113c 33e8 c1bc 222d 0f3d 6c78 0d39
00000040: e341 b63c 5fdc 02bc e756 1b3c 56cd 3a3d
00000050: faeb 3d3d 1c98 babc 7be6 e13b 4871 b7bc
00000060: 9f23 d9bc ad58 d93c 962a 613c c506 1a3d
00000070: ad6c 883c 4114 0f3c 77cf 513c 27dd 833b
0.011083953 0.00788124 -0.018715309 -0.008023753 0.0003972992 0.010649135 0.039189585 0.00037889474
-0.005690833 -0.03153227 0.029046852 0.0020949964 0.008872623 -0.023670292 0.03495515 0.00013491669
0.022248214 -0.007987111 0.009481168 0.04560598 0.046367623 -0.02277761 0.0068939305 -0.022392884
-0.026506243 0.026531542 0.013743063 0.037604112 0.016653383 0.008732856 0.012805811 0.004024166

decoders.0.decoder_net.6.running_mean f4 [32]
00000000: 88c4 ed3c f836 033d 514e fc3c f2ad 013d
00000010: 6cb6 ff3c 50ae 0c3d fbf4 013d a401 fa3c
00000020: f08b 023d 16b0 043d 2158 033d 987b fd3c
00000030: d601 fe3c f7f0 f23c cc35 003d 73ef eb3c
00000040: 114e f33c 3841 053d 0cf8 fb3c 2cc1 003d
00000050: 867f f13c 64a2 043d 044b 063d 6e21 f03c
00000060: 09a6 f53c 5348 073d bbda 003d 5819 053d
00000070: e410 013d 0bba f83c 7627 023d 1f91 013d
0.029024377 0.032034844 0.030799063 0.031660028 0.031214915 0.034345925 0.031727772 0.03051836
0.031871736 0.03239449 0.03206647 0.030942723 0.031006735 0.029655917 0.031301305 0.028800702
0.02970031 0.0325329 0.030757926 0.031434223 0.029479753 0.03238143 0.032786384 0.029312816
0.029986398 0.033027958 0.031458598 0.032494873 0.03151025 0.03036215 0.031775914 0.03163254

decoders.0.decoder_net.6.running_var f4 [32]
00000000: 458e 0939 2a17 8039 d63b fc38 ca16 1139
00000010: 8827 0839 b00d 1839 6514 5c39 4c1c 9239
00000020: 4a49 6739 73d9 6339 660b 5c39 efd5 2339
00000030: e21a d938 5974 ff38 7382 0b39 f2ea e938
00000040: 4cd8 0b39 0c42 6239 7959 1539 5850 2339
00000050: 5ce9 2b39 0844 f438 eb4f 1d39 6c26 cb38
00000060: 280e 2339 daef ba39 e783 f238 568d 3439
00000070: e0ef 0339 e397 0639 c598 1e39 c624 4439
0.00013118338 0.0002443132 0.00012027442 0.00013836767 0.00012984697 0.00014500949 0.00020988433 0.00027868373
0.00022057179 0.00021729413 0.00020985081 0.00015624588 0.00010352374 0.00012181019 0.00013304669 0.00011154068
0.0001333665 0.00021577644 0.00014243078 0.00015574822 0.00016394764 0.000116474985 0.00015002459 9.686951e-05
0.00015550165 0.00035655388 0.00011564028 0.0001721879 0.00012582494 0.00012835818 0.00015124965 0.00018705716

decoders.0.decoder_net.7.weight f4 [32, 16, 3, 3]
00000000: b799 aebd 5edc c5bd 2da9 08bd 26ff 483d
00000010: 5b36 8d3a 006f 773b e540 c03c f2e9 1c3d
00000020: 4a2d fd3c f104 983d e511 bcbc a2df 6cbd
00000030: 324e 873d fc99 743d 4d68 67bc 4e87 0ebb
00000040: a5fb bd3d 692d fdbc 60fd ffbc c81d 903d
00000050: 7a87 bebc 351f f53c fd8e 03bd a5ed be3d
00000060: 0bb0 603d 1c86 173c 5815 823d bc83 64bd
00000070: f609 47bd a552 7dbd 4841 7fbd e7c1 3dbd
00000080: 71bb 2ebd 6658 babd baf6 eebc 7705 883d
00000090: 1ba5 6ebd 76ca 8a3d 1c86 92bb 2e36 9dbd
000000a0: 8274 843d 6da6 893d fcdf a73d 2b5a 7b3c
000000b0: 08ab d3bc 588d 6dbd 6087 23bd 5364 863d
000000c0: b076 4f3d 7669 e6bc 833a 7ebd cb9d 0b3d
000000d0: 478f cabc 9a15 11bd 725b 6339 2fdf 89bc
000000e0: 214f 80bb a498 5c3b 995f 93bc fc7b 6e3c
000000f0: f43d 70bd 7a69 923d 582e 89bd 615d 213d
00000100: 021d 21bd a7ce 2f3d 26a5 a8bd 9fcc 75bd
00000110: 891c a1bd 612b a2bd 693c 3fbd c3ab 49bc
00000120: 41bc 933d 3472 d6bc 7d3f 893b e091 823d
00000130: eb64 3ebd 2650 913c 1b71 e4bc 0578 5fbc
00000140: ca1b 03bc 5e29 9a3d 73c0 403c 2b21 2bbc
00000150: 2a44 733d 1b33 abbc 6d4c 01bd c55a 4cbd
00000160: 31a8 9f3d 0615 4238 1fd6 5dbd 50fe 89bd
00000170: 8c05 923d 7a4f 543d 636a 31bd 2048 94bd
00000180: 7dc9 82bd a069 3dbb ae37 943d 9950 2a39
00000190: c998 b1bd 04ba 3dbc 0d60 98bd 66bc c1bd
000001a0: 12ee 0fbc 24ec 50bd 73ce 98bd c658 59bd
000001b0: 0559 a13b 3f88 b1bc ba37 b33c bbb0 57bc
000001c0: d81e 42bd a3f5 8a3b 7190 c63c 1595 983d
000001d0: aff0 803d a608 48bd e4f5 6cbc 3084 9d3c
000001e0: baf8 4ab9 8407 c73c 92e4 3f3d da1c 933d
000001f0: f51a 08bd d557 013d 5721 a3bd 7221 5d3d
00000200: a2f7 82bc f67a a9bd f4e8 8b3d f119 b73d
00000210: 5d82 92bc 6588 f83c b399 8abd 3d8f a53c
00000220: 42c4 233d 4073 4b3d c606 bc3d ca92 edbc
00000230: 6946 87bd 1e94 503d 2496 5cbd 7d5b 2e3d
00000240: becd 12bd a432 053c 21ab 8b3d ff5b 9c3d
00000250: 4af1 74bd 5d55 903d 8734 5b3d cb1f 46bd
00000260: af0f 6cba ab40 a6bc 87ba a63c 233f b53d
00000270: 2bfd 6bbd dab8 a23d 4621 0abd a931 a63d
00000280: 4786 ac3d e37d 05bd 7da1 8fbc 8681 e43b
00000290: bf0b 413d 4760 423d 0de4 8fbd 7e05 a5bc
000002a0: f70f 463d a6ce 16bd 6e91 d93c a407 503d
000002b0: f831 b6bc 8cec 19bd 6469 1bbd caca 80bd
000002c0: 187b 6dbd 4831 8a3c 6657 8a3d a780 b33b
000002d0: d4ce 11bd 3f51 803d ae2f dabc eebc b9bd
000002e0: e541 523d 3284 a6bd 5e8b 043c e3ab 593c
000002f0: 8e82 4fbc ef57 8b3d 4df4 f5bc 1b25 17bc
00000300: b17e 1fbd 2ceb fa3b da5c 5a3d 1499 86bd
00000310: 63fe a2bd f31c 453d b5fc b2bb e7e8 f5bc
00000320: 5de6 e83c f4ed 4bbd a144 fb3c d95a 093d
00000330: 6ff4 573d 5a1a e73c d36c b6bc 04df d4bc
00000340: 1a23 513c 8d75 32bd 05b2 7dbc a3c0 00bd
00000350: f840 9ebd d566 71bd 3b5d b53c ff28 95bd
00000360: b5b9 c03d aabc 41bc 998c 28bc e520 b3bd
00000370: 833a 66bd 40e4 163d 2725 f2bc a0ef 843b
00000380: ba64 a23d 9794 c6bb c1e9 713d bdb0 4a3d
00000390: 8580 cfbc 1f3f 753d 86ab 1e3c 96b6 67bc
000003a0: 7f4a 9cbd 790c c73d 569c 8dbd 9e09 c43c
000003b0: 92b6 3d3d 9958 b9bc 1bdd c53d 3672 44bd
000003c0: 18db 91bd dbf0 ec3c c733 813d 14a6 453d
000003d0: 1e7b cc3b 5a5d a2bc 2442 013d 583b e6bc
000003e0: e0e5 c73d 2046 71bd a618 a13d 5d7a 53bc
000003f0: dede c3bc 93c9 bdbc a7d8 ea39 b89f 0fbc
-0.085254125 -0.09661172 -0.033364464 0.049071454 0.0010773645 0.003775537 0.023468444 0.038309045
0.030905385 0.074228175 -0.022957752 -0.05783046 0.066067114 0.059717163 -0.014123988 -0.0021748128
0.09276513 -0.030905442 -0.031248748 0.0703693 -0.02325796 0.029922107 -0.032118786 0.09322671
0.054855388 0.009248283 0.06351727 -0.055789694 -0.048593484 -0.061846394 -0.062318116 -0.046327498
-0.042659227 -0.09098892 -0.029170383 0.06641667 -0.058262926 0.067768976 -0.0044715535 -0.076763496
0.064675346 0.06721196 0.081970185 0.015341322 -0.02583839 -0.057996124 -0.039924026 0.06562104
0.0506503 -0.02812646 -0.06206752 0.03408603 -0.024726523 -0.03542099 0.00021682473 -0.016830055
-0.003915683 0.0033660317 -0.01798992 0.014555927 -0.058652833 0.07149024 -0.066982925 0.039395694
-0.039334305 0.04292169 -0.082346246 -0.060009595 -0.07866771 -0.0791843 -0.04668847 -0.012309018
0.07213641 -0.026177503 0.0041884766 0.0637548 -0.04648296 0.017738413 -0.027885964 -0.013639455
-0.008002231 0.075274214 0.0117646335 -0.01044492 0.05939118 -0.020898392 -0.031567026 -0.049891252
0.07795752 4.6272784e-05 -0.05415928 -0.067379594 0.07129964 0.051833607 -0.04331435 -0.07240319
-0.06386087 -0.0028902069 0.072371826 0.00016242488 -0.086717196 -0.011579994 -0.07440195 -0.09459762
-0.008784788 -0.05100645 -0.07461252 -0.053063177 0.004923942 -0.021671413 0.021877158 -0.013164694
-0.047392696 0.004240708 0.024238797 0.0745031 0.06295907 -0.048836373 -0.014462922 0.019228071
-0.00019356879 0.024295576 0.04684884 0.071832374 -0.033228833 0.031577904 -0.079653434 0.053986974
-0.015987221 -0.08275406 0.06831542 0.08940495 -0.017884428 0.030338475 -0.06767597 0.020209903
0.039982088 0.049670458 0.091809794 -0.029000659 -0.066052265 0.050922506 -0.053854123 0.04256772
-0.035840742 0.008129749 0.068197496 0.07634734 -0.059800424 0.07047532 0.05351689 -0.048370164
-0.00090050226 -0.020294508 0.020352615 0.08849933 -0.057614487 0.07945414 -0.03372314 0.08114941
0.08424049 -0.032590758 -0.017533058 0.006973448 0.047130343 0.0474551 -0.07025919 -0.02014422
0.04835507 -0.03681817 0.026558604 0.050788537 -0.022240624 -0.037579104 -0.037942305 -0.06288679
-0.05797872 0.016869202 0.06754951 0.005477983 -0.035597637 0.062654965 -0.026634064 -0.090692386
0.051332373 -0.08130683 0.008089868 0.01328561 -0.012665404 0.068038814 -0.030023718 -0.009225155
-0.03893918 0.007657429 0.053311206 -0.06572166 -0.07958677 0.04812331 -0.005462254 -0.030018283
0.028430158 -0.049787477 0.030672373 0.033533905 0.052723344 0.028210808 -0.022268688 -0.025985248
0.0127647165 -0.043569136 -0.015484338 -0.031433713 -0.077272356 -0.05893596 0.022139182 -0.0728321
0.09410421 -0.011824766 -0.010287427 -0.087465085 -0.056208145 0.03683877 -0.029558731 0.004056886
0.07929368 -0.0060601938 0.059060816 0.049484957 -0.025329838 0.05987465 0.009684449 -0.014142653
-0.076313965 0.09719176 -0.06914584 0.023930367 0.04631669 -0.022625254 0.09661313 -0.047960483
-0.07121867 0.028923443 0.06308704 0.048254088 0.0062402626 -0.019819904 0.031557217 -0.02810447
0.09760642 -0.058904767 0.078660294 -0.012907592 -0.023909982 -0.023167407 0.00044793377 -0.008766107

decoders.0.decoder_net.7.bias f4 [16]
00000000: 03e2 d43b 969a de3b c685 f73d 4cd0 eb3d
00000010: c0d4 5abc 6635 8fbc 434b 48ba 093a 093d
00000020: c03f bd3d a57c b5bc 5b7e bfbc 0c50 733d
00000030: c328 bcbd fbea 8f3d 69c3 cd3d 3f9c eebd
0.0064966693 0.0067933304 0.12086062 0.11514339 -0.013356388 -0.017481517 -0.00076406094 0.033502612
0.09240675 -0.022154162 -0.02337568 0.05940251 -0.09187462 0.07027241 0.10047037 -0.11650895

decoders.0.decoder_net.9.weight f4 [16]
00000000: 07bf 773f e391 793f 57fc 773f cf68 793f
00000010: 4912 7b3f 4b2c 793f 4778 7a3f 19dc 793f
00000020: f2a2 773f 7b89 783f 260a 773f 9b1f 783f
00000030: 9635 783f bf9c 783f 37ab 793f ebef 793f
0.9677586 0.9748823 0.96869415 0.9742555 0.98074776 0.9733321 0.9783978 0.9760147
0.9673301 0.9708478 0.9649986 0.96923226 0.96956766 0.97114176 0.9752688 0.9763171

decoders.0.decoder_net.9.bias f4 [16]
00000000: 7f60 14bd 4cd8 7ebc 1030 493d dbb9 cf3c
00000010: 5cd9 ccbc 06e8 983c df2f fc3c f67e 603c
00000020: 8b04 f63c e877 c4bc e2e3 4a3a 71b0 cfbc
00000030: 43eb 3c3b 7410 843c 6c71 2cbc 7e34 68bc
-0.03622484 -0.015554499 0.0491181 0.025357177 -0.025005989 0.018665325 0.030784545 0.013702145
0.030031463 -0.023982957 0.00077396457 -0.025352689 0.002882675 0.016121127 -0.010525089 -0.014172671

decoders.0.decoder_net.9.running_mean f4 [16]
00000000: de24 813d 5ea4 803d 94ad 8f3d 68e6 8a3d
00000010: 971f 7f3d 7fba 703d bae4 773d bdb1 7c3d
00000020: a605 863d 1898 793d 09a2 713d 272d 823d
00000030: ea4a 603d 91e2 863d 7020 8c3d 20e4 603d
0.0630586 0.062813506 0.07015529 0.06782228 0.062285986 0.058771607 0.060520865 0.061692942
0.06544046 0.060936064 0.05899242 0.063562684 0.054758944 0.06586183 0.068421245 0.054905057

decoders.0.decoder_net.9.running_var f4 [16]
00000000: a1f1 6b3a 7886 7e3a 1042 933a afe0 7a3a
00000010: 1be0 7b3a 7cce 2c3a f5db 333a c623 253a
00000020: 02e9 4d3a 0685 3e3a 7b1a 293a dac5 243a
00000030: eec0 f939 5007 6d3a b31a 843a f65d 303a
0.0009000544 0.00097093685 0.0011234898 0.00095702236 0.00096082845 0.0006592048 0.0006861084 0.0006299581
0.000785485 0.0007267747 0.0006450784 0.00062855857 0.00047636725 0.0009041922 0.0010078758 0.00067278685

decoders.0.decoder_net.10.weight f4 [16, 1, 3, 3]
00000000: 9d3b ee3d dc40 483e 2fdd 1fbe a799 63bd
00000010: 459e 013e 43af c13d fc3e 24be 3cb8 493e
00000020: 58b2 53be ab50 813e ead3 1f3e 1dbd dc3c
00000030: 4bc4 92bc 3291 893e e423 42bd afa0 acbd
00000040: 96f6 533d 4a79 7c3e 0e4e 29bd 8bf4 0a3e
00000050: 143a 153e 690d 283e 15e7 403e 433e 90be
00000060: 3c11 61be 8899 47be b218 37be 7c98 dd3c
00000070: 47df 01be a986 97be dc98 9439 90e1 73bc
00000080: 709f 21be 73f6 ac3d a356 203e b1ba 50be
00000090: 3053 9ebe d737 75be 8dff 9cbb c0ee 083e
000000a0: a442 843d 32b1 a13e 0a15 443d b257 5c3e
000000b0: 536f 8c3e e8cc 5a3e 3b24 843e ed44 0fbe
000000c0: 1495 4b3e 9034 99be c0e0 32be 1adb cebd
000000d0: c203 bcbd 174e fdbd 7368 413e 173b be3d
000000e0: 3c7a 83be dbde fc3c 685e 84be 9356 13be
000000f0: 3aaa 0d3e 6912 8fbe cfde 213c cdbd 13be
00000100: 4bb4 73be 0f12 02be 8a34 b0bd 2086 f23d
00000110: ba83 4f3e 597a ffbc 99fc 723d 2794 02be
00000120: ce41 0bbe c03d f83b b970 8a3e e3e5 01be
00000130: b7ba 843e 93a1 c7bc 7500 01be 9973 1dbe
00000140: 1d12 98be 6414 ffba 2c96 45be c145 95bb
00000150: 1379 08be bcdf 563e 1621 ffbb af7a 2e3e
00000160: 72d5 2a3e 6667 94bd a154 6f3d d317 aebd
00000170: 81e1 903e 03c6 673d 422c 603d 0278 92be
00000180: b797 213e d012 b1bd 5c10 843e 1f0a 97bb
00000190: 8326 ddbd acdb 7f3e a502 4abe 18bb ffbd
000001a0: 0cb6 a43d 2a45 51be 7db8 f6bb f7e8 0e3e
000001b0: bf7b 6fbe 97c3 b83d 75ca dfbd a6e3 d63d
000001c0: 6041 88be b7f2 263d d42d 083d 299b eab9
000001d0: 2e8a dcbb cb5d 5fbd 337c bd3d 3fbb 113d
000001e0: 435a 793e 791f 8bbe 420f 12be 9e50 2b3e
000001f0: 359a 28be a24f 033e a3a0 a33d e8a2 703e
00000200: 449c 903e 1116 803e af0e 823e d894 88be
00000210: 220a 983e b170 093c 6382 ddbb 59a8 7dbd
00000220: 9dfb 43bd 134e 6dbe a916 003e 0522 8e3e
00000230: 429d 4b3e 14d1 8c3e c075 513e 571d 79be
0.11632464 0.19555992 -0.15611719 -0.055566456 0.12658031 0.09457257 -0.16039652 0.19699186
-0.20673501 0.25256857 0.15608183 0.026945645 -0.017915865 0.26868588 -0.04739751 -0.084290855
0.051748835 0.24655643 -0.041334204 0.13569848 0.14572936 0.16411366 0.18838151 -0.28172502
-0.2197923 -0.19492161 -0.17880514 0.02705025 -0.1268283 -0.29594925 0.0002834265 -0.014885321
-0.15783477 0.08445444 0.1565805 -0.20383717 -0.30922842 -0.23947082 -0.004791206 0.13372326
0.06458023 0.31580502 0.047871627 0.21517828 0.27428684 0.21367228 0.25808892 -0.13991137
0.19881088 -0.29922915 -0.17468548 -0.10100384 -0.09180404 -0.1236841 0.188875 0.09288614
-0.25679195 0.030867985 -0.25853276 -0.14388494 0.13834468 -0.27943733 0.009879782 -0.14427872
-0.23799245 -0.12702201 -0.08603771 0.118419886 0.20265093 -0.03118627 0.059322927 -0.12751828
-0.13599321 0.0075757205 0.27039126 -0.12685351 0.25923702 -0.024369037 -0.1259783 -0.15376128
-0.2970132 -0.0019461033 -0.19295567 -0.0045554345 -0.13327436 0.20983785 -0.0077859266 0.17038988
0.16682985 -0.07246284 0.058430318 -0.08500638 0.28297046 0.056585323 0.054729708 -0.28607184
0.15780531 -0.08646166 0.2579373 -0.004609361 -0.10798361 0.24986142 -0.19727571 -0.12486857
0.08042535 -0.2043654 -0.007529317 0.13956057 -0.23387049 0.09021681 -0.109272875 0.10492639
-0.26612377 0.040758815 0.03324683 -0.0004474756 -0.0067303395 -0.054532807 0.09252205 0.035578962
0.24350838 -0.2717245 -0.14263633 0.16729972 -0.16465075 0.12823346 0.079896234 0.23499644
0.2824422 0.25016835 0.25401828 -0.2667606 0.2969523 0.008388684 -0.006759928 -0.061928127
-0.04784738 -0.23174314 0.12508644 0.2776033 0.19884208 0.27503264 0.20455074 -0.24327599

decoders.1.decoder_net.0.weight f4 [512, 2]
00000000: 6d7d 20bf cb7b c53e 84dc 1e3f 1bb0 62be
00000010: a8ca f33e 4b03 e5bd 97af 1f3f a633 13bf
00000020: a598 b53e f99f 203f a769 ccbd c212 e63e
00000030: 07c5 d73e a433 acbe 09e3 25bf e55c efbe
00000040: ca6b 953e 350f 0e3f 0c9b bd3e 35a0 813e
00000050: c714 2bbf a2c2 9e3d 7a5e 263e efb2 143f
00000060: a702 923e d6a1 c73d 485e d73e 6555 ca3d
00000070: c10b 49be a015 073f 458c 353e b2d4 b0bd
00000080: 2d84 80be 84e5 f93d ca92 f3be c15a b0be
00000090: 86ca 8ebe 39fa 443e 0936 e4be d7f2 f7be
000000a0: 7800 bc3e b525 b53e 5c2e e33e fe36 12be
000000b0: 5a37 a03e a1d6 94bd 459a f3be 783f 6cbd
000000c0: 7cbf d83b 3ffd 9a3e ba63 24bf 7065 f13e
000000d0: f6e9 8fbe 2a7d f5be 30e6 15bf f845 87be
000000e0: 8c98 1e3e ebf8 ea3d 1ea8 853e 8289 ab3e
000000f0: 0691 dabe f88d b3be e89d 36bd 2ab5 0c3f
00000100: eee5 473e 74aa ab3d 54f5 2c3f 5a8d 713e
00000110: 433c 92be cca9 623e aa53 32bf 377a 4cbe
00000120: f633 303f 95d2 eb3e 4114 3c3f ec07 6abc
00000130: 3485 0b3f 9366 033f 25be acbd e3b3 dfbb
00000140: fd36 a53e 0c9a 443e 781f d6be 58fc 92be
00000150: 7031 973e cdaf 12bf b360 123f ecff 8b3e
00000160: 9d12 373e b843 3e3e 0def 9e3e b18b 29be
00000170: 19f0 8dbe 1bb4 e3be 45fb a03e 8ab4 943e
00000180: 19da d6be 9635 1ebf 53b8 b7bc 2303 f03d
00000190: 21bd c1be c40d dbbe 4c4b 233e 5620 9f3e
000001a0: 5537 31be d666 5e3e 316e e23b 6d5a 61be
000001b0: 1a30 6cbe 7437 23bd 9f58 54be e866 08bf
000001c0: e28f 233e e870 9e3d 69e4 4e3e 6a83 f53e
000001d0: 72ac 1ebf cb1d 6e3e e2af 173f 997f 66bd
000001e0: a3a0 af3e b909 23bd 9ada ee3d 85cc e23d
000001f0: 5563 963e a393 5cbe d8ea 253f 9a99 70be
00000200: 1f43 cd3e 70eb 893e de39 ab3e 6181 103f
00000210: b639 e7be 2871 303f 3df7 14bf dca3 d13e
00000220: b4fc 2c3f 5a55 93be 9813 16be 425d 23be
00000230: a97d 47bf 6afe 0fbf 932f 0fbf 46b9 29be
00000240: 0722 dc3e 5b87 113e 3365 2c3e 4968 87be
00000250: f010 cfbd ee1b 183f f03a cdbe fb3e 6fbd
00000260: d1e9 d2bd e2f0 2b3e ef90 a43d bac1 db3e
00000270: be1a 01bf 0faa c53e 73bf e5be 08f2 823d
00000280: 17c9 13bf 8b7e 133f ea3a 79bd 860b 2bbf
00000290: 8600 caba fc07 08be e9a5 e6be 3a6d d9be
000002a0: ae33 bfbd 3e60 23be 6cb4 343e 9c25 b4be
000002b0: 4afa 76be 202a 08be 4fa5 dabe d0de 513e
000002c0: 5ac0 05be f2f1 02bf 3e66 123f 0e25 343f
000002d0: 744e 7c3e bd52 46be 5fbe 21bf 63d4 c3bd
000002e0: 5a94 1d3e 5b19 8c3e 994d 9f3e 929c 11bf
000002f0: 962f 36bf 75d6 223f 7c3f 12bf cf0f c23e
00000300: 91cb 01bf b11d bdbe 602e 143f 4586 463d
00000310: 2cf9 fa3e a4f4 fc3d 4fcc 083e c2d5 f43e
00000320: ff93 18b9 81e2 a83e b2a8 31bf 8ad2 623e
00000330: f4cb 2abf 6181 42bf 1a77 d73c 47fa 9f3e
00000340: f920 7fbe 2428 e5bd efa5 2c3f 0dde 30be
00000350: 05b9 b1bc 35a1 47bf ce4b f93e d2f5 243b
00000360: 8b3f 3ebe a9ec 80bd 6b35 89be f0da 7d3d
00000370: 6e5e f53d b7c7 14bf 9a18 e63e dee7 ad3e
00000380: 0c53 80be cbd3 173f c12d d1be c722 e93e
00000390: 94e1 123f e6d2 383e 4fd6 94be 7f65 1a3f
000003a0: 4107 cf3e bf3d 3c3e 2861 4f3e fd40 163f
000003b0: 0efa f7be 3d9a 37bf 01ff cf3d 8e10 5cbe
000003c0: 164c 273f 7dc2 bbbd 1a21 b9bd ea81 10bf
000003d0: c2fe 093e e367 03bf f46d f63c 5834 083f
000003e0: f024 5b3e 4e0f e0be b0fc 1fbf b2c5 8e3e
000003f0: 1746 cfbe e659 99be 86da db3e 64be 313e
-0.62691385 0.3857101 0.6205523 -0.22137491 0.47615552 -0.11182269 0.62377304 -0.57500684
0.3546802 0.627441 -0.09981089 0.44936186 0.42142507 -0.3363315 -0.64799553 -0.4675056
0.291838 0.55491954 0.37032354 0.2531754 -0.6682858 0.07751967 0.16246977 0.5808553
0.2851765 0.09747665 0.42064118 0.09879569 -0.1963339 0.5276737 0.1772929 -0.086343184
-0.25100842 0.1220198 -0.4757293 -0.3444424 -0.27888888 0.19236077 -0.44572476 -0.4842746
0.36719108 0.3538033 0.44371307 -0.1427879 0.3129223 -0.072675 -0.47578636 -0.057677716
0.0066146236 0.30271336 -0.6421467 0.47147703 -0.28108186 -0.47947055 -0.58554363 -0.2642057
0.1548788 0.114732586 0.26104826 0.33503348 -0.4268877 -0.3506925 -0.044584185 0.54963934
0.19521305 0.08382121 0.6756184 0.23589078 -0.285616 0.22135085 -0.6965891 -0.19968496
0.68829286 0.460591 0.73468405 -0.014284115 0.54500127 0.5132839 -0.08434705 -0.006826864
0.32268515 0.19199389 -0.41820884 -0.28708148 0.29529905 -0.572995 0.571788 0.2734369
0.17878194 0.1858052 0.31041756 -0.16557194 -0.27722242 -0.44473347 0.31441703 0.2904399
-0.4196327 -0.61800516 -0.02242676 0.11719348 -0.37839606 -0.4278394 0.15946692 0.31079358
-0.17306264 0.21718916 0.0069101085 -0.22007151 -0.23065224 -0.039847806 -0.20736931 -0.5328202
0.15972856 0.07736379 0.20204319 0.47951823 -0.6198188 0.23253553 0.5925275 -0.05627403
0.34302244 -0.039804194 0.11662789 0.11074165 0.2937266 -0.21540694 0.6481147 -0.23496094
0.40090272 0.26937437 0.33442587 0.56447417 -0.45161217 0.6892266 -0.58189756 0.40945327
0.67573094 -0.28776056 -0.14655912 -0.15953544 -0.7792612 -0.5624758 -0.5593197 -0.16574582
0.4299471 0.1421179 0.1683548 -0.2644675 -0.101106524 0.5941762 -0.40084028 -0.058409672
-0.10298503 0.16791108 0.080354564 0.4292124 -0.5043143 0.38606307 -0.44872627 0.0639382
-0.57728714 0.57614964 -0.0608472 -0.6681446 -0.0015411533 -0.13284296 -0.45048454 -0.42466146
-0.09336029 -0.15954682 0.1764695 -0.35184944 -0.24118915 -0.1329732 -0.42704245 0.20495152
-0.13061658 -0.5115043 0.5718726 0.7036904 0.24639302 -0.193675 -0.6318111 -0.09561994
0.15388623 0.27363095 0.3111389 -0.5687953 -0.7116636 0.63608485 -0.5712812 0.37902686
-0.5070124 -0.36936715 0.5788326 0.048467893 0.49018228 0.12351349 0.13359188 0.47819334
-0.00014550982 0.3298531 -0.69398034 0.22150627 -0.6671746 -0.75978667 0.02630191 0.31245634
-0.24914922 -0.11189297 0.67440695 -0.17272206 -0.02169467 -0.7798036 0.48690647 0.0025170934
-0.18578927 -0.06295139 -0.26798567 0.061976373 0.11980902 -0.5811724 0.44940645 0.33965963
-0.2506336 0.59307545 -0.4085522 0.45534346 0.57375455 0.18049201 -0.29069754 0.6031112
0.40435222 0.1838293 0.20251906 0.58692914 -0.48432964 -0.71719724 0.1015606 -0.2149069
0.6535047 -0.09167955 -0.09039517 -0.56448233 0.13476089 -0.51330394 0.030081727 0.5320487
0.2140081 -0.43761677 -0.62494946 0.27885205 -0.40483162 -0.299514 0.42940158 0.17357785

decoders.1.decoder_net.0.bias f4 [512]
00000000: 4b62 e03e 02a4 1f3f 1aa2 dfbe cf50 283f
00000010: 28b0 6a3e a5ff debe 8ea1 c13c 0574 22be
00000020: 2cdb 2f3f a6f5 d23d fe7d 0b3f 81bc 0d3f
00000030: 0a8d 0d3f 918d 01bf 6c30 09be 8c3d df3e
00000040: 7b95 843e daae 553e 0200 01bf dea8 4e3d
00000050: 4e28 ff3d df2c 5ebd b0c9 033f 6ba1 2abf
00000060: 47f6 01bf 0bc3 f63d 853d 0c3f 5d07 093f
00000070: a886 01bf 1bf0 653d d012 3cbf 62fe a93e
00000080: c72e be3e 2ae5 1ebf 332e 0e3e 81d9 23bf
00000090: ccb5 e1bd 1a46 98be c7a1 ea3e 2ab7 033f
000000a0: 331f 543e 45b6 45be e2a9 443e b6c0 793e
000000b0: 75f7 cd3e 899f 943e 0a81 8a3e 131e d0bd
000000c0: 0ac3 1cbe 1eb6 e53e 5424 95be f67a 63be
000000d0: 4884 20be dd65 f43e f886 bfbd c6f5 0e3f
000000e0: b159 c5bc 73be e73e 831a c1be ae15 803e
000000f0: 0b52 cb3c 79ea c43e 60fb 193f 13b4 16bf
00000100: 2e5a 4ebd 172c b53e 967d 243f 499d b2be
00000110: 3d8c f23e d46e 07bf 080e 85be 1d51 98be
00000120: 35c2 1a3e a509 4dbe a368 2a3f 75a8 8ebe
00000130: fa94 13bf 624d b53e d3bd 6b3e f062 0cbf
00000140: 9ccf aabe 24b2 c53e c9e4 e03e b4d8 7abe
00000150: e465 e73e 0ece 8e3e c88a b1be 2f81 cdbe
00000160: 5a7a b53e eb51 843e efb6 20be b301 97be
00000170: ace6 2c3f 0118 e9be 4cdf 20bf 8dd7 093f
00000180: 8a0d 01bf c2ac 893c 0f72 a63e 41a2 983d
00000190: 47a0 0c3f 128e 7d3e a89f 7fbe 57fe dbbd
000001a0: b410 e03e 92ee 7a3e c103 45bf cdb4 c03e
000001b0: c666 9fbe 928f 973e 6c14 27bf 6a35 23bf
000001c0: 59e0 cc3e 3a7a 893d 069e 8f3d 96fc bebe
000001d0: abed cebe 0430 b33e d6e1 8cbe c070 453e
000001e0: 7e80 44bd c224 9c3e 982b 8dbe f829 abbd
000001f0: da15 34bf 5a0e 2bbe ade1 00bf e6c4 683e
00000200: 65a6 383f ee5e e83d 1435 2e3e 4192 f9be
00000210: 8e3c 7d3e eb3e 663d b003 003f 6aee 35bf
00000220: cae8 8b3c 50ca e23a 3a0a e5be a398 82be
00000230: 02bc babc 9765 113d 1215 e73e 5256 303f
00000240: 1529 94be 74a9 0d3f f132 6c3e 0aeb bb3d
00000250: fd3f 18be 6503 4dbe 4718 83be b50b 433e
00000260: f6ca 2dbd a172 773e 6696 4bbe 521e e03e
00000270: bbba e0bd f3d2 ec3e b748 02bf 88f8 1ebe
00000280: a8f1 21bf 2023 0ebf bafa b83e 1ee4 19be
00000290: b930 203f c079 eabd 825a 273f 1644 ea3e
000002a0: f252 e13e 326b 9e3e a55a ad3e 8275 e03e
000002b0: 39e2 89bd d054 853e bf8f 03be d58b 10bf
000002c0: 8715 e5bc dd47 0ebe d27e 2d3e 5cff 1abf
000002d0: b094 58be 9b68 aabe 792c 173f b55a 6c3e
000002e0: fce4 fe3e a014 b9be 92ca cf3e 0d36 7d3d
000002f0: bd97 f6be d03c 1fbf b00d 1a3f 045d b4be
00000300: daf3 e2bd 2073 98be ad19 31bf b4d2 2bbf
00000310: 96c8 8e3e 3044 033f 5044 2e3e 21bf 9bbe
00000320: 8e92 04bf 05fe 98be 051a 923e 4911 83be
00000330: 060c 6bbe 2baf 033f e3f9 1bbf dde3 193f
00000340: 3338 21bf 7628 bcbe 89ed 463e 3c25 e4be
00000350: 836c 1c3f bc50 f33d b70e edbe adbf 91bc
00000360: 67e8 293e ede8 0a3e 9cfc a43e 4cd1 f93e
00000370: ed2d 26bf d54d 1a3f e05d 333e fb7d 163e
00000380: ba7e 49be b138 e43e 500d 233f d2f0 ca3e
00000390: f563 253f 9c1d 0cbf 0630 1cbf 3397 b73e
000003a0: 0559 f93e 131e 363f 5571 613e ff54 f53e
000003b0: db61 1abf efc8 76be 522a dabb feb6 23bf
000003c0: f794 35bf 18a6 533d bde3 d3be e3e8 00bf
000003d0: abab 7c3d 94e3 223f c564 a5be 8ff2 54bd
000003e0: a64a a2bd 619e 0dbf 7228 413f 1def b8be
000003f0: cd0e 9b3e 9f6b 9a3e d1a7 fdbe 1e0a 02bf
0.43824992 0.6235963 -0.4367836 0.65748304 0.22918761 -0.43554416 0.023636606 -0.1586457
0.68693805 0.1030076 0.54489124 0.5536576 0.55293334 -0.5060664 -0.13397378 0.43601644
0.25895295 0.20867482 -0.50390637 0.050454013 0.124588594 -0.05424201 0.51479626 -0.66652554
-0.50766414 0.1204892 0.5478137 0.5352686 -0.50596094 0.056137186 -0.73466206 0.3320189
0.37145063 -0.62068427 0.13884811 -0.6400376 -0.11021003 -0.29740983 0.4582655 0.5145136
0.20715027 -0.19307812 0.1920543 0.2438992 0.40227857 0.29027966 0.27051574 -0.10161986
-0.15308776 0.44865507 -0.2912928 -0.22214875 -0.15675461 0.47733966 -0.09351915 0.5584377
-0.02409062 0.4526249 -0.3771554 0.2501654 0.024819395 0.38460138 0.6014919 -0.5886852
-0.05037897 0.353852 0.6425413 -0.34885624 0.47372618 -0.52903485 -0.25987267 -0.29749385
0.15113147 -0.2002321 0.6656591 -0.27862898 -0.57649195 0.354106 0.23021631 -0.54838467
-0.33361518 0.38612473 0.4392455 -0.24496728 0.45194924 0.27891582 -0.34676194 -0.40137622
0.3544491 0.25843748 -0.15694784 -0.29493484 0.6753948 -0.45526126 -0.62840724 0.5384453
-0.50411284 0.01680601 0.32508895 0.074528225 0.54932064 0.24761227 -0.24963248 -0.10741871
0.43762743 0.2450507 -0.76958853 0.3763794 -0.31133097 0.29601723 -0.65265536 -0.6375338
0.40014914 0.06712766 0.070125625 -0.37302083 -0.404157 0.3499757 -0.2751605 0.19281292
-0.047974102 0.30496794 -0.27572322 -0.08357614 -0.7034584 -0.16704693 -0.50344354 0.22731361
0.721289 0.113462314 0.17012435 -0.48744395 0.24730131 0.056212347 0.50005627 -0.71066916
0.017078776 0.0017302725 -0.44734365 -0.25507078 -0.022794727 0.035497274 0.45133263 0.68881714
-0.28937593 0.5533669 0.23066308 0.091756895 -0.1486816 -0.20020826 -0.2560446 0.19047435
-0.042429887 0.24164821 -0.19881591 0.43773133 -0.10973116 0.4625469 -0.50892204 -0.15524495
-0.63259363 -0.55522346 0.3612879 -0.15028426 0.62574345 -0.11449003 0.6537248 0.4575507
0.44008595 0.3094116 0.3385822 0.4383965 -0.06732602 0.2604127 -0.12847804 -0.56463367
-0.027964367 -0.13894601 0.1694291 -0.605459 -0.2115047 -0.33282933 0.59052235 0.23081477
0.49784076 -0.36148548 0.40584236 0.061819125 -0.48162642 -0.6220217 0.60177135 -0.35227215
-0.11081667 -0.29775333 -0.69179803 -0.6711838 0.2788741 0.5127592 0.17018247 -0.30419257
-0.51786125 -0.29881302 0.28535476 -0.25599125 -0.22953805 0.5143916 -0.6092817 0.60113317
-0.6297638 -0.3674962 0.1942655 -0.44559658 0.61103076 0.11880633 -0.4630029 -0.017791593
0.1659256 0.13565417 0.32223976 0.48792493 -0.6491383 0.6027501 0.17516279 0.14696495
-0.19677249 0.44574502 0.6369219 0.39636856 0.6460565 -0.5473268 -0.6101078 0.35857543
0.4870073 0.7113964 0.22015889 0.4791641 -0.60305566 -0.24100088 -0.006657877 -0.639511
-0.7093043 0.05167207 -0.41384688 -0.50355357 0.061687153 0.63628507 -0.32303444 -0.051989134
-0.07924394 -0.5531979 0.7545234 -0.3611993 0.3028473 0.30160233 -0.49542096 -0.5079669
