Project2/models/model_3_7.pt (torch, 285381 bytes, 75 tensors)

prior.mean f4 [2]
000000 00 00 00 00 00 00 00 00
       0.0 0.0

prior.std f4 [2]
000000 00 00 80 3f 00 00 80 3f
       1.0 1.0

decoders.0.decoder_net.0.weight f4 [512, 2]
000000 db 9c 67 be 5f a4 b9 3e df d7 53 3c 93 76 40 3e
       -0.2261843 0.36258218 0.012929886 0.18795232
000010 ef 3b 65 3e 14 22 ae be 30 74 0d bf 57 3e 4d be
       0.22386144 -0.34010375 -0.55255413 -0.20043312
000020 61 60 bd 3e 99 c3 f5 bc 92 ee 48 bb ce 3b 6c be
       0.36987594 -0.030000495 -0.0030659777 -0.23069689
000030 aa e9 f5 3a b9 38 98 3e 8f 3e 14 bf 92 9e 01 bf
       0.0018761654 0.29730776 -0.57907957 -0.50632584
000040 3a d7 a4 3e cd 65 38 bf 22 c7 7d 3e e7 43 e9 be
       0.32195455 -0.72030336 0.24782994 -0.45559618
000050 04 9a c2 be eb f2 16 3f 18 be 83 be da 87 36 3c
       -0.3800813 0.58964413 -0.25730968 0.011140788
000060 32 6b 21 3f 1e 89 12 bf 16 b2 12 bf df 18 5a be
       0.6305419 -0.57240474 -0.5730299 -0.2129855
000070 f8 4d 6d be b2 ae 19 bf c4 fc ab be fd c3 30 be
       -0.23174274 -0.6003219 -0.33591282 -0.17262264
000080 68 09 81 be d3 c7 a9 3e 64 38 c1 be 37 9f 23 3e
       -0.2520249 0.33160266 -0.37738335 0.15978704
000090 ca 65 15 3e 77 d3 8c be 32 f1 f7 3e c2 e4 ab 3e
       0.1458961 -0.27505085 0.48426205 0.33572966
0000a0 1e 22 c1 3d c5 43 b4 3e d6 e8 1b 3e c2 90 00 bf
       0.094303355 0.35207954 0.15225539 -0.5022088
0000b0 1b 3d 0f 3e bc 81 12 bf a7 02 3c be 08 0f 83 3e
       0.13988154 -0.5722921 -0.18360387 0.25597405
0000c0 11 b4 31 bf 7e 40 b4 3e 39 d6 af be 64 5a 20 3e
       -0.69415385 0.35205454 -0.34343126 0.15659481
0000d0 71 12 8f be a0 be f9 bd b7 41 63 3d b9 89 83 3e
       -0.27943757 -0.12194562 0.055482592 0.25691012
0000e0 90 39 01 be 39 89 0f 3f bc d6 f5 be f9 28 76 3e
       -0.12619615 0.5606876 -0.48015392 0.24039067
0000f0 e1 a8 f7 3e 9b 95 04 3d 91 32 8e bd 4e 35 a8 3e
       0.48371032 0.032369237 -0.069432385 0.32853168
000100 74 26 38 3e 74 75 d9 3e 83 f5 f3 bd 4e 11 f3 3e
       0.17983419 0.42472422 -0.11912062 0.4747414
000110 b3 a6 f8 3c 95 4a 31 bf de d7 b1 3d 4c 2d 3c bf
       0.030352926 -0.6925443 0.086837515 -0.7350662
000120 53 db 08 bf e9 c0 16 bf 67 db 15 3f 7d 5e af bd
       -0.5345966 -0.5888811 0.58537906 -0.08562944
000130 12 b2 0a bf 16 1b 00 bf bd 30 c6 3e d9 77 f4 3e
       -0.54177964 -0.5004133 0.3870906 0.47747687
000140 aa 31 33 be 50 89 1d 3f 14 bf 7e 3e 05 53 c0 bd
       -0.17499414 0.6153765 0.24877578 -0.09390835
000150 aa d6 04 be e7 71 1e bf a6 1e 65 3e fd be c7 be
       -0.12972513 -0.6189255 0.22374973 -0.390129
000160 70 61 a5 bd 0f 08 d1 be ea 70 f3 3e 84 30 f0 bd
       -0.08075225 -0.4082646 0.47547084 -0.117280036
000170 f9 39 96 3d 56 a2 ad be 18 df 03 3f 88 0f b7 be
       0.07335276 -0.33912915 0.5151229 -0.35754037
000180 87 dd 81 3e b2 9d bc be 09 09 17 bd fc 4f 2e 3f
       0.25364324 -0.36839062 -0.03687385 0.68090796
000190 85 dc c0 3d 29 06 e3 be 66 fc 21 be cc 7c 14 bf
       0.09417061 -0.44340637 -0.15818939 -0.58002925
0001a0 0c a6 e6 be 9d c0 17 bd 4c c9 98 3e 9e 5d bc 3e
       -0.4504856 -0.037048925 0.29841077 0.36790174
0001b0 99 90 2e bf b3 f2 ad 3e 31 d0 e7 be 02 db ff 3e
       -0.6818939 0.33974227 -0.45276025 0.49971777
0001c0 ec 54 30 bf 56 f3 21 3f ce 61 09 3e b8 e6 dc 3e
       -0.6887958 0.63261926 0.13416216 0.43144774
0001d0 8a 24 44 3f f6 20 c0 3e 85 89 20 bf f2 b2 03 bf
       0.76618254 0.37525147 -0.6270984 -0.51444924
0001e0 07 e4 a7 3e d9 02 0b bf f9 0e 60 3e d7 17 17 3f
       0.3279116 -0.5430122 0.21880712 0.5902075
0001f0 06 86 17 bf 63 61 0f 3f 7a e0 66 3e 71 18 2f 3e
       -0.5918888 0.56007975 0.22546569 0.17099167
000200 50 38 4b be 07 71 c5 3e 22 8d 85 be 8d a7 b3 3e
       -0.198457 0.38562796 -0.26084238 0.3508877
000210 2f 3d 77 be 49 b7 64 be ab c7 2d 3e ad da 25 bf
       -0.24144433 -0.22335543 0.16970699 -0.647868
000220 47 10 c3 3e 7c 11 ce 3e 92 38 9e bd 19 ba 6b be
       0.38098356 0.40247715 -0.07725634 -0.2302021
000230 22 57 10 3f e0 a5 7b 3d ab 68 44 be 78 eb aa be
       0.56382954 0.061437488 -0.19180553 -0.33382773
000240 71 90 14 3f d3 0b 07 3f f8 ae ca 3e 2f 18 c3 be
       0.580329 0.5275242 0.39586616 -0.38104388
000250 0b 8c 4c bf 38 fe 45 be 66 b6 2c bf 46 3e 34 bf
       -0.7990119 -0.19335258 -0.6746582 -0.7040752
000260 cf 5c ac be b9 56 ae bd fa 01 e8 be 2d 14 53 bd
       -0.33664557 -0.08512635 -0.45314008 -0.051532913
000270 59 1b a6 3b 02 ff b8 be d5 4e ad be 16 ce 2a 3f
       0.005069178 -0.36132056 -0.33849207 0.6672071
000280 d7 13 1a bf 21 02 04 bd 55 03 98 3e 40 fc e9 3e
       -0.60186523 -0.032228593 0.29690042 0.45700264
000290 43 17 b4 be 55 5a 29 bf 5a 5f f1 3e f2 40 2e bf
       -0.35173997 -0.6615346 0.4714306 -0.6806785
0002a0 8c 73 0d 3f 41 22 d0 3e f8 ed 08 3f 5c 11 eb bd
       0.55254436 0.40651134 0.5348811 -0.114779204
0002b0 70 02 e4 3d 53 fc 7d bc d3 9a 16 3f 34 b6 1b 3e
       0.111332774 -0.015502053 0.58829993 0.15206224
0002c0 7c 23 e1 be b0 3e 09 bf 22 1f 35 bf 34 42 aa 3e
       -0.43972385 -0.5361128 -0.7075063 0.33253634
0002d0 c1 8c ac be 11 f4 ee 3e 4d 54 b0 bd eb 39 d9 be
       -0.33701137 0.46670583 -0.08609829 -0.42427
0002e0 f4 d7 4b be 3d ab ab be a3 7a 80 3e 96 42 1a 3f
       -0.19906598 -0.33529082 0.25093564 0.6025785
0002f0 0d f1 7d be 91 2d 44 3e b6 4f bb 3d c8 1b 22 bf
       -0.24798985 0.19158007 0.09146063 -0.6332364
000300 ac 5d 0e bf aa 8d 0f be e0 0f 6f be 49 07 77 3e
       -0.5561168 -0.14018884 -0.233459 0.24123873
000310 73 c7 f4 3e c5 7d 37 3f ce 6c ae 3e 20 a8 f3 be
       0.47808418 0.71676284 0.34067386 -0.47589207
000320 82 f6 96 3e df 0a 04 3f 8b 65 00 3f 54 22 b6 be
       0.29484946 0.5157909 0.5015494 -0.35573065
000330 9e 0f 13 bf bd 63 8e be ab 1d ee 3d 1e 38 c4 bd
       -0.57445705 -0.2781047 0.116267525 -0.09581016
000340 c8 b0 89 be c4 a9 4a be a6 36 fb 3e 31 53 79 be
       -0.26892686 -0.19791323 0.4906513 -0.24348141
000350 bd f5 2a 3f 73 a8 c7 be 67 51 12 bf d7 f5 aa be
       0.66781217 -0.38995704 -0.5715546 -0.33390686
000360 8d e1 d0 bd 81 cf 1b bf 45 2b d7 3e cd 93 0c 3f
       -0.101992704 -0.608635 0.420252 0.54913026
000370 eb cc 10 be 34 e4 17 3e 3e 2a be be 26 d7 31 3f
       -0.1414067 0.14833146 -0.37141603 0.69468915
000380 be a7 26 bf d9 8c 1a bf ca 13 0d be 5d 3d 77 3e
       -0.65099704 -0.60371166 -0.1377708 0.24144502
000390 82 92 94 3d 22 ba d4 3e 44 40 0b 3f de c9 11 bf
       0.07254507 0.41548258 0.54394937 -0.5694865
0003a0 bb 8b 6b 3d 03 54 21 bf ad 78 d2 3e 49 bb 14 3e
       0.057506304 -0.63018817 0.41107693 0.14524569
0003b0 a2 57 9d be 6b 01 82 3e 40 2d ec 3e 71 d1 a0 bd
       -0.3073092 0.25391707 0.46128273 -0.07852448
0003c0 0a 65 f4 3e 29 08 20 bf c1 16 2c bf a4 b0 32 be
       0.47733337 -0.6251245 -0.6722222 -0.17450196
0003d0 87 60 ab be b8 fa cc be 9d 81 de 3e 2b 6a 1d 3f
       -0.33472082 -0.40035033 0.43458262 0.61490124
0003e0 52 6f b2 be 3d de 05 3f 60 c0 88 bd 7a 6d 29 3f
       -0.34850556 0.52292234 -0.066773176 0.6618267
0003f0 fa ac e0 be b6 8c 98 3e 26 6b 0f 3f 97 1e 08 3f
       -0.4388197 0.29794854 0.5602287 0.53171676

decoders.0.decoder_net.0.bias f4 [512]
000000 3e d3 94 3e 95 a9 0a bf b0 6c 12 bf 97 58 a7 be
       0.29067415 -0.5416501 -0.57197094 -0.32684776
000010 fa 86 ea bc 7c 89 a8 be 12 bc 24 3f 36 1a c3 be
       -0.028628815 -0.32917392 0.6434947 -0.38105935
000020 f0 f6 59 be 89 53 cd bc 2a d3 92 be 56 b5 2e be
       -0.21285605 -0.025064247 -0.2867673 -0.17061362
000030 43 b3 83 3e 36 90 f9 3e 33 17 1b be 29 c8 e8 3e
       0.25722703 0.48742837 -0.15145569 0.4546521
000040 81 27 dd be cd 39 ab bd 0a 4c e8 be ce ad 95 be
       -0.43194202 -0.08360634 -0.45370513 -0.29234165
000050 18 69 28 bf 9a ae 68 3e 94 3c c5 bd ec 3f 84 3d
       -0.6578536 0.22722855 -0.09630695 0.06457505
000060 be 9b 1a bd 91 a4 40 bd 39 ad 91 bc f6 53 10 3f
       -0.037746184 -0.047031943 -0.017782794 0.56378114
000070 fc 19 da bd d6 a5 29 bf 9a c5 b9 3e 40 37 94 be
       -0.106494874 -0.6626867 0.3628357 -0.28948402
000080 ad 2f fe 3d 12 5d 4c be a1 9d c6 be 76 4a 01 bf
       0.12411437 -0.19957379 -0.38792136 -0.50504243
000090 5b 08 41 bf 49 f2 fd be 7b d4 3c 3e e0 db d1 bc
       -0.75403374 -0.4959891 0.1844043 -0.02561754
0000a0 dc 7d 86 be 86 f4 12 be d0 a8 92 bd ab a4 9a be
       -0.26267898 -0.14351091 -0.07161105 -0.30203757
0000b0 cb 17 e0 3d 9f 1c 23 3f 54 61 6b be 3b c4 56 bd
       0.10942038 0.6371555 -0.22986346 -0.052433234
0000c0 07 d7 aa bc 0c ef 08 bf 09 03 d4 be 57 96 bf 3d
       -0.020854486 -0.53489757 -0.41408566 0.09354847
0000d0 b8 f4 61 3d 82 95 04 bc 7c b7 1e be 73 8e 2c 3f
       0.055165023 -0.008092286 -0.15499681 0.6740486
0000e0 db 75 20 bf d4 e4 00 be 37 7b 98 be cc b9 2d bf
       -0.62679833 -0.12587291 -0.29781505 -0.6786163
0000f0 cf bf 97 be fc a3 b8 3e 2c 49 20 bf 53 13 a7 be
       -0.29638526 0.3606261 -0.6261165 -0.3263193
000100 fa cd 28 bf 6d 67 48 be cb 7d 79 be 12 97 db 3e
       -0.65939295 -0.19570704 -0.24364392 0.42888695
000110 d8 ee 44 3d 35 82 15 be 82 89 d8 be 44 b5 1e 3f
       0.04807934 -0.14600451 -0.4229241 0.6199534
000120 f0 43 c1 3d cc 9e 3c 3f e1 b2 32 3f 9a d6 83 be
       0.09436786 0.73679805 0.698042 -0.25749665
000130 99 da 43 be df 86 4b bd fc 38 dd 3e d1 17 eb 3e
       -0.19126357 -0.04968917 0.43207538 0.45916608
000140 4a 76 54 3e b0 c0 17 3f 6d 13 90 bd d0 f2 54 3d
       0.20748249 0.5927839 -0.07034955 0.051989377
000150 0a 79 0d 3f 18 22 31 bf b6 8e fe 3e fe 6b 9a be
       0.55262816 -0.6919265 0.49718255 -0.30160517
000160 af a2 5b be 32 12 0a 3f a2 91 19 bf c1 74 c3 be
       -0.21448778 0.53934014 -0.59987843 -0.38175014
000170 35 c5 23 3f d8 af 15 bc b4 2b 1f bf 73 ef c5 be
       0.6397279 -0.009136163 -0.6217606 -0.38659248
000180 31 42 26 3f c7 de 3d 3e 84 7c da be 00 14 a5 be
       0.6494475 0.18542014 -0.42673123 -0.3224182
000190 3a 89 bd 3e bb a0 35 3f e0 6d 08 3f c3 62 3f 3d
       0.37018758 0.7094838 0.53292656 0.046725046
0001a0 6d c4 73 3d 85 44 9b 3d 14 06 78 bd 9a 33 95 3e
       0.059513498 0.075814284 -0.06055267 0.2914093
0001b0 ae 0d eb be 32 20 2f 3f e9 7d 19 3c 07 81 1c 3f
       -0.45908874 0.684085 0.009368398 0.6113438
0001c0 73 11 29 bf 51 b1 e7 be 4a b4 3d bf 97 85 2b 3f
       -0.6604225 -0.4525247 -0.74103224 0.67000717
0001d0 3e e1 47 be 05 bd f6 be 24 aa 0a be 8a b8 f8 bd
       -0.19519517 -0.48191085 -0.13541466 -0.12144573
0001e0 18 6b 23 3f 0e 5a c5 be 26 29 f4 be d2 6c 65 be
       0.6383529 -0.3854527 -0.47687644 -0.22404793
0001f0 27 65 dc 3e fe 90 91 be ea d5 26 bf 13 2f cc bd
       0.43045923 -0.28430933 -0.65170157 -0.09969916
000200 0d 56 c4 be cd b9 69 be c9 99 12 3f 3e 47 6e be
       -0.38346902 -0.22824784 0.5726591 -0.23269364
000210 6f 1e 9b 3e 39 76 9f bc ce 4e 09 bf f2 45 31 3f
       0.30296656 -0.019465553 -0.5363587 0.69247353
000220 36 bc da be 55 b3 b2 3d 3a 50 bc 3d d8 9e b3 3e
       -0.4272172 0.08725611 0.091949895 0.35082126
000230 a1 3d 8f 3e c2 65 09 bf 98 44 47 be af 52 c3 3e
       0.27976707 -0.53670895 -0.1945976 0.3814902
000240 f8 d3 c6 3e 1e 2b d7 be f5 3e c2 3e 61 44 eb 3e
       0.38833594 -0.42025083 0.37938657 0.45950606
000250 bf 8a 8e 3e fc f7 d9 3d ce b8 16 3f f8 a4 18 bf
       0.2784023 0.106430024 0.5887574 -0.5962672
000260 5b 2a 06 3f 71 1c fe 3e e0 14 27 bf ac 5b eb 3c
       0.5240838 0.49631074 -0.6526623 0.028730236
000270 93 f7 81 be 85 b1 4b be a9 02 01 bf 5a 08 95 3e
       -0.25384197 -0.19891937 -0.50394684 0.29107934
000280 d0 2c 4f 3d 58 e9 d6 bc 9d e3 c8 bd 0d ce 81 3e
       0.050579846 -0.026234314 -0.09809039 0.25352517
000290 87 52 29 3f f0 ec 38 be 9c f5 67 be 70 4e 21 3f
       0.6614155 -0.18059134 -0.22652286 0.6301031
0002a0 3a a5 4f 3e e1 a0 08 be 7a 92 db be 93 a2 8d 3e
       0.20277873 -0.1334262 -0.4288519 0.27663097
0002b0 bc 65 34 bb ba e4 f4 bd 7a 97 05 3f 1d 14 12 3f
       -0.0027526459 -0.11957689 0.5218426 0.5706194
0002c0 2a fb 39 3f 7e 9a 35 3f 95 61 05 bf e5 70 3c 3d
       0.7264887 0.7093886 -0.52102023 0.046006102
0002d0 ad 04 b0 3e aa f0 d7 be 8b 26 78 be 6c 1f 83 be
       0.34378567 -0.421758 -0.24233453 -0.2560991
0002e0 7c 7f 18 bf f1 61 1c bf bc 92 06 3e 61 1e 2b bf
       -0.59569526 -0.61086947 0.13141912 -0.6684323
0002f0 3b ed 40 bf 69 9e 85 be 84 be 2f 3f 4f 9f 13 3f
       -0.75361985 -0.2609742 0.6865008 0.5766496
000300 e0 f0 05 3f 85 39 a2 3e d0 a8 39 be 29 0f d4 3e
       0.5232067 0.3168451 -0.18130803 0.41417816
000310 04 4e c5 bc 8c b5 cb be cf 64 f5 3d 8f ae 07 bf
       -0.024085052 -0.39786947 0.11982118 -0.5300073
000320 74 be 34 be 09 4d 7c be 2e 06 fe be e7 17 17 be
       -0.17650777 -0.24638762 -0.4961409 -0.14755212
000330 b3 f0 c8 be 7a 4a cb 3e e9 e1 31 bf a7 ff f5 bd
       -0.3924614 0.3970526 -0.69485337 -0.120116524
000340 a0 db 88 be 64 8c 86 3e 2e dd 08 3e 3a 2c cc be
       -0.2673006 0.26278985 0.13365623 -0.39877492
000350 12 36 ea 3e e3 2f 4e be a5 ba 9f 3d 37 d8 70 be
       0.45744377 -0.20135455 0.077992715 -0.2351998
000360 29 57 7e 3e 63 cc 8b 3e 5d 64 2e bd 5b b6 fa 3d
       0.24837936 0.27304372 -0.042576183 0.12241813
000370 cf 00 bf be b3 01 f2 3d f4 b4 af be de dc 1a bd
       -0.37305304 0.1181673 -0.34317744 -0.03780829
000380 4d 52 de 3e 23 75 b4 3e 01 87 26 3f 44 81 60 be
       0.43422166 0.35245618 0.6504975 -0.21924311
000390 ff 8e db 3e 3a b0 df bd 97 b9 78 3d 7b 08 74 be
       0.42882535 -0.109222844 0.060723867 -0.2383136
0003a0 ae ec 09 3e d2 0d e7 3e c8 11 57 3e 73 99 05 3f
       0.13469192 0.45127732 0.21002877 0.5218727
0003b0 37 e8 e7 3e 83 bf 07 3f 99 b7 85 be 91 d0 fb be
       0.45294353 0.530266 -0.26116636 -0.4918256
0003c0 2f ef 1d bf ca b2 0a bf 19 53 30 bf c9 ea 8a 3e
       -0.6169309 -0.5417906 -0.68876797 0.27132252
0003d0 cc 40 85 3e 59 99 48 ba 5e f2 12 3f 8b 85 e3 bd
       0.26026 -0.0007652245 0.5740107 -0.11109456
0003e0 51 27 0f 3f c1 0f 42 bf 19 1c 3a 3f 8a 55 2b bf
       0.5591937 -0.7580529 0.72699124 -0.669274
0003f0 e3 7c 01 3e db 0d d7 be e1 48 23 bf 56 0f c0 be
       0.12645297 -0.42002758 -0.6378308 -0.375117

decoders.0.decoder_net.3.weight f4 [32]
000000 c3 35 7e 3f fd 34 80 3f 72 1e 82 3f 16 ef 84 3f
       0.99300784 1.0016171 1.0165541 1.0385463
000010 3a 51 78 3f 33 66 75 3f 58 9a 82 3f d1 a5 81 3f
       0.9699894 0.9585907 1.0203352 1.0128728
000020 5e 61 80 3f 15 b7 74 3f 81 5e 84 3f ca 90 81 3f
       1.0029714 0.9559186 1.034134 1.0122311
000030 3c fe 7e 3f 0b 21 82 3f 7c 49 7b 3f f4 20 82 3f
       0.9960668 1.0166334 0.98159003 1.0166306
000040 20 f3 80 3f 94 4c 85 3f 56 31 80 3f 5a 10 7d 3f
       1.0074196 1.0413995 1.0015056 0.98853076
000050 3a ae 7c 3f 23 94 81 3f db e8 7f 3f 0e 35 84 3f
       0.9870335 1.0123333 0.99964684 1.0328691
000060 f1 8a 7f 3f 20 f4 7e 3f 72 71 80 3f 4b 1d 86 3f
       0.9982138 0.99591255 1.0034621 1.047769
000070 9c 87 7f 3f 49 62 80 3f da 99 80 3f c4 9c 79 3f
       0.998163 1.0029994 1.0046952 0.9750483

decoders.0.decoder_net.3.bias f4 [32]
000000 58 34 0d bd fb 2e 40 bb c7 80 58 bd 9c a4 cd 3c
       -0.034473747 -0.0029324878 -0.052857187 0.025102906
000010 28 92 4c 3c 8e a0 24 3c 90 d2 24 bc 5d 55 80 3d
       0.012486018 0.010048045 -0.010059968 0.06266282
000020 13 2c 3b bb 5e 33 98 bb 9a 93 cc bc 1e d3 cd bc
       -0.0028560206 -0.0046447953 -0.024972726 -0.025125083
000030 3e ec f4 3c 3b 7f 83 3c e6 b8 8f bc 2b 2c 56 3c
       0.029897805 0.01605188 -0.017544221 0.013072054
000040 46 d4 77 3c d8 0e 82 3d 55 36 1f bb 0d e6 b0 3b
       0.0151262935 0.063504875 -0.002429386 0.005398518
000050 05 11 7c bb 99 9e 86 bc 91 53 3f 3c 56 09 89 3c
       -0.0038462293 -0.016433047 0.011677639 0.016728085
000060 dd 3c 87 3c ac 66 70 bc f1 cd 1e bd 1c 12 e9 bc
       0.016508514 -0.014672916 -0.03877062 -0.028451018
000070 ab 0e 53 3d b2 9b 95 3c 40 3c ee bc 1c 34 6f 3c
       0.05152766 0.018262718 -0.029081464 0.014599826

decoders.0.decoder_net.3.running_mean f4 [32]
000000 e6 22 0a 3d 33 c5 a8 3c 2d 3c 03 3d 2a 36 90 3c
       0.033724688 0.020601844 0.03203981 0.017603952
000010 04 d3 fd 3c 3a 2e ef 3c ef 53 14 3d a0 1d 18 3d
       0.03098441 0.029196847 0.036212858 0.037137628
000020 fc 26 0b 3d 45 46 fa 3c b7 db 06 3d f4 95 e7 3c
       0.033972725 0.030551085 0.03292438 0.028269745
000030 73 c2 d9 3c eb 40 f5 3c 3f d8 f8 3c 5d 97 ac 3c
       0.026581978 0.029938182 0.030376552 0.02106827
000040 43 bf 02 3d 87 45 10 3d 06 08 ce 3c 71 05 fe 3c
       0.031920683 0.035222556 0.02515031 0.031008454
000050 89 43 03 3d 48 e7 c4 3c 82 c4 81 3d 77 c2 1c 3d
       0.03204683 0.024036065 0.06336309 0.038271394
000060 1c 54 cc 3c 26 5e 37 3d dc 36 e1 3c d6 4a 06 3d
       0.02494245 0.04476752 0.02749198 0.032786213
000070 d1 b2 e9 3c f0 ac 0c 3d 03 f6 10 3d 29 1b a0 3c
       0.02852765 0.034344614 0.035390865 0.019544201

decoders.0.decoder_net.3.running_var f4 [32]
000000 9c 8e f1 3a 5a 65 3c 3a 58 93 26 3a af d6 aa 39
       0.0018429342 0.00071867334 0.00063543534 0.00032584878
000010 06 48 78 3a b2 e7 65 3a 58 e6 07 3b b6 53 a1 3b
       0.00094711815 0.0008770182 0.002073666 0.004923309
000020 02 ed a1 3a 59 c9 9e 3a a9 8f 0a 3b f7 eb d4 3a
       0.0012353959 0.001211445 0.0021142757 0.0016244639
000030 b9 31 a9 3a 65 24 d0 3a 24 83 0f 3a 86 6f f1 39
       0.0012908495 0.0015879987 0.00054745586 0.00046050193
000040 e6 b4 f7 3a e4 4a cd 3a 95 24 1f 3a 51 ab be 3a
       0.0018898516 0.0015662578 0.000607082 0.0014546906
000050 3a 87 57 3a 61 ee ca 39 13 39 ca 3b 84 c6 c6 3a
       0.00082217494 0.00038706049 0.0061713546 0.0015165363
000060 00 03 26 3a d1 8b 61 3b bd 33 66 3a 0f 97 dd 3a
       0.00063328445 0.0034415612 0.00087815133 0.0016905981
000070 b0 9c 74 3a 0b 98 4f 3b 16 9a b9 3a 1a ab f5 39
       0.00093312096 0.0031676318 0.0014160301 0.00046857522

decoders.0.decoder_net.4.weight f4 [32, 32, 3, 3]
000000 6c 7a b7 3c d9 28 4f bd 51 75 a9 bc fb 59 a5 bc
       0.022397242 -0.050576065 -0.020685824 -0.020184508
000010 2a f1 8a 3d bc 42 1f bd 99 1b 61 bd e2 d6 38 3d
       0.0678428 -0.038882002 -0.05495796 0.045126803
000020 d1 e9 ee 3c b6 1e 4f bd b1 b7 11 3d 7b 19 ea bb
       0.029164227 -0.050566398 0.035575572 -0.007144151
000030 c5 1a 5a 3c 9c e0 3a 3d 9b 09 09 3c 53 fe 1d 3c
       0.013312046 0.04562436 0.0083641065 0.009643155
000040 9f 3c 2d bd a1 64 ce bc 52 c3 17 3c db 24 4d 3d
       -0.04229414 -0.025194468 0.009262877 0.050083976
000050 91 ee 90 bd 9a 9f 50 3b cf ea 34 bd d3 52 96 bc
       -0.07076753 0.0031833411 -0.044169243 -0.01835004
000060 c1 d8 58 3d b5 71 cf 3c e1 22 08 3d 35 c2 60 bc
       0.052941088 0.025322774 0.033236388 -0.013718178
000070 c3 b7 7c bd 83 b5 88 3c bc 0e 32 3d f3 63 6c 3c
       -0.061698686 0.016688114 0.043471083 0.014428127
000080 5d 56 4b bd 93 7d 49 3c 57 70 4b 3c c4 37 82 bc
       -0.04964291 0.012298006 0.012416921 -0.015895732
000090 50 d3 e6 bb 2d 31 5a bd 20 5b 86 bb 74 72 a8 3b
       -0.0070442334 -0.053269554 -0.0041002184 0.005140597
0000a0 09 c0 fc bc 71 94 19 bd 6c 6d af 3b 8a 9b f2 3c
       -0.030853288 -0.03749508 0.0053536203 0.029615182
0000b0 8e 9b 4b 3c 5c 11 7f bc 34 c2 56 3d 75 51 b3 bd
       0.012427224 -0.015568104 0.0524313 -0.08755771
0000c0 a5 26 79 3a 84 73 e5 3c 72 78 40 bd a0 a4 96 3c
       0.00095043547 0.028009184 -0.046989866 0.018389046
0000d0 c5 40 36 3c c7 a8 42 3c 73 45 af 3c 4c 40 2c 3d
       0.011123841 0.01188106 0.02139542 0.042053506
0000e0 26 fd e5 bb d4 42 8c 3c 18 98 c0 bb 62 77 d5 bd
       -0.007018703 0.01712171 -0.005877506 -0.10423161
0000f0 8f 1b b6 3d f7 3e 6d 3d d3 0b 29 3d 3f 8d 6d 3c
       0.08891975 0.057921376 0.041271042 0.014499008
000100 4a ee 40 3d 90 b8 ae bc b9 91 0e bd 71 02 9b bd
       0.04710225 -0.02132824 -0.03480694 -0.07568825
000110 e3 ee cf bc 5f 9f 12 3d 0d 26 3d 3d 11 aa dd bb
       -0.025382465 0.03579652 0.046178866 -0.0067646583
000120 0c 59 27 3d 9d 0b 9a bc 51 4c f5 bc 91 2a 97 bb
       0.040856406 -0.018804366 -0.029943617 -0.0046132286
000130 6a 42 1b bc 64 18 64 3c 9d 01 18 bd 2c fc 36 3d
       -0.009476284 0.013921831 -0.037110914 0.044674084
000140 a6 23 e6 bc f2 1e 35 bd b6 20 3a bd 29 09 63 3d
       -0.02809317 -0.044218965 -0.04544135 0.055428658
000150 a6 83 0e bd 05 c4 3e bd 08 ed ba 3d f4 17 79 3d
       -0.03479352 -0.046573658 0.091272414 0.06081386
000160 e4 ec 39 3d 06 b3 91 3d 63 5f 7e 3d 83 89 50 3d
       0.045391932 0.07114224 0.062102687 0.05091239
000170 4d 57 36 bc b5 bf 0b bd 8e 10 fc bc 6c 62 20 3b
       -0.011129213 -0.034118373 -0.030769613 0.0024472727
000180 b9 74 d3 bc 61 7a 0a bc b1 20 5e bd ac 9b 80 bc
       -0.025812494 -0.008452029 -0.054230396 -0.01569923
000190 73 32 9b bc 74 4b 31 3b ed 28 91 bb 42 3b 19 3d
       -0.018944954 0.002705303 -0.0044299276 0.03741003
0001a0 5e 49 f9 3b 56 18 fb bb 1f c6 95 bc f4 5b fe 3b
       0.007607623 -0.007662813 -0.018282948 0.0077624265
0001b0 b2 3a f0 3c 97 04 84 bc 4e c4 64 bd 98 59 b7 bc
       0.029324863 -0.01611547 -0.055851273 -0.022381589
0001c0 5f 49 65 bd 3f 81 8e bc c0 d8 24 bc f0 41 90 3d
       -0.055978175 -0.017395614 -0.010061443 0.070438266
0001d0 a7 db 5a bd d3 de d6 3c f2 13 d2 bb d1 27 82 3d
       -0.053432133 0.026229298 -0.006411069 0.063552506
0001e0 13 f4 2d bd 67 e7 39 3c 79 ea ed bb af d7 56 3c
       -0.042469095 0.0113466745 -0.0072606173 0.013112946
0001f0 d6 91 81 3d 2c c9 3f bd 55 c8 d4 3c 29 be 16 3d
       0.06326644 -0.04682271 0.025974432 0.036802445
000200 fd 8c 5c 3d c2 3a dd bc b8 63 94 bc 3c 05 3c bd
       0.053845394 -0.027005557 -0.018113956 -0.04590343
000210 93 2f 0b bd 09 a9 e4 3c 2e 2c 08 bd 3f 31 11 3d
       -0.033980917 0.027912633 -0.033245258 0.035447355
000220 f3 ba af 3c 6f d8 c8 bc 22 5f f7 3c 57 b9 78 bd
       0.021451449 -0.024517266 0.03019673 -0.06072363
000230 ed 33 8e 3d ac fe 15 bd 32 58 33 bd 7c 89 2d bd
       0.06943498 -0.036619827 -0.04378528 -0.042367443
000240 81 71 d3 3c 09 47 50 3c c9 d8 65 3d 5f 11 43 3d
       0.025810959 0.012712249 0.056114946 0.04762399
000250 9d ce 34 bc 03 22 85 bd 1d 12 5c bd 35 f3 01 3d
       -0.011035589 -0.06500628 -0.05372821 0.03172608
000260 42 02 88 3c 83 c5 a2 bc c3 7c 60 3d 61 be a8 3d
       0.01660264 -0.019869572 0.054806482 0.08239437
000270 c4 3f 0f 3d b7 a5 89 bb bd e9 20 3c 77 06 8f bd
       0.03497292 -0.004200663 0.009821353 -0.06983655
000280 d1 cb 84 3d e7 59 27 3c ca 1d 20 3d a7 90 d6 bb
       0.064841874 0.0102143055 0.03909091 -0.0065480056
000290 93 03 44 bd 28 af 1a 3c 55 2d 8a bd 61 fc 1c 3d
       -0.04785497 0.009441175 -0.06746928 0.038326625
0002a0 45 02 e4 bc 0d 47 61 ba b5 6a 76 3b 00 83 65 3d
       -0.027833113 -0.0008593656 0.0037600223 0.056033134
0002b0 27 70 16 3b ae 90 93 bd a3 7f 8a bc dc 65 b1 3c
       0.0022955032 -0.0720533 -0.016906565 0.021655016
0002c0 6b 8f 7b 3c f0 34 d4 3c 1b 7f 51 bc 3a e5 17 3d
       0.015354018 0.025904149 -0.012786652 0.03708384
0002d0 3c 9a 21 bc 56 1a c7 3c f9 50 da 3c 95 1c 68 3d
       -0.0098634325 0.02430455 0.026649939 0.056667883
0002e0 fa 26 4f 3b e7 15 5c 3c fe 35 a7 bc 06 14 3d bd
       0.0031608925 0.013432956 -0.020411488 -0.046161674
0002f0 c6 22 1d 3c d9 a0 0c bc e1 b2 c3 bc 18 bf 1e 3d
       0.00959081 -0.008583271 -0.023889007 0.03875646
000300 7c c3 09 bd 03 8a 98 3c e0 23 e9 bc df 04 03 bd
       -0.033633694 0.018620497 -0.02845949 -0.031987067
000310 03 d9 90 3c fc 7f c0 bc 59 fe af bb fb 5a bb 3c
       0.017681604 -0.023498528 -0.005370897 0.022870531
000320 4f 43 7b 3d 21 a9 8c bc c8 aa be 3d ad b1 4a bd
       0.061343487 -0.01717049 0.09309918 -0.04948585
000330 54 ea 1b bc 57 24 21 3d 09 5f 0c bc f1 83 af bc
       -0.009516317 0.039341297 -0.00856758 -0.02142522
000340 df f7 9a bc 0e 22 00 bd d2 21 78 3d 47 45 a4 bd
       -0.018917022 -0.031282477 0.06057913 -0.08021026
000350 4c a0 43 bc ad 89 62 bc 04 fb ea bb b1 fc 81 3c
       -0.011940073 -0.01382677 -0.0071710367 0.015867563
000360 b6 15 53 bd 5e 1d a9 bd 7b 21 24 3d 97 b6 57 3c
       -0.051534377 -0.082575545 0.040070992 0.013166091
000370 89 23 2e 3d 2d 4d 66 bd b5 31 0e bd f6 32 3f bc
       0.042514358 -0.056225944 -0.034715373 -0.011669865
000380 cb d5 82 bc be b7 e5 bc 5b 75 f1 bc af 02 83 bc
       -0.015971085 -0.028041717 -0.029474905 -0.01599249
000390 93 f6 f5 bc f1 d4 01 bd 29 1b 95 bc 0d 6f 9c 3b
       -0.030024802 -0.031697217 -0.018201428 0.0047739805
0003a0 6e 43 3d bd d4 a0 42 3c 75 41 15 3d 4a b6 65 bc
       -0.046206884 0.011879165 0.036439378 -0.014020512
0003b0 03 62 0e bd 71 b5 71 3d 0b 84 27 bd 52 22 89 bb
       -0.03476144 0.059010927 -0.04089741 -0.0041849995
0003c0 4b 9c a5 bc bd 4f 0a bd 52 ef 4a 3d a9 16 7d 3d
       -0.020216128 -0.03376745 0.04954464 0.06178919
0003d0 15 f9 25 bd d2 7a 1e bd 85 f6 42 bc ce 86 c1 3c
       -0.040520746 -0.03869135 -0.011899595 0.02362385
0003e0 32 75 74 3c a9 5d b7 bc b0 9e de bb 98 a6 95 bc
       0.01492052 -0.022383528 -0.0067938194 -0.018267915
0003f0 4b 96 4d bc 4c 51 db bc b9 1a 44 3d 22 fc 18 bd
       -0.01254804 -0.026772164 0.047877047 -0.037349828

decoders.0.decoder_net.4.bias f4 [32]
000000 f9 8e b3 3d d7 4d c2 3d f8 cd 6e bd f1 e9 6f 3c
       0.08767504 0.09487503 -0.058301896 0.014643178
000010 ea 24 d0 bc 03 b7 1a 3d e4 cf b2 3c b4 67 73 3d
       -0.025408227 0.03777219 0.021827646 0.05942507
000020 60 93 1a 3d 8d 4e 30 bc e8 e7 ff 3c cc a1 1e bd
       0.037738204 -0.010760915 0.031238511 -0.03872852
000030 3a f4 00 3d 2b 13 f6 bc ab 89 94 3d a6 3e 3d 3d
       0.031482913 -0.030038437 0.072528206 0.046202324
000040 ea fd 14 bd 37 5f 09 bd 28 55 8f bd e4 61 de 3a
       -0.036374964 -0.03353807 -0.06998664 0.001696643
000050 ab f3 85 bd 6c 0a 9c bb 6d 48 07 bd 7b 9e bb b9
       -0.065406166 -0.0047619846 -0.033028055 -0.00035785497
000060 74 7a bd bd 54 76 a4 3d 60 a7 27 3c 4d 77 b1 3d
       -0.09251872 0.08030382 0.010232776 0.08665333
000070 7d 17 6a bd 94 67 74 3d 28 79 8c 3d b3 18 34 3c
       -0.057151306 0.059669092 0.06859046 0.010992217

decoders.0.decoder_net.6.weight f4 [32]
000000 2f 4d 76 3f 3e af 69 3f c2 c9 74 3f 4d a9 75 3f
       0.9621152 0.91283023 0.9562036 0.9596146
000010 a3 f3 77 3f d6 06 78 3f a1 c1 68 3f 27 68 6f 3f
       0.96856135 0.9688543 0.90920454 0.935183
000020 85 00 77 3f 01 a1 71 3f f6 05 7f 3f b9 66 74 3f
       0.9648517 0.943863 0.9961847 0.9546924
000030 52 d8 7f 3f 18 b3 7a 3f 53 5e 7d 3f bc 0c 72 3f
       0.99939454 0.97929525 0.9897205 0.9455068
000040 4a cb 6c 3f 07 86 7a 3f b3 1c 75 3f e5 62 76 3f
       0.92497694 0.9786076 0.95746917 0.9624465
000050 97 5e 73 3f e2 71 74 3f 31 62 7c 3f c7 41 6e 3f
       0.9506621 0.9548627 0.9858733 0.9306912
000060 09 ad 74 3f a7 8f 70 3f a3 ad 75 3f 65 00 7d 3f
       0.9557653 0.93969196 0.95968074 0.98828727
000070 07 16 6e 3f 47 7e 6a 3f d5 77 76 3f c4 0a 6f 3f
       0.9300236 0.91598934 0.962766 0.933758

decoders.0.decoder_net.6.bias f4 [32]
000000 4f 61 1c 3d 02 58 48 bb b1 94 82 bd 6f bf f9 3c
       0.03817874 -0.0030570035 -0.06376017 0.03048679
000010 7f b3 2a 3d 21 06 4e bd 41 2d ab bc 96 53 e6 ba
       0.041675087 -0.050298814 -0.020895602 -0.0017572518
000020 7c 0d 32 3c b1 ee a9 3d 81 09 26 3d c4 1d 80 3b
       0.010867473 0.0829748 0.040536407 0.0039097983
000030 f8 17 0e 3c 28 b8 92 3c 81 b1 0e 3c f5 ff 04 bc
       0.008672707 0.017910078 0.008709312 -0.008117666
000040 00 cb 6c 3d cc b0 d6 3c 9f e5 dc 3c 54 80 b3 3b
       0.057810783 0.02620735 0.02696496 0.0054779444
000050 47 72 7d bd 5a 79 1c b9 68 30 eb 3a 65 cd 62 3d
       -0.06187656 -0.00014922526 0.0017943503 0.05537166
000060 a8 af 5c 3d bb bd 58 3d 04 0a 5c bd 14 00 1d 3c
       0.053878456 0.052915316 -0.05372049 0.009582538
000070 28 30 48 bd 28 29 d4 bb b8 da 83 39 73 01 e3 bc
       -0.04887405 -0.006474633 0.00025149225 -0.027710652

decoders.0.decoder_net.6.running_mean f4 [32]
000000 c1 3f 09 3d 4e 62 0c 3d 28 3a e5 3c 67 9f 01 3d
       0.033508066 0.03427344 0.027981833 0.03164616
000010 3e e5 fb 3c ad 09 0a 3d 93 94 f7 3c 7a b0 00 3d
       0.03074896 0.033700634 0.030222213 0.0314183
000020 83 40 0c 3d 29 d2 f0 3c 60 57 02 3d c4 56 ed 3c
       0.03424121 0.029397087 0.03182161 0.028972037
000030 df 03 fd 3c 07 bf ec 3c 77 84 09 3d d3 31 08 3d
       0.030885635 0.028899683 0.033573594 0.03325064
000040 ac ff f4 3c 9d 27 f9 3c 16 3a f2 3c 42 ac f3 3c
       0.02990707 0.030414397 0.029568713 0.029745225
000050 3b 0f f5 3c b8 34 02 3d 6c 33 fe 3c 46 45 f7 3c
       0.029914489 0.031788558 0.03103038 0.0301844
000060 07 d1 e8 3c 48 26 0c 3d f4 91 fb 3c 43 a1 08 3d
       0.028419985 0.034216195 0.030709244 0.033356916
000070 7c 2d ef 3c 26 39 01 3d 0c ad 0a 3d aa 70 01 3d
       0.029196493 0.03154864 0.033856437 0.031601585

decoders.0.decoder_net.6.running_var f4 [32]
000000 44 9b a2 39 b4 8f 84 39 fa 98 c2 38 5c 9b 86 39
       0.0003101473 0.0002528407 9.279135e-05 0.00025674223
000010 ef 75 36 39 c3 57 81 39 d4 0a 0a 39 c8 99 0d 39
       0.00017400806 0.00024670185 0.0001316474 0.00013504096
000020 9c f9 89 39 f6 a2 27 39 4a 35 2c 39 93 3f 01 39
       0.0002631665 0.00015987069 0.0001642305 0.00012326082
000030 c4 5a d3 38 41 58 b5 38 0a ad 45 39 94 fc 42 39
       0.000100781705 8.647191e-05 0.00018851846 0.00018595374
000040 3f 68 fc 38 ee bd 54 39 d1 0e 4f 39 e2 7b 09 39
       0.00012035714 0.0002028865 0.00019746578 0.00013111488
000050 ca 20 31 39 cd f2 24 39 55 56 61 39 34 35 10 39
       0.0001689225 0.00015730709 0.00021489833 0.0001375273
000060 c6 1a 03 39 2f 46 ad 39 a1 94 11 39 3b 7e 64 39
       0.00012503107 0.00033049422 0.00013883646 0.00021790799
000070 24 ae fb 38 83 91 10 39 6b e9 85 39 6d 44 30 39
       0.00012001049 0.00013787117 0.00025541647 0.00016810159

decoders.0.decoder_net.7.weight f4 [32, 16, 3, 3]
000000 4b 75 4f bd 20 98 47 3d e1 fa cb bd e9 70 45 3d
       -0.05064897 0.048729062 -0.09959961 0.048203383
000010 a2 e1 1d be 1b e0 f6 3c 35 38 7f 3d d4 e0 6a bd
       -0.15418103 0.030136159 0.062309463 -0.05734332
000020 7b a3 80 bd 16 15 44 3d 9e fe c1 39 a3 fd 50 3c
       -0.062811814 0.04787167 0.00037001533 0.012755784
000030 43 a0 86 bd 38 81 cf 3d 2a 27 ba 3c d5 55 6b bd
       -0.06573536 0.101320684 0.022723753 -0.057454903
000040 78 53 2b bd 3c 10 63 3d 3b 85 81 3d 21 3d 87 3d
       -0.04182765 0.055435404 0.0632424 0.06603456
000050 63 de fc bc 7d d1 cc 3c db 69 8d bd 9e 9a f5 3c
       -0.030867761 0.025002236 -0.06904956 0.029980954
000060 2b d8 3a bb 94 59 68 bd d3 b0 9a bb c8 2e db bc
       -0.0028510194 -0.056726053 -0.004720786 -0.026755705
000070 41 5c f0 bd 3f 55 7a 3c 80 c5 40 bc 71 1f bb bb
       -0.11736346 0.015279113 -0.011765838 -0.005710535
000080 07 b5 11 3d 63 ab e7 3b 91 d7 84 bd 7e 78 dc 3c
       0.03557303 0.0070699914 -0.064864285 0.026912924
000090 15 be 28 3d f0 c7 82 bd 98 53 4f 3d 92 ac 74 3d
       0.0411969 -0.06385791 0.05061683 0.05973489
0000a0 df 9b 51 bb 7f b2 4d bd 24 68 09 bc 17 44 64 bc
       -0.0031983776 -0.050219055 -0.0083866455 -0.0139322495
0000b0 be 5e 52 bd 47 ce 9d bc e1 e8 4d 3c ec 33 16 3d
       -0.051359884 -0.0192634 0.01256773 0.03667061
0000c0 3f d5 68 3d 0b 01 1c 3d 74 a0 6c 3c 3e b9 d9 3a
       0.056843992 0.038086932 0.014442552 0.0016610993
0000d0 a3 17 66 3b 30 c4 34 3c c3 14 af bc 65 89 9a bb
       0.0035109303 0.011033103 -0.021372205 -0.0047160857
0000e0 78 10 25 3d 91 99 b8 3b 53 f9 45 bd 4b b5 26 bc
       0.04029891 0.005633541 -0.048333477 -0.01017506
0000f0 a8 53 62 bd 83 62 58 bd c0 d3 fa bc 7c b5 11 3d
       -0.055255562 -0.052828323 -0.030618548 0.035573468
000100 e4 37 be 3d aa 18 77 bd ea 56 ae bc e8 76 57 bc
       0.09288004 -0.060326256 -0.021281678 -0.013150908
000110 9c 6a 4f 3c 16 97 da 3c bc c3 8d 3d d1 fc 96 3d
       0.012659695 0.026683372 0.06922099 0.0737244
000120 5a b1 c5 3c 91 3e d7 bd 32 43 f9 3c 0c 3b d9 3d
       0.02413242 -0.105099805 0.030427549 0.106069654
000130 20 55 0c bc c8 c9 a6 3b 3d cf 45 bd 4d 0a 09 3c
       -0.008565217 0.005089972 -0.04829334 0.008364272
000140 60 27 40 bd a9 c4 53 bd dd 81 15 3d ab 41 88 3d
       -0.04691255 -0.05170122 0.0365008 0.0665315
000150 7a eb 10 bc ec 80 c4 3d 87 8d be bd b9 3d 0e 3d
       -0.0088452045 0.095949024 -0.09304338 0.034726832
000160 ea 10 42 bd eb 05 9d 3c 63 eb 2d 3c 34 3b 54 3b
       -0.04737941 0.019167861 0.010615203 0.003238392
000170 2e 27 c1 3c d4 47 42 3c 76 2c d7 bc 7c 4d ed bc
       0.023578253 0.0118579455 -0.026266318 -0.028967611
000180 e5 83 84 3d d5 3f 6d bc a2 d1 e6 bc 38 f2 67 bd
       0.064704694 -0.014480551 -0.028176133 -0.056627482
000190 50 b2 ad 3d f1 3f 8d 3d 3e b8 bb bd b6 77 46 bd
       0.08481276 0.068969615 -0.09166001 -0.04845401
0001a0 14 4b b0 bd cd e3 53 3d f1 44 f2 3c 23 12 31 bd
       -0.0860807 0.05173092 0.02957389 -0.043230187
0001b0 7a 00 98 ba 14 69 82 bd 63 99 25 bd d6 eb a0 3d
       -0.0011596822 -0.06367698 -0.040429484 0.07857482
0001c0 4d 79 b0 3d a9 19 0c 3d 9f 65 2c 3d 65 ed 6e 3d
       0.08616886 0.03420416 0.0420891 0.058331866
0001d0 20 12 4b 3d 37 17 ed 3b 6f 5c ae bc 58 c1 d5 bb
       0.049577832 0.0072354334 -0.02128431 -0.0065232925
0001e0 0d 15 15 bd f7 11 13 bd 28 4b a7 3d 0e d6 d1 3d
       -0.03639703 -0.035905804 0.08168632 0.10245906
0001f0 b7 64 77 3d ad 58 9d bd cb 91 8a 3d e9 b2 6b 3d
       0.060398784 -0.07682929 0.06766089 0.05754367
000200 6f 5f 71 bd 3f ff 6a bd 7d 7e 9c 3d 6a 95 4b 3d
       -0.058928903 -0.057372328 0.07641313 0.04970304
000210 68 c5 16 bd 39 a7 8a bc c9 d0 57 bd 44 ca 4a 3d
       -0.036809355 -0.016925441 -0.052689347 0.0495093
000220 77 5c 4b bd fd f7 12 3d a5 34 bc bd 5e 2a e0 bd
       -0.04964873 0.03588103 -0.09189729 -0.10945581
000230 6d e8 08 bd 4a 31 37 3d ba 15 a3 bc 83 34 3b bd
       -0.033424783 0.04472474 -0.019907821 -0.045704376
000240 78 b4 4d 3d 24 a8 62 bc 76 ed 5e 3d 47 8e 2c 3c
       0.050220937 -0.013834033 0.05442568 0.010531968
000250 f0 ac a2 3d 50 e1 0e bd 07 1d 7d 3d 01 47 3e 3d
       0.079431415 -0.034882843 0.06179526 0.046454433
000260 78 57 34 3c 6f d2 de bb 36 d4 00 bd 59 f4 8e 3d
       0.011007182 -0.006799988 -0.03145238 0.06980199
000270 0c f4 a2 bc 34 a0 bf 3d 1e 46 db 3c 23 52 96 bd
       -0.019891761 0.09356728 0.026766833 -0.07339885
000280 e6 07 06 bd aa bd 2a bd c4 22 75 bc 28 db 92 3d
       -0.032722376 -0.041684784 -0.014961902 0.07170707
000290 ab 7b d5 3c e9 40 fb bc 7c f2 6e bd 77 72 40 3c
       0.026059946 -0.0306706 -0.05833672 0.011746041
0002a0 59 14 1b 3d 7c 33 92 bd 79 78 90 3c e2 9b 16 bd
       0.037861202 -0.07138726 0.01763557 -0.036769755
0002b0 73 b8 68 3c 39 dc 3f 3d c5 93 84 3c 80 8b a1 bb
       0.014204132 0.04684088 0.016183743 -0.00492996
0002c0 ca 2f 5b 3d f3 9e cf 3c 43 70 76 bd 3c 1c 35 bd
       0.053512372 0.025344348 -0.060165655 -0.04421638
0002d0 c5 8d 11 3c c8 6b 87 3d d0 cf 4e 3c 9a b0 b0 3c
       0.008883898 0.066123545 0.012622789 0.021568585
0002e0 53 aa 22 3d ee 93 fb bc 07 96 62 bd 5d 98 2d 3d
       0.039713215 -0.030710187 -0.05531886 0.042381633
0002f0 0f 84 58 bc 2a f6 8d bc eb 5f 28 3d 82 26 6f 3c
       -0.013215079 -0.017329294 0.0411071 0.014596583
000300 0e 3c 32 3c 7c 0c 03 bd 39 41 5a 3d 5e 10 21 3d
       0.010878576 -0.031994328 0.053284857 0.03932225
000310 40 63 a2 3d 24 c5 3f 3d 35 67 e8 3c 27 fa da 3d
       0.07929087 0.046818867 0.028369525 0.10692244
000320 0c 30 3a 3d 24 c6 5f bd 62 c2 e7 3c 83 25 1e 3d
       0.045455977 -0.05463232 0.028290931 0.038609993
000330 73 ff 9e 3d 69 5d 04 bd 24 66 aa bd df 06 a1 3d
       0.07763567 -0.032315645 -0.08320263 0.07862639
000340 37 00 74 bd e4 4f 31 3d 6c 8d 9b bd df a9 ca bd
       -0.059570517 0.04328908 -0.075953335 -0.098956816
000350 ee 60 8a bb 55 64 20 3c cf 4b 33 bd fc 21 12 3d
       -0.0042229807 0.009789546 -0.04377347 0.03567694
000360 0b 29 a3 3d 1b 84 bd 3d 2e 97 cc 3a 41 81 20 bb
       0.07966813 0.09253713 0.001560902 -0.0024491104
000370 fc a2 79 3d 8b 23 06 3d 1f 2e b4 3d 2e 9f a3 bd
       0.06094645 0.03274874 0.087978594 -0.079893455
000380 b7 b6 99 3d fb dd 91 bd 1a 6c 12 bd e8 ec 77 3b
       0.07505553 -0.071224175 -0.035747625 0.0037830416
000390 fb 70 6f 3b c6 c0 c1 bc 6e 26 9b 3d 32 01 77 bc
       0.0036535847 -0.023651492 0.07575689 -0.015075969
0003a0 d6 83 f0 3d 95 61 03 3d 08 4b d7 bc 59 84 78 bc
       0.11743896 0.032075483 -0.026280895 -0.015168273
0003b0 4f 7a d2 3c a9 e7 e3 3d 6c eb 8d bb e2 f0 29 bd
       0.025693087 0.1112817 -0.004331043 -0.04148949
0003c0 1f b2 34 3d 07 da 02 3d b2 dd 60 3c e7 5e a4 3c
       0.044115182 0.03194621 0.013724731 0.020064784
0003d0 ab 02 70 bc 4d db 4e 3d 8b e9 2a 3d a7 5c 10 3d
       -0.014649074 0.05050211 0.04172663 0.03524461
0003e0 75 fa 41 bd 96 57 2c 3d 44 45 a2 bc da 0e 5b 3d
       -0.047357995 0.042075716 -0.019808419 0.05348096
0003f0 20 21 53 3d 06 eb b1 bd 2b 91 84 bd ee e6 57 bb
       0.051545262 -0.08687405 -0.06473001 -0.0032944041

decoders.0.decoder_net.7.bias f4 [16]
000000 6f 53 03 bd 77 a4 fd 3c 60 32 cc bc b0 fb 57 bd
       -0.03206199 0.030962212 -0.024926364 -0.052730262
000010 12 14 0e 3b b5 27 d2 3d cc 21 bb 3d 27 06 29 bc
       0.0021679443 0.1026148 0.091373056 -0.010316408
000020 4d cb a0 bd 44 3e e0 3c ef 72 ed 3d a7 a5 1f 3e
       -0.078512765 0.02737344 0.115941875 0.15590535
000030 d9 45 3e 3d 62 93 97 bc 44 c8 c9 bc 10 e0 0e be
       0.04645333 -0.018502895 -0.024631627 -0.1395266

decoders.0.decoder_net.9.weight f4 [16]
000000 9d 95 75 3f 33 90 74 3f a3 26 76 3f 91 9d 75 3f
       0.95931417 0.9553253 0.96152705 0.9594355
000010 e9 75 74 3f 48 8f 74 3f 41 f7 71 3f 6e ca 72 3f
       0.95492417 0.9553113 0.94517905 0.94840133
000020 ce df 72 3f cb f4 77 3f 1f 0b 75 3f 86 63 75 3f
       0.9487275 0.968579 0.95720094 0.95854986
000030 81 02 76 3f ba 85 74 3f 31 2b 75 3f 96 e9 74 3f
       0.9609757 0.9551655 0.9576903 0.95668924

decoders.0.decoder_net.9.bias f4 [16]
000000 e0 35 fb 3c 28 fe 6f bd 7e cf 04 3c df bf ca 3b
       0.030665338 -0.05859199 0.008106111 0.0061874236
000010 74 0c 0c 3c 7e 08 1f bb 3f 6b dc ba 39 d4 16 bd
       0.008547891 -0.0024266536 -0.001681663 -0.036823485
000020 27 d2 7d 3b 41 5f 63 bc 42 46 5c bd 22 93 b5 bc
       0.0038729997 -0.013877691 -0.05377794 -0.022164885
000030 5f 70 19 bd 4c 3c 85 bc 8c c4 a0 3c 9b 52 30 3b
       -0.03746068 -0.016264103 0.01962497 0.0026904705

decoders.0.decoder_net.9.running_mean f4 [16]
000000 93 71 70 3d ad df 80 3d 41 5a 72 3d aa 19 6c 3d
       0.058702063 0.06292663 0.059168104 0.057641663
000010 bb 3f 80 3d db 89 8c 3d 0e d3 90 3d 2c 90 7d 3d
       0.062621556 0.06862231 0.070715055 0.06190507
000020 52 9d 63 3d 05 66 88 3d fd fe 8b 3d 19 67 8e 3d
       0.055569954 0.06660084 0.068357445 0.06953258
000030 03 a2 83 3d bb 2c 7c 3d ca 8e 6f 3d 74 5c 5a 3d
       0.06427386 0.061566096 0.058485784 0.053310826

decoders.0.decoder_net.9.running_var f4 [16]
000000 b5 be 2a 3a 86 fe 31 3a 3b 9c 21 3a 41 8e 25 3a
       0.0006513403 0.0006789941 0.0006164943 0.0006315448
000010 2a 69 70 3a 85 92 74 3a 4e 7d 8d 3a 15 db 5e 3a
       0.0009170944 0.00093296944 0.001079479 0.00085012737
000020 88 85 1b 3a 48 8a 96 3a 3e bd 13 3a ec b4 2c 3a
       0.00059326785 0.0011485303 0.0005635804 0.0006588239
000030 af 50 63 3a 82 41 4d 3a bb fa 17 3a 92 6c 00 3a
       0.00086713856 0.0007829891 0.00057975546 0.0004898991

decoders.0.decoder_net.10.weight f4 [16, 1, 3, 3]
000000 ef 80 7e be 95 1d 87 bd b8 fe 0a 3e e4 fc 11 be
       -0.24853872 -0.06597439 0.1357373 -0.14256626
000010 28 d3 88 3e 0c 11 2f 3d 14 fc 71 bd df ab 8c 3e
       0.267236 0.042740867 -0.05907829 0.27474877
000020 46 53 00 be b8 8c 8a be f1 46 09 3e 94 89 a2 3d
       -0.12531766 -0.27060485 0.13405968 0.07936397
000030 57 ee 34 be 87 31 06 3d 37 f9 5a 3b 92 4a c3 bd
       -0.17669044 0.032762077 0.0033412704 -0.095357075
000040 e7 4b 7d 3e 4b 04 8f 3e e7 74 4e 3e 14 31 fa bd
       0.24735986 0.27932963 0.20161782 -0.12216392
000050 0a cc 85 be b5 0c 75 3e fd 01 4e be 65 8c ca bd
       -0.26132232 0.23930629 -0.20117946 -0.098900594
000060 2b 21 29 be 3c bd 7c be 01 ec 90 be ae 87 71 be
       -0.16516559 -0.24681562 -0.28305057 -0.23586914
000070 52 93 0f be 39 2b 24 be cc ce 57 3e e7 ca f3 ba
       -0.14021042 -0.16032113 0.2107498 -0.0018599898
000080 bc 11 7d bc 2b c4 b1 bd f0 9a 1f be 28 ef 80 be
       -0.015446123 -0.08679994 -0.15586448 -0.25182462
000090 5d 9b 47 be 1c 52 9d bd 55 b8 8a be 9f f3 52 be
       -0.1949286 -0.07681677 -0.2709376 -0.20600747
0000a0 91 a7 25 3e 7b a7 0e 3d 4b b0 0f 3e c6 ad 8a 3e
       0.16177203 0.03482769 0.14032094 0.27085704
0000b0 7e 4f 78 be e5 be 1f 3e 60 23 41 be 66 c7 23 3d
       -0.24249074 0.15600164 -0.1886115 0.039985083
0000c0 11 f3 ca bd cc 1a 3a bd b1 5c 92 ba 9a f8 3b 3e
       -0.099096425 -0.04543571 -0.001116654 0.18356553
0000d0 12 bc 41 be 1e 6d fc 39 e3 3f f0 bd 1f 1d 4f be
       -0.189194 0.00048146484 -0.117309354 -0.20225953
0000e0 06 36 69 3e 09 f6 98 3c 43 ed 90 3e ca 28 97 3e
       0.22774515 0.018672006 0.28306016 0.29523307
0000f0 a4 ad bc 3c e6 35 2b 3e 47 cc 05 3e fa a1 36 bd
       0.023032017 0.1671978 0.13066207 -0.044588067
000100 6b 3f 1a bd e9 cb 6f be 30 9c 42 be c6 25 50 3e
       -0.037658136 -0.2341763 -0.19004893 0.2032691
000110 a6 39 4c 3d ab 18 36 bd 47 67 b5 bd 15 b8 7c 3e
       0.049859665 -0.04445712 -0.08857589 0.24679597
000120 0f 43 fd 3c 4d 20 cd 3d d1 db aa 3b 5d 54 76 be
       0.030915765 0.100159265 0.0052141924 -0.2405562
000130 e2 c8 ef 3d c0 d2 61 be a1 20 0a 3b 93 5b 29 3e
       0.11708237 -0.22053051 0.0021076577 0.16538839
000140 ca 37 82 3e 14 3d b2 bc 0a a9 47 bd 52 75 36 3d
       0.2543319 -0.02175764 -0.048745193 0.04454548
000150 f3 65 2c 3d 36 33 04 3e 4f 5f 36 3e d7 c5 38 be
       0.042089414 0.1291016 0.17809795 -0.1804422
000160 da fb 4d 3d a0 bd 71 3d 62 49 5a be 8f c2 ad bd
       0.050289012 0.05901873 -0.21317056 -0.08484375
000170 15 fe 64 3e 3c c1 79 be 2e 1d f4 bd ac 22 0a 3d
       0.2236255 -0.2439012 -0.11919628 0.033724472
000180 99 35 ae bd 3a 92 1c bd 3f 1a ac 3d f4 5b 51 be
       -0.08506317 -0.03822539 0.084034435 -0.20445234
000190 a0 8e 87 be a3 37 0a be 02 75 f1 bd a6 0c 1b be
       -0.26476002 -0.13497786 -0.117898956 -0.15141544
0001a0 59 81 c4 bb 41 99 1a 3e 91 67 7a be 02 24 59 bd
       -0.0059968648 0.15097524 -0.2445357 -0.053012855
0001b0 a8 22 87 be 64 4f 7d be ae 33 13 be 65 8c 48 3c
       -0.26393628 -0.24737316 -0.14375183 0.012240504
0001c0 cb b0 0d be 24 88 12 bd 3f 02 bf bd ce 35 16 bd
       -0.13836972 -0.035774365 -0.093266 -0.036672406
0001d0 9d 1f 3d 3e 8e 16 d0 3d fb 60 cb bc 9d 85 02 be
       0.18469091 0.10160552 -0.024826517 -0.12746282
0001e0 b5 11 94 3c 4b 53 27 bd 7b 21 51 3e be 52 72 3e
       0.01807485 -0.04085092 0.20422928 0.23664376
0001f0 87 85 1d 3e 49 46 1a 3e 54 7f 08 3e 0e 00 7f bc
       0.15382968 0.15065874 0.13329822 -0.015563978
000200 e4 11 2a 3c 59 c3 42 3e 61 11 b7 bd 2e af 12 be
       0.010380242 0.19019832 -0.08938862 -0.14324638
000210 61 22 02 3e 39 a7 5f be 44 22 e6 3d 11 29 9e bc
       0.12708427 -0.21841134 0.112370044 -0.019306691
000220 22 66 17 3e bc c5 7f 3e c5 67 a0 bd 77 31 03 3e
       0.14785054 0.24977773 -0.078322925 0.12811838
000230 73 0f 4b 3e c4 8b 08 3d 3a 27 5e 3e fe 13 3f 3d
       0.19830112 0.033336416 0.21694651 0.046649925

decoders.1.decoder_net.0.weight f4 [512, 2]
000000 05 14 92 be 8a 27 00 bf c8 45 14 bf b8 5f 11 bc
       -0.285309 -0.5006033 -0.5791898 -0.008872919
000010 29 28 a2 3c 9c 15 bb be 12 78 2a bf 88 3a 86 3e
       0.01979454 -0.36539924 -0.6658946 0.2621653
000020 de 96 93 be fc ee 81 3e b4 3d 04 3f 23 80 cc 3d
       -0.2882604 0.25377643 0.5165665 0.09985378
000030 53 2c d0 bd 62 16 58 bd 73 77 0c bf 53 a6 ab be
       -0.10164704 -0.05275572 -0.54869765 -0.33525333
000040 95 30 39 3e a4 e8 21 3e 58 a0 2e bf 2d 27 3c bf
       0.18084939 0.15811402 -0.68213415 -0.7349728
000050 82 52 ea 3e 22 76 cf be 42 e4 25 bf 88 a0 19 3f
       0.45766073 -0.40519816 -0.6480142 0.60010576
000060 ef 77 91 be 66 d8 44 be d9 97 d1 3e f2 3f bd be
       -0.28411815 -0.19223174 0.40936163 -0.3696285
000070 63 2e 7c be 41 23 08 bf 21 31 01 3f f2 d9 71 be
       -0.2462707 -0.53178793 0.5046559 -0.23618296
000080 44 82 29 bf 92 0d cc 3e 36 b1 55 3b 90 06 2a bf
       -0.66214395 0.39854103 0.0032606847 -0.66416264
000090 fa 3c da 39 86 24 8c be c1 ac e7 be b3 f9 1e 3e
       0.0004162563 -0.27371615 -0.45248988 0.1552494
0000a0 d7 a9 a5 3e ec b9 ce bc 0c 6d 8a bd 19 0c a5 3e
       0.3235614 -0.025235139 -0.0675908 0.32235792
0000b0 2d a5 a6 3e f3 d1 19 3e 6a ab 80 be ae 14 99 bd
       0.32547894 0.15021496 -0.2513078 -0.074746475
0000c0 76 03 a7 3d 00 cf 08 bf 0e 68 bf 3e 67 4a 33 3f
       0.08154957 -0.53440857 0.37384075 0.70035404
0000d0 1e ba 24 be f8 69 9e 3e 70 a6 0d bf 8d 7e 65 bf
       -0.16086623 0.30940223 -0.5533209 -0.89646226
0000e0 87 90 9c bb 76 ee 1a 3f 86 02 28 3f e4 79 04 bf
       -0.004777971 0.6052011 0.6562885 -0.5174849
0000f0 92 89 50 be ae b8 4a 3c 5a ea 86 be e0 23 f5 3d
       -0.20364979 0.012373133 -0.2635067 0.11969733
000100 ed 0e e0 3e 57 7b 97 3e da 8c f7 3e 13 2b 9c 3e
       0.43761387 0.29586288 0.4834965 0.30501613
000110 1d c7 72 3e 2b 1f 30 be 97 26 29 3d c8 d7 19 bf
       0.23708768 -0.1719939 0.041296568 -0.6009488
000120 03 14 a2 be b5 72 0e 3f 65 44 f7 3e 7d 36 e5 3e
       -0.31655893 0.5564378 0.48294368 0.44768134
000130 1c 34 0b bf f6 c5 0c 3f e7 92 b3 be 03 6a f5 be
       -0.5437639 0.54989564 -0.35073015 -0.47932443
000140 bc 82 e1 3c 4c 81 0b 3f 34 37 84 be 14 c4 e8 be
       0.02752816 0.54494166 -0.25823367 -0.45462096
000150 d8 a8 15 3f dd e1 91 3e 5d b4 ee 3d 5e c8 e7 be
       0.5846076 0.28492633 0.11655495 -0.45270056
000160 e9 e0 92 3e ca 04 29 bf 8d 80 01 3f 08 90 15 3f
       0.28687218 -0.6602293 0.5058678 0.584229
000170 a5 52 e8 be 7e 10 52 3e 02 fb ad bd 0e 87 2d 3e
       -0.45375553 0.20514104 -0.084951416 0.1694605
000180 54 4d ba 3e f8 16 97 3c 62 47 f3 3e 48 62 31 bf
       0.36387122 0.01844357 0.47515398 -0.6929059
000190 05 c6 1c 3f 80 40 eb be 8e 32 30 3f 2c 14 01 3e
       0.61239654 -0.45947647 0.6882714 0.12605351
0001a0 67 00 2a 3f f4 8d 51 3e 71 dc 93 3e ff 6d 7f be
       0.66406864 0.20464307 0.2887912 -0.24944304
0001b0 ba 1d 20 3f 2a 4b 88 3e 52 40 04 3f da d3 24 be
       0.6254536 0.26619846 0.51660645 -0.1609644
0001c0 40 a6 ce 3e 65 5e 29 3f a4 46 cf 3e 0c dd 49 be
       0.40361214 0.6615966 0.40483582 -0.19713229
0001d0 2c 03 0a 3f 84 f5 9b 3e 94 fc 80 3c a3 d2 90 be
       0.5391109 0.3046075 0.015745439 -0.28285703
0001e0 ae 0a 20 3f 89 0b 07 3e 4a cb b1 bc 9e 39 3a 3f
       0.62516296 0.13187994 -0.021703381 0.72744167
0001f0 d3 df 26 bf 2b 29 69 be 13 e6 af be f7 ee 19 bf
       -0.6518528 -0.2276961 -0.3435522 -0.60130256
000200 5d ca 0d bf 7f 17 6b be 70 5f 8a 3e 76 a1 40 3f
       -0.55386907 -0.22958182 0.27025938 0.7524637
000210 80 fd 28 bf 3b ca 01 bf e1 5c 9c be 82 70 25 bf
       -0.6601181 -0.50699204 -0.3053961 -0.646248
000220 85 e8 7a be 2c 7e 4e be 58 9a 6b be db 64 07 3e
       -0.24502762 -0.20165318 -0.23008096 0.13222067
000230 cd 6a fa 3e 6b 55 9e 3d ae 3e c2 3e 25 a7 ab be
       0.48909608 0.07731136 0.37938446 -0.3352596
000240 e5 df 29 3f be 83 a8 3e b2 b0 1d bf 27 c7 8a 3e
       0.6635726 0.3291301 -0.6159774 0.27105066
000250 a1 b4 48 bf f7 d3 e7 bd 4d 36 d3 be 4d 64 26 3e
       -0.7840062 -0.11319726 -0.41252366 0.16249199
000260 f4 f2 16 3f d3 3a b5 3e 00 7c 0b 3f 53 71 00 3f
       0.5896447 0.35396442 0.54486084 0.5017292
000270 ea 23 e1 3d 2b 58 0d bf 3f 45 25 3f 17 41 af be
       0.10993178 -0.5521266 0.64558786 -0.34229347
000280 bc 5d 48 3e c9 f5 98 be af ed 2e be 41 2a 89 3e
       0.19567007 -0.2987502 -0.17082857 0.2679005
000290 17 b1 a6 be 33 c6 0e 3f e5 59 29 3f a4 b4 f2 be
       -0.32556984 0.5577118 0.66152793 -0.47403443
0002a0 73 fc 79 bd 55 64 bd 3e 79 fc 1d 3d 5f e3 1f 3f
       -0.06103177 0.3699061 0.038570855 0.62456316
0002b0 67 c2 1a 3f 85 04 c1 3e aa 61 10 3e 69 a7 13 bf
       0.60452884 0.3769876 0.14099756 -0.5767732
0002c0 02 d0 f7 3e 31 73 06 bf 42 47 ed 3d 93 8f 86 be
       0.48400885 -0.5251952 0.11585857 -0.26281413
0002d0 92 28 dd be d2 8c 07 bd fb 3a 1c be fb 4e 9e 3e
       -0.43195015 -0.03309328 -0.15256874 0.30919632
0002e0 fe de 8a 3e aa 67 15 bf 04 a8 fc be d8 71 74 be
       0.27123255 -0.58361304 -0.49346936 -0.23871553
0002f0 76 4f 29 3e 4b 0c 91 be b8 ee c9 be 79 90 a0 be
       0.16534218 -0.2832969 -0.3943994 -0.31360224
000300 17 22 e6 be e7 3b 1f 3f 1d a6 d4 3c 5d 89 d4 bd
       -0.44947883 0.6220078 0.025958115 -0.103777625
000310 4b 70 f1 bb 9b 1d 80 bd 05 90 7a be 3b 6b 1f 3f
       -0.0073681227 -0.06255647 -0.24469002 0.62272996
000320 ac 70 55 3e 1f ed 4d be 3f eb 30 3e 15 09 c7 be
       0.20843762 -0.20109986 0.1727724 -0.38874117
000330 d6 c6 c9 3e 52 33 92 3d 95 ca cd 3c b7 7a 1a 3f
       0.39409512 0.07138695 0.025121013 0.603435
000340 41 1a f4 3e 6c 38 ba 3e e3 7b 03 bf 8e f8 69 3e
       0.4767628 0.3637117 -0.5136091 0.22848722
000350 06 22 c1 3e 05 34 12 bf 77 c5 27 bf 04 87 a1 bd
       0.3772127 -0.57110626 -0.6553568 -0.0788708
000360 16 9d 3e be 54 d3 aa 3e 4d 3e 18 bf 11 41 f5 3e
       -0.18614611 0.33364356 -0.59470063 0.47901204
000370 47 80 25 be 4b 87 82 be 49 02 99 3a b8 c9 f3 be
       -0.16162215 -0.25493845 0.0011673655 -0.47614837
000380 83 8b 10 3d 34 cd 3d be a4 25 c4 3c b1 b8 33 3d
       0.0352893 -0.1853531 0.02394373 0.043877307
000390 99 9b 88 3e fb cc d5 3e dd d9 18 3e a2 98 e7 be
       0.26681212 0.4175795 0.14926858 -0.45233637
0003a0 1c 2b ae 3e 8f 96 c5 be d7 78 57 3f 0b 48 02 3f
       0.34017265 -0.3859143 0.8416876 0.5089118
0003b0 cc 4e 2a bf 5b 66 87 be a9 6c 84 3e 0f a5 01 be
       -0.66526484 -0.2644528 0.2586415 -0.12660621
0003c0 27 2d 6b be 86 75 ef be 0b b9 0a bf b9 6e 13 3e
       -0.22966443 -0.4676935 -0.54188603 0.14397706
0003d0 32 72 b8 3e af cd 21 bf 95 7d e6 be 32 b8 12 bf
       0.36024624 -0.63204473 -0.45017686 -0.5731231
0003e0 65 7c a1 3e 57 27 7d be 54 25 00 3f d1 c9 24 3e
       0.31540218 -0.24722038 0.5005696 0.16092612
0003f0 1c f2 8d 3e ff 28 94 be 53 31 30 3f b5 62 f0 3d
       0.27723777 -0.28937528 0.6882526 0.11737577
