Project2/models/model_2_9.pt (torch, 214300 bytes, 56 tensors)

prior.mean f4 [2]
000000 00 00 00 00 00 00 00 00
       0.0 0.0

prior.std f4 [2]
000000 00 00 80 3f 00 00 80 3f
       1.0 1.0

decoders.0.decoder_net.0.weight f4 [512, 2]
000000 af 0b d2 be 04 aa 7f 3e 17 86 3f 3e 6c 62 61 3d
       -0.4102454 0.249672 0.18703495 0.055025503
000010 04 dd c2 3e e6 18 40 3e 79 8b 8b be 71 05 3d 3c
       0.38059247 0.18759498 -0.27254847 0.011536942
000020 7b c7 95 3d 9c 2a 0d bf b5 ca 99 be ca 78 05 be
       0.073134385 -0.5514314 -0.30037466 -0.13034359
000030 c5 9c ab 3e 7d 87 07 3f ad 42 0c bf 66 8a 1a 3f
       0.33518043 0.52941114 -0.5478924 0.6036743
000040 56 30 15 bf fc 72 83 be ea 18 fa 3e 84 3b f5 3d
       -0.5827688 -0.25673664 0.48847133 0.11974242
000050 3b 04 bf be 4f 33 15 3f b9 cc 12 3f d6 6e 5a 3e
       -0.37307915 0.58281416 0.5734363 0.21331343
000060 f0 2b 90 bd ee a6 8a 3d d4 82 21 be 9a 5c af 3d
       -0.070396304 0.067701206 -0.15772563 0.08562584
000070 e4 05 7e 3e 5e ab e9 be 48 03 d6 3e cf 60 0a 3f
       0.24806935 -0.45638555 0.41799378 0.5405397
000080 92 bb d1 be f1 89 df be 23 14 a4 be ff 4f da be
       -0.40963417 -0.43659928 -0.32046613 -0.42639157
000090 d9 83 25 bd 1d 4e ff 3e 06 6a a5 ba 3b 42 24 bf
       -0.040408943 0.49864283 -0.0012620098 -0.6416356
0000a0 8d b7 64 3e ff 72 16 bf 72 bc 09 3f f5 2e 59 3c
       0.22335644 -0.5876922 0.5380317 0.013255824
0000b0 b9 a6 d8 be a9 d0 06 bf 68 20 01 bf ae 7d 0f 3e
       -0.423147 -0.5266214 -0.50440073 0.14012787
0000c0 b9 67 09 bf 28 ef 22 bf d5 6f 04 3f 9e 05 13 be
       -0.53673893 -0.63646173 0.5173314 -0.14357612
0000d0 2c 0a 4f be 43 bf f7 3e 05 5b 88 3e 8e 1a fe be
       -0.20218724 0.4838811 0.26631942 -0.49629635
0000e0 3a aa 09 bf 35 00 27 3f 7f d2 ff 3e 51 86 07 3f
       -0.5377537 0.6523469 0.49965283 0.52939326
0000f0 13 f9 63 3d 19 35 c9 3e 2c 9c 24 3f a9 61 37 bf
       0.055657458 0.39298323 0.643008 -0.7163339
000100 6d d6 fa be 30 5c ee 3d b1 f0 14 bf 65 5f 08 bd
       -0.4899172 0.11638677 -0.58179766 -0.0332941
000110 a0 33 d8 be 1b e1 21 3f 45 70 af 3e a0 26 43 bd
       -0.42226887 0.6323411 0.34265342 -0.047644258
000120 f1 7b 0e 3f 73 b2 19 3e a9 67 b1 be ef dc fe bd
       0.5565787 0.15009479 -0.346494 -0.124444835
000130 95 4e d7 be 4a af 33 3f f1 ca 21 3e 71 8b 19 3e
       -0.4205214 0.70189345 0.15800072 0.14994599
000140 df 63 9a 3e 8c 85 cb 3d cb 16 0c 3f 36 8a 88 3e
       0.3015432 0.099375814 0.5472228 0.26667947
000150 50 9f 39 3f 2f 11 99 bd 18 d2 cd 3e 54 9a c7 3e
       0.72508717 -0.07473981 0.4019935 0.3898493
000160 c7 34 53 be 63 03 9d be 67 ec 46 3c 57 9a 03 be
       -0.20625602 -0.30666646 0.012141324 -0.12851845
000170 6b 0f d6 3e ec 86 17 bf 96 15 ba 3d 8e 9a ba be
       0.41808638 -0.5919025 0.090861484 -0.3644604
000180 f7 e7 ea 3e ca 0b c2 3e 29 eb a2 3c 2c b5 c5 3e
       0.458801 0.3789962 0.019887524 0.38614786
000190 ac f4 3d bf ba eb ab be fe 91 2c 3f 7e fb c6 be
       -0.74201465 -0.33578283 0.67410266 -0.38863748
0001a0 23 11 82 be c9 72 7c be 02 6e 20 bf 9a 19 79 3e
       -0.254037 -0.24653162 -0.6266786 0.24326172
0001b0 a7 91 0a bf 7d 2b 97 be 45 dd ca bd 9c f8 cc 3e
       -0.541285 -0.29525366 -0.09905485 0.40033424
0001c0 e6 28 0d be 02 ef 19 3f 70 02 39 3f d0 be 14 3d
       -0.13785133 0.6013032 0.72269344 0.036314785
0001d0 e3 76 35 3d 97 ae ac 3e 02 c3 17 3f 2a d3 b0 3e
       0.044302832 0.3372695 0.59281933 0.34536105
0001e0 1f 22 60 3e 67 59 c6 3e bc 8b 6b be 58 03 22 3f
       0.21888016 0.38740084 -0.23002523 0.6328635
0001f0 77 2a ac 3e ab 8d 75 3d 2e fc d1 be 4c f5 d2 3e
       0.33626148 0.05994956 -0.4101271 0.41202772
000200 5b bf 95 bc b1 a3 1b 3d ac a2 f3 be 8f 18 98 3e
       -0.018279722 0.037997905 -0.47585046 0.29706237
000210 a5 31 c8 3e da d4 05 3f 6b 89 b9 3e 0f 2d ce bc
       0.39100376 0.5227791 0.36237654 -0.02516797
000220 b3 d2 b8 3d e7 aa 8a 3e 34 8e 23 bf 7e 46 13 3f
       0.09024563 0.27083513 -0.6388886 0.5752944
000230 a8 6e b1 3d f5 7d 64 3e 85 d3 28 3f bb 50 56 be
       0.08663684 0.22313674 0.65947753 -0.20929234
000240 a9 73 d5 3e 87 d1 12 bf 8c 89 f9 3d e9 eb 22 3f
       0.41689804 -0.57350963 0.12184438 0.6364122
000250 79 c6 e8 3e 15 ba 62 3e eb b0 1c bf b9 c8 eb be
       0.45463923 0.22141297 -0.61207455 -0.46051577
000260 2a 2d 8e be 4f 05 4c be 6e 6d 8e 3e bc 72 3d 3f
       -0.27768832 -0.199239 0.27817863 0.74003196
000270 95 af 33 3f a6 48 51 bd 05 dd 1e 3e c2 c0 e0 3d
       0.7018979 -0.051094674 0.15514 0.10974266
000280 59 9b ae 3e 88 da d0 3e 2e 15 1d 3f 01 4d 22 bf
       0.34102896 0.40791726 0.6136044 -0.6339875
000290 3b 91 03 bf ae ef 27 bf 10 aa b9 be 8b ce 2c bf
       -0.5139348 -0.656001 -0.3626256 -0.6750266
0002a0 c0 cb 2f 3f c3 1a 00 3f 8a c8 ce 3e 32 87 ba 3e
       0.6867027 0.50040835 0.40387374 0.3643127
0002b0 66 08 0d 3f 11 7b 33 bf 6d 3c 62 be 91 3c 2b bf
       0.5509094 -0.7010966 -0.22093363 -0.6688929
0002c0 98 39 da 3e 01 44 4a 3e 6b 5e d2 be cc 09 9a bc
       0.42622066 0.19752504 -0.4108766 -0.0188035
0002d0 42 fd 03 3e 81 2b b1 bb 24 a1 8f be 0f e8 a2 bd
       0.12889579 -0.0054067974 -0.28052628 -0.07954418
0002e0 77 c6 71 3c cf 94 9c be b2 31 d0 be 81 06 1e 3f
       0.01475679 -0.30582282 -0.40662915 0.61728674
0002f0 0d 5f 6e be 7c 7b b0 be 23 e7 0b bf fc 7b 7f be
       -0.23278446 -0.3446921 -0.5464956 -0.2494964
000300 62 9d 9a 3e f2 c8 38 be 99 9c c5 bd cf 5d 88 be
       0.301982 -0.18045405 -0.09649009 -0.2663407
000310 35 80 07 3f 0e 05 17 bf 35 75 8c 3e 1b e9 03 3f
       0.52930003 -0.5899209 0.27433172 0.51527566
000320 a5 71 04 bf eb 61 6f be 37 d9 85 be 12 6b 0e bc
       -0.5173591 -0.23377196 -0.26142284 -0.00869252
000330 31 cc 0c be af 1a c6 3c e2 7d 0a 3d 25 8c 39 bd
       -0.13749768 0.024182646 0.033811457 -0.045299668
000340 71 fb 02 bf 61 7a 34 bf 1b 9f 0f 3f a4 6c b3 3e
       -0.5116492 -0.70499235 0.5610215 0.35043824
000350 7a 49 1a 3f cc ee 21 3f 56 81 47 3e 48 7d a9 be
       0.60268366 0.63255 0.19482931 -0.33103395
000360 b2 2d 70 3e 6d a9 1e bf ea 4d 21 bf 8e c1 0d bf
       0.23454931 -0.61977273 -0.6300951 -0.55373466
000370 fe 09 5b 3e 27 af 19 3f 2e 55 35 bf 05 10 0d 3f
       0.2139053 0.60032886 -0.708331 0.5510257
000380 78 c1 cc be ec c9 1f 3f d3 17 8d 3e ac 81 68 3e
       -0.39991355 0.62417483 0.2755724 0.22705716
000390 cf fd 9e bd 6b ed fe 3e 00 a6 07 bf 57 b1 3d 3f
       -0.07763254 0.4979051 -0.5298767 0.74098724
0003a0 10 9a f5 be 52 c2 89 bd c5 cd c5 3e 56 62 63 3e
       -0.47969103 -0.06726517 0.38633552 0.22205481
0003b0 5e d3 f3 3e 8e 3d 79 be 95 e2 af 3d a3 50 ce 3e
       0.47622198 -0.24339887 0.08588139 0.40295896
0003c0 34 55 ab be 10 eb 12 bf b9 a1 28 3f 33 13 22 bf
       -0.33463442 -0.57389927 0.6587177 -0.63310546
0003d0 e8 37 e5 3e f7 da 4b 3e f3 5e 16 be 55 ff d0 3d
       0.44769216 0.19907747 -0.14684658 0.10204951
0003e0 49 fb 95 be d5 ba 74 3e af f1 f9 bd 6a 3e 02 3f
       -0.29293278 0.23899396 -0.122043006 0.50876486
0003f0 02 6b 0b 3f 2c 88 9a 3d 43 9d cd be 84 d3 60 bd
       0.54460156 0.07545504 -0.40159044 -0.054889217

decoders.0.decoder_net.0.bias f4 [512]
000000 d9 c0 20 bf 50 a5 38 3f 28 ee db 3e ea 5a a4 be
       -0.6279426 0.72127247 0.42955136 -0.32100612
000010 6c 55 4d bc ed fc aa 3e 4e 1a 21 bf 57 7c cf 3d
       -0.012532573 0.33396092 -0.6293076 0.10131138
000020 27 fe 8b be bd 77 71 be f7 45 1f 3f b5 6b 8e 3e
       -0.2734234 -0.23580833 0.6221613 0.2781655
000030 7e 8b bd bd 7d 6a d7 be d2 06 24 be 89 50 fb 3c
       -0.09255122 -0.42073432 -0.16018227 0.03067805
000040 0b 67 f1 bd 82 3b 83 3e 6f aa 1e 3f d0 b4 fc 3c
       -0.11787232 0.25631338 0.6197881 0.030847937
000050 29 5b 16 bf 32 75 92 be 43 7f 84 3e 92 74 6f be
       -0.5873285 -0.28605038 0.25878343 -0.23384312
000060 fa 23 29 bf db 5a 39 be d3 41 de be 51 42 04 3f
       -0.6607052 -0.18101065 -0.43409595 0.5166369
000070 55 d4 d7 3d 0c 2b d4 3d fa 80 80 3e af 5c 8b be
       0.10538546 0.10359773 0.250984 -0.2721915
000080 9c bf 20 3e 12 be 2a bc 8c 00 1b bf 2e 24 08 3f
       0.15698093 -0.010421293 -0.6054771 0.53180206
000090 fa a4 cf 3e 6f f8 a2 3e 19 33 ad 3e 34 9e 09 3f
       0.40555555 0.31830165 0.33828047 0.53757024
0000a0 d0 a9 d9 be 8e 22 84 3e 56 c8 26 3f 92 e1 0d 3f
       -0.4251237 0.25807613 0.6514944 0.5542232
0000b0 df 6f 82 be a6 9e 0e bf d1 16 2e bb 1c b7 5a bd
       -0.25475976 -0.5571083 -0.0026563893 -0.053397283
0000c0 2b 49 7e be e3 01 02 3f 1d d4 21 3f c5 3d 40 3e
       -0.24832599 0.5078413 0.63214284 0.18773563
0000d0 03 6c 25 3e 64 2f 3d be 3f 09 96 3e 09 35 bc 3e
       0.16154484 -0.1847511 0.2930393 0.36759213
0000e0 7c da 07 3e 76 1e cf 3e 61 1f 30 bf ff 70 de be
       0.13266939 0.40452927 -0.6879788 -0.43445584
0000f0 e4 91 24 bf d8 0c b8 3d 00 ab de 3e 8f a3 48 3c
       -0.6428511 0.08986825 0.43489838 0.012246027
000100 ba 81 63 be 1c 9a 24 bf 13 0d 12 3f 60 8d 15 bf
       -0.22217456 -0.6429765 0.570512 -0.58418846
000110 4e 02 68 3e f4 2e 7f bd 81 ce 8e 3d 77 5e b3 bd
       0.22657129 -0.062300637 0.06972981 -0.08758252
000120 60 5a 00 bf ea 8e a3 3e 5a 57 27 bf a8 fa 65 3d
       -0.501379 0.31944972 -0.6536766 0.056147248
000130 f5 83 5b 3e 91 62 73 3e 06 2b f6 3e a5 36 0c bf
       0.21437056 0.23768069 0.480797 -0.5477088
000140 43 86 09 3e 22 bc d9 be de c4 1e bf da 29 9c 3e
       0.13430123 -0.42526346 -0.62019145 0.3050068
000150 79 d2 48 bd 11 68 21 bf 49 95 ef 3e 8b 1d 27 3f
       -0.049028847 -0.6304942 0.46793583 0.65279454
000160 e8 e4 b7 be ab ec 27 bf b5 7a 69 be 6f 56 c6 be
       -0.3591683 -0.655955 -0.22800715 -0.3873782
000170 d2 8a 1b 3f 40 20 8f 3e 81 22 15 bf ce 59 b1 3e
       0.607587 0.27954292 -0.58255774 0.34638828
000180 1d ac 7d 3e 9b fd a8 be aa cc 1f bf da 87 4b be
       0.24772687 -0.33005986 -0.6242167 -0.19876042
000190 a3 a4 37 3e c6 59 05 3f 6f 21 11 3d fd 35 81 be
       0.17933898 0.5209011 0.035432275 -0.25236502
0001a0 45 81 91 3b 9b d3 82 3e d1 be 99 3d 9a b9 b5 be
       0.004440459 0.25552067 0.075070985 -0.35493165
0001b0 9e 14 ae be 62 28 87 be cc 48 7b bd 33 d7 15 3f
       -0.34000105 -0.26397997 -0.06134872 0.5853149
0001c0 eb 40 d3 be d0 6b 38 3f 60 47 34 3f c8 09 07 bf
       -0.41260466 0.7203951 0.7042141 -0.527493
0001d0 b3 ed 06 bf 4a c2 14 be 34 f4 b4 3d 07 ac cd 3e
       -0.5270645 -0.1452724 0.088356405 0.4017031
0001e0 00 34 36 be 85 ba 79 be d7 e5 0e 3f 3b f6 1d 3f
       -0.17793274 -0.24387558 0.5581946 0.6170384
0001f0 55 f9 0f bf e4 6e e9 3e a9 a7 c2 be cf d7 97 be
       -0.56239825 0.45592415 -0.3801854 -0.29656836
000200 85 c7 c0 be ac 09 ff be 2e 58 8f bc ac 1b b3 bd
       -0.3765222 -0.49812067 -0.017498102 -0.08745512
000210 0a 11 29 3f b3 ca 2b bf 87 a7 b3 3d 70 5c ac 3e
       0.66041625 -0.6710617 0.08772188 0.33664274
000220 3e d5 b4 3e 06 09 ba 3e 65 f6 0b 3f 5a 61 e4 be
       0.3531894 0.3633501 0.54672843 -0.44605523
000230 ab 77 1c bf 03 2d 39 be 3b 0f 07 bf 61 ac 6b be
       -0.611201 -0.18083577 -0.52757615 -0.23014976
000240 0c de c4 be a7 16 d3 be 6a 21 93 be cb 73 9d 3b
       -0.38450658 -0.4122822 -0.2873643 0.0048050634
000250 d9 ec 00 3f 23 b5 a9 3a bb b0 ec be be 7b a2 be
       0.503614 0.001294766 -0.46228585 -0.31735033
000260 57 31 74 be a2 24 1a bf 26 90 03 bf 38 f5 af be
       -0.23846947 -0.6021215 -0.5139183 -0.34366775
000270 75 ac 03 bf 10 a7 6d be 25 ab a2 3e b0 44 fb 3d
       -0.51435024 -0.2320826 0.31771198 0.122689605
000280 bf e3 77 3e ff 8f 2e 3e 5b 92 15 be d7 73 22 bf
       0.24207972 0.17047118 -0.14606611 -0.6345801
000290 90 4f ed 3e 95 26 02 3f 49 a8 db be e2 06 6b be
       0.46349764 0.5084012 -0.4290183 -0.22951844
0002a0 a6 66 af be 5c 67 6b 3e 18 f3 15 bf 19 99 12 3f
       -0.34258002 0.22988647 -0.58574057 0.5726486
0002b0 96 1f ac be 56 02 cf be f5 2f b5 be 0a 10 87 3e
       -0.33617848 -0.4043147 -0.3538815 0.26379424
0002c0 13 95 e1 be 06 7c 5e be 56 25 0a bd a0 56 15 3f
       -0.44059047 -0.21726999 -0.033727013 0.58335304
0002d0 5b 8b cc be d4 e0 8d be 8b 3f d7 be 8e 44 22 3f
       -0.3995007 -0.27710593 -0.42040667 0.63385856
0002e0 b9 4a 9e bd 51 33 11 3f 67 90 4a be 07 ac 4d be
       -0.07729096 0.5671893 -0.19781648 -0.20085154
0002f0 c5 c6 1a 3f 12 ac d5 be 74 fe c5 be b7 25 5c 3e
       0.6045955 -0.41732842 -0.38670695 0.21498762
000300 6f e1 35 3f e4 0b a2 3e 3d 69 0b 3e ec 35 1a 3f
       0.7104711 0.31649697 0.13614364 0.6023853
000310 44 46 b9 3e 4f 50 d5 3e 67 e8 f7 3d c7 bf 67 3e
       0.3618642 0.41662833 0.12104874 0.22631751
000320 20 98 95 bd 2e e6 04 bd a3 6e 3b bf e5 14 32 3e
       -0.07304406 -0.03244608 -0.73215693 0.17390783
000330 aa 82 79 3e a6 69 e4 be 39 f6 89 3e ce 79 e1 3d
       0.2436625 -0.44611853 0.26945665 0.110095605
000340 d8 3c e7 bd 9e 3e 4e be ed 7d d5 3e 12 fe 2e be
       -0.11290902 -0.20141074 0.41697636 -0.17089108
000350 38 f6 e9 3e a8 7b be 3e 4a bb c8 be e6 60 8f be
       0.45695662 0.37203717 -0.3920539 -0.28003615
000360 b9 a9 d4 be 4f 32 2d bf da 86 18 3f d2 66 f4 be
       -0.41535738 -0.6765489 0.5958077 -0.47734696
000370 ee 38 0b bf 1e 9e 82 be 8e 6b 0a 3f 8f 39 2a 3f
       -0.5438374 -0.2551126 0.54070365 0.6649408
000380 13 30 0a bf 72 44 4e 3e c7 19 08 bf 43 7c 2d 3f
       -0.53979605 0.20143297 -0.53164333 0.67767733
000390 37 5a 10 3f a4 d1 12 bf e8 b2 c6 3c bb f9 b3 3e
       0.56387657 -0.57351136 0.024255231 0.35151467
0003a0 c5 17 84 be 0d d6 c1 3e 52 de ab 3d 76 b3 42 3d
       -0.25799385 0.3785862 0.083920136 0.04753443
0003b0 0c 72 c1 be e4 91 2d 3d bb ce 28 bf 61 13 d6 be
       -0.37782323 0.04237546 -0.65940446 -0.4181166
0003c0 75 c5 3c bf 7f 8a 9f 3e 6d a3 0d bf 13 28 8a be
       -0.73738796 0.31160352 -0.5532749 -0.269837
0003d0 ac b9 a4 bc 15 fe 73 bc e9 16 b2 bc 56 39 d3 be
       -0.020108066 -0.014892121 -0.02173944 -0.4125468
0003e0 8c 1e cf be 16 23 3f be 79 db c3 be 4d 49 0f 3f
       -0.40452993 -0.18665728 -0.38253382 0.55971223
0003f0 45 59 5c be 93 fd 40 3e 45 57 17 3e 5f 46 33 bf
       -0.21518429 0.18846731 0.14779384 -0.7002925

decoders.0.decoder_net.3.weight f4 [32]
000000 4e c5 80 3f 8e 94 85 3f a4 a7 77 3f 02 a7 78 3f
       1.0060213 1.043596 0.96740174 0.97129834
000010 7a 34 79 3f 53 5e 82 3f 68 18 7f 3f a4 7c 81 3f
       0.973457 1.0185035 0.99646616 1.0116162
000020 5a ae 80 3f d4 47 77 3f 0d 1c 85 3f 6e 0f 7e 3f
       1.0053208 0.96593976 1.0399185 0.99242294
000030 fb b4 79 3f 9c 54 7e 3f 8c 93 81 3f 46 85 7f 3f
       0.9754178 0.99347854 1.0123153 0.99812734
000040 97 8d 7b 3f 40 c5 7c 3f 37 5c 82 3f 80 6b 7d 3f
       0.98262924 0.9873848 1.0184392 0.98992157
000050 fd d9 75 3f d3 fa 80 3f 0e 6d 83 3f 56 5f 84 3f
       0.9603575 1.0076545 1.0267656 1.0341594
000060 66 74 79 3f c8 b4 87 3f 9b 99 7c 3f f0 bb 86 3f
       0.97443235 1.0602045 0.98671883 1.0526104
000070 3b 43 85 3f 7f 22 83 3f 24 7b 7e 3f 9c 6a 88 3f
       1.0411142 1.0244902 0.9940665 1.0657535

decoders.0.decoder_net.3.bias f4 [32]
000000 03 c9 f7 bc ca e1 ea 3c 3e 9b 9c bd 47 9b 8a 3d
       -0.030247217 0.028672118 -0.076467976 0.06767898
000010 56 00 38 3c 3d 37 8b 3d 59 fc 9f bd 2d 32 ae 3c
       0.011230549 0.06797645 -0.07811803 0.02126416
000020 a3 ff 22 3d 3a b3 af 3c 20 1b 51 bc 7b 51 a0 bc
       0.039794575 0.021447767 -0.012762815 -0.019570103
000030 5d 2f 0e 3d 0c 29 24 bd 7a f7 5f 3d 7b 91 f3 bc
       0.034713138 -0.040078208 0.05467937 -0.029732456
000040 87 8b 8c 3c 11 bc e3 bc ab e5 55 3d 60 90 05 3d
       0.017156376 -0.027799638 0.05222098 0.03260839
000050 3b d5 09 bc ae 14 94 3c b1 7f 95 3b 45 e1 b3 bc
       -0.0084126545 0.018076267 0.004562341 -0.021958003
000060 a8 e7 e0 3c 5e a6 c2 bc f1 21 b7 bc d6 24 49 3d
       0.027454212 -0.02376097 -0.022355052 0.049107395
000070 f4 1d 1d bd 46 ab 78 bd 44 0e fe 3c 1b b5 2b 3d
       -0.038358644 -0.060710214 0.031012662 0.041920763

decoders.0.decoder_net.3.running_mean f4 [32]
000000 f8 47 04 3d d3 83 de 3c 32 bc 16 3d 40 7f 19 3d
       0.032295197 0.027162468 0.03680057 0.03747487
000010 0c ee 26 3d 5f 96 e0 3c 8d 3e 03 3d 10 cd 11 3d
       0.040754363 0.027415453 0.032042075 0.035595953
000020 75 9c 04 3d b9 d0 b5 3c d7 3e 0c 3d 62 90 14 3d
       0.03237577 0.022194253 0.034239616 0.036270507
000030 79 21 03 3d 77 36 bd 3c 01 47 05 3d b3 c0 bc 3c
       0.032014344 0.02309726 0.032538418 0.023041105
000040 01 2a 36 3d f7 f7 f3 3c ec f0 55 3d cc f5 17 3d
       0.04447365 0.029781325 0.052231714 0.037099645
000050 29 2c 2a 3d a0 a8 f2 3c 0b c0 cc 3c 88 14 cd 3c
       0.04154602 0.029621422 0.024993917 0.025034204
000060 b0 f8 d7 3c 55 73 d5 3c e2 8a d9 3c 71 5a 9a 3c
       0.0263637 0.026055971 0.026555482 0.018841954
000070 6d 1a c4 3c c8 b3 03 3d 78 75 cc 3c 3f 43 fe 3c
       0.023938382 0.032153875 0.024958357 0.031037925

decoders.0.decoder_net.3.running_var f4 [32]
000000 27 08 85 3a 6a bc 85 3a 6e 37 9b 3a 07 f1 96 3a
       0.0010149524 0.0010203246 0.0011842081 0.0011515924
000010 ac 2f 10 3b c8 63 82 3a 53 73 e8 3a 44 d3 67 3a
       0.002200107 0.000994795 0.0017734565 0.0008843432
000020 a6 29 d4 3a e3 8a f3 39 2b 15 d7 3a e3 cf 13 3b
       0.0016186729 0.0004645205 0.0016409507 0.002255433
000030 57 79 46 3a 6e 15 ef 39 aa 90 9c 3a af 8b 17 3a
       0.00075711816 0.000456016 0.0011944969 0.00057810073
000040 9d 8b 9e 3b 4a fa 81 3a ac 72 86 3b 52 36 1d 3b
       0.0048384205 0.0009916511 0.0041030254 0.0023988676
000050 53 0b 3f 3b 12 3d 77 3a 15 fc 37 3a 45 10 25 3a
       0.0029151037 0.00094314024 0.0007018459 0.0006296675
000060 8e ba 23 3a 31 3a 1e 3a e6 6e f7 39 e5 9c 16 3a
       0.00062457554 0.0006035893 0.00047194137 0.0005745425
000070 8e 09 01 3a 80 69 b3 3a 31 f7 08 3a 4f 0b d2 3a
       0.0004922383 0.0013688058 0.00052248227 0.0016025099

decoders.0.decoder_net.4.weight f4 [32, 32, 3, 3]
000000 fc fd e2 bc d3 aa fe b8 bf 87 31 bc bf 67 19 bd
       -0.027709 -0.00012143482 -0.010835587 -0.037452456
000010 d1 13 1a bd a0 4a ad 3a 07 e0 3f bd 52 c0 02 3b
       -0.037616555 0.0013221093 -0.04684451 0.0019951058
000020 28 02 40 3d ae f1 8c 3c 98 6f c3 3d ce 64 33 3c
       0.046877056 0.017205086 0.09542769 0.010949327
000030 07 7c 05 3d 88 ed 28 3d 04 62 a0 3c c4 f2 da 3c
       0.032588985 0.041242152 0.019577987 0.026727088
000040 cd 16 8b bd 8a 7e 63 3d f1 12 5b 3b 94 c9 1d 3d
       -0.06791458 0.0555406 0.0033428038 0.038522318
000050 b8 cd 52 3b 26 ec c7 bc ca 41 3b bd 1b 22 6d bd
       0.0032166075 -0.024404597 -0.04571704 -0.057893854
000060 21 3f cd bc 5b 33 bb bc 62 4b 12 3d af 9e a1 bc
       -0.025054516 -0.022851637 0.035716422 -0.019728987
000070 e2 ce c0 3b 4b f5 5c bd a2 d1 2d bd 71 a7 06 bc
       0.0058840374 -0.053944867 -0.04243625 -0.008218632
000080 7e 4c 10 3c b2 66 93 bd e7 28 e2 bb 5c 5d 78 bc
       0.0088073 -0.07197322 -0.0069018486 -0.015158977
000090 fc 3f 19 bc 98 ba 29 bd 7a b5 d8 3c 6b de a7 bc
       -0.009353634 -0.041437715 0.026453722 -0.0204918
0000a0 ee 16 60 3d b4 0e e3 bb 4c a9 3a bc 20 14 49 bd
       0.054709367 -0.006929243 -0.011392903 -0.04909146
0000b0 4e df 7c 3c 27 0a 72 bc c7 49 6c bd 4c 0d 6f bc
       0.015434099 -0.014772928 -0.057687547 -0.014590573
0000c0 c3 de e9 3c b4 52 ab 3d 61 d2 ed 3b f1 e9 35 bd
       0.028548604 0.08365384 0.007257745 -0.044412557
0000d0 fe 29 9d bc 0f 95 1e 3d 8c 82 37 3d ed f8 2f 3d
       -0.019185062 0.038716372 0.044802234 0.042962003
0000e0 eb fd 6c ba d3 75 98 bc c6 75 04 3c fa fc 80 3d
       -0.0009040522 -0.01861087 0.00808472 0.062982515
0000f0 07 aa 8c bd be 57 e8 3c 7f 6d 04 3d 09 d5 f6 3c
       -0.06868368 0.028362151 0.032330986 0.03013088
000100 18 19 45 3d bf c4 96 3d e4 10 1e bd 0b d4 2d bb
       0.048119634 0.07361745 -0.038590327 -0.0026524093
000110 cb 9b 65 bd e1 99 6a bc 6b 46 af bc 3f 77 89 ba
       -0.05605678 -0.014318914 -0.021395883 -0.0010487809
000120 91 29 fd bc ec a9 98 bd 93 b2 b3 bb 0f 71 37 3b
       -0.03090361 -0.07454285 -0.005483934 0.0027990972
000130 eb 32 d2 3b b8 7b 2a 3d 97 c3 be bc 84 cb a8 bd
       0.0064147613 0.041621894 -0.023286624 -0.082419425
000140 f1 a8 c4 bc e4 48 a3 3c 17 c2 26 3d 26 aa 28 3c
       -0.024006339 0.019932218 0.040712442 0.010294473
000150 01 d4 01 3d aa b7 99 bd 4b d8 a4 bc a8 20 ad 3c
       0.031696323 -0.07505734 -0.020122668 0.021133736
000160 0d 23 e6 3c 39 38 ac bc 77 48 3c 3d b3 e3 f8 bc
       0.028092885 -0.021022903 0.045967545 -0.030382013
000170 df fb c9 3c a6 80 fa 3c 9c 33 5d bd 9b 60 6d 3d
       0.024656234 0.030578922 -0.054004297 0.05795346
000180 5f ac 80 bd 43 2b dc bc aa 8b 51 bd ec f0 54 3d
       -0.06282877 -0.026876098 -0.051158585 0.051987574
000190 d1 d5 52 3c 74 69 88 bd 79 08 32 3d 7e bd 13 bd
       0.012868361 -0.066607386 0.04346511 -0.036069386
0001a0 51 cf 40 bd c6 79 eb 3c e9 3c 13 bd c0 b3 2e bd
       -0.047072712 0.02874459 -0.03594676 -0.04265189
0001b0 a3 de 03 bd bb 0e f0 3c 84 71 f3 bc c4 41 8e 3d
       -0.032194745 0.029303899 -0.029717214 0.069461375
0001c0 66 97 46 bc 45 f7 0e ba c7 49 34 3d 1d c2 f5 3c
       -0.012121057 -0.0005453716 0.044015672 0.029999787
0001d0 56 77 26 3c c4 cd a0 3b ed dd b3 3c 27 40 2d 3d
       0.010160288 0.0049073417 0.021956408 0.04229751
0001e0 54 a4 1e bd 09 ff f8 bb 70 e3 1f 3c 14 30 31 3d
       -0.038730934 -0.007598762 0.009758815 0.04325874
0001f0 77 71 ad bd fc dd 37 bc b5 42 0c 3d 87 64 ab bc
       -0.08468907 -0.011222359 0.034243304 -0.020921959
000200 a0 5e 12 b8 6e 31 57 3c 28 3d d6 bc 07 9a f0 bb
       -3.489724e-05 0.013134344 -0.026152208 -0.0073425802
000210 e8 e4 2a bd d4 42 99 bc 60 9c 44 bc 28 f4 be bb
       -0.04172221 -0.018708624 -0.012000173 -0.0058274455
000220 92 ae 1b 3d 18 1b 3f bd 3e 99 3e 3d 1c e9 7d bd
       0.03800828 -0.046656698 0.046532862 -0.06198989
000230 78 96 2a 3d e6 1b fd bc 40 58 3b 3b ff 50 f7 3c
       0.041647404 -0.030897092 0.0028586537 0.03018999
000240 b6 3a 9e bc 3f e1 25 bb 87 ef 20 bd 5d af c9 3a
       -0.019315105 -0.002531126 -0.03929093 0.0015387345
000250 7f 2a 56 3d 49 a3 c4 3c 7d d8 1e bd b0 e1 cc b9
       0.05228662 0.024003642 -0.038780678 -0.00039078062
000260 59 90 bc bd 8a 19 e4 bc c2 62 5e bd b7 e8 bd bc
       -0.0920722 -0.02784421 -0.0542934 -0.023182256
000270 9a e9 73 3d 97 4a a4 bd 81 c4 85 3d 08 5c 8b 3d
       0.05954895 -0.080220394 0.06531621 0.06804663
000280 fc 53 d5 ba 88 8f 64 3c a4 8b e0 bc 1a 60 dd 3c
       -0.001627564 0.013950236 -0.027410336 0.027023364
000290 8d 70 91 3b ff 82 a5 3b 30 74 c9 bc e5 34 9f 3d
       0.004438466 0.0050510163 -0.024591535 0.07773761
0002a0 7b d2 a7 bc d5 7e c0 3c e0 b2 be 3a b9 98 2c 3d
       -0.020486107 0.023497978 0.0014549159 0.042137835
0002b0 29 b3 48 3d 45 21 f5 bc 5e 48 21 3d a4 6b 45 bc
       0.048998985 -0.02992309 0.039375655 -0.012049589
0002c0 b2 23 7f 3d 1e 00 04 3b 0a d6 b5 3c 5c ac cc bc
       0.0622899 0.0020141671 0.022196788 -0.024984531
0002d0 68 13 59 3b d3 c9 00 3d e5 f9 f1 3b 17 a0 12 3d
       0.003312314 0.031442475 0.007384526 0.035797205
0002e0 2b bc 8b bd 63 78 fb 3c f1 40 99 3c ba c0 2c 3d
       -0.068229996 0.030697053 0.018707724 0.042175986
0002f0 31 52 b2 3c d8 8e 12 bc e5 12 fb 3c b6 79 3a bc
       0.021767708 -0.008945189 0.030648658 -0.011381557
000300 13 d7 92 bd 49 c1 94 bd 5f 3d 61 bc 98 c4 99 3c
       -0.071699284 -0.07263429 -0.013747542 0.018770501
000310 89 e2 ff 3c 1c fd 8e 3c 77 c5 a5 bd 4f de 0e 3c
       0.03123595 0.017454676 -0.08094304 0.008719995
000320 a4 2b 33 3c 72 e5 f9 3c 6a d8 a7 3d 62 12 01 3d
       0.010935698 0.030504916 0.081955746 0.03151167
000330 4f 15 17 bc e2 4b 27 3d d2 5e 06 bd 26 52 44 bc
       -0.009221389 0.040843852 -0.03280527 -0.011982476
000340 06 86 da 3c 8a 32 62 3c 6c 59 7f 3d 60 9c 97 3d
       0.026675235 0.013805995 0.06234114 0.07402873
000350 9f 47 95 3d 2a ac 22 3d 85 16 95 bd 43 9c 26 3d
       0.07289051 0.03971497 -0.07279686 0.040676367
000360 fa f2 68 3c 78 42 07 bd ee 55 0a bd b5 4c 54 3d
       0.014218086 -0.033022374 -0.033773355 0.051830966
000370 68 8c ad 3c 57 a6 35 bb 51 8a ae bc 20 bc 49 3d
       0.021185115 -0.0027717554 -0.021306189 0.049251676
000380 0d 03 20 bc ac af 89 3c f0 b6 6c bd fe ac 8c 3c
       -0.009766352 0.0168074 -0.05779165 0.017172333
000390 2a 24 1d bb d8 2d b3 3a 1f 5b 03 bd 34 43 79 3c
       -0.0023977854 0.0013670279 -0.03206932 0.015213776
0003a0 06 5c 24 3c 95 0d fd bb 50 78 61 3d 6c 2e 5d 3d
       0.010031706 -0.0077225664 0.05504638 0.05399935
0003b0 28 3b 26 3d 61 55 46 bd 92 1f 24 bc 3a 76 e1 bc
       0.04058376 -0.048421267 -0.010017293 -0.027522195
0003c0 71 1c 2c 3d d1 20 fe bc e3 84 84 3c 4c 11 ea 3c
       0.04201931 -0.031021507 0.016176647 0.0285727
0003d0 62 48 75 bd 4e 69 87 bc c6 ca ea 3b 3c fe dc 3c
       -0.059883483 -0.016529705 0.0071652858 0.026976697
0003e0 62 e7 c1 bc 61 b4 97 bc 31 10 59 3d d4 60 89 3c
       -0.023669902 -0.018518629 0.052993957 0.016769804
0003f0 be 44 6e bd cc b9 38 3d 1a 13 13 bd 99 35 3e bd
       -0.058171026 0.045099065 -0.03590689 -0.046437833

decoders.0.decoder_net.4.bias f4 [32]
000000 fe 6c 98 3a b1 87 e9 3c 3a e3 88 bd 58 af 43 3d
       0.0011629162 0.028507086 -0.06683965 0.047774643
000010 10 00 06 bd 10 a4 17 3c 69 d8 24 bb 1f a0 02 3c
       -0.032714903 0.009255424 -0.0025153405 0.007972746
000020 9c 13 35 3c b9 ad de 3b f3 0d 85 bc 74 54 86 bd
       0.0110520385 0.0067956117 -0.016242003 -0.06559077
000030 69 11 55 3d c2 cf b0 ba f6 6e 21 bd 47 80 73 3c
       0.052018557 -0.0013489651 -0.03941246 0.014862127
000040 9f 5b a7 bd 5b 5c 31 3d b0 eb 0c bc 79 07 2e 3c
       -0.08171772 0.043300968 -0.008601114 0.010621899
000050 79 6f a9 3d b9 25 8f bd 01 5b 46 bc ad 14 7b bd
       0.08273215 -0.06989617 -0.012106658 -0.061299015
000060 ea f1 7e 3c 3f 67 27 3d 25 6e 43 3d 90 c4 46 3d
       0.0155606065 0.040869948 0.047712464 0.0485273
000070 97 8b 9c bd c8 34 4f 3c 94 df 49 3d b3 39 06 3d
       -0.07643812 0.012646861 0.049285486 0.03276987

decoders.0.decoder_net.6.weight f4 [32]
000000 ff bf 70 3f 89 af 71 3f c0 34 72 3f 37 86 7b 3f
       0.9404296 0.9440847 0.9461174 0.9825167
000010 c5 18 76 3f 3e 19 7a 3f 50 4e 7e 3f c1 ad 73 3f
       0.96131545 0.97694767 0.99338245 0.95187
000020 c5 63 78 3f 0a 92 81 3f 04 c3 82 3f cf b7 75 3f
       0.97027236 1.0122693 1.0215764 0.95983595
000030 4e e2 78 3f af 2f 6f 3f 25 1b 76 3f c4 44 7c 3f
       0.97220314 0.93432134 0.9613517 0.9854243
000040 8a 52 80 3f 0f cc 80 3f d9 1e 79 3f 5b f2 7f 3f
       1.0025189 1.0062274 0.97312695 0.9997918
000050 d6 d8 6b 3f 44 d2 65 3f a8 f8 74 3f b5 3f 65 3f
       0.9212774 0.89773965 0.9569192 0.89550334
000060 68 42 7c 3f 3c b1 74 3f 7c cd 79 3f 25 df 7b 3f
       0.9853883 0.9558294 0.9757917 0.98387367
000070 0f 33 76 3f eb b3 71 3f e4 b7 6f 3f 13 db 70 3f
       0.9617166 0.9441516 0.9363997 0.9408428

decoders.0.decoder_net.6.bias f4 [32]
000000 d7 fb 74 3d 5b ea 56 bd 32 0e 73 39 ee 4c 04 be
       0.059810486 -0.052469593 0.00023179574 -0.12919971
000010 34 46 08 bb 0e 4c 2c 3d 47 74 bc bd fd ac 52 bd
       -0.0020793797 0.04206472 -0.09201866 -0.051434506
000020 fb a2 07 3d ec 11 3f 3b 2e 2f 38 bc 48 4f 96 bb
       0.033114415 0.002915497 -0.011241717 -0.004587088
000030 90 35 12 bc e6 e8 53 bc f0 8b 7b 3d 22 ea ee 3c
       -0.008923903 -0.012933945 0.06141275 0.029164378
000040 7b bb b9 3c ab d6 9c 3d e1 e4 0f bc 81 c5 35 3d
       0.022672405 0.07658132 -0.008782596 0.044377808
000050 bb 21 7c 3d e5 39 52 bd 99 1d f4 bc df e9 23 3d
       0.061555605 -0.051324744 -0.02979927 0.04001796
000060 99 b0 cf bd 86 7b e2 39 da 8f bf 3d f9 2c e3 bc
       -0.10141105 0.0004319811 0.093536094 -0.027731406
000070 db be 96 bc 5b 51 da 3a 21 df 73 3c 20 93 67 bc
       -0.018401554 0.0016656326 0.014884741 -0.014134198

decoders.0.decoder_net.6.running_mean f4 [32]
000000 5f 1d fa 3c 3c 1e 02 3d ff 64 f0 3c 6d ca 06 3d
       0.030531583 0.031767115 0.029345034 0.032907892
000010 c4 aa e9 3c 0f d7 00 3d 2b f7 ed 3c 85 66 f7 3c
       0.02852381 0.031455096 0.029048523 0.030200252
000020 96 ff 04 3d a0 0a 00 3d aa b8 06 3d a4 9a ee 3c
       0.03247031 0.031260133 0.032890953 0.029126473
000030 50 34 08 3d 23 59 fe 3c 57 50 f3 3c 8f 77 ff 3c
       0.033253014 0.031048363 0.029701395 0.03118494
000040 54 c3 ee 3c 0d 6c 0a 3d 15 c0 f6 3c 97 7f f5 3c
       0.029145874 0.03379445 0.030120889 0.029968066
000050 c7 b4 0e 3d ae b1 e3 3c a7 53 ff 3c 65 75 f5 3c
       0.03484037 0.027794685 0.031167818 0.029963205
000060 44 80 02 3d 7a e0 04 3d a6 87 07 3d ad 00 0b 3d
       0.031860605 0.03244064 0.03308835 0.03393619
000070 3a 97 ea 3c 76 7b 04 3d 4a c1 01 3d 78 54 0d 3d
       0.028636564 0.032344304 0.031678475 0.034504384

decoders.0.decoder_net.6.running_var f4 [32]
000000 77 e9 0a 39 3a bf 13 39 2b 64 1e 39 17 66 48 39
       0.00013247678 0.0001409025 0.0001510537 0.00019111518
000010 80 7b fe 38 19 dd 41 39 cc 09 c0 38 d2 38 0e 39
       0.000121346675 0.0001848828 9.157098e-05 0.00013563343
000020 b7 d1 77 39 bb 28 15 39 b2 46 ae 39 b2 22 23 39
       0.0002363388 0.0001422492 0.00033240538 0.00015557816
000030 6c 0e 29 39 40 49 2d 39 08 c4 30 39 9a 57 32 39
       0.00016122469 0.00016525853 0.00016857695 0.00017008037
000040 52 2d 2a 39 d0 9e a8 39 82 7b 77 39 ed ea 2b 39
       0.00016229347 0.00032161782 0.00023601766 0.00016395347
000050 b4 22 48 39 d7 a4 16 39 e2 07 99 39 3a 74 4d 39
       0.00019086414 0.00014366522 0.00029188307 0.00019593621
000060 ed 62 1b 39 5d ee 67 39 a3 99 53 39 3c 6e 94 39
       0.00014818805 0.00022118674 0.00020179762 0.0002831089
000070 df 6d 1f 39 93 28 2c 39 57 8a 3d 39 a8 79 84 39
       0.00015204352 0.00016418313 0.0001807598 0.00025267643

decoders.0.decoder_net.7.weight f4 [32, 16, 3, 3]
000000 c1 19 07 3c d4 8a d2 3a 97 8e 80 bd 5f ef 93 bd
       0.008245886 0.0016063103 -0.06277197 -0.07223391
000010 36 e8 2b bd b0 9b 16 bd bb 7b c3 3b a4 27 83 3d
       -0.0419695 -0.03676957 0.0059656776 0.06404045
000020 ce 88 eb 3c 65 77 8c bb aa d8 19 3d ca b3 20 bd
       0.028751757 -0.004286694 0.037560143 -0.03923396
000030 2b 59 21 bc 6a 1e 38 bd 77 9e bc 3c ae f7 23 3d
       -0.009847919 -0.04495088 0.02302478 0.040031128
000040 e8 e5 ce 3c 1c 67 a9 3a 56 af ed bc bc 4f 9d bc
       0.025256112 0.0012924406 -0.02901427 -0.01920306
000050 cc 38 56 3c 20 58 88 3d b6 76 37 bd 32 bd a2 bb
       0.013075065 0.066574335 -0.044790946 -0.0049664015
000060 9d bb 30 3d a3 6e 03 bd 25 72 9f 3c 55 3f c3 bc
       0.043147672 -0.032087933 0.019463608 -0.02383391
000070 22 e1 f4 bb 0f a0 62 3d d1 8e f4 3c 23 39 02 bd
       -0.007473127 0.055328425 0.029853256 -0.03179277
000080 b6 ed c4 3b a6 64 0b bd 6d 53 8b 3c d6 8b 90 bd
       0.0060097827 -0.034031533 0.017007554 -0.070579216
000090 77 e8 d4 bc 8c b3 48 bc c9 b7 18 3d 40 b0 3f 3d
       -0.025989754 -0.012249839 0.037284646 0.046798944
0000a0 5f 93 69 3d 5c 02 a4 bd 7b 23 80 3d c5 d0 00 3c
       0.05702531 -0.080082625 0.06256767 0.007862275
0000b0 43 d3 ef bc 9f 9b 3a bd 00 22 9a 3d e9 83 c3 bb
       -0.029275542 -0.045558568 0.07526016 -0.0059666527
0000c0 79 d4 88 bd 3b 2d ab bd 6b e8 0b 3d 1a d3 dc 3c
       -0.06681151 -0.083582364 0.034157198 0.02695613
0000d0 ae 0e be bd 1c 04 16 3d 2c 7e 86 3d 16 54 a7 bd
       -0.09280144 0.036625013 0.06567034 -0.08170335
0000e0 49 27 f0 3c 54 43 da bb 71 c2 e2 3c e5 fe 74 bd
       0.029315608 -0.006660858 0.027680608 -0.0598134
0000f0 77 ec 9a 3d 6d 3a d8 bc a2 68 e0 bb fc 86 d4 bc
       0.07564633 -0.026395047 -0.0068484107 -0.025943272
000100 03 1f 8a bc bf 5e f9 3a 58 3c 1a 3d 47 75 ba 3d
       -0.01686049 0.0019025429 0.037655205 0.091044
000110 6f 13 61 bd 7c 59 26 3d c2 28 13 3d 41 e8 70 3d
       -0.054950174 0.040612683 0.03592754 0.058815245
000120 0c b1 33 3d be 4e 3d 3c 9a 32 84 3d cd 20 83 3d
       0.043870017 0.011554418 0.06454964 0.06402741
000130 c6 dd 54 3c 5d eb 48 3d 98 24 d4 3c da e6 bb 3c
       0.012992328 0.049052585 0.025896356 0.022937227
000140 72 0f 2a bc 45 02 12 3d 0a 63 3e bd e2 f7 e7 3c
       -0.010379659 0.035646696 -0.04648117 0.028316442
000150 71 86 86 bc c9 af 43 3d ed 11 b7 3c 39 e1 25 3d
       -0.016421529 0.047775064 0.022347415 0.040497992
000160 c1 77 4b bd a4 e6 81 3d ba 53 13 3d 0d 2d 5b 3c
       -0.049674753 0.06342819 0.03596852 0.01337744
000170 95 35 b0 3d 33 e8 d8 3c d5 9a 1e bc a2 4d 2b bb
       0.0860397 0.026477909 -0.0096804695 -0.0026138802
000180 b2 5d 20 3d 96 4a a8 3c ca e4 85 bd 58 13 c1 3c
       0.039151855 0.020543378 -0.06537779 0.023568794
000190 6e db 96 bd d8 b7 b7 3c 22 d9 61 bd c7 f7 bf bc
       -0.07366072 0.02242653 -0.055138715 -0.02343358
0001a0 17 b7 db bb 93 b2 ea bd 2f 3c ad bc 36 99 8a 3c
       -0.0067051756 -0.114598416 -0.021146862 0.01691876
0001b0 61 3e a9 bd 65 7a eb 3c 8d fc 39 3d aa cc fc 3c
       -0.08263851 0.028744886 0.045406867 0.03085931
0001c0 a4 38 85 3d 71 64 dd bc c3 48 89 bc b3 f1 03 3d
       0.06504944 -0.027025433 -0.016758328 0.032212924
0001d0 d4 c2 2b bd 0c 4c c6 bb c6 f3 81 bd 9b c3 6c 3c
       -0.04193385 -0.006051546 -0.06345324 0.014450933
0001e0 08 62 6a bc 33 56 68 3a 1b ed f9 bc 97 37 57 3d
       -0.014305599 0.00088629423 -0.030508569 0.05254325
0001f0 b6 1a 8c bc a5 b0 45 3c 0e 84 eb bc 87 0b 8e 3d
       -0.01710258 0.012066041 -0.028749492 0.069357924
000200 e2 9b a1 3d 0e fd 8e bc 60 44 f8 3c f5 a2 3d 3d
       0.078910604 -0.01745465 0.030306041 0.046297986
000210 ef 7a 0d 3d c3 80 4c 3d 0b 74 cd bb 6d 31 85 3c
       0.034541067 0.049927484 -0.006269937 0.01625892
000220 b9 58 57 3c 79 5e 3e 3d 02 92 f8 ba d1 d8 49 bc
       0.013143712 0.046476815 -0.0018964412 -0.0123197595
000230 a8 60 15 3d a8 13 cf 3d 0d 68 9e 3d 2b 3e 8d bb
       0.03646913 0.10111171 0.0773469 -0.0043103895
000240 5a e9 89 3c 89 7b b2 bd a2 dc c3 3c 3e 06 84 3d
       0.016834904 -0.08714969 0.023908917 0.06446503
000250 44 0a ca ba 63 98 3b 3d e8 c6 e2 bc 33 5c b7 3c
       -0.0015414436 0.045799624 -0.027682737 0.022382831
000260 fe 64 e2 3c 4f de fd bc b1 0b 3d bd 98 20 59 3d
       0.027636047 -0.030989794 -0.046153728 0.0530096
000270 d1 68 2f bc 58 a7 41 3d d6 5b 47 bd c5 1a e2 bc
       -0.0107061425 0.047278732 -0.048671566 -0.027600655
000280 f1 a8 ec 3c 78 c3 3f 3d 2c bd 2e 3d b8 79 03 3d
       0.028889151 0.046817273 0.042660877 0.032098502
000290 7a b1 5a 3d 7a 7b 7b bd ff 1f 9d 3d 46 ca 01 3d
       0.05339191 -0.061397053 0.076721184 0.031687044
0002a0 f1 65 b3 3c 90 f2 d8 3c 0b 91 80 3d 0f 22 f2 bd
       0.021899195 0.02648285 0.06277665 -0.118229024
0002b0 e3 f1 b8 3d 43 69 23 3d 56 b1 c3 3d a5 a8 88 3d
       0.09030511 0.039895307 0.095553085 0.066727914
0002c0 88 84 12 bd c5 bc 4e bd 72 f5 2d 3d 12 7a a6 ba
       -0.035770923 -0.050472993 0.042470403 -0.0012701175
0002d0 ba 1b 49 3d 1c 38 94 3d 00 90 73 3a 1c ee 2d bd
       0.049098708 0.072372645 0.0009291172 -0.042463407
0002e0 a7 57 95 bb da f3 39 3b 19 24 b3 3c 50 1e 4b bd
       -0.004557568 0.0028374107 0.021867799 -0.049589455
0002f0 1b 0f a3 bd 26 17 95 3d 1c cf 33 bd bf ba af 3d
       -0.079618655 0.07279806 -0.043898687 0.08580541
000300 1c 79 5a 3d c8 b0 cb 3b df 08 16 bd 06 1c 94 3c
       0.053338155 0.0062161423 -0.036629554 0.018079769
000310 e6 b8 e7 3c a9 45 70 bd a9 63 f7 bb 80 5b 3f 3b
       0.028286409 -0.058660183 -0.007549722 0.0029198825
000320 9a 80 21 bd f2 a9 f0 3d 3a f1 f9 3c af ff 3d 3c
       -0.039429285 0.117511645 0.030510534 0.011596604
000330 c9 ba ad bd ea 1f f1 3d e7 c7 84 bc 1c 51 8b 3d
       -0.08482892 0.11773665 -0.016208602 0.0680258
000340 b1 7d 0c bd 2f 89 06 3c a1 74 9e 3d b1 87 aa bc
       -0.034299556 0.008211418 0.07737089 -0.020816656
000350 71 53 46 3d 04 b1 94 3b 84 34 8c 3d 20 f1 24 bd
       0.04841942 0.0045377035 0.06845954 -0.040269017
000360 df 2d 0f bd bd ea 9e bd 56 6a 03 bd 97 ab 0f bd
       -0.034955855 -0.077596165 -0.03208383 -0.03507575
000370 32 64 9e 3c 02 7b f7 3b c2 1e 7d 3c e5 d5 b2 bd
       0.019334886 0.0075525055 0.015449228 -0.087322034
000380 d2 c2 fc bc fd ff 88 3d e5 d7 54 3d cc 9e 9b 3d
       -0.030854616 0.06689451 0.051963706 0.075986475
000390 db 6e 53 3d 64 82 15 bd 38 b5 59 bc ea 44 0c 3d
       0.051619392 -0.036501303 -0.013287835 0.03424541
0003a0 86 f4 06 3d 7b fa bd bd ec ad 20 bd 14 46 b5 3c
       0.03294804 -0.09276291 -0.039228365 0.022128142
0003b0 4b 0f a7 3c 26 01 a5 3d 74 8c 91 bd cf 21 a9 bc
       0.020393034 0.0805686 -0.071068674 -0.020646004
0003c0 f0 b4 97 bd 21 dd c3 3c 09 f2 79 bd 66 b6 fc bc
       -0.07407558 0.023909153 -0.06102184 -0.030848693
0003d0 62 74 11 bd 32 7e 02 bc 13 47 86 bd 3b 54 97 bd
       -0.035511382 -0.007964658 -0.06556525 -0.073891126
0003e0 ff 6f 00 3b c9 db 21 3d 16 4b 4c bd 2d 50 87 bd
       0.0019598005 0.039516244 -0.049876295 -0.06607089
0003f0 2c 96 83 3d 73 d5 ca bc f7 bc c4 bd 30 f7 ab 3c
       0.064251274 -0.024759984 -0.09606355 0.020991892

decoders.0.decoder_net.7.bias f4 [16]
000000 45 ef cc bd dd 51 28 3e e9 5e 10 3e 81 a7 7b 3d
       -0.100065745 0.16437478 0.14098705 0.06143904
000010 09 fd c8 bd fa 02 b1 3d b9 8a 6b 3e 25 4a b6 bc
       -0.098138876 0.08643146 0.23002137 -0.022252152
000020 ae c4 26 bd cc 5f f1 3d fc 36 06 be 0b ee f0 bd
       -0.040714912 0.1178585 -0.13106912 -0.11764153
000030 b6 00 91 bd a9 75 3f bd fc e9 48 bb 4f 1a b8 bd
       -0.07080214 -0.04674307 -0.0030657044 -0.08989393

decoders.0.decoder_net.9.weight f4 [16]
000000 5e d7 77 3f b8 f8 74 3f 99 73 78 3f 4d 5e 75 3f
       0.96813 0.95692015 0.9705139 0.95847017
000010 32 11 75 3f 31 24 77 3f df 2b 75 3f 1b d5 74 3f
       0.9572936 0.965396 0.95770067 0.95637673
000020 cf 83 73 3f d3 58 74 3f 7a b5 75 3f 19 35 74 3f
       0.95123 0.95448035 0.95980036 0.9539352
000030 e6 4b 76 3f d1 f8 75 3f 17 66 74 3f 4e 62 77 3f
       0.9620956 0.9608279 0.95468277 0.96634376

decoders.0.decoder_net.9.bias f4 [16]
000000 8e 44 ab 3c 7d aa 21 bd a1 1a 9e bd b2 49 f4 bd
       0.020906713 -0.03946923 -0.07719923 -0.11928119
000010 54 75 da 3d a3 1e 01 bd 6a b7 18 be 56 46 32 3e
       0.1066691 -0.031523358 -0.14913717 0.17409644
000020 6d 30 65 3e 6e b3 86 3d 65 8d e0 3d 11 6c bf bd
       0.22381754 0.06577192 0.10964469 -0.09346784
000030 c4 bc 0d be 55 eb 8a bd 61 e9 61 be 48 0c ed 3d
       -0.1384154 -0.06783167 -0.22061683 0.11574608

decoders.0.decoder_net.9.running_mean f4 [16]
000000 e6 1a 64 3d 0b 81 97 3d b2 7d 8c 3d c2 48 83 3d
       0.055689715 0.0739766 0.06859912 0.06410362
000010 d4 28 63 3d 1f 2c 8b 3d fa 32 a6 3d a4 72 79 3d
       0.05545886 0.06795525 0.08115192 0.060900345
000020 b4 68 7e 3d 35 b4 8b 3d 2e b6 67 3d 56 bb 65 3d
       0.06211157 0.06821481 0.056570224 0.05608686
000030 40 16 6c 3d 53 9d 71 3d 8f 5e 6f 3d 72 a7 5d 3d
       0.057638407 0.058987927 0.058439787 0.054114766

decoders.0.decoder_net.9.running_var f4 [16]
000000 5f 16 8e 3a 0b 4e b1 3a 1b 5c 8c 3a 2d e0 4f 3a
       0.0010840407 0.0013527287 0.0010708602 0.0007929828
000010 ef ad 2a 3a 34 8b a1 3a 31 56 d0 3a 24 be 75 3a
       0.00065109035 0.0012324811 0.0015894828 0.00093743415
000020 70 f0 73 3a 07 69 6c 3a 13 68 4f 3a ae f6 2b 3a
       0.00093055423 0.0009018336 0.00079119316 0.00065598905
000030 2f 80 28 3a c4 34 71 3a 07 76 2c 3a cd 87 0c 3a
       0.0006427792 0.0009201283 0.0006578867 0.0005360812

decoders.0.decoder_net.10.weight f4 [16, 1, 3, 3]
000000 58 a5 77 3e 95 de 00 3d 05 e6 4e 3d 1f a8 c8 bd
       0.24184167 0.03146227 0.050512332 -0.097976916
000010 d5 37 9c 3d 84 34 cf 3d 88 68 45 3e 7d 43 88 bd
       0.076278366 0.101174384 0.19278157 -0.06653497
000020 1b 52 8b 3e d7 a8 02 be 80 04 8f 3d d5 b2 bc bd
       0.2721108 -0.1275972 0.0698328 -0.09213797
000030 96 b9 1e 3e 79 54 86 be 9a bb a0 bc db 03 5d be
       0.15500483 -0.26236323 -0.019620705 -0.21583502
000040 2c 7b ce bd 64 50 8f be 6b d3 75 be 4d ae 10 be
       -0.10082087 -0.2799102 -0.24006431 -0.1412899
000050 ef 5d b2 3d 9d 24 38 3d 64 93 67 be bb 37 6b be
       0.08709323 0.044956792 -0.22614819 -0.22970478
000060 b0 a9 8f be c5 92 72 3e b7 4f 7f bd 73 f2 90 bd
       -0.2805915 0.236888 -0.06233188 -0.070774935
000070 6b b8 10 be 32 23 0a be ec 41 2f 3e d9 ca 1e be
       -0.1413285 -0.13489988 0.17114991 -0.15507068
000080 0a 16 29 3e b7 d5 89 3d 8f f8 76 be d5 e9 1e 3e
       0.16512313 0.06730216 -0.24118255 0.15518887
000090 99 1a 6a 3e 7a 7e 09 3d a0 31 b1 bd f5 2d 5a 3e
       0.22861709 0.033567883 -0.08652043 0.21306594
0000a0 9c 05 5c 3e aa 1d 4d 3b 02 c6 c4 3d 97 51 1b 3e
       0.21486515 0.0031298199 0.096080795 0.15167843
0000b0 44 c5 22 3d 9c 40 84 be 8e b5 a5 bd 52 10 7b bd
       0.03973891 -0.25830543 -0.080912694 -0.06129486
0000c0 f3 c9 50 be 41 09 0e 3d 2e 29 fc 3c c9 b8 bb bd
       -0.20389538 0.034676794 0.030781355 -0.09166104
0000d0 46 8f a0 3d 7d b4 b5 3d 63 a4 a8 bd a9 34 95 3c
       0.07839827 0.08872316 -0.08234479 0.018213587
0000e0 c0 53 46 3e 75 8f 06 3e 43 16 e5 bd 8f 5b 92 bd
       0.19367886 0.13140662 -0.11185887 -0.0714637
0000f0 ef 21 ef bd 92 00 1b be b3 d0 0f bd fc e9 9b be
       -0.11676394 -0.15136936 -0.03511114 -0.30451953
000100 9e cc 9a bd c4 30 73 3e bf f9 ed 3c 7e 67 12 3e
       -0.07558559 0.23749071 0.029049752 0.14297292
000110 6e c6 9e 3e 0a fc 8f be 62 18 76 3e 7a 93 0d 3e
       0.31010765 -0.28121978 0.24032739 0.13825789
000120 37 ec c4 bd 3a 53 78 bc 19 ad 2c be 9d 95 69 be
       -0.09615367 -0.0151565615 -0.16862907 -0.22810979
000130 1b 9d 9a 3e 2b de 7d 3e a1 17 fa ba d3 a7 d4 3d
       0.30197987 0.24791782 -0.0019080528 0.103835724
000140 98 3b f8 3d 29 89 c6 3c 93 78 02 3d 8f 4d b7 bc
       0.121207416 0.024235325 0.03185327 -0.02237585
000150 17 8e 9c 3e a8 99 04 be bd b4 84 3d 22 15 34 3e
       0.30577156 -0.1294924 0.064797856 0.17586187
000160 f8 9e b1 3d 07 37 e2 3d 9f e4 6a 3e 64 82 39 3e
       0.08672899 0.11045652 0.22938775 0.18116146
000170 0d b2 25 3c 5e 09 2e be f0 4c 2c 3e 26 ef 0e bd
       0.010113251 -0.16995761 0.16826224 -0.03489604
000180 16 2f fd bd 16 f2 7f 3e 28 62 35 3e 66 4a a5 bd
       -0.123624966 0.24994692 0.17713225 -0.08070831
000190 15 9f e1 3d 17 a8 8d 3d aa 31 2e be 99 9d 4c be
       0.110166706 0.06916826 -0.17011133 -0.19981994
0001a0 46 c4 76 bd 18 ba 2e be ee 18 39 be 82 02 81 be
       -0.060245775 -0.17063177 -0.18075916 -0.25197226
0001b0 aa c0 6a 3e 40 d6 ce 3c 1a e7 4b be cb b3 23 3c
       0.22925058 0.025248647 -0.19912377 0.009991596
0001c0 75 2e 7d be 07 c8 74 be 65 7f 0f 3e 18 82 1e be
       -0.24724753 -0.2390443 0.14013441 -0.15479314
0001d0 e3 5d f9 bd f9 13 4e be 0b c3 36 be a9 84 50 be
       -0.121761106 -0.20124806 -0.1784784 -0.20363106
0001e0 03 f5 99 be 43 49 21 be 49 96 1a 3e 15 5e cf 3c
       -0.30069742 -0.15750603 0.15096392 0.025313416
0001f0 6c f7 28 3e 15 5f 85 be 8f 0c 6e be 4a 35 aa 3d
       0.16500634 -0.26049104 -0.23246978 0.08310945
000200 e2 c6 e0 3d 37 91 14 be 8d 97 4b be 88 a9 33 bc
       0.10975434 -0.1450852 -0.19882031 -0.010965712
000210 9c a7 4c be 51 47 05 be cd d5 61 3e cf cb 29 be
       -0.19985813 -0.13015486 0.22054215 -0.16581653
000220 45 fa c3 3d be a1 6a 3e 82 f4 07 3e 0e 0c 34 3e
       0.095692195 0.22913262 0.13276866 0.17582723
000230 46 a7 71 3e 26 7a 2c 3e 74 aa 78 3e 00 cf 88 3c
       0.23598966 0.16843471 0.24283773 0.016700268

decoders.1.decoder_net.0.weight f4 [512, 2]
000000 f1 fb 70 3d b2 65 ed be d9 d1 ea 3e 7a 9a b8 be
       0.05883402 -0.4636665 0.45863226 -0.36055356
000010 a7 ed 2d 3e 78 e3 e9 3d 5c 8d 1c bd d8 b4 80 be
       0.16985188 0.11420339 -0.03822075 -0.25137973
000020 87 d9 c6 be eb a6 06 3f 21 b8 e9 be 85 b7 15 3f
       -0.38837835 0.52598447 -0.45648292 0.58483154
000030 29 82 72 3e e9 8c 7c be 58 93 bb be 37 ef 07 bf
       0.23682465 -0.24663128 -0.36635852 -0.5309939
000040 c3 85 ff be 1a 71 14 be f5 77 30 3f bc 3e ee 3b
       -0.4990674 -0.1449627 0.6893304 0.007270662
000050 38 5d 54 be a1 39 a8 3d a4 0d ec 3e 8c 06 18 bc
       -0.20738685 0.08214117 0.46104157 -0.009278905
000060 84 ac 5c 3e f4 48 ca 3e 24 0c 34 be db 7b 15 3e
       0.21550184 0.39508784 -0.17582756 0.14598028
000070 1c 27 1f 3f 13 3c 0f 3f 82 14 95 3e 68 51 34 bf
       0.6216905 0.5595104 0.2911721 -0.70436716
000080 5c bd 46 3e 16 b9 ab 3d 2c 26 ae be 75 88 7f bb
       0.19408172 0.08384912 -0.34013498 -0.0038991247
000090 2c 91 f1 bd 86 9d 7e be 1e f3 a7 3d a3 70 03 3f
       -0.117952675 -0.24864778 0.08200668 0.51343745
0000a0 20 fc 14 bf 73 02 02 bf ef 14 00 3f fd ba 27 3f
       -0.5819721 -0.5078499 0.5003194 0.65519696
0000b0 a0 14 c1 3e c5 06 10 3f be 5e 80 be df 05 19 3e
       0.37711048 0.5626033 -0.25072283 0.14943646
0000c0 00 5e c5 be ac 05 2c 3f 43 35 da be b8 ad 05 bf
       -0.3854828 0.67196155 -0.4261876 -0.522182
0000d0 ad f4 b2 be 84 c4 01 3f bd 29 26 bf 1f 3c ad 3e
       -0.34952298 0.50690484 -0.6490744 0.3383493
0000e0 71 ca 90 be f6 eb 20 3c bb 43 e3 bd e1 af 1f 3d
       -0.2827945 0.0098218825 -0.11096903 0.03898609
0000f0 29 ce d8 be d1 29 c5 be ad 7f 23 3f f5 e2 c7 bd
       -0.42344788 -0.38508466 0.6386669 -0.097600855
000100 ff c9 f8 be c8 1a 0a 3e 24 76 fc be 66 5f 99 3e
       -0.4859161 0.13486779 -0.49308884 0.29955596
000110 f8 85 16 3f 23 28 f2 bc 35 c6 fd 3e c6 5f 01 be
       0.5879817 -0.029560154 0.49565282 -0.12634191
000120 65 d9 91 3d 8e 48 7b 3e 01 f2 66 3e 44 a2 fe be
       0.07121543 0.24539396 0.22553255 -0.49733174
000130 f8 5e ef 3e 16 9e f6 3e 9b 5e a5 3d a0 1d d1 3e
       0.46752143 0.48167485 0.08074685 0.40842915
000140 32 23 89 bb b3 f9 ae 3e b3 d4 f2 bd 2e 78 4d be
       -0.004185104 0.3417488 -0.118569754 -0.20065376
000150 c6 af 1a 3f a6 e9 ee be aa 12 f4 3e cc 37 b8 3e
       0.6042446 -0.46662635 0.4767049 0.3598007
000160 a3 84 d5 3e 9d 42 58 3e bc 98 d2 be 29 8f 28 bf
       0.41702756 0.21119161 -0.41132152 -0.65843445
000170 ab ee d0 be f1 ae 15 bf d1 85 9d bd e9 15 5a bc
       -0.4080709 -0.58470064 -0.07691539 -0.013310888
000180 4d b3 2a be a4 44 8c 3e 42 8f 32 be 2c 69 c3 be
       -0.1666996 0.2739612 -0.17437461 -0.38166177
000190 fb 8a a2 be 9f 7b 11 bf a5 c6 21 3f 60 72 15 be
       -0.3174666 -0.56829256 0.6319373 -0.14594412
0001a0 5c dd 25 3f f2 42 8c 3e 9b 59 02 bf 27 80 02 bf
       0.6479089 0.27394825 -0.5091798 -0.50976795
0001b0 1e 2e 44 3f 0b 35 35 3f 4a a9 9e 3e 7d 0e 09 bf
       0.7663287 0.7078406 0.30988532 -0.5353773
0001c0 6e ae 78 3e 39 3f 6e 3e 4b 7f 15 bf bb 12 14 bf
       0.2428529 0.23266305 -0.5839736 -0.5784108
0001d0 69 dc 29 bf fd f5 c9 3e e0 29 03 bf d4 71 09 bf
       -0.66351944 0.39445487 -0.5123577 -0.5368931
0001e0 56 b9 9c be d6 87 1e bf 6e 6b ac 3e f2 9e eb 3e
       -0.3061015 -0.6192602 0.33675712 0.46019703
0001f0 01 51 cd be 27 79 ec be 6e cd 40 3e e1 02 32 bd
       -0.40100864 -0.46186182 0.18828365 -0.043459777
000200 06 00 b7 3d 6b f1 9e 3e c2 ea 33 bf d1 a8 bb be
       0.08935551 0.31043562 -0.70280087 -0.36652234
000210 16 e0 0e bf 78 69 bf be d4 4b 4d 3e 82 b9 2b 3f
       -0.5581068 -0.37385154 0.20048457 0.6707994
000220 48 77 16 3e 6f 09 ed be 54 df bd 3e 5e 1f 2d bf
       0.1469394 -0.4629626 0.37084448 -0.6762599
000230 4a f2 2b 3d 84 f9 f6 be a9 ff d6 be 73 61 0d be
       0.04197911 -0.4823724 -0.41991928 -0.13806705
000240 a1 53 cf bb ed 9a 1a be e9 11 d8 3e a5 3d 98 3e
       -0.006327108 -0.15098162 0.42201164 0.2973453
000250 7a 93 e9 3e 47 db 24 3e b6 7a d4 3e 0f 09 d7 bd
       0.45620328 0.16099273 0.4149987 -0.10499775
000260 0c 1b 3c 3d c9 5c 2d bf 08 39 42 3f 0e 93 77 3e
       0.04592423 -0.67719704 0.7586827 0.2417719
000270 cb dd 41 3e 18 49 31 3e 57 cf a3 be ed 41 04 3f
       0.18932264 0.1731304 -0.31994125 0.51663095
000280 14 06 5c 3e 75 67 d3 3e fc 38 55 bd 2c ac 05 3f
       0.21486694 0.4128987 -0.052056298 0.5221584
000290 04 35 c6 3e 48 a5 01 3e 34 ff 95 be 79 0d af be
       0.38712323 0.12660706 -0.29296267 -0.34189966
0002a0 7c 57 3b 3e 6e 91 ef be 35 e6 b8 3e b5 f5 91 3e
       0.18295091 -0.46790642 0.36113134 0.28507772
0002b0 13 ec 5a 3e f1 59 01 3f 0f 2d 2d 3f 1d c8 d7 be
       0.21379118 0.50527865 0.6764688 -0.42144862
0002c0 60 4f b4 be 0e 0f 31 bd 3a d9 03 be 72 5a d3 be
       -0.35216808 -0.043227248 -0.12875834 -0.41279942
0002d0 14 16 24 be 56 63 3c bf 76 d8 97 3e 32 ce c4 be
       -0.16024047 -0.73589075 0.29657334 -0.38438565
0002e0 fd 98 a0 be 13 22 02 3f a7 7e 06 3f 01 3f 1b 3f
       -0.3136672 0.50833243 0.52537006 0.6064301
0002f0 49 e1 fb 3e ef a4 fb 3e 15 61 dd be 5f 75 e1 bd
       0.49195316 0.49149272 -0.4323813 -0.11008715
000300 01 c1 a8 be ac b5 7f be e7 04 2f bf 2d 1b 0f bf
       -0.3295975 -0.24971646 -0.68366855 -0.5590084
000310 a9 b7 05 3f 56 06 1d 3f c7 46 da be 9a 58 ce be
       0.5223337 0.6133779 -0.42632124 -0.40301973
000320 0c e2 4a be a0 38 27 bf 38 2f f8 3e e3 e1 23 3f
       -0.19812793 -0.6532078 0.48473525 0.6401655
000330 5d ad 01 be bb 7b 04 bf a6 29 9e 3e 07 42 54 3d
       -0.12663789 -0.517513 0.3089115 0.05182078
000340 bf 05 28 bf 26 69 10 3f a5 a0 0a 3e 6f a9 07 bf
       -0.6563377 0.56410444 0.13537844 -0.5299291
000350 ff 7e 4d 3f 72 d1 2d 3e ad 11 e0 3e be 00 05 3f
       0.80271906 0.16974428 0.43763486 0.5195426
000360 e0 29 02 3f e8 89 de 3e ef 4a d3 3e 1c 3f 34 3f
       0.50845146 0.4346459 0.41268107 0.704088
000370 16 a6 47 be 1d 9a eb bd ec c5 eb bd 00 42 ec be
       -0.1949695 -0.11504004 -0.1151236 -0.46144104
000380 80 22 fa be ea 51 40 be 6f 0b 8f bd 8b e6 04 bf
       -0.48854446 -0.18781248 -0.06984603 -0.5191428
000390 5a a3 27 bf 65 e8 8a 3e 9b d2 df 3e a6 82 5f be
       -0.6548363 0.27130428 0.43715367 -0.21827182
0003a0 6b a8 d6 be 53 7b fe 3e f6 45 05 be 25 fb ed be
       -0.41925368 0.49703464 -0.13014969 -0.4648067
0003b0 89 06 31 3f d2 54 11 bf e3 10 af be f3 90 fd 3e
       0.69150597 -0.5677005 -0.3419257 0.4952465
0003c0 bf 3a a7 be 83 1f 28 bf b6 85 12 bf 2c fe 31 3f
       -0.32662007 -0.65673083 -0.57235277 0.6952846
0003d0 9d fd 2a 3f f6 91 ab 3e 02 e4 61 bb 15 c5 1c 3e
       0.66793233 0.33509797 -0.0034468179 0.15309556
0003e0 0c cd e1 3e 4f 44 de bc d3 33 06 3d 3b 70 dd 3e
       0.4410175 -0.027132181 0.032764267 0.43249688
0003f0 11 09 d9 3e e8 84 79 3e 65 31 15 bf 19 4f dd bd
       0.4238973 0.24367106 -0.58278495 -0.10806102
