Project2/models/model_4_5.pt (torch, 357003 bytes, 94 tensors)

prior.mean f4 [2]
000000 00 00 00 00 00 00 00 00
       0.0 0.0

prior.std f4 [2]
000000 00 00 80 3f 00 00 80 3f
       1.0 1.0

decoders.0.decoder_net.0.weight f4 [512, 2]
000000 3d 57 04 3f 4c 9c 55 be 06 76 fa 3d 61 e3 99 be
       0.51695615 -0.20860404 0.122295424 -0.3005629
000010 e0 f6 18 bf cb 04 9d 3e c8 f6 f3 3e 3c 02 2f 3f
       -0.597517 0.3066772 0.47649217 0.68362784
000020 25 2b 15 bf 93 3f 36 bf 5e 45 be be 60 45 3a bf
       -0.5826896 -0.71190757 -0.37162298 -0.7276211
000030 96 dc e5 bd bc 39 ee 3e 70 cb 88 3d a5 af 3d bf
       -0.11223714 0.46528423 0.066794276 -0.7409614
000040 04 c2 5f bd 85 8d aa be b5 4e 12 bd 05 37 cf be
       -0.054628387 -0.33311096 -0.035719592 -0.40471664
000050 ed be 11 3f a0 7f 05 3f 39 3b 20 3f c4 b7 af bd
       0.56931955 0.52147865 0.62590367 -0.085799724
000060 a2 b3 17 3f 30 0b 15 be 60 90 18 be 32 ae a0 be
       0.5925847 -0.14555049 -0.14898825 -0.313829
000070 6c 7e 38 bd 3a 4d 29 3f 1b b2 eb 3e 56 dd c8 be
       -0.04504244 0.66133463 0.4603432 -0.39231366
000080 26 20 93 3e 81 d2 d6 be 16 42 7a bd 04 70 5d be
       0.28735465 -0.41957477 -0.06109818 -0.21624762
000090 2d cc 01 bf e5 af 8e be ee 89 35 be 56 a3 cc 3c
       -0.5070217 -0.27868572 -0.17728397 0.024980228
0000a0 db 18 37 3e 24 86 21 3f cb 06 20 3f df 32 01 3f
       0.17880575 0.6309531 0.62510365 0.5046825
0000b0 b7 7a e5 3d d6 63 22 bf 25 38 08 be e9 28 e1 bd
       0.112050466 -0.6343359 -0.13302667 -0.10994131
0000c0 3a 3b 16 3c 78 45 ba 3d f7 ee 49 3f 22 cc 25 bf
       0.009169394 0.09095281 0.78880256 -0.64764607
0000d0 8f 3f 1b bf e0 d4 3f bf dd cd d4 3e 35 31 03 bf
       -0.6064386 -0.74934196 0.4156331 -0.5124696
0000e0 be 4e 08 bf c8 67 67 3d 81 4b 0b 3e 41 f5 0a bf
       -0.5324515 0.056495458 0.13603021 -0.5428048
0000f0 8c d2 22 be b1 47 9b be e9 b1 83 3e e2 03 e1 be
       -0.1590063 -0.30328134 0.25721672 -0.43948275
000100 7c da 72 3e 9c 17 0d bf d0 b6 0f bf 36 15 9a be
       0.23716158 -0.5511415 -0.56138325 -0.30094308
000110 14 04 43 be 6b 40 a0 3e 3b f9 02 3f 1c bd a2 be
       -0.19044524 0.31299147 0.51161546 -0.31784904
000120 e5 77 20 be 29 59 13 3f d3 34 03 bf 14 c2 29 3f
       -0.15670736 0.5755792 -0.5125248 0.66311765
000130 45 d4 25 be dc 1a f2 be 18 9f bf be 2e c3 a4 be
       -0.16194256 -0.47286117 -0.37426066 -0.3218016
000140 35 17 7b be 66 9e 03 3f bc 9c 87 be 75 cf 0c 3e
       -0.24520572 0.5141357 -0.26486766 0.13751014
000150 b4 d8 9b 3e 16 72 0f 3f 31 ab 32 be e9 91 ad 3b
       0.3043877 0.56033456 -0.17448117 0.005296935
000160 1f 43 82 3e fa d8 d1 be 74 0c ad 3e e0 22 f3 3e
       0.25441834 -0.40985852 0.33798563 0.47487545
000170 8f e8 24 3f 1c 18 bf 3e 96 6e 0f 3f 47 14 9e 3e
       0.64417356 0.37323081 0.56028116 0.30874845
000180 57 7b 9e 3e 3e 88 cc 3e f0 14 09 bf 9a ae 23 bf
       0.30953476 0.39947695 -0.53547573 -0.63938296
000190 8f a0 e7 be 0c 33 92 3d 2b c4 95 3e 24 dc b8 be
       -0.45239684 0.07138643 0.29251227 -0.36105454
0001a0 e3 54 46 3d 70 49 80 3e d3 cb 3e 3e 51 dc 8b 3e
       0.048420798 0.25056028 0.1863244 0.27316526
0001b0 2a e9 50 3e 11 f9 fd 3d ea d7 7d be 59 0d 1d be
       0.20401445 0.12401021 -0.24789396 -0.15337123
0001c0 e0 45 1e 3f ad 11 7a 3e 8f 33 2d bf 33 3d dc bd
       0.6182537 0.24420805 -0.676568 -0.1075386
0001d0 9f be 21 3e 61 28 3c bf ae e4 fa be 33 73 ce bc
       0.15795372 -0.73499113 -0.49002594 -0.025201416
0001e0 91 57 03 bf 7f d3 2e 3f de 72 99 3e 68 24 23 be
       -0.5130549 0.6829147 0.2997045 -0.15931857
0001f0 24 4c 4e 3c 58 0a fb 3d 86 1f c4 bd 24 b7 c7 be
       0.0125913955 0.12257832 -0.09576325 -0.39006913
000200 84 ae 50 bc 45 a6 af 3e e8 2f 16 3e 71 a2 49 3e
       -0.01273692 0.3430654 0.14666712 0.19690873
000210 85 82 25 3f 52 81 91 3d 9c 27 37 be 6b 2d 12 bf
       0.6465228 0.07104744 -0.17886204 -0.5710055
000220 07 2e e0 be 1f dc 98 ba ee a5 16 bf 5b ab 94 be
       -0.43785116 -0.0011662281 -0.5884694 -0.29036984
000230 41 22 0d 3f 85 a7 b2 3e cd fb da be 89 03 cb be
       0.5513039 0.34893432 -0.42770234 -0.39651135
000240 f7 4b ff be 13 c0 96 bd bf 38 0a bf dd fd a2 be
       -0.49862644 -0.07360854 -0.5399284 -0.31834307
000250 bd a1 33 bf 26 62 fc be 2d 6a f2 3e 78 18 d2 3e
       -0.7016867 -0.4929363 0.4734663 0.41034293
000260 e8 43 e4 3e 8b bd 24 3f e4 80 2e bf 98 2a f3 be
       0.44583058 0.6435172 -0.6816542 -0.47493434
000270 05 69 d0 3d 72 ca 8d be e3 b9 1b bf 4c 89 1f 3f
       0.10176281 -0.27693516 -0.60830516 0.62318873
000280 d6 37 c2 be b3 ae 92 bd 79 79 b8 be 17 0f 1a bf
       -0.37933224 -0.071622275 -0.36030176 -0.60179275
000290 9b e1 10 be 55 af 05 3f 73 17 a1 3d 2b a1 24 3e
       -0.14148562 0.5222066 0.07865801 0.16077106
0002a0 da ee 39 3e 6a 8c d3 be 10 29 a3 3e 7e 2a 2c bf
       0.18157521 -0.41318065 0.31867266 -0.6725234
0002b0 c5 51 ed 3e ed b8 ca 3e 66 5d 0e be 6a 42 02 3f
       0.46351448 0.39594212 -0.13902816 0.5088259
0002c0 72 bd d7 3e b7 9f 05 3c a0 0c 21 bf 28 b8 16 3e
       0.42136723 0.008155755 -0.6290989 0.14718688
0002d0 f8 8d 7b 3e a9 40 62 bd 01 c9 c3 be 91 87 9b 3e
       0.24565876 -0.055237446 -0.3823929 0.30376866
0002e0 7d d5 17 3d 20 ee 32 be 39 0e 99 3e 17 3b 4c be
       0.037068833 -0.1747365 0.29893664 -0.19944416
0002f0 2a 44 8d bc c3 17 6a 3d 8c 2e 00 3f c6 3b b9 3d
       -0.017244417 0.057151567 0.50071025 0.09044604
000300 57 52 e5 3e f7 e9 65 be ed 3d e5 3e 4e 5d d6 3d
       0.44789383 -0.22452532 0.44773808 0.10467015
000310 6a 4b f0 3d 79 3d d8 3e f5 0c 41 3f 9d f4 d2 3e
       0.11733134 0.422344 0.75410396 0.4120225
000320 1c 7f a9 3c 63 90 29 bf 54 ce c4 3e ad d0 0e 3f
       0.020690493 -0.6623594 0.38438666 0.55787164
000330 0c 01 60 be 55 18 d6 3e f0 f0 cd 3d 28 22 10 3f
       -0.218754 0.4181544 0.10055721 0.5630212
000340 ac 40 54 be 80 ab ce 3e b4 ba 33 3e 95 74 21 bd
       -0.20727795 0.4036522 0.1755169 -0.039417822
000350 41 a5 4e 3f e5 3d 08 3d 5e b1 18 3f b7 a1 02 be
       0.8072091 0.033262152 0.5964564 -0.12757002
000360 3c 81 2e 3f d7 f3 38 3f af d2 90 be d9 db c5 3e
       0.68165946 0.7224707 -0.2828574 0.38644293
000370 af fc b4 3e b8 27 5f 3c 6b 0d 18 bf 56 b4 53 bd
       0.35349032 0.0136203095 -0.59395474 -0.051685654
000380 6d c3 06 3f a2 ee cc 3e b2 c1 d2 3d 75 2e 39 3f
       0.52641946 0.40025812 0.10290851 0.7233651
000390 e0 01 ba be f1 15 7b bd 79 02 00 3f 35 21 b4 3e
       -0.36329556 -0.06130022 0.5000377 0.35181585
0003a0 4f 71 ab 3e a2 82 fa 3e 46 20 38 3f 3b b8 0c 3f
       0.33484885 0.4892779 0.71924245 0.54968613
0003b0 b9 ed 8c 3e ef 91 e6 3e 3c 43 81 3e 2c 08 d3 be
       0.27525118 0.45033213 0.25246608 -0.41217172
0003c0 79 61 19 be e8 a0 08 3f ef 52 e7 3d ca ae a8 3c
       -0.14978589 0.53370523 0.11295115 0.020591158
0003d0 56 b1 16 3f 7a 64 07 3e 0c e5 a1 be 7b 70 2b 3f
       0.58864343 0.13221923 -0.3162006 0.66968507
0003e0 4e 91 ec bd 86 c7 0e be 9f 20 60 3e 80 89 ae be
       -0.11551152 -0.139433 0.21887444 -0.3408928
0003f0 39 a7 c0 bc 28 c0 f2 3e 14 42 84 3c 1b b5 e0 3e
       -0.023517238 0.4741223 0.01614479 0.43888173

decoders.0.decoder_net.0.bias f4 [512]
000000 2f a0 a8 be 88 39 07 bf 77 af e7 bd b8 93 45 be
       -0.3293471 -0.5282216 -0.11312764 -0.19294631
000010 1c a0 1b 3d d4 c8 d2 3e 36 0e d4 be 32 a9 16 3f
       0.03799449 0.41168845 -0.41417092 0.5885192
000020 3b 6f 9c 3c 3d 60 10 3f a0 1d 1c bf f3 d0 88 3e
       0.019096008 0.5639685 -0.60982704 0.26721916
000030 81 e4 2d 3f 1f 1a 9c 3e 03 1e 0b be bd 4e 13 3e
       0.67926794 0.3048868 -0.13585667 0.14385505
000040 69 06 14 bf a8 21 9c 3e 8d 66 1e 3f 44 03 f0 be
       -0.5782228 0.30494428 0.6187523 -0.4687749
000050 eb 4f 15 be 7b 80 c4 3e 80 ad 26 3f 0e 7c 0b 3f
       -0.14581268 0.38379273 0.6510849 0.5448617
000060 f2 9f ff be 8b 57 2e bf 8e cb 96 3d ea e0 fe 3e
       -0.49926716 -0.6810233 0.07363044 0.4978097
000070 f7 5c 03 3e c1 a8 2b 3e aa c1 0d bf 02 c5 c7 bd
       0.12828432 0.16763593 -0.5537363 -0.09754373
000080 cd e6 ce be 1e 37 29 3e 8e 38 e0 3d 93 4b 07 bf
       -0.40410462 0.16524932 0.10948287 -0.5284969
000090 47 4b db be 07 af ff 3e 32 ca 03 bf 1c 5c cb bd
       -0.4283087 0.49938223 -0.514804 -0.09929678
0000a0 12 f6 4a bd 63 27 8c 3e 22 7f b0 bd 13 73 5e be
       -0.049551077 0.273738 -0.08617999 -0.21723585
0000b0 23 cd f6 3e 6d 69 c5 3e 3a ab 1b 3f 4b 6b e2 be
       0.48203382 0.38556996 0.60808146 -0.44222483
0000c0 f8 56 51 3e 77 ae ef 3e 3d 54 29 bf c2 e5 94 3d
       0.20443332 0.46812794 -0.6614416 0.07270385
0000d0 52 7e 91 be a0 97 c5 3d ea 28 aa bd 0a d3 f5 3d
       -0.28416687 0.09648061 -0.08308585 0.12003143
0000e0 ac a6 19 3f ea 2e a0 be df 0f 40 be 38 1e bb 3e
       0.60019946 -0.31285793 -0.18756054 0.36546493
0000f0 5f 10 f4 bc 53 49 39 3d 0d 71 a4 3e 16 17 5a be
       -0.029792963 0.045235943 0.321175 -0.21297869
000100 fe 47 ef be f5 c9 8a 3d c9 9e 84 3e 35 49 2e 3d
       -0.46734613 0.067768015 0.25902393 0.042550284
000110 ef 2e 21 bf 69 5f c6 3e b9 de ab 3e a3 a0 b5 be
       -0.6296224 0.38744667 0.3356836 -0.3547412
000120 ad b6 22 3f 55 56 3a 3c bb 10 59 3e 50 3f 22 3e
       0.6355999 0.011373122 0.21197788 0.15844464
000130 c6 4b 64 be 8c 7c 3b bf 3d 4e 19 3e f8 f4 f0 3e
       -0.2229453 -0.7323692 0.14971252 0.47061896
000140 c2 98 d8 be a2 66 1f 3f f2 a5 f5 be fd 5b 23 be
       -0.42304045 0.6226598 -0.4797817 -0.1595306
000150 96 d5 8e 3d 09 6c d8 be b1 af cf be 5c 88 90 3e
       0.06974332 -0.42269924 -0.4056373 0.28229034
000160 df 25 1f bf 1c cf 30 3e fb c7 b3 be 1a 37 a7 3d
       -0.6216716 0.17266506 -0.3511351 0.08164807
000170 26 19 c5 be 42 ab 0e bf d9 11 23 bf 26 84 80 be
       -0.3849575 -0.5573007 -0.6369911 -0.2510082
000180 08 26 27 bd b8 eb 71 be cf c1 f8 bc 28 02 fa be
       -0.040807754 -0.23625076 -0.030365853 -0.4882977
000190 51 7d c8 be e1 83 9d 3d f1 14 0f bf d0 c5 99 be
       -0.3915811 0.076911695 -0.5589133 -0.3003373
0001a0 6c 62 12 3f 20 91 28 be d1 89 e6 bc 6a a9 21 3d
       0.5718143 -0.16461611 -0.028141888 0.039468206
0001b0 6a 46 2b 3f be 03 c7 3e 44 a6 2a be 5a 17 c4 be
       0.6690432 0.38870043 -0.16664988 -0.38299066
0001c0 4a 40 12 bf d4 78 f0 3e 02 ce 3d 3f 55 8b 13 be
       -0.5712935 0.46967185 0.7414247 -0.1440862
0001d0 73 54 6f bd 88 f9 d4 be bd f6 1b bf 5d c4 01 3f
       -0.058430146 -0.41596627 -0.6092337 0.5069025
0001e0 7f 1c 2d be fb cc 24 3f 20 a2 54 bd 0a 61 d8 be
       -0.16905402 0.64375275 -0.051912427 -0.42261535
0001f0 24 af be bd 6b f5 db 3e 4e 72 3c 3d 21 d5 99 3e
       -0.09310749 0.42960677 0.046007447 0.30045417
000200 7b 1f dc 3e 3b fe 2e bf 9e 5c a9 be 58 51 b8 be
       0.42992768 -0.68356675 -0.33078474 -0.3599956
000210 17 00 85 be 7c 02 11 bf d7 87 e7 bd 53 dc b8 be
       -0.2597663 -0.56644416 -0.11305206 -0.36105594
000220 a9 38 70 3e af 40 15 be 17 0d b2 be 7b 7b 2b 3f
       0.23459114 -0.14575456 -0.34775612 0.6698529
000230 63 9c f4 3d 07 03 1f 3f 68 37 00 bf 9b e1 a8 3e
       0.11943891 0.62113994 -0.50084543 0.32984623
000240 19 a5 d7 be 23 38 16 bf 5a 8f 51 3e 73 19 36 bf
       -0.42118147 -0.5867941 0.2046484 -0.7113258
000250 cd 42 1e 3f e5 55 35 3f 87 bc e4 3e 50 d2 e3 bd
       0.6182068 0.7083419 0.44675085 -0.11124098
000260 7b f0 fb be 34 79 51 3e 3c 54 14 3f ec bb e4 be
       -0.4920691 0.20456392 0.5794103 -0.44674623
000270 30 7a 0f bd 96 69 82 be 9c 87 ce be 04 22 cb be
       -0.035028636 -0.2547118 -0.40337837 -0.3967439
000280 3a 72 43 bf 9c e8 07 bf 05 41 9f 3e 56 33 22 3f
       -0.7634617 -0.5308931 0.31104293 0.6335958
000290 bd 4e 2e bf 98 96 1a 3f 7e 79 f9 3e f1 62 1a bf
       -0.68088895 0.6038604 0.48725504 -0.6030722
0002a0 80 38 f7 bd c8 55 be be b1 cf 8a bc 23 90 2c bf
       -0.120713234 -0.3717482 -0.016944738 -0.67407435
0002b0 23 53 9d 3e 78 66 c0 3e 83 96 25 bf 00 48 5a 39
       0.3072749 0.37578177 -0.6468279 0.00020816922
0002c0 2e 40 a2 3d e1 b9 a7 3e 8c 58 af bd f9 72 d7 3e
       0.079223976 0.32759002 -0.08561811 0.42079905
0002d0 bf 62 17 3f 4a a8 0a 3e 53 a6 30 3f 8d 33 05 bf
       0.5913505 0.1354076 0.6900379 -0.52031785
0002e0 b5 72 f2 3d 2e df 1d 3d d8 1c 20 bf 25 b1 8c 3d
       0.11838285 0.03854292 -0.6254401 0.06869725
0002f0 e5 85 25 3f 0c 62 97 3e 1e 54 36 be 47 32 91 be
       0.6465743 0.2956699 -0.17805526 -0.2835867
000300 dd b0 a1 3e e7 ee 29 bf 8a 9a fb 3c 6f ff a5 bb
       0.31580248 -0.6638016 0.030713338 -0.0050658504
000310 cb b5 a1 be c9 9c aa 3e 8f 80 1e bd 98 a5 c6 be
       -0.3158401 0.33322743 -0.03869682 -0.38798213
000320 7a d6 03 bf 2d 6f 0b 3f 4e a1 13 3f 4c 4f b0 be
       -0.5149914 0.54466516 0.57668006 -0.344355
000330 dc 55 f6 3e 4d 09 1f 3e 5d 69 12 3f d5 f6 37 3c
       0.4811238 0.15530892 0.5719202 0.011228283
000340 7c 6a 07 bf 28 c8 ef be ed 3c 17 bd 7e 94 22 be
       -0.5289686 -0.46832395 -0.036923338 -0.15876958
000350 fd 50 d7 be 2a e9 31 3f 85 e4 60 3d d0 3e 52 3e
       -0.42053977 0.69496405 0.054905433 0.20531774
000360 9d 7b e7 3d 45 ef c2 be 5d c1 1a bf 21 ed 1a bf
       0.11302874 -0.38073173 -0.604513 -0.6051808
000370 df 6f b7 3e e3 2a 11 bf dd 61 7e be b6 9d d0 3e
       0.35827538 -0.56706065 -0.2484202 0.40745324
000380 6f dd 29 bf 50 18 15 3d 8b a9 42 3f b9 50 c0 be
       -0.66353506 0.03640014 0.7603995 -0.37561586
000390 32 cb 56 3e 76 69 63 3d fe 45 0f bf 12 4b e4 be
       0.2097595 0.055520497 -0.55966175 -0.44588524
0003a0 10 08 2e bf e4 27 b8 3e 91 68 30 bf ad 33 32 bf
       -0.6798105 0.35967934 -0.68909556 -0.696101
0003b0 1d f3 05 3f b4 6b 0c 3f 85 7a ff 3e 96 a8 15 bf
       0.52324086 0.5485184 0.49898162 -0.58460367
0003c0 5c 0f 9a be f8 c9 a8 3d b4 35 b3 3e 17 13 5d bf
       -0.30089843 0.082416475 0.3500191 -0.86357254
0003d0 71 1e 25 be 4a 19 05 3f c2 e9 dc 3e f6 a4 d5 be
       -0.16124894 0.51991713 0.43147093 -0.41727418
0003e0 38 1e e8 3e 22 16 d1 3e 43 d2 28 3f b8 d2 c4 be
       0.45335555 0.40837198 0.65945834 -0.38442016
0003f0 39 53 20 be 39 f4 3d be 90 c0 25 3e a7 cf 3f bf
       -0.15656747 -0.18550195 0.16186738 -0.7492623

decoders.0.decoder_net.3.weight f4 [32]
000000 1d 48 78 3f 57 cc 83 3f 7d 7f 85 3f b1 4a 85 3f
       0.96985036 1.0296735 1.0429531 1.0413419
000010 b2 c3 78 3f 52 62 88 3f 78 9f 75 3f bc 9b 7a 3f
       0.9717361 1.0655005 0.95946455 0.9789388
000020 b3 dc 7c 3f c7 63 83 3f c0 b4 7b 3f 24 45 80 3f
       0.9877426 1.0264825 0.9832268 1.00211
000030 28 ba 81 3f 35 1a 7f 3f 7f c7 80 3f 88 cd 80 3f
       1.0134935 0.99649364 1.0060881 1.0062723
000040 43 c2 7b 3f 14 b9 81 3f a7 5d 81 3f 05 c7 83 3f
       0.98343295 1.0134606 1.0106705 1.0295111
000050 cb 4e 84 3f 33 d5 79 3f 1f e1 78 3f 92 a3 81 3f
       1.0336546 0.9759094 0.9721851 1.0128043
000060 1a 15 7d 3f 2f 87 83 3f af 5e 7c 3f 8b f7 81 3f
       0.98860323 1.027563 0.98581976 1.0153669
000070 11 6e 73 3f 60 38 7b 3f 2d 55 7b 3f 48 1c 81 3f
       0.95089823 0.98132896 0.9817684 1.0086756

decoders.0.decoder_net.3.bias f4 [32]
000000 fe ae 17 3c 8f b3 01 bd fa f1 19 bd de db 08 bd
       0.00925803 -0.03166538 -0.037584282 -0.033412807
000010 a3 ab 4e 3c 98 e7 b9 3b fc 1a 30 bd e5 17 3b bd
       0.012614164 0.00567336 -0.042994484 -0.045677084
000020 cb 2c ec ba 93 7a 0d 3b be 01 75 3d 63 e4 a0 3c
       -0.001801872 0.0021587953 0.059816115 0.019640153
000030 a7 97 44 bd a8 fe b8 bb aa ee 73 3b d1 c9 34 3d
       -0.04799619 -0.0056455918 0.0037221112 0.04413778
000040 83 58 4f 3c 5c 96 73 3c d1 7d 9b 3c 8c ad 20 3d
       0.01265538 0.014867391 0.018980892 0.039228007
000050 39 92 c4 bb 0d 90 c3 bc 49 df 9b bb 9d 16 8b 3b
       -0.0059988764 -0.0238724 -0.0047568423 0.004244639
000060 94 01 b2 bc b5 ab 22 bd 50 50 f5 bb f4 9f ce 3b
       -0.021729268 -0.039714534 -0.0074863806 0.006305689
000070 89 a7 83 3c b2 23 10 3d 5f 44 5a 3b e7 e0 f6 bc
       0.016071098 0.03519029 0.0033304913 -0.030136539

decoders.0.decoder_net.3.running_mean f4 [32]
000000 ef 41 6e 3d 77 aa 66 3d cd fd bd 3c 02 c4 08 3d
       0.058168348 0.05631491 0.02319231 0.033390053
000010 f6 d9 14 3d 44 0a cb 3c dc 9a 68 3c 4a fe a7 3c
       0.036340676 0.024785168 0.014197078 0.020506997
000020 00 69 27 3d e0 9f 01 3d 3a c8 0a 3d 64 7b 20 3d
       0.04087162 0.03164661 0.033882357 0.039180174
000030 34 e9 c9 3c 5b a7 ee 3c 97 fb 1a 3d 3e 37 90 3c
       0.024647333 0.029132536 0.03783759 0.017604467
000040 1f e5 0f 3d 11 62 cb 3c 68 cb f1 3c 48 3c f7 3c
       0.035130616 0.024827035 0.029515937 0.030180112
000050 49 15 f9 3c 08 57 9a 3c 24 fa 9a 3c 59 1f 30 3d
       0.030405657 0.018840328 0.018918104 0.042998645
000060 4a a2 e5 3c 99 0f d2 3c 77 77 f6 3c a7 d6 16 3d
       0.028031487 0.025642203 0.030086262 0.036825802
000070 1b e5 a9 3c 40 cd 20 3d e0 79 2e 3d d5 1b c7 3c
       0.020739129 0.03925824 0.042596698 0.024305264

decoders.0.decoder_net.3.running_var f4 [32]
000000 45 65 f0 3b ee b7 83 3b 46 4e 1e 3a bc 0e f4 3a
       0.007336291 0.004019729 0.00060388853 0.0018620114
000010 21 74 d4 3a a1 ea bf 3a b3 b0 80 39 27 0a 6e 3a
       0.0016208926 0.0014642068 0.00024545714 0.00090804923
000020 8b bd 64 3b 68 ef 09 3b 27 95 21 3b f9 15 f3 3a
       0.0034903015 0.0021047238 0.0024655552 0.0018545977
000030 e6 cb 36 3a 67 36 b9 3a 23 80 e2 3b ba f4 f6 39
       0.0006973132 0.0014130593 0.0069122477 0.00047103112
000040 89 26 d7 3a bc 2e 84 3a f8 af 9b 3a 33 14 a1 3a
       0.0016414683 0.0010084729 0.0011878004 0.0012289345
000050 05 1a 6a 3a cf f3 b5 39 84 37 0d 3a 44 4b 21 3b
       0.0008930269 0.00034704662 0.00053869956 0.0024611512
000060 22 0c 8e 3a 64 03 18 3b d9 14 91 3a 34 d5 1d 3b
       0.0010837356 0.002319538 0.0011068835 0.0024083378
000070 69 f9 6a 3a 63 49 e8 3a 09 c1 03 3b 9f 68 b2 3a
       0.00089635566 0.0017722066 0.0020104072 0.0013611502

decoders.0.decoder_net.4.weight f4 [32, 32, 3, 3]
000000 e4 17 4e bd 4a 3a 24 bd c2 0b 90 3d 08 b3 04 3b
       -0.050315753 -0.04009465 0.070334926 0.0020248313
000010 0f 58 7e 3a 8c eb 11 3d 6e f9 f8 3c 16 ac 7d bc
       0.0009702453 0.035625026 0.030392375 -0.015482923
000020 19 71 41 bd f2 b0 3b 3c ba 96 12 bc 6b 0c 0b 3c
       -0.047227 0.011455761 -0.008947069 0.008486847
000030 34 2b ea 3c d7 8c 80 3c 5f 06 e2 bc 79 c8 3b bd
       0.028585054 0.015692158 -0.027590929 -0.045845482
000040 d6 40 09 bd cd a2 0c ba 3f 9c ad 3d 6c 3f 4d bd
       -0.033509098 -0.00053648354 0.08477067 -0.050109312
000050 85 70 32 3b 15 f2 4a 3a 8e 0b bc 3c 5a 5d 3c bd
       0.0027227711 0.00077417615 0.022954728 -0.045987464
000060 b0 21 98 bd ad 83 1e 3d 8d be df bc 76 b7 3d bc
       -0.074283004 0.038699795 -0.027312541 -0.011579385
000070 4f d2 31 bb 4e ca a0 bb 9e ad 7e bc ee fc bb 3b
       -0.002713341 -0.004906929 -0.015544323 0.0057369387
000080 2f 61 a8 3c 9f ee e4 3c cd 39 d0 bc d2 a2 5b 3c
       0.020554153 0.027945815 -0.025418187 0.013405519
000090 3f 8c b0 3c 83 9a 2e 3d ea d4 80 bc 2a d1 02 bc
       0.02155125 0.042627823 -0.015726525 -0.007984439
0000a0 87 84 92 bd 64 dd 46 bd 69 8f e6 3c 44 d2 b7 3c
       -0.07154184 -0.04855098 0.028144555 0.02243913
0000b0 ba a3 33 3d e3 de 16 bd 2b 35 4a 3c 14 8a 29 3c
       0.043857314 -0.036833655 0.012341778 0.010347862
0000c0 c7 e1 fe bc 33 85 fe bc 8c 51 a6 3d bd 41 b6 3c
       -0.031113518 -0.031069374 0.081210226 0.022248143
0000d0 8f b2 d8 bc 32 f4 13 3c 6a 4f 51 bc 02 b4 35 bc
       -0.02645233 0.009030389 -0.012775281 -0.0110902805
0000e0 cf cf f2 3c 4e 6e eb bc 7d a6 d0 3b 0f b1 f8 bc
       0.029640106 -0.02873912 0.006367503 -0.030357866
0000f0 eb 23 2a 3b 6a f3 75 3d 74 10 22 3c 2c 8c 73 3c
       0.002596135 0.06004659 0.009891618 0.014864963
000100 b2 93 0f 3b ba f9 a4 3c 48 23 6a 3c c8 ff 6b bb
       0.0021908102 0.02013861 0.014290638 -0.0036010612
000110 92 10 ae bc d0 97 ac bc ca a3 33 bd 58 59 19 bd
       -0.021248136 -0.021068484 -0.043857373 -0.03743872
000120 89 28 94 3c c7 a5 e5 3c 9d b6 c2 3c 75 c5 b0 bd
       0.018085735 0.02803315 0.023768717 -0.08631412
000130 5a 8b 8a bd 2e a1 21 3d 99 37 08 3d 52 29 71 3c
       -0.067648605 0.039460354 0.033256147 0.014719324
000140 4f 39 1d bd 41 19 79 bc d1 bd 31 bd de 74 da 3b
       -0.03838473 -0.015203775 -0.043393914 0.0066667637
000150 87 7e 83 3d df 5e 1c bd 49 59 7c bd eb d8 28 3d
       0.064206176 -0.038176414 -0.061608586 0.041222494
000160 74 ba 95 bc b2 ed f3 3c c1 f8 9d 3c ef a1 8f 3c
       -0.018277384 0.029776428 0.019283654 0.01753327
000170 54 21 75 bd 7e 9f 30 3d 2e 56 07 bd b0 d8 00 bd
       -0.059846237 0.043120854 -0.03304117 -0.03145665
000180 7a 69 00 bd 02 a4 3b 3c 0b 38 7a 3a 6d 0d 40 3d
       -0.03135059 0.011452677 0.0009545094 0.046887804
000190 db dc 8c 3c 85 29 25 bd 58 4f 9e bd a0 d9 87 3d
       0.017195156 -0.0403228 -0.07729977 0.066333055
0001a0 6a 49 53 bd 57 55 4f 3d 1b b1 41 3d 71 37 a4 3c
       -0.051583685 0.050618496 0.04728804 0.020045968
0001b0 8d ca e2 bc c6 99 2b 3a 0b cc 37 3a d6 e7 3d 3c
       -0.027684474 0.00065460464 0.0007011301 0.0115909185
0001c0 4a 5d da bc e7 eb 83 bd 02 d3 14 bd 82 f2 14 3c
       -0.026655812 -0.06441479 -0.036334045 0.0090910215
0001d0 2e 3f 26 bb c2 c3 b1 3c 4e 03 01 3d be 69 0d bd
       -0.0025367248 0.02169979 0.031497292 -0.03452467
0001e0 40 99 af bb 5d ff e0 bc d3 9c ab 3c 7e e0 d6 bb
       -0.005358845 -0.027465517 0.020948803 -0.0065575233
0001f0 2c 1e 4a 3c c1 4e d6 bc c2 b0 11 3d ef 8f 6f bb
       0.012336295 -0.0261606 0.03556896 -0.0036554297
000200 c3 d2 1b 3d ff 93 14 3d f9 33 86 3c 55 95 94 bc
       0.038042795 0.036273953 0.016382204 -0.018137613
000210 82 ae c7 bc da 04 b4 bc db 6d c3 3c 82 ff d2 3c
       -0.024375204 -0.02197497 0.023856094 0.025756601
000220 e2 e6 77 3d 93 cb 0d 3d 94 a4 c1 bc 66 7a 53 bb
       0.06052292 0.03461797 -0.023638047 -0.0032269
000230 a3 8e 7a 3c 47 43 27 bd 7a ea 57 3c 69 57 4f 3b
       0.015292796 -0.040835645 0.013178462 0.0031637794
000240 21 09 b6 bd c0 85 a0 3c 0f 05 e0 bb eb 41 31 3c
       -0.0888846 0.019595027 -0.0068365405 0.010818939
000250 40 8f 35 bd f9 5c 51 3d cc d8 bd bc 38 ba 0b 3d
       -0.044326067 0.051114056 -0.023174666 0.03411314
000260 54 71 56 bc 8b f2 3f bb be 59 f7 bc f9 09 13 3d
       -0.013088543 -0.0029288854 -0.03019416 0.035898183
000270 ab 0a 02 bc d6 1a 9f bc 39 f6 00 bd e8 23 cf bc
       -0.007937114 -0.019421976 -0.031484816 -0.025285676
000280 9b e9 1c bd 6e 26 6c 3d d8 d5 41 3c 69 5f d3 3c
       -0.03830872 0.057653837 0.0118307695 0.025802331
000290 e3 1e 46 ba 35 42 32 3d cb 19 64 bd 03 a2 23 bb
       -0.0007557703 0.04352017 -0.05568866 -0.0024968393
0002a0 1f 79 82 3d f7 5d 82 bc 36 af c4 bc 51 6c 51 bd
       0.06370758 -0.015913947 -0.024009328 -0.05112869
0002b0 24 4a 62 bd f1 0e c0 bc f3 4c 92 bc 3d f1 8c 3d
       -0.055246487 -0.023444625 -0.017858958 0.0688195
0002c0 4a 27 2b 3d ed 1e 7a bd 23 81 40 bd 8d b6 2b bd
       0.041785516 -0.06106465 -0.046998154 -0.04192214
0002d0 5c 71 4f bd 64 56 89 bd 7f 6f e0 3a 83 c1 a6 3b
       -0.050645217 -0.06705931 0.0017123072 0.0050889864
0002e0 47 5d da bc c6 97 a3 bd 45 62 f8 3b 7f a6 26 3d
       -0.026655806 -0.07987933 0.007580074 0.040686127
0002f0 e2 3d 48 3d de 36 e2 bc 38 3b 6b 3d 00 e0 b3 3c
       0.04888714 -0.027614053 0.057429522 0.021957397
000300 b5 c6 ab 3c 2a 61 a6 3b 3f 1f fe bb a0 65 1e 3d
       0.020968774 0.005077501 -0.0077551897 0.038671136
000310 ca c4 23 bd 80 ab 65 3c f2 d9 3e 3d a1 eb cf 3b
       -0.039982595 0.01401794 0.046594568 0.006345228
000320 1b af b3 bc 55 04 ed 3c 83 8b a0 bb 86 fe 8e bc
       -0.021934083 0.02893273 -0.0048994436 -0.01745535
000330 8a 4d 88 bd 62 08 a2 bc 51 54 cc 3c 26 00 d4 b9
       -0.066554144 -0.019779388 0.024942549 -0.00040435902
000340 c0 8f 58 3d 09 91 37 bd d0 1d 39 3d 67 f4 9c 3c
       0.052871466 -0.04481605 0.045194447 0.019159509
000350 1e a9 c8 3c 32 38 33 3b 44 07 1f 3d 3b 08 80 3d
       0.024494704 0.0027346727 0.03882529 0.0625157
000360 8b fd 07 bb 4e 3e ef bc 7f 77 71 ba 7b 40 3e bc
       -0.0020750489 -0.029204514 -0.0009211227 -0.011612053
000370 ac 78 af 3c 8f 3d 93 3c 46 e1 67 3b d5 66 0e 3d
       0.021419846 0.01797369 0.0035382076 0.034766037
000380 3e 3a 94 bd c1 44 f6 bb 69 8e 80 3c 9c b2 94 bc
       -0.07237671 -0.0075155203 0.015692906 -0.018151574
000390 e2 da 2d bc 79 92 d4 3c f5 83 bc bb d1 2e 8d bb
       -0.010611268 0.02594875 -0.005753035 -0.0043085595
0003a0 31 8f 12 3d bc 82 1e bd e1 a9 72 bc b0 2f 04 3d
       0.03578109 -0.038698897 -0.01481101 0.03227204
0003b0 0a 8d 5e 3c 8e 98 17 3d d1 af 11 3d 7b 5d 4e 3d
       0.013583431 0.03701072 0.035568062 0.05038212
0003c0 e8 b2 1b bc ee 3e e0 bc ca c1 37 bd b2 b0 9a 3c
       -0.009503104 -0.027373757 -0.044862546 0.018883083
0003d0 6f 19 ff 3c 18 fc e0 3c 9c ea b9 3d a2 f5 ad 3c
       0.031140057 0.027463958 0.09077951 0.02123529
0003e0 f9 57 01 3b d9 83 8f 3d 78 5c bc 3d 80 5c b2 bb
       0.0019736274 0.0700757 0.091973245 -0.0054431558
0003f0 ad b2 0b 3d d2 97 11 bd b3 90 bf bd 42 f8 77 bc
       0.034105945 -0.035545178 -0.09353771 -0.015134873

decoders.0.decoder_net.4.bias f4 [32]
000000 d0 21 b9 3c d4 de 58 bd 94 f0 cd 3c f8 9a a7 bb
       0.02259913 -0.05294688 0.02513913 -0.0051149093
000010 29 a1 c8 3d e9 f8 c6 bb 89 1d 8d bd b5 5f 5f bd
       0.09796364 -0.006072153 -0.06890399 -0.054534633
000020 48 6f 57 bd 3e c1 0b bd 7a 96 bf 3c 4e bd 96 3c
       -0.05259636 -0.034119837 0.023387183 0.018400814
000030 de 3f 67 bd f9 be de bc a3 67 a7 bb c6 68 38 3d
       -0.056457393 -0.027190672 -0.00510879 0.045021795
000040 ee 34 9a bd 4e 44 cb 3d 4a 1b b3 3d d1 5b 30 bc
       -0.07529627 0.099251375 0.08745439 -0.010764078
000050 9e ad a0 3d d0 57 d2 bc 74 df e1 bc 76 4a 45 3d
       0.07845615 -0.025676638 -0.027572371 0.048166715
000060 86 61 0e bd e3 c7 d3 ba 38 74 6b 3b 20 3a 94 3d
       -0.034760974 -0.0016157593 0.0035927426 0.07237649
000070 bb 90 23 bd 4b b3 0d bc 7d da 32 3c 50 93 e3 bc
       -0.039932948 -0.008648704 0.0109163495 -0.027780205

decoders.0.decoder_net.6.weight f4 [32]
000000 25 dd 72 3f d7 66 7d 3f 81 ac 7c 3f 97 57 71 3f
       0.9486869 0.98985046 0.9870072 0.94274276
000010 c0 e6 6b 3f 1f 19 78 3f 81 25 6e 3f e0 d5 78 3f
       0.9214897 0.9691333 0.93025976 0.9720135
000020 de a0 65 3f 9f 9f 6e 3f 33 b0 6d 3f 44 8a 77 3f
       0.8969859 0.9321231 0.92846984 0.9669535
000030 74 d3 6a 3f 7b 80 6f 3f bf 71 7a 3f 08 e7 77 3f
       0.917289 0.9355542 0.9782981 0.968369
000040 9d da 71 3f 75 1c 73 3f b5 46 78 3f ec ab 78 3f
       0.944742 0.94965297 0.9698289 0.9713733
000050 69 dd 75 3f dd 5a 7b 3f f8 29 6b 3f 37 26 7c 3f
       0.9604097 0.9818552 0.91860914 0.9849581
000060 52 54 74 3f d1 11 74 3f 43 a7 76 3f a6 cb 67 3f
       0.9544116 0.95339686 0.9634897 0.9054512
000070 46 73 74 3f df 96 71 3f 6c e2 71 3f 3d ee 77 3f
       0.95488393 0.94370836 0.9448612 0.968479

decoders.0.decoder_net.6.bias f4 [32]
000000 f8 e4 65 bd 0d 2a 1f bc 28 d8 2b bc d5 1d 6c 3d
       -0.056126565 -0.0097146155 -0.010488547 0.057645638
000010 7f 5f 35 3c 2b ff 2e bd 53 3b c3 3c ec 20 a2 3c
       0.011070131 -0.042723816 0.023831999 0.019791089
000020 1c da 16 b9 a3 c8 e1 3c 98 28 8b bd ab aa 24 3d
       -0.00014386367 0.027561491 -0.06794852 0.040201824
000030 13 b0 04 bd 08 37 c6 3c 22 c8 d9 3d 67 11 12 3d
       -0.03239448 0.024196163 0.106338754 0.035661127
000040 4c 50 61 3d 53 8e 0e bd f3 e4 4b bd 34 42 89 3d
       0.055008218 -0.0348037 -0.04977889 0.0670208
000050 b2 b4 a6 bc 11 80 5d bc 92 2b d7 bc 7c 42 fd bc
       -0.020349834 -0.013519303 -0.026265893 -0.030915491
000060 cd b2 ad bc e6 4b bb bc f4 2f 32 bb 14 0a 47 bc
       -0.021203423 -0.02286334 -0.0027189227 -0.012148399
000070 c2 42 f6 39 8d 4b 0f 3d 64 b8 01 bc 45 2c 0c 3d
       0.00046970515 0.03498416 -0.007917497 0.034221906

decoders.0.decoder_net.6.running_mean f4 [32]
000000 27 1a fe 3c 3b c9 f4 3c 91 51 07 3d d4 7d f7 3c
       0.03101833 0.02988111 0.033036772 0.030211367
000010 9c b0 0b 3d 32 b4 fd 3c 1b f4 eb 3c 2f bf ed 3c
       0.034103975 0.030969713 0.028802922 0.029021828
000020 4a 45 fb 3c 6a 71 ff 3c 68 b6 f9 3c 18 4b 01 3d
       0.030672688 0.03118201 0.030482486 0.031565756
000030 17 6d f7 3c 0e 3a fc 3c d4 95 f7 3c 92 e2 07 3d
       0.030203385 0.030789401 0.03022281 0.03317506
000040 17 4d e9 3c 32 8e 06 3d 44 bb 08 3d 3f 0c f2 3c
       0.028479142 0.03285045 0.033381715 0.029546855
000050 7d 20 0d 3d a3 b8 f8 3c 99 7f 02 3d 40 b6 09 3d
       0.03445481 0.03036148 0.031859968 0.033621073
000060 ae 3b f8 3c 7b ae 01 3d 2b 2d fb 3c 39 d6 0a 3d
       0.030301895 0.03166054 0.030661186 0.033895705
000070 22 9c f4 3c fe 61 02 3d 04 3b 03 3d 1e 93 f4 3c
       0.029859606 0.031831734 0.032038704 0.029855307

decoders.0.decoder_net.6.running_var f4 [32]
000000 b3 30 e6 38 ea af 1a 39 ee cc 52 39 08 b2 32 39
       0.000109763256 0.00014752118 0.00020103503 0.00017041725
000010 c1 b6 44 39 40 7f ea 38 f8 1b 0b 39 f8 9f 12 39
       0.00018760098 0.00011181692 0.00013266492 0.00013983238
000020 ae ac 6a 39 48 45 4f 39 2e 4e 25 39 77 dd f5 38
       0.00022380307 0.00019766868 0.0001576475 0.000117237614
000030 08 51 08 39 80 af 12 39 ea d4 40 39 e1 ac 30 39
       0.00013000157 0.00013989024 0.00018389864 0.0001684907
000040 87 05 2e 39 c1 23 40 39 05 a8 5c 39 d3 bc ec 38
       0.00016595992 0.00018323866 0.00021043427 0.00011288528
000050 b9 44 73 39 bd d0 2b 39 da 7f 77 39 de d8 75 39
       0.00023199887 0.00016385592 0.00023603384 0.0002344581
000060 e1 8b 2b 39 80 ca cf 39 f3 bd 1d 39 fc ee 9a 39
       0.0001635994 0.0003963299 0.00015043448 0.00029551226
000070 62 9a 21 39 b2 70 b4 39 9a b0 40 39 de d4 fe 38
       0.00015411669 0.0003441624 0.00018376336 0.000121513134

decoders.0.decoder_net.7.weight f4 [32, 16, 3, 3]
000000 0e 79 9a bd 88 e4 8f bc 84 1f c8 bc d5 9e 6c 3d
       -0.075426206 -0.017565027 -0.02442909 0.05776866
000010 7b e5 93 bd a3 0b 24 bc 8d 0a 1a bd b0 22 97 3a
       -0.07221504 -0.01001254 -0.03760772 0.0011530723
000020 6a ab ab 3d 2c 0e 32 bc 76 86 1b bd 4c d1 8a 3c
       0.08382304 -0.010867637 -0.03797003 0.016945504
000030 56 f1 6f 3c ff a6 ac bc 72 f1 64 3c b7 d2 68 bd
       0.014644941 -0.021075724 0.013973581 -0.05684158
000040 d1 3d f3 3c 77 34 34 bd e9 e5 42 bc 96 d9 fe bd
       0.029692562 -0.043995347 -0.011895635 -0.12443845
000050 38 5c 22 bd 78 4d ef bc 41 6d 83 bb dc ba 35 bb
       -0.039638728 -0.029211745 -0.004010827 -0.0027729785
000060 e3 17 1b ba 10 5c 47 bd 17 5c 9b bd ae 35 de 3c
       -0.000591634 -0.048671782 -0.07585924 0.027125206
000070 c3 1a 38 bd d9 78 9b bc c9 f8 8b bd 2e 8a 52 3c
       -0.044947397 -0.018978523 -0.068345614 0.012850327
000080 29 2a 7b 3c de c8 3d bd 73 d0 99 bd 60 a5 96 3c
       0.015329876 -0.04633414 -0.07510462 0.018389404
000090 62 65 5c 3d d4 1e 0c bd 6a 3d 1b bc 9f 84 a5 3b
       0.053807624 -0.034209087 -0.0094750915 0.00505121
0000a0 4c 7b 27 bd 0a 61 3d 3d b2 9f 16 3c 15 5b 04 3d
       -0.04088907 0.04623512 0.009193348 0.032313425
0000b0 75 18 ab 3d 18 c2 b2 3b ac 60 2c bc 16 58 82 3d
       0.08354274 0.0054552667 -0.010521095 0.06364457
0000c0 dd 44 c5 3c 27 bf a5 3c ff 6f a2 3c e8 b2 bf bc
       0.024080688 0.02023275 0.019828795 -0.023400739
0000d0 12 5d f4 3c 8c c2 d5 bc 19 cd 09 bc 58 b5 e7 bb
       0.029829536 -0.026093744 -0.0084107155 -0.0070711784
0000e0 d8 c7 bb bc 14 80 36 bd 3f 2a 1e 3d a7 3a 88 3d
       -0.022922441 -0.04455574 0.038614508 0.06651812
0000f0 18 a3 2e 3d d1 ab 11 3d ce c3 05 bc 2e a3 bd bc
       0.042636007 0.035564248 -0.008164359 -0.0231491
000100 88 03 9b bc 5d 06 92 3d de 56 08 3c c0 94 f1 bb
       -0.018922582 0.0713012 0.008321492 -0.0073724687
000110 84 5c 55 3d 2a 92 a8 bc 7c a6 bb bc 9b e4 73 3c
       0.052090183 -0.020577509 -0.022906534 0.014886047
000120 92 33 08 3d 62 b1 7c bd c1 5a 5a 3d 1c 1e d6 bc
       0.033252306 -0.061692603 0.053309206 -0.026137404
000130 1c 22 9a bc cf 7d 83 bd 37 2a 91 3c 53 27 22 bd
       -0.018815093 -0.064204805 0.017720325 -0.039588284
000140 67 c5 25 bd e2 42 4e bd 86 72 a5 bd aa 36 a9 3c
       -0.04047146 -0.050356753 -0.08078484 0.020655949
000150 8b fa 3a 3d 5c 42 5b bd 8e bc df bd 48 9e 92 bd
       0.045649093 -0.053530082 -0.10924636 -0.07159096
000160 88 c5 97 bd 95 49 b1 39 88 de 96 3b 08 f6 2f 3d
       -0.07410723 0.00033814894 0.0046041645 0.042959243
000170 40 c1 a1 bd aa f9 76 3c bc 6c 48 bb 93 8c cc 3c
       -0.07898188 0.015074173 -0.003058239 0.024969375
000180 b0 8c 83 bc ac 02 22 3d b5 82 17 bd ca 6a 22 3d
       -0.016058296 0.03955333 -0.036989886 0.039652623
000190 1e bc 96 bd 7e d9 2c 3d b4 01 ff 39 79 2d 66 3d
       -0.07360099 0.042199604 0.0004863866 0.05619571
0001a0 1f a6 00 bd a7 95 c7 3d 3d db dc bc 9f 5c 8c bd
       -0.031408425 0.09745341 -0.02696001 -0.068536036
0001b0 84 c3 28 3d 5d 36 27 3d d7 5e dd 3b 94 89 65 3b
       0.041202083 0.04082333 0.0067556906 0.003502463
0001c0 7c ef a2 3d 7d 5a 53 3b 25 18 3c 3d a8 21 70 3d
       0.07955834 0.003224998 0.045921464 0.058625847
0001d0 99 8d a9 3d f9 33 a7 3c 62 8c 2e bd ab a9 fe bc
       0.08278961 0.020410525 -0.04261435 -0.031086763
0001e0 dd de a9 bc da 2c 46 3d 04 ed 7c bd ee 3d 83 3d
       -0.020736152 0.048382618 -0.061749473 0.064082965
0001f0 cf 92 34 bd fd b6 2b 3b 4f c0 52 bd 16 39 9f bd
       -0.04408532 0.0026201599 -0.05145293 -0.0777456
000200 bf 07 d4 bc 72 21 be 3b 5e 69 f1 3c 1a ce 65 bc
       -0.0258826 0.005802327 0.029469188 -0.014026189
000210 47 2b c0 bc f4 dc 39 3d cf b2 64 bd 74 ed 53 bd
       -0.023458136 0.045376733 -0.055834588 -0.051740125
000220 16 12 8f bd f9 21 fa bc d4 e9 59 bd b3 0a c1 3d
       -0.069858715 -0.030533778 -0.05320151 0.09425869
000230 aa cf 2a bd 30 53 59 3d 11 07 0c 3c c2 16 37 bb
       -0.04170195 0.05305785 0.008546607 -0.0027937149
000240 61 d2 67 bd d8 86 2f bd f8 8c 53 bd 7f 15 a1 bc
       -0.056597117 -0.042853206 -0.05164811 -0.01966357
000250 34 a4 dc bd 52 7d 4f bd 86 67 06 bd f2 f1 3b 3d
       -0.10773507 -0.050656624 -0.03281357 0.045885034
000260 7a 00 bf 3b af d1 f8 bb 9e 21 b2 bc b6 ad d2 bb
       0.005828914 -0.0075933556 -0.021744546 -0.0064293994
000270 e4 c7 a7 bb c6 df 7f bd 15 27 f4 3c 98 75 23 3d
       -0.0051202644 -0.062469266 0.029803792 0.039907068
000280 d0 10 15 bc a8 3c 8d bc 3e 33 91 bd 6b c8 25 3d
       -0.009098247 -0.017240837 -0.07089852 0.040474337
000290 22 36 a3 3d 73 1d 91 bd 26 8a 6e 3d 59 02 5e 3d
       0.079693094 -0.07085695 0.058237217 0.054201458
0002a0 da f6 fc 3c db 1b 4c bd 8e 27 38 bc a9 75 ef 3c
       0.030879427 -0.049831253 -0.011239899 0.02923091
0002b0 b9 e9 81 3a 0a e2 6a bd df dd 1c bd 4a 8c 1f bd
       0.0009911574 -0.057344474 -0.03829753 -0.03895215
0002c0 9a 39 0d bd b0 5f f0 bc 1b 2a cf bd 07 7c 10 bd
       -0.03447876 -0.029342502 -0.10115453 -0.03527453
0002d0 d8 49 3a bc a0 3d 4a 3d d0 fc 93 bd e3 ef d5 bd
       -0.011370145 0.049375176 -0.072259545 -0.104461454
0002e0 73 4e 41 3d 48 b3 09 3d e9 86 75 3d fa 7e 0a 3d
       0.047193956 0.03361824 0.059943113 0.0338125
0002f0 26 40 ae 3d 2e a5 a2 bd c7 18 e9 3d 1b 83 88 bd
       0.08508329 -0.07941662 0.11381679 -0.066656314
000300 b6 69 93 3c f8 34 01 3e 2c b3 d3 3d 00 2b 5e bb
       0.017994743 0.12617862 0.10336909 -0.0033900142
000310 8e 10 b8 3d 6e 0c 99 3c 48 eb 14 3c 5f 95 fa bc
       0.089875326 0.018682685 0.009089299 -0.030588804
000320 78 2f d1 3c 1e 50 96 3c 74 45 82 3c d8 f3 37 3d
       0.02553533 0.01834875 0.015902258 0.044910282
000330 da d1 a3 bc 9f c2 45 bd 6e 17 86 bd 2f ea 38 3c
       -0.019997526 -0.04828131 -0.065474376 0.0112863025
000340 0f c8 e1 bb fa 45 83 bb 1e 3c 61 3d 0e f3 47 bd
       -0.006890304 -0.0040061446 0.054988973 -0.04881578
000350 41 1a 19 3c 77 a3 a9 bd c6 ff 75 bd 29 f1 9e 3d
       0.009344638 -0.082831316 -0.060058378 0.077608414
000360 2d db d3 bb b3 e5 4f bd 5e ad c5 b8 b2 28 28 3d
       -0.006465337 -0.050756168 -9.425984e-05 0.041054435
000370 67 92 7c bd 75 a6 10 bd c2 d6 b2 bd c0 e8 32 bd
       -0.061663058 -0.035314996 -0.08732368 -0.043679
000380 49 58 0f 3d 89 1e 83 3c 51 ca 1a bd 8b 47 02 bd
       0.034996305 0.016005771 -0.0377906 -0.03180651
000390 55 93 5b 3c d9 5d 9d bd 6c 78 5d bc 53 68 fc bc
       0.013401826 -0.07683916 -0.01351748 -0.030811464
0003a0 b2 1f ec bb a1 b0 5c 3d 0b f3 c4 bc 6b 0a 00 3d
       -0.007205927 0.053879384 -0.024041673 0.031259935
0003b0 0b 2c 24 3c 48 b1 67 3c fa 0b 66 ba 27 c5 70 3d
       0.010020266 0.014141388 -0.00087755884 0.05878177
0003c0 da 37 7d bc e0 8a 95 3d 64 38 b8 bb ce 56 98 bd
       -0.015455211 0.07301879 -0.0056219567 -0.07438432
0003d0 c7 72 af 3d 60 58 09 3d 9e e2 b1 3d 82 c1 3a 3c
       0.08566814 0.033531547 0.08685802 0.011398675
0003e0 5b 95 f5 3c a8 9b 7e bd 91 ac 27 bd c8 d2 a3 3d
       0.029978445 -0.062160164 -0.040936057 0.07999188
0003f0 0f a0 0f bd 9a 77 03 bd 4b ff 36 bc 58 e1 4c 3d
       -0.035064753 -0.032096483 -0.011169265 0.050019592

decoders.0.decoder_net.7.bias f4 [16]
000000 8e fd 74 3d 56 0b 53 3d a2 f4 74 3d 3e 16 99 bd
       0.05981212 0.051524483 0.059803613 -0.074749455
000010 7e f4 0a 3e f1 b5 4c be 30 21 97 3b 83 39 90 bd
       0.13569829 -0.1999128 0.0046121106 -0.070422195
000020 d7 06 9a 3e 4f 32 1f 3e 52 15 00 be bc f3 ea 3c
       0.30083343 0.15546535 -0.12508133 0.028680675
000030 d3 06 23 be 16 6f 09 3d a7 99 db bd 2f 3a 48 be
       -0.15920572 0.033553205 -0.10722666 -0.19553445

decoders.0.decoder_net.9.weight f4 [16]
000000 e3 87 75 3f b3 2f 70 3f 82 6e 75 3f 2d 90 75 3f
       0.9591047 0.93822783 0.95871747 0.9592312
000010 5c 75 74 3f da 07 76 3f 20 20 76 3f f5 37 75 3f
       0.95491576 0.9610573 0.9614277 0.9578851
000020 e5 43 77 3f a9 3d 76 3f 2a 36 77 3f da 14 75 3f
       0.96587974 0.96187836 0.9656702 0.9573494
000030 3f 54 75 3f d6 a6 78 3f 1e 0f 76 3f 47 9b 73 3f
       0.95831674 0.9712957 0.96116817 0.9515881

decoders.0.decoder_net.9.bias f4 [16]
000000 c3 43 25 3d 15 65 6b 3d 8d 15 86 bd da b6 1f bc
       0.040347826 0.057469446 -0.06547079 -0.009748185
000010 8f 58 87 bd ab 11 2e bd 41 5a 26 bd dc 57 1c bd
       -0.06608688 -0.04249732 -0.040613417 -0.038169727
000020 64 a4 4d 3d 64 33 ef 3c c0 a6 73 bd 83 4e 99 bd
       0.050205603 0.02919931 -0.059485197 -0.07485678
000030 26 73 45 3d 49 20 3c 3d 9f 0e 3d bd ee db 05 bd
       0.048205517 0.045929227 -0.046156522 -0.032680444

decoders.0.decoder_net.9.running_mean f4 [16]
000000 05 25 8f 3d 3d 82 82 3d 0e af 87 3d 5a 05 68 3d
       0.06989483 0.06372497 0.06625186 0.05664573
000010 d8 78 92 3d cd 8b 57 3d c3 d2 80 3d f4 de 6e 3d
       0.07151955 0.05262356 0.062901996 0.058318093
000020 f6 78 a5 3d 8d 6f 92 3d 3a fc 61 3d cc 3a 84 3d
       0.08079712 0.07150183 0.055172183 0.06456527
000030 24 57 59 3d c6 2d 86 3d b3 2a 68 3d 92 2b 50 3d
       0.05306162 0.06551699 0.056681346 0.050822802

decoders.0.decoder_net.9.running_var f4 [16]
000000 7d df d6 3a 29 96 10 3a 3f 76 73 3a 9c 4d 6c 3a
       0.0016393509 0.00055155397 0.00092873344 0.000901425
000010 0e c7 89 3a e8 36 18 3a ec f9 58 3a 2c 85 31 3a
       0.0010511593 0.00058065215 0.00082769874 0.00067718583
000020 5d bd 2f 3a 12 1e 4e 3a 81 d7 1c 3a 02 33 36 3a
       0.00067039375 0.0007862757 0.00059830403 0.000695035
000030 df b3 f5 39 cb 7d 88 3a a2 d5 39 3a 7d bb db 39
       0.00046864056 0.0010413466 0.0007089024 0.00041910625

decoders.0.decoder_net.10.weight f4 [16, 1, 3, 3]
000000 73 8a 8b be e3 b5 39 be 6d 29 75 3b 58 f8 b2 3d
       -0.27254066 -0.1813579 0.0037408725 0.08738774
000010 3b 86 b8 bc 5c 8b 98 be 9b 13 67 be 4c 46 15 3e
       -0.022524944 -0.29793823 -0.22566073 0.14577597
000020 d9 ac 41 3d 3b d9 18 3d a7 61 81 3e 41 21 9f 3c
       0.04728398 0.037316542 0.25269815 0.019425036
000030 86 cd eb 3d b4 67 0d be 69 0d 91 bd a5 af a2 3d
       0.1151381 -0.13809091 -0.07082636 0.07943658
000040 35 0f 6f bd 68 8b cd bd a3 62 88 be 41 7f 68 3d
       -0.058364112 -0.10036355 -0.26637754 0.056761984
000050 1d 04 4e 3e 3a 35 52 3d 7d a6 ab 3b 5d 93 6b 3e
       0.20118757 0.051320292 0.005238353 0.23005433
000060 42 47 55 3c 6b 53 01 be e3 06 69 bd 9d f7 2c 3e
       0.0130174775 -0.12629478 -0.056891333 0.16891332
000070 92 37 8e be 14 7c 97 be 77 7f 54 3e 5b 6a 55 bd
       -0.27776772 -0.29586852 0.20751749 -0.05210338
000080 fb 9a 74 3e ed 85 09 be 58 bc 87 bd e1 35 ba bd
       0.23887245 -0.13429995 -0.066277206 -0.09092308
000090 59 cd 61 be b3 de 39 be 0c 90 ee 3d 6b 9c f2 3d
       -0.2205099 -0.1815136 0.116485685 0.118462406
0000a0 73 e8 24 be bd 71 23 3e d0 7f 13 be 8f 60 25 3e
       -0.16104297 0.15961356 -0.14404225 0.16150115
0000b0 1e cb 89 bd 8c 27 fe bc e4 a0 25 3e e2 8c a6 3d
       -0.06728195 -0.031024717 0.16174656 0.0813234
0000c0 09 7a 92 3e 10 67 0a 3e a6 f8 0c 3e 91 9d 11 3e
       0.2860873 0.13515878 0.13766727 0.14220263
0000d0 72 f3 87 bd 49 d7 62 3e 72 ed f1 3d bf f1 db bd
       -0.066382304 0.22152437 0.11812867 -0.10739469
0000e0 f4 97 88 bb 5b 37 61 be 7a bf 89 3e 81 11 70 be
       -0.004168505 -0.21993773 0.26903898 -0.23444177
0000f0 0f ef 94 3e 3b cb 06 3d fb e4 11 3e bd 0a e8 bd
       0.29088637 0.03290866 0.14247505 -0.11330173
000100 2b 23 e0 3d d1 3e 55 3e b8 1c 3e 3e 7a a8 61 be
       0.10944208 0.20824744 0.18565643 -0.22036925
000110 9d 42 ab 3d bb c9 97 be 0b a0 5b 3e d8 16 09 3e
       0.08362315 -0.29646096 0.2144777 0.1338762
000120 f2 75 16 be ea 9f a1 bd 3f 18 4a 3c dd d0 ba bd
       -0.1469343 -0.07891829 0.012334882 -0.09121869
000130 b0 a0 39 be f0 ac 87 be b9 0d c0 bd e5 51 fe bd
       -0.18127704 -0.26499128 -0.093776174 -0.12417964
000140 9c 2e 20 be 7a 75 2a be c5 61 5d be 8d 68 44 3e
       -0.1564278 -0.16646376 -0.21619327 0.19180508
000150 ac d3 f2 bd dc 63 72 bb c4 32 6a bd ea be db 3d
       -0.118567795 -0.003698579 -0.05717732 0.10729773
000160 f6 d0 9e bd 14 35 45 bd 8a 2c 81 be 67 1a e3 3d
       -0.077547 -0.048146322 -0.25229293 0.1108902
000170 b2 0f 77 3d e3 57 8d be af 45 7a 3e 68 da 68 be
       0.060317703 -0.27606115 0.24440645 -0.22739565
000180 b5 c4 be 3d 21 65 70 3e 48 c6 fb 3d 94 1d 0c be
       0.09314863 0.23476078 0.122936785 -0.13683158
000190 6a f1 32 be 4f 0f 94 bd 1d a3 1e 3e ae cd b2 3d
       -0.17474905 -0.072294824 0.1549191 0.087306365
0001a0 b3 63 38 3e 7e 75 3f 3e da c7 51 3e ba 63 26 be
       0.18006782 0.18697163 0.20486394 -0.1624898
0001b0 d4 e6 f8 3d 03 b6 00 3e 68 e9 f3 3c 96 e3 f0 3d
       0.12153402 0.12569432 0.029774383 0.117621586
0001c0 2f 1b a3 3d ab d5 ce bd 21 c0 3e 3d ad 6c c7 bd
       0.07964169 -0.10099348 0.046569947 -0.09737525
0001d0 e8 68 5c be fc 1e 92 bd 43 80 f1 bd fa 6b 87 3d
       -0.21524394 -0.07134816 -0.11792042 0.06612392
0001e0 72 43 86 3e 76 5a 7c be 71 96 33 3e 82 0a c4 bd
       0.26223332 -0.24643883 0.17537858 -0.09572317
0001f0 90 c6 f7 bd 84 4b 78 be 37 84 2c 3e 09 4a 0e 3e
       -0.1209842 -0.24247557 0.16847311 0.1389543
000200 50 a5 6b 3e e4 ab 91 be 41 25 cd bd 5a 71 ce 3d
       0.2301228 -0.28451455 -0.10016871 0.10080214
000210 98 90 22 be 1b 04 2b 3e 07 eb 89 bc 6a 31 09 be
       -0.1587547 0.16700785 -0.016835703 -0.13397756
000220 ba dd 25 3e 54 f7 3d be 09 d8 58 3e a1 3b 2f 3e
       0.16197863 -0.1855138 0.21176161 0.1711259
000230 97 a4 20 bb 44 79 0e be 18 b7 60 be 66 73 4b 3e
       -0.0024512166 -0.13913447 -0.21944845 0.1986824

decoders.1.decoder_net.0.weight f4 [512, 2]
000000 0d 49 15 3f 5b 48 2e 3c 0e bf 8b be a3 17 0a bf
       0.5831459 0.010637368 -0.272942 -0.53942317
000010 8e cf 88 3e 55 cc 2f bf 76 17 19 bf 58 20 e0 3e
       0.26720852 -0.6867116 -0.59801424 0.43774676
000020 3a 52 05 bf d2 76 70 be 1e 44 e7 3d 0b 4e 1a bf
       -0.5207859 -0.23482826 0.11292289 -0.60275334
000030 e3 b2 03 bf 4e f6 13 bf a4 1c 02 bf a8 3e ea bd
       -0.51444834 -0.57797706 -0.5082495 -0.11437732
000040 3a 04 de 3e a3 55 21 bf f4 e9 f6 3e 52 3f 99 be
       0.433626 -0.63021296 0.48225367 -0.29931122
000050 30 c3 6d 3e b2 c9 b0 3e 88 d9 a8 3e b4 2d ba 3e
       0.2321899 0.3452888 0.32978463 0.36362994
000060 13 80 b6 3d 12 3e e4 3d 16 78 2e 3e a6 91 1a 3f
       0.08911147 0.111446515 0.17037997 0.6037849
000070 97 79 44 3f e2 db 87 3e b5 db 34 bd 1d 28 88 3e
       0.7674803 0.26534945 -0.04415484 0.26593104
000080 0b 3e 9f 3e 6d c8 14 3f 7a 7e 13 3f 16 e3 f9 3e
       0.31102023 0.58118325 0.5761486 0.48806065
000090 05 54 03 bf 47 35 3a 3f 02 4b 06 3f e2 db cc 3e
       -0.5130008 0.72737545 0.524582 0.40011507
0000a0 7b 1a 0d 3f 08 96 0d 3e 0e e9 e0 be 89 18 da 3e
       0.5511853 0.13826764 -0.43927807 0.42596844
0000b0 bf 20 d6 be b5 67 c3 3d e0 1c 0e bf 52 eb cd 3e
       -0.41821858 0.09541265 -0.5551281 0.40218598
0000c0 f9 13 71 be d5 92 ba be 40 f5 3b be 06 03 e1 bd
       -0.23542775 -0.3644015 -0.18355274 -0.10986905
0000d0 dd e4 36 bf 5c a2 2d bf 46 d6 f5 3e cf a5 29 3f
       -0.7144297 -0.67825866 0.4801504 0.6626863
0000e0 79 e0 c4 be ab 83 14 bf d4 b6 c0 be 39 f9 8c 3e
       -0.3845251 -0.5801341 -0.37639487 0.27533892
0000f0 e4 87 ec be f5 28 30 be d9 bb af be 52 c3 bb be
       -0.46197426 -0.17203124 -0.34323004 -0.36672455
000100 f4 5b 10 bf b3 0c 09 bf 03 2f c9 3e be 5d 2d 3f
       -0.5639031 -0.53535 0.3929368 0.67721164
000110 d6 f1 ff be 95 d1 d0 3e 49 1a a1 3d 18 52 c4 3e
       -0.49989194 0.40784898 0.078663416 0.38343883
000120 90 1e 80 3e 79 4e 61 3d 35 52 2b 3f f5 5d f4 3d
       0.25023317 0.055006478 0.6692231 0.119319834
000130 c4 f0 93 3e c2 9b 14 3e 3f 7f 16 be e9 37 ae be
       0.28894627 0.14512542 -0.14696978 -0.3402703
000140 14 5a 95 3e 50 ad d2 be 09 79 4f be c7 a3 7d 3d
       0.29170287 -0.41147852 -0.20261015 0.06192377
000150 80 d2 0d 3f 58 0a 15 bf fe 9f c5 3e e2 e7 17 bd
       0.5539932 -0.5821891 0.38598627 -0.037086375
000160 2e 37 bc be 9f 10 a9 be 89 d4 4f be eb 70 35 3f
       -0.3676085 -0.33020493 -0.2029592 0.70875424
000170 73 d4 d3 be c4 9e 94 3e 4a 83 81 3e 67 4e 3e bf
       -0.41373023 0.2902738 0.25295478 -0.7433838
000180 4f 5b 88 3e 00 df a8 be 4f 80 63 bf 69 7d b1 3e
       0.26632163 -0.32982635 -0.8886766 0.34665993
000190 94 33 07 3f 30 c9 92 3e eb c9 c1 be 33 25 6b 3e
       0.52813077 0.2866912 -0.37849364 0.22963409
0001a0 15 47 40 be 36 76 09 3e 6c 84 23 bf b9 ad ed 3d
       -0.18777116 0.13424 -0.63873935 0.116054006
0001b0 fd 15 92 3e 8a db 76 bd 31 3a 10 3f d9 4b 33 be
       0.285324 -0.060267963 0.56338793 -0.17509402
0001c0 13 77 05 3f 30 2a 62 bd 53 9c a0 be a7 f1 c4 3d
       0.5213482 -0.055216014 -0.31369266 0.09616404
0001d0 8a f4 49 bf 91 4d 43 3d ba ad 3b 3f 7b 0b 27 3e
       -0.7888876 0.047681395 0.7331196 0.16312973
0001e0 78 8a cd 3c f2 13 21 3f e2 31 5c 3e 39 1d f0 bc
       0.025090441 0.6292106 0.21503404 -0.02931081
0001f0 4c fe 96 3c 64 bf 15 be 09 ea db be 6c 31 4e 3d
       0.018431805 -0.14623791 -0.42951992 0.0503401
000200 1c d4 30 3f 1e d7 02 3f 9e c8 5d be a5 fa 12 3f
       0.69073653 0.5110949 -0.2165856 0.57413703
000210 ac 39 a4 be 7e fb cd be 12 63 b8 3e e1 74 0b bf
       -0.3207525 -0.40230936 0.36013085 -0.5447522
000220 1a b3 87 be 46 1e 5f 3e 0d 58 f3 3e 71 15 f0 3e
       -0.2650383 0.21788892 0.47528115 0.46891358
000230 34 0c 8f 3e 85 52 6d 3e c0 75 dd be 34 51 0f 3f
       0.27938998 0.2317601 -0.432539 0.5598328
000240 a7 6f b4 be 41 c5 b1 be 44 4b 0b bf 59 e3 31 be
       -0.35241434 -0.34720805 -0.5441172 -0.17371882
000250 85 0f 26 bf 16 de d8 3d 97 e6 50 3e 37 c0 11 3e
       -0.6486743 0.105892345 0.20400463 0.1423348
000260 d4 8a 8b 3e e2 9c aa be 96 5d f8 3e 6b 48 dd be
       0.27254355 -0.33322817 0.485089 -0.43219313
000270 91 29 f7 3e 0f 31 f3 3e 04 f7 06 3f fb 2f 19 bf
       0.482739 0.47498366 0.52720666 -0.5983884
000280 3e bd ae 3e 50 32 e9 3e e9 f0 82 be 03 7b 23 3f
       0.34128755 0.45546198 -0.25574425 0.63859576
000290 a2 b6 a8 3e 87 84 91 be d6 fb b9 3e 06 68 2d bf
       0.32951838 -0.28421423 0.36324948 -0.6773685
0002a0 28 92 20 bf 5c 34 19 3f 87 d0 18 3d 6c 8a c0 3e
       -0.62723017 0.5984552 0.037308242 0.37605608
0002b0 77 da 18 3f ef e1 09 3e d1 1f 05 bf db c5 f2 bd
       0.5970835 0.13465093 -0.52001673 -0.11854144
0002c0 61 02 16 be 25 b6 22 bf 81 78 4c be 67 a9 01 3f
       -0.14649345 -0.6355918 -0.19967844 0.5064911
0002d0 12 ab 9c bd 1e 9a fa 3e 2d 45 3c 3e 0f ee 0e be
       -0.076498166 0.48945707 0.18385763 -0.13958
0002e0 a5 35 a6 3e 14 88 8b 3e 84 2f a0 be 7b 34 4d 3e
       0.32462803 0.27252257 -0.31286252 0.20039551
0002f0 bd 46 7a bc e9 3b 0b 3f a8 76 c1 be a7 8c 4a 3d
       -0.015275654 0.5438829 -0.3778584 0.049450543
000300 85 de a3 be d7 b4 e8 bc dc 68 ca 3e 9d bc be be
       -0.32005706 -0.028406544 0.39533126 -0.37253276
000310 c7 77 74 3e 93 71 2a 3f 0a 1b c6 3e 45 91 08 3f
       0.23873816 0.6657955 0.38692504 0.53346664
000320 b3 c4 9c bd 35 d0 e5 3d 16 ae 93 3c 6b 43 01 3f
       -0.07654705 0.11221353 0.018027347 0.50493497
000330 eb 24 13 bc 28 44 fa 3e c5 f4 51 bf c0 32 f6 3e
       -0.00898097 0.48880124 -0.82014114 0.48085594
000340 2c d7 d4 be 82 f4 b6 3e a3 17 39 be 0d 93 b5 3d
       -0.41570413 0.3573342 -0.18075423 0.08865938
000350 68 2a b7 be 9f 08 1d 3f f0 8e dd be bd 7b 7c be
       -0.3577454 0.6134128 -0.43273115 -0.24656577
000360 e3 e1 af 3e 00 1f 03 bd fa 36 dd be c9 b1 52 be
       0.34352025 -0.032011986 -0.43206006 -0.20575632
000370 df 9e 46 be 77 69 13 bf cc 6b 7d 3b 03 98 05 bf
       -0.19396542 -0.575828 0.0038668988 -0.52185076
000380 c5 95 07 3f 05 1f 06 3d 7c 78 12 3f 73 6a 21 3f
       0.52962905 0.032744426 0.57215095 0.63053054
000390 93 4a 76 bd 1d c0 ae 3e 07 76 7c bd 4e 00 a1 3e
       -0.060129713 0.34130946 -0.061635997 0.31445545
0003a0 f1 8c 83 3e 99 eb 05 be f3 75 bb bd cf 38 b5 3d
       0.25693467 -0.13078155 -0.091533564 0.08848726
0003b0 ff af b3 3e 05 fa b1 3e b8 d8 b5 3e 92 4f 9e be
       0.35095212 0.34761062 0.35516906 -0.30920082
0003c0 35 2a a0 3e 97 18 87 be 26 dc c0 be ad 74 93 be
       0.312822 -0.26385948 -0.3766796 -0.28799954
0003d0 b2 e5 dd bb ae 8a f5 3e ae b5 26 be 24 ea 0a bf
       -0.0067717666 0.47957367 -0.16280243 -0.5426352
0003e0 fc b8 85 be 02 2b fb be e6 5f 07 3f b5 40 76 be
       -0.26117694 -0.4905625 0.52880704 -0.24048121
0003f0 20 d2 1a 3e 85 51 02 be d9 5c d4 be 03 62 2a bc
       0.15119219 -0.1272641 -0.41477087 -0.010399344
