Project2/models/model_3_9.pt (torch, 285381 bytes, 75 tensors)

prior.mean f4 [2]
0.0 0.0
00000000: 0000 0000 0000 0000

prior.std f4 [2]
1.0 1.0
00000000: 0000 803f 0000 803f

decoders.0.decoder_net.0.weight f4 [512, 2]
0.15040962 -0.5871089 0.3232467 0.49095252 0.039380584 -0.040506955 0.56877077 -0.4430803
-0.50966686 -0.33016363 -0.38641655 -0.063160345 -0.58717674 -0.16635305 -0.18325357 0.3305717
-0.1581283 0.56876045 0.014625774 0.20503584 0.032109343 -0.46045044 0.27130952 0.63339835
0.45654786 0.6935474 0.3134885 0.3028834 -0.5130758 0.060857315 -0.534393 -0.53441954
-0.1722196 -0.55435896 -0.35128218 -0.66656965 0.07026336 0.65306526 0.2784176 -0.58274615
-0.5295636 0.48587415 -0.6878822 -0.043898985 0.27610272 -0.60475343 -0.24312726 0.32966435
0.14263369 -0.3722094 0.16185735 -0.14958209 -0.59835976 0.3022673 -0.20883496 -0.36765614
-0.67428184 0.113707624 -0.039530836 0.15519296 0.07440465 0.41862765 0.09801412 0.19902465
0.3469684 -0.26786986 -0.30833915 0.04480966 0.51699966 0.0098330295 -0.23440516 -0.06858026
-0.17680256 -0.19664626 -0.40962976 -0.5048322 -0.5591733 -0.64804435 -0.19376385 -0.35055023
-0.6135993 -0.46086627 0.27980703 -0.24512063 0.5171502 0.38005063 -0.24116488 -0.6439119
-0.53743374 -0.4481692 -0.08009896 0.29905894 -0.55631584 -0.036447946 0.262573 0.20016563
-0.111596644 0.31134853 0.32035485 0.26465166 -0.46682933 0.4652403 0.43606704 -0.40365255
-0.44500735 -0.10436763 0.21085788 -0.7247798 0.5185264 -0.12835754 -0.5689954 -0.49743402
-0.27029625 -0.11315824 -0.46548927 0.456479 -0.43839738 -0.3082535 -0.43874404 -0.43117046
-0.69441074 0.36264715 -0.47535172 -0.070013724 -0.6277868 -0.5842105 0.042788815 -0.10695516
-0.36179984 0.36381406 -0.14913885 0.33872816 -0.07347033 0.1428422 0.3039737 -0.19158982
0.47682065 0.39584252 0.2682505 -0.011855054 -0.44576612 -0.65530175 -0.17453443 0.3032261
0.38536316 -0.5266521 0.39215222 0.3817452 0.3279287 0.070228204 -0.095607735 -0.7162122
-0.16476084 0.10798509 -0.49131948 -0.3520627 0.24649721 0.5331774 -0.059907705 -0.31175247
-0.1870344 0.49442178 -0.15604527 0.5699031 0.08163116 -0.3911003 0.11126343 -0.19581886
-0.5651206 0.295703 0.015599803 -0.4783891 0.77422094 -0.4670004 0.58518416 0.22918516
-0.035004172 0.423809 0.27222344 0.043364476 0.23247127 -0.023714107 0.19525816 0.08653074
-0.46776283 -0.04383825 0.2098421 0.28018025 -0.115814716 0.6029302 -0.44042876 0.11392021
0.5810557 0.57971483 0.019583872 -0.0025614132 0.2070417 0.05815404 -0.5024448 0.5209238
0.27236852 -0.19349544 0.068418086 -0.36995277 0.3421775 -0.6362879 -0.13075049 0.57573694
0.56394756 -0.123254016 -0.37201667 0.21021798 0.71187633 0.48539937 -0.5012451 -0.58737826
0.46796188 0.55205697 0.77140784 -0.2501659 -0.18539546 -0.6978143 0.33922547 0.4651175
0.18220222 -0.482473 -0.2642852 0.29617593 -0.054995224 0.5226556 -0.5620292 0.34379444
-0.21324036 0.01462702 0.23967297 0.121385016 0.531663 0.18897822 -0.08923614 -0.1815904
0.53093034 -0.561502 -0.29549146 0.26335537 -0.6681221 0.7604763 -0.39697355 -0.62838954
-0.4967321 -0.39382973 0.35367453 -0.7046057 -0.5390268 -0.027328154 -0.35476163 -0.028478432
00000000: fb04 1a3e c54c 16bf 9780 a53e 215e fb3e
00000010: 894d 213d 9fea 25bd f69a 113f 6cdb e2be
00000020: 8779 02bf 350b a9be 64d8 c5be 365a 81bd
00000030: 3751 16bf 7458 2abe d3a6 3bbe b240 a93e
00000040: 63ec 21be 499a 113f f1a0 6f3c eaf4 513e
00000050: 1685 033d 29c0 ebbe 15e9 8a3e 6526 223f
00000060: a4c0 e93e 538c 313f 9181 a03e 8813 9b3e
00000070: f058 03bf 8545 793d fbcd 08bf b8cf 08bf
00000080: 565a 30be 78ea 0dbf 42db b3be 4fa4 2abf
00000090: 3de6 8f3d 492f 273f c08c 8e3e da2e 15bf
000000a0: 7b91 07bf 7fc4 f83e 0c19 30bf 6ccf 33bd
000000b0: 565d 8d3e 1fd1 1abf 5af6 78be c4c9 a83e
000000c0: 910e 123e 3b92 bebe efbd 253e 0c2c 19be
000000d0: 1b2e 19bf c8c2 9a3e d5d8 55be 6d3d bcbe
000000e0: bc9d 2cbf 8bdf e83d 16eb 21bd e7ea 1e3e
000000f0: 7761 983d 5d56 d63e a0bb c83d 1ecd 4b3e
00000100: d8a5 b13e 3d26 89be a1de 9dbe 568a 373d
00000110: 175a 043f b71a 213c e807 70be cf73 8cbd
00000120: bb0b 35be a35d 49be feba d1be af3c 01bf
00000130: fb25 0fbf 3ce6 25bf 086a 46be 527b b3be
00000140: d814 1dbf aaf6 ebbe de42 8f3e e700 7bbe
00000150: f563 043f ff95 c23e edf3 76be 69d7 24bf
00000160: 4295 09bf 6f76 e5be ec0a a4bd 411e 993e
00000170: b76a 0ebf 714a 15bd f86f 863e 38f8 4c3e
00000180: c88c e4bd 1369 9f3e 8d05 a43e 6c80 873e
00000190: 4104 efbe fa33 ee3e 2e44 df3e 8cab cebe
000001a0: 01d8 e3be b2be d5bd 21eb 573e 2b8b 39bf
000001b0: 25be 043f 2970 03be afa9 11bf acaf febe
000001c0: 4564 8abe 82bf e7bd 9c54 eebe 9eb7 e93e
000001d0: 9f75 e0be 67d3 9dbe 0fa3 e0be 60c2 dcbe
000001e0: e7c4 31bf e3ac b93e 4d61 f3be 5b63 8fbd
000001f0: a3b6 20bf d28e 15bf 5343 2f3d 4f0b dbbd
00000200: d43d b9be d645 ba3e dbb7 18be c76d ad3e
00000210: 9d77 96bd 3a45 123e 71a2 9b3e 1f30 44be
00000220: d621 f43e dfab ca3e 2158 893e b33b 42bc
00000230: 753b e4be dbc1 27bf 27b9 32be 7440 9b3e
00000240: 524e c53e acd2 06bf 2dc8 c83e 1b74 c33e
00000250: 45e6 a73e ced3 8f3d fdcd c3bd af59 37bf
00000260: 11b7 28be 4927 dd3d 3a8e fbbe 9041 b4be
00000270: c469 7c3e 507e 083f c861 75bd 059e 9fbe
00000280: f285 3fbe da24 fd3e 55ca 1fbe 2be5 113f
00000290: 3d2e a73d 4c3e c8be 15de e33d bd84 48be
000002a0: beab 10bf 6266 973e 5196 7f3c 6bef f4be
000002b0: 5833 463f ad1a efbe a1ce 153f 84af 6a3e
000002c0: 8960 0fbd 7efd d83e df60 8b3e f39e 313d
000002d0: f30c 6e3e 1644 c2bc c1f1 473e 0737 b13d
000002e0: 9c7e efbe bd8f 33bd d9e0 563e c973 8f3e
000002f0: 4430 edbd a259 1a3f e17f e1be 004f e93d
00000300: 11c0 143f 3168 143f 5b6e a03c 62dd 27bb
00000310: bd02 543e ee32 6e3d 39a0 00bf 435b 053f
00000320: e373 8b3e ab23 46be c81e 8c3d 736a bdbe
00000330: e431 af3e c4e3 22bf 75e3 05be 7f63 133f
00000340: de5e 103f 9a6c fcbd f878 bebe 6243 573e
00000350: 873d 363f 4486 f83e 9951 00bf 6c5e 16bf
00000360: b398 ef3e 9b53 0d3f fc7a 453f bf15 80be
00000370: 4fd8 3dbe f5a3 32bf f6ae ad3e e223 ee3e
00000380: 3893 3a3e b306 f7be 6450 87be 5fa4 973e
00000390: ac42 61bd c2cc 053f 25e1 0fbf d305 b03e
000003a0: ae5b 5abe 2ba6 6f3c d56c 753e b598 f83d
000003b0: 111b 083f 8283 413e 70c1 b6bd d5f2 39be
000003c0: 0deb 073f 98be 0fbf a84a 97be 84d6 863e
000003d0: 0d0a 2bbf 93ae 423f 1e40 cbbe 23de 20bf
000003e0: ab53 febe 0da4 c9be d414 b53e 0a61 34bf
000003f0: a9fd 09bf 4bdf dfbc 51a3 b5be 9a4b e9bc

decoders.0.decoder_net.0.bias f4 [512]
0.23857644 0.35606033 0.41710937 -0.021108178 0.13975294 -0.107599124 -0.5578488 0.56241685
-0.52362037 -0.1949758 0.4490083 -0.7332609 -0.36894342 0.33740908 0.17435981 0.1794067
0.35856122 0.22473422 0.1725941 -0.0872511 -0.22816104 0.21162353 -0.075572036 -0.48724395
-0.6850512 -0.025042104 -0.2274725 -0.6531935 -0.41603944 0.4915141 0.5800231 0.036648046
0.63184464 -0.19751348 -0.05946317 0.36309496 0.37596 -0.6473853 -0.4625238 0.7028409
-0.5699602 0.010206904 0.7225952 0.5265869 -0.40459445 0.6351617 0.64202666 0.7330266
-0.606861 0.06773843 -0.045344904 -0.6522079 -0.19901887 -0.34709913 0.675038 0.17069528
0.2619571 -0.041176558 -0.25551882 -0.16133513 0.33089095 -0.08559808 0.5074817 -0.478107
0.49166185 0.29247037 0.64541715 -0.30514303 0.22105302 -0.63482654 0.46570104 0.13471016
0.24478729 0.45306963 -0.19013359 -0.6015251 0.18922883 0.26114184 0.017313574 -0.035031
0.25614354 0.44796365 -0.24562538 -0.08919098 -0.1293771 -0.16162895 -0.3426737 -0.05742029
0.24553545 0.73102933 0.5136977 0.63851035 -0.7027552 -0.68252474 -0.062566124 -0.6737586
-0.25419268 0.34862888 -0.2776949 -0.090331234 0.11879785 0.35692015 -0.21785815 0.31781888
0.20399538 -0.24746141 0.013634319 -0.025550036 0.5530247 0.6565652 0.6848455 0.4821878
0.46304473 -0.30088627 0.1007818 -0.7055923 0.6073125 0.05204558 0.24207707 0.17543365
-0.14478509 0.6630078 0.22699177 -0.4284379 -0.63151455 -0.05922683 0.6922672 0.44720152
0.4577336 0.59958524 -0.6790952 -0.20140769 -0.02111208 0.655191 -0.1945096 -0.5627599
-0.012761198 -0.06639216 -0.6133015 -0.26353562 0.7018184 -0.46731997 -0.6032901 -0.1716695
0.30687013 -0.19043069 0.50758547 0.2998383 0.64104944 0.25230137 0.22893068 -0.27842686
-0.6421986 0.49337956 0.641193 0.65847236 -0.43152797 -0.42373204 -0.55673295 -0.63879037
-0.6233874 -0.31252372 -0.29197046 -0.2764437 0.17674288 0.56557935 -0.01356951 -0.2252508
0.08209336 0.19597168 -0.042645834 -0.58798444 -0.027198398 -0.46517673 -0.57916045 -0.09324131
-0.6606034 -0.25408092 -0.32244137 0.1581223 0.24355033 0.63851994 -0.51754785 -0.23581742
0.19334498 0.26222092 -0.052903835 -0.72642785 0.49288863 0.01789982 0.1462978 0.73542804
-0.08769218 0.508963 0.6535491 -0.034313325 -0.36981758 0.10339611 -0.37764168 -0.09525944
0.063829795 -0.7475918 -0.37900737 0.42868605 0.13781 0.57152337 -0.46090826 0.5748801
0.4787366 -0.7190482 0.0048872894 -0.03170022 0.17413275 0.23724538 -0.28055066 -0.5101015
0.013312066 -0.06799442 -0.5542389 0.6756823 -0.48172724 -0.3059007 0.4138957 0.3648169
0.21400984 0.17694132 -0.31388733 0.7314069 -0.42447525 0.40648484 0.053788673 0.62718266
0.58569705 -0.20875822 -0.6297932 -0.13714735 0.33195767 0.028868297 -0.050198466 -0.27018306
0.0013774798 -0.16564846 -0.26891723 0.57924575 0.17445016 0.56119514 -0.591061 0.3521231
0.12090682 0.58957464 0.59420013 0.21549574 0.519161 -0.7164563 -0.48547962 -0.22888337
00000000: 624d 743e 8a4d b63e 5c8f d53e 0feb acbc
00000010: 651b 0f3e ee5c dcbd 2ecf 0ebf 8dfa 0f3f
00000020: fc0b 06bf bca7 47be 6ae4 e53e fdb6 3bbf
00000030: 27e6 bcbe e2c0 ac3e 618b 323e 64b6 373e
00000040: 5695 b73e ba20 663e 82bc 303e b4b0 b2bd
00000050: 0ca3 69be d7b3 583e 83c5 9abd 0a78 f9be
00000060: 845f 2fbf 1925 cdbc 8dee 68be b037 27bf
00000070: 1f03 d5be bca7 fb3e 657c 143f 431c 163d
00000080: 92c0 213f f940 4abe a78f 73bd 95e7 b93e
00000090: d47d c03e 0bbb 25bf ebcf ecbe 62ed 333f
000000a0: e9e8 11bf dc3a 273c 00fc 383f 66ce 063f
000000b0: 0127 cfbe f599 223f dc5b 243f a2a7 3b3f
000000c0: 3e5b 1bbf 72ba 8a3d 94bb 39bd 19f7 26bf
000000d0: 9acb 4bbe fab6 b1be 4acf 2c3f beca 2e3e
000000e0: 3e1f 863e c0a8 28bd 5dd3 82be 0935 25be
000000f0: 8a6a a93e 0c4e afbd 52ea 013f 71ca f4be
00000100: 1abb fb3e adbe 953e 0f3a 253f b53b 9cbe
00000110: b95b 623e fe83 22bf 5e70 ee3e 76f1 093e
00000120: 85a9 7a3e bef8 e73e 61b2 42be 8dfd 19bf
00000130: 34c5 413e 62b4 853e 32d5 8d3c aa7c 0fbd
00000140: 3f25 833e 7e5b e53e 3885 7bbe c3a9 b6bd
00000150: 6e7b 04be 0f82 25be ed72 afbe 8a31 6bbd
00000160: a56d 7b3e bd24 3b3f b181 033f 6a75 233f
00000170: c4e7 33bf f1b9 2ebf ab22 80bd 727b 2cbf
00000180: 8b25 82be 7c7f b23e 072e 8ebe 95ff b8bd
00000190: 4a4c f33d 3dbe b63e 3516 5fbe 28b9 a23e
000001a0: 2ae4 503e 8666 7dbe 7b62 5f3c 4f4e d1bc
000001b0: 0793 0d3f a814 283f 0952 2f3f 52e1 f63e
000001c0: 3314 ed3e c40d 9abe b066 ce3d b2a1 34bf
000001d0: d578 1b3f bf2d 553d 0de3 773e e1a4 333e
000001e0: 8b42 14be e1ba 293f 8870 683e 365c dbbe
000001f0: f0aa 21bf d597 72bd 6c38 313f 99f7 e43e
00000200: 0f5c ea3e 6b7e 193f 2fd9 2dbf d13d 4ebe
00000210: 3ef3 acbc 99ba 273f 862d 47be 0811 10bf
00000220: 5814 51bc 9df8 87bd 5401 1dbf 24ee 86be
00000230: 5faa 333f 9044 efbe 3871 1abf 21ca 2fbe
00000240: 151e 9d3e 4300 43be 1ff1 013f 6884 993e
00000250: d11b 243f a52d 813e ce6c 6a3e f78d 8ebe
00000260: 2167 24bf 3f9c fc3e 3925 243f a591 283f
00000270: 3cf1 dcbe 68f3 d8be 0d86 0ebf c487 23bf
00000280: 5196 1fbf 1c03 a0be 277d 95be 078a 8dbe
00000290: 16fc 343e cfc9 103f a652 5ebc 25a8 66be
000002a0: 9020 a83d cdac 483e 66ad 2ebd 2686 16bf
000002b0: 2dcf debc a52b eebe dc43 14bf 4df5 bebd
000002c0: 4e1d 29bf e516 82be 0917 a5be d0ea 213e
000002d0: 4265 793e 0b76 233f 047e 04bf 1f7a 71be
000002e0: 3afc 453e d241 863e b1b1 58bd 2df7 39bf
000002f0: e65b fc3e a5a2 923c 17cf 153e 0345 3c3f
00000300: f597 b3bd 664b 023f fe4e 273f 218c 0cbd
00000310: bb58 bdbe 57c1 d33d 405a c1be 6217 c3bd
00000320: 32b9 823d 2d62 3fbf 410d c2be bd7c db3e
00000330: 111e 0d3e 5b4f 123f 2bfc ebbe 582b 133f
00000340: f71c f53e 8b13 38bf 8e25 a03b 17d8 01bd
00000350: db4f 323e 74f0 723e 56a4 8fbe 0396 02bf
00000360: da1a 5a3c a940 8bbd 9ae2 0dbf 84f9 2c3f
00000370: f4a4 f6be 049f 9cbe 23ea d33e 48c9 ba3e
00000380: 6525 5b3e 1b30 353e d7b5 a0be 7c3d 3b3f
00000390: d254 d9be c81e d03e 8351 5c3d 0b8f 203f
000003a0: 3ef0 153f b7c4 55be 213a 21bf 5b70 0cbe
000003b0: 5bf6 a93e 357d ec3c e89c 4dbd 6f55 8abe
000003c0: 8d8c b43a c09f 29be 85af 89be 7349 143f
000003d0: 10a3 323e 7caa 0f3f c64f 17bf 7b49 b43e
000003e0: ff9d f73d 5dee 163f 801d 183f eaaa 5c3e
000003f0: bce7 043f ae69 37bf c990 f8be 6760 6abe

decoders.0.decoder_net.3.weight f4 [32]
0.9861735 1.0076762 1.0537815 0.9913613 1.0280994 1.0238459 1.0001705 1.0170275
0.9414397 0.9992975 1.0269345 0.990926 1.0085 0.9689154 0.9983053 1.0000623
0.9713874 1.0214084 0.96693426 0.9825225 1.0164429 0.9911378 0.9941956 1.0635526
0.98350304 1.0038695 0.992813 0.984334 0.9941008 1.0057982 0.99170625 1.0042561
00000000: de75 7c3f 89fb 803f 50e2 863f dbc9 7d3f
00000010: c398 833f 620d 833f 9605 803f f52d 823f
00000020: 3102 713f f6d1 7f3f 9772 833f 54ad 7d3f
00000030: 8716 813f d70a 783f f090 7f3f 0b02 803f
00000040: d8ac 783f 83bd 823f 0189 773f 9886 7b3f
00000050: cd1a 823f 35bb 7d3f 9a83 7e3f 7e22 883f
00000060: dbc6 7b3f cc7e 803f fe28 7e3f 50fd 7b3f
00000070: 647d 7e3f ffbd 803f 76e0 7d3f 778b 803f

decoders.0.decoder_net.3.bias f4 [32]
0.007020476 -0.02444063 -0.005756324 -0.0033934587 0.029656181 -0.040771298 0.03273856 0.030005734
-0.04258134 -0.021763902 0.025507655 -0.025643298 -0.032322332 -0.017653434 0.014434713 0.022741053
0.038089417 0.02610639 -0.007912548 0.030274004 0.0132359965 -0.0014547536 0.001601039 -0.0057580927
-0.033668447 -0.008806322 -0.0012839906 -0.0044601155 0.053482126 -0.006760977 -0.012631398 0.0036462278
00000000: 050c e63b b737 c8bc 8c9f bcbb ca64 5ebb
00000010: 85f1 f23c ceff 26bd de18 063d 96ce f53c
00000020: c569 2ebd 364a b2bc 6ef5 d03c e511 d2bc
00000030: 6c64 04bd ef9d 90bc 937f 6c3c 724b ba3c
00000040: a603 1c3d 11dd d53c a2a3 01bc 3001 f83c
00000050: cbdb 583c 6ead beba f4d9 d13a 62ae bcbb
00000060: ede7 09bd 6448 10bc 934b a8ba 2926 92bb
00000070: 1310 5b3d 308b ddbb ecf3 4ebc 8df5 6e3b

decoders.0.decoder_net.3.running_mean f4 [32]
0.030973334 0.02968546 0.03990103 0.032450937 0.032788847 0.026730044 0.034074545 0.03471737
0.033761967 0.03225686 0.024606958 0.031854182 0.030154789 0.028131878 0.027336799 0.03336803
0.034050766 0.027500512 0.024911841 0.032443244 0.03319112 0.027977481 0.03503386 0.030243129
0.030096805 0.028687017 0.02756089 0.037788995 0.039559986 0.028162163 0.029538974 0.030459998
00000000: cabb fd3c ec2e f33c 436f 233d 46eb 043d
00000010: 994d 063d f7f8 da3c c091 0b3d cd33 0e3d
00000020: fd49 0a3d c51f 043d 8894 c93c 8879 023d
00000030: 2d07 f73c d374 e63c 6cf1 df3c eaac 083d
00000040: d178 0b3d c148 e13c eb13 cc3c 35e3 043d
00000050: 69f3 073d 0831 e53c aa7f 0f3d 70c0 f73c
00000060: 938d f63c 0901 eb3c 60c7 e13c a2c8 1a3d
00000070: a709 223d 56b4 e63c b8fb f13c 3f87 f93c

decoders.0.decoder_net.3.running_var f4 [32]
0.0003450777 0.00025841038 0.00041988408 0.00045747022 0.00045991683 0.00020589675 0.0006320002 0.00042630758
0.00073547405 0.0005324704 0.00022933794 0.0004618787 0.00040983668 0.00034396196 0.0002943056 0.0007930133
0.00048048198 0.00018777518 0.00017045718 0.0005077964 0.0005766834 0.00021975185 0.00048154197 0.0004187126
0.00035009813 0.000256356 0.00034141078 0.00087064377 0.000947217 0.00037367377 0.00026347605 0.00026681996
00000000: 8beb b439 417b 8739 e323 dc39 9dd8 ef39
00000010: fe20 f139 fde5 5739 d1ac 253a 0982 df39
00000020: d4cc 403a 7c95 0b3a 6f7a 7039 4f28 f239
00000030: 59df d639 cb55 b439 074d 9a39 39e2 4f3a
00000040: 33e9 fb39 84e5 4439 c0bc 3239 a41d 053a
00000050: 912c 173a 306d 6639 7877 fc39 a786 db39
00000060: 608d b739 8567 8639 61ff b239 ea3b 643a
00000070: a84e 783a a5e9 c339 2823 8a39 f8e3 8b39

decoders.0.decoder_net.4.weight f4 [32, 32, 3, 3]
-0.019659348 0.05405744 -0.042450104 -0.020994084 -0.07227104 -0.0062569827 0.0152010145 -0.021782475
0.017515661 -0.013824431 -0.0030623025 0.039036967 0.030196376 -0.024436789 0.010728535 0.027164124
-0.025967645 -0.028079353 0.024628796 0.026270784 -0.047387317 -0.060843825 0.08483446 0.03447183
-0.06294068 -0.008887977 0.06348702 0.0074705887 0.029252963 0.014264233 0.001889112 -0.010490343
0.05457466 0.035912436 -0.03718633 -0.06214285 -0.014783215 -0.0015476684 0.011164896 -0.018767623
-0.02129419 0.05451527 0.050421547 -0.03677593 0.03430113 -0.014492428 -0.015320588 -0.048723377
0.05797848 -0.012782097 -0.043120325 0.0352305 0.032605592 0.046124708 0.055050276 -0.036712483
0.0011520598 -0.008082155 -0.030816386 -0.0382149 -0.0076582995 0.0131868 -0.010549062 0.021735987
-0.01057779 -0.013494023 0.06002057 -0.0021880483 -0.0015207735 0.018667135 0.01276365 0.0005457347
-0.023766836 0.06136946 -0.058841847 0.0035657568 0.045375824 0.007996476 0.059786182 0.052618217
-0.030320697 0.06899947 -0.029467471 0.05992329 -2.8272121e-05 0.06321401 -0.037814863 -0.06030004
0.020981235 -0.04632773 -0.035138316 -0.004365942 0.047436785 -0.043993887 0.061771303 0.00025623248
0.00295199 -0.06547114 -0.024511276 -0.07717893 0.0026600955 -0.03582219 -0.058381215 -0.032510933
0.024212182 -0.0204749 0.020222314 -0.015821582 0.02374436 0.029893965 -0.03264389 0.04316795
0.03228195 -0.046818476 0.00027946124 0.033315852 0.035563532 -0.07935589 0.044595428 -0.0222719
-0.015250278 -0.054026827 -0.034211338 -0.053839043 -0.0020021682 0.021551961 0.033403806 -0.018961383
0.00784397 0.00017973137 0.02543606 -0.029339107 -0.0077739405 -0.039361913 0.03456909 -0.03561763
-0.010744972 0.01267234 -0.058730267 0.030574951 -0.017310016 0.008390888 -0.012213023 -0.016336989
0.0172659 0.05082502 0.04718247 -0.03119458 -0.06541783 0.047741618 0.029908162 -0.007556931
0.007348438 0.044781804 0.010629178 -0.006226838 -0.039101973 -0.0236277 -0.0040640915 -0.021293301
-0.002167448 -0.010039481 -0.04646642 -0.045035817 -0.03182432 -0.0060309814 -0.0012461401 0.07550531
-0.0014336036 -0.017081238 0.044068146 -0.007359819 -0.0081391735 -0.014719018 -0.010764225 0.0371295
0.015497101 0.051848177 -0.043419782 -0.06877233 0.05422859 0.0598564 -0.0031014914 -0.06814012
-0.055401355 0.035146467 0.04620641 -0.01959125 0.0035913042 0.00688778 -0.00647281 0.0023331852
0.005459578 -0.024315469 -0.04968131 -0.00041612374 -0.08241625 0.016219595 0.020135026 0.0004632604
-0.06907643 -0.023551397 -0.0194095 0.052760445 -0.060904235 -0.044502337 0.02944597 0.044342678
-0.0383741 -0.014549754 -0.034170493 0.04712815 -0.048207227 -0.025189651 0.027434168 0.056768883
-0.026929582 0.007962756 0.08309009 -0.007742897 -0.023076741 0.025832428 0.044224016 -0.058433555
-0.027648868 0.039478038 -0.015531863 -0.009873197 0.0312109 -0.015827581 -0.047972426 -0.059642337
0.0093140155 0.017613541 -0.07670125 -0.009004115 -0.036824003 0.04395031 -0.027238159 0.025859889
-0.030021999 -0.022083148 -0.053286925 -0.021775767 -0.02258108 -0.04980575 0.062596545 -0.0068089017
0.04833752 0.037013654 -0.045437194 -0.07670594 -0.018606687 0.05723199 -0.0071217204 0.00031461913
00000000: a40c a1bc 566b 5d3d 29e0 2dbd c9fb abbc
00000010: d702 94bd 6007 cdbb ad0d 793c 2971 b2bc
00000020: 017d 8f3c de7f 62bc e9b0 48bb 3ae5 1f3d
00000030: 645e f73c a92f c8bc bdc6 2f3c 4c87 de3c
00000040: 19ba d4bc ac06 e6bc 54c2 c93c d435 d73c
00000050: 3419 42bd 6037 79bd b0bd ad3d 5532 0d3d
00000060: 0be7 80bd e19e 11bc 7c05 823d d7cb f43b
00000070: e9a3 ef3c 88b4 693c 159c f73a b0df 2bbc
00000080: ae89 5f3d eb18 133d b150 18bd 8089 7ebd
00000090: 4c35 72bc 22db caba f8ec 363c 8fbe 99bc
000000a0: 2771 aebc 674b 5f3d d386 4e3d 5ca2 16bd
000000b0: 577f 0c3d a671 6dbc 3403 7bbc 2a92 47bd
000000c0: d87a 6d3d 006c 51bc f09e 30bd db4d 103d
000000d0: 718d 053d 43ed 3c3d 667c 613d d45f 16bd
000000e0: b600 973a 046b 04bc a572 fcbc 3a87 1cbd
000000f0: 79f2 fabb 730d 583c f9d5 2cbc ab0f b23c
00000100: 784e 2dbc 0916 5dbc 21d8 753d 5c65 0fbb
00000110: b154 c7ba d2eb 983c a11e 513c a30f 0f3a
00000120: abb2 c2bc 8b5e 7b3d 2604 71bd 79af 693b
00000130: 00dc 393d a703 033c 5be2 743d 3386 573d
00000140: 1c63 f8bc 984f 8d3d c465 f1bc 2072 753d
00000150: eb29 edb7 5976 813d c2e3 1abd 2dfd 76bd
00000160: d7e0 ab3c 25c2 3dbd 32ed 0fbd 2d10 8fbb
00000170: 134d 423d ef32 34bd e803 7d3d f156 8639
00000180: 2d76 413b bc15 86bd dfcb c8bc fd0f 9ebd
00000190: ff54 2e3b 4aba 12bd 2421 6fbd 2f2a 05bd
000001a0: a058 c63c faba a7bc 44a9 a53c 439c 81bc
000001b0: 8883 c23c 30e4 f43c 99b5 05bd e0d0 303d
000001c0: 143a 043d bbc4 3fbd a784 9239 3476 083d
000001d0: 11ab 113d 5785 a2bd b2a9 363d 8f73 b6bc
000001e0: 4ddc 79bc 3c4b 5dbd 3021 0cbd 5486 5cbd
000001f0: cf36 03bb bd8d b03c 6ed2 083d e754 9bbc
00000200: ff83 003c 4676 3c39 495f d03c 9158 f0bc
00000210: 8abc febb f539 21bd 5198 0d3d cbe3 11bd
00000220: ae0b 30bc a59f 4f3c 268f 70bd 5278 fa3c
00000230: bccd 8dbc ef79 093c 2219 48bc 26d5 85bc
00000240: 3771 8d3c e52d 503d 6842 413d c78b ffbc
00000250: c9f9 85bd b78c 433d f601 f53c 22a0 f7bb
00000260: 2acb f03b 206d 373d 0126 2e3c 810a ccbb
00000270: 6429 20bd e18e c1bc 122c 85bb 4a6f aebc
00000280: be0b 0ebb a37c 24bc 9353 3ebd 7a77 38bd
00000290: 385a 02bd 8a9f c5bb 8655 a3ba 87a2 9a3d
000002a0: c1e7 bbba f4ed 8bbc cd80 343d a32a f1bb
000002b0: 2b5a 05bc 0928 71bc 6f5c 30bc 1a15 183d
000002c0: 8de7 7d3c c15e 543d f1d8 31bd 82d8 8cbd
000002d0: cc1e 5e3d fc2b 753d 6442 4bbb 0c8d 8bbd
000002e0: 88ec 62bd bef5 0f3d ef42 3d3d d47d a0bc
000002f0: 165c 6b3b e3b2 e13b de19 d4bb 5ae8 183b
00000300: 42e6 b23b 3c31 c7bc a17e 4bbd 2f2b dab9
00000310: dac9 a8bd f5de 843c 36f2 a43c c2e1 f239
00000320: f177 8dbd dcee c0bc ac00 9fbc 561b 583d
00000330: b876 79bd 1548 36bd ad38 f13c aba0 353d
00000340: 292e 1dbd 1762 6ebc 5cf6 0bbd 7209 413d
00000350: f174 45bd 875a cebc 9fbd e03c 7d86 683d
00000360: 6d9b dcbc 3876 023c 232b aa3d 21b8 fdbb
00000370: 6f0b bdbc 879e d33c 3e24 353d 0658 6fbd
00000380: e17f e2bc b9b3 213d 5b79 7ebc 31c3 21bc
00000390: 00ae ff3c d8a8 81bc bc7e 44bd 864b 74bd
000003a0: d099 183c 464a 903c 8c15 9dbd ff85 13bc
000003b0: c4d4 16bd 3e05 343d 8f22 dfbc 1ed8 d33c
000003c0: b2f0 f5bc b8e7 b4bc 6443 5abd 1863 b2bc
000003d0: f5fb b8bc 1d01 4cbd 9e32 803d 351d dfbb
000003e0: 90fd 453d a19b 173d 5a1c 3abd 0118 9dbd
000003f0: 0d6d 98bc 176c 6a3d 525d e9bb 77f3 a439

decoders.0.decoder_net.4.bias f4 [32]
-0.010439309 0.03624329 -0.019324604 0.010575633 -0.05002928 0.0016911642 0.07400181 -0.02002086
-0.002052717 -0.06585268 0.037744507 -0.10912794 -0.06509539 -0.019076128 -0.08175669 0.028547544
0.105670065 0.026442513 0.016636759 -0.004072106 0.011557486 0.047073063 0.09086034 -0.073963866
-0.08705286 0.083018124 -0.005155078 -0.077687435 0.019254426 0.041774895 -0.0019851574 -0.036011763
00000000: a309 2bbc d873 143d a24e 9ebc 6b45 2d3c
00000010: 81eb 4cbd 0eaa dd3a 438e 973d c902 a4bc
00000020: e086 06bb c5dd 86bd fc99 1a3d 787e dfbd
00000030: bb50 85bd 8a45 9cbc 0d70 a7bd 8adc e93c
00000040: 8c69 d83d f89d d83c d049 883c 4d6f 85bb
00000050: 9c5b 3d3c afcf 403d fc14 ba3d 5e7a 97bd
00000060: c548 b2bd 6805 aa3d eeeb a8bb 971a 9fbd
00000070: 75bb 9d3c 271c 2b3d 6a19 02bb 1281 13bd

decoders.0.decoder_net.6.weight f4 [32]
0.9793277 0.955564 0.9550675 0.96536 0.9026426 0.96782863 0.99912876 0.9549822
0.97337455 0.95087427 0.9558803 0.9508874 0.92164564 0.9471759 0.9361366 0.92539275
0.9783362 1.0025074 0.9586187 0.9408619 0.9895475 0.9802201 0.9380393 0.9430215
0.9589076 0.97396606 0.9273596 0.9453698 0.9729129 1.020591 0.97970164 0.98981464
00000000: 38b5 7a3f d89f 743f 4e7f 743f d521 773f
00000010: 9613 673f 9ec3 773f e7c6 7f3f b779 743f
00000020: 132f 793f 7f6c 733f 92b4 743f 5b6d 733f
00000030: f8f0 6b3f 1f7a 723f a6a6 6f3f 8ae6 6c3f
00000040: 3e74 7a3f 2a52 803f 0968 753f 53dc 703f
00000050: fc52 7d3f b4ef 7a3f 5823 703f db69 713f
00000060: f87a 753f d755 793f 7067 6d3f c103 723f
00000070: d210 793f baa2 823f bacd 7a3f 7e64 7d3f

decoders.0.decoder_net.6.bias f4 [32]
-0.031648837 -0.015625931 -0.04221538 0.03521058 0.05582181 -0.056729913 0.003790458 -0.03082982
-0.014413873 -0.010509045 -0.03992655 0.005982366 -0.056326352 -0.013940507 -0.036910642 -0.04562697
0.018874932 -0.051037185 -0.00927399 0.094041124 0.0075290455 -0.03510488 0.0394743 0.050805252
-0.03563693 -0.003025257 -0.110717244 0.047387674 0.010469302 -0.044561815 -0.012084645 0.014869033
00000000: 36a2 01bd f401 80bc 09ea 2cbd f838 103d
00000010: 69a5 643d a05d 68bd 5569 783b d28e fcbc
00000020: 2a28 6cbc 212e 2cbc 068a 23bd b907 c43b
00000030: 76b6 66bd b966 64bc 9d2f 17bd 58e3 3abd
00000040: 9a9f 9a3c 5e0c 51bd eff1 17bc a298 c03d
00000050: 36b6 f63b 22ca 0fbd ceaf 213d 2b19 503d
00000060: 08f8 11bd 6443 46bb b9bf e2bd 9419 423d
00000070: 6f87 2b3c 7386 36bd adfe 45bc 3f9d 733c

decoders.0.decoder_net.6.running_mean f4 [32]
0.030672615 0.032983728 0.031066027 0.033094227 0.029818034 0.031762265 0.034896024 0.029721748
0.030621808 0.02913997 0.032945137 0.027567947 0.02968535 0.03073592 0.02787821 0.033890463
0.034533724 0.031338964 0.031193452 0.03122007 0.031009888 0.031221934 0.03575655 0.029795067
0.028010074 0.034380116 0.031024711 0.029602475 0.031703338 0.03267047 0.030988809 0.029070705
00000000: 2345 fb3c f219 073d 2e7e fe3c d08d 073d
00000010: f344 f43c 2619 023d 22ef 0e3d 067b f33c
00000020: 96da fa3c f2b6 ee3c 7bf1 063d 2dd6 e13c
00000030: b12e f33c e5c9 fb3c d860 e43c bad0 0a3d
00000040: 3c73 0d3d 495d 003d 6989 ff3c 3bc1 ff3c
00000050: 7308 fe3c 24c5 ff3c 7675 123d c914 f43c
00000060: 6275 e53c 2ad2 0c3d 8927 fe3c e480 f23c
00000070: 5cdb 013d 79d1 053d 3edc fd3c b025 ee3c

decoders.0.decoder_net.6.running_var f4 [32]
0.00020056678 0.00014601322 0.0001442327 0.00033212092 0.00014815679 0.00017125215 0.0002549208 9.3236726e-05
0.00015374577 0.00015164807 0.00019254969 0.0001133832 0.00013113319 0.0001237058 0.00011551443 0.00031453543
0.00020717898 0.00016720354 0.00014167995 0.00014202544 0.0001494228 0.00013818318 0.0003394764 0.00013482037
8.398609e-05 0.00026209996 0.00013484628 0.00018981165 0.00016141977 0.0001700007 0.00017753954 0.0001137325
00000000: 3c4f 5239 201b 1939 2c3d 1739 8420 ae39
00000010: 895a 1b39 2692 3339 e4a6 8539 1688 c338
00000020: d136 2139 b803 1f39 2ae7 4939 24c8 ed38
00000030: cc80 0939 06b7 0139 5640 f238 3be8 a439
00000040: 2f3e 5939 5c53 2f39 ec8f 1439 aaec 1439
00000050: 61ae 1c39 44e5 1039 c0fb b139 915e 0d39
00000060: b021 b038 766a 8939 8665 0d39 2d08 4739
00000070: ca42 2939 3742 3239 e829 3a39 ac83 ee38

decoders.0.decoder_net.7.weight f4 [32, 16, 3, 3]
-0.036045637 -0.08717359 -0.059699174 0.0079806745 0.10499689 -0.04307854 0.022596626 0.035407424
-0.033842437 0.0709538 0.0069132545 0.03498224 0.031523295 0.032736357 -0.040972557 0.0051323553
0.0030426926 -0.022375863 -0.038627863 0.044302434 0.03072281 -0.061086103 0.048699014 -0.028214373
-0.028641272 -0.031642944 -0.07130035 0.04075843 0.0789988 0.023521127 0.053421836 0.052891027
-0.027093928 -0.028304731 0.00028967322 -0.1285472 -0.07095847 -0.057543695 0.005294953 -0.031089993
-0.00463038 0.038490042 0.02386003 -0.010126103 -0.058477856 0.071626596 -0.085974485 0.05136201
0.035147183 -0.12194736 0.01969578 -0.0154376095 -0.057394415 -0.03062624 -0.05650439 -0.094255686
0.039987452 0.028849091 -0.070747785 0.037112158 -0.036371857 0.036571257 -0.051923882 -0.026492773
-0.06844388 0.10857048 -0.033979222 -0.07399249 -0.025033712 0.016925119 -0.012564627 0.06396499
0.015198477 0.09383352 -0.0031937847 -0.010908384 0.11556899 0.061880175 -0.022126155 0.041155126
-0.0639141 0.015494128 0.018246425 -0.021580193 -0.02684398 -0.05257167 0.030885069 -0.040093314
-0.034562085 -0.08313408 0.01282813 0.033504236 0.052817192 -0.008425935 -0.038306963 -0.033782363
0.0020204782 -0.019438168 0.029214283 0.08674452 -0.007967574 0.051878292 0.08732283 -0.0500721
-0.047134764 -0.0016815996 0.008422804 -0.03496375 -0.06820145 -0.045202672 -0.022582442 -0.0909462
0.008839546 0.078427754 -0.034554645 0.07147553 0.037032146 -0.068261996 -0.052757695 0.052037656
-0.048789755 -0.052034207 0.0112894885 0.052606568 -0.03627088 -0.04096371 0.019664748 -0.05172098
-0.01476765 -0.026544588 -0.021068089 0.012303941 0.015693858 0.005260909 0.07394277 0.026363809
-0.06182514 0.06356789 0.0058340523 -0.10431714 0.038425233 0.025559401 -0.084590755 0.046553478
0.087827206 0.087840535 0.06503686 -0.054124415 0.09668397 0.015337865 0.087585784 0.04763859
0.037888348 0.08146876 -0.050749633 0.051345393 0.07048146 0.03845071 -0.029516118 -0.00040237178
0.05140977 -0.007112921 -0.01861833 0.058363833 -0.0719553 0.11691877 0.05246035 0.02799535
0.046402447 -0.059613127 -0.0128251435 -0.041939527 -0.036855783 0.042066522 -0.01669029 0.08278017
-0.02202202 -0.034883384 0.075728774 -0.0059403703 0.08333943 0.022787552 -0.07861735 -0.064429685
-0.0009727642 -0.050877336 0.05758403 -0.044765923 0.05972806 0.020885766 -0.04100148 0.015740685
0.07436447 0.08414653 0.09661049 0.03384487 0.08677336 -0.016225366 -0.044906676 0.043141663
0.033941478 -0.008199419 -0.0494487 -0.0074827946 0.081401736 -0.0170346 0.035191305 -0.055977035
0.0415885 0.07677616 0.052964184 0.0013771155 0.00668603 -0.026349744 -0.033204917 0.0122287795
0.04933603 0.047443222 -0.05471007 0.07291989 0.062277425 0.037229344 -0.048567954 0.009081388
-0.018985134 -0.016553434 -0.039897487 -0.07010512 0.06243678 0.006400253 0.07608003 -0.027468923
0.00018254176 0.08411027 -0.050380737 0.004762898 0.013310039 0.09754275 0.034641907 -0.021379367
-0.036756128 -0.011922749 0.038389705 -0.05242182 -0.029450664 -0.014928646 0.07216948 -0.027604159
0.060484853 0.052403312 -0.038993716 0.017461622 0.018805003 0.032103468 -0.06441081 -0.028157208
00000000: 97a4 13bd 1188 b2bd 1f87 74bd 60c1 023c
00000010: 9c08 d73d 2073 30bd 8f1c b93c 6007 113d
00000020: 5e9e 0abd 3a50 913d 9588 e23b 8a49 0f3d
00000030: 921e 013d 8f16 063d d7d2 27bd 512d a83b
00000040: e967 473b 964d b7bc 4038 1ebd 7876 353d
00000050: 67ae fb3c 6c35 7abd 9e78 473d d421 e7bc
00000060: 1aa1 eabc 089c 01bd eb05 92bd 50f2 263d
00000070: 1fca a13d 61af c03c dbd0 5a3d 43a4 583d
00000080: 16f4 ddbc 53df e7bc 48df 9739 e1a1 03be
00000090: ad52 91bd f0b2 6bbd 4981 ad3b 71b0 febc
000000a0: 71ba 97bb bca7 1d3d 1c76 c33c f4e7 25bc
000000b0: 7a86 6fbd f7b0 923d 6413 b0bd f960 523d
000000c0: 7ef6 0f3d 8abf f9bd 0b59 a13c 07ee 7cbc
000000d0: 6816 6bbd e1e3 fabc 2671 67bd 2009 c1bd
000000e0: e2c9 233d ee54 ec3c 37e4 90bd eb02 183d
000000f0: a8fa 14bd becb 153d 23ae 54bd 5f07 d9bc
00000100: 4e2c 8cbd 335a de3d cc2d 0bbd 6089 97bd
00000110: 8013 cdbc 8ca6 8a3c dedb 4dbc 1400 833d
00000120: 0803 793c ca2b c03d d14e 51bb 14b9 32bc
00000130: 6faf ec3d 1176 7d3d e941 b5bc 4792 283d
00000140: 65e5 82bd 15db 7d3c 8779 953c f2c8 b0bc
00000150: e8e7 dbbc 6455 57bd af02 fd3c e338 24bd
00000160: f990 0dbd 3342 aabd 142d 523c bd3b 093d
00000170: d756 583d ef0c 0abc c3e7 1cbd 605f 0abd
00000180: 006a 043b cb3c 9fbc cb52 ef3c 1ca7 b13d
00000190: 6d8a 02bc 557e 543d 50d6 b23d 6718 4dbd
000001a0: 6210 41bd 1f69 dcba cdff 093c 2636 0fbd
000001b0: 34ad 8bbd 7026 39bd d0fe b8bc 0042 babd
000001c0: bed3 103c bb9e a03d 2c89 0dbd c361 923d
000001d0: 05af 173d f2cc 8bbd 7418 58bd 7025 553d
000001e0: c4d7 47bd d221 55bd 8cf7 383c fc79 573d
000001f0: c690 14bd 90c9 27bd f717 a13c 61d9 53bd
00000200: 03f4 71bc 0974 d9bc fc96 acbc 7896 493c
00000210: 6890 803c b463 ac3b 4f6f 973d eaf8 d73c
00000220: 5c3c 7dbd e22f 823d 942b bf3b 3aa4 d5bd
00000230: c763 1d3d f361 d13c eb3d adbd dcae 3e3d
00000240: c0de b33d bde5 b33d 0c32 853d 90b1 5dbd
00000250: 3f02 c63d ab4b 7b3c 2d60 b33d af20 433d
00000260: d030 1b3d 18d9 a63d d9de 4fbd 8c4f 523d
00000270: 9558 903d 7e7e 1d3d c9cb f1bc 6df5 d2b9
00000280: 0d93 523d 8213 e9bb 7885 98bc ea0e 6f3d
00000290: 4d5d 93bd 1c73 ef3d aae0 563d 8156 e53c
000002a0: 7e10 3e3d e52c 74bd 8d20 52bc c8c8 2bbd
000002b0: 17f6 16bd f24d 2c3d 13ba 88bc a688 a93d
000002c0: 8667 b4bc e1e1 0ebd b017 9b3d 70a7 c2bb
000002d0: ddad aa3d f6ac ba3c 2202 a1bd b6f3 83bd
000002e0: 1a01 7fba c164 50bd 3bdd 6b3d 795c 37bd
000002f0: 69a5 743d a018 ab3c 2bf1 27bd 9cf2 803c
00000300: 664c 983d 0455 ac3d b8db c53d eba0 0a3d
00000310: 3bb6 b13d 0feb 84bc 10f0 37bd 50b5 303d
00000320: 3806 0b3d db56 06bc b88a 4abd 3b32 f5bb
00000330: f4b5 a63d 258c 8bbc c224 103d 2d48 65bd
00000340: b458 2a3d d23c 9d3d f9f0 583d 5480 b43a
00000350: 7c16 db3b 6bdb d7bc e101 08bd 385b 483c
00000360: 9414 4a3d d353 423d ab17 60bd 0657 953d
00000370: 9d16 7f3d cc7d 183d 31ef 46bd 1aca 143c
00000380: b686 9bbc 119b 87bc 8c6b 23bd 4693 8fbd
00000390: b6bd 7f3d 37b9 d13b d9cf 9b3d 8206 e1bc
000003a0: ae68 3f39 0142 ac3d 085c 4ebd 1612 9c3b
000003b0: 5a12 5a3c 7ec4 c73d ace4 0d3d c823 afbc
000003c0: 988d 16bd a257 43bc 863e 1d3d 43b8 56bd
000003d0: 8542 f1bc 4897 74bc 98cd 933d 1e22 e2bc
000003e0: f7be 773d dba4 563d e0b7 1fbd ad0b 8f3c
000003f0: f30c 9a3c ed7e 033d d1e9 83bd f2a9 e6bc

decoders.0.decoder_net.7.bias f4 [16]
0.048554853 0.005613692 0.040661428 -0.05543694 0.099808015 0.13907024 0.092036806 0.008250678
0.0005667243 0.020482548 -0.060197968 -0.0870946 -0.06695453 0.011855892 0.016698096 0.049399324
00000000: 74e1 463d 10f3 b73b 998c 263d d811 63bd
00000010: 2568 cc3d 6e68 0e3e cb7d bc3d da2d 073c
00000020: 3990 143a 04cb a73c 2592 76bd a75e b2bd
00000030: 751f 89bd 373f 423c 72ca 883c f256 4a3d

decoders.0.decoder_net.9.weight f4 [16]
0.9493853 0.9476916 0.96053743 0.9618653 0.9442672 0.9594529 0.9623899 0.95338386
0.9514885 0.9486635 0.94510007 0.95603216 0.9680468 0.9554763 0.9568271 0.9528737
00000000: ea0a 733f eb9b 723f c8e5 753f ce3c 763f
00000010: 7fbb 713f b59e 753f 2f5f 763f f710 743f
00000020: c094 733f 9cdb 723f 14f2 713f 86be 743f
00000030: ead1 773f 189a 743f 9ff2 743f 88ef 733f

decoders.0.decoder_net.9.bias f4 [16]
-0.06416999 -0.018994166 0.03413064 0.022406956 -0.003682297 0.023957299 -0.017033704 0.0048544384
-0.020750234 0.024846608 0.011760292 0.01567423 0.022784332 -0.031152362 0.019843372 -0.012320875
00000000: 8e6b 83bd a799 9bbc 92cc 0b3d cb8e b73c
00000010: b152 71bb 1942 c43c 448a 8bbc fb11 9f3b
00000020: 65fc a9bc 1d8b cb3c 3dae 403c 3e67 803c
00000030: 35a6 ba3c 3d33 ffbc 918e a23c 7fdd 49bc

decoders.0.decoder_net.9.running_mean f4 [16]
0.06500148 0.060267515 0.06284494 0.059999492 0.068246394 0.07149264 0.066777855 0.062339928
0.059028905 0.062387 0.05668052 0.058070518 0.057933774 0.061109725 0.06326883 0.06455029
00000000: 7f1f 853d 12db 763d d9b4 803d 07c2 753d
00000010: c4c4 8b3d bc6a 923d d4c2 883d 2758 7f3d
00000020: 4bc8 713d 8389 7f3d d529 683d 5adb 6d3d
00000030: f74b 6d3d 314e 7a3d 1793 813d f132 843d

decoders.0.decoder_net.9.running_var f4 [16]
0.0009266303 0.0005529839 0.0006568345 0.0007508738 0.0009622147 0.0012439691 0.0008897994 0.0008947417
0.00045794487 0.0006198663 0.00046125418 0.0007429908 0.00084209297 0.00068484095 0.0011222834 0.0009553772
00000000: 1be9 723a 1ff6 103a 6b2f 2c3a 4ad6 443a
00000010: 233d 7c3a ad0c a33a 6d41 693a 198d 6a3a
00000020: 5218 f039 867e 223a 7dd4 f139 45c5 423a
00000030: e7bf 5c3a e686 333a 9519 933a 4772 7a3a

decoders.0.decoder_net.10.weight f4 [16, 1, 3, 3]
0.24334295 -0.00046340222 -0.03486524 0.06253399 -0.23408917 0.021878859 0.036763508 -0.084104784
-0.23973706 -0.162922 0.060813326 -0.05151194 -0.1615165 -0.024922539 0.034555506 -0.0710122
-0.19285749 -0.22478677 -0.15317863 0.2199558 -0.14033292 0.20981535 0.19164905 0.052167736
0.045777775 0.019258007 -0.017715206 -0.17409939 0.07009046 -0.046931606 0.2356929 0.23251697
0.12613793 0.24621104 0.15278089 0.18717116 -0.03818723 0.055796083 -0.09496533 0.14965084
0.07575261 -0.022845423 -0.10721726 -0.077120066 -0.20558792 0.2673255 -0.007707469 0.050022073
0.22632477 -0.100123845 0.04248224 -0.003995174 -0.06989162 0.009920028 -0.00039718935 -0.14301465
-0.015476264 -0.17238207 -0.25635836 0.055927362 0.27608445 -0.21918428 -0.119385146 0.1427107
-0.038178083 -0.13819861 0.011070664 0.14030401 -0.1300039 -0.08485872 0.15618509 -0.031710412
0.18023337 -0.23494954 -0.028257303 -0.11100747 -0.25837618 -0.13662691 0.15703803 -0.074971266
-0.26505557 0.19776964 -0.16622001 0.04405206 -0.17498784 -0.015352859 0.16166781 0.07236219
-0.08379323 0.17580438 0.029809637 0.10010638 0.20240669 0.09883718 -0.26362267 -0.03842637
0.050911624 -0.06535739 0.16996577 0.012620296 0.10780054 0.2525595 0.21921727 0.24179645
0.037630104 -0.25684583 0.22390844 -0.048347544 0.05003715 0.17748718 -0.009385802 0.25383607
0.27504146 0.14289886 0.11760124 0.1656703 0.15023492 0.13334739 -0.089205034 -0.19023667
0.08352503 -0.15348276 -0.075405024 -0.16510415 0.03312466 0.27618825 0.036706563 0.15812662
0.25218147 0.19916524 0.1330166 0.15748511 0.2268884 0.11334243 0.22541735 -0.016385669
-0.111485414 -0.25346196 0.055595234 -0.24478178 -0.056547254 0.22184475 -0.25082493 -0.20350888
00000000: e52e 793e cbf4 f2b9 dbce 0ebd d211 803d
00000010: 12b5 6fbe 4b3b b33c 5595 163d 213f acbd
00000020: a27d 75be 06d5 26be 6517 793d 2ffe 52bd
00000030: 9564 25be 5a2a ccbc 138a 0d3d d86e 91bd
00000040: 6f7c 45be 812e 66be dcda 1cbe 183c 613e
00000050: 6fb3 0fbe d6d9 563e a63f 443e d6ad 553d
00000060: 7a81 3b3d f8c2 9d3c 7b1f 91bc 1c47 32be
00000070: 968b 8f3d 5b3b 40bd 7b59 713e ee18 6e3e
00000080: 4d2a 013e bf1e 7c3e 9872 1c3e cca9 3f3e
00000090: 366a 1cbd 6f8a 643d 2f7d c2bd 123e 193e
000000a0: 2f24 9b3d 5326 bbbc b994 dbbd 20f1 9dbd
000000b0: a485 52be e3de 883e f08e fcbb f2e3 4c3d
000000c0: aec1 673e bb0d cdbd db01 2e3d f3e9 82bb
000000d0: 5623 8fbd 9d87 223c da3d d0b9 6f72 12be
000000e0: 2890 7dbc ed84 30be 6741 83be 1714 653d
000000f0: f15a 8d3e d871 60be 3380 f4bd c122 123e
00000100: 9f60 1cbd f083 0dbe bb61 353c dbab 0f3e
00000110: be1f 05be 69ca adbd fcee 1f3e c7e2 01bd
00000120: 198f 383e 9d96 70be dc7b e7bc e257 e3bd
00000130: e249 84be ede7 0bbe 94ce 203e 898a 99bd
00000140: 5db5 87be 2084 4a3e 9435 2abe ef6f 343d
00000150: 0330 33be 8f8a 7bbc 3f8c 253e a132 943d
00000160: c99b abbd 1006 343e 5733 f43c 9304 cd3d
00000170: b343 4f3e 266b ca3d 8df9 86be f864 1dbd
00000180: b588 503d 18da 85bd 820b 2e3e 5cc5 4e3c
00000190: 88c6 dc3d 7b4f 813e 7e7a 603e 7d99 773e
000001a0: 0622 1a3d 4c81 83be 4148 653e 1308 46bd
000001b0: c1f3 4c3d 33bf 353e e8c6 19bc cdf6 813e
000001c0: 3cd2 8c3e 1454 123e ebd8 f03d 7aa5 293e
000001d0: 2fd7 193e 388c 083e 21b1 b6bd 67cd 42be
000001e0: 2c0f ab3d 962a 1dbe f36d 9abd 1011 29be
000001f0: b9ad 073d 8c68 8d3e 9f59 163d f2eb 213e
00000200: ee1d 813e f9f1 4b3e 8135 083e c743 213e
00000210: 6f55 683e 1320 e83d ced3 663e 3d3b 86bc
00000220: 7752 e4bd c4c5 81be d4b7 633d 13a8 7abe
00000230: 189e 67bd 452b 633e 206c 80be a264 50be

decoders.1.decoder_net.0.weight f4 [512, 2]
0.5863192 0.29819807 -0.16931675 0.5599616 0.3075004 -0.5527615 -0.31499 0.012414031
-0.17032304 -0.6347207 -0.1516968 0.5678076 0.47647053 -0.22302337 0.07441332 -0.52162975
0.19076198 0.34100375 -0.2565256 0.31222835 -0.63542545 0.39387384 -0.53888786 0.4260255
-0.34732854 -0.3970809 -0.26114672 -0.5622322 0.15477788 0.09689451 0.049929556 -0.41796795
-0.26669878 0.12638211 -0.2087661 0.34186462 0.30694848 0.18144305 -0.26557952 0.09890423
0.44495395 0.6148465 -0.17412408 0.6592752 0.45069337 0.33801484 -0.14949593 -0.26384908
-0.19302998 0.016804041 0.49555206 -0.21501829 -0.1437748 -0.56434447 -0.58104074 -0.65817523
-0.13052867 -0.07558471 -0.4551397 -0.35224727 0.08233482 -0.7381914 0.51880175 0.015882721
0.40807605 0.2624461 0.07147031 -0.56645864 -0.42405042 -0.5042554 -0.37695426 -0.17442769
0.5902957 -0.26479447 0.47894183 0.12289367 0.48701409 -0.27745247 -0.3667202 0.3471861
0.4912389 0.6035329 0.5820129 -0.6361318 0.47552028 -0.39942548 0.5615697 -0.4950517
0.28211385 0.05772764 -0.64124763 -0.0018695857 0.13068917 0.6048429 0.20768905 -0.3950296
-0.23216261 -0.22971363 0.43466794 -0.113347 -0.27060094 -0.06024894 -0.62236094 -0.37457973
-0.035306953 -0.22406329 -0.32636324 0.16258495 0.48259857 -0.4479143 0.39708996 0.5473744
-0.6460988 -0.12976718 0.57840544 0.61694634 0.817086 0.1434338 -0.64483076 0.22033827
-0.52987653 0.5714642 0.23168598 -0.23132628 0.29946792 -0.61688083 0.20070367 0.123196825
0.50295806 -0.4432027 -0.0539772 -0.45012245 -0.15874173 -0.15116689 0.63209474 -0.43095326
0.013006969 -0.120568864 0.3674427 0.4168662 0.7604803 -0.17485724 0.34825772 -0.11443871
-0.31033248 0.21055272 0.3387754 0.0031447194 0.15626472 0.028292097 -0.27289447 -0.70911336
0.027660053 0.12361634 -0.49563673 0.12740071 -0.6169272 0.48304346 -0.5009218 0.13249499
0.33460554 -0.43587956 0.5177015 -0.48797926 -0.4188052 -0.039110817 0.16668524 0.05549892
-0.30345845 0.5091249 -0.42236876 0.16821183 -0.08078273 0.665973 0.60709316 0.4554316
0.0014231635 0.6331521 -0.5538233 0.34493542 0.15281132 0.7042914 0.028561322 -0.24410301
0.2036619 -0.018804904 0.17341273 -0.5993617 0.09641331 -0.25278053 0.47447562 -0.43738332
-0.54960275 -0.0603064 0.14099294 -0.42314896 0.33946177 0.65643656 0.27527297 0.62826073
0.28508684 0.2920847 0.0127656255 -0.20780376 -0.578663 -0.6243593 0.68322945 -0.07757266
0.5549925 -0.07895441 -0.13537374 0.44228593 -0.53432816 -0.2553588 0.5317757 0.47158587
0.3431995 -0.10243007 0.25879443 -0.17705527 -0.255486 -0.72271025 -0.46009764 -0.30957404
-0.39170173 -0.46772745 -0.30995828 0.46450636 -0.3029747 -0.19268514 -0.24613985 0.48378888
0.4052469 -0.17079407 -0.11090373 -0.5089225 0.5176296 0.13251163 0.53342104 0.31555262
-0.0062168045 0.6666838 -0.32188678 0.043845713 -0.6512378 -0.439867 0.5015688 0.18918717
-0.064512886 0.38506228 0.5373106 0.10008079 0.3834944 -0.3592906 -0.63274246 0.063561045
00000000: 0419 163f 6bad 983e 5f61 2dbe a559 0f3f
00000010: b170 9d3e c781 0dbf 5f46 a1be 3864 4b3c
00000020: 2a69 2ebe 0e7d 22bf 6856 1bbe d75b 113f
00000030: f2f3 f33e 3d60 64be 0366 983d 8789 05bf
00000040: 1c57 433e 0b98 ae3e 5357 83be 65dc 9f3e
00000050: 3eab 22bf d5a9 c93e 8ef4 09bf 0420 da3e
00000060: 0cd5 b1be 304e cbbe 06b5 85be 73ee 0fbf
00000070: 187e 1e3e a170 c63d ef82 4c3d e5ff d5be
00000080: be8c 88be 506a 013e c8c6 55be e108 af3e
00000090: 5a28 9d3e 35cc 393e 0afa 87be 4d8e ca3d
000000a0: 01d1 e33e 9566 1d3f 954d 32be 42c6 283f
000000b0: 48c1 e63e 4810 ad3e 7615 19be 3a17 87be
000000c0: a7a9 45be a1a8 893c 00b9 fd3e c12d 5cbe
000000d0: b339 13be e178 10bf 16bf 14bf 2c7e 28bf
000000e0: 4fa9 05be 28cc 9abd 1208 e9be c159 b4be
000000f0: 289f a83d 1dfa 3cbf 31d0 043f 7b1c 823c
00000100: 58ef d03e 565f 863e 075f 923d 6f03 11bf
00000110: 231d d9be e216 01bf 2600 c1be 2c9d 32be
00000120: 9e1d 173f 2493 87be dd37 f53e adaf fb3d
00000130: e959 f93e 400e 8ebe c0c2 bbbe 60c2 b13e
00000140: aa83 fb3e 2281 1a3f ccfe 143f 89d9 22bf
00000150: 6577 f33e 7f81 ccbe 08c3 0f3f 6b77 fdbe
00000160: 3a71 903e d173 6c3d ce28 24bf e30c f5ba
00000170: 62d3 053e fcd6 1a3f 70ac 543e 5241 cabe
00000180: 09bc 6dbe 0d3a 6bbe cc8c de3e 7922 e8bd
00000190: 358c 8abe 98c7 76bd 0c53 1fbf eac8 bfbe
000001a0: 069e 10bd d970 65be 1519 a7be ab7c 263e
000001b0: 2917 f73e 0655 e5be 604f cb3e bb20 0c3f
000001c0: bb66 25bf b0e1 04be 6112 143f 32f0 1d3f
000001d0: 8c2c 513f 4fe0 123e a113 25bf 5ba0 613e
000001e0: fda5 07bf 7a4b 123f 173f 6d3e cce0 6cbe
000001f0: dc53 993e e7eb 1dbf 4385 4d3e 9e4e fc3d
00000200: dcc1 003f 77eb e2be 3217 5dbd 7376 e6be
00000210: 318d 22be 7ecb 1abe f6d0 213f e8a5 dcbe
00000220: 2f1b 553c cfec f6bd 7321 bc3e 7d6f d53e
00000230: d6ae 423f c70d 33be d64e b23e d85e eabd
00000240: e6e3 9ebe 229b 573e f873 ad3e a317 4e3b
00000250: dc03 203e d4c4 e73c d3b8 8bbe 7488 35bf
00000260: 5697 e23c 902a fd3d 19c4 fdbe 5575 023e
00000270: f1ee 1dbf 7951 f73e 693c 00bf c4ac 073e
00000280: 6b51 ab3e 9b2b dfbe 1688 043f 6bd8 f9be
00000290: a36d d6be aa32 20bd 89af 2a3e d652 633d
000002a0: e85e 9bbe 0256 023f b840 d8be b93f 2c3e
000002b0: 6a71 a5bd 357d 2a3f 756a 1b3f 552e e93e
000002c0: 7189 ba3a 4216 223f 5dc7 0dbf 609b b03e
000002d0: 927a 1c3e 714c 343f 6ff9 e93c 24f6 79be
000002e0: bf8c 503e be0c 9abc 1b93 313e c56f 19bf
000002f0: 5774 c53d 736c 81be 78ee f23e b5f0 dfbe
00000300: c4b2 0cbf d803 77bd 7460 103e fba6 d8be
00000310: efcd ad3e 3a0c 283f 94f0 8c3e b2d5 203f
00000320: e7f6 913e 208c 953e ea26 513c 82ca 54be
00000330: 4223 14bf 03d6 1fbf 20e8 2e3f 6ade 9ebd
00000340: fd13 0e3f dab2 a1bd 6a9f 0abe 4d73 e23e
00000350: bbc9 08bf 63be 82be 7422 083f b473 f13e
00000360: d8b7 af3e dbc6 d1bd b480 843e fa4d 35be
00000370: 10cf 82be 8a03 39bf eb91 ebbe 7d80 9ebe
00000380: 218d c8be f979 efbe dab2 9ebe c7d3 ed3e
00000390: 801f 9bbe 414f 45be 160c 7cbe 2db3 f73e
000003a0: 867c cf3e a4e4 2ebe 7f21 e3bd bf48 02bf
000003b0: 6083 043f 21b1 073e 488e 083f 1d90 a13e
000003c0: 56b6 cbbb caab 2a3f 58ce a4be 9097 333d
000003d0: 85b7 26bf 3f36 e1be d066 003f 48ba 413e
000003e0: 551f 84bd e226 c53e 308d 093f 28f7 cc3d
000003f0: 6159 c43e f0f4 b7be 69fb 21bf 4b2c 823d

decoders.1.decoder_net.0.bias f4 [512]
-0.6390321 0.24046595 -0.57268125 -0.41051382 0.053091876 -0.3444913 0.56001043 -0.10167692
-0.45360732 -0.16620371 0.70678806 0.2486799 -0.3974076 0.6099378 0.1140619 -0.48312455
0.03114467 0.24057662 -0.40371412 0.009238447 0.58314157 -0.2648438 0.067815386 0.45453843
0.5074794 0.28707424 0.3022058 -0.545951 0.19059245 0.6222337 -0.7172994 0.62633955
0.51468664 -0.63193977 0.3650093 0.054592505 -0.40342695 -0.034797505 -0.09213011 -0.24271502
-0.20848557 0.2471244 0.45638922 -0.4940143 -0.6637193 -0.17934047 -0.29955825 0.24290499
0.23190951 0.43976903 -0.5942894 0.49849197 -0.33554357 -0.36462152 -0.43502286 -0.22727418
-0.43479088 0.2635738 -0.19195528 -0.41592953 -0.53603613 0.6481818 0.52771 0.25283426
0.5905696 0.6677171 0.10032941 0.12856251 0.57194406 -0.26133075 0.116119206 0.58490956
-0.15835704 0.38755038 -0.32045937 0.091902904 -0.687502 -0.20237863 0.15328094 0.72253406
-0.43468952 -0.1651794 -0.58545333 -0.73469615 0.43386143 -0.039707944 -0.016733676 -0.17427619
0.12518115 0.44808406 0.7221167 0.6634126 -0.49153537 -0.3761213 0.47298628 0.23187979
-0.074052505 -0.07335629 -0.30535853 -0.30348054 -0.3389052 0.113942645 0.71331006 -0.58266735
-0.42440158 0.29040846 -0.17631163 -0.6576874 -0.5286107 0.3431641 0.66334814 -0.17077146
0.11794112 0.1744943 0.54492056 -0.062160518 0.34756976 0.17514773 -0.5154863 -0.38460556
0.2768026 0.30469894 0.42598334 0.7092608 0.20079587 0.6457039 -0.45466295 -0.5839004
0.6703004 0.26455158 -0.5990002 0.4723683 0.28360876 -0.5155275 -0.22242859 -0.7196119
-0.0115488935 0.11538055 0.39957723 0.18453464 -0.16344287 0.46690196 0.12916102 -0.62100756
0.22957847 -0.10381914 0.08468959 -0.1578946 0.6843553 -0.10409212 -0.13853578 0.07859375
0.36814728 -0.28401077 -0.2503828 -0.63441646 -0.45319062 0.36936113 0.20824666 0.31126446
0.22592655 0.67254674 -0.46304974 -0.70669115 -0.11059565 -0.5814276 -0.13770555 0.7405078
0.17154126 0.05025139 -0.56907994 -0.5882477 -0.0014988827 -0.6356366 -0.097206764 -0.1016124
0.21340023 0.58326524 0.48218402 -0.5821273 0.12748426 -0.23450932 -0.51879185 -0.6487548
-0.16241218 -0.28675362 0.32995933 0.65769523 0.010514872 -0.16337655 -0.4293333 0.35417208
0.57587045 0.17004617 0.64335114 -0.14672382 0.13023458 -0.26794353 0.24215426 -0.64161885
-0.39855653 0.6276296 -0.2573767 -0.3070738 0.027376136 -0.14991267 -0.20384686 0.29978505
0.49944684 -0.58109164 -0.49532947 -0.07196739 -0.5051844 -0.064200334 -0.19588076 0.30294067
-0.13740921 0.6239282 0.10340185 -0.11037231 0.122404516 0.4745573 -0.50954145 -0.039882742
0.31175175 0.05859273 0.112426676 0.60883605 0.5331991 -0.5472066 0.124142274 0.30116722
-0.48608002 -0.17275424 0.17017639 -0.49052706 0.5055551 0.031399 0.27445367 0.46909088
-0.41080827 -0.3466865 -0.19669479 -0.49399647 -0.06363423 -0.33358344 0.29414082 -0.30546674
-0.63035655 0.5018043 0.14978787 0.7103847 -0.41880366 -0.07779561 0.5041365 0.28275445
00000000: 9c97 23bf b53c 763e 3d9b 12bf de2e d2be
00000010: de76 593d 2a61 b0be d85c 0f3f fd3b d0bd
00000020: 383f e8be 4e31 2abe 10f0 343f f2a5 7e3e
00000030: 0279 cbbe e224 1c3f 4999 e93d 1a5c f7be
00000040: 1b23 ff3c b859 763e 9eb3 cebe db5c 173c
00000050: c448 153f 9b99 87be cbe2 8a3d 43b9 e83e
00000060: 2cea 013f 65fb 923e b8ba 9a3e 72c3 0bbf
00000070: ab2a 433e b54a 1f3f efa0 37bf ca57 203f
00000080: 81c2 033f cec6 21bf 80e2 ba3e 649c 5f3d
00000090: fa8d cebe d487 0ebd b6ae bcbd 498a 78be
000000a0: 3e7d 55be 2e0e 7d3e d9ab e93e 71ef fcbe
000000b0: 82e9 29bf 07a5 37be b35f 99be 16bc 783e
000000c0: b079 6d3e 6829 e13e 5a23 18bf 573a ff3e
000000d0: 5ecc abbe acaf babe 51bb debe 90ba 68be
000000e0: e99c debe 25f3 863e ed8f 44be b7f4 d4be
000000f0: aa39 09bf 3eef 253f 0118 073f 7e73 813e
00000100: 922f 173f 82ef 2a3f 8179 cd3d e4a5 033e
00000110: ed6a 123f 25cd 85be e8cf ed3d a2bc 153f
00000120: 5928 22be 016d c63e 4013 a4be 9737 bc3d
00000130: 2200 30bf 583c 4fbe aef5 1c3e fef7 383f
00000140: a08f debe ca24 29be 45e0 15bf 0c15 3cbf
00000150: 1623 de3e cca4 22bd 1015 89bc 7575 32be
00000160: 7d2f 003e 466b e53e a4dc 383f 68d5 293f
00000170: 86aa fbbe f992 c0be 422b f23e e571 6d3e
00000180: d7a8 97bd d33b 96bd f457 9cbe cd61 9bbe
00000190: fb84 adbe c35a e93d 7d9b 363f b029 15bf
000001a0: 2a4b d9be 6bb0 943e 098b 34be 345e 28bf
000001b0: 0853 07bf 34b3 af3e 2fd1 293f b7de 2ebe
000001c0: 1d8b f13d a2ae 323e ea7f 0b3f 079c 7ebd
000001d0: aaf4 b13e ed59 333e e9f6 03bf 05eb c4be
000001e0: 12b9 8d3e 8001 9c3e 7d1a da3e 1e92 353f
000001f0: 6f9d 4d3e da4c 253f 95c9 e8be 7f7a 15bf
00000200: cf98 2b3f 4e73 873e 1458 19bf 42da f13e
00000210: 2b35 913e 9cf9 03bf 52c4 63be 7c38 38bf
00000220: 9237 3dbc a34c ec3d 6395 cc3e a6f6 3c3e
00000230: 915d 27be c60d ef3e c942 043e 5afa 1ebf
00000240: 9e16 6b3e 219f d4bd bc71 ad3d 1faf 21be
00000250: e931 2f3f 402e d5bd 53dc 0dbe c3f5 a03d
00000260: cd7d bc3e dc69 91be 2d32 80be 1e69 22bf
00000270: 9a08 e8be e71c bd3e 9d3e 553e 0e5e 9f3e
00000280: 4a59 673e 062c 2c3f db14 edbe b6e9 34bf
00000290: f97f e2bd 70d8 14bf af02 0dbe eb91 3d3f
000002a0: 83a8 2f3e 67d4 4d3d 39af 11bf 6797 16bf
000002b0: 2876 c4ba 15b9 22bf 5714 c7bd 291a d0bd
000002c0: 9785 5a3e df50 153f d3e0 f63e 4b06 15bf
000002d0: 3c8b 023e 3623 70be 8bcf 04bf cb14 26bf
000002e0: 614f 26be 5fd1 92be 6ef0 a83e b75e 283f
000002f0: 9246 2c3c 2f4c 27be 93d1 dbbe 0b56 b53e
00000300: 3f6c 133f 9520 2e3e a9b2 243f c53e 16be
00000310: 375c 053e e52f 89be 49f7 773e 2241 24bf
00000320: 9a0f ccbe 55ac 203f e1c6 83be c738 9dbe
00000330: eb43 e03c b582 19be 3bbd 50be 6d7d 993e
00000340: 7fb7 ff3e 6cc2 14bf d39b fdbe a463 93bd
00000350: c453 01bf 777b 83bd f794 48be 0a1b 9b3e
00000360: 00b5 0cbe c2b9 1f3f 59c4 d33d e10a e2bd
00000370: 38af fa3d 2df9 f23e 4f71 02bf 165c 23bd
00000380: ed9d 9f3e eefe 6f3d f53f e63d aedc 1b3f
00000390: bc7f 083f bb15 0cbf 4e3e fe3d 9732 9a3e
000003a0: 7bdf f8be 7de6 30be b842 2e3e 5d26 fbbe
000003b0: 0f6c 013f 3d9c 003d 3185 8c3e ae2c f03e
000003c0: 7655 d2be e580 b1be 5c6a 49be 1bed fcbe
000003d0: aa52 82bd 73cb aabe a099 963e 2366 9cbe
000003e0: 0c5f 21bf 3f76 003f fe61 193e c6db 353f
000003f0: 6f6d d6be 4e53 9fbd 170f 013f 31c5 903e
