Project2/models/model_4_6.pt (torch, 356538 bytes, 94 tensors)

prior.mean f4 [2]
0	0x00000000	0.0
1	0x00000000	0.0

prior.std f4 [2]
0	0x3f800000	1.0
1	0x3f800000	1.0

decoders.0.decoder_net.0.weight f4 [512, 2]
0	0x3ec61447	0.38687345
1	0xbf13db06	-0.5775608
2	0x3eff9344	0.49917042
3	0x3f205536	0.6263002
4	0xbf37af66	-0.7175201
5	0x3c05580a	0.008138666
6	0x3e859745	0.26091972
7	0xbe5b61b6	-0.21423993
8	0xbecf96df	-0.40544793
9	0x3d520f87	0.05128434
10	0xbea72c9d	-0.32651225
11	0xbedd19d4	-0.43183768
12	0x3f0e6cbe	0.5563468
13	0xbd3fbcda	-0.046810962
14	0xbea70015	-0.3261725
15	0xbeb3ff79	-0.35155848
16	0xbf16f206	-0.5896305
17	0x3d952172	0.0728177
18	0xbcee110b	-0.029060861
19	0x3f0fa29d	0.56107503
20	0xbe1b64ea	-0.15175214
21	0x3e8ab5ec	0.2709192
22	0xbee1339e	-0.43984693
23	0x3e1870d7	0.14886795
24	0xbf052729	-0.5201288
25	0xbd0bd678	-0.03414008
26	0xbf11de8d	-0.5698021
27	0xbf0c06ed	-0.5469807
28	0xbee6bd74	-0.45066416
29	0xbf226f92	-0.6345149
30	0xbf0c771b	-0.5486924
31	0x3e76a877	0.24087702
32	0x3d37887e	0.044807903
33	0xbea9cfd0	-0.3316636
34	0x3f0ac6e1	0.54209715
35	0xbeac9441	-0.3370686
36	0xbec50bdc	-0.3848561
37	0xbec44635	-0.38334814
38	0xbe73f137	-0.23822485
39	0xbf2fb2e1	-0.6863232
40	0xbf2c1645	-0.6722148
41	0xbd36264f	-0.044470128
42	0x3d9504ec	0.072763294
43	0x3ea40703	0.320366
44	0xbee3c367	-0.44485018
45	0xba44bb8a	-0.0007504752
46	0xbdd055df	-0.101726286
47	0xbe90876d	-0.28228322
48	0x3d9ddd20	0.07708192
49	0x3d9b82ca	0.075933054
50	0xbefb92ae	-0.49135345
51	0xbef4d63e	-0.47819704
52	0xbd794992	-0.060861178
53	0x3dde5624	0.10856274
54	0xbe17699a	-0.14786378
55	0x3e9e7a28	0.30952573
56	0xbeed7e08	-0.46385217
57	0xbefe0678	-0.4961431
58	0x3f16f580	0.58968353
59	0x3d79a5ab	0.06094901
60	0xbd211264	-0.03932418
61	0xbefdb6e8	-0.4955361
62	0x3ebf2392	0.37331825
63	0x3ee3f039	0.44519213
64	0x3f3000d9	0.68751293
65	0xba83d809	-0.001005889
66	0x3f0fd9c3	0.56191653
67	0xbf14d37c	-0.581352
68	0x3dd88174	0.10571566
69	0x3c9a24a8	0.018816307
70	0x3f22174d	0.63316804
71	0x3f0c862c	0.5489223
72	0xbeb8799c	-0.3603028
73	0xbe8a109f	-0.26965806
74	0x3eac8670	0.33696318
75	0xbe66f313	-0.22553663
76	0x3ee01abb	0.43770394
77	0x3e9a21c1	0.30103877
78	0xbf21fe98	-0.63279104
79	0x3f20eb7e	0.6285933
80	0xbf2cffa8	-0.675776
81	0x3ddb3cc6	0.10704951
82	0xbf1e798d	-0.6190422
83	0xbf1e0b5b	-0.6173608
84	0x3e85bfe9	0.26122978
85	0xbd9361fb	-0.07196423
86	0x3cd1b0dc	0.025597028
87	0x3efe8fb5	0.49719015
88	0xbe0d061b	-0.1377186
89	0x3d1673f6	0.036731683
90	0xbeb40398	-0.35158992
91	0xbf237bc7	-0.63860744
92	0xbf009184	-0.5022204
93	0xbf1fef97	-0.6247496
94	0x3dfd13fc	0.12357327
95	0xbf232bc1	-0.6373864
96	0x3f0525c1	0.5201073
97	0xbee68898	-0.45026088
98	0x3d382859	0.044960354
99	0xbf1b4afc	-0.6066129
100	0xbe4fcd50	-0.20293164
101	0x3ee575c0	0.448164
102	0x3d8b2e35	0.06795923
103	0x3e7de263	0.24793391
104	0xbef63bc8	-0.48092484
105	0xbf22e98c	-0.63637614
106	0x3eb90fb4	0.36144793
107	0x3d0824dd	0.03323828
108	0xbeb96c02	-0.36215216
109	0xbc6830ee	-0.014171822
110	0xbe0b03f8	-0.13575733
111	0xbebd2a12	-0.3694616
112	0xbec3192c	-0.38105142
113	0xbedf697a	-0.4363516
114	0xbf247791	-0.64244944
115	0xbeb52c40	-0.35385323
116	0x3ef56bc3	0.47933778
117	0xbf2d8542	-0.6778146
118	0xbd540639	-0.051763747
119	0xbdc6dae0	-0.09709716
120	0x3eea6217	0.45777962
121	0x3d9ab4ec	0.07554039
122	0xbf2787a2	-0.65441334
123	0x3ede2426	0.43386954
124	0xbdbd77d0	-0.09251368
125	0xbe6ed6a5	-0.23324068
126	0x3ec71b06	0.38887805
127	0xbf211f6b	-0.62938565
128	0xbf1c776b	-0.6111972
129	0xbda405af	-0.080088966
130	0xbe741bc0	-0.23838711
131	0xbf24ff66	-0.6445221
132	0x3bca24e2	0.0061689476
133	0xbe59694c	-0.21231574
134	0xbd8f3827	-0.06993132
135	0x3ef6ea44	0.48225605
136	0xbdf5a200	-0.1199379
137	0xbf29cdbe	-0.6632956
138	0xbe24cdc3	-0.16094117
139	0xbf0224e5	-0.50837547
140	0x3cc22641	0.023699882
141	0x3ea7105b	0.32629666
142	0x3d9b53e8	0.07584363
143	0x3e927a33	0.28608856
144	0xbdf2ec63	-0.118614934
145	0x3f24ddd3	0.64400977
146	0x3e1dcb09	0.15409483
147	0x3eb38082	0.3505898
148	0xbf232e70	-0.63742733
149	0xbe6d7b7b	-0.23191635
150	0xbeb3b69c	-0.35100257
151	0x3f0e59c6	0.55605733
152	0xbf27dde0	-0.6557293
153	0x3db2103a	0.08694501
154	0x3e56710a	0.20941558
155	0xbf062f9f	-0.52416414
156	0xbe28724a	-0.16449848
157	0x3d88364c	0.06650981
158	0x3ecb3fab	0.39697012
159	0x3ec0fd13	0.3769308
160	0x3eb81ea7	0.35960886
161	0x3f0ad11a	0.54225314
162	0x3ddfc204	0.109256774
163	0x3d769323	0.060198914
164	0x3e80d0e0	0.2515936
165	0xbe0e9463	-0.13923793
166	0xbd3ed6d3	-0.04659159
167	0xbf1ea34a	-0.6196791
168	0x3e90b041	0.2825947
169	0x3eff2a56	0.49836987
170	0x3c039d0c	0.008033048
171	0x3f0b0072	0.54297554
172	0xbeb7507f	-0.358036
173	0xbe095fde	-0.13415477
174	0x3ec9d8a1	0.39423087
175	0xbf2b1633	-0.6683075
176	0x3eae42d6	0.34035367
177	0xbd966f33	-0.07345428
178	0xbf0bc370	-0.5459509
179	0xbf15b487	-0.5847859
180	0xbe42caba	-0.19022647
181	0x3ee24c25	0.4419872
182	0xbe0f7c95	-0.14012368
183	0xbec1fcea	-0.3788827
184	0xbf099255	-0.5373891
185	0x3df00d1d	0.11721251
186	0x3f1fbcc1	0.6239739
187	0xbec306d3	-0.38091144
188	0x3e287ed3	0.1645463
189	0x3f00989e	0.50232875
190	0xbe0df0ce	-0.13861391
191	0x3ef100c9	0.47070912
192	0xbed64d69	-0.41855934
193	0xbeb1f11f	-0.34754273
194	0x3d6f9d3a	0.058499552
195	0x3e1a8511	0.15089823
196	0x3dced7e8	0.100997746
197	0xbf1ae28b	-0.6050193
198	0xbdd4b875	-0.10386745
199	0xbf250335	-0.6445802
200	0xbb7bcae9	-0.0038420504
201	0xbec17a2a	-0.37788516
202	0x3f101598	0.5628295
203	0xbee9e8d8	-0.45685458
204	0x3f2dca86	0.6788715
205	0xbf0749d6	-0.5284704
206	0xbf2b9073	-0.67017287
207	0x3f1a7c68	0.6034608
208	0x3da2c398	0.07947463
209	0x3f1c05c1	0.6094628
210	0xbe8516ae	-0.25993866
211	0x3f07b712	0.5301372
212	0x3e16285e	0.14663836
213	0x3ce1fa4e	0.027585175
214	0x3f14577f	0.5794601
215	0xbf0c5450	-0.5481615
216	0x3eb6f649	0.35734776
217	0xbf1ac916	-0.6046308
218	0xbedd0cf3	-0.43173942
219	0xbf00435c	-0.5010278
220	0x3e88e3b5	0.26736227
221	0xbdf63927	-0.1202262
222	0x3cf63314	0.030053653
223	0x3edbbcb5	0.4291741
224	0x3f27018c	0.65236735
225	0xbee14635	-0.43998876
226	0x3f1be379	0.6089397
227	0xbed38902	-0.41315466
228	0xbec3102c	-0.38098276
229	0x3f2f8439	0.6856113
230	0x3f26f3e6	0.6521591
231	0x3e841980	0.25800705
232	0x3eed886f	0.46393153
233	0xbe8a2ae4	-0.26985848
234	0x3e5f2b48	0.21793854
235	0x3f28b26a	0.6589724
236	0xbd1314b5	-0.03590842
237	0xbec34f82	-0.38146597
238	0xbef8ccc0	-0.48593712
239	0xbeac5729	-0.33660248
240	0xbe9beef6	-0.3045575
241	0xbf19fa8f	-0.6014795
242	0x3cb64266	0.022248458
243	0xbf298108	-0.6621251
244	0x3f261470	0.64874935
245	0xbe9b769b	-0.30363926
246	0xbec697a4	-0.38787568
247	0xbf0eb834	-0.5574982
248	0xbcf2f2a9	-0.029656725
249	0x3eae9479	0.3409765
250	0xbf1e8aa4	-0.619303
251	0xbe2d370d	-0.16915531
252	0x3dab3d7b	0.08361336
253	0xbe01a6cc	-0.12661284
254	0x3dc2a57c	0.0950422
255	0x3f2ddab1	0.6791182

decoders.0.decoder_net.0.bias f4 [512]
0	0x3f059269	0.5217653
1	0xbeaee857	-0.34161636
2	0xbf1d56d8	-0.6146064
3	0xbeeaec2e	-0.45883316
4	0xbf07798c	-0.5291984
5	0x3f1d9fb2	0.615718
6	0xbe2b609b	-0.16736071
7	0xbf2f8bd7	-0.68572754
8	0x3e1325ad	0.14369841
9	0xbe4124bc	-0.1886167
10	0xbf13de1f	-0.57760805
11	0xbf2f10ae	-0.68384826
12	0xbdf73cab	-0.12072118
13	0x3eac81a8	0.3369267
14	0x3ed5b8a1	0.41742423
15	0x3e3e67be	0.18594262
16	0x3ed6e148	0.4196875
17	0x3eb946b1	0.36186746
18	0x3f01cd93	0.50704306
19	0x3f2b8c0e	0.6701058
20	0xbf2e2482	-0.68024457
21	0x3d76b85d	0.060234416
22	0x3d097259	0.033556316
23	0xbd82d74b	-0.0638872
24	0xbe4ea093	-0.20178442
25	0xbe5d794a	-0.216283
26	0x3c497e69	0.012298205
27	0xbea42262	-0.32057482
28	0xbf05b10c	-0.5222328
29	0x3ef2b157	0.47400925
30	0xbd91fcfd	-0.07128332
31	0x3f30d9cd	0.6908234
32	0xbee2065f	-0.44145486
33	0xbf3c27d4	-0.7349827
34	0xbea3f71c	-0.32024467
35	0xbf14cd1d	-0.5812548
36	0x3e1eeee2	0.15520814
37	0x3f1eff9f	0.62108797
38	0xbe8b09d8	-0.27155948
39	0x3e5ec773	0.21755771
40	0x3e6c9514	0.23103744
41	0xbf0bee92	-0.54660904
42	0xbf272347	-0.65288204
43	0xbd1ed7c5	-0.038779993
44	0xbe524f4a	-0.20538059
45	0xbf2a2c71	-0.6647406
46	0xbece4baf	-0.40292117
47	0x3eda9e15	0.42698732
48	0xbeb3a1f1	-0.3508449
49	0x3e8c0edb	0.27355084
50	0xbe46b8ad	-0.19406386
51	0x3ea3b85a	0.31976587
52	0x3d8cc8c2	0.06874229
53	0xbf042a43	-0.51626986
54	0x3d82c0ea	0.06384452
55	0xbec39ff8	-0.38207984
56	0x3f05f40e	0.5232552
57	0xbf308d21	-0.68965346
58	0x3e8cc9b4	0.27497637
59	0x3e709901	0.23495866
60	0xbeb78275	-0.35841718
61	0x3ee49326	0.44643515
62	0x3d1a036e	0.037600927
63	0xbf268ce3	-0.65058726
64	0xbde07f67	-0.109618
65	0xbf14cbb6	-0.5812334
66	0xbc8794ef	-0.01655051
67	0xbe256f38	-0.16155708
68	0x3e390a3f	0.18070315
69	0x3e03c84a	0.12869373
70	0xbf387895	-0.72058994
71	0x3ed7f36f	0.42177913
72	0xbdbd9270	-0.09256446
73	0xbedad499	-0.42740324
74	0xbf21e289	-0.6323629
75	0x3f318e03	0.6935732
76	0x3c50e01f	0.012748747
77	0xbf266dbe	-0.65011203
78	0xbf0643e7	-0.5244736
79	0xbeb01f46	-0.3439886
80	0xbf24acaf	-0.64325994
81	0xbe242607	-0.16030131
82	0xbe46ffdc	-0.1943354
83	0x3e79392d	0.24338217
84	0x3f26af28	0.6511102
85	0x3da48e7e	0.08034991
86	0x3ea67f75	0.32519117
87	0xbdff751f	-0.12473511
88	0x3f13d28b	0.5774314
89	0xbe567137	-0.20941626
90	0x3e8da733	0.27666625
91	0xbd0c0be8	-0.034191042
92	0x3e1b399c	0.15158695
93	0x3eb8977f	0.36053082
94	0xbe9bfb5e	-0.30465215
95	0x3d24398d	0.040093947
96	0xbead1ead	-0.33812466
97	0x3e02dd41	0.12779714
98	0xbdf91a95	-0.12163273
99	0xbe72191e	-0.23642394
100	0x3f1fe831	0.6246367
101	0x3e3ac116	0.18237719
102	0x3e919e42	0.28441054
103	0x3c8b31aa	0.016991455
104	0xbeeac544	-0.45853627
105	0xbf1edb03	-0.62052935
106	0x3f28e43c	0.6597326
107	0xbf24f1d6	-0.6443151
108	0x3f0affce	0.54296577
109	0x3ea47880	0.32123184
110	0x3dec797a	0.11546607
111	0x3f0dde5b	0.5541741
112	0x3f10e3b2	0.56597435
113	0xbe9563ba	-0.29177648
114	0xbe27a648	-0.16372025
115	0xbeb8def7	-0.3610761
116	0x3ec13bc2	0.37740904
117	0x3f2ad5bf	0.667324
118	0xbc3f73e4	-0.011685345
119	0x3f2631a5	0.649195
120	0xbe896278	-0.26832938
121	0x3f35a994	0.7096188
122	0x3f2c7b3a	0.6737553
123	0xbd8dbcf7	-0.06920808
124	0xbf0873f8	-0.53301954
125	0xbf375cc7	-0.7162594
126	0xbd9ea5ad	-0.07746444
127	0xbe320fe3	-0.17388873
128	0x3eab85c6	0.335005
129	0xbd56e2db	-0.05246244
130	0x3f188aef	0.59586996
131	0x3ede9166	0.43470305
132	0x3e1846c3	0.14870743
133	0xbe28b9b4	-0.1647709
134	0xbd05d88e	-0.032677226
135	0xbf0c51f1	-0.5481253
136	0xbf1ed80b	-0.62048405
137	0x3d80e622	0.06293894
138	0x3f21a3d9	0.63140637
139	0xbd47d7a0	-0.04878962
140	0x3ea0e3d7	0.31423828
141	0x3f2953cd	0.66143495
142	0x3ece43ad	0.40286008
143	0xbeb39b65	-0.35079494
144	0x3ee3289e	0.44366926
145	0x3d97139a	0.073767856
146	0x3e678844	0.22610575
147	0x3eaf5a4e	0.34248585
148	0x3f09e23f	0.5386085
149	0x3f0ac04b	0.54199666
150	0x3f0594cf	0.5218019
151	0x3e302b0a	0.17203918
152	0x3e5819cf	0.21103595
153	0x3ec4f586	0.3846857
154	0x3e5b2eac	0.21404523
155	0x3e6e8b06	0.2329522
156	0x3f27191e	0.652727
157	0x3f3417b8	0.7034869
158	0x3e630eb8	0.22173584
159	0xbe0c3848	-0.13693345
160	0xbf2663f7	-0.64996284
161	0x3ea8b295	0.32948747
162	0x3eb366fc	0.35039508
163	0xbefc5adc	-0.4928807
164	0x3d8b4d76	0.06801884
165	0xbea26ad8	-0.3172214
166	0x3f00d140	0.5031929
167	0xbf00dcd2	-0.50336945
168	0x3d8ea2e5	0.069646634
169	0x3dca552d	0.09879527
170	0xbe82da56	-0.25557202
171	0xbf13e5d2	-0.5777255
172	0xbf18388f	-0.594613
173	0x3f1f1f7f	0.62157434
174	0x3e24955a	0.16072598
175	0xbdc88fbd	-0.09793041
176	0xbe87395f	-0.26410958
177	0x3ee28bf5	0.44247404
178	0x3eab008c	0.33398855
179	0x3db4c755	0.08827082
180	0x3f0a96d8	0.5413642
181	0x3f381718	0.7191024
182	0x3efe8ef2	0.49718434
183	0x3c8961a2	0.016770188
184	0x3e7f09de	0.24906108
185	0xbeb81c15	-0.35958925
186	0xbe8d5e18	-0.2761085
187	0xbf1e04ac	-0.6172588
188	0xbe3c2535	-0.18373568
189	0x3ee634a2	0.4496203
190	0x3ecb25d0	0.39677286
191	0x3ec05bce	0.3757004
192	0xbec883b8	-0.39162993
193	0x3f229afc	0.6351774
194	0xbe01b02e	-0.12664863
195	0x3e89f8b0	0.26947546
196	0x3b0c1578	0.00213751
197	0xbef5805c	-0.47949493
198	0x3e927c0c	0.28610265
199	0xbef94621	-0.48686317
200	0x3e81eddb	0.25376782
201	0x3e342329	0.17591538
202	0x3e3c392a	0.18381181
203	0xbf14d8a2	-0.58143055
204	0x3efbc76b	0.4917558
205	0xbf24120a	-0.64090025
206	0xbcda1adc	-0.026624136
207	0xbeae2b3b	-0.34017357
208	0x3ef68d2e	0.48154587
209	0xbe6ed57b	-0.23323624
210	0xbcd0a86e	-0.025470939
211	0x3ed20dd3	0.41026172
212	0xbe1d4b3b	-0.1536073
213	0x3e798c0f	0.24369834
214	0xbbc5bc93	-0.0060344427
215	0xbec7e74b	-0.3904365
216	0x3d59abb7	0.053142276
217	0x3eef358e	0.46720546
218	0xbee8fc80	-0.45505142
219	0x3f332314	0.699754
220	0xbef7e67b	-0.4841803
221	0xbe6c9ecd	-0.23107453
222	0xbe315c22	-0.17320302
223	0x3f2e4d54	0.68086743
224	0xbe947c50	-0.29001093
225	0xbee98c86	-0.45615023
226	0xbf233b4b	-0.6376235
227	0xbecd8f06	-0.4014818
228	0xbf2e66ba	-0.681255
229	0xbf261cc1	-0.64887625
230	0xbe301c7c	-0.17198366
231	0x3f252539	0.6450992
232	0x3eb72bc6	0.35775584
233	0xbf239e9d	-0.639139
234	0x3f358ccb	0.7091796
235	0xbe813d18	-0.25241923
236	0x3efbf618	0.49211192
237	0x3d77ff12	0.06054599
238	0xbedb7260	-0.428607
239	0x3de52f1d	0.11190627
240	0x3e3b5d64	0.18297344
241	0xbef4b4ad	-0.47794095
242	0xbeb62575	-0.35575452
243	0xbef0123d	-0.46888915
244	0xbe262ca2	-0.16227964
245	0x3dff84ed	0.124765255
246	0xbeae90e6	-0.34094924
247	0x3e7e723d	0.24848266
248	0x3f2856ca	0.6575743
249	0xbeff1533	-0.4982086
250	0x3ec0b874	0.37640727
251	0xbeabee80	-0.335804
252	0xbd8cab65	-0.068686284
253	0xbf05ea3e	-0.5231055
254	0x3ef0b4fd	0.47013083
255	0xbf29556e	-0.6614598

decoders.0.decoder_net.3.weight f4 [32]
0	0x3f780e46	0.9689678
1	0x3f753696	0.95786417
2	0x3f7a77e3	0.9783918
3	0x3f7a2194	0.97707486
4	0x3f7e3303	0.9929659
5	0x3f82dfe0	1.0224571
6	0x3f763a59	0.9618278
7	0x3f78da15	0.97207767
8	0x3f7fe9d7	0.99966186
9	0x3f80f1e4	1.0073819
10	0x3f7c2165	0.98488456
11	0x3f7d3534	0.98909307
12	0x3f7c30e8	0.98512125
13	0x3f8582f1	1.0430585
14	0x3f8146bb	1.009971
15	0x3f8105a4	1.0079846
16	0x3f822d8d	1.0170151
17	0x3f7f4801	0.99719244
18	0x3f818ace	1.0120485
19	0x3f8550da	1.0415299
20	0x3f80160b	1.0006727
21	0x3f7aa61d	0.9790972
22	0x3f839cf0	1.0282269
23	0x3f7dad4d	0.9909256
24	0x3f8207d8	1.0158644
25	0x3f7d4579	0.9893413
26	0x3f803359	1.001567
27	0x3f7e4ad6	0.9933294
28	0x3f78344a	0.96954787
29	0x3f81821c	1.0117831
30	0x3f8115ab	1.0084738
31	0x3f7d0a2d	0.9884365

decoders.0.decoder_net.3.bias f4 [32]
0	0xbbc10c87	-0.005891386
1	0x3c8a3a37	0.016873462
2	0xbac998b5	-0.0015380593
3	0xbc180b9a	-0.00928011
4	0x3be4ab28	0.006978411
5	0xbcb3ab21	-0.021932187
6	0x3ca49d1b	0.020094445
7	0x3c9e937e	0.01935744
8	0xbca6e89b	-0.020374587
9	0xbbf7b301	-0.0075591807
10	0x3c7c8d6f	0.01541458
11	0x3bc5efc1	0.006040544
12	0xbcbd7cf7	-0.023130877
13	0x3b9ebb6d	0.0048441202
14	0x3c5b6c9f	0.0133925965
15	0x3b4a0254	0.0030824142
16	0x3ca5ff4b	0.020263335
17	0x3cd490fe	0.025948044
18	0xbbd65b35	-0.0065416344
19	0xbc0300b0	-0.007995769
20	0xbc9ab3f0	-0.018884629
21	0x3b778d2c	0.0037773354
22	0xbcd68732	-0.026187513
23	0x3c0975d6	0.008389911
24	0xbc7df990	-0.015501395
25	0xbcd7a6b5	-0.02632461
26	0xbb9bbe6f	-0.004752926
27	0xbc0191f1	-0.00790833
28	0x3c399854	0.011327822
29	0xbbf76df6	-0.00755095
30	0xbcc5fbf7	-0.024167998
31	0x3cac3841	0.021022918

decoders.0.decoder_net.3.running_mean f4 [32]
0	0x3c9e2de8	0.019309
1	0x3c8f34fc	0.01748132
2	0x3cbcef49	0.023063319
3	0x3cbd170a	0.023082275
4	0x3d12c145	0.035828847
5	0x3cdd5d75	0.027022103
6	0x3cbb2ae0	0.022847593
7	0x3cd0cc8f	0.025488166
8	0x3d73bed1	0.05950815
9	0x3cfb9f33	0.03071556
10	0x3d360744	0.044440523
11	0x3cafb41f	0.021448193
12	0x3d15a031	0.036529724
13	0x3d09bf10	0.033629477
14	0x3ce030b8	0.02736698
15	0x3d03fbac	0.032222435
16	0x3cb9d318	0.022683665
17	0x3d0ae071	0.03390545
18	0x3d33dbe3	0.043910872
19	0x3d182a7a	0.037149884
20	0x3ce00b95	0.027349273
21	0x3d0f0b16	0.03492268
22	0x3cf997fd	0.030467981
23	0x3cc837d0	0.024440676
24	0x3cd01bec	0.02540394
25	0x3cbe3d43	0.023222571
26	0x3d1db541	0.038502935
27	0x3cfce48f	0.030870704
28	0x3cdc21fe	0.026871677
29	0x3d227a12	0.039667197
30	0x3d78c59a	0.060735323
31	0x3ca31cf6	0.01991127

decoders.0.decoder_net.3.running_var f4 [32]
0	0x39a580dd	0.00031567263
1	0x39a2e36b	0.00031068487
2	0x3aaf1a9f	0.0013359374
3	0x3b03b888	0.0020099003
4	0x3b710e10	0.0036782064
5	0x3a21b832	0.000616911
6	0x3a82082b	0.0009920647
7	0x3ab03934	0.0013444782
8	0x3b63e1e0	0.0034772083
9	0x3a88d430	0.0010439213
10	0x3ad5b8f8	0.0016305735
11	0x3a281753	0.0006412167
12	0x3b448b4e	0.0029990259
13	0x3acd5462	0.0015665407
14	0x3a4be673	0.0007778175
15	0x3ae8cc13	0.0017761014
16	0x3a90a74a	0.0011036184
17	0x3ad6c9dd	0.0016387064
18	0x3b44359a	0.0029939176
19	0x3a788b09	0.0009481167
20	0x3a063e2a	0.00051209575
21	0x3a907a14	0.001102271
22	0x3b46c0db	0.0030327353
23	0x3a518063	0.00079918484
24	0x3a756eb9	0.0009362507
25	0x3a16ea6e	0.00057569786
26	0x3ac45df8	0.0014981618
27	0x3a60af6e	0.0008571063
28	0x3a0e05df	0.0005417745
29	0x3b85d584	0.004084291
30	0x3ba8c344	0.0051502306
31	0x39dc209a	0.0004198596

decoders.0.decoder_net.4.weight f4 [32, 32, 3, 3]
0	0xbd1080a1	-0.03527892
1	0xbcf07d8c	-0.02935674
2	0xbda1dd4b	-0.079035364
3	0xbd55a20e	-0.0521565
4	0xbd05b238	-0.032640666
5	0xbd0ed717	-0.034873094
6	0x3caa5d87	0.02079655
7	0xbb56917b	-0.0032740522
8	0xbcc5685a	-0.02409761
9	0xbd1e1a37	-0.03859922
10	0xbc91c868	-0.017795756
11	0xbd183d6a	-0.037167944
12	0x3c9153b0	0.0177401
13	0x3c215d69	0.009848931
14	0x3cd9a25e	0.02656668
15	0xbc992816	-0.018695872
16	0x3cc60ccf	0.02417603
17	0xbc704d90	-0.01466693
18	0x3c3f30a6	0.011669314
19	0x3d82a324	0.06378773
20	0xbc87a11e	-0.016556319
21	0x3a301b01	0.0006717891
22	0xbda22baf	-0.07918488
23	0xbc367992	-0.011137383
24	0xbcef569a	-0.0292161
25	0x3d21f228	0.03953758
26	0x3d3dfc3d	0.04638313
27	0x3cb932a6	0.022607159
28	0xbbb01b7f	-0.0053743715
29	0xbb1cbb61	-0.0023915397
30	0xbd1eb9f6	-0.038751565
31	0xbd0e3572	-0.03471894
32	0x3a581bf1	0.00082439097
33	0x3d0caa90	0.03434235
34	0x3c978739	0.018497096
35	0xbb204e15	-0.0024460603
36	0xbce2b83a	-0.027675737
37	0x3cadb59b	0.02120476
38	0xbb979c58	-0.004626792
39	0x3d0e77b2	0.03478212
40	0x3d0d2871	0.034462396
41	0x3d34b894	0.04412134
42	0xbce364df	-0.02775806
43	0x3cbdfbc4	0.02319134
44	0x3c982b32	0.018575285
45	0xbc9dafbe	-0.01924884
46	0x3c9fbe20	0.019499838
47	0x3ccae2a9	0.024766283
48	0xbd37856d	-0.04480498
49	0x3a83f5cd	0.0010067761
50	0xbc21a350	-0.009865597
51	0x3c04fe04	0.008117203
52	0xbbe95666	-0.007120895
53	0x3c9ab998	0.018887326
54	0xbcb45485	-0.022012958
55	0xbd05235e	-0.032504432
56	0x3d40120d	0.046892215
57	0xbcf42dc2	-0.029806975
58	0x3c489fa4	0.012245093
59	0xbd3d4ade	-0.046213977
60	0xbce413a2	-0.027841393
61	0x3d303de0	0.04302776
62	0x3c0c126c	0.008549314
63	0x3d227c26	0.03966918
64	0xbb03594f	-0.0020042246
65	0x3c9be24f	0.01902881
66	0x3c71dcfa	0.014762158
67	0x3cee032c	0.029054247
68	0x3c12bc09	0.008955964
69	0xbcdfd860	-0.027324855
70	0xbd3a903b	-0.045547705
71	0x3c40add4	0.011760194
72	0xbcc732ff	-0.024316309
73	0x3cd312a8	0.025765732
74	0xbd293818	-0.04131326
75	0xbc0eafa1	-0.008708865
76	0xbc891621	-0.016734185
77	0xbc0694c7	-0.008214182
78	0xbc898e56	-0.016791504
79	0x3bc93373	0.0061401664
80	0x3d32d904	0.043663993
81	0x3ca87e26	0.020567965
82	0xbd97ecd6	-0.0741822
83	0xbce8a511	-0.028399022
84	0xbac238ea	-0.0014817987
85	0xbc9f3e9b	-0.019439032
86	0x3c9ff285	0.019524822
87	0x3c7901b8	0.015198164
88	0x3d9d5adb	0.07683345
89	0xbd5f61b1	-0.054536525
90	0x3ccbaf89	0.024863975
91	0x3cf34bf2	0.0296993
92	0x3d7dbc4f	0.061947163
93	0xbd316142	-0.043305643
94	0x3d2732ea	0.04082004
95	0x3cac326e	0.02102014
96	0x3c49b1e8	0.012310483
97	0xbbf9e5e5	-0.0076262825
98	0xbaeed423	-0.0018221181
99	0x3c3e6173	0.011619913
100	0x3d0a7cba	0.033810355
101	0xbb86e155	-0.004116217
102	0xbd59cec1	-0.05317569
103	0x3c527e4c	0.012847494
104	0xbd00ef66	-0.03147831
105	0xbc7851a4	-0.015156183
106	0xbd06bf52	-0.0328973
107	0x3ca88bef	0.020574538
108	0xbd604584	-0.054753795
109	0x3d2ec76a	0.042670645
110	0x3d4afd00	0.049557686
111	0x3bd25a09	0.0064194244
112	0x3c5c5527	0.013448036
113	0x3cee7b73	0.0291116
114	0x3d01b9e2	0.031671412
115	0xbd223404	-0.039600387
116	0xbd237856	-0.039909683
117	0xbd2f641a	-0.042820074
118	0xbd832754	-0.064039856
119	0xbd224d3c	-0.039624438
120	0xbcbecbd6	-0.023290556
121	0x3d4c36f0	0.04985708
122	0xbd7796fa	-0.060446717
123	0x3d0ee06d	0.034881998
124	0x38c0cfaa	9.193954e-05
125	0xbd4845ef	-0.04889482
126	0xbd8b3595	-0.06797329
127	0x3d4da09e	0.050202005
128	0xbd1466ba	-0.03623078
129	0x3b00d59b	0.0019658569
130	0xbd257fbb	-0.040405016
131	0xbd6fe2b3	-0.058565807
132	0x3d1f4fdd	0.038894523
133	0x3cdd9442	0.027048234
134	0x3d702013	0.05862434
135	0x3c30618a	0.010765443
136	0xbc47a9d9	-0.012186491
137	0x3d3df18f	0.046372946
138	0x3ba767ed	0.0051088245
139	0xbcdc26a0	-0.026873887
140	0xbd49334e	-0.049121194
141	0x3b804643	0.003914626
142	0xbd1de52a	-0.038548626
143	0x3d352b7f	0.044230934
144	0xbd99bd56	-0.07506816
145	0x3d630cd4	0.055432156
146	0x3c69ebb6	0.014277389
147	0x3bd6566f	0.0065410654
148	0x3c9641b2	0.018341873
149	0xbcd9cb89	-0.026586311
150	0x3d57326a	0.052538313
151	0xbd59401e	-0.053039663
152	0x3d131f29	0.03591839
153	0x3ca33939	0.019924747
154	0xbb6883fa	-0.0035479055
155	0xbcfcd967	-0.030865384
156	0x3cad61d3	0.02116481
157	0x3d831b40	0.06401682
158	0xbd2616f2	-0.040549226
159	0xbc32877a	-0.010896558
160	0xbd080b16	-0.033213697
161	0xbd39e291	-0.045382086
162	0x3b9804e8	0.0046392567
163	0xbc5aa82d	-0.01334576
164	0xbd00c683	-0.031439316
165	0xbc280f74	-0.010257591
166	0xbc58ab63	-0.0132244555
167	0x3bde6b2c	0.006787678
168	0x3d3cedbf	0.04612517
169	0x3b414e38	0.0029496085
170	0x3cebeb59	0.028798746
171	0x3c9ec7c1	0.01938236
172	0xbd13b05b	-0.036056858
173	0xbd7911e0	-0.060808063
174	0xbcae5c2c	-0.021284185
175	0x3c31bc2e	0.010848088
176	0xbda5f656	-0.081036255
177	0xbb04ddcd	-0.0020273805
178	0xbd2c9ee1	-0.042143706
179	0x3b9e83bf	0.0048374827
180	0xbb6598ef	-0.0035033782
181	0x3b8ca466	0.0042920588
182	0x3d8abe4b	0.06774577
183	0xbcefe1f9	-0.029282557
184	0x3b3ad316	0.0028507165
185	0x3c92674e	0.017871525
186	0xbc974518	-0.018465564
187	0xbd4cd629	-0.050008927
188	0x3ca51b62	0.020154659
189	0x3be4f7d8	0.006987553
190	0x3d38e690	0.045141757
191	0x3d2b8278	0.04187247
192	0xbc026f9c	-0.00796118
193	0xb9cf77be	-0.00039571332
194	0x3d3fb311	0.04680163
195	0xbc201762	-0.0097712
196	0xbcfa0f52	-0.030524883
197	0x3d0de912	0.0346461
198	0xbd8bca13	-0.06825652
199	0x3a15f3a8	0.00057202065
200	0x3d84acde	0.06478284
201	0xbca088f5	-0.019596556
202	0x3d21deec	0.039519235
203	0x3c65ad01	0.014018298
204	0xbb5e0028	-0.0033874605
205	0x3d3b760f	0.045766886
206	0x3c9fa5a2	0.01948816
207	0xbbd79f78	-0.0065802895
208	0x3d52a2ff	0.051424976
209	0x3d10a146	0.035310052
210	0xbd290cbf	-0.04127192
211	0xbb331fcc	-0.0027332185
212	0xbcd57f10	-0.026061565
213	0x3d71c90c	0.059029624
214	0xbdb9c13b	-0.09070059
215	0xbd8a2e26	-0.06747083
216	0xbd053480	-0.03252077
217	0xbd40697a	-0.04697559
218	0x3c2e8a6c	0.0106531195
219	0xbcac3774	-0.021022536
220	0xbd3246a7	-0.04352441
221	0x3c5ba123	0.013405117
222	0x3a35ddc5	0.0006937648
223	0xbb7ac042	-0.0038261567
224	0x3bec7a02	0.007216693
225	0x3d1e8b75	0.038707215
226	0xbc9be278	-0.019028887
227	0xbd8a403a	-0.067505315
228	0xbd08a87f	-0.033363815
229	0xbd020f24	-0.03175272
230	0xbd3478f1	-0.04406065
231	0x3ba35549	0.004984532
232	0xbc87e2bc	-0.016587608
233	0x3cecf7e2	0.028926793
234	0xbc98a629	-0.018633919
235	0xbcf2a703	-0.029620653
236	0x3d6d937a	0.058001973
237	0xbd493035	-0.04911824
238	0xbcae5365	-0.02128
239	0x3ccddcfe	0.025129791
240	0xbcb558a2	-0.02213699
241	0x3c53cd8b	0.012927423
242	0x3a6ced51	0.00090380484
243	0x3b11c76e	0.0022244113
244	0x3cbf28b6	0.023334842
245	0x3c4c9aac	0.0124880485
246	0xbd362567	-0.044469263
247	0x3a6c30cf	0.00090099586
248	0x3cb8bba4	0.022550412
249	0xbc29a742	-0.010354819
250	0x3d2a3093	0.04155023
251	0x3bf62190	0.007511325
252	0x3c96cdba	0.018408645
253	0xbd20c252	-0.03924782
254	0xbd835c88	-0.06414133
255	0xbce171f1	-0.027520152

decoders.0.decoder_net.4.bias f4 [32]
0	0x3c387e15	0.011260529
1	0x3d001a6c	0.031275198
2	0xbd298caa	-0.041393913
3	0xbd7d913b	-0.06190608
4	0x3cf960b3	0.030441618
5	0x3d4d4907	0.050118472
6	0xbcb6a4e8	-0.02229543
7	0x3ca341ab	0.019928774
8	0xbd1c2d82	-0.038129337
9	0x3d4278a1	0.047478322
10	0x3d49cfec	0.049270555
11	0x3c7fa239	0.015602642
12	0x3d5e7f5a	0.05432067
13	0x3d7392c2	0.05946613
14	0x3cb5604a	0.02214064
15	0xbc28ad0a	-0.010295162
16	0xbc71fd5a	-0.014769876
17	0x3b77ac0e	0.0037791762
18	0x3ca83045	0.02053083
19	0x3d9bb700	0.07603264
20	0x3d712ccd	0.058880616
21	0xbd58f39f	-0.05296671
22	0xbcba2436	-0.022722345
23	0xbd418eb1	-0.04725522
24	0x3c4c0ad1	0.012453751
25	0xbd93f87c	-0.07225129
26	0xbcd88f61	-0.026435556
27	0x3d3dc081	0.046326164
28	0x3ca3ee85	0.020011196
29	0xbcc3dbe9	-0.023908572
30	0x3d627f9c	0.05529748
31	0x3c1498e3	0.009069654

decoders.0.decoder_net.6.weight f4 [32]
0	0x3f797f3d	0.97459775
1	0x3f802059	1.0009872
2	0x3f71d80e	0.944703
3	0x3f7a69ca	0.9781767
4	0x3f819a87	1.0125283
5	0x3f7999f9	0.9750057
6	0x3f79d307	0.9758763
7	0x3f7eba22	0.99502766
8	0x3f71f861	0.9451962
9	0x3f81b363	1.013287
10	0x3f77b564	0.96761155
11	0x3f7dc19b	0.99123544
12	0x3f77feba	0.96873057
13	0x3f7d394e	0.98915565
14	0x3f7cec0b	0.98797673
15	0x3f7b91cd	0.9826935
16	0x3f798bcc	0.9747894
17	0x3f80666b	1.0031255
18	0x3f74e7af	0.9566602
19	0x3f7971ff	0.9743957
20	0x3f7583a1	0.95903975
21	0x3f778cd5	0.9669927
22	0x3f7ff38f	0.99981016
23	0x3f77620d	0.9663399
24	0x3f8050a2	1.0024607
25	0x3f756531	0.9585753
26	0x3f76cd71	0.9640723
27	0x3f82aff5	1.0209948
28	0x3f77d93f	0.96815866
29	0x3f83b661	1.0290033
30	0x3f7c0865	0.9845031
31	0x3f79afda	0.97533953

decoders.0.decoder_net.6.bias f4 [32]
0	0x3cf0aae1	0.029378356
1	0x3c004830	0.007829711
2	0xbb98c031	-0.004661583
3	0x3b3b51b3	0.0028582632
4	0xbc3147a1	-0.0108203
5	0xbb76b8bd	-0.0037646734
6	0xbb764c8f	-0.0037582254
7	0x3ca8c499	0.020601558
8	0xbbfca0ee	-0.007709614
9	0xbcbba252	-0.022904549
10	0xbc0c3bcd	-0.0085591795
11	0xbca0ab3b	-0.019612899
12	0x3c8e4ebe	0.017371532
13	0xbbab4630	-0.005226873
14	0x3d03e0c5	0.03219678
15	0xbd0eccb1	-0.034863178
16	0x3d363c5c	0.044491157
17	0x3ca7206e	0.020401206
18	0x3c8fcca3	0.017553633
19	0x3c320823	0.010866198
20	0x3ccd8995	0.025090018
21	0xbd187163	-0.03721751
22	0xbbfbce1e	-0.007684483
23	0x3c5c255e	0.013436643
24	0x3c735c31	0.014853523
25	0xbc188f30	-0.009311482
26	0x3d1d732f	0.038439926
27	0xbd41f3ac	-0.047351524
28	0x3d159fff	0.036529537
29	0xbcb1502b	-0.021644672
30	0xbd294dcf	-0.04133397
31	0xbc473b38	-0.012160115

decoders.0.decoder_net.6.running_mean f4 [32]
0	0x3cfdd9b6	0.030987602
1	0x3d010add	0.0315045
2	0x3cf7dbf4	0.030256249
3	0x3ce97912	0.028500114
4	0x3d077770	0.03307289
5	0x3d05dbe7	0.03268042
6	0x3d0761c0	0.033052206
7	0x3cfddc31	0.030988785
8	0x3cec3fbf	0.02883899
9	0x3d09c96d	0.03363936
10	0x3d000b05	0.03126051
11	0x3d094ae7	0.033518698
12	0x3d03e6f2	0.03220267
13	0x3d045af8	0.032313317
14	0x3d0401fb	0.03222845
15	0x3d024de2	0.031812556
16	0x3d01e14f	0.03170901
17	0x3cf633fb	0.030054083
18	0x3cfcc840	0.030857205
19	0x3d02958b	0.031880897
20	0x3d04f7b6	0.032462798
21	0x3cec8a0c	0.02887442
22	0x3cf0ed46	0.029410016
23	0x3cea5560	0.028605163
24	0x3d0157da	0.031577922
25	0x3ce243ff	0.027620314
26	0x3cfc1439	0.030771362
27	0x3d03c429	0.032169495
28	0x3d02d902	0.031945236
29	0x3cffb704	0.031215198
30	0x3d04d32d	0.032427955
31	0x3d014688	0.031561404

decoders.0.decoder_net.6.running_var f4 [32]
0	0x3935567b	0.00017293722
1	0x3900ac16	0.00012271138
2	0x38f4c10c	0.000116707844
3	0x3900d13f	0.00012284981
4	0x39376787	0.00017490807
5	0x39b2462b	0.00034003085
6	0x39a879f7	0.00032134328
7	0x39164744	0.00014331663
8	0x39154f0e	0.00014239197
9	0x392dce32	0.0001657538
10	0x38e87903	0.00011085162
11	0x3985cbf0	0.00025519682
12	0x39003225	0.00012225712
13	0x39341f35	0.00017177763
14	0x39428d59	0.00018553938
15	0x393074d0	0.00016828184
16	0x3906cdab	0.00012855853
17	0x390f0657	0.00013639905
18	0x390b93d3	0.00013311142
19	0x38fcd622	0.00012056182
20	0x39384f4d	0.00017577149
21	0x38c5c6b8	9.430706e-05
22	0x391e300c	0.00015085953
23	0x3912c95f	0.00013998662
24	0x39663a5c	0.0002195625
25	0x38d434d9	0.000101187914
26	0x3948444e	0.00019098932
27	0x390c27b6	0.00013366234
28	0x3901ad1a	0.00012366884
29	0x394a76ac	0.0001930843
30	0x390df818	0.0001353923
31	0x3906b885	0.00012847975

decoders.0.decoder_net.7.weight f4 [32, 16, 3, 3]
0	0x3d219115	0.039445
1	0x3d9f55f2	0.07780065
2	0x3d2a62cc	0.041598126
3	0x3d252233	0.040315818
4	0xbb4266b5	-0.002966327
5	0x3ccc169a	0.024913121
6	0xbc4640d1	-0.012100414
7	0x3d06ae17	0.03288087
8	0xbd14c752	-0.0363229
9	0x3d10df5a	0.035369255
10	0x3d6d2e23	0.057905328
11	0xbb2c56af	-0.0026296785
12	0x3c405ff8	0.011741631
13	0x3d70652c	0.058690235
14	0xbd349bb2	-0.044093795
15	0xbd3511f2	-0.044206567
16	0xbd9384ee	-0.07203089
17	0x3b8d55e8	0.0043132193
18	0x3c09d223	0.008411917
19	0xbd12ad58	-0.035809845
20	0x3d427e33	0.047483634
21	0xbd68ac8e	-0.056805186
22	0x3d8b8c30	0.06813848
23	0xbbe29ec7	-0.0069159004
24	0x3aedda59	0.0018146738
25	0x3d9a5d95	0.075373806
26	0xbdd770d0	-0.10519564
27	0x3d59460c	0.053045318
28	0x3d1c2509	0.038121257
29	0x3d0115a2	0.03151477
30	0xbd2f03e6	-0.042728327
31	0xbcc38a6d	-0.023869717
32	0xbd2290ce	-0.039688878
33	0xbc9b23c2	-0.01893795
34	0xbd9e7159	-0.07736463
35	0x3d882e08	0.06649405
36	0x3ce8a05a	0.028396774
37	0x3cfd689a	0.030933667
38	0xbd4b146c	-0.049580023
39	0xbdd16c91	-0.102257855
40	0xbaeaa7cd	-0.0017902792
41	0x3d0028ed	0.03128903
42	0x3d924a92	0.071431294
43	0x3cf7832b	0.030213913
44	0xbcc457ee	-0.02396771
45	0xbbd8d422	-0.006617085
46	0x3d8d2b8b	0.06893071
47	0xbd1b0ecf	-0.03785592
48	0x3c948b34	0.018132783
49	0x3d81e25a	0.06342001
50	0xbd3d6081	-0.04623461
51	0xbd608aaf	-0.05481976
52	0xbc09c71b	-0.008409287
53	0xbcbd61bf	-0.023117898
54	0xbb0ad678	-0.0021184962
55	0xbda4c38a	-0.080451086
56	0xbd16fb83	-0.036860954
57	0x3d2a76c6	0.041617177
58	0x3c13986f	0.009008511
59	0xbd5b2079	-0.053497765
60	0x3ad66634	0.0016357363
61	0xbd521192	-0.051286288
62	0xbcfe1626	-0.03101642
63	0xbd235ed9	-0.039885376
64	0xbd12e7a3	-0.035865437
65	0xbdab1a2d	-0.08354602
66	0xbd29ece7	-0.041485693
67	0x3ccb2d87	0.024801983
68	0xbda5a04d	-0.080872156
69	0xbc9a674c	-0.018848084
70	0xbc557a42	-0.013029637
71	0xbc7ce2f1	-0.015434966
72	0xbba3483d	-0.0049829767
73	0xbb227669	-0.0024789816
74	0x3d39ac2f	0.045330223
75	0xbd0fcee2	-0.03510941
76	0xbce9ce58	-0.028540775
77	0x3ce7ed00	0.028311253
78	0x3d5aa4f8	0.053379983
79	0x3d976041	0.07391406
80	0x3d17bebb	0.03704713
81	0xbd22a7de	-0.039710872
82	0x3b363dee	0.002780791
83	0x3d49193f	0.049096342
84	0x3bcd11ec	0.00625824
85	0xbbb2e510	-0.0054594353
86	0x3d709fe8	0.05874625
87	0x3d0407df	0.03223407
88	0xbb1f8df2	-0.002434608
89	0x3d275f15	0.04086216
90	0x3d0f883b	0.03504203
91	0xbc254577	-0.0100873625
92	0xbd572e3d	-0.05253433
93	0xbdd05c85	-0.10173897
94	0xbd2a04c0	-0.041508436
95	0x3c90906d	0.017646993
96	0xbd81dcf1	-0.06340969
97	0xbd7a4e73	-0.06110997
98	0x3cc9cc16	0.024633449
99	0xbba81735	-0.0051297196
100	0xbd3c396c	-0.0459532
101	0x3d816133	0.063173674
102	0xbb8f555b	-0.004374189
103	0xbce9e540	-0.028551698
104	0xbd523a41	-0.051325087
105	0xbdab3c2c	-0.08361086
106	0xbcee62bd	-0.029099816
107	0x3b349efc	0.0027560582
108	0x3ac54df0	0.0015053134
109	0x3992b374	0.00027980993
110	0x3b939138	0.0045033954
111	0xbc819e68	-0.015822604
112	0xbc8cfeb9	-0.017211305
113	0x3b8e01d9	0.0043337164
114	0x3d3da618	0.046300977
115	0x3d71f4db	0.059071403
116	0xbd0e87c8	-0.03479746
117	0xbd2a137f	-0.0415225
118	0x3bb4b9c1	0.0055153077
119	0xbc719259	-0.014744365
120	0xbd65fc7a	-0.056148984
121	0xbcb9f8c6	-0.022701632
122	0x3d1ad4ce	0.037800603
123	0xbd83f1ad	-0.0644258
124	0x3d87634f	0.066107385
125	0x3d17f0a3	0.037094723
126	0xbc979084	-0.018501528
127	0x3cc4277b	0.023944607
128	0x3d927868	0.07151872
129	0x3da37ea1	0.07983137
130	0x3d493a6e	0.04912799
131	0x3da26137	0.079286985
132	0xbd34840a	-0.044071235
133	0xbd522e7c	-0.051313862
134	0xbbd31407	-0.0064415964
135	0xbccb77ea	-0.024837453
136	0x3d3f6408	0.046726257
137	0xbdb21946	-0.08696227
138	0xbd5191f0	-0.051164567
139	0xbd80e2a7	-0.062932305
140	0x3da8a80c	0.082351774
141	0xbc5cf9a4	-0.013487253
142	0xbda2f54a	-0.079569414
143	0x3c8daa7c	0.017293207
144	0x3c6dd14a	0.01451523
145	0xba45ed30	-0.00075502973
146	0x3cabe77d	0.020984406
147	0xbc94a259	-0.01814382
148	0x3d0d7249	0.03453282
149	0xbce8fe16	-0.02844147
150	0xbca98ace	-0.02069607
151	0xbce32aa6	-0.027730297
152	0xbce11f0c	-0.027480625
153	0x3ca2d3a2	0.019876305
154	0xbd032749	-0.032019887
155	0xbcf336c6	-0.029689204
156	0x3d81c070	0.06335533
157	0xbc8e51ea	-0.017373044
158	0xbda84c02	-0.08217622
159	0x3dba6111	0.09100545
160	0x3d9cf957	0.07664745
161	0x3b3b6476	0.0028593815
162	0xbd23d070	-0.039993703
163	0xbc6e3456	-0.014538845
164	0x3cb93f28	0.022613123
165	0x3da4f04e	0.08053647
166	0x3d87edc8	0.0663715
167	0xbd995630	-0.07487142
168	0xbd702368	-0.058627516
169	0x3c1ecadb	0.009691919
170	0x3d3a8467	0.045536425
171	0x3db696ae	0.089154586
172	0x3cec09e1	0.028813304
173	0x3cbdaa2f	0.023152439
174	0x3bd454eb	0.0064798496
175	0xbd9dbf6a	-0.07702525
176	0x3c72e1f8	0.014824383
177	0xbd33446d	-0.043766428
178	0xbb7b8392	-0.0038377983
179	0x39ce03c0	0.00039294176
180	0xbcf279dc	-0.029599123
181	0x3d66a758	0.056311935
182	0xbd009de9	-0.031400595
183	0xbdbca414	-0.09210983
184	0x3c94b705	0.018153677
185	0x3cc0df67	0.023544027
186	0xbc38a3c9	-0.011269518
187	0x3c3a3545	0.0113652395
188	0xbd0de2b8	-0.034640044
189	0xbd668c34	-0.056286052
190	0x3c964bb2	0.018346641
191	0xbd1ccbe3	-0.03828038
192	0xbc754a8c	-0.014971387
193	0xbc40fd1d	-0.011779097
194	0xbcb0faba	-0.02160393
195	0xbcbeb8f2	-0.023281548
196	0xba90369f	-0.0011002606
197	0xbd13db70	-0.036097944
198	0x3d869e13	0.06573119
199	0xbcc601c9	-0.024170773
200	0xbd16c843	-0.03681208
201	0xbd058e31	-0.032606307
202	0xbc9082f1	-0.017640563
203	0xbc8b6695	-0.017016688
204	0xbbb6cb79	-0.005578455
205	0x3d013244	0.031542078
206	0xbcdb29ad	-0.026753271
207	0x399a383a	0.0002941506
208	0xbc7c83fa	-0.015412325
209	0xbcd9a52d	-0.02656802
210	0xbda173d9	-0.07883424
211	0x3d3a88ab	0.045540493
212	0x3d145b94	0.03622015
213	0xb9e0686c	-0.0004280241
214	0xbdc18f71	-0.094511874
215	0xbca258cf	-0.019817738
216	0x3b9ff1de	0.0048811277
217	0x3d63e254	0.055635765
218	0xbd5df8ea	-0.05419246
219	0xbd34718b	-0.044053596
220	0x3d3b43f6	0.04571911
221	0xbcac2ca3	-0.021017378
222	0x3d0eb631	0.03484172
223	0x3da3501e	0.079742655
224	0x3d2e6ef9	0.0425863
225	0xbd4114d6	-0.04713901
226	0x3d91ae4a	0.07113321
227	0x3bcaf180	0.00619334
228	0xbc681b99	-0.014166736
229	0xbc9cd22b	-0.019143185
230	0x3d82d039	0.063873716
231	0xbd6f864d	-0.05847769
232	0xbcd8d103	-0.026466852
233	0x3c5a0fb9	0.013309413
234	0x3d9790d3	0.0740067
235	0x3bf00fa7	0.0073260847
236	0x3cf0d620	0.029398978
237	0xbd48987c	-0.048973545
238	0x3c37678d	0.011194122
239	0xbd5016c6	-0.05080297
240	0xbdb6ced1	-0.08926166
241	0x3d21e1fc	0.039522156
242	0xbd94bd0e	-0.07262622
243	0xbb902f44	-0.0044001658
244	0x3cc2f6e5	0.02379937
245	0x3ce1d15f	0.027565656
246	0xbd8edf16	-0.06976144
247	0xbd97d1a9	-0.074130364
248	0xbd52e687	-0.05148938
249	0x3d8d73fb	0.06906887
250	0xbd50df24	-0.050994053
251	0xbd1f7eb2	-0.038939185
252	0x3ce49358	0.02790229
253	0x3d4dcadc	0.05024229
254	0xbd47272d	-0.048621345
255	0x3d43472b	0.047675293

decoders.0.decoder_net.7.bias f4 [16]
0	0x3c82effb	0.015983572
1	0x3da8c6bf	0.08241033
2	0x3c12331c	0.008923318
3	0x3d4a0bf8	0.04932782
4	0x3ab6db73	0.0013950899
5	0xbcc4130e	-0.023934867
6	0x3d48747d	0.048939217
7	0xbcac00c1	-0.020996453
8	0x3dc692d8	0.09695977
9	0x3caf857a	0.021425951
10	0xbc7dc375	-0.015488495
11	0x3d2f69c6	0.042825483
12	0x3cb11137	0.021614654
13	0x3b9ae573	0.0047270595
14	0xbb210fb7	-0.0024576017
15	0x3bbe17bc	0.005801169

decoders.0.decoder_net.9.weight f4 [16]
0	0x3f7a24f6	0.9771265
1	0x3f778cd4	0.9669926
2	0x3f7a8373	0.97856826
3	0x3f790b92	0.9728328
4	0x3f7b07f7	0.9805903
5	0x3f786d41	0.9704171
6	0x3f7ab4bf	0.97932047
7	0x3f7960ef	0.97413534
8	0x3f77cdf5	0.9679864
9	0x3f7883a1	0.9707585
10	0x3f79a150	0.9751177
11	0x3f7a2efa	0.9772793
12	0x3f7862c4	0.97025704
13	0x3f78ce1a	0.97189486
14	0x3f794a77	0.9737925
15	0x3f787aa2	0.9706212

decoders.0.decoder_net.9.bias f4 [16]
0	0x3d8769af	0.066119544
1	0x3ba14610	0.004921682
2	0xbd911bcb	-0.07085379
3	0x3d3cb868	0.0460743
4	0xbd6eb3ef	-0.058277067
5	0xbd0f8dd7	-0.03504738
6	0x3d9dfaa6	0.07713823
7	0xbd8b2113	-0.06793418
8	0x3c290c90	0.010317937
9	0x3d0a74cd	0.033802796
10	0x3d862791	0.065505154
11	0xbdb49ff9	-0.08819575
12	0xbcbb591e	-0.022869643
13	0xbd3b6cd1	-0.045758072
14	0xbc4ba48e	-0.01242937
15	0xbd82ffc3	-0.06396439

decoders.0.decoder_net.9.running_mean f4 [16]
0	0x3d7a4fba	0.06111119
1	0x3d8bbccd	0.0682312
2	0x3d7ed0de	0.06221091
3	0x3d815141	0.06314326
4	0x3d7a7809	0.06114963
5	0x3d719da9	0.058988247
6	0x3d80b2ee	0.06284128
7	0x3d785987	0.060632255
8	0x3d8a41c8	0.06750828
9	0x3d7ee9fa	0.062234856
10	0x3d747294	0.059679583
11	0x3d851f14	0.06500068
12	0x3d7e7282	0.062120922
13	0x3d7d3bab	0.061824482
14	0x3d78d284	0.06074764
15	0x3d802786	0.062575385

decoders.0.decoder_net.9.running_var f4 [16]
0	0x3a2f7a48	0.00066939415
1	0x3a8ebbe5	0.0010889737
2	0x3a5585ec	0.0008145261
3	0x3a5109aa	0.00079741573
4	0x3a435a0f	0.00074520794
5	0x3a2c9a2a	0.00065842515
6	0x3a059277	0.00050953723
7	0x3a6fc8b3	0.0009147033
8	0x3a5ed03c	0.0008499657
9	0x3a378765	0.00070010714
10	0x3a38769b	0.00070367166
11	0x3a6adebf	0.00089595834
12	0x3a4d6a00	0.00078359246
13	0x3a5bb6ff	0.00083814556
14	0x3a43be56	0.0007467022
15	0x3a5032b5	0.0007942126

decoders.0.decoder_net.10.weight f4 [16, 1, 3, 3]
0	0xbe577fd2	-0.21044853
1	0xbe89aef4	-0.2689129
2	0x3e23e0f8	0.16003788
3	0x3e182036	0.14856037
4	0xbe8a0efa	-0.2696455
5	0x3ca051c9	0.019570248
6	0xbe8944ef	-0.26810405
7	0xbe92233f	-0.28542516
8	0xbe4aa7af	-0.19790529
9	0xbe22a973	-0.15884952
10	0x3e34d313	0.17658643
11	0xbe5229e2	-0.2052379
12	0x3e274e75	0.16338523
13	0xbe6bae76	-0.2301577
14	0x3e8675c6	0.2626173
15	0x3cfab3f7	0.030603392
16	0x3e9a9916	0.3019492
17	0xbdd6d9a9	-0.10490734
18	0x3e07fbb9	0.13279618
19	0x3e963133	0.2933441
20	0xbe2e044c	-0.16993827
21	0x3d127ed6	0.03576549
22	0x3e76f7e1	0.24117996
23	0x3e042af5	0.12907012
24	0xbe76cdcd	-0.24101944
25	0x3e70a708	0.23501217
26	0x3e39206c	0.18078774
27	0xbe3ba00c	-0.18322772
28	0x3d4c76e8	0.049918085
29	0xbe9598f7	-0.29218265
30	0xbdf5fd49	-0.12011201
31	0xbb19e5e9	-0.0023482984
32	0x3e080e7c	0.13286775
33	0xbea5f284	-0.32411587
34	0xbe89304f	-0.2679467
35	0x3dbf0b98	0.09328383
36	0xbd050f40	-0.032485247
37	0xbe895da5	-0.26829258
38	0x3dfc1bf6	0.123100206
39	0x3d9531a7	0.07284861
40	0x3dd7282f	0.10505711
41	0x3e489074	0.19586354
42	0x3cb320f7	0.021866305
43	0x3d98d219	0.07461948
44	0x3df93cfe	0.121698365
45	0x3dc7ce31	0.09756125
46	0xbe47bd15	-0.19505723
47	0x3e6674f1	0.22505547
48	0xbe83ed43	-0.25766954
49	0xbcc171be	-0.023613807
50	0xbd6fbb15	-0.058528025
51	0x3e6fb61a	0.2340931
52	0x3e69c1a9	0.22827782
53	0xbe4ff8ca	-0.20309749
54	0xbdfb5582	-0.12272169
55	0xbc5eee14	-0.013606567
56	0x3e1827ab	0.14858882
57	0x3c5293a6	0.012852585
58	0xbe740152	-0.23828629
59	0xbdf8b1ad	-0.12143264
60	0xbdbbc5c1	-0.09168578
61	0xbe6f1aa1	-0.23350002
62	0x3dfd0d83	0.12356093
63	0x3d5b9857	0.05361208
64	0x3c4cb89b	0.012495185
65	0xbe9ab31f	-0.30214784
66	0xbd4a7244	-0.04942538
67	0x3dadb703	0.08482172
68	0x3e89b771	0.26897767
69	0xbe36a432	-0.17836073
70	0x3e809b2b	0.25118384
71	0xbe31216b	-0.17297904
72	0x3dfdcd14	0.12392631
73	0xbe6c9660	-0.23104239
74	0x3db5554a	0.08854158
75	0xbe68d69e	-0.2273812
76	0x3e0df1ee	0.1386182
77	0x3b7117d5	0.0036787887
78	0xbe866502	-0.26248938
79	0x3d60ad6b	0.054852884
80	0xbe3362ac	-0.17518109
81	0x3de9f5b7	0.114238195
82	0x3e56391f	0.20920227
83	0xbde75a8a	-0.11296566
84	0xbe61a517	-0.22035633
85	0xbd05115a	-0.03248725
86	0xbe74ea59	-0.23917522
87	0xbe088534	-0.13332063
88	0x3e1ba16d	0.15198298
89	0xbe0b6e3a	-0.13616267
90	0xbe608405	-0.21925361
91	0xbe638787	-0.22219668
92	0x3e8d2dad	0.2757391
93	0xbe191fc1	-0.1495352
94	0xbe94b582	-0.2904473
95	0xbe3a6c21	-0.1820531
96	0xbda34f90	-0.0797416
97	0x3db9f119	0.09079189
98	0xbe88d255	-0.2672297
99	0x3df412b5	0.119176306
100	0xbe978a72	-0.29597813
101	0x3de6abc5	0.11263231
102	0xbd1921d8	-0.03738579
103	0x3e35a053	0.1773694
104	0x3e361d58	0.17784631
105	0xbe1fc8f3	-0.15604
106	0x3d60cce2	0.05488289
107	0x3c76ff14	0.015075464
108	0xbe1dd105	-0.15411766
109	0x3de5d29e	0.11221813
110	0xbd048d86	-0.03236153
111	0x3e8d8e0f	0.27647445
112	0xbe23d475	-0.15999015
113	0x3e949d6b	0.2902635
114	0x3cce961f	0.025218068
115	0xbcc16bc9	-0.023610966
116	0x3e77f994	0.242163
117	0x3e895b58	0.26827502
118	0x3e8790cf	0.26477668
119	0x3d871e29	0.065975495
120	0xbd0f7d59	-0.03503165
121	0x3c69faf3	0.014281022
122	0x3e635f6b	0.22204368
123	0xbe9a711f	-0.3016443
124	0xbd573383	-0.05253936
125	0x3ddfddc8	0.10930973
126	0x3e7461ad	0.23865385
127	0xbd46d1de	-0.04853999
128	0xbd3eb1a3	-0.046556126
129	0xbe464264	-0.19361264
130	0x3e13ec8e	0.14445707
131	0x3e000211	0.12500788
132	0xbe9914ff	-0.2989883
133	0x3ce44b51	0.027867945
134	0xbe5cb888	-0.21554768
135	0x3e5d921d	0.21637769
136	0x3d6b3497	0.0574232
137	0x3dc105fa	0.09424968
138	0xbe7aa599	-0.24477233
139	0x3e546337	0.20740972
140	0x3e8b7c20	0.27243137
141	0xbe3d1fa4	-0.18469101
142	0x3c735f9b	0.014854337
143	0x3e98aa7c	0.2981757

decoders.1.decoder_net.0.weight f4 [512, 2]
0	0x3ec0ce87	0.37657568
1	0xbea1cf5e	-0.3160352
2	0xbd9f4810	-0.07777417
3	0xbb67f8dc	-0.0035396134
4	0xbdbcded7	-0.09222191
5	0xbf1ea6e1	-0.61973387
6	0xbe0912ff	-0.13386153
7	0xbe9ec122	-0.31006724
8	0x3f260c93	0.64862937
9	0xbe4e99aa	-0.20175806
10	0xbef9d212	-0.48793083
11	0xbe703e9d	-0.23461385
12	0xbd1296e5	-0.035788435
13	0xbf2c6927	-0.6734795
14	0x3f0b8f61	0.54515654
15	0x3eeaaaac	0.45833337
16	0x3e964f5e	0.29357427
17	0x3dc670f7	0.09689515
18	0x3e186fe7	0.14886437
19	0xbe527cfd	-0.20555492
20	0x3eb3a417	0.35086128
21	0xbf203ab9	-0.62589604
22	0xbe48bb9b	-0.19602816
23	0xbdf0de14	-0.11761108
24	0xbe416d96	-0.1888946
25	0xbec0ec3a	-0.37680227
26	0xbea64b6e	-0.32479423
27	0xbf239493	-0.6389858
28	0x3f180d76	0.5939554
29	0xbe89a3e6	-0.26882857
30	0xbe0acc5a	-0.13554516
31	0xbe737448	-0.23774827
32	0xbed9f13a	-0.42566854
33	0x3d2d605a	0.042328216
34	0x3ef1eb40	0.47249794
35	0xbee582de	-0.44826406
36	0xbf092825	-0.5357688
37	0xbee10a20	-0.43953037
38	0x3ec7a952	0.3899637
39	0xbeaabc59	-0.33346823
40	0xbc63b9e8	-0.013899304
41	0xbf35480e	-0.7081307
42	0x3ede7bee	0.43453926
43	0x3f03047d	0.51178724
44	0xbf169969	-0.58827835
45	0xbd06aff9	-0.032882664
46	0x3e0a7536	0.13521275
47	0x3e41f41c	0.18940777
48	0x3f0d1139	0.55104405
49	0x3ee64614	0.4497534
50	0xbec1a556	-0.37821454
51	0xbe22d958	-0.15903223
52	0xbf38563c	-0.72006583
53	0xbf0314ae	-0.5120343
54	0x3ea58f7b	0.3233603
55	0x3f189286	0.5959858
56	0xbd8cdfb1	-0.06878603
57	0xbf0df0ce	-0.55445564
58	0x3e142348	0.14466584
59	0x3e3029fd	0.17203517
60	0xbf08dcfc	-0.53462195
61	0x3dfd464d	0.123669244
62	0x3d996ce2	0.07491471
63	0xbea752f1	-0.32680467
64	0x3c937051	0.017997893
65	0xbf06099c	-0.5235841
66	0xbecdafd8	-0.4017322
67	0x3d34fc7d	0.044186104
68	0xbe0e9661	-0.13924553
69	0xbd9a390a	-0.075304106
70	0x3ef8deb2	0.48607403
71	0xbda86ff2	-0.08224477
72	0x3e9992a5	0.29994693
73	0xbf217c67	-0.6308045
74	0x3f225f49	0.63426644
75	0xbdbb6b73	-0.09151354
76	0x3e5f987a	0.21835509
77	0xbec97923	-0.39350232
78	0xbe9100e4	-0.28320992
79	0x3e91f930	0.28510427
80	0x3e783be6	0.242416
81	0x3e489ceb	0.1959111
82	0xbde93de3	-0.11388757
83	0x3daa8d7d	0.08327768
84	0xbf3a7e1e	-0.7284869
85	0xbebb1329	-0.36538056
86	0xbf2f7034	-0.68530583
87	0x3eaf5068	0.34241033
88	0xbc210db6	-0.009829929
89	0x3ee31eec	0.4435953
90	0x3e7c271e	0.24624297
91	0xbf1b64b1	-0.6070052
92	0xbf15c085	-0.58496886
93	0x3e789483	0.24275403
94	0x3df5ee4f	0.120083444
95	0xbe82e836	-0.25567788
96	0xbe9c3457	-0.30508682
97	0x3f0535ae	0.52035034
98	0xbf05d21b	-0.5227372
99	0x3ed5eb67	0.4178116
100	0xbe0987c1	-0.13430692
101	0xbd5b464c	-0.053533837
102	0x3ebaff28	0.36522794
103	0x3e5d34b5	0.21602137
104	0xbcb198d4	-0.02167932
105	0x3f11eee2	0.5700513
106	0xbe21026d	-0.15723582
107	0xbee8ee3e	-0.45494264
108	0x3f0a91c9	0.541287
109	0xbedee28b	-0.43532214
110	0xbeb0a372	-0.344997
111	0x3ebfafee	0.3743891
112	0x3f320929	0.6954523
113	0xbedadd9e	-0.42747205
114	0x3eb0f9f9	0.34565714
115	0xbf1e3dc0	-0.61812973
116	0x3eddbf31	0.4330993
117	0x3d1cc552	0.038274117
118	0x3f1f2f76	0.62181795
119	0x3f296f18	0.6618514
120	0xbf1a7a94	-0.6034329
121	0x3e8cdccf	0.27512214
122	0x3f01ac63	0.50653666
123	0x3cf6f107	0.030144228
124	0x3f1962c8	0.59916353
125	0xbf26ad7f	-0.65108484
126	0xbeb1442c	-0.34622324
127	0x3e0554b1	0.13020588
128	0xbdf7cc55	-0.1209952
129	0x3e9b6915	0.3035361
130	0x3eb43484	0.35196316
131	0xbf0cea50	-0.5504503
132	0xbdfac4c5	-0.12244562
133	0x3dd08be5	0.10182933
134	0xbeb99f88	-0.36254525
135	0xbefc4b39	-0.4927614
136	0xbe8cd5c3	-0.27506837
137	0x3ec40ac4	0.38289464
138	0x3e55e89e	0.20889518
139	0xbee3fe40	-0.44529915
140	0x3ec54588	0.3852961
141	0xbf0b817f	-0.5449447
142	0x3d7a19e5	0.06105985
143	0x3e40cced	0.18828173
144	0x3f0336e4	0.5125563
145	0xbeeef78c	-0.46673238
146	0x3e0d08d9	0.13772906
147	0xbeda9561	-0.42692092
148	0xbe7083ea	-0.23487821
149	0x3acdee5b	0.0015711294
150	0x3afd3d1e	0.0019320583
151	0x3f21b095	0.6316007
152	0xbd801e12	-0.062557355
153	0xbe999b4a	-0.3000129
154	0xbeb898a2	-0.3605395
155	0x3e856bfc	0.26058948
156	0x3e816273	0.25270423
157	0x3e9d5798	0.3073089
158	0x3e7c44b1	0.24635579
159	0x3f0209ea	0.5079638
160	0x3eb83102	0.3597489
161	0xbeb873bd	-0.360258
162	0xbecc76f3	-0.399345
163	0x3f06ba0a	0.52627623
164	0x3f315e21	0.69284254
165	0xbf2b58c8	-0.66932344
166	0xbe8b14a1	-0.27164176
167	0x3ebd553d	0.36979094
168	0x3cb8c0e3	0.022552913
169	0x3e8bd5bb	0.273115
170	0x3ef901cf	0.48634192
171	0xbe946234	-0.28981173
172	0xbee6da9e	-0.45088667
173	0x3f06a9ad	0.52602655
174	0xbea4f558	-0.32218432
175	0xbe36009c	-0.1777367
176	0xbe713974	-0.23557073
177	0x3f0c5284	0.5481341
178	0x3f2c11f8	0.6721492
179	0xbcab810d	-0.02093556
180	0x3f2f02e6	0.683638
181	0xbf1b7205	-0.60720855
182	0xbc39de08	-0.01134444
183	0x3e9bf57b	0.30460724
184	0xbf33c4df	-0.70222276
185	0x3ca36914	0.019947566
186	0x3cd5791d	0.026058728
187	0x3e6d4194	0.23169547
188	0x3f290bf0	0.6603384
189	0xbe96cc15	-0.29452577
190	0xbf230977	-0.6368632
191	0xbed0e8ab	-0.40802512
192	0xbf03837e	-0.51372516
193	0x3ef8ec80	0.48617935
194	0xbdebea3d	-0.11519287
195	0xbee40a58	-0.44539142
196	0x3e6d0d57	0.2314962
197	0xbf29243b	-0.6607091
198	0x3f11e212	0.5698558
199	0xbd27eed9	-0.040999267
200	0x3ed4d043	0.4156514
201	0x3f25b681	0.64731604
202	0xbf0ebfdf	-0.5576152
203	0x3ee6993e	0.4503879
204	0x3f13d119	0.5774093
205	0x3d124e28	0.035719067
206	0x3ef1dccb	0.47238764
207	0xbc8bd517	-0.017069383
208	0x3edebd57	0.4350383
209	0xbe1dd496	-0.15413126
210	0x3df43165	0.11923484
211	0x3e60f1cf	0.21967243
212	0x3f00c4a3	0.50300044
213	0xbde2c7db	-0.11073276
214	0x3f20e8d2	0.62855256
215	0xbd95568a	-0.07291897
216	0x3eb93a52	0.36177307
217	0xbf3374e9	-0.70100266
218	0xbe8c3653	-0.27385196
219	0x3c6d5cdf	0.014487474
220	0xbde3ded8	-0.111264884
221	0xbed0d619	-0.40788344
222	0xbf04476f	-0.516715
223	0x3de0be2e	0.10973774
224	0xbf10b4af	-0.565257
225	0x3ccf58f6	0.025310975
226	0x3f3b7dea	0.73239005
227	0xbe83de0e	-0.25755352
228	0xbef80152	-0.48438507
229	0xbddee282	-0.10883047
230	0x3e905b24	0.28194535
231	0xbf18f7e0	-0.5975323
232	0xbeb1e1a6	-0.3474247
233	0x3eeaf7c0	0.45892143
234	0xbe216df0	-0.15764594
235	0x3ed610cd	0.41809693
236	0xbecfadf1	-0.40562394
237	0x3ea4aa68	0.3216126
238	0x3e2bde01	0.16783907
239	0xbf35f536	-0.7107729
240	0xbf30e59b	-0.6910035
241	0x3eb5f5b7	0.35539028
242	0xbec7bc32	-0.3901077
243	0x3e262e72	0.16228655
244	0xbecfb46c	-0.40567338
245	0xbdafd20a	-0.08584984
246	0xbed8a01e	-0.4230966
247	0x3e89670c	0.2683643
248	0xbf087b03	-0.533127
249	0xbf2c6641	-0.6734353
250	0xbf03d83f	-0.5150184
251	0x3ed72286	0.42018527
252	0x3e8d88df	0.27643487
253	0xbe2a53e3	-0.16633563
254	0xbf0d21f1	-0.55129915
255	0x3f02dd79	0.5111919
