Project2/models/model_1_8.pt (torch, 143155 bytes, 37 tensors)

prior.mean f4 [2]
0	0x00000000	0.0
1	0x00000000	0.0

prior.std f4 [2]
0	0x3f800000	1.0
1	0x3f800000	1.0

decoders.0.decoder_net.0.weight f4 [512, 2]
0	0x3ef585be	0.479536
1	0x3f2d051c	0.6758592
2	0xbdaa0c14	-0.08303085
3	0x3f41f66b	0.7576663
4	0xbd843839	-0.06456036
5	0x3f098769	0.53722245
6	0x3d9994d5	0.074990906
7	0x3dda116d	0.10647855
8	0xbf1132c4	-0.5671809
9	0x3e1fc81c	0.1560368
10	0x3e359694	0.17733222
11	0x3f18c290	0.5967188
12	0x3f04e12a	0.51906073
13	0xbf1bb4a3	-0.60822505
14	0x3e50009f	0.20312737
15	0x3f12667c	0.5718763
16	0x3e6920d4	0.22766429
17	0xbe17b63a	-0.14815608
18	0x3eac1136	0.3360688
19	0x3ed702be	0.4199428
20	0xbf12c0b7	-0.5732531
21	0xbe086c62	-0.13322595
22	0x3dc807ca	0.09767111
23	0x3ed69d07	0.41916677
24	0x3ece8cf1	0.40341905
25	0x3e2faab6	0.17154965
26	0x3ec74176	0.3891713
27	0x3eb5cdc5	0.35508552
28	0xbf0ec646	-0.5577129
29	0x3f3279f3	0.6971733
30	0xbddf2aa3	-0.10896804
31	0xbf11878f	-0.5684747
32	0xbefd7074	-0.49499857
33	0xbdf65d04	-0.1202946
34	0x3ed23ba1	0.41061118
35	0x3e9753f3	0.29556236
36	0x3f2b6830	0.6695585
37	0xbf3241bb	-0.69631547
38	0xbe032388	-0.12806523
39	0xbf222232	-0.6333343
40	0x3e81e901	0.2537308
41	0x3f1b1a30	0.60586834
42	0x3ec257a8	0.379575
43	0xbeae8a8d	-0.3409008
44	0xbed8377a	-0.42229825
45	0x3e580f98	0.21099699
46	0xbe63025d	-0.2216887
47	0xbf38f3d2	-0.7224704
48	0x3cf0dab1	0.029401155
49	0xbe3ff0cb	-0.18744199
50	0xbf4d5b45	-0.8021739
51	0x3f0445f2	0.5166923
52	0x3f5fb3b3	0.87383574
53	0x3cdfe84d	0.02733245
54	0xbdbf5553	-0.09342446
55	0xbf410e3b	-0.7541234
56	0x3f0011c0	0.50027084
57	0xbe5a01d9	-0.21289767
58	0xbeefdb34	-0.46846926
59	0xbe129348	-0.14313996
60	0x3ecfb1d5	0.40565363
61	0xbe9976e7	-0.29973528
62	0xbe82cd0f	-0.25547072
63	0x3ea605b6	0.32426232
64	0xbedd7bf0	-0.4325862
65	0x3f0d611b	0.55226296
66	0x3ed5b22a	0.4173749
67	0xbf1b419e	-0.60647
68	0x3bddfbd2	0.006774404
69	0x3f35f973	0.71083754
70	0xbeaa9eb2	-0.333242
71	0x3f1db4b6	0.6160387
72	0xbed3f8b1	-0.41400674
73	0x3f06b5a9	0.5262094
74	0xbefc795a	-0.49311334
75	0xbe635b59	-0.22202815
76	0xbf1bccf1	-0.6085959
77	0x3e500a38	0.20316398
78	0x3f05c8a0	0.52259254
79	0xbedb5b71	-0.42843202
80	0xbcf98727	-0.030459953
81	0xbf0246ee	-0.5088948
82	0x3f18112e	0.59401214
83	0xbe482abe	-0.19547555
84	0x3e9df78c	0.30852926
85	0xbbbd0c43	-0.005769284
86	0xbef93ecc	-0.48680723
87	0x3e589ccf	0.21153568
88	0x3efe802e	0.49707168
89	0x3f01e7fe	0.50744617
90	0x3e6bf918	0.2304424
91	0x3f328344	0.69731545
92	0xbf06601f	-0.5249042
93	0xbf0a0d17	-0.53926224
94	0xbec3cb17	-0.38240883
95	0xbe8a72ca	-0.27040702
96	0xbed789fd	-0.42097464
97	0x3eb02c95	0.34409013
98	0x3d1b0c3f	0.037853476
99	0x3f135f8e	0.5756768
100	0xbed31daa	-0.4123357
101	0x3f08a336	0.5337404
102	0xbddceda2	-0.10787512
103	0xbef94d77	-0.48691913
104	0xbda097c2	-0.078414455
105	0xbed1a483	-0.40945825
106	0xbf2a9063	-0.66626567
107	0xbdb377f7	-0.08763116
108	0x3f1ba4f8	0.607986
109	0x3e9cf141	0.30652812
110	0xbf3859b6	-0.7201189
111	0xbe9946b0	-0.29936743
112	0x3ecc4557	0.39896652
113	0xbed89b62	-0.42306048
114	0xbe7366bf	-0.23769663
115	0x3e0024e1	0.12514068
116	0xbd7a3263	-0.06108321
117	0xbf257895	-0.6463712
118	0xbea56ca8	-0.3230946
119	0xbf2e9269	-0.68192154
120	0xbdb497ab	-0.08817991
121	0xbdd35c37	-0.10320323
122	0x3f10d55d	0.56575567
123	0xbdcca79a	-0.09992905
124	0xbf32ccd7	-0.6984381
125	0x3dbfdbf6	0.09368126
126	0xbf12e28d	-0.5737694
127	0xbebe77d9	-0.37200812
128	0x3d8accbc	0.06777331
129	0x3f065afc	0.5248258
130	0x3e7f0508	0.24904263
131	0xbf1d7365	-0.61504203
132	0xbf0a626b	-0.54056424
133	0x3f245033	0.64184874
134	0x3f125aa2	0.57169545
135	0xbf115445	-0.5676921
136	0x3eac73d8	0.33682132
137	0xbdef53d9	-0.116859145
138	0x3eddbe57	0.4330928
139	0xbf1d80db	-0.6152474
140	0xbf29c1ee	-0.6631154
141	0x3e5bafd0	0.21453786
142	0x3e680711	0.22658946
143	0x3e0db499	0.13838424
144	0x3e95b886	0.29242343
145	0x3db2478f	0.08705055
146	0x3e6f3b20	0.23362398
147	0xbf06c3cd	-0.5264252
148	0x3da61f12	0.08111395
149	0xbe515c7c	-0.20445436
150	0xbece2c99	-0.402684
151	0x3ee510ec	0.44739473
152	0x3f10acd3	0.5651371
153	0xbdb50df8	-0.08840555
154	0xbeaf7102	-0.34265906
155	0x3da0fd93	0.078608654
156	0x3ee0778a	0.438412
157	0xbe9faf2a	-0.31188327
158	0x3dc3ecc1	0.095666416
159	0xbe17c5b7	-0.14821516
160	0x3f0792bc	0.52958274
161	0xbe75b0a3	-0.23993163
162	0xbeabad59	-0.3353069
163	0xbf1e9094	-0.6193936
164	0x3f217002	0.63061535
165	0xbf19055c	-0.597738
166	0x3e8f099e	0.27937025
167	0x3e32aef8	0.17449558
168	0x3f0facab	0.56122845
169	0xbe7b9a6e	-0.24570629
170	0xbe82f753	-0.25579318
171	0x3c9aaeed	0.01888224
172	0xbf2594ab	-0.64679974
173	0xbf1b5b4f	-0.606862
174	0xbdd0741a	-0.101783946
175	0xbebb67d5	-0.36602655
176	0xba705ccd	-0.0009169102
177	0xbd02c469	-0.031925593
178	0xbe4164e2	-0.1888614
179	0x3f15e6ae	0.58555114
180	0xbf0960cc	-0.53663325
181	0x3f45843f	0.77154917
182	0x3edcbea7	0.43114206
183	0x3ee23272	0.44179112
184	0xbefb9bad	-0.4914221
185	0x3e2c6857	0.16836677
186	0x3f2490a1	0.64283186
187	0x3ec39895	0.38202348
188	0x3e9ca7c5	0.30596748
189	0xbedfc2a2	-0.4370318
190	0x3ed20751	0.41021207
191	0xbe91fe05	-0.28514114
192	0xbecf31fc	-0.40467823
193	0xbe36a730	-0.17837214
194	0x3e825383	0.2545434
195	0x3ece536a	0.40298015
196	0xbee97c10	-0.45602465
197	0xbf325ae4	-0.6966994
198	0x3daefbf7	0.08544152
199	0xbf0210d6	-0.5080694
200	0xbe7c1393	-0.24616842
201	0x3e1f1b86	0.15537843
202	0x3eed9295	0.46400896
203	0x3ed7d0c0	0.4215145
204	0xbf47a9a3	-0.7799322
205	0x3ce28a47	0.027653826
206	0x3e90a8ac	0.28253686
207	0x3f261650	0.64877796
208	0xbe830efa	-0.25597364
209	0x3ebba304	0.3664781
210	0xbf24bddc	-0.643522
211	0x3f226c55	0.6344655
212	0x3e651cc9	0.22374262
213	0x3f03b183	0.51442736
214	0xbe7d2adb	-0.2472338
215	0x3ea38c98	0.31943202
216	0xbef5ce05	-0.48008743
217	0x3ea029f1	0.31282
218	0x3f17959e	0.5921267
219	0xbe16ee66	-0.1473938
220	0xbf333c7c	-0.70014167
221	0x3e9fddd0	0.31223917
222	0x3ec98bc1	0.39364436
223	0x3e8b9c79	0.27267817
224	0x3ce034c2	0.027368907
225	0xbdf997b5	-0.12187139
226	0xbedfce63	-0.43712148
227	0x3f0b08f5	0.5431054
228	0xbea805d6	-0.32816952
229	0x3edd14f3	0.43180045
230	0x3eecad9c	0.46226203
231	0xbdd4ca64	-0.103901654
232	0xbeddfccc	-0.4335693
233	0x3f0c5953	0.548238
234	0x3f28248b	0.6568076
235	0xbeb7af0b	-0.35875735
236	0xbf21abf3	-0.63153
237	0xbe92d0bb	-0.28674874
238	0x3f060a29	0.52359253
239	0x3ea459ec	0.32099855
240	0x3ed07a68	0.4071839
241	0x3e7f0981	0.24905969
242	0xbe8338e0	-0.2562933
243	0xbbb42fcc	-0.005498862
244	0x3f6f0bf7	0.9337763
245	0x3e009514	0.12556869
246	0xbe8abefc	-0.27098835
247	0xbdd8aec5	-0.1058021
248	0x3c9c5846	0.01908506
249	0x3f126e6e	0.5719975
250	0x3f50b616	0.8152784
251	0xbf0126a9	-0.50449616
252	0x3ec183f9	0.37796
253	0x3f079bb9	0.5297199
254	0xbee2db0f	-0.44307753
255	0xbe6149ea	-0.22000852

decoders.0.decoder_net.0.bias f4 [512]
0	0xbed8b181	-0.42322925
1	0xbeeb8f60	-0.46007824
2	0x3ed4c671	0.4155765
3	0x3e4ac75f	0.19802617
4	0xbe99e463	-0.30057058
5	0x3f27e86c	0.6558902
6	0xbf30ee61	-0.6911374
7	0x3e9d8001	0.30761722
8	0x3e4403f7	0.19142137
9	0xbe0abeaf	-0.13549303
10	0xbe5746a2	-0.21023038
11	0xbd1b0f8e	-0.03785663
12	0x3ef79bd4	0.48361075
13	0xbc58febe	-0.013244329
14	0x3ee8b23d	0.45448485
15	0x3f2c8082	0.6738359
16	0xbec7ad64	-0.38999474
17	0xbd6a134d	-0.057147313
18	0x3eafacf2	0.34311634
19	0x3eed0329	0.46291474
20	0xbcda0d56	-0.026617687
21	0x3e62bcaf	0.2214229
22	0xbf2e23b6	-0.6802324
23	0xbe471ed3	-0.19445352
24	0xbf0dd487	-0.55402416
25	0x3e7b3425	0.2453161
26	0xbf0c4155	-0.5478719
27	0x3f1a3408	0.60235643
28	0xbe551483	-0.20808606
29	0x3e8ec10a	0.27881652
30	0x3f328490	0.69733524
31	0x3de3bc0f	0.11119854
32	0xbf17cf63	-0.5930082
33	0x3f2d24c4	0.67634225
34	0xbeab3f27	-0.3344662
35	0xbf35e5b8	-0.7105365
36	0x3e849b95	0.2589995
37	0x3cb99acc	0.02265682
38	0xbf2c198a	-0.6722647
39	0xbe6272ec	-0.22114152
40	0x3db10935	0.08644334
41	0x3ea4391c	0.3207482
42	0xbebecc9b	-0.37265477
43	0x3f2501c4	0.6445582
44	0x3f378cb4	0.7169907
45	0x3f230a2f	0.63687414
46	0xbefbb54e	-0.49161762
47	0x3e84539e	0.25845045
48	0x3cacaeb6	0.021079402
49	0x3f243d6f	0.6415624
50	0x3c13db67	0.009024478
51	0xbe300ba7	-0.17191945
52	0x3e25df8a	0.16198555
53	0x3f43645b	0.76325005
54	0x3d5a1ba2	0.05324901
55	0xbece4149	-0.40284184
56	0x3f20d457	0.62824005
57	0x3f1a50b2	0.6027938
58	0xbef08d86	-0.46982974
59	0xbea4313d	-0.32068816
60	0xbf42c037	-0.76074547
61	0x3ec4b52d	0.38419476
62	0x3e188698	0.14895093
63	0x3d3ce91f	0.04612076
64	0x3e9f8030	0.31152487
65	0x3f088ecf	0.5334291
66	0x3e806a1c	0.25080955
67	0xbf224ac9	-0.63395363
68	0x3cd77c6d	0.026304448
69	0x3dccfde3	0.100093625
70	0x3f11ed9d	0.57003194
71	0x3e680bf4	0.2266081
72	0x3f155afe	0.5834197
73	0xbf235609	-0.63803154
74	0x3df29ea9	0.11846668
75	0xbea5fd9b	-0.32420048
76	0xbd253f8e	-0.040343814
77	0x3ec8f505	0.39249435
78	0x3ec99575	0.3937184
79	0x3d8d368c	0.068951696
80	0x3e9e664a	0.30937415
81	0xbf037a2b	-0.5135829
82	0xbf243f8c	-0.64159465
83	0x3ea942b8	0.33058715
84	0x3dbfedae	0.09371506
85	0x3e39cc81	0.18144418
86	0x3ef120c8	0.47095323
87	0x3f075b50	0.52873707
88	0x3e81686e	0.25274986
89	0xbf20e92f	-0.6285581
90	0x3e6ad3b7	0.22932325
91	0x3e9d78d9	0.30756262
92	0x3ed422d7	0.4143283
93	0x3f0999ee	0.53750503
94	0xbeab8eff	-0.33507535
95	0x3e98a0e7	0.2981026
96	0xbda00150	-0.0781275
97	0xbeab6fe6	-0.3348381
98	0x3f17d1f4	0.5930474
99	0xbf088bfa	-0.5333859
100	0xbf2d104c	-0.6760299
101	0xbf03fee3	-0.515608
102	0x3f533d19	0.825151
103	0xbeef7da3	-0.4677554
104	0x3e9dfe13	0.30857906
105	0x3f12e10b	0.5737464
106	0x3dc6bb0f	0.09703647
107	0x3de0ab2a	0.10970147
108	0xbdeac70e	-0.11463748
109	0xbe1ba988	-0.1520139
110	0xbe7500c1	-0.23926069
111	0xbf393980	-0.72353363
112	0xbf02a32d	-0.51030236
113	0x3e746449	0.23866381
114	0x3e990f34	0.29894412
115	0x3eedd1dd	0.46449175
116	0x3f2c8aee	0.6739949
117	0xbd9272bb	-0.07150789
118	0xbeb7f637	-0.35930035
119	0xbe929fbb	-0.2863749
120	0x3ef682b7	0.48146603
121	0xbf22bbb5	-0.6356767
122	0x3ed6e195	0.4196898
123	0x3e6563e4	0.22401386
124	0x3ed7f7d3	0.42181262
125	0x3d925d87	0.07146745
126	0x3e77e1f3	0.24207287
127	0x3e9fda70	0.31221342
128	0xbd27d643	-0.04097582
129	0x3e11a3ac	0.14222592
130	0xbe3be229	-0.18347992
131	0x3ef41b08	0.47676873
132	0x3f0de1e1	0.5542279
133	0xbf3b2af7	-0.73112434
134	0x3f61909c	0.8811128
135	0xbed8de39	-0.42357042
136	0x3e0e5594	0.13899833
137	0xbf13954d	-0.5764969
138	0x3f242004	0.6411135
139	0x3ec239e5	0.37934795
140	0xbb4e2d6a	-0.0031460174
141	0xbf125596	-0.57161844
142	0xbeba0155	-0.3632914
143	0xbeaa294f	-0.3323464
144	0xbece602f	-0.40307757
145	0xbea45570	-0.32096434
146	0xbf04243a	-0.5161778
147	0xbe382a1d	-0.17984815
148	0xbe6f9808	-0.23397839
149	0xbed16d1d	-0.4090356
150	0xbe045f24	-0.12926918
151	0x3f1848c4	0.5948603
152	0x3e8f8031	0.2802749
153	0x3f3ee981	0.7457505
154	0xbf309750	-0.68980885
155	0xbd6d6558	-0.057957977
156	0x3ed1b914	0.40961516
157	0x3cdae988	0.026722685
158	0x3f0482ca	0.5176207
159	0xbe54243f	-0.20716952
160	0x3ebb6acf	0.36604926
161	0x3eab34ca	0.33438712
162	0x3e9209cb	0.28523096
163	0xbebfbba1	-0.37447837
164	0xbf0255ba	-0.5091206
165	0x3eb0917a	0.3448599
166	0xbf32adc0	-0.6979637
167	0xbe7d584e	-0.24740717
168	0x3dd9e62a	0.106396034
169	0x3f2a1d68	0.6645112
170	0xbf18383f	-0.59460825
171	0x3ec4dffe	0.38452142
172	0xbe8efc98	-0.2792709
173	0xbe645c14	-0.2230075
174	0xbf156bc5	-0.5836757
175	0xbf173ed4	-0.59080243
176	0x3e8d23ff	0.27566525
177	0x3ecc8f7f	0.3995323
178	0x3cddb0fd	0.027061934
179	0xbeddfbfb	-0.43356308
180	0x3d35e7b3	0.04441042
181	0x3ce91a8b	0.02845504
182	0xbd8ebfa7	-0.069701485
183	0xbc6ec7e8	-0.014574029
184	0xbebc8e65	-0.36827388
185	0xbf297741	-0.6619759
186	0x3ecc80a2	0.3994189
187	0xbf0b4169	-0.5439668
188	0xbe1e650a	-0.15468231
189	0x3eb2fa99	0.34956816
190	0x3f5ae73b	0.8550908
191	0x3eda3470	0.42618132
192	0xbeabdf7f	-0.3356895
193	0xbc5a2310	-0.013314024
194	0xbeea2ba8	-0.45736432
195	0x3c804783	0.0156591
196	0x3f3f50e5	0.7473281
197	0x3f2c71bf	0.6736106
198	0xbec6a916	-0.38800877
199	0x3d1a05a9	0.037603054
200	0x3f080540	0.5313301
201	0x3ea8ece5	0.32993236
202	0x3de09eac	0.10967764
203	0x3ec4b7fc	0.3842162
204	0xbec97ddc	-0.39353836
205	0x3cd363d9	0.025804447
206	0xbd98ad20	-0.07454896
207	0x3eabfdd7	0.33592102
208	0x3f507175	0.8142312
209	0x3ed3f10d	0.41394845
210	0xbe732da9	-0.23747887
211	0x3eb2a3cd	0.34890595
212	0x3f242af5	0.6412805
213	0x3e9a17b3	0.30096206
214	0xbecf7566	-0.40519255
215	0xbe0798e8	-0.13241923
216	0xbf1cbb4e	-0.61223304
217	0xbe11dd3f	-0.14244555
218	0xbee4c1c6	-0.44679087
219	0x3e7219ca	0.2364265
220	0x3e7d40a3	0.24731688
221	0xbd8e51de	-0.06949209
222	0xbcf1ce23	-0.029517239
223	0xbe432683	-0.1905766
224	0x3e8689da	0.26277047
225	0x3e8b6b3e	0.27230257
226	0x3dc8f9c7	0.09813266
227	0x3ec93b8f	0.39303252
228	0x3ed59ad3	0.41719684
229	0xbdca7753	-0.098860405
230	0xbef1b3cf	-0.47207496
231	0xbea6bbb1	-0.32565072
232	0xbeae44af	-0.34036776
233	0x3dfaa1c5	0.12237886
234	0xbeacbe4a	-0.3373893
235	0x3e1be94a	0.15225711
236	0xbf35e0c6	-0.710461
237	0x3e989415	0.29800478
238	0xbf2fa2a9	-0.68607575
239	0x3e880255	0.2656428
240	0xbeaea57a	-0.34110624
241	0xbdd4d70e	-0.10392581
242	0xbe422a99	-0.18961562
243	0x3f392f8b	0.7233817
244	0xbeb6fe8c	-0.3574108
245	0xbf3284af	-0.6973371
246	0xbe22726e	-0.15863964
247	0x3e7cf1e7	0.24701653
248	0xbf0ba6da	-0.5455147
249	0x3f17e86c	0.5933902
250	0x3f32d0d1	0.6984988
251	0x3f25f8e1	0.64832884
252	0xbf044a03	-0.5167543
253	0xbeeb66fb	-0.45977005
254	0x3e77708e	0.2416403
255	0x3f02d390	0.5110407

decoders.0.decoder_net.3.weight f4 [32]
0	0x3f7ac3b3	0.97954863
1	0x3f808307	1.0039986
2	0x3f800310	1.0000935
3	0x3f846b19	1.0345184
4	0x3f81d073	1.0141739
5	0x3f80fca1	1.0077096
6	0x3f82e24e	1.0225313
7	0x3f80b4c6	1.0055168
8	0x3f840e6d	1.0316902
9	0x3f800f4b	1.0004667
10	0x3f78a4a3	0.97126216
11	0x3f825d36	1.0184696
12	0x3f84ce73	1.0375503
13	0x3f898e26	1.0746505
14	0x3f7ec20f	0.9951486
15	0x3f83be3c	1.029243
16	0x3f8bd4bd	1.0924298
17	0x3f84fee4	1.0390286
18	0x3f738b0e	0.95134056
19	0x3f8eab98	1.1146116
20	0x3f80ac22	1.0052531
21	0x3f85340d	1.040651
22	0x3f88647f	1.0655669
23	0x3f838785	1.0275732
24	0x3f8752c0	1.0572128
25	0x3f83e104	1.0303044
26	0x3f8750c0	1.0571518
27	0x3f7bd6f0	0.98374844
28	0x3f7d34f0	0.989089
29	0x3f7aecd5	0.98017627
30	0x3f82cdb3	1.0219024
31	0x3f8563b8	1.0421057

decoders.0.decoder_net.3.bias f4 [32]
0	0x3cc67dc4	0.024229892
1	0x3d9ff1d6	0.078097984
2	0x3ce8e067	0.028427316
3	0x3ce95627	0.028483463
4	0xbb65c745	-0.00350614
5	0xbd04d791	-0.032432143
6	0x3d739ad9	0.059473846
7	0x3cd5038d	0.02600267
8	0x3d3aa18c	0.04556422
9	0xbcde50ec	-0.027138196
10	0xbc33d0ca	-0.010975072
11	0x3cb039bf	0.02151191
12	0xbc1375a1	-0.009000213
13	0x3c8ae2ae	0.016953792
14	0xbcffcf4d	-0.031226778
15	0xbccc5299	-0.02494173
16	0x3d5364af	0.05160969
17	0x3ba62770	0.0050706193
18	0x3c4779eb	0.012175064
19	0xbcf1ebb4	-0.029531337
20	0x3c0511bb	0.008121903
21	0x3d9664e4	0.07343462
22	0xbc2bec33	-0.010493326
23	0xbc1e1d83	-0.009650591
24	0xbc2bff7c	-0.010497924
25	0xbda2ed29	-0.07955391
26	0xbcd3cc60	-0.02585429
27	0x3daad7ab	0.08341917
28	0xbd88fb4c	-0.06688556
29	0xbd29371f	-0.041312333
30	0xbbcf6d47	-0.0063301655
31	0xbdd2122b	-0.102573715

decoders.0.decoder_net.3.running_mean f4 [32]
0	0x3d5e8e77	0.054335084
1	0x3cc2a71e	0.023761328
2	0x3d245f6e	0.04013007
3	0x3cda99aa	0.0266846
4	0x3ce701f8	0.028199181
5	0x3d11f9fc	0.035638794
6	0x3d17dbbe	0.037074797
7	0x3d281196	0.041032396
8	0x3cc0d802	0.0235405
9	0x3cbdfd10	0.023191959
10	0x3cf0ffa0	0.029418766
11	0x3ce17214	0.027520217
12	0x3d32c1e4	0.04364194
13	0x3cfc792d	0.0308195
14	0x3d32710f	0.043564852
15	0x3ceb4ed3	0.02872411
16	0x3cd357e6	0.02579875
17	0x3d44b212	0.048021384
18	0x3cffd10f	0.031227617
19	0x3cd7f059	0.026359724
20	0x3c985190	0.01859358
21	0x3d3007b2	0.04297609
22	0x3d2707fd	0.040779103
23	0x3c9946e5	0.018710563
24	0x3cd5cfbb	0.02610003
25	0x3d33bd3f	0.04388165
26	0x3ca98f89	0.020698326
27	0x3c8e3301	0.017358305
28	0x3cff3907	0.031155122
29	0x3cc3b8aa	0.023891766
30	0x3ca4b572	0.020106051
31	0x3cddb475	0.027063588

decoders.0.decoder_net.3.running_var f4 [32]
0	0x3bc6f813	0.006072053
1	0x3a9f2a40	0.0012143329
2	0x3b4803e4	0.0030519897
3	0x3aa8ab8a	0.0012868505
4	0x3acffb02	0.0015867653
5	0x3b7eec02	0.0038897996
6	0x3b34e0d7	0.0027599835
7	0x3b1ff966	0.0024410128
8	0x3a0aeed4	0.00052998704
9	0x3a1d94e5	0.0006011262
10	0x3b0e917d	0.0021754198
11	0x3a8534d6	0.0010162841
12	0x3b554f93	0.003254865
13	0x3ace81e5	0.0015755264
14	0x3bb98e89	0.0056627435
15	0x3ae26464	0.001727235
16	0x3abc3dc6	0.0014361672
17	0x3bc21ac3	0.0059236004
18	0x3ae020c3	0.0017099608
19	0x3a3029df	0.00067201065
20	0x3a188982	0.000581883
21	0x3ba32bcc	0.004979586
22	0x3b50dd29	0.0031870103
23	0x39aed515	0.00033346625
24	0x3aabdca9	0.0013112026
25	0x3c2e3ce1	0.010634632
26	0x3a0eabe4	0.0005442484
27	0x39950cbd	0.00028428985
28	0x3a9004cc	0.0010987758
29	0x3a960fbb	0.001144878
30	0x39f0a4cc	0.0004589915
31	0x3ab4806b	0.0013771182

decoders.0.decoder_net.4.weight f4 [32, 32, 3, 3]
0	0xbd954e76	-0.07290356
1	0x3be9523d	0.0071203993
2	0x3c39a90c	0.011331808
3	0xbc889762	-0.016673747
4	0x3c73e8d4	0.0148870535
5	0xbd35a5b7	-0.04434749
6	0xbd444bf9	-0.047924016
7	0xbc4b0102	-0.012390377
8	0x3d1b79d5	0.037957985
9	0xbd030a02	-0.031991966
10	0x3d76d91a	0.060265638
11	0x3cdf4708	0.02725555
12	0xbd9acaec	-0.075582355
13	0x3bc6d28b	0.006067579
14	0xbd602c7a	-0.054729916
15	0xbd13c80d	-0.036079455
16	0x3d0f84e0	0.03503883
17	0x3bcd9002	0.0062732706
18	0x3d2c4a7c	0.04206322
19	0x3b17d1f4	0.0023165913
20	0x3d52ee71	0.051496927
21	0x3dc5dc53	0.09661164
22	0x3c95ba7c	0.0182774
23	0xbd98834d	-0.07446919
24	0xbcbc32cd	-0.022973442
25	0x3c571245	0.013126914
26	0xbc3ecfa9	-0.01164619
27	0x3d12ba65	0.03582229
28	0xbbcfa44f	-0.006336726
29	0xbd8b1a2a	-0.067921
30	0x3d0e3a29	0.034723435
31	0x3c87898f	0.016545085
32	0xbdb4a093	-0.088196896
33	0x3d0fcada	0.035105564
34	0x3da57fda	0.080810264
35	0x3c63bc0f	0.013899817
36	0xbcdce2cc	-0.026963614
37	0xbd1a05d6	-0.03760322
38	0x3cf7f172	0.030266497
39	0xbd775315	-0.060381968
40	0xbd7e89b9	-0.06214306
41	0xbbb68033	-0.0055694818
42	0x3d3fa9f2	0.04679293
43	0x3d6fa96f	0.058511194
44	0xbc9824b3	-0.018572187
45	0x3b96c0ca	0.004600619
46	0xbc4c0488	-0.012452252
47	0xbd64473b	-0.055731993
48	0x3cbd662e	0.023120012
49	0xbba27f2b	-0.0049590073
50	0xbcd60c6e	-0.026128974
51	0x3ca55491	0.020181926
52	0xbccb8ca9	-0.024847345
53	0xbc28989d	-0.010290292
54	0x3d515f09	0.051116023
55	0x3d03265c	0.032019004
56	0xbd978cc8	-0.07399899
57	0xbd90d65a	-0.07072134
58	0xbd0ac09c	-0.033875093
59	0xbc0dc498	-0.008652829
60	0xbd3bbda7	-0.045835163
61	0xbd80187a	-0.062546685
62	0x3bcf3c66	0.0063243387
63	0xb9c25a9e	-0.00037070079
64	0x3d37efe1	0.0449065
65	0x3b3f9d90	0.0029238202
66	0x3d1b758f	0.03795391
67	0x3d3a75be	0.045522444
68	0xb8c2d179	-9.289658e-05
69	0xbd141464	-0.03615226
70	0x3cfbd764	0.030742355
71	0xbd5b7ff5	-0.053588826
72	0xbc86c445	-0.01645101
73	0xbc83af60	-0.016074836
74	0x3c846ec7	0.016166104
75	0x3dacc111	0.08435262
76	0x3d0b2a1f	0.033975717
77	0xbd5fb85d	-0.054619182
78	0x3bd80934	0.006592894
79	0x3c3350c7	0.010944552
80	0xbc2e740b	-0.010647784
81	0x3d2f3449	0.042774472
82	0xbd6120e4	-0.054963008
83	0xbb83c85b	-0.004021687
84	0x3bb9a354	0.005665222
85	0xbd183c00	-0.037166595
86	0x3d293b1d	0.04131614
87	0x3c7142af	0.014725371
88	0xbc1cd6d4	-0.009572703
89	0x3da51b20	0.08061814
90	0x3d11509e	0.035477273
91	0xbb187363	-0.0023262135
92	0x3d3b373b	0.04570697
93	0x3cb6c5c7	0.022311104
94	0x3dedb3da	0.116065696
95	0xbd2592cd	-0.040423203
96	0x3d305498	0.043049425
97	0x3aff509a	0.0019478977
98	0xbd36d600	-0.04463768
99	0x3b806c8f	0.003919191
100	0x3d4779b7	0.04870006
101	0x3d07965f	0.03310239
102	0x3db6c1c0	0.08923674
103	0x3d095af4	0.033534005
104	0x3d733d35	0.059384543
105	0xbd1841db	-0.03717218
106	0xbbc85efb	-0.006114838
107	0xbcc578df	-0.024105487
108	0xbd6295e3	-0.055318724
109	0xba930a27	-0.0011218236
110	0x3c8bd1bc	0.017067783
111	0xbcbb6895	-0.022877017
112	0x3d8cb153	0.068697594
113	0xbb8c15d2	-0.004275062
114	0xbc0520cd	-0.008125496
115	0xba9e04d7	-0.0012055886
116	0xbd681b05	-0.056666393
117	0xbd2b3647	-0.04179981
118	0x3c48969e	0.012242941
119	0xbd1fb5f9	-0.038991902
120	0x3c969a23	0.018384045
121	0xbbc34395	-0.005958984
122	0xbcd80307	-0.026368631
123	0x3d4f818f	0.050660666
124	0x3d3d93b0	0.046283424
125	0x3a9be6e7	0.0011894376
126	0x3d2331cb	0.03984241
127	0x3d36772d	0.04454725
128	0xbc853707	-0.01626159
129	0x3d16f151	0.03685123
130	0xbd188e8d	-0.037245322
131	0xbd8c13c9	-0.06839711
132	0xbc58126b	-0.013187985
133	0xbd1615a8	-0.036641747
134	0xbc98d4d0	-0.018656164
135	0xbba2f806	-0.0049734144
136	0xbacbd6ac	-0.0015551648
137	0xbda71478	-0.08158201
138	0xbcd7c805	-0.026340494
139	0xbd17b30e	-0.037035994
140	0xbc819b5d	-0.015821153
141	0xbd250d30	-0.04029578
142	0x3d20dfd7	0.03927597
143	0x3d0226dd	0.031775344
144	0x3d5a3d1d	0.05328094
145	0x3d9b5656	0.07584827
146	0x3c6a17f0	0.014287934
147	0xbd7dc871	-0.061958734
148	0xbc807db4	-0.01568494
149	0x3cb3f7cf	0.02196875
150	0x3d2d16f4	0.042258218
151	0x3cbb3cac	0.022856079
152	0xbd82fc97	-0.06395834
153	0xbbd175c6	-0.0063922135
154	0x3c7ba048	0.015358038
155	0x3d8be50f	0.06830799
156	0xbd4c7ba9	-0.04992262
157	0xbc3a18ab	-0.01135842
158	0xbcb9ffc1	-0.02270496
159	0xbc922d2a	-0.017843802
160	0x3d2152fa	0.039385773
161	0x3cd114fc	0.025522701
162	0x3c33fa95	0.010985036
163	0x3bf20461	0.007385776
164	0x3d7fefab	0.062484425
165	0xbc967f2a	-0.018371183
166	0x3d8e26fd	0.0694103
167	0x3d2e001f	0.042480584
168	0x3b8f8094	0.0043793414
169	0x3d54d045	0.051956434
170	0xbc95f659	-0.018305944
171	0x3d471f04	0.048613563
172	0x3c5f124b	0.013615201
173	0xbd536670	-0.051611364
174	0xbd551342	-0.05202032
175	0x3cc97fa2	0.024596993
176	0x3cb38896	0.021915715
177	0x3c054bb3	0.008135724
178	0xbd368fca	-0.04457072
179	0xbd026ee0	-0.03184402
180	0xbd08b17a	-0.03337238
181	0xbda58383	-0.080817245
182	0x3d061ecb	0.03274421
183	0xbca437cb	-0.020046135
184	0x3d4e6196	0.050386034
185	0xbc2a8714	-0.010408182
186	0xbcca563e	-0.024699327
187	0xbcbd3357	-0.02309577
188	0xbd3bd41c	-0.04585658
189	0xbd5886ed	-0.05286305
190	0xbd0996e0	-0.03359115
191	0xbcf3460f	-0.029696492
192	0x3d057d36	0.032590114
193	0xbc487db6	-0.012237003
194	0xbd431b99	-0.04763374
195	0xbcd5227a	-0.026017416
196	0x3cbf831e	0.023377951
197	0xbb380f99	-0.0028085469
198	0x3a7ea88b	0.0009714446
199	0x3d94d365	0.07266883
200	0xbd910ec3	-0.07082894
201	0x3d750967	0.05982342
202	0x3d668812	0.05628211
203	0x3d6cf77e	0.057853214
204	0x3d002ed0	0.031294644
205	0xbd47a95a	-0.04874549
206	0xbd0cfa80	-0.034418583
207	0xbd59b2d5	-0.053149063
208	0xbca4e5a7	-0.020129038
209	0xbc8deb8b	-0.01732423
210	0xbd3132e1	-0.043261413
211	0xbc888d99	-0.016669082
212	0xbc6a074d	-0.014283967
213	0xbd621aef	-0.055201467
214	0x3c478be1	0.012179346
215	0xbd43df1e	-0.047820203
216	0xbd731f20	-0.059355855
217	0xbb2bbcd3	-0.0026205077
218	0x3cfa5570	0.030558318
219	0xbdb58267	-0.08862763
220	0x3c070551	0.008241014
221	0x3d0405bb	0.032232028
222	0xbd786bbb	-0.060649615
223	0x3d55af8b	0.052169364
224	0x3d9da9d4	0.07698408
225	0xbd2ee7f3	-0.042701673
226	0xbbe967cb	-0.007122969
227	0x3d9d5b0c	0.076833814
228	0xbd4af470	-0.04954952
229	0x3c701217	0.01465275
230	0x3c9808af	0.018558828
231	0x3cba771c	0.022761874
232	0xbc110554	-0.008851368
233	0x3d953b5c	0.072867125
234	0x3db500c6	0.08838038
235	0x3c8627be	0.016376372
236	0xbd9384e1	-0.07203079
237	0xbc11d739	-0.008901411
238	0xbb4f2cd6	-0.0031612418
239	0x3bc313ad	0.0059532733
240	0xbd6ad758	-0.057334274
241	0x3d8f4d59	0.06997175
242	0x3c94485b	0.018100908
243	0xbc75fff1	-0.0150146345
244	0x3bcc64af	0.0062375884
245	0x3d0c6f18	0.034285635
246	0x3cd330e0	0.025780141
247	0x3cc9128b	0.024544975
248	0x3d406dd8	0.046979755
249	0x3d182d9b	0.037152868
250	0xbd2f3fef	-0.04278558
251	0x3b0892b6	0.00208394
252	0x3d02d1c8	0.031938344
253	0xbdb165e4	-0.08662012
254	0xbab5820f	-0.0013847965
255	0xbda43d6f	-0.0801953

decoders.0.decoder_net.4.bias f4 [32]
0	0x3c89ac8c	0.01680591
1	0x3dcb8466	0.099373624
2	0x3ce116b7	0.027476652
3	0xbde641e1	-0.11243034
4	0x3dc78905	0.09742931
5	0x3d815ec1	0.06316901
6	0xbe432760	-0.19057989
7	0xbcfdff94	-0.031005658
8	0xbddd5401	-0.10807038
9	0x3c338f8e	0.010959519
10	0x3bb72fd1	0.005590417
11	0xbbed28ea	-0.0072375434
12	0x3dc711fa	0.09720226
13	0xbd9660c5	-0.07342676
14	0xbdc240a8	-0.094849885
15	0xbd6feb3f	-0.058573958
16	0x3e0f9138	0.1402024
17	0xbd25bf53	-0.040465664
18	0xbb4c7a33	-0.0031200766
19	0x3da1306d	0.078705646
20	0xbd6dcafc	-0.05805491
21	0x3bf949eb	0.0076076887
22	0x3dfd4cff	0.123682015
23	0xbdc976e1	-0.098371275
24	0xbd7c124d	-0.06154089
25	0x3e0dff41	0.13866903
26	0x3ca78b78	0.020452246
27	0xbc03baae	-0.008040113
28	0x3e8061e4	0.25074685
29	0xbd55a12f	-0.05215567
30	0x3dc27725	0.09495381
31	0x3e093a85	0.1340123

decoders.0.decoder_net.6.weight f4 [32]
0	0x3f6778e9	0.9041887
1	0x3f61bf78	0.88182783
2	0x3f63f7ff	0.89050287
3	0x3f707a3d	0.9393652
4	0x3f68524e	0.90750587
5	0x3f624611	0.8838816
6	0x3f6d09a6	0.9259285
7	0x3f63b864	0.8895323
8	0x3f63a57e	0.88924396
9	0x3f624583	0.88387316
10	0x3f70f3b6	0.94121873
11	0x3f607b2d	0.8768795
12	0x3f715b1a	0.94279635
13	0x3f5dd962	0.86659825
14	0x3f62d032	0.8859893
15	0x3f7be1a5	0.9839118
16	0x3f6e1427	0.929995
17	0x3f6be376	0.9214395
18	0x3f6a4058	0.9150443
19	0x3f6097ad	0.8773144
20	0x3f63bfd5	0.8896459
21	0x3f6ffc7b	0.9374463
22	0x3f6223b4	0.8833573
23	0x3f6b72fe	0.9197234
24	0x3f603aed	0.87589914
25	0x3f6d1fb8	0.92626524
26	0x3f75c784	0.9600756
27	0x3f67eb2a	0.90593207
28	0x3f6a41ef	0.91506857
29	0x3f74ed49	0.9567457
30	0x3f8033aa	1.0015767
31	0x3f6f9e0e	0.9360055

decoders.0.decoder_net.6.bias f4 [32]
0	0xbca43e49	-0.020049231
1	0x3dc194f4	0.09452239
2	0x3d3f13f4	0.04664989
3	0x3e04fba8	0.12986624
4	0xbd193966	-0.037408255
5	0xbe017427	-0.12641965
6	0xbba44b72	-0.0050138766
7	0x3c890c38	0.01672946
8	0x3d30f237	0.043199744
9	0xbd11609e	-0.035492532
10	0x3d2a5790	0.041587412
11	0xbe33a65c	-0.1754393
12	0xbda0db63	-0.07854345
13	0x3d26b6e1	0.04070175
14	0xbd4abe1e	-0.049497716
15	0x3d00e542	0.031468637
16	0x3cf18089	0.029480236
17	0x3d293a29	0.04131523
18	0xbdcbadee	-0.09945284
19	0xbdbe9c8d	-0.093072034
20	0x3d35ac3e	0.044353716
21	0x3d5b637d	0.053561676
22	0x3e2a0136	0.16602024
23	0xbd9ebbee	-0.077506885
24	0xbcca2f92	-0.024680886
25	0x3ccb769d	0.024836833
26	0x3e5bb0fc	0.21454233
27	0x3d86bbe0	0.06578803
28	0xbd886ea9	-0.06661732
29	0x3deb05f6	0.11475746
30	0x3de55eb3	0.11199703
31	0x3dd83f4d	0.10558949

decoders.0.decoder_net.6.running_mean f4 [32]
0	0x3cf96840	0.030445218
1	0x3d04e8c6	0.032448553
2	0x3cf7c4bf	0.030245183
3	0x3ce9a50f	0.028521089
4	0x3d0de8aa	0.034645714
5	0x3d0826a7	0.033239987
6	0x3cca80c2	0.0247196
7	0x3cf41275	0.029793957
8	0x3cdc2601	0.02687359
9	0x3cfde567	0.030993177
10	0x3d004b66	0.031321906
11	0x3cfaec00	0.030630112
12	0x3d0f4939	0.03498194
13	0x3ce20565	0.027590463
14	0x3ce1296f	0.027485577
15	0x3cf5cbf9	0.030004488
16	0x3d0cd7cb	0.034385484
17	0x3cf2c23b	0.029633632
18	0x3cf189ab	0.02948459
19	0x3d0956a8	0.033529907
20	0x3cec7b04	0.028867252
21	0x3cf57926	0.029964995
22	0x3d0ca654	0.03433831
23	0x3ce4d2f6	0.027932625
24	0x3cee20bc	0.029068343
25	0x3d15926b	0.03651659
26	0x3d013309	0.03154281
27	0x3cf5286e	0.029926505
28	0x3d25fdb0	0.04052514
29	0x3cf3f1f9	0.029778467
30	0x3d0f3e7a	0.03497169
31	0x3d11c9dd	0.035592902

decoders.0.decoder_net.6.running_var f4 [32]
0	0x3956c3ab	0.00020481522
1	0x398777b0	0.0002583838
2	0x393a7e12	0.00017785307
3	0x39c0336d	0.0003665941
4	0x399871bd	0.0002907644
5	0x398882d0	0.00026037404
6	0x38f10e7f	0.000114944756
7	0x39251b10	0.00015745708
8	0x394deead	0.00019639237
9	0x39406ee9	0.00018351864
10	0x3999e398	0.00029352005
11	0x39722e84	0.00023096247
12	0x39b5c000	0.0003466606
13	0x3905e926	0.00012770723
14	0x3900f65f	0.00012298812
15	0x3968452f	0.00022151017
16	0x39b5cb21	0.00034674353
17	0x3933256a	0.00017084708
18	0x393bbf94	0.00017905078
19	0x39208161	0.00015306986
20	0x3942cb8d	0.0001857711
21	0x395590a8	0.00020367152
22	0x3971cc81	0.00023059735
23	0x393841a4	0.0001757206
24	0x39613fdb	0.0002148146
25	0x39c14384	0.00036862132
26	0x3a0edd8b	0.00054498826
27	0x3929682d	0.00016155904
28	0x39d7fca2	0.00041196222
29	0x39a775e2	0.00031940552
30	0x3a14a7e6	0.0005670771
31	0x399e4f9c	0.00030195422

decoders.0.decoder_net.7.weight f4 [32, 16, 3, 3]
0	0xbcd5925c	-0.026070766
1	0xbd8328a4	-0.06404236
2	0xbd2b4fe9	-0.041824255
3	0xbc6b76a9	-0.0143715525
4	0x3d46c1c5	0.048524637
5	0x3c9d67af	0.01921448
6	0xbcd995d9	-0.02656071
7	0x3ccd475e	0.025058445
8	0xbbd47382	-0.006483496
9	0xbd07451f	-0.033024903
10	0x3d11fa6b	0.035639208
11	0xbd11b3b8	-0.035571784
12	0xbd3a4eaa	-0.045485176
13	0xbd762836	-0.060096942
14	0x3d2fb708	0.04289916
15	0xbd3a7982	-0.045526035
16	0xbd06d9a3	-0.0329224
17	0xbdfa8a20	-0.122333765
18	0x3d358872	0.044319578
19	0xbd5eafd0	-0.054366887
20	0xbaa4cb56	-0.0012572806
21	0xbd5caba5	-0.05387463
22	0xbcd6d58e	-0.026224878
23	0x3d1a9aa6	0.03774514
24	0xbd9aa4d8	-0.07550973
25	0x3ce35c55	0.027753988
26	0x3cae2fb0	0.021262974
27	0xbc1ed3b5	-0.00969403
28	0x39bee2be	0.0003640856
29	0x3d47d3e1	0.048786048
30	0xbd1aed57	-0.037824
31	0xbba05895	-0.0048933723
32	0x3d48276b	0.048865717
33	0x3cbbdefa	0.022933472
34	0xbcaf657b	-0.021410694
35	0xbd701c4c	-0.058620736
36	0xbbe41d78	-0.0069615208
37	0xbb8fc918	-0.004387986
38	0x3d70be3a	0.058775164
39	0xbdaa9510	-0.08329213
40	0x3dcfb3ee	0.10141741
41	0x3d26fdf0	0.040769517
42	0xbcac2ff1	-0.021018954
43	0xbc8f71b4	-0.017510273
44	0x3c64705d	0.013942805
45	0x3c8a985c	0.016918354
46	0xbbefb054	-0.007314721
47	0x3d10a7f0	0.035316408
48	0x3d24ef53	0.0402673
49	0x3da825e7	0.08210354
50	0xbd624ccb	-0.055249017
51	0x3dc6d4ac	0.09708533
52	0x3c9dd310	0.019265682
53	0x3d8fdf31	0.07024992
54	0xbc95f6c6	-0.018306147
55	0xbceccad2	-0.028905306
56	0xbd89730b	-0.06711396
57	0x3c757c90	0.014983311
58	0x3b3ce43f	0.0028822569
59	0x3d980fcd	0.07424889
60	0x3c8917b0	0.016734928
61	0x3cae7703	0.021296984
62	0x3d0102e6	0.031496905
63	0xbc7db748	-0.015485592
64	0xba2f4dea	-0.00066873303
65	0x3cfe9fcf	0.031082062
66	0x3ced3579	0.028956162
67	0xbcd76124	-0.026291437
68	0x3d8fcf12	0.070219174
69	0x3d7e0a97	0.062021818
70	0x3d0c4eaf	0.034254726
71	0xbc378043	-0.011200014
72	0x3dbd6c34	0.09249154
73	0xbc9a072e	-0.018802252
74	0x3bf68128	0.007522721
75	0xbcc703b8	-0.024293765
76	0x3c4a2283	0.01233733
77	0xbdcc1fa6	-0.09966974
78	0x3c147fe6	0.0090636965
79	0xbdffe561	-0.124949224
80	0xbda24231	-0.07922781
81	0x3d4e7e88	0.05041364
82	0x3d01d065	0.03169288
83	0x3bc88fbb	0.0061206496
84	0xbd9aa1da	-0.07550402
85	0x3d13a17a	0.036042668
86	0x3ca1b602	0.019740108
87	0xbd086b83	-0.033305656
88	0x3d57bdab	0.052671116
89	0x3ad07715	0.001590463
90	0xbbc4b3c4	-0.006002875
91	0xbce8c3ef	-0.02841374
92	0x3d4b5660	0.04964292
93	0xbd4b4411	-0.04962546
94	0x3d824602	0.06361009
95	0x3cd144d4	0.025545515
96	0x3ca3c9e0	0.019993722
97	0x3daf7d50	0.08568823
98	0x3e06cc12	0.13163784
99	0x3ce0fceb	0.02746435
100	0xbcdd4486	-0.027010214
101	0x3d3e6e75	0.04649206
102	0x3c676547	0.0141232675
103	0x3d3775a6	0.044789933
104	0xbd80f4ef	-0.062967174
105	0x3cc31398	0.023813054
106	0xbd2d5cae	-0.042324714
107	0x3dbcd250	0.092198014
108	0x3dada943	0.0847955
109	0xbc42e2d9	-0.011894905
110	0xbd757edc	-0.059935436
111	0x3d697bbf	0.05700278
112	0xbd914644	-0.0709348
113	0x3d5c9255	0.05385049
114	0x3cfc5b21	0.030805172
115	0xbc971978	-0.018444762
116	0xbcb6ed78	-0.02233003
117	0x3d57a5d3	0.052648377
118	0xbc8a5f71	-0.016891213
119	0x3d1aea56	0.037821136
120	0xbbef54ee	-0.0073038256
121	0x3d8524b0	0.06501138
122	0xbcb6e93c	-0.022328012
123	0x3c01ee74	0.007930387
124	0x3be45a95	0.006968806
125	0x3b67806e	0.0035324353
126	0xbd8ba8aa	-0.068192795
127	0x3cfe8261	0.031068029
128	0x3d8c246a	0.06842883
129	0xbdd4be2e	-0.103878364
130	0x3d27a4ef	0.040928777
131	0xbdb2cfca	-0.08731039
132	0x3d320229	0.04345909
133	0x3d39e355	0.045382816
134	0xbcc7cc14	-0.024389304
135	0x3c6d4a07	0.0144829815
136	0xbcbec80d	-0.023288751
137	0x3d85709f	0.065156214
138	0x3cc42897	0.023945136
139	0x3d999cb6	0.07500593
140	0xbd1525d4	-0.03641303
141	0xbccc0610	-0.024905235
142	0x3cb311dd	0.021859104
143	0xbd3ff81f	-0.046867486
144	0x3d01df16	0.031706892
145	0xbc8fab18	-0.017537639
146	0xbd86713f	-0.06564569
147	0x3dae2d93	0.08504786
148	0x3d9c0df8	0.07619852
149	0x3cbacb0c	0.022801898
150	0xbc8eda5c	-0.017438106
151	0x3d7c78bb	0.061638575
152	0x3c034dcf	0.0080141565
153	0x399a0de9	0.00029383533
154	0x3d55971b	0.05214606
155	0xbd30f2f5	-0.043200452
156	0xbca8fd97	-0.020628734
157	0xbd500c10	-0.050792754
158	0xbd7b9c01	-0.061428074
159	0x3ce52bad	0.027974928
160	0xbd791dc6	-0.06081941
161	0xbd95b477	-0.073098116
162	0x3d209438	0.039203852
163	0xbd1a54c3	-0.03767849
164	0xbb3b4cec	-0.0028579785
165	0x3c66b61b	0.014081503
166	0xba5a32d9	-0.0008323617
167	0x3d848898	0.06471366
168	0x3ce37474	0.02776549
169	0xbd1f4170	-0.038880765
170	0xbc10fd46	-0.008849448
171	0xbc074290	-0.008255616
172	0x3d58a947	0.05289581
173	0x3bb06bf3	0.0053839623
174	0xbd53bb9c	-0.05169259
175	0xbd617a7e	-0.05504846
176	0x3cc9b5c5	0.024622807
177	0x3c3adf7e	0.011405824
178	0x3d4dab8e	0.050212435
179	0xbc206b77	-0.009791247
180	0xbd8a0e8d	-0.067410566
181	0xbc4acfa2	-0.012378605
182	0x3cd6acbc	0.026205413
183	0xbdb6b188	-0.0892058
184	0x3d4741a5	0.048646588
185	0x3d31cdf8	0.043409318
186	0x3d3f71e4	0.046739474
187	0xbc96d030	-0.018409818
188	0xbd7cbe54	-0.06170495
189	0xbd4e365c	-0.05034481
190	0x3dbb1057	0.09133976
191	0x3c1a8e21	0.0094333
192	0x3d9d6949	0.07686097
193	0xbd7a957b	-0.061177712
194	0xbd220f0d	-0.039565135
195	0xbc51d9fc	-0.012808319
196	0x3d6b2069	0.057403956
197	0xbd907c78	-0.070549905
198	0xbd25f61f	-0.040517922
199	0xbd05f4f9	-0.032704327
200	0xbd92a5c6	-0.07160525
201	0xbd20e78e	-0.039283328
202	0x3cb011cb	0.02149286
203	0x3da3342e	0.07968937
204	0x3d2c16ef	0.04201406
205	0xbbd0be7b	-0.0063703633
206	0x3b0d828b	0.0021592702
207	0x3d43ea84	0.047831073
208	0x3db9bb2d	0.09068904
209	0x3d5b8dd1	0.053602044
210	0x3d6bef81	0.057601456
211	0x3bc0c94d	0.005883372
212	0x3d0e9b0f	0.034815844
213	0xbd0a28ac	-0.033730194
214	0xbba8d681	-0.005152524
215	0xbd4386f7	-0.047736134
216	0xbd8ada39	-0.06779904
217	0x3db0bd2b	0.08629831
218	0x3bf08d92	0.0073410952
219	0xbcc61a79	-0.024182545
220	0x3c9856e4	0.01859612
221	0x3ca4fbe1	0.020139636
222	0xbc62e31c	-0.013848092
223	0x3dc26679	0.09492201
224	0xbb7e2a0a	-0.0038782381
225	0x3d3a34a5	0.045460362
226	0x3d3f2291	0.046663824
227	0x3d351898	0.044212908
228	0x3d2dd243	0.04243685
229	0xbd48be4d	-0.04900961
230	0x3dc96195	0.098330654
231	0xbc47903a	-0.012180382
232	0xbc7788a2	-0.015108259
233	0xbcaa3465	-0.020776937
234	0xbcc08493	-0.023500716
235	0xbd919e23	-0.0711024
236	0x3cf131bd	0.029442662
237	0xbd8c9a51	-0.06865371
238	0x3cbafa9d	0.02282458
239	0xbcdeb650	-0.027186543
240	0x3c8b2750	0.01698652
241	0xbe01f7a9	-0.12692131
242	0x3c8639b6	0.01638494
243	0x3c27cf0e	0.010242237
244	0x3d10bcd3	0.035336327
245	0x3d964634	0.07337609
246	0xbc87f8bc	-0.016598098
247	0x3d1b4181	0.037904266
248	0xbd0ae360	-0.033908248
249	0xbcb36fb3	-0.021903848
250	0x3c5ca486	0.01346696
251	0x3c76d272	0.0150648225
252	0xbcb4fd58	-0.02209346
253	0x3b919ddd	0.0044438676
254	0xbd8907c9	-0.06690938
255	0x3cd29250	0.025704533

decoders.0.decoder_net.7.bias f4 [16]
0	0x3df1da83	0.11809256
1	0xbe76e45b	-0.24110548
2	0x3da1bd7c	0.078974694
3	0x3b342c02	0.002749205
4	0x3d212223	0.039339196
5	0xbdde6c99	-0.10860557
6	0xbe2e32b2	-0.17011526
7	0x3b13d757	0.0022558772
8	0x3e92b6a6	0.28654975
9	0xbdc6888b	-0.09694012
10	0x3dc762d6	0.09735648
11	0xbd80d018	-0.06289691
12	0x3c00c7ff	0.007860183
13	0xbccf3b76	-0.025296908
14	0x3e10ba73	0.14133625
15	0xbda097e0	-0.07841468

decoders.0.decoder_net.9.weight f4 [16]
0	0x3f6c403e	0.92285526
1	0x3f6e03ad	0.9297436
2	0x3f67d37f	0.9055709
3	0x3f68fc60	0.91010094
4	0x3f6338d0	0.88758564
5	0x3f6e47ff	0.9307861
6	0x3f6cf6c7	0.9256405
7	0x3f66fa6e	0.90225875
8	0x3f6985da	0.91219866
9	0x3f68dd8d	0.9096306
10	0x3f6ade74	0.91745687
11	0x3f675272	0.90360177
12	0x3f6cac5c	0.924505
13	0x3f6a7de7	0.9159836
14	0x3f6aff0c	0.9179542
15	0x3f66c990	0.9015131

decoders.0.decoder_net.9.bias f4 [16]
0	0x3cf5856b	0.029970845
1	0xbd08a087	-0.033356216
2	0x3b2157c2	0.0024618958
3	0x3d3b23a1	0.045688275
4	0xbc83ed1e	-0.016104277
5	0xbd364e63	-0.04450835
6	0xb89456a2	-7.0733266e-05
7	0xba988ab3	-0.0011638015
8	0xbaa3e7eb	-0.001250503
9	0xbbf511df	-0.007478937
10	0xbdb53c0c	-0.08849344
11	0x3d1a5d40	0.037686586
12	0xbd47ad50	-0.048749268
13	0x3d5999ac	0.05312507
14	0xbb7124e8	-0.003679568
15	0x3cd453ac	0.025918804

decoders.0.decoder_net.9.running_mean f4 [16]
0	0x3d8a6341	0.067572124
1	0x3d47cfb3	0.04878206
2	0x3d882328	0.066473305
3	0x3d72e00b	0.059295695
4	0x3d839571	0.06424988
5	0x3d6c83f0	0.057743013
6	0x3d4df258	0.050279945
7	0x3d7c5951	0.061608616
8	0x3dad2fa3	0.084563516
9	0x3d65b5c9	0.056081567
10	0x3d95bb21	0.07311083
11	0x3d69cb17	0.057078447
12	0x3d864330	0.06555784
13	0x3d6a5b40	0.05721593
14	0x3d993310	0.074804425
15	0x3d63aa89	0.055582557

decoders.0.decoder_net.9.running_var f4 [16]
0	0x3a4296bf	0.00074229756
1	0x3a184902	0.0005809219
2	0x3a5a10d8	0.000831855
3	0x3a0e7f34	0.0005435825
4	0x3a4cba3f	0.0007809735
5	0x3a574956	0.0008212527
6	0x3a29f0ed	0.0006482739
7	0x3a19d635	0.0005868406
8	0x3ab9b5a0	0.0014168508
9	0x3a172cce	0.0005766869
10	0x3ac95075	0.0015359061
11	0x3a03bcad	0.00050253683
12	0x3a9a14f1	0.0011755509
13	0x3a0ae97a	0.0005299073
14	0x3aadddcd	0.0013264954
15	0x39f97865	0.00047582682

decoders.0.decoder_net.10.weight f4 [16, 1, 3, 3]
0	0x3e02b422	0.12764028
1	0xbe858b3b	-0.26082787
2	0xbe762cca	-0.24040523
3	0xbdde7489	-0.10862071
4	0xbe6e395d	-0.2326407
5	0x3ce485f1	0.0278959
6	0xbbc0aea7	-0.005880195
7	0xbe2fecd8	-0.17180192
8	0x3e02a37e	0.1275768
9	0x3d94269b	0.07233926
10	0x3d0d50ba	0.034500815
11	0xbd209298	-0.039202303
12	0x3e24b621	0.16085102
13	0x3e69e12f	0.22839807
14	0x3dc03ba5	0.09386376
15	0x3e162425	0.14662226
16	0xbd231903	-0.039818775
17	0x3bcd5f02	0.0062674293
18	0x3e3c55be	0.18392083
19	0x3b0395f5	0.0020078395
20	0xbc657458	-0.014004789
21	0x3d843299	0.06454963
22	0xbe034f89	-0.12823309
23	0xbda22768	-0.079176724
24	0x3e60b8fa	0.21945563
25	0x3d5f2aa1	0.054484013
26	0x3e3b1104	0.1826821
27	0xbd7526fc	-0.05985163
28	0x3d80b407	0.062843375
29	0xbcb5de0e	-0.02220061
30	0x3dbe7f80	0.093016624
31	0xbcf308e2	-0.029667322
32	0xbd1fd878	-0.0390248
33	0xbe2bbf6f	-0.16772245
34	0x3d8314a0	0.06400418
35	0xbdd3cf85	-0.103423156
36	0x3d06c9a6	0.03290715
37	0x3e390fbe	0.18072411
38	0x3db44cf7	0.088037424
39	0xbd20a087	-0.03921559
40	0x3d0b4634	0.034002498
41	0xbd26bc8a	-0.04070715
42	0x3e6c3ca2	0.23070005
43	0xbe387f81	-0.18017389
44	0x3e40aa81	0.18815042
45	0x3e2b39c3	0.16721253
46	0x3df0f090	0.11764634
47	0xbd0a2a70	-0.033731878
48	0x3de67027	0.1125186
49	0x3e066c92	0.13127354
50	0x3e3dc680	0.18532753
51	0x3e4ddeb9	0.20104493
52	0x3e5fe6d7	0.21865402
53	0x3dff3061	0.124603994
54	0xbe60e492	-0.21962193
55	0x3d97f906	0.07420544
56	0xbdace91a	-0.08442898
57	0xbe9b0529	-0.30277374
58	0xbe827022	-0.25476176
59	0xbe2824a4	-0.16420227
60	0xbe83bdd7	-0.25730774
61	0x3e541e05	0.20714577
62	0x3e81ba35	0.25337377
63	0xbe3db945	-0.18527706
64	0xbd6ccca3	-0.057812344
65	0x3db91a14	0.09038177
66	0xbe0ad47b	-0.13557617
67	0xbe474604	-0.19460303
68	0x3e507324	0.20356423
69	0xbdfa2a9c	-0.12215158
70	0xbe613f52	-0.21996811
71	0x3e29f4f1	0.16597344
72	0xbe0414e7	-0.12898599
73	0xbd6422cc	-0.055697247
74	0xbe6b5bbc	-0.22984213
75	0xbe0d67e5	-0.13809164
76	0xbe809709	-0.2511523
77	0xbd1a7015	-0.037704546
78	0xbd37e25c	-0.044893607
79	0x3cd53ccb	0.026029965
80	0x3e508a95	0.20365365
81	0xbd650cee	-0.055920534
82	0x3e34accc	0.17644042
83	0x3e259478	0.16169918
84	0xbdef7dc4	-0.1169391
85	0x3e5326c7	0.20620261
86	0xbd69cebe	-0.05708193
87	0x3cf68372	0.030091975
88	0x3d900e6d	0.070340015
89	0xbe150d37	-0.14555822
90	0xbe3416c5	-0.17586811
91	0xbd8b87d7	-0.06813019
92	0xbdc4c59e	-0.09608005
93	0xbe4b2f37	-0.1984223
94	0xbd537156	-0.051621757
95	0x3e2fa20b	0.17151658
96	0xbd283ff4	-0.041076615
97	0x3c97e042	0.018539552
98	0x3e031e9c	0.12804645
99	0x3d986dda	0.074428275
100	0xbc547346	-0.012966936
101	0xbe6a4c7b	-0.22880737
102	0xbd41f22f	-0.047350105
103	0x3e09f668	0.13472903
104	0xbdcbfcd4	-0.099603325
105	0x3e174caf	0.14775346
106	0xbd628f13	-0.055312227
107	0xbd3ee1d2	-0.046602078
108	0x3daa459c	0.08314058
109	0xbdb055b5	-0.08610097
110	0xbd929054	-0.07156435
111	0x3e3c19c8	0.1836921
112	0x3da86db4	0.08224049
113	0x3e6867bd	0.22695823
114	0x3e2adf5c	0.16686767
115	0x3d6848fb	0.056710225
116	0x3e41b3dc	0.18916267
117	0x3e6279e4	0.2211681
118	0xbdaff4ac	-0.08591589
119	0xbe2e437b	-0.1701793
120	0x3d9488b1	0.07252634
121	0xbe1d7309	-0.15375914
122	0x3e17db1d	0.14829679
123	0x3e864e72	0.26231724
124	0xbe5ad871	-0.21371628
125	0x3bd781f2	0.00657677
126	0xbd2297f4	-0.039695695
127	0xbe63c7b3	-0.22244148
128	0xbe892189	-0.26783398
129	0xbde5bec0	-0.11218023
130	0xbe551e11	-0.2081225
131	0x3c04e72c	0.008111756
132	0x3dcf6637	0.10126918
133	0x3dd5c12c	0.10437235
134	0x3e1ace0c	0.15117663
135	0xbe639dd7	-0.2222818
136	0x3e1b0fdd	0.1514277
137	0x3e0d6ec4	0.13811785
138	0xbca43124	-0.020042963
139	0xbd2b392d	-0.041802574
140	0x3c2a26e1	0.010385246
141	0x3d4dc6e0	0.05023849
142	0x3c4d79eb	0.012541275
143	0xbe157ad6	-0.1459764

encoder.encoder_net.0.weight f4 [16, 1, 3, 3]
0	0x3c00220e	0.007820619
1	0x3e1cfa80	0.15329933
2	0xbdf4608b	-0.119324766
3	0xbdd39de1	-0.103328474
4	0xbe138307	-0.14405452
5	0xbe8af2bb	-0.27138314
6	0xbe1dd207	-0.1541215
7	0xbebe0a79	-0.37117365
8	0xbe69a087	-0.22815143
9	0xbe965218	-0.29359508
10	0x3e8c9bac	0.27462518
11	0xbd20001d	-0.039062608
12	0x3ea0d01d	0.31408778
13	0xbe3e65a2	-0.18593457
14	0xbec0b0f7	-0.37635013
15	0x3e355e22	0.1771169
16	0x3e9d5f8c	0.3073696
17	0x3c917d58	0.017759964
18	0xbd10edb0	-0.035382926
19	0xbe2c9e49	-0.16857256
20	0xbdd9fa56	-0.10643451
21	0x3da93934	0.08262864
22	0x3eb5d897	0.35516807
23	0x3e6c9a31	0.23105694
24	0x3e7b7d34	0.2455948
25	0x3d849c15	0.06475083
26	0xbe3b12b6	-0.18268856
27	0x3e7ec7a9	0.24880852
28	0x3e5c79f8	0.21530902
29	0x3c15a8d8	0.009134494
30	0x3de18b51	0.110129006
31	0x3e520f84	0.20513731
32	0x3e94553d	0.28971282
33	0xbe103b3f	-0.140851
34	0x3ebf25ff	0.37333676
35	0xbe28ac83	-0.16472058
36	0xbe740699	-0.23830642
37	0x3d77978f	0.060447272
38	0xbe4e9661	-0.20174553
39	0xbe87ecad	-0.26547757
40	0x3e065256	0.13117346
41	0xbc218ee8	-0.009860732
42	0xbcd4bbe9	-0.025968509
43	0x3d5bd7b3	0.053672504
44	0xbe8dd3c3	-0.27700624
45	0xbdcc526a	-0.09976657
46	0x3e91c1ab	0.2846807
47	0x3d3fe3ec	0.046848223
48	0xbe4fd983	-0.20297818
49	0x3e806f51	0.25084928
50	0x3cdd1979	0.026989685
51	0x3df2a41f	0.1184771
52	0x3e7ad6eb	0.24496047
53	0xbda2a4fb	-0.07941624
54	0xbd9c8b07	-0.07643705
55	0x3e280ab0	0.16410327
56	0x3eb76c10	0.35824633
57	0xbd5845d8	-0.052800983
58	0x3e146b41	0.14494039
59	0x3e11797f	0.14206503
60	0x3dbd48c8	0.092423975
61	0x3e6af7cb	0.22946088
62	0xbe7077d7	-0.23483215
63	0xbd2f099e	-0.04273378
64	0xbe20d786	-0.15707216
65	0xbdeacf44	-0.11465314
66	0xbe8c3ffd	-0.2739257
67	0x3e09cef9	0.1345786
68	0xbe56f260	-0.20990896
69	0xbeb4c193	-0.35303935
70	0xbe7fe203	-0.2498856
71	0xbe4f950c	-0.202717
72	0x3e1fc258	0.1560148
73	0x3cd4916c	0.025948249
74	0xbe9dc9bf	-0.30817983
75	0xbb73db2d	-0.0037209496
76	0xbe31d643	-0.1736689
77	0xbe376b03	-0.17911915
78	0xbcdad26a	-0.026711661
79	0x3cca5750	0.024699837
80	0x3c842c1e	0.016134318
81	0x3e4bd318	0.19904745
82	0xbe629b5d	-0.22129579
83	0x3c60dc69	0.013724425
84	0x3e63c645	0.22243603
85	0xbe6076d3	-0.21920328
86	0x3e11d4d0	0.14241338
87	0x3db3f06d	0.08786092
88	0xbce8ecae	-0.02843317
89	0x3d1c69f8	0.038186997
90	0x3df0570d	0.117353536
91	0xbd73e624	-0.05954565
92	0xbdf068a3	-0.11738708
93	0xbdb5b8fb	-0.08873173
94	0x3de48ebb	0.11160036
95	0x3d588939	0.05286524
96	0xbe5c7e57	-0.2153257
97	0xbd5d5214	-0.054033354
98	0x3e8880ab	0.26660666
99	0xbe9db158	-0.30799365
100	0xbe615090	-0.22003388
101	0x3dad9dd3	0.08477368
102	0xbe597c54	-0.21238834
103	0xbdaaca2a	-0.08339341
104	0xbe981155	-0.29700723
105	0x3d51f561	0.051259402
106	0x3e8dd897	0.27704307
107	0x3e0e3cef	0.13890432
108	0xbdc6988e	-0.09697066
109	0x3e95607c	0.29175174
110	0xbe63d5ed	-0.22249575
111	0x3dce2d88	0.10067278
112	0x3e07833c	0.13233656
113	0xbead74b4	-0.338781
114	0x3d88e9ee	0.066852435
115	0xbe16756b	-0.14693229
116	0xbe235a7b	-0.15952484
117	0xbe09cec7	-0.13457786
118	0x3e079f30	0.13244319
119	0xbded4073	-0.11584558
120	0x3de2b590	0.110697865
121	0xbe955f44	-0.29174244
122	0xbdc05dc5	-0.09392885
123	0xbe988179	-0.2978628
124	0xbe561f8b	-0.2091047
125	0x3e86dbb4	0.26339495
126	0x3ea2e490	0.31815004
127	0x3dc1bdfc	0.09460065
128	0x3e3afb83	0.18260007
129	0x3e3953dd	0.18098398
130	0x3e97dac8	0.29659104
131	0x3e6315f4	0.22176343
132	0xbe8b7543	-0.272379
133	0xbe90dbd6	-0.28292722
134	0xbdaf7c7e	-0.08568667
135	0xbe3bfb64	-0.18357617
136	0x3e8310f3	0.2559887
137	0xbe8fac5d	-0.2806119
138	0xbe888940	-0.26667213
139	0xbde45485	-0.11148933
140	0x3d4f0bf0	0.050548494
141	0xbe45c0d7	-0.19311844
142	0x3d6f6b28	0.0584518
143	0x3e4cc321	0.19996311

encoder.encoder_net.0.bias f4 [16]
0	0xbe25559d	-0.1614594
1	0x3c601ddd	0.013678995
2	0x3e8e0fad	0.27746335
3	0xbe7747ff	-0.24148558
4	0x3d5c0973	0.05371995
5	0xbd5adb43	-0.05343176
6	0xbe71891a	-0.23587456
7	0x3e2e4259	0.17017497
8	0xbe3a6b21	-0.18204929
9	0x3d84e13f	0.06488275
10	0x3e5080af	0.20361589
11	0x3e0f0ee6	0.13970527
12	0x3e630d80	0.22173119
13	0x3e5ed923	0.21762519
14	0xbcd2b3bd	-0.025720472
15	0x3dd9c000	0.10632324

encoder.encoder_net.2.weight f4 [16]
0	0x3f878225	1.0586592
1	0x3f79513c	0.9738958
2	0x3f832bf5	1.024779
3	0x3f8486b5	1.0353609
4	0x3f86f152	1.0542395
5	0x3f8ca1d2	1.0986884
6	0x3f86e38c	1.0538192
7	0x3f86319f	1.0483893
8	0x3f83fadb	1.031093
9	0x3f7cbc96	0.9872526
10	0x3f81643c	1.0108714
11	0x3f865d69	1.0497257
12	0x3f82bbef	1.0213603
13	0x3f840d1c	1.0316501
14	0x3f8707af	1.054922
15	0x3f81e59e	1.0148199

encoder.encoder_net.2.bias f4 [16]
0	0x3dd2df5d	0.102965094
1	0x3c926674	0.01787112
2	0xbcad1f12	-0.02113298
3	0xbda8e05c	-0.08245918
4	0x3cdd1478	0.0269873
5	0xbc3cd0e4	-0.011524413
6	0xbd216ea0	-0.03941214
7	0x3db89a12	0.090137616
8	0xbc86093b	-0.016361823
9	0xbc713613	-0.014722365
10	0x3c17c942	0.009264292
11	0x3d22b805	0.039726276
12	0xbd566c37	-0.052349295
13	0x3dc38dd5	0.09548537
14	0xbc41af43	-0.011821571
15	0x3d8dcc60	0.06923747

encoder.encoder_net.2.running_mean f4 [16]
0	0x3d34cdce	0.044141583
1	0x3d80086e	0.06251608
2	0x3daeddc7	0.085383944
3	0x3d6e1f7c	0.058135495
4	0x3d68fc48	0.05688122
5	0x3d7f14b8	0.06227562
6	0x3d5c8ca4	0.053845063
7	0x3d75edf8	0.060041398
8	0x3d3f9fa4	0.046783105
9	0x3d869932	0.065721884
10	0x3d95ca86	0.07314019
11	0x3d835599	0.06412811
12	0x3d910ee3	0.070829175
13	0x3d8c03b4	0.06836644
14	0x3d85cfd0	0.06533778
15	0x3d7fe35e	0.062472694

encoder.encoder_net.2.running_var f4 [16]
0	0x38fb6fba	0.000119894234
1	0x388e9862	6.799471e-05
2	0x396ac396	0.0002238884
3	0x39ff013b	0.00048638307
4	0x38bf5f91	9.12539e-05
5	0x390eb229	0.00013608545
6	0x3948a237	0.00019133916
7	0x398a7b25	0.0002641316
8	0x383bec22	4.480419e-05
9	0x3814351d	3.5335415e-05
10	0x3825d2a9	3.9535258e-05
11	0x3906e1d1	0.00012863359
12	0x38c04902	9.168872e-05
13	0x390ceb72	0.0001343915
14	0x399bb04e	0.0002969526
15	0x38b52fae	8.6396336e-05
