Project2/models/model_1_3.pt (torch, 143155 bytes, 37 tensors)

prior.mean f4 [2]
0.0 0.0
00000000: 0000 0000 0000 0000

prior.std f4 [2]
1.0 1.0
00000000: 0000 803f 0000 803f

decoders.0.decoder_net.0.weight f4 [512, 2]
0.4644898 -0.33552435 -0.3571011 -0.32795835 -0.16006851 0.16475238 0.20820872 -0.53642195
-0.42035985 -0.2311166 0.5240266 -0.10667323 -0.0077684373 0.11459156 0.27965245 0.53018886
0.5843726 0.061297435 -0.4340962 0.0011565615 -0.03418739 -0.4644744 0.10926741 -0.3937092
-0.36652786 -0.60525435 -0.6802104 0.12545602 -0.28975028 -0.6018188 -0.44525573 0.2829758
0.13352823 -0.6271759 -0.40878826 0.50938904 0.44837 0.27206576 0.706712 -0.409068
-0.55322474 0.2554657 -0.017969446 0.5254642 0.47053975 0.6956878 -0.16477403 -0.20921695
0.55490816 0.22728634 0.56336725 -0.058831356 -1.0953666 -0.64103997 -0.3935169 0.6443814
-0.19198188 -0.10947908 0.12678745 0.08217114 -0.33031556 -0.4538503 0.091367505 0.45931023
0.7271564 -0.022437537 -0.2736218 -0.114099495 -0.9860045 -0.28410003 -0.602723 0.2703593
0.5023355 0.25032985 -0.12617429 0.09268839 0.6006789 -0.6100174 -0.5070512 -0.3062906
-0.072006375 0.50570107 0.58807164 -0.33337715 0.54431 -0.5626123 0.14305703 -0.7242667
0.31143698 -0.61817837 -0.3954318 0.17485523 0.5422291 0.6748662 0.2821689 -0.0029768024
-0.3884683 0.7220893 0.05042352 -0.39784512 0.11560343 -0.16735029 0.21221334 0.6473367
-0.67043585 0.603541 -0.6880851 0.6427091 0.39261013 0.84906083 -0.20111413 0.37328723
-0.38438073 0.4711795 -0.20220816 -0.113201775 -0.28238252 0.20622058 -0.023739848 -0.47384813
-0.3482168 0.19061476 -0.27686134 0.70436335 -0.3835294 -0.07721607 0.2961995 0.23058623
-0.46062085 0.2802809 0.17575306 0.55187833 -0.2809846 0.004681425 -0.032103527 -0.5143768
-0.435046 0.09904195 -0.52894634 0.39973825 0.4630098 -0.2717697 0.19204542 -0.2597492
-0.06117011 0.15753147 0.21631227 -0.5199445 -0.37739173 -0.85103065 -0.40618506 -0.5350599
0.42366812 0.20401897 0.08655574 0.14695258 -0.3261159 -0.5563791 -0.50834244 0.64240766
0.13775833 0.55820674 0.4366489 -0.18399838 -0.11712436 -0.31753808 0.01847917 0.10617583
0.124425404 0.61434096 0.53099567 -0.20743965 0.34878442 -0.051749595 0.35959396 0.44926253
-0.5054063 0.53326416 0.57586426 -0.4906677 -0.42379102 0.009943996 0.64820457 -0.034381412
-0.34673 0.07514013 0.200756 -0.22248483 -0.2853276 0.77370447 -0.46898836 0.19687584
0.38643134 0.5507495 -0.4495411 0.57961303 0.22915544 0.5560002 -0.44532776 -0.24822584
-0.092215225 0.15892693 0.2910962 -0.33017284 0.7423394 -0.45087487 0.28810802 -0.06808805
0.07353674 -0.21791862 -0.46624553 0.23559868 -0.42065606 0.65073204 -0.26713622 0.46283537
-0.4802486 -0.44974688 0.21797857 -0.6832638 0.31441563 0.2782177 -0.39087662 0.56862736
-0.031507764 0.4779794 0.46632704 -0.72348773 0.1683686 0.3916361 -0.5238196 0.02685242
-0.4858078 0.45704666 -0.38084915 0.38384262 -0.4070408 0.36665195 -0.3752126 -0.46801084
-0.22913416 0.09981878 0.13691261 0.36123016 0.3944081 -0.10289141 -0.3837998 0.5525349
-0.28088766 0.5908527 -0.6633071 -0.0620602 0.4479004 -0.08895173 0.35429093 -0.52883786
00000000: 9bd1 ed3e d9c9 abbe f5d5 b6be 28ea a7be
00000010: 00e9 23be d9b4 283e ab34 553e f352 09bf
00000020: 6839 d7be d4a9 6cbe 9b26 063f 7f77 dabd
00000030: 608e febb fbae ea3d 9b2e 8f3e 75ba 073f
00000040: 7199 153f 0513 7b3d db41 debe c497 973a
00000050: 1408 0cbd 97cf edbe 98c7 df3d 4194 c9be
00000060: 8aa9 bbbe f3f1 1abf 4522 2ebf 8b77 003e
00000070: 265a 94be cc10 1abf 8ff8 e3be 34e2 903e
00000080: a0bb 083e 9a8e 20bf b24c d1be 5267 023f
00000090: c190 e53e 344c 8b3e 14eb 343f 5c71 d1be
000000a0: 23a0 0dbf 66cc 823e a934 93bc d284 063f
000000b0: 96ea f03e 9818 323f 86ba 28be f83c 56be
000000c0: 760e 0e3f c0bd 683e d638 103f 26f9 70bd
000000d0: f934 8cbf 321b 24bf 0c7b c9be 2ef6 243f
000000e0: e696 44be 9136 e0bd 92d4 013e 5849 a83d
000000f0: 1f1f a9be 115f e8be e31e bb3d b62a eb3e
00000100: ec26 3a3f edce b7bc 2818 8cbe ffac e9bd
00000110: ca6a 7cbf 8f75 91be 0e4c 1abf 896c 8a3e
00000120: 0f99 003f 3c2b 803e d533 01be 69d3 bd3d
00000130: 18c6 193f 1a2a 1cbf 1cce 01bf 1fd2 9cbe
00000140: 1478 93bd a075 013f dd8b 163f 69b0 aabe
00000150: e657 0b3f 5c07 10bf 8b7d 123e 8b69 39bf
00000160: ab74 9f3e f040 1ebf 0976 cabe 400d 333e
00000170: 87cf 0a3f 08c4 2c3f 7178 903e 7516 43bb
00000180: 51e5 c6be d8da 383f e588 4e3d 5bb2 cbbe
00000190: 7ec1 ec3d e05d 2bbe 744e 593e dcb7 253f
000001a0: afa1 2bbf aa81 1a3f 5826 30bf 9588 243f
000001b0: 3204 c93e 0d5c 593f ddf0 4dbe 811f bf3e
000001c0: 8dcd c4be 703e f13e a80f 4fbe 55d6 e7bd
000001d0: 7194 90be 7d2b 533e 127a c2bc 399c f2be
000001e0: 7949 b2be 8430 433e c5c0 8dbe 2851 343f
000001f0: f75d c4be 7523 9ebd 76a7 973e cc1e 6c3e
00000200: 7fd6 ebbe fa80 8f3e 9cf8 333e e647 0d3f
00000210: 37dd 8fbe a466 993b fd7e 03bd 33ae 03bf
00000220: 59be debe 82d6 ca3d 0769 07bf 7eaa cc3e
00000230: 9f0f ed3e 6625 8bbe 8ea7 443e d9fd 84be
00000240: 828d 7abd ee4f 213e f780 5d3e 151b 05bf
00000250: 7d39 c1be 25dd 59bf 7df7 cfbe b0f9 08bf
00000260: 07eb d83e 59ea 503e 2344 b13d bd7a 163e
00000270: aaf8 a6be dc6e 0ebf bb22 02bf d474 243f
00000280: 8510 0d3e a3e6 0e3f 7290 df3e 126a 3cbe
00000290: e5de efbd 5a94 a2be a161 973c b772 d93d
000002a0: bfd2 fe3d 7345 1d3f 55ef 073f 0f6b 54be
000002b0: df93 b23e 62f7 53bd b31c b83e bd05 e63e
000002c0: 4f62 01bf 0084 083f d76b 133f cc38 fbbe
000002d0: 23fb d8be 24ec 223c bcf0 253f 86d3 0cbd
000002e0: 9886 b1be 12e3 993d fb92 4d3e 10d3 63be
000002f0: 7616 92be 7f11 463f 3e1f f0be d299 493e
00000300: 54da c53e ebfd 0c3f 402a e6be 8561 143f
00000310: b9a7 6a3e 0756 0e3f 0002 e4be ea2e 7ebe
00000320: 56db bcbd bebd 223e 900a 953e 6a0c a9be
00000330: f409 3e3f 12d9 e6be e582 933e bf71 8bbd
00000340: 6e9a 963d 0f26 5fbe bcb7 eebe c840 713e
00000350: 3b60 d7be 6096 263f 14c6 88be c2f8 ec3e
00000360: 25e3 f5be 3945 e6be c635 5f3e 60ea 2ebf
00000370: 16fb a03e 8d72 8e3e fb20 c8be 9091 113f
00000380: 490e 01bd b7b9 f43e 6bc2 ee3e 7e36 39bf
00000390: d168 2c3e 8784 c83e 0b19 06bf 9bf9 db3c
000003a0: cdbb f8be 0502 ea3e a9fe c2be 0587 c43e
000003b0: a767 d0be ceb9 bb3e de1b c0be 1e9f efbe
000003c0: 25a2 6abe ca6d cc3d d232 0c3e 29f3 b83e
000003d0: dcef c93e bbb8 d2bd 6881 c4be ed72 0d3f
000003e0: 82d0 8fbe 1f42 173f 7ece 29bf d632 7ebd
000003f0: 3453 e53e 532c b6bd 9f65 b53e eb61 07bf

decoders.0.decoder_net.0.bias f4 [512]
0.4521876 -0.72339773 -0.19911371 -0.0028963778 -0.6079965 -0.33164167 0.5938879 -0.36768454
-0.11461118 -0.06556582 0.56314105 0.44087076 -0.42719588 -0.07022061 0.2110701 -0.55688685
-0.1172135 0.73932767 0.041870374 -0.6224628 -0.115750015 -0.2233926 0.051756296 0.22360979
-0.16701521 0.3800283 0.70385766 -0.41922703 0.6346068 0.28961796 -0.41746148 -0.27457613
-0.10472573 -0.12216282 -0.5632509 -0.6519844 0.19654167 0.35631064 -0.57486176 0.0959243
0.5249812 0.08875277 -0.16518004 0.6018059 0.3163407 0.51056075 -0.47515243 0.45611194
0.81701803 0.06970661 0.46438882 -0.041939583 0.09889685 0.47369328 -0.17628068 -0.6022017
0.43301347 -0.07267978 -0.34636348 -0.20834316 0.3150606 -0.47874883 0.41647857 0.7227968
-0.7010997 -0.70997405 -0.009444634 -0.41389883 0.48474175 0.74205106 -0.25443828 0.07047513
-0.031250197 0.28124136 -0.06076904 0.04579285 0.12805924 0.5625624 0.05884457 -0.24864815
-0.0752678 -0.60869896 -0.19717027 -0.3116568 0.43545833 0.25604638 -0.75196266 -0.37620547
-0.09451254 -0.005027968 -0.4688009 -0.6892491 0.7605336 -0.58889234 -0.5202647 -0.22676688
0.68853694 0.2527656 0.45295227 -0.08504339 -0.058116198 0.5484905 -0.80539936 -0.19740516
0.4273993 0.2618523 -0.4588974 0.6822847 -0.088564225 -0.66428846 0.49791148 0.67826045
0.47724882 -0.64124054 0.08397006 -0.19123773 0.72736305 0.72456175 0.33448333 0.26530018
-0.36891916 -0.63942826 -0.6489783 0.3578468 0.05904045 -0.38783628 -0.4651916 -0.41228983
0.41194797 0.37764677 -0.3068143 -0.68763876 0.09848557 0.4834349 -0.34048584 0.2916967
0.5290335 0.20544319 0.124155685 0.039201394 0.47066146 0.65688795 -0.28494862 0.33457598
0.6379314 -0.6033359 0.8038662 0.8001277 0.25856513 -0.4608676 -0.02981419 0.33718234
0.21929504 0.23363395 -0.22002707 -0.14328694 -0.62701446 -0.06804519 -0.47861302 -0.4194211
0.3038727 -0.7540652 -0.579397 0.114599854 -0.5619479 0.39615712 0.6667456 0.020875342
0.47457242 0.67927337 -0.0029098657 -0.5933384 -0.68131906 0.31912842 -0.13307697 -0.52245337
-0.37623674 -0.13129559 0.5436843 0.47635645 -0.44161445 0.1481403 0.3780962 0.49415866
0.54936236 0.34039462 0.3135792 -0.32537892 0.31521913 0.56295294 -0.3062674 0.12423675
-0.39919665 0.24903938 0.18850906 0.34801129 -0.51176316 -0.44178906 -0.13130195 -0.31950858
-0.5914858 0.19277336 -0.46446994 0.31866476 -0.47529888 0.69687015 -0.50212467 -0.42066547
0.56002593 0.562978 0.24932797 0.4048165 -0.33939266 -0.35063773 0.18186648 0.73760724
0.6903841 -0.33177054 -0.16820465 -0.02567103 0.18000615 0.48222756 -0.49027744 -0.2802995
0.6044136 0.62597305 -0.3909148 -0.015637109 0.43709308 -0.30816925 -0.3242173 0.56568396
0.2596184 -0.7982653 -0.08663836 -0.06348165 -0.5765092 0.4628521 -0.30957836 0.5882887
0.507972 -0.08218887 0.26643974 -0.36447194 0.7288659 0.66617924 -0.39455187 0.2492041
-0.73693424 0.18576074 -0.49005315 0.67710483 -0.05898212 0.63241476 -0.014576366 0.3966811
00000000: 2285 e73e 9830 39bf 77e4 4bbe 28d1 3dbb
00000010: a9a5 1bbf f0cc a9be 0a09 183f 2641 bcbe
00000020: 44b9 eabd 5f47 86bd 032a 103f d0b9 e13e
00000030: 6bb9 dabe d3cf 8fbd c322 583e 2390 0ebf
00000040: a20d f0bd 9444 3d3f 4580 2b3d b959 1fbf
00000050: 580e edbd 08c1 64be 69fe 533d f7f9 643e
00000060: 0906 2bbe 1293 c23e 0430 343f eda4 d6be
00000070: 9775 223f ce48 943e 83bd d5be 3e95 8cbe
00000080: 727a d6bd 8030 fabd 3631 10bf 73e8 26bf
00000090: 3842 493e 596e b63e 242a 13bf f673 c43d
000000a0: 2b65 063f 03c4 b53d f524 29be f40f 1a3f
000000b0: 69f7 a13e 1cb4 023f 2e47 f3be 8187 e93e
000000c0: 1828 513f 57c2 8e3d 5fc4 ed3e d7c8 2bbd
000000d0: 6f8a ca3d ed87 f23e ec82 34be e429 1abf
000000e0: f1b3 dd3e 23d9 94bd 8e56 b1be e957 55be
000000f0: 9f4f a13e 911e f5be ae3c d53e 3609 393f
00000100: 457b 33bf dcc0 35bf abbd 1abc 8cea d3be
00000110: 1230 f83e 0ff7 3d3f bc45 82be 4455 903d
00000120: 3500 00bd defe 8f3e f5e8 78bd 4991 3b3d
00000130: f621 033e 1704 103f 0107 713d 9f9d 7ebe
00000140: 0126 9abd b2d3 1bbf 01e7 49be 7b91 9fbe
00000150: 65f4 de3e 8318 833e a080 40bf 019e c0be
00000160: ca8f c1bd a7c1 a4bb ac06 f0be a172 30bf
00000170: 54b2 423f a6c1 16bf 1130 05bf 9435 68be
00000180: f543 303f 7e6a 813e 5ce9 e73e 3b2b aebd
00000190: 400b 6ebd e069 0c3f a72e 4ebf 9424 4abe
000001a0: 15d4 da3e 8111 863e 9af4 eabe 36aa 2e3f
000001b0: 2961 b5bd cf0e 2abf 41ee fe3e 7aa2 2d3f
000001c0: f559 f43e 5728 24bf 7ff8 ab3d d3d3 43be
000001d0: 7734 3a3f e17c 393f 6641 ab3e 6dd5 873e
000001e0: f9e2 bcbe 92b1 23bf 7123 26bf b237 b73e
000001f0: 66d4 713d 7a92 c6be 982d eebe a717 d3be
00000200: d8ea d23e eb5a c13e c416 9dbe 1809 30bf
00000210: cdb2 c93d c784 f73e 2954 aebe 4559 953e
00000220: bd6e 073f b35f 523e 5645 fe3d a491 203d
00000230: 8afa f03e cf29 283f c9e4 91be 8b4d ab3e
00000240: 794f 233f 3974 1abf 2dca 4d3f 2bd5 4c3f
00000250: a662 843e d7f6 ebbe e33c f4bc 2aa3 ac3e
00000260: e18e 603e bd3d 6f3e c74e 61be d0b9 12be
00000270: 0584 20bf 475b 8bbd c40c f5be 5dbe d6be
00000280: 3495 9b3e 6b0a 41bf 5d53 14bf 54b3 ea3d
00000290: d1db 0fbf 1bd5 ca3e d7af 2a3f c402 ab3c
000002a0: 28fb f23e dce4 2d3f 72b3 3ebb 06e5 17bf
000002b0: ed6a 2ebf cd64 a33e 5445 08be 81bf 05bf
000002c0: 1aa2 c0be 5a72 06be e52e 0b3f fee4 f33e
000002d0: 4a1b e2be 17b2 173e d395 c13e 5d02 fd3e
000002e0: 03a3 0c3f 3448 ae3e 748d a03e 1198 a6be
000002f0: 6764 a13e af1d 103f 15cf 9cbe d66f fe3d
00000300: 8163 ccbe 2e04 7f3e 8508 413e 892e b23e
00000310: e902 03bf 2d32 e2be 0574 06be a196 a3be
00000320: 9d6b 17bf 6166 453e 01cf edbe 0728 a33e
00000330: 605a f3be 1566 323f 3e8b 00bf 7761 d7be
00000340: dc5d 0f3f 541f 103f d54f 7f3e 1c44 cf3e
00000350: e0c4 adbe ca86 b3be 353b 3a3e d4d3 3c3f
00000360: 03bd 303f d4dd a9be d73d 2cbe 0d4c d2bc
00000370: 8853 383e 88e6 f63e a505 fbbe 6b83 8fbe
00000380: daba 1a3f c53f 203f fc25 c8be 6519 80bc
00000390: aaca df3e 5cc8 9dbe cfff a5be aad0 103f
000003a0: b4ec 843e 1d5b 4cbf 746f b1bd ab02 82bd
000003b0: 1b96 13bf f3fa ec3e 0e81 9ebe 179a 163f
000003c0: 740a 023f a352 a8bd ca6a 883e 119c babe
000003d0: f596 3a3f b98a 2a3f b402 cabe 5c2f 7f3e
000003e0: b9a7 3cbf 1038 3e3e 3fe8 fabe be56 2d3f
000003f0: 3c97 71bd efe5 213f b6d1 6ebc c919 cb3e

decoders.0.decoder_net.3.weight f4 [32]
1.0779605 0.97708386 1.0326437 0.98568267 0.99016804 1.0277165 1.0577369 0.9897252
0.9934592 1.0158281 1.0238891 0.97850794 0.9596745 1.0404003 1.0659186 0.90807694
1.0727227 1.003547 0.99743026 0.96328974 1.080914 0.9378156 0.9771298 0.9986375
1.0922781 1.0452001 1.0559844 1.0052046 1.0289762 0.9655313 1.0637829 0.9481272
00000000: 9cfa 893f 2b22 7a3f ab2d 843f b355 7c3f
00000010: a77b 7d3f 378c 833f ec63 873f a15e 7d3f
00000020: 5853 7e3f a806 823f cc0e 833f 7f7f 7a3f
00000030: 3aad 753f d62b 853f 0570 883f bb77 683f
00000040: fa4e 893f 3a74 803f 9757 7f3f 289a 763f
00000050: 645b 8a3f af14 703f 2e25 7a3f b5a6 7f3f
00000060: c5cf 8b3f 1ec9 853f 7f2a 873f 8baa 803f
00000070: 7eb5 833f 0f2d 773f 0a2a 883f 77b8 723f

decoders.0.decoder_net.3.bias f4 [32]
-0.002260039 -0.054856155 0.0948931 0.039914347 -0.0075197755 -0.053004667 0.061308883 0.019517984
0.078175455 0.017967023 -0.06272582 0.109593496 -0.07781274 0.13239193 -0.055594802 0.019371236
-0.030304998 0.052601907 -0.04646103 0.07818092 0.0017237789 0.022681471 -0.06587379 -0.006620771
-0.035454415 -0.02133916 0.18352364 0.022576828 0.07391289 -0.06039878 0.018198073 0.02964482
00000000: 2a1d 14bb d9b0 60bd 5057 c23d 3a7d 233d
00000010: 7368 f6bb 6c1b 59bd 061f 7b3d 2ee4 9f3c
00000020: 741a a03d 942f 933c 6576 80bd 8e72 e03d
00000030: 495c 9fbd c091 073e 60b7 63bd 6db0 9e3c
00000040: 3042 f8bc 1975 573d ec4d 3ebd 511d a03d
00000050: 6cf0 e13a 7ece b93c d6e8 86bd 0df3 d8bb
00000060: a638 11bd 76cf aebc 9fed 3b3e 0af3 b83c
00000070: a45f 973d b664 77bd 2014 953c b2d9 f23c

decoders.0.decoder_net.3.running_mean f4 [32]
0.019822937 0.035230245 0.026915636 0.05762669 0.026447592 0.02835909 0.044212006 0.03603944
0.036547072 0.025516259 0.029774856 0.04704422 0.023411367 0.03265842 0.02382858 0.05090037
0.025217975 0.027631963 0.025098167 0.03529281 0.029651726 0.04755497 0.023644553 0.04630561
0.015708381 0.02970472 0.025092283 0.02027699 0.018887293 0.028373048 0.025809575 0.031414896
00000000: b663 a23c 974d 103d 2e7e dc3c f709 6c3d
00000010: 9fa8 d83c 5351 e83c a617 353d 189e 133d
00000020: 62b2 153d 7907 d13c 66ea f33c 71b1 403d
00000030: 32c9 bf3c d6c4 053d 2734 c33c e87c 503d
00000040: ed95 ce3c 6d5c e23c ac9a cd3c 328f 103d
00000050: 2de8 f23c 00c9 423d 39b2 c13c f4aa 3d3d
00000060: ddae 803c 5057 f33c 558e cd3c ee1b a63c
00000070: 86b9 9a3c 986e e83c 9a6e d33c e8ac 003d

decoders.0.decoder_net.3.running_var f4 [32]
0.000390713 0.001922369 0.0011625307 0.00506881 0.0007264611 0.0013036081 0.0024545984 0.0012201696
0.0022082906 0.0005510991 0.0009782822 0.0029960696 0.00059707754 0.0011181165 0.0004517208 0.00708962
0.00058648543 0.0010189433 0.0009199102 0.0010953556 0.0013097842 0.004084373 0.00068501895 0.0026797417
0.0002380136 0.000720295 0.0008214207 0.00037242798 0.00042937294 0.003264209 0.00073525 0.0016586613
00000000: 9cd8 cc39 00f8 fb3a 0f60 983a 4318 a63b
00000010: fb6f 3e3a d4dd aa3a 54dd 203b 19ee 9f3a
00000020: f8b8 103b a277 103a b439 803a b559 443b
00000030: 3285 1c3a c48d 923a f1d4 ec39 0b50 e83b
00000040: 5fbe 193a 108e 853a 2126 713a 0992 8f3a
00000050: 11ad ab3a 34d6 853b d892 333a 9b9e 2f3b
00000060: 4a93 7939 2ed2 3c3a 9c54 573a 7042 c339
00000070: 761d e139 57ec 553b cbbd 403a 7067 d93a

decoders.0.decoder_net.4.weight f4 [32, 32, 3, 3]
0.010847492 -0.07422589 -0.089712985 0.06857552 0.016581248 -0.02037434 0.11354336 -0.040371187
-0.07338761 0.044298775 0.012163683 -0.037664287 0.053354852 0.07498308 0.020596765 0.021780595
0.002399671 -0.05094871 0.015289722 -0.0070534497 0.029884152 0.022953937 0.09939395 0.0476113
-0.02322337 -0.021020528 -0.097487025 -0.061623935 -0.0091958875 0.047626704 0.077112876 -0.043892708
-0.035579037 0.04213875 -0.024867339 0.004195531 0.011962639 -0.0030530822 -0.034069423 -0.009337846
0.050674018 -0.053540632 -0.026684275 0.0029908817 0.017803444 0.0011561312 0.046096146 -0.040832113
0.013564389 0.072352216 -0.038073234 0.02894993 0.0043005524 -0.0011931655 -0.029380683 0.043802198
-0.020430394 -0.014042497 0.020322198 0.030498397 -0.022043342 0.015236576 -0.049589045 0.027760062
-0.113070026 0.09997099 0.06374755 -0.013124646 0.038813 0.007985953 -0.04733049 0.044002064
-0.062863536 0.017661802 0.038813908 -0.04447531 -0.044409778 0.031736124 -0.0051264516 0.02752752
-0.022927646 0.033297963 0.026891815 -0.01064786 0.013143789 0.108794525 0.022717215 0.019751756
-0.111641504 0.028400173 0.016222252 -0.0014668847 0.027660979 0.07443546 0.092885874 -0.11837353
-0.03341289 0.0728612 -0.027762117 0.11998114 -0.013278211 0.031647958 -0.013981357 -0.02801648
-0.011616058 -0.034643434 0.004831521 0.004345742 -0.006373751 -0.017038915 -0.07057599 -0.046804514
0.006017311 0.14544383 -0.08062393 0.10008006 0.048948698 0.014770199 -0.043123774 -0.0946739
0.0023579965 -0.0072608367 0.08233304 0.08575304 -0.07104275 -0.042426597 -0.03345738 -0.062979385
0.03598658 -0.028202455 0.026106376 0.023337036 0.041882522 0.07363854 0.013578508 0.089125305
0.056963008 0.03200911 -0.025727322 0.03114909 0.025276177 0.05193043 -0.08909463 -0.03785629
0.058988184 -0.043755285 -0.02957326 0.09929332 -0.033755068 -0.09238119 0.008821702 -0.009671173
-0.035356347 -0.005280781 -0.04431387 -0.05990968 0.11699061 0.07191684 -0.020751065 0.017315062
-0.016734554 0.018880995 -0.08751666 -0.068158805 0.021206206 -0.06334105 -0.07999592 -0.004065931
-0.03179371 -0.07209875 0.04143056 -0.013830414 0.011770808 0.06118682 0.05071841 0.06286843
0.022425665 -0.06068367 -0.010819252 0.0357796 0.023694675 0.06022308 0.019197242 -0.037983436
0.019324567 0.02237475 0.032494552 0.06642681 0.02206562 -0.02360446 -0.015754284 0.11364913
-0.055730306 -0.046780005 -0.055994913 0.019307008 -0.024243545 0.029607784 -0.023459967 0.057700906
-0.00573953 -0.058305237 -0.028556973 -0.00999073 -0.04536521 -0.06540829 -0.018661741 0.011227684
0.06445504 0.0402998 -0.009914683 0.037641488 -0.04209725 -0.018236423 0.15576431 0.026840182
-0.02469214 -0.036477935 0.035041735 -0.037511434 0.04413109 0.0027423163 -0.07706677 -0.016886942
0.038176425 0.014088626 0.049444612 -0.01625156 -0.073751524 -0.06860852 -0.016339486 -0.10127688
-0.00911371 -0.004762032 -0.073717415 -0.05253526 0.023335207 -0.020931322 -0.0031101988 0.026137896
0.0067152274 -0.008046075 -0.05047497 -0.06458864 0.011503835 -0.021347478 -0.04912066 0.0036890456
0.0006146634 -0.06091842 0.060340844 0.012638664 0.02573227 -0.019875048 0.08100601 -0.010862176
00000000: aeb9 313c be03 98bd 71bb b7bd 5271 8c3d
00000010: 66d5 873c 16e8 a6bc 6c89 e83d 425c 25bd
00000020: 3e4c 96bd a272 353d 2f4a 473c de45 1abd
00000030: 9e8a 5a3d bb90 993d 8cba a83c 386d b23c
00000040: cc43 1d3b 98af 50bd be81 7a3c a020 e7bb
00000050: 9ccf f43c e509 bc3c 0e8f cb3d 1104 433d
00000060: f03e bebc 3e33 acbc 47a7 c7bd 6169 7cbd
00000070: 59aa 16bc 3814 433d 5bed 9d3d d7c8 33bd
00000080: 53bb 11bd af99 2c3d 97b6 cbbc aa7a 893b
00000090: f2fe 433c 3816 48bb 618c 0bbd c4fd 18bc
000000a0: 8f8f 4f3d 6c4d 5bbd fb98 dabc ab02 443b
000000b0: 87d8 913c 5389 973a 50cf 3c3d 933f 27bd
000000c0: 2c3d 5e3c 662d 943d aef2 1bbd 6728 ed3c
000000d0: a6eb 8c3b fe63 9cba c2af f0bc ef69 333d
000000e0: a45d a7bc 8012 66bc bd7a a63c c6d7 f93c
000000f0: 3d94 b4bc d5a2 793c e21d 4bbd 1269 e33c
00000100: 4291 e7bd 97bd cc3d 138e 823d c108 57bc
00000110: 61fa 1e3d 84d7 023c 9edd 41bd 823b 343d
00000120: 99be 80bd 7caf 903c 55fb 1e3d be2b 36bd
00000130: 07e7 35bd bdfd 013d cbfb a7bb 6581 e13c
00000140: c2d2 bbbc 7263 083d 394c dc3c 5d74 2ebc
00000150: 0c59 573c aacf de3d 7419 ba3c 6fce a13c
00000160: 4da4 e4bd 7ba7 e83c 87e4 843c 7c44 c0ba
00000170: 4799 e23c 9e71 983d f33a be3d d26d f2bd
00000180: f4db 08bd 4138 953d 616d e3bc acb8 f53d
00000190: da8c 59bc 4aa1 013d 1012 65bc d182 e5bc
000001a0: 4751 3ebc 46e6 0dbd bc51 9e3b ba66 8e3b
000001b0: e6da d0bb 3295 8bbc 258a 90bd 17b6 3fbd
000001c0: dd2c c53b 3aef 143e 291e a5bd c6f6 cc3d
000001d0: 6e7e 483d b4fe 713c 8ea2 30bd 64e4 c1bd
000001e0: 9e88 1a3b 50ec edbb 3a9e a83d 4a9f af3d
000001f0: dc7e 91bd 83c7 2dbd 9b0a 09bd 56fb 80bd
00000200: aa66 133d d608 e7bc 0add d53c 502d bf3c
00000210: 028d 2b3d cecf 963d 6478 5e3c 5487 b63d
00000220: 0b52 693d fc1b 033d 1bc2 d2bc 602c ff3c
00000230: fc0f cf3c 01b5 543d 3f77 b6bd 320f 1bbd
00000240: 989d 713d be38 33bd 9f43 f2bc 4c5a cb3d
00000250: c142 0abd 5932 bdbd e688 103c d773 1ebc
00000260: d1d1 10bd 670a adbb 7682 35bd da63 75bd
00000270: c698 ef3d 2349 933d 23fe a9bc 51d8 8d3c
00000280: e716 89bc 51ac 9a3c ef3b b3bd d896 8bbd
00000290: a3b8 ad3c f4b8 81bd e7d4 a3bd 803b 85bb
000002a0: 1f3a 02bd 82a8 93bd 17b3 293d f698 62bc
000002b0: 59da 403c 089f 7a3d 1cbe 4f3d 2ac1 803d
000002c0: 07b6 b73c 718f 78bd 3b43 31bc a18d 123d
000002d0: 561b c23c 7aac 763d 8943 9d3c 8594 1bbd
000002e0: 8e4e 9e3c 404b b73c 0219 053d c80a 883d
000002f0: f6c2 b43c 245e c1bc 210f 81bc e0c0 e83d
00000300: 7645 64bd 649c 3fbd ec5a 65bd bb29 9e3c
00000310: 669a c6bc 068c f23c 1e2f c0bc c957 6c3d
00000320: ab12 bcbb 79d1 6ebd 50f0 e9bc 29b0 23bc
00000330: dfd0 39bd c8f4 85bd 82e0 98bc 52f4 373c
00000340: 0101 843d 6711 253d 3271 22bc f62d 1a3d
00000350: 2b6e 2cbd 8d64 95bc ae80 1f3e f1df db3c
00000360: 2c47 cabc e369 15bd ec87 0f3d 97a5 19bd
00000370: cdc2 343d 6fb8 333b 2fd5 9dbd 7c56 8abc
00000380: e25e 1c3d fbd3 663c 6f86 4a3d fe21 85bc
00000390: 0a0b 97bd a082 8cbd 63da 85bc 416a cfbd
000003a0: ac51 15bc d20a 9cbb 28f9 96bd 362f 57bd
000003b0: 7a29 bf3c 2a78 abbc 7ad4 4bbb 241f d63c
000003c0: 690b dc3b afd3 03bc d8be 4ebd 0d47 84bd
000003d0: 957a 3c3c e8e0 aebc bf32 49bd eac3 713b
000003e0: 5d21 213a 9885 79bd f627 773d 6612 4f3c
000003f0: 7bcc d23c ffd0 a2bc 7be6 a53d 45f7 31bc

decoders.0.decoder_net.4.bias f4 [32]
-0.089325376 -0.01638302 0.029933993 0.10102627 -0.0061431644 0.08372075 0.009471787 0.19006993
0.045028664 -0.18585841 -0.25180396 -0.09097641 -0.015688503 0.009490038 0.07587254 -0.04971922
-0.057645146 -0.010999162 0.15407322 -0.141102 -0.07690347 0.069079995 0.010777797 -0.11458075
-0.0963082 -0.14341073 -0.006174028 0.041143525 0.10267169 0.1306908 0.015602149 -0.010891668
00000000: 39f0 b6bd af35 86bc 2238 f53c dce6 ce3d
00000010: 994c c9bb c975 ab3d 8e2f 1b3c b1a1 423e
00000020: fa6f 383d ab51 3ebe 73ec 80be d751 babd
00000030: 2d85 80bc 1b7c 1b3c 1063 9b3d 61a6 4bbd
00000040: 511d 6cbd d435 34bc 5fc5 1d3e 0b7d 10be
00000050: 917f 9dbd d079 8d3d 5b95 303c 50a9 eabd
00000060: 3c3d c5bd 43da 12be 804f cabb 1d86 283d
00000070: 8945 d23d cfd3 053e 28a0 7f3c f772 32bc

decoders.0.decoder_net.6.weight f4 [32]
0.9533129 0.9437027 0.87749773 0.91822654 0.9398242 0.86458856 0.9683832 0.87546676
0.9514891 0.9048218 0.9339924 0.87036747 0.9481076 0.9128064 0.94517386 0.8981966
0.88541746 0.87570286 0.8705049 0.8747579 0.9001138 0.87627643 1.0812632 0.92274725
0.9294681 0.8982325 0.9515689 1.0091734 0.9063422 0.9496837 0.91200155 0.88009167
00000000: 500c 743f 8096 713f b1a3 603f e510 6b3f
00000010: 5298 703f ad55 5d3f f6e7 773f 971e 603f
00000020: ca94 733f 67a2 673f 201a 6f3f 67d0 5e3f
00000030: 2eb7 723f aead 693f eaf6 713f 36f0 653f
00000040: b8aa 623f 102e 603f 69d9 5e3f 22f0 5f3f
00000050: dc6d 663f a753 603f d566 8a3f 2a39 6c3f
00000060: 9ff1 6d3f 91f2 653f 059a 733f 982c 813f
00000070: 0b06 683f 791e 733f ef78 693f b04d 613f

decoders.0.decoder_net.6.bias f4 [32]
0.007251846 -0.03700949 -0.08952667 -0.14500177 0.061356332 -0.061232906 -0.033484325 -0.028375013
0.040012807 0.11634916 -0.04420973 0.068886235 -0.044992536 0.0007079558 -0.03179459 -0.01150424
-0.080758505 0.1354728 -0.0094213 -0.03165926 -0.070905514 -0.0015397569 -0.05940327 0.117084935
0.01509158 -0.04426143 -0.042632908 0.039784826 0.014850324 0.11808305 -0.00428225 -0.04357768
00000000: e5a0 ed3b 4397 17bd c259 b7bd 587b 14be
00000010: c750 7b3d 5bcf 7abd dc26 09bd b772 e8bc
00000020: 78e4 233d 7848 ee3d 4315 35bd 3a14 8d3d
00000030: 184a 38bd 1c96 393a 0b3b 02bd 487c 3cbc
00000040: b764 a5bd 62b9 0a3e cc5b 1abc 24ad 01bd
00000050: e936 91bd abd1 c9ba d850 73bd 3aca ef3d
00000060: ad42 773c 794b 35bd d89f 2ebd 6af5 223d
00000070: c64e 733c 87d5 f13d 1e52 8cbb 827e 32bd

decoders.0.decoder_net.6.running_mean f4 [32]
0.02862051 0.03151516 0.03202128 0.035443816 0.032606762 0.033197053 0.031061552 0.040209025
0.033694025 0.02512815 0.024371043 0.029865287 0.030081194 0.031171761 0.034483183 0.030398108
0.029250102 0.032320514 0.036282375 0.027340934 0.027949886 0.033910133 0.033036895 0.02690232
0.02819654 0.027755683 0.030735957 0.032248743 0.031816747 0.03720097 0.030730564 0.030453483
00000000: 8f75 ea3c 0a16 013d bf28 033d 892d 113d
00000010: ab8e 053d a2f9 073d cc74 fe3c 38b2 243d
00000020: bf02 0a3d 8dd9 cd3c c8a5 c73c 0ca8 f43c
00000030: d66c f63c ec5b ff3c 3d3e 0d3d 7405 f93c
00000040: e99d ef3c 8462 043d d49c 143d 18fa df3c
00000050: 29f7 e43c 5ae5 0a3d b251 073d 4162 dc3c
00000060: 6efc e63c e35f e33c f9c9 fb3c 4217 043d
00000070: 4752 023d 0b60 183d aabe fb3c 9579 f93c

decoders.0.decoder_net.6.running_var f4 [32]
0.00014510797 0.00022653816 0.00023548063 0.00030931892 0.00049793255 0.0002378846 0.00022008526 0.00035841716
0.00022435677 9.98575e-05 0.00015194686 0.00024326355 0.00018763515 0.00025372155 0.00027018323 0.00023286435
0.00019685064 0.00025842653 0.0004007702 0.00020266617 0.00017537769 0.00030007845 0.00048311404 0.00014496787
0.0002663708 0.00022477971 0.00025787202 0.00036268253 0.0001596162 0.00038190035 0.00016325018 0.00018924514
00000000: 2028 1839 e08a 6d39 5aeb 7639 152c a239
00000010: b087 023a a970 7939 b0c6 6639 f0e9 bb39
00000020: 5041 6b39 966a d138 ed53 1f39 9014 7f39
00000030: edbf 4439 ee05 8539 61a7 8d39 0c2d 7439
00000040: b169 4e39 6c7d 8739 771e d239 c982 5439
00000050: 97e5 3739 d953 9d39 784a fd39 8402 1839
00000060: afa7 8b39 d8b2 6b39 ff32 8739 6d26 be39
00000070: a65e 2739 cc39 c839 232e 2b39 1b70 4639

decoders.0.decoder_net.7.weight f4 [32, 16, 3, 3]
-0.03513404 -0.02783316 0.10670581 -0.043551136 -0.010605638 0.069635935 0.11691145 0.02229415
0.018960768 -0.04005636 0.013639661 0.030044677 -0.09761886 -0.06003868 -0.08328031 -0.045262918
-0.0058891815 0.001264963 -0.0014422786 0.066682994 0.028167896 0.01802676 -0.030944157 -0.026246874
0.08291978 0.04938088 -0.0611922 0.04328455 0.032487817 -0.016348872 0.04275336 0.020880202
0.09672728 -0.008400897 -0.040535808 -0.016935578 -0.005527296 0.03085469 0.037723407 -0.07356472
0.074759275 -0.045324948 -0.05816075 0.058307145 -0.006370557 0.058226317 0.018498851 0.09217857
-0.051480614 -0.028935127 -0.036972307 -0.052298326 -0.003513218 0.11294539 -0.042202212 -0.039100528
-0.03436936 -0.011499046 0.025827074 -0.111174904 -0.07571582 -0.040083203 0.054926597 -0.030198675
-0.011540472 -0.037434373 -0.04768799 0.04699148 -0.06611859 0.011933305 0.057184696 -0.045882188
-0.044196803 0.084363334 0.024753919 -0.03776504 0.049265213 -0.017985139 -0.026185077 -0.03376513
-0.06472544 -0.013467213 -0.016408509 0.06693779 -0.037700627 0.02747642 0.003342711 0.077399395
0.02730826 0.005947143 0.104833186 0.065573014 -0.0028574972 0.085515715 0.08332806 0.052998792
-0.026932854 -0.08623848 -0.0720277 0.06516574 0.02658417 0.10046481 0.03161213 0.025940971
0.026199868 -0.032498784 -0.042582523 -0.07282567 -0.024340466 -0.08267638 -0.08089187 -0.036145348
0.032997668 -0.060562294 -0.029585527 -0.034065053 0.028302675 0.009652425 0.10616472 -0.010446053
0.042847764 -0.014231833 0.07454305 0.059136163 -0.09658173 -0.0010005379 -0.061379585 0.023412954
0.008895214 -0.0025228001 0.019223949 0.13238478 0.053072788 0.06419952 -0.012575326 0.030588213
-0.0018216447 -0.006340513 0.033154123 -0.03262973 -0.05081988 0.029249065 -0.013635178 0.042142328
-0.1094946 -0.029687269 0.05963038 0.0014365966 -0.1073269 0.042579528 -0.05032914 0.07976748
-0.052485682 0.014700046 -0.04481889 0.0046302774 -0.011927385 -0.10952345 -0.07834978 -0.08767436
-0.0070820325 -0.060075622 0.06588733 0.077977955 0.07593179 -0.035278954 -0.014064338 -0.029074872
-0.07681354 -0.008626683 0.0149569595 -0.114124 -0.026781933 0.023783697 0.0040545934 -0.0075938953
-0.018233642 -0.040661655 -0.005757681 -0.051940694 -0.019379005 0.025979387 -0.0301886 -0.12376172
0.08441112 0.04646867 -0.049755447 0.048984896 0.02535048 0.06972805 -0.081527084 0.053942006
-0.010077806 0.044355527 0.032932144 0.013053579 -0.03264606 0.028402079 0.027386934 -0.034483425
0.034515977 0.09382698 0.064292945 -0.054625023 0.00045667184 -0.039299943 -0.06901377 -0.05863186
0.0093705105 -0.05879907 0.049580373 0.039591733 -0.04197235 -0.017945737 -0.04984512 -0.032179415
0.1105826 0.036091223 0.07782128 0.039745938 -0.05133446 0.09037709 -0.06411725 -0.028589202
-0.09058157 -0.025832342 0.08845558 0.0016689631 -0.035476077 -0.1061571 0.028658956 0.0073988955
-0.00577701 0.07443577 -0.0013465091 -0.0167056 -0.08997165 -0.05231432 -0.0024447504 -0.14643684
0.029062508 -0.0048434273 -0.00628908 0.04610196 -0.024742603 0.023743594 0.015372579 -0.033331014
0.05984774 0.0024376605 0.07201436 0.024732782 -0.035327293 -0.04370294 -0.06112709 0.021737363
00000000: b6e8 0fbd 5e02 e4bc 9388 da3d ad62 32bd
00000010: 45c3 2dbc 499d 8e3d 456f ef3d 39a2 b63c
00000020: 9d53 9b3c 2312 24bd e278 5f3c 4120 f63c
00000030: 66ec c7bd 1eeb 75bd de8e aabd 9c65 39bd
00000040: 09fa c0bb 1dcd a53a d70a bdba 1891 883d
00000050: 5cc0 e63c dbac 933c 9a7e fdbc af03 d7bc
00000060: d8d1 a93d 9b43 4a3d aca4 7abd 244b 313d
00000070: f211 053d 12ee 85bc 261e 2f3d f50c ab3c
00000080: f418 c63d eaa3 09bc e008 26bd 7bbc 8abc
00000090: 521e b5bb fac2 fc3c dc83 1a3d 1aa9 96bd
000000a0: 641b 993d a7a6 39bd f739 6ebd 79d3 6e3d
000000b0: 1bc0 d0bb b87e 6e3d e78a 973c 1ec8 bc3d
000000c0: 56dd 52bd 5c09 edbc 4670 17bd c536 56bd
000000d0: 043e 66bb ea4f e73d 3adc 2cbd e027 20bd
000000e0: e3c6 0cbd 7f66 3cbc 4d93 d33c abaf e3bd
000000f0: e510 9bbd 492e 24bd b6fa 603d 3663 f7bc
00000100: 3f14 3dbc c954 19bd 7b54 43bd 237a 403d
00000110: 2f69 87bd e983 433c 803a 6a3d f6ee 3bbd
00000120: b507 35bd afc6 ac3d bbc8 ca3c 84af 1abd
00000130: 52ca 493d 9255 93bc 1682 d6bc 4e4d 0abd
00000140: c68e 84bd 96a5 5cbc 236b 86bc ae16 893d
00000150: f96b 1abd 3b16 e13c 6211 5b3b 9383 9e3d
00000160: 92b5 df3c 40e0 c23b c8b2 d63d 254b 863d
00000170: d944 3bbb dd22 af3d e7a7 aa3d 4315 593d
00000180: 4aa2 dcbc cd9d b0bd 4283 93bd 9e75 853d
00000190: 0cc7 d93c 7fc0 cd3d b97b 013d 2982 d43c
000001a0: 1ba1 d63c 721d 05bd 036b 2ebd a025 95bd
000001b0: a865 c7bc 3c52 a9bd a3aa a5bd 250d 14bd
000001c0: 9028 073d 2b10 78bd 595d f2bc cc87 0bbd
000001d0: 03db e73c 3425 1e3c e46c d93d ec25 2bbc
000001e0: 2381 2f3d a22c 69bc 07aa 983d c338 723d
000001f0: a4cc c5bd 7b24 83ba 2969 7bbd 86cc bf3c
00000200: 3bbd 113c 9055 25bb 8b7b 9d3c e08f 073e
00000210: da62 593d 0a7b 833d bd08 4ebc 2294 fa3c
00000220: 41c4 eeba 14c4 cfbb 9ecc 073d c0a6 05bd
00000230: 8228 50bd bc9b ef3c 1566 5fbc 6f9d 2c3d
00000240: b43e e0bd b732 f3bc fc3e 743d 2f4c bc3a
00000250: 35ce dbbd df67 2e3d ee25 4ebd 225d a33d
00000260: 3afb 56bd 76d8 703c 0394 37bd 95b9 973b
00000270: 146b 43bc d54d e0bd d975 a0bd 9d8e b3bd
00000280: 6510 e8bb db11 76bd f0ef 863d e8b2 9f3d
00000290: 2082 9b3d aa80 10bd 1c6e 66bc 6d2e eebc
000002a0: 6b50 9dbd ee56 0dbc 090e 753c d8b9 e9bd
000002b0: c965 dbbc 07d6 c23c 65dc 843b 36d6 f8bb
000002c0: b85e 95bc d68c 26bd eeaa bcbb c4bf 54bd
000002d0: b8c0 9ebc b9d2 d43c 154e f7bc c976 fdbd
000002e0: bddf ac3d ef55 3e3d 5ecc 4bbd 63a4 483d
000002f0: cfab cf3c 94cd 8e3d acf7 a6bd 4bf2 5c3d
00000300: 621d 25bc 24ae 353d dbe3 063d aede 553c
00000310: e0b7 05bd 7aab e83c 905a e03c 7e3e 0dbd
00000320: a060 0d3d 5c28 c03d 05ac 833d 7dbe 5fbd
00000330: 756d ef39 faf8 20bd 1757 8dbd f627 70bd
00000340: c586 193c 4bd7 70bd ca14 4b3d f12a 223d
00000350: 33eb 2bbd f002 93bc 662a 4cbd 90ce 03bd
00000360: 2179 e23d 64d4 133d c360 9f3d a3cc 223d
00000370: 1544 52bd a017 b93d e84f 83bd e733 eabc
00000380: d582 b9bd 599e d3bc 3328 b53d 1cc1 da3a
00000390: 5d4f 11bd e568 d9bd 30c6 ea3c 6f72 f23b
000003a0: 134d bdbb c871 983d 597d b0ba 2fda 88bc
000003b0: 0e43 b8bd 8a47 56bd 1b38 20bb 8af3 15be
000003c0: 7f14 ee3c 9db5 9ebb a014 cebb 69d5 3c3d
000003d0: 00b1 cabc ed81 c23c 45dd 7b3c 1a86 08bd
000003e0: e722 753d 28c1 1f3b 447c 933d 679c ca3c
000003f0: 5ab3 10bd db01 33bd 6660 7abd 8e12 b23c

decoders.0.decoder_net.7.bias f4 [16]
0.02029569 -0.08871664 -0.118091226 -0.107842945 -0.0112972595 -0.0012032287 0.07245274 -0.021783283
0.20249133 0.097814746 0.06675069 0.030403694 0.042765144 -0.1116648 -0.067906365 -0.16647398
00000000: 2643 a63c 12b1 b5bd d0d9 f1bd c3dc dcbd
00000010: 2418 39bc a8b5 9dba 1a62 943d db72 b2bc
00000020: e359 4f3e 1953 c83d 96b4 883d 2b11 f93c
00000030: 812a 2f3d 84b0 e4bd 7e12 8bbd 2878 2abe

decoders.0.decoder_net.9.weight f4 [16]
0.91309565 0.90899694 0.9229498 0.908344 0.90517694 0.9155816 0.91381645 0.9236896
0.90343475 0.8991614 0.9139177 0.90195996 0.9044915 0.89381194 0.9151477 0.9224666
00000000: a3c0 693f 06b4 683f 7046 6c3f 3b89 683f
00000010: adb9 673f 8e63 6a3f e0ef 693f ec76 6c3f
00000020: 8047 673f 712f 663f 83f6 693f d9e6 663f
00000030: c18c 673f dcd0 643f 1f47 6a3f c526 6c3f

decoders.0.decoder_net.9.bias f4 [16]
0.09913286 0.1377184 -0.09798853 0.042930514 0.11473093 0.10068804 0.089068264 -0.07402513
-0.1417065 -0.25495732 -0.05952935 0.104074724 -0.12186638 0.099268764 0.12551582 0.065616585
00000000: 2b06 cb3d 0d06 0d3e 36ae c8bd e8d7 2f3d
00000010: 0df8 ea3d 8835 ce3d 6c69 b63d 7d9a 97bd
00000020: 821b 11be c489 82be 0cd5 73bd 2125 d53d
00000030: 1595 f9bd 6c4d cb3d 3887 003e fd61 863d

decoders.0.decoder_net.9.running_mean f4 [16]
0.06403034 0.060297944 0.054334458 0.054957423 0.06453349 0.05758031 0.06921975 0.05901236
0.08024432 0.07039624 0.06541545 0.062448416 0.06589309 0.059767902 0.060133297 0.051734984
00000000: 5722 833d fafa 763d cf8d 5e3d 091b 613d
00000010: 222a 843d 55d9 6b3d 16c3 8d3d f2b6 713d
00000020: 2257 a43d e72b 903d 89f8 853d e9c9 7f3d
00000030: f5f2 863d 30cf 743d 554e 763d 10e8 533d

decoders.0.decoder_net.9.running_var f4 [16]
0.0010571646 0.0008250915 0.00055398315 0.0006695226 0.0010523954 0.0005838172 0.0009685048 0.0008121341
0.0021430785 0.001349362 0.0015913945 0.0008475603 0.00084424205 0.0008040106 0.0012069516 0.0005986067
00000000: 8f90 8a3a f44a 583a 2e39 113a e782 2f3a
00000010: 88f0 893a 4f0b 193a 42e3 7d3a 66e5 543a
00000020: e472 0c3b 13dd b03a 5796 d03a cf2e 5e3a
00000030: 2050 5d3a 3dc4 523a 9332 9e3a d1eb 1c3a

decoders.0.decoder_net.10.weight f4 [16, 1, 3, 3]
0.062048737 0.0485422 -0.027181914 0.14361377 0.20171979 0.2507065 0.16465984 0.0026200921
0.04289347 -0.15405573 0.07580621 -0.17684826 0.24362683 0.15596923 -0.012048279 0.03904954
0.0150248725 0.09697219 -0.15786187 -0.1833387 0.07294948 -0.13551588 -0.27336323 -0.044280685
-0.20614603 -0.20073842 -0.11291999 0.14469224 0.056363754 -0.14131084 0.116772085 0.061190248
-0.080266975 0.19565684 -0.020052405 0.04009935 -0.15843228 0.20151496 -0.09066835 0.14081933
0.27703175 0.23810233 0.18964551 0.077993944 0.19179992 -0.09128495 0.14989838 0.025669245
0.02231803 0.08408299 0.19777697 0.06856476 0.048214976 0.16990963 0.110500336 0.14134552
0.075300604 0.12105812 0.09074341 0.18704034 -0.02488742 -0.0641819 -0.057790574 -0.23040643
0.16908899 -0.18274648 -0.11465848 -0.1142904 0.18803951 0.18057445 -0.18308829 -0.15320677
0.08583213 -0.056783263 -0.2641266 0.03506328 -0.0694656 0.1097691 -0.091665134 -0.20269834
0.15441085 0.20464599 0.14170448 -0.196329 0.07931118 -0.18921493 -0.117441125 -0.12889
-0.122470535 0.013838164 -0.20532975 -0.19479293 -0.17211542 0.05736998 -0.093282215 0.13414066
-0.0096359365 -0.0067497296 0.098373644 0.1205378 0.18978953 -0.026183223 0.13964407 0.14292568
0.1149202 -0.20854495 0.118184745 0.14201802 0.05505902 -0.058163676 -0.1339128 -0.14524896
-0.1585035 0.052693594 0.104225256 -0.24583791 -0.023966677 0.15207945 0.20863926 0.03799401
0.03032207 0.12588483 0.20994805 0.039674804 -0.17172928 -0.09522772 0.15380277 -0.0857014
-0.22057794 0.1085676 0.24997383 0.28606665 0.09624307 -0.09188834 0.049022157 0.24595682
-0.20190097 -0.029890155 0.24111812 0.07431612 -0.123660855 -0.1162434 0.13450639 0.16957235
00000000: d126 7e3d 30d4 463d 9bac debc 7d0f 133e
00000010: a28f 4e3e 9a5c 803e 979c 283e dab5 2b3b
00000020: 10b1 2f3d c9c0 1dbe 4940 9b3d b617 35be
00000030: 5079 793e 66b6 1f3e 2566 45bc 69f2 1f3d
00000040: e22a 763c 5b99 c63d 8ba6 21be 24bd 3bbe
00000050: 8966 953d adc4 0abe 44f6 8bbe aa5f 35bd
00000060: f217 53be 5f8e 4dbe 9942 e7bd 342a 143e
00000070: aedd 663d cab3 10be 3426 ef3d a0a2 7a3d
00000080: 0363 a4bd 445a 483e f144 a4bc 373f 243d
00000090: 123c 22be f059 4e3e 54b0 b9bd f132 103e
000000a0: 1bd7 8d3e 19d1 733e 6f32 423e 4abb 9f3d
000000b0: 3367 443e 9bf3 babd f67e 193e 4f48 d23c
000000c0: 4dd4 b63c b433 ac3d 0c86 4a3e ae6b 8c3d
000000d0: 117d 453d cafc 2d3e 004e e23d e1bc 103e
000000e0: 3437 9a3d 52ed f73d aed7 b93d 8187 3f3e
000000f0: b4e0 cbbc cd71 83bd cfb5 6cbd aaef 6bbe
00000100: aa25 2d3e e521 3bbe 11d2 eabd 1611 eabd
00000110: 6e8d 403e 82e8 383e 7f7b 3bbe 3ce2 1cbe
00000120: c1c8 af3d 9195 68bd 9a3b 87be 849e 0f3d
00000130: fb43 8ebd 9fce e03d eeba bbbd 2790 4fbe
00000140: e11d 1e3e b88e 513e fb1a 113e 780a 49be
00000150: e66d a23d 8fc1 41be f984 f0bd bdfb 03be
00000160: d5d1 fabd 77b9 623c f641 52be cc77 47be
00000170: 063f 30be c9fc 6a3d bf0a bfbd 2b5c 093e
00000180: 0ce0 1dbc d62c ddbb 1f78 c93d 86dc f63d
00000190: 3058 423e 337e d6bc dbfe 0e3e 1c5b 123e
000001a0: 485b eb3d cf8c 55be d80a f23d 2c6d 113e
000001b0: 9185 613d 093d 6ebd 7020 09be 25bc 14be
000001c0: be4e 22be 3dd5 573d 0d74 d53d efbc 7bbe
000001d0: c455 c4bc b7ba 1b3e 88a5 553e 9b9f 1b3d
000001e0: fd65 f83c f4e7 003e 9ffc 563e 0c82 223d
000001f0: cdd9 2fbe c006 c3bd 797e 1d3e 3784 afbd
00000200: 2fdf 61be b158 de3d 24f9 7f3e 5477 923e
00000210: 161b c53d f42f bcbd 75cb 483d 1bdc 7b3e
00000220: 21bf 4ebe 33dc f4bc abe7 763e 0d33 983d
00000230: e741 fdbd 0511 eebd 0bbc 093e 60a4 2d3e

encoder.encoder_net.0.weight f4 [16, 1, 3, 3]
0.059043553 -0.017936232 -0.31797892 -0.32868728 -0.2029603 0.24827611 0.06271569 0.27567747
0.064763226 0.27213475 -0.18495849 -0.035091788 0.19413851 -0.2641953 0.25166574 0.26125148
-0.028244097 0.14122684 -0.14671454 0.28476742 0.2514818 -0.026360177 -0.094185576 -0.022115912
-0.067037515 0.29199684 0.31525502 0.1138836 0.19147633 -0.15758257 -0.1833395 0.13120957
0.27832884 -0.29623285 0.032771405 -0.05634175 0.18043575 0.3013032 -0.18079028 0.18510059
-0.11915432 -0.03350649 -0.009624684 0.11099611 -0.20734333 -0.27920324 0.35419333 0.20774877
0.030271752 0.40784365 -0.12629075 -0.23429914 0.23053913 0.13915713 0.11705218 -0.26968527
-0.00046026157 -0.22892357 -0.008994813 0.032208014 -0.26015925 -0.29369158 0.16145018 -0.24446334
0.27410844 -0.012326627 -0.22221743 -0.15475017 -0.014029777 -0.21752036 0.13673875 -0.14920841
0.028473586 -0.017240545 -0.061666027 0.021284143 -0.20592919 -0.32872987 -0.22437696 0.087089434
0.2896423 -0.32264054 -0.21330118 0.12753424 0.26440337 0.031464837 -0.23125672 0.10678026
-0.11830977 -0.060678102 -0.16147383 0.093490735 -0.08316421 0.15381454 -0.013066653 0.089227624
0.35109046 0.007313315 0.055157457 0.09159697 -0.017624825 0.2284082 0.2126997 0.14088973
0.26404363 -0.21647735 0.08327419 0.25683302 -0.08609015 -0.23226409 0.31678656 -0.16652794
0.049420718 0.11662216 -0.062270373 0.038975388 -0.30474868 0.24418736 -0.04019895 0.05269674
-0.2068833 0.09412687 0.20572273 0.033226028 0.4039574 -0.081355296 -0.019059608 -0.18947256
-0.2900418 -0.1788084 -0.0669146 -0.22121526 0.023751345 0.18703584 0.16204771 0.20614402
-0.11339781 0.16851643 -0.028425982 -0.011496117 0.105372444 -0.05784281 -0.1063054 0.2618387
00000000: a7d7 713d 01ef 92bc 22ce a2be b349 a8be
00000010: d3d4 4fbe 183c 7e3e 1571 803d 9925 8d3e
00000020: 95a2 843d 3f55 8b3e c265 3dbe 68bc 0fbd
00000030: 3fcc 463e 9b44 87be 55da 803e c1c2 853e
00000040: 2a60 e7bc c59d 103e 563c 16be 09cd 913e
00000050: 39c2 803e 4cf1 d7bc 5ee4 c0bd 6e2c b5bc
00000060: f74a 89bd 9c80 953e 1b69 a13e ce3b e93d
00000070: 5f12 443e 535d 21be 5abd 3bbe cd5b 063e
00000080: 1e81 8e3e d5ab 97be 4f3b 063d 9bc6 66bd
00000090: 26c4 383e 6a44 9a3e 1621 39be 028b 3d3e
000000a0: 2e07 f4bd 1a3e 09bd dab0 1dbc ee51 e33d
000000b0: cf51 54be baf3 8ebe d458 b53e 18bc 543e
000000c0: 77fc f73c e2d0 d03e 5d52 01be 1dec 6fbe
000000d0: 7312 6c3e 357f 0e3e 0eb9 ef3d 3014 8abe
000000e0: 434f f1b9 f16a 6abe fb5e 13bc 8dec 033d
000000f0: 9833 85be be5e 96be 3253 253e 9954 7abe
00000100: f157 8c3e 9ff5 49bc f78c 63be d476 1ebe
00000110: 26dd 65bc a8bd 5ebe 3e05 0c3e 17ca 18be
00000120: 7041 e93c 0b3c 8dbc 8495 7cbd 155c ae3c
00000130: 1adf 52be 484f a8be 13c3 65be f25b b23d
00000140: ff4b 943e 2431 a5be a06b 5abe 5698 023e
00000150: e15f 873e 46e1 003d 90ce 6cbe 9caf da3d
00000160: 654c f2bd 9a89 78bd 6559 25be 1278 bf3d
00000170: ff51 aabd 8f81 1d3e 8415 56bc f9bc b63d
00000180: 21c2 b33e 88a4 ef3b c9ec 613d 3197 bb3d
00000190: f061 90bc d7e3 693e f3cd 593e 6645 103e
000001a0: ba30 873e 3dac 5dbe a98b aa3d 9e7f 833e
000001b0: 0850 b0bd a3d6 6dbe d931 a23e 4d86 2abe
000001c0: 616d 4a3d 99d7 ee3d 380f 7fbd a8a4 1f3d
000001d0: 0508 9cbe 400c 7a3e a7a7 24bd 89d8 573d
000001e0: 37d9 53be 97c5 c03d fba8 523e 0418 083d
000001f0: 81d3 ce3e 9b9d a6bd e522 9cbc 1805 42be
00000200: 5c80 94be 8d19 37be 860a 89bd 4186 62be
00000210: 2e92 c23c 5386 3f3e d6ef 253e 6b17 533e
00000220: 1c3d e8bd 928f 2c3e 9bdd e8bc 365a 3cbc
00000230: 82cd d73d 95ec 6cbd a5b6 d9bd b90f 863e

encoder.encoder_net.0.bias f4 [16]
-0.008555347 0.16956648 -0.0857045 -0.0096270135 -0.12714319 -0.090856574 -0.1605703 0.07872751
-0.2847113 0.332658 -0.18707223 0.08545052 0.22985934 -0.18909808 -0.22807184 -0.11808382
00000000: ba2b 0cbc d6a2 2d3e d785 afbd 9fba 1dbc
00000010: d331 02be 0313 babd 8a6c 24be e43b a13d
00000020: aec5 91be 2652 aa3e dd8f 3fbe af00 af3d
00000030: 3f60 6b3e eda2 41be aa8b 69be eed5 f1bd

encoder.encoder_net.2.weight f4 [16]
1.0066835 0.9729832 1.0552828 0.9818871 1.0649245 1.0943028 1.0597614 1.0121988
1.0585084 1.0424043 0.992052 1.0151093 1.0019655 1.0344183 1.0361233 0.9837477
00000000: 01db 803f 6d15 793f 8213 873f f45c 7b3f
00000010: 724f 883f 1d12 8c3f 43a6 873f bb8f 813f
00000020: 347d 873f 816d 853f 1ff7 7d3f 1aef 813f
00000030: 6840 803f d267 843f b09f 843f e4d6 7b3f

encoder.encoder_net.2.bias f4 [16]
0.05735707 -0.04422357 -0.06949499 0.0701649 -0.0033301734 -0.11784052 0.08507477 -0.0006268502
0.040955722 0.06775926 -0.024827072 -0.04441297 0.11228462 -0.033952694 -0.0042894417 -0.06437766
00000000: 3fef 6a3d c623 35bd 6453 8ebd 9db2 8f3d
00000010: 0a3f 5abb 5f56 f1bd ae3b ae3d 3453 24ba
00000020: 30c1 273d 5ec5 8a3d 2562 cbbc 60ea 35bd
00000030: 7bf5 e53d fb11 0bbd 728e 8cbb 6fd8 83bd

encoder.encoder_net.2.running_mean f4 [16]
0.060546163 0.08064207 0.064667925 0.06200136 0.05681862 0.06396524 0.04868825 0.06249674
0.04445976 0.08236274 0.05547939 0.08063542 0.075065345 0.057298996 0.046295527 0.058576256
00000000: 41ff 773d ab27 a53d 9e70 843d 23f5 7d3d
00000010: a4ba 683d 3500 833d 556d 473d 95fc 7f3d
00000020: 701b 363d ccad a83d 5b3e 633d 2f24 a53d
00000030: dcbb 993d 5ab2 6a3d 61a0 3d3d a8ed 6f3d

encoder.encoder_net.2.running_var f4 [16]
5.7251567e-05 0.00012464807 0.00014223559 2.603072e-05 7.868035e-05 0.00017629773 0.000101665064 0.00011936188
4.8887603e-05 0.00015665164 4.6343088e-05 0.00043503378 0.000100455836 6.791763e-05 7.602343e-05 1.542153e-05
00000000: 6721 7038 f6b3 0239 1325 1539 8c5c da37
00000010: 3101 a538 90dc 3839 0435 d538 ec51 fa38
00000020: aa0c 4d38 db42 2439 8360 4238 3f15 e439
00000030: d1ab d238 006f 8e38 c56e 9f38 7c5d 8137

encoder.encoder_net.3.weight f4 [32, 16, 3, 3]
-0.050839126 0.018651085 0.042727355 -0.049205147 -0.055288706 0.015744068 0.04206919 -0.018750168
-0.00032036015 0.03471246 0.04223741 -0.072979644 -0.02220741 -0.048188474 0.009660711 -0.038874052
-0.039648436 0.08184901 0.054660857 0.055360638 -0.024281122 0.043552026 -0.06996326 -0.075092226
0.041714087 -0.080445826 0.13395865 -0.012265673 -0.008212501 0.045218322 -0.0536827 0.072845176
0.025480008 -0.0354861 -0.060226075 0.016203076 0.02951407 0.056415055 0.043262295 -0.025137546
0.014235877 -0.046543673 0.03212403 -0.015174803 -0.1265862 0.059897866 0.041143294 0.05628879
0.12949744 -0.0001484212 -0.00056178373 0.008340823 0.046168454 -0.011840242 -0.093423 -0.045349848
0.053123534 -0.09870788 0.066522785 -0.007650182 -0.073274486 0.018036736 0.025222434 -0.09443828
0.079725705 0.0015077865 0.017321188 0.09035394 -0.037892286 0.034898736 0.011894959 -0.102930054
-0.013965177 -0.06407088 0.050124682 -0.048568975 -0.028188592 -0.03501233 0.0034671118 -0.00015661438
-0.013153094 -0.055161025 -0.07769095 -0.018420238 -0.058809955 0.05994724 0.009607117 -0.045820057
0.05891043 -0.04210711 0.02286413 -0.014057394 -0.008175768 0.062066138 -0.044578325 -0.04153392
-0.056340568 0.023920717 -0.09796241 -0.02708473 0.112285145 0.010420619 0.03558217 0.061646465
-0.104264155 0.033534475 -0.05604992 0.08769817 -0.08433398 -0.03973538 0.039923795 -0.08019008
-0.02093271 0.033102587 -0.037918985 0.067843944 -0.059023697 -0.044662062 -0.01920037 -0.003035732
0.02482593 0.08088524 0.032116793 0.037333637 -0.0905468 -0.033307966 -0.03998686 -0.035640758
-0.05232789 -0.03569909 -0.057765733 0.08755919 -0.04329907 -0.024022441 -0.044646826 0.017194493
0.01851343 0.031591937 -0.013100884 0.047967065 -0.07142496 0.040114198 0.06534251 0.08206099
0.0923731 0.012808702 -0.043555133 0.06556957 0.009021434 -0.0053753443 -0.00243445 0.06755486
-0.063982956 -0.010793547 -0.055327963 -0.065578066 -0.0035376148 -0.043598637 -0.026512926 0.033579428
-0.058251467 -0.021161502 0.058284253 0.04960526 0.010978971 -0.0510614 -0.033739384 -0.0047545396
-0.023568055 0.009698906 -0.064652964 0.026501687 -0.05246661 -0.029978644 -0.035766475 0.036999933
0.083403185 0.037634898 0.11770929 -0.0151336 0.005893999 -0.061011374 0.015093374 -0.0880933
-0.017880192 -0.09433183 0.008327517 0.050621845 0.052533686 -0.023172865 0.0012589614 -0.07893169
0.04836366 0.053571463 -0.12433302 0.06798897 -0.058500234 -0.037246235 0.07063319 -0.070524424
0.048393097 0.057507843 0.065139815 0.050932597 -0.0045749634 0.07996553 -0.022093264 0.11287401
0.034214463 -0.0034646313 0.018969184 -0.009754071 -0.031526696 0.054548316 -0.063237034 -0.1154596
0.025433466 0.029903052 0.07423203 -0.0107906265 0.044964705 0.053253356 -0.015680285 0.04044707
0.021665422 -0.048051387 -0.0027650567 -0.015552785 0.054725785 -0.009732788 0.047929794 -0.0036456697
-0.059547465 0.06996512 -0.05567767 -0.037781116 -0.072753996 -0.041796125 0.011688967 0.0054360027
-0.049470287 -0.0072694556 0.1085377 -0.05699579 -0.007069827 -0.056715183 0.030061197 0.0048043327
0.022550559 0.06468815 -0.005043714 0.038196374 0.0829159 0.11745753 -0.06668158 -0.070004605
00000000: b03c 50bd 29ca 983c e102 2f3d 568b 49bd
00000010: 6976 62bd b4f9 803c be50 2c3d f499 99bc
00000020: 03f6 a7b9 a72e 0e3d 2201 2d3d 5a76 95bd
00000030: 50ec b5bc 4761 45bd f547 1e3c 663a 1fbd
00000040: 6666 22bd 74a0 a73d 10e4 5f3d d6c1 623d
00000050: 34e9 c6bc 9c63 323d e648 8fbd f4c9 99bd
00000060: 64dc 2a3d c8c0 a4bd 752c 093e f6f5 48bc
00000070: ba8d 06bc d936 393d 64e2 5bbd da2f 953d
00000080: 73bb d03c df59 11bd 9eaf 76bd 50bc 843c
00000090: 7ec7 f13c 7913 673d ce33 313d 41ed cdbc
000000a0: 993d 693c 94a4 3ebd 7d94 033d bd9f 78bc
000000b0: d09f 01be 7757 753d df85 283d 138f 663d
000000c0: fa9a 043e 83a1 1bb9 ab44 13ba f3a7 083c
000000d0: 221b 3d3d 93fd 41bc 8f54 bfbd c3c0 39bd
000000e0: 1098 593d 5b27 cabd 193d 883d 61ae fabb
000000f0: ef10 96bd c7c1 933c 479f ce3c db68 c1bd
00000100: 3b47 a33d eba0 c53a 2ae5 8d3c 7d0b b93d
00000110: f134 1bbd faf1 0e3d 13e3 423c fecc d2bd
00000120: 33ce 64bc 9837 83bd 8a4f 4d3d 43f0 46bd
00000130: c3eb e6bc 1769 0fbd 7c38 633b da38 24b9
00000140: 1380 57bc 87f0 61bd 6f1c 9fbd 0ae6 96bc
00000150: b5e2 70bd 3d8b 753d 2b67 1d3c d0ad 3bbd
00000160: 104c 713d 8178 2cbd 8e4d bb3c fc50 66bc
00000170: a8f3 05bc 1039 7e3d c397 36bd 791f 2abd
00000180: 5ec5 66bd 61f5 c33c 84a0 c8bd cce0 ddbc
00000190: c1f5 e53d 3ebb 2a3c 9cbe 113d 0181 7c3d
000001a0: 7288 d5bd 725b 093d 9a94 65bd 199b b33d
000001b0: 4bb7 acbd 91c1 22bd 2287 233d b23a a4bd
000001c0: 137b abbc 9496 073d f050 1bbd c4f1 8a3d
000001d0: d5c2 71bd 91ef 36bd 184a 9dbc 22f3 46bb
000001e0: c05f cb3c 29a7 a53d e68c 033d 28eb 183d
000001f0: 9a70 b9bd ef6d 08bd 43c9 23bd 0bfc 11bd
00000200: c555 56bd 3639 12bd c39b 6cbd 3c52 b33d
00000210: 5e5a 31bd b6ca c4bc 97df 36bd 77db 8c3c
00000220: 7aa9 973c 8c66 013d 17a5 56bc 1d79 443d
00000230: 4047 92bd c94e 243d 4bd2 853d 980f a83d
00000240: 1c2e bd3d 97db 513c de66 32bd 5749 863d
00000250: a3ce 133c a823 b0bb 4b8b 1fbb 345a 8a3d
00000260: 7f09 83bd 6bd7 30bc 939f 62bd cb4d 86bd
00000270: 54d7 67bb 7c94 32bd a331 d9bc 958a 093d
00000280: 1799 6ebd e35a adbc 78bb 6e3d e32e 4b3d
00000290: 24e1 333c c225 51bd 4f32 0abd f8cb 9bbb
000002a0: cb11 c1bc 29e8 1e3c c668 84bd 111a d93c
000002b0: 3ae7 56bd c695 f5bc de7f 12bd 3e8d 173d
000002c0: 4acf aa3d 0d27 1a3d 9111 f13d ebf2 77bc
000002d0: 7222 c13b 10e7 79bd 334a 773c 436a b4bd
000002e0: 7b79 92bc 0c31 c1bd 2370 083c da58 4f3d
000002f0: 902d 573d 05d5 bdbc bc03 a53a f0a6 a1bd
00000300: f918 463d c06d 5b3d 4fa2 febd cd3d 8b3d
00000310: f19d 6fbd 828f 18bd 22a8 903d 1c6f 90bd
00000320: d737 463d 588d 6b3d 0668 853d b39e 503d
00000330: 93e9 95bb f8c4 a33d effc b4bc 7d2a e73d
00000340: 7724 0c3d de0e 63bb 4365 9b3c 8acf 1fbc
00000350: 2322 01bd 0e6e 5f3d 6b82 81bd 1576 ecbd
00000360: d859 d03c 3ff7 f43c f606 983d 2bcb 30bc
00000370: e92c 383d 3120 5a3d f173 80bc d4ab 253d
00000380: af7b b13c 88d1 44bd f435 35bb 1cd1 7ebc
00000390: 2528 603d 4676 1fbc 0852 443d 30ec 6ebb
000003a0: 0be8 73bd df49 8f3d 450e 64bd 5fc0 1abd
000003b0: 0c00 95bd 6a32 2bbd 1583 3f3c 7f20 b23b
000003c0: 5ba1 4abd 9d34 eebb 0349 de3d 6b74 69bd
000003d0: 02aa e7bb 2e4e 68bd e642 f63c aa6d 9d3b
000003e0: f3bb b83c 397b 843d bd45 a5bb cd73 1c3d
000003f0: d0cf a93d 938d f03d 5a90 88bd 935e 8fbd

encoder.encoder_net.3.bias f4 [32]
-0.008797639 -0.059057873 -0.07543795 -0.03221971 -0.03369086 0.2208377 -0.04185159 -0.06505715
0.09056541 -0.076337926 0.05097243 0.13820508 0.08829494 0.017881865 -0.019078476 0.031686276
-0.022383107 0.016039902 -0.12725616 -0.19713123 -0.050097045 -0.022957738 0.005030614 0.029806333
-0.048258293 0.08680348 -0.07334477 -0.06959637 -0.16108117 0.08449021 -0.004321757 0.15076908
00000000: f923 10bc abe6 71bd 367f 9abd d1f8 03bd
00000010: 6dff 09bd 4723 623e 936c 2bbd af3c 85bd
00000020: 5c7a b93d 0f57 9cbd 77c8 503d a285 0d3e
00000030: fad3 b43d fd7c 923c 774a 9cbc 78c9 013d
00000040: c75c b7bc 1d66 833c 704f 02be c5dc 49be
00000050: 8f32 4dbd de11 bcbc d9d7 a43b 692c f43c
00000060: 7daa 45bd 06c6 b13d c835 96bd 8b88 8ebd
00000070: 76f2 24be 3409 ad3d 869d 8dbb 3663 1a3e
