Project2/models/model_3_5.pt (torch, 285381 bytes, 75 tensors)

prior.mean f4 [2]
0	0x00000000	0.0
1	0x00000000	0.0

prior.std f4 [2]
0	0x3f800000	1.0
1	0x3f800000	1.0

decoders.0.decoder_net.0.weight f4 [512, 2]
0	0xbedcc2e4	-0.4311744
1	0x3f0b9983	0.54531115
2	0x3e92e864	0.28692925
3	0x3e3dafee	0.18524143
4	0x3c081bc0	0.008307397
5	0x3f27f242	0.6560403
6	0x3cabf464	0.020990558
7	0x3ec2e106	0.38062304
8	0x3e2f6151	0.17126967
9	0xbf199021	-0.5998555
10	0x3dd2d6bf	0.10294866
11	0xbe79b71b	-0.24386255
12	0xbece58db	-0.40302166
13	0xbf2d11ec	-0.6760547
14	0x3f1a1811	0.6019297
15	0x3efb6a21	0.49104407
16	0xbed4bb0d	-0.41548958
17	0x3f289928	0.658587
18	0xbf2f8735	-0.68565685
19	0xbf1f55d6	-0.6224035
20	0x3dc45758	0.09586972
21	0xbec12332	-0.37722164
22	0x3eb7c6b5	0.3589379
23	0x3ef39ae0	0.47579098
24	0xbf07ef8a	-0.5309988
25	0xbeeadee4	-0.45873177
26	0x3f1aac85	0.60419494
27	0x3f272983	0.65297717
28	0xbf23b349	-0.6394544
29	0x3e1501a6	0.1455141
30	0xbed3a489	-0.41336468
31	0x3f0cd169	0.55007035
32	0x3e569270	0.20954299
33	0xbe0d9f8f	-0.13830398
34	0xbf2214dc	-0.6331308
35	0xbf1d4a7c	-0.6144178
36	0x3ea1dfbd	0.3161601
37	0xbf09292a	-0.53578436
38	0x3e1c0726	0.15237102
39	0xbe935c17	-0.28781196
40	0x3e9b3c37	0.30319378
41	0x3c1de8f7	0.009638063
42	0x3d4c6a62	0.049906142
43	0xbf02fd8c	-0.5116813
44	0xbf4c4ac8	-0.7980161
45	0xbef659fe	-0.48115534
46	0x3dfd28d9	0.12361307
47	0x3dc11f3c	0.094297856
48	0xbef16736	-0.47149056
49	0xbe4cd20b	-0.20002
50	0xbe9a9921	-0.30194953
51	0xbf1c6cff	-0.61103815
52	0x3e39c4bb	0.18141453
53	0x3e10f0f2	0.14154413
54	0xbe3ea900	-0.18619156
55	0xbee2bf9f	-0.4428682
56	0x3e3b4c16	0.18290743
57	0xbd860d0a	-0.06545456
58	0x3d45d595	0.04829939
59	0xbdc14a72	-0.094380274
60	0x3f11e1d5	0.5698522
61	0x3f1cc12e	0.6123227
62	0xbf2a8874	-0.6661446
63	0x3e79c5e7	0.243919
64	0xbf12dc74	-0.57367635
65	0x3f2064ec	0.62653995
66	0x3c73192a	0.014837543
67	0xbd45d23e	-0.048296206
68	0x3f1a1577	0.60189
69	0xbe54fede	-0.20800349
70	0xbf13b453	-0.5769703
71	0x3f2d217a	0.67629206
72	0x3eff2f8e	0.4984097
73	0x3eafaeb5	0.34312978
74	0xbe14dbea	-0.14537016
75	0xbe6879c3	-0.22702698
76	0xbd921bcf	-0.0713421
77	0xbeb7be7e	-0.35887522
78	0xbe830df5	-0.25596586
79	0xbeca6321	-0.39528754
80	0x3f383a74	0.7196419
81	0xbed83ede	-0.42235464
82	0x3eba0e10	0.36338854
83	0x3f08147c	0.53156257
84	0xbe05a6c6	-0.130519
85	0xbf150a27	-0.58218616
86	0x3ee6f97d	0.4511222
87	0x3da0e4a6	0.07856111
88	0xbf0c2dc6	-0.54757345
89	0xbf235916	-0.6380781
90	0x3eebac50	0.46029902
91	0x3eee4322	0.46535593
92	0x3ee766e1	0.45195678
93	0xbdf0e198	-0.117617786
94	0xbea49e7c	-0.32152164
95	0xbf16de6a	-0.58933127
96	0xbd2f702a	-0.042831577
97	0x3eaa3eb6	0.3325097
98	0x3ed2a0e2	0.4113837
99	0x3e224acb	0.15848844
100	0x3c759a72	0.014990436
101	0x3e69fe55	0.22850926
102	0xbea87edf	-0.32909295
103	0xbe8dec7c	-0.27719486
104	0xbefc7bfa	-0.49313337
105	0x3f1ff02c	0.6247585
106	0x3ea2bd11	0.3178487
107	0x3e806f5f	0.2508497
108	0x3f0dbff9	0.5537105
109	0xbe2e0966	-0.16995773
110	0x3ea3a864	0.3196441
111	0xbf18dfe6	-0.5971664
112	0xbe54fb06	-0.20798883
113	0x3f2761f8	0.65383863
114	0x3e857725	0.26067463
115	0xbf2aabdb	-0.6666848
116	0x3e59ae21	0.21257831
117	0x3ee7f394	0.45303023
118	0xbdde2597	-0.108470134
119	0xbf287121	-0.6579762
120	0xbe6281c6	-0.22119817
121	0x3ec5cb05	0.38631454
122	0xbf20b7da	-0.62780535
123	0xbeddd9f2	-0.43330342
124	0x3cbd963d	0.023142928
125	0xbf02815f	-0.50978655
126	0x3ed0af52	0.4075876
127	0x3e9d2e99	0.30699614
128	0x3f1a08a8	0.6016946
129	0x3e809c0f	0.25119063
130	0x3e8cf829	0.2753308
131	0x3e589a2b	0.2115256
132	0x3daaf156	0.083468124
133	0xbe1498ed	-0.14511462
134	0xbf0e4027	-0.5556664
135	0xbc0e4b6f	-0.008684977
136	0xbf162fd7	-0.5866675
137	0xbf2b7a5c	-0.6698358
138	0x3e015501	0.12630083
139	0xbf10fedb	-0.5663888
140	0x3f08c47a	0.534248
141	0xbf066b61	-0.525076
142	0x3f1602d4	0.58598065
143	0xbf2761da	-0.65383685
144	0x3e150bfb	0.14555351
145	0xbf144e0f	-0.5793161
146	0xbe601f03	-0.2188683
147	0x3f15d3a6	0.58526075
148	0x3ed1a86c	0.40948808
149	0x3ea79b4e	0.32735676
150	0x3ee29657	0.44255325
151	0xbead6038	-0.33862472
152	0x3ef693b7	0.48159572
153	0xbf166dfd	-0.5876158
154	0xbdc85e93	-0.097836636
155	0xbc002e10	-0.007823482
156	0x3ec8da29	0.39228943
157	0xbe992c02	-0.29916388
158	0xbefbd42c	-0.49185312
159	0x3eaf659e	0.34257215
160	0x3e9501aa	0.29102832
161	0xbeac2f21	-0.33629707
162	0xbeb2ab82	-0.34896475
163	0xbea43b03	-0.32076272
164	0xbef1a87b	-0.47198853
165	0x3f155f21	0.5834828
166	0x3f197c45	0.59955245
167	0x3f024bb6	0.50896776
168	0xbed8121e	-0.42201322
169	0xbebd0d27	-0.36924097
170	0xbd3651ac	-0.044511482
171	0xbe45c6d1	-0.19314124
172	0xbebe0dbe	-0.3711986
173	0xbf3d6c64	-0.73993516
174	0xbeaf5789	-0.34246472
175	0xbd0ce20d	-0.034395266
176	0xbe0902ef	-0.13380025
177	0xbec58752	-0.38579804
178	0x3ea85e16	0.32884282
179	0xbe674c64	-0.22587734
180	0xbe96e2df	-0.29469964
181	0x3ede6b1e	0.434411
182	0xbf0dc894	-0.5538418
183	0xbf02f2cf	-0.51151747
184	0xbe89f4ea	-0.26944667
185	0x3eb7a198	0.35865474
186	0xbe8aae43	-0.27086076
187	0x3dc76839	0.09736676
188	0xbdd7868d	-0.105237104
189	0xbf044f5f	-0.5168361
190	0x3f2828d0	0.65687275
191	0xbf2e4b8d	-0.6808403
192	0xbf34ec32	-0.70672905
193	0xbac7dd0e	-0.0015248375
194	0xbf21325c	-0.6296747
195	0x3f25d8cc	0.6478393
196	0x3f0b5338	0.54423857
197	0x3e8adc6a	0.27121288
198	0x3c8b1992	0.016979966
199	0xbe74e1e2	-0.23914292
200	0xbf1e5878	-0.6185374
201	0x3eead879	0.4586828
202	0xbed8871d	-0.42290583
203	0xbe617169	-0.22015919
204	0x3d787941	0.06066251
205	0xbe9cf9c7	-0.30659315
206	0xbeaf4403	-0.34231576
207	0x3f13680f	0.57580656
208	0x3eb33ba0	0.35006428
209	0x3f097b4e	0.53703773
210	0x3eab4a7c	0.33455265
211	0xbf285f83	-0.6577074
212	0x3edd3e2d	0.432115
213	0xbec2f13e	-0.38074678
214	0xbf10afc3	-0.5651819
215	0xbf2e32ec	-0.6804645
216	0x3e40e1e7	0.18836175
217	0xbf073a0d	-0.52822953
218	0x3ee46777	0.44610187
219	0xbf2ba0b2	-0.67042077
220	0xbdaae587	-0.0834456
221	0x3e35bd5e	0.17748019
222	0x3c8afad2	0.016965304
223	0x3e5d4109	0.2160684
224	0x3e45d3fd	0.19319148
225	0x3f26a659	0.65097576
226	0x3f1e773a	0.61900675
227	0xbeb18b75	-0.3467671
228	0x3e48bd3e	0.1960344
229	0x3f188eb3	0.5959274
230	0xbf359ad2	-0.7093936
231	0xbd323192	-0.043504305
232	0xbf288eb6	-0.6584276
233	0xbf2a1372	-0.6643592
234	0xbe1401e4	-0.14453846
235	0xbe734be7	-0.23759423
236	0x3eb487e5	0.3525993
237	0x3eec82ad	0.46193448
238	0x3f1ef7ea	0.62097037
239	0x3ef03c51	0.46921018
240	0x3cbcdc05	0.023054132
241	0xbd673628	-0.05644813
242	0xbeb98c63	-0.3623992
243	0xbdc9f5b3	-0.098613165
244	0xbe95f6ee	-0.29289955
245	0xbed85db7	-0.42259
246	0x3e0ade0f	0.13561271
247	0xbebe45ca	-0.3716262
248	0xbf0a05c0	-0.53915024
249	0xbf0fe6f3	-0.56211776
250	0xbeb0082e	-0.3438124
251	0xbea2662e	-0.31718582
252	0x3e9dd8c0	0.3082943
253	0xbed2b28f	-0.41151854
254	0xbeafe937	-0.34357616
255	0x3eb1038e	0.34573025

decoders.0.decoder_net.0.bias f4 [512]
0	0x3f132bfa	0.5748898
1	0xbf4221ab	-0.75832623
2	0xbe981dd7	-0.29710266
3	0xbe73452c	-0.23756856
4	0xbe8309b3	-0.25593337
5	0x3e78f6bc	0.24312872
6	0xbf2dbe09	-0.67868096
7	0xbeeb7bab	-0.4599279
8	0x3ea12478	0.31473136
9	0xbd84694c	-0.06465396
10	0xbf1a6731	-0.6031371
11	0x3f23df95	0.64013034
12	0x3e240fc2	0.16021636
13	0x3f2ccde8	0.6750169
14	0x3ec6d992	0.38837868
15	0xbed64838	-0.41851974
16	0xbebbe8ea	-0.36701137
17	0xbe6a4f0f	-0.22881721
18	0x3e65768e	0.22408506
19	0x3f065953	0.5248005
20	0xbeeecb05	-0.46639267
21	0x3e30c754	0.17263538
22	0x3ca22961	0.019795122
23	0xbe1e9ab8	-0.15488708
24	0xbec44ea3	-0.38341245
25	0x3f2b14ba	0.668285
26	0x3e5f6c4b	0.21818654
27	0xbf1bcb52	-0.6085712
28	0x3f0f9abe	0.5609549
29	0xbe8736ae	-0.26408905
30	0x3ecd65ba	0.40116674
31	0x3e2684cf	0.162616
32	0xbe84dc1b	-0.25949177
33	0x3d3b4218	0.04571733
34	0x3e5eead5	0.21769269
35	0xbea9689c	-0.33087623
36	0xbf2cd61e	-0.67514217
37	0xbf127448	-0.5720868
38	0x3f178110	0.5918131
39	0x3ebfcc78	0.37460685
40	0xbf14443e	-0.5791663
41	0x3f31d190	0.6946039
42	0xbecf891d	-0.40534297
43	0x3ee0df70	0.4392047
44	0x3f0875e9	0.53304917
45	0xbd6b0d05	-0.057385463
46	0x3eb8009e	0.3593797
47	0x3e6a82ab	0.22901408
48	0xbed069e6	-0.40705794
49	0x3c24354b	0.010022472
50	0xbf25226e	-0.6450566
51	0xbf17e825	-0.593386
52	0x3eef0140	0.4668064
53	0x3ecdf5cc	0.4022659
54	0x3e4215da	0.18953648
55	0xbef198fc	-0.4718703
56	0x3f255fbd	0.6459921
57	0xbe6a3da0	-0.2287507
58	0xbe260803	-0.16213994
59	0x3eb2435d	0.3481702
60	0x3dce945b	0.1008689
61	0x3f31c54b	0.6944167
62	0x3d2535cf	0.04033452
63	0x3de195cf	0.11014902
64	0xbe0dfbaa	-0.13865533
65	0x3e3303ba	0.1748189
66	0x3d2ba097	0.041901197
67	0x3e893028	0.26794553
68	0x3ea1c22f	0.31593463
69	0xbe9e69ab	-0.30939993
70	0xbf26c4fe	-0.65144336
71	0xbef1200b	-0.4709476
72	0xbef73465	-0.4828216
73	0x3f085eac	0.5326946
74	0x3e92e254	0.286883
75	0xbecc9741	-0.39959148
76	0xbebba898	-0.36652064
77	0xbf22db78	-0.6361613
78	0x3e3dc573	0.18532352
79	0x3f28b256	0.6589712
80	0xbf288476	-0.6582712
81	0xbf15b294	-0.58475614
82	0x3f13e2f6	0.5776819
83	0x3e2c8fb1	0.16851689
84	0x3ea24f55	0.3170115
85	0x3e0340b0	0.12817645
86	0xbf0cc225	-0.5498374
87	0x3dc719e6	0.097217366
88	0x3e649380	0.22321892
89	0xbeee1307	-0.46498892
90	0xbf0c52cf	-0.54813856
91	0xbeeef596	-0.46671742
92	0x3d7ee252	0.062227555
93	0xbf1b19b4	-0.60586095
94	0xbee95e15	-0.4557959
95	0xbe974f92	-0.29552895
96	0xbd12c24a	-0.03582982
97	0x3e399d33	0.18126373
98	0x3f08840f	0.53326505
99	0xbf27e49d	-0.6558321
100	0x3ea928fe	0.33039087
101	0xbd97632c	-0.073919624
102	0x3f11474d	0.5674942
103	0x3f1623e0	0.5864849
104	0x3f18e4da	0.597242
105	0xbe7ccaf5	-0.24686797
106	0x3f02603b	0.50928086
107	0xbe0ce8f5	-0.13760741
108	0x3f2181dd	0.6308878
109	0xbf176f4b	-0.59154195
110	0xbf0c38de	-0.5477427
111	0x3e959f80	0.2922325
112	0xbecd91ea	-0.40150386
113	0x3e921abb	0.2853602
114	0x3e6644f8	0.22487247
115	0xbef08121	-0.46973518
116	0x3ebac67c	0.36479557
117	0x3f232615	0.63729984
118	0xbe29c863	-0.16580348
119	0x3efa966c	0.48942888
120	0x3f13e196	0.5776609
121	0xbefc65c5	-0.49296394
122	0xbf2c183c	-0.6722448
123	0xbe5e8f7c	-0.21734422
124	0xbeb55005	-0.35412613
125	0xbf0b3ea8	-0.5439248
126	0xbd5f2964	-0.054482833
127	0x3f29c07e	0.66309345
128	0xbe8534b5	-0.26016775
129	0x3f2855a9	0.6575571
130	0x3e1709ca	0.14749828
131	0x3f11a5be	0.5689353
132	0x3f0e4772	0.55577767
133	0x3e176338	0.14783943
134	0x3e9adb92	0.30245644
135	0x3f1382bc	0.5762136
136	0xbee7090b	-0.45124087
137	0x3f1726ab	0.5904338
138	0xbefc0b6d	-0.49227467
139	0xbf1a1f20	-0.60203743
140	0x3e620973	0.22073917
141	0xbe0379c9	-0.12839426
142	0x3eced3fd	0.4039611
143	0x3e1d8bff	0.15385436
144	0x3e2c597f	0.16831015
145	0x3f224fef	0.6340322
146	0xbe8e9ca0	-0.2785387
147	0x3e8f4595	0.27982774
148	0xbf18dc50	-0.5971117
149	0x3ea079b2	0.31342846
150	0xbe43e203	-0.19129185
151	0xbe8997c3	-0.26873598
152	0x3e7a54c6	0.24446401
153	0xbd54e2d0	-0.051974118
154	0x3f112f1f	0.56712526
155	0xbe3da3d4	-0.18519527
156	0xbdebc294	-0.11511722
157	0x3f331244	0.69949746
158	0x3e681e59	0.22667827
159	0x3efe520b	0.4967197
160	0xbf3cede8	-0.73800516
161	0xbed67910	-0.41889238
162	0x3e2ef7c6	0.17086706
163	0xbd2bd421	-0.04195035
164	0xbc14e243	-0.009087148
165	0x3f32ffed	0.6992176
166	0xbee0a4bc	-0.43875682
167	0x3da05fe6	0.07830791
168	0x3de8adf6	0.113613054
169	0x3ee492fa	0.44643384
170	0xbdc26dc2	-0.09493591
171	0xbf059058	-0.52173376
172	0x3f112006	0.5668949
173	0xbe877be5	-0.26461712
174	0x3dd37b9a	0.103263095
175	0xbe5a3f0f	-0.21313117
176	0xbf1d077c	-0.61339545
177	0xbcd92e31	-0.026511284
178	0xbe663311	-0.22480418
179	0x3f1f2d62	0.62178624
180	0xbceb6bae	-0.02873787
181	0xbe93468d	-0.28764763
182	0x3d870cb2	0.06594218
183	0x3e5e4051	0.21704222
184	0xbeb123f2	-0.34597737
185	0xbe29d0c9	-0.16583551
186	0xbf09bcbc	-0.5380361
187	0xbc60a325	-0.013710772
188	0x3ebaad12	0.36460167
189	0x3e9fd2bb	0.31215462
190	0xbf293b4c	-0.66106105
191	0xbe5d0241	-0.21582891
192	0x3db86050	0.09002745
193	0xbf124099	-0.5712982
194	0xbefa25c4	-0.48856938
195	0x3eb40497	0.35159752
196	0x3e53aaa9	0.2067057
197	0xbd9ab7dd	-0.075546004
198	0xbec9f54d	-0.39444962
199	0x3eab28ea	0.33429652
200	0x3ef34e04	0.4752046
201	0x3f112bbc	0.5670736
202	0x3ea509bd	0.32233992
203	0xbdff356e	-0.12461363
204	0xbd605399	-0.054767225
205	0x3e610168	0.21973193
206	0x3c3ed31b	0.011647011
207	0x3ddbe690	0.10737336
208	0xbea35448	-0.3190024
209	0xbea70741	-0.32622722
210	0xbe13c6fd	-0.14431377
211	0xbec20a67	-0.3789856
212	0x3d0944ca	0.033512868
213	0x3eb82bc0	0.3597088
214	0x3e87310c	0.26404607
215	0xbcb8ab55	-0.022542635
216	0xbea74603	-0.32670602
217	0xbf04b471	-0.5183783
218	0xbf09a06c	-0.5376041
219	0x3e44633a	0.19178477
220	0x3e9bc3e4	0.3042289
221	0x3f1349bd	0.5753439
222	0x3ef03637	0.46916363
223	0xbf282794	-0.6568539
224	0xbf37e36f	-0.7183141
225	0xbf1bacc7	-0.6081051
226	0x3f3857cf	0.72008985
227	0x3d4c2774	0.049842313
228	0x3db27c6e	0.08715139
229	0x3eeb65d7	0.45976135
230	0x3c3387cf	0.010957672
231	0x3d85c333	0.06531372
232	0xbb6b8553	-0.0035937622
233	0xbe3edc84	-0.18638808
234	0x3ea235a2	0.31681544
235	0x3d93c0bd	0.07214496
236	0x3e4a43cb	0.19752423
237	0xbe56bce5	-0.20970495
238	0xbcd50379	-0.026002632
239	0x3f2c99ea	0.67422354
240	0x3e000d3b	0.12505047
241	0xbcd2042d	-0.025636757
242	0x3d6ad958	0.05733618
243	0x3f269bdd	0.6508158
244	0xbc032cef	-0.0080063185
245	0x3f0fd50d	0.56184465
246	0x3c92d642	0.017924432
247	0xbf233771	-0.6375647
248	0x3ee78e73	0.45225868
249	0x3f194a21	0.59878737
250	0xbeb4e6a8	-0.35332227
251	0xbe0519a9	-0.1299807
252	0x3eaaf508	0.3339007
253	0xbf0beac4	-0.546551
254	0xbe679f6e	-0.22619411
255	0xbf1e2f9c	-0.61791396

decoders.0.decoder_net.3.weight f4 [32]
0	0x3f7c52ce	0.9856385
1	0x3f7d317e	0.98903644
2	0x3f77014e	0.96486366
3	0x3f7cdb93	0.98772544
4	0x3f7a3992	0.97744095
5	0x3f804357	1.002055
6	0x3f809bbf	1.004753
7	0x3f7ed33d	0.99541074
8	0x3f7dd3ba	0.99151194
9	0x3f855dde	1.0419271
10	0x3f7f59cb	0.9974639
11	0x3f7df909	0.9920812
12	0x3f798b7b	0.97478455
13	0x3f814ab5	1.0100924
14	0x3f818b5b	1.0120653
15	0x3f798d8b	0.974816
16	0x3f83470b	1.0256056
17	0x3f7a222a	0.9770838
18	0x3f8035ca	1.0016415
19	0x3f809a16	1.0047023
20	0x3f7be22c	0.98391986
21	0x3f7b7c46	0.982365
22	0x3f80fbc6	1.0076835
23	0x3f83e65d	1.0304676
24	0x3f8036cd	1.0016724
25	0x3f85e732	1.046118
26	0x3f7eb339	0.9949222
27	0x3f79df34	0.97606206
28	0x3f7bb0f0	0.9831686
29	0x3f7b3d77	0.9814066
30	0x3f7ba038	0.9829135
31	0x3f7f3f2c	0.9970577

decoders.0.decoder_net.3.bias f4 [32]
0	0x3b430250	0.0029756017
1	0x3cb8873b	0.02252542
2	0xbc8c6b75	-0.017141083
3	0x3d1e61f6	0.03866764
4	0xbcd78419	-0.026308106
5	0x3c6dc187	0.014511473
6	0x3c8709a8	0.016484097
7	0x3bfb303c	0.007665662
8	0x3a6a488d	0.00089372025
9	0x3c2af848	0.010435171
10	0x3c9f5085	0.019447574
11	0xbd4c4514	-0.049870566
12	0x3bf6d9bc	0.00753328
13	0xbcb14426	-0.021638941
14	0x3cbabc33	0.022794819
15	0x3c7ce551	0.015435533
16	0xbd262115	-0.040558893
17	0x3d55af6d	0.052169252
18	0xbd422c96	-0.0474058
19	0xbc8b9171	-0.017037125
20	0xbd3bf522	-0.045888074
21	0xbb15433c	-0.002277567
22	0xbd09fbe6	-0.033687495
23	0xbb12beff	-0.0022391675
24	0xbc93302f	-0.017967312
25	0x3c96a796	0.018390458
26	0x3d2a33a5	0.04155316
27	0x3c25f785	0.010129814
28	0x3c949426	0.018137049
29	0xbb31a276	-0.002710489
30	0xbc83825f	-0.016053377
31	0x3ba7c1ae	0.005119524

decoders.0.decoder_net.3.running_mean f4 [32]
0	0x3d576e44	0.052595392
1	0x3c8d7c6a	0.01727124
2	0x3d05738c	0.032580897
3	0x3d33b603	0.04387475
4	0x3cdaa064	0.026687808
5	0x3ca78ae5	0.020451972
6	0x3d55900a	0.05213932
7	0x3cc31075	0.023811558
8	0x3d28e934	0.041238025
9	0x3d24ae18	0.04020509
10	0x3c963183	0.018334156
11	0x3cdc786c	0.02691289
12	0x3cfe5ba6	0.03104956
13	0x3cc753d9	0.024331974
14	0x3d476100	0.04867649
15	0x3c91ca49	0.017796652
16	0x3c935b2c	0.01798781
17	0x3d1ac819	0.037788484
18	0x3cf69fdb	0.030105522
19	0x3ce3c9a4	0.02780611
20	0x3cd6f2e8	0.026238874
21	0x3d049a02	0.032373436
22	0x3d08be3a	0.03338454
23	0x3d086778	0.0333018
24	0x3d0870e4	0.033310786
25	0x3cc46ef8	0.023978695
26	0x3cd7eb2e	0.02635726
27	0x3d2310a9	0.03981081
28	0x3cba2c4c	0.0227262
29	0x3d00ff35	0.031493384
30	0x3d0da8ec	0.034584925
31	0x3cfc4253	0.030793345

decoders.0.decoder_net.3.running_var f4 [32]
0	0x3ba4465c	0.0050132703
1	0x3a3a5c85	0.00071091234
2	0x3b67386e	0.0035281437
3	0x3bc3d513	0.005976328
4	0x3b1405c8	0.0022586454
5	0x3a731b55	0.0009273787
6	0x3c096159	0.008385026
7	0x3a60666e	0.0008560185
8	0x3acbaef5	0.0015539812
9	0x3b1427d6	0.0022606752
10	0x399767dc	0.00028878346
11	0x3a871c5e	0.0010308137
12	0x3c19d7e4	0.009389851
13	0x3a968ed7	0.0011486661
14	0x3b581d01	0.0032976272
15	0x3a022b27	0.00049655366
16	0x398e7a3f	0.0002717543
17	0x3b00aea8	0.0019635353
18	0x3ae9279d	0.0017788295
19	0x3a8b96ac	0.0010649762
20	0x3a213f5e	0.0006151105
21	0x3ae3536d	0.0017343588
22	0x3b3858c5	0.0028129083
23	0x3ada3593	0.0016648046
24	0x3bd07fad	0.0063628764
25	0x3a9ff826	0.0012204691
26	0x3a115c17	0.00055450335
27	0x3bb337d6	0.0054693026
28	0x3a9c1e37	0.001191086
29	0x3be2c235	0.006920124
30	0x3b077192	0.0020667058
31	0x3ac7203c	0.0015192102

decoders.0.decoder_net.4.weight f4 [32, 32, 3, 3]
0	0x3d1b6605	0.03793909
1	0xbbd4d26b	-0.0064948103
2	0x3d3fbe43	0.046812307
3	0x3ce452f1	0.02787158
4	0x3cf64e93	0.030066764
5	0x3d7fa407	0.062412288
6	0xbd038046	-0.032104753
7	0xbc98201b	-0.018569997
8	0x3cc4733d	0.023980731
9	0x3cc95282	0.024575476
10	0x3d1e1f1a	0.03860388
11	0xbad33443	-0.0016113598
12	0x3d3cee25	0.04612555
13	0x3c25f8da	0.010130132
14	0x3d493a75	0.049128015
15	0xbc49a9fa	-0.012308592
16	0x3bd110cd	0.0063801766
17	0x3d8dc3e8	0.06922132
18	0x3c2b16e7	0.010442472
19	0xbbcba727	-0.0062149945
20	0x3c2d90cc	0.010593604
21	0x3d460a9b	0.048349958
22	0x3d03fe6b	0.032225054
23	0xbd0b5c9b	-0.034023862
24	0xbd58e785	-0.05295517
25	0x3d66a94e	0.056313805
26	0x3ccb2dda	0.024802137
27	0xbd1f4120	-0.038880467
28	0x3c56ea07	0.01311732
29	0xbba2f556	-0.004973094
30	0x3d1c04f2	0.038090654
31	0x3ccfa836	0.025348764
32	0xbc1b7727	-0.009488857
33	0xbc3f542e	-0.011677785
34	0x3c0404d0	0.008057788
35	0xbce7b647	-0.028285159
36	0x3d307f6f	0.04309028
37	0x3c0729be	0.008249698
38	0xbcf65244	-0.030068524
39	0x3c68ab50	0.014201
40	0xbd151dce	-0.036405377
41	0xbc7df24c	-0.015499663
42	0x3d86d7cb	0.06584128
43	0x3cec7d93	0.028868472
44	0xbbbfb024	-0.005849855
45	0xbcfd1c94	-0.030897416
46	0x3d78238a	0.060580768
47	0x3d8d5948	0.06901795
48	0xbc20bd0f	-0.0098107
49	0xbdcb29e7	-0.099201016
50	0x3d6325e9	0.055456076
51	0xbd017142	-0.03160215
52	0x3d80c67b	0.06287857
53	0xbc8789dd	-0.01654523
54	0x3d03810f	0.0321055
55	0x3cadb31e	0.021203574
56	0xbd1b5658	-0.03792414
57	0xbd2e92f8	-0.04262063
58	0xbc81692b	-0.015797218
59	0xbd3c28c2	-0.045937307
60	0xbd1548b7	-0.0364463
61	0x3c856ec3	0.016288167
62	0x3d205327	0.0391418
63	0xbd198ae4	-0.037485972
64	0x3c039cba	0.008032972
65	0xbc7bbdbe	-0.015365062
66	0x3c2aef9c	0.010433104
67	0xbc572450	-0.013131216
68	0x3d881100	0.066438675
69	0xbd3a4209	-0.045473132
70	0x3d33fe64	0.043943778
71	0xbca8e9ef	-0.02061936
72	0xbd38c7c9	-0.045112405
73	0x3ce379f8	0.02776812
74	0x3d3f5353	0.046710324
75	0x3cc70873	0.024296021
76	0x3ca6ad87	0.020346416
77	0x3c09be75	0.008407225
78	0xbda59a24	-0.080860406
79	0x3cb63ffd	0.022247309
80	0xbce106e4	-0.027469106
81	0x3cc98d28	0.024603441
82	0x3d8213be	0.06351422
83	0x3d83a066	0.06427078
84	0x3ce71829	0.028209763
85	0x3d515854	0.051109627
86	0x3b913c6b	0.004432251
87	0xbd22900a	-0.039688148
88	0xbd4bd775	-0.049766023
89	0x3d08aa66	0.03336563
90	0xbd1c4f06	-0.0381613
91	0xbcc5f0f0	-0.02416274
92	0x3d7ae903	0.061257374
93	0x3d8921be	0.06695889
94	0x3c4a1829	0.012334862
95	0x3ce29650	0.027659565
96	0xbc9984bf	-0.018740056
97	0x3d5bc7dd	0.0536574
98	0xbd8511e3	-0.06497552
99	0x3d2dc228	0.04242149
100	0xbd70f04c	-0.058822915
101	0x39e87779	0.00044339502
102	0x3a36c5ae	0.00069722056
103	0x3c728a6d	0.014803511
104	0xbd76ea1e	-0.060281865
105	0x3aa05a0d	0.0012233868
106	0xbb612637	-0.0034355053
107	0xbcb28d1e	-0.021795806
108	0xbca723d2	-0.020402823
109	0xbc4519d5	-0.012030085
110	0xbd58db95	-0.052943785
111	0xbd8868bd	-0.06660602
112	0xbcea4b9d	-0.028600508
113	0x3bb899af	0.005633555
114	0xbc81be97	-0.01583795
115	0xbd419023	-0.0472566
116	0x3c75ac1e	0.014994649
117	0x3ceeb82f	0.02914056
118	0xbad3d852	-0.0016162491
119	0x3c8e12cb	0.017342946
120	0xbd217740	-0.039420366
121	0x3d20978d	0.03920703
122	0xbda5a9e1	-0.080890425
123	0xbca6c9fa	-0.020359982
124	0xbd04f1ea	-0.03245727
125	0xbcf3f745	-0.029780993
126	0xbd1ff923	-0.039055955
127	0xbcc6ff09	-0.024291532
128	0xbd526d77	-0.051373925
129	0x3b0554ba	0.002034469
130	0xbd6983c8	-0.057010442
131	0x3d2b2940	0.041787386
132	0x3cd7dbdd	0.026349956
133	0x3d4108fb	0.047127705
134	0x3d0118b0	0.031517684
135	0xbcd9d763	-0.026591962
136	0xbc60fe47	-0.013732499
137	0xbd5b9e09	-0.05361751
138	0xbccb92b8	-0.024850234
139	0xbdaf53fb	-0.0856094
140	0x3d179faf	0.03701752
141	0x3ba5bdc7	0.0050580236
142	0xba202294	-0.0006108668
143	0xbd7d7d35	-0.061886985
144	0xbcfb821f	-0.030701695
145	0xbd06f73e	-0.032950632
146	0x38fc1684	0.0001202049
147	0x3d39c2a4	0.04535164
148	0x3da1864b	0.078869425
149	0xbd77d7f6	-0.06050869
150	0x3ccf1253	0.025277292
151	0x3d14b382	0.036304004
152	0x3cddffcd	0.027099514
153	0xbce7656f	-0.02824661
154	0x3d28e475	0.0412335
155	0x3d06a0fe	0.032868378
156	0xbbde27b9	-0.0067796377
157	0x3da21efe	0.079160675
158	0xbcf9705b	-0.030449083
159	0xbd13c36b	-0.036075037
160	0x3d06d386	0.03291657
161	0x3d0e4e18	0.034742445
162	0xbce02191	-0.027359756
163	0xbc957959	-0.01824634
164	0xbcfb37bd	-0.030666227
165	0xbc08460a	-0.00831748
166	0x3d9b61ce	0.07587014
167	0x3d9dcd1b	0.077051364
168	0xbc34c2ac	-0.0110327415
169	0x3cedf841	0.02904904
170	0x3c3be825	0.011468922
171	0xbcf8e008	-0.030380264
172	0x3c50d5b3	0.012746262
173	0xbd1d211d	-0.038361657
174	0xbd3c91b6	-0.0460374
175	0x3a9e7dba	0.0012091913
176	0x3a463892	0.000756153
177	0xbd6ef970	-0.05834335
178	0xbc7f588a	-0.015585074
179	0x3ceb19bc	0.028698795
180	0x3b16f619	0.002303487
181	0x3d517f09	0.05114654
182	0xbd0a5726	-0.033774517
183	0x3ce04065	0.027374456
184	0x3d4ace55	0.04951318
185	0xbd591e53	-0.053007435
186	0x3d40886b	0.0470051
187	0xbcbcfa1a	-0.023068476
188	0x3d1a620b	0.037691157
189	0x3c679d56	0.014136633
190	0x3d241e0a	0.04006771
191	0xba6b83c2	-0.0008984172
192	0x3d0d841d	0.03454982
193	0x3cce29e2	0.025166456
194	0xb9856d48	-0.00025449158
195	0x3c23c409	0.009995469
196	0x3d606088	0.05477956
197	0x3d1bef0f	0.03806978
198	0xbd0b741b	-0.034046274
199	0x3c8fd478	0.017557368
200	0xbcc4448d	-0.023958469
201	0x3ce47020	0.027885497
202	0x3cb004c4	0.021486647
203	0x3b0fd6dc	0.0021948135
204	0x3c2c7496	0.010525843
205	0xbbcbb8c2	-0.006217093
206	0x3d280e0a	0.041029014
207	0xbbcfe392	-0.006344267
208	0x3b70a1d8	0.003671756
209	0x3cfc01a1	0.030762495
210	0xbd3d370b	-0.04619507
211	0xbd4e16e2	-0.05031479
212	0xbcfcec52	-0.030874405
213	0x3c8ee06c	0.017440997
214	0xbd5dfd9f	-0.05419695
215	0xbcc33514	-0.02382902
216	0x3d143a49	0.036188398
217	0x3ba6756f	0.005079917
218	0xbccadbfd	-0.024763102
219	0xbd1db5a9	-0.038503323
220	0xbd251093	-0.04029901
221	0x3b63fa68	0.0034786705
222	0x3d9d2e6d	0.07674871
223	0x3aff965b	0.0019499765
224	0x3d4c3766	0.04985752
225	0x3d7adfc9	0.061248574
226	0x3d3fdde0	0.046842456
227	0xbd3c4de8	-0.045972735
228	0xbc80bbcd	-0.01571455
229	0x3d2e0436	0.042484485
230	0x3c86adf2	0.016440365
231	0x3c8ea740	0.017413735
232	0x3d07151d	0.03297912
233	0xbcfff067	-0.031242562
234	0x3bea67c6	0.007153484
235	0xbc9951aa	-0.018715698
236	0x3c613151	0.013744668
237	0xbbe3dfa2	-0.0069541493
238	0xbd226da1	-0.03965533
239	0x3cd8c61f	0.026461659
240	0xbc1d34d9	-0.009595119
241	0x3a744e31	0.0009319513
242	0x3d0fb0ca	0.03508071
243	0xbcc0bcc0	-0.023527503
244	0xbc18a6e5	-0.0093171345
245	0xbd8bbef7	-0.06823533
246	0xbd60df61	-0.05490053
247	0x3d0c2f5a	0.034224845
248	0x3d8cebb0	0.06880891
249	0x3cd9963f	0.0265609
250	0xbda96801	-0.0827179
251	0xbac37a08	-0.0014913687
252	0x3c3f04bf	0.011658846
253	0x3d172617	0.03690156
254	0x3c4780c2	0.012176694
255	0x3d146187	0.03622582

decoders.0.decoder_net.4.bias f4 [32]
0	0x3cc9d918	0.024639651
1	0x3d9cca55	0.07655779
2	0xbc17c09c	-0.00926223
3	0xbd4875e0	-0.04894054
4	0x3c542329	0.012947836
5	0xbd090ff2	-0.033462472
6	0x3cd35e1c	0.02580171
7	0x3bb3e697	0.005490135
8	0x3d77b357	0.060473766
9	0xbca26d43	-0.01982749
10	0xbd29119e	-0.041276567
11	0xbd2903d2	-0.04126341
12	0x3d91dc90	0.07122147
13	0xbc2dc71e	-0.010606555
14	0x3ac838f5	0.0015275764
15	0x3c3b2066	0.011421299
16	0xbc36fe69	-0.011169055
17	0x3d70f288	0.058825046
18	0xbdbf63c2	-0.09345199
19	0x3d73db4c	0.05953531
20	0x3d35cb3e	0.04438328
21	0xbd3d2cc2	-0.046185263
22	0xbd38c7af	-0.045112308
23	0xbbc71405	-0.0060753846
24	0x3d2417a2	0.0400616
25	0x3d1a24c0	0.037632704
26	0xbc20c82e	-0.009813352
27	0xbd0d8ae3	-0.03455628
28	0x3cc38f2c	0.02387198
29	0xbcc96f0b	-0.024589082
30	0xbbe60609	-0.0070197624
31	0xbce8bc35	-0.028410057

decoders.0.decoder_net.6.weight f4 [32]
0	0x3f78731a	0.9705063
1	0x3f72fc3b	0.94916123
2	0x3f76df6c	0.96434665
3	0x3f7c8ae4	0.9864943
4	0x3f73553c	0.9505193
5	0x3f7e11bf	0.9924583
6	0x3f7c430b	0.985398
7	0x3f78d80d	0.9720467
8	0x3f7b31e3	0.98122996
9	0x3f7ddf63	0.99168986
10	0x3f78af7b	0.9714276
11	0x3f799317	0.97490066
12	0x3f7c1593	0.9847042
13	0x3f7b63d2	0.9819919
14	0x3f76a6d5	0.96348315
15	0x3f7bbe35	0.9833711
16	0x3f730e11	0.9494334
17	0x3f7e2b0b	0.9928443
18	0x3f7d8c97	0.9904265
19	0x3f7ee971	0.99574953
20	0x3f77c7b3	0.9678909
21	0x3f78d5a8	0.97201014
22	0x3f79c731	0.97569567
23	0x3f70ab28	0.94011164
24	0x3f775cf0	0.96626186
25	0x3f7d6ad5	0.9899114
26	0x3f776865	0.9664367
27	0x3f7a01a3	0.9765875
28	0x3f784a42	0.9698831
29	0x3f74164c	0.9534652
30	0x3f744749	0.9542127
31	0x3f8053fc	1.002563

decoders.0.decoder_net.6.bias f4 [32]
0	0xba17118d	-0.0005762808
1	0xbd743fe9	-0.059631262
2	0x3d480731	0.048834983
3	0x3cf5d14e	0.03000703
4	0x3cde117d	0.027107948
5	0xbc397dc7	-0.011321492
6	0xbd3c48c5	-0.045967836
7	0x3c6b1ddd	0.014350382
8	0xbcadeb5c	-0.021230392
9	0x3c0d6530	0.008630082
10	0x3c8169e3	0.015797561
11	0xbd778959	-0.06043372
12	0xbd54aa3d	-0.051920164
13	0x3d54bf6b	0.051940363
14	0xbd00b837	-0.03142568
15	0xbd461daf	-0.048368152
16	0xbcbadcb3	-0.022810316
17	0xbd156fc0	-0.036483526
18	0x3c358b0b	0.011080514
19	0x3b0dc669	0.0021633154
20	0xbc29f4ed	-0.010373336
21	0x3cee80fe	0.029114243
22	0x3bda16f4	0.0066555683
23	0x3d062165	0.03274669
24	0xbd03fc74	-0.03222318
25	0x3c358c12	0.011080759
26	0x3d1418a3	0.036156308
27	0x3c7fcb65	0.015612458
28	0xbcd014fb	-0.02540063
29	0xbd35672a	-0.044287838
30	0xbb859859	-0.004076999
31	0x3d074240	0.033022165

decoders.0.decoder_net.6.running_mean f4 [32]
0	0x3cfd3a1f	0.030911503
1	0x3d0e6d88	0.034772426
2	0x3d03b01f	0.032150384
3	0x3cf3b801	0.029750826
4	0x3cecfa5a	0.02892797
5	0x3cf7ac55	0.030233542
6	0x3d01a53e	0.031651728
7	0x3cfd8786	0.030948412
8	0x3d0bab72	0.03409905
9	0x3d029a6a	0.031885542
10	0x3cf929bc	0.030415408
11	0x3cf5611f	0.029953538
12	0x3d0fd172	0.035111852
13	0x3cfbf7c6	0.030757796
14	0x3d029cdf	0.031887885
15	0x3d03a8f4	0.032143548
16	0x3cf99b86	0.030469667
17	0x3d05ed04	0.03269674
18	0x3ce09c50	0.027418286
19	0x3d0bd784	0.03414108
20	0x3d029f47	0.03189018
21	0x3ce5a911	0.028034719
22	0x3cf15150	0.029457718
23	0x3cfde817	0.030994458
24	0x3d0259dc	0.031823978
25	0x3d025d25	0.03182711
26	0x3d05b4d3	0.03264315
27	0x3cf168df	0.029468952
28	0x3d0377f2	0.03209681
29	0x3cf5e36e	0.030015673
30	0x3d029075	0.031876046
31	0x3cf205e0	0.029543817

decoders.0.decoder_net.6.running_var f4 [32]
0	0x38e10696	0.00010730063
1	0x3939c913	0.00017717881
2	0x3964a6b5	0.00021805878
3	0x38ffc89b	0.00012196713
4	0x38ddaece	0.00010570661
5	0x39093873	0.00013086367
6	0x38dc85b3	0.00010515321
7	0x3914b71d	0.00014182595
8	0x39bf5fd8	0.00036501768
9	0x39802834	0.00024444016
10	0x3936888c	0.0001740774
11	0x38fb0bd5	0.000119708166
12	0x39b019a3	0.00033588437
13	0x390e823b	0.0001359069
14	0x3955a8ca	0.00020376142
15	0x394fcf0f	0.00019818194
16	0x38f68830	0.00011755561
17	0x3977eb6c	0.00023643457
18	0x3919eaab	0.00014678638
19	0x3951eda1	0.00020020317
20	0x392f6576	0.00016727098
21	0x388d72f3	6.744815e-05
22	0x395f7e25	0.0002131393
23	0x390757b4	0.00012907275
24	0x38fe5c76	0.00012128886
25	0x390f6a05	0.00013677038
26	0x397bc718	0.00024011394
27	0x38c457e8	9.362382e-05
28	0x38c1c182	9.239001e-05
29	0x38f93f98	0.000118850905
30	0x396a0235	0.00022316801
31	0x3900d37a	0.00012285812

decoders.0.decoder_net.7.weight f4 [32, 16, 3, 3]
0	0x3d35e0dd	0.0444039
1	0xbd687268	-0.05674973
2	0xbcfab28f	-0.030602721
3	0x3da61316	0.08109109
4	0xbd8eca81	-0.06972218
5	0xbd84faee	-0.064931735
6	0x3bd49cc6	0.0064884154
7	0xbda253b8	-0.07926124
8	0xbd0f6035	-0.03500386
9	0xbc9709af	-0.018437235
10	0xbda196b1	-0.0789007
11	0x3c2303ee	0.009949667
12	0xbda14b46	-0.078756854
13	0xbdc5d27b	-0.096592866
14	0x3cac791c	0.021053843
15	0x3d4c91b2	0.049943633
16	0xbd924e21	-0.07143808
17	0xbc655cec	-0.013999205
18	0x3d313974	0.043267682
19	0xbd7042ba	-0.058657385
20	0xbb42953e	-0.0029691006
21	0xbc9fd0b5	-0.019508699
22	0x3dd4bd12	0.10387625
23	0x3d8de3ba	0.06928201
24	0xba34900d	-0.00068879203
25	0xbca735a6	-0.020411324
26	0xbd20c218	-0.039247602
27	0xbcbb4930	-0.022862047
28	0xbb7763a2	-0.0037748595
29	0x3d692fa9	0.056930218
30	0xbdadc922	-0.08485629
31	0xbd5a4ba6	-0.0532948
32	0x3c179631	0.009252117
33	0x3a17c0b9	0.0005788911
34	0xbb7c0f8e	-0.003846142
35	0x3d04650c	0.03232293
36	0x3da85fe2	0.08221413
37	0xbd997869	-0.074936695
38	0x3d99225f	0.07477259
39	0x3bd16cda	0.00639115
40	0xbcb0e3e5	-0.021593044
41	0x3c31888d	0.010835779
42	0x3d913a6c	0.07091221
43	0x3d8ca580	0.06867504
44	0x3cd71cb1	0.026258798
45	0xbd914a1b	-0.070942126
46	0xbc8c8043	-0.017151004
47	0xbd9aced1	-0.07558978
48	0xba2f20c2	-0.00066806015
49	0xbd4e8dac	-0.050428078
50	0x3d2b5ad5	0.04183467
51	0xbd05d086	-0.032669567
52	0xbd827d20	-0.06371522
53	0xbdc76b55	-0.09737269
54	0xbd4d1199	-0.05006561
55	0x3d0ed0e5	0.034867186
56	0x3d34a770	0.044104993
57	0xbd6c4e32	-0.05769176
58	0x3b5c9e19	0.003366357
59	0xbcc89633	-0.024485683
60	0xbd0d85d1	-0.034551445
61	0x3c3a8f9e	0.01138678
62	0x3d3bbfa5	0.045837063
63	0xbca0f1f3	-0.01964662
64	0x3cdf851d	0.027285153
65	0xbdc02932	-0.093828574
66	0xbd15a16d	-0.0365309
67	0xbc8bfbac	-0.01708778
68	0x3ad01da1	0.0015877971
69	0x3d055841	0.03255487
70	0x3c99ee97	0.018790526
71	0xbcabff88	-0.02099587
72	0x3cece607	0.02891828
73	0xbd521171	-0.051286165
74	0xbcb418cd	-0.021984482
75	0x3d24acfe	0.04020404
76	0xbd8afc99	-0.067864604
77	0x3dc29cf3	0.09502592
78	0x3d991bae	0.074759826
79	0x3db44766	0.08802681
80	0xbcac4d7f	-0.021033047
81	0xbcf94277	-0.0304272
82	0x3bfb2aff	0.0076650376
83	0xbd5f2fe8	-0.054489046
84	0xbd2cbcf4	-0.042172387
85	0xbd946ee0	-0.0724771
86	0xbcbe2545	-0.02321113
87	0xbc5c28df	-0.013437479
88	0x3ca0a4bc	0.019609801
89	0x3942b8e8	0.00018570165
90	0x3d3dce9e	0.046339624
91	0x3bf43715	0.0074528554
92	0xbc0bd1ba	-0.008533889
93	0x3ddfd04b	0.109284006
94	0x3d400d6c	0.0468878
95	0xbca88410	-0.020570785
96	0x3d6e2a10	0.058145583
97	0xbd1c9994	-0.0382324
98	0xbbb46b8a	-0.0055059837
99	0x3d454312	0.048159666
100	0xbb621052	-0.003449459
101	0xbd9a1462	-0.07523419
102	0x3ca25caf	0.019819586
103	0x3d48c2b1	0.049013797
104	0x3d989d29	0.07451851
105	0xbd1aff0e	-0.037840895
106	0xbcd01312	-0.025399718
107	0xbb9177e6	-0.004439342
108	0x3d5f466b	0.054510515
109	0xbcadbee9	-0.021209197
110	0x3843ec19	4.6711506e-05
111	0xbd5b3c73	-0.053524446
112	0x3dbd1ab8	0.09233612
113	0xbd252209	-0.04031566
114	0xbd0c2ce8	-0.034222513
115	0xba41ed75	-0.00073977496
116	0x3cf26dc7	0.029593362
117	0xbdc294ea	-0.09501059
118	0x3d7b8d09	0.0614138
119	0x3d49a382	0.0492282
120	0xbcca594b	-0.024700781
121	0xb95de4f3	-0.00021161493
122	0x3d2432d4	0.040087536
123	0xbc571c47	-0.0131293
124	0xbc84a1e8	-0.016190484
125	0x3d254164	0.040345564
126	0xbceb2068	-0.028701976
127	0x3c994f20	0.018714488
128	0x3c2b9b97	0.010474107
129	0xbd49ee2c	-0.049299404
130	0xbd033f92	-0.032043047
131	0x3cd418cf	0.025890736
132	0xbc0dc818	-0.008653663
133	0xbc3239ee	-0.010878069
134	0x3bb15a13	0.005412349
135	0xbc1a2054	-0.009407122
136	0xbd8bec32	-0.0683216
137	0xbd36f0df	-0.044663306
138	0x3d506e66	0.050886534
139	0xbd1964a9	-0.037449513
140	0x3d037f01	0.032103542
141	0x3dac861e	0.08424018
142	0xbb599e50	-0.0033205934
143	0xbc25921c	-0.010105636
144	0xbcae5c70	-0.021284312
145	0x3cb770a7	0.022392584
146	0x3ba87f37	0.0051421183
147	0x3d189d8d	0.037259627
148	0x3dcd280b	0.10017403
149	0xbbc60813	-0.006043443
150	0xbc0cb5b4	-0.008588243
151	0xbba9542d	-0.0051675052
152	0xbba3c166	-0.00499742
153	0x3d463657	0.048391666
154	0x3db1b474	0.08676997
155	0x3c285aa9	0.010275521
156	0x3d9f11c2	0.07767059
157	0xbd00277d	-0.03128766
158	0xbc09d9e6	-0.008413767
159	0x3d502cf4	0.05082412
160	0xbb8650b4	-0.004098976
161	0x3ceea214	0.02913002
162	0xbbe8f0d7	-0.0071087885
163	0xbd8a671c	-0.06757948
164	0xbbd1ae0e	-0.0063989228
165	0x3b9f493c	0.004861025
166	0xbd8e7b3b	-0.06957098
167	0xbb203e58	-0.0024451222
168	0xb8e4b702	-0.00010905975
169	0x3d0a6f3b	0.033797484
170	0xbd0d611d	-0.034516443
171	0x3cdbd51c	0.026835017
172	0xbc8d0b94	-0.017217435
173	0x3db1c747	0.08680587
174	0xbd92309f	-0.0713818
175	0xbd9133be	-0.07089947
176	0x3dcdcf62	0.10049321
177	0x3d41d787	0.047324684
178	0x3d7bf93c	0.061516985
179	0x3d9ed0bb	0.07754656
180	0xbbc74e30	-0.0060823187
181	0x3c017ab4	0.00790279
182	0x3bffa312	0.007801422
183	0x3b355cd0	0.0027673729
184	0xbd0a4dd6	-0.033765636
185	0xbd678459	-0.0565227
186	0x3d637e84	0.055540577
187	0xbd0018c0	-0.031273603
188	0xbd0fb86b	-0.035087984
189	0xbcb75864	-0.022381015
190	0x3d11a46b	0.03555719
191	0xbd74940e	-0.05971151
192	0xb95a8cda	-0.00020842571
193	0xbd7cc8db	-0.06171499
194	0x3cea4009	0.028594987
195	0xbd4274ee	-0.047474794
196	0x3d4d9ba5	0.050197262
197	0x3c89561c	0.016764693
198	0xbcee52ba	-0.029092181
199	0x3d1aef82	0.03782607
200	0x3b92dff9	0.004482266
201	0x3d35a8ea	0.044350542
202	0xbc6bb97f	-0.014387487
203	0x3c7e7890	0.015531674
204	0x3d39657e	0.045262806
205	0xbd884897	-0.066544704
206	0x3d4c4b09	0.049876247
207	0x3d063913	0.032769274
208	0x3a363367	0.00069504086
209	0x3c20b7d5	0.009809454
210	0xbd0fc061	-0.035095576
211	0x3d71f903	0.059075367
212	0x3c1a2d45	0.009410207
213	0xbd5e4f48	-0.054274827
214	0x3d45ca81	0.048288826
215	0xbba04e0f	-0.004892118
216	0xbb4b4198	-0.0031014439
217	0x3d9ae788	0.07563692
218	0x3d1ed970	0.038781583
219	0xbcfc0029	-0.030761795
220	0xbce3a707	-0.027789606
221	0x3ce627c8	0.028095141
222	0x3c927c39	0.0178815
223	0xbd8ee567	-0.06977349
224	0xbd891518	-0.066934764
225	0x3da96484	0.08271125
226	0xbda474f0	-0.080301166
227	0x3d1b8462	0.037968047
228	0x3bc9235a	0.0061382474
229	0xbd4caf82	-0.049972065
230	0xbd8ec4b4	-0.06971112
231	0x3b67f45c	0.0035393452
232	0x3a9391c2	0.0011258649
233	0xbd16c48f	-0.036808547
234	0x3db816b4	0.08988705
235	0x3c3a8e4b	0.011386464
236	0xbd006896	-0.03134974
237	0xbce59231	-0.028023811
238	0xbd862667	-0.065502934
239	0xbe0d34b5	-0.13789637
240	0x3cd5916c	0.02607032
241	0x3ce013c4	0.027353175
242	0xbc130cb4	-0.008975197
243	0x3d0ddd89	0.0346351
244	0xbd0017d4	-0.031272724
245	0xbd89c0a5	-0.06726197
246	0xbbf658e2	-0.00751792
247	0xbb53e74d	-0.003233391
248	0xbd890cfe	-0.06691931
249	0x3cf557f4	0.029949166
250	0xbcbc1466	-0.022958945
251	0xbd14c0f1	-0.036316816
252	0xbcb67397	-0.022271914
253	0xbd00d7f0	-0.031455934
254	0x3d89c359	0.06726713
255	0x3c570c89	0.013125547

decoders.0.decoder_net.7.bias f4 [16]
0	0x3cf80e91	0.030280383
1	0xbd8519e2	-0.064990774
2	0x3d86708b	0.065644346
3	0xbd4f107d	-0.050552834
4	0x3cc992ce	0.024606135
5	0xbd9192fb	-0.071081124
6	0xbda47c1f	-0.08031487
7	0x3d44e299	0.048067663
8	0x3d6a0e20	0.057142377
9	0x3d286ccf	0.041119393
10	0x3e129687	0.14315234
11	0xbda148f0	-0.0787524
12	0x3d8cde18	0.068782985
13	0x3dc20122	0.09472872
14	0x3bdd4fe5	0.006753909
15	0x3d0536bc	0.032522902

decoders.0.decoder_net.9.weight f4 [16]
0	0x3f74bfc2	0.956051
1	0x3f7926ef	0.9732503
2	0x3f780b6e	0.9689244
3	0x3f78374f	0.96959394
4	0x3f772c6b	0.9655215
5	0x3f75e423	0.96051234
6	0x3f75040b	0.95709294
7	0x3f77903a	0.9670445
8	0x3f78f953	0.9725544
9	0x3f7a1b8d	0.9769829
10	0x3f76ca4d	0.96402436
11	0x3f79295a	0.9732872
12	0x3f771e87	0.96530956
13	0x3f780cf1	0.96894747
14	0x3f78fbcd	0.9725922
15	0x3f7806eb	0.96885556

decoders.0.decoder_net.9.bias f4 [16]
0	0x3e288fee	0.16461155
1	0x3da26b80	0.0793066
2	0xbd7a3ce8	-0.06109324
3	0x3dc6c39b	0.097052775
4	0xbcc550a6	-0.024086308
5	0x3c88827b	0.01666378
6	0x3cfabefa	0.030608643
7	0xbe1b2de9	-0.15154232
8	0x3db20d04	0.08693889
9	0xbd699aa3	-0.05703224
10	0xbddfcd1d	-0.10927794
11	0x3db1a889	0.08674724
12	0xbd1e69e3	-0.0386752
13	0xbda99781	-0.0828085
14	0xbd5a0fda	-0.053237773
15	0x3df57435	0.11985055

decoders.0.decoder_net.9.running_mean f4 [16]
0	0x3d8414e3	0.06449296
1	0x3d6ad67f	0.057333466
2	0x3d871214	0.06595245
3	0x3d6f7819	0.058464143
4	0x3d8298d0	0.06376803
5	0x3d6b3cf5	0.05743118
6	0x3d641b79	0.055690262
7	0x3d83e09c	0.06439325
8	0x3d884fde	0.066558585
9	0x3d8180cb	0.063233934
10	0x3d8f2079	0.069886155
11	0x3d6585df	0.056035873
12	0x3d848aac	0.06471762
13	0x3d88bf58	0.06677121
14	0x3d7ee506	0.062230133
15	0x3d811b61	0.0630405

decoders.0.decoder_net.9.running_var f4 [16]
0	0x3a63cf52	0.0008690256
1	0x3a4876d1	0.00076470996
2	0x3a6c8aad	0.000902335
3	0x3a6daa57	0.0009066215
4	0x3a81608a	0.000987069
5	0x3a396193	0.00070717296
6	0x3a319da5	0.0006775505
7	0x3a76f219	0.00094202306
8	0x3a878f23	0.0010342341
9	0x3a5f173a	0.0008510236
10	0x3a3f166f	0.00072894146
11	0x3a0dd934	0.0005411089
12	0x3a48b1e9	0.0007655905
13	0x3a2e347b	0.00066453934
14	0x3ab217bc	0.0013587396
15	0x3a6d82b9	0.0009060312

decoders.0.decoder_net.10.weight f4 [16, 1, 3, 3]
0	0x3cadf7df	0.021236358
1	0x3e0303c3	0.12794404
2	0x3dc2a375	0.09503833
3	0x3e10e25e	0.14148852
4	0x3e894038	0.26806808
5	0xbe4ea9cb	-0.20181958
6	0xbe52af58	-0.20574701
7	0xbd353be5	-0.044246573
8	0x3d98aeca	0.07455213
9	0x3e5a7895	0.21335061
10	0x3db1eeb9	0.08688111
11	0x3e9338f8	0.287544
12	0x3d767849	0.060173307
13	0x3e8ad6be	0.2711696
14	0xbc3fff64	-0.011718605
15	0x3e4bbcc2	0.19896224
16	0x3d564ce1	0.05231941
17	0x3e32cffe	0.17462155
18	0xbe239b7a	-0.15977278
19	0xbe6a1a56	-0.22861609
20	0x3dc68462	0.09693219
21	0x3e500cbb	0.20317356
22	0x3d50d50c	0.050984427
23	0xbe4431ea	-0.19159666
24	0x3da9f690	0.08298981
25	0xbdfdfe47	-0.12402015
26	0x3df2e9bf	0.1186099
27	0xbe0bc0d5	-0.13647778
28	0x3c8887be	0.01666629
29	0x3e1ae81a	0.15127602
30	0x3deb2a7d	0.11482713
31	0x3e5b061e	0.21389052
32	0x3df48a1a	0.11940403
33	0x3d389afe	0.045069687
34	0x3e792293	0.24329595
35	0xbe5ee319	-0.21766318
36	0xbe07fc14	-0.13279754
37	0x3e812423	0.25222883
38	0xbe3bc9a2	-0.18338636
39	0xbdfa15d6	-0.12211196
40	0xbd986bb2	-0.07442416
41	0xbe7bc960	-0.24588537
42	0xbe26339e	-0.16230628
43	0x3e84a0e9	0.25904015
44	0xbc93b7a2	-0.018031899
45	0x3d180112	0.037110396
46	0x3e679c69	0.2261826
47	0x3dbffb11	0.09374059
48	0xbde17023	-0.110077165
49	0xbe670d60	-0.22563696
50	0x3dd72f88	0.10507113
51	0xbd430c83	-0.047619354
52	0x3e209c28	0.15684569
53	0x3c923a68	0.017850116
54	0xbe3eaf4a	-0.18621555
55	0x3ce91bea	0.028455693
56	0xbdaf0327	-0.08545523
57	0x3e8e5344	0.27797902
58	0xbd2e6781	-0.042579178
59	0x3e41b518	0.18916738
60	0x3d745af9	0.05965707
61	0xbe3d3aff	-0.18479536
62	0x3e81bc5a	0.25339013
63	0x3dfc6233	0.123234175
64	0x3e111e2b	0.14171664
65	0x3e61788a	0.22018638
66	0x3df9f0b5	0.12204114
67	0xbd3b6d97	-0.04575881
68	0xbe356c12	-0.17717007
69	0xbdab551b	-0.08365842
70	0xbe157900	-0.14596939
71	0xbe666564	-0.22499615
72	0x3d117751	0.03551418
73	0xbd94897d	-0.07252786
74	0xbd3f5cab	-0.046719234
75	0x3e80bc07	0.25143453
76	0x3e03b800	0.12863159
77	0xbe10e7f0	-0.14150977
78	0x3e754e6b	0.23955695
79	0x3d24a930	0.040200412
80	0x3c29ee8f	0.010371818
81	0xbe2ccaf7	-0.168743
82	0xbd2c7d46	-0.042111658
83	0xbe9bb232	-0.3040939
84	0xbe52f646	-0.20601758
85	0xbdb588c0	-0.088639736
86	0x3c9a1823	0.018810337
87	0xbe26cf5b	-0.16290037
88	0xbd50250d	-0.050816584
89	0xbc7cf054	-0.015438158
90	0x3d89b69d	0.06724284
91	0xbe396899	-0.18106307
92	0xbd46784f	-0.04845458
93	0xbc457ad1	-0.0120532075
94	0xbdfc209c	-0.12310907
95	0xbe0f1629	-0.13973297
96	0x3e05cfd3	0.1306756
97	0xbd5526ff	-0.052039143
98	0x3ce9a543	0.028521186
99	0xbdd9ae3c	-0.10628936
100	0x3dc6f676	0.097149774
101	0xbdd7ae27	-0.10531264
102	0x3debc93c	0.11512992
103	0x3e68141b	0.2266392
104	0x3d60f040	0.05491662
105	0x3e815fde	0.25268453
106	0x3e4fd7b6	0.20297131
107	0x3e828fb1	0.25500253
108	0x3d964dd6	0.07339065
109	0x3de7ac42	0.113121524
110	0x3d947a44	0.07249883
111	0xbe620390	-0.22071671
112	0xbda594f9	-0.08085055
113	0xbe209d6f	-0.15685056
114	0x3e5744d9	0.21022357
115	0x3dcde7ed	0.10054002
116	0x3c2891b5	0.0102886455
117	0xbd597cf0	-0.053097665
118	0x3da83d92	0.082148686
119	0x3c6ff082	0.014644744
120	0xbdb6c251	-0.08923782
121	0xbdb1b303	-0.08676722
122	0xbe95dea5	-0.29271427
123	0x3e134a8a	0.14383903
124	0x3d4c7514	0.049916342
125	0xbcaf3351	-0.021386774
126	0x3e561baa	0.2090899
127	0xbe800d25	-0.25010028
128	0x3d89125e	0.066929564
129	0xbdecb5de	-0.11558126
130	0xbdb76413	-0.089546345
131	0xbcc7b224	-0.024376936
132	0x3e8f54c3	0.27994356
133	0x3d857cca	0.06517942
134	0x3e60d519	0.2195629
135	0xbe0341ce	-0.12818071
136	0x3dc00c09	0.093772955
137	0xbda34230	-0.07971609
138	0xbe508e05	-0.20366676
139	0x3d2b15da	0.041768886
140	0x3c1b2cb0	0.009471104
141	0x3d169181	0.036759857
142	0x3dbebcae	0.093133315
143	0x3e852cb1	0.2601066

decoders.1.decoder_net.0.weight f4 [512, 2]
0	0xbe23e9a2	-0.16007093
1	0xbf1781a5	-0.59182197
2	0xbeecee60	-0.46275616
3	0xbf01d4a9	-0.5071512
4	0xbefb0490	-0.49026918
5	0xbde24c1c	-0.11049673
6	0xbe9d1ee2	-0.30687624
7	0x3e174b0b	0.1477472
8	0xbee9c535	-0.4565827
9	0xbeb66a91	-0.3562818
10	0xbe90ccfb	-0.28281388
11	0xbe408af0	-0.18803
12	0xbe9c0fad	-0.3048071
13	0xbdc6a839	-0.09700055
14	0x3e430571	0.19045044
15	0x3f10637d	0.5640181
16	0x3e5bd765	0.21468885
17	0x3e824e8b	0.2545055
18	0xbf37b6a5	-0.7176307
19	0xbf2836b8	-0.65708494
20	0x3ddbc15c	0.1073024
21	0xbee86db9	-0.45396212
22	0x3ef6f698	0.4823501
23	0xbf18a5b2	-0.5962783
24	0xbe08e77c	-0.13369554
25	0xbe260410	-0.16212487
26	0xbf0c21eb	-0.54739255
27	0xbf0546e9	-0.52061325
28	0xbf118909	-0.56849724
29	0x3eccb826	0.39984244
30	0xbd18c01c	-0.037292585
31	0x3f085529	0.53254944
32	0x3ef57d59	0.47947195
33	0xbe815345	-0.25258842
34	0xbf13d83c	-0.5775182
35	0x3dfe2760	0.12409854
36	0xbe8b9938	-0.27265334
37	0xbf00695b	-0.5016076
38	0xbe44e419	-0.19227637
39	0x3dcd7613	0.100322865
40	0x3e21adae	0.1578891
41	0xbea6d8c2	-0.32587248
42	0xbf28119c	-0.6565187
43	0xbefa0fea	-0.48840266
44	0xbdd52e97	-0.10409277
45	0x3f33f612	0.7029735
46	0xbead25f6	-0.33818024
47	0xbf203d6b	-0.62593716
48	0x3d8d4929	0.0689872
49	0xbf0e9001	-0.5568848
50	0x3e82b227	0.25526544
51	0xbec0d064	-0.3765899
52	0xbec155de	-0.37760824
53	0x3f2fd95b	0.68691033
54	0xbedbaa1c	-0.4290322
55	0x3e954367	0.29152986
56	0x3da7529b	0.081700526
57	0xbdd49f34	-0.10381928
58	0xbeaae14b	-0.3337501
59	0xbe04a8a1	-0.12954952
60	0xbe306eda	-0.17229787
61	0x3ebe4f9e	0.37170118
62	0x3f14a984	0.5807116
63	0x3e8bd4a1	0.2731066
64	0x3ec2dec5	0.38060585
65	0xbebccf92	-0.36877114
66	0xbe9f5225	-0.3111736
67	0xbedcfaed	-0.4316019
68	0x3d14636d	0.036227632
69	0xbf21368b	-0.6297385
70	0xbeb02d0f	-0.34409377
71	0xbf2fb141	-0.68629843
72	0xbe89a285	-0.26881805
73	0xbef534be	-0.47891802
74	0x3ef50f3b	0.47863182
75	0x3d0ffe48	0.03515461
76	0xbd8c22b1	-0.06842554
77	0x3ca14bbc	0.019689433
78	0xbe79c332	-0.24390867
79	0x3f1e27f7	0.6177973
80	0x3e50dea3	0.20397429
81	0x3f2a17ea	0.6644274
82	0x3f245c9f	0.6420383
83	0xbf11d9ab	-0.5697276
84	0x3e5d39e0	0.21604109
85	0x3f1ce55f	0.6128749
86	0x3e09ddfb	0.13463585
87	0xbedc4acb	-0.43025813
88	0x3f223f64	0.63377976
89	0xbf18f840	-0.597538
90	0x3ec3eff4	0.38269007
91	0x3ee81659	0.4532955
92	0xbda1570c	-0.07877931
93	0x3e91980e	0.2843632
94	0x3e02e05d	0.127809
95	0x3f205ef3	0.6264488
96	0x3ed16e63	0.4090453
97	0xbe8becfa	-0.27329236
98	0x3e9852a5	0.29750553
99	0x3e5c8834	0.21536332
100	0xbf08676e	-0.5328282
101	0xbe9011ca	-0.28138572
102	0xbdc3c115	-0.09558312
103	0x3f1f7af4	0.62296987
104	0xbeb8d116	-0.3609702
105	0x3f0a7778	0.54088545
106	0xbed288ff	-0.41120145
107	0x3ea86c9b	0.3289536
108	0x3ebd4b62	0.36971575
109	0x3f06be6c	0.5263431
110	0x3f0ccf5c	0.55003905
111	0x3e32871b	0.17434351
112	0x3f286ff7	0.65795845
113	0xbe9fba33	-0.31196746
114	0x3ed2821b	0.41114888
115	0xbf273592	-0.65316117
116	0xbd9d48d7	-0.07679909
117	0xbe0ffb64	-0.14060742
118	0xbdc02013	-0.09381118
119	0xbef78065	-0.48340145
120	0x3df62937	0.1201958
121	0x3f139d07	0.5766148
122	0xbd101196	-0.03517302
123	0xbf12baca	-0.5731627
124	0x3f084e42	0.5324441
125	0x3e344cb3	0.17607383
126	0x3f213a6a	0.6297976
127	0x3f0ec7df	0.5577373
128	0x3dbd242c	0.09235415
129	0xbed5485d	-0.4165677
130	0xbf1bb2d8	-0.6081977
131	0x3f349f43	0.70555514
132	0x3f3a6d96	0.72823465
133	0x3e7f1fb3	0.24914436
134	0xbeebf4dc	-0.4608525
135	0xbec102cd	-0.3769745
136	0xbf0babab	-0.5455882
137	0x3ef208e2	0.47272402
138	0x3f29e120	0.6635914
139	0xbecdabd7	-0.40170166
140	0xbeae5776	-0.34051102
141	0xbe79185c	-0.24325699
142	0xbe7be9f1	-0.2460096
143	0xbe03a21a	-0.12854806
144	0x3f00f4fa	0.50373805
145	0x3e07ceb2	0.13262442
146	0xbf369c3c	-0.71332145
147	0xbef3ab65	-0.475917
148	0xbeed6ba2	-0.4637118
149	0xbeaa399b	-0.33247074
150	0xbefbbe14	-0.49168456
151	0xbd8877bc	-0.066634625
152	0x3e1f326b	0.15546577
153	0xbd5fbf65	-0.054625887
154	0xbf11828b	-0.5683982
155	0xbe990c41	-0.2989216
156	0xbf1af8ef	-0.6053609
157	0xbd012f18	-0.031539053
158	0xbeaaf9b8	-0.33393645
159	0xbe095382	-0.13410762
160	0xbeedfdc0	-0.46482658
161	0x3f206337	0.6265139
162	0xbef656a2	-0.4811297
163	0x3e9d9074	0.3077427
164	0x3ea20919	0.31647566
165	0x3e6483bd	0.22315879
166	0x3d40d76f	0.047080453
167	0x3c548c50	0.012972906
168	0xbeb36eab	-0.3504537
169	0xbeaa3a71	-0.33247712
170	0xbeccad2f	-0.3997588
171	0xbf00b9be	-0.5028342
172	0x3e863b2f	0.26217028
173	0xbf1dfdf8	-0.6171565
174	0xbe867f9c	-0.26269233
175	0xbf187051	-0.5954638
176	0x3ee18523	0.44046888
177	0x3f2b793c	0.66981864
178	0x3f17bc5c	0.5927179
179	0xbf1ba9ac	-0.60805774
180	0xbe4f42de	-0.20240352
181	0xbe902bf9	-0.28158548
182	0xbe57cf78	-0.21075237
183	0x3ed3f3e9	0.41397026
184	0x3d1e0585	0.038579483
185	0xbf1329b7	-0.57485527
186	0x3f39b18d	0.72536546
187	0x3ccd5d21	0.025068821
188	0x3f2fcb05	0.6866916
189	0x3f11a771	0.5689612
190	0xbda652d8	-0.0812127
191	0xbe87c57a	-0.2651785
192	0x3eedf45e	0.464755
193	0x3f0e6d47	0.55635494
194	0xbea4168f	-0.3204846
195	0xbe981f7c	-0.2971152
196	0x3eacbaaf	0.33736178
197	0xbead0cef	-0.3379893
198	0x3f04960c	0.51791453
199	0x3f1a77a1	0.6033879
200	0x3f183db6	0.59469163
201	0x3ee5147c	0.4474219
202	0x3ed3536c	0.41274583
203	0x3d8fb109	0.07016189
204	0x3ed92ec6	0.42418498
205	0x3edbcf09	0.42931393
206	0x3f311cfa	0.6918484
207	0x3f277791	0.6541682
208	0x3e33e213	0.17566709
209	0x3daedc09	0.08538062
210	0x3ec2cce7	0.38046953
211	0xbe91b6b7	-0.28459713
212	0x3e8f912c	0.28040445
213	0x3eb14665	0.3462402
214	0x3ea049cc	0.31306303
215	0xbf1ec172	-0.62013924
216	0xbed9a912	-0.42511803
217	0x3e2cb932	0.16867521
218	0xbf06438c	-0.5244682
219	0xbe9df935	-0.30854192
220	0x3d8ac1dc	0.06775257
221	0xbf2ceec4	-0.6755183
222	0xbdb4fb25	-0.088369645
223	0x3d39807c	0.045288548
224	0xbe46eb4a	-0.19425693
225	0x3e63c893	0.22244482
226	0xbe7f2729	-0.24917282
227	0x3ea7f56f	0.32804438
228	0x3ed420bd	0.41431227
229	0xbee8fd36	-0.45505685
230	0x3da80d38	0.08205646
231	0x3ee6851d	0.45023432
232	0x3edb1b4e	0.4279427
233	0xbe684b59	-0.22684993
234	0xbd2598a7	-0.040428784
235	0x3ea1e3e8	0.3161919
236	0x3ca14d2f	0.019690124
237	0x3f14e2e1	0.5815869
238	0xbe20d5ae	-0.15706512
239	0xbe1d9f03	-0.1539269
240	0x3f36c1e5	0.7138961
241	0xbf0a1817	-0.5394301
242	0xbe568aab	-0.20951335
243	0x3d8bc2a7	0.06824236
244	0xbeff4fbd	-0.49865523
245	0xbf210071	-0.628913
246	0xbe4661ad	-0.19373198
247	0x3ea51203	0.32240304
248	0x3ebf390c	0.3734821
249	0xbf1363ff	-0.57574457
250	0xbe08bd3d	-0.13353439
251	0xbf3b4379	-0.7314983
252	0xbf13b50e	-0.5769814
253	0xbeea6804	-0.45782483
254	0xbee41740	-0.44548988
255	0x3e4150e3	0.18878512
