Project2/models/model_2_9.pt (torch, 214300 bytes, 56 tensors)

prior.mean f4 [2]
0.0 0.0
00000000: 0000 0000 0000 0000

prior.std f4 [2]
1.0 1.0
00000000: 0000 803f 0000 803f

decoders.0.decoder_net.0.weight f4 [512, 2]
-0.29670233 -0.008628361 0.62570214 -0.70948964 0.5229846 -0.06227232 -0.008491178 0.055970803
0.0066240425 -0.21936621 0.21258253 0.23617254 -0.020557191 -0.2643295 0.23577006 0.67717826
0.5263261 0.37303823 -0.051870294 0.52038825 0.3423209 0.5661082 0.4838102 -0.66592544
0.47608975 -0.4408694 -0.18891138 -0.12262901 0.45321488 0.38710806 0.44992435 -0.029668124
0.28770143 -0.72956544 0.49526125 0.28594747 -0.51950204 0.4722931 0.32865036 0.5463228
-0.51508844 -0.611626 0.625537 0.14693703 0.28988016 0.69871736 0.6463137 0.57161343
0.46496087 -0.05109438 0.27438992 -0.038886573 -0.50286573 -0.53539014 -0.36201352 0.6282698
-0.088776425 -0.22157411 0.42432663 -0.14508685 0.2615147 -0.39824027 0.16137466 -0.44677025
0.3905658 0.6410601 0.07840637 0.46069503 0.5963543 0.17562267 0.03916847 0.5474439
-0.5962868 -0.27060676 0.24016812 -0.7223836 -0.35187414 0.34230396 0.37626708 -0.37224996
-0.051806472 -0.36410812 0.21886314 -0.13404183 -0.4716553 0.12029394 -0.4036067 -0.10397362
-0.08585006 0.6289339 0.09362901 0.08101416 0.4670239 -0.66285217 -0.38502342 -0.45256978
-0.64319366 -0.29362908 -0.6014012 0.14387801 -0.2447223 0.12590209 -0.7432578 -0.48112386
-0.4499024 -0.08517824 -0.08865292 -0.28847277 -0.16522938 0.41776395 0.44244862 0.69647956
0.22738315 -0.17059427 -0.3342936 -0.01676439 -0.36341044 -0.22019924 -0.29668847 0.67218304
0.21447434 -0.45408365 -0.31204093 0.5039914 -0.36690533 -0.6898657 -0.6252296 -0.11145982
-0.29045352 -0.04935798 0.13631049 0.30277264 0.5249889 0.64280534 0.38625568 -0.14459297
-0.32801512 0.46799532 -0.2636227 0.34195927 0.42052642 0.10992176 -0.58111036 0.15227702
-0.14877956 -0.33206514 0.4375021 0.5864699 -0.37409097 0.2170123 -0.13265638 0.61337715
-0.16490027 -0.050410688 -0.33633104 0.36177915 -0.4613516 0.22741228 -0.25901717 -0.11029726
-0.13697669 -0.65162337 0.5594973 0.16801436 0.11402842 0.069604516 -0.13292775 0.5567932
0.37483075 0.4988212 0.13391635 -0.27656242 -0.780253 0.20970395 -0.4778603 0.12614802
-0.6076866 0.10174997 0.4961919 0.29704157 0.72159725 -0.28756064 0.006890813 0.07583141
-0.17262754 -0.3726898 -0.12695357 0.062590286 0.40968123 -0.29735544 -0.622318 -0.3173667
0.5451437 -0.022700584 0.4470261 -0.15391289 0.24025226 -0.21573924 0.6006492 -0.41660035
0.20579143 -0.63862723 -0.51059407 0.10065567 -0.10299872 -0.29972628 0.6802086 -0.08781176
0.03490907 -0.10372866 0.10395861 -0.004791782 0.26845324 0.17713526 0.2710833 0.305748
-0.2774465 -0.22984387 -0.06383818 -0.643839 0.19387881 0.6153214 0.57701033 -0.38451648
0.036206562 0.046573896 0.11623249 -0.25759706 0.40731785 -0.0048735556 -0.5010818 -0.17275903
0.17097212 0.08626029 -0.69168985 0.64838475 -0.55160546 -0.6999914 -0.3729421 -0.06905223
-0.4219263 0.42419797 0.1891701 -0.4702753 -0.08551973 0.61234397 0.48356703 0.24753667
0.61114335 0.12358836 0.39089376 -0.20412278 0.45731944 -0.12216718 0.26908705 -0.77817917
00000000: 5ee9 97be f85d 0dbc 042e 203f 1da1 35bf
00000010: 52e2 053f 4311 7fbd 951e 0bbc a441 653d
00000020: 7f0e d93b 89a1 60be 3caf 593e 37d7 713e
00000030: 8e67 a8bc 3256 87be b56d 713e 8e5b 2d3f
00000040: 4fbd 063f defe be3e f275 54bd 2a38 053f
00000050: af44 af3e 78ec 103f f8b5 f73e 177a 2abf
00000060: 09c2 f33e a2b9 e1be fc71 41be eb24 fbbd
00000070: c80b e83e 0733 c63e 7c5c e63e 910a f3bc
00000080: 9a4d 933e cdc4 3abf e292 fd3e b567 923e
00000090: 16fe 04bf 67d0 f13e dc44 a83e d0db 0b3f
000000a0: d6dc 03bf 8693 1cbf 3123 203f a976 163e
000000b0: 2c6b 943e 24df 323f d174 253f 4255 123f
000000c0: 5a0f ee3e 5748 51bd d67c 8c3e 8747 1fbd
000000d0: cfbb 00bf 540f 09bf d659 b9be 4ad6 203f
000000e0: 6ad0 b5bd 53e4 62be 5741 d93e a691 14be
000000f0: 41e5 853e 26e6 cbbe 663f 253e 12bf e4be
00000100: 3ef8 c73e 841c 243f 8593 a03d 38e0 eb3e
00000110: adaa 183f 6ed6 333e 1e6f 203d 4925 0c3f
00000120: 40a6 18bf f88c 8abe a2ee 753e 22ee 38bf
00000130: d928 b4be 7742 af3e 14a6 c03e 8c97 bebe
00000140: 0633 54bd 616c babe a91d 603e 4342 09be
00000150: ce7c f1be ab5c f63d 8aa5 cebe 1ff0 d4bd
00000160: 28d2 afbd d001 213f 91c0 bf3d c0ea a53d
00000170: c21d ef3e aeb0 29bf ca21 c5be 3ab7 e7be
00000180: 57a8 24bf 8d56 96be 6ef5 19bf c254 133e
00000190: 7c98 7abe 7aec 003e 2546 3ebf de55 f6be
000001a0: 9b59 e6be ee71 aebd aa8f b5bd b4b2 93be
000001b0: e431 29be 28e5 d53e a088 e23e 7c4c 323f
000001c0: 21d7 683e 44b0 2ebe 8828 abbe 7955 89bc
000001d0: ef10 babe e97b 61be 8de7 97be 3014 2c3f
000001e0: 299f 5b3e a77d e8be d4c3 9fbe 9505 013f
000001f0: 04db bbbe 0a9b 30bf 0c0f 20bf 0c45 e4bd
00000200: 53b6 94be 982b 4abd fa94 0b3e 0405 9b3e
00000210: ac65 063f e48e 243f 4ec3 c53e 2e10 14be
00000220: 99f1 a7be 159d ef3e 8ef9 86be 4915 af3e
00000230: 3d4f d73e a91e e13d a6c3 14bf 82ee 1b3e
00000240: ab59 18be 7104 aabe 4600 e03e e422 163f
00000250: da88 bfbe 7938 5e3e 13d7 07be 4906 1d3f
00000260: 9edb 28be 707b 4ebd 9533 acbe 1e3b b93e
00000270: 4736 ecbe c4de 683e e69d 84be 88e3 e1bd
00000280: 9e43 0cbe cad0 26bf 373b 0f3f f50b 2c3e
00000290: bb87 e93d d08c 8e3d 361e 08be 008a 0e3f
000002a0: d1e9 bf3e 7e65 ff3e 5e21 093e 9799 8dbe
000002b0: a9be 47bf a2bc 563e 1baa f4be f22c 013e
000002c0: 5991 1bbf 4a62 d03d dd0c fe3e d515 983e
000002d0: 99ba 383f 263b 93be 54cc e13b 804d 9b3d
000002e0: 46c5 30be 33d1 bebe 1e00 02be 562f 803d
000002f0: bdc1 d13e f93e 98be 3c50 1fbf e37d a2be
00000300: 8a8e 0b3f 93f6 b9bc 9be0 e43e 579b 1dbe
00000310: b004 763e bfea 5cbe 25c4 193f a44c d5be
00000320: fdba 523e 137d 23bf 4bb6 02bf 8f24 ce3d
00000330: fef0 d2bd b975 99be 2722 2e3f a7d6 b3bd
00000340: d0fc 0e3d b16f d4bd 40e8 d43d 6104 9dbb
00000350: b472 893e f262 353e 6ecb 8a3e 008b 9c3e
00000360: 780d 8ebe 315c 6bbe 97bd 82bd a2d2 24bf
00000370: 2b88 463e b485 1d3f f3b6 133f 58df c4be
00000380: 554d 143d 45c4 3e3d 4d0b ee3d c3e3 83be
00000390: f78b d03e 59b2 9fbb e646 00bf bee7 30be
000003a0: 5113 2f3e 3ca9 b03d 9612 31bf 8bfc 253f
000003b0: 0436 0dbf a332 33bf 44f2 bebe 416b 8dbd
000003c0: b906 d8be 7a30 d93e cfb5 413e edc7 f0be
000003d0: f824 afbd 93c2 1c3f 1996 f73e 417a 7d3e
000003e0: e473 1c3f e51b fd3d 3a23 c83e 9005 51be
000003f0: c625 ea3e c932 fabd c7c5 893e c036 47bf

decoders.0.decoder_net.0.bias f4 [512]
-0.26306236 0.3729551 0.702839 -0.6684654 0.122888654 0.0040345145 0.04969955 0.4101499
0.30289328 0.14014162 0.61243325 0.5179758 -0.09307609 -0.34933692 0.17721635 -0.36317426
-0.4300672 0.1666927 -0.69128585 0.078216605 0.17101654 -0.12621933 0.23390612 -0.25577843
-0.35831785 0.11739269 -0.1516033 -0.4526783 0.68330145 0.22833107 0.5344975 -0.66583735
-0.28729382 0.53675514 0.4541019 0.30935076 -0.5133018 -0.57757074 0.06914815 0.16778281
-0.4842995 -0.14353241 -0.47557104 -0.40037304 -0.058535084 -0.24857624 -0.2954012 0.18720084
-0.64920235 -0.5771841 -0.14527163 -0.8348264 0.037635025 -0.14008817 -0.3030066 0.4846534
0.53981245 0.5832105 0.47977465 -0.32034233 -0.36030635 0.0046196436 0.0074211597 0.726213
-0.5113374 -0.5006399 -0.3861686 -0.3222026 -0.71092266 0.007851851 0.36013225 -0.4369687
0.39113975 -0.15779437 -0.21139207 -0.12356218 -0.37771752 -0.5977686 -0.09245394 0.44384816
-0.76572883 -0.6614983 -0.41511413 -0.04741649 -0.20113814 0.47611576 0.09345542 -0.45732084
-0.4381391 -0.3662518 0.019659916 -0.28305808 -0.41919166 -0.2727504 -0.68812585 0.4924372
0.38538942 -0.062494528 0.59051615 0.5265251 0.5793903 0.44241846 -0.24805643 -0.5956993
-0.01550071 0.5334119 -0.3933325 0.41218534 0.20633742 -0.30963045 -0.56605464 -0.050487723
0.0948271 -0.4815273 0.19156878 0.46303946 -0.49499148 0.08264439 -0.13987863 -0.2037073
-0.3684269 -0.59376013 0.00020673426 0.3511153 -0.42237097 0.3006736 -0.101220414 -0.35014912
0.56496537 0.35674927 0.5992112 0.45709014 -0.23339662 -0.08698284 -0.7203221 0.4612747
0.5963294 0.04858917 -0.54803854 0.5847868 0.17324407 0.113139905 -0.30497688 0.04116856
-0.33005384 0.14617687 -0.7067693 0.65365523 0.19027384 0.5022447 -0.2526109 0.29967296
-0.047263395 0.46730494 -0.6093858 0.57361037 -0.2738598 0.411733 0.21312633 -0.5923887
0.21037483 -0.21741149 0.49086803 0.40063867 -0.64722157 0.26287594 0.40592158 -0.36115524
0.38158903 -0.6055647 -0.09335419 -0.6567382 -0.3428211 -0.23783882 -0.020143885 -0.5736035
0.23329017 0.37271053 -0.5027507 -0.27376842 -0.3028467 0.5200287 0.33686185 0.027843956
-0.2979293 0.4715259 -0.12770185 0.46070936 0.093445696 0.0794309 0.7037877 0.6746607
0.33977383 -0.17444363 0.383906 -0.004378959 0.079990536 -0.6917305 -0.73633474 0.3557154
0.084920004 0.6755574 -0.8060248 0.15087524 0.46988806 0.13002299 0.135442 -0.07062531
-0.5159227 -0.44991 0.43029198 -0.23709697 0.16186802 -0.68365896 -0.43691352 0.5535456
-0.71228415 0.05713422 0.5132117 0.13944465 -0.35752773 0.21889812 -0.079754196 -0.3371011
-0.40879458 -0.6150628 -0.52193016 0.14473093 0.6095417 -0.61252314 0.20113708 0.21833847
0.29034546 -0.11008431 0.35357836 0.14030936 -0.35862708 0.23040871 -0.2808022 -0.00077940844
0.67518127 0.61594677 0.5758889 -0.52678233 -0.4520804 -0.6023891 0.051437587 0.5351174
-0.4522099 -0.1540106 0.71397656 -0.43110192 -0.3555864 -0.5204013 0.26367566 -0.54077196
00000000: 1cb0 86be f9f3 be3e 42ed 333f 8c20 2bbf
00000010: 0cad fb3d f633 843b c191 4b3d 2bff d13e
00000020: d414 9b3e 4981 0f3e 6dc8 1c3f 109a 043f
00000030: ad9e bebd 4adc b2be 3478 353e faf1 b9be
00000040: c531 dcbe 7eb1 2a3e 1cf8 30bf 0730 a03d
00000050: f61e 2f3e a43f 01be 1685 6f3e 64f5 82be
00000060: 7075 b7be 946b f03d e53d 1bbe 73c5 e7be
00000070: d8ec 2e3f 9fcf 693e d4d4 083f 5174 2abf
00000080: 2d18 93be c968 093f 0b80 e83e 3963 9e3e
00000090: bf67 03bf addb 13bf 8c9d 8d3d 42cf 2b3e
000000a0: 1bf6 f7be 29fa 12be 0c7e f3be b2fd ccbe
000000b0: 7cc2 6fbd c58a 7ebe d33e 97be 94b1 3f3e
000000c0: 2032 26bf 56c2 13bf 16c2 14be 2fb7 55bf
000000d0: 2f27 1a3d 4673 0fbe ae23 9bbe 7e24 f83e
000000e0: 2631 0a3f 494d 153f 06a5 f53e e903 a4be
000000f0: 137a b8be 6160 973b 332d f33b 18e9 393f
00000100: 02e7 02bf f029 00bf e4b7 c5be bdf7 a4be
00000110: 07ff 35bf 0da5 003c 4163 b83e 5dba dfbe
00000120: 7843 c83e d994 21be 2a77 58be 2b0e fdbd
00000130: 3164 c1be 5d07 19bf 7e58 bdbd 1140 e33e
00000140: ce06 44bf f457 29bf d789 d4be cb37 42bd
00000150: 28f7 4dbe 72c5 f33e 8e65 bf3d f525 eabe
00000160: c553 e0be 5b85 bbbe d50d a13c fdec 90be
00000170: 4aa0 d6be f1a5 8bbe 0429 30bf bb20 fc3e
00000180: c351 c53e 43fa 7fbd 112c 173f 59ca 063f
00000190: ec52 143f ac84 e23e 8102 7ebe c07f 18bf
000001a0: b1f6 7dbc af8d 083f e162 c9be f509 d33e
000001b0: 1e4a 533e e287 9ebe f5e8 10bf 37cc 4ebd
000001c0: b634 c23d bf8a f6be 9b2a 443e 8213 ed3e
000001d0: 866f fdbe 7641 a93d 583c 0fbe a598 50be
000001e0: 73a2 bcbe aa00 18bf cec6 5839 62c5 b33e
000001f0: 0241 d8be e4f1 993e a64c cfbd bf46 b3be
00000200: 92a1 103f d7a7 b63e e865 193f b807 ea3e
00000210: 86ff 6ebe 0f24 b2bd 0767 38bf 332c ec3e
00000220: 0ba9 183f 7005 473d 414c 0cbf 96b4 153f
00000230: e566 313e e5b5 e73d ee25 9cbe 5da0 283d
00000240: d1fc a8be 64af 153e d5ee 34bf f355 273f
00000250: 25d7 423e 1c93 003f 3756 81be bc6e 993e
00000260: 4397 41bd 9842 ef3e b500 1cbf 21d8 123f
00000270: 5a37 8cbe abce d23e ca3d 5a3e c9a6 17bf
00000280: 806c 573e 1ea1 5ebe 0e53 fb3e 8320 cd3e
00000290: 50b0 25bf ad97 863e f4d4 cf3e 57e9 b8be
000002a0: a35f c33e 4a06 1bbf 7b30 bfbd ff1f 28bf
000002b0: 3f86 afbe 058c 73be ca04 a5bc aed7 12bf
000002c0: 9ee3 6e3e ead3 be3e 45b4 00bf 602b 8cbe
000002d0: b90e 9bbe 9a20 053f 2879 ac3e 0219 e43c
000002e0: 308a 98be d86b f13e 46c4 02be 19e2 eb3e
000002f0: 7560 bf3d abac a23d 6e2b 343f 90b6 2c3f
00000300: d6f6 ad3e 5aa1 32be 548f c43e 5f7d 8fbb
00000310: 14d2 a33d 4015 31bf 6f80 3cbf 5420 b63e
00000320: 8aea ad3d 54f1 2c3f a457 4ebf 0a7f 1a3e
00000330: 2b95 f03e bf24 053e 4fb1 0a3e 01a4 90bd
00000340: 8313 04bf 9b5a e6be 3b4f dc3e 8cc9 72be
00000350: bbc0 253e 4604 2fbf 21b3 dfbe 2ab5 0d3f
00000360: 4158 36bf 9205 6a3d d861 033f 94ca 0e3e
00000370: e00d b7be d426 603e 2b56 a3bd 8498 acbe
00000380: 864d d1be c174 1dbf 379d 05bf 5834 143e
00000390: ed0a 1c3f 51ce 1cbf e1f6 4d3e 1f94 5f3e
000003a0: 29a8 943e e273 e1bd 3908 b53e 42ad 0f3e
000003b0: f89d b7be 43f0 6b3e 4ec5 8fbe 3751 4cba
000003c0: aed8 2c3f b0ae 1d3f 746d 133f 35db 06bf
000003d0: 1577 e7be 2c36 1abf 38b0 523d 74fd 083f
000003e0: 0e88 e7be f4b4 1dbe 2bc7 363f 64b9 dcbe
000003f0: 6c0f b6be 0539 05bf 7f00 873e 0870 0abf

decoders.0.decoder_net.3.weight f4 [32]
0.98798895 0.9550563 1.000208 0.9783372 0.99575436 1.0199947 0.97696435 0.97888565
1.0192677 0.99265707 0.99236196 0.981033 0.96100795 0.9833233 1.0466319 1.0245166
0.98005027 1.0053313 1.0009224 1.04178 1.0101777 1.0043217 1.0305516 1.0333403
1.0073231 0.96590793 0.9881986 1.021631 1.0308208 0.98897856 1.0020959 0.96984756
00000000: d8ec 7c3f 927e 743f d106 803f 4f74 7a3f
00000010: c2e9 7e3f 308f 823f 561a 7a3f 4098 7a3f
00000020: 5d77 823f c61e 7e3f 6f0b 7e3f fb24 7b3f
00000030: 9e04 763f 13bb 7b3f 09f8 853f 5c23 833f
00000040: 93e4 7a3f b2ae 803f 3a1e 803f 0c59 853f
00000050: 814d 813f 9d8d 803f 1de9 833f 7f44 843f
00000060: f7ef 803f be45 773f 95fa 7c3f cec4 823f
00000070: f0f1 833f b32d 7d3f ae44 803f ee47 783f

decoders.0.decoder_net.3.bias f4 [32]
-0.05359131 -0.02863297 0.009319852 -0.01429027 0.0071065733 -0.00857864 0.024031848 -0.0059452048
-0.024320643 -0.015070532 0.014853228 0.017767943 0.003815158 0.011877856 0.05272079 -0.009767879
0.0068162032 -0.024445744 0.014479549 0.00037242513 0.012237305 0.049171902 -0.0049209897 0.010842814
0.0148787 0.004359096 0.014424468 -0.026282214 0.05162835 -0.014603009 -0.048352282 0.011297333
00000000: 9082 5bbd b18f eabc 4bb2 183c bd21 6abc
00000010: 42de e83b 6d8d 0cbc 70de c43c fecf c2bb
00000020: 163c c7bc 65ea 76bc f45a 733c 148e 913c
00000030: bb07 7a3b 579b 423c c1f1 573d 7409 20bc
00000040: 755a df3b 7142 c8bc a13b 6d3c 0e42 c339
00000050: fa7e 483c 7a68 493d 4140 a1bb 0fa6 313c
00000060: cac5 733c bfd6 8e3b 9b54 6c3c cc4d d7bc
00000070: 4078 533d 7641 6fbc 0b0d 46bd 7318 393c

decoders.0.decoder_net.3.running_mean f4 [32]
0.04934442 0.043295644 0.03196021 0.02666843 0.028765926 0.020958478 0.025883636 0.02511301
0.031551726 0.02794373 0.02524278 0.0463416 0.017967269 0.025315247 0.029908124 0.018288562
0.021416163 0.027452325 0.045873255 0.03138309 0.025779486 0.023227379 0.041274674 0.04345222
0.0531347 0.025350267 0.02821564 0.023714624 0.023992911 0.026893448 0.035688236 0.048602503
00000000: 601d 4a3d c656 313d b6e8 023d c077 da3c
00000010: 85a6 eb3c 1db1 ab3c eb09 d43c cdb9 cd3c
00000020: 623c 013d 40ea e43c f2c9 ce3c b1d0 3d3d
00000030: 1830 933c ec61 cf3c e201 f53c e5d1 953c
00000040: f370 af3c b3e3 e03c 98e5 3b3d 8e8b 003d
00000050: 802f d33c 5847 be3c a20f 293d f4fa 313d
00000060: c5a3 593d 5dab cf3c 7c24 e73c 2c45 c23c
00000070: c88c c43c a64f dc3c d42d 123d 6b13 473d

decoders.0.decoder_net.3.running_var f4 [32]
0.0035863072 0.00422593 0.0015370954 0.002874111 0.0010352 0.0006558705 0.0006895879 0.0009937198
0.0016832381 0.0010324133 0.0010333384 0.0032967518 0.0003528885 0.0011137532 0.001647776 0.0003322085
0.0005102368 0.0009167178 0.0021771118 0.0016956084 0.0010095191 0.0010533701 0.006710713 0.006321588
0.00864597 0.0027269032 0.0011211608 0.0011032191 0.000527014 0.0011630377 0.0018737704 0.0032977662
00000000: 4008 6b3b ac79 8a3b 5d78 c93a 955b 3c3b
00000010: 8caf 873a b9ee 2b3a 76c5 343a b43f 823a
00000020: 19a0 dc3a 0b52 873a 1571 873a 510e 583b
00000030: e503 b939 5bfb 913a 30fa d73a 452c ae39
00000040: 69c1 053a e44f 703a e0ad 0e3b 2d3f de3a
00000050: d751 843a 3c11 8a3a 8ae5 db3b 5325 cf3b
00000060: d4a7 0d3c d8b5 323b eaf3 923a e499 903a
00000070: 5027 0a3a 1271 983a 4d99 f53a 561f 583b

decoders.0.decoder_net.4.weight f4 [32, 32, 3, 3]
-0.027339438 0.032488305 -0.024695272 0.006184976 0.04246087 -0.0044495496 -0.044997208 -0.03557062
0.02977092 0.041636623 0.039970025 -0.060200073 0.014900346 0.0504813 -0.015613541 0.02508825
0.028398108 -0.04869415 -0.05246469 -0.0012646066 -0.020950114 -0.041080866 -0.030479634 -0.04406339
-0.04047857 0.026199749 -0.0027297742 -0.0072094523 -0.020842073 0.04225335 -0.05576916 0.08750462
0.0155073395 0.03004624 0.034818113 0.018591331 -0.052186668 0.040193133 0.04418577 -0.02949733
0.027079487 0.014350681 0.041362032 0.033564333 -0.015148117 -0.031463172 -0.025623888 -0.018735884
-0.041995298 0.0010044893 -0.03647475 0.038041662 -0.04603097 -0.005680337 0.0025746145 0.04670368
0.0050828904 0.055760484 -0.05854726 0.023147145 0.036831558 -0.028581023 -0.030596137 -0.012226309
-0.04736299 -0.0122384485 -0.019757727 -0.0396362 -0.050090503 -0.08028469 0.0063824644 -0.017240634
0.008480308 0.008324752 -0.052760143 -0.006467778 -0.026013372 -0.052845556 0.06348294 0.08293806
0.06800492 0.023577431 -0.004817663 0.039166596 -0.014048163 -0.11891987 0.0058198743 -0.045710217
-0.06481174 0.05294905 0.04466083 -0.022589484 -0.035848845 -0.034108322 -0.003066886 0.026579676
-0.010308942 0.059892233 0.064816825 -0.007523021 0.062553234 -0.057009645 -0.03395378 0.04231232
0.02289256 -0.023008956 0.07146827 -0.015985297 -0.010818882 -0.098426275 -0.016312247 0.014718037
-0.023639474 -0.049918693 -0.026329828 -0.058697388 0.07354284 0.086824745 -0.035297547 0.028938862
-0.030771954 0.0007262811 0.0004338675 0.008153511 -0.0028841388 -0.008558659 0.04899274 -0.020225417
0.05030674 0.024979612 0.076965794 -0.06964969 0.030979179 0.0060435324 -0.035035692 -0.052027807
0.009467811 -0.008101146 -0.046534233 0.03238636 0.0035707913 -0.03801914 0.035565175 0.027365224
0.029308561 -0.027489232 0.009070894 -0.0814344 -0.044324927 -0.0023520314 0.0308404 0.06032451
0.019779539 -0.024193494 -0.023110442 0.033772107 0.004879012 0.054137833 0.012436995 0.043672588
0.020840313 0.042954754 0.010129256 0.048276287 -0.05015456 -0.011719351 0.03417199 -0.05770471
-0.06927147 0.061710272 0.03159477 0.06153976 -0.047257718 0.027913976 -0.002791753 0.030864473
-0.01993825 -0.057741515 -0.044809528 -0.06898044 0.053104706 0.0012058828 0.03614031 0.016928792
0.05690997 0.06972197 0.030877063 0.035682134 -0.048734874 -0.02407197 -0.024015618 0.021200586
0.00973183 0.0398633 -0.017811606 -0.047775224 0.023328776 -0.030381141 0.023631064 -0.05011601
-0.027534707 0.007219391 -0.0448407 0.018674076 0.0072849984 0.008405832 -0.007661839 -0.0128509505
0.01018435 0.008068017 0.022852598 0.019133864 -0.039424784 0.012554486 0.00014676152 0.056575924
0.051473223 0.010255124 0.0050227293 -0.021835355 0.042530835 0.028977407 -0.042933892 0.0048256987
0.050284382 0.050846104 -0.03004778 0.012603382 -0.021104593 -0.034235973 -0.0013958375 0.034119375
-0.042287603 -0.027644135 0.022676464 -0.039835338 0.048434146 -0.0859011 -0.04747571 0.0781819
0.018521901 0.025280464 -0.02222037 -0.006034052 0.0031431832 -0.033154894 -0.033080727 -0.04458603
0.06502134 0.022396429 0.032470413 -0.060405932 -0.029110733 0.0014371782 0.05040128 0.05847473
00000000: f5f6 dfbc 7512 053d bd4d cabc 57ab ca3b
00000010: 73eb 2d3d 87cd 91bb fe4e 38bd 80b2 11bd
00000020: 25e2 f33c 2a8b 2a3d 9cb7 233d 5a94 76bd
00000030: 9520 743c 7bc5 4e3d f0cf 7fbc e085 cd3c
00000040: 26a3 e83c 8473 47bd 37e5 56bd 28c1 a5ba
00000050: 939f abbc 6944 28bd 6db0 f9bc d07b 34bd
00000060: dbcc 25bd dba0 d63c 03e6 32bb 453d ecbb
00000070: ffbc aabc d911 2d3d 346e 64bd 9f35 b33d
00000080: 7f12 7e3c 8823 f63c 709d 0e3d d94c 983c
00000090: b0c1 55bd 8ea1 243d 23fc 343d 62a4 f1bc
000000a0: cdd5 dd3c 1e1f 6b3c 3c6b 293d c17a 093d
000000b0: cf2f 78bc 87df 00bd 30e9 d1bc ff7b 99bc
000000c0: 4303 2cbd 11a9 833a 8c66 15bd 93d1 1b3d
000000d0: f88a 3cbd 1f22 babb ddba 283b 5c4c 3f3d
000000e0: 608e a63b 1b65 643d 40cf 6fbd 159f bd3c
000000f0: b0dc 163d c022 eabc c0a4 fabc db50 48bc
00000100: b2ff 41bd c683 48bc f5da a1bc 9159 22bd
00000110: b32b 4dbd 4d6c a4bd fe23 d13b 3b3c 8dbc
00000120: fdf0 0a3c 8a64 083c 051b 58bd a7ef d3bb
00000130: ff19 d5bc 9574 58bd 5803 823d 6edb a93d
00000140: 2a46 8b3d 7525 c13c 7ddd 9dbb 276d 203d
00000150: 442a 66bc 438c f3bd a5b4 be3b a33a 3bbd
00000160: 04bc 84bd 1ae1 583d 46ee 363d 950d b9bc
00000170: 3dd6 12bd 2bb5 0bbd cffd 48bb 9fbd d93c
00000180: d6e6 28bc 8f51 753d afbe 843d ad83 f6bb
00000190: e91b 803d f282 69bd 1e13 0bbd af4f 2d3d
000001a0: 2e89 bb3c 477d bcbc f55d 923d 99f3 82bc
000001b0: ae41 31bc b793 c9bd 43a1 85bc ec23 713c
000001c0: 92a7 c1bc 8b77 4cbd a7b1 d7bc ac6c 70bd
000001d0: a19d 963d 2cd1 b13d 2994 10bd 3111 ed3c
000001e0: 7715 fcbc e663 3e3a b678 e339 4e96 053c
000001f0: d203 3dbb 9e39 0cbc 9dac 483d c6af a5bc
00000200: 710e 4e3d 0ba2 cc3c 3ea0 9d3d 7fa4 8ebd
00000210: 0cc8 fd3c d308 c63b 9681 0fbd 1c1b 55bd
00000220: e11e 1b3c abba 04bc ae9a 3ebd 8fa7 043d
00000230: f003 6a3b f5b9 1bbd caac 113d 092d e03c
00000240: 8218 f03c 1931 e1bc 169e 143c 14c7 a6bd
00000250: 0e8e 35bd 8a24 1abb 02a5 fc3c d516 773d
00000260: b308 a23c 6f31 c6bc 1c52 bdbc 9f54 0a3d
00000270: 1ee0 9f3b a2bf 5d3d 8ac4 4b3c 07e2 323d
00000280: 4eb9 aa3c 53f1 2f3d 2ef5 253c 5bbd 453d
00000290: de6e 4dbd 8502 40bc eef7 0b3d c65b 6cbd
000002a0: 33de 8dbd e9c3 7c3d 8469 013d 1e11 7c3d
000002b0: 4f91 41bd daab e43c d8f5 36bb 7ed7 fc3c
000002c0: 8a55 a3bc 5e82 6cbd 328a 37bd 9e45 8dbd
000002d0: 5284 593d b60e 9e3a dd07 143d 40ae 8a3c
000002e0: 6e1a 693d 64ca 8e3d e5f1 fc3c 6e27 123d
000002f0: 389e 47bd 9432 c5bc 67bc c4bc daac ad3c
00000300: 4172 1f3c b347 233d a5e9 91bc f4af 43bd
00000310: fd1b bf3c dfe1 f8bc ef95 c13c 7246 4dbd
00000320: 7790 e1bc a490 ec3b e2aa 37bd 60fa 983c
00000330: ffb6 ee3b 9db8 093c 2a10 fbbb cb8c 52bc
00000340: 43dc 263c b72f 043c 5f35 bb3c 9fbe 9c3c
00000350: e27b 21bd 55b1 4d3c ffe3 1939 28bc 673d
00000360: 96d5 523d 1c05 283c b595 a43b 0fe0 b2bc
00000370: d034 2e3d 0762 ed3c 73db 2fbd e520 9e3b
00000380: fff6 4d3d 0144 503d c326 f6bc 6a7e 4e3c
00000390: 8ae3 acbc 053b 0cbd 89f4 b6ba c2c0 0b3d
000003a0: c435 2dbd f475 e2bc fec3 b93c 612a 23bd
000003b0: e262 463d eaec afbd e475 42bd d51d a03d
000003c0: 3ebb 973c fa18 cf3c 7e07 b6bc 4cb9 c5bb
000003d0: ddfd 4d3b 6dcd 07bd a87f 07bd d79f 36bd
000003e0: e929 853d b778 b73c b2ff 043d 366c 77bd
000003f0: a279 eebc b35f bc3a 9371 4e3d 3383 6f3d

decoders.0.decoder_net.4.bias f4 [32]
0.045167122 0.082454555 -0.013225142 -0.10106294 -0.06757983 -0.0045442116 -0.05447237 0.04744104
-0.009085866 -0.032022435 0.07141676 -0.01989988 0.0052095647 0.039182365 -0.007974795 -0.018092617
0.022502521 0.048191708 -0.108682275 -0.0122954035 -0.019695502 2.264126e-05 0.09531796 -0.028570957
0.032595273 -0.009344328 -0.029338544 0.024333162 -0.0044928864 -0.003948272 0.018279113 -0.043512832
00000000: 2901 393d efdd a83d 44ae 58bc 16fa cebd
00000010: 4b67 8abd 9ce7 94bb 6b1e 5fbd 8951 423d
00000020: e2dc 14bc f529 03bd f342 923d 1305 a3bc
00000030: ffb4 aa3b b07d 203d b7a8 02bc f836 94bc
00000040: 3557 b83c ab64 453d d094 debd a972 49bc
00000050: 7658 a1bc bced bd37 1036 c33d a40d eabc
00000060: 9f82 053d f418 19bc 6357 f0bc 5756 c73c
00000070: 1039 93bb 8260 81bb 14be 953c 833a 32bd

decoders.0.decoder_net.6.weight f4 [32]
0.9411545 0.9650638 0.94498754 0.9858681 0.97402406 0.9858662 0.94707704 0.94383746
0.97095823 0.9387706 0.9684662 0.97551876 0.9416489 0.92159915 0.95517564 0.9999416
0.96737576 0.9386444 0.9509156 0.9087765 0.953296 0.96526104 0.9887429 0.9195574
0.9644627 0.9365016 0.956389 0.97822195 1.0036378 0.9927863 0.9148114 0.9681489
00000000: 80ef 703f 6c0e 773f b4ea 713f da61 7c3f
00000010: a459 793f ba61 7c3f a473 723f 559f 713f
00000020: b890 783f 4553 703f 67ed 773f 99bb 793f
00000030: e70f 713f eced 6b3f 6486 743f 2cfc 7f3f
00000040: f0a5 773f 004b 703f 346f 733f 94a5 683f
00000050: 350b 743f 591b 773f 411e 7d3f 1d68 6b3f
00000060: 07e7 763f 92be 6f3f e9d5 743f c16c 7a3f
00000070: 3477 803f 3e27 7e3f 1431 6a3f 9bd8 773f

decoders.0.decoder_net.6.bias f4 [32]
0.007783442 0.065645725 0.01369361 0.020781083 -0.011543949 0.015214724 -0.023498483 0.032799102
-0.07803741 -0.03857587 0.001499436 -0.04597869 0.01798895 -0.052316148 0.040793497 -0.08847478
-0.025675217 0.02382434 -0.012302551 -0.012155886 0.027362749 -0.081345364 -0.017985929 -0.0336061
-0.002079882 0.06364396 -0.008608527 -0.04083048 0.032357085 0.014836834 0.045003764 0.04896423
00000000: 3e0c ff3b 4471 863d 2a5b 603c 173d aa3c
00000010: d522 3dbc 2d47 793c e47f c0bc 5a58 063d
00000020: 14d2 9fbd bb01 1ebd b988 c43a 2754 3cbd
00000030: 905d 933c 7549 56bd 1517 273d 4432 b5bd
00000040: d554 d2bc 432b c33c a490 49bc 7b29 47bc
00000050: d827 e03c 6698 a6bd 3a57 93bc 8da6 09bd
00000060: a14e 08bb c457 823d c70a 0dbc dd3d 27bd
00000070: dd88 043d 3116 733c de55 383d b78e 483d

decoders.0.decoder_net.6.running_mean f4 [32]
0.032091137 0.034334913 0.031926975 0.02760575 0.028734298 0.03196822 0.029541 0.033583853
0.029180408 0.030393878 0.03211389 0.029037282 0.03119878 0.03352696 0.03164646 0.03156172
0.032021955 0.033967648 0.028412148 0.030421957 0.03235472 0.03152825 0.03508251 0.029968305
0.03241593 0.030064024 0.030683711 0.032280993 0.030372616 0.030258916 0.031893577 0.029826982
00000000: ff71 033d c4a2 0c3d dcc5 023d 7425 e23c
00000010: 3164 eb3c 1cf1 023d f8ff f13c 398f 093d
00000020: c00b ef3c 95fc f83c db89 033d 98df ed3c
00000030: 9594 ff3c 9153 093d b89f 013d dd46 013d
00000040: 7429 033d a921 0b3d 98c0 e83c 7837 f93c
00000050: 6286 043d c423 013d aeb2 0f3d 1780 f53c
00000060: 91c6 043d d448 f63c 685c fb3c 1339 043d
00000070: fecf f83c 8ce1 f73c d7a2 023d b757 f43c

decoders.0.decoder_net.6.running_var f4 [32]
0.00018636345 0.00029222167 0.00015358756 0.000107626736 0.00010343278 0.0002917509 0.00013840779 0.00027595577
9.035709e-05 0.00014079297 0.0001398604 9.9709796e-05 0.000110307235 0.00033189333 0.00022578034 0.00017900507
0.00015045652 0.00023006629 0.00012204685 0.00015264117 0.00028994016 0.0001508811 0.0002317234 0.000110952504
0.00012912096 0.00012004937 0.0001447136 0.00015408406 0.0001530356 0.0001534839 0.00013246996 0.00020157633
00000000: 8f6a 4339 5435 9939 590c 2139 aab5 e138
00000010: 0dea d838 25f6 9839 8f21 1139 28ae 9039
00000020: 187e bd38 d3a1 1339 7ea7 1239 4a1b d138
00000030: bf54 e738 f801 ae39 73bf 6c39 4fb3 3b39
00000040: ddc3 1d39 f33d 7139 67f3 ff38 4d0e 2039
00000050: 1c03 9839 d635 1e39 c7fa 7239 2caf e838
00000060: a564 0739 04c3 fb38 43be 1739 a091 2139
00000070: 2e78 2039 85f0 2039 a2e7 0a39 3c5e 5339

decoders.0.decoder_net.7.weight f4 [32, 16, 3, 3]
-0.07800578 -0.045814794 0.048121035 -0.032823972 -0.02920788 0.013666442 -0.022076992 -0.061720043
-0.011259526 0.042467546 -0.09193988 -0.033986546 0.05072464 -0.06047813 0.07560347 -0.11588602
0.075480044 -0.013918386 -0.009774083 0.037791114 -0.054140784 -0.07664504 -0.028129747 0.039858285
0.034818415 0.032602273 -0.036377333 0.055806328 0.048407845 0.032813486 0.07751465 -0.0069950083
0.022814393 -0.0042622555 -0.11270097 -0.01524105 -0.01351702 0.08454304 -0.04404686 -0.008591492
-0.04867654 0.020391826 0.023405805 -0.013469332 0.0066013876 -0.09133025 -0.019805642 -0.035265204
-0.055367976 0.061002593 -0.04893125 0.0045878217 -0.07020453 0.013156896 0.09469661 0.060967274
-0.02140077 -0.001537666 0.0071963696 0.0563374 0.011029471 -0.0045518805 -0.0031945866 0.048773225
-0.02329259 0.038669653 0.012864274 -0.015339164 -0.019371923 0.071707845 -0.07101429 -0.030052735
0.023173785 0.039645165 0.067633055 -0.10034932 -0.0031461222 0.04522224 0.018468019 0.05959517
-0.034075655 0.04667702 0.0012646817 -0.05670048 -0.039891466 -0.017263468 0.033986717 -0.051874544
0.025197053 -0.04774681 0.049355593 -0.041496173 -0.0866327 -0.059499986 -0.0023913626 0.027964719
-0.059242494 -0.021111388 -0.010853026 0.033493944 0.046157155 0.008320248 -0.003876027 -0.07814159
0.06138073 -0.053937748 0.014199905 -0.0757425 -0.08781163 -0.023513759 0.032468133 0.013777523
-0.046800528 0.037671357 0.029071838 0.045771774 -0.0337725 -0.08867203 0.019930141 -0.031610813
-0.043592114 0.037033215 -0.0070902063 -0.05044699 0.024189353 0.045550235 -0.07791102 -0.021280058
-0.025234522 -0.044191893 -0.008131692 0.10044895 -0.015422614 -0.045530356 0.02196227 0.046072096
-0.035922628 -0.00017620817 -0.057993263 -0.05419849 -0.02663653 0.07003255 0.0055351616 -0.0704242
-0.03630195 0.01389765 0.032257628 0.005961455 0.100697376 -0.017375335 -0.0061585098 0.034290195
-0.052013535 0.06387231 -0.04931512 0.07365469 -0.042967524 -0.068905 -0.075094685 -0.036577787
-0.027385501 0.048990965 -0.07701683 -0.05915515 -0.026484538 0.014834004 0.026031347 0.09075646
0.096053466 0.030910557 0.065937564 0.056722946 -0.026293632 0.07537344 0.063986085 0.015660923
0.0766151 -0.01479256 0.018710813 0.033876307 0.0511471 -0.023340642 0.0041938685 0.06620163
-0.019448142 -0.042936653 -0.019603083 -0.047766693 -0.056044936 0.051274117 -0.056838304 0.03492405
-0.04411766 0.032853425 0.0140831955 -0.10061417 -0.027545055 -0.0133728525 0.028139913 -0.07626247
-0.05338156 0.008747642 0.0075729243 0.06907862 -0.011894794 -0.0022099512 0.008392497 0.05395652
-0.019666588 0.00839037 -0.080248155 0.09209906 -0.101307005 -0.026454829 -0.027523942 0.010620244
-0.053544406 0.076251544 0.07388044 0.013652962 0.011321529 0.033282135 0.048167728 -0.055860028
-0.03160166 -0.02814879 -0.03880714 0.050952528 0.036270574 0.048097976 -0.051269583 -0.030431034
-0.017885707 0.07082231 -0.030842977 0.03221439 0.017538296 -0.11099859 0.041354902 -0.0035518026
-0.0044304747 -0.035239067 -0.0019795801 -0.022821775 -0.056099948 0.049372166 -0.03198759 -0.055121854
-0.024788659 0.012992449 -0.0584514 0.0543824 0.050972372 0.058713477 -0.07437226 0.015772423
00000000: 7fc1 9fbd 4ba8 3bbd 901a 453d 6e72 06bd
00000010: 5d45 efbc 36e9 5f3c cfda b4bc 28ce 7cbd
00000020: e079 38bc 73f2 2d3d fa4a bcbd 7a35 0bbd
00000030: a4c4 4f3d eab7 77bd fed5 9a3d a655 edbd
00000040: 4895 9a3d f109 64bc 7a23 20bc dbca 1a3d
00000050: bac2 5dbd 13f8 9cbd 5b70 e6bc 7142 233d
00000060: c19d 0e3d f689 053d 6600 15bd 2d95 643d
00000070: 4e47 463d 6f67 063d 00c0 9e3d 6236 e5bb
00000080: 40e5 ba3c 64aa 8bbb c4cf e6bd 99b5 79bc
00000090: 7e76 5dbc e724 ad3d 7b6a 34bd 54c3 0cbc
000000a0: 0d61 47bd c20c a73c 88bd bf3c 79ae 5cbc
000000b0: 7450 d83b 5b0b bbbd 713f a2bc 3f72 10bd
000000c0: 88c9 62bd dbdd 793d 226c 48bd 7055 963b
000000d0: 65c7 8fbd 0690 573c 4cf0 c13d d2b8 793d
000000e0: ab50 afbc 828b c9ba 86cf eb3b 0cc2 663d
000000f0: f4b4 343c f127 95bb 455c 51bb 6fc6 473d
00000100: 1ad0 bebc 1264 1e3d adc4 523c 1e51 7bbc
00000110: deb1 9ebc 90db 923d f16f 91bd 2731 f6bc
00000120: f3d6 bd3c f862 223d 3383 8a3d f283 cdbd
00000130: 2c2f 4ebb f53a 393d 3e4a 973c 111a 743d
00000140: ea92 0bbd 6730 3f3d adc3 a53a c33e 68bd
00000150: 3c65 23bd 1e6c 8dbc a835 0b3d 677a 54bd
00000160: 0d6a ce3c 2992 43bd 1729 4a3d e4f7 29bd
00000170: 7c6c b1bd 42b6 73bd 68b8 1cbb 4416 e53c
00000180: 42a8 72bd caf1 acbc e4d0 31bc f230 093d
00000190: 490f 3d3d a651 083c f104 7ebb b308 a0bd
000001a0: 5c6a 7b3d d4ed 5cbd b8a6 683c e21e 9bbd
000001b0: 95d6 b3bd ed9f c0bc 4efd 043d 1fbb 613c
000001c0: e9b1 3fbd 484d 1a3d 1028 ee3c 2f7b 3b3d
000001d0: 0855 0abd ae99 b5bd 8944 a33c 577a 01bd
000001e0: a58d 32bd 24b0 173d f654 e8bb 81a1 4ebd
000001f0: c028 c63c e292 3a3d d08f 9fbd 8453 aebc
00000200: a1b8 cebc 8f02 35bd ca3a 05bc 2eb8 cd3d
00000210: 22af 7cbc 0a7e 3abd 38ea b33c 18b6 3c3d
00000220: 9b23 13bd 85c4 38b9 588a 6dbd 3cff 5dbd
00000230: da34 dabc 3a6d 8f3d 4d60 b53b 903a 90bd
00000240: 5bb1 14bd f8b2 633c 9320 043d 4f58 c33b
00000250: 6d3a ce3d b856 8ebc 53cd c9bb e073 0c3d
00000260: 250c 55bd 7ccf 823d a7fe 49bd 45d8 963d
00000270: b7fe 2fbd 111e 8dbd 3ecb 99bd 97d2 15bd
00000280: 8f57 e0bc c0aa 483d 00bb 9dbd ac4c 72bd
00000290: 1af6 d8bc 530a 733c b13f d53c 86de b93d
000002a0: aeb7 c43d 2338 fd3c 460a 873d 5256 683d
000002b0: be65 d7bc 645d 9a3d 230b 833d 564b 803c
000002c0: 61e8 9c3d 7e5c 72bc 6b47 993c e2c1 0a3d
000002d0: 9f7f 513d e034 bfbc b86c 893b b894 873d
000002e0: b651 9fbc 58de 2fbd a596 a0bc 02a7 43bd
000002f0: 608f 65bd cf04 523d 48cf 68bd 850c 0f3d
00000300: b8b4 34bd 5091 063d 34bd 663c cd0e cebd
00000310: 2ba6 e1bc cf19 5bbc ad85 e63c 7f2f 9cbd
00000320: 9fa6 5abd 4552 0f3c 4b26 f83b 1779 8d3d
00000330: 62e2 42bc d4d4 10bb af80 093c 8301 5d3d
00000340: d31b a1bc c377 093c 2559 a4bd 6f9e bc3d
00000350: 0c7a cfbd ccb7 d8bc e479 e1bc 8800 2e3c
00000360: 6151 5bbd c529 9c3d a14e 973d acb0 5f3c
00000370: ef7d 393c d952 083d 864b 453d 7ccd 64bd
00000380: be70 01bd 4b98 e6bc 3cf4 1ebd 99b3 503d
00000390: 7490 143d 6202 453d 0e00 52bd 814a f9bc
000003a0: 0c85 92bc 4a0b 913d 69aa fcbc 3cf3 033d
000003b0: 79ac 8f3c 3b53 e3bd c263 293d 5cc5 68bb
000003c0: 842d 91bb d756 10bd d8bb 01bb bbf4 babc
000003d0: 0fc9 65bd 783a 4a3d 6b05 03bd 74c7 61bd
000003e0: 9611 cbbc 48de 543c bc6a 6fbd 14c0 5e3d
000003f0: 68c8 503d 8b7d 703d 7c50 98bd 2b35 813c

decoders.0.decoder_net.7.bias f4 [16]
-0.092373766 0.049508117 0.09769745 0.019695079 -0.009192314 0.024447482 0.13597623 0.02234032
-0.06633679 -0.055433225 0.0992297 -0.054992627 -0.016441168 -0.10433036 -0.15336934 -0.11898599
00000000: 752e bdbd 06c9 4a3d 9a15 c83d 9357 a13c
00000010: 5c9b 16bc 1646 c83c 5a3d 0b3e 0c03 b73c
00000020: 95db 87bd f30d 63bd f138 cb3d f33f 61bd
00000030: a1af 86bc 28ab d5bd da0c 1dbe edae f3bd

decoders.0.decoder_net.9.weight f4 [16]
0.9477253 0.9593844 0.9464075 0.9658744 0.9513193 0.953831 0.97705805 0.9448636
0.9669157 0.9597648 0.9501991 0.9419121 0.95195144 0.9411949 0.9350822 0.9679613
00000000: 209e 723f 379a 753f c347 723f 8b43 773f
00000010: a989 733f 452e 743f 7a20 7a3f 95e2 713f
00000020: ca87 773f 25b3 753f 4040 733f 2721 713f
00000030: 17b3 733f 26f2 703f 8c61 6f3f 50cc 773f

decoders.0.decoder_net.9.bias f4 [16]
-0.03718807 -0.05365637 0.06812863 -0.063444816 -0.04491261 0.054555163 0.05512254 0.029889671
-0.059939757 -0.03453368 0.055294286 0.005748853 -0.03917347 0.08646224 -0.115577035 -0.053239234
00000000: 8552 18bd c8c6 5bbd 0687 8b3d 5bef 81bd
00000010: 49f6 37bd 3c75 5f3d 2cc8 613d 2fdb f43c
00000020: 6483 75bd 3073 0dbd 437c 623d e060 bc3b
00000030: 5c74 20bd 1d13 b13d a7b3 ecbd 6211 5abd

decoders.0.decoder_net.9.running_mean f4 [16]
0.057441838 0.06634935 0.06916258 0.06818915 0.06327416 0.061570972 0.07248628 0.06405239
0.061194535 0.059549287 0.07011348 0.060161415 0.062246952 0.055251893 0.054347623 0.054607853
00000000: 2248 6b3d 2be2 873d 1ca5 8d3d c1a6 8b3d
00000010: e295 813d d831 7c3d b073 943d e62d 833d
00000020: 1fa7 7a3d f4e9 733d a897 8f3d d16b 763d
00000030: a9f6 7e3d cf4f 623d 9d9b 5e3d 7cac 5f3d

decoders.0.decoder_net.9.running_var f4 [16]
0.0008200827 0.0008691359 0.0014056109 0.0016384365 0.0011099904 0.00051372434 0.0013316908 0.00096967194
0.0011634037 0.0009971216 0.0009838835 0.0008989047 0.0009961369 0.00045289792 0.00059453637 0.000556302
00000000: d2fa 563a b9d6 633a 7a3c b83a cec0 d63a
00000010: 197d 913a 75ab 063a 218c ae3a 9531 7e3a
00000020: 5a7d 983a d9b1 823a a7f5 803a 79a4 6b3a
00000030: cf90 823a ee72 ed39 a9da 1b3a ccd4 113a

decoders.0.decoder_net.10.weight f4 [16, 1, 3, 3]
-0.2250781 0.20563243 0.27429613 0.18976201 0.15119152 0.1861395 0.04509391 -0.034505416
-0.14380714 0.016812796 0.1485061 -0.04547616 0.2054338 0.23442438 0.20349069 -0.023731027
-0.008320066 -0.10527837 0.15230915 0.14437652 -0.29841596 0.21622843 0.046551365 -0.21353398
-0.25057888 -0.22953211 -0.2348108 0.14988123 0.08827658 -0.19111356 0.111063145 0.19464622
0.17551644 -0.1289689 0.014636338 0.099034905 0.14492434 0.25401697 0.03701592 -0.15049577
0.001324717 0.22570756 -0.20512277 -0.06543135 0.028609296 0.12946914 0.14723164 -0.103713386
-0.13800386 -0.06610627 -0.28173706 -0.0974039 -0.13065882 -0.2828259 -0.099815555 -0.20230854
-0.27435592 -0.0397142 -0.14986835 -0.056685206 -0.08555602 0.02735206 -0.15966299 -0.011065873
-0.095279515 -0.20476264 -0.14318943 0.12724116 -0.20233963 -0.17071396 0.0036778795 0.033425514
0.099354506 0.27305445 -0.19130205 0.21668577 0.3043853 0.12050591 0.1180334 0.26555136
-0.038978893 0.014683092 -0.1846521 -0.080050014 0.200674 0.07099952 0.09962684 -0.121546805
0.13217154 -0.21547118 -0.015650637 0.25479198 -0.17594977 -0.124122724 -0.033581562 0.07082845
0.09269911 0.109466456 -0.2854524 -0.016759519 0.060754012 -0.07574208 -0.15044697 -0.010117625
-0.25673574 -0.2265269 -0.065746196 0.25658438 0.2103655 0.29620135 -0.15177809 0.17480947
0.04865594 -0.1734352 -0.2013008 0.1719444 -0.12730734 -0.0746298 -0.14820671 -0.03876138
0.13368386 -0.19826512 0.20475073 -0.2631008 -0.25717613 0.17551336 -0.058686856 -0.24276958
-0.13753842 -0.22878847 0.22288457 0.18702333 0.09279735 -0.009174174 0.01573348 0.23119926
0.08199945 -0.20955594 0.17021064 0.07546574 -0.12070853 0.023637332 0.097750425 -0.010287777
00000000: e07a 66be 4f91 523e 8b70 8c3e f950 423e
00000010: f3d1 1a3e 5a9b 3e3e 64b4 383d 8d55 0dbd
00000020: 2e42 13be fdba 893c fc11 183e 3645 3abd
00000030: 3d5d 523e f20c 703e dd5f 503e 9267 c2bc
00000040: e350 08bc 309c d7bd eef6 1b3e 70d7 133e
00000050: fac9 98be fc6a 5d3e a5ac 3e3d a7a8 5abe
00000060: e04b 80be 770a 6bbe 3e72 70be 777a 193e
00000070: 5aca b43d 46b3 43be 1375 e33d 5751 473e
00000080: 95ba 333e 6c10 04be 40cd 6f3c d0d2 ca3d
00000090: 0c67 143e 830e 823e 019e 173d 901b 1abe
000000a0: 20a2 ad3a e21f 673e b40b 52be df00 86bd
000000b0: 0b5e ea3c 8f93 043e e4c3 163e af67 d4bd
000000c0: e250 0dbe b962 87bd d73f 90be b27b c7bd
000000d0: 6dcb 05be 8ece 90be 196c ccbd f829 4fbe
000000e0: 6178 8cbe 5bab 22bd 1777 19be bf2e 68bd
000000f0: ff37 afbd 6d11 e03c b27e 23be a34d 35bc
00000100: e821 c3bd 4cad 51be 40a0 12be 824b 023e
00000110: 1f32 4fbe a4cf 2ebe 9408 713b 31e9 083d
00000120: 607a cb3d cbcd 8b3e afe4 43be e0e2 5d3e
00000130: 64d8 9b3e cdcb f63d 7fbb f13d 59f6 873e
00000140: 55a8 1fbd 5a91 703c 7115 3dbe 43f1 a3bd
00000150: 7c7d 4d3e 3268 913d 2809 cc3d 88ed f8bd
00000160: fa57 073e 7aa4 5cbe c435 80bc 1874 823e
00000170: 2d2c 34be 0e34 febd d28c 09bd 820e 913d
00000180: 08d9 bd3d f32f e03d d126 92be 424b 89bc
00000190: 33d9 783d aa1e 9bbd c50e 1abe 65c4 25bc
000001a0: de72 83be abf6 67be f1a5 86bd 075f 833e
000001b0: 0e6a 573e b4a7 973e b76b 1bbe 4101 333e
000001c0: 734b 473d ff98 31be cc21 4ebe 3112 303e
000001d0: db5c 02be 82d7 98bd 80c3 17be 41c4 1ebd
000001e0: 6ce4 083e 0306 4bbe 2daa 513e 26b5 86be
000001f0: 97ac 83be c6b9 333e a161 70bd 9798 78be
00000200: dfd6 0cbe 8647 6abe da3b 643e 0b83 3f3e
00000210: 890c be3d 464f 16bc 80e3 803c 80bf 6c3e
00000220: 54ef a73d d595 56be b34b 2e3e c88d 9a3d
00000230: 0936 f7bd 14a3 c13c 6031 c83d 108e 28bc

decoders.1.decoder_net.0.weight f4 [512, 2]
-0.21877003 0.64793473 0.47980398 0.47009382 0.43992075 0.5587676 -0.6374192 -0.084652156
-0.24284261 -0.24697335 0.517956 0.32471585 -0.04575036 0.34636483 0.3638749 -0.7661465
0.2703016 0.59379095 -0.2721534 0.014130241 0.14670451 0.59498644 -0.41574758 0.58188677
0.17279525 -0.41611305 -0.52767473 -0.63136053 -0.4759086 0.45392576 -0.26270923 0.58653945
0.65437365 0.37749666 0.5764604 0.5564848 0.16932863 0.69104266 -0.15179498 -0.34902146
0.35406747 -0.6913776 0.5122364 -0.7588166 0.15916903 -0.47004345 -0.34408316 -0.4861544
-0.057901803 -0.05314 0.4826788 -0.5726012 -0.27288175 0.012587542 -0.24743421 -0.31357297
0.32753617 0.043601956 0.3670353 -0.5890771 0.53183496 0.61361986 0.6108597 0.25966075
0.44316444 -0.25129744 -0.47493115 0.45718727 0.5314533 0.63314706 0.6163023 0.5489789
-0.14637895 -0.69148487 0.74915606 0.41805997 -0.18470272 -0.5113371 0.57466567 0.6424175
0.449401 -0.2067775 -0.3012265 0.23692647 0.4035876 0.37911132 -0.2618767 0.57255614
-0.5673102 0.5818288 -0.00826766 -0.5944661 -0.1952825 0.011041473 -0.6256848 0.5123405
0.20588669 0.66423583 -0.5773035 0.3682266 0.07899286 0.47633308 -0.19309801 0.13491197
-0.6129757 -0.512816 -0.24938077 0.0049837725 -0.67700857 -0.55660194 0.73121285 -0.30906537
-0.21483915 -0.22293162 -0.26210424 -0.21151789 -0.69377023 -0.38959724 -0.38218415 -0.66933274
-0.41269007 0.18175152 0.6011211 -0.127628 0.15416464 0.48261863 -0.4278004 0.34820873
-0.6951605 -0.5563956 0.23813042 -0.28545716 0.17143588 0.61577433 0.4990062 -0.14683068
-0.19457409 -0.6787914 0.14924403 0.29916266 0.6989149 0.71599746 0.46631 -0.53527695
0.47136816 0.48678148 0.022907292 -0.028092751 -0.62155366 0.05163863 0.53852683 0.37038964
-0.27995732 -0.46379405 -0.37022778 -0.45814297 -0.057356417 -0.26577306 0.37475753 0.6960249
0.49412128 0.5758633 0.57273763 0.60400295 -0.4525537 -0.46536374 -0.2896107 -0.2812267
-0.6327705 -0.55342466 -0.19450732 -0.6203176 0.41875163 0.06913276 -0.16912626 0.33719677
0.57199204 -0.59194624 -0.5640328 0.41716936 0.38077876 0.6051693 0.17188528 -0.22191647
-0.21801318 -0.31603196 0.09372508 0.5003713 -0.40839073 -0.40118307 -0.61875784 -0.697187
-0.45573145 -0.059949055 0.6767903 -0.20545226 -0.33654895 -0.5658585 0.5301934 0.60338545
0.05713635 0.38013795 0.21679492 -0.14064763 -0.3591889 -0.36023563 0.39780086 0.57522976
-0.42185703 -0.5144376 -0.15783937 0.6472124 0.32217088 0.32279068 0.21145216 -0.3690247
0.35713586 0.43740866 0.49636945 0.043026384 -0.27513576 0.0069052014 0.52945775 -0.3014284
0.20072731 -0.67204255 0.14580972 -0.32026547 -0.4149732 0.5169929 0.043745663 0.32849953
0.54873043 0.038474154 0.349498 0.11619184 -0.12947647 0.3597561 -0.63411343 -0.22178355
-0.24688847 0.3738818 -0.53928196 -0.23851192 0.26305038 -0.45832738 0.5235343 0.24699427
0.04673866 0.44238302 0.21038577 0.10973227 0.70255965 0.34122756 0.21632409 -0.24746214
00000000: 4005 60be 0ddf 253f dea8 f53e 23b0 f03e
00000010: 4b3d e13e 650b 0f3f e82d 23bf 1c5e adbd
00000020: bcab 78be 95e6 7cbe c498 043f 2841 a63e
00000030: bb64 3bbd bb56 b13e d04d ba3e 2d22 44bf
00000040: f964 8a3e af02 183f b157 8bbe 8782 673c
00000050: b539 163e 0851 183f dedc d4be 88f6 143f
00000060: 3df1 303e c50c d5be b115 07bf d8a0 21bf
00000070: 4baa f3be f568 e83e d381 86be 7327 163f
00000080: 0885 273f 3e47 c13e e992 133f ca75 0e3f
00000090: 7c64 2d3e 2ce8 303f 2570 1bbe f1b2 b2be
000000a0: 5548 b53e 1ffe 30bf ed21 033f ce41 42bf
000000b0: 35fd 223e 89a9 f0be ab2b b0be 3be9 f8be
000000c0: 712a 6dbd 54a9 59bd ad21 f73e fe95 12bf
000000d0: 28b7 8bbe fa3b 4e3c 655f 7dbe a38c a0be
000000e0: d2b2 a73e f797 323d 0dec bb3e c2cd 16bf
000000f0: 5626 083f 3116 1d3f 4d61 1c3f 41f2 843e
00000100: 73e6 e23e 0faa 80be 2d2a f3be 7314 ea3e
00000110: 530d 083f ed15 223f fdc5 1d3f e289 0c3f
00000120: 5de4 15be 2705 31bf b1c8 3f3f f50b d63e
00000130: b622 3dbe fde6 02bf 4a1d 133f 7975 243f
00000140: e317 e63e 7bbd 53be 5c3a 9abe da9c 723e
00000150: 09a3 ce3e e11a c23e b414 86be 0a93 123f
00000160: 3e3b 11bf bbf2 143f 1475 07bc ee2e 18bf
00000170: 23f8 47be 4be7 343c e12c 20bf bf28 033f
00000180: f6d3 523e 5c0b 2a3f 2aca 13bf 3288 bc3e
00000190: 02c7 a13d eee1 f33e 7cbb 45be 5d26 0a3e
000001a0: faeb 1cbf e947 03bf ac5d 7fbe ea4e a33b
000001b0: 6f50 2dbf 777d 0ebf c430 3b3f d13d 9ebe
000001c0: cbfe 5bbe 3048 64be 8732 86be 2598 58be
000001d0: ed9a 31bf 4a79 c7be a4ad c3be 6459 2bbf
000001e0: 1d4c d3be 121d 3a3e 13e3 193f eab0 02be
000001f0: 56dd 1d3e ca19 f73e a708 dbbe 6a48 b23e
00000200: 0af6 31bf f16f 0ebf 76d8 733e 7127 92be
00000210: e38c 2f3e 63a3 1d3f be7d ff3e c85a 16be
00000220: 6e3e 47be 46c5 2dbf 6dd3 183e d92b 993e
00000230: 16ec 323f 9c4b 373f 2fc0 ee3e e907 09bf
00000240: 2b57 f13e 6c3b f93e 13a8 bb3c c522 e6bc
00000250: 241e 1fbf 0783 533d e5dc 093f b6a3 bd3e
00000260: 9156 8fbe 6a76 edbe 7f8e bdbe b791 eabe
00000270: 90ee 6abd 6813 88be 38e0 bf3e b02e 323f
00000280: 77fd fc3e c76b 133f ef9e 123f f09f 1a3f
00000290: 1eb5 e7be 2844 eebe db47 94be f2fc 8fbe
000002a0: 3ffd 21bf 3dad 0dbf ed2c 47be 22cd 1ebf
000002b0: 9d66 d63e 7a95 8d3d 6f2f 2dbe 0ea5 ac3e
000002c0: 126e 123f ca89 17bf 7464 10bf 3997 d53e
000002d0: 6ff5 c23e 60ec 1a3f b202 303e 123e 63be
000002e0: d93e 5fbe f1ce a1be eff2 bf3d 5518 003f
000002f0: 9718 d1be de67 cdbe ea66 1ebf d97a 32bf
00000300: a255 e9be 248d 75bd 2142 2d3f 1462 52be
00000310: 2550 acbe 1adc 10bf c1ba 073f 7877 1a3f
00000320: ce07 6a3d 71a1 c23e 7dff 5d3e ef05 10be
00000330: 9ce7 b7be ce70 b8be 8eac cb3e 4242 133f
00000340: a5fd d7be 2fb2 03bf a5a0 21be b6af 253f
00000350: 95f3 a43e d244 a53e ea86 583e cef0 bcbe
00000360: 83da b63e 07f4 df3e 2324 fe3e 6f3c 303d
00000370: 98de 8cbe 0745 e23b 8b8a 073f d354 9abe
00000380: 768b 4d3e fb0a 2cbf 254f 153e d6f9 a3be
00000390: 5e77 d4be a659 043f a72e 333d 1731 a83e
000003a0: 9979 0c3f 1397 1d3d 67f1 b23e fdf5 ed3d
000003b0: 7b95 04be f431 b83e 4255 22bf 3a1b 63be
000003c0: 55d0 7cbe 6f6d bf3e 620e 0abf 783c 74be
000003d0: 8aae 863e e3a9 eabe 5806 063f 11ec 7c3e
000003e0: 0a71 3f3d 0780 e23e 5e6f 573e 50bb e03d
000003f0: f3da 333f 61b5 ae3e 1084 5d3e b766 7dbe

decoders.1.decoder_net.0.bias f4 [512]
0.62673694 -0.017390404 0.29535624 0.5081579 0.6828208 -0.29921085 -0.25034606 -0.2957521
-0.5924559 -0.24662429 -0.5163744 -0.4507365 0.014090665 -0.16901672 -0.7113172 -0.00710982
0.13181674 -0.34461206 -0.34158418 0.44553822 -0.6670583 -0.12933514 -0.17163794 -0.3488383
0.035555568 -0.34448233 0.47344798 0.29809847 0.27162495 0.13923666 0.6076751 -0.6890073
0.40560904 -0.7003941 -0.26255217 -0.47381908 -0.27219683 -0.26698166 0.63802433 -0.13131814
-0.25198475 -0.3327068 -0.5473538 -0.66896564 0.44697565 0.11286166 -0.40414757 0.50556064
-0.27604172 0.14081 0.12759499 0.4457954 0.059607554 -0.64619267 0.4506049 0.042754047
-0.42723018 0.68649495 -0.24459368 -0.18670088 0.5182081 0.20983863 0.7211826 0.11327284
-0.5749099 -0.45615375 -0.22221506 -0.6182888 -0.32812643 0.48474717 0.28230485 0.5345282
0.3158293 0.0009874433 -0.7401746 0.25950035 0.16586211 0.50619483 -0.22180265 0.35355017
0.30622584 -0.052879438 -0.62808186 -0.38469952 0.5507959 0.21105589 0.7208863 -0.4008329
0.24769019 -0.5068057 0.30309564 0.28023276 0.44439214 0.30796778 0.13312306 -0.23222516
-0.52750105 -0.37390476 -0.027840404 0.10554465 -0.21559444 -0.5831936 -0.28998065 0.37961653
-0.23726128 -0.085966356 -0.1750256 -0.32897243 0.029427567 -0.3442028 -0.20685229 0.42383987
0.22546834 -0.6971956 0.4521192 0.30432057 0.32255286 0.5695853 0.6223478 0.3948682
0.21398208 -0.055538367 0.46278659 -0.038897052 0.095337026 0.5529028 0.36993435 0.4655722
-0.43024933 0.02989651 -0.50162584 -0.56498224 -0.44747442 -0.11620166 0.47284076 0.41833648
-0.48657548 0.1691832 0.10065746 -0.059881892 -0.15347351 -0.54815686 -0.28584734 -0.0123171685
-0.48309803 -0.0060073235 0.325871 -0.095008336 -0.73627716 0.5132532 0.20764086 0.73349136
0.20560871 -0.38242236 -0.36219802 0.30269647 -0.3105966 -0.17853957 -0.0029747025 0.17938624
0.37121388 0.22517864 0.50542563 -0.37708896 0.22225595 0.014995816 -0.29800376 -0.041442655
0.5866755 -0.21749793 0.328003 -0.14356907 0.047729783 0.62808985 -0.36096746 -0.6843397
0.68664646 -0.31050807 -0.39800453 -0.54632294 -0.122993566 0.40291578 0.22209752 -0.54670155
0.19172315 0.6509243 0.36581108 0.59431624 0.17104268 0.24988548 0.57774866 0.044980016
0.36992663 -0.10877773 0.3958121 0.6190035 0.44115642 -0.17811613 0.21662 0.20896614
-0.024214128 0.087759696 0.8132286 -0.514446 0.6622594 -0.161507 -0.10513591 -0.5744874
0.47472808 -0.23628245 0.32788315 0.34786412 0.3650201 -0.11371416 -0.24368566 -0.5165883
-0.033776373 -0.57117254 -0.032211658 0.19136922 -0.62506044 -0.31863475 0.29997274 0.0023985659
0.49965408 -0.5970159 0.07906484 -0.17301805 0.35718653 -0.40102556 0.5547041 0.5488427
-0.6078504 0.4373623 -0.7066082 0.36399382 0.09134096 0.15244283 -0.8046682 0.06251075
-0.6027225 -0.6986071 0.16617252 0.20429835 0.27152607 0.03794362 -0.12574282 0.06268846
-0.08907587 0.16208686 0.53146565 0.30338284 0.5898116 -0.15111305 0.30704495 -0.32251877
00000000: d571 203f 5276 8ebc ef38 973e a316 023f
00000010: 58cd 2e3f 2a32 99be 5c2d 80be d26c 97be
00000020: 31ab 17bf 148b 7cbe 1d31 04bf efc6 e6be
00000030: 88dc 663c b812 2dbe e218 36bf 7ef9 e8bb
00000040: f8fa 063e fe70 b0be 1fe4 aebe 961d e43e
00000050: 55c4 2abf 6e70 04be dbc1 2fbe ef9a b2be
00000060: b7a2 113d fd5f b0be c667 f23e 5da0 983e
00000070: 6d12 8b3e 0e94 0e3e 9890 1b3f c862 30bf
00000080: fdab cf3e 074d 33bf 3d6d 86be 6a98 f2be
00000090: 625d 8bbe d2b1 88be 9055 233f 4378 06be
000000a0: 2504 81be 8c58 aabe 611f 0cbf 5541 2bbf
000000b0: fed9 e43e 0424 e73d 6eec cebe 6c6c 013f
000000c0: 5755 8dbe 7f30 103e 43a8 023e 4b3f e43e
000000d0: 0d27 743d e26c 25bf afb5 e63e de1e 2f3d
000000e0: eabd dabe 22be 2f3f c476 7abe 842e 3fbe
000000f0: 49a9 043f f0df 563e 6c9f 383f 97fb e73d
00000100: 4c2d 13bf fc8c e9be 588c 63be 2d48 1ebf
00000110: 3000 a8be c830 f83e 438a 903e d7d6 083f
00000120: 61b4 a13e 196d 813a 157c 3dbf 3bdd 843e
00000130: c2d7 293e fc95 013f 3c20 63be 8704 b53e
00000140: a2c9 9c3e 1c98 58bd f9c9 20bf 56f7 c4be
00000150: f600 0d3f 091f 583e 018c 383f f839 cdbe
00000160: 7fa2 7d3e 05be 01bf 5a2f 9b3e ab7a 8f3e
00000170: 5e87 e33e f4ad 9d3e 6951 083e 6fcc 6dbe
00000180: 4f0a 07bf 7270 bfbe 8f11 e4bc cb27 d83d
00000190: cac4 5cbe 2d4c 15bf 5878 94be 195d c23e
000001a0: 9ff4 72be 210f b0bd e939 33be 136f a8be
000001b0: 1512 f13c 593b b0be 16d1 53be 8a01 d93e
000001c0: 2ce1 663e 697b 32bf 2b7c e73e e8cf 9b3e
000001d0: a625 a53e 58d0 113f 2f52 1f3f 2a2c ca3e
000001e0: 1e1e 5b3e 337c 63bd 5df2 ec3e 8452 1fbd
000001f0: 0f40 c33d 0a8b 0d3f 0968 bd3e 7b5f ee3e
00000200: a449 dcbe 87e9 f43c 8d6a 00bf ada2 10bf
00000210: 5e1b e5be 23fb edbd 2f18 f23e 3330 d63e
00000220: 6c20 f9be 5c3e 2d3e 8025 ce3d b746 75bd
00000230: 2928 1dbe 0254 0cbf 955a 92be f3cd 49bc
00000240: a058 f7be 15d9 c4bb 90d8 a63e bb93 c2bd
00000250: a97c 3cbf 9064 033f ce9f 543e 17c6 3b3f
00000260: 178b 523e ddcc c3be 0572 b9be 08fb 9a3e
00000270: 8406 9fbe 14d3 36be 3af3 42bb 07b1 373e
00000280: bf0f be3e 3b95 663e 9363 013f ce11 c1be
00000290: 1097 633e 03b1 753c f393 98be c6bf 29bd
000002a0: 5e30 163f c7b7 5ebe 02f0 a73e c503 13be
000002b0: 4e80 433d 7fca 203f bad0 b8be e330 2fbf
000002c0: 10c8 2f3f eafa 9ebe 40c7 cbbe d2db 0bbf
000002d0: 0de4 fbbd fa4a ce3e 886d 633e a2f4 0bbf
000002e0: 1353 443e faa2 263f 974b bb3e 1c25 183f
000002f0: d025 2f3e fbe1 7f3e 56e7 133f f73c 383d
00000300: 0667 bd3e dcc6 debd e2a7 ca3e 0377 1e3f
00000310: 41df e13e 1364 36be a2d1 5d3e 38fb 553e
00000320: b55c c6bc 5bbb b33d c02f 503f bcb2 03bf
00000330: d589 293f 1762 25be 7f51 d7bd 9b11 13bf
00000340: 8f0f f33e 07f4 71be 4de0 a73e 3f1b b23e
00000350: eae3 ba3e f8e2 e8bd bc88 79be 213f 04bf
00000360: 1859 0abd 5d38 12bf 5ff0 03bd 4bf6 433e
00000370: f603 20bf 1824 a3be 0796 993e 4231 1d3b
00000380: a9d2 ff3e 09d6 18bf bfec a13d a52b 31be
00000390: 27e1 b63e 3953 cdbe 1701 0e3f f580 0c3f
000003a0: 159c 1bbf f4ed df3e 46e4 34bf 665d ba3e
000003b0: f810 bb3d f919 1c3e bcfe 4dbf a305 803d
000003c0: 064c 1abf ead7 32bf 2129 2a3e 9633 513e
000003d0: 7705 8b3e c56a 1b3d bac2 00be cf62 803d
000003e0: 696d b6bd 19fa 253e 220e 083f ff54 9b3e
000003f0: e5fd 163f 61bd 1abe ff34 9d3e 2e21 a5be
