Project2/models/model_2_1.pt (torch, 214300 bytes, 56 tensors)

prior.mean f4 [2]
000000 00 00 00 00 00 00 00 00
       0.0 0.0

prior.std f4 [2]
000000 00 00 80 3f 00 00 80 3f
       1.0 1.0

decoders.0.decoder_net.0.weight f4 [512, 2]
000000 a3 61 9f be b6 db 1d 3f 7e ad 02 3e d6 e9 20 3f
       -0.31129178 0.6166338 0.12761495 0.62856805
000010 ad 06 11 3f 77 f0 f7 3e 6f 54 d3 be 95 4e 03 3f
       0.5665081 0.48425648 -0.41275355 0.5129178
000020 7d f3 d8 3e 8d b8 0d 3f b7 13 fc be 2f 60 3f 3e
       0.42373267 0.5535973 -0.4923379 0.18689035
000030 72 87 6e be e9 e0 a3 3e 6d 45 92 3e ea 5c 5b 3d
       -0.23293856 0.3200753 0.28568593 0.053555407
000040 3a 91 95 be 7f 4e 59 be 10 f0 e4 be 2e f7 08 bf
       -0.29212362 -0.2122135 -0.44714403 -0.53502166
000050 04 9a 0c bf 99 de e3 be 08 19 1d 3f 14 08 e0 3e
       -0.5492251 -0.44505766 0.6136632 0.43756163
000060 79 a8 07 bf 6b da 10 be 9b 67 95 be 45 be 2c be
       -0.52991444 -0.1414582 -0.29180607 -0.16869457
000070 2e 0c df be c0 6d 3e bf f8 b3 6d 3e a0 a5 a1 3e
       -0.4356398 -0.74386215 0.23213184 0.31571674
000080 1c b7 fa be 61 c8 e9 be a8 66 99 3e b8 a3 04 3f
       -0.48967826 -0.4566069 0.29961133 0.51812315
000090 ad 00 16 3e 5a 99 0a 3d 5a 68 83 3e 98 8c be 3e
       0.14648695 0.033837654 0.2566555 0.3721664
0000a0 fc d0 36 be c7 e7 34 be 27 ac 82 3d 82 e3 28 3f
       -0.17853159 -0.17666541 0.06380492 0.6597215
0000b0 46 35 fa 3e d6 4e b9 bd 6e 7e da 3e 29 a8 b5 be
       0.4886877 -0.0904824 0.42674583 -0.3547986
0000c0 43 3a 89 3e 51 2c aa 3e d8 50 fe 3d 9c 73 8f 3d
       0.26802263 0.33236936 0.124177635 0.070044726
0000d0 1d 79 9b be 1f 05 26 3f e6 d1 19 3f c2 10 10 be
       -0.3036584 0.64851564 0.60085905 -0.14068893
0000e0 31 23 da 3e 4a 12 1a bf 93 8e 55 bd ff fd 15 be
       0.42604974 -0.60184157 -0.052137922 -0.14647673
0000f0 24 4e 27 3f fa 80 62 3d e8 a0 07 be b1 f9 01 3f
       0.6535361 0.055298783 -0.13244975 0.50771624
000100 61 50 08 3d 60 b6 fb 3d 14 63 97 bd ef 89 11 bf
       0.03327978 0.12290645 -0.073919445 -0.56851095
000110 79 8d 08 3e 5f c3 2b 3f 68 9f fa 3e 46 1b 2b be
       0.13335218 0.6709499 0.48949742 -0.16709623
000120 48 1d ee be 20 56 f5 3c 0f 63 d4 3e 3c e6 13 bf
       -0.46506715 0.029948294 0.41481826 -0.57773185
000130 66 06 88 be 3a cc b3 3e 58 77 1a 3f 67 5f 12 3f
       -0.26567382 0.3511675 0.60338354 0.5717682
000140 19 27 68 be 39 33 cf 3e 0d 17 35 3e 1d e3 02 bf
       -0.22671165 0.40468767 0.17684574 -0.511278
000150 b0 6d 36 be ae bf 39 3f 4c ee 10 3e 30 43 1b bf
       -0.1781528 0.72558105 0.14153403 -0.60649395
000160 d5 0c a8 3e e7 ec 92 3d 5c 8d 2c 3f 60 0c 8c 3e
       0.3282229 0.07174092 0.674032 0.2735319
000170 ab 9c 16 3f 2a cb 0a 3f 1e 1a dc be 1f c5 15 3f
       0.58832806 0.54216254 -0.42988676 0.5850391
000180 d1 37 28 3d 8c 9d 2d 3e 74 46 77 3e ce 88 39 bd
       0.041068856 0.1695463 0.2414797 -0.045296483
000190 86 a8 ff 3d 61 43 4a be f8 a1 87 bd f9 1d 90 3e
       0.12483315 -0.19752266 -0.0662269 0.28147867
0001a0 e3 08 fa 3e 84 53 f7 bd da e8 43 3e 0c ec 5d 3e
       0.48834905 -0.12076476 0.19131795 0.21672076
0001b0 9a 1f 03 3f f3 c6 0a 3f fc c4 e2 bd 6f ce 16 3f
       0.51220095 0.5420982 -0.11072728 0.5890874
0001c0 a8 a5 d8 3c 43 ae 50 3e 28 ff 0a 3f cb 4d 19 3e
       0.026446179 0.20378976 0.5429559 0.14971082
0001d0 f2 c1 3f 3f 54 aa fe 3d fa 1b c7 be 16 ec 30 3f
       0.7490531 0.12434831 -0.38888532 0.6911024
0001e0 fa 5b 2e 3e 80 d7 77 be f5 09 45 3e 0a 6e 09 bf
       0.17027274 -0.242033 0.1924208 -0.5368353
0001f0 3d c6 94 be af 6a 30 bf a5 c2 16 3f bb 4f b9 3d
       -0.29057494 -0.68912786 0.58890754 0.090484105
000200 1c c2 1b bf 49 90 2f 3f 13 17 de be ef 58 5c 3e
       -0.6084306 0.68579537 -0.4337698 0.215183
000210 c7 1b 15 3f ce e0 09 3f 41 06 de 3d 13 f8 d8 3d
       0.5824551 0.5385865 0.108410366 0.105941914
000220 fc 97 40 be ca 74 1c bf 5a 7b 12 bf 00 a5 12 bf
       -0.18807977 -0.61115706 -0.5721947 -0.5728302
000230 1b ea 1a bf fa f7 b6 bd ed a5 04 bf 1a 07 ef 3e
       -0.60513467 -0.089340165 -0.5181568 0.46685106
000240 a6 5b c0 3e d5 d6 cb be 92 5c 34 bd 23 3c 3b bf
       0.37569922 -0.3981234 -0.044033594 -0.73138636
000250 09 49 dd 3e 3e 72 41 3f 75 7f 99 be d2 27 8f be
       0.43219784 0.75564945 -0.29980054 -0.27960068
000260 92 c6 97 be f3 33 ad 3e 63 5e 2a bf fb c8 81 be
       -0.29643685 0.33828697 -0.6655027 -0.25348648
000270 3f f9 a8 3e 7b ec 99 be 53 a3 30 bf 21 30 eb bd
       0.3300266 -0.30063233 -0.68999213 -0.11483789
000280 fc cd 3b be 6c 69 fe bd 3e 1b 20 be dd ed 8f bd
       -0.18340296 -0.124224514 -0.15635392 -0.07027791
000290 85 89 0f bf c5 98 ee 3e aa 88 da be 4f 59 60 3e
       -0.56069213 0.4660093 -0.4268239 0.21909069
0002a0 11 07 a6 be 6f d2 08 bf 29 7b b9 3d fd b5 d8 3d
       -0.32427266 -0.53446096 0.09056694 0.105815865
0002b0 aa af 16 be 15 17 4f be 6b 1d b9 be b6 5e d7 3c
       -0.14715448 -0.20223649 -0.36155257 0.026290279
0002c0 0f 3b 2b bf a9 9b 1d bf 12 4f da be 2f 0d 19 3f
       -0.6688699 -0.61565644 -0.4263845 0.5978574
0002d0 63 18 d7 3c 93 9a ee be 51 1c a7 3d e3 7d 49 3f
       0.026256746 -0.46602306 0.08159698 0.7870771
0002e0 e7 28 72 be cc 8c f3 be f9 f5 fb 3d 2e 1b d3 3e
       -0.23648416 -0.47568357 0.12302775 0.41231674
0002f0 8a db 27 3c 6d ff be 3e ce 4c c8 3e ea 2e 9d 3e
       0.010245213 0.3730425 0.39121097 0.30699855
000300 d7 ee 0b 3f df c0 50 be 97 fc 1d be 38 03 0b 3f
       0.54661316 -0.20386074 -0.15428387 0.54301786
000310 7b d1 28 3f ea e5 d7 3e 6f a1 34 bf e0 e6 31 bf
       0.6594464 0.42167598 -0.7055883 -0.6949291
000320 16 c3 99 bb 6b 06 15 3f f7 e9 ec be 59 d6 28 bf
       -0.0046924455 0.5821292 -0.4627225 -0.6595207
000330 df bb 98 3e c1 4a 46 3e 83 ee c4 3d 5b 85 ad 3e
       0.29830834 0.19364454 0.09615805 0.33890805
000340 6d fb 7d be 04 b2 83 3c 36 18 0a 3f ed 1c ab be
       -0.24802943 0.016076095 0.5394319 -0.33420506
000350 96 97 ed 3e 54 50 1b 3f da e2 f5 3e 11 11 11 3e
       0.46404713 0.60669446 0.48024637 0.14166667
000360 5c 27 6a be 7d 24 a8 be 3b 7c 6f 3e 18 64 97 3e
       -0.22866577 -0.32840338 0.23387234 0.29568553
000370 94 6d 47 3e 57 31 de 3d 95 ac 20 bf 47 81 81 3d
       0.19475394 0.108492546 -0.6276334 0.06323486
000380 2a 71 f1 3d 7d ff 9a be 71 e4 75 3e 3e b1 ec bd
       0.117891625 -0.30273047 0.24012925 -0.11557244
000390 39 50 77 bc df ef 99 be 3a b8 04 3f bd b5 1e bf
       -0.01509481 -0.3006582 0.5184361 -0.6199606
0003a0 6b 9e 5d be 12 9f 95 3e 38 b9 c7 be 7a c8 30 3e
       -0.21642463 0.29222924 -0.39008498 0.17263976
0003b0 a9 fc 3b 3f c8 bd 66 bf 5e e6 16 bf a5 79 1b bf
       0.73432404 -0.90133333 -0.5894526 -0.6073249
0003c0 9e 65 b6 be ce 1d ce be 48 9e 8e be bf 17 b8 be
       -0.35624403 -0.40257114 -0.27855134 -0.35955617
0003d0 f9 d5 04 3f 6a 84 25 3f a3 d1 e7 bc 8c 69 c4 3d
       0.51888996 0.6465517 -0.028298205 0.09590444
0003e0 24 e2 29 bf b5 83 c0 bd 86 9d 18 bf 82 58 ff be
       -0.6636069 -0.09400121 -0.5961536 -0.49872214
0003f0 07 c8 17 bf c8 66 23 3f 42 44 1c 3f f6 1e e4 3e
       -0.5928959 0.63828707 0.61041653 0.4455487

decoders.0.decoder_net.0.bias f4 [512]
000000 d9 ff c6 be f9 75 09 bf e1 3c 38 3d af d3 7f be
       -0.3886707 -0.53695637 0.044979934 -0.24983095
000010 83 64 ea 3c 3f a2 06 3f 87 9f 14 bf df 24 06 bf
       0.02861238 0.5259132 -0.5805592 -0.5240001
000020 25 1d 10 3d 44 dd 91 be 4f 9c 0e bf 5e c4 6e 3e
       0.035184044 -0.28489125 -0.5570726 0.23317096
000030 50 e0 13 3f 3f 91 bd 3e 08 77 95 bc 47 13 37 3f
       0.5776415 0.37024876 -0.018245235 0.7151379
000040 8b fe 13 3e 1e 6c 33 3f eb 3f 98 be e1 43 cb 3e
       0.14452569 0.7008685 -0.29736266 0.39700225
000050 c3 ae 28 bf 02 6e db 3e 34 42 66 3e f4 11 20 bf
       -0.65891665 0.42857367 0.22486192 -0.62527394
000060 19 30 0a bf 2b d1 32 bf e0 0c 9c 3e ac 23 6b be
       -0.5397964 -0.69850415 0.30478573 -0.22962826
000070 c3 66 c1 bd c5 56 71 3e c3 d6 02 bf d6 14 5e be
       -0.09443428 0.23568256 -0.5110895 -0.21687636
000080 91 8d 63 3d a5 eb 63 3e 5d d2 06 3f de 7c c9 3d
       0.05555493 0.2225786 0.5266474 0.0983827
000090 a9 e0 b1 3e 54 ba 83 bd ea b4 08 3f 99 43 06 bf
       0.34741715 -0.06432024 0.5340105 -0.52446896
0000a0 fc 11 fc be b9 c6 eb be b5 a1 23 3e 15 19 2d 3e
       -0.4923247 -0.4605005 0.15979655 0.169041
0000b0 32 af 1c 3f 05 0e ef 3e 4b f9 0c bf 56 84 db 3e
       0.61204827 0.46690384 -0.5506789 0.42874402
0000c0 75 36 a2 3e 0c 34 ac be d6 57 a2 be 0b 5c d4 be
       0.31682172 -0.3363346 -0.31707639 -0.41476473
0000d0 e7 6d d8 be 7c b3 d1 bc e4 27 09 3f af 85 e3 3c
       -0.4227135 -0.02559828 0.53576493 0.027773706
0000e0 6c 75 fa 3e 05 e7 23 3d 5f c4 0b be 16 9e 8c be
       0.4891771 0.04001524 -0.13649128 -0.2746436
0000f0 22 6c 27 bf a4 6a 0d 3f ee 98 ba be 50 cc e5 3e
       -0.6539937 0.55240846 -0.364448 0.4488244
000100 ee 10 13 bf 17 fc 74 3e 73 ca 1a bb dd 35 9e be
       -0.5744771 0.2392429 -0.0023619204 -0.3090047
000110 46 67 59 be 7a d7 a5 bb 46 63 1d 3d 7d b7 92 3e
       -0.21230802 -0.005061087 0.038424753 0.28655615
000120 5b fc 58 3e b7 fb 1c bd b7 0b 11 bf 91 1c a8 be
       0.21190016 -0.03832599 -0.566585 -0.32834294
000130 0d 60 e3 3d e3 b4 3e bf 04 78 bf 3e 43 a4 9f 3d
       0.111023046 -0.7449476 0.37396252 0.07795002
000140 32 23 34 bf eb cf a0 3e f4 a5 c1 3e d9 a0 e4 3e
       -0.70366204 0.3140863 0.37821925 0.44653967
000150 32 10 bd bc 38 84 09 3f ec b1 e4 be df 2c eb be
       -0.023079012 0.53717375 -0.44666994 -0.4593267
000160 2e f8 f6 bd a9 2f ab bd f3 ee c6 3e fa 8f 23 3f
       -0.12059055 -0.083587 0.3885418 0.63891566
000170 b1 2c 21 bf d6 94 e0 be 97 b9 68 be 9a d7 29 3e
       -0.6295882 -0.43863553 -0.22727047 0.16586152
000180 e4 8a 3c be 58 61 4f bc ef b6 d9 3e fb 7d 1c bc
       -0.18412358 -0.012657486 0.4252238 -0.00955152
000190 24 3a bc 3d 70 6e bf be 78 b0 10 3e 1b 47 db 3c
       0.09190777 -0.37388945 0.14129817 0.026767304
0001a0 73 e2 dd bc 70 49 18 bf 66 50 2b bf c8 4f ab be
       -0.027085518 -0.59487057 -0.66919553 -0.33459306
0001b0 ac 55 b5 be bc 30 19 be 7e 98 fd be 13 dc 1b 3e
       -0.35416925 -0.14959997 -0.49530405 0.1522067
0001c0 ad b3 34 bf 10 a9 99 3e 2f b4 0e bf 83 9d d8 bd
       -0.70586663 0.30011797 -0.5574369 -0.10576918
0001d0 af 38 fc be d5 bd 0f 3f a6 28 12 3f 22 ee d9 be
       -0.49261996 0.56149036 0.57093275 -0.42564493
0001e0 b8 c3 94 be 05 4c 4e 3e b9 e9 be 3e 11 12 45 3f
       -0.29055572 0.20146187 0.3728769 0.7698069
0001f0 5d 0a 86 be fc 78 74 be 60 c5 c0 3e b7 33 e4 3e
       -0.26179782 -0.23874277 0.37650585 0.44570705
000200 0b e2 00 be e8 3c b0 3e 77 36 21 bf 05 a7 c5 be
       -0.12586229 0.34421468 -0.6297373 -0.38603988
000210 d6 5b 01 3f 07 a2 80 3e b5 62 0c bf ad ea da be
       0.50530756 0.25123617 -0.54838115 -0.42757168
000220 df b9 be be 05 34 cb be 09 81 bc 3e 6e cb 2b 3f
       -0.37251183 -0.39688125 0.36817196 0.67107284
000230 fe a0 0b bf 71 60 20 bf f6 8f 0e 3f 49 37 63 3e
       -0.5454253 -0.6264716 0.55688417 0.22189058
000240 4c 7c 36 3f 7d 6f d5 3e 9c 66 aa be 63 af 38 3e
       0.7128341 0.4168662 -0.3328141 0.18035655
000250 60 76 0f 3e 42 a8 7f 3e 7a 4a dd 3e 20 fa 46 bd
       0.1401 0.24966529 0.43220884 -0.04857838
000260 2e 05 23 bf 7d 85 0f 3e dd ff c5 be a6 84 7e be
       -0.6367978 0.14015765 -0.3867177 -0.24855289
000270 e4 98 17 bf df c3 ae 3e 36 71 ab be 32 d6 93 bd
       -0.5921767 0.34133813 -0.3348481 -0.07218589
000280 da 1f 6c be bb 1c 0b be 1e 93 f8 3e 24 e5 e4 3e
       -0.23059025 -0.13585179 0.48549742 0.4470607
000290 5b 1f 22 bf d8 7f 10 3f 5e 09 df be 94 f4 f6 be
       -0.63329095 0.56445074 -0.43561834 -0.48233473
0002a0 51 14 71 be f2 6f 25 bd 22 17 17 3e 3e e9 a0 3e
       -0.23542906 -0.040389962 0.14754918 0.3142795
0002b0 6a 80 1b bf de ab 91 bd 28 09 ff 3d b9 9a 70 3e
       -0.6074282 -0.07112859 0.12452918 0.23496522
0002c0 16 cb 07 be 48 ff c3 be e9 1a 96 be fd 9b a1 3e
       -0.13261065 -0.38280702 -0.29317406 0.31564322
0002d0 af 13 10 3f 47 3d 3d bf e7 08 46 3f 99 8a 02 3f
       0.56280035 -0.73921627 0.77357334 0.50992733
0002e0 5c bb f9 be 84 74 47 be 6c 5a 90 3e e7 0c fc 3e
       -0.48775756 -0.19478041 0.28193986 0.49228594
0002f0 40 bc 20 bf 63 2c 40 3e ad 07 08 3f fe a4 da 3e
       -0.62787247 0.18766932 0.5313671 0.42704004
000300 a9 6b 0b 3f d2 c5 18 bf 16 54 e9 3e 55 2b 17 bf
       0.5446115 -0.5967685 0.45571965 -0.59050494
000310 9d e5 7e be 12 39 ed 3e ce 62 9f bd 88 1c cc be
       -0.24892278 0.46332604 -0.077825174 -0.39865518
000320 73 ae 1b bf e0 78 51 be 1f 81 c7 be 92 56 97 bd
       -0.60813063 -0.20456266 -0.389657 -0.07389559
000330 e0 af b8 3e b9 03 15 3f 55 40 84 3d 20 30 15 bf
       0.36071682 0.58208805 0.06457583 -0.5827656
000340 31 18 2a 3f 69 90 0d 3e 86 ab f2 be 38 e6 dd 3c
       0.66443163 0.1382462 -0.47396487 0.027087316
000350 99 74 9b bd e6 ff 28 3f 23 de 3f 3f 6a a0 0f bf
       -0.075905986 0.6601547 0.7494833 -0.5610415
000360 17 8e 2d bf ad 2d 93 3e 0f 4b 39 bf 42 67 15 bd
       -0.67794937 0.28745785 -0.72380155 -0.036475427
000370 7f cf 0a bf 19 17 0d bf 39 1e 13 3f 74 09 13 3f
       -0.54222864 -0.5511337 0.5746799 0.574363
000380 89 1b 05 bf 64 4e 06 bf bc 91 32 3f 00 79 5e 3e
       -0.5199514 -0.52463365 0.69753623 0.21725845
000390 c9 5c 04 bf da e6 95 3e f9 30 4e bf da 89 06 3f
       -0.5170408 0.29277688 -0.80543476 0.52554095
0003a0 80 0e fc be ec dc 32 3e ea e7 97 3e 63 60 0e be
       -0.49229813 0.17467088 0.29669124 -0.13903956
0003b0 1c 03 1a 3e 42 5f ac be d9 c3 2e 3f 8c bf 26 3f
       0.15040249 -0.33666426 0.6826759 0.6513603
0003c0 91 62 31 3f f5 c9 cd bd 3a 6f 80 be 6e d0 0d bf
       0.69291025 -0.10048286 -0.2508486 -0.55396163
0003d0 9f 0f 31 bf df 92 72 be da 58 07 3f e1 98 7f be
       -0.6916446 -0.2368884 0.5286995 -0.24960662
0003e0 95 56 88 3d dd 0b 14 3f 6f 64 0e 3e e3 0b 2e 3e
       0.06657139 0.578306 0.139055 0.16996722
0003f0 36 56 c5 3e b2 2f 1d 3e e4 cc c5 3e ad c0 05 bf
       0.38542336 0.15350226 0.38632882 -0.52247125

decoders.0.decoder_net.3.weight f4 [32]
000000 c7 10 7c 3f 76 49 7f 3f 99 5e 7c 3f f4 d2 7f 3f
       0.984631 0.9972147 0.98581845 0.99931264
000010 a3 27 7f 3f e1 c2 7b 3f 86 9e 86 3f c7 19 80 3f
       0.99669856 0.98344237 1.0517128 1.0007867
000020 51 0f 7f 3f 81 8a 82 3f 6a 5f 7e 3f 0d 5a 82 3f
       0.99632746 1.0198518 0.9936434 1.0183731
000030 98 97 7a 3f 77 32 82 3f 88 d3 7e 3f fd 88 82 3f
       0.97887564 1.0171651 0.9954152 1.0198056
000040 af ab 7d 3f 6a 51 7e 3f 31 0d 81 3f 47 a9 78 3f
       0.99090093 0.9934298 1.0082151 0.97133297
000050 4d 01 81 3f 23 5b 80 3f a7 8c 77 3f ec c9 7a 3f
       1.0078522 1.0027813 0.96698993 0.9796436
000060 fb 7f 86 3f 2c 7f 85 3f b6 e7 83 3f 29 72 7e 3f
       1.0507807 1.0429435 1.0305088 0.99392945
000070 21 c1 80 3f 7d 5b 7d 3f 14 4d 7c 3f 35 55 81 3f
       1.0058938 0.98967725 0.9855511 1.0104128

decoders.0.decoder_net.3.bias f4 [32]
000000 99 86 f7 3c 3e ae 15 3b de ab 9c bb 98 91 8d 3c
       0.030215548 0.0022839452 -0.0047812304 0.017281339
000010 1d 02 34 bc 59 b9 bc bc 6c d1 c8 bc e8 84 86 bc
       -0.010986832 -0.0230376 -0.024513923 -0.016420797
000020 f1 7c 57 3c eb 51 2a 3d ab e6 3e bc 77 a8 f6 bc
       0.013152347 0.04158203 -0.011651675 -0.030109627
000030 e0 5f 95 bb 40 9c 01 bd f5 f0 0f bd 36 d6 ca b9
       -0.0045585483 -0.031643152 -0.035141904 -0.00038688042
000040 40 ae 90 bc 99 50 64 bc 1e a8 c5 3c 43 d2 17 3d
       -0.017661214 -0.013935232 0.024128016 0.037065756
000050 52 ee f5 bc de 66 11 bc a6 58 b6 b9 9a 18 b1 3c
       -0.030020867 -0.008874623 -0.00034779793 0.021618176
000060 3d bf d7 3b 35 fe 16 bd d9 88 4a 3d 8e 56 20 3d
       0.0065840767 -0.036863524 0.049446914 0.039145045
000070 f4 fb b2 3b 2f 9c 99 3c b7 69 0d 3c c3 0c d7 3b
       0.005462164 0.018751232 0.008631161 0.0065628006

decoders.0.decoder_net.3.running_mean f4 [32]
000000 32 ef e7 3c 08 84 02 3d 5f 86 29 3d 1e 89 22 3d
       0.0283123 0.031864196 0.041387912 0.039681546
000010 f3 7f b3 3c 4f 74 9f 3c 8b e8 eb 3c 66 18 20 3d
       0.021911597 0.01946464 0.028797409 0.03908577
000020 99 b0 0a 3d 72 02 12 3d 7e cb 1d 3d 05 2f e3 3c
       0.033859823 0.035646863 0.038524143 0.027732382
000030 68 43 99 3c ea c3 0a 3d 13 64 1e 3d 19 57 06 3d
       0.0187089 0.033878244 0.038669657 0.032797907
000040 bc 55 c6 3c 05 5e 1d 3d a6 8b 01 3d 0a ac e8 3c
       0.024210803 0.038419742 0.03162732 0.028402347
000050 08 ab 11 3d 5f 04 e4 3c 86 a2 c9 3c 55 1b c4 3c
       0.0355635 0.027834116 0.02461363 0.023938814
000060 3b c3 0a 3d 73 6b cf 3c e4 61 09 3d 76 69 ef 3c
       0.033877593 0.02531979 0.03354062 0.029225092
000070 10 b5 0e 3d f7 20 0a 3d ed fc d9 3c 3c 5c 1b 3d
       0.034840643 0.033722844 0.026609862 0.03792976

decoders.0.decoder_net.3.running_var f4 [32]
000000 48 34 98 3a 6a 95 48 3a 58 29 14 3b 53 cb c6 3a
       0.0011612261 0.0007651659 0.002260765 0.0015166797
000010 44 82 36 3a a9 8e c0 39 e1 27 96 3a e4 2f 85 3b
       0.000696216 0.00036727384 0.0011455977 0.004064547
000020 5c ba 95 3a b4 f7 e2 3a db 80 d2 3a 12 2b 3c 3a
       0.0011423337 0.0017316253 0.001606013 0.0007178049
000030 de 17 89 39 ba a2 c1 3a e2 76 24 3b 90 04 a7 3a
       0.0002614846 0.0014773228 0.0025095274 0.0012742449
000040 ba 2a 5b 3a 6d a6 c6 3a b2 97 b3 3a 5c bd 5e 3a
       0.0008360554 0.00151558 0.0013701825 0.00084968447
000050 41 c8 8c 3a 61 2e 2c 3a f8 ab aa 39 cb e3 e3 39
       0.0010740833 0.00065681903 0.00032553053 0.00043466533
000060 02 d3 d0 3a b0 d8 06 3a f4 a7 07 3b 1a 80 5f 3a
       0.0015932026 0.0005143983 0.0020699473 0.00085258635
000070 be 4f b2 3a 90 c3 8a 3a 60 ee 8b 3a 40 08 be 3a
       0.0013604087 0.0010586847 0.00106759 0.0014498308

decoders.0.decoder_net.4.weight f4 [32, 32, 3, 3]
000000 e3 07 3e bc b5 69 5e 3d 40 2a 39 bc 1a 1a 4d 3c
       -0.01159856 0.05430003 -0.011301577 0.01251843
000010 78 e6 d6 bc 19 73 9b 3d fd b6 96 bc 66 b8 86 3a
       -0.026232943 0.075903125 -0.018397802 0.0010278344
000020 e2 e7 b1 3c e5 43 d1 bc 0e 4c 9a bd 6b 2a 89 bd
       0.021717016 -0.02554507 -0.075340375 -0.06697544
000030 73 fa 96 3c 64 d9 d5 bd 94 b5 36 3d 38 6d 1f bd
       0.01842997 -0.104418546 0.04460676 -0.03892252
000040 1b 3c 9a bc 73 a8 1d 3d 2a 47 47 3d 6e 61 10 3d
       -0.018827489 0.038490724 0.04865185 0.035249166
000050 0b 3f 69 3d e8 15 2a 3d 2b ff 7f bd 1f 2c d6 bc
       0.056944888 0.041524798 -0.062499207 -0.026144085
000060 75 cb 92 3c 72 76 35 ba 93 0f cc 3b a4 1c 5a bc
       0.017919281 -0.0006922252 0.0062274425 -0.0133124925
000070 ea 37 56 bd 4c 9a 4e bc 6a 7b 7b 3b 6f 4f e4 3c
       -0.052299418 -0.012610029 0.003837312 0.027869908
000080 c7 ff a9 bc 52 e3 53 3d 86 c1 90 bd e1 9a 88 3d
       -0.020751847 0.05173046 -0.07068162 0.06670166
000090 03 b6 82 bd 74 cb 5c 3d 1f 56 ab bb 6b 29 ea 3c
       -0.06382372 0.053904966 -0.0052287723 0.028584203
0000a0 e7 c0 97 bc fd 10 93 3d 9d 56 45 bd 87 77 c5 bc
       -0.0185246 0.07180975 -0.048178304 -0.024104847
0000b0 88 0d b1 bc 69 2b 81 3a fa 1e 7a bd 9e ab 8e bd
       -0.021612898 0.0009854856 -0.061064698 -0.06966327
0000c0 0b 60 28 bd 84 8d a1 bc 9a 23 80 3b a0 c3 b0 3c
       -0.04110722 -0.0197208 0.003910494 0.021577656
0000d0 68 77 3b bc 1d a0 48 bc f7 ff cf 3c f5 e3 6e bc
       -0.011442043 -0.012245205 0.025390608 -0.014580716
0000e0 6b 03 64 3d 3b d6 15 bd 18 bd 0b 3d 2c d0 5e 3d
       0.055667322 -0.03658126 0.03411588 0.054397747
0000f0 56 16 87 bd cd c4 ac 3c 95 2b 6e 3c 99 63 4f 3d
       -0.06596057 0.021089936 0.014536758 0.050632093
000100 d0 fa e7 3c 07 3c 5d 3c 6c e8 5d 3d 2d 2a b4 3c
       0.028317839 0.013503081 0.054176733 0.021992767
000110 8c 0a 83 3c a1 15 3f bd 39 df 2f 3c a6 c8 4b bd
       0.01599624 -0.046651486 0.010734373 -0.0497519
000120 3d 1a 5e bc 98 60 c2 bd 50 11 c8 bc 56 ab 7a bd
       -0.01355606 -0.0949108 -0.024422318 -0.061198555
000130 54 78 73 3d c1 15 9f bd b5 c0 ce bc 47 59 9a bc
       0.059440926 -0.07767821 -0.025238374 -0.018841399
000140 51 0a d5 bc 2c 2a 19 bd fb 10 9e 3d 4e b3 26 3d
       -0.026005896 -0.037393734 0.077180825 0.040698342
000150 c8 bc 89 bc 20 eb d5 3c 5f d9 47 bd bc 84 1c 3d
       -0.01681365 0.026113093 -0.048791286 0.038212523
000160 a4 87 09 bd ca 7e 8b bc 85 53 92 3c d1 60 af 3c
       -0.033576623 -0.017028231 0.01786209 0.02140847
000170 0b 3e b8 bb 77 16 54 3c a9 cb 6f 3d b9 ca 22 bc
       -0.0056226305 0.012944809 0.058543835 -0.009936028
000180 25 c1 19 bd 11 d6 27 bd 4b 8a 39 3d 57 1f a5 3c
       -0.037537713 -0.040975634 0.045297902 0.020156546
000190 7f f0 41 bd d9 81 af bc e9 05 9b bc 18 cd 92 3c
       -0.047348496 -0.02142422 -0.018923717 0.017920062
0001a0 90 ff 09 bb 9b 02 27 3c 10 8c e7 3c d8 0a b6 3b
       -0.0021056868 0.010193492 0.02826503 0.005555492
0001b0 34 a4 a7 bc b4 ec a0 3c 26 d4 92 bd 28 6d bf bc
       -0.02046404 0.019644119 -0.0716937 -0.02336748
0001c0 17 a8 93 b9 38 15 27 bd d3 b1 32 3b 86 f4 c8 bb
       -0.00028163262 -0.04079172 0.0027266636 -0.006132665
0001d0 ae 23 de ba aa 1e d2 3c b9 3f 62 bd f7 26 79 3d
       -0.0016947889 0.025649387 -0.055236552 0.060828175
0001e0 2c f5 a7 bc c2 90 4e 3c bd c5 25 bc a5 9b e1 3c
       -0.02050265 0.012607755 -0.010117945 0.027540037
0001f0 64 8f 07 bd 7c 81 ea 3c b3 ea 88 bc ec ad b5 3b
       -0.033095732 0.028626196 -0.016713476 0.0055444147
000200 e8 6a 93 bc 40 b6 64 3c b0 52 1e bd ad 6e 3c 3d
       -0.017995313 0.013959467 -0.038653076 0.046003986
000210 48 6b ea ba dd e1 2e 3d 3b e7 3f 3d 28 10 18 bb
       -0.0017884756 0.04269587 0.046851378 -0.002320299
000220 4b 57 3e 3d 7d 2d 58 3c c3 43 a0 3c 59 10 1f 3b
       0.046469968 0.013194439 0.019563561 0.0024271219
000230 28 f7 35 3c 7d ac 03 3d c1 87 c1 3c 23 6c 11 3d
       0.01110629 0.03214692 0.023624303 0.035503518
000240 3d ba 9d bd 0d ba 9e bc 19 c4 37 3d e6 8e a4 3d
       -0.07701538 -0.019375825 0.044864748 0.08035068
000250 ea 4f a8 bd 53 a8 9a bd 9a dc f8 bb 05 53 2e 3d
       -0.082183674 -0.075516365 -0.007594657 0.042559642
000260 0a 3e 74 bc d4 cd ec 3c 69 90 1f 3d c0 de 67 bd
       -0.014907369 0.02890674 0.03895608 -0.056608915
000270 7a dd 91 3d 5c e5 07 3d 2e b1 7b bd a5 ee 4d 3d
       0.071223214 0.03317772 -0.06144827 0.050276417
000280 c5 70 8c 3c 5c 26 29 bd b3 b7 97 bb 0b ba 78 3c
       0.017143616 -0.041296348 -0.004630053 0.015181075
000290 ce f8 dd bc 37 fb 6d bd 0b 15 e6 3c 43 a8 e6 3c
       -0.027096178 -0.058100905 0.028086206 0.028156405
0002a0 35 07 22 3d 36 f5 77 3c fb dd 57 bd 32 6a 23 bd
       0.039557654 0.015134146 -0.05270193 -0.039896198
0002b0 1e b6 19 3c ea 0b 2a bc 1e 70 16 bd 13 5b 11 bd
       0.009381799 -0.010378817 -0.036728017 -0.035487246
0002c0 66 de 48 3d 84 db da bc e8 9c 4c 3d 8b 0d 15 3d
       0.04904022 -0.026716001 0.049954325 0.03638987
0002d0 ad c5 1e bc 90 a2 5b 3d 4e df 36 3d 88 16 98 bd
       -0.009690684 0.05362183 0.044646554 -0.074261725
0002e0 ef 38 23 3d 6d 4b da bb fd ea 1b 3c d6 4c 7c 3d
       0.039849218 -0.0066618235 0.009516475 0.061596714
0002f0 9a ee 6a bd 01 15 4b 3d 1b 98 4d bb 69 40 4d bc
       -0.057356454 0.049580578 -0.003137118 -0.012527564
000300 cb 7f 1c 3d 3d 7f 58 3d 8f f6 56 3c 8f ee 06 3d
       0.03820781 0.05285572 0.013120308 0.03294235
000310 36 6d 7b 3c d8 90 87 bb ed b4 01 3d a9 a3 0c bc
       0.015345862 -0.00413714 0.031666685 -0.0085839415
000320 b3 b7 6c bd d3 82 80 bb b5 c6 62 3d 26 bd 9a bc
       -0.057792377 -0.0039218455 0.055365283 -0.018889021
000330 b0 5a a3 3c 7c 54 5f 3d 0f 69 29 bd b3 b9 2c b9
       0.019940704 0.05452393 -0.041359957 -0.00016472377
000340 2b ba d6 3c 77 c9 47 bd 83 8f c6 bc 23 83 bf 3c
       0.026211819 -0.048776116 -0.024238354 0.02337796
000350 ae a9 11 3c 5a 6c d8 bc 01 ce 59 3d 74 9a c2 3c
       0.008890552 -0.026418854 0.053174976 0.02375529
000360 21 0b e9 3c 98 0a d2 3c cc 1e f6 bc 57 d6 aa bc
       0.02844769 0.025639817 -0.030043982 -0.020854158
000370 34 09 03 bc 40 84 41 3d a1 87 0a 3d 0f 91 ba 3d
       -0.0079978 0.047245264 0.033820752 0.09109699
000380 c4 79 fb bd 75 24 7f 3c c0 83 59 bd dd c7 c1 bb
       -0.12279084 0.015572657 -0.053104162 -0.005913718
000390 e8 6e 1e bd 45 ea 04 3d 69 3b 35 3d 08 3a 16 3d
       -0.038679987 0.03244998 0.04424611 0.036676437
0003a0 8f bd 38 3d cf 8b 39 bd ba 0f 87 3d 27 70 e8 3b
       0.045102652 -0.045299347 0.065947965 0.0070934477
0003b0 a3 c2 52 3d 5a 68 09 bd b6 b9 fe 3c fa e8 e9 3c
       0.05145515 -0.033546783 0.031094413 0.028553475
0003c0 c5 a1 0c 3d 59 17 5c 3d ed 94 46 bc f3 c2 03 bd
       0.034333963 0.053733204 -0.012120468 -0.03216834
0003d0 c5 fc a3 bc 52 0b e6 3c 8a 1a a6 3d 1e 31 4f 3b
       -0.02001799 0.02808157 0.08110531 0.003161497
0003e0 67 f2 31 3c 9d 41 80 3d 76 1b ed bc 16 63 65 bd
       0.010861016 0.06262515 -0.028943758 -0.0560027
0003f0 b0 d7 36 3b 32 4e a0 bb 58 45 3d bd 89 c4 77 3c
       0.0027899556 -0.004892134 -0.04620871 0.015122541

decoders.0.decoder_net.4.bias f4 [32]
000000 c2 40 06 bd 4d ad 9a bc 12 35 8b bd 98 bf 5b bd
       -0.0327766 -0.018881464 -0.06797232 -0.053649515
000010 a6 dc 01 3d 6e b1 39 3d d3 82 7a bc e1 c6 11 3d
       0.031704567 0.045335226 -0.01528998 0.035590056
000020 19 0f 5e 3d 2e 2e 25 bc c9 93 94 bd 22 13 e2 3d
       0.054213617 -0.010081811 -0.0725475 0.110388055
000030 0c ce 21 bc ff d6 73 3c c7 49 29 bc 18 4e 80 3d
       -0.009875786 0.014882802 -0.010332531 0.06264895
000040 ea a3 22 bc 35 04 5c 3d 42 bb ac bd ce 1c 81 3d
       -0.0099267755 0.05371495 -0.08434154 0.06304322
000050 38 7a b1 3d 3b c7 d3 3c 7a 59 8f 3c b8 b5 11 3d
       0.086658895 0.025851836 0.01749872 0.03557369
000060 87 ad e0 3c 8f 08 b7 3d c3 c8 dc bc b0 06 e6 3d
       0.027426494 0.08937179 -0.0269512 0.11231744
000070 d4 91 86 3c a4 06 17 bd f5 e6 ac 3d 19 6a a9 bd
       0.016426958 -0.036871567 0.08442489 -0.0827219

decoders.0.decoder_net.6.weight f4 [32]
000000 2d f1 79 3f d8 81 6f 3f c1 50 79 3f 91 30 74 3f
       0.9763363 0.935575 0.97388846 0.95386606
000010 a7 a5 71 3f ab dc 71 3f 62 c2 6a 3f 4a b2 75 3f
       0.9439339 0.9447734 0.91702855 0.9597517
000020 3b b2 7a 3f a8 8c 78 3f d9 72 67 3f 46 c3 79 3f
       0.9792821 0.97089624 0.9040962 0.9756359
000030 5b 03 74 3f 77 12 73 3f 6e 18 7f 3f b1 85 71 3f
       0.9531762 0.9495005 0.9964665 0.9434462
000040 e1 79 76 3f 7e 56 7b 3f 49 18 75 3f 5c 48 67 3f
       0.9627972 0.9817885 0.9574018 0.90344787
000050 63 bc 70 3f 3b e2 68 3f 51 13 72 3f 3c 17 7a 3f
       0.94037455 0.909702 0.94560724 0.976917
000060 82 92 7e 3f 3a 6d 73 3f c4 30 6f 3f 11 75 7e 3f
       0.99442303 0.9508854 0.93433785 0.9939738
000070 02 32 6d 3f 73 8a 66 3f a6 38 6f 3f f8 4e 76 3f
       0.9265443 0.90055007 0.93445814 0.96214247

decoders.0.decoder_net.6.bias f4 [32]
000000 7b 42 06 bd a2 29 96 3c 76 c6 e0 3c 76 d3 12 bb
       -0.032778244 0.018330399 0.027438384 -0.0022403873
000010 8c 4b 3d 3d 24 f2 04 3c f0 1e 16 3d 1a 89 cc bc
       0.046214625 0.008114371 0.036650598 -0.024967719
000020 ff 2e de 3c bc 74 0b bd c2 18 88 3c 4a 59 0f 3d
       0.027122019 -0.034046873 0.016613368 0.034997262
000030 7f eb 7d bd e1 87 0e bd d1 f8 21 3d d2 03 f8 3c
       -0.061992165 -0.034797553 0.03954393 0.03027526
000040 51 56 54 bd 90 86 1d bd 7d 87 80 3c 3e 57 44 bd
       -0.05184013 -0.038458407 0.015689606 -0.047934763
000050 c4 00 46 bd c0 5c a3 3d 31 55 3d 3d f8 10 26 bd
       -0.048340574 0.07976675 0.046223823 -0.040543526
000060 04 5f d2 bd 66 17 bc 3c 57 6d 45 bd 7a b4 c7 3b
       -0.10272029 0.022960376 -0.048199978 0.0060945125
000070 b6 06 5a bd 12 eb 29 bd 3e a6 3e 3d a3 b9 4a 3d
       -0.053229056 -0.041483946 0.04654526 0.049493443

decoders.0.decoder_net.6.running_mean f4 [32]
000000 cd d9 f7 3c 7a 88 f7 3c dc 29 eb 3c ad 40 f1 3c
       0.030255223 0.030216444 0.028706484 0.029449785
000010 5d 23 0a 3d 0b cf 06 3d d8 80 f8 3c 58 cb 05 3d
       0.03372513 0.032912295 0.030334875 0.032664627
000020 19 8d fe 3c a4 04 f5 3c 2b e4 ea 3c 12 33 0b 3d
       0.03107314 0.02990944 0.028673252 0.03398425
000030 dc aa fc 3c 0c b6 f6 3c 20 67 f3 3c c1 79 06 3d
       0.03084319 0.030116104 0.02971226 0.032830957
000040 c6 d8 f7 3c 6b 8c 08 3d 10 e8 e9 3c 7c 8f 03 3d
       0.030254733 0.033337038 0.028553039 0.03211926
000050 35 84 0b 3d f0 4d 00 3d 75 9a 01 3d f6 71 00 3d
       0.03406163 0.031324327 0.031641442 0.03135868
000060 af 73 04 3d 3c 70 0a 3d 59 38 fe 3c f6 4a 0a 3d
       0.032336887 0.03379844 0.031032728 0.033762895
000070 c2 d5 f8 3c c7 f8 f4 3c 1a 30 07 3d 26 24 e3 3c
       0.030375365 0.029903783 0.033004858 0.027727198

decoders.0.decoder_net.6.running_var f4 [32]
000000 a4 fd 42 39 97 f8 28 39 1f 06 17 39 86 38 37 39
       0.0001859577 0.00016114335 0.00014402762 0.00017473297
000010 4a f8 a7 39 1d ac ab 39 65 40 0b 39 85 a1 88 39
       0.00032037712 0.00032743896 0.00013280062 0.00026060283
000020 c1 ed f7 38 b6 95 73 39 1b e8 0a 39 c8 01 65 39
       0.00011822163 0.00023230058 0.00013247172 0.00021839805
000030 77 a2 46 39 fc 4c ee 38 7f d7 2d 39 49 64 4d 39
       0.00018943274 0.00011363064 0.00016578844 0.00019587683
000040 5c f4 0c 39 0e 97 68 39 f1 46 38 39 fb ef 2f 39
       0.00013442471 0.00022181516 0.00017574035 0.000167787
000050 ae 3e 91 39 be 32 1e 39 fd 79 17 39 bd 89 16 39
       0.00027703255 0.00015086957 0.00014445926 0.00014356426
000060 6d f6 78 39 91 2e 77 39 a7 0a 54 39 9f eb 2d 39
       0.00023742924 0.00023573103 0.00020221864 0.00016586341
000070 a4 38 e8 38 c1 e6 16 39 b3 46 76 39 21 c0 c9 38
       0.00011073172 0.00014391077 0.00023486726 9.620214e-05

decoders.0.decoder_net.7.weight f4 [32, 16, 3, 3]
000000 a4 cd 9e 3d 22 3b c2 bb 98 93 22 3d 83 36 75 bd
       0.077540666 -0.0059274593 0.039691538 -0.05986644
000010 d7 af 0c 3d 3b 6b 85 bc 4d 5f 01 3d ea b7 d8 bc
       0.03434738 -0.016286483 0.031585027 -0.026454885
000020 a8 8a a4 bd d5 f4 09 3d a1 94 d3 bd f3 b1 2c 3c
       -0.08034259 0.033680756 -0.10331083 0.010540473
000030 31 b1 98 3c 6d ad f8 3c 57 55 55 3d 5a 87 78 3b
       0.018639179 0.030356133 0.05208334 0.0037922473
000040 d3 2f af 3c 92 16 ec 3b 96 74 19 3d 7c c0 12 bd
       0.021385109 0.007204839 0.0374647 -0.0358281
000050 6d ce 10 bd cd 4b 79 bd d8 58 fc bd 4a 4f 5d bd
       -0.035353113 -0.060863305 -0.12321633 -0.054030694
000060 b6 4c 7f bc a7 f0 02 3d fe 5c 3d 3b 9c e5 23 3b
       -0.015582254 0.031967785 0.002889454 0.0025008684
000070 42 5d d5 38 c6 b4 09 3d 68 79 63 3d a2 09 31 3d
       0.00010174002 0.033619665 0.055535704 0.043222077
000080 84 ed 12 3d cd af b1 bb d3 4a 13 3d ac d8 88 3d
       0.035871044 -0.0054225684 0.03596003 0.06681952
000090 e2 6f f3 b9 7d ff 1c 3c e7 1f 14 bd 1a 3c 6f 3c
       -0.0004643193 0.0095823975 -0.036163237 0.014601732
0000a0 73 03 85 bd 41 b8 65 bd ba 17 7e 3d ab d2 31 bb
       -0.064947985 -0.05608392 0.062034346 -0.0027133625
0000b0 dc e1 85 bd 81 f1 a2 3c 1f 66 2e 3d 48 75 0e bd
       -0.0653722 0.019890549 0.04257786 -0.034779817
0000c0 a2 68 dc 3d b5 29 be bd eb 51 43 bb b0 76 8d 3c
       0.107621446 -0.09285299 -0.0029803466 0.017268509
0000d0 f2 9d bf 3d da 2a 2b bd 0c 0a 17 bd 61 16 b2 bd
       0.093562976 -0.041788913 -0.036874816 -0.08695675
0000e0 f9 9c d0 bb c8 7e 01 3c 9b 5f 6c bd 57 c6 08 bd
       -0.006366369 0.007903762 -0.057708364 -0.033392277
0000f0 6d 76 1a bd 0e e8 58 3c d1 5f 09 bc cb 7e a2 bd
       -0.037710596 0.01323892 -0.008384661 -0.0793434
000100 93 79 0c 3d 21 7b ca 3c 34 73 c0 3c e3 bd ca 3d
       0.03429563 0.024716916 0.023492433 0.09899499
000110 05 af 9a bd c7 fa 08 3d 7e 8d 21 3d 9b fc 26 bd
       -0.075529136 0.033442285 0.039441578 -0.040768247
000120 4b be 09 bd 47 2f b8 3c 41 4a 8e bd fe 50 a1 bd
       -0.033628743 0.022483481 -0.069477566 -0.07876776
000130 25 51 e1 3d 46 9a 53 3d d2 fb 83 3c 08 4b 2c 3d
       0.11001805 0.0516608 0.016111288 0.042063743
000140 b0 26 df 3a 8c 89 b8 3d 1b d0 d0 bd 5f da e8 3b
       0.001702508 0.0901061 -0.10195943 0.00710611
000150 b1 fb 28 3c d7 17 e4 bd 26 c7 10 3d 3b 16 2b 3d
       0.010313914 -0.111373596 0.035346173 0.041769248
000160 29 0a 5f 3b 6b 04 a3 3a c1 55 eb 3c 42 f7 5c bd
       0.0034033156 0.001243723 0.028727414 -0.05394674
000170 43 bb dc 3b 7a 46 e2 3b 1c 2b 96 3d 4c 8a 0f bd
       0.0067361905 0.006905374 0.07332441 -0.035044
000180 51 c3 2e 3b 97 bf 14 bd d1 f6 64 3d 64 9b 42 3d
       0.002666671 -0.036315527 0.055899445 0.047511473
000190 bc 28 e6 bb 92 3e 50 bd f5 ad cc 3d 57 41 a8 3d
       -0.007023899 -0.05084092 0.09994117 0.082155876
0001a0 26 16 a2 bc de 4d 98 3d 13 94 0a 3d 1b 5b 02 bc
       -0.019785952 0.07436727 0.03383262 -0.007956292
0001b0 66 8f 24 bd 41 8e 9b 3b db 4e 38 bd d7 9d 98 3d
       -0.040175818 0.0047471826 -0.044997077 0.074519806
0001c0 7e c2 95 3d eb d7 1e 3c 82 93 d2 ba 0b 38 52 bd
       0.07312487 0.009695034 -0.0016065689 -0.051322978
0001d0 b3 d0 c3 bd fd 54 81 3c 3e 4d a2 bd 1f de 8b 3b
       -0.095612906 0.015787596 -0.07924889 0.0042684223
0001e0 e4 2a 81 bd 73 fb 6d 3d 26 3d 91 3d 3a a6 3e bd
       -0.06307009 0.05810113 0.07091741 -0.046545245
0001f0 0f 65 e5 3c 92 2e 42 3b 1b b2 a9 3d da 95 37 3d
       0.02800229 0.002962981 0.08285924 0.044820644
000200 15 36 52 3b f0 2e a4 3d 53 86 73 3c a7 c4 71 bd
       0.0032075692 0.08016765 0.014863568 -0.059025433
000210 5b af bf 3c 6a 21 99 bd 66 0b c5 bd 88 11 ea 3c
       0.023399046 -0.07477076 -0.09621315 0.028572813
000220 c4 8e 59 3d 73 33 4e 3d a8 94 63 bd 64 26 8a bd
       0.053114668 0.050342035 -0.05556169 -0.06745604
000230 6f 31 55 3d 09 35 46 bd a2 4d 95 3d b6 cb ce bb
       0.052049097 -0.048390422 0.07290198 -0.0063109053
000240 df 3d c0 bc 1e 11 2a bd d1 16 3b bd f1 ef a2 bd
       -0.023467002 -0.04152023 -0.045676056 -0.079559214
000250 7b 90 c3 bb da a3 ee bc 01 b9 93 bc 8b 96 d9 bc
       -0.005968151 -0.029130865 -0.018032553 -0.026561042
000260 ae 4c 8e bd 3a 41 51 3d a7 bd 5e 3d cf 13 40 bd
       -0.06948219 0.051087596 0.054380085 -0.04689389
000270 f8 a1 1b 3d 78 cb 80 3d b7 94 d5 3d 22 c9 1d 3c
       0.037996262 0.062888086 0.10428756 0.009630473
000280 b8 6b b3 3d 5f 5d 2a 3b cc e8 62 bd dd d1 f1 bc
       0.0876078 0.0025995595 -0.055397794 -0.029519016
000290 52 77 7c bd b4 85 e8 bc 42 6f 78 bd 38 c9 90 bd
       -0.06163723 -0.028384067 -0.06065298 -0.070696294
0002a0 4f f9 58 bd 47 32 27 3c 65 5c 0a 3c 63 04 56 3c
       -0.052972134 0.010204858 0.00844488 0.013062569
0002b0 fa 11 99 3d 32 54 52 bc 68 3d a8 bd ed 69 6e 3d
       0.07474132 -0.012837457 -0.08214837 0.058206487
0002c0 65 7f bb 3c c6 14 ff 3c de e4 5e 3d cd 0d 9e bc
       0.022887895 0.031137835 0.054417484 -0.01929369
0002d0 d8 79 8c 3c da 2c de bd ca 02 8c 3c e6 d5 9e bd
       0.017147943 -0.108483985 0.017091174 -0.07755642
0002e0 1d 88 15 bd 92 1e 9c 3d 2c 51 b1 bd 09 96 dc bb
       -0.03650676 0.07623018 -0.086580604 -0.006731753
0002f0 8b 4b 11 3d 89 ce 16 bd 0f 53 bc 3d 0a e3 18 bd
       0.035472434 -0.03681806 0.0919553 -0.037325896
000300 f1 cf cc 3c 37 d5 c6 bc 89 f4 f2 3c cf 86 11 3d
       0.025001498 -0.02427159 0.02965762 0.035528954
000310 83 68 7f 3c 7a 77 b2 ba 0a e7 ca 3c bf 6d b6 3d
       0.015588882 -0.0013615929 0.024768371 0.08907651
000320 a1 e1 21 3d bd 9d de 3d 50 07 d7 bc a2 0f 10 3d
       0.039521817 0.1086993 -0.026248604 0.03517116
000330 45 b5 8e bd d5 b0 ac 3d 91 2e 90 3d 89 e0 6f bc
       -0.06968168 0.084321655 0.07040132 -0.014640936
000340 5d 92 3b 3b bf 92 95 3d 18 95 9b 3c e6 38 a7 3d
       0.0028621175 0.0730338 0.018991992 0.081651494
000350 6d 4f 9f 3d b9 f0 a2 3d 9e 9d 9a 3d 98 74 66 3c
       0.07778821 0.079560705 0.07549594 0.014065884
000360 d0 4b 56 38 0d da dc 3c 45 41 09 bc 7a 07 05 3d
       5.1092182e-05 0.026959443 -0.008377378 0.032477833
000370 10 e1 d0 3c fd 1d ed 3c a5 bb b9 bc 47 90 80 bd
       0.025497943 0.028944964 -0.022672484 -0.06277519
000380 56 66 0c bd b9 9d c8 bd 90 c4 41 3d 38 68 82 bd
       -0.034277283 -0.09795708 0.047306597 -0.063675344
000390 86 c1 9c bd ad 62 b1 3c 3c 81 e4 3c 15 0f a9 3b
       -0.07654099 0.021653498 0.027893655 0.0051592686
0003a0 06 a2 87 bd 9c 30 1c be 5c dd ef bc 0b 15 09 bd
       -0.066227004 -0.15252918 -0.029280357 -0.033467334
0003b0 8c b3 ad bb cb ad 67 bd f9 e9 6d 3c 1a 1d 62 bd
       -0.0053009447 -0.056562226 0.014521115 -0.055203535
0003c0 d7 ad 1b 3d e9 3d 12 bc bc 93 92 bd ca e8 0e 3d
       0.038007583 -0.008925893 -0.07157084 0.034889974
0003d0 e6 60 0d bd 9a 31 c4 bc 5a e2 4b bd 71 3d 00 bc
       -0.034516238 -0.023949433 -0.049776413 -0.007827149
0003e0 09 1d d5 bc fc 9d ae bc 11 a8 ae bc 83 96 3e bd
       -0.026014822 -0.021315567 -0.021320375 -0.046530258
0003f0 8b 83 40 bd 15 c8 eb 3c 4a 24 47 3c 3c 10 a1 3d
       -0.04700045 0.02878193 0.012154648 0.078644246

decoders.0.decoder_net.7.bias f4 [16]
000000 e6 80 59 be b5 fc 2a be cc e7 ec 3d fc c1 9e 3c
       -0.21240577 -0.16697963 0.11567649 0.019379608
000010 d5 f7 c1 3d e3 7b 92 3d 4e 03 9e 3c be 3e b9 bc
       0.09471098 0.07152536 0.019288685 -0.022612926
000020 4c 29 f9 ba 9a 30 e9 3d 94 2f 38 bd ec 64 b1 3b
       -0.00190095 0.11386223 -0.04496725 0.005413642
000030 c9 3d 7e bd 1c b7 84 bd 5c 9a 72 bd 75 8e 79 bd
       -0.06207064 -0.06480238 -0.05922924 -0.060926873

decoders.0.decoder_net.9.weight f4 [16]
000000 f8 50 75 3f 68 09 76 3f f4 e3 74 3f dd 4f 78 3f
       0.95826674 0.961081 0.9566033 0.9699686
000010 0a 91 71 3f 36 08 72 3f ae d8 72 3f e7 c0 75 3f
       0.9436194 0.9454378 0.94861877 0.9599747
000020 e0 7d 76 3f 76 9f 71 3f b4 50 72 3f 1d 94 78 3f
       0.9628582 0.94383943 0.94654393 0.97101
000030 d4 a2 75 3f 5b 1b 76 3f 3a 63 74 3f 25 56 75 3f
       0.9595158 0.9613549 0.9546391 0.9583457

decoders.0.decoder_net.9.bias f4 [16]
000000 a8 21 87 3d 01 2e 9b 3d f4 ef 2d bd 8c d9 ae 3d
       0.06598216 0.07577134 -0.042465165 0.085375875
000010 97 82 63 bc ee 27 c6 bd 4c 35 15 3d a3 88 83 3d
       -0.0138861155 -0.09675585 0.03642778 0.06422546
000020 3c ae 4a bd 6f 5e a6 bd 02 c9 0e bd 7f 0f 97 bd
       -0.04948257 -0.081234805 -0.034859665 -0.073760025
000030 21 6a 27 3d 5a d8 4d 3d 69 cb 36 bc c9 a3 89 3d
       0.040872697 0.050255157 -0.011156895 0.06720693

decoders.0.decoder_net.9.running_mean f4 [16]
000000 ff 46 54 3d 13 92 5c 3d 81 9e 91 3d 46 08 85 3d
       0.05182552 0.053850245 0.0711031 0.06495719
000010 95 8a 8a 3d 0e 10 89 3d 2b 84 83 3d 50 fe 81 3d
       0.06764714 0.06692515 0.064216934 0.063473344
000020 ff b9 7e 3d 5c bb 90 3d ef a0 78 3d 88 50 7e 3d
       0.0621891 0.07066986 0.060700353 0.06208852
000030 d7 77 77 3d 17 22 72 3d 9e 6f 73 3d 28 73 7b 3d
       0.060417023 0.05911454 0.05943262 0.06138912

decoders.0.decoder_net.9.running_var f4 [16]
000000 7b b2 11 3a 81 0f 06 3a a2 f3 96 3a d0 72 4c 3a
       0.00055579067 0.00051140046 0.00115167 0.0007799091
000010 13 09 35 3a f7 86 1d 3a 2e d7 43 3a 04 c7 3b 3a
       0.0006905954 0.0006009186 0.0007470724 0.00071631395
000020 eb 40 34 3a 46 05 7f 3a 23 db 34 3a 0f e2 df 39
       0.00068761286 0.0009728264 0.0006899109 0.000427023
000030 7c 0d 4b 3a 93 20 5d 3a d5 ad 21 3a 9f d0 63 3a
       0.0007745845 0.0008435335 0.00061675656 0.000869045

decoders.0.decoder_net.10.weight f4 [16, 1, 3, 3]
000000 e1 6f 24 3e 1d a1 ef bc 45 71 4d 3e ed de 28 3e
       0.16058303 -0.02925163 0.2006274 0.1649129
000010 13 5b 1e 3e 98 62 97 3e ad b4 8b 3c 54 3c 2a be
       0.1546443 0.2956741 0.017053926 -0.16624576
000020 89 06 11 be c3 1c 87 3d 24 f6 af 3d d3 8c 40 be
       -0.14162649 0.06597283 0.085918695 -0.1880372
000030 63 b8 03 bd ec c6 9b 3e 3d 25 a2 3d b8 26 f9 3d
       -0.032158267 0.30425203 0.07917259 0.12165588
000040 5b 04 68 3e a6 47 2a 3e db b7 0e 3e 59 3c 0f be
       0.22657911 0.16628894 0.13937323 -0.13987865
000050 9c 7c 75 be 50 4a 39 3e 34 34 43 bd 27 17 97 bd
       -0.23973316 0.18094754 -0.047657207 -0.07377463
000060 a5 09 90 3d 9e 13 e9 bd 88 d6 1d be 31 36 ef bd
       0.070330895 -0.11380695 -0.15413868 -0.11680258
000070 bb 78 08 3e 14 8f 9a bd a5 09 5f 3e 1f 6d 17 3e
       0.13327305 -0.07546821 0.21781023 0.1478772
000080 04 07 7c 3e 42 53 3b 3d 9e c8 29 bc 35 7c 9d bd
       0.24612051 0.045733698 -0.010362772 -0.07689706
000090 ad 08 96 bb 66 79 ce bb 1f 9a c3 bd c5 a0 35 3c
       -0.004578671 -0.006301093 -0.09550881 0.011085694
0000a0 5e 48 4b bd 2a 5c 31 be cd 2c 3e bd 88 fd 24 3e
       -0.04962956 -0.17320314 -0.046429444 0.1611234
0000b0 65 68 b6 bd b6 57 e9 3d 67 9c 85 be f2 b9 e0 3b
       -0.089066304 0.11393683 -0.26095888 0.006858104
0000c0 ca 8d 36 3e 9d e1 07 be a4 18 0c be 43 5a ba 3d
       0.17827526 -0.13269658 -0.13681275 0.09099247
0000d0 4d 5e bd 3b 2b 5a 7c bd c2 63 74 3e 11 e5 b3 3d
       0.005779064 -0.06160943 0.2386618 0.08783925
0000e0 71 7a 1c 3e 89 70 20 3e 90 2a 4a be 23 b0 82 3e
       0.15281083 0.15667929 -0.19742799 0.25525007
0000f0 66 50 f2 bd 90 91 c0 bd 7a 69 cc bc 0d 55 bb bd
       -0.11831741 -0.09402764 -0.024952639 -0.091470815
000100 7c f8 89 3d 01 4e 3b be 35 7b 20 be a8 0d 78 3e
       0.06736848 -0.18291475 -0.15672 0.2422396
000110 e9 1c 8d 3e 4f 8d 98 3e 00 ea 87 3e 0e 84 6c 3e
       0.2756112 0.2979531 0.26545715 0.2309725
000120 39 e2 49 3d da a7 10 be 92 15 9e 3d 78 a5 5f 3e
       0.04928801 -0.1412653 0.07718958 0.21840465
000130 6e 81 1e be b2 3e 83 3e 71 d9 10 bd 3f 65 3e be
       -0.15479061 0.2563377 -0.03536362 -0.1859331
000140 36 0d 7e be a8 b9 6d bd e3 de 14 3e 2c 07 e9 bd
       -0.24809727 -0.058038384 0.1453815 -0.11378321
000150 8c c8 7f be 56 d0 4e bd da f7 88 3d 08 b4 08 3e
       -0.24978846 -0.050491653 0.06687899 0.13349926
000160 12 ed 9a 3d 16 c7 68 bd 89 8d f1 3d d3 f9 d1 3d
       0.07564749 -0.05683049 0.11794574 0.10252728
000170 41 6a ac 3d 5d d5 61 3e 0e 57 4f be 59 85 8d be
       0.08418704 0.22054048 -0.20248052 -0.276408
000180 e7 ca 88 be c6 b9 e3 3d 57 ed 19 3e 0a f3 0c be
       -0.26717302 0.11119418 0.15031944 -0.13764587
000190 3a 5f 22 3d 49 68 29 bd 5a 5e 56 be 7e af 34 be
       0.039641596 -0.04135922 -0.2093443 -0.1764507
0001a0 05 1d be bc 14 be 53 bd d4 1d e7 bd 51 12 0a 3e
       -0.023207197 -0.051694945 -0.11284986 0.1348355
0001b0 29 2f cb 3d 1d 06 88 3e b3 8f 01 bd b1 f0 47 3e
       0.099211045 0.26567164 -0.031631183 0.1952541
0001c0 fb 73 9f bd d7 0a 02 bc 27 03 27 3e cb 67 0b 3e
       -0.077857934 -0.007937155 0.16309796 0.13613813
0001d0 c9 61 35 3e a0 6f 80 3e f9 0e cb bd 3f b0 22 bd
       0.17713083 0.25085163 -0.09914965 -0.039718863
0001e0 b0 4e 3a be 4b b7 b5 3d 50 56 e2 bd 36 20 bb 3d
       -0.1819408 0.08872851 -0.11051619 0.09137003
0001f0 d7 64 85 3e d7 38 99 3e d0 12 13 3e d4 21 57 be
       0.26053497 0.29926178 0.14362645 -0.21008998
000200 5a b6 0a 3e 3a 9e 9c 3c 11 1f f4 bc f4 ad 51 3d
       0.13546124 0.019118417 -0.02979997 0.051191285
000210 6c 89 15 bd 68 46 79 be 6e ca 81 be 3d 47 88 be
       -0.03650801 -0.24343264 -0.25349754 -0.2661685
000220 2d 20 3a 3e 22 49 0d 3c 62 49 72 be 3d 48 5c 3e
       0.18176337 0.008623393 -0.23660806 0.21511932
000230 47 f3 21 3e da 31 39 3e fa 15 b4 bb b7 5f 6d 3e
       0.15815459 0.18085423 -0.005495784 0.23181044

decoders.1.decoder_net.0.weight f4 [512, 2]
000000 95 ea da 3e 99 17 fc 3e 5d f6 bb be ce d5 07 3f
       0.42757097 0.49236754 -0.36711398 0.53060615
000010 a4 4a d0 be 89 0a 4c 3e 23 0a 25 3f 4a 61 55 be
       -0.40681946 0.19925894 0.6446859 -0.20837894
000020 91 ce c8 3d e2 2f 1c be 90 0e 15 bf 9e 31 fd 3e
       0.098050244 -0.15252641 -0.58225346 0.49451917
000030 49 33 0e bf 8c f7 d9 3e b4 8f f9 3e 14 c8 ce 3e
       -0.55547005 0.42571676 0.4874245 0.40387022
000040 dc a7 c5 be 38 b0 f4 be 6a 23 8a be 12 35 1d 3f
       -0.3860463 -0.47790694 -0.26980144 0.61409104
000050 7e 54 18 3f e0 27 5e 3f 7d 19 35 bf 64 fc a3 3e
       0.59503925 0.86779594 -0.7074202 0.32028496
000060 e9 4f 0e bf 4d ae 2b be 00 f6 24 bf 4b f5 fd 3e
       -0.55590683 -0.16765709 -0.64437866 0.49601206
000070 5f f4 20 3f f7 66 dc be d7 8b bb 3e 4b 0d bf be
       0.6287288 -0.43047306 0.36630127 -0.3731483
000080 2a e2 03 3f b5 e9 b9 be fc 42 0e bf 69 90 eb 3e
       0.51516974 -0.36311117 -0.5557096 0.46008614
000090 71 40 89 be 80 9c 17 bf 0c 33 cd 3d 38 9b dc 3e
       -0.26806977 -0.59223175 0.10019502 0.43087173
0000a0 c8 de df bc e5 b0 14 3f 5a 73 a8 be ef 12 e8 bc
       -0.02732791 0.5808242 -0.32900506 -0.02832934
0000b0 ff d9 ad 3e 91 32 00 bf 60 41 0c 3f 35 e7 97 bd
       0.3395538 -0.5007716 0.54787254 -0.07417146
0000c0 c8 7b d8 3e fb a1 dc bd fe 93 2c 3e 36 b6 ce 3e
       0.42281938 -0.10773083 0.1685333 0.4037339
0000d0 3d 3c da 3d 38 28 17 bf 6e 83 9c 3e 90 19 08 3f
       0.10656021 -0.59045744 0.30569023 0.53164005
0000e0 f6 e5 8a 3e 01 63 d4 3e f9 fb f0 3e 6e 43 94 be
       0.2712857 0.41481784 0.4706724 -0.28957695
0000f0 df 57 83 be 40 fa 5e 3e 5f bf e7 be f5 ad f4 be
       -0.25652978 0.2177515 -0.45263192 -0.4778897
000100 83 25 19 3e ec 89 90 be d6 30 44 3e 08 b4 97 3d
       0.14955716 -0.28230226 0.19159254 0.07407385
000110 dd 1e 09 3f 1e e1 1d 3e dc 42 fe 3e 33 82 91 3e
       0.5356272 0.15417907 0.49660385 0.28419647
000120 8f fe f9 bd 2c 70 9a 3e c3 23 63 3e 16 54 96 3e
       -0.12206756 0.30163705 0.22181611 0.29361027
000130 74 f1 23 3f 8d 85 51 bd 9b af 31 3f 57 04 50 3e
       0.64040303 -0.051152755 0.6940858 0.20314156
000140 21 9e f6 be ce d6 f9 3e f6 2b 4d be 88 df 8b 3e
       -0.48167518 0.48796695 -0.20036301 0.27318978
000150 ce cb 2c 3f 4c 83 17 bf d0 48 b7 be da 3c 23 3f
       0.6749848 -0.5918472 -0.3579774 0.6376473
000160 4a 48 85 be 90 ca f1 3d 9a 39 20 bf 96 28 19 3f
       -0.26031715 0.11806214 -0.62587893 0.59827554
000170 17 a3 ab 3e 64 8e c9 3e 7c fe df bc d9 c2 ab 3d
       0.33522865 0.39366448 -0.027343027 0.083867736
000180 66 53 dd 3e b1 27 10 3f 40 20 33 bf 78 73 34 3d
       0.4322769 0.56310564 -0.69971085 0.044055432
000190 0d aa cb be aa 66 f9 bc 7c ee b5 be 79 43 79 3e
       -0.39778176 -0.030444462 -0.35533512 0.24342145
0001a0 f5 82 ed 3e 00 8c a0 be 34 82 77 3c 20 c1 84 be
       0.46388975 -0.31356812 0.015106726 -0.25928593
0001b0 e1 8e 0d 3f 9c 6a d6 3d 10 8d c3 3d 05 04 19 bd
       0.5529614 0.10469553 0.0954839 -0.03735735
0001c0 30 b8 16 be 60 d1 42 3e 97 99 26 3f 70 5d f2 3e
       -0.147187 0.19025183 0.6507811 0.47336912
0001d0 d8 6e 26 bf 3d 8b 9b 3e f3 2c ca 3e 48 c0 47 be
       -0.65012884 0.30379668 0.3948742 -0.19506943
0001e0 1f 71 9d 3e c9 47 a8 3c 39 bf 2d be ab de 2c bf
       0.30750367 0.020542042 -0.16967477 -0.67527264
0001f0 a4 71 e9 3e 54 dc 1f bf 53 38 ac be 2e e0 93 be
       0.45594513 -0.6244557 -0.33636722 -0.28881973
000200 c9 7d f7 bd 93 d2 03 be e4 1d 27 bf 8f c8 74 be
       -0.120845385 -0.12873296 -0.65279984 -0.23904632
000210 01 28 d5 bd 96 35 15 3f 40 78 8c 3e 42 6b 51 bd
       -0.10408021 0.5828489 0.27435493 -0.05112768
000220 c7 3a 74 be e0 3e 10 3e 72 07 77 3e 16 71 06 bf
       -0.23850547 0.14086485 0.24123934 -0.52516305
000230 a1 d8 2b be a5 ba dc 3e 16 9e fa bd 14 ef 26 bf
       -0.16781856 0.43111148 -0.12237184 -0.65208554
000240 52 00 62 3e fa 73 b7 3e f5 63 59 bd b7 1f f9 3e
       0.22070435 0.3583067 -0.053073842 0.4865701
000250 94 e6 0d 3f f6 c8 44 be 37 7f 20 bf 01 33 65 3e
       0.5542996 -0.19217286 -0.62694114 0.22382738
000260 98 0e d7 be fe 89 de be d4 55 d4 3e 23 49 58 3e
       -0.42003322 -0.43464655 0.41471732 0.2112165
000270 3b 15 cc be bb 1b 41 be 4d 27 47 be 6e f8 70 be
       -0.39859948 -0.18858235 -0.19448586 -0.23532268
000280 7c f8 29 bf c7 36 e3 bb 56 d5 05 bf d8 54 c7 be
       -0.6639478 -0.00693402 -0.5227865 -0.38931918
000290 df 8b 81 3e 77 5b 2e bf 3e ce 57 be 71 9e 56 3e
       0.25302026 -0.68108314 -0.21074769 0.20958878
0002a0 b2 8e ff 3e af d1 83 3e 85 60 5a be 32 19 9b be
       0.49913555 0.25745913 -0.21325882 -0.3029266
0002b0 93 e5 a0 bd e2 0f 03 be 0f aa fe 3e 31 2b 96 be
       -0.07856288 -0.12799028 0.4973912 -0.29329827
0002c0 82 09 ad 3d 65 50 1c bf ca 0b 2b 3f f1 06 6a 3f
       0.08449079 -0.6106017 0.66814864 0.9141684
0002d0 c8 39 0f 3f cc 1b d1 be be 13 1d bf 14 32 24 3f
       0.5594754 -0.4084152 -0.6135825 0.64138913
0002e0 76 b8 65 be 4b c3 26 bf fd 9d bc 3e 3a 30 09 3f
       -0.22433648 -0.65141743 0.36839285 0.5358921
0002f0 ef 8c c7 be 01 5f 58 be ca 22 f7 3e d2 02 f8 3b
       -0.3897471 -0.21129991 0.4826873 0.0075686956
000300 3a d8 90 be 12 ae d1 3c 95 4d 83 3e 87 ca 87 3e
       -0.28289968 0.025595699 0.25645128 0.26521704
000310 ac 60 29 3f b2 8a 93 be 6b 66 0e 3f 6f 61 69 3d
       0.66163135 -0.28816754 0.5562503 0.056977686
000320 76 75 0a 3d c0 25 db 3e aa 2e 64 3e 0c 49 45 bf
       0.033803426 0.42802238 0.22283426 -0.77064586
000330 fc 93 14 3f 3b 18 df 3e 7f f6 02 3f 69 32 5e be
       0.58038306 0.43573174 0.51157373 -0.21698917
000340 c0 3d c9 be 6d e6 09 bf e2 5b f1 be a8 d4 d8 3e
       -0.39304924 -0.53867227 -0.47140414 0.42349744
000350 d1 9f 84 be 67 98 b4 3e 64 4f 1f bf d9 68 d7 3d
       -0.2590318 0.35272524 -0.62230515 0.10518045
000360 69 04 23 bf 51 46 77 be be ba 37 3f 20 91 a4 3e
       -0.63678604 -0.24147917 0.7176932 0.32141972
000370 12 87 c4 be fb 29 9a 3e 02 68 20 3f eb 82 1b bf
       -0.383843 0.30110154 0.62658703 -0.6074664
000380 ef 8c 2e bf 3d b3 9b be 30 4f 10 bf 20 4f c8 bd
       -0.681838 -0.30410185 -0.5637083 -0.09780717
000390 d5 9c 7b be 2b ce 27 3e ad 6c 07 3f b2 68 93 3d
       -0.24571545 0.1638724 0.529002 0.071977034
0003a0 01 fb 68 bc da 49 db be 20 ae 24 3f 30 58 d1 be
       -0.01422 -0.42829782 0.64328194 -0.40887594
0003b0 8f 23 27 be 2a 86 c8 be ba 58 0d bf 10 ee c2 be
       -0.16322158 -0.3916486 -0.5521351 -0.38072252
0003c0 55 b6 08 3e f2 0d 30 be 65 ea 24 bf 31 b8 8e 3e
       0.13350804 -0.1719282 -0.6442016 0.27874902
0003d0 02 d8 d9 be c3 59 2e bf af c2 05 be 37 88 44 bd
       -0.42547613 -0.68105716 -0.13062547 -0.047981467
0003e0 a7 5b 85 be c7 c3 0c bf 96 26 0a 3f 2d 78 07 3f
       -0.26046488 -0.5498623 0.5396513 0.5291775
0003f0 07 86 27 3f 61 ac 1c be 74 bc 96 bc e3 94 bf be
       0.65438884 -0.15300132 -0.018400408 -0.3741828
