Project2/models/model_1_5.pt (torch, 143155 bytes, 37 tensors)

prior.mean f4 [2]
0	0x00000000	0.0
1	0x00000000	0.0

prior.std f4 [2]
0	0x3f800000	1.0
1	0x3f800000	1.0

decoders.0.decoder_net.0.weight f4 [512, 2]
0	0x3e5066e5	0.20351751
1	0x3e287c02	0.16453555
2	0xbea430ac	-0.32068384
3	0x3f09cf2f	0.5383176
4	0x3f3552a8	0.7082925
5	0x3e3cf1d8	0.18451631
6	0xbe2c58c3	-0.16830735
7	0x3eaaa1cd	0.3332657
8	0x3f220dd0	0.63302326
9	0x3e4fe0f0	0.2030065
10	0xbf1354a8	-0.5755105
11	0xbe2f86d4	-0.17141277
12	0xbea5a096	-0.3234908
13	0xbee6bd98	-0.45066524
14	0xbe4cdfd2	-0.20007256
15	0x3da85490	0.08219254
16	0x3d802c52	0.062584534
17	0xbe7ae933	-0.24503021
18	0xbf3ae48f	-0.73005
19	0x3f380d21	0.71895033
20	0x3f107c84	0.56439996
21	0x3eca1b56	0.3947398
22	0x3f3db5fd	0.7410582
23	0xbd6059ab	-0.054773014
24	0xbee4472a	-0.44585544
25	0xbe5d79ce	-0.21628496
26	0xbeb0256e	-0.34403557
27	0x3ea32c9c	0.31869972
28	0x3ead122c	0.33802927
29	0xbea8cc39	-0.3296831
30	0x3ea64c8f	0.32480285
31	0x3f1be1db	0.60891503
32	0xbe383b4c	-0.1799137
33	0xbe901dda	-0.28147775
34	0xbecd7693	-0.40129527
35	0x3f0de7eb	0.55432004
36	0x3eeba8ea	0.4602731
37	0xbf247859	-0.64246136
38	0x3e07455e	0.13210055
39	0xbe4f51c1	-0.2024603
40	0x3dbb6505	0.09150127
41	0x3e4e5b3e	0.20151994
42	0x3e42074a	0.18948093
43	0xbeaf656c	-0.34257066
44	0xbed717a2	-0.42010218
45	0xbedec3dd	-0.43508807
46	0x3e8c0268	0.27345586
47	0xbef3d80d	-0.4762577
48	0x3e0ae978	0.13565624
49	0xbf0d81a9	-0.5527597
50	0xbf524f92	-0.82152665
51	0xbf299eb8	-0.6625781
52	0x3e984e9f	0.29747483
53	0x3ecea0c1	0.4035702
54	0xbe6d80d0	-0.2319367
55	0x3db43240	0.08798647
56	0xbf0b6130	-0.5444517
57	0xbe6bff47	-0.230466
58	0xbe926b38	-0.28597426
59	0x3f19c9f4	0.6007378
60	0xbec8c4a0	-0.39212513
61	0xbd4ad7c4	-0.049522176
62	0x3e4faa94	0.20279914
63	0xbc97e707	-0.01854278
64	0x3ec494e7	0.38394853
65	0x3e8d90ec	0.2764963
66	0xbf1f1c2b	-0.62152356
67	0xbe1367e0	-0.14395094
68	0xbf236637	-0.6382784
69	0x3d824db7	0.06362479
70	0xbf0db3df	-0.55352587
71	0xbed2eabe	-0.4119472
72	0x3eb8726d	0.360248
73	0xbedc2a8c	-0.4300121
74	0x3e91d2e4	0.2848121
75	0xbe7a4967	-0.24442063
76	0xbeb78b5a	-0.35848504
77	0xbf3f0295	-0.74613315
78	0xbf3f8dc1	-0.74825674
79	0x3e9c12f0	0.30483198
80	0xbe66244f	-0.22474788
81	0x3e6cea87	0.2313634
82	0xbe2d62f3	-0.16932277
83	0x3f0f94db	0.5608651
84	0xbf26ba28	-0.651278
85	0x3e94d53d	0.29068938
86	0xbdcd8353	-0.10034814
87	0xbe67c9f4	-0.22635633
88	0xbf2b808d	-0.6699303
89	0xbda3570f	-0.079755895
90	0xbc031d38	-0.008002572
91	0x3cf33d62	0.029692356
92	0x3deed80e	0.11662303
93	0xbe7950ce	-0.24347231
94	0xbf38b6a8	-0.7215371
95	0x3f1159e5	0.56777793
96	0xbf0ca130	-0.5493345
97	0x3ed86562	0.4226485
98	0xbeb33f44	-0.35009205
99	0xbd9089df	-0.07057547
100	0xbdf7587c	-0.12077424
101	0xbe074c1b	-0.13212626
102	0x3e205e44	0.1566096
103	0xbf1c47c1	-0.6104699
104	0x3f2566b3	0.6460983
105	0xbf28a2c7	-0.6587338
106	0x3ea6df81	0.32592395
107	0xbf2f1a7e	-0.683998
108	0xbea43a91	-0.32075933
109	0xbcacb729	-0.021083431
110	0xbf0a038f	-0.5391168
111	0x3eaa7d52	0.33298737
112	0x3e748adb	0.23881094
113	0x3ec3e7f4	0.38262904
114	0xbf2de513	-0.67927665
115	0xbf5c8e25	-0.86154395
116	0x3efcbd19	0.4936302
117	0x3e1d3702	0.15353015
118	0x3f0cc8d5	0.54993945
119	0x3eb01c59	0.34396628
120	0x3e9d0857	0.30670425
121	0x3c8a3709	0.016871946
122	0x3e1c8f6c	0.15289086
123	0x3c4c0b0a	0.012453804
124	0xbebd0e6a	-0.3692506
125	0x3f006e7f	0.50168604
126	0xbeee3943	-0.46528062
127	0xbf299630	-0.6624479
128	0xbd9da1c4	-0.0769687
129	0xbf356829	-0.7086206
130	0xbe58bb7b	-0.21165268
131	0x3ef0f6bb	0.4706324
132	0xbcec9f85	-0.028884659
133	0x3f1a5277	0.6028208
134	0xbf08f0f6	-0.5349268
135	0xbe2fd33e	-0.17170426
136	0x3efee865	0.49786678
137	0x3ea8f102	0.32996374
138	0x3ee72862	0.45147997
139	0xbcce05f4	-0.025149323
140	0x3f006abe	0.50162876
141	0xbe3afefb	-0.1826133
142	0xbed1ce95	-0.40977922
143	0x3ed5de3a	0.41771108
144	0x3e93cce1	0.28867248
145	0x3efcfd40	0.49411964
146	0xbec54f79	-0.38537195
147	0xbe42ef28	-0.19036543
148	0xbe8f5896	-0.27997273
149	0x3dfd2528	0.123606026
150	0x3e21c1a2	0.15796521
151	0x3ef246f9	0.47319773
152	0xbdc8f9de	-0.098132834
153	0xbe0d5b8c	-0.13804454
154	0xbf328ce0	-0.6974621
155	0xbef0e40a	-0.4704898
156	0xbdd5f9cd	-0.10448036
157	0xbe0a168c	-0.13485163
158	0xbf02ba66	-0.5106567
159	0x3ef49f6c	0.4777788
160	0x3e88f15d	0.26746646
161	0xbec1ea59	-0.37874106
162	0xbee94b56	-0.4556529
163	0x3ea0810f	0.31348464
164	0xbec3e3af	-0.38259646
165	0xbf35babc	-0.7098806
166	0xbf293646	-0.6609844
167	0x3e37bdce	0.17943498
168	0x3d80d388	0.062903464
169	0x3f024f77	0.50902504
170	0x3ea7f1a6	0.3280155
171	0x3e58026f	0.21094678
172	0xbf2ea8d7	-0.6822638
173	0x3f3e3614	0.74301267
174	0x3f20a89b	0.6275727
175	0x3e51a527	0.20473157
176	0xbdcaea53	-0.09907975
177	0x3de67809	0.11253364
178	0xbf27802d	-0.65429956
179	0xbf21f0fd	-0.63258344
180	0x3d1666bf	0.03671908
181	0xbf25ddf7	-0.64791816
182	0xbd298d44	-0.041394487
183	0x3f3af5db	0.73031396
184	0x3e6dd94b	0.23227422
185	0xbeaf1b23	-0.3420039
186	0xbe4a324f	-0.19745754
187	0xbd943e08	-0.07238394
188	0xbcf443f7	-0.029817564
189	0xbe9bfcec	-0.30466402
190	0xbf0b6efd	-0.5446623
191	0x3e8238be	0.25433916
192	0x3e6adf00	0.2293663
193	0x3ed03d77	0.40671894
194	0xbf182ee8	-0.59446573
195	0x3f0d7c01	0.5526734
196	0xbf23c1ef	-0.63967794
197	0x3e009c7e	0.12559697
198	0xbed4107d	-0.4141883
199	0xbf1a03b6	-0.6016191
200	0x3e8e4e8e	0.27794307
201	0x3cd6c642	0.026217584
202	0x3f027b1e	0.5096911
203	0x3e432679	0.19057645
204	0x3f37f0e3	0.7185194
205	0xbf061c95	-0.5238736
206	0x3e83ecb4	0.25766528
207	0x3f0f8882	0.5606767
208	0xbf19c7c9	-0.6007047
209	0x3ecf592a	0.40497714
210	0x3efddd65	0.49582973
211	0xbf057b29	-0.5214105
212	0x3ef25a83	0.4733468
213	0x3f6b9885	0.920296
214	0xbefd8fb5	-0.49523702
215	0x3eb0c271	0.34523347
216	0xbe055ab5	-0.13022883
217	0xbe73c3e9	-0.23805203
218	0xbd96ce54	-0.07363573
219	0xbd90b16d	-0.07065091
220	0xbe8bd2d1	-0.27309278
221	0xbeb3b897	-0.35101768
222	0x3f0d9ce3	0.55317515
223	0x3ed67ae5	0.41890636
224	0xbe417626	-0.18892726
225	0xbed0b161	-0.4076033
226	0x3e3f7222	0.18695882
227	0x3ee0a6ba	0.43877202
228	0xbea3f65f	-0.32023904
229	0x3f24b78d	0.64342576
230	0x3eff42cd	0.49855652
231	0xbaa7e8cb	-0.0012810467
232	0xbe8db12e	-0.2767424
233	0xbec04d3e	-0.3755893
234	0xbeec556d	-0.46158925
235	0xbe7d307b	-0.24725525
236	0x3ec8bdee	0.39207405
237	0xbec88652	-0.39164978
238	0x3e8bb0c4	0.272833
239	0x3ec1a4be	0.37821
240	0x3f325845	0.6966594
241	0xbef8cdd1	-0.48594525
242	0xbf03a8ae	-0.5142926
243	0xbf3cc686	-0.7374042
244	0x3d8509f1	0.06496037
245	0x3e89afce	0.2689194
246	0x3ed7be26	0.4213726
247	0xbe9970df	-0.29968926
248	0x3cdced0f	0.026968507
249	0x3f097fe6	0.5371078
250	0xbf1c5a08	-0.61074877
251	0x3ed8a03d	0.42309752
252	0x3e81ee70	0.25377226
253	0xbda289a3	-0.07936408
254	0xbed209ba	-0.41023046
255	0x3eb7b432	0.35879666

decoders.0.decoder_net.0.bias f4 [512]
0	0xbef2ccd8	-0.47421908
1	0xbec2552e	-0.37955612
2	0xbf45644e	-0.7710618
3	0xbe212e3e	-0.15740296
4	0x3da0afc2	0.07846023
5	0xbe269794	-0.1626876
6	0x3ecdf38b	0.4022487
7	0x3d0f16ac	0.03493373
8	0x3e9dd30b	0.30825076
9	0x3e91c62d	0.2847151
10	0xbeba0864	-0.36334527
11	0xbee077f8	-0.4384153
12	0x3dc04225	0.09387616
13	0xbf0a1987	-0.539452
14	0xbefd8c6f	-0.49521205
15	0xbd9f060c	-0.07764825
16	0xbd059752	-0.032615013
17	0xbf2bae16	-0.6706251
18	0x3e966b1b	0.2937859
19	0x3ef7d292	0.4840284
20	0x3ec4b93a	0.38422567
21	0x3ef602e2	0.48049074
22	0x3c754ae1	0.014971466
23	0x3e94d464	0.2906829
24	0xbf560227	-0.83597034
25	0xbf2bde62	-0.67136204
26	0x3e75c381	0.2400036
27	0xbf28c78d	-0.6592949
28	0xbee9cc54	-0.45663702
29	0xbef7b186	-0.48377627
30	0x3f0d1b28	0.5511956
31	0x3edb6832	0.42852932
32	0xbe59793a	-0.2123765
33	0xbf1309c1	-0.5743676
34	0xbf2675ab	-0.650233
35	0xbecdfd6e	-0.40232414
36	0x3f28218d	0.65676194
37	0x3e950b9d	0.29110423
38	0xbf27fbc1	-0.6561852
39	0xbe927c98	-0.28610682
40	0x3f0bba6c	0.5458133
41	0xbf25c9bb	-0.6476094
42	0x3e8fdaa2	0.2809649
43	0xbe76dc3e	-0.24107453
44	0xbe204436	-0.1565102
45	0xbf064633	-0.52450866
46	0x3e0369de	0.12833354
47	0xbee65fb7	-0.449949
48	0x3ed7807e	0.4209022
49	0xbe16d24d	-0.14728661
50	0xbe906f3c	-0.28209865
51	0x3d719c65	0.05898704
52	0xbeea9da9	-0.4582341
53	0xbf42152b	-0.7581355
54	0x3e40c216	0.18824038
55	0x3ee8c6bd	0.45464125
56	0xbee4efa6	-0.44714087
57	0xbe8184ad	-0.25296536
58	0x3ecc64e1	0.39920714
59	0xbf0bbba4	-0.5458319
60	0xbd221101	-0.039566997
61	0x3ec2b018	0.38024974
62	0x3b5a468d	0.0033306212
63	0xbf0404b5	-0.5156968
64	0x3e43857c	0.19093889
65	0x3e7e287b	0.2482013
66	0x3f38e0c4	0.72217965
67	0x3e20706a	0.15667883
68	0x3ee5c6c6	0.44878215
69	0xbe2ddc32	-0.16978529
70	0xbd98b12e	-0.07455669
71	0x3e7cc40e	0.24684164
72	0x3e24327d	0.16034885
73	0x3efb6384	0.49099362
74	0x3e54f8ad	0.20797987
75	0xbf15f372	-0.58574593
76	0xbf2baa66	-0.6705688
77	0x3f064ed2	0.5246402
78	0x3f1541f3	0.58303756
79	0x3ed86eca	0.42272025
80	0xbec41be1	-0.3830252
81	0x3c80169c	0.015635781
82	0x3e49c91a	0.1970562
83	0xbe54b575	-0.20772345
84	0xbe71d98b	-0.23618142
85	0xbf274316	-0.6533674
86	0x3e47e2a9	0.19520058
87	0x3c5c9524	0.013463292
88	0xbf285512	-0.65754807
89	0x3ed33fa0	0.4125948
90	0x3f0e2438	0.55524015
91	0xbe84a016	-0.25903386
92	0xbe602a3a	-0.21891108
93	0xbe50b081	-0.20379831
94	0x3f229395	0.6350644
95	0x3de644ee	0.11243616
96	0x3da91dee	0.08257662
97	0xbe54df1f	-0.20788239
98	0x3e91906e	0.28430504
99	0xbf1fd4c7	-0.6243405
100	0x3df1ce07	0.11806875
101	0x3f2b8f4a	0.67015517
102	0x3e8da0b1	0.2766166
103	0x3bb76647	0.005596909
104	0xbe814517	-0.25248024
105	0xbf1eff15	-0.62107974
106	0x3e958da8	0.29209638
107	0x3f3784a5	0.71686774
108	0x3efc6661	0.4929686
109	0xbe2ea7d9	-0.17056216
110	0x3ea8c6ff	0.32964322
111	0x3d9d7d25	0.07689885
112	0xbed7244f	-0.4201989
113	0xbf25eb5b	-0.6481225
114	0xbf2b59de	-0.66934
115	0xbf0543a1	-0.5205632
116	0xbe3a5502	-0.1819649
117	0xbf2d6dcc	-0.6774566
118	0xbf1542c4	-0.58305
119	0xbc1962fc	-0.009361979
120	0x3e15e46b	0.14637916
121	0x3e8a67a7	0.27032205
122	0x3f1109c9	0.56655556
123	0x3e8e0e42	0.27745253
124	0x3ecfeb7c	0.40609348
125	0x3eced30b	0.40395388
126	0x3eb0c03c	0.34521663
127	0xbf29ed9a	-0.66378176
128	0x3e9187d4	0.2842394
129	0x3f1f558e	0.6223992
130	0x3e4e865f	0.20168446
131	0x3dbb8637	0.09156459
132	0xbeb178ff	-0.34662625
133	0x3f06bdb6	0.52633226
134	0x3f36ae99	0.71360165
135	0xbe0f9a64	-0.14023739
136	0xbf2ca07c	-0.6743238
137	0xbf395c24	-0.7240622
138	0xbdc324cb	-0.09528502
139	0x3ed96f70	0.42467833
140	0xbe1b9223	-0.15192465
141	0x3f0892e8	0.5334916
142	0xbe11b04c	-0.14227408
143	0xbee15f5e	-0.44018072
144	0xbec44259	-0.3833187
145	0xbed65d1a	-0.41867906
146	0xbf0879d9	-0.53310925
147	0xbeb0df50	-0.34545374
148	0xbd148e08	-0.036268264
149	0x3eb49416	0.3526923
150	0xbf379a9a	-0.7172028
151	0x3f0d3bd9	0.55169445
152	0x3dbba490	0.09162247
153	0x3e13d619	0.1443714
154	0xbee39513	-0.44449672
155	0x3e534625	0.20632227
156	0xbecca13b	-0.3996676
157	0xbe39e76c	-0.18154687
158	0xbe396412	-0.1810458
159	0x3f07d46f	0.5305852
160	0xbf0fca6f	-0.56168264
161	0x3c9b6cdf	0.018972812
162	0x3ec29dca	0.38011009
163	0x3e855d47	0.26047727
164	0x3c434e23	0.011920485
165	0xbd00518c	-0.03132777
166	0x3f51c17e	0.8193587
167	0xbdf77c78	-0.120842874
168	0xbe85861d	-0.26078883
169	0x3e26bbac	0.16282529
170	0x3ebedcf9	0.37277964
171	0xbd3071d1	-0.043077294
172	0xbf22a389	-0.63530785
173	0xbdd28f58	-0.10281247
174	0xbe807e6c	-0.25096452
175	0x3e94b6c9	0.29045704
176	0xbe8bb4fb	-0.27286515
177	0x3ef126f2	0.47100025
178	0xbc066ce7	-0.008204675
179	0x3f164e45	0.5871318
180	0xbeabca42	-0.33552748
181	0xbecb9b55	-0.39766946
182	0xbf3bdc87	-0.73383373
183	0x3ed061f0	0.4069972
184	0x3f2e2fd9	0.6804176
185	0xbe811dff	-0.25218198
186	0xbf19f739	-0.60142857
187	0xbeac5e8e	-0.3366589
188	0x3eb0b6b1	0.34514382
189	0xbe8f00d6	-0.27930325
190	0xbeae6530	-0.34061575
191	0xbec2f4f1	-0.380775
192	0xbe28a94d	-0.16470833
193	0xbe314404	-0.17311102
194	0x3e2ef6cb	0.17086332
195	0xbf433251	-0.7624865
196	0xbe0cb044	-0.13739115
197	0xbd9e2503	-0.07721903
198	0x3e536d60	0.20647192
199	0x3ec749ac	0.38923395
200	0xbd4f913c	-0.050675616
201	0x3f15c276	0.5849985
202	0xbf028d24	-0.50996614
203	0x3ed5ed98	0.41782832
204	0x3ee99b82	0.45626456
205	0x3ee28b63	0.4424697
206	0x3eaf4dac	0.34238946
207	0xbee98ff2	-0.45617634
208	0xbd6011c8	-0.054704458
209	0x3e621982	0.22080043
210	0x3f15f686	0.5857929
211	0x3ede85c8	0.43461442
212	0xbf27e174	-0.6557839
213	0x3ed5f3c3	0.41787538
214	0x3f05cc3c	0.5226476
215	0xbe8afd9e	-0.2714662
216	0xbed40506	-0.41410083
217	0x3dae6dd6	0.08517043
218	0xbf45844c	-0.77154994
219	0xbe863400	-0.26211548
220	0xbd322078	-0.043487996
221	0xbd8ef3b0	-0.069800735
222	0x3cad51cc	0.021157168
223	0xbe5d8069	-0.21631016
224	0xbe17ef08	-0.14837277
225	0x3e52f074	0.20599538
226	0xbca6d913	-0.02036718
227	0xbf0a7d48	-0.54097414
228	0xbe6025a3	-0.21889357
229	0xbec12196	-0.37720937
230	0x3f491e54	0.785619
231	0x3e60bf97	0.21948086
232	0x3d326be9	0.043559942
233	0x3ec04849	0.3755515
234	0x3f072dcf	0.52804273
235	0xbea08a1b	-0.31355366
236	0xbec6f66b	-0.38859877
237	0x3e635281	0.22199441
238	0x3e87d114	0.265267
239	0xbe949d57	-0.2902629
240	0x3d562b86	0.0522876
241	0xbe634846	-0.22195539
242	0xbf050385	-0.51958495
243	0xbf0a65f5	-0.54061824
244	0xbed684b5	-0.41898122
245	0xbee00d4c	-0.43760145
246	0x3ed2d21b	0.41175923
247	0xbd7677a3	-0.06017269
248	0x3ee6ca4e	0.4507622
249	0x3e2a5539	0.16634072
250	0xbf3720d2	-0.71534455
251	0xbe1bed31	-0.152272
252	0xbea4acbd	-0.3216304
253	0xbea5af7f	-0.32360455
254	0x3f1a27bd	0.60216886
255	0xbe53f0a1	-0.20697261

decoders.0.decoder_net.3.weight f4 [32]
0	0x3f78a82f	0.9713163
1	0x3f8195db	1.0123857
2	0x3f7041a3	0.93850154
3	0x3f882873	1.0637344
4	0x3f7d6a53	0.9899036
5	0x3f7f7057	0.9978079
6	0x3f776461	0.9663754
7	0x3f81bfed	1.0136696
8	0x3f829fe6	1.0205047
9	0x3f702c93	0.93818015
10	0x3f851a20	1.0398598
11	0x3f875c10	1.057497
12	0x3f7cc552	0.98738587
13	0x3f880a36	1.0628116
14	0x3f852052	1.0400488
15	0x3f8b06e2	1.0861475
16	0x3f829b19	1.0203582
17	0x3f76bcf2	0.9638206
18	0x3f813dd7	1.0096997
19	0x3f838ac7	1.0276726
20	0x3f85f96e	1.0466745
21	0x3f8801d7	1.0625561
22	0x3f86088b	1.0471357
23	0x3f797c7d	0.9745558
24	0x3f83a542	1.0284808
25	0x3f7ed16d	0.9953831
26	0x3f828931	1.0198117
27	0x3f826840	1.0188065
28	0x3f819ad3	1.0125374
29	0x3f82873c	1.019752
30	0x3f839dd8	1.0282545
31	0x3f7ae193	0.9800045

decoders.0.decoder_net.3.bias f4 [32]
0	0x3cf5715a	0.029961277
1	0x3d5e3e2a	0.054258503
2	0xbc0e7abb	-0.008696253
3	0xbd52edd5	-0.051496346
4	0xbbbe01ac	-0.005798539
5	0x3cc5e0f2	0.024155114
6	0x3c39f6b3	0.011350322
7	0xbd5accab	-0.053417843
8	0xbd898ac2	-0.06715919
9	0x3d80025d	0.06250451
10	0x3ce499ac	0.027905308
11	0xbc4ff7d1	-0.012693361
12	0x3d01cf90	0.031692088
13	0xbce9206a	-0.028457839
14	0x3c2cbe55	0.010543426
15	0x3cca7165	0.024712274
16	0x3c96f0c1	0.018425347
17	0x3cc5dd56	0.024153393
18	0x3c2114a6	0.009831583
19	0xbc0e723a	-0.008694226
20	0xbbe7c09a	-0.0070725204
21	0xbd1aa3e5	-0.03775396
22	0x3d2d48a7	0.042305615
23	0x3c50625c	0.012718763
24	0xbc963932	-0.01833782
25	0xbd7692b3	-0.060198497
26	0xbd27db55	-0.040980656
27	0xbcac0fbe	-0.0210036
28	0xbcdfeb80	-0.027333975
29	0xbd7810a2	-0.060562737
30	0xbcfcdfd8	-0.030868456
31	0x3cd094ca	0.025461573

decoders.0.decoder_net.3.running_mean f4 [32]
0	0x3ce20c9b	0.027593901
1	0x3cbb3810	0.022853881
2	0x3d121ab4	0.035669997
3	0x3ce320b3	0.027725553
4	0x3d2c6932	0.04209251
5	0x3d2562e3	0.04037751
6	0x3d32949a	0.04359875
7	0x3cdb53af	0.026773302
8	0x3cc260f1	0.023727866
9	0x3d2def13	0.042464327
10	0x3cc02fb2	0.023460243
11	0x3d2c568b	0.04207472
12	0x3cf64dcf	0.030066399
13	0x3cf02f36	0.029319387
14	0x3c90f03e	0.017692681
15	0x3ca919ef	0.020642249
16	0x3d262857	0.040565815
17	0x3d34ffc9	0.04418925
18	0x3cf0e237	0.029404743
19	0x3cf1c8b0	0.02951464
20	0x3d1fd5cb	0.03902225
21	0x3cfddc8b	0.030988952
22	0x3cca8fd1	0.02472678
23	0x3ca7aea4	0.020469017
24	0x3ce80a96	0.02832536
25	0x3cf960ad	0.030441606
26	0x3d0ed4f8	0.03487107
27	0x3d04f5b6	0.03246089
28	0x3c9c6300	0.019090176
29	0x3cb3a5e0	0.021929681
30	0x3d32131d	0.04347526
31	0x3d0cdd96	0.03439101

decoders.0.decoder_net.3.running_var f4 [32]
0	0x3ac32a42	0.0014889913
1	0x3a09fb1e	0.00052635546
2	0x3b1af9b3	0.0023647367
3	0x3aaa4d9f	0.0012993104
4	0x3b344359	0.0027505963
5	0x3bad2bcf	0.0052847634
6	0x3b853f81	0.004066408
7	0x3aa80c18	0.0012820987
8	0x3a5b04e1	0.0008354914
9	0x3c1429a0	0.009043127
10	0x3a4dab6b	0.00078456727
11	0x3b91dede	0.0044516167
12	0x3aa6f7c4	0.0012738635
13	0x3aef6b6c	0.0018266267
14	0x39a2b733	0.00031035542
15	0x3a452cff	0.00075216586
16	0x3b2e5168	0.0026598815
17	0x3b79aff1	0.0038099254
18	0x3aa5575a	0.0012614534
19	0x3b145f14	0.0022639679
20	0x3af2d1b4	0.0018525631
21	0x3a8609d6	0.001022632
22	0x39db2133	0.0004179567
23	0x3a00d7e8	0.0004914985
24	0x3a7b1592	0.00095781044
25	0x3a5d7f7d	0.0008449478
26	0x3aa84389	0.001283751
27	0x3ae2867a	0.0017282509
28	0x39c8b89d	0.0003828452
29	0x3a055cac	0.00050873565
30	0x3b5035e9	0.0031770414
31	0x3aa37181	0.001246974

decoders.0.decoder_net.4.weight f4 [32, 32, 3, 3]
0	0x3c27e1c9	0.0102467025
1	0x3d906351	0.07050193
2	0xbd6bb2e4	-0.05754365
3	0x3a597ac9	0.00082961895
4	0xbd61ede8	-0.055158526
5	0x3d788f66	0.06068363
6	0x3d39ecfa	0.045392014
7	0x3cbd1478	0.02308105
8	0xbdbb505d	-0.091461875
9	0x3cfded7e	0.030997034
10	0xbc6104dc	-0.013734069
11	0xbd1666ca	-0.03671912
12	0x3c12a40f	0.008950247
13	0x3d3571bb	0.044297915
14	0xbcfa4f7f	-0.030555485
15	0x3bdafa60	0.006682679
16	0xbca10ea6	-0.019660305
17	0xbdaa2d1c	-0.08309385
18	0xba8fe562	-0.0010978396
19	0x3c91551a	0.017740775
20	0xbd288a26	-0.041147374
21	0xbd04ed44	-0.032452837
22	0x3d6fbe7d	0.058531273
23	0xbc91d7fb	-0.017803183
24	0xbd24e13a	-0.040253855
25	0x3be9f5de	0.0071399054
26	0xbd8127f5	-0.06306449
27	0xbd8c0d66	-0.06838493
28	0x3ccf8785	0.025333175
29	0xbce79f71	-0.02827427
30	0x3d569e6f	0.052397188
31	0x3d1caba8	0.03824964
32	0x3c8b76aa	0.017024357
33	0xbd64cfe8	-0.055862337
34	0x3c8d44e8	0.017244771
35	0x3c91eb3d	0.017812366
36	0x3d1ca35f	0.03824174
37	0x3c4e5dc3	0.012595597
38	0xbd45493c	-0.048165545
39	0xbd7524ec	-0.059849665
40	0xbd07046d	-0.032963205
41	0x3ccc413e	0.024933454
42	0xbcd5d224	-0.02610118
43	0x3c9eb43e	0.019373056
44	0xbd873a49	-0.06602914
45	0xbcfff362	-0.031243984
46	0xbd9bfa46	-0.07616095
47	0xbd96a8fa	-0.073564485
48	0xbd06fac3	-0.03295399
49	0x3ca3afb8	0.01998125
50	0xbb16a22f	-0.0022984853
51	0x3c9568dc	0.018238477
52	0x3dd2f18a	0.10299976
53	0x3c8e202e	0.017349329
54	0x3d76cb0b	0.06025223
55	0xbd2911b9	-0.041276667
56	0xbab59c02	-0.0013855698
57	0xbc8da88a	-0.01729228
58	0x3d51d3b2	0.05122728
59	0xbc953037	-0.018211467
60	0x3d3846da	0.044989444
61	0x3d08f6c0	0.033438444
62	0xbcb933e3	-0.02260775
63	0x3d1c3ff1	0.038146917
64	0xbd18b21c	-0.037279233
65	0x3d0fe199	0.035127256
66	0x3cd48a5e	0.025944885
67	0xbd2a27d9	-0.041541908
68	0x3c0ae084	0.00847638
69	0x3d3b7d09	0.04577354
70	0x3c8ddf02	0.017318252
71	0xbcc1d8ae	-0.023662891
72	0xbd8a4561	-0.06751514
73	0xbd4d2614	-0.050085142
74	0xbd20b444	-0.039234415
75	0x3ccd7318	0.025079295
76	0xbc085ede	-0.008323399
77	0xbca80c92	-0.020513806
78	0xbc478689	-0.012178072
79	0xbc9c79af	-0.019100992
80	0x3c88c0d4	0.01669351
81	0x3d4ed49c	0.05049573
82	0x3c52a85c	0.012857523
83	0x3b66bc1a	0.0035207332
84	0xbcb9d73e	-0.022685643
85	0x3b9577c1	0.004561395
86	0x3d51cb0c	0.05121903
87	0xbb286997	-0.0025697702
88	0xbd3fee1e	-0.046857946
89	0x3d70041e	0.058597676
90	0xbd95c008	-0.07312018
91	0xbc9b64a4	-0.018968888
92	0x3d52ae63	0.05143584
93	0xbd20034b	-0.03906564
94	0xbd431e74	-0.047636464
95	0xbd914809	-0.07093818
96	0xbd77a3eb	-0.06045906
97	0x3da6328c	0.0811511
98	0xbc9dc4d2	-0.01925889
99	0x3ce433a3	0.027856654
100	0x3bbd8a39	0.0057842997
101	0xbd9954c4	-0.07486871
102	0xbd6a5803	-0.05721284
103	0x3da73b66	0.08165626
104	0x3c32d55b	0.010915126
105	0xbcfd4b90	-0.03091982
106	0xbc917396	-0.017755311
107	0xbdcbbfb3	-0.09948673
108	0xbc0d46aa	-0.008622805
109	0x3d884785	0.06654266
110	0xbdceb0cc	-0.10092315
111	0xbb8f30b7	-0.004369821
112	0x3d4058db	0.04695974
113	0xbd7994af	-0.06093281
114	0x3c91ec9c	0.01781302
115	0x3c15c7d7	0.009141884
116	0xbc949853	-0.01813904
117	0x3d2fc692	0.04291398
118	0x3cebc380	0.028779745
119	0xbc97dc89	-0.018537777
120	0xbdaccbe3	-0.08437326
121	0x3c0f65a5	0.008752261
122	0xbcdb26ab	-0.026751837
123	0x3b019bef	0.0019776782
124	0xbd5241b3	-0.051332187
125	0xbccbfe67	-0.024901582
126	0xbd2b16f8	-0.04176995
127	0x3c7ded43	0.015498462
128	0xbb4e088e	-0.0031438204
129	0x3d38d84e	0.04512816
130	0x3cdc4ce7	0.026892139
131	0x3d86ca4c	0.06581554
132	0x3c53ad0c	0.012919676
133	0x3d31ba1a	0.04339037
134	0x3d03fd60	0.03222406
135	0xbcce2c7e	-0.0251677
136	0x3c76d4fb	0.015065427
137	0xbbd0a5c2	-0.006367416
138	0xbbb96a19	-0.0056584
139	0xbda019c9	-0.07817418
140	0xbb80aa69	-0.0039265645
141	0xbcd15a2e	-0.025555696
142	0x3d8d9ac7	0.06914287
143	0xbd605e23	-0.054777276
144	0xbb46cc37	-0.0030334124
145	0x3d20dd83	0.03927375
146	0x3da170b3	0.07882824
147	0x3c3d599b	0.011557008
148	0xbda69f94	-0.08135906
149	0xbc5c4cb1	-0.013446019
150	0x3c8b268e	0.016986158
151	0x3ba5dba3	0.005061583
152	0xbd1dbdd3	-0.03851111
153	0xbcce2d6e	-0.025168147
154	0x3d333202	0.043748863
155	0x3d5ac711	0.0534125
156	0x3dd759ea	0.105151966
157	0xbd56077a	-0.052253224
158	0xbd30eb55	-0.04319318
159	0xbd00d58c	-0.031453654
160	0x3c43d9d0	0.011953786
161	0x3b48ec48	0.0030658413
162	0xbc2cec18	-0.010554336
163	0xbcd2c4a9	-0.02572854
164	0x3d4bf00e	0.04978948
165	0x3d6be043	0.05758692
166	0x3cec602e	0.028854456
167	0x3c9c95ff	0.019114492
168	0x3c988620	0.018618643
169	0xbcf97577	-0.03045152
170	0xbd380d9d	-0.044934858
171	0x3ca8a162	0.020584766
172	0x3cb88ba8	0.02252753
173	0x3ca69fbd	0.020339841
174	0xbb3b0c74	-0.0028541358
175	0x3d3b45f0	0.045720994
176	0x3dad706a	0.08468707
177	0xbd8dc8b3	-0.06923046
178	0xbcfb57c2	-0.030681495
179	0x3d6f6b7f	0.058452126
180	0x3caaefb8	0.02086626
181	0xbc2a6195	-0.010399242
182	0x3b817ef3	0.003951901
183	0x3c78a753	0.015176612
184	0x3c3d0174	0.011535991
185	0xbc8d0823	-0.017215794
186	0x3d036964	0.03208293
187	0xbcb120ca	-0.02162208
188	0xbc01efb3	-0.007930684
189	0xbd1a6d11	-0.03770167
190	0x3ccc753e	0.02495825
191	0xbcb3b45a	-0.021936584
192	0x3d703d25	0.058652062
193	0x3d810240	0.06299257
194	0x3b332b31	0.0027338977
195	0xbcfbb3e0	-0.03072542
196	0x3d854e10	0.0650903
197	0xbd21db99	-0.039516065
198	0x3d39cf74	0.04536386
199	0xbcfadff9	-0.030624377
200	0xbc90f158	-0.017693207
201	0xbd6b2e05	-0.057416935
202	0x3c64fd1c	0.013976362
203	0xbd9c1bac	-0.076224655
204	0x3cab5443	0.020914203
205	0x3daab9cc	0.08336219
206	0xbd3f1132	-0.046647258
207	0x3d8d3a96	0.0689594
208	0xbca91b7a	-0.020642985
209	0xbcf2b165	-0.029625604
210	0x3c01fc71	0.007933722
211	0x3d2e0b24	0.042491093
212	0x3cc044dc	0.023470335
213	0x3d29cb50	0.04145366
214	0xbb104ce2	-0.0022018482
215	0xbd2a9b1c	-0.04165183
216	0xbc8b632d	-0.017015064
217	0xbd58b997	-0.052911367
218	0xbc1425ad	-0.009042186
219	0x3c2913fe	0.010319708
220	0xbd5660d9	-0.052338455
221	0xbc8b05c7	-0.016970528
222	0x3d57d362	0.052691825
223	0x3d4fc6da	0.05072675
224	0xbb895103	-0.0041905656
225	0xbd044b2f	-0.032298263
226	0x3b3c0293	0.0028688058
227	0x3d891d3a	0.06695028
228	0xbd1c71cb	-0.03819446
229	0xbd7adf44	-0.06124808
230	0xbada208f	-0.0016641783
231	0xbca5a4d2	-0.020220194
232	0xbd5dde70	-0.05416721
233	0x3d0229dc	0.0317782
234	0xbd8f5485	-0.06998543
235	0x3c5aa2a9	0.013344445
236	0xbd2c8adb	-0.04212461
237	0xbd1d2a62	-0.038370498
238	0xbcae6279	-0.02128719
239	0x3bfd6bd0	0.0077337995
240	0xbd5659b2	-0.052331634
241	0x3c656c17	0.014002821
242	0x3be4d37f	0.00698322
243	0x3b41b50a	0.002955737
244	0xbd97ff8d	-0.07421789
245	0x3d76336e	0.06010764
246	0x3d15756c	0.036488935
247	0x3cf0fae9	0.029416518
248	0xbd4100f6	-0.047120057
249	0x3d06ebb8	0.032939643
250	0x3d1793aa	0.037006058
251	0xbd88d9a8	-0.0668214
252	0x3cbcc33d	0.023042316
253	0x3beacc24	0.0071654487
254	0x3c901efb	0.017592898
255	0xbc3c9a3c	-0.011511382

decoders.0.decoder_net.4.bias f4 [32]
0	0xbd5cc3e8	-0.05389777
1	0x3c7fecbd	0.015620408
2	0xbd3115ab	-0.043233555
3	0x3dc55a7d	0.096364
4	0x3d0d29ad	0.034463573
5	0xbdafc1e7	-0.08581906
6	0x3d8f616f	0.07001006
7	0x3dd30952	0.10304512
8	0xbdefa0ba	-0.11700578
9	0x3c8f8cd8	0.017523214
10	0x3d58d3cc	0.05293636
11	0x3dc6989a	0.09697075
12	0x3d6d3eb0	0.05792111
13	0x3cc005e3	0.023440307
14	0xbd6d3716	-0.057913862
15	0xbd9c9419	-0.07645435
16	0x3d9d5a0d	0.076831914
17	0xbd8c3b2f	-0.06847226
18	0xbbdd53ce	-0.006754375
19	0xbde807af	-0.113295905
20	0xbbb0d40f	-0.005396373
21	0xbd65cd43	-0.056103956
22	0x3d71ca59	0.059030864
23	0x3c8b0863	0.016971773
24	0xbc3cb924	-0.01151875
25	0xbc57a0c1	-0.013160885
26	0xbd4d888f	-0.05017906
27	0x3d61ce3b	0.055128317
28	0xbca0f3a9	-0.019647436
29	0xbe0c9467	-0.13728486
30	0x3dcaf016	0.09909074
31	0x3c68a6aa	0.014199892

decoders.0.decoder_net.6.weight f4 [32]
0	0x3f5f14f5	0.8714135
1	0x3f60add5	0.87765247
2	0x3f5dc5dd	0.8663004
3	0x3f69121d	0.91043264
4	0x3f51651f	0.81794924
5	0x3f5ad4b9	0.8548084
6	0x3f67b98a	0.90517485
7	0x3f6e9a44	0.9320414
8	0x3f673edf	0.9033031
9	0x3f6e8e48	0.93185854
10	0x3f678fbd	0.904537
11	0x3f6855f4	0.90756154
12	0x3f715613	0.94271964
13	0x3f62f00a	0.8864752
14	0x3f705ea5	0.93894416
15	0x3f72564f	0.94662946
16	0x3f670a10	0.9024973
17	0x3f632f47	0.88744015
18	0x3f67a451	0.904851
19	0x3f6cb8a3	0.92469233
20	0x3f74c961	0.9561978
21	0x3f603e11	0.87594706
22	0x3f671519	0.9026657
23	0x3f6c129b	0.9221589
24	0x3f6ea83d	0.9322546
25	0x3f69849f	0.9121799
26	0x3f63f76b	0.89049405
27	0x3f50b137	0.8152041
28	0x3f6b3c7e	0.9188918
29	0x3f754835	0.95813304
30	0x3f6e8336	0.9316896
31	0x3f6119df	0.879301

decoders.0.decoder_net.6.bias f4 [32]
0	0x3d9482a3	0.072514795
1	0x3cd7f769	0.026363092
2	0xbceeedbe	-0.029166099
3	0xbce0e2c8	-0.027451888
4	0xbdaf6e8b	-0.08566006
5	0x3ccf59d9	0.025311397
6	0x3c988d69	0.018622117
7	0x3ca744e3	0.02041859
8	0x3c990685	0.018679867
9	0xbbfe66b0	-0.007763706
10	0xbd269d1a	-0.040677167
11	0xbcea09eb	-0.028569182
12	0xbdbb963b	-0.091595136
13	0x3cc4abd6	0.024007719
14	0xbcc3c431	-0.023897262
15	0xbd85b18b	-0.06528004
16	0x3d61a1ac	0.055085823
17	0x3d5c1862	0.05373419
18	0xbcae5c85	-0.021284351
19	0xbcbd4edc	-0.023108892
20	0x3d0c1fa2	0.034209855
21	0x3d194878	0.037422627
22	0xbd588b81	-0.052867416
23	0xbd3ae00f	-0.045623835
24	0xbd243e0e	-0.040098242
25	0x3c816a27	0.015797688
26	0xbcd9e124	-0.026596613
27	0x3d33ad74	0.04386659
28	0x3cc1d183	0.023659473
29	0x3d84c765	0.06483344
30	0xbd521b17	-0.051295366
31	0x3ccda976	0.02510522

decoders.0.decoder_net.6.running_mean f4 [32]
0	0x3ced1d33	0.028944587
1	0x3cf8731a	0.030328322
2	0x3cffdf8a	0.031234521
3	0x3d13e9b4	0.03611155
4	0x3d026567	0.031834986
5	0x3ce8d04f	0.028419642
6	0x3d0a0e8a	0.03370527
7	0x3d169988	0.036767513
8	0x3cd898ba	0.026440013
9	0x3d03e9be	0.032205336
10	0x3d06414d	0.03277712
11	0x3d08134c	0.033221528
12	0x3d0a5080	0.033768177
13	0x3d040dec	0.03223984
14	0x3cf2b68c	0.02962806
15	0x3ceaf8f1	0.028683158
16	0x3d0769ee	0.033060007
17	0x3cf7d988	0.030255094
18	0x3cfea70b	0.031085512
19	0x3cd1bf78	0.025603995
20	0x3cf3e04f	0.029770045
21	0x3cfef27a	0.031121481
22	0x3d085ffe	0.03329467
23	0x3cfb46bc	0.030673377
24	0x3d02fbb5	0.031978328
25	0x3d008ae4	0.031382456
26	0x3cf738a1	0.03017837
27	0x3d05b000	0.03263855
28	0x3cf400c8	0.029785529
29	0x3ce341f4	0.02774141
30	0x3d0cad50	0.03434497
31	0x3cfc1eb0	0.030776352

decoders.0.decoder_net.6.running_var f4 [32]
0	0x392cfdeb	0.0001649779
1	0x392759f9	0.00015959879
2	0x398cf0b5	0.00026882222
3	0x39bcbec0	0.00036000274
4	0x39464f34	0.00018912257
5	0x391f71a9	0.00015205763
6	0x39a4a832	0.00031405833
7	0x39aaf0ca	0.0003260433
8	0x390d0e9d	0.00013452252
9	0x39f3270e	0.0004637767
10	0x39a8a7b3	0.00032168403
11	0x3955b232	0.00020379646
12	0x39989d29	0.00029108793
13	0x39d4fd82	0.0004062467
14	0x3986f6ae	0.00025742262
15	0x39cd19d4	0.0003911989
16	0x396f6ee6	0.00022834129
17	0x39aa0098	0.0003242537
18	0x397ddfcf	0.00024211335
19	0x38c80c8b	9.5390795e-05
20	0x38e0e3de	0.00010723596
21	0x3998f060	0.00029170793
22	0x39839bc2	0.00025102316
23	0x398f3fcf	0.00027322627
24	0x3990a2a8	0.0002758701
25	0x39c05b94	0.00036689325
26	0x392372b6	0.00015587625
27	0x397f8cf8	0.0002437121
28	0x3932b8b2	0.00017044207
29	0x39555d91	0.00020348119
30	0x3966e5fa	0.00022020182
31	0x393ffa70	0.00018308475

decoders.0.decoder_net.7.weight f4 [32, 16, 3, 3]
0	0x3ce1f56c	0.027582847
1	0xbda96219	-0.08270664
2	0xbd361343	-0.044451963
3	0x3d5b7a34	0.05358334
4	0x3c58be40	0.013228953
5	0x3ca6456f	0.02029678
6	0xbd049a77	-0.03237387
7	0x3cd10eeb	0.025519809
8	0xbd94661f	-0.072460406
9	0xbbaa5b86	-0.0051988987
10	0x3c5c5925	0.013448988
11	0xbc53efb9	-0.012935572
12	0xbd37c8eb	-0.044869345
13	0x3cdc4929	0.026890354
14	0xbd51ad23	-0.051190507
15	0xbd9549fa	-0.072895005
16	0xbcaa8e14	-0.020819701
17	0xbc237c7e	-0.009978412
18	0xbd237534	-0.039906695
19	0x3c3311eb	0.010929565
20	0x3ceb09d8	0.028691217
21	0x3cce4474	0.025179125
22	0x3c5a8565	0.013337468
23	0x3da668d9	0.08125467
24	0xbcddba2d	-0.027066315
25	0xbc5839ed	-0.013197404
26	0xbc85394e	-0.016262677
27	0x3d93a668	0.07209474
28	0x3d9d862b	0.07691606
29	0xbca77599	-0.020441817
30	0x3d79095b	0.060799938
31	0x3d89ad40	0.06722498
32	0xbc054996	-0.00813522
33	0xbd9424bb	-0.07233568
34	0x3d93bb11	0.072134145
35	0x3d31e244	0.043428674
36	0x3d92de84	0.07171348
37	0x3ce3eb96	0.027822297
38	0xbcc2a477	-0.023760064
39	0x3df4d983	0.119555496
40	0xbc9914ab	-0.018686613
41	0xbd96b01c	-0.07357809
42	0x3da5a346	0.080877826
43	0x3d399046	0.045303605
44	0xbc573845	-0.013135974
45	0x3c8c1c7b	0.017103424
46	0xbd1aca3f	-0.037790533
47	0xbd8bb495	-0.06821553
48	0xbd79c97a	-0.06098316
49	0xbdbfdfdc	-0.0936887
50	0x3d18a0c8	0.037262708
51	0xbcab2aab	-0.02089437
52	0xbd02d4a3	-0.031941067
53	0x3c1189cf	0.008882954
54	0x3d0032cf	0.031298455
55	0x3d2eabca	0.0426443
56	0xb9db5ff2	-0.0004184242
57	0x3dd9f293	0.106419705
58	0xbdabb915	-0.08384911
59	0xbd9dd0ef	-0.077058665
60	0x3d26619e	0.04062044
61	0xbd654afb	-0.05597971
62	0xbb6852d8	-0.003544977
63	0x3d47d8f3	0.048790883
64	0x3d5a91b4	0.05336161
65	0xbca2a1b1	-0.019852491
66	0x3dde2742	0.108473316
67	0x3c7f9e06	0.015601641
68	0xbd779af3	-0.060450505
69	0x3d023e04	0.031797424
70	0x3d8b8a14	0.06813446
71	0x3d9592d9	0.073033996
72	0xbb957ce5	-0.0045620077
73	0xbbaec04c	-0.005332982
74	0x3bca1ae7	0.006167758
75	0xbca0d775	-0.019633988
76	0xbc17af4c	-0.009258103
77	0x3d28cefc	0.04121302
78	0xbd721963	-0.059106242
79	0x3ccc1774	0.024913527
80	0xbc593995	-0.0132583575
81	0xbd1f65d2	-0.038915463
82	0x3cdd3ea1	0.027007403
83	0x3d872e72	0.066006556
84	0x3b9f1e67	0.004855919
85	0xbccec65c	-0.02524107
86	0x3dae6302	0.08514978
87	0xbbe595f6	-0.007006402
88	0xbd529052	-0.051407166
89	0xbd44ac31	-0.048015777
90	0xbd8f329b	-0.06992074
91	0x3c236198	0.009971999
92	0xb85ae6a4	-5.219005e-05
93	0x3d3a0bd9	0.045421455
94	0x3d901e57	0.07037037
95	0x3ce9df7f	0.028548954
96	0x3d13a6e6	0.03604784
97	0xbaeed9dd	-0.0018222887
98	0xbd7a3c9c	-0.061092958
99	0xbd1ebdce	-0.03875523
100	0xbd856453	-0.06513276
101	0x3a447a74	0.00074950536
102	0xbcfbb8e2	-0.030727807
103	0x3cdf1e80	0.027236223
104	0xbd29af54	-0.04142697
105	0xbd6fb264	-0.058519736
106	0xbc31b531	-0.010846422
107	0xbd40d96c	-0.04708235
108	0x3d61b67d	0.055105675
109	0x3d18dafc	0.037318215
110	0xbdac6700	-0.08418083
111	0xbbdabb04	-0.006675126
112	0x3d8b1660	0.06791377
113	0xbd8d266d	-0.06892095
114	0x3d3daf48	0.04630974
115	0x3d2aa970	0.041665494
116	0xbd42b819	-0.04753885
117	0x3d0c66a2	0.034277566
118	0xbc34a773	-0.011026251
119	0xbb9c8c26	-0.004777449
120	0x3c7c2dbc	0.015391763
121	0x3c05f498	0.0081759915
122	0xbc9e03cc	-0.01928892
123	0xbca06029	-0.019577103
124	0xbd4bb372	-0.04973168
125	0xbb9d819d	-0.004806711
126	0xbd4a17a3	-0.049338948
127	0x3c850ebf	0.016242383
128	0x3d189259	0.037248943
129	0xbd3e8357	-0.046511974
130	0x3d7cd6ed	0.061728407
131	0xbdb7f6ef	-0.08982646
132	0xbce201f3	-0.02758882
133	0xbce40ae3	-0.027837222
134	0xbce8854e	-0.028383877
135	0x3c8d0a94	0.017216958
136	0x3cc42ab7	0.02394615
137	0x3d7c499f	0.061593648
138	0x3d98921b	0.074497424
139	0xbd1e56fe	-0.03865718
140	0xbbba1fa5	-0.005680042
141	0xbc6e09ab	-0.014528672
142	0xbcc55d8b	-0.024092456
143	0xbd874feb	-0.0660704
144	0xbd0eaa53	-0.034830403
145	0xbd09254b	-0.03348283
146	0x3d31715c	0.043321
147	0xbd50eaba	-0.051005103
148	0xbcea8649	-0.028628485
149	0x3cc5b76b	0.024135312
150	0x3b178728	0.002312133
151	0x3e02ff8c	0.12792796
152	0x3d25bd2d	0.040463615
153	0xbb5fe871	-0.0034165645
154	0xbc7f4052	-0.0155793
155	0x391bf813	0.00014874367
156	0x3bff8930	0.0077983364
157	0xbcfffcc3	-0.031248456
158	0xbd3e03be	-0.046390288
159	0x3af68a35	0.00188095
160	0x3a9babd1	0.0011876767
161	0x3b0a374f	0.0021090095
162	0xbc369430	-0.011143729
163	0x3d5eb965	0.054376025
164	0x3d038d3a	0.032117106
165	0xbd106976	-0.035256825
166	0xbd196507	-0.037449863
167	0xbd1b75e3	-0.037954222
168	0xbc922a76	-0.017842513
169	0x3caaa1e8	0.020829156
170	0xbc859198	-0.016304776
171	0x3c72795f	0.014799445
172	0xbbfac521	-0.007652894
173	0x3bcb2df9	0.0062005487
174	0xbd569a07	-0.052392986
175	0x3d03f858	0.03221926
176	0x3d5ceab2	0.05393476
177	0xbcfdd2d7	-0.030984325
178	0xbc502220	-0.0127034485
179	0x3c27f010	0.010250106
180	0xbd3d41b7	-0.04620525
181	0x3d855ade	0.06511472
182	0xbd07552d	-0.033040214
183	0xbd146223	-0.036226403
184	0xbcf102eb	-0.029420337
185	0x3d789547	0.060689237
186	0x3d513b60	0.051082015
187	0xbd02464f	-0.031805333
188	0xbc81a9e8	-0.015828088
189	0x3cb061a4	0.021530934
190	0x3d15a072	0.036529966
191	0xbd19745f	-0.037464496
192	0x3d6a97c1	0.05727363
193	0x3c2c74f4	0.010525931
194	0x3b90e016	0.0044212444
195	0xbc0ac2f6	-0.008469334
196	0x3ccc66b1	0.02495131
197	0x3caa530b	0.020791551
198	0xbc53c706	-0.012925869
199	0x3ce971f0	0.028496712
200	0xbd6f96c7	-0.0584934
201	0x3db51f58	0.08843869
202	0xbd390635	-0.045171935
203	0x3cf4391d	0.02981239
204	0x3d48f865	0.049065012
205	0xbd39b6dc	-0.045340404
206	0x3d3a0107	0.045411136
207	0xbd9e8891	-0.07740892
208	0x3cc560f7	0.024094088
209	0x3cb4c7c8	0.02206792
210	0xbd0bfcf9	-0.0341768
211	0x3d35bcce	0.04436951
212	0x3d5f852c	0.054570362
213	0xbb8d4634	-0.0043113474
214	0xbd55dcb1	-0.05221242
215	0xbccead6a	-0.025229175
216	0xbc0e79e4	-0.008696053
217	0xbcbd254a	-0.02308907
218	0x3d24cdc2	0.04023529
219	0xbd45fce4	-0.04833688
220	0xbd45acdf	-0.048260566
221	0x3c101407	0.008793837
222	0xbd0b0076	-0.033935986
223	0x3c54c697	0.012986801
224	0x3d43b406	0.047779106
225	0x3d16e412	0.0368386
226	0x3e0fac19	0.14030494
227	0xbc037fc6	-0.008026069
228	0x3d1f97d0	0.03896314
229	0xbd32304a	-0.043503083
230	0xbd811b8b	-0.063040815
231	0xbd9e59c1	-0.07731963
232	0xbdb66bc0	-0.089072704
233	0xbcbfebbc	-0.023427837
234	0xbc5784f9	-0.013154262
235	0xbc770e66	-0.015079116
236	0xbc834ebb	-0.016028753
237	0x3d22f1f0	0.03978151
238	0xbd014a71	-0.031565133
239	0xbcb00408	-0.021486297
240	0xbcb0ad27	-0.02156694
241	0xbce6474a	-0.028110165
242	0x3d4cb487	0.04997685
243	0xba48c97a	-0.0007659417
244	0xbd5d9f0f	-0.05410677
245	0xbbc3c702	-0.0059746513
246	0xbbd8bad3	-0.006614068
247	0xbcf19af6	-0.029492836
248	0xbd273b41	-0.040827993
249	0x3a0d25cc	0.00053843553
250	0xbbbbaecf	-0.005727626
251	0x3ccf4673	0.025302147
252	0x3d993129	0.0748008
253	0x3ceb839c	0.02874928
254	0xbde7c9d8	-0.113177955
255	0x3d7be177	0.061494317

decoders.0.decoder_net.7.bias f4 [16]
0	0x3e7211ab	0.23639552
1	0xbcd46d24	-0.025930949
2	0xbe7ce812	-0.24697903
3	0xbcbc3b88	-0.022977605
4	0x3de074e1	0.10959793
5	0xbd84a2c1	-0.06476355
6	0x3e168511	0.14699198
7	0x3dce89c4	0.100848705
8	0xbdb8bd09	-0.090204306
9	0x3d0e8598	0.034795374
10	0x3d45c45b	0.048282962
11	0xbe8fc521	-0.28080085
12	0x3dc6c79a	0.0970604
13	0x3de83cc0	0.11339712
14	0x3c88b2c2	0.0166868
15	0x3d88895a	0.06666823

decoders.0.decoder_net.9.weight f4 [16]
0	0x3f6cbfb3	0.9248001
1	0x3f69f960	0.9139614
2	0x3f660b71	0.8986121
3	0x3f6c7367	0.9236359
4	0x3f68f821	0.91003615
5	0x3f6d9ace	0.9281434
6	0x3f693437	0.910953
7	0x3f6e32a0	0.93046
8	0x3f697d20	0.9120655
9	0x3f67be32	0.9052459
10	0x3f683eab	0.90720624
11	0x3f6a70e2	0.91578496
12	0x3f678273	0.90433425
13	0x3f6469f1	0.89224154
14	0x3f6dcb3d	0.9288824
15	0x3f6b826f	0.919959

decoders.0.decoder_net.9.bias f4 [16]
0	0xbdca54d2	-0.098794594
1	0xbd7acd8e	-0.06123119
2	0x3d6c23a4	0.057651177
3	0x3b89ee08	0.0042092837
4	0x3db1de5a	0.08684988
5	0x3d739d2b	0.05947606
6	0xbdff8601	-0.12476731
7	0xbd5acbe3	-0.053417098
8	0x3daa2157	0.0830714
9	0x3d0aba5c	0.033869132
10	0xbe2521d3	-0.16126184
11	0x3dbea5b9	0.09308953
12	0xbdc4acc5	-0.09603266
13	0x3cc51796	0.024059098
14	0x3dda354a	0.10654695
15	0x3d87b6fb	0.06626698

decoders.0.decoder_net.9.running_mean f4 [16]
0	0x3d97271d	0.07380507
1	0x3d733123	0.059373032
2	0x3d3c5880	0.045982838
3	0x3d6f6dd0	0.058454335
4	0x3d906957	0.07051342
5	0x3d68c971	0.056832734
6	0x3d9446cc	0.07240066
7	0x3d85cccb	0.06533202
8	0x3d7120f6	0.058869325
9	0x3d83f983	0.06444075
10	0x3d7dddf7	0.06197926
11	0x3d3ab43e	0.04558205
12	0x3d8936d9	0.066999145
13	0x3d8d1f86	0.06890778
14	0x3d81944e	0.06327115
15	0x3d89bd9e	0.0672562

decoders.0.decoder_net.9.running_var f4 [16]
0	0x3a34432a	0.00068764633
1	0x3a79e4da	0.0009532698
2	0x39c5c668	0.00037722592
3	0x3a4eb57b	0.0007885319
4	0x3a9ccfdc	0.0011963802
5	0x3a63af73	0.0008685507
6	0x3ab2cb8d	0.0013640985
7	0x3a58e776	0.00082742365
8	0x3a8233a8	0.0009933608
9	0x3a9d6a6d	0.0012009867
10	0x3a32fb18	0.0006827577
11	0x39ccc86c	0.00039059238
12	0x3a84b2ab	0.0010124048
13	0x3a815f0d	0.0009870246
14	0x3a5cdd0f	0.0008425274
15	0x3ac7a333	0.0015231132

decoders.0.decoder_net.10.weight f4 [16, 1, 3, 3]
0	0xbe124aac	-0.14286298
1	0xbd8e1841	-0.0693822
2	0xbc8de4e8	-0.017321065
3	0xbe39b1e3	-0.18134265
4	0xbe80b5eb	-0.25138792
5	0xbdbe4ea5	-0.09292344
6	0xbd3513b7	-0.044208255
7	0xbddd9c26	-0.108207986
8	0x3d3be162	0.04586924
9	0xbc3994dd	-0.011326996
10	0x3e80c81b	0.25152668
11	0x3e146fd5	0.14495786
12	0xbdac5977	-0.084155016
13	0x3d3decd5	0.04636844
14	0xbe1c8f63	-0.15289073
15	0x3da33075	0.07968227
16	0xbe3f8dd9	-0.18706454
17	0xbe5773f2	-0.21040323
18	0x3e81a42d	0.2532057
19	0xbdf61bd6	-0.12017028
20	0x3e60094b	0.21878545
21	0xbe29f1d8	-0.16596162
22	0x3e2a0442	0.16603187
23	0xbe652aab	-0.22379558
24	0x3c24a99c	0.010050204
25	0x3d0d7ce1	0.034542922
26	0x3e1a6590	0.15077806
27	0x3c9f0b52	0.019414578
28	0xbe5beb22	-0.21476415
29	0xbe599c45	-0.21251018
30	0xbe1bc360	-0.15211248
31	0x3c8eac43	0.017416125
32	0x3e5a29ac	0.21304959
33	0x3e258f4e	0.16167948
34	0x3dc91189	0.09817798
35	0xbe0924be	-0.13392922
36	0xbdc3074c	-0.09522876
37	0x3e0823e2	0.13294938
38	0xbd7c622e	-0.06161707
39	0xbd5edd08	-0.05441001
40	0x3e4ab9af	0.19797395
41	0x3e22e7d9	0.15908755
42	0x3e728d45	0.23686703
43	0x3e66bdd4	0.22533351
44	0x3e1daee5	0.15398748
45	0x3d9282e8	0.07153875
46	0xbe3f19fb	-0.18662255
47	0x3ce6b195	0.02816085
48	0x3b8d6345	0.0043148124
49	0xbd1839ff	-0.037164684
50	0x3e48c2ca	0.19605556
51	0x3e16e6c9	0.14736475
52	0x3e791a26	0.24326381
53	0x3e2d4de3	0.16924243
54	0x3e715a3c	0.23569578
55	0xbe656f85	-0.22405823
56	0x3e1c274e	0.15249369
57	0xbe1a1064	-0.15045315
58	0xbe88b7fc	-0.2670287
59	0xbe2ea12c	-0.1705367
60	0x3d10fd99	0.0353981
61	0xbe531bd2	-0.20616081
62	0x3c4ab584	0.012372378
63	0xbdcdae25	-0.10042981
64	0x3e5f6bf7	0.21818529
65	0x3df83334	0.12119141
66	0xbd00747f	-0.0313611
67	0xbe152d31	-0.1456802
68	0xbd434c1f	-0.047680017
69	0xbd43dcc1	-0.04781795
70	0xbb31cc4d	-0.002712983
71	0x3e2e38f5	0.17013915
72	0x3e6a71c8	0.22894967
73	0x3e17442d	0.14772101
74	0xbd8431bc	-0.064547986
75	0x3deab521	0.11460329
76	0x3e566de1	0.20940353
77	0x3c2b2a35	0.010447075
78	0x3e2f7591	0.17134692
79	0x3e3169a8	0.17325461
80	0x3e0089b7	0.12552534
81	0xbd871153	-0.06595101
82	0x3e687e1f	0.22704361
83	0x3e551115	0.20807298
84	0x3b9b0bbe	0.0047316244
85	0x3d003caa	0.031307854
86	0x3e14e5f9	0.14540853
87	0x3e5cb6a8	0.21554053
88	0x3dca2ab3	0.098714255
89	0x3d856e46	0.065151736
90	0xbdf81b76	-0.12114613
91	0xbda871a0	-0.08224797
92	0xbe7eb21c	-0.24872631
93	0xbe047460	-0.12935019
94	0xbe88b555	-0.26700845
95	0x3dfcca28	0.12343246
96	0x3e3f1a11	0.18662287
97	0x3e0e19ee	0.13877079
98	0xbd4a5f63	-0.049407374
99	0xbdb71e9f	-0.089413874
100	0x3e53b16f	0.20673154
101	0x3d6f9ca3	0.05849899
102	0x3e32a64e	0.17446253
103	0x3e2520fd	0.16125865
104	0x3e4c4a5c	0.19950241
105	0xbbb4aec4	-0.0055139977
106	0x3be9c597	0.0071341502
107	0x3e306702	0.17226794
108	0x3d1a7247	0.03770664
109	0x3ca005ed	0.019534076
110	0xba7cdf30	-0.00096462946
111	0xbe720f68	-0.2363869
112	0x3c1751a5	0.009235774
113	0xbe1b2824	-0.15152031
114	0xbe1e7875	-0.15475638
115	0xbd14f36d	-0.03636496
116	0x3e1fb3ac	0.15595883
117	0x3e27bbe8	0.16380274
118	0xbd3e38bb	-0.04644082
119	0xbe144253	-0.14478426
120	0xbd11eb4c	-0.035624787
121	0x3d4b7d7b	0.049680214
122	0xbe3d062a	-0.18459383
123	0x3e6c1877	0.23056208
124	0x3e202773	0.15640049
125	0x3e192abf	0.14957713
126	0xbd90501b	-0.07046529
127	0xbc6628ac	-0.014047783
128	0x3e3ad4ba	0.18245211
129	0xbe176f39	-0.14788522
130	0x3d7a7a7a	0.06115196
131	0x3d92d40a	0.071693495
132	0xbd1f75a8	-0.038930565
133	0x3dd71e96	0.10503881
134	0x3d25f746	0.04051902
135	0xbe52ad69	-0.20573963
136	0x3e2dd134	0.16974336
137	0xbe2cf88f	-0.16891693
138	0xbe022acf	-0.12711643
139	0x3e0b6fca	0.13616863
140	0x3e0d0911	0.1377299
141	0x3dc4b32f	0.09604489
142	0x3e822e27	0.25425836
143	0x3e560a7a	0.20902434

encoder.encoder_net.0.weight f4 [16, 1, 3, 3]
0	0xbd6cdeb0	-0.05782956
1	0xbddcea60	-0.10786891
2	0xbde8a39c	-0.11359331
3	0xbe22d2c0	-0.15900707
4	0x3e3b95cf	0.18318866
5	0xbe93c67f	-0.28862378
6	0x3d8d3583	0.06894972
7	0x3e53c8fe	0.20682141
8	0x3d0de2b6	0.034640037
9	0x3eb653a4	0.35610688
10	0x3db0673b	0.0861344
11	0xbd73a4b6	-0.059483252
12	0x3c4f73d7	0.012661896
13	0xbe06b25d	-0.13153978
14	0x3e6395a3	0.2222505
15	0x3df7fce8	0.12108785
16	0xbea35e5f	-0.31907937
17	0xbe06202b	-0.13098209
18	0xbd8b9d70	-0.06817138
19	0xbdaa38a7	-0.08311587
20	0xbe875d0c	-0.26438177
21	0x3d83cfcc	0.064361185
22	0xbe126555	-0.14296468
23	0xbe94a51b	-0.29032215
24	0xbdc01965	-0.093798436
25	0xbe8bd416	-0.27310246
26	0x3df430de	0.11923383
27	0x3cef665e	0.029223617
28	0x3c476f2e	0.012172503
29	0xbd6a95ef	-0.057271894
30	0x3e89f2fc	0.26943195
31	0xbd9005ef	-0.07032382
32	0xbd79a1f5	-0.06094547
33	0x3ea4f6f6	0.32219666
34	0x3dec9ac5	0.115529574
35	0xbe30d708	-0.17269528
36	0xbe29227c	-0.16517061
37	0xbe97de4e	-0.29661793
38	0x3e0230e0	0.12713957
39	0x3d23d465	0.039997477
40	0xbe3b49eb	-0.18289916
41	0xbe13cd39	-0.14433755
42	0xbd8572c0	-0.065160275
43	0xbe0cd75d	-0.1375403
44	0xbd8eb962	-0.06968953
45	0xbd217ecb	-0.03942756
46	0x3dcd84d3	0.100351
47	0xbe79de57	-0.24401222
48	0xbd77f3ab	-0.060535114
49	0x3e3513a1	0.17683269
50	0xbcbedb1a	-0.023297835
51	0x3e9357c2	0.2877789
52	0x3e8d9bf8	0.27658057
53	0x3ea85f4f	0.32885215
54	0x3eb39ad0	0.3507905
55	0x3db3eb15	0.08785073
56	0x3d9ff47c	0.078103036
57	0x3d86b097	0.065766506
58	0x3dce3c31	0.10070074
59	0xbdea218e	-0.11432181
60	0x3e2d3753	0.16915636
61	0x3e0685a8	0.13136923
62	0x3e3d36b2	0.18477896
63	0x3e013f7c	0.12621874
64	0xbe4177a7	-0.188933
65	0x3e8d5cf4	0.2760998
66	0x3e3e4eee	0.18584797
67	0x3dcdefdb	0.100555144
68	0x3ec94113	0.3930746
69	0xbd83ecc2	-0.06441642
70	0x3e588e46	0.21148023
71	0xbe95feef	-0.2929606
72	0x3cfbbe84	0.030730493
73	0xbebd5fcf	-0.3698716
74	0xbe126bc3	-0.1429892
75	0x3cca2511	0.024675878
76	0xbe734693	-0.2375739
77	0x3e8913ce	0.26772922
78	0x3e082d5c	0.13298553
79	0x3e99484a	0.29937965
80	0xbe81aa61	-0.253253
81	0xbd9216e1	-0.0713327
82	0x3d65980b	0.056053203
83	0x3d869241	0.065708645
84	0xbd0e6da4	-0.03477253
85	0xbdd28f37	-0.10281222
86	0x3c4fd562	0.012685152
87	0x3cfce1ff	0.030869482
88	0x3d9bbb3b	0.07604071
89	0x3d380962	0.044930823
90	0xbe9d9cdd	-0.3078374
91	0xbed4203c	-0.41430843
92	0xbe987039	-0.2977312
93	0x3ea2a2be	0.31764787
94	0xbd8c9070	-0.06863487
95	0xbeaf2c44	-0.3421346
96	0x3da08051	0.078369744
97	0xbd93db15	-0.07219521
98	0x3e4d7a32	0.20066145
99	0xbd5e2e5f	-0.05424344
100	0x3eb1ab3e	0.3470096
101	0x3e9e51c3	0.30921754
102	0xbe492a6e	-0.19645092
103	0x3e8cafb4	0.274778
104	0x3eb78c22	0.358491
105	0xbd827dc4	-0.06371644
106	0x3e3acb3d	0.18241592
107	0x3ea448a8	0.32086682
108	0xbd9446a6	-0.072400376
109	0xbe5ba9e6	-0.2145153
110	0x3bbe3957	0.0058051753
111	0x3d98b4cb	0.074563585
112	0xbcb82f31	-0.02248344
113	0xbdc5fb64	-0.096670896
114	0xbea2b0da	-0.31775552
115	0xbdb56f95	-0.08859173
116	0xbee14875	-0.44000593
117	0xbe35a542	-0.17738822
118	0xbe07135f	-0.13190983
119	0x3e370800	0.17874146
120	0x3d713be4	0.058895007
121	0x3cf76e7d	0.030204052
122	0xbde9f32d	-0.11423335
123	0x3e69e4fd	0.22841258
124	0x3d078fa5	0.033095974
125	0xbe4664fd	-0.19374461
126	0xbc4c4c1b	-0.012469317
127	0xbc1eb1d5	-0.009685953
128	0x3e6f0136	0.23340306
129	0x3e41bcf9	0.18919744
130	0x3ea10fc6	0.31457347
131	0x3d7d6f50	0.061873734
132	0x3e81fe35	0.25389257
133	0x3e7c89f6	0.24662003
134	0xbea955c5	-0.3307325
135	0xbd9ae3b3	-0.075629614
136	0x3e990af9	0.29891184
137	0x3ea04920	0.3130579
138	0x3bab492b	0.005227228
139	0x3de8bf05	0.11364559
140	0xbe108ddf	-0.1411662
141	0x3e29d297	0.1658424
142	0x3ea6cfa8	0.32580304
143	0x3df41abc	0.11919162

encoder.encoder_net.0.bias f4 [16]
0	0x3e1e5619	0.15462531
1	0x3e597b24	0.2123838
2	0x3e5108fb	0.20413582
3	0xbdbbea81	-0.091755874
4	0xbe4763e9	-0.19471706
5	0xbeaa37d0	-0.33245707
6	0xbdb489df	-0.08815359
7	0xbe6008b5	-0.21878321
8	0x3e9086eb	0.28227934
9	0x3e310e7d	0.17290683
10	0xbd8bf127	-0.068331055
11	0xbdc00cbe	-0.093774304
12	0xbe7fa8ba	-0.24966708
13	0x3dc3bda8	0.095576584
14	0x3e5d8044	0.2163096
15	0x3d6cbdc9	0.05779818

encoder.encoder_net.2.weight f4 [16]
0	0x3f8a07bd	1.0783612
1	0x3f81774a	1.0114529
2	0x3f7e7705	0.9940036
3	0x3f85ae3e	1.04438
4	0x3f86ea00	1.0540161
5	0x3f881581	1.0631562
6	0x3f846ff0	1.0346661
7	0x3f852b3b	1.0403818
8	0x3f7cbced	0.9872578
9	0x3f8792f8	1.0591726
10	0x3f850e27	1.0394944
11	0x3f83e51a	1.0304291
12	0x3f865cd8	1.0497084
13	0x3f857677	1.0426778
14	0x3f837d67	1.0272645
15	0x3f82eeb9	1.0229102

encoder.encoder_net.2.bias f4 [16]
0	0x3cc67e71	0.024230214
1	0x3b8360c9	0.0040093404
2	0x3dab9555	0.08378092
3	0xbd899e79	-0.067196794
4	0x3d1ffedb	0.03906141
5	0xbdab0cdb	-0.08352061
6	0xbd5c34c7	-0.05376127
7	0xbd1eb4a6	-0.0387465
8	0x3bc6fc75	0.0060725757
9	0x3d223149	0.039597783
10	0x3d3b23f6	0.045688592
11	0xbca9a0f5	-0.020706633
12	0x3d33d266	0.043901823
13	0x3d554965	0.052071948
14	0xbd0e82b1	-0.034792606
15	0xbdb9bc1f	-0.090690844

encoder.encoder_net.2.running_mean f4 [16]
0	0x3d87f3bb	0.06638285
1	0x3d982369	0.07428629
2	0x3d846609	0.06464774
3	0x3d67b1d8	0.05656609
4	0x3d3358d6	0.043785892
5	0x3d44171c	0.0478736
6	0x3d8215dd	0.06351826
7	0x3d57ed59	0.052716587
8	0x3d9ad0f4	0.07559386
9	0x3d8fbb28	0.07018119
10	0x3d4d0242	0.05005098
11	0x3d915e1e	0.070980296
12	0x3d2545f0	0.0403499
13	0x3d8232c3	0.06357338
14	0x3dadac82	0.08480169
15	0x3d98f7ae	0.07469116

encoder.encoder_net.2.running_var f4 [16]
0	0x38bd8f38	9.038899e-05
1	0x38eb1417	0.00011209415
2	0x3998ef40	0.00029169954
3	0x382fa5e3	4.1877745e-05
4	0x38f0164f	0.00011448247
5	0x38a8711a	8.031931e-05
6	0x393049b6	0.00016812127
7	0x386eed10	5.6964403e-05
8	0x39109889	0.00013789734
9	0x38155768	3.560577e-05
10	0x392b4673	0.00016334075
11	0x3a8e1988	0.0010841349
12	0x39033dbc	0.00012516131
13	0x3852ccd6	5.025867e-05
14	0x39b83c10	0.00035139965
15	0x39a9f8a0	0.00032419432
