Project2/models/model_3_6.pt (torch, 285381 bytes, 75 tensors)

prior.mean f4 [2]
00000000: 0000 0000 0000 0000
0.0 0.0

prior.std f4 [2]
00000000: 0000 803f 0000 803f
1.0 1.0

decoders.0.decoder_net.0.weight f4 [512, 2]
00000000: 846c 19bf db9d eebc afe7 ed3d 0ab8 093e
00000010: 3dfe 513e 96ec 03bf 84fe 09bf dfee 463f
00000020: d10d c7be f818 6f3e 40e3 fa3e be94 3cbe
00000030: 0ca7 103f fa3c e1be d257 b03b 34a4 fd3e
00000040: bea5 08bf a5aa 083f 63e4 a93a 30e4 253f
00000050: 0cfa ebbe 721c 3abf 5920 fdbe aaf2 edbe
00000060: afdf 933d 28be 963c 70d3 d6be a3cb 69be
00000070: b3dc 623e 7429 393f 484d 25bf 539f 45bf
00000080: 3bec 293e d01e 113f 4d16 b33e 517d 02be
00000090: 3ee8 323e 5849 26bf 14bf 08bf b036 cdbe
000000a0: b26c febe 49da 8fbe c12b 3bbe cbe5 d73e
000000b0: 5474 ae3e 14b6 173f e730 a03e 8a2e f0be
000000c0: 1173 033e 80c5 15bf ec0e 6a3b 7b14 b33e
000000d0: a9e4 a2be b917 13be d9e4 1cbf 0a2b b8be
000000e0: 1fe1 0a3f f591 1dbf 2ce4 f4be 16a7 0ebf
000000f0: 746a e53d 520f 843e 28cc 9fbe 5068 d43e
00000100: 098b 93be 4d95 2fbf eed7 723e 212c 2e3f
00000110: 59e9 053f 0f29 233f 9963 3ebe 0132 133f
00000120: 23fb f8be 9ffe b5be c86f 11bf 2719 65be
00000130: d49f 133f 9cbf 303f ae6a 873e ddb9 343f
00000140: 77ac 0c3f 7242 0c3e 8caf 4abe 0747 95be
00000150: af9b 083f 03c5 71be eb59 96be b2e9 adbe
00000160: f58b d13d 32d6 0f3f ccd8 1bbf 0130 e33e
00000170: 7959 323e 4b58 e1be a504 0b3f 9783 9fbe
00000180: 6817 bd3e 5913 99be 256a c6be 5221 c93e
00000190: c49b 39be cf6b 08be 50d1 2f3f 0b2a edbe
000001a0: e873 2d3d f85f 79bd 5a97 f53e a187 10bd
000001b0: b4c5 473e 4a6c 39be bb5d bb3e 3e23 013f
000001c0: 6856 1e3f ab43 20bf 3a39 173f c80c 163f
000001d0: dd19 1e3d 44bb ce3e df45 8abd a64c 173f
000001e0: af2e 0abf 8480 683e 9b85 93bd f0b7 00bf
000001f0: 5c4c 263e 72dd 0dbc a720 e73e c075 033f
00000200: d10b c1be afc0 28be 4a63 05bf 5f4b b23d
00000210: 96b9 ed3e d950 063f 1d77 4fbe 1c4d f03e
00000220: a859 d73d 9863 2e3f e7db df3e 4ede 3cbd
00000230: dfee c43e f554 2a3f 0ab3 c6bd 728b 813e
00000240: 9d9b d0be b039 d83d 89b7 c3be 47c1 17bc
00000250: e42b 35bf e359 f73e 971d 1d3f eb92 983d
00000260: 27f1 d0be d611 263f dc3f c53e c292 19bf
00000270: 66ac 77be 8d50 0abf ae92 e73e 7b53 20bf
00000280: a22e 583e 89a1 cc3e 0a60 d93d cc0d 0e3d
00000290: eea3 433e 0ea0 1fbf 0888 3d3e 1e78 223f
000002a0: ce14 723e 08a2 6bbe c13c dc3e 7517 113f
000002b0: 9000 003f 1208 133d d7e2 a03e 862e 0d3f
000002c0: 574d 203f 8a0e bdbe 73bc a7be a944 e13c
000002d0: f576 18bf af43 f03d d0b3 b73d 6f51 3d3f
000002e0: d86c febd 91c4 f7be 582f 1abf 54cd 213f
000002f0: c1ef 0abf 6066 0cbf faae e2be 6e57 fd3e
00000300: bb1b 233f 4f7b 60be 123f 0c3f 4350 ddbe
00000310: c196 ac3e 38b4 4cbe 3da5 063f 0516 d93e
00000320: 2e69 c0bd 6e8a f5be b003 d4bd 9cf8 a23e
00000330: a399 fa3e 0842 803e c2e2 d4be 649a 18be
00000340: 31ba 1ebe 949a f5be 5ca1 62be 3465 003f
00000350: d32b 80be 9549 25bf 992d ee3e 32ec 1dbe
00000360: 1c77 ed3c 48cc f7be 33aa 313f c4ba 6e3e
00000370: 43c3 343e bf7f 35bf e9e0 293e af51 a43e
00000380: deb9 a8be 3196 bd3e 7606 fabe 1d1d 29bf
00000390: 431c 85be d192 86be b4b0 76be 9f3f d4bd
000003a0: 7c30 863e 2844 26bd 1865 f2be 4275 ad3e
000003b0: d3bb 243f 4dcc 0b3e 0811 ee3e 22bc 643d
000003c0: ba21 27bf 0a22 043f 0773 003f 1ff3 a9be
000003d0: 10c7 f43d 0aa2 233f 19f4 c53d 9caa 19be
000003e0: 0f0f 0e3f 382e f03e f6f2 f53e 3f84 c2bb
000003f0: 8be5 eabe 5fa7 03bf 419f 26bf e81e 893e
-0.59931207 -0.029128006 0.11616456 0.13449112 0.2050714 -0.51532876 -0.53903985 0.7770824
-0.3887773 0.23349369 0.49001503 -0.18416116 0.56504893 -0.43991834 0.0053815627 0.4953934
-0.533779 0.5338538 0.0012961741 0.6480131 -0.46089208 -0.72699654 -0.49438742 -0.464742
0.07220399 0.01840122 -0.4195819 -0.22831587 0.22154503 0.7232888 -0.64571047 -0.77196234
0.16594021 0.5668764 0.34977952 -0.12743117 0.17471406 -0.64955664 -0.5341656 -0.40080786
-0.49692303 -0.28096226 -0.1827841 0.42167506 0.34073126 0.59262204 0.3128731 -0.46910506
0.12836863 -0.58504486 0.003571446 0.34976563 -0.3181508 -0.14364518 -0.61286694 -0.35970336
0.5424976 -0.6155084 -0.4783033 -0.557237 0.11201945 0.25792938 -0.31210446 0.41485834
-0.28817013 -0.6858719 0.23715183 0.68036085 0.52309185 0.63734525 -0.18592681 0.57498175
-0.48629102 -0.35545823 -0.5681119 -0.22372876 0.57665753 0.6904237 0.26448578 0.70596105
0.5495066 0.13697222 -0.19793528 -0.29155752 0.53362554 -0.2361031 -0.29365477 -0.33967358
0.10231773 0.5618621 -0.6087768 0.44372562 0.17416944 -0.44012675 0.5430396 -0.31155083
0.3693192 -0.29897574 -0.38752857 0.39283234 -0.18125826 -0.13322376 0.6867876 -0.4632114
0.042346865 -0.06088254 0.47967035 -0.035285596 0.19509012 -0.18107715 0.36594948 0.504444
0.61850595 -0.62603253 0.59071696 0.5861325 0.038598884 0.40377247 -0.06751608 0.5910133
-0.53977484 0.22705275 -0.072032176 -0.50280666 0.16240066 -0.008658754 0.451421 0.5135155
-0.37704328 -0.16479753 -0.5210463 0.08705782 0.46430653 0.52467114 -0.20260282 0.4693383
0.105151474 0.6812072 0.4372246 -0.046110444 0.38463494 0.66535884 -0.09702118 0.253017
-0.40743724 0.10557878 -0.38225964 -0.0092623895 -0.70770097 0.48310766 0.61373276 0.074498974
-0.40808985 0.64870965 0.38525283 -0.5998956 -0.24186859 -0.5402916 0.45229095 -0.6262738
0.21111539 0.39966992 0.10614021 0.034681126 0.19105503 -0.623536 0.18508923 0.63464534
0.23640749 -0.23011029 0.43015102 0.5667642 0.5000086 0.03589637 0.31423065 0.55149114
0.6261801 -0.36925155 -0.32760963 0.02749856 -0.59556514 0.117316596 0.089698434 0.7395238
-0.12423104 -0.48392156 -0.6022849 0.6320393 -0.54272085 -0.5484371 -0.44274122 0.49480766
0.6371419 -0.21922038 0.5478374 -0.43225297 0.33708766 -0.19990623 0.52595884 0.42399612
-0.093950614 -0.47957176 -0.10352266 0.318303 0.4894534 0.25050378 -0.41579252 -0.14902645
-0.15500714 -0.47969496 -0.22131866 0.50154424 -0.25033435 -0.645654 0.46519163 -0.15422133
0.02898746 -0.48398042 0.6940033 0.23313433 0.17652611 -0.7089805 0.16589703 0.3209357
-0.32954305 0.3702865 -0.48833054 -0.6606005 -0.25998124 -0.26283887 -0.24090844 -0.10363697
0.26208866 -0.040592343 -0.47342753 0.33878523 0.64349097 0.13652153 0.4649737 0.05584348
-0.6528584 0.5161444 0.5017552 -0.331933 0.11952031 0.63919127 0.096656986 -0.15006489
0.5549173 0.46910262 0.48036927 -0.005936175 -0.45878252 -0.51427263 -0.6508675 0.26781392

decoders.0.decoder_net.0.bias f4 [512]
00000000: 8702 e23e 22ca 01bf 2e7d 2ebd 0a08 07be
00000010: 8656 5fbe 7833 2cbf 9385 313e 7736 19be
00000020: e9d3 13bf 51b9 00bf 10a3 1d3f 8610 e23d
00000030: 0a35 54be 5877 223f be2d c23e 01f8 213f
00000040: bcb3 22bf 0bf1 37bf b162 e83e 769b 923e
00000050: f915 883e 7b35 2cbf fc22 2a3f b089 36bd
00000060: 3f15 27bf 4194 793e fe5c 1e3f c785 c2be
00000070: 6735 263f ddad 1abf 4edc 593e 8bbf b3be
00000080: f383 fe3e e40f 443f 52c4 043f 8b9e 0ebe
00000090: e582 883e 95b9 6cbe 0c8a 053f eb85 12bf
000000a0: 14c9 23be 322e bcbe b12e 5e3e 72f1 e8be
000000b0: 3c6d c83d ea50 273f f019 05bf fd53 2b3f
000000c0: b115 cdbe 5fd0 163f e84c 00bf 0b51 07bf
000000d0: bdb9 953d 4367 2f3e 0ef7 dbbe c0a5 203e
000000e0: 309f fcbe 2558 f5be 656e 1cbe bb3d 0e3f
000000f0: 3d7b b6be b184 103f 5bae f73e 49b1 1c3f
00000100: 9241 393e 6e2c 1f3f bd84 1e3f 0f98 11bf
00000110: a2a5 553e 648a 343f 75e3 e93e 5568 91be
00000120: a94e 9bbe c9a7 ee3e e484 3abe 0806 e13e
00000130: 60b5 09bf b625 853d 2e07 11bf dda6 373f
00000140: 791f 823e e62c aabd b621 dcbe 478d a33e
00000150: 532e 15bf 46f7 35bf 0ad2 8cbe adc5 27bf
00000160: 3041 bcbc 5718 b53e d6db 48be 6fa6 f43e
00000170: ca8e 12bf 1e7f 07be 702f 1e3d 74a3 b73e
00000180: 2afd 913e 2795 d93e 62b0 2cbf 9167 1e3e
00000190: 5ceb d13d 65d3 28bf 237f 4f3e 6edc 2fbf
000001a0: 2dd6 2cbf c1cf d53e 44d7 10bf 3ee4 dc3e
000001b0: f26d 253f 52b4 133b d0cc 8bbd 9b7b 24bc
000001c0: 844c 0d3f 85f8 f43e 4b7f 5abd 0d70 2fbf
000001d0: 5b6e 51be 451d 873d 7084 b1be 7ab6 283f
000001e0: ac32 04be 3de6 fbbb b69b 6fbe 7f4d c03e
000001f0: fe9d 593d 874f 18bf 9e83 f4be 0d24 a43e
00000200: ca73 0f3f 209f 873e 0f5b 943e ae50 013f
00000210: e1cf 0bbf 77e7 3a3f 4842 d33e 5b02 e0be
00000220: 65a1 20be d382 d4be b553 183f f369 39be
00000230: 7c06 91be d3d8 24be 72c0 e43e c73b b63e
00000240: 76a2 32bf 9d3f 5fbe 2fbb b2be 8de0 0abf
00000250: c523 cabd e415 3cbf c0aa 203f bb21 c23e
00000260: 1bf8 0bbd b012 d5be 0d4b b6be 7df7 d2be
00000270: 2e6b e5be 9b42 45bf f0f6 ec3a 64aa a6bd
00000280: ca3f 9cbe 6c64 efbd 2756 21bf 0874 c5be
00000290: 73a8 b23d d8f2 a53d 05ad 91be 60e2 7c3e
000002a0: 1710 b5be 7e94 2e3d a9d9 853e 538b 20be
000002b0: f471 063f b15d 12bf ec9a cdbd b100 123f
000002c0: 1668 07bf 4106 70be 8b63 363f 4861 903e
000002d0: df13 183f 7844 b73e 2d5b afbe 4e5c 07bf
000002e0: 11fb 013f f789 54be 9546 003e d21a 0c3f
000002f0: 284e fcbe 2c64 593e 26b2 dc3b 59b4 a23e
00000300: 008e bcbe 6a46 233c 4898 e13e e41d f63e
00000310: 36fa ca3e 023d f7bd 1272 2fbe b8af 2bbf
00000320: 36f4 e9be c737 cbbe d376 0abf 7b64 053f
00000330: b1b3 953e bde7 373e 4ab1 bbbe b32c 183e
00000340: 6189 8cbd dd77 cfbe 0f2f 0ebf 0e27 de3d
00000350: 5df2 1e3e 01a9 2f3e 1f25 34be af5d c83e
00000360: e480 edbe fc29 ff3e 6418 b43e 7664 aa3c
00000370: 1792 b23e ce01 93be 513f 9ebe 2d6e 953e
00000380: 9b1b f23e 764d f13e fa92 8c3a 5680 18bf
00000390: 44a4 bbbd 28d7 b03e d2dc 21bf 3cf6 2cbf
000003a0: dd01 a6be 7b18 a5bd 5eeb 0fbe fd6c 13be
000003b0: 5889 123e f007 bdbe 1931 383f a574 dc3e
000003c0: 6902 39bf 6243 c73e 83a0 12bf b0fa a33e
000003d0: 653c 18bf 7617 243d 5dba 983e 2d13 953e
000003e0: 2ae5 30bf 4ce5 b23e b01f e0be 4832 4dbe
000003f0: 9811 f3be eafa debc 53eb 143e 8553 74be
0.44142553 -0.50699055 -0.04259985 -0.1318666 -0.2181035 -0.67266035 0.17336111 -0.14962183
-0.57745224 -0.5028277 0.6157694 0.11038308 -0.20723358 0.63463354 0.37925524 0.6326905
-0.635555 -0.7185218 0.45387796 0.28634232 0.26579264 -0.67269105 0.6645963 -0.044564903
-0.65266794 0.2437296 0.61860645 -0.3799269 0.64925236 -0.60421544 0.21275446 -0.35107073
0.49710044 0.7658675 0.5186206 -0.13927667 0.26662365 -0.23117669 0.5216377 -0.5723559
-0.15994674 -0.36753994 0.21697499 -0.45496708 0.0978646 0.6535784 -0.519927 0.6692503
-0.40055612 0.589117 -0.5011735 -0.52858037 0.073108174 0.17129235 -0.42961925 0.15688229
-0.493402 -0.4791881 -0.15276487 0.55562943 -0.35640898 0.5645247 0.4837521 0.61208016
0.1809142 0.6217717 0.6192129 -0.5687265 0.20863965 0.7052367 0.45681348 -0.28399912
-0.3033345 0.46612385 -0.18214756 0.43949914 -0.5379238 0.065013334 -0.5665158 0.7173899
0.25414637 -0.08309345 -0.4299447 0.31943724 -0.5827381 -0.71080434 -0.27503997 -0.65536004
-0.022980303 0.35370132 -0.19615111 0.4778323 -0.5724913 -0.13232085 0.03861946 0.35866892
0.2851346 0.42496607 -0.6745664 0.15469195 0.10249969 -0.6594756 0.20263343 -0.68695724
-0.67514306 0.41760066 -0.5657847 0.43142885 0.6462089 0.00225379 -0.06826174 -0.010039235
0.5519488 0.47845855 -0.053344052 -0.6853035 -0.20452254 0.065973796 -0.34671354 0.6590344
-0.12909955 -0.0076873587 -0.23399243 0.37559125 0.05312919 -0.5949635 -0.47756666 0.32058755
0.56036055 0.2648859 0.28975722 0.5051373 -0.54614073 0.7300944 0.41261506 -0.43751797
-0.15686567 -0.4150606 0.59502727 -0.18106823 -0.2832526 -0.16098337 0.44678074 0.35592481
-0.69779146 -0.2180161 -0.34908435 -0.5424889 -0.09870104 -0.734709 0.62760544 0.3791636
-0.03417216 -0.4161582 -0.35604134 -0.41204444 -0.44808334 -0.77054757 0.0018078964 -0.08137968
-0.30517417 -0.11689076 -0.63022083 -0.38565087 0.087235354 0.081029594 -0.28452316 0.2469573
-0.35363838 0.042622082 0.26142624 -0.15678148 0.5251763 -0.5717421 -0.10039315 0.57032305
-0.528932 -0.23439886 0.7124564 0.2819922 0.5940532 0.35794425 -0.3424925 -0.5287522
0.5077372 -0.20755754 0.12526925 0.54728425 -0.49278378 0.21229619 0.006735104 0.3177822
-0.36827087 0.0099655185 0.44061494 0.4806968 0.3964402 -0.12072183 -0.17133358 -0.67065
-0.4569413 -0.39690992 -0.5408756 0.52106446 0.29238656 0.17959495 -0.36658698 0.14860801
-0.068621404 -0.40521136 -0.55540556 0.10847293 0.15522142 0.17154314 -0.17592286 0.39133975
-0.46387398 0.4983672 0.3517486 0.020799857 0.34877083 -0.28712314 -0.30907682 0.2918562
0.47286686 0.4712941 0.0010724955 -0.59570825 -0.091621906 0.3453915 -0.6322757 -0.67563224
-0.32423297 -0.0806131 -0.14054629 -0.14397044 0.14310205 -0.36920118 0.7194992 0.43057743
-0.722693 0.38918597 -0.5727617 0.32027197 -0.59467155 0.040061437 0.29829684 0.29116192
-0.69099677 0.34940565 -0.43774176 -0.20038712 -0.4747436 -0.027219255 0.14542894 -0.23859985

decoders.0.decoder_net.3.weight f4 [32]
00000000: a3ab 7c3f ccdd 7c3f f654 7f3f d85d 803f
00000010: 0e51 7f3f 51a8 783f 10b2 7f3f 2e3f 7f3f
00000020: a343 7c3f f87e 773f 5874 6d3f d7d2 753f
00000030: 92f6 7a3f 6c4d 793f a98e 763f 2b1f 7d3f
00000040: d81f 7d3f 24b7 813f 9f11 813f 6a55 823f
00000050: 51ae 7e3f d47d 813f 8216 823f 353a 783f
00000060: 8e93 833f 6e01 813f e407 783f 7d27 8a3f
00000070: 9da5 853f 148c 7d3f c3ce 7c3f 9e9e 7b3f
0.98699397 0.98775935 0.99739015 1.0028639 0.99733055 0.9713183 0.99881077 0.9970578
0.98540705 0.96678114 0.9275565 0.9602484 0.98032486 0.9738376 0.9631143 0.98875684
0.98876715 1.0134015 1.0083503 1.0182316 0.99484736 1.0116525 1.0163119 0.96963817
1.0279405 1.0078561 0.9688704 1.0793301 1.0441166 0.9904187 0.98752993 0.98288906

decoders.0.decoder_net.3.bias f4 [32]
00000000: cc74 c3bc 1a60 4b3b ad23 553d 9d99 52bd
00000010: d25b 153d f990 eebc d81e 15bd 23dd 833c
00000020: c11a fd3c 27ff 40bd f86d 4d3d 2651 7dbc
00000030: f8fe 27ba 9613 493d c0ee d8bc 99ad 70bc
00000040: 6362 f83c 3acb ba3b 84ac 5a3b e05e 543d
00000050: ce74 41bd 552a 8a3c e803 46bd ff0a e13b
00000060: 39fe 0e3d 1542 e2bb b116 8dbc 608f 97bb
00000070: 2d53 83bb 96f3 adbc 7551 23bc 17d0 a73d
-0.023859404 0.0031032623 0.052035976 -0.05141603 0.03646452 -0.029121863 -0.036406368 0.016096657
0.030896546 -0.047118332 0.050153702 -0.015461242 -0.0006408538 0.049090944 -0.026481032 -0.014689826
0.030320352 0.005700496 0.0033366987 0.051848292 -0.047230534 0.016865889 -0.04834357 0.006867766
0.034910414 -0.0069048502 -0.017222734 -0.004625246 -0.004007718 -0.021234315 -0.009968151 0.08193987

decoders.0.decoder_net.3.running_mean f4 [32]
00000000: 0e0f 153d a21e d23c f280 623d a440 183d
00000010: a10a 303d 3824 2f3d c681 c83c 15b0 0d3d
00000020: 917b e03c eb19 a53c 8434 b03c 22eb 113d
00000030: c5ad d73c 879e 2b3d 1d08 ef3c bd0f ec3c
00000040: 8ec4 ee3c 9343 0d3d 16e6 043d 5dc5 f53c
00000050: cccc d93c 85c8 373d 2611 eb3c 6235 fa3c
00000060: b19a db3c 76a0 023d bfe9 af3c 1f1f e03c
00000070: af55 ba3c ba8e b93c 265b dd3c be5b 073d
0.03639131 0.025649372 0.055298753 0.03717102 0.042978887 0.04275915 0.024475943 0.034591753
0.027402671 0.02015396 0.021509416 0.03562463 0.026327977 0.04189923 0.029178673 0.028816098
0.029146459 0.034488272 0.03244599 0.030001337 0.026586913 0.044868965 0.0286947 0.030543033
0.026807161 0.03189131 0.021473764 0.02735859 0.022745935 0.022651065 0.027021002 0.033046477

decoders.0.decoder_net.3.running_var f4 [32]
00000000: 0453 203b 289c 4d3a 8c1a a43b 0609 bb3a
00000010: 1b4d d13a 54a5 283b 1281 603a 31aa bb3a
00000020: 9ec7 083a 3f14 083a b096 293a cc6d 4a3a
00000030: b76a 953a 5559 103b 538c 623a 8c2b 1a3a
00000040: 8384 423a 3084 763a 5c8f a43a 9df3 9c3a
00000050: bdc9 543a 459b 133b c04a ac3a c671 163a
00000060: 098b 543a ec05 7a3a 41f7 a639 ad36 303a
00000070: 4e05 3f3a 7e97 0d3a 0368 0b3a 83c4 143b
0.0024463544 0.00078433985 0.0050080474 0.0014269657 0.0015968414 0.002573331 0.0008564155 0.0014317689
0.00052177336 0.0005191005 0.00064692926 0.00077220495 0.0011399601 0.0022025902 0.0008642126 0.0005881123
0.00074202585 0.0009403853 0.0012554931 0.0011974458 0.00081172195 0.0022522968 0.0013144836 0.00057389995
0.0008107876 0.00095376256 0.00031846206 0.00067220145 0.0007286862 0.0005401297 0.0005317928 0.0022700138

decoders.0.decoder_net.4.weight f4 [32, 32, 3, 3]
00000000: fad7 eabc 6928 12bd d6f8 303d a235 acba
00000010: cbb7 463c 44cf 2a3b c07b 44bd aca6 653d
00000020: 9ed0 143d c2cf c5bc 9c8e 873c d8ab 4b3d
00000030: 4d40 08bd 9576 a63c 033b 0abc dc60 523c
00000040: c205 4ebb c4f3 f23c 522e d0bc 2a58 8dbc
00000050: 27cb 5a3d 612e 0e3c 2fb6 91bc 12fb 35bd
00000060: 7472 093d f97e 23bd 5642 59bd ad19 063d
00000070: bb7b 653d 48b2 0539 bb56 88bc 3edc f3bc
00000080: ba52 213c 8310 253d fffa 6c3d 5eb1 b7bc
00000090: 7284 603d e0c6 543c cb04 66bd f603 94bd
000000a0: 0458 33bb b70e 8f3d 6ec1 8dbb 7046 f9bc
000000b0: 3b08 cbbc 2094 fa3b 898a 43bc afd9 213d
000000c0: 9fea 893c d8ee 66bc 0e56 13bd 27f4 4fbb
000000d0: e342 77bc dbdb b73c 36cd 3fbd 332e c5bc
000000e0: 8047 e73c 0c37 4abd e1a3 2c3c a3b8 fbbc
000000f0: 7371 053c e776 513d 8970 71ba 923d 28bd
00000100: ecca 203d 9953 293d e514 e4bc 290d 523c
00000110: 85ec 1e3c 8327 f1bc 1aa3 61bd f50a d5bc
00000120: 5728 d1bb 4587 b13c 6f42 a53c 443c 363b
00000130: 45c1 9ebd 5043 3ebd 89e0 bd3c ce02 f1b9
00000140: 4213 9cbd 1e4b 313d adaa 97bc 614a 1cbc
00000150: 3bfd 5cbc 14ee ccbc 5c94 8fbc 9c5e 51bd
00000160: 8e55 463d a3ba 0ebd 4dff 213b a487 e5bc
00000170: e4ff c73c d666 a73c 030d 7c3d 1a33 e3bb
00000180: 42b5 b43c 5b9f 773c 2faa 47bd 15b0 0f3d
00000190: 3f0c cc3d b2f4 8b3a 9c52 903c 6e7c 83bd
000001a0: b5b5 0d3d 13aa 06bd ac93 b93b 960a 413d
000001b0: 928e 0abd bdf6 e43c 0ad1 713c df75 433d
000001c0: 6b7d 26bd f89e f63c 479f edbc 761c e6bc
000001d0: aeb9 27bd 2295 2e3d fbf8 fd3c 8192 833c
000001e0: 7ffa 49bd 61f1 2b3d 87d2 2cbd a1da 53bd
000001f0: fa9e acbb a5f6 cf3c bd43 1b3c 15d8 783c
00000200: 1dbb 8fbd 399b d33c f51c a0bc ace0 6f3c
00000210: e809 a2bc cf01 733d f6dd 9fbc 6ca6 4abd
00000220: 3308 293d c66f 923d 74f9 c63c 3b62 1c3c
00000230: 0871 9bbd a49b ff3c 2291 8fbc 3987 b3bd
00000240: 4e36 a43c 1b97 a33c d54e 783c c189 abbc
00000250: 57ad 78bb 4253 923b 06eb a63d 5566 803c
00000260: 0340 963d 7050 343d 30b5 8f39 5ce8 063d
00000270: 94e3 b7bc f434 c13c 85f2 003d a5a1 4e3c
00000280: a5a3 063c 49e4 f9bc d462 073d 9bd2 133d
00000290: 24c6 603b e3f3 133d 6d7a 85bd e316 003d
000002a0: 5326 39bd 9e25 a83c 1a73 9d3d 4e86 c1bc
000002b0: 083f 78bc 4cfd b63a 2fb5 743d 5a45 9e3d
000002c0: e49f be3b d808 86bd 0b13 fcb8 7e60 84bd
000002d0: 53e5 d7bb 9dc4 6ebc 5dbd 57bd cd94 c4bc
000002e0: 3b1a ec3b b7e2 60bc ea21 79bc 8e43 dabc
000002f0: 8b71 b13c 6a0a af3c 8b2b 77bd 2152 f0bc
00000300: 0c6d ddbc cb79 5f3d b23c 8f3b a319 733d
00000310: c831 29bd 9325 25bd 81bc eb3c bd1c 913c
00000320: 91a5 ddbb 2bfa b9bd f3ac e5bb cca4 be3c
00000330: 9999 423d d4eb 8ebd ce8e 473b f0a9 08bd
00000340: ca23 273d 0d54 423d 0f67 c7bc 2bba db3b
00000350: ed1e 26bd 2285 3cbd 3e7f 553d 03a5 9338
00000360: 9ff2 89bc 8892 b2bc 579e 313d 2cc8 b7bc
00000370: bc65 eebd f925 0d3d 29e7 b53b c857 d33c
00000380: ab6d 493c 5d9d 64bd af5a 36bd d737 dd3c
00000390: 4adc 993c e7e2 85bd 078c b03c f065 98bd
000003a0: 7421 8f3d 2439 b93c 6f84 70bc 5742 1abd
000003b0: b6c0 5cbd 5339 a53b f50d 553c fea6 153b
000003c0: bbbc 9c3c 4453 52bd 58f1 273d 01fe 67bd
000003d0: 98ec a9bd d778 65bc a1cc c53c fd7b a93c
000003e0: 9056 24bc 763d 51bd 8b0a 7e3d 971b d4bc
000003f0: 5502 923c da55 1ebd 12ee 153d ebce 82bb
-0.028667439 -0.03568307 0.04320606 -0.0013138542 0.012128781 0.0026063481 -0.04796958 0.056067154
0.036331765 -0.024146918 0.016547494 0.04972443 -0.033264447 0.020320216 -0.008436921 0.012840476
-0.0031436537 0.029657252 -0.025412712 -0.017253954 0.053416397 0.00867805 -0.017787067 -0.044428892
0.033556417 -0.039916012 -0.05304178 0.03273933 0.0560262 0.00012750283 -0.016642919 -0.029768106
0.009846384 0.04029895 0.057856556 -0.022423442 0.05481381 0.012986869 -0.056156915 -0.07227318
-0.0027365694 0.069852285 -0.004326037 -0.030429095 -0.024784198 0.0076470524 -0.011934885 0.03951424
0.016835509 -0.014095031 -0.03597074 -0.003173122 -0.015091631 0.022443702 -0.046826564 -0.024069881
0.028232336 -0.049368903 0.010537119 -0.03072769 0.008144724 0.051138785 -0.00092101895 -0.041074343
0.03925602 0.04133949 -0.027841995 0.01282052 0.009699945 -0.029437786 -0.055087186 -0.026006201
-0.0063829827 0.021670947 0.02017328 0.0027806917 -0.07751707 -0.046450913 0.023178356 -0.00045969192
-0.07620861 0.043284528 -0.018514002 -0.009539218 -0.013488109 -0.025015868 -0.017526798 -0.051115617
0.048421435 -0.03484596 0.0024718822 -0.02801878 0.02441401 0.020434778 0.061535846 -0.006933582
0.022059087 0.015113677 -0.048746284 0.035080034 0.09963273 0.0010677783 0.017617516 -0.064202175
0.034597117 -0.03287704 0.005663356 0.047129236 -0.033827372 0.027949685 0.014759311 0.047719833
-0.04064695 0.0301051 -0.029006613 -0.028089743 -0.040948562 0.042622693 0.031002512 0.01606107
-0.049311157 0.041978244 -0.042192962 -0.051722173 -0.005267975 0.025386164 0.009476599 0.015188237
-0.07018111 0.025830852 -0.019545058 0.014640968 -0.019780114 0.059327897 -0.019515019 -0.04947512
0.041267585 0.07150225 0.02428887 0.009544904 -0.075899184 0.031202145 -0.01752526 -0.08766026
0.020045426 0.019969514 0.015155514 -0.02093971 -0.0037945115 0.0044654915 0.08150296 0.015673796
0.07336428 0.044022024 0.0002741008 0.03293644 -0.022447385 0.02358482 0.031481285 0.012611781
0.008217727 -0.030504363 0.033053234 0.03608952 0.0034297789 0.03612126 -0.065174915 0.031271826
-0.045202564 0.02052575 0.076879695 -0.023623612 -0.015151747 0.0013960986 0.059743103 0.077280715
0.0058174003 -0.065446556 -0.000120198434 -0.06463717 -0.006588617 -0.014573243 -0.052670825 -0.023996735
0.0072052754 -0.013725928 -0.01520584 -0.02664354 0.021660587 0.02136727 -0.06034426 -0.029336037
-0.027029537 0.05455951 0.004371249 0.05935062 -0.04130724 -0.040319037 0.02877641 0.017713899
-0.006764122 -0.09080919 -0.0070091425 0.02327194 0.047509763 -0.069785744 0.0030450108 -0.03336519
0.040805615 0.04744344 -0.024341134 0.0067055426 -0.040556837 -0.046025403 0.0521233 7.040242e-05
-0.016839324 -0.021798387 0.043363895 -0.022434317 -0.11640498 0.03446004 0.005551238 0.025798693
0.012294213 -0.055814136 -0.044520076 0.027004166 0.0187818 -0.06537419 0.021551145 -0.07441318
0.069888026 0.022610255 -0.014680012 -0.037660923 -0.05389472 0.005042234 0.013003816 0.002283513
0.019132962 -0.05134894 0.041001648 -0.05663872 -0.0829708 -0.014005861 0.024145426 0.020689005
-0.010030404 -0.051084004 0.062021773 -0.025892062 0.017823378 -0.038656093 0.036603995 -0.0039919517

decoders.0.decoder_net.4.bias f4 [32]
00000000: 0478 d5bd 8845 a0bd 1cc6 6c3d 8a8e febc
00000010: 63ed 183b 1ebf 333d 2fb6 c73c 5008 9a3d
00000020: 0416 acbd 4a62 0cbd 8485 443d 5128 9f3d
00000030: d099 c53c 2565 e23d 53a3 16bd 1f46 a73d
00000040: 8fc3 71bc b9ab 8f3d e89c 333d b288 aa3d
00000050: 6f2d c83c 4a47 2a3d 9e20 4b3c d30c 473d
00000060: 208a 12bd 96f2 243c badd ccbc 117e a7bd
00000070: 2d2a 58bc a62a 92bc c156 cbbc aa7a e23c
-0.10423282 -0.07825762 0.05780612 -0.031073827 0.0023334853 0.043883435 0.024378864 0.07521117
-0.08402637 -0.034273423 0.047978893 0.077713616 0.024121195 0.11054448 -0.036776852 0.081676714
-0.014756097 0.07015175 0.04385081 0.08326854 0.024435727 0.041571893 0.012397913 0.048596215
-0.035776258 0.010067603 -0.025008071 -0.08178342 -0.013193649 -0.017842602 -0.02482164 0.027646381

decoders.0.decoder_net.6.weight f4 [32]
00000000: 1c12 6b3f 6098 753f ce8d 753f a441 7b3f
00000010: dd32 723f 5ac2 7c3f c821 783f 96e6 7e3f
00000020: 01ce 723f fc86 6e3f 5471 773f 86e3 7d3f
00000030: 8bf3 7a3f e9fa 663f 0b8e 713f 665d 6f3f
00000040: 3237 803f 54c1 723f a107 733f 8ac3 753f
00000050: 646f 723f a143 723f e917 6d3f 5b35 743f
00000060: 2b67 773f 8870 783f 6940 6a3f b83c 703f
00000070: 91e2 6d3f 3400 7c3f 78d6 6d3f 3b9c 773f
0.9182451 0.9593563 0.959195 0.98147035 0.9460886 0.98734057 0.96926546 0.99570596
0.94845587 0.9317472 0.966573 0.991753 0.9802787 0.9022661 0.94357365 0.9350189
1.0016844 0.94826245 0.94933516 0.96001494 0.9470122 0.94634444 0.9261461 0.95393914
0.96641797 0.9704671 0.9150453 0.9384265 0.9292384 0.9843781 0.9290538 0.96722764

decoders.0.decoder_net.6.bias f4 [32]
00000000: 4bfd cfbc 8039 233c 2733 d4bc 066c bdbb
00000010: 7c0f 0fbc bf4b 88bd 2407 82bd 2e08 80bd
00000020: de1a dfbc af9c 823c 6acc a83c 4722 3ebd
00000030: 42ae 693d e82c 323d 9789 0e3d 72e0 173d
00000040: cc7f 203d d949 c93c a2a2 f9bc 4d09 3d3d
00000050: eb41 0c3d ba4e e9bc d592 0ebd 966f 80bd
00000060: 73da a7bc 267c 2fbd b720 9bbb 0393 073d
00000070: abd1 3abd 4533 463c d7eb 03bd 7b28 82bd
-0.025389334 0.00996244 -0.025903298 -0.0057806997 -0.008731719 -0.066550724 -0.06349018 -0.0625156
-0.027234491 0.015943853 0.020605285 -0.04641941 0.05705095 0.043499857 0.034799185 0.037079282
0.039184377 0.024571346 -0.030473057 0.046151448 0.03424255 -0.028479923 -0.034808 -0.06271283
-0.020489907 -0.042843007 -0.0047341245 0.033099186 -0.04561011 0.012097185 -0.032207336 -0.06355377

decoders.0.decoder_net.6.running_mean f4 [32]
00000000: df4c e43c b191 eb3c 9657 083d 4e3d fc3c
00000010: 7cf0 013d 95cd 033d 55b5 033d 973b 063d
00000020: 94b2 eb3c 51fa eb3c 8100 043d 3c69 053d
00000030: 17f5 053d 9d71 0b3d bb66 f33c cbb8 093d
00000040: 3a99 013d e6fd 053d 3566 f83c 2f0c 0d3d
00000050: d30c 023d 25eb 033d 12cc 013d 0f09 fe3c
00000060: caa4 003d 97cd f33c 9d27 fa3c b654 e43c
00000070: 259a ea3c 28db 013d a239 f83c 7c2a 033d
0.027868686 0.028755995 0.033286653 0.030790951 0.031723484 0.03217848 0.032155354 0.032771673
0.028771676 0.028805884 0.032227043 0.032571062 0.03270444 0.034043897 0.029712072 0.033623498
0.03164027 0.03271284 0.030322174 0.034435447 0.03175051 0.032206673 0.031688757 0.031010179
0.031407155 0.029761119 0.030536467 0.027872425 0.028637955 0.031703144 0.030300919 0.032022938

decoders.0.decoder_net.6.running_var f4 [32]
00000000: bab5 fa38 8c09 2739 941a 7439 9b4c 5a39
00000010: f033 9739 3689 4a39 b082 3039 6b99 0339
00000020: 8311 3339 ec6d 0339 a5e3 6339 8da0 3e39
00000030: 6e17 b239 e99b 4f39 f5d7 8839 65e7 bf39
00000040: 9465 9039 b0d5 5a39 aac7 f038 d3ef 7939
00000050: e92b 1239 6be2 2f39 66ba 6839 322a 1339
00000060: 5011 5939 ab56 1c39 4f55 2a39 d9b6 e538
00000070: aa20 0339 80d0 113a f029 3039 aabb 8839
0.00011954778 0.00015929918 0.00023279554 0.00020818638 0.0002883966 0.00019315336 0.00016833353 0.00012550286
0.00017077294 0.00012534083 0.00021733211 0.00018179622 0.00033968262 0.0001979914 0.00026100842 0.0003660276
0.00027541502 0.00020869705 0.00011481282 0.00023835832 0.00013940003 0.00016773648 0.00022194683 0.00014034731
0.00020701182 0.00014909606 0.00016244243 0.00010953629 0.00012505302 0.000556238 0.00016800291 0.00026079762

decoders.0.decoder_net.7.weight f4 [32, 16, 3, 3]
00000000: 6c2a f639 ffcd 903d acde 443d 6b24 323c
00000010: 2cd5 28bd 5e5f 3d3d 4fea 913c 8a14 78bc
00000020: 55fd 4bbd 288c b33c 7b12 50bd efdc e23b
00000030: de0b 88bc 6e2e 33bc 6815 90bb d8ff 1fbd
00000040: c651 6cbd 8b9f 1c3d b496 2dbd 508d ad3b
00000050: ad64 1bbd 66a2 4fba 1c21 7b3d d1ab b83c
00000060: 86be 9ebc 8412 a53d 941c 63bd 39aa cdbc
00000070: 1dbd 09bd 770f 9c3d 0a70 66bc b31f 2b3d
00000080: 04c4 5dbd c894 04bd 7eea 043d 5474 9fbc
00000090: 06b0 903a ce69 973c a256 633d aa27 1b3d
000000a0: 49f2 2e3d 90cd 89bd 3ddc 0abd 9d7f a4bd
000000b0: 666d 6d3d 244b 643d 7ae4 543d d64c 2dbd
000000c0: 638c af3d 0f7e 36bd 69f2 cb3c e6fc 9d3c
000000d0: 9dc0 d23d 1224 24bd 3afc c83b b5a0 d03c
000000e0: 932f abbc c765 cd3c 8d32 66bd 112a 123d
000000f0: 3e71 223c 93e1 46bd 78fc e83d df47 283c
00000100: 5e05 a43a 5ac1 b1ba 3799 183d 6801 15bd
00000110: ba4e a4bc 95f8 e9b9 d5a3 1fbd 6be8 54bd
00000120: 7e80 4c3d 70c7 1ebd 2afa 8bbc b5cf 8fbd
00000130: edd9 343b 3974 9c3d 6bd8 a2bd 9a48 1dbd
00000140: c627 9f3d cd2f 3d3d 43e0 803d 149b b4bd
00000150: 52e9 413d 8256 67bc 57f2 293d 38b9 98bc
00000160: 2a9d 7cbd d568 4f3d 137a 57bd 82b9 883d
00000170: 2491 0b3d a2f1 b93a a87d 663d 797a 783d
00000180: 6528 72bd bec2 673c 873d a7bb 7354 f9bc
00000190: c40e 503d 85b5 093d ade8 c93d 66c9 02bd
000001a0: 9a4a 03bd 2d4b e53b 1721 353d 1e76 1cbd
000001b0: 78d8 e03b 1e5a a03c d9ed 273d 5910 6c3d
000001c0: d803 f83d 6ed2 2f3d b8c6 af3d 2976 733c
000001d0: d74c 02bd 67ca 30bd 0ff3 8f3c 3e78 68bc
000001e0: 57e0 06bc e041 b4bd de37 903d 1c0d 5ebd
000001f0: a0a8 ae3d 2b46 583c 5ddc f4bc 34d1 8bbd
00000200: 5007 0a3d e331 083d 66ab 5fbd 8128 b9bc
00000210: 08fa e03c e05f aebc 478d cdbc 5a78 45bd
00000220: 82e4 cd3c 5640 b7bc b736 633d d741 893d
00000230: 72f0 86bd 77d2 1e3c d754 28bd e99c a13d
00000240: fd5e 2e3d 1447 89bd 76f0 a83c 5be6 653c
00000250: 00a4 003e 4e6f 94bd cb50 d9bc 0dca d13a
00000260: ae1d 89ba be55 1b3d 332e 4a3c 5763 053d
00000270: 7e2f b5bd dbd7 babc 36e5 d2bc b9fa d4bc
00000280: 0e1a 01bd 9f5e 013c 60f5 cb3c 374a 553d
00000290: 557b 2fbc 72f5 94bd 9b50 89bd 9b83 bbbc
000002a0: abb5 373d ed68 8d3c 0440 023d d6c9 823c
000002b0: 1bfe 753d 6035 10bd 0392 84bb 56eb ae3c
000002c0: f208 d0bd f316 2a3c 47fe 283d 0169 7ebc
000002d0: 856a 00bd d2be 06bd 52ad 57bc d7fc 0c3d
000002e0: 744a 573d 7578 29bb 02b8 833c ea0a 2cbd
000002f0: c1ad 57bd cbc7 af3c fa8a 91bd 4839 9b3d
00000300: c422 edbc 8d18 4d3d b420 68bd 1074 0abd
00000310: 6b42 e8bb 6695 de3c c1ef 573c c8aa a1ba
00000320: a3c6 97bd 0c30 5ebd 53d6 8d3c b298 393d
00000330: 1966 6c3c 3d9f cfbd 777e 47bd c751 a83c
00000340: e36c 84bc beab 813d 5835 0dbc 464c 8dbc
00000350: 2d75 693d d11d 1bbd 7e30 63ba 127a 26bd
00000360: 52c9 ecbc c163 ad3d 11f8 43bd b576 253c
00000370: 8f76 c1bd 8810 8bbd 9925 2a3d cda8 403d
00000380: aabd 153c 6b47 bdbc 1b1e d03c 2c12 5e3d
00000390: b4f2 1abd 8dc6 66bd 18d2 883c 306c d8bc
000003a0: 07b1 93bb acfb b4bd 8cb5 223b 22ae 4ebd
000003b0: 0f41 23bb 9ea8 3f3d e9bc 893b 7340 01bd
000003c0: 49b7 353d 9fe9 91bd d4a0 293c 6a80 4c3a
000003d0: 8df8 863c e19b 78bc 6e2b 293d 58be 953c
000003e0: b24e 3b3c 8f2c b9bd 7f7c 97bc 0072 87bd
000003f0: b8a7 8dbb 7f7e 06bc f83a acbd cc8c 733d
0.00046952383 0.07070541 0.04806392 0.0108729405 -0.04121892 0.046233527 0.017811922 -0.015141616
-0.049802143 0.021917418 -0.050798874 0.00692331 -0.016607221 -0.010936363 -0.004397083 -0.03906235
-0.057695173 0.03823809 -0.04238005 0.005296387 -0.03793781 -0.00079206226 0.061310872 0.022542866
-0.019377958 0.08060172 -0.055447176 -0.025105583 -0.033627618 0.07620137 -0.014064798 0.041778278
-0.054142013 -0.03236845 0.03245019 -0.01946465 0.0011038787 0.018483069 0.05550254 0.037879623
0.04271153 -0.06728661 -0.03390144 -0.08032153 0.05796566 0.055735722 0.051975705 -0.042309605
0.085716985 -0.044553813 0.024895864 0.01928563 0.10290644 -0.04007346 0.0061335834 0.025467256
-0.020896709 0.025072945 -0.056200553 0.03568465 0.009914694 -0.048554968 0.113762796 0.010271042
0.0012513807 -0.0013561652 0.037255492 -0.036378294 -0.020057071 -0.0004462643 -0.0389746 -0.051979464
0.049927227 -0.038764417 -0.017087061 -0.07022039 0.0027595714 0.07639355 -0.07951435 -0.038399316
0.07771258 0.046188165 0.062927745 -0.08818641 0.047341652 -0.014119746 0.04149088 -0.018643007
-0.06167332 0.050637085 -0.052606653 0.06676008 0.034073964 0.0014186392 0.05627218 0.060663674
-0.059120554 0.014145551 -0.00510377 -0.030435776 0.05079533 0.033620376 0.098588325 -0.03193035
-0.032053567 0.006997487 0.04422101 -0.038198583 0.0068617426 0.019574221 0.040998314 0.057632778
0.12110108 0.04292529 0.085828245 0.014859715 -0.03181156 -0.043161776 0.017571954 -0.014188824
-0.008232198 -0.08801627 0.07041906 -0.05421172 0.085282564 0.013200323 -0.029890234 -0.06827012
0.03369838 0.0332507 -0.054606818 -0.022602322 0.027462974 -0.021285951 -0.02509178 -0.04821048
0.025133375 -0.022369545 0.055472102 0.06702011 -0.0658883 0.009693733 -0.041096535 0.07891256
0.042571057 -0.0670301 0.020622473 0.014031972 0.12562561 -0.07247792 -0.026527783 0.001600565
-0.0010461116 0.037923567 0.012340116 0.03256544 -0.08846949 -0.022808006 -0.025744062 -0.02599846
-0.03151899 0.007896095 0.024897277 0.05207273 -0.010710557 -0.072733775 -0.067048274 -0.022889903
0.044850986 0.017261947 0.03179933 0.015965383 0.060056787 -0.035207152 -0.0040457263 0.021352451
-0.10157956 0.010381448 0.041258123 -0.015527965 -0.031351585 -0.032896824 -0.013163881 0.034420814
0.05256124 -0.0025859152 0.016078953 -0.042002596 -0.05265594 0.021457573 -0.07106586 0.07579285
-0.028947242 0.05007224 -0.056671813 -0.033802092 -0.0070879958 0.027170848 0.01317972 -0.0012334222
-0.07410934 -0.05424504 0.017314112 0.045311637 0.014428639 -0.10137794 -0.04870459 0.020546807
-0.016165202 0.06331585 -0.008618675 -0.017248284 0.056996513 -0.037870232 -0.00086665887 -0.04064376
-0.02890459 0.08466292 -0.047843996 0.010099103 -0.094464414 -0.067902625 0.041539762 0.04703598
0.009139458 -0.023105344 0.02540498 0.05421655 -0.037829116 -0.056341697 0.016701743 -0.026418775
-0.0045071873 -0.08837065 0.0024827449 -0.050459035 -0.0024910604 0.046791665 0.004203428 -0.031555604
0.044364247 -0.07124638 0.010353286 0.00078011176 0.01647594 -0.015173883 0.041301183 0.01827924
0.011432337 -0.09041702 -0.018491982 -0.06613541 -0.004322972 -0.00820887 -0.08409685 0.059460446

decoders.0.decoder_net.7.bias f4 [16]
00000000: b9cf 4b3d 3c05 053e f05c b6bd 1d1e 003e
00000010: e12a d2bd ad67 0ebe 0007 a23d 219b 5fba
00000020: d8fb 7f3c ebdf a2bc 185c d23d 562e 113d
00000030: 646a d5bd e5b9 613c 60f5 133d 6167 b5ba
0.049758647 0.12990278 -0.08904445 0.12511487 -0.10262085 -0.13906737 0.079114914 -0.0008529891
0.015624009 -0.019882163 0.10271472 0.03544458 -0.10420683 0.013777231 0.03612268 -0.0013840013

decoders.0.decoder_net.9.weight f4 [16]
00000000: a440 733f cbb6 713f 849b 703f 98db 753f
00000010: c40b 763f a604 743f 8a70 753f f8ce 733f
00000020: 3957 733f 0373 753f 0f76 743f 6fa1 753f
00000030: fe59 773f a89d 743f 080a 753f 6cb7 723f
0.9502051 0.94419545 0.939873 0.960382 0.961117 0.9531959 0.95874846 0.95237684
0.95054966 0.9587862 0.95492643 0.95949453 0.9662169 0.95553064 0.9571843 0.9481113

decoders.0.decoder_net.9.bias f4 [16]
00000000: 9585 d73c eb33 7abc e21f d4ba 8c95 d4bb
00000010: 955e 033d 26c4 7a3c d00d 363c 7f0f e5bc
00000020: aaa0 df3c 5a27 0dbd 4a06 5a3b 30ea 063c
00000030: 4c29 0f3d f27f 913c 0ebb 84bc 47b8 0cbc
0.026308814 -0.015271167 -0.0016183818 -0.006487554 0.032072622 0.0153055545 0.011111692 -0.02796149
0.02729829 -0.034461357 0.0033267909 0.008234546 0.034951493 0.017761204 -0.016202476 -0.008588857

decoders.0.decoder_net.9.running_mean f4 [16]
00000000: fb0f 883d 7875 933d 3305 643d ecb6 8a3d
00000010: 60f7 643d de11 5d3d 65c3 883d 68b1 703d
00000020: 9652 853d eb2b 723d 175d 8b3d d07b 843d
00000030: ffd7 633d a6a0 823d cafd 7f3d 39d3 823d
0.06643673 0.0720014 0.05566902 0.06773171 0.055899978 0.053972118 0.066778935 0.058762938
0.06509893 0.059123915 0.06804865 0.06468928 0.05562591 0.063782975 0.06249789 0.06387944

decoders.0.decoder_net.9.running_var f4 [16]
00000000: 6bdc 8b3a c5ba c53a dd8b 183a ce35 363a
00000010: 10d8 333a ff90 0b3a 35ce 673a 4dea 143a
00000020: ea5b 9d3a 7eda 293a 01b1 6a3a c790 653a
00000030: 447e 183a 72e1 963a eaf3 103a f87c 8e3a
0.0010670548 0.0015085569 0.0005819181 0.00069507665 0.0006860504 0.00053240353 0.0008842678 0.00056806655
0.0012005542 0.0006479396 0.0008952767 0.000875723 0.0005817155 0.001151128 0.000552951 0.0010870984

decoders.0.decoder_net.10.weight f4 [16, 1, 3, 3]
00000000: 1165 743e 3dda d03d 9bcf 573e 1e62 0a3d
00000010: db19 a6bc 2fc2 6ebe 62a9 673e f09b 42be
00000020: b255 f73d 4f7b fabd 1f67 6c3e 84a2 48bd
00000030: 1f8f 58be 1e20 d2bd 7adc 02ba 3920 943e
00000040: c8e7 223d c18b 973e a9b6 6b3e e135 0d3e
00000050: 9de4 0e3e 52a4 753e b0e1 69be 4e82 873e
00000060: c96e 90bd 5196 26be 4b68 1bbe cb82 123e
00000070: b4d3 bb3b 1d3d f73d 38bc 27be f8bd 0cbe
00000080: dfdf 70be 55bb 4ebd d68c 85be 5efc 17be
00000090: 5ff4 63be 6c6a 4c3e 00aa b8bc a86a 143e
000000a0: 2ff9 623e 879c 3d3e fc0a 2abe 2346 563e
000000b0: 7c26 21be 9a9b 8f3e c64a c0bd 9954 a03d
000000c0: 5284 fcbd 2f32 323e 8dc8 7c3e e68b 8c3e
000000d0: 08c6 403e aabf 563c 78e7 783e 3f37 a7bd
000000e0: d16f 5d3e 0c9f ba3c 4f33 613c 6137 34bd
000000f0: 764c 7e3e 5a9b 03be 8bc8 fd3d 9b97 63be
00000100: 0640 70be 6291 67be bf69 85be 6b49 0fbe
00000110: 523f 5ebe 851e db3c 3287 5abe 2293 553e
00000120: 20ce 1f3e 7139 f23d ce20 af3d f1b4 223d
00000130: 96f8 893e 5358 a73c 794b 833e bd26 72bc
00000140: 6eba 873e 666c 603d a4ac b73d a129 383e
00000150: 0577 2fbe 8338 17be 8b50 3fbe e49e 19bd
00000160: 1f89 babc 5525 99bd 4d09 863c a4f9 423e
00000170: 52e7 923e 16a9 90bd 5a21 efbd b006 bb3d
00000180: 4af8 023d 4ec5 1ebe 5320 16be 5ab7 63be
00000190: 1f9e 5d3e 9135 b83d d6e1 483e d192 c5bd
000001a0: 62fc 8abe d57f 67be 9640 e9bd e703 64bd
000001b0: 848b e4bd 71d0 a93d 38e0 2b3e 0bba 87bd
000001c0: 2208 7e3e d7a1 14bd ff8e 1f3e 0c10 633e
000001d0: b4b9 383d f189 81be 7230 103e aab0 25bd
000001e0: 77b4 56be 1027 6d3e 01ac d93b d3f0 4fbb
000001f0: 11eb 2d3e 93c6 8a3e 20d7 4cbd 7a9c 013e
00000200: 4a42 2abe 058e 24be d212 fabd d5df 8fbc
00000210: 996e 4c3d b267 20be ed73 98bd 763e d43c
00000220: a2a4 a7bd 6607 05be 7518 85be c38e 68bb
00000230: 9d11 88be 60a6 99bc fdf4 82be ef94 1e3e
0.23866679 0.10197876 0.21075289 0.033784978 -0.020276 -0.23316263 0.22623208 -0.19004798
0.12076892 -0.122305505 0.23086213 -0.048983112 -0.21148346 -0.10260032 -0.000499196 0.28930834
0.039771825 0.2959881 0.23018898 0.13790084 0.13954397 0.23988464 -0.22839999 0.26466602
-0.070523806 -0.16268279 -0.15176503 0.14307706 0.005732024 0.12072203 -0.16380394 -0.13744342
-0.235229 -0.050471622 -0.26084012 -0.14842364 -0.22261189 0.19962472 -0.022542 0.14493811
0.22165368 0.18516742 -0.16605753 0.20925193 -0.15737337 0.28048402 -0.09389262 0.07828636
-0.123299256 0.17401956 0.24685879 0.27450484 0.18825543 0.01310722 0.24307048 -0.08164834
0.21624686 0.022780918 0.013745143 -0.043998126 0.24833855 -0.1285223 0.12391766 -0.22225802
-0.23461923 -0.22614053 -0.2605724 -0.1399285 -0.21703842 0.026747951 -0.21340635 0.20856908
0.15605974 0.11827362 0.08551179 0.03972334 0.2694747 0.020427858 0.2564352 -0.014779744
0.26509422 0.054790877 0.089684755 0.1798463 -0.17135246 -0.14767651 -0.18683068 -0.037505046
-0.022770463 -0.07477824 0.016361857 0.19040543 0.28692108 -0.070635006 -0.11676283 0.09132135
0.03197507 -0.15504953 -0.14660768 -0.22237912 0.2164235 0.08994592 0.196174 -0.09647144
-0.27145678 -0.22607358 -0.11389272 -0.055667784 -0.11159423 0.0829171 0.16784751 -0.06627282
0.2480779 -0.036287155 0.15581892 0.2217409 0.045098975 -0.25300553 0.1408098 -0.040451683
-0.2096728 0.23159432 0.006642819 -0.0031729236 0.16984202 0.27104625 -0.050009847 0.12657347
-0.1662685 -0.16069801 -0.12210621 -0.017562786 0.04991016 -0.15664557 -0.07443986 0.02590869
-0.08185698 -0.12991104 -0.25995222 -0.0035485483 -0.26575938 -0.018756092 -0.25577536 0.15486501

decoders.1.decoder_net.0.weight f4 [512, 2]
00000000: 5430 f23c 6c74 b6be a223 a33d 3a68 073f
00000010: c0f3 e03e 695e 5dbe 7ecd 07bf 5a5b 55be
00000020: 3582 26bf 55bd b6be ade7 d83e 5267 0cbf
00000030: bef8 fbbc d967 cbbe 4c4d 1b3d f56c 1dbf
00000040: 3c1f 163f 2034 4cbf 6792 04be 675f c3be
00000050: 9bb4 27bf ed07 52be bfd5 853e 4cc1 dbbd
00000060: bd96 0fbf bbc7 b43d 482f 18bf 8df3 e8be
00000070: cf53 47be 3013 95be bf50 48be b07f 153f
00000080: 1a80 c9bd 10a0 2e3f 6704 37be e1a0 bfbe
00000090: eba4 103f e324 b8be 40ff c4be 2268 fcbe
000000a0: ee7c 07bf 00f3 b93e 38e6 70be 9cbc 893e
000000b0: 9325 233f 6830 6ebd 3730 0f3f 2e87 88be
000000c0: a83c 8f3e 43eb 083f 4df4 ba3e ca87 b83e
000000d0: 80b9 47bf 32f8 293f d624 6a3e 72d8 11bf
000000e0: 03d5 bbbe 66d7 acbe ed6c 753e 60af 1c3f
000000f0: cc8f 9dbc 0bfe d7bd d430 2ebd e71f 393f
00000100: 33a7 2e3d 6a5f 963b 6512 b23b bd0a 35bf
00000110: 7aa7 a03e e826 dcbe b868 103f 9089 423e
00000120: ea0d e23d b034 cabe 7937 943e 9e86 26bf
00000130: 35c6 d3be 05fd b9bd 752f a63e d86a 63be
00000140: c42b 17be 2e41 9c3c ad27 44be 3893 16bf
00000150: 1b7a 1dbc d055 10bf 60a9 b13e 5037 a03e
00000160: 839d b93e 0bcb 00bf 1fca 1abf 9efa da3e
00000170: 5a55 a4be 1987 ac3e 9a02 cabc 8acc 5f3e
00000180: 7fb1 1f3f 8f92 e73e e287 00bf 143d 67bd
00000190: c916 1f3f fb69 12bf b051 4dbe 0582 223f
000001a0: 25d0 943d 2290 09bf d18f 04bf 9952 313f
000001b0: 5603 9a3d 3576 1dbf f7b3 0abe 7676 15bf
000001c0: b425 083d c756 85bd 0045 143f c5e8 b63e
000001d0: 1782 ffbd ce83 34bf 9250 8b3e bcff 8bbd
000001e0: 02a3 fbbe c263 813e f34c 79be dba0 b83a
000001f0: 1dfd 233e 1c42 1e3f 60ab 21bf 374f 94be
00000200: 9827 e43e 066a 26bf 2646 ee3e 66d5 a7be
00000210: d624 2c3e 50e0 193f 34ae 04bf 5c9b e0be
00000220: 7a4e 0fbf 5ac8 18bf b46c b73e 96b3 993e
00000230: 5674 b53c 609d bd3e 1e55 d03e 0e5b 30be
00000240: 6634 84be f9eb 1dbe 92aa 12bf 9ae9 7ebe
00000250: b61c 0fbf fccf 293f 7100 0e3e 537c a13d
00000260: 4ef9 5a3e 0f44 413e 0567 313f dcb1 b9be
00000270: 22f8 f63c 2080 0e3f 048e d6be 2603 073f
00000280: f8ce bdbe f6e1 273f 3f42 1f3f 3b2d fe3e
00000290: b41b 033c 094c 9abe 7cbd dfbe f50b b4bc
000002a0: 62af 51be 6863 79be 4032 413e 59a7 0ebf
000002b0: dc60 0fbf a688 c1be fd29 a6be 932f 473e
000002c0: 1ca3 c7bc 6e25 1abf 03cd 3f3e 66c9 79be
000002d0: d675 223f c5dd d5bd d14a 8fbe a5f3 263e
000002e0: d15b 1d3f 5b6d 303e 3ff3 98be 6acb fabe
000002f0: 6c9e 33bf 311b 9ebe 6370 aebe 009a dbbe
00000300: 7605 de3e 005f 883c 5bb0 a03e 1e88 f0bd
00000310: 5bfb 23bf 0bc7 1f3e de24 3ebe 9b17 fdbe
00000320: 6598 5f3e 0466 2c3f c1c8 e83d b114 063f
00000330: 8215 413e c905 153f dc4b 04bf 67d3 1f3e
00000340: 86bb ac3e d7fa 073e bee5 b8be a128 8b3e
00000350: 4f09 fdbe 4036 30be c098 673e c7b4 053f
00000360: 18ec 9abe 3be1 d53e d274 fdbe 5739 2fbf
00000370: 3ca0 3abe 91ec f9bc efcc f83e 5e15 a7be
00000380: 2c0d 853e eaff c3be 61a6 be3c e0ce d03e
00000390: d47f 29be 8ec6 40bf a010 4c3e 587f 0b3f
000003a0: 4978 2d3e 0ef9 02bf 5058 ae3e e3d5 3e3e
000003b0: 5e97 e53e a63f a8be b3cf 58be bca6 f03d
000003c0: e359 12bf 4a60 29bd 3628 123e d212 6ebe
000003d0: f814 37bf 1dbb b83d b3bd 6dbd 3f45 633e
000003e0: bb43 acbe 1d56 cfbe 00fe 073e 9b8e 2dbe
000003f0: 7720 6e3d bb05 d6be 8f13 193f 2ac2 a6be
0.02956406 -0.35635698 0.07965781 0.5289341 0.43935966 -0.21618046 -0.5304793 -0.20835629
-0.6504243 -0.35691324 0.42364255 -0.54845154 -0.030758258 -0.39727667 0.037915513 -0.6149438
0.5864141 -0.79767036 -0.12946473 -0.38158724 -0.6550996 -0.20510836 0.26139638 -0.10730228
-0.56089383 0.08827158 -0.59447145 -0.45498314 -0.19465564 -0.291162 -0.19562052 0.5839796
-0.098388866 0.68212986 -0.17872773 -0.37427428 0.56501645 -0.35965642 -0.3847599 -0.49298197
-0.52925 0.36318207 -0.23525321 0.2690171 0.6372921 -0.058151633 0.55932945 -0.26665634
0.27975965 0.5348398 0.36514512 0.360411 -0.78017426 0.6639434 0.22865614 -0.56970894
-0.36685953 -0.33758086 0.23967333 0.612051 -0.019233607 -0.10546502 -0.042527035 0.72314304
0.042639922 0.004589011 0.0054343217 -0.7071951 0.31377774 -0.42998433 0.5640979 0.18997788
0.1103781 -0.39493322 0.28948572 -0.6504916 -0.41362157 -0.09081463 0.32458082 -0.22208726
-0.14762789 0.019074049 -0.1915576 -0.5881839 -0.009611632 -0.5638094 0.34699535 0.312922
0.36252984 -0.5030982 -0.6046466 0.4276933 -0.32096368 0.3369682 -0.024659444 0.21855369
0.6238021 0.45229003 -0.5020734 -0.056454733 0.6214414 -0.57192963 -0.20050693 0.63479644
0.07266263 -0.53735554 -0.51781946 0.6926666 0.075201675 -0.61508495 -0.13545214 -0.5838388
0.03323908 -0.06510692 0.57917786 0.35724464 -0.124759845 -0.7051362 0.27209908 -0.06835887
-0.49147803 0.25271422 -0.2434576 0.0014086025 0.16014524 0.61819625 -0.6315212 -0.28966686
0.44561458 -0.6500553 0.46537894 -0.32779998 0.16810927 0.601079 -0.5182831 -0.4386853
-0.5597912 -0.5968071 0.3582512 0.30019826 0.0221502 0.3703413 0.4068994 -0.17222235
-0.25821227 -0.15422048 -0.5729152 -0.248938 -0.55903184 0.66332984 0.13867356 0.07885041
0.21384165 0.18873619 0.6929782 -0.36268508 0.030147616 0.55664253 -0.41905224 0.5273918
-0.37071967 0.65579164 0.6221046 0.49643883 0.00800221 -0.30136135 -0.43699253 -0.021978358
-0.2047706 -0.24354327 0.18866825 -0.557241 -0.5600717 -0.37799567 -0.3245391 0.19451742
-0.024369769 -0.60213363 0.1873055 -0.24393234 0.63461053 -0.1044269 -0.27986768 0.1630388
0.61468226 0.17229216 -0.29873082 -0.48983318 -0.7016361 -0.3088012 -0.3407012 -0.4289093
0.4336354 0.016646862 0.3138455 -0.11744712 -0.64055413 0.15603273 -0.18568751 -0.49432072
0.21835478 0.67343163 0.11366416 0.5237532 0.18855861 0.5821195 -0.5167825 0.15607987
0.3373682 0.13279282 -0.3611278 0.27179435 -0.49421164 -0.17208195 0.22616863 0.5222897
-0.3025825 0.417734 -0.4950319 -0.6844687 -0.18225187 -0.030508311 0.48593852 -0.3263349
0.25986612 -0.38281184 0.023272695 0.40782833 -0.16552669 -0.7530297 0.19928217 0.54491186
0.16940416 -0.5116128 0.34051752 0.18636279 0.44842046 -0.3286106 -0.21172981 0.11750552
-0.57168406 -0.041351594 0.14273152 -0.23249367 -0.7151637 0.09020064 -0.05804224 0.22194384
-0.33645424 -0.40495387 0.13280487 -0.16948931 0.05813643 -0.41801247 0.5979547 -0.3257001

decoders.1.decoder_net.0.bias f4 [512]
00000000: c351 dc3e 428a 1a3f 74a2 753e dca8 9cbe
00000010: 873d e3be 671b 03be 3343 f3be 3370 163f
00000020: ddf7 88be db02 07be a495 b73e fd04 9bbe
00000030: 80cb 12bf 59ee 5c3d 659a 13bf c5a8 04bd
00000040: 7612 14bf 39fd 25bf 1bc8 233f 8f15 20bd
00000050: 931d ca3e 6470 043f 907e 60be b332 65be
00000060: d13d db3e b5aa 003e d90e 0c3f c577 0c3f
00000070: b092 2c3e 5b52 ba3b c81c 37be 1969 03be
00000080: 6405 f13e cdc7 7a3e 6730 363e d3aa f43e
00000090: 24fb 10bf d0f5 77bd f145 353e 6ab2 b2be
000000a0: 17ce 083f 2320 f2be 6151 fb3e afe2 cabe
000000b0: 9f4c b6be 1f00 a7be 9c80 cb3e 4c16 253e
000000c0: 2c33 a0bc f4c2 be3e 9e49 f13e 376c e2be
000000d0: 3146 0a3c b325 1b3f 31f6 d3be d263 2d3f
000000e0: 30de 613e 3cd0 0b3f 964f 58bf 556f 8f3d
000000f0: 1bf3 33bd 377d 103f 9633 0cbe 3a17 2c3f
00000100: af13 e3be dfe8 3e3c b234 4c3d a32c c4be
00000110: 4a89 05bf aeca 323d b7e2 323f d89f c83c
00000120: f40f 1f3f a81f 21bf de05 f3bc ce79 25bf
00000130: 971b db3d 538b 29bf 22d7 e5be 063f 50bc
00000140: a9bb efbe 8a8e 9f3c f06e a03e 016b 333e
00000150: 11b5 ec3e 7ac8 073f ad06 abbe 1510 603e
00000160: b562 e1bd 9a20 e6be 425d d53d ed2a 9f3d
00000170: b9ef 20bf 454b 963e 8fb9 93be 43b8 8cbd
00000180: 1613 073e cab3 a4be 2543 9b3e 0a83 3e3e
00000190: 4c19 8fbe f927 293f e5f6 c4bd 481e 57be
000001a0: 3d60 e23e ae6b 9ebe 1a7b 193f 541f d33e
000001b0: 0c4c c13e e492 07bd adf3 613d 7115 c83e
000001c0: 4e85 113f 5c26 64be 9118 d13e cf71 0dbf
000001d0: c84e 18be ab31 683d 248b 383f 1c6e 253f
000001e0: 22e9 b83d a2c3 2ebf 7407 cbbe 0fa0 18be
000001f0: 00fe 96be 1cd9 b5be 9981 b83e eef3 193e
00000200: e723 ce3c 591d 063f 3b51 a43e 8bb3 953e
00000210: 1905 87be be03 343f 811c 7cbe b0fd 7a3e
00000220: c864 043f cc52 043f 2091 24bf 302e 2bbf
00000230: 05e9 75be 3572 883d e3cb b1be 464a 52bd
00000240: 546b 20bf cb99 0d3f 9b4f 93be 6ce1 a13e
00000250: 050a efbe c448 0bbf 79dc 6ebe fbe0 8dbe
00000260: 2c96 c4be b149 d73e 833f 43bf d18b fe3e
00000270: 15f0 1dbe 52dd f7bd 1036 3abe ab73 10bf
00000280: 4381 98be 0177 7f3e 37e2 a2be 781b d73b
00000290: 25b9 113f 1f90 aabd 5691 f0bb 5fb3 74be
000002a0: b08a 143f 85e6 3dbe cd23 313f ab2a 53be
000002b0: a3bd b43e 4f38 02bf 1dc5 103f d6ac fa3d
000002c0: 62d8 413e 5b2f afbe cdb2 b83c f6f7 143f
000002d0: 5cc5 02bf 44d1 293e b1bb 253f 8e3e 3abd
000002e0: 2a56 0e3f 396e 4ebd f738 a33e d763 25bf
000002f0: 29ac 323f b6f2 2f3f 5cd0 83be c1fe 98be
00000300: 0d70 1f3f 3fa3 1f3f 6071 6cbe ee48 7b3e
00000310: a352 20bf 6119 33bf d233 bbbe e317 23bf
00000320: 8a07 e63c db09 0bbf 4d3d 38bf 96d7 cd3c
00000330: f046 a83d cf2f efbe de1d 01bd 1d78 153f
00000340: f529 313e 5333 e93e d416 fabe 3230 cebe
00000350: db59 093f 4cd5 f7be 0bde 293f 7cbc 70bc
00000360: 92bb ea3e 161e a73e ac02 903e 668f a0be
00000370: 3578 1fbe 6295 033e 7f20 d3be 4c6d 123f
00000380: b155 c4be c923 6e3e 9b53 c2be e041 67bd
00000390: 30e6 9a3e 4510 abbd 4c62 3dbd cc9c 11bf
000003a0: 437d a9be 5e96 98be 70ed 0ebf 82d3 37be
000003b0: 8f34 93be a094 a2be 0b1b 993d 4076 87bd
000003c0: edd5 093e 6aa2 113f 0b48 4dbe 1f8e a4be
000003d0: 5bf4 3e3f e84b 0a3f e56a f6be 24eb 01be
000003e0: 7cac 89be f29f 983e 03ba cdbe becb 70bd
000003f0: 2e44 e0bc 26a9 333f 1af8 4ebd b7d7 093f
0.4303113 0.60367215 0.23987752 -0.3059758 -0.4438288 -0.12803422 -0.47512206 0.5876495
-0.26751605 -0.13184683 0.35856354 -0.30277243 -0.57341766 0.053938244 -0.5765746 -0.032387514
-0.5784067 -0.6483951 0.6397721 -0.03908306 0.39475688 0.51733994 -0.2192328 -0.22382621
0.428206 0.1256512 0.54710156 0.54870254 0.16852832 0.005686087 -0.17882073 -0.1283306
0.47074425 0.2449028 0.17791902 0.4778658 -0.5663321 -0.06053716 0.17702462 -0.34901744
0.5343947 -0.47290143 0.49085525 -0.3962607 -0.35605332 -0.3261728 0.3974656 0.16121787
-0.01955565 0.37258112 0.47126478 -0.44223186 0.0084395865 0.606044 -0.41398767 0.6773044
0.22057414 0.54614615 -0.8449644 0.07003657 -0.043933015 0.5644106 -0.13691553 0.6722294
-0.44350955 0.0116522005 0.04985494 -0.38315305 -0.5216261 0.04365032 0.6987719 0.024490282
0.6213372 -0.6293893 -0.029665884 -0.64638984 0.10698622 -0.66228217 -0.44890696 -0.012710338
-0.4682286 0.019477148 0.3133464 0.17521288 0.46231893 0.5304028 -0.3340353 0.21881135
-0.11005155 -0.44946748 0.10418178 0.07771859 -0.6286579 0.293543 -0.28852507 -0.06871083
0.13190874 -0.32168418 0.30324665 0.18604675 -0.27948987 0.6607662 -0.09617404 -0.21007645
0.4421405 -0.30941528 0.59953463 0.4123484 0.37753332 -0.03309907 0.055164028 0.39078858
0.5684403 -0.22280258 0.40839055 -0.55251783 -0.14873803 0.056687992 0.7208731 0.6462114
0.090288416 -0.6826726 -0.39654124 -0.14904808 -0.29490662 -0.35517204 0.36036375 0.15034458
0.025163604 0.5238853 0.32093224 0.29238543 -0.26371077 0.7031821 -0.24620248 0.24510837
0.5171628 0.5168884 -0.64283943 -0.6686735 -0.24014671 0.06662408 -0.34725866 -0.051340364
-0.6266377 0.55312794 -0.28771672 0.31617296 -0.46687332 -0.54407907 -0.23326291 -0.2771071
-0.38395822 0.4204841 -0.76268786 0.49716046 -0.15423615 -0.121027604 -0.18184686 -0.56426495
-0.2978612 0.2494774 -0.31813213 0.006564554 0.56923133 -0.0832827 -0.007341544 -0.2389655
0.5802412 -0.18544967 0.6919525 -0.20621745 0.3530093 -0.5086717 0.5655077 0.12239997
0.189302 -0.34215817 0.022546196 0.5819086 -0.51082397 0.16583735 0.6473952 -0.045469813
0.55600226 -0.050398085 0.31879398 -0.6460547 0.69793946 0.6872972 -0.25744903 -0.29881862
0.6228035 0.6235847 -0.23090124 0.24539539 -0.62626094 -0.699606 -0.36562973 -0.63708323
0.028079767 -0.54311913 -0.7196854 0.025127213 0.08216655 -0.46716163 -0.031522624 0.58386403
0.17301162 0.4554697 -0.4884554 -0.40271145 0.53652734 -0.4840492 0.66354436 -0.014693376
0.4584623 0.3264014 0.28127038 -0.31359404 -0.15573199 0.12849954 -0.4123573 0.57198024
-0.38346627 0.23255838 -0.3795441 -0.056459308 0.30253744 -0.083527125 -0.04623632 -0.5687988
-0.3310338 -0.2980222 -0.5583105 -0.17951778 -0.28751037 -0.31754017 0.07475861 -0.06614351
0.13460512 0.5688845 -0.20047013 -0.3213968 0.74591607 0.54022074 -0.4812843 -0.12687355
-0.26889408 0.2980953 -0.40180978 -0.058788054 -0.02737626 0.70179975 -0.050529577 0.5384478
