Project2/models/model_3_9.pt (torch, 285381 bytes, 75 tensors)

prior.mean f4 [2]
000000 00 00 00 00 00 00 00 00
       0.0 0.0

prior.std f4 [2]
000000 00 00 80 3f 00 00 80 3f
       1.0 1.0

decoders.0.decoder_net.0.weight f4 [512, 2]
000000 79 cf ef 3e fb 79 2f bf da 01 e1 3c b6 f4 09 3f
       0.46837977 -0.685455 0.027466703 0.53889024
000010 b4 e6 06 3f 9a f8 8b 3c 26 9a 6c bd 6c 31 41 bd
       0.52695775 0.017086316 -0.057764195 -0.047166273
000020 5a 21 05 3f b4 12 27 bf 4b 3b 89 be 61 dc 1d 3f
       0.52004015 -0.65262914 -0.2680305 0.61664397
000030 32 63 1d 3f eb 33 11 3f 0a 41 ae be ea 07 04 bf
       0.61479485 0.56719846 -0.34033996 -0.51574576
000040 1f 40 50 3e 34 2a 11 bf de fa cc 3d 2e 5a 15 3f
       0.2033696 -0.5670502 0.100087866 0.5834073
000050 e7 4b 09 3f f8 05 0d 3d cb 39 dc 3e c0 63 23 3e
       0.5363144 0.03442952 0.43012843 0.1595602
000060 f1 5a b3 3d c5 f9 05 3f db a2 bd be 53 13 11 bf
       0.0875758 0.52334243 -0.3703831 -0.5667011
000070 54 63 92 3e 14 1a fc 3e f8 d4 98 be 70 a6 ed 3e
       0.28591406 0.49238646 -0.29849982 0.46416044
000080 7d 9e 5d 3e 24 59 17 3f af cc c1 3e ab 76 9e be
       0.2164249 0.5912039 0.37851474 -0.3094991
000090 a7 74 54 be 8b a3 12 3f f3 23 1f 3f ff 68 14 3f
       -0.20747624 0.57280797 0.6216423 0.5797271
0000a0 32 82 ad 3d 4d c9 c3 bd 4d 6e f8 be ef 2d f0 be
       0.084720984 -0.095598795 -0.48521653 -0.46910045
0000b0 c7 f9 f9 be b6 78 8b be ce 39 87 be 9c f9 20 bf
       -0.48823377 -0.27240533 -0.2641129 -0.62880874
0000c0 e0 09 2a bf 24 b5 e5 bd 1b cc fd 3d f8 84 4f 3e
       -0.6642132 -0.112161905 0.12392446 0.20265567
0000d0 a5 d0 1f bd 05 5e b7 be 2e d0 af be aa 17 8b be
       -0.03901734 -0.3581392 -0.34338516 -0.27166492
0000e0 47 ed 34 bf 6d 54 c1 be 64 6b 0e be db 2e 90 3e
       -0.70674556 -0.37759724 -0.13908154 0.28160748
0000f0 5d c7 83 3e 98 22 68 3e a3 8e 0b bf 46 37 93 be
       0.2573804 0.22669446 -0.5451452 -0.28753108
000100 e0 44 2d 3e 86 8b 86 3d c6 3d d1 3e 65 01 24 bf
       0.16920805 0.06569581 0.40867442 -0.6406463
000110 0e f8 4b bd d6 a0 25 bf 52 3c ad 3e 74 79 f3 3e
       -0.04979711 -0.6469854 0.33835083 0.475536
000120 08 b1 98 be 3f 66 bb 3e 03 06 17 be 64 c9 1c bf
       -0.29822564 0.36601445 -0.14748387 -0.612448
000130 54 fb 37 3f 1e fc f5 be 48 6d d2 bd 9d 50 d0 bc
       0.7186787 -0.48043913 -0.1027475 -0.025429064
000140 d3 85 0e 3e 7d f0 d1 3e a3 1f 18 3f 6c e8 df 3e
       0.13918237 0.4100379 0.59423274 0.4373201
000150 c1 fa a5 3e 20 1a 23 3f 44 20 f7 be bc d7 14 bd
       0.32417873 0.6371174 -0.48266804 -0.036338553
000160 c9 ec 7f 3e fe d1 0e 3f 19 66 b7 bd 5b 15 6a bd
       0.2499267 0.5578917 -0.089550205 -0.057149272
000170 c0 3e b3 be 7a 4d 2e 3f 0b 41 13 bf 36 dd 34 3f
       -0.35008812 0.6808697 -0.5752112 0.7065004
000180 df 43 4e 3e da ba 2b bf d0 86 72 bd ba ca ca 3d
       0.20143078 -0.6708199 -0.0592106 0.09901948
000190 a4 28 05 bf 3e d4 0b 3f 64 56 26 bf 60 e9 2a 3f
       -0.5201514 0.5462073 -0.6497557 0.6676235
0001a0 2b 46 67 bd fd 6e 4d 3e 57 f5 f3 bc ad 74 25 3d
       -0.0564634 0.2006187 -0.029780073 0.040394474
0001b0 60 ba a2 3e 98 9c e4 3e 26 a4 2b 3f 48 7f a7 be
       0.31782818 0.44650722 0.67047346 -0.32714295
0001c0 e1 d2 30 bf 3e fb df 3e 55 ef b1 be 43 e1 12 3e
       -0.69071776 0.4374637 -0.34752908 0.14343743
0001d0 60 c6 48 be 0b b6 a6 be 7e 15 f5 be f1 8f 0b bf
       -0.19606924 -0.32560763 -0.4786796 -0.5451651
0001e0 1d 11 c8 3e 1a 68 ac 3e dc 5c a7 be db 36 c8 be
       0.39075556 0.33673173 -0.32688034 -0.3910435
0001f0 d5 7e cb 3e ca 17 e6 be 6e 9a 18 3e 24 c7 1c 3d
       0.39745203 -0.44940025 0.1490266 0.038275853
000200 0d c7 17 3f 61 68 a7 3e e8 94 84 be ad 37 1c bf
       0.592881 0.32696822 -0.25894856 -0.61022455
000210 0b 1c d5 be ca fb 9e 3e b2 e0 1b 3f c7 52 9e be
       -0.41622958 0.31051475 0.6088973 -0.3092253
000220 ff f0 f4 3e 54 54 b1 3e 38 63 42 3e b1 b9 f0 3e
       0.47840115 0.3463465 0.18983161 0.4701667
000230 a8 fd 95 be 2c b8 22 3f ba ee c1 be 04 74 10 3f
       -0.29295087 0.63562274 -0.37877446 0.56427026
000240 4f 2f 78 be 58 80 18 3f 9d 3c 2b bf f7 de 88 be
       -0.24236797 0.5957084 -0.66889364 -0.2673261
000250 2c 47 cb 3e 45 b2 48 3e 5b f5 13 bf 52 0b df be
       0.39702737 0.19599254 -0.5779626 -0.43563324
000260 8c 8f 0c 3f 7b 06 e4 3e 48 4b 8d be a0 24 c7 be
       0.54906535 0.44536194 -0.27596498 -0.3889513
000270 90 d6 f6 3c 5c 7f cc 3e 96 c4 bd be ed f1 14 bf
       0.030131608 0.39940917 -0.37064046 -0.5818165
000280 e0 f5 15 3f 14 59 b9 3e 16 de 17 3f 1b 64 1c be
       0.585783 0.36200774 0.5932325 -0.15272562
000290 be 0a c2 be 26 47 8e be 49 e9 b3 be 86 fe 83 3e
       -0.3789882 -0.27788657 -0.3513892 0.25780123
0002a0 e0 7c 8d bc 04 41 df 3e 37 7f 01 3f 46 aa da be
       -0.01727146 0.4360429 0.5058474 -0.42708033
0002b0 5b a1 9e 3d c5 ff 98 be 1a 00 e5 3e 53 2c 0f 3f
       0.0774562 -0.29882637 0.4472664 0.5592701
0002c0 89 53 0b be be 6d 03 3e 2e 35 ed be d5 a9 1a 3f
       -0.13606085 0.12834832 -0.46329635 0.60415393
0002d0 68 24 ad be ee d9 3b bd 71 00 1a bf 78 bf dc bd
       -0.33816838 -0.04586213 -0.60156924 -0.10778707
0002e0 5d 62 07 3f ea e2 fa be ef 23 c4 bd bb 6a 2e 3e
       0.52884465 -0.49001247 -0.09577166 0.17032902
0002f0 11 70 94 be 26 cf 16 3e d2 69 08 bf 7c 19 c3 be
       -0.2899175 0.14727458 -0.5328647 -0.3810538
000300 d2 c2 a4 bd 7a 29 2e 3f 72 4b 2c bf 2b a0 28 be
       -0.080449715 0.6803204 -0.6730262 -0.16467349
000310 bc 29 91 be a4 5a 30 be 7e e4 04 be c5 ef 37 bf
       -0.28352153 -0.17222077 -0.12977788 -0.71850234
000320 55 61 1c 3e 8c 1b c7 3b 25 19 2a 3f c2 cd 02 3e
       0.15271504 0.006076282 0.6644462 0.12773803
000330 03 7e 70 3e 8d ca 09 be 50 73 17 bf 17 72 ad be
       0.2348557 -0.13456173 -0.5916033 -0.33876106
000340 ee d4 3b 3f 5c 40 32 3f e6 c3 7e be 0e 6d a6 3e
       0.7337178 0.69629455 -0.24879417 0.32505077
000350 20 6d f8 3e 9e da 0e be d8 f2 1d bf 21 d2 9c 3e
       0.48520756 -0.13950583 -0.61698675 0.30629066
000360 75 c2 24 be c0 c1 e4 be 6d a5 fb 3d f0 98 b4 3d
       -0.16089804 -0.4467907 0.12287412 0.08818233
000370 88 3d b4 be 8b 05 b5 3d 21 9e 36 be 46 d2 c0 be
       -0.35203195 0.08838948 -0.17833759 -0.37660426
000380 27 3b a5 be 5c 96 bf 3e 5a aa 00 bf 11 37 b6 3e
       -0.32271692 0.37419403 -0.50259936 0.35588887
000390 f7 b6 6b be b0 e2 35 be 09 92 1d 3d 3e 3c 01 bf
       -0.23019014 -0.17762256 0.038469348 -0.5048255
0003a0 79 0d 0b bf 3d 7b 91 3e 37 ad 08 bf 51 a9 f4 be
       -0.5431743 0.28414336 -0.53389305 -0.47785428
0003b0 54 00 f6 be 61 4b 28 3f 40 fc 0d 3e bf cb a2 bd
       -0.48047125 0.6574002 0.13865757 -0.07949018
0003c0 07 72 34 bd 86 b4 70 3e fe 12 db be 3e ed b1 3e
       -0.044054057 0.23506364 -0.42787927 0.34751314
0003d0 cb 76 e1 3d 86 f0 56 be 2d df 1b bd 4b 39 9b bd
       0.11008986 -0.2099019 -0.038054634 -0.07579287
0003e0 4a 28 27 3f ce 8e 61 be 9d 11 b9 be 41 66 32 3f
       0.6529585 -0.22027132 -0.3614625 0.6968728
0003f0 fb 73 ce 3e 23 4a 6b bc a9 8b 24 3f 66 02 c9 3e
       0.4032286 -0.014360937 0.64275604 0.39259642

decoders.0.decoder_net.0.bias f4 [512]
000000 3d 18 3e bf a0 24 67 bd b0 f4 a0 be 69 d9 ce be
       -0.74255735 -0.056431413 -0.31436682 -0.40400246
000010 ab 6a ac be a8 a3 89 bd 98 e5 06 bf 47 c2 89 3e
       -0.3367513 -0.06720668 -0.5269408 0.26906034
000020 ac 1d f6 3e 3b bb 0a bf 83 7d 4b 3e 23 2c 91 be
       0.48069513 -0.5419194 0.19872098 -0.28353986
000030 92 21 cd be a2 d6 04 bf 86 4c d9 be 36 b8 a9 bd
       -0.40064675 -0.51890004 -0.42441195 -0.082870886
000040 30 4a b9 3e c1 cd cd be 2c b3 13 3e 32 f8 22 bf
       0.36189413 -0.4019604 0.14423817 -0.63659966
000050 99 fc 4f be 9f 43 11 3c 96 36 d3 bb cf 72 2c be
       -0.20311202 0.00886622 -0.006445716 -0.16840671
000060 33 ce ab 3d bb 86 f8 3d 32 8c 0b be f8 d2 97 be
       0.08388939 0.12135073 -0.13627699 -0.29653144
000070 d8 55 25 bf e7 b1 d4 3c 1d db d8 be d0 b1 a7 be
       -0.6458411 0.025963737 -0.4235467 -0.32752848
000080 6b aa f2 bd c3 f5 ac bd 1b 3f 0d bf 0b cf 1e 3f
       -0.11848911 -0.08445313 -0.55174416 0.6203467
000090 07 06 ee 3e ea b7 0c 3f 50 89 10 3f 12 14 d9 3e
       0.46488973 0.5496813 0.5645952 0.42398125
0000a0 2c ac e9 3d 40 44 1a 3f 49 7f 0a 3f a5 c0 1d bf
       0.11409792 0.6026039 0.5410047 -0.6162208
0000b0 fe f0 c7 be b9 65 34 3f ce dc 21 3f e0 6f 0a bf
       -0.3905105 0.70467716 0.63227546 -0.5407696
0000c0 50 c3 3f be d8 e7 fc 3e 0b cf 94 3e bd a2 76 bc
       -0.1872685 0.49395633 0.2906421 -0.015053448
0000d0 f6 74 f8 3d e8 88 17 bf 90 10 6d be 25 ee 66 3e
       0.121316835 -0.5919328 -0.2315085 0.22551782
0000e0 52 8d d2 be 7c a0 31 3f dd 19 28 3e df 64 95 be
       -0.41123444 0.69385505 0.16416116 -0.2917852
0000f0 35 77 d0 3e 29 be 17 3e 3e c3 7d bd 75 18 db 3c
       0.40715948 0.14818634 -0.061953776 0.02674506
000100 f9 01 4f be 22 31 d8 be 5f c7 e5 bd b4 1d 70 3e
       -0.20215596 -0.42224985 -0.11219668 0.23448831
000110 90 03 2c 3e c5 57 f0 be 63 41 83 3e 79 36 bb 3e
       0.16798234 -0.46941963 0.25635824 0.36564997
000120 fe 51 65 bb 4b 85 b4 3e f8 b5 82 3e a5 27 cb be
       -0.0034991498 0.35257944 0.25529456 -0.39678684
000130 53 2a d9 3e 38 3d a9 be 8c 60 49 3e 9f f7 e1 3e
       0.42415103 -0.3305452 0.19665736 0.44134232
000140 0a 3f 0e 3f 90 5a 0c bf d3 3b e2 3e a3 c7 1c bf
       0.5556494 -0.5482569 0.44186267 -0.6124212
000150 ee 7e 1d be 4f 63 95 be bb a8 f9 3e 03 78 ab 3e
       -0.15380451 -0.2917733 0.48761544 0.3349
000160 7d 8a 7d 3e ab f8 2d bf a6 95 06 bf e0 87 ee 3e
       0.2475986 -0.6795756 -0.52572095 0.4658804
000170 bb 9d e3 3e f7 19 32 3f bd 10 87 3e 36 7a 5b 3e
       0.44456276 0.6957087 0.26379958 0.21433339
000180 86 37 e8 bd 54 dc 72 be 94 26 fe be 0a dc f6 be
       -0.11338715 -0.23716861 -0.49638808 -0.4821475
000190 64 e9 ca be 9c eb b2 be ef 13 17 3e 80 2f b2 bc
       -0.39631188 -0.3494538 0.14753698 -0.021751165
0001a0 3a a9 76 be 4f 84 dc be e2 62 1f bf 4e 9d 88 be
       -0.24087992 -0.43069693 -0.6226026 -0.26682514
0001b0 50 a6 81 be ee 90 33 bf eb 3f d8 be 2a 3f 22 3d
       -0.253222 -0.7014302 -0.42236266 0.03961102
0001c0 3a 2d f9 be 2b 85 1f bf e9 bb a9 be f4 ff 18 be
       -0.48667318 -0.62312573 -0.33151177 -0.14941388
0001d0 76 e8 13 bd 27 8a f9 bd e7 38 28 3e 69 c1 9b 3e
       -0.036110364 -0.121845536 0.16427957 0.30420998
0001e0 f8 9e d2 3e ac b5 74 3e 8d 7a 12 be 13 f8 03 be
       0.4113691 0.23897427 -0.14304562 -0.12887602
0001f0 e4 23 22 bf 41 c8 f1 be ea 51 d9 be 0e e6 16 bf
       -0.63336015 -0.47223094 -0.42445308 -0.58944786
000200 2c b5 05 bf 0a a2 85 be bc 43 75 be 36 a4 f1 3e
       -0.5222957 -0.26100188 -0.2395162 0.47195596
000210 1d 60 46 3e 39 4b 2d bf 06 26 ea be 58 c1 2e 3f
       0.19372602 -0.67692906 -0.45732135 0.6826377
000220 4a 51 e3 be cd 00 14 3f f3 07 10 3f 6f 07 f5 3e
       -0.44397956 0.5781372 0.5626213 0.47857234
000230 ea d8 b8 be a1 d5 14 bf 85 0e 36 3f 21 e6 d8 3e
       -0.36102992 -0.5813847 0.71115905 0.42363074
000240 ae 99 36 3e 21 5f 20 3f 68 f0 b1 be 09 95 a1 3e
       0.17832062 0.62645155 -0.34753728 0.31559017
000250 3e 04 ce be fb 6f 2b bf ce 1f 02 3e 49 a1 24 3f
       -0.40237612 -0.66967744 0.12707445 0.643086
000260 3d cd ae be e6 cd 36 3f 84 55 0e bf 87 3d ba be
       -0.3414096 0.71407926 -0.55599236 -0.36375067
000270 18 84 a3 3d dd 80 cb be 5c b9 d9 be e2 9c 0b bf
       0.07984179 -0.39746752 -0.4252423 -0.5453626
000280 62 93 b9 be 73 19 d4 be e8 9b fe 3d 54 88 f5 3e
       -0.36245257 -0.41425666 0.124320805 0.47955573
000290 06 76 b5 3e bf d8 0d 3f 15 3d bf bd 58 a3 9c be
       0.35441607 0.55408853 -0.09337822 -0.3059337
0002a0 3f 17 05 bf 1e 99 30 bf 00 1e 1c bf 00 07 ab 3e
       -0.51988596 -0.6898364 -0.60983276 0.33403778
0002b0 3e 56 9f be af 68 f6 be 25 58 84 bc a6 2f 5b be
       -0.31120485 -0.48126742 -0.016155312 -0.21404895
0002c0 c8 e8 28 bf 0b 3b b9 be 24 ef 1f 3e 34 a0 c8 3e
       -0.65980196 -0.3617786 0.15618569 0.39184725
0002d0 23 9c 27 bf 81 37 13 3e 72 b4 42 3e 5a ea b9 3e
       -0.6547262 0.14376642 0.19014147 0.3631161
0002e0 a7 f4 f7 3e 47 97 cd be 73 e1 0c 3f 0d 20 c9 be
       0.48428842 -0.40154478 0.5503151 -0.39282265
0002f0 67 39 f9 bb 3c fa 58 be 39 01 3d 3f 18 11 09 bf
       -0.00760572 -0.21189207 0.7382999 -0.5354171
000300 9b 91 b5 3e db ce e2 be 69 a4 3d 3e 2f 4d 9f 3e
       0.3546265 -0.44298443 0.18519749 0.31113574
000310 04 f0 0b 3e 0b 75 01 3f 26 23 bb 3e 2f 58 01 bf
       0.13665777 0.5056922 0.36550254 -0.5052518
000320 a9 4f ff bd 4b 9f 1b 3f ab 87 f5 be 7d 67 d1 3e
       -0.12466366 0.60789937 -0.4795507 0.40899268
000330 52 1d e6 be 81 9b cd 3e 7f d6 8f 3e bc d5 6c 3e
       -0.44944245 0.40157703 0.28093335 0.23128408
000340 25 65 2a bf cc ad 68 3e e1 5e b6 be 51 39 0c be
       -0.66560584 0.22722548 -0.35619262 -0.1369374
000350 8d 5c 25 3f 06 70 1a 3f cf c6 2b bf 39 02 ec 3c
       0.64594346 0.60327184 -0.6710023 0.028809654
000360 69 f9 04 3f 52 37 dc 3e 60 66 96 3d e4 55 82 be
       0.5194307 0.43010956 0.07343745 -0.25456154
000370 f8 60 17 3f 95 16 0d 3f b8 16 00 bf c8 eb 1d bf
       0.5913234 0.5511258 -0.50034666 -0.616879
000380 7b 6d 88 3c 65 d2 e8 be 01 13 18 bf 8e bf eb be
       0.016653767 -0.45473018 -0.59404 -0.46044582
000390 e3 c9 12 bf 07 0b 36 bf 6d a2 2e bf b0 93 a1 3e
       -0.57339305 -0.71110576 -0.6821659 0.3155799
0003a0 8e f6 c6 be 95 12 e7 be 9f 70 59 3e b8 6f 0f 3f
       -0.3885998 -0.45131364 0.21234368 0.56029844
0003b0 66 01 cf 3e 72 11 c8 be c5 e8 a3 3e b0 e6 c4 be
       0.40430754 -0.3907581 0.32013527 -0.3845725
0003c0 7b 84 0a bf b5 a1 15 bc ab b5 28 3f 8b f7 38 3f
       -0.541084 -0.009132792 0.65902203 0.7225272
0003d0 e2 4d 92 3d 05 b9 68 be f4 76 33 3f 85 e6 ab bc
       0.07143761 -0.2272683 0.70103383 -0.020983944
0003e0 da c0 30 bf 38 f5 6c 3e f3 f4 1d bf 4d 0b 0b bc
       -0.6904427 0.23140419 -0.6170189 -0.008486581
0003f0 f2 bb e3 be cd 4d d6 bd 41 a2 a7 be 08 ff 19 be
       -0.44479328 -0.10464058 -0.32740977 -0.15038693

decoders.0.decoder_net.3.weight f4 [32]
000000 6d a4 78 3f d0 a9 89 3f b5 e9 82 3f a2 ca 75 3f
       0.97125894 1.0754948 1.0227572 0.9601232
000010 cc 1a 81 3f b8 4a 80 3f f0 4b 82 3f 3f f9 7a 3f
       1.0086303 1.0022802 1.0179424 0.9803657
000020 e8 f4 83 3f 25 14 89 3f 85 45 7b 3f fb 1f 80 3f
       1.0309114 1.0709273 0.98152953 1.000976
000030 cd e8 83 3f b6 c4 82 3f fe 2a 7f 3f df 1c 7b 3f
       1.030542 1.0216281 0.99674976 0.9809093
000040 61 b9 78 3f 9e ef 79 3f 8a 34 80 3f 2b f6 79 3f
       0.97157866 0.9763125 1.0016034 0.9764125
000050 8c 66 7c 3f 98 62 86 3f b4 54 80 3f 7e 5c 7d 3f
       0.98593974 1.0498838 1.0025849 0.98969257
000060 a2 25 82 3f 9a 94 79 3f 91 46 7b 3f ba c6 76 3f
       1.0167735 0.97492373 0.9815455 0.9639698
000070 dd 20 7b 3f a0 63 83 3f 86 3f 7f 3f 90 f3 7c 3f
       0.9809702 1.0264778 0.99706304 0.98809147

decoders.0.decoder_net.3.bias f4 [32]
000000 99 66 38 bd 92 1c 4d 3d ff 7b 13 bc 7d 88 3b 3d
       -0.04501972 0.050076075 -0.009001731 0.045784462
000010 e4 77 31 bd 82 3e ff 3b fe ce 5f 3d fb 4e 47 bd
       -0.043327227 0.007789434 0.054640763 -0.048659306
000020 7c 29 39 3b b6 69 92 3a 0c 69 f1 3c df dc 41 bc
       0.0028253486 0.001117042 0.029469036 -0.011832445
000030 a4 24 3e bd f5 be 74 3c 57 b9 e0 3b c9 c1 f3 bb
       -0.046421662 0.014938106 0.0068580317 -0.0074388725
000040 03 77 85 3b 40 e4 22 bd 53 29 29 3d 0e 9d 10 bd
       0.004073025 -0.039768457 0.041299175 -0.03530603
000050 9d 09 c1 3c 93 92 86 bc f5 f8 33 bc 80 5a b2 3d
       0.023564154 -0.016427314 -0.010984649 0.08708668
000060 82 2c b8 bc 23 4e c7 bc fa 5c 1d bd c5 61 3f bd
       -0.02248216 -0.02432925 -0.038418747 -0.0467241
000070 6b 5e ec 3b 73 44 5b bd 46 a8 88 bc 0b 78 a0 bd
       0.007213404 -0.053532075 -0.016681802 -0.078353964

decoders.0.decoder_net.3.running_mean f4 [32]
000000 70 04 e6 3c 13 16 c0 3c c2 cd 44 3d 1b 59 e6 3c
       0.028078288 0.023448026 0.04804779 0.02811866
000010 e2 15 11 3d c7 e3 0a 3d 98 10 b6 3c 91 ca bc 3c
       0.03542126 0.03390863 0.02222471 0.02304581
000020 cc 46 0f 3d ec 9e 13 3d 1e 4d bd 3c d9 81 dd 3c
       0.034979627 0.03604023 0.023108061 0.027039455
000030 66 fb 0c 3d fd c8 fc 3c c1 cb c3 3c 63 4c ec 3c
       0.03441944 0.030857557 0.023900868 0.028845018
000040 3a cd b9 3c ee e0 04 3d 18 ea 14 3d 5c cd df 3c
       0.022680867 0.032441072 0.03635606 0.027319603
000050 88 3d d9 3c 66 36 30 3d 0c b7 ea 3c 19 da ed 3c
       0.026518598 0.04302063 0.028651737 0.029034661
000060 67 d7 ed 3c 45 9f c7 3c ad 5a 1a 3d 63 2d 2a 3d
       0.029033376 0.024367938 0.03768413 0.04154719
000070 1f b6 f0 3c b5 8f c6 3c cf 5d 1a 3d 94 dd 46 3d
       0.029383717 0.024238447 0.03768712 0.048551157

decoders.0.decoder_net.3.running_var f4 [32]
000000 3b 8d 93 39 68 a9 07 3a bf e0 fb 3a a1 30 bf 39
       0.0002814325 0.0005175085 0.001921676 0.0003646659
000010 f3 55 2e 3a ba 59 9a 3a 77 61 4e 3a 31 12 95 39
       0.00066503807 0.0011776008 0.00078728 0.00028433048
000020 e5 bd 30 3a f9 60 02 3b d6 1c 55 39 61 48 e7 39
       0.00067421637 0.0019894226 0.00020324005 0.0004411368
000030 fb df 13 3a 8a 7b 7a 3a 93 95 ee 39 83 bc ca 39
       0.00056409807 0.0009555152 0.0004550634 0.00038668895
000040 2d a6 f9 39 5c b2 56 3a d5 91 ae 3a c8 98 1b 3a
       0.00047616792 0.000819003 0.0013318608 0.0005935547
000050 e6 7e 13 3a d5 21 e5 3a e2 03 21 3a be 70 e5 39
       0.00056265143 0.0017481396 0.0006142241 0.00043762283
000060 e6 3c 42 3a 05 06 c3 39 2a 63 aa 3a cf ec f2 3a
       0.0007409587 0.00037197783 0.0012999524 0.0018533709
000070 ad a2 73 3a cf 0d d7 39 b5 5b 5e 3a 6b 5c 27 3b
       0.0009293955 0.00041018284 0.00084822933 0.0025537263

decoders.0.decoder_net.4.weight f4 [32, 32, 3, 3]
000000 98 57 62 bd a1 70 36 bd 6e 54 14 bd 0c bc 29 bc
       -0.055259317 -0.044541005 -0.03621333 -0.010359775
000010 f5 b5 50 bd db fb 99 3c b5 a4 9c bc 2e 8a fb 3c
       -0.050954778 0.018796852 -0.019121507 0.030705538
000020 de 13 0c 3d 54 31 68 3c ba 79 1f 3d 8b 84 17 bd
       0.034198634 0.014171917 0.038934447 -0.036991637
000030 62 51 af 3d a9 c9 59 bd 35 d2 31 3d cd 49 b8 3b
       0.085604444 -0.053170834 0.04341336 0.005624032
000040 06 45 41 3c ad 34 25 3c 4f 59 de 3c 1a 49 2c bb
       0.011796242 0.01008336 0.027142195 -0.002628869
000050 40 e4 42 bd 3b fe 33 bd 22 5a 74 bb 86 d4 a3 3c
       -0.047580957 -0.043943625 -0.0037285169 0.0199988
000060 80 be ca 3c 74 3a 37 bd ca 0c 47 bc 7a c9 17 bd
       0.02474904 -0.04473348 -0.012149045 -0.037057377
000070 fe ec 03 3c 57 2e e9 bc 2e 5a 17 bd 79 5e ab 3c
       0.008052109 -0.02846448 -0.036951236 0.020919072
000080 10 1a 18 3d 2d f9 06 3d 08 9d 5a 3b 3b 74 4f bd
       0.03713423 0.032952476 0.0033357758 -0.050647955
000090 de 61 40 bd 5c 9c 11 bb 81 7d 69 3c 39 7e ed 3b
       -0.046968333 -0.0022218442 0.014251114 0.007247713
0000a0 18 58 1c 3d a1 32 09 bd bd ab b6 bc 88 ff 0d 3d
       0.03816995 -0.03349555 -0.022298688 0.03466752
0000b0 48 0f 5d 3d 09 fc f4 3c 74 a7 5d bd c6 43 e3 3c
       0.05396965 0.029905336 -0.054114774 0.027742278
0000c0 eb fe 03 bd d5 e0 6d bc 54 68 4c 3d 98 af 05 3c
       -0.03222553 -0.014518936 0.049904183 0.008159541
0000d0 c3 cc 6a bd 1c 59 8a bd 72 68 57 3d 32 40 99 bc
       -0.057324182 -0.067552775 0.05258984 -0.018707369
0000e0 e6 70 3c bd 0f 4a 08 bd 80 f2 8e bd 45 4a 13 3b
       -0.046006106 -0.033273753 -0.06979847 0.0022474688
0000f0 9c d2 83 bd ba 0a 29 3d d2 8f 1f bc d5 9d d0 3c
       -0.06436655 0.041269995 -0.009738879 0.025465885
000100 b4 92 aa 3b fc 15 93 3c c7 7c 8a 3c 4a 6f a2 3b
       0.0052054767 0.017954819 0.016905202 0.0049571143
000110 62 8e 77 3d 3e 19 a2 bb fb 58 05 bd f2 dc 07 3d
       0.06043852 -0.0049468568 -0.03255556 0.033169694
000120 78 37 f7 3b 0d b3 85 bc dd 44 56 3d 00 3f e7 bc
       0.007544454 -0.01632073 0.052311767 -0.028228283
000130 3b 66 eb bc 8b 06 e1 bc a6 77 48 3d 79 11 0e 3a
       -0.02873527 -0.02746894 0.04894223 0.0005419474
000140 9e 0f 32 bc 66 3a 6f bd da 4a 95 bb a4 a2 ed 3c
       -0.010867981 -0.058405302 -0.004556042 0.029008217
000150 a4 68 a3 bc d8 88 52 bb b6 9e 4b 3d 80 9c df bc
       -0.019947357 -0.0032125022 0.049711905 -0.027296305
000160 52 03 10 bc 33 ba ce bc 65 2f b2 3c 98 ed 9b 3a
       -0.008789854 -0.025235271 0.021751115 0.001189637
000170 a7 22 2d bd a1 d0 16 bd 7c 59 0f bd 45 3b eb bc
       -0.042269375 -0.036820058 -0.03499745 -0.028714785
000180 db 49 8d 3c 34 12 ac bc 32 92 98 3a 4e 67 5d 3d
       0.017247131 -0.021004774 0.0011640249 0.054053597
000190 f1 69 a2 bd a5 8b c3 bc 94 25 01 bd 80 dd 76 bc
       -0.07930363 -0.023870299 -0.031529978 -0.015067458
0001a0 16 6d 97 3c e7 ff 5d 3c fe 24 0d 3d 96 d0 42 bd
       0.018484633 0.013549781 0.034459107 -0.047562204
0001b0 62 90 1f 3d b5 0d a7 3d a5 21 da bc c7 db 82 3d
       0.038956054 0.08156911 -0.026627371 0.063895755
0001c0 65 17 26 3d a1 0a 05 bc a8 31 32 bc 88 7e a1 3c
       0.040549655 -0.00812021 -0.010876097 0.019713655
0001d0 e7 8d 07 3d 7d aa 4e 3d 07 43 ee bc c0 9f 27 3c
       0.033094313 0.05045556 -0.029084696 0.010230958
0001e0 55 f2 b1 3c 50 3c a5 3c 42 89 52 3d 79 fd b3 3b
       0.021721998 0.02017036 0.05140043 0.005492863
0001f0 ba 16 42 3d 2b 36 b9 3c 2c e6 aa 3c 39 eb 8f bc
       0.047384955 0.022608837 0.020861708 -0.017568218
000200 b4 1d e5 bc 03 60 0b bc ff f2 5d bd 38 80 23 3d
       -0.027968265 -0.008506778 -0.054186817 0.0399172
000210 40 b1 10 3d f2 a5 25 3d fc 68 0e bd 63 86 de 3c
       0.03532529 0.04044146 -0.03476809 0.02716369
000220 17 b5 76 bc 05 3d 88 bd 49 51 8d 3c 91 09 85 bc
       -0.015057824 -0.066522636 0.017250674 -0.016239913
000230 fd 3b 60 bd e9 77 be 3c 46 2e 0f 3d a5 9a 14 bd
       -0.05474471 0.023250537 0.03495624 -0.036280293
000240 40 78 a5 3a 29 b9 61 bd 18 17 fa bc 4c c6 04 3c
       0.0012624338 -0.055108223 -0.03052859 0.008103918
000250 03 29 92 3c 41 c2 c0 3c 8a 1d a7 3c 84 b8 00 bd
       0.017841822 0.023530127 0.020399828 -0.031425968
000260 2d 30 46 bc b4 b3 43 3d d4 5b 15 3d c7 c9 26 3d
       -0.012096447 0.0477788 0.036464527 0.040719774
000270 30 ec d1 bb d4 2d a6 bb 45 50 b6 bc 9c 4d 03 bd
       -0.0064063296 -0.005071381 -0.022255072 -0.032056436
000280 90 de 28 3d b7 95 8f 3d 4e ce 68 bc eb dc 19 3d
       0.041227877 0.07010978 -0.014209343 0.0375642
000290 8e e1 32 bc bc 41 d8 3b cb 9e 23 bc d9 9b 49 3b
       -0.010918034 0.006599633 -0.00998659 0.0030763058
0002a0 c7 63 08 3d 0d 17 0f bd 67 ea 01 3d 14 45 65 3c
       0.03329828 -0.034934092 0.031717684 0.01399352
0002b0 99 f8 3a 3d 89 fc 67 bd 79 fa aa 3a 9d 34 2d 3d
       0.045647237 -0.05663732 0.0013044617 0.042286504
0002c0 c6 c7 1c bd 8d d1 d4 3c c5 a9 58 3d c2 a6 cf 3b
       -0.038276456 0.025978828 0.05289628 0.0063370178
0002d0 32 61 8a 3c a5 62 97 bc e3 9f 1e bd bf de 8d 3c
       0.01689205 -0.018479655 -0.0387267 0.017318128
0002e0 aa ae ec 3d 4c ef 8c bc fc 51 db bc af 3f 85 3d
       0.11556752 -0.01720395 -0.026772492 0.06506287
0002f0 70 dc 0c bd 7f 9e 65 bd ff 25 3e 3d 6a e4 c3 bc
       -0.034389913 -0.056059357 0.046422955 -0.023912627
000300 a8 4a 53 bd c9 13 73 bd 1b 1d 51 bb ce 33 63 3d
       -0.05158487 -0.05934504 -0.0031908217 0.055469327
000310 f3 a1 e9 3b 83 6a 4b 3d 9b a5 cd 3c da 59 1f bc
       0.0071299016 0.049662124 0.02510338 -0.009726012
000320 81 12 92 3c d4 2f 67 3d 5c 54 10 3d cb 14 0c bc
       0.017831089 0.056442097 0.0352367 -0.008549879
000330 98 52 60 bd b0 e8 42 bc 16 59 e2 3c a0 ad 5b 3c
       -0.054766268 -0.011896297 0.02763037 0.013408095
000340 cf a1 06 bd 04 ee 73 3b 6a 22 44 ba ae f0 33 bd
       -0.032869156 0.0037220726 -0.0007481935 -0.043930702
000350 73 f6 3d 3c 4d 9b 82 bb 6b cf 8f bc 95 c9 27 bd
       0.011594403 -0.0039857985 -0.01755496 -0.040963728
000360 f0 54 3a bd a2 0e 18 bd f3 9f f3 3c a3 29 07 3c
       -0.04549116 -0.03712333 0.029739356 0.008249673
000370 2e 62 19 bd 9e fe d8 3c 7e 8e 23 3d 09 84 49 bc
       -0.037447147 0.026488598 0.039930813 -0.012299546
000380 e2 6b 17 bd 79 53 4d 3c a0 b9 3d bd 20 13 8d 3a
       -0.03696812 0.012532108 -0.046319604 0.0010763146
000390 55 d5 16 bc d9 45 04 3d 63 ed 5e bc a6 aa 2c bd
       -0.009206136 0.032293174 -0.013606402 -0.04215493
0003a0 cb 43 b8 bc 38 21 01 3d 1a 05 d3 bc 5e 84 6e bc
       -0.022493264 0.03152582 -0.025759269 -0.014557926
0003b0 89 3f e7 3c 05 13 f3 bc 3f 77 a6 3c 6f 12 60 3b
       0.028228538 -0.029672155 0.020320533 0.0034190675
0003c0 fa cd d9 3c 84 fd bb bc f6 2d d4 3c 00 e2 02 bc
       0.026587475 -0.022948034 0.025900822 -0.007988453
0003d0 d7 c2 21 3c 2b 50 f0 3c c2 6e ee 3b b4 43 bd bc
       0.009873114 0.029335102 0.007276387 -0.023103572
0003e0 0c 02 0d 3d 4a e0 b9 3b 6b 2d 8b 3c ff 86 e4 3c
       0.03442578 0.0056724893 0.01698943 0.027896402
0003f0 ef c9 01 3d 4a ec 7a 3d c0 5f 15 bd 1b 0e ab 3c
       0.03168672 0.0612605 -0.036468267 0.02088075

decoders.0.decoder_net.4.bias f4 [32]
000000 0f 0f a2 3c 71 f6 92 3c e9 6b 40 bd d8 c2 77 3c
       0.019782571 0.017939778 -0.04697791 0.015122138
000010 14 0f 0f bc 74 7e 20 bc 0a 1e 08 bc 68 7b a2 3d
       -0.008731622 -0.009795774 -0.008307943 0.07933694
000020 86 2c f1 bc cf a8 5f b9 a1 3d 86 bd 46 1e b7 bc
       -0.029440176 -0.00021329823 -0.065547235 -0.022353303
000030 ed dc 18 bd bf 24 6d 3b 92 60 03 3d 04 90 88 3d
       -0.037320066 0.0036185232 0.03207452 0.06668094
000040 16 4e c9 bc 16 21 d0 3a 2f 2a ed bc b5 63 e6 bc
       -0.024573367 0.0015879001 -0.028950779 -0.028123716
000050 55 89 9e bc 21 bc 1e bd d6 33 5c 3d d1 9f 3b 39
       -0.019352594 -0.038753632 0.053760372 0.00017893246
000060 10 90 1b bd e0 08 0c 3d de cc 40 3d df 61 15 bd
       -0.037979186 0.03418815 0.047070377 -0.03647029
000070 c4 0d af bb b4 3a 88 3b 76 be 12 3d 14 5d cb bc
       -0.005342217 0.0041573886 0.03582617 -0.024824657

decoders.0.decoder_net.6.weight f4 [32]
000000 5f d9 80 3f e7 c5 72 3f 68 2b 73 3f f2 ce 7d 3f
       1.0066336 0.94833225 0.9498811 0.991439
000010 bd c1 75 3f 09 a3 7e 3f 19 55 7b 3f 55 e7 71 3f
       0.95998746 0.9946752 0.98176724 0.9449361
000020 0f c3 78 3f 7b c7 78 3f 27 84 6c 3f 03 8e 7c 3f
       0.97172636 0.97179383 0.9238915 0.9865419
000030 1e 37 7f 3f 91 75 72 3f b1 92 82 3f c1 38 74 3f
       0.9969348 0.9471064 1.0201017 0.953991
000040 17 c8 84 3f 78 3e 7c 3f 63 89 76 3f 95 8b 79 3f
       1.0373563 0.9853282 0.96303385 0.9747861
000050 76 b5 7a 3f 4d 41 80 3f 18 e7 77 3f 20 00 85 3f
       0.9793314 1.0019928 0.96836996 1.0390663
000060 cb 35 79 3f 25 c9 81 3f 7a 5e 7d 3f c5 b0 7c 3f
       0.97347707 1.013951 0.98972285 0.9870723
000070 b9 1a 78 3f b8 6c 79 3f b2 93 81 3f 72 cd 79 3f
       0.96915776 0.97431517 1.0123198 0.9757911

decoders.0.decoder_net.6.bias f4 [32]
000000 46 30 97 3d 2c 9b 88 bc 48 8b 41 3c 44 5c 30 3d
       0.07382254 -0.016675554 0.011812992 0.04305674
000010 d4 40 3d 3c be 3f 38 bd 1c fe e7 3c 18 1a b6 bc
       0.011551101 -0.044982664 0.028319411 -0.02222924
000020 eb a1 0e bd 4e c0 d3 bc d9 e9 86 3d 18 1c 91 bd
       -0.034822386 -0.025848534 0.06587572 -0.070854366
000030 d8 8a 9d bc 08 b3 f8 bc d7 71 05 bd 26 ba 36 3d
       -0.019231245 -0.030358806 -0.03257927 0.04461112
000040 31 a6 d3 3b 92 0b 66 3d 33 f8 70 bc 02 45 ab bc
       0.0064590205 0.056163378 -0.014707613 -0.020906929
000050 24 e0 e4 bb 39 22 ca bc 22 8d 3e 3b 61 3f c9 3d
       -0.0069847275 -0.024674522 0.002907582 0.09826542
000060 4d 27 2d 3c 1e 5c 2b bd 1b 38 8c bd a9 ca 76 bd
       0.010568452 -0.041835897 -0.06846639 -0.060251866
000070 34 71 c3 3c 89 29 6a bd 00 25 2f bd e7 73 b0 bb
       0.02385769 -0.057168517 -0.042759895 -0.0053849104

decoders.0.decoder_net.6.running_mean f4 [32]
000000 97 c6 03 3d c6 a1 08 3d 56 6c f0 3c 04 2b 04 3d
       0.032171812 0.033357404 0.029348534 0.032267585
000010 95 9e 00 3d 3d 71 f6 3c 1e 93 fb 3c 04 30 11 3d
       0.031401236 0.030083293 0.0307098 0.035446182
000020 79 c3 f3 3c 69 ea 01 3d 0c 7d e9 3c 77 73 fc 3c
       0.029756295 0.03171769 0.02850201 0.030816777
000030 a0 c2 fa 3c 68 d5 06 3d 2a 07 03 3d 06 be 08 3d
       0.030610383 0.032918364 0.031989254 0.033384345
000040 bc 10 fa 3c e8 11 02 3d 10 ad fa 3c 27 e4 fc 3c
       0.030525558 0.031755358 0.0306001 0.03087051
000050 a4 ce f2 3c d2 d4 e2 3c f2 c8 02 3d 3e 5c 03 3d
       0.02963955 0.027689371 0.031929918 0.03207039
000060 39 03 f0 3c ea f0 04 3d 8d 55 09 3d 2e 53 f7 3c
       0.029298412 0.032456316 0.033528853 0.03019103
000070 0e 60 fa 3c 49 e6 04 3d d6 e9 02 3d 08 b3 f5 3c
       0.03056338 0.03244618 0.031961285 0.029992595

decoders.0.decoder_net.6.running_var f4 [32]
000000 9e 2e 7c 39 8d a8 df 39 9b 2e d5 38 2f 1d 5e 39
       0.00024049959 0.00042659455 0.000101653124 0.00021182442
000010 4e 33 19 39 72 dd 31 39 8e 2d 27 39 e2 0d a1 39
       0.0001461033 0.0001696253 0.00015943332 0.00030718656
000020 7e fb b2 38 74 18 28 39 e9 2c e2 38 cc 7b 36 39
       8.5345455e-05 0.00016030838 0.00010784885 0.0001740299
000030 e0 c9 e5 38 0f dc 39 39 09 c3 1e 39 d5 e5 80 39
       0.00010957173 0.00017724953 0.0001514071 0.000245853
000040 47 c2 3d 39 25 7d 26 39 d8 fe 1b 39 f2 1c fa 38
       0.00018096819 0.00015877614 0.00014876889 0.000119263204
000050 9c fc e2 38 d5 ad f3 38 86 da 05 39 86 43 89 39
       0.00010823572 0.00011619522 0.00012765275 0.00026180985
000060 10 65 e7 38 9f bc 19 39 f0 db 29 39 76 a1 03 39
       0.00011033763 0.00014661484 0.00016199029 0.00012553282
000070 7c 6b f3 38 56 04 5e 39 b7 cb 03 39 1e c0 cf 38
       0.000116071635 0.00021173185 0.00012569023 9.906314e-05

decoders.0.decoder_net.7.weight f4 [32, 16, 3, 3]
000000 62 aa b3 bc d2 72 5e bc f6 5e 43 3d 16 2b 42 3c
       -0.02193183 -0.01357718 0.047697984 0.011851093
000010 39 15 6f bb be 92 33 3d 33 2d ed bc 06 e5 94 bd
       -0.0036481156 0.043841116 -0.028952217 -0.07270245
000020 88 6c db 3c 08 94 3c bc 06 cc e1 3c 84 7c 8a 3d
       0.02678515 -0.011509903 0.027563106 0.06762031
000030 78 93 0d bd 54 74 f6 3c 02 f0 e5 bc ac 57 3f bc
       -0.034564465 0.030084766 -0.028068546 -0.011678617
000040 d7 09 40 3d ea 86 f4 bc 2c 1a 09 3d 33 c3 3c bd
       0.046884384 -0.029849488 0.033472225 -0.046084594
000050 fb 59 ad bc 77 44 7b 3d 5d 98 0a bc c2 c9 4e bd
       -0.02116107 0.06134459 -0.008459178 -0.05048538
000060 7d 01 95 3d 21 3e d5 3c f1 48 20 bd 6d ad ac bd
       0.072756745 0.026030602 -0.039132062 -0.08431516
000070 53 5b a0 3c 9e fb 3b 3d 2b 16 6e 3d a1 78 98 3d
       0.019574797 0.045894258 0.05812661 0.07444883
000080 45 f2 c0 bd 22 ac 84 3c 97 60 9b bd b6 a9 e1 3c
       -0.09421209 0.01619536 -0.075867824 0.027546745
000090 b8 0e b9 bd 70 7b 6b 3d 7d 86 02 bc cc e9 03 bd
       -0.090360105 0.057490766 -0.007966635 -0.032205388
0000a0 7c 72 fa 3c 45 f2 be 3a 01 68 c4 bc 2f 5e 9f 3c
       0.030572169 0.0014568052 -0.023975374 0.01945409
0000b0 2d cf db bc 87 20 bc bc f6 53 1b 3d 9c b8 8e 3c
       -0.026832188 -0.022964729 0.03792187 0.017422013
0000c0 80 86 39 bd a6 50 84 3c 3d 4b 10 3d 21 80 08 bd
       -0.045294285 0.016151737 0.035228003 -0.03332532
0000d0 78 52 13 3d 6f 8f d3 3c 8c 42 90 3c 7b 1e 9c bc
       0.03596732 0.02582523 0.017609857 -0.019057503
0000e0 f9 19 92 3d c0 2e 8a bd fe 64 24 3d 09 a4 b7 3d
       0.0713386 -0.06747198 0.040135376 0.08966834
0000f0 5e 2d 76 bd 4c 67 78 ba c6 db 2d bd 3f ea 34 3c
       -0.06010186 -0.00094758417 -0.04244592 0.011042177
000100 aa 9f 95 3c eb 4a dd 3d 9d 49 db 3c 38 4f e1 3d
       0.01826461 0.10805305 0.0267685 0.11001438
000110 4b 9d 26 3d e3 66 3f 3d da c4 26 bc 60 90 58 bd
       0.04067735 0.04672898 -0.010178769 -0.05287206
000120 aa ec 41 bd 2d e8 c0 bd b9 98 e7 3c 14 ef 9c bc
       -0.04734484 -0.09419284 0.028271066 -0.01915697
000130 80 4b bb bd de b8 43 bd 04 df 63 3d 1f 55 fe bc
       -0.0914526 -0.047783725 0.055632606 -0.031046448
000140 26 6b 78 bd 5b 77 14 bd f3 a2 42 bd 75 af 0b bc
       -0.06064906 -0.03624664 -0.04751868 -0.008525719
000150 3e 48 8e 3c fb a4 d1 3b 26 db f9 3d d6 ad 87 3d
       0.017368432 0.006397841 0.12200002 0.066249534
000160 2a 78 69 3d eb a1 2e 3d 70 a4 f8 3c b0 1b 04 bd
       0.056999363 0.042634886 0.030351847 -0.032252967
000170 1a 23 56 bd ee 88 af bd de 18 99 bd ec 22 df bd
       -0.05227957 -0.08571039 -0.07475446 -0.10895333
000180 6c 84 01 3d ca 47 71 3c 77 7c 81 bd 8c 43 89 bd
       0.031620428 0.0147265885 -0.06322568 -0.06702337
000190 e3 de 9a ba 18 9f e2 bc a9 bf 04 3c 7d 1b 70 bc
       -0.0011815693 -0.027663752 0.008102336 -0.014654991
0001a0 8c 7c 19 3d 85 fd 14 bd 66 88 88 3c 8b 82 25 3d
       0.037472293 -0.036374588 0.016666602 0.0404077
0001b0 dd 77 aa 3d a0 74 3e 3d 43 85 2b bd 54 0d 91 bd
       0.08323643 0.04649794 -0.041875135 -0.0708262
0001c0 1a 2a 16 bd de 5e 1c 3d f9 ab 1f bd af 27 59 bc
       -0.036661245 0.03817641 -0.038982365 -0.01325409
0001d0 e0 98 ba bb 5e 1d 91 bd 90 56 c7 bd e8 cd e3 39
       -0.0056944937 -0.070856795 -0.09733307 0.00043450226
0001e0 0b 76 9d bd 27 78 84 3d 52 db 3a bc 6a 78 b6 ba
       -0.076885305 0.0646823 -0.011404829 -0.0013921384
0001f0 78 e4 a5 3d aa 8b 49 bb db c9 e7 3c e9 b5 b9 bc
       0.081002176 -0.0030753412 0.028294494 -0.02266975
000200 21 3a d3 3a 40 85 fb 3c ec 83 23 3b f4 f0 77 3d
       0.0016115346 0.030703187 0.0024950458 0.060532525
000210 6d f2 6a bd 16 0c 01 3d 47 50 2b bd 72 af 94 3d
       -0.0573601 0.031505667 -0.041824605 0.07260026
000220 7a b9 85 bd 68 7f 41 bd 04 d0 78 3c 33 f1 79 3d
       -0.065295175 -0.047240645 0.015186314 0.06102104
000230 cc 25 31 bd f1 d8 17 bd ac 46 40 bc ec 43 6f bd
       -0.043248937 -0.037072126 -0.0117355995 -0.058414385
000240 eb e2 b9 3c 3a d9 21 3b 91 1c a1 3d 45 7f 13 bd
       0.02269121 0.0024696128 0.07866777 -0.036010046
000250 b1 72 94 3d 48 61 8d 3d 08 92 8f 3c 5b c4 46 3d
       0.07248438 0.069033206 0.017525688 0.048527103
000260 17 1b 47 3d 92 30 b0 bb 11 96 35 3d e4 78 be 3a
       0.04860982 -0.005376884 0.044332568 0.0014531878
000270 ee d6 04 3d f9 27 55 3d d7 b2 68 3d be 0a 19 3d
       0.032431535 0.052040074 0.05681118 0.03736376
000280 09 9d 02 bd 42 34 49 bd 87 9e 44 bd f4 f0 47 bd
       -0.03188804 -0.049122103 -0.048002746 -0.048813775
000290 76 64 96 3d ee df e9 3c f5 fe 32 bd ca c2 56 bc
       0.0734338 0.02854916 -0.043700177 -0.013107965
0002a0 6d e5 3f 3d 29 cd 0b 3d 27 28 88 3b 1c 60 86 3d
       0.046849657 0.034131203 0.004155177 0.065613
0002b0 9f 22 ef 3c 5b 85 a2 3d 74 22 cc bb ff 87 bf ba
       0.029191313 0.07935592 -0.006229693 -0.0014612674
0002c0 3a e2 82 3d 33 e8 2a 3d 19 ae 10 bd f4 81 63 3d
       0.063908055 0.04172535 -0.035322282 0.055543855
0002d0 5b 1c 19 bd 7f 13 2a bd 04 27 55 3b 5c 7e 40 bc
       -0.037380558 -0.0415225 0.0032524476 -0.011748876
0002e0 c7 e2 3d 3d dc 90 2c bc 07 da 3d bd 60 25 94 bc
       0.04635885 -0.010532584 -0.046350505 -0.018084228
0002f0 94 b3 9b 3c 3a 93 3a bc 4d 90 08 bd 7e 84 8a 3d
       0.019006528 -0.011387641 -0.03334074 0.06763552
000300 15 fa 44 3d bb 75 df bc 8c 58 6e 3d cb 59 8c bd
       0.04809006 -0.027277818 0.058189914 -0.06853064
000310 94 30 0b 3a 13 c2 ad 3c 21 8e 09 bd dc 54 86 3d
       0.0005309668 0.021210706 -0.03358281 0.065591544
000320 b1 f9 0d bd 7b e6 85 3d 17 84 bd bd e1 d9 96 3d
       -0.034661952 0.06538101 -0.0925371 0.07365776
000330 04 25 ef 3c fb 30 2e bd 66 92 0f bd b3 21 1a 3d
       0.029192455 -0.04252718 -0.035051726 0.037629794
000340 92 0c b4 3c f7 92 0a bd e1 bd 31 3c fc be b1 3d
       0.02197865 -0.033831563 0.010848493 0.086790055
000350 2d a0 93 3d 76 7b 28 3c 4b 50 96 b9 eb be 33 bd
       0.072082855 0.010283342 -0.00028670052 -0.043883245
000360 a5 b3 84 bb 68 24 41 3d 4b 16 8e 3d c5 e9 5d bd
       -0.0040497356 0.04715386 0.06937846 -0.054178018
000370 a8 4f 5d bc 72 25 a0 3d 22 59 ec 3c 57 4d e7 3c
       -0.013507761 0.07819642 0.028851096 0.02823512
000380 a2 0d 8a 3c 62 64 d2 3c e0 e0 8c 3d 20 46 a0 3c
       0.016852204 0.025682632 0.06878829 0.019564688
000390 83 d9 d5 bc bf cb 20 3d 0d 83 77 bd d5 64 01 3d
       -0.026104694 0.039256807 -0.060427714 0.0315903
0003a0 35 44 72 bd 5d 08 0a 3d 58 b9 6b bd 07 b1 21 bd
       -0.05914708 0.033699382 -0.057549804 -0.039475467
0003b0 68 e4 c3 bd d8 9c 9e bd 9b 44 6b 3d 4d e7 0c bc
       -0.095650494 -0.07744759 0.057438474 -0.008600068
0003c0 af 7a 8f 3d cb a9 28 bb 28 6c 9d 3d ba de ac 3c
       0.07005822 -0.002573597 0.07686645 0.021102298
0003d0 97 9b 93 bd d0 52 83 3c 65 2a e3 bc 03 6b a8 3d
       -0.07207411 0.016030699 -0.027730176 0.08223536
0003e0 e1 a7 55 3d a3 32 89 bc d4 31 79 bd 65 0e 80 3d
       0.052162055 -0.016747778 -0.060838535 0.062527455
0003f0 36 88 a7 bc e4 2c 8d 3d 46 ab f2 bb 42 ee b6 bc
       -0.020450693 0.06893328 -0.0074056713 -0.022330407

decoders.0.decoder_net.7.bias f4 [16]
000000 47 9f dd bd 80 87 91 bd 91 6c 71 bd 5f 17 9a 3d
       -0.10821395 -0.07105923 -0.058941428 0.07523989
000010 27 65 48 3c 9c db 03 bd b0 cb de bd d0 b1 b2 3d
       0.012231148 -0.032191858 -0.10878694 0.08725321
000020 b5 96 b4 3c f3 28 07 be ab 7d 0b 3d bf 40 e4 bd
       0.022044519 -0.13199215 0.034055393 -0.11145162
000030 89 46 1b bd 6a 9a d3 3c 89 f2 a9 3d e2 4d 64 3d
       -0.037909064 0.025830466 0.08298213 0.055738337

decoders.0.decoder_net.9.weight f4 [16]
000000 52 b1 7e 3f 70 53 7a 3f 88 5b 78 3f d4 b2 78 3f
       0.9948932 0.97783566 0.97014666 0.9714787
000010 0d a0 78 3f 36 3c 7a 3f c4 57 78 3f 74 c9 79 3f
       0.9711922 0.97748125 0.9700892 0.9757302
000020 5d 96 76 3f e4 a4 76 3f ed 3e 7a 3f f4 7c 7a 3f
       0.96323186 0.96345353 0.9775227 0.97846913
000030 7a bc 77 3f f1 ea 77 3f f7 b0 78 3f f5 86 79 3f
       0.9677197 0.9684287 0.97145027 0.97471553

decoders.0.decoder_net.9.bias f4 [16]
000000 aa bb d2 bd 5e aa 05 be c7 b4 29 3e 29 57 01 3e
       -0.102897 -0.13053271 0.16572867 0.12630905
000010 64 36 e2 3d 3c 7d ae bd 3a 11 ba 3d bf f6 c3 bd
       0.110455304 -0.0851998 0.09085317 -0.095685475
000020 7c a0 77 be 2b 89 e1 3d b1 5c aa 3d f1 4a d5 bd
       -0.24182314 0.11012491 0.08318461 -0.104146846
000030 f4 32 14 3d 27 01 10 be 00 fe de bd bf 74 b6 bd
       0.036181405 -0.1406294 -0.108882904 -0.08908986

decoders.0.decoder_net.9.running_mean f4 [16]
000000 74 55 71 3d 12 ce 66 3d 3a 38 7a 3d b3 e5 89 3d
       0.058919385 0.056348868 0.061088778 0.06733265
000010 a3 6b 82 3d 28 21 82 3d 70 61 62 3d 6a e7 8f 3d
       0.06368186 0.0635398 0.055268705 0.070265606
000020 2e f6 8a 3d da 92 5e 3d e9 e9 8a 3d 5e 9a 67 3d
       0.06785236 0.054339267 0.06782896 0.0565437
000030 dd ab 70 3d ee 66 81 3d 70 9b 8a 3d 5f f8 89 3d
       0.05875765 0.063184604 0.067679286 0.06736826

decoders.0.decoder_net.9.running_var f4 [16]
000000 4f 8c 75 3a 76 32 2f 3a 2b 8e 3d 3a 5b 6d 8d 3a
       0.0009366916 0.00066832395 0.00072309625 0.0010790037
000010 04 35 52 3a 8a c0 4b 3a 9d 7e 34 3a 85 a5 84 3a
       0.0008018764 0.0007772526 0.0006885322 0.001012013
000020 b8 64 ac 3a 5e 99 03 3a a0 5d 77 3a b3 68 2a 3a
       0.0013152575 0.0005020107 0.00094362535 0.0006500587
000030 7f ee 19 3a ea 98 1e 3a cc a1 71 3a d5 5a 99 3a
       0.00058720255 0.00060500077 0.000921753 0.0011700044

decoders.0.decoder_net.10.weight f4 [16, 1, 3, 3]
000000 2d 42 42 be d2 fd ad bd d3 99 32 3e e4 27 b6 be
       -0.18970557 -0.08495678 0.17441492 -0.3557731
000010 b6 4b 69 bd 61 25 63 bd 66 6d 83 3d 41 b7 99 bd
       -0.05695697 -0.05545557 0.064173505 -0.07505656
000020 77 49 9c bd 02 b6 65 be 6c ac 8b bc 4d f7 68 3d
       -0.076312 -0.22432712 -0.01704999 0.05687647
000030 6b 51 34 be e8 a4 8d be 2a c9 5c 3d d0 39 8d be
       -0.17609183 -0.27664876 0.053902782 -0.2758317
000040 b2 4d 7d 3e ec de fd 3d 0b e9 cc bd 54 90 9b 3e
       0.2473667 0.123960346 -0.10005387 0.3038355
000050 2d af ed bd 46 c0 fd bd 9e 75 73 3e 86 88 65 3e
       -0.11605678 -0.12390189 0.23775336 0.22415361
000060 bb 69 46 be 86 40 88 3e b3 b6 d7 bd 55 ac 05 be
       -0.1937627 0.26611727 -0.10532894 -0.1305402
000070 b3 dc 5c bd c3 cb e8 bc 55 11 90 3e 23 32 f6 3c
       -0.053921413 -0.028417474 0.28138223 0.030053204
000080 4c a3 88 3e 23 ea 3d be f4 16 2f 3e 51 81 48 3e
       0.26687086 -0.18546347 0.170986 0.1958058
000090 2f 61 0d be 5d c4 71 3e ce 5b 54 3e 53 0f 76 be
       -0.13806604 0.23610063 0.20738146 -0.24029283
0000a0 c7 0c 8d 3e db 88 56 3e a0 60 8a bc 50 15 32 3e
       0.2754881 0.20950644 -0.016891778 0.17390943
0000b0 50 ec 86 3d 9e 3f 57 3d 27 f2 37 3e ec 1c 57 be
       0.06588042 0.052550904 0.17963468 -0.21007127
0000c0 a5 80 96 bd 99 83 8f bd e2 a0 87 be a8 dc f4 bd
       -0.07348756 -0.07007522 -0.2648993 -0.11956149
0000d0 d3 35 30 be 78 d1 b4 bc d2 46 8b 3e e8 21 24 be
       -0.17208032 -0.022072539 0.2720247 -0.16028559
0000e0 dc 42 74 3e 47 32 2d 3e 5f 71 0f bd 7d 2f a2 3e
       0.2385363 0.1691371 -0.03502023 0.31676856
0000f0 17 3d 68 be d1 4a 9b 3e c5 99 39 be 89 63 46 3d
       -0.22679554 0.30330518 -0.18125065 0.048434768
000100 a4 d1 b4 3c 4e 34 95 bd d0 ef 70 3e ce b9 32 bd
       0.02207262 -0.07285367 0.23528981 -0.04363423
000110 9c 72 9e be ec 2c 39 bd 07 8b 8c bd d4 31 2b 3b
       -0.30946815 -0.045208856 -0.06862455 0.002612223
000120 f9 22 62 be 13 5e 4e 3e 43 f4 48 3e 98 90 78 3e
       -0.22083654 0.20153074 0.19624428 0.24273908
000130 07 2a b7 be 6c 74 24 3e fb 6f 23 be db 53 8b be
       -0.35774252 0.16060036 -0.15960686 -0.27212414
000140 57 e8 8d bc 88 e6 2b be df 9d ae bd d0 51 88 3e
       -0.017322702 -0.1678716 -0.08526205 0.26624918
000150 d1 ad 5f bd 2e 03 4e 3e 61 b2 d2 3d e6 31 8d 3e
       -0.054609124 0.201184 0.10287929 0.27577132
000160 8e 88 4e be 33 bf 34 3c a0 2e 1f 3e 02 d6 9a 3e
       -0.20169279 0.011031914 0.1554513 0.302414
000170 0c f3 8b 3e eb 1e 6e 3e d0 c8 89 3e a9 6a 11 3e
       0.27333868 0.23253982 0.2691102 0.14200844
000180 b2 f7 1a 3e 5c b9 20 3e 01 81 82 3e 69 cd 68 3d
       0.15133551 0.15695709 0.25489047 0.05683652
000190 3b 54 ac bd 33 1d a7 bd ca 42 e5 3c 55 1d 91 be
       -0.08414503 -0.08159866 0.02798595 -0.2834269
0001a0 9d 99 1a be 15 af f0 bd 0b ad 3e bd c6 23 39 be
       -0.15097661 -0.11752144 -0.046551745 -0.18080053
0001b0 b6 b0 d8 3c ec 8a 61 3e 21 9d 90 3b 6f b5 a0 3e
       0.02645145 0.2202565 0.0044132625 0.31388423
0001c0 ad a1 5c be b7 d5 d8 3c ad 11 40 3e 4a 99 99 3d
       -0.2154605 0.026469095 0.18756743 0.07499941
0001d0 33 67 7a 3e 21 b8 19 be 54 a1 8a 3e bb cf db bc
       0.2445343 -0.15011646 0.2707621 -0.026832452
0001e0 c4 11 b0 3d f4 64 9e be a2 38 cd 3d 08 be 10 3b
       0.085971385 -0.30936396 0.100205675 0.0022085924
0001f0 43 f2 62 be a7 21 ec bd e6 0b 79 be 37 1f 54 3e
       -0.22162728 -0.11529856 -0.24320945 0.20715033
000200 51 09 9d be 2f 95 3c be d7 34 b0 be aa 24 88 3c
       -0.3067117 -0.18416284 -0.34415314 0.016619045
000210 7b 5c 3f bd 2a 10 1b be f3 f9 43 3e b6 9b 85 bd
       -0.046719056 -0.15142885 0.19138317 -0.0652384
000220 8e f5 a9 be 35 01 76 bd 55 5f a1 be 66 5c 62 be
       -0.33195156 -0.060059745 -0.31518045 -0.2210556
000230 a3 51 41 3e a4 be 54 3d b8 c2 52 bd 3a 4a 8e be
       0.18878798 0.05193962 -0.05145523 -0.27791005

decoders.1.decoder_net.0.weight f4 [512, 2]
000000 10 68 c8 be 47 9f 8f be dc 41 79 3b e5 de 7c 3d
       -0.39141893 -0.28051206 0.003803364 0.061736006
000010 ec 70 2d 3f 59 2a af 3e af c7 9e 3e b6 cd 14 bf
       0.6775043 0.34211996 0.31011721 -0.5812639
000020 33 0a ee 3e 10 c4 c6 3d 2f 5e 13 3f 7b 22 3d bf
       0.46492156 0.09705365 0.5756559 -0.7388074
000030 38 6d f6 be 34 b1 93 3e 9e de 25 bf aa 1d fd 3e
       -0.48130202 0.28846133 -0.6479281 0.49436694
000040 b9 7c 84 bd 55 93 27 bf 17 ce e9 3e b7 e8 2e 3f
       -0.064691015 -0.65459186 0.45665047 0.68323845
000050 cf 3c ce 3e 8f a8 0a 3e 78 55 94 3e d9 e6 0a bf
       0.40280768 0.13540863 0.28971457 -0.54258496
000060 aa 4a 4b 3e 15 a3 f7 be 96 f9 4d be 49 4c cc 3e
       0.19852701 -0.4836661 -0.2011474 0.3990195
000070 40 6b 2f 3e f7 3d 3e 3e fa c3 a3 3e 14 4f 20 3f
       0.17130756 0.18578325 0.31985456 0.62620664
000080 3b 27 1b 3f fa 11 1a 3f 1b 92 87 3c d6 e1 46 be
       0.60606736 0.6018368 0.01654916 -0.19422087
000090 83 63 e9 be 77 a3 d4 3e 85 7b 79 3e e2 b7 4b be
       -0.45583734 0.41530964 0.24363525 -0.19894364
0000a0 78 22 9e be 6b c1 e5 3e 0b d0 81 3e 63 76 d4 bb
       -0.30885673 0.4487413 0.25354037 -0.0064838394
0000b0 d6 27 01 3f 17 28 20 3f 5e bc 92 3e 9c 04 7a 3e
       0.5045141 0.6256117 0.28659338 0.24415821
0000c0 2e d7 f7 3e 8f 00 1d 3f 03 38 a2 be ac 13 12 3f
       0.48406357 0.6132898 -0.3168336 0.57061267
0000d0 51 c8 80 3e 0a df 1d bf a4 a6 20 be f4 c3 89 3e
       0.2515283 -0.61668456 -0.15688568 0.26907313
0000e0 a1 82 2b bd dc d6 3f be 73 b5 24 3f 48 7c 13 bf
       -0.041872624 -0.18734306 0.6433937 -0.57611513
0000f0 8a 6d 22 bf 25 3e b1 3e 38 63 84 3e 51 98 32 3e
       -0.63448393 0.34617725 0.25856948 0.17440917
000100 a0 a1 ef be f3 93 a6 3e a7 3b a0 bd 60 9a 78 3e
       -0.46802998 0.3253475 -0.07823878 0.2427764
000110 4b 31 04 3f ad 4d 0a 3e 8b 47 05 3f 1a 79 9b be
       0.51637715 0.13506193 0.5206229 -0.3036583
000120 7e 15 31 bf bd 86 7b be 3e ed a1 3d ef ef ef 3e
       -0.6917342 -0.24563117 0.079065785 0.46862742
000130 3e ec b2 be 1b bf 19 bf 22 ae 76 be 6f 49 aa 3e
       -0.34945863 -0.6005723 -0.24089864 0.3325915
000140 81 ce 21 3f f8 71 16 bf 38 92 f3 be 40 cf cc be
       0.63205725 -0.5876765 -0.47572494 -0.4000187
000150 8c e1 f5 3d b9 72 53 be ae c2 38 be 07 d6 0b 3f
       0.1200591 -0.20649232 -0.18043014 0.54623455
000160 85 ae e4 be 60 7e 2b 3f 17 9d cb 3e 98 36 b7 be
       -0.44664398 0.6698971 0.39768288 -0.3578384
000170 c0 fb 14 bd 69 9e 09 bf 1b 00 d0 3e eb 48 0a 3e
       -0.0363729 -0.5375734 0.4062508 0.13504378
000180 68 d6 8e be 27 9e c9 3d ee ee a1 be a3 14 99 be
       -0.27897954 0.09844618 -0.316276 -0.29898557
000190 b8 4c 10 bf c1 63 3f 3e ac 9f b9 3e 1d 57 93 3e
       -0.56367064 0.18690397 0.36254632 0.287774
0001a0 c7 23 20 bf f5 9f e1 3e 61 96 a9 3e 86 7d 2b 3e
       -0.6255459 0.4406735 0.33122543 0.16747102
0001b0 a7 62 6a be 3e c8 ef 3e 03 b4 a2 3e bc 66 37 bf
       -0.22889195 0.4683246 0.31777963 -0.71641135
0001c0 74 97 81 3e d1 d8 82 3e 89 bd fb bd aa 52 0d 3f
       0.25310862 0.25556043 -0.1229201 0.5520426
0001d0 79 9c 1d 3d c2 68 48 3e 47 ec f7 be 6b e7 82 be
       0.038479302 0.19571212 -0.48422453 -0.25567183
0001e0 6b d6 a4 3d bd 54 1a bf 84 57 8a bd 20 b9 95 3e
       0.080487095 -0.6028555 -0.067549735 0.29242802
0001f0 23 75 38 bd d7 28 42 be fb f2 5a 3e 56 e1 d8 3e
       -0.045033585 -0.18960892 0.21381752 0.42359418
000200 07 df 09 3f c0 c7 ab bd b3 d9 24 3d 67 14 28 3f
       0.5385594 -0.08387709 0.040246677 0.6565613
000210 e8 9e 33 3f 30 98 c7 3e 23 6d 02 bf 45 98 89 be
       0.70164347 0.38983297 -0.5094778 -0.26873985
000220 71 2d 03 3f ed 87 a3 ba 3d 2c bb 3e 93 0b 99 be
       0.51241213 -0.0012476422 0.3655719 -0.29891643
000230 25 a7 3a 3f da e1 34 3f 1a 00 05 bf 95 21 31 3f
       0.7291129 0.7065712 -0.5195328 0.6919187
000240 ad 54 f4 be c3 b0 e1 3e 43 bb 9d be ce b3 19 3f
       -0.47720852 0.4408017 -0.30806932 0.60039985
000250 e5 00 ec be 42 59 e1 3e eb 2d ab be 90 21 e0 be
       -0.46094432 0.4401341 -0.3343347 -0.43775606
000260 3b fd 12 bf 11 6a 2f bf 10 30 50 be ff 70 0d bf
       -0.5741765 -0.6852122 -0.20330834 -0.55250543
000270 68 2f 26 be f4 a6 0a bf 0b df 47 bd 7a 00 02 3f
       -0.16229022 -0.54161 -0.048796695 0.5078198
000280 fb 1f 7c 3e 15 91 f9 be 68 0e e6 3c a4 4f 14 be
       0.24621575 -0.487435 0.028083041 -0.14483505
000290 60 9c b3 3e 1f 24 17 3f 46 69 96 3e 8a b3 1d bf
       0.35080242 0.5903949 0.29377192 -0.6160208
0002a0 d1 22 1b bf cc 10 0f bf ed 27 f8 3e b7 26 81 3e
       -0.606 -0.55885005 0.4846796 0.2522485
0002b0 9d bf 2e bd e2 c7 e6 be f9 ae 74 be 5d ff a8 be
       -0.042663205 -0.45074373 -0.23894872 -0.33007327
0002c0 ba 01 20 3f 95 f9 75 be 55 62 e6 bc dd 45 aa be
       0.62502635 -0.24020989 -0.02812306 -0.33256426
0002d0 6e 51 e5 3c ab 2e 2a 3f 89 dc e9 be 3e dc d0 be
       0.02799293 0.6647746 -0.45676067 -0.4079303
0002e0 12 d7 07 3f 16 ba d0 be d7 63 bb bd e0 c5 73 3d
       0.53062546 -0.40766972 -0.09149902 0.05951488
0002f0 d4 2d 1c 3f d0 82 0d bd 7f 6c ac be a8 a2 16 3f
       0.6100743 -0.03454858 -0.33676526 0.58841944
000300 92 a5 7d 3e de 60 5f be f1 57 04 bf c0 7e cf be
       0.24770191 -0.21814296 -0.5169669 -0.4052639
000310 ef ca f4 bb ba 8d e2 3e a5 ce 14 3e 21 9f 2e bc
       -0.0074704806 0.44248754 0.14531954 -0.0106580565
000320 82 29 20 3d 94 3e 2b 3f 2a b0 ba be 82 8d e8 3c
       0.039102085 0.6689236 -0.36462528 0.028387789
000330 a9 30 26 be d1 e8 17 3f 6d d7 cc be cd 23 6a 3e
       -0.162295 0.59339625 -0.40008107 0.2286522
000340 e6 48 11 3f 83 9c 02 be 56 2f 19 bd b0 79 bd 3e
       0.5675186 -0.12755017 -0.03739866 0.37006903
000350 ea 47 c2 be 09 93 c2 be a1 ad d7 be cc e3 bc 3e
       -0.3794549 -0.38002804 -0.42124656 0.36892545
000360 b7 c0 0a bc 2b 5d b6 3e b9 e4 f1 be f5 eb 06 3f
       -0.008468798 0.35617957 -0.47244814 0.5270379
000370 bb 8d af 3d 54 eb d2 be dc 1f a7 3e 0d b7 be bd
       0.08571955 -0.41195166 0.32641494 -0.09312258
000380 75 59 6d 3e 70 62 e0 3e 4c ee 9c be 83 d6 d1 3e
       0.23178656 0.43825102 -0.30650556 0.40983972
000390 4f f4 84 3d b4 d1 06 bf bd 16 e2 be d5 be 28 bf
       0.06491911 -0.5266373 -0.44157973 -0.65916187
0003a0 89 07 73 3e 85 48 c8 3e a9 a1 e7 3b 9b 33 cf be
       0.23733343 0.39117828 0.007068832 -0.4046906
0003b0 c3 24 26 bf 75 27 b8 3e e7 92 2f bf 1b f8 04 bf
       -0.64899844 0.35967603 -0.6858353 -0.5194108
0003c0 34 76 21 bf 6c c1 a8 bc 8a f0 5d 3e 5c 68 d0 be
       -0.6307099 -0.020600043 0.2167379 -0.4070462
0003d0 ba 97 1a 3f 44 2a 31 3d 71 5e 27 3e d3 1a e7 3e
       0.60387766 0.0432532 0.1634462 0.45137653
0003e0 63 43 c0 3e 60 5c 60 be 89 4d 7d 3d 7b 61 38 be
       0.37551412 -0.21910238 0.06184152 -0.18005936
0003f0 af 16 d7 3e e7 b1 26 bf 15 e8 2c 3e 4d f5 11 3e
       0.42009494 -0.6511521 0.16885407 0.14253731
