Project2/models/model_3_10.pt (torch, 285474 bytes, 75 tensors)

prior.mean f4 [2]
000000 00 00 00 00 00 00 00 00
       0.0 0.0

prior.std f4 [2]
000000 00 00 80 3f 00 00 80 3f
       1.0 1.0

decoders.0.decoder_net.0.weight f4 [512, 2]
000000 07 eb c0 3d 50 80 80 3e 4e ef d0 3e a7 1d 6c 3e
       0.09419828 0.25097895 0.40807575 0.23058186
000010 f5 b6 30 3f 0a 8a 96 3e 7b 04 bc 3e 6c 83 2b 3f
       0.6902917 0.2940219 0.36722168 0.6699741
000020 26 4c 82 3e a5 3f 76 bd b7 7a 91 be 1f c2 9c be
       0.25448722 -0.06011929 -0.28413936 -0.30616853
000030 09 aa e7 be f5 49 30 3f 93 72 27 3e 7b 07 79 be
       -0.45246914 0.6886285 0.163523 -0.2431926
000040 d5 c9 30 bf eb a1 29 3f 0b b6 a2 be c2 77 cc bd
       -0.6905797 0.6626269 -0.31779513 -0.099837795
000050 45 7d 73 be 9c d6 82 3c e2 39 05 3f 6b a4 c7 3e
       -0.23778255 0.015971474 0.5204145 0.38992628
000060 80 b3 22 3f e3 e8 c7 be 2f aa 01 bf e8 a0 1a bf
       0.63555145 -0.39044866 -0.50650305 -0.60401773
000070 d8 c9 11 3f 53 40 09 3e 1c 79 67 3e 26 d2 1f 3f
       0.56948614 0.13403444 0.22604793 0.62430036
000080 69 11 bd 3e 3c d6 bf be 72 10 52 bd 5b 8b f6 3e
       0.36927345 -0.37468135 -0.051285215 0.48153195
000090 b3 e1 27 3f 61 44 a4 be 6d a0 bd be 2f 0f 3b 3e
       0.65578765 -0.3208342 -0.37036458 0.18267511
0000a0 eb ca 42 3e e3 76 b6 3c 5b f8 97 be 31 2e 03 3f
       0.1902272 0.022273486 -0.29681668 0.5124236
0000b0 88 69 aa be a2 42 45 3f 2d fa f2 be fc 7b f8 3e
       -0.3328364 0.770548 -0.47456494 0.48532093
0000c0 8b 58 35 bf ba 16 32 3e 91 03 0c be e9 52 03 3f
       -0.7083823 0.17391482 -0.13673235 0.51298386
0000d0 b9 10 44 be 9f 15 02 bf 62 02 8f bd d6 48 5a be
       -0.19147004 -0.5081424 -0.06982876 -0.21316847
0000e0 88 28 8d 3e 79 5e 03 bf 57 0a 8c 3e 33 c2 90 be
       0.27569985 -0.5131603 0.2735164 -0.28273162
0000f0 17 1c da 3c fe 27 12 3f 36 a2 e3 3e 82 5d 11 bb
       0.026624722 0.57092273 0.44459695 -0.002218098
000100 41 5a 4a bd cf 1b d6 3e 35 79 f0 be 8b e8 2a be
       -0.04940248 0.4181809 -0.46967474 -0.1669027
000110 8d 57 c6 bc e1 c0 20 bf ec 36 82 be c8 e5 33 3f
       -0.02421167 -0.6279431 -0.25432527 0.70272493
000120 ba 21 f7 bd 91 3b d8 be 9f 10 04 bf b0 af cf be
       -0.1206698 -0.42232946 -0.5158786 -0.40563726
000130 dd 22 10 3f f5 a9 d8 3e a7 7e 46 be 29 be dd be
       0.563032 0.42317167 -0.19384252 -0.43309143
000140 5a 1a 01 3f 09 69 c3 bd dc b9 d5 3e de 3c 11 3e
       0.50430834 -0.09541518 0.41743362 0.14183375
000150 98 5c 13 3e 4c b1 90 3d c3 79 d0 3d 9f 23 b3 be
       0.1439079 0.07065067 0.10179474 -0.34988114
000160 87 b7 06 bf 6b 4a 89 3c f4 11 bb 3d 03 ea 34 3f
       -0.5262379 0.016759118 0.09134284 0.70669574
000170 af d6 f2 be be f9 6a 3d 54 ac 78 be 86 d9 0e 3f
       -0.47429416 0.05736708 -0.24284488 0.55800664
000180 89 c6 01 bf d4 5e 12 3f 9c 16 f3 3e c0 a5 f2 3e
       -0.50693566 0.57175946 0.47478187 0.47392082
000190 d3 13 2c 3f 25 90 1f 3f ca 97 87 bd 41 fd 0b 3e
       0.6721775 0.6232932 -0.06620748 0.13670827
0001a0 ec f4 9a 3e 3f d8 28 3f 5c 3a c9 3e 9f 20 e7 be
       0.30264986 0.65954965 0.39302337 -0.45142075
0001b0 ec d2 40 be 28 98 c8 3e f2 3f 34 3d 82 d8 8b 3c
       -0.1883046 0.39178586 0.044006296 0.017071012
0001c0 2d 9e 0d 3f c9 6e 1f bf ae fe 09 bc 96 f8 a6 3e
       0.5531948 -0.6227842 -0.008422537 0.3261153
0001d0 7e 0a 50 3e 0a fc fd be 61 96 2d 3f d8 6a c0 3d
       0.20316502 -0.49606353 0.67807585 0.09395379
0001e0 50 d7 03 bf a3 75 2d bf 1c a1 be 3e 3f 4b f6 be
       -0.51500416 -0.67757624 0.37232292 -0.48104283
0001f0 20 1d 05 bf 2d 72 51 bd e9 df 9d 3e ef 0c 1f 3d
       -0.51997566 -0.051134277 0.30834892 0.038830694
000200 27 eb 79 3e 45 1e d7 bd ab 39 58 bd 43 26 0c 3f
       0.2440611 -0.1050382 -0.05278937 0.5474588
000210 5e 96 8d bc 4d bc b2 be 7e cf 6d 3d e0 72 1c bf
       -0.017283615 -0.34909287 0.058059208 -0.61112785
000220 19 06 14 3f 34 ed 24 bf e3 36 09 3e ab 37 dc 3e
       0.57821804 -0.64424443 0.13399844 0.4301122
000230 31 02 14 3f 17 96 04 3d 9f d2 19 bf 70 bd b9 3d
       0.57815844 0.0323697 -0.6008701 0.090693355
000240 cd 9e bd 3e b7 d4 2e bf 01 22 73 be 90 1f 29 bf
       0.37035218 -0.6829333 -0.2374344 -0.66063786
000250 bb 67 d8 3d 47 d5 eb be 8d 75 07 3f 6f f7 89 3d
       0.1056666 -0.46061155 0.52913743 0.06736647
000260 8a f9 ab 3e d9 99 b6 3d ae 77 02 bf 6e ee c5 be
       0.3358882 0.08916063 -0.50963867 -0.3865847
000270 b9 6f d6 3e 40 90 41 bd e4 52 2e bf 5d fb 18 bf
       0.41882113 -0.04725671 -0.6809523 -0.5975855
000280 5b 4b e2 3e 9a 5a 70 bc a5 ab 78 be c8 b3 2e bd
       0.44198117 -0.014670039 -0.24284227 -0.04265192
000290 41 77 97 3e 44 4a 3e 3e 56 e3 1d 3f a4 7b c3 3e
       0.2958317 0.18583018 0.6167501 0.38180268
0002a0 ff bb cf be ed fc 01 3f d3 9a 96 3e 2a 2e 04 3f
       -0.40573117 0.5077656 0.29414997 0.5163294
0002b0 5e 94 b3 be 73 a9 59 3e e8 60 0d 3e fd 7e 93 3e
       -0.35074133 0.21256046 0.13806498 0.28807822
0002c0 c0 f2 d3 be d0 1b 00 3f 6e 8e e3 3e 69 33 2d 3f
       -0.4139614 0.5004244 0.44444603 0.6765657
0002d0 45 08 e8 3e c3 1d 14 bf 86 6c d8 3d 43 dc 5b 3e
       0.4531881 -0.5785791 0.10567574 0.21470742
0002e0 99 2a b4 be 29 0f b2 3d 2d b1 9d 3e 83 ed 03 bf
       -0.3518875 0.08694298 0.30799237 -0.5153429
0002f0 d9 b7 1e bf 3c 57 9a 3e 59 89 90 be 78 cb 27 bf
       -0.6199928 0.3014468 -0.28229788 -0.65544844
000300 18 8e 02 3e 52 82 22 bf 5d 17 45 3e 89 ae 00 be
       0.12749517 -0.63480103 0.19247194 -0.1256658
000310 4d ca 35 bf 43 0a cd be 93 8f 12 be 0b 50 f8 3d
       -0.7101181 -0.40046892 -0.14312582 0.12124642
000320 44 2c 1a bf 87 e5 de 3e f6 3c 05 bf fa 69 ce 3d
       -0.60223794 0.4353449 -0.52046144 0.10078807
000330 76 47 e4 3e 95 12 14 3f c1 bc 98 be 56 81 24 bf
       0.4458577 0.57840854 -0.29831508 -0.6425985
000340 73 5e c9 be f8 40 65 be 91 79 e6 be 9c ec 04 bf
       -0.39329872 -0.22388065 -0.45014623 -0.5192354
000350 25 91 22 3f d4 2d 3c 3e dd 53 b1 3e c6 eb f5 bd
       0.6350272 0.18376857 0.34634295 -0.12007861
000360 0e ce e4 be 9c 09 5b be bc 01 a7 3d 8b 99 d6 3e
       -0.44688457 -0.21390384 0.08154628 0.4191402
000370 70 69 61 3c 79 e0 f4 be b7 f3 d0 be 8f 21 2b 3e
       0.013758048 -0.4782751 -0.4081094 0.1671202
000380 92 0e 9c 3e fe 27 87 bd 43 17 99 3d d2 7e 10 bf
       0.30479866 -0.06599425 0.0747514 -0.5644351
000390 98 c3 de be ad 52 45 be d4 0e fb bc ca 50 8c be
       -0.435086 -0.1926982 -0.030646719 -0.27405387
0003a0 54 ed d9 bd 7c 2e aa 3e 92 73 92 3e 8f 46 27 3e
       -0.1064097 0.3323859 0.28603798 0.1633551
0003b0 39 fa 34 3f d9 be ae 3d ce 11 8b be 46 e0 0b 3f
       0.7069431 0.08532495 -0.2716202 0.5463909
0003c0 e8 3e 0c 3f b3 89 ac 3e 4e 5d 58 be 42 5c cb be
       0.5478349 0.33698806 -0.21129343 -0.39718825
0003d0 da d2 fa 3e 82 4e f4 be f0 79 44 be b6 b9 22 bf
       0.48988992 -0.47716147 -0.1918714 -0.6356462
0003e0 e6 69 d0 3e 88 4a b5 3e b5 54 65 be 2c 77 a5 bd
       0.40705794 0.35408425 -0.22395594 -0.08079371
0003f0 6f e7 41 be 81 1a 41 3d 65 d4 2a 3f dd 8c 1c 3f
       -0.18935941 0.047144417 0.6673034 0.6115244

decoders.0.decoder_net.0.bias f4 [512]
000000 59 f0 06 3f 21 63 b7 3e 2c f6 ee be c3 b8 55 be
       0.5271049 0.35817817 -0.4667219 -0.20871262
000010 2e 17 be be 7a dd cd 3e 0e f0 e5 3e 10 4c 70 3e
       -0.3712706 0.40208036 0.4490971 0.23466516
000020 60 11 ae be 57 47 0a bf 83 3f e9 3e da e6 74 be
       -0.3399763 -0.54015106 0.45556268 -0.23916188
000030 51 c7 a2 3e 0a fd 97 be ff f1 29 3f df 3d 57 be
       0.3179269 -0.2968524 0.6638488 -0.21019696
000040 a3 3d 27 bf 12 8f 1e be 6a 6c 32 3f ca 74 c6 be
       -0.65328425 -0.15484264 0.69696677 -0.38760978
000050 d4 8d 2f 3f 1e b0 1b bf ce 62 b7 be 72 c4 36 bf
       0.6857579 -0.6081561 -0.3581757 -0.713935
000060 90 54 ad be 0c df 21 3f 15 6a 79 be e1 c8 bc be
       -0.3385358 0.6323097 -0.24356873 -0.36872008
000070 ba 66 d1 be d3 dd c0 be 88 af d2 3d 24 07 4b 3e
       -0.40898687 -0.37669238 0.10287386 0.19826943
000080 dc c7 d8 be b3 a6 14 bf cf ef e2 be 79 ab c3 bd
       -0.4233998 -0.5806686 -0.44323584 -0.0955419
000090 36 ce 35 bd 3f 5c c4 3d e4 53 d3 3e be 33 0f bf
       -0.04438611 0.09587907 0.4127494 -0.5593833
0000a0 8e db 58 3e 51 3d 2a be 66 6c 35 3f 98 e1 da 3e
       0.21177503 -0.16624953 0.7086853 0.4275024
0000b0 19 9a a5 be 97 0b 7b be dc 3d f0 be 4f 0c 19 3c
       -0.3234413 -0.2451614 -0.46922195 0.0093413135
0000c0 f6 e0 f4 bd 9c 55 12 3f d2 70 be bc 71 0f 1a 3f
       -0.119569704 0.5716188 -0.023247156 0.6017981
0000d0 50 9d d5 be 0e 55 8b 3e 81 cd 9a be a1 d0 1a 3f
       -0.41721582 0.2721333 -0.30234912 0.6047459
0000e0 ff 91 f5 3e 3d 43 b8 be 06 c7 13 3f be d3 0f 3f
       0.4796295 -0.359888 0.5772556 0.5618247
0000f0 9a ba 3b be c4 c1 8d be 15 35 d6 3e bd c1 c0 be
       -0.18332902 -0.27686894 0.41837373 -0.3764781
000100 46 c1 29 3f 30 59 a5 3e aa 47 2f bf 4a 62 14 3f
       0.66310537 0.32294607 -0.68468726 0.5796248
000110 58 ac e3 be ca 3f e1 3e e8 ea ea be 20 5b 1c 3e
       -0.44467425 0.4399398 -0.45882344 0.15269136
000120 91 46 1c 3f 0a 56 33 3f 9d 5f d5 be 5a 9d f1 be
       0.61045176 0.7005316 -0.4167451 -0.47190362
000130 87 f6 b9 3e fc 1b cc be 99 a8 15 3f f5 59 04 bf
       0.36320898 -0.398651 0.58460385 -0.51699764
000140 a3 14 24 bf 00 b2 78 3e 9a 0a 0d 3f 98 fd 68 3d
       -0.6409399 0.24286652 0.550943 0.05688247
000150 6e e8 0e 3f 1c 67 bb 3d 3a 1b a9 3e 3f 9b 16 bf
       0.5582341 0.09150526 0.33028585 -0.58830637
000160 5c fe 2f 3d 34 e2 0f be a4 1e 7e 3e 85 e8 0e 3f
       0.042967185 -0.14051133 0.24816376 0.55823547
000170 1a e9 0c bd c7 72 17 3f ae 8e 21 3f 90 23 b6 be
       -0.03440199 0.5915951 0.63108337 -0.35574007
000180 a7 79 d4 3e aa 24 ef be 77 ce f4 3e 94 34 2a bd
       0.41499063 -0.4670766 0.4781377 -0.04155405
000190 bf a5 22 3e 59 3e 09 3d 36 49 2c bf ae 01 05 bf
       0.1588354 0.033506725 -0.6729921 -0.5195569
0001a0 20 af 20 3f 56 58 84 3e 7f 63 d8 be 1d 4c 12 bf
       0.6276722 0.25848645 -0.4226341 -0.5714739
0001b0 48 d4 87 3d b8 67 2e bf 0b 75 1e 3f f1 56 22 3d
       0.06632286 -0.6812701 0.61897343 0.039633695
0001c0 d7 6c bc bc 28 2a a2 3d ea 25 2a 3f d0 c3 04 3f
       -0.023001118 0.07918197 0.664641 0.51861286
0001d0 ba 99 69 bb 88 77 f3 3e ec e2 8f 3e 45 aa 20 3f
       -0.0035644607 0.47552133 0.28102815 0.6275981
0001e0 e6 99 4c be 04 bf 8a be b7 09 31 3f 9b d4 38 be
       -0.19980583 -0.27098858 0.6915545 -0.18049853
0001f0 bf 1e cb be bb 2e af be 11 83 ce 3e 1e 30 1b 3e
       -0.39671895 -0.3421534 0.4033437 0.15155074
000200 cc a3 24 3f 4f cc 2f 3f a4 12 13 bf 77 32 16 bf
       0.64312434 0.68671125 -0.5745032 -0.58670753
000210 dd 10 e2 be 9c cd 09 bf 2f 87 64 3e 71 1c 09 bf
       -0.4415349 -0.5382936 0.22317193 -0.53559023
000220 0a 8f 77 3c 86 48 15 be f1 be 24 3d 78 06 56 3e
       0.015109787 -0.14578447 0.04022116 0.20900905
000230 d8 00 25 3f 5b 7f 4a 3e a4 a5 29 bd b3 df ea be
       0.6445441 0.19775145 -0.041417733 -0.45873794
000240 9b 66 60 3d 4f 77 18 be 4f 16 0f bf 3c 6f a7 3d
       0.054785352 -0.14889263 -0.55893415 0.08175513
000250 82 ac 29 bd 52 fa 27 3f 66 dd 0e 3f 07 e1 bd be
       -0.041424282 0.65616333 0.5580658 -0.37085745
000260 53 66 10 bf 6b 1d 3e be 90 80 f3 3e 06 d7 4b 3e
       -0.56406134 -0.1856591 0.47559023 0.19906244
000270 eb e5 84 bd c6 bc 28 bf 4a 81 22 3f c5 71 c7 be
       -0.06489166 -0.65913045 0.6347853 -0.38953987
000280 2c c4 16 bf 37 a3 07 3f 1a 30 8d be 9f da e8 be
       -0.58893085 0.5298342 -0.2757576 -0.45479295
000290 61 29 2d 3e ef 54 2c bf 60 58 05 3f 7e c3 8c 3d
       0.16910316 -0.673171 0.52087975 0.06873225
0002a0 c5 a5 22 3f 22 79 12 3f a3 09 e2 be f0 9f 89 3e
       0.63534194 0.57216084 -0.44147977 0.26879835
0002b0 38 79 2e bf b4 e4 29 bf 35 c9 d4 be 9a 1f 0a 3f
       -0.68153715 -0.663646 -0.4155976 0.5395447
0002c0 bc 06 99 3d fb 9f fa bd 8f 6d 0d bf 22 da 30 3f
       0.074719876 -0.12237545 -0.552453 0.69082844
0002d0 2e 60 27 bf ef 87 9e be c2 1d 0e 3e f9 61 16 3f
       -0.65381134 -0.30963084 0.13878539 0.58743244
0002e0 2a ad 6c 3e 63 f2 c4 be d2 4f c7 be 85 f6 c6 3e
       0.23112932 -0.38466176 -0.38928086 0.38859954
0002f0 5e 88 7a 3d ec af 4f 3e e4 60 85 3e 46 31 a8 3e
       0.061165206 0.20281953 0.26050484 0.32850093
000300 2f 3a 3b bf 04 3a d5 3e 13 ff 29 3f ac 9e 15 bf
       -0.73135656 0.41645825 0.6640484 -0.5844524
000310 4e 6a 0d 3f 03 41 30 bf 2b 68 24 be 4b 83 b0 be
       0.55240333 -0.688492 -0.16055362 -0.3447517
000320 e8 c8 b7 be 8f 04 32 be 27 cc 4b 3e 96 75 1e bf
       -0.35895467 -0.17384551 0.19902097 -0.6189817
000330 83 23 b6 be 01 13 0c bf 13 ea 84 bd b6 6a 9a be
       -0.35573968 -0.547165 -0.064899586 -0.3015954
000340 43 b5 26 bf 00 02 07 bf 4a 89 25 bf dd c2 34 bd
       -0.65120333 -0.52737427 -0.6466261 -0.04413115
000350 6a 5b a0 be fc d9 f0 be a3 a6 19 3f 85 76 28 3f
       -0.31319743 -0.4704131 0.6001989 0.65805846
000360 27 31 d8 3d 10 39 a9 3e 1e 93 1c bf 1c 88 05 be
       0.1055625 0.33051348 -0.61161983 -0.13040203
000370 f9 a0 c8 be 0a 6e 4f be b0 f8 f9 3e ae 2b e8 3d
       -0.39185312 -0.2025682 0.48822546 0.11336456
000380 d8 97 45 be 73 16 16 3f 92 4a fc 3e 4e 70 c9 3b
       -0.19296205 0.58628005 0.49275643 0.006147421
000390 1b f0 9a bd 91 7f d3 3e a5 19 29 bf c6 69 82 3e
       -0.07565328 0.41308263 -0.66054755 0.25471324
0003a0 34 5b 8c bd 83 bc 0f 3f 2c e9 b6 bd f3 55 79 3e
       -0.06853333 0.5614702 -0.08931193 0.24349193
0003b0 91 b2 a9 3e 7f ff ce 3e e2 13 6e be 18 2a d5 3e
       0.33144048 0.40429303 -0.23249772 0.41633677
0003c0 ee 4a f8 3d 70 69 ad 3e fd f0 0b bf 98 c8 24 bf
       0.12123667 0.33869505 -0.54664594 -0.6436858
0003d0 ea 8d 9e 3e 06 18 2a 3f 16 82 25 3e 9b 8e 18 bf
       0.30967647 0.66442907 0.16162905 -0.595926
0003e0 cf 93 dc 3e ee b9 f7 be e2 46 a8 3e 16 78 e4 be
       0.4308152 -0.4838404 0.3286658 -0.44622868
0003f0 e2 32 0a bf aa 16 8f bd d4 2b 1c bf 00 7b 98 3e
       -0.5398389 -0.06986745 -0.61004376 0.29781342

decoders.0.decoder_net.3.weight f4 [32]
000000 01 4e 7e 3f f1 dc 85 3f d9 30 82 3f fe d2 79 3f
       0.99337775 1.0458051 1.0171157 0.97587574
000010 b2 06 78 3f 33 e8 7c 3f bd de 81 3f fd c9 81 3f
       0.96885216 0.9879181 1.0146099 1.0139767
000020 e1 bb 72 3f c6 1a 7e 3f 1c 70 7c 3f 6f 62 79 3f
       0.9481793 0.99259603 0.98608565 0.9741582
000030 d3 12 81 3f 7a 7f 82 3f 6f ec 80 3f c0 7d 81 3f
       1.008387 1.0195153 1.0072154 1.0116501
000040 b0 73 81 3f 83 a0 75 3f 0c f8 80 3f aa 4d 82 3f
       1.011343 0.95948046 1.0075698 1.0179951
000050 71 e9 76 3f d9 b1 7d 3f a3 1d 81 3f b3 43 7f 3f
       0.96449953 0.990995 1.008717 0.99712676
000060 f4 f5 7b 3f b3 f9 7a 3f 2c 97 7e 3f 47 4c 7d 3f
       0.9842217 0.9803726 0.9944942 0.98944515
000070 da 6d 80 3f f4 14 7d 3f d8 02 83 3f 65 c4 79 3f
       1.0033524 0.98860097 1.0235243 0.975653

decoders.0.decoder_net.3.bias f4 [32]
000000 74 57 c3 b9 95 b8 71 bb 20 6d 72 bc 61 de cc 3b
       -0.00037258456 -0.00368837 -0.014796525 0.0062520956
000010 8e 06 f2 3b eb 5e 0c 3c ca 29 4e 3c d7 d2 38 3c
       0.0073860353 0.008567552 0.0125832055 0.011280737
000020 ef ce e8 bc 29 71 c3 bc 96 e9 d2 3c 0d 86 0e 3d
       -0.028418986 -0.02385767 0.025746148 0.03479581
000030 51 76 a8 bc a2 99 c5 bb a0 d2 f6 3c 36 f7 26 bc
       -0.02056423 -0.0060302773 0.03012973 -0.010190776
000040 dc ac 20 bc f8 6c 19 bc 75 cd ab 3c 9a 2b 6a bd
       -0.009806838 -0.009364359 0.020971993 -0.057170488
000050 56 99 a4 3c a2 30 ab bb be e6 6a 3c 7a d6 a1 3c
       0.020092648 -0.0052243033 0.01433724 0.01975559
000060 cc 51 20 3c ea 89 dc 3c 6c 54 18 bb 1e 0e 9c bc
       0.009785127 0.026921231 -0.0023243679 -0.0190497
000070 8b 7c 09 bd be 58 4a bc 4b d6 f0 3c b3 e6 a6 3b
       -0.03356604 -0.012350259 0.029399058 0.0050934195

decoders.0.decoder_net.3.running_mean f4 [32]
000000 77 a7 02 3d 9a 6e e9 3c 30 ab bb 3c 51 10 29 3d
       0.03189799 0.028495122 0.022908777 0.041275326
000010 13 a2 46 3d 0c d0 01 3d 3b 33 e8 3c 6f 6d 19 3d
       0.04849441 0.03169255 0.028344741 0.03745788
000020 5a 53 e6 3c 20 f9 0a 3d ef cd 20 3d 4d 85 0b 3d
       0.028115917 0.03392899 0.039258894 0.034062672
000030 c6 6b 9f 3c 68 a8 09 3d 9b 46 0d 3d f9 45 d0 3c
       0.01946057 0.03360787 0.034491163 0.02542399
000040 58 94 ee 3c 67 51 1a 3d 2e 47 d3 3c 43 77 f7 3c
       0.02912347 0.037675288 0.025790777 0.030208236
000050 f0 d8 12 3d cd fe fd 3c 3e 82 37 3d 5e 83 18 3d
       0.03585142 0.031005288 0.044801943 0.037234657
000060 2b 5a df 3c 20 8d b8 3c 15 2d a8 3c ff 09 1e 3d
       0.027264675 0.022528231 0.02052931 0.03858375
000070 87 a1 db 3c fa 54 8c 3c ea a6 07 3d de e9 bf 3c
       0.02681042 0.017130364 0.033118166 0.023426946

decoders.0.decoder_net.3.running_var f4 [32]
000000 44 42 0a 3b 1e 64 ae 3a fd a9 ad 39 cc b9 c1 3a
       0.0021096626 0.0013304984 0.00033123782 0.0014780103
000010 51 9d 09 3b 10 6d b7 3a 29 c3 39 3a d0 3a a4 3a
       0.002099831 0.0013994295 0.0007086271 0.0012529735
000020 94 91 18 3a a9 05 88 3a 28 1c 21 3b 03 4d e2 3a
       0.00058200327 0.0010377663 0.0024583433 0.0017265383
000030 11 3f 93 39 8c ab 62 3a 4c 5c 85 3a 3c 1b 98 3a
       0.00028085013 0.00086467783 0.0010174601 0.0011604796
000040 95 33 4a 3a b8 8a dd 3a 6a 8c 04 3a 00 4e 02 3a
       0.0007713375 0.0016902303 0.0005056324 0.00049707294
000050 54 00 ad 3a 40 b9 83 3a 27 3e 11 3b da d1 96 3a
       0.001319895 0.0010049716 0.002216229 0.0011506632
000060 9f 11 c3 39 1b 3a fd 39 05 4f 67 39 b6 87 9c 3a
       0.00037206427 0.00048299212 0.00022059314 0.00119423
000070 12 8e 86 3a 11 f0 4d 39 68 4b 48 3a 9f dc 06 3a
       0.0010265729 0.00019639755 0.0007640631 0.00051445694

decoders.0.decoder_net.4.weight f4 [32, 32, 3, 3]
000000 36 8a 4d 3d e6 cb 01 bd ea 3b d1 bb 97 68 ed 3c
       0.050180636 -0.031688593 -0.006385316 0.028980536
000010 2e 37 1b 3c 34 9e 2b bc d0 6a 00 bd c0 70 8d 3d
       0.009473605 -0.01047473 -0.031351864 0.06906271
000020 e6 b8 26 3d a3 2a 34 3c c0 eb a0 3d f7 6a 55 bc
       0.040703677 0.0109964935 0.07857466 -0.013025991
000030 25 be c7 bd 02 ce 91 bc 59 a6 5a 3c c2 1c 83 3d
       -0.09753064 -0.017798427 0.013345324 0.064019695
000040 a4 22 a2 bd 71 8e 38 bd 3f 3b 52 bc 53 2d 75 bd
       -0.079167634 -0.045057718 -0.012831508 -0.059857678
000050 ce 56 43 bd 1a 29 c7 bb 16 90 47 3d f8 fb 89 3c
       -0.047690205 -0.0060778977 0.048721395 0.01684378
000060 d6 3e 1f 3d 39 41 75 bd 41 5c c5 3c 7b 3f 26 bd
       0.038878284 -0.059876654 0.024091842 -0.040587883
000070 53 c2 39 bc b9 5c 52 3d 65 85 de 3c f3 4f 74 bc
       -0.011337834 0.05135796 0.027163217 -0.0149116395
000080 77 0a 7a 3c 4d 7b 80 3c 50 6c 4f 3d 8a a9 e5 bc
       0.015261284 0.015683794 0.050640404 -0.028034944
000090 e6 e7 a5 3a 6b b2 db 3c ac ec 50 bc a8 35 8d bd
       0.0012657612 0.026818475 -0.0127517395 -0.06895
0000a0 c6 8d 1f bc 18 14 58 3c 0b a3 79 bd 66 97 94 bb
       -0.009738391 0.0131883845 -0.060946506 -0.0045346497
0000b0 2a 38 99 3c c7 ec 00 bd 78 a4 04 bc 63 55 08 bc
       0.018703539 -0.03147581 -0.008095853 -0.008321139
0000c0 6b fe 59 bd f5 7a ac ba 23 3b 79 3d 75 75 0a bd
       -0.053221148 -0.0013159203 0.060847413 -0.033803422
0000d0 25 35 98 bd 36 f4 82 3d 80 18 71 bd 95 56 6d 3c
       -0.074320115 0.06394236 -0.058861256 0.014485975
0000e0 e1 c1 af 3c 6c 3b 37 bd 8d bf 59 bd aa 2d 66 bd
       0.021454753 -0.044734403 -0.053161193 -0.056195892
0000f0 b9 60 59 bd bd 41 91 bc 89 0e 81 bd 14 ac 43 3d
       -0.053070758 -0.017731542 -0.063016005 0.04777153
000100 7f 3f 51 bb ec a2 8e bd 58 d8 30 3d 9a 9e a6 3b
       -0.0031928716 -0.06964669 0.04317507 0.0050848247
000110 71 d3 b7 bb 24 f3 19 3c e0 0a b7 3d cc c6 a9 bc
       -0.0056099226 0.009396348 0.08937621 -0.020724677
000120 9a 2b 6b 3c aa 47 d2 bc 47 b8 9f bb 81 db 3d 3d
       0.014353657 -0.025668938 -0.0048742625 0.046351913
000130 b0 53 eb 3c b9 6a 48 bd 39 eb 6b 3c c3 07 64 bd
       0.028726429 -0.048929904 0.014399343 -0.055671465
000140 eb 2f 38 bb 61 e3 49 bd 30 ca d0 bc 9d 30 ed bc
       -0.0028104733 -0.04928911 -0.025487036 -0.028953845
000150 44 79 97 bc 52 7b 84 3d ad 88 0d 3d 5b bc c1 bc
       -0.018490441 0.06468834 0.034554172 -0.023649385
000160 f2 14 43 bd 97 58 9b 3d 61 85 0a 3d 78 56 9e 3b
       -0.047627397 0.075852565 0.033818606 0.004832085
000170 5d 98 20 bd 5b 13 37 bc e1 33 9b bc 9f 72 4b bd
       -0.039207805 -0.011174048 -0.018945636 -0.049669858
000180 ed 2f 7b bc b9 8d 8b 3c 31 d9 fa 3c 37 3a 93 3c
       -0.015331251 0.017035352 0.030621143 0.017972095
000190 76 b3 94 3c ae d1 0e 3c ce f7 86 3d e3 fa 03 bd
       0.01815198 0.008716984 0.06590234 -0.032221686
0001a0 b6 6b 3b 3d c4 07 73 bd ac 0e 0f 3a e1 c1 3d bc
       0.045757018 -0.059333578 0.00054572034 -0.011581869
0001b0 62 83 de 3c d5 13 d6 bc 95 b4 a9 bb ea a8 ec bc
       0.027162258 -0.026132504 -0.0051789978 -0.028889138
0001c0 23 6d 51 bd d9 3d 27 bd 96 6a 44 bb 2a 8d 22 ba
       -0.05112947 -0.040830467 -0.0029970757 -0.00062008447
0001d0 85 ac c4 bc c9 dc 74 bd 4b c6 21 3d b9 e5 b2 38
       -0.024008045 -0.05978087 0.039495748 8.5304906e-05
0001e0 3d c3 b0 bc 1a c2 65 3b 42 6c 8f bc f3 70 ba 3c
       -0.021577472 0.003505832 -0.017507676 0.022758937
0001f0 f0 d6 e7 3c 4c 9c 4a 3d 80 ec ff 3c 37 d4 ce 3c
       0.028300732 0.049465463 0.031240702 0.025247676
000200 e5 73 61 3d 98 96 1c 3d f3 66 1d 3d 3d 2c 07 bc
       0.055042166 0.038229555 0.03842826 -0.008250293
000210 d1 87 f8 bc 36 f0 dd 3c c3 92 41 3c df 6a 60 3d
       -0.0303382 0.02709208 0.011814776 0.05478942
000220 89 ff 95 3c e8 ea 2b bc 45 8c 87 3c 13 33 d0 bc
       0.018310325 -0.010493018 0.016546378 -0.02541498
000230 54 9f 18 bd 0d d8 de 3c 96 a8 4e 3c 4c ac 10 3c
       -0.037261322 0.02720263 0.012613436 0.008830141
000240 77 f1 0a bd 3d ba 9f bd 19 63 4c bb b0 63 99 3d
       -0.033921685 -0.07799194 -0.0031186996 0.07489717
000250 a8 54 1e 3d 27 fc 69 bd 7c 8e 8c 3c be 40 07 bd
       0.038654953 -0.057125237 0.017157786 -0.033020727
000260 e2 f2 7f 3c 02 90 ff 3c e5 b0 4c 3d 4c 36 6c bc
       0.015621873 0.031196598 0.049973387 -0.014417242
000270 1e 12 6b 3b 12 df 20 bd 30 85 52 3d 4b 56 2b 3d
       0.0035868953 -0.039275236 0.05139655 0.041830342
000280 38 e2 2a 3d 48 cb 94 bd 6a 11 55 bd 9f 18 16 bd
       0.041719645 -0.07265335 -0.05201856 -0.036644574
000290 b5 c1 81 3c 08 e9 de 3c 6b 18 40 3d 10 d7 0f 3d
       0.015839437 0.027210727 0.046898287 0.03511721
0002a0 27 30 0a bb 14 b7 58 3d 1e 27 4e 3c 39 8f d6 bc
       -0.002108583 0.052908972 0.012582568 -0.02619134
0002b0 94 fd 97 bc b5 34 ce bc c3 1c 19 bd 82 ba 24 3b
       -0.018553533 -0.025171617 -0.037380945 0.0025135581
0002c0 ef 89 c4 3c ec 64 e9 3c 06 35 55 bc 0f b4 6d 3d
       0.023991553 0.028490506 -0.01301313 0.058033045
0002d0 b2 fa 00 bc ae ff 18 3d ef f9 e6 3c e9 e9 3b 3d
       -0.00787227 0.03735321 0.02819535 0.04587737
0002e0 5e ac 24 bd a1 ff 91 bb 32 ce 95 3c 3d 9c 66 3c
       -0.040203445 -0.004455522 0.018286798 0.014075336
0002f0 fc 3c 12 bd 14 58 c4 bc 5f 23 73 3d 5b 33 a5 3d
       -0.03570269 -0.02396778 0.059359904 0.08066436
000300 7a 82 9e bc 15 d4 fd bc 56 42 f8 3b 29 ab 46 3d
       -0.019349325 -0.030984918 0.0075762672 0.048503075
000310 e9 40 0f 3b f5 d0 4c bd 6c 8e 87 bc 21 72 0d bc
       0.0021858758 -0.050003964 -0.016547404 -0.0086331675
000320 11 b5 38 bd e7 04 b8 3c f7 c7 dd 3c 61 76 ac bc
       -0.045094553 0.022463275 0.02707289 -0.021052541
000330 56 a8 a0 bd 99 54 30 3d 9d d6 84 bd dc 48 b6 bd
       -0.078446075 0.04304943 -0.06486247 -0.089006156
000340 5d 81 15 3d 61 55 35 3d 5e 5f 08 bd 6d 31 45 3d
       0.036500324 0.044270877 -0.033294074 0.04814284
000350 95 d6 83 bc 92 24 00 bd 2a 65 05 bd 78 1a 1f bd
       -0.016093532 -0.031284876 -0.03256718 -0.038843602
000360 f7 71 16 bd f9 94 63 3c 71 ca 2f 3d 9a 91 80 3d
       -0.03672978 0.013890498 0.042917673 0.06277771
000370 25 eb 87 3c 0f 8f 0e bb 7f be d1 bc 1c 3a 6a bd
       0.016591618 -0.002175275 -0.02560353 -0.057184324
000380 43 6b 90 3d 5a 99 22 bd 97 f4 58 bd 38 eb ff 3c
       0.070517085 -0.03969703 -0.052967634 0.03124009
000390 18 d9 c4 3b 20 10 cf bc 4f 82 e5 bb ca bb 4d 3d
       0.006007325 -0.025276244 -0.0070040594 0.050227918
0003a0 98 45 85 bd 09 72 12 3b 73 c4 47 bc 03 4d 12 3d
       -0.065074146 0.0022345802 -0.012192833 0.035717975
0003b0 6f a4 9a 3d 0f c2 0b 3d 62 91 1c bd cc 54 23 3d
       0.075508945 0.034120616 -0.038224585 0.03987579
0003c0 d3 d3 3e bd a9 f4 22 3d 2f 7c 4b bd dc 98 60 bd
       -0.04658873 0.039784107 -0.049678978 -0.054833278
0003d0 05 2b 16 bd b2 03 51 3d bf b7 af bc 1e ce 10 3c
       -0.03666212 0.051028915 -0.021449922 0.008838205
0003e0 95 04 8d 3c 1c 91 f4 3b 2a 62 6b 3d 3c ac 5d 3a
       0.017214099 0.0074635874 0.057466663 0.0008456146
0003f0 fe f1 6f bd af cf 32 3d b9 e0 7f bd 42 a6 94 3c
       -0.05858039 0.043655094 -0.06247017 0.018145684

decoders.0.decoder_net.4.bias f4 [32]
000000 2e 9e a8 bd aa 14 76 bd 83 95 d4 bd 42 04 64 3c
       -0.082332954 -0.0600783 -0.103800796 0.013917031
000010 3d 9a 31 bc c4 ad e6 bc e9 a8 07 bc 39 3b b1 bb
       -0.010839996 -0.02815903 -0.008280017 -0.005408671
000020 60 74 7b 3c 0c 60 cd bb d9 c3 a0 bc 61 3d 4f bc
       0.01534757 -0.006267553 -0.019624637 -0.012648911
000030 92 7b b1 bc 5f 78 52 3d 8e 6e 0c 3b a2 ef 63 3c
       -0.021665368 0.051384326 0.00214282 0.013912113
000040 fd 5f 4b bc a3 75 a9 3d 3d c3 76 3d 4e e7 8b 3c
       -0.012413022 0.082743905 0.060244787 0.017078068
000050 2d b1 89 bd 1a 65 1b bc f5 b1 d2 3b 2d ab 7b bd
       -0.06723247 -0.009484554 0.0064299055 -0.061442543
000060 70 40 e2 3a 99 b7 b7 bb ea dd 17 bd 22 bc 78 3d
       0.0017261636 -0.0056066033 -0.037076868 0.060726292
000070 7a 58 1c 3c 0c 6d 1a bd 0e 83 08 3d 6e 6f b5 3b
       0.009542579 -0.03770165 0.03332811 0.005536965

decoders.0.decoder_net.6.weight f4 [32]
000000 86 0b 76 3f b7 31 73 3f 07 5d 7a 3f c3 8a 74 3f
       0.96111333 0.94997734 0.977982 0.95524234
000010 65 08 72 3f 29 c5 77 3f ac 1c 75 3f aa 70 82 3f
       0.9454406 0.9678522 0.95746875 1.0190632
000020 7f b2 7f 3f e1 18 7a 3f 83 1e 76 3f 67 71 6f 3f
       0.9988174 0.9769421 0.9614031 0.93532413
000030 35 f9 7e 3f 22 b8 80 3f 4d 92 6e 3f 8c 71 72 3f
       0.9959901 1.0056193 0.9319199 0.9470451
000040 f8 34 80 3f d4 99 80 3f b7 d6 7d 3f cc 05 76 3f
       1.0016165 1.0046945 0.99155754 0.96102595
000050 38 8d 77 3f 86 4d 7a 3f cb 41 7f 3f 21 29 76 3f
       0.9669986 0.9777454 0.9970977 0.9615651
000060 a1 a5 7f 3f 40 e7 7d 3f 94 47 75 3f e9 20 76 3f
       0.99862105 0.99180984 0.95812345 0.96143967
000070 95 1a 7b 3f 7d 3d 7a 3f d2 40 79 3f a1 27 78 3f
       0.98087436 0.97750074 0.9736453 0.9693547

decoders.0.decoder_net.6.bias f4 [32]
000000 69 d1 47 3d 49 96 2c 3d 41 1c 57 3d a7 5e 4a bc
       0.048783693 0.04213551 0.05251718 -0.012351668
000010 1b 13 cf 3b 71 18 24 bd c7 74 fe bc 4e 5d e9 3c
       0.006319416 -0.04006237 -0.031061543 0.028486874
000020 c7 6d c9 bc 1e c8 ab 3c 32 29 0a bd b6 98 3e bc
       -0.024588479 0.020969447 -0.033730693 -0.011633089
000030 20 10 8e 3b 62 92 94 bb 48 ca 2a 3d 66 d1 2e bc
       0.0043354183 -0.0045340518 0.041696817 -0.010670042
000040 ef de 71 3b d8 fe 93 bc 85 79 1a 3c c9 dc a9 bc
       0.003690656 -0.018065855 0.009428387 -0.020735161
000050 6e 14 87 ba 3e d7 86 3c 4a ec 0e bd ec 34 75 bd
       -0.0010305771 0.016460057 -0.03489331 -0.059864923
000060 24 98 b1 3c 87 dc 3b 3d e1 7b 41 3c b7 3a 83 3c
       0.021678992 0.04586461 0.01180932 0.016019208
000070 bd d4 4a bc 4c b5 3b ba 29 de 93 bc 2f 96 71 3c
       -0.012379822 -0.0007160499 -0.01805027 0.014745279

decoders.0.decoder_net.6.running_mean f4 [32]
000000 9a 35 eb 3c fc a5 ec 3c ea f6 ec 3c 9b e3 02 3d
       0.028712083 0.028887741 0.028926332 0.031955343
000010 99 9b 01 3d 2f 44 f9 3c c8 de fa 3c 76 62 f5 3c
       0.03164253 0.03042802 0.030623809 0.029954176
000020 0e 32 04 3d 0b 24 f5 3c 56 58 01 3d 8c af 03 3d
       0.0322743 0.029924413 0.031578384 0.032149836
000030 67 95 ff 3c b3 60 08 3d cf ee fb 3c 16 37 fc 3c
       0.03119917 0.033295345 0.030753521 0.030787986
000040 76 8d fe 3c d0 fd 0d 3d 32 6d 09 3d 72 5f 03 3d
       0.031073313 0.034665883 0.033551402 0.032073446
000050 29 2c f7 3c 34 48 02 3d dd 1a fa 3c b2 9e f2 3c
       0.030172424 0.03180714 0.030530388 0.029616687
000060 99 24 00 3d 2d f9 f8 3c ee 40 02 3d c2 71 0a 3d
       0.031284902 0.030392254 0.031800203 0.033799894
000070 cc ef 01 3d bc e0 f9 3c 5e 5f 06 3d 69 d5 fe 3c
       0.03172283 0.03050267 0.032805793 0.031107621

decoders.0.decoder_net.6.running_var f4 [32]
000000 28 29 01 39 f8 1c d9 38 cd 85 34 39 5d 50 52 39
       0.0001231773 0.00010352762 0.00017215982 0.00020057098
000010 75 31 1a 39 ab 1a 0f 39 33 e5 06 39 41 cb b6 38
       0.00014705009 0.00013647477 0.00012864619 8.716295e-05
000020 ba a3 79 39 78 ac 13 39 5e bc 0e 39 f1 7d 85 39
       0.00023807483 0.00014083262 0.00013612348 0.0002546157
000030 92 0c 46 39 d4 ca 12 39 5e 4e 2f 39 5c 17 1f 39
       0.00018887434 0.00013999204 0.00016718495 0.00015172124
000040 f6 da 1a 39 13 a3 81 39 db 6b 44 39 fc a5 24 39
       0.00014768154 0.00024726297 0.00018732196 0.00015702093
000050 33 a8 22 39 a3 71 86 39 54 74 d2 38 16 0b 17 39
       0.00015512183 0.00025643138 0.00010035248 0.00014404612
000060 c8 f5 15 39 f3 76 03 39 5f 5e 6c 39 20 cc 6f 39
       0.00014301308 0.00012537446 0.0002254187 0.00022868859
000070 bb c5 93 39 24 87 1a 39 32 01 3e 39 f3 5f ea 38
       0.00028185346 0.00014736928 0.00018120257 0.000111758614

decoders.0.decoder_net.7.weight f4 [32, 16, 3, 3]
000000 c7 af 84 3d 49 c4 21 3d 7f 14 98 bd 09 8c 47 3d
       0.06478839 0.039493833 -0.07425784 0.048717532
000010 ac 32 a2 bc 83 ab 8d bd dc d0 90 3d 4a ec bf bc
       -0.019799553 -0.06917479 0.07071087 -0.023428101
000020 b5 0a 69 bc 5b 0c 1a 3d fe 55 71 3b 8d 91 b8 3c
       -0.014223744 0.03760944 0.0036824937 0.022530342
000030 0d 68 09 3d f3 d5 b9 b9 94 66 2f 3d 94 c9 92 bb
       0.033546496 -0.00035445354 0.042822435 -0.0044795964
000040 92 84 b2 3c 3c 64 35 bd ed 77 40 3d 78 94 0f bd
       0.02179173 -0.044285044 0.04698937 -0.0350537
000050 6c 17 68 bb d3 ef 96 bb 06 1d 96 bc 61 4a 37 bd
       -0.003541435 -0.004606226 -0.018324386 -0.044748668
000060 b8 16 01 3d e0 2b 74 bd 02 01 9b bc d6 21 96 bd
       0.031515807 -0.059612155 -0.018921379 -0.073306724
000070 3a a1 2e 3d ba 8f 2b bd 19 35 fb 3c bd f9 1b 3d
       0.042634226 -0.041885115 0.030664967 0.038079966
000080 c8 eb 3a bd 2c 31 87 3d c7 b8 cb bd 38 77 59 bd
       -0.045635015 0.06601176 -0.09947353 -0.05309221
000090 98 6e 25 3b 35 e7 cd 3c d0 a1 a8 3c e8 50 96 3d
       0.002524292 0.025134662 0.02058497 0.073396504
0000a0 8d 62 80 bd 95 12 f8 bd a3 82 3d 3d a4 bd 3b bd
       -0.06268797 -0.12112919 0.046267163 -0.045835152
0000b0 15 30 d6 3c 6e 15 ba bd 42 ee 30 3d 13 bb b3 3d
       0.026145974 -0.09086119 0.04319597 0.08775916
0000c0 ce 56 7d bc 42 77 67 3c 87 4b 4d bd d3 cb 99 3c
       -0.01546259 0.014127554 -0.050120857 0.018773949
0000d0 12 22 5b 3c ca 9b 1a bd 6d d2 b3 bc a3 b8 b8 3c
       0.013374822 -0.03774623 -0.021950925 0.02254898
0000e0 a0 ed d5 bb 36 1a d7 bb 76 f4 ab 3d 9a bb 05 3d
       -0.0065285712 -0.006564404 0.083962366 0.032649614
0000f0 91 64 79 3c cf 30 a5 3d 5e 55 5a 3d 2f 7b 19 3d
       0.015221731 0.0806595 0.05330407 0.037470993
000100 4f 51 93 3d 62 63 c6 3d d4 72 61 bc b4 eb b6 3c
       0.07193243 0.096869245 -0.013760287 0.022329189
000110 4c cd 36 bc d4 45 83 3d e6 ab 71 bd ac 47 46 bc
       -0.011157345 0.06409803 -0.059001826 -0.012102049
000120 8b ac 23 bd 62 77 3c 3d 9a fb 1d 3d 9e bb b2 3b
       -0.03995947 0.04601229 0.038570024 0.0054544946
000130 29 40 77 bd e6 98 ab bd 3f bb bb 3c 4c 03 80 3d
       -0.060363922 -0.083787724 0.022916434 0.06250629
000140 71 fc 88 3c 39 d0 56 bc 94 7c 26 3d 41 36 bb bd
       0.016721936 -0.013111168 0.04064615 -0.091412075
000150 af 9b 15 bc 4c ce 96 bd 7c 08 86 3d 7d 66 50 3d
       -0.009131356 -0.07363567 0.06544587 0.05087899
000160 31 02 d7 bb b1 29 a1 3b e4 23 1d 3d bf bb 68 bd
       -0.0065615405 0.0049183 0.038364306 -0.056819674
000170 15 7a 30 bc 35 57 91 bd f8 ed 0e 3d 90 73 71 3c
       -0.010771294 -0.070967115 0.034894913 0.014737025
000180 b3 42 8a bd de 95 2f 3d 57 6e 14 3d 57 5f 7f 3c
       -0.06751003 0.042867534 0.03623804 0.015586696
000190 5f 00 46 3c 02 3d 1e bd 2b 66 a0 bc d1 38 cf bd
       0.012085049 -0.0386324 -0.019579967 -0.10118259
0001a0 b6 76 d9 3b 35 d5 30 bc ac fa 8d 3d 5b 15 05 3d
       0.006636466 -0.01079302 0.069325775 0.03249107
0001b0 91 d5 9b bd 43 51 5e bd 3d 07 59 3d 67 bf 86 3d
       -0.07609094 -0.054276716 0.05298542 0.06579476
0001c0 94 69 b1 bc d5 cd d3 3c de 5f b3 bc 46 7b 1a bd
       -0.021656789 0.025854984 -0.021896299 -0.03771522
0001d0 fc a4 e8 3c d5 e6 84 bd 0e 4b 77 3c 71 8d c0 3c
       0.028398983 -0.0648934 0.015093578 0.023504945
0001e0 2c 42 56 bd 8f 44 82 bd fe 56 2d bd d2 2f 0d 3d
       -0.0523092 -0.06360733 -0.04231929 0.034469433
0001f0 99 53 75 bc c5 9f ba bc b0 b6 7b 3d ff 6e d5 bd
       -0.0149735445 -0.022781262 0.06145352 -0.104215614
000200 40 e3 89 3d c8 e2 a1 3c 6e 01 79 3a ef 11 3c bb
       0.067327976 0.019761458 0.0009498809 -0.0028697213
000210 c1 b4 67 3d 3e ac df 3b c0 5c 92 3d 52 b4 08 bd
       0.056568865 0.006825953 0.07146597 -0.03337509
000220 09 8f 8e 3d e8 8c 69 3b db c5 42 3d 2b 8a ed bc
       0.069608755 0.0035636965 0.04755197 -0.028996548
000230 04 b3 5c bd e3 d7 d9 3c 8e 35 09 3d 9f 13 c4 3d
       -0.05388166 0.0265922 0.03349834 0.09574055
000240 46 53 30 bd 29 a3 93 bd 55 6f 57 3d eb 10 f0 bc
       -0.043048166 -0.07208855 0.05259641 -0.029304942
000250 5c a4 d0 3c 6e d0 f9 bc a1 c7 23 bd 74 b2 af 3d
       0.025468998 -0.030494895 -0.039985303 0.08578959
000260 c3 4b 89 bc 11 62 ba bd 49 80 8c bd 28 74 59 3c
       -0.016759759 -0.09100736 -0.06860406 0.013272323
000270 a0 03 e5 bc c4 78 1e bb 26 23 01 3d 8a 4d 1e 3c
       -0.02795583 -0.0024180869 0.03152766 0.009662041
000280 fe c8 1d bc bd 1e 8d 3c 49 85 4c bd e9 8b ab bd
       -0.00963044 0.017226571 -0.049931798 -0.08376295
000290 72 15 5c 3d f3 b5 47 bb 01 32 b7 bd 9c 25 8a bd
       0.05373139 -0.003047344 -0.08945084 -0.06745455
0002a0 0c 7f 67 bc d7 55 96 3d 2e 2a b0 bd 64 0d 05 bd
       -0.014129411 0.073405914 -0.08601795 -0.032483473
0002b0 5b 65 1a bd 45 d8 0e bd 8e 60 d3 3c cf ee 1f 3b
       -0.037694316 -0.03487422 0.025802877 0.0024403816
0002c0 3b 7a 6f 3c 9a 10 8c 3d 24 1b a4 3d be 1b 1a bc
       0.014616544 0.06839104 0.08012989 -0.009406028
0002d0 2f 29 0a bd 68 5e 75 3c bf 2d 7b 3c fb 82 4c b9
       -0.033730682 0.0149761215 0.015330731 -0.0001950375
0002e0 51 cf 05 bc 7e 88 e0 3c 36 92 e9 bb f6 f5 23 3d
       -0.008167104 0.027408835 -0.0071280254 0.04002949
0002f0 7b 67 b7 3a 82 7d b7 3d e9 c9 f3 bc e2 2e b7 bd
       0.0013992632 0.089594856 -0.029759364 -0.08944489
000300 73 29 9d bc 73 f0 aa 3d 22 d2 4e 3d 67 7f 43 bd
       -0.019184804 0.08346643 0.050493367 -0.047728922
000310 11 67 64 3d 51 54 57 3c 80 92 e8 bc 4d 4d a8 3d
       0.055762354 0.013142661 -0.02839017 0.08217869
000320 db d0 93 bc aa 4b 22 3d 42 17 79 3d 78 dd e1 3c
       -0.018043926 0.03962294 0.060813196 0.027571425
000330 05 13 49 bd 44 02 02 bd e2 80 62 3d 1c 56 b6 bd
       -0.049090404 -0.031740442 0.055298693 -0.08903143
000340 cb 50 11 bd 59 0b 6b 3d cd dc 4c bd 36 20 9e 3d
       -0.03547744 0.05738387 -0.05001526 0.077209875
000350 f6 39 af bd 83 84 0c bd 67 92 73 bc a0 fe 3e bd
       -0.08555977 -0.03430606 -0.014866448 -0.046629548
000360 79 74 fc bc 37 cc 05 3d 6b 34 84 bd ea 30 49 bd
       -0.030817257 0.032665458 -0.064553104 -0.049118914
000370 f4 f3 35 bb 96 e7 70 bd 1f df 98 bd 33 a7 bf ba
       -0.0027763816 -0.058814608 -0.07464432 -0.0014621973
000380 7c 23 48 bd 01 e0 0e bd 5f 92 4c 3c e0 11 32 3d
       -0.048861966 -0.034881596 0.012486069 0.04347408
000390 b0 ef 3d 3b 76 54 95 bd aa 81 5f 3c 3f a6 01 3d
       0.0028981976 -0.072915 0.013641754 0.031652685
0003a0 6c 47 7f 3d ee fa be 3c 55 6d 29 bd 0a 88 5a 3d
       0.062323973 0.023313012 -0.041364033 0.053352393
0003b0 47 47 8f 3d ab 2f 91 bc e6 d5 c8 3c 8b 47 ee 38
       0.06996017 -0.017722925 0.024516057 0.0001136205
0003c0 09 60 53 3d 41 cf 96 bb bd bf a8 bc 71 d6 d9 bc
       0.051605258 -0.0046023433 -0.02059924 -0.026591511
0003d0 5d 00 ca 3b 05 2b 52 3d 93 22 3d 3d 89 ba 6d bc
       0.006164594 0.051310558 0.04617555 -0.0145098055
0003e0 ab d1 6d bd 96 6a 91 bc f8 ab 45 bd 46 4f 8b ba
       -0.058061283 -0.01775102 -0.048259705 -0.0010628484
0003f0 9b aa a2 bd ee 42 ac bd d0 24 13 3d 7d f6 84 bc
       -0.07942697 -0.08411203 0.03592378 -0.016230816

decoders.0.decoder_net.7.bias f4 [16]
000000 0e 1d ae 3d 2c 02 de 3c 29 5c 06 bd 5f 20 a2 bd
       0.085016355 0.027100645 -0.032802735 -0.079163305
000010 b6 cc 7c bd a4 1c c0 3c 7d 4d 9d 3d ce d2 95 bd
       -0.061718665 0.023451157 0.07680795 -0.073155984
000020 52 68 04 bb 14 50 ad bd 6f f8 67 3d b6 37 29 3c
       -0.0020203781 -0.08462539 0.05663341 0.010328224
000030 4d 73 3f bd c5 a6 16 bd d3 42 3c 3d 1c 64 09 3c
       -0.04674082 -0.036780138 0.045962166 0.008385684

decoders.0.decoder_net.9.weight f4 [16]
000000 99 98 77 3f 74 19 78 3f 29 ab 79 3f 6a c8 79 3f
       0.9671722 0.9691384 0.97526795 0.9757143
000010 6f 3b 77 3f ef f1 76 3f 00 90 76 3f b9 8c 78 3f
       0.96575063 0.9646291 0.96313477 0.97089726
000020 ff a6 79 3f 48 87 78 3f 98 13 78 3f 6a 27 77 3f
       0.9752044 0.9708142 0.969049 0.96544516
000030 04 de 75 3f 10 19 77 3f 2d 37 79 3f f4 24 77 3f
       0.96041894 0.9652262 0.97349817 0.9654076

decoders.0.decoder_net.9.bias f4 [16]
000000 e9 b0 40 3c 32 6f 91 bc 13 5c 74 3c b4 f3 a5 3c
       0.011760929 -0.017753217 0.01491453 0.020257808
000010 f8 4a c4 3b 80 03 ed bb 91 c0 95 3d d5 d9 93 3c
       0.0059903823 -0.0072330832 0.0731212 0.018048206
000020 9f 34 4b 3b c7 9a 80 bc ed f2 ce 3c c6 e7 8e 3b
       0.0031006706 -0.015698804 0.02526232 0.0043611256
000030 41 a8 ca bc c8 d2 86 bc c9 6c f9 3b d0 fe c4 3c
       -0.024738433 -0.01645793 0.007611845 0.024047285

decoders.0.decoder_net.9.running_mean f4 [16]
000000 7c 7a 8b 3d 03 c5 81 3d ce c4 7b 3d 72 cf 72 3d
       0.068104714 0.06336405 0.061466984 0.059279867
000010 38 93 6f 3d 44 d3 83 3d b6 8e 8b 3d 68 94 6d 3d
       0.058490008 0.0643678 0.06814329 0.05800286
000020 d1 78 81 3d 4e 1b 66 3d 49 44 89 3d bb 9f 82 3d
       0.06321872 0.056178384 0.067024775 0.063781224
000030 2e ac 79 3d 91 0b 71 3d a8 e5 85 3d 7d d4 81 3d
       0.06095522 0.05884892 0.06537944 0.06339357

decoders.0.decoder_net.9.running_var f4 [16]
000000 cc d6 6c 3a 62 78 50 3a 3a b8 66 3a 34 69 a6 3a
       0.0009034693 0.0007952509 0.00088012556 0.0012696148
000010 07 c0 1a 3a e5 56 4d 3a a8 e7 7b 3a ba 4c 35 3a
       0.0005903248 0.00078330777 0.00096094096 0.0006916035
000020 bd 49 6b 3a ec cb e6 39 5e f6 8f 3a 1e fb 83 3a
       0.00089755264 0.00044020952 0.0010983457 0.0010069346
000030 8f bb 57 3a 69 e9 01 3a 86 b2 35 3a 33 c9 70 3a
       0.00082295475 0.00049557403 0.0006931204 0.00091852545

decoders.0.decoder_net.10.weight f4 [16, 1, 3, 3]
000000 cf d8 19 be 33 6f 21 be 21 24 82 3e d8 f9 90 bc
       -0.15024112 -0.15765075 0.2541819 -0.01769726
000010 8a a6 69 3e 18 ee a0 be b8 11 68 bd fa a9 68 be
       0.22817436 -0.3143165 -0.056657523 -0.22721091
000020 27 e7 a1 3c e0 3b 26 3d 80 07 aa 3d d5 9e 6a 3e
       0.019763542 0.040584445 0.08302212 0.22912152
000030 0a 30 63 3e de ac 99 be 47 f9 c8 bd c8 49 c2 3d
       0.22186294 -0.300147 -0.09813171 0.09486729
000040 5c 93 0a be 7a 2e 37 3d dd fe 99 3d 29 83 67 3e
       -0.13532776 0.044722058 0.075193144 0.22608627
000050 39 f7 86 3d 5f c0 69 3e 18 f6 af bd 3d de 78 3e
       0.06590123 0.2282729 -0.085918605 0.24303527
000060 9f e8 e4 3d fb 29 89 bd ee 05 3a 3e c8 04 00 3e
       0.111771815 -0.0669746 0.18166324 0.12501824
000070 23 ac b5 3b 22 7e 32 be d3 1f 0e be 93 8f 70 3e
       0.005544202 -0.17430928 -0.13879327 0.23492269
000080 47 7c 6e 3e fe a9 c9 3d a7 e1 b3 3d 89 85 59 3e
       0.23289596 0.098468766 0.08783274 0.21242346
000090 b5 7f 1b 3e a3 9e 77 3e b6 d1 c2 bd 2c 10 e3 bd
       0.15185435 0.24181609 -0.095126554 -0.11087069
0000a0 2f b7 b6 bd fc 64 84 bd 71 b1 22 be c3 ad 59 3e
       -0.08921658 -0.06464574 -0.15888001 0.21257691
0000b0 a5 63 dc 3d bc ff 52 bb 27 76 e3 3d 82 59 83 3e
       0.10761193 -0.0032195887 0.1110652 0.25654227
0000c0 a6 20 00 bd dd 46 11 be ae 5c 55 3d 67 76 8a 3e
       -0.031281136 -0.14187188 0.05209034 0.2704346
0000d0 5d 2d b7 bd 9a 2c e9 3d 49 ca 4d 3e f9 c8 8c 3e
       -0.08944199 0.1138546 0.20096697 0.2749708
0000e0 a2 bc 80 be 7f 08 75 3e e6 10 87 3e 56 6a 1e bd
       -0.25143915 0.23929022 0.2638008 -0.03867563
0000f0 6b 02 ca bc 4c 26 67 be 43 d3 be 3d 49 25 86 3e
       -0.024659356 -0.22573203 0.09317639 0.2620032
000100 ff 49 89 3c de 90 22 3e a6 9f 81 3e fa 48 b3 3d
       0.016758917 0.15875575 0.25317115 0.087541535
000110 de 63 f3 bd 2d 4a 8e 3e 1a 2d 28 3d ed 06 80 be
       -0.118842825 0.27790967 0.041058637 -0.25005284
000120 cb c9 17 be 84 08 42 3d a1 33 e0 3b c8 3b 65 be
       -0.14823072 0.047371402 0.006842092 -0.22386086
000130 99 2f 9e bd a5 4f 3d 3d 3e 94 6a be dc f0 55 be
       -0.07723922 0.046218533 -0.22908112 -0.20892662
000140 3e d6 b0 3d db 86 8c be c6 0b 59 be 33 6b 66 be
       0.086346135 -0.27446637 -0.21195897 -0.22501831
000150 18 12 89 be e0 d5 29 bd 18 6c cc bd 16 82 2f bc
       -0.26771617 -0.041463733 -0.09981555 -0.010712167
000160 89 6a 94 ba 3c 4a 43 be 19 7a 27 3e d9 3f 95 3e
       -0.0011323254 -0.19071287 0.1635517 0.29150274
000170 68 7d 97 3e 63 71 6b be 5f 3c 6e bd 5b 24 c8 3d
       0.29587865 -0.22992472 -0.058163043 0.09772559
000180 dc 32 7d be c7 04 ce bd ed 9b a3 3c f8 87 97 3d
       -0.24726433 -0.10059505 0.019971812 0.07398981
000190 a1 04 15 3d 6d b9 3e be be 4d 08 be bd 2b e8 3d
       0.036381368 -0.18625422 -0.13310906 0.113364674
0001a0 8b 43 ff bc 9f 0e 39 3e 56 19 1b bd 75 97 5e 3e
       -0.031160137 0.18071984 -0.03786596 0.21737464
0001b0 02 3a cf bd 06 b3 10 be f9 42 82 bd d7 ab 30 3e
       -0.10118486 -0.14130792 -0.0636043 0.17253052
0001c0 ca 5b dc 3b 3a c4 55 be 6a 47 16 3e f4 97 6c 3e
       0.0067248093 -0.20875636 0.1467568 0.2310484
0001d0 e6 88 b9 3d c3 d0 93 bc 49 a1 e6 bd 83 49 7c be
       0.090593144 -0.018043881 -0.112612315 -0.24637417
0001e0 4c 65 29 3e b6 7f 55 be 80 44 66 3d 7f 9a 10 be
       0.16542548 -0.20849499 0.05621767 -0.14121436
0001f0 79 25 55 be 05 a1 06 3e 93 a9 89 bd 6c ea 09 bd
       -0.20815076 0.13147362 -0.06721797 -0.033670828
000200 27 f0 6a 3e 97 7c 06 3e 14 82 5e 3e 2c 83 d6 bb
       0.22943173 0.13133465 0.21729308 -0.0065463986
000210 a3 06 46 3e b9 00 83 3e 35 c7 f7 3d 9e 3b 8a 3d
       0.19338469 0.2558649 0.120985426 0.06749652
000220 8a 20 f3 3d 4f ce 2f be 8b ec 9a 3e a1 f4 5d be
       0.11871441 -0.17168544 0.30258593 -0.2167535
000230 6e 48 8b 3e 1d 2a 15 3e 06 b2 cb 3d ec 88 24 be
       0.27203697 0.14566846 0.09946065 -0.16067857

decoders.1.decoder_net.0.weight f4 [512, 2]
000000 01 29 26 bf 6c 39 8c be c8 e9 8e 3d 05 12 8f 3e
       -0.64906317 -0.2738756 0.06978184 0.27943435
000010 f9 e6 37 bd 11 d1 e9 3c 18 85 b1 3d b5 c1 62 bc
       -0.044898007 0.028542073 0.08667964 -0.013840129
000020 ad 6d a4 be 66 65 f8 be d7 39 ba bd 5d 4b c2 3e
       -0.32114926 -0.4851486 -0.09093063 0.37948123
000030 b6 0b d8 be b3 4c 04 bf c3 dc c5 3e ba b2 4b be
       -0.42196435 -0.51679534 0.3864499 -0.19892398
000040 78 a5 3f be 29 7b 89 be fe 72 16 3f 2a 21 38 bf
       -0.18715465 -0.26851776 0.58769214 -0.71925604
000050 dc f8 a8 3e 58 3c 3a 3e c0 a8 77 be 26 5b f0 be
       0.33002365 0.18187082 -0.24185467 -0.4694454
000060 42 36 a5 be ec 14 cb 3e 76 80 0f 3f cf e6 24 bf
       -0.32267958 0.396644 0.5605539 -0.64414686
000070 f8 9e 0c be c8 a7 79 3e 87 e2 a5 3e c2 43 03 bf
       -0.13732517 0.2438041 0.3239939 -0.51275265
000080 9d ed cb 3e d6 dd 23 3f 55 85 00 3f c9 04 c0 be
       0.39829722 0.6401037 0.5020345 -0.3750365
000090 af 96 21 3f eb 05 f3 be 57 cd d3 3e d5 e5 27 bf
       0.6312055 -0.47465453 0.413676 -0.6558507
0000a0 07 5b 20 3f 06 9c 56 be c7 1b 44 3e 85 b0 1a 3d
       0.62638897 -0.20957956 0.19151221 0.037766
0000b0 47 a5 e9 be 74 ca 28 bf e7 59 30 bf 8a b8 a2 3e
       -0.4563391 -0.6593392 -0.6888718 0.31781417
0000c0 2b 13 77 3e 4f 4b d2 be 2b e6 2a 3f 0b ac 2e bc
       0.24128406 -0.4107308 0.6675746 -0.010661135
0000d0 8b 13 1a bc e8 1f de 3d ce 00 b4 be 5f 3a 32 3e
       -0.0094040735 0.108459294 -0.35156864 0.1740508
0000e0 d4 31 bb be c0 03 a9 3e 8d 13 0f 3f 2c 6a dd be
       -0.36561453 0.33010674 0.5588921 -0.43245065
0000f0 fa 2c 23 bf 9e eb a5 be 57 4e 46 3e b9 d8 c2 3e
       -0.63740504 -0.32406324 0.19365822 0.3805597
000100 d8 d1 dc be d9 8f c5 be a6 81 46 3d d4 60 b7 bc
       -0.43128848 -0.3858631 0.048463486 -0.022385038
000110 16 af 42 bc a3 f8 fc 3e 33 11 0a bf bd 9e a7 be
       -0.011882564 0.49408445 -0.53932494 -0.32738295
000120 d9 71 a4 be e4 97 15 bf 71 bd ec 3d 76 dd fb 3e
       -0.3211811 -0.5843489 0.115595706 0.491924
000130 9c bc a2 bc b6 c3 2d 3e 0a f1 c9 be 3f 65 e6 3e
       -0.019865327 0.16969189 -0.3944171 0.4499912
000140 76 cc 34 3f a6 b9 23 bf 8d 34 f6 bb d6 95 2f 3f
       0.7062448 -0.6395515 -0.0075135888 0.68588006
000150 35 0b f8 be 9a c1 83 3d 9c ae d4 3e 52 85 c9 3e
       -0.4844605 0.06433411 0.41539466 0.39359528
000160 f1 ad 9a be bb 25 7d 3e 4c d7 da be 45 c8 c4 3e
       -0.30210832 0.24721424 -0.42742383 0.38434044
000170 ac 1a 9d be 63 40 03 bf 37 11 fc 3e 99 bd 03 be
       -0.30684412 -0.5127012 0.49231884 -0.12865295
000180 97 10 f3 bd 3b d8 0d bf e4 d3 19 bf 54 91 bf 3d
       -0.11868399 -0.55408067 -0.60088944 0.09353891
000190 a1 8e fb bd 10 04 70 3e 98 01 c3 3e 34 36 e5 be
       -0.12283064 0.2343905 0.38087153 -0.44767916
0001a0 88 d5 9d be fe 9b e8 3e 6b 30 9b be 64 c1 28 3f
       -0.30826974 0.45431513 -0.30310377 0.6592009
0001b0 1e 27 50 3e ab 78 f0 bd 66 66 85 bd dd d0 36 3f
       0.20327422 -0.117417656 -0.065136716 0.7141245
0001c0 0a 26 8c be 80 47 13 3f c0 96 29 bf 81 69 17 3f
       -0.27372772 0.57530975 -0.6624565 0.5914536
0001d0 b6 39 9a bd 5c 10 3f 3f a8 df 28 3f 58 e4 0f 3e
       -0.07530539 0.7463434 0.6596627 0.1405195
0001e0 c9 52 8a 3e 45 35 35 3d 5e fe cb be 0a f9 03 be
       0.27016285 0.044240255 -0.39842504 -0.1288797
0001f0 d1 0a 3d be 40 7e f4 3e 4c ca 58 3e bc 3a b7 3e
       -0.18461157 0.4775257 0.2117092 0.35786998
000200 38 0f ad 3d b7 03 0b be 08 ef 97 3d e2 fb 21 3d
       0.08450168 -0.13575636 0.074186385 0.039546855
000210 21 25 3d 3e 3f d4 e7 be dc c3 00 3f f2 88 be 3d
       0.18471195 -0.45279118 0.5029886 0.09303464
000220 bc df fd 3e f1 4a b7 3d f2 2c 16 3f 64 97 44 be
       0.49584758 0.08949841 0.5866233 -0.19198376
000230 ca e3 2c 3f 55 4a 11 bf cb 11 b0 3e 68 04 1e 3d
       0.6753508 -0.56754047 0.34388575 0.03857842
000240 fd 61 fc be d4 d1 00 bf d4 9a cb be 05 d9 50 be
       -0.4929351 -0.5032017 -0.39766562 -0.20395286
000250 30 39 d1 3c 0d de aa bd 25 27 cf 3e 29 0d 23 3f
       0.025539964 -0.08343134 0.40459552 0.63691956
000260 68 6a fd bd 1c 2b 21 bf 4a 0b 54 be 46 84 ec 3e
       -0.12373811 -0.62956405 -0.20707431 0.46194667
000270 c9 1f 41 3e a1 7f f4 bd 66 9c ab be 42 bd b4 3e
       0.18859781 -0.11938406 -0.3351776 0.35300642
000280 89 e5 30 3f be 07 8b 3e 53 b5 5a 3e 57 87 16 bf
       0.6910024 0.27154344 0.21358232 -0.5880026
000290 a8 c7 30 3f 68 1e 81 3e 3c 68 14 3f 3f bc ab be
       0.6905465 0.2521851 0.5797155 -0.33542058
0002a0 2a 94 29 bf 20 e8 dc 3d 98 1c 00 3f 31 f1 83 be
       -0.66241705 0.10786462 0.5004363 -0.25769952
0002b0 6f e4 e3 3e 49 19 23 3e 82 21 20 3f db 66 ed be
       0.44510219 0.15927614 0.6255113 -0.46367535
0002c0 ea b8 d0 be a6 f2 b1 bd 72 45 81 3d 67 1a 96 be
       -0.40766078 -0.0868886 0.06312074 -0.29317018
0002d0 3e 17 22 3f 62 1e a4 bd 1e 15 67 3e 91 a3 5f 3e
       0.63316715 -0.080136076 0.2256665 0.2183974
0002e0 eb 40 e5 be 79 54 10 bd 1f 5f 76 be ba 9e 03 be
       -0.4477609 -0.03523681 -0.24059723 -0.12853518
0002f0 c1 29 f9 3c 61 f3 02 be 42 08 8a 3d ea 4c f4 be
       0.030415418 -0.12788154 0.06739856 -0.4771493
000300 c7 6c 44 be 0a 61 91 3d ed b4 da be e8 9f fb 3e
       -0.1918212 0.07098587 -0.4271616 0.49145436
000310 fe 1c 97 3e 4f 46 38 be 6f d3 e9 be 52 07 01 bf
       0.29514307 -0.1799557 -0.45669124 -0.50401795
000320 46 41 98 bd cf 1e 11 bf 46 b1 ae be 9b ae 20 3f
       -0.07434325 -0.56687635 -0.34119624 0.62766427
000330 96 c6 37 bf 05 2c 33 3e 35 c8 b0 bd 73 6f 9f 3e
       -0.71787393 0.17497261 -0.086319365 0.31139717
000340 db fa 20 3f c0 a5 2a bf 0d e3 3d 3f 9f e9 a3 3e
       0.62882775 -0.66659164 0.74174577 0.32014176
000350 44 bd ad be b2 ae bc 3e f3 40 03 3f 58 1c 81 3e
       -0.3393346 0.36852032 0.5127098 0.25216937
000360 f9 ec bb be 9d b7 bf 3d c5 3a b4 be a0 f9 d7 3c
       -0.36704233 0.09361193 -0.35201088 0.026364148
000370 d0 ad e1 3e 90 a3 25 3f 03 16 c9 be e3 31 c7 3e
       0.4407792 0.647027 -0.39274606 0.38905248
000380 fb 37 16 3e b0 10 e0 3e ab d5 11 bf b1 f6 24 bf
       0.14669792 0.43762732 -0.56966656 -0.6443892
000390 8a 9d 3e be d0 72 51 3e 48 47 af 3e 0b 1f 5f bb
       -0.18614784 0.20453954 0.3423407 -0.0034045603
0003a0 4b 5b 52 3d 5e 41 a3 3e 01 bc 16 bf d3 99 8e 3e
       0.051356595 0.3188581 -0.5888062 0.27851734
0003b0 c4 85 04 3e 67 7f 97 3e 53 61 31 3f 74 a3 e0 be
       0.12941653 0.29589388 0.6928913 -0.43874705
0003c0 24 b6 96 3e 33 b4 0c bf 56 84 de bd 14 61 d3 be
       0.29435837 -0.5496246 -0.10865085 -0.41285002
0003d0 56 d1 28 bf 85 02 95 bd 43 bd d8 3e ed 5c 24 3f
       -0.6594442 -0.07275871 0.42331895 0.64204293
0003e0 16 84 fa be 9b e1 89 3e d0 67 54 3e 67 e2 1d 3f
       -0.489289 0.26929936 0.20742726 0.6167359
0003f0 a7 81 7a 3d ce f8 e3 3e bc 84 9d be f5 88 1b 3f
       0.061158802 0.4452576 -0.3076533 0.60755855
