Project2/models/model_1_10.pt (torch, 143202 bytes, 37 tensors)

prior.mean f4 [2]
0.0 0.0
00000000: 0000 0000 0000 0000

prior.std f4 [2]
1.0 1.0
00000000: 0000 803f 0000 803f

decoders.0.decoder_net.0.weight f4 [512, 2]
0.5195529 0.22558124 -0.11181268 -0.23784605 -0.44032604 0.49918434 0.64455324 -0.20624456
0.517035 -0.022070495 -0.51560086 -0.18536036 0.09840339 0.80975926 0.046950363 -0.24085468
-0.28437325 0.3360226 0.55720496 0.38732594 0.40727496 -0.19534001 0.08047586 -0.17006074
-0.59354323 0.5062501 -0.37242207 -0.46600157 0.08948551 0.082229026 -0.3849128 0.13051105
-0.021678848 -0.36687887 0.61340976 -0.26649845 -0.3978487 -0.07578041 -0.26259845 -0.62596256
0.10337202 0.22193302 0.641763 0.7200585 0.41547778 0.25224867 0.20187327 0.03320622
-0.31939745 -0.48776546 -0.1801497 -0.33207855 0.4886146 0.04300724 -0.42328706 0.06733999
0.30692607 0.59578043 0.25754285 -0.495108 -0.28030938 -0.43218747 -0.3163199 -0.5729337
-0.23927008 -0.5598094 -0.6136186 -0.12335223 0.9894418 -0.09687808 -0.28284213 0.67164516
0.6204768 0.5577657 -0.1299086 0.35394442 0.695019 0.31423742 -0.42579538 -0.2897841
-0.008344629 -0.061771892 -0.2560715 -0.427393 0.36819983 0.0122365225 0.51071745 -0.5404096
-0.427239 -0.50626194 -0.10182664 -0.59730524 0.20833963 -0.6988152 -0.011165467 0.16538842
-0.42836618 -0.49506515 -0.5763329 -0.5940898 -0.37530202 -0.25981197 -0.537422 -0.2718739
0.5887346 0.4499889 -0.47658962 -0.57512015 -0.46204808 0.44756532 -0.6210176 0.35195044
-0.20253949 -0.54264706 -0.3115272 -0.5372157 0.17889236 0.034506183 0.72911775 -0.16755499
-0.20794848 -0.63536996 0.50517046 -0.6250207 0.090506054 -0.073557265 -0.15879057 -0.7236914
0.2132754 0.43212026 -0.37494576 -0.51599336 -0.49653277 0.5734579 0.6165243 -0.3694684
0.33940408 0.33841833 -0.38301718 0.38313073 0.17573482 -0.14366338 -0.27578074 0.71852314
-0.23654708 0.50308484 0.56066835 -0.30564877 -0.042402424 0.25341988 0.45571044 0.35810372
-0.45950916 0.27052543 -0.5049572 -0.61896574 0.029427228 0.13500398 -0.31061995 0.29271838
0.2070247 0.32035625 -0.38441238 0.4068501 -0.2999905 0.5081674 -0.43252447 -0.106053635
0.5067228 0.27913404 0.34264344 0.5023997 0.39870223 -0.07195697 0.18107852 -0.5600009
-0.31065306 0.4822415 0.25383246 -0.6363229 -0.11140721 -0.16651472 -0.6614801 -0.4284614
-0.09778009 -0.010338074 0.5394198 -0.5708952 0.31083736 0.53746474 -0.25140798 -0.61750144
0.097480774 -0.21094246 -0.24154967 -0.5580864 0.016644146 0.4040666 -0.5488955 -0.59781295
0.53670645 0.38379824 -0.35992125 0.37675998 -0.70748156 -0.87236136 0.39091176 0.40124622
0.4316082 -0.014499858 0.38969618 0.2752411 -0.34320295 -0.7066297 -0.6177868 0.29751617
-0.12934597 0.37923628 -0.50801265 0.6707974 -0.7904768 0.09149212 0.59494305 -0.27549526
-0.44130114 -0.41674694 -0.2498338 -0.070007294 -0.2814707 -0.20275919 -0.23469825 0.5382274
-0.025115099 -0.35339388 -0.3198389 0.20389795 -0.18508518 -0.48298442 -0.39782414 0.13552797
0.7300469 0.4943405 -0.33874327 0.63739306 0.27466062 0.68667585 -0.40873235 -0.339252
0.01096974 0.2641974 0.35715508 0.063391544 -0.32725766 -0.5171028 0.46929562 -0.34235552
00000000: 6b01 053f c5fe 663e 0cfe e4bd ea8d 73be
00000010: 6a72 e1be 1795 ff3e 7101 253f c631 53be
00000020: 685c 043f 2fcd b4bc 6bfe 03bf 1bcf 3dbe
00000030: b787 c93d 624c 4f3f 064f 403d 9ca2 76be
00000040: 5f99 91be 270b ac3e fca4 0e3f 964f c63e
00000050: 5886 d03e 3607 48be 87d0 a43d 6724 2ebe
00000060: 73f2 17bf 9b99 013f 1bae bebe c297 eebe
00000070: 2e44 b73d b167 a83d 4a13 c5be b0a4 053e
00000080: d797 b1bc 8cd7 bbbe 6c08 1d3f 7c72 88be
00000090: d3b2 cbbe c232 9bbd 4e73 86be 153f 20bf
000000a0: b6b4 d33d 6942 633e 944a 243f c155 383f
000000b0: 81b9 d43e bd26 813e deb7 4e3e 3f03 083d
000000c0: 1088 a3be 65bc f9be 2a79 38be 3306 aabe
000000d0: b12b fa3e 5c28 303d 15b9 d8be 8ce9 893d
000000e0: 6a25 9d3e 1185 183f a8dc 833e cc7e fdbe
000000f0: b684 8fbe ad47 ddbe aff4 a1be c8ab 12bf
00000100: 3703 75be ab4f 0fbf 1c16 1dbf 18a0 fcbd
00000110: 0f4c 7d3f 0468 c6bd afd0 90be f0f0 2b3f
00000120: 91d7 1e3f bcc9 0e3f c306 05be 3438 b53e
00000130: c4ec 313f bae3 a03e da01 dabe 955e 94be
00000140: e9b7 08bc 8604 7dbd ce1b 83be 41d3 dabe
00000150: b084 bc3e b27b 483c 61be 023f 4958 0abf
00000160: 12bf dabe 629a 01bf 7c8a d0bd ffe8 18bf
00000170: fc56 553e 8ee5 32bf 5def 36bc 955b 293e
00000180: d052 dbbe 2e79 fdbe 8e8a 13bf 4516 18bf
00000190: 9627 c0be 1306 85be 7d94 09bf 0e33 8bbe
000001a0: 50b7 163f f264 e63e 8e03 f4be 133b 13bf
000001b0: 9191 ecbe 4827 e53e 02fb 1ebf d932 b43e
000001c0: 8366 4fbe ebea 0abf 7e80 9fbe f886 09bf
000001d0: 8f2f 373e 5b56 0d3d 76a7 3a3f 8993 2bbe
000001e0: 72f0 54be 9ba7 22bf da52 013f 5b01 20bf
000001f0: 3d5b b93d 31a5 96bd ff99 22be d743 39bf
00000200: de64 5a3e de3e dd3e e4f8 bfbe 2418 04bf
00000210: 8b39 febe 23ce 123f 89d4 1d3f f62a bdbe
00000220: 5fc6 ad3e 2b45 ad3e d41a c4be b629 c43e
00000230: d4f3 333e 7e1c 13be 2233 8dbe 22f1 373f
00000240: 6639 72be 2bca 003f f687 0f3f ff7d 9cbe
00000250: 2aae 2dbd 40c0 813e e152 e93e 5f59 b73e
00000260: c944 ebbe 4f82 8a3e e044 01bf 8a74 1ebf
00000270: 5f11 f13c 7c3e 0a3e 9409 9fbe 2fdf 953e
00000280: 48fe 533e bc05 a43e b3d1 c4be a84e d03e
00000290: 5b98 99be 4217 023f d973 ddbe a632 d9bd
000002a0: 96b8 013f a8ea 8e3e f66e af3e 449d 003f
000002b0: b322 cc3e 2d5e 93bd a66c 393e 385c 0fbf
000002c0: eb0d 9fbe 5ce8 f63e 54f6 813e 0fe6 22bf
000002d0: 7729 e4bd d682 2abe c356 29bf 4b5f dbbe
000002e0: ee40 c8bd 0661 29bc 6a17 0a3f 3026 12bf
000002f0: 1326 9f3e 4a97 093f 8cb8 80be 9314 1ebf
00000300: 00a4 c73d 4d01 58be cc58 77be c0de 0ebf
00000310: 4e59 883c d1e1 ce3e 6a84 0cbf 450a 19bf
00000320: 9865 093f 3481 c43e 9947 b8be afe6 c03e
00000330: 831d 35bf 1353 5fbf 9625 c83e 2570 cd3e
00000340: c0fb dc3e d090 6dbc 4286 c73e 67ec 8c3e
00000350: 4cb8 afbe afe5 34bf 4727 1ebf 0a54 983e
00000360: 4573 04be 422b c23e 1e0d 02bf 61b9 2b3f
00000370: b05c 4abf 3860 bb3d 304e 183f b70d 8dbe
00000380: 39f2 e1be db5f d5be 6fd4 7fbe fc5f 8fbd
00000390: ed1c 90be 1ba0 4fbe bd54 70be 45c9 093f
000003a0: 2ebe cdbc 0bf0 b4be edc1 a3be a0ca 503e
000003b0: f886 3dbe bc49 f7be 9baf cbbe d8c7 0a3e
000003c0: 5be4 3a3f 331a fd3e c26f adbe 312c 233f
000003d0: 51a0 8c3e fdc9 2f3f 5e45 d1be 70b2 adbe
000003e0: 6dba 333c e244 873e 08dd b63e 6dd3 813d
000003f0: 518e a7be d960 04bf 8447 f03e 3949 afbe

decoders.0.decoder_net.0.bias f4 [512]
-0.048092883 0.11156489 -0.27049878 -0.48834333 -0.1980477 0.52160406 -0.7121357 -0.5654411
-0.4540171 0.5863035 0.1756896 -0.2387865 -0.26585677 0.5127395 -0.20017394 0.51525694
0.053268176 -0.3061486 0.5171654 -0.17923774 -0.3365146 0.6810995 -1.0503153 0.37724656
0.5951246 0.4967644 -0.7478886 0.6313363 0.42486954 -0.6338363 0.5914987 0.36909726
0.6045144 -0.18320751 -0.29220298 -0.1633642 0.12209162 -0.640754 0.4853107 -0.045415048
0.23945868 0.21374427 0.69830704 0.037413545 -0.54892737 -0.33002505 -0.48263928 -0.040625058
0.37677035 0.446825 0.46647823 -0.054574102 -0.7705051 0.55576485 -0.20795582 0.53723246
-0.064168 0.71381235 -0.027944803 -0.3874925 0.16928513 0.535437 0.45649368 -0.056720085
-0.50267863 -0.40829065 -0.21542434 -0.52931994 0.39619696 0.3534167 0.5066393 0.06616526
-0.8153071 0.40367988 0.36569923 -0.6860246 -0.28449032 -0.33474734 -0.54832315 -0.39555314
-0.0060083386 -0.5005261 0.33327666 -0.21393013 -0.64360225 -0.121685416 0.76620615 -0.25591907
0.17300647 -0.36958593 0.14573929 -0.57916963 -0.33939776 0.59483355 0.040323254 0.1278518
0.39077625 0.7802562 -0.43082744 0.013177862 -0.33366087 -0.45508242 0.25642672 -0.18193305
-0.26592928 0.47082016 0.18694846 -0.5264327 0.3289263 0.09213323 0.13361703 0.56379324
0.026597021 0.71379584 0.1713983 0.16988386 -0.09755859 -0.558901 -0.66925794 -0.2060321
0.119236425 -0.42201492 -0.5541584 0.27455637 0.42255935 0.50202006 0.09932837 -0.14701824
-0.5063486 -0.45580167 0.3237021 -0.60522014 0.5319388 -0.04931836 -0.69573337 -0.29116434
0.11958653 0.3514681 0.40297672 0.0050438726 0.6625042 0.7037795 -0.28768238 0.6624291
0.40415576 0.43166128 0.08850775 0.60615546 0.7153997 -0.5481095 -0.15881638 -0.20436746
-0.20505686 0.101066254 0.24822888 -0.22681221 -0.4720809 -0.5860153 -0.45701063 0.6529583
0.27867505 -0.34506485 -0.050883066 -0.2757799 -0.32236242 -0.4093924 -0.6697816 0.5991453
0.6834884 0.24026959 -0.4170858 0.04922418 0.01519619 -0.30016908 -0.12423425 -0.07422734
-0.6219463 0.037801005 -0.3662556 -0.20544752 -0.07979037 0.22787964 0.6565823 0.16894414
0.58409166 0.0088002095 -0.7595173 0.32082114 -0.107171275 0.6548824 0.30358618 -0.05560998
0.56448394 -0.037561357 -0.3625717 -0.33024672 -0.23176852 -0.21195568 -0.9972927 -0.24606186
-0.4016285 0.72036827 0.34104058 -0.0315246 0.6875414 0.5791821 -0.35855436 0.2361426
0.07944043 -0.25185812 -0.059290774 -0.49735385 0.1590527 -0.5093114 -0.5259387 0.33773735
0.6065293 0.57772344 -0.013387449 0.10883213 0.64983875 -0.8046747 -0.32040733 0.5271355
-0.14262241 -0.25339013 0.2762099 -0.2657903 0.6125158 -0.35301203 -0.42505142 0.36151427
-0.6514294 0.019912967 0.6394361 -0.457081 -0.03890979 -0.6954229 0.5977551 0.30557653
0.37368223 -0.3701379 0.40202996 0.38204017 -0.6044865 -0.588321 -0.7927272 0.1688377
-0.08644395 0.60883605 -0.8033919 -0.30129525 -0.39929378 -0.053441215 0.62226725 0.07704918
00000000: 0bfd 44bd 227c e43d d17e 8abe 2308 fabe
00000010: 04cd 4abe d887 053f 864e 36bf bfc0 10bf
00000020: ee74 e8be fc17 163f f9e7 333e 7384 74be
00000030: 611e 88be e542 033f 66fa 4cbe e1e7 033f
00000040: bb2f 5a3d 82bf 9cbe f464 043f 198a 37be
00000050: a44b acbe 895c 2e3f bb70 86bf 7626 c13e
00000060: 165a 183f e757 fe3e a175 3fbf 419f 213f
00000070: 8088 d93e 1943 22bf 756c 173f 51fa bc3e
00000080: 75c1 1a3f c09a 3bbe a19b 95be f248 27be
00000090: 2c0b fa3d 7408 24bf a57a f83e 2105 3abd
000000a0: a834 753e c7df 5a3e 40c4 323f f23e 193d
000000b0: 8186 0cbf 0bf9 a8be 7f1c f7be 7666 26bd
000000c0: 0be8 c03e 3fc6 e43e 3cd6 ee3e 1889 5fbd
000000d0: d23f 45bf 9b46 0e3f 5ff2 54be 1188 093f
000000e0: 836a 83bd 68bc 363f 80ec e4bc 6b65 c6be
000000f0: 1559 2d3e 6612 093f 8ab9 e93e 5253 68bd
00000100: 8caf 00bf 790b d1be 3398 5cbe 8381 07bf
00000110: 54da ca3e 09f3 b43e 1db3 013f a781 873d
00000120: f7b7 50bf 21af ce3e ee3c bb3e 4f9f 2fbf
00000130: b7a8 91be 0164 abbe e85e 0cbf f185 cabe
00000140: 99e1 c4bb 7a22 00bf 3da3 aa3e 8010 5bbe
00000150: 1ec3 24bf 3436 f9bd 1626 443f d307 83be
00000160: 9c28 313e 5e3a bdbe ae3c 153e 7644 14bf
00000170: 8bc5 adbe 0347 183f ff29 253d 95eb 023e
00000180: d313 c83e dfbe 473f 6a95 dcbe f6e7 573c
00000190: 99d5 aabe 9000 e9be 5d4a 833e a84c 3abe
000001a0: e227 88be 570f f13e 6b6f 3f3e 4bc4 06bf
000001b0: 0769 a83e 59b0 bc3d e7d2 083e c154 103f
000001c0: ffe1 d93c 53bb 363f 0983 2f3e 09f6 2d3e
000001d0: cccc c7bd 2314 0fbf 7d54 2bbf 14fa 52be
000001e0: 3a32 f43d 5712 d8be 53dd 0dbf a792 8c3e
000001f0: b359 d83e 6384 003f ac6c cb3d f38b 16be
00000200: 10a0 01bf d65e e9be 48bc a53e b5ef 1abf
00000210: 242d 083f 0c02 4abd 951b 32bf 7e13 95be
00000220: c8e9 f43d a0f3 b33e f752 ce3e 1247 a53b
00000230: e099 293f e52a 343f 1b4b 93be f494 293f
00000240: 81ed ce3e b502 dd3e 8d43 b53d 012d 1b3f
00000250: 6f24 373f e750 0cbf c3a0 22be b445 51be
00000260: 6dfa 51be d3fb ce3d b62f 7e3e 7641 68be
00000270: 96b4 f1be 1905 16bf 4cfd e9be 4628 273f
00000280: 7fae 8e3e 57ac b0be c36a 50bd 0633 8dbe
00000290: b00c a5be e19b d1be cf76 2bbf 9661 193f
000002a0: 19f9 2e3f 3b09 763e 458c d5be 4b9f 493d
000002b0: 71f9 783c c3af 99be 876e febd 8104 98bd
000002c0: df37 1fbf 3ad5 1a3d db85 bbbe d660 52be
000002d0: 2269 a3bd 4859 693e c715 283f b1ff 2c3e
000002e0: 0887 153f c12e 103c ba6f 42bf ab42 a43e
000002f0: 9d7c dbbd 5fa6 273f a66f 9b3e 4ac7 63bd
00000300: 0582 103f f0d9 19bd ffa2 b9be 1916 a9be
00000310: ba54 6dbe e90a 59be 934e 7fbf a4f7 7bbe
00000320: 40a2 cdbe 0e6a 383f df9c ae3e f01f 01bd
00000330: b702 303f 4745 143f 7094 b7be 5ecf 713e
00000340: aab1 a23d 8cf3 80be e2da 72bd 2aa5 febe
00000350: b6de 223e 3b62 02bf eba3 06bf e9eb ac3e
00000360: 8145 1b3f afe5 133f 0857 5bbc 61e3 de3d
00000370: d55b 263f 29ff 4dbf 6e0c a4be 5af2 063f
00000380: 9c0b 12be 5abc 81be 626b 8d3e ab15 88be
00000390: d6cd 1c3f febd b4be 57a0 d9be 6618 b93e
000003a0: 14c4 26bf 8520 a33c 16b2 233f 8506 eabe
000003b0: df5f 1fbd 3c07 32bf 7a06 193f 8774 9c3e
000003c0: 4753 bf3e b782 bdbe dfd6 cd3e c59a c33e
000003d0: a1bf 1abf 349c 16bf 2bf0 4abf cae3 2c3e
000003e0: 8709 b1bd aedc 1b3f 17ab 4dbf 5f43 9abe
000003f0: 3c70 ccbe 2de5 5abd e84c 1f3f f6cb 9d3d

decoders.0.decoder_net.3.weight f4 [32]
0.99794346 1.0061606 1.0692843 1.0017295 1.0613061 1.0652732 0.9749794 1.0214986
1.0190624 1.0479844 1.0054201 1.0073742 1.0171419 0.9834852 1.0335671 0.9909791
1.0004537 0.9873797 0.98189664 1.0321642 1.0401394 0.9754409 0.99856615 1.0595766
1.0973587 0.9807557 1.0239348 1.0099988 1.0346981 1.0100552 1.0194224 1.0440326
00000000: 3979 7f3f dfc9 803f 4fde 883f ac38 803f
00000010: e1d8 873f df5a 883f 4098 793f 77c0 823f
00000020: a370 823f 5a24 863f 9bb1 803f a3f1 803f
00000030: b531 823f b0c5 7b3f ed4b 843f ceb0 7d3f
00000040: de0e 803f ebc4 7c3f 945d 7b3f f51d 843f
00000050: 4a23 853f 7fb6 793f 08a2 7f3f 35a0 873f
00000060: 4076 8c3f ce12 7b3f 4c10 833f a447 813f
00000070: fd70 843f 7d49 813f 6f7c 823f dca2 853f

decoders.0.decoder_net.3.bias f4 [32]
-0.021820711 -0.07000215 -0.048478674 -0.020796387 0.033222243 -0.061662834 -0.030892251 0.034868352
0.012033707 0.04168112 0.041375995 0.0447296 0.0132078305 0.012641118 0.038789865 -0.015281362
-0.0027257076 -0.019685717 -0.048531324 0.041254118 0.015627528 -0.025698792 -0.008375656 0.035733078
0.011323505 0.010101609 -0.0026366815 -0.07617473 -0.026828054 0.017702306 0.047439735 0.010999213
00000000: 59c1 b2bc 4a5d 8fbd 9391 46bd 2f5d aabc
00000010: 0c14 083d 2b92 7cbd bf11 fdbc 1ed2 0e3d
00000020: 0729 453c d2b9 2a3d e079 293d 6336 373d
00000030: a865 583c b11c 4f3c 1fe2 1e3d ae5e 7abc
00000040: c9a1 32bb f143 a1bc c8c8 46bd 14fa 283d
00000050: 4d05 803c 4686 d2bc 0c3a 09bc d95c 123d
00000060: 3986 393c 3881 253c 2dcc 2cbb 7f01 9cbd
00000070: 82c6 dbbc 6d04 913c 2b50 423d 0b36 343c

decoders.0.decoder_net.3.running_mean f4 [32]
0.0224843 0.0355213 0.02785477 0.056407273 0.019540817 0.025083099 0.055974063 0.025819154
0.028475283 0.030290553 0.023537893 0.03318884 0.037295286 0.023182176 0.03059384 0.034166466
0.028551238 0.037401307 0.0373103 0.031148562 0.03221444 0.04192607 0.028469445 0.02204836
0.027555084 0.02950984 0.023659455 0.027979337 0.027097974 0.034298792 0.03660727 0.02480716
00000000: ff30 b83c c87e 113d b02f e43c 500b 673d
00000010: 1014 a03c 127b cd3c 0f45 653d b182 d33c
00000020: ff44 e93c e523 f83c 8ad2 c03c 05f1 073d
00000030: f1c2 183d 8ce8 bd3c ef9f fa3c 23f2 0b3d
00000040: 49e4 e93c 1d32 193d afd2 183d 452b ff3c
00000050: 4af3 033d acba 2b3d c138 e93c c39e b43c
00000060: 33bb e13c 9fbe f13c 79d1 c13c ec34 e53c
00000070: 92fc dd3c e47c 0c3d 81f1 153d 6338 cb3c

decoders.0.decoder_net.3.running_var f4 [32]
0.0006318031 0.0012164835 0.0007149078 0.003066712 0.0005465468 0.00074642047 0.012056449 0.0004543922
0.00082179287 0.0012138869 0.00077082374 0.0008197063 0.0022472085 0.00081180444 0.0014408416 0.0030884035
0.0009453889 0.002138121 0.0018808863 0.0014998023 0.0010419025 0.0035583463 0.0010479395 0.00043927875
0.0007455897 0.0010952153 0.00072638475 0.0006181742 0.001506326 0.0018221985 0.0023055105 0.00078474544
00000000: 979f 253a 6a72 9f3a a668 3b3a e4fa 483b
00000010: 2346 0f3a 6eab 433a 6a88 453c 7d3b ee39
00000020: 966d 573a 491b 9f3a 1b11 4a3a 8fe1 563a
00000030: e745 133b 46cf 543a 9fda bc3a d066 4a3b
00000040: fad3 773a b81f 0c3b 1288 f63a 0495 c43a
00000050: 7290 883a 2533 693b 045b 893a ff4e e639
00000060: ae73 433a 548d 8f3a db6a 3e3a f80c 223a
00000070: ea6f c53a d6d6 ee3a 0c18 173b 60b7 4d3a

decoders.0.decoder_net.4.weight f4 [32, 32, 3, 3]
-0.06096722 -0.05232829 0.04061277 -0.021485673 -0.07612042 -0.09975688 0.00986984 0.051136613
-0.012794892 -0.017358702 0.030348998 -0.014082805 0.020604601 -0.055974048 0.016810236 0.034846082
0.0014318653 0.0038247725 -0.039513297 -0.053164672 -0.015064296 -0.049175683 -0.051356986 -0.11355862
-0.020235883 0.02653575 0.05549368 0.021576002 -0.13733698 -0.012344562 0.083612286 -0.02869513
0.006349664 -0.014850636 -0.058142 0.030626224 0.006272667 -0.0016628141 0.003157347 -0.04613397
0.010373967 0.009657967 0.01876858 0.04642873 -0.0980215 0.035015542 -0.02990886 0.057871036
0.013571225 0.03440622 -0.0099756755 -0.031938434 0.011694417 -0.07222859 0.049809836 0.057585135
-0.04020958 0.07176357 0.047612555 -0.0425062 -0.039359905 -0.075970575 -0.041210867 0.0011223566
-0.0022137992 0.03898672 0.04174481 0.031767834 0.028509112 -0.08109856 -0.07690007 -0.039853655
-0.009863271 0.03635525 0.016063454 0.006401341 0.06805735 -0.011703661 -0.07578916 0.0021967636
0.03835582 0.010363924 0.023559963 0.03695855 -0.032085553 -0.048718978 0.03173303 -0.089474015
0.060174182 -0.024624014 -0.097573 0.005685406 0.024020668 -0.051942922 -0.023009766 0.043017037
-0.043930292 -0.026764415 0.031969108 0.0055108024 -0.0245099 0.0317007 0.013240079 0.10782899
0.08248148 0.025712078 -0.08255665 0.009350926 -0.041127402 0.08129015 0.0032431453 0.0153791355
0.06443375 0.062341604 0.022140736 0.00051881303 -0.12600787 -0.064036004 0.015625956 -0.03559654
-0.046478752 0.033303216 0.0310953 0.04681758 0.042395916 -0.017289829 0.016424024 -0.032915227
0.034714855 0.035517547 0.045630462 -0.022287391 0.06794173 0.033922996 0.008915759 0.015437388
-0.09030474 0.027804589 -0.045896042 -0.01828443 0.021943295 0.0050896853 0.027316414 -0.060124114
0.05675842 0.0008875368 -0.0023164896 0.05079348 -0.011228991 0.046344895 -0.010628157 0.082618706
0.052628614 0.027673727 -0.03786516 0.009147858 0.0040765232 -0.04322602 0.05542626 -0.026530033
0.0012642668 -0.053029425 0.018573843 -0.0732392 -0.016150462 -0.0021984465 -0.053069428 0.020512465
0.042031825 -0.05175328 -5.7875655e-05 0.07184736 -0.023949757 -0.057041578 0.061347254 0.032482203
0.017231848 0.037138265 -0.06613564 0.049895823 0.040311392 -0.03440422 0.02542674 0.06369451
-0.06802765 -0.007615791 0.015097397 0.0463309 0.028963594 0.039884888 -0.0156194 -0.03437394
-0.01548409 0.03677484 0.041121382 -0.03173253 0.012970246 -0.058922995 -0.0017938708 -0.050017517
-0.041401856 -0.032318596 0.009169151 -0.05244992 -0.015689319 -0.0058295745 -0.036722865 -0.06588803
-0.055151943 0.02503184 -0.03204906 -0.014592697 0.042370703 0.037636656 0.035207585 0.08046579
-0.043555018 -0.037232704 0.039562013 -0.041846193 0.049327992 -0.0010755659 0.043474298 0.044380683
0.009297439 -0.075018734 -0.044041697 0.057851397 0.025799286 -0.013135343 0.04575865 -0.07869439
-0.0050287675 0.016672619 -0.05175699 -0.013865222 -0.013618963 -0.04792156 0.03992906 -0.051873412
0.056567255 0.005346521 -0.009390043 0.00046737868 -0.017100597 0.002996484 0.020065676 -0.057798956
-0.053845942 -0.033740412 -0.022956325 -0.068488605 0.025937319 -0.04111895 0.0017468177 0.046028946
00000000: c4b8 79bd 3056 56bd 9359 263d b902 b0bc
00000010: 06e5 9bbd 564d ccbd 1cb5 213c a074 513d
00000020: aba1 51bc d633 8ebc 769e f83c 91bb 66bc
00000030: fbca a83c 0b45 65bd 9fb5 893c c4ba 0e3d
00000040: 6dad bb3a 09a9 7a3b b2d8 21bd 33c3 59bd
00000050: 3dd0 76bc 716c 49bd b45b 52bd 6c91 e8bd
00000060: b9c5 a5bc 8061 d93c 574d 633d 28c0 b03c
00000070: 11a2 0cbe d940 4abc eb3c ab3d 0d12 ebbc
00000080: d810 d03b 1550 73bc 4e26 6ebd d9e3 fa3c
00000090: f28a cd3b c8f2 d9ba 7eeb 4e3b f9f6 3cbd
000000a0: 92f7 293c 733c 1e3c 91c0 993c 0d2c 3e3d
000000b0: 7fbf c8bd 756c 0f3d 6d03 f5bc 2e0a 6d3d
000000c0: d859 5e3c 89ed 0c3d 0471 23bc e0d1 02bd
000000d0: f199 3f3c 95ec 93bd 6605 4c3d 64de 6b3d
000000e0: cdb2 24bd c7f8 923d 6205 433d fb1a 2ebd
000000f0: da37 21bd 7696 9bbd bacc 28bd 0a1c 933a
00000100: 6315 11bb 8ab0 1f3d 9bfc 2a3d fd1e 023d
00000110: f18b e93c 0017 a6bd c97d 9dbd 963d 23bd
00000120: 8f99 21bc 3ee9 143d 8197 833c 57c2 d13b
00000130: a761 8b3d b6c0 3fbc 5937 9bbd 94f7 0f3b
00000140: fe1a 1d3d 73cd 293c d300 c13c d961 173d
00000150: 246c 03bd 8d8d 47bd 7efa 013d 273e b7bd
00000160: 3479 763d 4db8 c9bc 5ad4 c7bd a44c ba3b
00000170: fec6 c43c 1ac2 54bd fa7e bcbc a232 303d
00000180: 40f0 33bd 0c41 dbbc 0af2 023d f693 b43b
00000190: fcc8 c8bc 98d8 013d ebec 583c 72d5 dc3d
000001a0: 0dec a83d 23a2 d23c 7613 a9bd a034 193c
000001b0: 3575 28bd 737b a63d f38a 543b c5f8 7b3c
000001c0: d8f5 833d e959 7f3d 7d60 b53c f400 083a
000001d0: 3508 01be 4f25 83bd 0102 803c adcd 11bd
000001e0: 8160 3ebd f468 083d 92bb fe3c cac3 3f3d
000001f0: 57a7 2d3d 66a3 8dbc ad8b 863c 1ed2 06bd
00000200: 2a31 0e3d d97a 113d 02e7 3a3d 0c94 b6bc
00000210: 0925 8b3d d7f2 0a3d 6713 123c 19ed 7c3c
00000220: b1f1 b8bd 73c6 e33c 7dfd 3bbd 3bc9 95bc
00000230: 6dc2 b33c 60c7 a63b acc6 df3c b444 76bd
00000240: 847b 683d 96a9 683a 3fd0 17bb d30c 503d
00000250: cdf9 37bc 25d4 3d3d b921 2ebc ff33 a93d
00000260: 1a91 573d 03b4 e23c 7f18 1bbd e6e0 153c
00000270: 5b94 853b c40d 31bd a506 633d 8355 d9bc
00000280: c1b5 a53a 6235 59bd 2c28 983c 6ffe 95bd
00000290: f94d 84bc d013 10bb 545f 59bd c209 a83c
000002a0: 9029 2c3d 3ffb 53bd 83bf 72b8 b524 933d
000002b0: 4832 c4bc 6ea4 69bd 4247 7b3d 0f0c 053d
000002c0: ce29 8d3c 4b1e 183d 1f72 87bd 905f 4c3d
000002d0: 8f1d 253d 70eb 0cbd bd4b d03c 4472 823d
000002e0: 1552 8bbd e38d f9bb 135b 773c 78c5 3d3d
000002f0: 0f45 ed3c 565e 233d 83e8 7fbc b0cb 0cbd
00000300: fbb0 7dbc 37a1 163d e56e 283d f8f9 01bd
00000310: 2881 543c 3d59 71bd 5120 ebba 2bdf 4cbd
00000320: fe94 29bd 8160 04bd 353a 163c bad5 56bd
00000330: e386 80bc 0406 bfbb b76a 16bd 4ef0 86bd
00000340: 01e7 61bd 930f cd3c e045 03bd 3516 6fbc
00000350: e78c 2d3d e528 1a3d d435 103d 40cb a43d
00000360: bf66 32bd 5281 18bd c70b 223d ea66 2bbd
00000370: 260c 4a3d 01fa 8cba 1b12 323d 85c8 353d
00000380: 4954 183c 6ca3 99bd 1165 34bd 96f5 6c3d
00000390: 0659 d33c 9f35 57bc 6c6d 3b3d 862a a1bd
000003a0: 5cc8 a4bb 0495 883c 23ff 53bd f52a 63bc
000003b0: 1222 5fbc 6649 44bd a78c 233d 3779 54bd
000003c0: 11b3 673d de31 af3b b2d8 19bc 810a f539
000003d0: 8d16 8cbc a960 443b c660 a43c 99be 6cbd
000003e0: 908d 5cbd 6333 0abd e70e bcbc c143 8cbd
000003f0: 807a d43c 586c 28bd 7af5 e43a d988 3c3d

decoders.0.decoder_net.4.bias f4 [32]
-0.05609967 0.0059937737 -0.10129517 0.049807254 0.015487654 -0.018409168 -0.10059921 0.17679422
0.06559686 0.1075723 0.0015990998 -0.18109877 0.009324821 0.060151953 0.2177555 0.03399043
0.00371999 -0.09203167 0.10359064 -0.053067837 -0.06611887 -0.07114385 0.011986405 -0.14365774
-0.096644975 0.11873249 0.072847255 -0.0043366035 0.058777787 -0.016739354 -0.1380827 0.041169733
00000000: c4c8 65bd 6b67 c43b d873 cfbd b102 4c3d
00000010: eebf 7d3c d3ce 96bc f506 cebd 8b09 353e
00000020: a657 863d de4e dc3d e398 d13a f571 39be
00000030: 22c7 183c e561 763d 4cfb 5e3e 8d39 0b3d
00000040: 13cb 733b 1a7b bcbd 5427 d43d a95d 59bd
00000050: 5569 87bd deb3 91bd a062 443c 041b 13be
00000060: cded c5bd 052a f33d f130 953d 111a 8ebb
00000070: fac0 703d f820 89bc 8d65 0dbe 98a1 283d

decoders.0.decoder_net.6.weight f4 [32]
0.9692278 0.95012504 0.91250324 0.8990498 0.92717534 0.963941 0.86697036 0.87421495
0.89868957 0.90143275 0.8897834 0.9629211 0.88412523 0.916052 0.8701555 0.95787096
0.9573163 0.9399608 0.95883185 0.8176089 0.9306986 0.9873554 0.87581295 0.9724799
0.9053137 0.9142506 0.9122835 0.873275 0.86065507 0.9286612 0.8619626 0.9331157
00000000: 501f 783f 653b 733f d099 693f 2128 663f
00000010: 5d5b 6d3f d6c4 763f c5f1 5d3f 8dcc 5f3f
00000020: 8510 663f 4cc4 663f d8c8 633f ff81 763f
00000030: 0856 623f 6282 6a3f 83c2 5e3f 0837 753f
00000040: ae12 753f 45a1 703f 0176 753f d14e 513f
00000050: 4342 6e3f 53c3 7c3f 4735 603f 71f4 783f
00000060: a3c2 673f 540c 6a3f 698b 693f f38e 5f3f
00000070: e453 5c3f bebc 6d3f 95a9 5c3f ace0 6e3f

decoders.0.decoder_net.6.bias f4 [32]
0.022171978 -0.016389057 -0.058478046 0.010727504 0.049838804 0.0407583 0.038610235 -0.084096305
-0.029210927 -0.015472839 0.055003285 0.09546671 -0.09508957 -0.051632814 0.044558916 0.07010518
0.1379112 0.02722793 0.038122475 0.0282121 0.062261455 0.0011695672 -0.0894911 0.04045546
0.01974182 -0.050286017 -0.08162247 0.06630033 -0.14993301 -0.017307762 0.077670954 -0.016165897
00000000: 02a2 b53c 5842 86bc ad86 6fbd 6ac2 2f3c
00000010: c623 4c3d 2df2 263d c425 1e3d af3a acbd
00000020: c14b efbc ca81 7dbc 204b 613d 0d84 c33d
00000030: 52be c2bd ee7c 53bd 6983 363d 4e93 8f3d
00000040: 9838 0d3e 1c0d df3c 5026 1c3d 101d e73c
00000050: de05 7f3d 2a4c 993a 1c47 b7bd a0b4 253d
00000060: 99b9 a13c b6f8 4dbd ae29 a7bd 78c8 873d
00000070: 0a88 19be 02c9 8dbc f311 9f3d 586e 84bc

decoders.0.decoder_net.6.running_mean f4 [32]
0.029057328 0.030540034 0.027464503 0.03314034 0.030550588 0.031577937 0.028188966 0.036677957
0.032976527 0.036964286 0.034169592 0.024793636 0.030817088 0.03274042 0.03926532 0.035003185
0.03146416 0.028055092 0.03408298 0.029167384 0.028978886 0.028373135 0.031660132 0.025842775
0.026857488 0.035303265 0.034141175 0.031822197 0.031378217 0.029700821 0.02730994 0.031934407
00000000: a209 ee3c 182f fa3c 3dfd e03c 2abe 073d
00000010: 3a45 fa3c de57 013d 8cec e63c a03b 163d
00000020: 6512 073d dd67 173d 6af5 0b3d 061c cb3c
00000030: 1e74 fc3c d21a 063d acd4 203d 805f 0f3d
00000040: 90e0 003d cbd3 e53c 989a 0b3d 70f0 ee3c
00000050: 2165 ed3c c76e e83c 0eae 013d 3ab4 d33c
00000060: 3c04 dc3c 289a 103d 9ed7 0b3d fe57 023d
00000070: 7286 003d 234f f33c 18b9 df3c a7cd 023d

decoders.0.decoder_net.6.running_var f4 [32]
0.00037250848 0.00021605875 0.00015357688 0.0003296424 0.00016046525 0.00041382873 0.00015414429 0.00020394204
0.00033849868 0.00039053624 0.00069467135 0.00010973611 0.00022201329 0.00024036871 0.00041561818 0.00057628204
0.00026606693 0.00014558605 0.00029025428 0.0001701054 0.00014742523 0.00015536624 0.00029538237 9.741985e-05
0.00010526866 0.0003361706 0.00029727296 0.00028915505 0.0001978634 0.000288552 0.00018515755 0.00022201827
00000000: 3e4d c339 d48d 6239 7b09 2139 dbd3 ac39
00000010: 9042 2839 27f7 d839 cba1 2139 46d9 5539
00000020: 8678 b139 e3c0 cc39 9b1a 363a 2022 e638
00000030: 3dcc 6839 7c0b 7c39 54e7 d939 a211 173a
00000040: e67e 8b39 75a8 1839 452d 9839 525e 3239
00000050: 2996 1a39 cfe9 2239 8ddd 9a39 e24d cc38
00000060: aec3 dc38 0e40 b039 4ddb 9b39 bc99 9739
00000070: 8d79 4f39 cb48 9739 da26 4239 93cd 6839

decoders.0.decoder_net.7.weight f4 [32, 16, 3, 3]
0.010799055 -0.046687096 0.07438533 0.06468014 0.0033437882 0.036820985 0.05825555 0.07183952
0.061045695 -0.004198105 0.021489406 0.04438915 0.09747803 0.05443565 0.00970791 -0.097124934
0.053258266 -0.0839239 0.024719292 0.03348737 0.010263105 -0.09202773 0.03348231 0.061268527
0.024967313 -0.030306855 0.04865046 -0.06767163 -0.09313081 0.024949262 -0.071594864 -0.13922538
-0.02038379 -0.025235252 -0.061775923 -0.01652148 0.06374005 0.036401592 -0.0057564504 -0.056254875
-0.11730909 -0.11632955 0.046108466 0.057123613 0.025282018 0.017893862 -0.0052605486 0.07699935
0.05197167 0.035392195 0.022476934 0.049804848 0.0021290954 0.068457186 -0.054753598 0.023337683
-0.004667808 0.039790247 0.07492558 0.064189345 0.03653661 -0.08208422 0.030700605 -0.055303674
0.043522574 0.072268605 0.05803 -0.05669254 0.047049873 -0.01298074 -0.0861245 -0.022696814
0.0717954 0.02980777 -0.058034178 -0.078428045 -0.044441048 -0.028281305 0.071286224 0.0731659
0.042864684 -0.083796166 0.05340143 -0.01242056 -0.06908437 0.068153575 0.08704021 0.03002843
0.019398293 0.034997843 -0.010633555 0.024965785 0.087369524 0.04247594 -0.05629019 0.055732306
0.040772393 -0.050750993 0.044308957 -0.04530644 0.09794409 -0.071134485 0.0009228694 0.05828415
0.004286177 -0.022771893 -0.04985412 -0.02453495 -0.005547258 -0.045142554 0.043726265 -0.07390816
-0.023224572 -0.00705152 0.03215507 -0.04723655 0.047198925 0.00082314695 -0.031548966 -0.01011174
0.025425399 -0.050354607 0.058607053 0.076422386 -0.0012090686 -0.00088830985 -0.008537501 -8.054083e-05
0.038530253 0.09694753 0.104934804 0.04146417 0.05742749 -0.037519507 0.0059932126 -0.047482703
-0.014528023 0.041554477 -0.03883067 -0.039146475 0.011267793 0.07029156 -0.043174166 -0.056401365
-0.012088448 -0.09605885 -0.035380855 0.042786065 -0.014162129 0.049242526 -0.08829844 -0.06857219
-0.029468074 0.050557625 -0.09177052 -0.039416548 -0.017560184 -0.019373074 0.07080296 0.00104636
-0.058233608 0.018919019 0.0049129515 -0.01972961 -0.012971788 -0.0091902865 -0.0039554196 -0.050680615
0.04041421 0.04349643 0.019543376 -0.053914443 0.040850084 -0.011871578 -0.06050978 0.051997237
0.03702023 0.047981776 0.09265615 0.0670969 -0.06801635 0.052988667 0.0004685593 -0.13743795
-0.18073119 0.038860425 0.06653568 0.12669195 -0.070430644 0.042463988 -0.049654182 0.041092962
-0.06989285 0.115256704 0.013581573 0.0018183183 0.052910935 -0.036829874 -0.019151803 0.0326241
0.050864644 0.035395373 0.013596069 -0.019799069 -0.032910053 -0.0358606 -0.003380814 0.026570462
-0.014550982 -0.00491581 0.048065286 -0.090862766 0.0047990996 0.052526254 0.036808416 -0.04094911
-0.0102245845 0.009468267 0.05709304 -0.015342815 0.06369937 -0.001653154 -0.0075619905 0.09840447
0.019678095 -0.027583856 -0.02410682 -0.008286464 0.083219886 -0.10243323 0.01900665 0.024099136
0.008284489 -0.084036656 0.0102484645 -0.030313993 -0.033609908 0.01606551 0.026934829 -0.013924502
-0.03782635 -0.022657022 -0.0102796 0.022387683 0.031874828 0.028142748 -0.015606124 -0.08444172
-0.004793415 0.010948831 -0.0013291335 0.041203737 -0.0014724486 0.082377866 -0.011898471 0.034556992
00000000: 85ee 303c f83a 3fbd 5657 983d 0577 843d
00000010: 7523 5b3b 9ad1 163d 5f9d 6e3d 9920 933d
00000020: 0d0b 7a3d 4290 89bb 8d0a b03c 66d1 353d
00000030: 90a2 c73d ebf7 5e3d ed0d 1f3c 70e9 c6bd
00000040: 5725 5a3d 4be0 abbd 1d80 ca3c 0d2a 093d
00000050: 9526 283c 0979 bcbd bf24 093d b5f4 7a3d
00000060: 4088 cc3c 1546 f8bc b445 473d 6c97 8abd
00000070: 5ebb bebd 6562 cc3c 54a0 92bd 1991 0ebe
00000080: e8fb a6bc 29ba cebc c008 7dbd 0e58 87bc
00000090: 258a 823d d619 153d 9ba0 bcbb 836b 66bd
000000a0: c03f f0bd 303e eebd 3bdc 3c3d 73fa 693d
000000b0: 3c1c cf3c 2696 923c ae60 acbb d6b1 9d3d
000000c0: 3fe0 543d 68f7 103d 8c21 b83c 2b00 4c3d
000000d0: 4b88 0b3b 4833 8c3d 4f45 60bd ab2e bf3c
000000e0: 69f4 98bb 19fb 223d 9572 993d b475 833d
000000f0: 6aa7 153d c61b a8bd d67f fb3c 1b86 62bd
00000100: ba44 323d 9001 943d deb0 6d3d 7036 68bd
00000110: 5eb7 403d 2bad 54bc 0b62 b0bd abee b9bc
00000120: 7709 933d 6d2f f43c 3fb5 6dbd e29e a0bd
00000130: d107 36bd 32ae e7bc 83fe 913d 01d8 953d
00000140: e192 2f3d 539d abbd 75bb 5a3d 9b7f 4bbc
00000150: 1b7c 8dbd 1a94 8b3d 2342 b23d 2ffe f53c
00000160: 2be9 9e3c e659 0f3d 5d38 2ebc 0c85 cc3c
00000170: cbee b23d 40fb 2d3d 8b90 66bd 8f47 643d
00000180: f400 273d 46e0 4fbd 4f7d 353d 3f93 39bd
00000190: e996 c83d f5ae 91bd b8ec 713a 5cbb 6e3d
000001a0: 0f73 8c3b 1f8c babc d533 4cbd 85fd c8bc
000001b0: c6c5 b5bb 66e7 38bd 501a 333d 295d 97bd
000001c0: 7541 bebc 7010 e7bb 09b5 033d 1d7b 41bd
000001d0: a953 413d 75c8 573a 7d39 01bd b6ab 25bc
000001e0: ed48 d03c a240 4ebd f30d 703d 5783 9c3d
000001f0: 9c79 9eba 77dd 68ba e0e0 0bbc 07e8 a8b8
00000200: e6d1 1d3d 6d8c c63d 0fe8 d63d 55d6 293d
00000210: 1639 6b3d 0eae 19bd b662 c43b 397d 42bd
00000220: f206 6ebc 0735 2a3d e90c 1fbd 0e58 20bd
00000230: 8d9c 383c 05f5 8f3d 65d7 30bd 1e05 67bd
00000240: a00e 46bc 81ba c4bd 84eb 10bd 7140 2f3d
00000250: 4608 68bc 88b2 493d d0d5 b4bd 946f 8cbd
00000260: 0867 f1bc 8315 4f3d 2ff2 bbbd 3f73 21bd
00000270: 60da 8fbc 48b4 9ebc 2401 913d 0426 893a
00000280: 5d86 6ebd 0ffc 9a3c d3fc a03b fe9f a1bc
00000290: 9f87 54bc db92 16bc 779c 81bb 7a96 4fbd
000002a0: 5f89 253d 5029 323d 6e19 a03c 64d5 5cbd
000002b0: 6b52 273d 0281 42bc 1ad9 77bd 0efb 543d
000002c0: 86a2 173d 8a88 443d 82c2 bd3d 196a 893d
000002d0: 284c 8bbd a50a 593d f7a8 f539 89bc 0cbe
000002e0: 9911 39be 1c2c 1f3d dc43 883d 89bb 013e
000002f0: f13d 90bd b8ee 2d3d 2f62 4bbd 1851 283d
00000300: fc23 8fbd b50b ec3d 3f85 5e3c a354 ee3a
00000310: 23b9 583d ecda 16bd 3ee4 9cbc d9a0 053d
00000320: 7257 503d bdfa 103d 0cc2 5e3c a831 a2bc
00000330: b1cc 06bd 91e2 12bd a690 5dbb 4caa d93c
00000340: 3e67 6ebc ce14 a1bb 1be0 443d 4216 babd
00000350: c441 9d3b c525 573d 6cc4 163d 41ba 27bd
00000360: 0485 27bc ca20 1b3c 64da 693d 6e60 7bbc
00000370: d174 823d a5ae d8ba 93ca f7bb 4888 c93d
00000380: f533 a13c 8af7 e1bc aa7b c5bc f3c3 07bc
00000390: 306f aa3d 83c8 d1bd d6b3 9b3c 8d6b c53c
000003a0: aabb 073c 691b acbd 2de9 273c 0d55 f8bc
000003b0: 8baa 09bd d19b 833c 6ea6 dc3c 9823 64bc
000003c0: ceef 1abd 389b b9bc c46b 28bc 6066 b73c
000003d0: 2e8f 023d 9f8b e63c d4b0 7fbc c8ef acbd
000003e0: 1412 9dbb ba62 333c 5236 aeba 40c5 283d
000003f0: 2dff c0ba bab5 a83d cef1 42bc a28b 0d3d

decoders.0.decoder_net.7.bias f4 [16]
0.1300639 0.11878559 0.0053819674 -0.034106262 -0.06736701 0.018416792 -0.092616804 -0.010451682
0.0031553067 0.23338333 0.010684101 0.008244037 0.07171694 -0.27200502 -0.21644971 0.079248615
00000000: 792f 053e dc45 f33d 375b b03b 02b3 0bbd
00000010: b7f7 89bd d0de 963c e1ad bdbd 883d 2bbc
00000020: 43c9 4e3b 0afc 6e3e 5e0c 2f3c ff11 073c
00000030: 55e0 923d 3e44 8bbe fea4 5dbe 194d a23d

decoders.0.decoder_net.9.weight f4 [16]
0.9048225 0.9081022 0.91671383 0.9165142 0.96030533 0.90670544 0.92218053 0.90964
0.93450904 0.9166361 0.91759014 0.90036243 0.9129246 0.9235733 0.91526055 0.9206029
00000000: 73a2 673f 6379 683f c2ad 6a3f ada0 6a3f
00000010: 92d6 753f d91d 683f 0614 6c3f 2bde 683f
00000020: fc3b 6f3f aaa8 6a3f 30e7 6a3f 277e 663f
00000030: 6db5 693f 4d6f 6c3f 844e 6a3f a2ac 6b3f

decoders.0.decoder_net.9.bias f4 [16]
-0.030640768 0.051703114 0.08038427 0.018946486 -0.041026752 -0.057447832 -0.072637446 -0.0817143
0.012242469 0.09004758 -0.020469116 -0.0723249 0.049848 -0.039808802 -0.12760925 -0.07294292
00000000: 5902 fbbc a5c6 533d 82a0 a43d a935 9b3c
00000010: ab0b 28bd 6b4e 6bbd f1c2 94bd d459 a7bd
00000020: a394 483c de6a b83d d9ae a7bc 141f 94bd
00000030: 6b2d 4c3d 8e0e 23bd 00ac 02be 1963 95bd

decoders.0.decoder_net.9.running_mean f4 [16]
0.07210003 0.06893789 0.06092349 0.05994199 0.063268006 0.06488294 0.056814514 0.05973713
0.060136504 0.07615226 0.06241987 0.062360182 0.06467713 0.04758435 0.050498374 0.06956513
00000000: 2ea9 933d 4f2f 8d3d e98a 793d bb85 753d
00000010: a892 813d 59e1 843d 56b6 683d ecae 743d
00000020: b251 763d b7f5 9b3d faab 7f3d 646d 7f3d
00000030: 7175 843d cfe7 423d 62d7 4e3d 2a78 8e3d

decoders.0.decoder_net.9.running_var f4 [16]
0.0013576653 0.0009289815 0.00082705874 0.00081278716 0.0012742497 0.0012275098 0.0007316751 0.0005486461
0.0006916716 0.0010083686 0.000761812 0.0008435957 0.00071489526 0.00046428875 0.0006011615 0.0014251106
00000000: b0f3 b13a e586 733a f9ce 583a 3911 553a
00000010: ba04 a73a 65e4 a03a e3cd 3f3a 04d3 0f3a
00000020: 4c51 353a 3c2b 843a 57b4 473a c024 5d3a
00000030: cf67 3b3a c86b f339 4497 1d3a c7ca ba3a

decoders.0.decoder_net.10.weight f4 [16, 1, 3, 3]
0.08227905 0.2342426 0.20995066 -0.22729331 -0.09108289 0.24492644 0.032888867 0.23211047
-0.07288576 0.03658796 0.061502095 -0.1415368 0.00842089 -0.15183935 -0.01627672 0.07199795
-0.1760377 -0.021402745 -0.05748253 -0.07521819 0.1853717 -0.21225595 0.021216763 -0.17424148
0.17501745 0.033468094 -0.23793483 0.07953802 -0.06456187 -0.21427955 -0.15869886 -0.14834438
0.07804451 -0.16624422 -0.04892726 0.040492192 0.082922 0.19004382 0.15559883 0.03756886
0.16129404 0.18122895 0.18556988 0.19598745 0.08323936 0.099799216 0.09474398 0.12319763
-0.13017878 0.123674795 0.2295536 0.19584337 -0.040366445 0.2059295 -0.12538289 0.2000541
0.17324172 0.12206582 -0.09902064 0.12929454 -0.2461425 -0.041879438 0.21073227 -0.142685
0.0137925 0.122266576 0.16640049 -0.124713965 -0.0760303 0.035698015 0.16218165 0.076319
0.117929496 0.12022238 -0.03499683 0.19190373 -0.14252953 -0.07767859 0.22730072 -0.09811093
0.039067436 0.15843776 0.16481556 -0.016648525 -0.25835136 -0.19652465 0.045997985 0.06183946
-0.23909874 -0.04791173 -0.018494952 -0.14310955 0.055573408 -0.10526784 -0.008589902 0.10182894
0.25675124 -0.21938792 -0.064169325 0.13122137 -0.15202412 0.17569482 -0.18542522 0.083218515
0.15143758 0.1277283 -0.06546615 0.08684045 -0.049625937 0.074397944 -0.003057192 -0.14021826
-0.21943247 -0.14198646 -0.12551948 0.009168273 0.12927122 0.1424456 0.01622225 0.007186975
0.16197616 0.27375826 0.12715888 0.20833836 0.22766672 -0.08114579 -0.13891709 0.035396658
-0.19335762 -0.1198408 0.21694897 0.059517924 0.06843535 0.14706099 0.06167311 0.037879374
-0.010871795 -0.0042681894 -0.19589902 0.11289931 0.04403876 0.07067093 0.1695764 0.21689132
00000000: eb81 a83d 4bdd 6f3e 4efd 563e 94bf 68be
00000010: ab89 babd ffcd 7a3e 7ab6 063d 5eae 6d3e
00000020: 2145 95bd 42dd 153d 9fe9 7b3d 06ef 10be
00000030: c6f7 093c c67b 1bbe c256 85bc a973 933d
00000040: 3a43 34be cf54 afbc cd72 6bbd ff0b 9abd
00000050: 14d2 3d3e a059 59be c7ce ad3c 5c6c 32be
00000060: c637 333e d715 093d 30a5 73be d4e4 a23d
00000070: 0439 84bd 196c 5bbe f481 22be 97e7 17be
00000080: cdd5 9f3d ed3b 2abe f367 48bd 24db 253d
00000090: 02d3 a93d d99a 423e 4d55 1f3e cee1 193d
000000a0: 442a 253e 1594 393e 0806 3e3e efb0 483e
000000b0: 6679 aa3d 8863 cc3d 2209 c23d 0a4f fc3d
000000c0: 964d 05be 3649 fd3d 1910 6b3e 2a8b 483e
000000d0: 4957 25bd 2fdf 523e 5f64 00be fbda 4c3e
000000e0: 4766 313e a5fd f93d 55cb cabd ca65 043e
000000f0: c80c 7cbe c689 2bbd 33ca 573e 041c 12be
00000100: f0f9 613c e666 fa3d e464 2a3e 096a ffbd
00000110: c6b5 9bbd 1538 123d f212 263e 234d 9c3d
00000120: 0585 f13d 2737 f63d d658 0fbd 6982 443e
00000130: 43f3 11be f415 9fbd 85c1 683e 62ee c8bd
00000140: 2d05 203d 823d 223e 69c5 283e 7d62 88bc
00000150: a146 84be c23d 49be 6268 3c3d 604b 7d3d
00000160: 4dd6 74be 173f 44bd ba82 97bc 4f8b 12be
00000170: f1a0 633d aa96 d7bd a9bc 0cbc b18b d03d
00000180: e674 833e 3aa7 60be 356b 83bd e55e 063e
00000190: 36ac 1bbe 58e9 333e 1ce0 3dbe 786e aa3d
000001a0: 7412 1b3e 35cb 023e 1e13 86bd 68d9 b13d
000001b0: 9144 4bbd f35d 983d 2c5b 48bb 6095 0fbe
000001c0: e8b2 60be e664 11be 2e88 00be 8636 163c
000001d0: ad5f 043e 42dd 113e 86e4 843c b780 eb3b
000001e0: 14dd 253e 0b2a 8c3e f035 023e a756 553e
000001f0: 7721 693e c42f a6bd 4840 0ebe 16fc 103d
00000200: 8aff 45be 186f f5bd df27 5e3e 11c9 733d
00000210: d527 8c3d 2897 163e f19c 7c3d 6727 1b3d
00000220: 9d1f 32bc 2bdc 8bbb c199 48be c137 e73d
00000230: fd61 343d ecbb 903d 70a5 2d3e c218 5e3e

encoder.encoder_net.0.weight f4 [16, 1, 3, 3]
0.011248698 -0.1590046 0.17922959 -0.03257717 -0.12379451 0.034498267 -0.3619427 -0.33138558
0.18981403 -0.29222518 -0.2805176 -0.10571489 -0.2647921 -0.17520452 -0.27186018 -0.077176966
0.015473953 0.31782764 -0.23628396 -0.16935699 -0.022227442 0.24709138 -0.05430259 0.020203903
0.25346822 -0.04734593 0.22289619 0.058515266 0.034734283 0.14452937 -0.23877019 -0.2866864
-0.10509354 -0.04244806 -0.2839232 -0.1330896 0.22490153 -0.26253632 -0.28855613 0.033470027
-0.26937625 -0.026077863 -0.21607684 -0.035377827 -0.20788775 0.109441735 -0.3284568 -0.17660768
-0.041673396 0.19892731 0.27149585 0.20825122 -0.13003182 -0.27732655 -0.29746667 0.23304678
0.076626115 -0.15889612 -0.24620678 -0.2966774 -0.22769225 0.006064322 -0.23163147 0.2749063
0.2988885 0.024175048 0.29962164 -0.23905255 -0.081405945 -0.2415194 0.15924673 0.17664137
0.13597898 0.3505627 0.18465392 -0.09293277 -0.2279246 0.1776188 0.037149284 0.10132981
0.0135380365 0.39590922 -0.1803285 0.24439935 0.33500415 0.083466746 -0.21296217 -0.2664507
0.08866979 -0.050370533 0.17907117 -0.31215808 -0.34945095 -0.18530536 -0.025679357 -0.12243863
-0.33128786 -0.020054536 -0.36607918 0.2740568 -0.12799789 -0.03684249 0.2029234 -0.18814346
0.16349842 0.22709803 0.05161859 -0.11533451 -0.10538441 0.29626876 -0.21892045 0.19901554
0.28862098 0.28740418 -0.32739577 -0.053521834 0.27175534 -0.10306708 -0.3370246 -0.34944493
0.19701993 0.11331031 -0.30626136 -0.06849138 0.1256358 0.304748 0.15060858 0.32073107
0.25583202 0.13713452 0.11942107 0.3284855 -0.05472066 0.0022475617 -0.21597856 -0.011709915
-0.16085479 0.3217424 0.012342562 -0.21662207 0.17902945 0.07871882 -0.18790825 -0.27431917
00000000: 764c 383c 1ad2 22be f687 373e a36f 05bd
00000010: fa87 fdbd 0e4e 0d3d 8e50 b9be 5fab a9be
00000020: 9c5e 423e 8a9e 95be 01a0 8fbe 0c81 d8bd
00000030: d592 87be d068 33be 4231 8bbe f50e 9ebd
00000040: 7786 7d3c 4eba a23e 6cf4 71be eb6b 2dbe
00000050: 5316 b6bc 8605 7d3e 656c 5ebd a882 a53c
00000060: 96c6 813e ceed 41bd e63e 643e b4ad 6f3d
00000070: 8945 0e3d 82ff 133e 2c80 74be 8fc8 92be
00000080: 483b d7bd 04de 2dbd 625e 91be a448 08be
00000090: 964c 663e 296b 86be a1bd 93be de17 093d
000000a0: afeb 89be 3ea1 d5bc 3f43 5dbe 57e8 10bd
000000b0: 87e0 54be fd22 e03d 7d2b a8be a5d8 34be
000000c0: b9b1 2abd 9ab3 4b3e 8101 8b3e cf3f 553e
000000d0: 1027 05be bffd 8dbe 8d4d 98be d1a3 6e3e
000000e0: 27ee 9c3d aab5 22be a11d 7cbe 1ae6 97be
000000f0: 2828 69be 38b7 c63b cd30 6dbe 85c0 8c3e
00000100: ea07 993e c00a c63c 0268 993e 31ca 74be
00000110: 29b8 a6bd dd50 77be 9311 233e 7ae1 343e
00000120: 133e 0b3e f47c b33e eb15 3d3e 8953 bebd
00000130: 1165 69be b4e1 353e d929 183d 0186 cf3d
00000140: a4ce 5d3c 9db4 ca3e 09a8 38be d343 7a3e
00000150: aa85 ab3e 9df0 aa3d c112 5abe 3a6c 88be
00000160: 8298 b53d 5551 4ebd 6f5e 373e 2fd3 9fbe
00000170: 3ceb b2be b0c0 3dbe 845d d2bc 1bc1 fabd
00000180: 909e a9be 6949 a4bc bb6e bbbe 2c51 8c3e
00000190: e111 03be 27e8 16bd 27cb 4f3e aea8 40be
000001a0: 216c 273e 638c 683e 046e 533d 8034 ecbd
000001b0: c8d3 d7bd 8ab0 973e af2c 60be bbca 4b3e
000001c0: 21c6 933e a426 933e 6ba0 a7be b639 5bbd
000001d0: 8423 8b3e d514 d3bd 7d8e acbe 72ea b2be
000001e0: 98bf 493e 3c0f e83d 4ace 9cbe 3545 8cbd
000001f0: aca6 003e ee07 9c3e 2339 1a3e dd36 a43e
00000200: 6afc 823e fe6c 0c3e 0993 f43d 402f a83e
00000210: c522 60bd d44b 133b 7c29 5dbe f1da 3fbc
00000220: 1eb7 24be 6bbb a43e 7538 4a3c 2dd2 5dbe
00000230: 7f53 373e 5537 a13d 056b 40be 9073 8cbe

encoder.encoder_net.0.bias f4 [16]
-0.046202645 0.32512873 0.114995874 -0.10780522 0.26312566 -0.11396473 -0.061060812 -0.2153007
-0.32512838 -0.048740968 0.28383425 0.14392695 0.02097945 0.218387 -0.31593108 0.3118783
00000000: fc3e 3dbd 4677 a63e f582 eb3d fcc8 dcbd
00000010: 68b8 863e 5766 e9bd e71a 7abd c977 5cbe
00000020: 3a77 a6be 9ca4 47bd b952 913e 9661 133e
00000030: 18dd ab3c d7a0 5f3e b8c1 a1be 83ae 9f3e

encoder.encoder_net.2.weight f4 [16]
1.0338671 1.0126286 1.0453216 1.0272502 1.1343963 0.9590347 1.0644928 1.0396512
0.9813866 1.0078022 1.0232692 1.0449679 1.0397788 1.0274583 1.0704885 1.0270119
00000000: c255 843f d09d 813f 19cd 853f ef7c 833f
00000010: e633 913f 4c83 753f 4d41 883f 4a13 853f
00000020: 273c 7b3f aaff 803f 7cfa 823f 82c1 853f
00000030: 7917 853f c183 833f c405 893f 2075 833f

encoder.encoder_net.2.bias f4 [16]
0.081610814 0.025105858 -0.07431033 0.08345951 0.039085962 0.030950066 0.085634016 -0.10085631
-0.12895486 -0.06590693 0.009086564 -0.11332598 -0.020976245 0.11682989 -0.14431688 0.020679004
00000000: 9223 a73d cdaa cd3c 0430 98bd d2ec aa3d
00000010: 9a18 203d fe8a fd3c e360 af3d c18d cebd
00000020: be0c 04be 36fa 86bd d0df 143c 7417 e8bd
00000030: 60d6 abbc 8244 ef3d cec7 13be 0467 a93c

encoder.encoder_net.2.running_mean f4 [16]
0.053434122 0.07352354 0.07045877 0.04865161 0.06912614 0.052603543 0.049371284 0.054664817
0.049095947 0.061938707 0.06735386 0.07523754 0.06932025 0.07147509 0.05423635 0.07950819
00000000: bddd 5a3d 8293 963d b04c 903d e946 473d
00000010: 0192 8d3d d076 573d 8b39 4a3d 37e8 5f3d
00000020: d518 493d 71b3 7d3d d2f0 893d 2416 9a3d
00000030: c6f7 8d3d 8861 923d ef26 5e3d 31d5 a23d

encoder.encoder_net.2.running_var f4 [16]
7.273106e-05 0.00030843995 0.000114707385 7.9867736e-05 0.00020964045 1.929063e-05 0.00011543212 0.00015192562
0.00012799498 0.00012937891 0.00032797433 0.00016285048 0.00033675667 0.00013265027 0.00050305115 5.6320285e-05
00000000: 3187 9838 1cb6 a139 0f8f f038 aa7e a738
00000010: eed2 5b39 50d2 a137 2614 f238 394e 1f39
00000020: 6436 0639 e3a9 0739 f8f3 ab39 d8c2 2a39
00000030: b78e b039 0918 0b39 31df 033a 7239 6c38

encoder.encoder_net.3.weight f4 [32, 16, 3, 3]
0.06947163 0.069075756 0.09852961 -0.02163032 0.04528182 -2.967104e-05 0.1131635 0.12446924
0.106527194 0.041883554 -0.0021702214 0.07863836 -0.07549327 -0.017555036 0.06752479 -0.059154525
0.038442817 0.081711225 0.012756713 -0.080969594 -0.0391653 -0.054102566 -0.17671423 -0.024085728
-0.088320345 -0.01893162 -0.060527567 0.010972682 0.09284284 0.02123086 0.023212845 0.11268248
-0.031178616 0.028393432 0.074411914 0.06547193 -0.018811688 0.049710643 0.02129594 0.024537457
0.09376949 0.13515629 -0.00017208655 0.047386028 0.06371079 0.015586724 0.05486597 0.0640907
0.079379074 0.0014950944 0.01634479 -0.025695147 0.056512162 -0.025798168 0.07864895 0.105620906
0.023947764 0.028831571 0.16419567 0.1135204 -0.051737193 0.028038938 0.08315389 -0.04140665
-0.14436202 -0.06872772 -0.04043569 -0.087363906 -0.09064402 0.0021644768 -0.019312317 -0.10384609
-0.11023832 -0.10519039 -0.035761837 0.0015153352 -0.06930783 0.008487678 0.015921772 0.012802602
-0.08822122 0.022263208 -0.043130636 -0.056476172 -0.052450836 -0.10489955 -0.11595327 0.058281537
0.0053958837 -0.046015736 0.13132861 0.017702699 0.03960047 -0.0828515 0.12292278 0.03631748
0.05529513 0.08802916 0.044404723 0.07841879 -0.079156555 0.009823501 -0.01998144 -0.013103958
-0.012972903 -0.05996145 -0.09162087 -0.12792385 -0.007488383 -0.0671913 -0.092654586 -0.021957977
-0.11694175 -0.06734707 -0.018622816 -0.049883686 0.00023625733 -0.05503907 0.04757507 0.061208766
-0.04577895 0.09005372 -0.03938853 -0.025213609 0.02701616 0.044596914 -0.10797496 -0.047233123
-0.061417595 0.019031353 -0.05982471 -0.08711971 -0.005427251 -0.081930116 0.004697589 0.010112532
0.016032204 0.07706954 -0.009363769 0.05422642 -0.05150328 0.097536884 0.09105563 -0.02498728
-0.0008916705 0.034232505 -0.06082759 0.014248111 0.012821022 0.0014791277 -0.030279446 -0.014010093
0.02935609 -0.002098579 -0.060496926 -0.02126981 -0.003122545 0.033246048 -0.010406966 0.07019256
0.036295548 -0.0019190101 -0.03125939 0.04425952 -0.03313092 -0.09487356 -0.03373464 -0.055326037
0.0065251533 -0.009582168 -0.09549371 -0.0400849 0.01971615 0.05144195 -0.0541969 -0.05178449
-0.00469612 0.018056318 -0.0390292 0.11648838 0.036297098 0.030029394 -0.048818536 0.06149352
0.005582845 0.048678476 0.04920294 -0.04893068 -0.012084805 0.08079747 0.016972227 -0.025502956
-0.08862123 0.052716248 -0.026239049 -0.030653778 0.041772123 0.021639453 -0.01586825 -0.029969525
0.028398776 0.09863919 0.027178358 0.082561515 -0.029916072 0.07128882 -0.00558815 0.0424922
-0.004745877 -0.016418202 -0.079685785 0.03867188 -0.00071993505 0.008942686 -0.08064523 -0.03215236
-0.13859095 -0.027105547 0.050683957 0.052605726 -0.024941478 0.015551644 -0.06667741 -0.031262025
-0.059054088 -0.08120026 -0.087893106 0.053416714 -0.051289584 0.00010640621 0.017632617 0.0500678
0.01269636 -0.069762625 0.08345944 -0.049814694 0.07272142 0.08142498 -0.015789622 -0.033655666
0.09910028 -0.0137155615 0.117810346 -0.04263958 -0.027638033 -0.03574802 0.0433109 -0.011657172
-0.08214622 0.0457582 -0.014072622 -0.0412121 -0.03631424 -0.06924264 0.07005058 0.052394506
00000000: 2447 8e3d 9777 8d3d e4c9 c93d 1232 b1bc
00000010: 6e79 393d 13e6 f8b7 44c2 e73d bbe9 fe3d
00000020: ee2a da3d 178e 2b3d 463a 0ebb 260d a13d
00000030: 379c 9abd 94cf 8fbc 704a 8a3d 044c 72bd
00000040: 3776 1d3d 3758 a73d 8801 513c 63d3 a5bd
00000050: cb6b 20bd a79a 5dbd 93f4 34be 6f4f c5bc
00000060: 4ce1 b4bd 7c16 9bbc c1eb 77bd c4c6 333c
00000070: 6324 be3d 57ec ad3c dd28 be3c 12c6 e63d
00000080: 4c6a ffbc 5899 e83c 4665 983d 2616 863d
00000090: f81a 9abc 639d 4b3d d374 ae3c c702 c93c
000000a0: 380a c03d 6966 0a3e 2272 34b9 da17 423d
000000b0: cd7a 823d 755f 7f3c 24bb 603d fc41 833d
000000c0: 7f91 a23d 0bf7 c33a 82e5 853c a17e d2bc
000000d0: 4c79 673d ae56 d3bc b312 a13d c64f d83d
000000e0: 1a2e c43c 3030 ec3c e922 283e 627d e83d
000000f0: 61ea 53bd eab1 e53c 964c aa3d 059a 29bd
00000100: a3d3 13be 1ec1 8cbd e59f 25bd d9eb b2bd
00000110: 92a3 b9bd e5d9 0d3b dd34 9ebc 42ad d4bd
00000120: a1c4 e1bd 0f6e d7bd 017b 12bd 369e c63a
00000130: 43f1 8dbd e70f 0b3c 606e 823c 01c2 513c
00000140: 54ad b4bd 5561 b63c c0a9 30bd 8f53 67bd
00000150: b0d6 56bd 93d5 d6bd e878 edbd 9fb8 6e3d
00000160: f4cf b03b ff7a 3cbd 027b 063e 4005 913c
00000170: 1a34 223d 0cae a9bd f0be fb3d a3c1 143d
00000180: 257d 623d a248 b43d bae1 353d 089a a03d
00000190: d51c a2bd c0f2 203c 1eb0 a3bc fcb1 56bc
000001a0: 4d8c 54bc 239a 75bd b9a3 bbbd 78fe 02be
000001b0: 1c61 f5bb 989b 89bd b0c1 bdbd 37e1 b3bc
000001c0: 287f efbd 43ed 89bd e08e 98bc d652 4cbd
000001d0: d8bb 7739 a670 61bd 14de 423d 0bb6 7a3d
000001e0: b582 3bbd 166e b83d de55 21bd c58c cebc
000001f0: fe50 dd3c 41ab 363d fa21 ddbd 8577 41bd
00000200: 0491 7bbd a4e7 9b3c c10a 75bd d26b b2bd
00000210: 15d7 b1bb faca a7bd 3cee 993b 09af 253c
00000220: f855 833c a3d6 9d3d 7e6a 19bc 861c 5e3d
00000230: 1af5 52bd 6bc1 c73d 607b ba3d 20b2 ccbc
00000240: ffbe 69ba 6237 0c3d 5a26 79bd e970 693c
00000250: 440f 523c 4adf c13a 9a0c f8bc 978a 65bc
00000260: 2f7c f03c 5088 09bb a0cb 77bd 063e aebc
00000270: 9da3 4cbb 022d 083d fb81 2abc 1ec1 8f3d
00000280: a4aa 143d 4b87 fbba d909 00bd 7849 353d
00000290: 4ab4 07bd 124d c2bd 552d 0abd 8e9d 62bd
000002a0: f4d0 d53b 87fe 1cbc 3592 c3bd 1030 24bd
000002b0: c383 a13c cbb4 523d 92fd 5dbd f91b 54bd
000002c0: e9e1 99bb d8ea 933c 15dd 1fbd 7691 ee3d
000002d0: 44ac 143d 3400 f63c f2f5 47bd a1e0 7b3d
000002e0: 4cf0 b63b 1563 473d 0689 493d 896b 48bd
000002f0: 59ff 45bc 2579 a53d 5709 8b3c 93eb d0bc
00000300: 0c7f b5bd feec 573d 46f3 d6bc a21d fbbc
00000310: 3f19 2b3d 3945 b13c 22fe 81bc a682 f5bc
00000320: 8da4 e83c 5803 ca3d 26a5 de3c 0316 a93d
00000330: 8d12 f5bc dfff 913d cd1c b7bb 4d0c 2e3d
00000340: 4d83 9bbb 777f 86bc 4d32 a3bd 6866 1e3d
00000350: 06ba 3cba 5884 123c 5429 a5bd 31b2 03bd
00000360: c9ea 0dbe 740c debc fb99 4f3d 1a79 573d
00000370: 1252 ccbc 53cc 7e3c 2a8e 88bd 9c0c 00bd
00000380: b3e2 71bd 524c a6bd 4d01 b4bd 7ccb 5a3d
00000390: 0715 52bd 6626 df38 4772 903c e513 4d3d
000003a0: 6504 503c b5df 8ebd c8ec aa3d 7e0a 4cbd
000003b0: f8ee 943d 24c2 a63d 3d59 81bc 86da 09bd
000003c0: 16f5 ca3d 3cb7 60bc 8d46 f13d d7a6 2ebd
000003d0: 2869 e2bc 846c 12bd c566 313d b9fd 3ebc
000003e0: 473c a8bd f36c 3b3d db90 66bc 05ce 28bd
000003f0: 3ebe 14bd 16cf 8dbd ae76 8f3d 9f9b 563d

encoder.encoder_net.3.bias f4 [32]
0.11296722 -0.04360999 -0.025499752 0.0055061956 -0.13307764 0.063707426 -0.086500995 0.07673726
0.13191554 0.028823715 -0.06268934 0.12803991 -0.0044231266 -0.113822415 -0.1273162 -0.09822495
0.012072784 -0.015380435 0.07210671 -0.07215205 -0.05088106 -0.072874725 0.119052425 0.018177338
-0.0043656393 0.010218531 0.01742151 0.034574077 0.10479889 -0.10897305 0.10751658 0.026834225
00000000: 5c5b e73d 64a0 32bd dbe4 d0bc 516d b43b
00000010: 8145 08be 0a79 823d 6f27 b1bd 6d28 9d3d
00000020: de14 073e b61f ec3c 4563 80bd e51c 033e
00000030: e0ef 90bb ba1b e9bd 2e5f 02be 2a2a c9bd
00000040: edcc 453c 38fe 7bbc afac 933d 74c4 93bd
00000050: a968 50bd 583f 95bd c2d1 f33d a4e8 943c
00000060: a30d 8fbb a06b 273c 8eb7 8e3c 8c9d 0d3d
00000070: cda0 d63d 432d dfbd a731 dc3d 73d3 db3c
